model_weights/old_FA_FR/tube/feb17/no_transfer_basic/critic.pt (torch, 191627 bytes, 57 tensors)

gnn_base.gnn.embed_layer.layer_norm.weight f4 [16]
1.3078089 1.2224437 0.9732426 1.1492553 1.1305633 1.2467155 0.94943786 0.82971215
0.78531253 0.99673694 1.0596 1.2210033 1.0821129 0.6663599 0.84394073 0.78603166
00000000: 4866 a73f 0979 9c3f 6d26 793f cc1a 933f
00000010: 4cb6 903f 6094 9f3f 5c0e 733f 0468 543f
00000020: 3e0a 493f 272a 7f3f f9a0 873f d649 9c3f
00000030: ad82 8a3f 9096 2a3f 800c 583f 5f39 493f

gnn_base.gnn.embed_layer.layer_norm.bias f4 [16]
-0.020539956 -0.06164152 -0.028048964 0.0054246364 0.108639695 -0.028636545 0.109054424 0.08455407
-0.07418628 0.08323316 0.15298577 -0.03019666 0.030892536 0.31203622 -0.006772386 -0.033935074
00000000: 6943 a8bc d27b 7cbd f1c6 e5bc 26c1 b13b
00000010: 7d7e de3d 3097 eabc ed57 df3d af2a ad3d
00000020: faee 97bd 2676 aa3d 4da8 1c3e fc5e f7bc
00000030: 5812 fd3c 36c3 9f3e e4ea ddbb 81ff 0abd

gnn_base.gnn.embed_layer.entity_embed.weight f4 [4, 2]
-1.8897139 -1.2640346 0.48522976 -0.6398866 0.7975289 -1.8917067 -0.21673648 0.64907736
00000000: 25e2 f1bf e3cb a1bf 0970 f83e 9ccf 23bf
00000010: db2a 4c3f 7223 f2bf 2bf0 5dbe ef29 263f

gnn_base.gnn.embed_layer.lin1.weight f4 [16, 10]
0.83202463 0.24213232 1.524294 0.12550028 0.2382564 -0.02813437 -0.07219164 -0.42770752
-0.52642024 -0.118791685 -0.39154133 -0.22753862 -0.7271392 -1.0066302 0.44573098 -0.13244922
-0.0035229356 -0.4063649 0.06221876 -0.13022226 -0.23022908 -0.33887377 0.38414374 0.2642437
-0.43227994 0.6033902 0.21602899 -0.40393844 -0.14100641 0.2771579 0.5120058 -1.1795222
0.88249826 -1.1075215 0.053973004 -0.31458023 0.030256797 -0.03276373 0.20763317 -0.1410003
0.6284491 0.60204047 0.49764806 1.3377594 0.6968186 -0.12917082 0.06788857 0.23044477
-0.096673355 -0.030932179 -0.25222498 0.8888809 -0.21950202 1.0250213 -0.031103767 -0.2314878
-0.012319326 -0.38947877 0.35499978 -0.15970969 0.4714833 0.023756899 0.77080786 0.19623512
0.5274925 0.29168373 -0.0834575 -0.39683974 0.16231288 0.613572 0.8860999 0.45479438
-0.6374453 0.20569988 -0.12901933 0.27308175 -0.03837776 0.060454782 -0.4281112 1.0679442
0.5365862 -0.3777317 -0.5759547 0.52455693 0.57733035 0.068984054 0.07480363 -0.47283232
-0.24022402 -0.6410262 -0.2778688 -0.94148904 -0.23230593 0.4867228 -0.52741545 0.15546821
0.0035235602 0.05592368 -0.46857867 -0.08423092 -1.0846256 0.8517777 -0.07301082 0.011707145
0.38054156 0.021659698 0.15781477 0.6438798 -0.4816585 -0.055859838 -0.9171378 0.065597795
-1.6344886 -0.31680122 -0.08004618 0.032068714 -0.15747668 -0.11471047 0.00017748303 -0.0052855983
0.016744515 -0.29880133 0.24103673 0.1457493 0.07244271 0.8068376 0.2349917 -0.057879105
0.44104776 0.655245 -0.34996825 -0.3580968 -0.11294527 0.26460946 0.23332386 0.8343305
-0.19480273 0.6859286 -0.06810709 0.3213725 0.13162369 -0.071414955 0.3915375 0.11780479
-0.30373108 -0.10975717 0.3621956 0.16886899 0.8870294 0.33497924 -0.41494185 -0.35773212
-0.37079287 0.37918863 0.29223585 -0.8141205 -0.05319189 0.24059597 -0.25466755 0.27754086
00000000: 91ff 543f 89f1 773e 111c c33f 2583 003e
00000010: 7cf9 733e 0d7a e6bc 36d9 93bd 7bfc dabe
00000020: 7ac3 06bf 0e49 f3bd 1b78 c8be e2ff 68be
00000030: cb25 3abf 42d9 80bf da36 e43e c5a0 07be
00000040: 0de1 66bb 0f0f d0be 19d9 7e3d fc58 05be
00000050: 2cc1 6bbe dd80 adbe 7dae c43e f34a 873e
00000060: cc53 ddbe c877 1a3f b436 5d3e 05d1 cebe
00000070: fc63 10be a4e7 8d3e d012 033f 95fa 96bf
00000080: 68eb 613f 44c3 8dbf cc12 5d3d a910 a1be
00000090: 1add f73c 4333 06bd ca9d 543e 6262 10be
000000a0: 0ae2 203f 531f 1a3f bacb fe3e b33b ab3f
000000b0: b462 323f 5b45 04be 2a09 8b3d b7f9 6b3e
000000c0: aefc c5bd 7b65 fdbc a223 81be b38d 633f
000000d0: 23c5 60be e633 833f 54cd febc 230b 6dbe
000000e0: 00d7 49bc c369 c7be 88c2 b53e f08a 23be
000000f0: 4266 f13e d49d c23c aa53 453f dcf1 483e
00000100: c009 073f 9257 953e c4eb aabd 942e cbbe
00000110: 5935 263e 0e13 1d3f 71d7 623f cfda e83e
00000120: 9d2f 23bf fda2 523e a51d 04be 5fd1 8b3e
00000130: 0032 1dbd 6f9f 773d 6431 dbbe 65b2 883f
00000140: b75d 093f 0d66 c1be c471 13bf 5d49 063f
00000150: eccb 133f 8347 8d3d a532 993d 1417 f2be
00000160: 49fd 75be 4b1a 24bf d244 8ebe 6d05 71bf
00000170: 9be1 6dbe bb33 f93e b304 07bf 0f33 1f3e
00000180: 88eb 663b 3b10 653d 8be9 efbe 4381 acbd
00000190: 03d5 8abf 1a0e 5a3f b286 95bd 53cf 3f3c
000001a0: 58d6 c23e ae6f b13c 329a 213e 4ed5 243f
000001b0: f19b f6be 49cd 64bd 8bc9 6abf 2358 863d
000001c0: ec36 d1bf c533 a2be 40ef a3bd 7c5a 033d
000001d0: 9141 21be 53ed eabd bd1a 3a39 d032 adbb
000001e0: cb2b 893c 7dfc 98be 55d2 763e 4e3f 153e
000001f0: d85c 943d e98c 4e3f aaa1 703e a412 6dbd
00000200: 03d1 e13e 23be 273f 0a2f b3be 7758 b7be
00000210: da4f e7bd e47a 873e 73ec 6e3e af96 553f
00000220: 5e7a 47be 0499 2f3f bb7b 8bbd f08a a43e
00000230: 5cc8 063e 0142 92bd 9a77 c83e a343 f13d
00000240: a482 9bbe 5ec8 e0bd b471 b93e feeb 2c3e
00000250: 5c14 633f 6682 ab3e 4273 d4be aa28 b7be
00000260: 90d8 bdbe 0325 c23e f09f 953e 336a 50bf
00000270: bddf 59bd ca5e 763e c963 82be d619 8e3e

gnn_base.gnn.embed_layer.lin1.bias f4 [16]
-0.05389089 -0.14428739 -0.14613548 -0.10100676 0.23230162 0.017201995 0.13419108 0.12084513
-0.046918433 0.2932607 0.1815278 -0.08112195 -0.11644387 0.021186862 -0.028211635 -0.032236625
00000000: b2bc 5cbd 13c0 13be 8aa4 15be a2dc cebd
00000010: 7ae0 6d3e 33eb 8c3c 6369 093e a77d f73d
00000020: 8b2d 40bd 4426 963e 6ce2 393e 4423 a6bd
00000030: 207a eebd 1290 ad3c 161c e7bc 8d0a 04bd

gnn_base.gnn.embed_layer.layers.0.weight f4 [16, 16]
0.48881447 -1.1134396 -0.11546495 0.109638944 0.666034 0.35672745 -0.095914 -0.025937706
0.07011557 -0.11775086 -0.12807845 0.8607328 -0.49010843 -0.12525561 0.08589575 0.03059437
0.24184677 0.36591884 0.5569853 0.01344115 -0.874167 -0.11386016 0.0429028 -0.40133396
-0.44319117 0.45165035 0.07466856 0.3410828 0.253611 0.27880368 -0.1487746 0.63238925
0.40441996 -0.062435366 -0.19826184 -0.22835593 -0.3571652 0.0006820416 -0.24670571 0.25825968
0.71935475 0.44927987 0.43404177 -0.108456 -0.16384193 0.38088778 -0.093 0.51360106
-1.0908988 0.6962039 -0.39982858 -0.084875524 0.27953413 0.4248169 0.3514811 -0.23348731
0.5020297 -0.01490157 -0.078608595 0.2969343 -0.07373189 0.43202937 -0.3058227 0.47586188
-0.2815569 -0.79955614 0.46368626 0.72186965 0.04123059 0.010435533 -0.17119971 -0.5594695
0.36086106 0.22765972 -0.10052359 -0.55496913 -0.15184982 0.53533775 0.22402327 -0.08556649
-0.85887194 -0.122222885 0.37694845 -1.0890087 0.6015591 0.53630394 0.115249395 0.07610621
0.2100135 0.23424289 0.17320323 0.1374753 -0.0035322208 0.16907467 0.024820128 0.5800655
0.010327329 0.6997021 0.18358871 0.9200622 -0.5896948 -0.7347739 0.6226428 0.1270028
0.080453865 -0.07477343 -0.19174227 0.05663002 -0.21913823 -0.2499028 0.5053932 0.120524615
-1.0425016 -0.6689937 0.120809406 -0.011142207 -0.51380914 -0.010818263 -0.03820263 0.16978759
-0.41270238 1.0413265 -0.3506535 0.15591028 -0.2289584 -0.19506207 -0.68585056 -0.065352775
0.50643796 -0.32028443 0.67481846 -0.01865005 -0.027914101 0.061014347 0.48455194 0.69516504
-0.003783308 -0.06413785 -0.8870374 0.25194007 0.6519279 0.05269314 0.2452304 -0.30696738
0.46001145 -0.4858582 0.097329766 -0.1936451 -0.05597846 -0.48894703 0.15422769 0.3454221
-0.45339003 -0.56640285 0.6861269 0.8248821 0.6200751 0.61254805 -0.3358508 -0.81175804
-0.038534075 -0.18732953 -0.596869 0.3269805 0.513271 -0.8573505 0.09186518 0.26578736
-0.37336776 0.01813722 -0.8193698 0.36086717 -0.34367415 0.2373986 0.1732565 0.26814488
0.21983534 -0.7757235 -0.13950561 -0.2665715 -0.1945979 0.9690158 -0.37107986 0.5387385
-0.3178207 0.059713278 -0.109525785 -0.64874333 -0.6038149 0.10884051 0.39451241 0.15157785
0.37244976 -0.01261352 0.26994365 0.25593615 0.7845759 -0.34016258 0.49081007 -0.18767053
0.15970913 -0.20212884 0.45701402 -0.24856104 -0.70622915 -0.29821393 -0.18912224 0.14463072
0.117421046 0.030029079 0.24224478 -0.3558441 -0.5627218 0.064150274 0.16861306 -0.9474667
0.16442333 0.39887086 -0.1705396 0.15888861 -0.4591354 0.3668598 0.21356092 -0.5969804
-0.1767775 -0.37446824 0.15944453 -0.59023464 -0.4524392 -0.054241832 0.095039174 0.04744253
0.56524944 -0.50484264 -0.2671576 -0.46899733 -0.2831204 -0.51496315 -0.43705425 0.28251874
-0.39036104 0.4047252 0.76478773 -0.34476742 -0.14972162 0.054219905 -0.53267217 0.7332573
-0.47307354 -0.17886958 0.073715776 0.23593214 -0.6441507 0.21952593 0.078709014 -0.35821363
00000000: e445 fa3e 3085 8ebf e378 ecbd 628a e03d
00000010: 3481 2a3f fba4 b63e 8f6e c4bd 507b d4bc
00000020: c198 8f3d 5d27 f1bd ff26 03be fc58 5c3f
00000030: 7eef fabe 0243 00be 1cea af3d 0ba1 fa3c
00000040: aea6 773e b759 bb3e 9796 0e3f 4538 5c3c
00000050: 69c9 5fbf 842f e9bd d9ba 2f3d a57b cdbe
00000060: f4e9 e2be b73e e73e d4eb 983d 68a2 ae3e
00000070: 4dd9 813e 5bbf 8e3e 5e58 18be 43e4 213f
00000080: 2210 cf3e 3abc 7fbd 2705 4bbe 23d6 69be
00000090: 5bde b6be 09cb 323a 6ca0 7cbe 9d3a 843e
000000a0: a227 383f 0308 e63e b93a de3e 2e1e debd
000000b0: 2ec6 27be b903 c33e c976 bebd 5c7b 033f
000000c0: 92a2 8bbf 6b3a 323f 55b6 ccbe 38d3 adbd
000000d0: 191f 8f3e 9a81 d93e 55f5 b33e 4c17 6fbe
000000e0: 0585 003f b725 74bc 8bfd a0bd c607 983e
000000f0: bf00 97bd f432 dd3e cb94 9cbe 2ba4 f33e
00000100: 3a28 90be b6af 4cbf 4968 ed3e 73cc 383f
00000110: 68e1 283d ccf9 2a3c fa4e 2fbe 6539 0fbf
00000120: c8c2 b83e a11f 693e 50df cdbd 7512 0ebf
00000130: 857e 1bbe e50b 093f 5b66 653e 7c3d afbd
00000140: 08df 5bbf fe4f fabd 63ff c03e a364 8bbf
00000150: c7ff 193f 374b 093f e007 ec3d 93dd 9b3d
00000160: c70d 573e 5edd 6f3e 305c 313e 53c6 0c3e
00000170: d57c 67bb e921 2d3e 9553 cb3c 2c7f 143f
00000180: f533 293c ad1f 333f aefe 3b3e 3289 6b3f
00000190: 3df6 16bf 241a 3cbf 8565 1f3f 060d 023e
000001a0: ffc4 a43d d022 99bd 1658 44be e1f4 673d
000001b0: c665 60be 85e6 7fbe 7361 013f 9cd5 f63d
000001c0: b170 85bf 2c43 2bbf ec6a f73d ce8d 36bc
000001d0: ff88 03bf 153f 31bc 5c7a 1cbd ccdc 2d3e
000001e0: ba4d d3be 304a 853f db88 b3be f2a6 1f3e
000001f0: 1274 6abe 5abe 47be e793 2fbf add7 85bd
00000200: eba5 013f 52fc a3be e7c0 2c3f fdc7 98bc
00000210: 1dac e4bc 2eea 793d 3117 f83e 56f6 313f
00000220: 60f1 77bb b55a 83bd e214 63bf 4afe 803e
00000230: bfe4 263f c3d4 573d ae1d 7b3e d42a 9dbe
00000240: 9f86 eb3e 68c2 f8be d454 c73d e74a 46be
00000250: ab49 65bd 4457 fabe dded 1d3e 2adb b03e
00000260: bd22 e8be c7ff 10bf 03a6 2f3f 792b 533f
00000270: 3ebd 1e3f f3cf 1c3f a3f4 abbe 60cf 4fbf
00000280: e8d5 1dbd 50d3 3fbe 68cc 18bf fd69 a73e
00000290: ba65 033f 537b 5bbf d023 bc3d 4815 883e
000002a0: 0f2a bfbe 8294 943c 38c2 51bf 95c3 b83e
000002b0: 0ff6 afbe 9e18 733e 276a 313e 494a 893e
000002c0: 841c 613e d195 46bf 8fda 0ebe 0f7c 88be
000002d0: ac44 47be 6b11 783f 2efe bdbe c4ea 093f
000002e0: 65b9 a2be e995 743d 0e4f e0bd 0b14 26bf
000002f0: 9d93 1abf c6e7 de3d 88fd c93e 3937 1b3e
00000300: bcb1 be3e f0a8 4ebc 0e36 8a3e 100a 833e
00000310: f7d9 483f ca29 aebe 754b fb3e b42c 40be
00000320: ca8a 233e ddfa 4ebe befd e93e c986 7ebe
00000330: 6fcb 34bf 7faf 98be 43a9 41be 131a 143e
00000340: 727a f03d 8bff f53c 040f 783e 3331 b6be
00000350: 890e 10bf 3861 833d e7a8 2c3e 2d8d 72bf
00000360: 975e 283e cd38 cc3e efa1 2ebe b2b3 223e
00000370: cc13 ebbe 0cd5 bb3e b7af 5a3e b5d3 18bf
00000380: 2905 35be 4dba bfbe 6d45 233e 9e19 17bf
00000390: 1ca6 e7be af2c 5ebd e6a3 c23d 1953 423d
000003a0: 30b4 103f 5e3d 01bf e2c8 88be 6b20 f0be
000003b0: 28f5 90be a0d4 03bf 93c5 dfbe 4ca6 903e
000003c0: 67dd c7be 2438 cf3e 21c9 433f 5b85 b0be
000003d0: a050 19be b115 5e3d 345d 08bf c0b6 3b3f
000003e0: b236 f2be 9629 37be 4cf8 963d 3298 713e
000003f0: 0fe7 24bf 68cb 603e 3132 a13d c767 b7be

gnn_base.gnn.embed_layer.layers.0.bias f4 [16]
-0.01676177 -0.02987212 -0.048547164 0.026597884 0.046076354 0.018355843 -0.07326908 0.060570545
0.12348197 0.15668751 0.07685022 0.034054317 0.071309604 0.16025326 0.07804787 -0.16200961
00000000: fb4f 89bc 60b6 f4bc 64d9 46bd cee3 d93c
00000010: 8fba 3c3d fe5e 963c 190e 96bd d218 783d
00000020: 1de4 fc3d b172 203e a663 9d3d 8a7c 0b3d
00000030: c50a 923d 6e19 243e 90d7 9f3d d9e5 25be

gnn_base.gnn.embed_layer.layers.2.weight f4 [16]
1.3078089 1.2224437 0.9732426 1.1492553 1.1305633 1.2467155 0.94943786 0.82971215
0.78531253 0.99673694 1.0596 1.2210033 1.0821129 0.6663599 0.84394073 0.78603166
00000000: 4866 a73f 0979 9c3f 6d26 793f cc1a 933f
00000010: 4cb6 903f 6094 9f3f 5c0e 733f 0468 543f
00000020: 3e0a 493f 272a 7f3f f9a0 873f d649 9c3f
00000030: ad82 8a3f 9096 2a3f 800c 583f 5f39 493f

gnn_base.gnn.embed_layer.layers.2.bias f4 [16]
-0.020539956 -0.06164152 -0.028048964 0.0054246364 0.108639695 -0.028636545 0.109054424 0.08455407
-0.07418628 0.08323316 0.15298577 -0.03019666 0.030892536 0.31203622 -0.006772386 -0.033935074
00000000: 6943 a8bc d27b 7cbd f1c6 e5bc 26c1 b13b
00000010: 7d7e de3d 3097 eabc ed57 df3d af2a ad3d
00000020: faee 97bd 2676 aa3d 4da8 1c3e fc5e f7bc
00000030: 5812 fd3c 36c3 9f3e e4ea ddbb 81ff 0abd

gnn_base.gnn.gnn1.lin_key.weight f4 [48, 16]
-0.436385 -0.010456244 0.16885798 0.25550148 -0.3508394 0.51357776 -0.10055845 0.14204073
-0.031898618 0.20131736 -0.03697082 -0.15473224 -0.479407 -0.3103363 0.039234154 0.15453543
0.49908316 -0.09529247 -0.1865439 0.06333882 -0.09099357 0.143014 0.05580627 0.34813517
-0.1528718 0.3249373 0.033651162 0.1887415 0.20435046 -0.15166402 -0.052380778 -0.14021833
0.169901 0.006853426 0.28935158 -0.16928725 -0.10032452 0.21506779 -0.1799411 0.11605118
-0.26841515 0.18836015 0.051129535 -0.29504278 0.06317352 0.17536363 0.10676105 0.056774203
-0.02653809 0.31800407 -0.034292895 0.082666844 0.26430807 -0.30938554 0.14923094 -0.086849995
0.33981645 -0.4209356 0.12360358 0.1931708 0.049010847 0.018424988 -0.058597613 -0.007818415
-0.283175 -0.18382439 0.08562787 0.091417216 -0.03376327 0.27057344 -0.024356345 0.24682845
-0.23555888 0.0117089115 -0.10576084 0.28506228 -0.15155393 0.2885438 0.23100811 0.13729115
-0.15149283 -0.0779517 -0.19889528 -0.044665806 -0.105700545 0.0018784184 -0.08692555 -0.27729523
-0.043591212 0.17411488 -0.14694555 0.32869652 0.04930641 -0.21766166 -0.05322002 -0.018585933
0.16317597 -0.045767333 0.07248871 -0.13706215 0.1314516 -0.36136276 0.14380924 -0.27308372
0.23804936 0.0010982339 0.104940675 0.17412096 0.15791258 0.1852284 0.011221608 0.1557967
0.059163716 0.10878892 -0.19241571 0.01308274 0.042185 -0.11982116 -0.11147248 -0.067290045
0.13766989 0.03976253 -0.007064718 0.34232974 0.124187045 0.09746612 0.35029373 -0.13740084
0.2908614 0.030424733 -0.2269436 0.11064502 -0.028438002 -0.03237016 -0.2955238 -0.10839461
-0.14553878 0.17025307 0.208365 -0.23441313 0.22624932 0.009064192 0.042273723 -0.14125593
-0.1649896 -0.07489283 0.13058813 -0.1688594 0.16854684 -0.15081462 -0.16732752 -0.05345731
0.10503041 0.23547357 -0.247464 0.3034713 -0.01246558 -0.12270945 0.28556952 0.0074979924
0.1310105 0.12640104 0.14484778 -0.19441968 0.03563423 0.18976136 -0.2829298 0.21789229
-0.03968069 -0.0053734966 -0.18987112 -0.14578173 0.20156033 0.30759773 -0.13643332 0.22913375
-0.14543776 -0.0055375895 -0.18437211 -0.34691685 0.16838379 -0.336427 0.10376624 -0.06717267
-0.12911536 -0.41328186 -0.33323702 -0.030977767 -0.29671672 0.29348436 -0.021162214 -0.060384005
-0.12020146 0.13107955 0.2825129 0.06501324 -0.31789398 -0.12248734 -0.097669214 0.08283078
0.23884223 -0.027004607 0.10945952 -0.030256758 -0.13973927 -0.27753028 -0.08564938 0.13342306
0.2137989 0.086536124 -0.08760373 -0.06149941 -0.02397427 -0.16342142 0.24967471 -0.1349744
-0.17340745 0.053912055 0.067933135 0.16913675 -0.290743 -0.119115375 0.27321157 -0.3131946
-0.069151536 -0.11399036 -0.06726936 -0.08422691 -0.13992746 0.13707034 -0.18798378 -0.09693961
-0.10811135 0.034214046 0.084213294 -0.007863955 0.07848803 0.24540004 -0.14914478 0.051577415
-0.061118 0.24266231 0.10565096 -0.23920774 -0.04788802 0.1275287 -0.036100592 -0.32975206
-0.07395254 0.07726552 -0.3491451 -0.07243468 -0.14351071 0.01597172 -0.11351971 0.23776294
00000000: db6d dfbe ab50 2bbc 1be9 2c3e 17d1 823e
00000010: 39a1 b3be d579 033f 97f1 cdbd 2073 113e
00000020: 20a8 02bd 2326 4e3e b76e 17bd 2172 1ebe
00000030: d674 f5be 66e4 9ebe feb3 203d 893e 1e3e
00000040: d487 ff3e b328 c3bd 5d05 3fbe c9b7 813d
00000050: d65a babd 4372 123e 1e95 643d c63e b23e
00000060: 6d8a 1cbe 2f5e a63e cdd5 093d 7445 413e
00000070: 3f41 513e d04d 1bbe 3a8d 56bd 6595 0fbe
00000080: 87fa 2d3e b492 e03b e425 943e a359 2dbe
00000090: f176 cdbd bb3a 5c3e 7b42 38be 3eac ed3d
000000a0: b66d 89be 7ce1 403e 346d 513d d90f 97be
000000b0: 1e61 813d 8692 333e 8aa5 da3d 118c 683d
000000c0: 6966 d9bc 6ed1 a23e b576 0cbd 3c4d a93d
000000d0: 6353 873e c867 9ebe ffcf 183e 69de b1bd
000000e0: 6cfc ad3e df84 d7be e023 fd3d 91ce 453e
000000f0: 99bf 483d 00f0 963c 0d04 70bd cf18 00bc
00000100: 50fc 90be 763c 3cbe aa5d af3d f338 bb3d
00000110: 5b4b 0abd 9a88 8a3e f586 c7bc 99c0 7c3e
00000120: 5936 71be bcd6 3f3c 2499 d8bd aff3 913e
00000130: f430 1bbe 03bc 933e 648d 6c3e 0d96 0c3e
00000140: f020 1bbe 24a5 9fbd 34ab 4bbe 7ef3 36bd
00000150: 8779 d8bd 4335 f63a 0606 b2bd a4f9 8dbe
00000160: b38c 32bd 2c4b 323e e578 16be e94a a83e
00000170: 85f5 493d b3e2 5ebe 3cfd 59bd 8741 98bc
00000180: 9a17 273e 8776 3bbd f674 943d 055a 0cbe
00000190: 409b 063e 8a04 b9be bb42 133e a1d1 8bbe
000001a0: 36c3 733e 9df2 8f3a 23eb d63d c44c 323e
000001b0: d6b3 213e 84ac 3d3e d6da 373c 2c89 1f3e
000001c0: a755 723d bacc de3d a008 45be fd58 563c
000001d0: 2eca 2c3d cc64 f5bd af4b e4bd 5dcf 89bd
000001e0: 56f9 0c3e 09de 223d 267f e7bb d845 af3e
000001f0: c755 fe3d 519c c73d b359 b33e ceb2 0cbe
00000200: c9eb 943e 4a3d f93c e763 68be db99 e23d
00000210: d0f6 e8bc 9396 04bd e54e 97be fefd ddbd
00000220: 1e08 15be d256 2e3e a25d 553e ff09 70be
00000230: e7ad 673e fa81 143c 3627 2d3d 65a5 10be
00000240: 09f3 28be 6961 99bd e5b8 053e 7be9 2cbe
00000250: 8b97 2c3e 266f 1abe e857 2bbe 0df6 5abd
00000260: 2f1a d73d fc1f 713e 3467 7dbe 9760 9b3e
00000270: 6f3c 4cbc 184f fbbd 2b36 923e b8b1 f53b
00000280: 9e27 063e 466f 013e fa52 143e f415 47be
00000290: 33f5 113d cd50 423e 2ddc 90be 281f 5f3e
000002a0: 3888 22bd 2814 b0bb 936d 42be ce47 15be
000002b0: d565 4e3e 737d 9d3e 2db5 0bbe 0aa2 6a3e
000002c0: a3ed 14be ab74 b5bb 0bcc 3cbe 169f b1be
000002d0: cd6c 2c3e 2940 acbe 6583 d43d d391 89bd
000002e0: d136 04be ae99 d3be 0b9e aabe 16c5 fdbc
000002f0: 41eb 97be 9543 963e 615c adbc 3855 77bd
00000300: 2f2c f6bd b839 063e 88a5 903e a925 853d
00000310: 00c3 a2be a4da fabd cc06 c8bd 2fa3 a93d
00000320: 0f93 743e c438 ddbc 502c e03d 05dd f7bc
00000330: d017 0fbe 7318 8ebe f168 afbd 0ea0 083e
00000340: 19ee 5a3e da39 b13d 9669 b3bd cee6 7bbd
00000350: b065 c4bc f257 27be baaa 7f3e bb36 0abe
00000360: b991 31be e3d2 5c3d 8720 8b3d 2f32 2d3e
00000370: 44dc 94be c3f2 f3bd 63e2 8b3e 0b5b a0be
00000380: 529f 8dbd c773 e9bd 85c4 89bd 287f acbd
00000390: 2549 0fbe 2b5c 0c3e d27e 40be 4688 c6bd
000003a0: 7c69 ddbd 0724 0c3d 0578 ac3d d1d7 00bc
000003b0: 55be a03d 264a 7b3e 69b9 18be d742 533d
000003c0: de56 7abd 787c 783e 885f d83d e0f2 74be
000003d0: 3a26 44bd e296 023e 37de 13bd 43d5 a8be
000003e0: 6e74 97bd 633d 9e3d 26c3 b2be a258 94bd
000003f0: 79f4 12be 20d7 823c 067d e8bd 2178 733e

gnn_base.gnn.gnn1.lin_key.bias f4 [48]
-0.08213873 0.06339767 -0.029075982 -0.24716812 -0.14453712 -0.15945062 0.14767714 0.11599091
0.14522031 0.15603136 -0.115587376 0.17217271 0.2343778 0.07529905 0.18040152 -0.014143301
0.13858657 0.24774115 -0.12074434 0.21692213 -0.12827119 0.13421494 -0.068157054 -0.12696567
0.21150823 0.22641584 -0.033386644 -0.24708663 -0.23995683 0.13122796 -0.22934699 0.0059381854
-0.18958545 -0.0122537995 0.023888838 -0.087142095 -0.07596055 0.17650461 -0.17607673 -0.14010866
0.010659605 0.08906941 0.15742782 0.0885649 -0.07140219 0.12629165 0.12342984 0.19196954
00000000: 5a38 a8bd a3d6 813d c130 eebc a419 7dbe
00000010: 8a01 14be 0647 23be ad38 173e a48c ed3d
00000020: a2b4 143e afc6 1f3e 13b9 ecbd 0b4e 303e
00000030: bc00 703e 6336 9a3d 2dbb 383e 4eb9 67bc
00000040: a3e9 0d3e dbaf 7d3e cf48 f7bd d620 5e3e
00000050: 8659 03be a46f 093e ed95 8bbd 4a03 02be
00000060: 9d95 583e 8ed9 673e 6fc0 08bd 4704 7dbe
00000070: 3eb7 75be 9f60 063e f0d9 6abe 1c95 c23b
00000080: b022 42be 29c4 48bc 86b2 c33c 8e77 b2bd
00000090: 3491 9bbd a0bd 343e 754d 34be a578 0fbe
000000a0: a0a5 2e3c 066a b63d c234 213e 8461 b53d
000000b0: 503b 92bd 9952 013e c9c8 fc3d aa93 443e

gnn_base.gnn.gnn1.lin_query.weight f4 [48, 16]
-0.15586625 0.31758946 0.108320035 0.4076566 -0.19322437 0.27128458 -0.37822953 0.44052035
-0.13313358 -0.13481683 -0.31895158 -0.0034588296 -0.55384827 0.025732933 0.044726104 0.28831676
0.074610345 -0.15214933 0.2674172 0.21534608 -0.30674872 -0.44266504 -0.046809006 0.25769582
0.19242293 0.20565648 0.24011421 0.29212412 0.14021794 -0.3737565 -0.19329934 0.30971545
0.15296702 0.24337915 0.1588754 0.034415293 0.011961787 -0.034336343 0.20615615 0.16570494
-0.34505302 -0.20379554 0.28226534 0.29584876 0.02001804 -0.2799437 0.14152427 0.2714231
-0.106645636 0.08470835 -0.29202154 -0.13547672 0.25651753 0.018527158 0.2848319 -0.24552576
0.11849087 0.30398083 0.085807085 -0.44417903 0.33780873 0.3068009 0.0067867264 -0.15956913
0.06869528 0.07763834 0.04955178 0.33880258 -0.007983246 0.28317457 0.07662315 0.06150674
0.18140298 0.012020078 -0.27139813 0.29285455 -0.22451608 -0.14612168 -0.11573005 -0.024444118
-0.09723763 -0.34078526 -0.07090742 0.029468799 0.19643387 0.18436356 -0.32032377 0.19500852
0.3033122 -0.089149356 0.07356494 0.053889576 -0.1898657 -0.35606343 0.049591098 -0.13745746
0.18381359 -0.1792296 -0.060796183 -0.35053647 0.16935903 0.17857276 -0.12658195 -0.19271773
-0.022623826 0.19685696 0.08105202 -0.15078916 0.108845524 -0.124891534 -0.15438174 -0.18003497
0.082610704 -0.34360734 -0.26527053 -0.09082907 -0.033510316 0.28438276 -0.0037373793 -0.109526955
0.07357789 0.25345704 -0.275374 -0.1752028 0.11489413 -0.1620528 0.10798364 -0.15296401
0.23430488 0.07196495 0.03577839 -0.03240937 -0.10720987 -0.23272869 0.0031431601 0.023511076
0.056593798 0.14179528 0.038400758 0.31616879 0.2342967 0.024336934 -0.06297374 0.25357488
0.10938937 -0.22330216 -0.23566453 0.08938551 0.202205 0.296401 -0.1922538 -0.076117545
0.19036573 -0.28925747 -0.09401675 0.134284 -0.057937797 0.1579566 0.03968936 -0.0050577316
0.05408949 -0.13354607 0.29397556 0.19998945 -0.21942815 0.13161723 -0.01049431 -0.2323279
0.050485887 -0.08733083 0.21361081 0.3953482 0.01815712 -0.16559052 -0.18412532 0.22134268
0.18795906 -0.25322348 -0.19346154 0.20107786 0.04810837 0.30923644 -0.16200155 -0.25318986
-0.13078223 0.016589355 -0.28028592 -0.4114798 0.08432415 0.2702302 -0.19085181 -0.22200818
-0.09536698 -0.1506566 -0.1780243 -0.20798148 -0.0417381 0.243594 -0.30678588 0.27944636
0.1015458 0.19814985 0.09942641 0.0076425103 -0.15692787 0.16618356 -0.22950731 -0.054344628
-0.1387739 -0.24826457 -0.2160349 -0.18888594 0.25090858 0.17694555 -0.08300019 0.20458812
0.14103606 -0.12849627 -0.096984185 -0.4248463 0.004248532 -0.11745133 -0.34751624 0.0449079
0.122584604 -0.009648165 0.044400472 0.070141144 0.009906907 -0.30395633 0.28256825 -0.23099713
-0.29677477 -0.10024852 0.29600564 0.31587732 -0.16395995 -0.041528665 -0.09617137 0.022921406
0.038135003 0.23448943 -0.12619814 0.27943057 0.105944216 0.20458356 0.17717238 -0.0109844515
-0.034401882 0.04199442 0.28264326 0.13579342 -0.012868517 -0.13434504 0.08357153 -0.28635255
00000000: 679b 1fbe 169b a23e e5d6 dd3d 5eb8 d03e
00000010: 9cdc 45be d0e5 8a3e 4da7 c1be e28b e13e
00000020: 2b54 08be 6c0d 0abe 9f4d a3be 88ad 62bb
00000030: 00c9 0dbf dfcd d23c b832 373d 419e 933e
00000040: 4fcd 983d 09cd 1bbe e8ea 883e af83 5c3e
00000050: 2b0e 9dbe fea4 e2be cdba 3fbd b5f0 833e
00000060: 840a 453e 9d97 523e 80e0 753e 4b91 953e
00000070: 4b95 0f3e 035d bfbe 43f0 45be 0693 9e3e
00000080: 63a3 1c3e 6238 793e 3cb0 223e 0df7 0c3d
00000090: 5ffb 433c 44a4 0cbd 991a 533e 8eae 293e
000000a0: caaa b0be c7af 50be 1585 903e 7d79 973e
000000b0: dffc a33c c854 8fbe bdeb 103e f8f7 8a3e
000000c0: 0769 dabd 927b ad3d d983 95be 69ba 0abe
000000d0: 4456 833e 44c6 973c 7dd5 913e 1b6b 7bbe
000000e0: 57ab f23d 60a3 9b3e a0bb af3d 6f6b e3be
000000f0: 44f5 ac3e 0215 9d3e 3063 de3b 1766 23be
00000100: 1cb0 8c3d da00 9f3d cff6 4a3d 8877 ad3e
00000110: 29cc 02bc 42fc 903e 99ec 9c3d 7eee 7b3d
00000120: b4c1 393e dcef 443c b2f4 8abe 08f1 953e
00000130: 8be7 65be eca0 15be e003 edbd 083f c8bc
00000140: 8624 c7bd 687b aebe e937 91bd 8d68 f13c
00000150: f625 493e cdc9 3c3e 7a01 a4be 50b0 473e
00000160: bd4b 9b3e f093 b6bd 37a9 963d 51bb 5c3d
00000170: 276c 42be f24d b6be 0920 4b3d a6c1 0cbe
00000180: a139 3c3e f787 37be 6b05 79bd 8479 b3be
00000190: 746c 2d3e c7db 363e b39e 01be cc57 45be
000001a0: 9a55 b9bc df94 493e 9afe a53d 7968 1abe
000001b0: 67ea de3d 22c7 ffbd 3f16 1ebe 165b 38be
000001c0: cd2f a93d 4ded afbe 8ad1 87be 9704 babd
000001d0: 1d42 09bd 9e9a 913e d2ee 74bb ab4f e0bd
000001e0: 01b0 963d 1fc5 813e d2fd 8cbe 5d68 33be
000001f0: 9d4d eb3d 2bf1 25be 8726 dd3d 99a2 1cbe
00000200: 9eed 6f3e 5c62 933d 5c8c 123d b0bf 04bd
00000210: d990 dbbd 6e50 6ebe 7afd 4d3b 4d9a c03c
00000220: e6ce 673d c832 113e 1d4a 1d3d e0e0 a13e
00000230: 79eb 6f3e 405e c73c 60f8 80bd 91d4 813e
00000240: 8907 e03d 52a9 64be 0b52 71be c00f b73d
00000250: d40e 4f3e dfc1 973e 2ede 44be 84e3 9bbd
00000260: 3cef 423e 8e19 94be db8b c0bd bf81 093e
00000270: 2f50 6dbd 60bf 213e 4f91 223d 54bb a5bb
00000280: f18c 5d3d 4dc0 08be f783 963e 09ca 4c3e
00000290: c6b1 60be abc6 063e 54f0 2bbc 5de7 6dbe
000002a0: 4aca 4e3d 82da b2bd cbbc 5a3e 146b ca3e
000002b0: 3ebe 943c 9090 29be 598b 3cbe a8a7 623e
000002c0: 5778 403e 82a6 81be c81a 46be 5be7 4d3e
000002d0: 480d 453d 3d54 9e3e bce3 25be 1aa2 81be
000002e0: c7eb 05be 66e6 873c a381 8fbe 7bad d2be
000002f0: 24b2 ac3d 9d5b 8a3e a86e 43be 1d56 63be
00000300: c34f c3bd b945 1abe 014c 36be 19f9 54be
00000310: 92f5 2abd b570 793e 0a13 9dbe 9813 8f3e
00000320: 3ff7 cf3d cbe7 4a3e 13a0 cb3d 066e fa3b
00000330: b3b1 20be 062c 2a3e f703 6bbe 7998 5ebd
00000340: bf1a 0ebe 1139 7ebe 4138 5dbe 516b 41be
00000350: 1777 803e 3731 353e 01fc a9bd 8c7f 513e
00000360: c26b 103e 8794 03be a59f c6bd 7485 d9be
00000370: 4537 8b3b 538a f0bd a6ed b1be 59f1 373d
00000380: a30d fb3d 5613 1ebc 45dd 353d 29a6 8f3d
00000390: 9450 223c 2aa0 9bbe c9ac 903e 838a 6cbe
000003a0: ddf2 97be 194f cdbd 0d8e 973e acba a13e
000003b0: 1ee5 27be f619 2abd 7ff5 c4bd acc5 bb3c
000003c0: 7333 1c3d ff1d 703e 163a 01be 8611 8f3e
000003d0: 48f9 d83d 5a7e 513e ad6c 353e 21f8 33bc
000003e0: fde8 0cbd 5702 2c3d 9eb6 903e 6e0d 0b3e
000003f0: 79d6 52bc bf91 09be 8d27 ab3d cd9c 92be

gnn_base.gnn.gnn1.lin_query.bias f4 [48]
0.03967098 0.037700105 -0.089653745 0.07456792 -0.15348378 0.10918003 -0.031234518 -0.15977
0.14964226 0.09677745 -0.18392065 0.18269013 0.0007303346 0.13181476 0.20425254 0.16586444
-0.18511179 0.14297885 0.056382388 -0.060339328 -0.21029824 0.04356538 0.22738434 -0.020883713
-0.2593571 0.14965965 -0.21937634 -0.2668068 0.15451606 -0.031198652 -0.07843257 -0.14018914
-0.27037546 0.20861138 0.36009738 -0.24769893 0.057770785 -0.20683733 0.32545456 -0.15565935
0.31330448 0.0023822137 0.17467245 0.10165564 0.06851517 0.057936214 0.35777128 -0.0627679
00000000: 0a7e 223d 6d6b 1a3d 629c b7bd 11b7 983d
00000010: da2a 1dbe c899 df3d 88df ffbc bf9a 23be
00000020: d23b 193e 4133 c63d b255 3cbe 1f13 3b3e
00000030: ed73 3f3a 73fa 063e 9427 513e 5ed8 293e
00000040: f28d 3dbe 0c69 123e 38f1 663d 5f26 77bd
00000050: 6c58 57be 9d71 323d 71d7 683e 5214 abbc
00000060: 74ca 84be 6140 193e 31a4 60be e79a 88be
00000070: 7539 1e3e 5194 ffbc 41a1 a0bd be8d 0fbe
00000080: a76e 8abe 399e 553e af5e b83e caa4 7dbe
00000090: 0fa1 6c3d 2acd 53be fba1 a63e 2a65 1fbe
000000a0: 7269 a03e ea1e 1c3b 56dd 323e d530 d03d
000000b0: ae51 8c3d 864e 6d3d cc2d b73e 758c 80bd

gnn_base.gnn.gnn1.lin_value.weight f4 [48, 16]
-0.13430415 0.44780794 0.10567839 -0.13618337 -0.405448 -0.09714008 0.45324314 -0.20925345
0.006259198 -0.25759435 0.17951912 -0.022657309 0.06610781 -0.046632823 -0.030453295 0.13814917
-0.06789071 0.06990214 -0.091951236 -0.45569292 0.054539464 0.086064555 -0.35306996 0.37251332
-0.04731378 0.30262274 -0.3786089 -0.050832313 0.23095688 0.2967828 -0.0030073123 0.23820908
-0.35509068 0.14699067 0.07725778 -0.1855919 0.15478183 -0.396985 -0.16043591 -0.032576695
0.034025583 0.10869552 0.12920709 0.106556006 0.2224544 -0.21379402 0.07911303 0.23802832
0.20965527 0.34274402 0.0074884407 0.13787405 -0.30799103 -0.056996796 0.019783864 -0.030622415
0.21566425 -0.0038472828 -0.110511445 0.058186438 -0.4503898 0.0052891374 -0.07796544 -0.09537274
-0.20342448 0.27539864 0.20734923 -0.10681562 0.2829696 -0.3307104 -0.5094937 -0.2388084
-0.13603574 -0.19923247 0.23838325 0.107856266 0.16187981 0.02250987 0.43100923 0.20297424
0.04150326 -0.19232225 -0.06450164 -0.22469626 0.12103278 0.10499675 -0.23343487 -0.0347288
0.38151821 -0.35255572 0.12603527 -0.23069745 0.0022434813 0.075612724 0.4127427 -0.01803757
-0.40025225 0.1955005 0.33782122 0.08028936 -0.16445445 -0.15492952 -0.26168433 -0.117168345
0.19924341 -0.08631716 -0.23463058 0.26041648 -0.47434956 0.06144577 -0.017163021 0.20737238
-0.18700035 -0.13542426 0.16930023 -0.016161252 0.006703759 0.015900578 0.00847112 0.012302452
0.36040726 0.050841913 -0.3044336 -0.26847732 -0.10016327 0.026843162 0.05957469 0.3537035
-0.3475288 0.13538618 0.15500905 -0.18149282 0.31265166 -0.46123293 -0.13396952 0.3770388
0.07179141 -0.4191947 0.10468624 -0.085452996 0.16774353 -0.14510384 0.21696746 -0.11846789
-0.2719722 0.06572956 0.041126322 -0.68742704 0.095159985 -0.14664088 0.01981973 0.22665784
-0.05664271 -0.22985016 -0.90572274 -0.17706564 -0.09812992 0.2019809 0.06334837 0.30949306
0.25871232 0.1364897 0.05511699 0.31320766 0.32699093 0.25289726 0.014213691 0.27704945
-0.08429942 -0.10016064 0.04493199 -0.1567878 0.34206578 -0.19729239 -0.40262955 0.037711065
-0.026096456 -0.07805621 -0.20817469 0.19645542 -0.13521025 -0.3534727 -0.08983705 0.32925037
-0.2893283 0.26248786 0.48998788 0.3070265 0.15473327 0.15718754 0.13838957 0.051697023
0.1309948 -0.09078224 -0.10909215 -0.21453139 0.31547117 0.23104644 0.09297443 0.39959523
-0.050276287 0.33935136 0.29845995 0.12827522 0.4120955 -0.17371337 -0.5363068 0.04416688
-0.015465362 -0.45091468 -0.08281232 0.08319565 0.090243906 0.617266 0.27742472 0.08187644
-0.10194376 -0.043783356 -0.07833565 0.070677444 0.06196351 0.212759 -0.23105837 -0.28559563
-0.08028909 0.12908816 0.21704145 -0.12367768 0.071562946 -0.042688474 0.21100427 -0.05723442
0.19568777 -0.03722207 -0.30721903 -0.07472856 0.05309998 0.31250894 -0.0869835 0.055556316
0.10115014 -0.25255224 -0.40511748 -0.26541227 -0.18858753 0.12502278 0.44403645 0.13681792
0.06508581 -0.117065676 -0.15899876 -0.08893539 -0.1772945 -0.0549901 -0.089414455 0.079529665
00000000: 0787 09be 1547 e53e e96d d83d a773 0bbe
00000010: e196 cfbe 61f1 c6bd 7c0f e83e 8946 56be
00000020: f519 cd3b 68e3 83be dcd3 373e d29b b9bc
00000030: 8863 873d 0f02 3fbd 3079 f9bc fa76 0d3e
00000040: 490a 8bbd da28 8f3d ee50 bcbd 9550 e9be
00000050: c664 5f3d 9d42 b03d 96c5 b4be 11ba be3e
00000060: 18cc 41bd 5ef1 9a3e 07d9 c1be 8b35 50bd
00000070: f67f 6c3e eaf3 973e 5416 45bb 15ed 733e
00000080: 72ce b5be b984 163e 5439 9e3d ce0b 3ebe
00000090: 217f 1e3e 9e41 cbbe 5049 24be 246f 05bd
000000a0: 695e 0b3d c29b de3d dd4e 043e 093a da3d
000000b0: 16cb 633e d2ec 5abe 0306 a23d b2bd 733e
000000c0: dfaf 563e 257c af3e 9861 f53b db2e 0d3e
000000d0: 00b1 9dbe 7975 69bd c511 a23c dcdb fabc
000000e0: 17d7 5c3e b222 7cbb d353 e2bd e754 6e3d
000000f0: 7e99 e6be 8050 ad3b 58ac 9fbd c852 c3bd
00000100: 824e 50be 0d01 8d3e 5b53 543e 26c2 dabd
00000110: 64e1 903e e052 a9be 2e6e 02bf 308a 74be
00000120: f44c 0bbe 9903 4cbe bd1a 743e bfe3 dc3d
00000130: d2c3 253e 9e66 b83c 3ead dc3e 7bd8 4f3e
00000140: 53ff 293d 20f0 44be 7019 84bd c716 66be
00000150: 09e0 f73d 8908 d73d 8d09 6fbe c93f 0ebd
00000160: 5b56 c33e 2f82 b4be 640f 013e f43b 6cbe
00000170: 5f07 133b d8da 9a3d 0353 d33e 87c3 93bc
00000180: dded ccbe 4831 483e e7f6 ac3e bf6e a43d
00000190: bf66 28be d8a5 1ebe 7dfb 85be f5f5 efbd
000001a0: 7706 4c3e 0dc7 b0bd 0043 70be 4f55 853e
000001b0: f2dd f2be 8fae 7b3d 7799 8cbc 6d59 543e
000001c0: 057d 3fbe a8ac 0abe 0a5d 2d3e 9a64 84bc
000001d0: 35ab db3b ee41 823c 74ca 0a3c 3990 493c
000001e0: 4d87 b83e 9c3f 503d b9de 9bbe dc75 89be
000001f0: 6722 cdbd 31e6 db3c 9704 743d a018 b53e
00000200: 4bef b1be ada2 0a3e b1ba 1e3e 41d9 39be
00000210: e113 a03e b926 ecbe 4e2f 09be 3b0b c13e
00000220: 6007 933d b0a0 d6be bd65 d63d fb01 afbd
00000230: f6c4 2b3e 1a96 14be b82c 5e3e 4b9f f2bd
00000240: f13f 8bbe 389d 863d 1374 283d 38fb 2fbf
00000250: 3de3 c23d 0729 16be fd5c a23c fe18 683e
00000260: 3002 68bd d75d 6bbe 72dd 67bf b250 35be
00000270: 57f8 c8bd 15d4 4e3e cabc 813d e075 9e3e
00000280: f175 843e f5c3 0b3e 5ac2 613d c15c a03e
00000290: 5b6b a73e c07b 813e 8be0 683c 6dd9 8d3e
000002a0: 2da5 acbd 0621 cdbd 9b0a 383d fb8c 20be
000002b0: 3f23 af3e 0407 4abe 7625 cebe eb76 1a3d
000002c0: 3cc8 d5bc efdb 9fbd bf2b 55be 9c2b 493e
000002d0: 8e74 0abe 60fa b4be 7dfc b7bd 8193 a83e
000002e0: d722 94be cf64 863e b1df fa3e 9432 9d3e
000002f0: 6672 1e3e c5f5 203e ffb5 0d3e 42c0 533d
00000300: 8023 063e 0aec b9bd b56b dfbd 1eae 5bbe
00000310: 7085 a13e 7097 6c3e 6169 be3d bf97 cc3e
00000320: 82ee 4dbd 76bf ad3e becf 983e 945a 033e
00000330: 2efe d23e ebe1 31be 674b 09bf 55e8 343d
00000340: 6e62 7dbc 4ade e6be 8199 a9bd 7b62 aa3d
00000350: ccd1 b83d 2505 1e3f 9d0a 8e3e d6ae a73d
00000360: e4c7 d0bd 2d56 33bd 716e a0bd 56bf 903d
00000370: 73cd 7d3d 7fdd 593e 919a 6cbe 9739 92be
00000380: 9b6e a4bd b02f 043e 1d40 5e3e b94a fdbd
00000390: 988f 923d 1cda 2ebd 8111 583e a46e 6abd
000003a0: 6062 483e 2b76 18bd d04b 9dbe 4a0b 99bd
000003b0: 5d7f 593d 2c01 a03e 6824 b2bd 058f 633d
000003c0: ce27 cf3d 874e 81be 8f6b cfbe 1ee4 87be
000003d0: 171d 41be f905 003e bf58 e33e ff19 0c3e
000003e0: b64b 853d 21c0 efbd 92d0 22be c223 b6bd
000003f0: b08c 35be 4d3d 61bd ed1e b7bd 73e0 a23d

gnn_base.gnn.gnn1.lin_value.bias f4 [48]
0.103044406 0.018894734 0.059998084 0.07187772 0.013013608 0.13002035 -0.28612027 -0.19921774
-0.00057770964 -0.31287158 -0.19192484 0.19695021 0.007696934 -0.022891501 0.08598356 0.033546325
-0.08937991 0.13273694 0.120362386 0.023907738 0.18489942 -0.0062455973 -0.04550299 -0.23997043
0.15724117 0.10302596 -0.39237735 -0.13451606 -0.06294035 -0.05327722 0.073354326 -0.12315915
-0.28587887 -0.10831096 -0.043418672 -0.24674812 0.05356191 0.1768749 -0.3020827 -0.21752046
0.107586436 -0.26074916 -0.24742362 0.17563106 -0.12926885 0.11747625 -0.02845857 -0.2396399
00000000: f208 d33d 21c9 9a3c 8dc0 753d a034 933d
00000010: 0737 553c 0e24 053e 5b7e 92be bcff 4bbe
00000020: 7071 17ba b430 a0be f287 44be 51ad 493e
00000030: 9036 fc3b f586 bbbc 2618 b03d df67 093d
00000040: d00c b7bd 31ec 073e 8e80 f63d 29da c33c
00000050: 4656 3d3e dea7 ccbb 5861 3abd cfba 75be
00000060: d403 213e 46ff d23d afe5 c8be 94be 09be
00000070: dfe6 80bd 3739 5abd cb3a 963d dd3a fcbd
00000080: b75e 92be 23d2 ddbd c7d7 31bd 8aab 7cbe
00000090: bc63 5b3d b21e 353e 95aa 9abe afbd 5ebe
000000a0: 4756 dc3d ea80 85be 9e5c 7dbe a1d8 333e
000000b0: 0e5f 04be 6397 f03d f221 e9bc 2964 75be

gnn_base.gnn.gnn1.lin_edge.weight f4 [48, 1]
0.47108558 -0.28093696 -0.79264945 0.049029637 0.4890528 0.6778079 0.10652022 0.55839723
-0.035372574 -0.4378639 -0.29167733 0.69461465 0.604306 0.2868501 -1.0258795 -0.9774051
-0.17908865 -0.8136124 -0.5388074 0.49224323 0.37290853 0.6101715 -0.65930015 -0.1890812
0.048181046 0.0663098 0.33427697 0.15969394 -0.6108096 0.6047686 -0.8310571 -0.36250794
0.49217266 -0.32292435 -1.1269357 0.76471925 -0.083061926 0.18913455 -1.1332804 0.06747031
-0.5568484 0.25693148 -1.2338668 -0.50372833 0.44753826 1.0024809 -0.8047182 -0.48318475
00000000: 2132 f13e f8d6 8fbe 13eb 4abf 4dd3 483d
00000010: 2165 fa3e d284 2d3f 4627 da3d 1ff3 0e3f
00000020: d5e2 10bd b22f e0be bb56 95be 44d2 313f
00000030: ccb3 1a3f 04de 923e 0550 83bf 3837 7abf
00000040: 0463 37be e748 50bf 48ef 09bf 4e07 fc3e
00000050: deed be3e 3334 1c3f e5c7 28bf 819e 41be
00000060: 7d59 453d 6fcd 873d 5a26 ab3e cf86 233e
00000070: 055e 1cbf 1dd2 1a3f 28c0 54bf a49a b9be
00000080: 0efe fb3e 5756 a5be 6e3f 90bf a4c4 433f
00000090: 5f1c aabd 7dac 413e 550f 91bf e02d 8a3d
000000a0: 9e8d 0ebf 868c 833e 59ef 9dbf 57f4 00bf
000000b0: bc23 e53e 4b51 803f 0302 4ebf fe63 f7be

gnn_base.gnn.gnn1.lin_skip.weight f4 [16, 16]
0.36454105 -0.44350222 -0.12447582 0.36465046 0.010358173 0.21469763 0.09444046 -0.54487073
0.004398237 0.16612077 -0.5177601 0.2703318 -0.38612676 -0.023031635 -0.14923236 0.120226674
0.23289219 -0.2142346 -0.5940642 -0.3129414 0.41165742 0.5104336 -0.18665327 0.35100895
0.2743856 0.46995088 -0.40365836 -0.10584071 0.034034196 0.23851971 -0.1643842 0.10835854
-0.13835801 -0.06795413 0.31905144 -0.12986946 0.121039584 -0.3750187 -0.42460138 0.15068991
0.027213732 -0.17235231 0.13877633 0.14151591 -0.1792224 0.13830478 0.13540132 -0.1759999
-0.08426817 -0.31819907 0.17004445 -0.27994025 0.1873795 0.00340087 0.14825815 -0.36627555
0.14225607 0.3019589 -0.4927656 0.22708234 -0.16014701 0.033385508 0.30782872 0.44223025
0.7047796 -0.14443494 -0.37291017 -0.1951554 -0.36239603 0.1975628 0.46221748 0.16468139
-0.27513283 0.40683797 0.09598529 -0.2926601 -0.15242831 0.18419692 -0.68880504 -0.16903125
0.26057506 -0.17366298 -0.055917934 -0.18782504 0.6989376 0.29144204 0.018687112 0.068422616
0.23673598 -0.035626497 -0.20795487 -0.38714153 0.003120233 -0.11833178 0.14949581 -0.49580032
-0.1520705 0.4291406 -0.08978041 -0.2083501 0.12130063 -0.23194334 -0.00080050185 -0.07876962
-0.08209734 -0.14944082 0.064405754 0.6093505 -0.6326493 -0.18322544 0.015930837 0.23856115
-0.1328362 0.11284817 -0.047873683 -0.13622293 0.08179113 -0.097896345 -0.20296812 0.094752505
0.38413677 -0.46186292 -0.3524768 -0.6364289 0.24171948 0.5238545 0.37377873 0.028297277
-0.065438114 -0.06356731 0.2870834 0.05649288 0.11278252 -0.08233467 -0.20533974 0.16818814
-0.3003629 -0.15791012 0.20888673 0.022515187 0.396783 0.14445202 -0.04793776 -0.111673474
-0.008423521 0.44749817 -0.013984939 0.1714829 -0.26902753 0.32548633 0.002991816 0.23951937
0.109387934 0.3148489 0.12123897 -0.004470147 0.18129301 0.41858992 -0.35205895 0.24894685
0.21935348 0.16605833 0.05860246 0.4000579 0.2548693 0.24763379 -0.07097686 -0.039237745
-0.15299894 -0.32950827 -0.4167714 0.30020002 -0.25456318 -0.11107896 -0.3335001 0.14161552
0.49161008 0.16580272 -0.3365001 -0.18945773 -0.017427746 0.43686002 0.30886167 0.33302325
0.046125386 0.04222447 0.07432452 -0.4067447 0.029616052 -0.07598557 -0.042242754 0.23806879
-0.20637366 0.17881654 -0.06276662 0.49106553 0.1448703 -0.1921356 -0.06271834 0.04353852
0.2700089 0.015576271 -0.022084499 -0.48359174 -0.5891113 0.19445312 0.22731061 -0.042190816
-0.065306045 0.10191768 -0.20927292 -0.10671567 -0.59479463 -0.061847832 0.3749947 0.25899285
0.46604198 0.28574654 -0.30251196 0.021805603 0.06289991 0.015987031 0.08353395 0.08617141
0.054641478 -0.38637406 0.16695905 -0.40455538 -0.13544784 0.32628906 -0.43106797 -0.2019089
-0.2591621 0.6489763 -0.17077295 0.034652036 -0.057461698 0.55389786 -0.008720244 0.5584659
-0.010829212 -0.19710776 -0.008231107 0.17246826 -0.3267617 -0.18065777 0.2280966 0.06453673
-0.3550589 -0.176232 0.12079488 0.36420438 0.3002521 -0.105248265 0.11413389 -0.2968406
00000000: 20a5 ba3e b912 e3be 2eed febd 77b3 ba3e
00000010: 54b5 293c b2d9 5b3e 006a c13d a67c 0bbf
00000020: 161f 903b 901b 2a3e ed8b 04bf ee68 8a3e
00000030: 68b2 c5be d7ac bcbc 5ed0 18be 6739 f63d
00000040: 4a7b 6e3e 5160 5bbe 9714 18bf db39 a0be
00000050: c3c4 d23e c7ab 023f 0922 3fbe 72b7 b33e
00000060: 457c 8c3e 679d f03e 4fac cebe 04c3 d8bd
00000070: 7167 0b3d 833e 743e 5554 28be 15eb dd3d
00000080: b9ad 0dbe 892b 8bbd b65a a33e 80fc 04be
00000090: 9ae3 f73d 7302 c0be 5a65 d9be 754e 1a3e
000000a0: 55ef de3c 207d 30be 621b 0e3e 8ce9 103e
000000b0: 1486 37be c59f 0d3e a5a6 0a3e 5139 34be
000000c0: ca94 acbd fdea a2be 2220 2e3e 5454 8fbe
000000d0: 69e0 3f3e 21e1 5e3b fcd0 173e 7888 bbbe
000000e0: 93ab 113e 5b9a 9a3e c64b fcbe 4688 683e
000000f0: 94fd 23be 3ebf 083d ba9b 9d3e 016c e23e
00000100: 706c 343f c1e6 13be 15ee bebe d1d6 47be
00000110: f98b b9be e74d 4a3e c5a7 ec3e 3da2 283e
00000120: 36de 8cbe 114d d03e f093 c43d 8bd7 95be
00000130: 2b16 1cbe 1e9e 3c3e 8755 30bf 8716 2dbe
00000140: 186a 853e b5d4 31be 340a 65bd 3555 40be
00000150: 93ed 323f e437 953e b715 993c 2821 8c3d
00000160: eb6a 723e 17ed 11bd 1ff2 54be 6a37 c6be
00000170: d37c 4c3b ef57 f2bd 6e15 193e 8ad9 fdbe
00000180: 5fb8 1bbe 51b8 db3e cbde b7bd bb59 55be
00000190: 776c f83d 8e82 6dbe c5d8 51ba f751 a1bd
000001a0: a622 a8bd 0407 19be 2ae7 833d 65fe 1b3f
000001b0: 4ef5 21bf 739f 3bbe 6381 823c 6049 743e
000001c0: 3606 08be f11c e73d 3217 44bd 067e 0bbe
000001d0: 1c82 a73d e17d c8bd e0d6 4fbe 9a0d c23d
000001e0: 93ad c43e 4c79 ecbe d777 b4be 01ed 22bf
000001f0: 5085 773e 541b 063f ed5f bf3e b1cf e73c
00000200: 6b04 86bd 942f 82bd 98fc 923e 1465 673d
00000210: 86fa e63d 149f a8bd 9544 52be 8339 2c3e
00000220: 2bc9 99be 31b3 21be 67e6 553e c571 b83c
00000230: 2427 cb3e 3beb 133e 625a 44bd 10b5 e4bd
00000240: cf02 0abc 7b1e e53e 1621 65bc 3799 2f3e
00000250: fabd 89be 25a6 a63e 5812 443b 9144 753e
00000260: c806 e03d e033 a13e 234c f83d 507a 92bb
00000270: e0a4 393e 6b51 d63e 1241 b4be eceb 7e3e
00000280: 339e 603e 320b 2a3e 2209 703d 64d4 cc3e
00000290: 3b7e 823e b693 7d3e 515c 91bd c2b7 20bd
000002a0: c1ab 1cbe 4fb5 a8be 1063 d5be d1b3 993e
000002b0: 1b56 82be 5e7d e3bd 86c0 aabe a903 113e
000002c0: 51b4 fb3e 30c8 293e be49 acbe 3501 42be
000002d0: a2c4 8ebc 1eac df3e 1e23 9e3e 0682 aa3e
000002e0: f9ed 3c3d 91f3 2c3d 7437 983d d740 d0be
000002f0: 5d9d f23c 539e 9bbd bd06 2dbd 4ec8 733e
00000300: 9e53 53be af1b 373e c98b 80bd f16c fb3e
00000310: e158 143e 32bf 44be 7972 80bd 7255 323d
00000320: 9b3e 8a3e 9e33 7f3c 8dea b4bc 5699 f7be
00000330: 00d0 16bf b81e 473e 1dc4 683e 47d0 2cbd
00000340: 2dbf 85bd 37ba d03d a44b 56be bf8d dabd
00000350: 7644 18bf 2754 7dbd 4eff bf3e b69a 843e
00000360: 0e9d ee3e 5f4d 923e d9e2 9abe aaa1 b23c
00000370: abd1 803d 3cf7 823c d913 ab3d a37a b03d
00000380: becf 5f3d d2d2 c5be 50f7 2a3e e221 cfbe
00000390: d7b2 0abe 5c0f a73e f1b4 dcbe 35c1 4ebe
000003a0: e5b0 84be 5023 263f 1bdf 2ebe 4bef 0d3d
000003b0: f55c 6bbd 40cc 0d3f 5bdf 0ebc 9ff7 0e3f
000003c0: 026d 31bc 9ed6 49be c4db 06bc 859b 303e
000003d0: 4f4d a7be 5afe 38be 2892 693e d52b 843d
000003e0: 48ca b5be 2976 34be 4e63 f73d ff78 ba3e
000003f0: a5ba 993e 678c d7bd 07bf e93d 7efb 97be

gnn_base.gnn.gnn1.lin_skip.bias f4 [16]
0.058610227 0.2145131 -0.06899245 -0.050157394 0.10027902 0.088686466 -0.22364081 -0.25227776
0.23102851 -0.054035213 -0.028591467 0.010293802 0.3213379 0.017315438 -0.06260297 0.22286204
00000000: 4711 703d 52a9 5b3e ea4b 8dbd d771 4dbd
00000010: 165f cd3d 40a1 b53d 1902 65be 8d2a 81be
00000020: bd92 6c3e 0754 5dbd a738 eabc 56a7 283c
00000030: 6786 a43e 1bd9 8d3c fc35 80bd f235 643e

gnn_base.gnn.gnn2.0.lin_key.weight f4 [48, 16]
0.040845066 0.122202955 0.08933381 -0.19409256 -0.10286068 0.46428865 -0.082310304 0.061620384
0.4253804 0.21873862 0.001854235 0.13109194 -0.12827945 -0.45223567 0.13786939 0.026173383
-0.23161557 -0.11905819 -0.14173159 -0.22298273 -0.16433322 0.18923 -0.117057234 -0.05656986
-0.045129 -0.00063907646 -0.21375832 -0.0967841 -0.0041843187 -0.058108993 0.045897152 0.06275206
-0.27186388 -0.18972838 0.07796794 -0.048175666 -0.14581895 0.14895716 0.27295887 -0.032732703
0.16171418 -0.21217592 -0.039581444 -0.32343093 0.108292505 0.25528774 0.23695715 0.32943904
-0.13960572 -0.16216125 -0.058877107 -0.08848927 0.016564779 -0.09621106 0.21277417 0.006417858
-0.19495161 0.010604929 0.1415858 -0.37652516 -0.4217928 -0.030436903 0.040267102 0.41116384
0.24318449 0.17039324 -0.23348504 -0.134922 0.31690213 0.14150578 -0.25781646 0.092086606
0.15261875 0.18566822 0.14304422 0.36400694 -0.011073825 0.007038786 0.10756469 -0.10326801
-0.17801502 0.25807416 -0.00096831564 -0.055704996 0.1873135 0.32759923 0.11281741 -0.21427895
0.23406295 0.11020214 0.25710082 -0.05764459 -0.18696207 -0.0048965155 -0.3080531 -0.16211863
-0.10677858 -0.112338945 -0.20883353 0.1846474 0.112437 0.17513956 -0.17099336 -0.11681573
0.29087493 0.06464103 0.17613958 0.09174924 -0.19746348 -0.21895488 0.19213246 -0.2224903
0.29760483 0.00787028 -0.17909703 0.19154224 0.06985997 0.24565262 -0.25006977 -0.07570163
0.27889058 -0.08025667 0.02469353 0.3770559 -0.090110905 -0.23395477 0.094723515 -0.30507705
0.05756059 -0.17335624 0.13534279 0.031460606 -0.12300244 -0.21617801 0.14073077 0.15784572
-0.23937866 -0.1150267 -0.027424628 0.072697654 0.1668425 0.12002922 0.19473912 0.29600182
0.030832853 0.027918594 0.04622189 -0.10775486 -0.19265987 0.21773365 -0.14678022 -0.024123797
0.09651381 -0.17201248 0.0210695 0.27580133 0.03111755 -0.28098467 0.23186678 -0.14864622
0.13022158 0.18483579 0.1980633 -0.21508613 -0.23467569 -0.23988514 0.057044607 0.18998457
-0.06555302 0.099660315 -0.1617104 -0.34323445 -0.50249135 0.2088208 -0.06241436 0.26283208
0.09727528 0.04557072 -0.17313424 -0.0024351443 0.24661322 0.011526009 0.0012550872 0.13268006
0.23622893 -0.12568326 -0.067090176 0.2258458 -0.12448077 -0.31131005 0.17865027 -0.114052065
0.0066277757 0.2878231 -0.17764021 -0.13420106 0.34505528 0.35002843 -0.14784525 0.11361333
0.021325849 0.19336765 0.24819104 0.26271585 0.06614665 -0.18358746 -0.0954337 -0.36116043
-0.13064541 0.15904228 -0.17128235 0.06700365 -0.11092455 -0.03660136 -0.26396954 0.20217484
0.16570118 0.22152536 0.23715393 0.20938438 0.22044949 -0.11171987 -0.028072659 -0.46964312
0.20365927 0.13355784 -0.09050204 0.004426732 -0.23986332 0.032014467 0.027099868 0.20521566
-0.06423928 -0.13224179 0.054298077 -0.31194893 -0.11528531 0.14034355 0.2115597 -0.034496482
0.21269603 0.06415292 0.29567578 0.16601431 -0.042216543 0.2698236 -0.21532391 0.013266635
0.23729436 0.12564547 0.21845333 0.11326774 -0.2675411 -0.21861494 -0.20720045 0.06939336
00000000: 284d 273d 8b45 fa3d a5f4 b63d 33c0 46be
00000010: 9fa8 d2bd 3eb7 ed3e 4e92 a8bd a865 7c3d
00000020: 76cb d93e 04fd 5f3e cd09 f33a f73c 063e
00000030: b05b 03be 6f8b e7be a22d 0d3e 9069 d63c
00000040: a22c 6dbe c8d4 f3bd 1622 11be 9655 64be
00000050: f846 28be 82c5 413e b4bb efbd ccb5 67bd
00000060: 30d9 38bd b287 27ba 76e3 5abe be36 c6bd
00000070: 9c1c 89bb b203 6ebd a7fe 3b3d 2784 803d
00000080: be31 8bbe 2848 42be a8ad 9f3d d953 45bd
00000090: 9051 15be 3a88 183e 44c1 8b3e ba12 06bd
000000a0: 6798 253e a544 59be 2720 22bd bd98 a5be
000000b0: 76c8 dd3d 13b5 823e e5a4 723e 3cac a83e
000000c0: cdf4 0ebe 990d 26be 1f29 71bd dd39 b5bd
000000d0: dcb2 873c 4e0a c5bd 79e1 593e e54c d23b
000000e0: 65a1 47be 4cc0 2d3c defb 103e e8c7 c0be
000000f0: 3af5 d7be d056 f9bc 1eef 243d 1184 d23e
00000100: 5b05 793e 917b 2e3e b416 6fbe fe28 0abe
00000110: ff40 a23e e4e6 103e 8500 84be e797 bc3d
00000120: 1748 1c3e cf1f 3e3e 2f7a 123e 1e5f ba3e
00000130: fd6e 35bc 9ea5 e63b e04a dc3d 2e7e d3bd
00000140: 9249 36be 4c22 843e 90d6 7dba ec2a 64bd
00000150: 1ccf 3f3e 16bb a73e d00c e73d f16b 5bbe
00000160: 33ae 6f3e a9b1 e13d b8a2 833e bc1c 6cbd
00000170: fc72 3fbe f372 a0bb 23b9 9dbe 6d02 26be
00000180: baae dabd f611 e6bd 75d8 55be 3514 3d3e
00000190: 5f45 e63d c957 333e e218 2fbe 163d efbd
000001a0: 8fed 943e 8462 843d ef5d 343e 07e7 bb3d
000001b0: de33 4abe b535 60be 5fbe 443e 7fd4 63be
000001c0: a95f 983e 59f2 003c 3665 37be a623 443e
000001d0: be12 8f3d 5c8c 7b3e 2509 80be 7509 9bbd
000001e0: bfca 8e3e 9c5d a4bd 164a ca3c 790d c13e
000001f0: 118c b8bd d791 6fbe 67fe c13d 0f33 9cbe
00000200: a7c4 6b3d 4c84 31be 4d97 0a3e d6dc 003d
00000210: b4e8 fbbd c55d 5dbe ba1b 103e 4fa2 213e
00000220: ae1f 75be 1e93 ebbd 9da9 e0bc 82e2 943d
00000230: c3d8 2a3e e1d1 f53d b169 473e 8d8d 973e
00000240: 2e95 fc3c 89b5 e43c 2a53 3d3d 94ae dcbd
00000250: a148 45be 92f5 5e3e 8e4d 16be 459f c5bc
00000260: 08a9 c53d 0a24 30be f299 ac3c d535 8d3e
00000270: 3bea fe3c 39dd 8fbe 7c6e 6d3e b736 18be
00000280: ce58 053e 9845 3d3e 1bd1 4a3e 8a3f 5cbe
00000290: d34e 70be 73a4 75be 9ba7 693d 518b 423e
000002a0: a940 86bd b51a cc3d 6997 25be 6dbc afbe
000002b0: 46a3 00bf 1fd5 553e 33a6 7fbd ed91 863e
000002c0: 4338 c73d 5da8 3a3d 1a4a 31be f196 1fbb
000002d0: 2d88 7c3e 96d7 3c3c bd81 a43a 48dd 073e
000002e0: ffe5 713e 1db3 00be 9366 89bd 1f44 673e
000002f0: c6ef febd 0864 9fbe 19f0 363e 2194 e9bd
00000300: d02d d93b 8d5d 933e 51e7 35be 016c 09be
00000310: 16ab b03e ed36 b33e bf64 17be 1bae e83d
00000320: 8cb3 ae3c 2b02 463e cb25 7e3e b182 863e
00000330: e577 873d 5afe 3bbe be72 c3bd 05ea b8be
00000340: e9c7 05be fbdb 223e a464 2fbe 3639 893d
00000350: 692c e3bd 4feb 15bd 0427 87be ec06 4f3e
00000360: 92ad 293e 8bd7 623e 7bd8 723e dc68 563e
00000370: 83bd 613e 63cd e4bd a2f8 e5bc 1075 f0be
00000380: 0e8c 503e 63c3 083e 2259 b9bd 1f0e 913b
00000390: bb9e 75be 9a21 033d 8b00 de3c 0e24 523e
000003a0: e28f 83bd 646a 07be a967 5e3d c5b7 9fbe
000003b0: b41a ecbd 38b6 0f3e 1ba3 583e 2f4c 0dbd
000003c0: fdcc 593e 9b62 833d d162 973e a8ff 293e
000003d0: 41eb 2cbd 5226 8a3e df7d 5cbe 4d5c 593c
000003e0: 4bfd 723e 35a9 003e 3bb2 5f3e ebf8 e73d
000003f0: 26fb 88be 98dc 5fbe 5b2c 54be 1b1e 8e3d

gnn_base.gnn.gnn2.0.lin_key.bias f4 [48]
0.08713453 -0.007354566 0.07222945 0.17050907 -0.18815565 0.21262339 0.16169049 0.121203326
0.021618718 0.24572285 0.069340944 -0.029774673 -0.034259297 0.14848875 0.0365755 0.14604229
0.008560533 -0.033292446 -0.026062109 -0.11618232 -0.0924637 0.21040232 -0.020227546 0.22919059
-0.09403473 -0.06518268 0.014889151 0.1894873 0.11851462 0.0135213435 -0.13927145 0.05495129
0.018620504 0.011491121 0.034239035 0.083653666 0.008844755 0.022163603 -0.06349363 -0.10992167
0.024926053 0.039635334 -0.06318716 -0.067841105 0.018347926 -0.05814691 0.14381748 0.20386375
00000000: 9773 b23d 92fe f0bb 09ed 933d ee99 2e3e
00000010: e0ab 40be f2b9 593e 3192 253e 7339 f83d
00000020: bd19 b13c c59e 7b3e a002 8e3d 04ea f3bc
00000030: 7a53 0cbd 6f0d 183e 31d0 153d 1c8c 153e
00000040: 7a41 0c3c a95d 08bd 3480 d5bc fff0 edbd
00000050: 9c5d bdbd b573 573e 3db4 a5bc f0b0 6a3e
00000060: 4895 c0bd 7f7e 85bd a0f1 733c f508 423e
00000070: cbb7 f23d a088 5d3c 2d9d 0ebe 9b14 613d
00000080: 078a 983c 4145 3c3c 3b3e 0c3d 9d52 ab3d
00000090: 97e9 103c 7290 b53c f308 82bd 9d1e e1bd
000000a0: b931 cc3c a958 223d 4568 81bd 47f0 8abd
000000b0: 644e 963c 742b 6ebd e444 133e a9c1 503e
