model_weights/old_FA_FR/tube/jul/rots/actor.pt (torch, 202776 bytes, 58 tensors)

gnn_base.gnn.embed_layer.layer_norm.weight f4 [16]
0.8985207 0.8847776 1.1512758 1.0507767 0.8091106 1.038428 1.0504105 0.746329
1.002156 1.3000134 1.2493484 0.96651053 1.1570635 1.1955806 1.5166129 0.99669194
00000000: 7405 663f c980 623f 015d 933f da7f 863f
00000010: df21 4f3f 35eb 843f da73 863f 6b0f 3f3f
00000020: a646 803f d766 a63f a6ea 9f3f 3c6d 773f
00000030: a81a 943f c908 993f 5f20 c23f 3427 7f3f

gnn_base.gnn.embed_layer.layer_norm.bias f4 [16]
0.116836786 -0.049520537 0.12362054 -0.16389036 0.06336235 -0.0023106053 0.02622508 0.031921875
0.026284335 0.015562357 0.012877916 0.0724244 0.066629395 0.030966397 0.03584595 -0.07691103
00000000: 2048 ef3d 0cd6 4abd c42c fd3d e0d2 27be
00000010: 1fc4 813d 866d 17bb fbd5 d63c 83c0 023d
00000020: 3f52 d73c 42f9 7e3c e5fd 523c 3e53 943d
00000030: fe74 883d 3ead fd3c 34d3 123d 8883 9dbd

gnn_base.gnn.embed_layer.entity_embed.weight f4 [4, 2]
1.3336415 -0.10350571 -1.8607818 0.2117843 -1.0845224 -1.3985955 0.40334684 0.83802634
00000000: c4b4 aa3f cdfa d3bd 192e eebf fcdd 583e
00000010: a1d1 8abf 2d05 b3bf 7a83 ce3e e588 563f

gnn_base.gnn.embed_layer.lin1.weight f4 [16, 10]
-0.14849873 -0.43017527 -0.6026217 0.040137958 0.03911446 0.06400529 0.31680304 -0.41714698
-0.59808624 0.010243376 -0.98426986 -0.013478957 0.39546493 -0.39764825 0.3449805 -0.5702097
-0.34218448 0.12344562 0.1241088 -0.47372997 0.42218038 0.32117113 0.9507294 -0.5284587
0.09777063 -0.05464804 0.22022474 -0.43297485 -0.42471465 0.2677263 -0.7902944 0.09577648
0.00872587 -0.035168186 -0.48464003 -0.37357655 -0.069803916 -0.0926573 -0.2296608 -0.006912604
-0.2192661 0.09957817 -0.72378737 -0.34146082 0.21156201 0.3162971 -0.03833073 -0.33678323
0.055426884 -0.33969927 -0.3928992 -0.1346825 0.030761078 -0.050712366 0.32154202 0.26548368
-0.48264062 0.2655262 -0.6235488 0.3442367 0.008887123 0.58041483 0.6722302 -0.0997231
0.2745816 0.0034129368 -0.7743877 -0.58645594 -0.054632068 -0.52901876 -0.27870452 0.03400779
0.66781086 0.22406124 0.94851947 -0.174706 0.2635235 -0.27564502 0.15252246 -0.011325395
0.78883255 -0.15594234 0.08067247 -0.4824047 -0.12768213 -0.8949639 -0.017836941 0.013828133
-0.3356944 0.024789724 0.2665676 0.3180243 0.47192717 1.2299386 -0.28718638 -0.28956234
0.405672 -0.004413019 0.38870233 -0.04592426 -0.35367244 0.20074514 -0.55502546 -0.06307704
-0.0844789 -0.08849312 -0.4055399 -0.15278693 0.33719024 1.1052284 0.30304396 -0.056658875
-0.65934247 0.00190263 -0.3878623 -0.49111563 0.50221133 0.04596803 0.03380639 0.5272296
0.28074315 -0.60948116 -0.038180202 -1.0396045 -0.16704395 0.19792938 -0.35188642 0.37458223
0.039627407 0.22665133 0.6022793 0.9819082 0.1568924 0.18682095 0.27561715 -0.011814595
-0.022049004 0.66169035 0.34225243 -0.30436257 -0.2663995 0.95745134 -0.56399274 1.4755044
0.15384829 -0.10099613 0.26564825 0.0677504 -0.19874957 0.040015314 -0.85049653 0.5528041
-0.039636873 -0.0076974034 -0.148118 0.3149171 0.6266908 -0.075300485 -0.08983459 -0.25265244
00000000: 0d10 18be ef3f dcbe 6a45 1abf b367 243d
00000010: 7c36 203d 3515 833d 0234 a23e 4a94 d5be
00000020: 2e1c 19bf d5d3 273c 1cf9 7bbf d8d6 5cbc
00000030: 617a ca3e 8d98 cbbe 49a1 b03e 43f9 11bf
00000040: ce32 afbe 0fd1 fc3d c12c fe3d bc8c f2be
00000050: 0728 d83e 8b70 a43e 0163 733f 1249 07bf
00000060: f83b c83d a0d6 5fbd 9882 613e e1ae ddbe
00000070: 3374 d9be 6c13 893e bc50 4abf 7626 c43d
00000080: f4f6 0e3c 840c 10bd bd22 f8be 6d45 bfbe
00000090: 5bf5 8ebd 1cc3 bdbd 332c 6bbe 2083 e2bb
000000a0: 4b87 60be a4ef cb3d 214a 39bf f4d3 aebe
000000b0: b6a3 583e b2f1 a13e af00 1dbd da6e acbe
000000c0: 4d07 633d 10ed adbe 152a c9be 36ea 09be
000000d0: a8fe fb3c c5b7 4fbd 28a1 a43e 7aed 873e
000000e0: ac1c f7be 0df3 873e e5a0 1fbf cb3f b03e
000000f0: 4c9b 113c 1196 143f 4717 2c3f a03b ccbd
00000100: f695 8c3e 94ab 5f3b 463e 46bf fa21 16bf
00000110: e0c5 5fbd c66d 07bf 5cb2 8ebe c14b 0b3d
00000120: a7f5 2a3f 4f70 653e 2cd2 723f 21e6 32be
00000130: 8dec 863e 5821 8dbe d92e 1c3e 268e 39bc
00000140: eef0 493f 59af 1fbe 9c37 a53d c0fd f6be
00000150: 1bbf 02be 5b1c 65bf c71e 92bc 658f 623c
00000160: 23e0 abbe d213 cb3c 8c7b 883e 15d4 a23e
00000170: 70a0 f13e a16e 9d3f 180a 93be 8441 94be
00000180: 3eb4 cf3e 169b 90bb fe03 c73e 141b 3cbd
00000190: 8e14 b5be 2290 4d3e 2616 0ebf 892e 81bd
000001a0: 4603 adbd e23b b5bd eda2 cfbe 2d74 1cbe
000001b0: 33a4 ac3e 2078 8d3f 9428 9b3e 2313 68bd
000001c0: abca 28bf ab61 f93a e395 c6be 8273 fbbe
000001d0: ec90 003f f948 3c3d 9278 0a3d 85f8 063f
000001e0: 91bd 8f3e f506 1cbf d862 1cbd c311 85bf
000001f0: 920d 2bbe 00ae 4a3e 752a b4be 3ec9 bf3e
00000200: 5950 223d 4917 683e fa2e 1a3f 565e 7b3f
00000210: 67a8 203e fe4d 3f3e b11d 8d3e 0192 41bc
00000220: 1da0 b4bc 8a64 293f b63b af3e 69d5 9bbe
00000230: 8465 88be 881b 753f d461 10bf 54dd bc3f
00000240: 688a 1d3e 0fd7 cebd 0c03 883e b9c0 8a3d
00000250: 0285 4bbe 19e7 233d 24ba 59bf 9284 0d3f
00000260: 465a 22bd 803a fcbb 3fac 17be d03c a13e
00000270: cf6e 203f 2437 9abd 33fb b7bd a95b 81be

gnn_base.gnn.embed_layer.lin1.bias f4 [16]
-0.010222668 -0.054138765 0.022371344 0.020859053 -0.14175837 -0.13529998 -0.08808493 -0.12455008
-0.1182639 -0.09375355 0.09862867 0.15990356 0.043138683 -0.0993747 0.16121642 -0.08157822
00000000: fa7c 27bc 9cc0 5dbd 1c44 b73c 9be0 aa3c
00000010: 1b29 11be 148c 0abe df65 b4bd 1d14 ffbd
00000020: 5834 f2bd dc01 c0bd d4fd c93d c2bd 233e
00000030: 30b2 303d f684 cbbd eb15 253e 7b12 a7bd

gnn_base.gnn.embed_layer.layers.0.weight f4 [16, 16]
-0.6618764 -0.19403458 -0.2518849 -0.44504085 0.25123918 0.34364596 1.0004361 0.0713674
-0.4408894 -0.024192175 -0.17677964 0.06664943 -0.05312107 -0.5733262 -0.025010208 -0.12952077
0.013408966 -0.4481845 0.2851263 -0.46530688 0.20358612 0.58533967 0.6727176 0.19255501
-0.12950465 0.58553946 0.37019077 -0.18078932 0.23971246 0.76187795 0.37733725 0.41130275
-0.22998708 0.46181977 -0.40050662 0.20539895 -0.020014836 0.61274135 0.30387974 -0.17617193
0.46134934 -0.47892568 0.80823493 -0.06379161 0.32283148 -0.08970117 -0.61034924 0.15569463
-0.0003706116 0.41894114 -0.71429396 -0.06020267 0.1498695 0.28813267 -0.72945315 -0.050024807
-0.22139817 1.0160137 0.09270198 0.1427407 -0.7709713 0.013495476 1.4499288 -0.03180519
0.3130264 0.6218352 -0.3392287 0.08886821 -0.015055064 -0.012206021 0.01851397 -0.30321434
-0.59616333 0.068075396 -0.37261805 -0.15965866 1.10496 -0.08137789 -0.523313 0.12476237
0.16929664 0.3865515 0.6374424 -0.93431914 -0.4049469 0.15357694 0.2184755 0.19621712
0.12190704 -0.081303194 0.015314169 0.23496373 0.045803696 -0.37027434 -0.9081703 0.25503156
0.14434241 0.10624983 -0.15170565 0.3571871 -0.29902992 -0.29183277 -0.094950415 0.43956992
-0.6761506 -0.027353471 0.52722317 -0.329047 -0.52816373 0.10507903 -0.14248239 0.47492838
-0.10141834 0.25488806 0.21848004 -0.21720062 -0.24442962 0.33108598 0.47634503 -0.45935977
-0.6212528 -0.26939246 -0.2683735 -0.6005855 -0.48353562 0.59758 0.5113454 -0.38234636
-0.6565518 0.0648467 0.35549232 0.09332309 -0.15860419 0.53925836 0.34724241 0.4308638
-0.2900424 -0.29495174 -0.4630785 -0.35498437 0.13513277 -0.39922023 0.3394845 0.4721358
0.17442968 0.26834813 0.51689076 -0.004455523 0.40474525 0.03460936 -0.2225237 -0.61761254
-0.25606003 0.48274267 0.15865862 -0.48942477 -0.05614563 -0.48619583 0.4506248 0.2900645
0.3934508 -0.21142021 0.04879193 0.075370505 0.31335565 0.15154177 -0.2577606 -0.6071599
-0.14846858 -0.60649055 0.10681012 0.4781001 -0.28810036 0.32660487 -0.011089187 0.9181289
-0.14744869 -0.6388016 -0.10587318 -0.25338507 0.17080253 0.37959445 -0.51196367 -0.21648094
-1.0049402 -0.14294438 0.5604349 -0.28154737 0.466411 0.2664196 -0.26553264 -0.062304072
0.29693428 -0.6273371 -0.24302182 -0.5032134 -0.5890572 0.20740636 -0.033914134 0.02309322
-0.14203437 0.42514205 -0.226693 -0.746676 0.10757758 -0.44455075 0.19381769 0.6422106
-0.26088426 0.22567587 -0.42369705 -0.05423959 0.3407555 -0.22362459 0.20232578 0.17309393
0.13980187 -0.23097949 -0.5720001 -0.8435303 -0.36553606 0.44067517 -0.7033766 0.47091958
-0.2250888 -0.15013832 0.2714884 0.2781649 0.055743605 -0.0039654886 -0.26637083 0.17028596
0.122153655 0.7592329 -0.89366144 0.07213767 -0.39284196 0.12876494 -0.45259485 0.03669151
1.0976377 -0.24933968 -0.20004423 0.7327161 0.21145284 0.585625 -0.11564253 -0.0032090563
0.10423548 -0.40267348 -0.15356065 -0.45590544 -0.27316472 -0.18214221 -0.54237235 0.25242904
00000000: bb70 29bf 00b1 46be 0ff7 80be 65dc e3be
00000010: 6ca2 803e 5df2 af3e 4a0e 803f 1229 923d
00000020: 41bc e1be ab2e c6bc b905 35be 7f7f 883d
00000030: 7b95 59bd 81c5 12bf 35e2 ccbc 18a1 04be
00000040: 48b1 5b3c 7078 e5be 13fc 913e b43c eebe
00000050: e178 503e d2d8 153f 3837 2c3f 242d 453e
00000060: de9c 04be eae5 153f a589 bd3e d620 39be
00000070: 2f77 753e 6f0a 433f 5932 c13e 4696 d23e
00000080: bc81 6bbe a473 ec3e 340f cdbe 1a54 523e
00000090: 27f6 a3bc 9edc 1c3f 2096 9b3e 6a66 34be
000000a0: fb35 ec3e bf35 f5be 7ce8 4e3f 2da5 82bd
000000b0: 2b4a a53e 3fb5 b7bd d93f 1cbf 6a6e 1f3e
000000c0: a64e c2b9 747f d63e f8db 36bf 1397 76bd
000000d0: 6477 193e 2086 933e 71bd 3abf d0e6 4cbd
000000e0: 34b6 62be bd0c 823f 89da bd3d 9e2a 123e
000000f0: 605e 45bf 211c 5d3c 4497 b93f 2946 02bd
00000100: ff44 a03e 9730 1f3f 62af adbe 8900 b63d
00000110: 84a9 76bc c3fb 47bc 9caa 973c e93e 9bbe
00000120: 299e 18bf 1d6b 8b3d cbc7 bebe 8f7d 23be
00000130: 546f 8d3f 74a9 a6bd d7f7 05bf 6a83 ff3d
00000140: 195c 2d3e 14ea c53e 6d2f 233f 8a2f 6fbf
00000150: 3355 cfbe 4643 1d3e 0bb8 5f3e 24ed 483e
00000160: 66aa f93d 4a82 a6bd 48e8 7a3c 559a 703e
00000170: a89c 3b3d 9994 bdbe d97d 68bf 7f93 823e
00000180: 7fce 133e 8399 d93d ba58 1bbe 3ae1 b63e
00000190: 731a 99be 1b6b 95be 5d75 c2bd 4f0f e13e
000001a0: 3518 2dbf 6314 e0bc 19f8 063f d978 a8be
000001b0: bd35 07bf ad33 d73d e7e6 11be d029 f33e
000001c0: 6bb4 cfbd b080 823e 3bb9 5f3e d769 5ebe
000001d0: c24b 7abe 1a84 a93e 7fe3 f33e 3431 ebbe
000001e0: 6c0a 1fbf cfed 89be 4068 89be f9bf 19bf
000001f0: fb91 f7be 01fb 183f 88e7 023f e7c2 c3be
00000200: c713 28bf 59ce 843d 1703 b63e 2d20 bf3d
00000210: 2369 22be d60c 0a3f c2c9 b13e 2e9a dc3e
00000220: 7080 94be ea03 97be a018 edbe 83c0 b5be
00000230: 3f60 0a3e 9866 ccbe ead0 ad3e c9bb f13e
00000240: b29d 323e ed64 893e f452 043f a3ff 91bb
00000250: c53a cf3e 8bc2 0d3d 41dd 63be db1b 1ebf
00000260: 4d1a 83be 0c2a f73e 6877 223e e295 fabe
00000270: f6f8 65bd a9ee f8be 4bb8 e63e 5683 943e
00000280: 6272 c93e 8a7e 58be 0cda 473d da5b 9a3d
00000290: 2770 a03e c42d 1b3e 33f9 83be d56e 1bbf
000002a0: 2608 18be f742 1bbf 44bf da3d 89c9 f43e
000002b0: e481 93be c138 a73e 6caf 35bc 7f0a 6b3f
000002c0: cafc 16be 8088 23bf 0ad4 d8bd b0bb 81be
000002d0: dce6 2e3e 345a c23e 0d10 03bf 2ead 5dbe
000002e0: e1a1 80bf 0360 12be a978 0f3f fa26 90be
000002f0: 6ccd ee3e 2668 883e e5f3 87be 8e32 7fbd
00000300: c507 983e 2a99 20bf b6da 78be 98d2 00bf
00000310: 74cc 16bf 5562 543e 8ce9 0abd fe2d bd3c
00000320: 7571 11be 38ac d93e 3622 68be 2926 3fbf
00000330: a251 dc3d 289c e3be 2578 463e ea67 243f
00000340: 9f92 85be 9317 673e d2ee d8be 552a 5ebd
00000350: 8177 ae3e d8fd 64be 7d2e 4f3e 893f 313e
00000360: 3928 0f3e e385 6cbe 996e 12bf 9af1 57bf
00000370: 8b27 bbbe 2da0 e13e 7d10 34bf 5f1c f13e
00000380: ae7d 66be dcbd 19be 8700 8b3e a16b 8e3e
00000390: 6853 643d eef0 81bb c261 88be 715f 2e3e
000003a0: b22b fa3d 165d 423f ffc6 64bf eabc 933d
000003b0: 9522 c9be f5da 033e 83ba e7be d649 163d
000003c0: 647f 8c3f e752 7fbe 65d8 4cbe 4893 3b3f
000003d0: 1887 583e 85eb 153f fed5 ecbd 084f 52bb
000003e0: 6979 d53d 382b cebe 013f 1dbe 706c e9be
000003f0: 3fdc 8bbe 7d83 3abe ead8 0abf 613e 813e

gnn_base.gnn.embed_layer.layers.0.bias f4 [16]
-0.0663665 -0.021072978 -0.074821584 0.10737879 -0.054216966 0.03401982 -0.083958216 -0.12411349
-0.113720216 -0.12764706 -0.024185121 -0.13567087 -0.1803263 -0.12540838 -0.04162844 -0.12708983
00000000: 29eb 87bd 3da1 acbc 0f3c 99bd 69e9 db3d
00000010: 9c12 5ebd 5e58 0b3d 49f2 abbd 372f febd
00000020: 25e6 e8bd e9b5 02be e01f c6bc 4eed 0abe
00000030: 75a7 38be 0e6b 00be 9582 2abd d623 02be

gnn_base.gnn.embed_layer.layers.2.weight f4 [16]
0.8985207 0.8847776 1.1512758 1.0507767 0.8091106 1.038428 1.0504105 0.746329
1.002156 1.3000134 1.2493484 0.96651053 1.1570635 1.1955806 1.5166129 0.99669194
00000000: 7405 663f c980 623f 015d 933f da7f 863f
00000010: df21 4f3f 35eb 843f da73 863f 6b0f 3f3f
00000020: a646 803f d766 a63f a6ea 9f3f 3c6d 773f
00000030: a81a 943f c908 993f 5f20 c23f 3427 7f3f

gnn_base.gnn.embed_layer.layers.2.bias f4 [16]
0.116836786 -0.049520537 0.12362054 -0.16389036 0.06336235 -0.0023106053 0.02622508 0.031921875
0.026284335 0.015562357 0.012877916 0.0724244 0.066629395 0.030966397 0.03584595 -0.07691103
00000000: 2048 ef3d 0cd6 4abd c42c fd3d e0d2 27be
00000010: 1fc4 813d 866d 17bb fbd5 d63c 83c0 023d
00000020: 3f52 d73c 42f9 7e3c e5fd 523c 3e53 943d
00000030: fe74 883d 3ead fd3c 34d3 123d 8883 9dbd

gnn_base.gnn.gnn1.lin_key.weight f4 [48, 16]
-0.33337036 0.24616687 -0.20704117 0.026953755 0.10085393 0.07154854 0.07471087 0.03052829
-0.18368277 -0.052086353 0.26243845 0.25934628 -0.42210975 0.043743685 -0.24460007 0.14882131
-0.08812665 0.11037577 -0.0894118 0.093902774 -0.3103809 0.100495435 0.3134479 -0.3150082
0.29705682 0.06970803 -0.50384253 -0.013212637 0.13402098 0.2823414 0.19201885 -0.31264505
0.30438623 0.0091291405 0.21052301 -0.21826953 0.09759952 0.09137058 0.45583564 0.05496536
0.1756792 0.11803406 -0.13148068 -0.2871467 0.36939666 -0.38965437 -0.34114167 0.26423633
-0.0866479 -0.21319981 -0.40799558 -0.15463234 -0.06105851 -0.03476527 -0.18305607 -0.14459941
0.21877836 -0.41711447 0.30510655 0.44451353 -0.40316957 0.21024221 -0.032597646 0.07255865
0.1442356 -0.1122487 -0.38853133 -0.11959614 0.05305 0.5077091 -0.20157057 0.1685633
0.16260709 0.19443788 -0.040169623 -0.22624485 -0.33641303 0.0005885214 0.06991078 0.20694143
0.10258127 -0.004182603 0.51658076 0.35998055 0.19625114 -0.2178274 -0.15034391 0.19624579
-0.07966638 -0.048732862 0.30697438 -0.059654284 0.176857 0.0022418879 0.032832187 0.3790244
0.15679498 -0.13571009 0.56911194 -0.32607007 0.07878073 -0.2803119 0.32342234 -0.1426805
0.15371981 0.20585851 -0.07295128 0.15566134 0.339902 -0.10955871 -0.18252297 0.07182546
0.051000386 0.06227932 0.43233463 -0.08190542 -0.008662446 -0.13524412 0.10660544 -0.115707204
0.27408645 0.10171339 -0.45940048 -0.2841539 0.051774904 -0.3725047 -0.050455324 -0.07325438
-0.0360875 -0.14761056 -0.19750495 -0.3621844 -0.4535213 0.17678928 0.12000666 -0.0478596
0.1872935 -0.17737569 -0.32768515 -0.11793498 0.1719508 0.3255131 0.4746681 -0.5121379
0.35642934 0.17959568 -0.04173582 0.20767576 0.083637394 -0.0073763942 -0.21749292 0.04239578
0.20305867 0.21052383 -0.365115 -0.25138587 0.07283624 0.13799171 -0.042504344 0.068406075
0.047286093 0.04145213 -0.45331347 -0.26123974 -0.014380852 0.025736535 -0.021727663 -0.031815037
-0.04175437 -0.4995829 0.17548063 -0.1881695 -0.40565455 0.3740313 0.20741141 0.06932826
-0.20246293 -0.025165278 0.0467268 0.5351132 -0.17313905 -0.083227545 0.04501885 0.21753338
-0.497762 0.32035238 -0.14438447 -0.2198113 0.20257607 -0.20731813 -0.32562536 0.19397356
-0.1251183 -0.14644213 -0.42462468 0.15270136 0.24808711 0.16555351 -0.09837524 0.47103626
0.052583702 0.13441624 -0.015917921 -0.312499 -0.10142598 0.36724627 0.4054883 0.13277829
0.0721412 -0.1207461 0.010885938 -0.062041994 0.23169173 0.026293358 -0.20302738 -0.17762281
0.20535581 0.37509724 0.036049757 -0.08156475 0.3419871 -0.09366202 0.19114324 -0.10431758
0.18751407 0.09426742 -0.055040706 0.21979783 0.4228587 -0.3296404 -0.059710357 -0.3468964
0.119945236 -0.040657356 0.17638619 -0.050874148 -0.32274935 0.3369689 0.12344947 0.06860392
0.34709892 -0.0037414865 -0.23230535 -0.37100685 -0.095310815 0.30775115 0.015012807 -0.22354053
0.1683766 0.16501375 -0.2949689 -0.26665527 0.17559372 0.13676818 0.24784875 -0.024559481
00000000: 85af aabe 2b13 7c3e 9a02 54be 1fce dc3c
00000010: 818c ce3d 0a88 923d 0302 993d 7716 fa3c
00000020: 5617 3cbe 8058 55bd 555e 863e 09c9 843e
00000030: c51e d8be 942c 333d 7178 7abe 9d64 183e
00000040: bf7b b4bd b10c e23d 891d b7bd 1950 c03d
00000050: 3fea 9ebe 8dd0 cd3d 3e7c a03e c148 a1be
00000060: d517 983e 15c3 8e3d d3fb 00bf d179 58bc
00000070: cc3c 093e 0d8f 903e 97a0 443e 0313 a0be
00000080: 83d8 9b3e 6492 153c 5893 573e 0c82 5fbe
00000090: 42e2 c73d 8020 bb3d 4a63 e93e 5b23 613d
000000a0: 40e5 333e d7bb f13d dfa2 06be e404 93be
000000b0: 8f21 bd3e c780 c7be 1faa aebe fc49 873e
000000c0: 7474 b1bd 0d51 5abe cce4 d0be f157 1ebe
000000d0: 7d18 7abd 0766 0ebd 0d73 3bbe de11 14be
000000e0: 6f07 603e 0790 d5be ed36 9c3e 4797 e33e
000000f0: 3e6c cebe bc49 573e 1c85 05bd a199 943d
00000100: 7fb2 133e a5e2 e5bd 94ed c6be d2ee f4bd
00000110: f54a 593d 39f9 013f 8468 4ebe dc9b 2c3e
00000120: 7982 263e b91a 473e e788 24bd bbac 67be
00000130: 543e acbe 0147 1a3a 622d 8f3d 74e8 533e
00000140: 2116 d23d 380e 89bb a33e 043f 5f4f b83e
00000150: 0ff6 483e 250e 5fbe c1f3 19be a8f4 483e
00000160: 2128 a3bd 1c9c 47bd bf2b 9d3e 0d58 74bd
00000170: 001a 353e a3ec 123b 0b7b 063d 7c0f c23e
00000180: dd8e 203e 96f7 0abe 52b1 113f a8f2 a6be
00000190: cb57 a13d 0b85 8fbe 9d97 a53e d61a 12be
000001a0: ba68 1d3e 93cc 523e 7b67 95bd b065 1f3e
000001b0: a307 ae3e 5160 e0bd 4de7 3abe 3a19 933d
000001c0: c8e5 503d 9a18 7f3d f75a dd3e 07be a7bd
000001d0: efec 0dbc 6f7d 0abe f453 da3d e6f7 ecbd
000001e0: 0f55 8c3e 1c4f d03d 8a36 ebbe 9f7c 91be
000001f0: ec11 543d f0b8 bebe 3eaa 4ebd 6406 96bd
00000200: 7dd0 13bd 3927 17be bd3e 4abe 3c70 b9be
00000210: f233 e8be 4008 353e 0dc6 f53d 6e08 44bd
00000220: dec9 3f3e f9a1 35be 59c6 a7be e587 f1bd
00000230: df13 303e a7a9 a63e b207 f33e 781b 03bf
00000240: e87d b63e eee7 373e 2ef3 2abd f4a8 543e
00000250: 154a ab3d aeb5 f1bb 77b6 5ebe 33a7 2d3d
00000260: 9dee 4f3e 8f93 573e 5af0 babe a6b5 80be
00000270: 2b2b 953d b34d 0d3e 0919 2ebd 7c18 8c3d
00000280: 10af 413d b5c9 293d b418 e8be 37c1 85be
00000290: aa9d 6bbc 6dd5 d23c 36fe b1bc 7c50 02bd
000002a0: a106 2bbd 54c9 ffbe 32b1 333e 81af 40be
000002b0: f4b1 cfbe 0881 bf3e a863 543e fafb 8d3d
000002c0: 7152 4fbe 6a27 cebc 9a64 3f3d 2efd 083f
000002d0: 5d4b 31be 3473 aabd b065 383d 12c1 5e3e
000002e0: a9da febe 3a05 a43e 86d9 13be 3716 61be
000002f0: 1a70 4f3e 344b 54be 5eb8 a6be 01a1 463e
00000300: 031f 00be edf4 15be 6868 d9be bf5d 1c3e
00000310: 8c0a 7e3e dc86 293e f578 c9bd aa2b f13e
00000320: 0262 573d 69a4 093e 4d66 82bc deff 9fbe
00000330: 6db8 cfbd b407 bc3e 2a9c cf3e 08f7 073e
00000340: c4be 933d bb49 f7bd ef5a 323c bf1f 7ebd
00000350: 9940 6d3e 2b65 d73c 69e6 4fbe c1e2 35be
00000360: cb48 523e bf0c c03e e9a8 133d 6b0b a7bd
00000370: ef18 af3e e0d1 bfbd 0ebb 433e 75a4 d5bd
00000380: b003 403e 470f c13d 5d72 61bd af12 613e
00000390: ef80 d83e a0c6 a8be d992 74bd 689c b1be
000003a0: d9a5 f53d 5488 26bd 959e 343e 6961 50bd
000003b0: 673f a5be 3087 ac3e 13d3 fc3d 3680 8c3d
000003c0: f3b6 b13e ba33 75bb 74e1 6dbe 9cf4 bdbe
000003d0: 5132 c3bd 8f91 9d3e 47f8 753c cfe7 64be
000003e0: ea6a 2c3e 5df9 283e 2a06 97be 0a87 88be
000003f0: d7ce 333e f50c 0c3e 10cc 7d3e f730 c9bc

gnn_base.gnn.gnn1.lin_key.bias f4 [48]
0.19177587 0.19833444 -0.068713434 -0.1451841 -0.110739924 -0.1702267 -0.065128 -0.22527303
0.1337808 -0.23577131 -0.1559675 0.16732721 -0.18724972 0.059573125 0.18823367 0.24569711
0.12638518 -0.06689818 0.14296417 -0.008060505 -0.07687968 0.00019504671 0.05588472 0.16723761
0.10478494 0.119208656 0.038034197 -0.012851697 0.10499452 0.060447793 -0.23934239 0.040355902
-0.110998124 -0.13249567 0.097096846 0.0514117 0.042655658 -0.11814054 0.11588121 0.23440875
0.030187856 0.10231934 -0.21931809 0.1489427 0.086951755 0.11246988 0.103532925 -0.065886915
00000000: e560 443e 2f18 4b3e a1b9 8cbd 24ab 14be
00000010: 9dcb e2bd e84f 2ebe d461 85bd f9ad 66be
00000020: d6fd 083e 096e 71be f2b5 1fbe d357 2b3e
00000030: 64be 3fbe f302 743d 54c0 403e 0698 7b3e
00000040: 1e6b 013e ea01 89bd 3365 123e 3510 04bc
00000050: 1873 9dbd 7485 4c39 60e7 643d 5640 2b3e
00000060: 7d99 d63d ab23 f43d bfc9 1b3d ed8f 52bc
00000070: 5e07 d73d 1b98 773d 2c16 75be 3b4c 253d
00000080: fc52 e3bd f2ac 07be b6da c63d 1395 523d
00000090: b3b7 2e3d abf3 f1bd 2153 ed3d d908 703e
000000a0: 864c f73c cd8c d13d ec94 60be 6f84 183e
000000b0: c313 b23d 9c56 e63d 1209 d43d b8ef 86bd

gnn_base.gnn.gnn1.lin_query.weight f4 [48, 16]
-0.023909483 0.09512958 0.30418348 -0.26454648 0.16496006 0.27226913 0.27024838 -0.38853684
0.029381327 0.2817489 0.11469481 -0.38881528 0.11219399 -0.11571447 -0.09860117 0.3018504
-0.022310985 -0.13905995 -0.2906287 -0.09491259 0.20538937 0.09149553 -0.39208478 -0.17423442
0.28795284 -0.5290571 0.07385203 0.078371316 0.026684716 0.29241523 0.045939278 0.052294455
-0.22379853 0.053131122 0.27860317 0.120775424 -0.08187987 0.033677723 0.030094659 0.090993315
0.107770495 -0.52087355 0.46613476 0.028359614 -0.16082779 0.15119156 0.4333453 0.1483067
0.17751685 0.053209666 0.21801431 -0.13868621 -0.16532873 0.22818512 0.55988 0.48512268
0.26688895 0.055874314 -0.18615481 0.14179172 0.46964043 -0.04723086 -0.46362442 0.27177587
-0.3665908 0.12201334 -0.37408385 -0.17676443 -0.3336252 0.43171188 -0.48051664 -0.122755945
-0.01769296 -0.10580852 -0.028431565 -0.3169241 -0.21940868 -0.029949538 0.057578012 0.040739715
-0.17548585 0.10551294 0.03685292 -0.0025690713 0.13958271 -0.27164027 0.43879443 -0.06366411
-0.22712831 0.14589667 0.12855582 0.04743553 -0.011083018 -0.33852452 -0.008325524 -0.11907508
-0.20461912 0.08777464 0.6558566 0.14053708 -0.2210028 -0.38327074 0.07187021 0.25205308
-0.2820873 -0.52556866 -0.114500575 0.042235885 -0.02313615 -0.12896277 0.4345421 0.06596058
-0.04160931 -0.06965153 0.25006208 0.054405082 0.20766754 -0.40832794 -0.2506567 -0.17059381
-0.058196407 -0.3882471 0.0573284 0.3905061 -0.30697206 0.14559352 0.46218988 -0.025730848
-0.25135022 0.15322873 -0.22735642 -0.013629447 -0.08149512 0.22928478 -0.31702045 -0.15870018
0.33653152 -0.4920688 -0.39612004 0.04458534 0.080896854 0.3359342 -0.2529348 0.043906014
0.23937212 0.25289032 -0.34802598 0.0782855 0.21708272 -0.097235836 -0.45904547 -0.03738112
-0.001347889 -0.26626736 0.27301103 0.062274914 0.13755785 0.13895349 -0.10856674 0.08247709
0.045257494 0.23951523 -0.12760717 0.17628099 -0.42663148 0.35975268 0.33621112 0.28192395
0.4161146 0.088077694 -0.20976347 -0.28729314 0.2739562 0.01694224 -0.17179698 0.004990977
0.13494268 -0.20208181 0.20448183 -0.108542934 0.26702657 -0.11856962 -0.23913553 -0.60037214
0.06355894 0.3327479 0.4684419 0.006503583 -0.17931958 -0.32686543 0.06615769 -0.11249956
-0.21789049 -0.074092895 -0.51059467 0.15928158 -0.26130694 0.3137771 -0.5225297 -0.19627891
0.0082991235 0.07386773 0.10314851 -0.23270124 0.12696429 0.14895053 -0.26797158 -0.0754752
0.022893675 -0.18396321 -0.1779198 0.32211214 0.20455821 -0.057029627 -0.15775865 0.020744313
-0.17189232 -0.19608201 -0.14069413 0.03691365 -0.430629 -0.05629678 0.09304758 0.11382661
0.18389393 0.22761153 -0.18971854 0.41636127 -0.030470302 -0.3345087 0.1545256 0.017734049
0.12226933 -0.11530894 -0.17904077 -0.0220111 0.57316977 -0.5320056 0.025653547 0.2137978
-0.26105598 0.31883308 -0.25959918 0.011705028 -0.119900994 0.29956833 -0.6677003 0.02022711
0.11914805 -0.43626428 -0.17859335 -0.06607736 -0.4068521 0.44769916 -0.00530638 -0.1516315
00000000: d2dd c3bc 4cd3 c23d f0bd 9b3e a372 87be
00000010: 4aeb 283e dc66 8b3e ff5d 8a3e 4dee c6be
00000020: 1cb1 f03c 6441 903e 1de5 ea3d cc12 c7be
00000030: f6c5 e53d b5fb ecbd 69ef c9bd 238c 9a3e
00000040: 87c5 b6bc bb65 0ebe 49cd 94be 8861 c2bd
00000050: 9751 523e 0262 bb3d 56bf c8be 826a 32be
00000060: 8e6e 933e 4970 07bf bc3f 973d 2481 a03d
00000070: e899 da3c 73b7 953e d32a 3c3d b632 563d
00000080: 712b 65be 05a0 593d 13a5 8e3e 1b59 f73d
00000090: a2b0 a7bd a7f1 093d 1389 f63c b45a ba3d
000000a0: c7b6 dc3d f857 05bf 37a9 ee3e 6c52 e83c
000000b0: 0ab0 24be f6d1 1a3e 6fdf dd3e b6dd 173e
000000c0: fac6 353e 61f2 593d 253f 5f3e c203 0ebe
000000d0: ef4b 29be 5ca9 693e 4c54 0f3f 0062 f83e
000000e0: aba5 883e 77dc 643d 5e9f 3ebe d931 113e
000000f0: b674 f03e 2575 41bd 2e60 edbe 3526 8b3e
00000100: cab1 bbbe 21e2 f93d eb87 bfbe bc01 35be
00000110: ecd0 aabe 5709 dd3e 4706 f6be 7867 fbbd
00000120: d4f0 90bc 23b2 d8bd 50e9 e8bc e043 a2be
00000130: abac 60be bc58 f5bc ecd6 6b3d b0de 263d
00000140: 90b2 33be 2b17 d83d 16f3 163d dd5d 28bb
00000150: c5ee 0e3e 6f14 8bbe aaa9 e03e 5462 82bd
00000160: 5394 68be f065 153e 23a4 033e c24b 423d
00000170: 8c95 35bc 1653 adbe c767 08bc a3dd f3bd
00000180: ad87 51be 31c3 b33d 38e6 273f f4e8 0f3e
00000190: 8f4e 62be 103c c4be b030 933d 1a0d 813e
000001a0: bf6d 90be ab8b 06bf 477f eabd 89ff 2c3d
000001b0: 0688 bdbc d10e 04be 4d7c de3e 5716 873d
000001c0: 866e 2abd 76a5 8ebd 2308 803e ddd7 5e3d
000001d0: cda6 543e 5c10 d1be 1356 80be 25b0 2ebe
000001e0: 5b5f 6ebd 53c8 c6be 2fd1 6a3d 6af0 c73e
000001f0: 712b 9dbe 7816 153e 27a4 ec3e 80c9 d2bc
00000200: fab0 80be fee7 1c3e 1fd0 68be 0b4e 5fbc
00000210: eae6 a6bd a1c9 6a3e 8150 a2be 4d82 22be
00000220: dc4d ac3e 71f0 fbbe 3fd0 cabe 1e9f 363d
00000230: 40ad a53d 91ff ab3e ac80 81be cbd6 333d
00000240: f71d 753e d77a 813e 7630 b2be 2654 a03d
00000250: ef4a 5e3e 9523 c7bd 0208 ebbe f21c 19bd
00000260: a6ab b0ba 3254 88be 1ac8 8b3e fb13 7f3d
00000270: f7db 0c3e d349 0e3e 3d58 debd c0e9 a83d
00000280: ec5f 393d 7b43 753e 74ab 02be 0183 343e
00000290: 716f dabe 8131 b83e dd23 ac3e 5658 903e
000002a0: f90c d53e 1462 b43d 3ccc 56be 1618 93be
000002b0: fd43 8c3e 74ca 8a3c 8ceb 2fbe 598b a33b
000002c0: 6a2e 0a3e 89ee 4ebe af63 513e c24b debd
000002d0: b5b7 883e a1d4 f2bd f2df 74be fdb1 19bf
000002e0: 312b 823d ef5d aa3e 9ed7 ef3e 021c d53b
000002f0: 8d9f 37be e85a a7be af7d 873d 2b66 e6bd
00000300: af1e 5fbe 04be 97bd 55b6 02bf b61a 233e
00000310: 06ca 85be 64a7 a03e 82c4 05bf 57fd 48be
00000320: 0cf9 073c f747 973d 873f d33d 3c49 6ebe
00000330: ed02 023e 7d86 183e 9233 89be be92 9abd
00000340: 848b bb3c da60 3cbe 9c30 36be e2eb a43e
00000350: b577 513e e697 69bd 7c8b 21be faef a93c
00000360: 8a04 30be b9c9 48be 1f12 10be c432 173d
00000370: 677b dcbe 7497 66bd bb8f be3d ed1d e93d
00000380: b14e 3c3e ff12 693e 9445 42be 4e2d d53e
00000390: db9c f9bc b944 abbe f53b 1e3e ff46 913c
000003a0: 5868 fa3d 1827 ecbd 7756 37be 9f50 b4bc
000003b0: 41bb 123f 8531 08bf 6327 d23c cfed 5a3e
000003c0: 21a9 85be 173e a33e 2fea 84be 72c6 3f3c
000003d0: a78e f5bd 0561 993e 68ee 2abf 53b3 a53c
000003e0: e503 f43d 085e dfbe 2de1 36be 9153 87bd
000003f0: eb4e d0be d338 e53e 24e1 adbb 4a45 1bbe

gnn_base.gnn.gnn1.lin_query.bias f4 [48]
0.038902923 -0.14614762 0.1752107 0.051412176 -0.02146086 0.16208091 0.27461007 -0.006543647
0.19226037 -0.20522988 0.040373016 -0.009376031 0.141929 -0.05783636 -0.26412803 -0.01730405
-0.1394501 0.0019330416 -0.21366909 -0.29047403 -0.13588616 0.21765034 -0.16147873 -0.14009036
-0.25910595 0.06317684 -0.32672197 0.15138938 0.35144314 -0.04434151 0.009944274 0.3527144
-0.33193085 -0.10033842 -0.05292043 0.008568158 -0.1879429 0.3023151 0.16234389 -0.22375084
-0.026800483 0.43818703 0.072065234 0.03183939 0.09356353 -0.024081131 0.34069172 0.24455766
00000000: ac58 1f3d b9a7 15be 6f6a 333e 9395 523d
00000010: afce afbc 8af8 253e b199 8c3e 176c d6bb
00000020: e7df 443e c827 52be 2d5e 253d ed9d 19bc
00000030: d655 113e d2e5 6cbd ca3b 87be 39c1 8dbc
00000040: 02cc 0ebe 1d5e fd3a 12cc 5abe 03b9 94be
00000050: be25 0bbe bbdf 5e3e ae5a 25be d973 0fbe
00000060: 89a9 84be dc62 813d 1a48 a7be d105 1b3e
00000070: 5bf0 b33e 719f 35bd 4fed 223c fb96 b43e
00000080: d7f2 a9be 3b7e cdbd 18c3 58bd 7661 0c3c
00000090: 1b74 40be 0bc9 9a3e 7a3d 263e f11e 65be
000000a0: b08c dbbc 0d5a e03e f096 933d 056a 023d
000000b0: 3c9e bf3d cb45 c5bc 256f ae3e 536d 7a3e

gnn_base.gnn.gnn1.lin_value.weight f4 [48, 16]
-0.123847894 0.2520464 -0.15115991 -0.038890354 0.19569647 0.1456005 0.194403 0.045226056
-0.050782267 -0.107609235 -0.13014635 0.047270518 -0.35628453 0.359694 0.17200442 0.048581697
-0.1955627 -0.20845406 -0.51284164 0.06699345 0.2513133 0.14030129 -0.18630904 0.12751313
0.0882746 0.41660994 -0.019225553 0.0017302547 -0.15519416 0.23892003 0.057504315 -0.13085286
-0.05696353 -0.027623072 -0.29689422 -0.04265717 0.18598123 0.1600648 0.08371929 0.42695448
-0.20289367 0.08266413 0.27873197 0.30319345 -0.07687873 0.012000228 -0.13118029 -0.06419714
-0.0804336 -0.45531216 -0.090091005 0.30710283 -0.05464909 -0.32434034 0.2960784 -0.44972035
0.12801793 0.37588638 -0.05245731 -0.023661342 -0.059673876 0.14202978 0.028012078 -0.08285105
0.11418135 -0.1813785 0.052956987 0.015275169 -0.13978858 -0.051377457 -0.29778987 0.05123098
-0.14096065 -0.12649013 0.105081975 -0.48109436 -0.055204265 0.5379899 0.068822555 0.19958475
0.017227734 -0.18623672 0.26953423 -0.14097197 0.34299642 -0.06807823 0.25615868 -0.111052245
-0.12764509 0.17776261 0.15868546 0.30901045 -0.20772836 -0.16561201 0.29517567 0.17663422
0.24439888 0.16809838 -0.028640416 -0.7503803 -0.44588837 0.16071226 -0.038192514 -0.006618166
0.23934408 0.18116315 0.31559965 0.032119155 0.03304381 0.4896623 -0.15333286 -0.0016646835
-0.11924987 -0.20154941 0.27538463 -0.12982768 0.32959324 -0.0882358 -0.06133307 -0.0409897
-0.09334314 -0.4629611 -0.14237879 0.13570428 -0.26340327 0.021912973 0.19056436 -0.123034
0.08622237 0.03916736 0.11501739 -0.05041203 0.4494671 -0.03616539 -0.14578491 0.007790716
-0.17456686 -0.20720834 -0.094495684 0.3181925 0.09884453 -0.293961 0.25361362 0.020730514
-0.31385332 -0.3457848 0.10163065 0.15037647 0.2043168 0.30590606 0.24505651 -0.17651252
-0.21702038 -0.07614506 0.13449119 0.22933768 -0.1842863 0.05593075 -0.5486414 -0.1889095
0.1548159 -0.055309225 0.2891151 -0.24000844 0.44764546 -0.18308237 0.036452767 0.1688916
-0.041251253 0.011386338 -0.05589812 -0.14731562 -0.0096353805 0.06912328 0.274652 0.20719531
0.123437665 -0.03266356 -0.3255966 0.18719098 0.2477043 -0.011823747 -0.03872714 0.040486265
0.39139718 -0.07530582 -0.4012417 -0.030469904 0.0541488 -0.17929095 -0.0271418 -0.029062223
-0.028461166 0.44148377 -0.009989764 0.0052360254 -0.08453572 0.21055576 0.55476755 -0.009621302
0.20505308 0.124050304 -0.050265875 -0.21713406 -0.027985051 -0.16484046 -0.5717619 0.39047852
0.15457368 0.03942292 -0.58039457 -0.1831546 0.09612596 0.06561403 0.037502736 -0.08068745
0.037143737 0.20641528 0.30088007 0.05616003 -0.355844 0.28328046 -0.008609405 -0.35460684
-0.23541558 0.06697798 -0.0869607 0.35221133 -0.04323292 -0.17673475 -0.1079561 0.15837847
-0.2633587 0.124785885 0.23963751 -0.30998898 -0.09945664 -0.23155259 -0.08267866 -0.15243182
0.03073271 0.5503586 -0.7155923 0.13882074 0.10760599 -0.051129065 0.0006441942 0.36678532
-0.1893886 0.046548825 -0.14038639 0.30424398 -0.14232649 0.08799885 0.14103368 -0.009837611
00000000: f7a3 fdbd 3a0c 813e aac9 1abe 7e4b 1fbd
00000010: a864 483e 4c18 153e 9411 473e f53e 393d
00000020: 1101 50bd 3b62 dcbd 1645 05be bb9e 413d
00000030: ed6a b6be d029 b83e ed21 303e 9afd 463d
00000040: 9741 48be fb74 55be 9749 03bf dd33 893d
00000050: 23ac 803e 24ab 0f3e ccc7 3ebe cd92 023e
00000060: 50c9 b43d e64d d53e e87e 9dbc b7c9 e23a
00000070: 38eb 1ebe 74a7 743e a589 6b3d 4bfe 05be
00000080: 9752 69bd c849 e2bc 8502 98be 49b9 2ebd
00000090: dd71 3e3e 07e8 233e 0575 ab3d c799 da3e
000000a0: 5cc3 4fbe d04b a93d f5b5 8e3e 2c3c 9b3e
000000b0: 9872 9dbd 9b9c 443c 2054 06be ca79 83bd
000000c0: 5fba a4bd ad1e e9be a281 b8bd 953c 9d3e
000000d0: b9d7 5fbd f00f a6be 9797 973e bf41 e6be
000000e0: 2217 033e 2e74 c03e 7add 56bd 6ed5 c1bc
000000f0: 986c 74bd 4170 113e 9679 e53c d0ad a9bd
00000100: e9d7 e93d 49bb 39be 6de9 583d b444 7a3c
00000110: bd24 0fbe 2b71 52bd ea77 98be 93d7 513d
00000120: fd57 10be a186 01be 3835 d73d 0052 f6be
00000130: de1d 62bd b5b9 093f d7f2 8c3d f25f 4c3e
00000140: 2d21 8d3c d7b4 3ebe 6400 8a3e f55a 10be
00000150: 3a9d af3e 996c 8bbd 3b27 833e 5c6f e3bd
00000160: 65b5 02be 6707 363e 717e 223e 9e36 9e3e
00000170: beb6 54be 3296 29be 4421 973e 9adf 343e
00000180: b343 7a3e fb21 2c3e 4e9f eabc ec18 40bf
00000190: 7b4b e4be c191 243e c16f 1cbd 33dd d8bb
000001a0: 9d16 753e d582 393e 4796 a13e 608f 033d
000001b0: f258 073d 04b5 fa3e 4a03 1dbe 8231 daba
000001c0: 4739 f4bd f862 4ebe 37ff 8c3e 8cf1 04be
000001d0: 72c0 a83e f9b4 b4bd 6338 7bbd d1e4 27bd
000001e0: b02a bfbd 3d09 edbe bfcb 11be 10f6 0a3e
000001f0: cbdc 86be d682 b33c 4e23 433e 40f9 fbbd
00000200: 5b95 b03d f46d 203d 3d8e eb3d d87c 4ebd
00000210: 8d20 e63e 2922 14bd a448 15be 4349 ff3b
00000220: a8c1 32be 6c2e 54be f486 c1bd 21ea a23e
00000230: 006f ca3d 0e82 96be a5d9 813e 0ad3 a93c
00000240: 62b1 a0be b50a b1be bb23 d03d 4afc 193e
00000250: 6c38 513e b89f 9c3e 18f0 7a3e b3bf 34be
00000260: 973a 5ebe f1f1 9bbd 0fb8 093e 7fd7 6a3e
00000270: 8cb5 3cbe a417 653d c373 0cbf 7e71 41be
00000280: 0f88 1e3e ed8b 62bd e506 943e c6c4 75be
00000290: c931 e53e f279 3bbe 7f4f 153d ebf1 2c3e
000002a0: 13f7 28bd c38d 3a3c 6df5 64bd e8d9 16be
000002b0: b7dd 1dbc 8290 8d3d 309f 8c3e 022b 543e
000002c0: e3cc fc3d 3aca 05bd 99b4 a6be feae 3f3e
000002d0: 32a6 7d3e 64b8 41bc 59a0 1ebd edd4 253d
000002e0: 3665 c83e f039 9abd 8d6f cdbe 059c f9bc
000002f0: 22cb 5d3d 0c98 37be 7b58 debc e613 eebc
00000300: 6427 e9bc 290a e23e 1bac 23bc f792 ab3b
00000310: 1021 adbd ee9b 573e 3f05 0e3f aaa2 1dbc
00000320: 6ff9 513e 160e fe3d 97e3 4dbd 6458 5ebe
00000330: e840 e5bc f0cb 28be fd5e 12bf cdec c73e
00000340: 9048 1e3e ee79 213d bd94 14bf e18c 3bbe
00000350: b0dd c43d a660 863d 789c 193d 763f a5bd
00000360: 0824 183d 875e 533e f40c 9a3e 0f08 663d
00000370: 2f31 b6be 230a 913e 760e 0dbc 078f b5be
00000380: c810 71be c02b 893d 7418 b2bd 0b55 b43e
00000390: 0115 31bd f4f9 34be 1618 ddbd f72d 223e
000003a0: f4d6 86be be8f ff3d 8963 753e e0b6 9ebe
000003b0: ecaf cbbd 1f1c 6dbe 6e53 a9bd 1617 1cbe
000003c0: 2ac3 fb3c 4de4 0c3f 0f31 37bf 0627 0e3e
000003d0: 8760 dc3d b66c 51bd 24df 283a 49cb bb3e
000003e0: 16ef 41be fba9 3e3d 73c1 0fbe dec5 9b3e
000003f0: 09be 11be be38 b43d 226b 103e ee2d 21bc

gnn_base.gnn.gnn1.lin_value.bias f4 [48]
0.34052682 0.1473622 -0.2506426 -0.13401765 0.15946181 0.08726271 0.22328222 0.0051432555
-0.065568626 0.15476458 -0.17976797 0.09106253 -0.23048659 -0.15191989 0.20652422 -0.06434007
0.30087787 -0.13305482 -0.18479195 -0.14723603 -0.16489066 0.19850917 0.20402415 0.20373271
0.08534239 -0.2354171 -0.35219586 0.011039314 -0.14857061 0.14436795 -0.027671307 0.054781333
0.33451658 0.32312092 0.013081648 -0.30849183 -0.09981903 -0.0910398 0.11795552 -0.03485825
0.15033856 0.06421828 -0.33919716 -0.01228957 -0.11952707 0.08086787 -0.12641531 -0.14716077
00000000: 8859 ae3e 1ee6 163e 3a54 80be ec3b 09be
00000010: f549 233e cbb6 b23d 18a4 643e c188 a83b
00000020: d848 86bd 9b7a 1e3e 1815 38be fe7e ba3d
00000030: ad04 6cbe e390 1bbe 167b 533e bac4 83bd
00000040: aa0c 9a3e 863f 08be 1a3a 3dbe 0bc5 16be
00000050: 19d9 28be fd45 4b3e b5eb 503e 4f9f 503e
00000060: fec7 ae3d 2e11 71be 0453 b4be 3dde 343c
00000070: e522 18be 31d5 133e f0ae e2bc 6462 603d
00000080: c245 ab3e 1b70 a53e 6954 563c a4f2 9dbe
00000090: eb6d ccbd 1373 babd aa92 f13d 86c7 0ebd
000000a0: 5af2 193e e084 833d 40ab adbe 315a 49bc
000000b0: 9cca f4bd 0e9e a53d 0473 01be 50b1 16be

gnn_base.gnn.gnn1.lin_edge.weight f4 [48, 1]
0.8375073 0.47776443 -0.7958873 0.8088216 -0.6447878 0.8354478 -0.4924001 0.55313945
0.1995634 -0.06390323 0.5266509 0.8515696 -0.9343596 0.2592877 0.78943694 -0.49568057
0.84014195 0.7220646 -0.96806455 0.5295207 -1.1766801 0.5809688 -0.9590176 -0.7881146
-0.15410517 -0.81245136 -0.17126608 -0.39251217 0.37645778 -0.07447145 -0.7933333 -0.54884505
0.32629398 0.4627887 -0.72985154 -0.57130766 0.19453005 -0.5842269 -0.82508457 -1.5658859
-0.62054735 -0.75083977 -0.003393715 0.7626915 0.42890018 -0.79175353 1.066318 -1.2075647
00000000: e166 563f 8a9d f43e 45bf 4bbf ef0e 4f3f
00000010: d010 25bf e8df 553f de1b fcbe 8c9a 0d3f
00000020: 595a 4c3e b2df 82bd 98d2 063f 7700 5a3f
00000030: 3132 6fbf 5bc1 843e 8a18 4a3f d8c9 fdbe
00000040: 8b13 573f 3ad9 383f 14d3 77bf ab8e 073f
00000050: 749d 96bf 5fba 143f 2d82 75bf e1c1 49bf
00000060: bfcd 1dbe d0fc 4fbf 6060 2fbe 5bf7 c8be
00000070: 13bf c03e 7d84 98bd e417 4bbf 1c81 0cbf
00000080: 0110 a73e a4f2 ec3e 8dd7 3abf 3841 12bf
00000090: e332 473e e58f 15bf be38 53bf f36e c8bf
000000a0: 31dc 1ebf 0937 40bf 1769 5ebb c03f 433f
000000b0: ce98 db3e 5cb0 4abf 1c7d 883f 7b91 9abf

gnn_base.gnn.gnn1.lin_skip.weight f4 [16, 16]
-0.17116798 0.132417 0.1317372 0.20109315 -0.3088495 -0.3467067 -0.035773057 -0.24882554
-0.26298678 0.09361935 0.2403469 -0.03815299 0.2649993 -0.5271391 0.012307224 0.14630595
0.12868309 -0.0310287 -0.40284398 -0.09329321 0.36446434 -0.7710063 -0.013030189 -0.12235784
0.13488744 -0.06920952 0.16759354 0.31794733 0.08091438 -0.0022853934 -0.12245714 -0.12608063
-0.065936565 -0.114676416 -0.31405038 0.11538936 -0.028898554 0.5257136 -0.050934322 0.40985647
-0.20556289 -0.38164952 0.17699888 -0.1494277 -0.17754672 -0.087190084 -0.3464123 -0.32252634
0.2911815 0.043303307 0.16949932 0.110137716 0.0038180563 -0.05297148 0.10318155 -0.45703316
-0.02281776 -0.038384773 -0.10720916 0.21798891 0.17267542 -0.053432107 0.28026643 0.058463763
0.25063387 -0.109756865 -0.48232743 0.54075974 -0.11645383 -0.64958 0.112902805 -0.091289185
-0.050654225 -0.27342877 0.10945282 -0.031044014 0.1995685 0.22389029 0.24699879 0.21046743
0.07914174 0.04264988 -0.47716436 -0.27496073 0.37333462 -0.1109829 -0.15599145 0.117316924
-0.041731976 0.07213196 0.08374229 0.21262388 -0.24998976 0.04860449 -0.2831484 -0.17481583
0.10743062 -0.16661718 0.18145132 0.19781695 -0.14503248 -0.12140354 0.077317275 0.15319589
0.022104569 -0.020768652 0.18799299 -0.057309877 -0.060115512 0.196197 0.058227785 -0.32352385
-0.14603962 -0.28317526 -0.08049486 0.012301988 0.23472644 -0.09551132 -0.18520197 0.060927786
-0.15643443 -0.08808195 0.40788183 0.23031542 0.13923022 -0.24998435 0.2583509 -0.014039114
0.115013465 -0.30118108 -0.31893846 0.11445028 -0.19620739 -0.027767103 0.05969524 0.14440975
-0.048065837 -0.06965023 0.27394503 0.32660404 0.12593666 -0.5180631 0.44973376 0.041093342
0.078983046 -0.28619355 0.12296669 0.045134608 -0.11181771 0.15788661 0.09974744 0.15477026
-0.024037294 -0.28886434 0.37670168 0.28824604 0.11323425 -0.3662519 0.097835556 0.19197491
0.10846393 0.15198041 -0.1476294 0.14161459 0.023316713 -0.28284404 0.0487257 0.12980284
0.23219188 0.46231484 -0.003475293 -0.21443 0.011125694 -0.3643694 -0.32089236 0.014976517
0.10078722 0.53096294 0.04738222 -0.14915346 0.10628852 0.15355098 0.19301952 0.1631172
0.63987803 -0.25628978 -0.32172045 -0.0008078303 0.30088654 0.19472627 0.00069479545 0.18051809
0.08358675 -0.13703322 0.079146974 -0.0062425556 -0.4200851 0.21205017 0.23456387 0.09051215
0.36245134 -0.2482354 0.08253478 -0.212299 0.0377171 0.47493407 -0.035510603 0.24411438
0.05015371 0.05158871 -0.123910524 -0.629749 0.08064578 0.2149543 -0.01791115 -0.10665024
0.28416255 0.1993676 -0.082084365 0.085543714 0.16498189 0.011524036 0.2883143 -0.08926238
-0.22760813 -0.4764549 0.21833213 -0.44435033 -0.11855863 0.018055975 0.3465413 -0.16898975
-0.24458018 0.26104224 0.35018218 0.16819379 -0.20382741 0.13666813 -0.07454641 0.07033582
0.046525475 -0.13579185 0.051532757 -0.3763909 -0.18373784 0.337402 0.13859676 -0.2700955
0.39411718 -0.027288338 -0.19297813 -0.5124666 0.39504874 0.27465138 -0.12892036 0.03653169
00000000: a946 2fbe 5298 073e 1ee6 063e 5deb 4d3e
00000010: 8621 9ebe 8a83 b1be c586 12bd 1fcc 7ebe
00000020: 34a6 86be 80bb bf3d 7f1d 763e 4f46 1cbd
00000030: fdad 873e 97f2 06bf 3da4 493c 3ad1 153e
00000040: 80c5 033e e62f febc 9141 cebe 8310 bfbd
00000050: 129b ba3e ab60 45bf 937c 55bc bf96 fabd
00000060: ef1f 0a3e b9bd 8dbd a49d 2b3e fec9 a23e
00000070: 70b6 a53d 8ac6 15bb cfca fabd 481b 01be
00000080: c009 87bd 78db eabd 36cb a0be 4251 ec3d
00000090: a9bc ecbc 2b95 063f 82a0 50bd b5d8 d13e
000000a0: 147f 52be 9167 c3be 323f 353e 9303 19be
000000b0: cfce 35be b790 b2bd f45c b1be 2c22 a5be
000000c0: be15 953e cf5e 313d 3b91 2d3e e28f e13d
000000d0: 5b38 7a3b 9ff8 58bd d950 d33d 4000 eabe
000000e0: 50ec babc 5a39 1dbd 7a90 dbbd 7c38 5f3e
000000f0: d3d1 303e a0db 5abd 157f 8f3e b377 6f3d
00000100: 1553 803e 35c8 e0bd 9ff3 f6be 3b6f 0a3f
00000110: 587f eebd e04a 26bf 9639 e73d d3f5 babd
00000120: ce7a 4fbd dbfe 8bbe cd28 e03d 0450 febc
00000130: af5b 4c3e 7f43 653e 40ed 7c3e c684 573e
00000140: 1115 a23d a4b1 2e3d e34e f4be a7c7 8cbe
00000150: b725 bf3e 014b e3bd 39bc 1fbe db43 f03d
00000160: 26ef 2abd ecb9 933d 1481 ab3d 13ba 593e
00000170: 51fd 7fbe 8015 473d d4f8 90be ec02 33be
00000180: 9604 dc3d b29d 2abe 60ce 393e 8790 4a3e
00000190: 6583 14be 6ba2 f8bd 8558 9e3d 62df 1c3e
000001a0: a414 b53c 0523 aabc 3c81 403e c3bd 6abd
000001b0: af3b 76bd dee7 483e 4280 6e3d eba4 a5be
000001c0: 698b 15be 59fc 90be 7dda a4bd 478e 493c
000001d0: 215c 703e 709b c3bd 96a5 3dbe 6a8f 793d
000001e0: 5930 20be 4f64 b4bd e3d5 d03e ced7 6b3e
000001f0: 5e92 0e3e e6fb 7fbe 9246 843e 5004 66bc
00000200: 2e8c eb3d 6834 9abe e74b a3be e964 ea3d
00000210: 97ea 48be d677 e3bc ff82 743d 26e0 133e
00000220: afe0 44bd c8a4 8ebd 8642 8c3e a538 a73e
00000230: 8af5 003e c99f 04bf 8143 e63e 7e51 283d
00000240: ddc1 a13d f687 92be f6d5 fb3d 11df 383d
00000250: af00 e5bd 07ad 213e 6348 cc3d 187c 1e3e
00000260: dce9 c4bc 07e6 93be 0bdf c03e fc94 933e
00000270: 5ce7 e73d 5e85 bbbe 025e c83d 1295 443e
00000280: 5622 de3d c1a0 1b3e 292c 17be 6a03 113e
00000290: b102 bf3c efd0 90be 9994 473d 09eb 043e
000002a0: b5c3 6d3e 88b4 ec3e bec1 63bb 8a93 5bbe
000002b0: 8b48 363c a08e babe 014c a4be 1160 753c
000002c0: 8869 ce3d 30ed 073f dc13 423d afbb 18be
000002d0: ccad d93d 783c 1d3e e9a6 453e 3208 273e
000002e0: 0ccf 233f 6a38 83be 8bb8 a4be 93c4 53ba
000002f0: cd0d 9a3e 5366 473e ef22 363a bcd9 383e
00000300: 882f ab3d 7052 0cbe cf17 a23d 5a8e ccbb
00000310: 6515 d7be ae23 593e 8331 703e 6f5e b93d
00000320: 3993 b93e 6c31 7ebe ff07 a93d e964 59be
00000330: 3f7d 1a3d 8f2a f33e 9173 11bd 1ff9 793e
00000340: fa6d 4d3d af4e 533d cdc4 fdbd 3b37 21bf
00000350: 9d29 a53d fb1c 5c3e 67ba 92bc 716b dabd
00000360: c17d 913e 0527 4c3e d91b a8bd 8b31 af3d
00000370: 03f1 283e 4fcf 3c3c ef9d 933e 32cf b6bd
00000380: 1b12 69be e6f1 f3be 7592 5f3e e381 e3be
00000390: dece f2bd 20ea 933c dc6d b13e a60b 2dbe
000003a0: 3a73 7abe 54a7 853e 144b b33e fe3a 2c3e
000003b0: 22b8 50be bbf2 0b3e caab 98bd 3a0c 903d
000003c0: 7f91 3e3d 050d 0bbe 0314 533d 4fb6 c0be
000003d0: c625 3cbe f4bf ac3e 4fec 0d3e f549 8abe
000003e0: bac9 c93e cb8b dfbc 0f9c 45be 0331 03bf
000003f0: d443 ca3e 1b9f 8c3e b303 04be 41a2 153d

gnn_base.gnn.gnn1.lin_skip.bias f4 [16]
0.13148455 -0.002764519 -0.070909984 -0.04235995 -0.0035538634 0.13090792 0.17155313 0.016002262
0.20030677 -0.1591729 -0.27998877 -0.2342771 -0.07699041 0.17708367 -0.097831786 -0.32514295
00000000: e3a3 063e ef2c 35bb 4139 91bd a081 2dbd
00000010: efe7 68bb ba0c 063e a0ab 2f3e 2d17 833c
00000020: 381d 4d3e 38fe 22be b05a 8fbe 56e6 6fbe
00000030: 26ad 9dbd 6c55 353e 085c c8bd 2379 a6be

gnn_base.gnn.gnn2.0.lin_key.weight f4 [48, 16]
-0.33840778 -0.0006973685 -0.4140151 0.64120144 0.13375324 0.15214795 0.05399002 -0.08870954
-0.08959567 -0.08509389 0.24675083 -0.06618905 -0.07423316 -0.108239934 -0.1733517 0.18259162
0.002701489 -0.38362345 0.27501333 -0.43543833 -0.31571764 0.09759439 -0.16263679 -0.00019112858
-0.017551895 -0.119776845 0.08350325 -0.16586491 0.20836028 0.33109155 0.36169425 0.25535548
0.2727747 0.046973094 -0.17378636 -0.39110363 -0.108455405 -0.33750325 -0.028786438 0.057061363
0.2334399 0.09431785 -0.115395084 -0.288174 -0.20315555 0.3476465 0.3002172 -0.29942453
-0.17126688 -0.33965802 -0.17574975 0.32468003 -0.0040138583 0.19101639 -0.022914004 -0.036806606
-0.36193165 0.12086933 0.11857158 0.18493544 -0.16603261 -0.13720056 0.022571376 0.22841676
0.2921801 -0.31024355 0.34642258 -0.3444864 -0.5996074 -0.32546908 0.23258513 0.10466625
-0.06998115 0.043063834 0.18411371 -0.116549686 0.29083455 0.18946709 0.3443606 0.27187404
-0.0013610986 0.13107246 -0.19702873 -0.2923489 0.16494009 -0.18227848 -0.26705047 0.23983048
0.36508712 0.2539341 0.042611696 -0.19527791 0.2492868 0.13473862 0.059559837 0.12511809
-0.025043288 -0.2519234 0.52842253 -0.50066274 -0.6241759 -0.21405412 -0.3414682 -0.086421266
0.27691004 0.03159461 0.11470574 -0.23618792 0.14567512 0.16021904 0.1848016 0.28470582
-0.25816023 0.1409871 -0.13037014 0.33427215 -0.09335201 -0.06470486 -0.11424098 0.26069012
0.18833306 0.07659096 -0.021320783 -0.065734416 -0.1219623 -0.003976991 -0.1468948 0.11928893
-0.09711617 0.4135448 -0.42303386 0.65712935 0.3433914 0.019086597 -0.1796243 -0.10277267
-0.036597595 0.2461627 -0.32296652 0.015617908 -0.097818986 -0.21794981 -0.30856028 -0.3510635
-0.25306562 -0.0728059 -0.11499275 0.52183694 0.4349267 0.007395996 0.20123333 0.05432
-0.017702393 0.013797985 -0.28033993 0.49508741 -0.26423746 0.0676634 -0.46029618 -0.07884798
-0.13260691 -0.28973433 -0.20000942 0.33532804 0.44919467 0.026950607 0.05878281 -0.07346202
0.044552866 0.02054861 0.13230973 0.287339 0.18665326 -0.26553518 -0.25243607 0.19813186
0.3332859 -0.22006069 0.299972 -0.026984004 -0.03454088 0.067931704 0.061692216 -0.14146145
-0.11673143 0.15666305 -0.21154276 0.06666201 0.015536112 -0.043234564 0.3164727 -0.1009847
-0.027480675 -0.513433 0.12748618 -0.37410995 -0.4302372 -0.22173603 0.12916227 -0.19312666
0.09751013 -0.04293377 0.06068948 -0.22477667 -0.024539793 0.0329638 0.27316117 0.17248362
-0.13633145 0.19353637 -0.13166603 0.09899137 0.171744 -0.077096485 -0.1199049 0.30450034
0.029953515 0.03606239 0.07053296 0.31000316 0.013269816 0.08512989 -0.41197824 0.005457117
0.33023238 0.53964067 -0.2944118 0.27252403 -0.11412344 -0.20530331 -0.016206814 -0.16701895
0.26724803 0.23296311 -0.48517832 -0.08443575 0.07619059 0.2031254 0.22775483 -0.22791348
0.0404561 0.37004486 -0.07108076 -0.093121536 -0.044407994 -0.11499031 0.13418682 -0.091534846
0.048243854 0.20072037 -0.33933422 -0.1834846 0.0054401797 0.048684314 0.1000529 -0.13378175
00000000: c943 adbe 9ccf 36ba caf9 d3be c725 243f
00000010: 9cf6 083e accc 1b3e a424 5d3d 59ad b5bd
00000020: ef7d b7bd b545 aebd 40ac 7c3e 208e 87bd
00000030: 8e07 98bd e6ac ddbd 1c83 31be 4cf9 3a3e
00000040: 770b 313b 4b6a c4be 8cce 8c3e c6f1 debe
00000050: bea5 a1be 91df c73d 428a 26be b069 48b9
00000060: fec8 8fbc 904d f5bd c003 ab3d 7ed8 29be
00000070: 665c 553e d584 a93e fd2f b93e f4bd 823e
00000080: 20a9 8b3e dc66 403d 0df5 31be bc3e c8be
00000090: de1d debd 3acd acbe 89d1 ebbc 2db9 693d
000000a0: df0a 6f3e b829 c13d 4254 ecbd 8b8b 93be
000000b0: 0208 50be b9fe b13e 12b6 993e 2c4e 99be
000000c0: 9660 2fbe a8e7 adbe bef7 33be 763c a63e
000000d0: af86 83bb cd99 433e 26b6 bbbc 86c2 16bd
000000e0: 1b4f b9be 578a f73d a8d5 f23d b75f 3d3e
000000f0: 7404 2abe 4e7e 0cbe 9be7 b83c 15e6 693e
00000100: a198 953e 3ed8 9ebe 4d5e b13e 8560 b0be
00000110: df7f 19bf e2a3 a6be cc2a 6e3e 425b d63d
00000120: 4752 8fbd b463 303d 4e88 3c3e 9ab1 eebd
00000130: 44e8 943e a903 423e 0850 b03e 1333 8b3e
00000140: e466 b2ba dc37 063e e6c1 49be c1ae 95be
00000150: 0ee6 283e 36a7 3abe d7ba 88be 1f96 753e
00000160: b3ec ba3e a603 823e 9a89 2e3d eff6 47be
00000170: 0a45 7f3e ecf8 093e 04f5 733d f51e 003e
00000180: 9527 cdbc 1bfc 80be b346 073f 6f2b 00bf
00000190: fec9 1fbf 0131 5bbe ebd4 aebe a2fd b0bd
000001a0: 27c7 8d3e 5a69 013d d8ea ea3d 3fdb 71be
000001b0: dc2b 153e 7610 243e a13c 3d3e f6c4 913e
000001c0: 942d 84be ec5e 103e c07f 05be b825 ab3e
000001d0: 572f bfbd fb83 84bd 2df7 e9bd 2d79 853e
000001e0: 62da 403e b9db 9c3d eca8 aebc c49f 86bd
000001f0: 5fc7 f9bd 6b51 82bb 976b 16be c14d f43d
00000200: d8e4 c6bd 25bc d33e e597 d8be a139 283f
00000210: ffd0 af3e 7f5b 9c3c 6fef 37be 7a7a d2bd
00000220: 5ce7 15bd 1312 7c3e de5b a5be 41e2 7f3c
00000230: 5255 c8bd 3c2e 5fbe 9dfb 9dbe 98be b3be
00000240: d191 81be 421b 95bd 5281 ebbd 1b97 053f
00000250: b6ae de3e 1c5a f23b 1c10 4e3e a67e 5e3d
00000260: 9c04 91bc f210 623c b788 8fbe 197c fd3e
00000270: 224a 87be 1c93 8a3d f1ab ebbe 0d7b a1bd
00000280: 1bca 07be 0f58 94be 45cf 4cbe 1eb0 ab3e
00000290: d8fc e53e 85c7 dc3c 3ec6 703d 4173 96bd
000002a0: 117d 363d 8f55 a83c 347c 073e 191e 933e
000002b0: 0822 3f3e 3af4 87be 4d3f 81be 14e3 4a3e
000002c0: 73a4 aa3e 9757 61be ee95 993e 8f0d ddbc
000002d0: bd7a 0dbd c71f 8b3d fab0 7c3d 45db 10be
000002e0: e310 efbd 476c 203e aa9e 58be 1886 883d
000002f0: 2d8b 7e3c ba16 31bd b608 a23e 11d1 cebd
00000300: 271f e1bc 5870 03bf bd8b 023e 578b bfbe
00000310: 0d48 dcbe c50e 63be 1d43 043e ffc2 45be
00000320: 64b3 c73d 52db 2fbd 8895 783d db2b 66be
00000330: ad07 c9bc 0d05 073d c8db 8b3e 8c9f 303e
00000340: 799a 0bbe 662e 463e 76d3 06be fdbb ca3d
00000350: a9dd 2f3e c3e4 9dbd b390 f5bd 78e7 9b3e
00000360: 1361 f53c 28b6 133d 9673 903d bcb8 9e3e
00000370: a469 593c 9458 ae3d d0ee d2be 9ed1 b23b
00000380: 3814 a93e e425 0a3f 25bd 96be 4588 8b3e
00000390: 8db9 e9bd 083b 52be 27c4 84bc 0407 2bbe
000003a0: bcd4 883e e28d 6e3e 4b69 f8be a7ec acbd
000003b0: d009 9c3d 1b00 503e 9038 693e 2762 69be
000003c0: 4cb5 253d 8576 bd3e ca92 91bd 81b6 bebd
000003d0: 28e5 35bd 0a80 ebbd 4568 093e 9f76 bbbd
000003e0: 599b 453d a489 4d3e 37bd adbe 63e3 3bbe
000003f0: 8943 b23b 3469 473d 89e8 cc3d 15fe 08be

gnn_base.gnn.gnn2.0.lin_key.bias f4 [48]
-0.22418116 0.077335306 -0.10501406 -0.16498807 0.074052595 0.11564401 0.20176287 0.24442086
0.08707089 -0.07241189 -0.042712416 0.18863842 -0.19430318 0.17973413 0.11560797 0.09590379
0.077400915 -0.20746501 0.10027491 -0.015119999 0.0032306744 -0.11643459 0.18069519 -0.041862734
0.0019505705 -0.21358304 0.19169323 -0.23099715 0.15480591 0.10922446 0.038254566 -0.24177456
-0.11508283 -0.016569959 -0.1848982 -0.080993935 -0.05518098 -0.07883226 0.17391965 0.22908634
-0.111835286 0.12904423 0.01497534 0.18310632 -0.2177655 -0.12347543 -0.050595235 0.23996302
00000000: bf8f 65be f961 9e3d 9d11 d7bd a2f2 28be
00000010: e3a8 973d c4d6 ec3d ed9a 4e3e 7649 7a3e
00000020: 3952 b23d af4c 94bd 37f3 2ebd 6e2a 413e
00000030: 6af7 46be 390c 383e dfc3 ec3d 3569 c43d
00000040: 5f84 9e3d b571 54be ef5c cd3d dfb9 77bc
00000050: b9b9 533b 4275 eebd 2908 393e 4278 2bbd
00000060: 49aa ff3a 83b5 5abe 3b4b 443e 848a 6cbe
00000070: 7185 1e3e 13b1 df3d d2b0 1c3d c093 77be
00000080: 8cb0 ebbd b9bd 87bc f455 3dbe 26e0 a5bd
00000090: 7405 62bd cf72 a1bd fe17 323e 9c95 6a3e
000000a0: e609 e5bd 2c24 043e 215b 753c 3980 3b3e
000000b0: ebfd 5ebe b0e0 fcbd f33c 4fbd deb8 753e
