model_weights/old_FA_FR/tube/jul/rots/critic.pt (torch, 191627 bytes, 57 tensors)

gnn_base.gnn.embed_layer.layer_norm.weight f4 [16]
1.195276 1.0692307 0.9957676 1.1299803 1.0207096 1.3506459 0.8196835 0.99550116
1.0817425 0.74533087 0.8769787 0.9640174 1.099665 1.0696594 1.0761507 0.8777553
00000000: cefe 983f 8ddc 883f a0ea 7e3f 32a3 903f
00000010: 9da6 823f f7e1 ac3f c7d6 513f 2ad9 7e3f
00000020: 8a76 8a3f 01ce 3e3f ad81 603f d8c9 763f
00000030: d3c1 8c3f 99ea 883f 4ebf 893f 92b4 603f

gnn_base.gnn.embed_layer.layer_norm.bias f4 [16]
0.09012715 -0.14868304 -0.13384236 0.060580526 0.19707607 0.07158613 0.09444528 -0.04582017
-0.037349723 0.117568634 0.2033577 0.07292606 0.26566422 0.43587765 0.10188464 -0.24224968
00000000: 9594 b83d 5e40 18be f90d 09be 4923 783d
00000010: 4fce 493e c09b 923d 876c c13d eead 3bbd
00000020: 06fc 18bd d3c7 f03d 003d 503e 425a 953d
00000030: 2405 883e 5b2b df3e e5a8 d03d 4d10 78be

gnn_base.gnn.embed_layer.entity_embed.weight f4 [4, 2]
-2.0442824 -1.177693 -0.5371063 -1.2281183 0.7975289 -1.8917067 -0.21673648 0.64907736
00000000: 86d5 02c0 a5be 96bf cc7f 09bf fb32 9dbf
00000010: db2a 4c3f 7223 f2bf 2bf0 5dbe ef29 263f

gnn_base.gnn.embed_layer.lin1.weight f4 [16, 10]
0.9233658 -0.20700467 1.2290561 -0.44181478 0.17325546 -0.08209536 -0.06221351 -0.3197681
-0.50678194 -0.11100731 -0.022648105 0.031717047 -0.6709305 -0.37030175 0.3017481 -0.20012759
-0.15841803 -0.62693715 -0.15232126 0.40321317 0.2792199 0.2707241 0.3238304 0.040388368
-0.055598784 0.17952277 0.9537443 -0.57487583 -0.42748928 0.33065763 -0.053903658 -0.96768916
0.603496 -1.189445 0.07675139 -0.2909026 -2.178675 -0.29181328 0.032375317 -0.30942708
-0.31967807 -0.93540263 0.56168693 0.17214382 0.49441764 0.4649861 -0.61910695 0.7173563
0.5857263 -0.24380256 0.19333342 1.0114056 0.42072722 1.8273051 -0.04792524 -0.41398188
-0.12627381 -0.5216692 0.36978576 -0.022663983 0.19416218 0.13810964 0.47555333 0.0015749887
0.07098778 0.4754873 -0.07905919 0.15031154 0.46552783 0.39430878 -0.20097306 -0.36539593
-0.252523 0.040856536 0.32813033 0.18961582 0.047434952 0.019739814 -0.3628636 1.1508819
-0.272596 -0.21060663 -0.48502028 0.5737635 0.44664246 -0.19484769 0.8000925 -0.32649663
-0.21034978 -1.0685419 -0.4407697 1.1862272 -0.3340118 0.8296034 -0.13699628 0.9805753
0.20287652 0.3044378 -0.30822852 0.089719504 -0.14605743 -0.24048613 -0.47747824 -0.6144878
-0.14665085 -0.26530725 0.29747388 0.51916134 -0.43635243 0.054504737 -0.68079984 -0.18582228
-0.38755327 -0.105227455 -0.38537088 0.002382123 -0.6459777 -0.4545499 -0.26077053 0.097011685
-0.757771 -0.017321575 -0.5624772 -0.33465084 0.40439138 0.3404721 0.18627907 0.009205561
0.30921552 0.67247593 0.42480445 -0.5274615 -0.29983273 -0.5536029 0.6872978 0.19588068
-0.08148536 0.5504264 -0.19433044 0.5105137 0.5421256 0.1481937 0.14228444 0.67338485
0.71123725 0.05187456 -0.18419932 0.11145801 0.97742385 0.19283248 -0.64871943 0.16878071
0.34635556 0.5773655 0.3652844 -0.9851656 -0.03488185 0.19747716 -0.052887175 0.33226272
00000000: b361 6c3f 08f9 53be b651 9d3f 8c35 e2be
00000010: e169 313e 9d21 a8bd 98d3 7ebd a5b8 a3be
00000020: 76bc 01bf cd57 e3bd 8588 b9bc bce9 013d
00000030: 1ac2 2bbf 3198 bdbe ba7e 9a3e 3fee 4cbe
00000040: 5638 22be f47e 20bf 1bfa 1bbe f571 ce3e
00000050: e9f5 8e3e 599c 8a3e 19cd a53e 466e 253d
00000060: 8dbb 63bd d1d4 373e 9628 743f 102b 13bf
00000070: e0df dabe f54b a93e 15ca 5cbd 7aba 77bf
00000080: b77e 1a3f bc3f 98bf d52f 9d3d 30f1 94be
00000090: 696f 0bc0 8d68 95be fb9b 043d 3a6d 9ebe
000000a0: d8ac a3be 8c76 6fbf b7ca 0f3f 7846 303e
000000b0: 4f24 fd3e a812 ee3e cb7d 1ebf aaa4 373f
000000c0: 29f2 153f 61a7 79be 32f9 453e bd75 813f
000000d0: 8f69 d73e 22e5 e93f 424d 44bd 6ff5 d3be
000000e0: ec4d 01be 1d8c 05bf 8f54 bd3e d1a9 b9bc
000000f0: 73d2 463e 9d6c 0d3e ba7b f33e da6f ce3a
00000100: 0b62 913d 1273 f33e c9e9 a1bd 45eb 193e
00000110: aa59 ee3e d7e2 c93e e2cb 4dbe 2d15 bbbe
00000120: b24a 81be 2f59 273d b300 a83e a62a 423e
00000130: 274b 423d 64b5 a13c 42c9 b9be 1950 933f
00000140: b491 8bbe 44a9 57be 9454 f8be 2ae2 123f
00000150: 52ae e43e 2786 47be ddd2 4c3f 912a a7be
00000160: ef65 57be fbc5 88bf 91ac e1be 4bd6 973f
00000170: 9803 abbe e360 543f c148 0cbe fc06 7b3f
00000180: ddbe 4f3e 45df 9b3e 21d0 9dbe dcbe b73d
00000190: 1490 15be ff41 76be 0778 f4be 134f 1dbf
000001a0: a42b 16be 5ad6 87be 7f4e 983e c2e7 043f
000001b0: 9669 dfbe 5c40 5f3d e648 2ebf 3248 3ebe
000001c0: 626d c6be 7e81 d7bd 554f c5be 641d 1c3b
000001d0: cb5e 25bf c4ba e8be b783 85be 10ae c63d
000001e0: 48fd 41bf fae5 8dbc 81fe 0fbf 5b57 abbe
000001f0: 630c cf3e 5c52 ae3e f1bf 3e3e ecd2 163c
00000200: 7f51 9e3e 6227 2c3f f87f d93e b807 07bf
00000210: ad83 99be ebb8 0dbf c0f2 2f3f f294 483e
00000220: cce1 a6bd bfe8 0c3f 8ffe 46be 07b1 023f
00000230: bec8 0a3f 17c0 173e 03b3 113e f362 2c3f
00000240: a513 363f 6b7a 543d bf9e 3cbe 1944 e43d
00000250: 7338 7a3f e175 453e 7a12 26bf dad4 2c3e
00000260: 8455 b13e 3ace 133f 8f06 bb3e d033 7cbf
00000270: 45e0 0ebd 7437 4a3e 39a0 58bd 571e aa3e

gnn_base.gnn.embed_layer.lin1.bias f4 [16]
0.008848628 0.15599012 0.18548861 0.07558085 -0.4814442 0.010400372 -0.13151544 0.024144758
-0.01288827 0.15190016 0.10195202 0.14969747 0.07535856 0.16100755 -0.12933195 -0.21765417
00000000: d6f9 103c e0bb 1f3e baf0 3d3e 22ca 9a3d
00000010: db7f f6be 5266 2a3c fcab 06be 3acb c53c
00000020: 5329 53bc b78b 1b3e 38cc d03d 4b4a 193e
00000030: 9755 9a3d 2adf 243e 986f 04be bce0 5ebe

gnn_base.gnn.embed_layer.layers.0.weight f4 [16, 16]
0.25306982 -0.8335875 0.090101965 0.41257468 0.5601026 -0.15374894 -0.18706709 -0.97667235
0.9135308 0.24157773 0.020809093 0.70788044 -0.5685125 -0.2713947 0.2569087 -0.14975005
0.7310802 -0.34348878 0.9091728 0.24525279 -0.36518025 0.4231212 -0.35936308 0.17028026
-0.039649677 -0.030229362 -0.20654465 -0.011714855 0.20987608 0.12379621 0.31905136 0.45636514
0.46517858 -0.24798806 -0.12720464 -0.08463447 -0.56260014 -0.2598399 -0.18726458 0.33152437
0.67918086 0.4037413 0.5013642 0.14778522 0.060437806 0.9488421 -0.3555214 0.1097561
-0.71832 0.1693321 0.30537352 -0.5599897 -0.074416555 0.72505856 0.23270032 -0.18919949
0.8691574 -0.40731293 -0.45836082 0.519125 0.20240963 0.82355404 -0.14266409 0.07424361
-0.20399421 -0.81655264 0.8413935 0.16256078 0.19338757 0.37955534 -0.20398057 0.07052796
0.19741999 -0.15880091 0.48416665 -0.42488414 0.3641621 0.25656056 -0.42927498 -0.63421404
-0.20623654 -0.07980527 0.44597164 -0.5961604 0.57296795 -0.7652442 0.5374366 -0.14822903
0.32344845 0.1047479 0.66184586 -0.6275546 -0.21261984 -0.14037041 0.4731353 0.59024113
0.43565726 0.34778607 0.12537804 0.8755202 -0.528779 0.13033326 0.48042127 0.44555557
0.28681183 0.32851398 -0.10719624 -0.39387363 -0.12646218 -0.24105595 0.65590376 -0.35135922
-0.44600978 -0.7592815 -0.3135139 0.43269762 -0.47207025 -0.057024904 -0.18454762 0.38417003
-0.01282963 0.950931 -0.48087808 0.2209781 -0.6379797 -0.30394107 -0.6001011 -0.08421611
0.2736035 -0.01843829 0.40435782 -0.023101175 0.17330201 0.08079175 0.66370124 0.5930571
0.13454166 0.35291222 -0.7494929 0.23565473 0.036369942 -0.27849367 -0.37718308 -0.2122657
0.20046158 -0.28141806 -0.22764553 -0.022792036 -0.491802 0.053925924 0.119461656 0.6193026
-0.0044868886 -0.25471923 0.4840775 0.8045971 -0.06079961 0.4117782 0.061786268 -0.44434208
-0.33849958 0.20112586 -1.9163917 0.33978882 0.2863566 -0.3417534 0.07079542 -0.23520114
-0.84357923 -0.13920276 0.2871946 0.015342853 -0.22245131 0.54790163 0.064338624 0.3889128
0.531902 -0.1834578 -0.40756273 -0.28585124 0.22116978 0.2590681 0.123049565 0.34937552
-0.14826739 0.22087026 -0.037994154 -1.0149648 -0.28447092 0.22284713 0.78334665 -1.1020417
0.16844797 0.089095235 0.06599334 0.7870804 0.67057914 -0.9423404 0.5573376 -0.04822931
-0.3401915 0.26470527 0.57428664 0.054594833 -1.0418102 -0.05661461 -0.5390888 0.10841448
-0.11629906 -0.27168572 -0.73439825 -0.7160289 0.18772578 -0.006716415 0.44038248 -0.15272392
-0.8529297 0.33110878 -0.20550263 0.57324815 -0.14731182 0.84140956 0.60111016 -0.14534128
-0.36766028 -0.553897 0.3737905 -0.9994055 -0.47229543 0.4537871 0.33276373 -0.080399826
0.045867227 -0.42355618 -0.5593407 -0.4368357 -0.16798016 -0.17593339 -0.20766479 0.17906617
-0.5010861 0.7563183 0.5596634 0.010757739 -0.09048954 -0.2526292 -0.72261304 0.35956502
-0.20870571 -0.36681598 0.18934256 0.15293698 -0.57564837 0.2595611 -0.13308023 0.15119186
00000000: 5e92 813e fe65 55bf 6187 b83d fd3c d33e
00000010: e262 0f3f 5d70 1dbe 848e 3fbe 3307 7abf
00000020: 28dd 693f 2760 773e d577 aa3c a737 353f
00000030: 098a 11bf 3ff4 8abe 8a89 833e 1458 19be
00000040: 1228 3b3f c3dd afbe 8cbf 683f 8c23 7b3e
00000050: e8f8 babe 58a3 d83e 70fe b7be f35d 2e3e
00000060: b367 22bd 91a3 f7bc 7180 53be aaef 3fbc
00000070: c1e9 563e de88 fd3d b35a a33e b1a8 e93e
00000080: e32b ee3e 95f0 7dbe ef41 02be d654 adbd
00000090: 9006 10bf bc09 85be 49c2 3fbe 90bd a93e
000000a0: ccde 2d3f 2eb7 ce3e 6759 003f 0255 173e
000000b0: a28d 773d 51e7 723f e706 b6be cec7 e03d
000000c0: d2e3 37bf 6565 2d3e eb59 9c3e 7c5b 0fbf
000000d0: b567 98bd 709d 393f fe48 6e3e 83bd 41be
000000e0: 1981 5e3f 528b d0be 45ae eabe 60e5 043f
000000f0: 7844 4f3e 70d4 523f 8916 12be 090d 983d
00000100: dce3 50be 9809 51bf 9065 573f 5576 263e
00000110: 6407 463e 1455 c23e 48e0 50be f770 903d
00000120: 7728 4a3e b59c 22be b1e4 f73e 6a8a d9be
00000130: 7473 ba3e e85b 833e eec9 dbbe da5b 22bf
00000140: ac2f 53be f270 a3bd 6556 e43e f89d 18bf
00000150: 07ae 123f 0be7 43bf 7295 093f 5ac9 17be
00000160: 099b a53e 1186 d63d bb6e 293f 6ba7 20bf
00000170: 04b9 59be 43bd 0fbe ca3e f23e 0b1a 173f
00000180: 780e df3e 0411 b23e 1a63 003e 1822 603f
00000190: 0f5e 07bf 1576 053e c7f9 f53e dc1f e43e
000001a0: 00d9 923e fc32 a83e b489 dbbd cea9 c9be
000001b0: 4d7f 01be 5fd7 76be 4fe9 273f 5be5 b3be
000001c0: 655b e4be 4660 42bf e584 a0be 8b8a dd3e
000001d0: 31b3 f1be f292 69bd 0dfa 3cbe efb1 c43e
000001e0: 5e33 52bc 3770 733f a735 f6be 1548 623e
000001f0: a352 23bf 2a9e 9bbe 3aa0 19bf 7f79 acbd
00000200: c215 8c3e e60b 97bc fd07 cf3e ad3e bdbc
00000210: 1576 313e 2576 a53d 53e8 293f 97d2 173f
00000220: 4ac5 093e e9b0 b43e c4de 3fbf 794f 713e
00000230: a6f8 143d b996 8ebe 241e c1be 2e5c 59be
00000240: cd45 4d3e 0716 90be e91b 69be 5db6 babc
00000250: 79cd fbbe 6ee1 5c3d 50a8 f43d 9d8a 1e3f
00000260: c006 93bb 8f6a 82be 02d9 f73e 13fa 4d3f
00000270: 0309 79bd 98d4 d23e 9913 7d3d ce80 e3be
00000280: d14f adbe f0f3 4d3e 534c f5bf cdf8 ad3e
00000290: 559d 923e 4dfa aebe 30fd 903d 91d8 70be
000002a0: cff4 57bf 2b8b 0ebe 2c0b 933e 9760 7b3c
000002b0: 47ca 63be 4843 0c3f f8c3 833d 941f c73e
000002c0: bb2a 083f 5ddc 3bbe 10ac d0be 185b 92be
000002d0: 557a 623e 93a4 843e 6901 fc3d 59e1 b23e
000002e0: 68d3 17be d02b 623e c29f 1bbd 5eea 81bf
000002f0: 2ca6 91be 0a32 643e 6889 483f b40f 8dbf
00000300: a07d 2c3e 9077 b63d 8427 873d 1a7e 493f
00000310: 13ab 2b3f 383d 71bf adad 0e3f 198c 45bd
00000320: 952d aebe 7387 873e 7304 133f d59e 5f3d
00000330: 095a 85bf b9e4 67bd b901 0abf 6908 de3d
00000340: 342e eebd 641a 8bbe 8601 3cbf ac4d 37bf
00000350: 303b 403e 5f15 dcbb d079 e13e a963 1cbe
00000360: 9a59 5abf 1787 a93e 486f 52be 64c0 123f
00000370: e9d8 16be 9e66 573f 5be2 193f 58d4 14be
00000380: f83d bcbe 32cc 0dbf 7861 bf3e 0ad9 7fbf
00000390: b5d0 f1be c856 e83e 0260 aa3e aaa8 a4bd
000003a0: 46df 3b3d 5bdc d8be f430 0fbf eea8 dfbe
000003b0: fe02 2cbe e227 34be 14a6 54be 1f5d 373e
000003c0: 2e47 00bf 139e 413f 1a46 0f3f 3a41 303c
000003d0: 9452 b9bd 9d58 81be 2bfd 38bf e818 b83e
000003e0: f3b6 55be 4ecf bbbe 04e3 413e 839b 1c3e
000003f0: b15d 13bf 31e5 843e 2f46 08be 0ad2 1a3e

gnn_base.gnn.embed_layer.layers.0.bias f4 [16]
-0.060894378 0.09835276 -0.03323192 0.27021915 0.14917368 -0.18913573 0.016756793 0.12555549
-0.18881194 0.0069540064 0.1979654 0.12973182 0.096938215 -0.24904549 -0.11686609 -0.086184256
00000000: 626c 79bd 2c6d c93d 321e 08bd 2a5a 8a3e
00000010: fcc0 183e ccac 41be 8b45 893c 9e91 003e
00000020: eb57 41be 6fde e33b 71b7 4a3e 6bd8 043e
00000030: 8b87 c63d c805 7fbe 7d57 efbd 5f81 b0bd

gnn_base.gnn.embed_layer.layers.2.weight f4 [16]
1.195276 1.0692307 0.9957676 1.1299803 1.0207096 1.3506459 0.8196835 0.99550116
1.0817425 0.74533087 0.8769787 0.9640174 1.099665 1.0696594 1.0761507 0.8777553
00000000: cefe 983f 8ddc 883f a0ea 7e3f 32a3 903f
00000010: 9da6 823f f7e1 ac3f c7d6 513f 2ad9 7e3f
00000020: 8a76 8a3f 01ce 3e3f ad81 603f d8c9 763f
00000030: d3c1 8c3f 99ea 883f 4ebf 893f 92b4 603f

gnn_base.gnn.embed_layer.layers.2.bias f4 [16]
0.09012715 -0.14868304 -0.13384236 0.060580526 0.19707607 0.07158613 0.09444528 -0.04582017
-0.037349723 0.117568634 0.2033577 0.07292606 0.26566422 0.43587765 0.10188464 -0.24224968
00000000: 9594 b83d 5e40 18be f90d 09be 4923 783d
00000010: 4fce 493e c09b 923d 876c c13d eead 3bbd
00000020: 06fc 18bd d3c7 f03d 003d 503e 425a 953d
00000030: 2405 883e 5b2b df3e e5a8 d03d 4d10 78be

gnn_base.gnn.gnn1.lin_key.weight f4 [48, 16]
-0.37821233 -0.20309292 0.19849518 0.3291454 0.0067115566 0.4629065 -0.23008859 -0.17443715
-0.18118575 -0.016094038 -0.07232578 -0.047230124 -0.0411844 -0.10871489 0.3336813 -0.095833585
0.136348 0.21059978 -0.118295066 -0.33747497 -0.049371272 0.042598814 0.1812425 0.21569632
0.14424562 0.0891391 0.11327862 0.45846984 0.21534686 -0.014345458 0.30651036 -0.50862956
0.055727977 0.069154315 0.17591879 -0.1202493 -0.30094576 -0.2841766 0.18636833 0.11800221
-0.065116584 0.2603411 0.33198 -0.018881276 0.25373247 0.13591485 0.025519935 -0.4468219
0.1592416 0.345429 0.14772184 0.30226865 -0.04082345 -0.026632914 0.012047042 0.119507164
0.10545758 -0.22333497 -0.048167575 0.081207775 -0.2366818 -0.08170004 -0.29475185 0.1734207
-0.24533278 -0.084541276 0.29831684 -0.15332901 -0.042095494 0.26446918 -0.07135178 0.22456363
-0.23450115 0.16855066 0.065208085 0.1704673 -0.17338865 0.18640089 0.20140003 0.19556104
-0.107927255 -0.2525283 -0.2304832 -0.13834473 0.13095768 0.34902206 -0.4023279 -0.30353326
-0.21930301 0.17126237 -0.3386011 0.105382025 -0.049247216 -0.1960034 -0.10266645 0.54965585
0.01992302 -0.02691112 -0.010529036 -0.08109999 0.086234935 -0.27351588 0.13301611 -0.19701143
0.43476477 0.103086315 -0.0070613446 0.0654936 0.027930472 0.09699233 -0.12048677 0.5725283
0.19264373 -0.10378956 -0.15182443 0.0030597353 0.036221992 0.40150857 -0.34591064 0.056304768
-0.10454981 0.32572287 -0.049487196 0.2269848 0.23747578 -0.009405491 0.0833894 0.15628542
0.24600396 -0.007790884 -0.30284306 0.39414826 -0.026197989 -0.12990813 -0.19878826 -0.13722122
-0.2062725 0.08419276 0.21850842 -0.2371914 0.2670773 0.0047111767 0.28761938 -0.40294608
0.00061230315 -0.66780084 -0.25960928 0.6202934 0.44095343 -0.14564234 -0.3137345 -0.124660216
-0.04444801 0.12080222 -0.44888258 -0.1815051 -0.024736397 -0.31037995 0.48860508 0.2746054
0.31659555 0.03576532 -0.28471628 -0.009280727 0.04007144 -0.16170067 -0.28566763 0.26493272
0.23419265 -0.03536759 -0.06226101 -0.25720763 -0.009745911 0.1635521 -0.1545167 0.38388178
-0.240663 0.09729593 -0.11942677 -0.42527547 0.018878797 -0.30498987 0.21242501 -0.09964847
-0.07503759 -0.18211651 -0.22347054 -0.12852499 -0.11699578 0.12355465 -0.20053264 -0.01486972
-0.2090932 0.26630244 0.35470754 -0.36590695 -0.3259244 -0.022404596 0.06920112 0.22463924
0.3388118 0.07238534 0.17381492 -0.08418221 0.06630216 -0.17554656 -0.4955491 0.44666272
0.39177924 -0.30563873 -0.35756072 0.34871 0.277224 0.070558004 0.08335174 -0.16335878
-0.422316 -0.20254913 -0.23745729 -0.104723446 -0.25196296 -0.0030531453 0.31602234 -0.25444934
0.0027813127 -0.24200073 -0.1361906 -0.326364 -0.19839764 -0.04179078 0.123654716 0.018741831
0.023747781 0.106623314 0.35275295 0.23410414 0.28137168 0.17475098 -0.24853206 -0.29716235
0.16800311 0.019938575 0.057033516 0.144854 -0.2385796 0.041638736 -0.0027679568 -0.11676328
-0.081055395 0.16232796 -0.25178167 -0.19518077 -0.26234016 -0.06604407 -0.20944153 0.17224683
00000000: 0ca5 c1be 97f7 4fbe 5242 4b3e bf85 a83e
00000010: 9eec db3b 1502 ed3e 589c 6bbe a79f 32be
00000020: c288 39be a5d7 83bc 8a1f 94bd 6074 41bd
00000030: f9b0 28bd eaa5 debd 46d8 aa3e 6644 c4bd
00000040: cf9e 0b3e 78a7 573e af44 f2bd 85c9 acbe
00000050: 8839 4abd 187c 2e3d a297 393e 7fdf 5c3e
00000060: 20b5 133e 8f8e b63d 9ffe e73d 8fbc ea3e
00000070: e383 5c3e 3609 6bbc edee 9c3e 8c35 02bf
00000080: 0543 643d c7a0 8d3d 0e24 343e 4445 f6bd
00000090: 9015 9abe 987f 91be 57d7 3e3e 25ab f13d
000000a0: d85b 85bd 6e4b 853e 48f9 a93e e8ac 9abc
000000b0: 39e9 813e 432d 0b3e 2f0f d13c d7c5 e4be
000000c0: 3b10 233e 12dc b03e 6544 173e f5c2 9a3e
000000d0: 7d36 27bd 452d dabc f560 453c 2cc0 f43d
000000e0: 25fa d73d ecb1 64be 5d4b 45bd 4350 a63d
000000f0: b75c 72be 5a52 a7bd b7e9 96be 3295 313e
00000100: 8438 7bbe fa23 adbd fcbc 983e 4802 1dbe
00000110: 536c 2cbd 8168 873e e220 92bd 02f4 653e
00000120: 1221 70be 8b98 2c3e d18b 853d fb8e 2e3e
00000130: cb8c 31be e0df 3e3e cf3b 4e3e 2741 483e
00000140: f708 ddbd 644b 81be ca03 6cbe 3eaa 0dbe
00000150: c519 063e 05b3 b23e ecfd cdbe b668 9bbe
00000160: f890 60be 675f 2f3e 205d adbe 88d2 d73d
00000170: 73b7 49bd 1eb5 48be ca42 d2bd 3fb6 0c3f
00000180: 9a35 a33c b674 dcbc fa81 2cbc c017 a6bd
00000190: f19b b03d 460a 8cbe 6035 083e 5dbd 49be
000001a0: 7d99 de3e eb1e d33d da62 e7bb 8221 863d
000001b0: 72ce e43c eaa3 c63d c5c1 f6bd 3791 123f
000001c0: 6644 453e 9f8f d4bd dd77 1bbe d785 483b
000001d0: 835d 143d 8892 cd3e 331b b1be d49f 663d
000001e0: 361e d6bd 26c5 a63e 16b3 4abd b46e 683e
000001f0: da2c 733e 7d19 1abc 10c8 aa3d 4909 203e
00000200: 76e8 7b3e ac4a ffbb 3f0e 9bbe cdcd c93e
00000210: 2a9d d6bc a306 05be 268f 4bbe b883 0cbe
00000220: 1939 53be 416d ac3d acc0 5f3e 4de2 72be
00000230: 5bbe 883e 3760 9a3b d942 933e f34e cebe
00000240: f882 203a fff4 2abf 82eb 84be 8ccb 1e3f
00000250: a6c4 e13e 4423 15be cfa1 a0be db4d ffbd
00000260: 1e0f 36bd 2867 f73d f0d3 e5be 79dc 39be
00000270: fca3 cabc 1fea 9ebe 722a fa3e 1499 8c3e
00000280: d018 a23e a87e 123d 55c6 91be 310e 18bc
00000290: f321 243d dc94 25be 0743 92be 43a5 873e
000002a0: 33d0 6f3e 9bdd 10bd 6705 7fbd b8b0 83be
000002b0: 50ad 1fbc 347a 273e a039 1ebe 278c c43e
000002c0: 5d70 76be 1743 c73d 0696 f4bd b5bd d9be
000002d0: b5a7 9a3c a227 9cbe f185 593e 7f14 ccbd
000002e0: 4fad 99bd c07c 3abe 76d5 64be 0e9c 03be
000002f0: 7c9b efbd 380a fd3d 6e58 4dbe 20a0 73bc
00000300: 871c 56be cb58 883e 3a9c b53e 2858 bbbe
00000310: 90df a6be d889 b7bc 51b9 8d3d d407 663e
00000320: be78 ad3e c43e 943d 8afc 313e b967 acbd
00000330: 6dc9 873d 7ac2 33be 9db8 fdbe fab0 e43e
00000340: 4a97 c83e ae7c 9cbe 3312 b7be 1e8a b23e
00000350: 4ef0 8d3e b780 903d 51b4 aa3d 8647 27be
00000360: ce39 d8be 0a69 4fbe 0128 73be 3f79 d6bd
00000370: 4a01 81be 4717 48bb aecd a13e 2f47 82be
00000380: af46 363b 0acf 77be 8c75 0bbe 2f19 a7be
00000390: c028 4bbe cf2c 2bbd af3e fd3d 7888 993c
000003a0: b58a c23c 535d da3d 099c b43e ffb8 6f3e
000003b0: f30f 903e ecf1 323e 307f 7ebe aa25 98be
000003c0: 0209 2c3e 3956 a33c fa9b 693d 9b54 143e
000003d0: 364e 74be 618d 2a3d 9c66 35bb 9621 efbd
000003e0: 5f00 a6bd 4d39 263e 87e9 80be 78dd 47be
000003f0: 7351 86be 1d42 87bd d777 56be 7961 303e

gnn_base.gnn.gnn1.lin_key.bias f4 [48]
-0.08206407 0.06334144 -0.029132372 -0.24716015 -0.14462206 -0.15950827 0.14763936 0.11600452
0.14524269 0.15619081 -0.11547129 0.17220682 0.23426184 0.0752668 0.18023612 -0.014117231
0.13857226 0.24776371 -0.12073761 0.21694264 -0.12824912 0.13421553 -0.068051025 -0.12700933
0.21149926 0.22641821 -0.033327773 -0.24711816 -0.23999813 0.1312047 -0.22913896 0.0057724584
-0.18950237 -0.012243106 0.023974456 -0.086959474 -0.07604736 0.17651717 -0.17604697 -0.13995029
0.010589761 0.088852435 0.1574257 0.08853949 -0.07159621 0.1264774 0.123509035 0.1920296
00000000: 3511 a8bd 28b9 813d 03a7 eebc 8d17 7dbe
00000010: ce17 14be 2356 23be c62e 173e c793 ed3d
00000020: 80ba 143e 7cf0 1f3e 367c ecbd fc56 303e
00000030: 56e2 6f3e 7b25 9a3d d18f 383e f54b 67bc
00000040: e3e5 0d3e c5b5 7d3e 4845 f7bd 3626 5e3e
00000050: bd53 03be cc6f 093e 565e 8bbd bc0e 02be
00000060: 4393 583e 2dda 673e b482 08bd 8b0c 7dbe
00000070: 12c2 75be 865a 063e 67a3 6abe e426 bd3b
00000080: e90c 42be 4f97 48bc 1466 c43c cf17 b2bd
00000090: b8be 9bbd ebc0 343e a845 34be 214f 0fbe
000000a0: ad80 2d3c 44f8 b53d 3434 213e 3154 b53d
000000b0: 09a1 92bd 4b83 013e 4ef2 fc3d 68a3 443e

gnn_base.gnn.gnn1.lin_query.weight f4 [48, 16]
-0.052264884 0.09651302 0.27163464 0.46097127 0.038645998 0.25887352 -0.2651313 0.22757193
0.14015968 0.13003644 -0.28418446 -0.1996351 -0.41088578 -0.027286118 0.35561466 -0.08106645
0.27725798 -0.18950734 0.078080066 0.30565017 -0.4946955 -0.369333 -0.008234175 0.31968907
-0.064162225 0.16025154 0.33645752 0.103868075 0.18174338 -0.023607202 -0.37498906 0.3375687
0.30497202 0.2349656 -0.17549677 0.08692316 -0.047213923 -0.17891192 0.3104671 0.25564596
-0.45333087 -0.25070778 0.3125719 0.08729645 0.31179684 -0.12028883 -0.12547383 0.2481123
-0.011298359 0.13077013 0.27489293 -0.618886 0.15194756 -0.046262406 0.078875415 0.043328296
0.23196039 0.21740712 0.07067271 -0.1702686 -0.014619835 0.1813097 0.08043836 -0.35160223
0.011596902 -0.108907074 0.382141 0.43778852 -0.0036398945 0.26507872 0.2990656 -0.057900313
0.24223948 0.07027725 -0.073733374 0.23748007 -0.13638239 -0.120965056 0.06411239 -0.33067188
-0.38907754 -0.35018015 0.2944559 0.12068029 0.29038 0.44134092 -0.2716933 0.03544016
0.33682105 0.080134585 0.06538636 -0.10845249 -0.28604627 -0.2812863 0.37598044 -0.32364106
-0.19609207 -0.051163945 0.32770172 -0.3889088 0.08728734 0.40138945 -0.11148555 -0.04684353
-0.25551698 0.11135858 0.14742078 -0.03213674 -0.0168953 -0.09978958 -0.24640314 -0.06430191
-0.22267254 -0.3313882 0.074875236 0.25441116 -0.016346278 0.20743454 0.23534255 -0.3885885
-0.070745304 0.20682171 -0.2934683 -0.1541162 0.1518504 -0.2696564 0.37290254 -0.10741268
0.39582875 0.3086838 -0.1654823 0.29127163 -0.119500466 -0.27467728 -0.00048721867 -0.24904051
0.02115304 0.08734855 -0.1532641 0.12296921 0.2657035 0.054294374 -0.043922026 0.3790976
-0.28108758 0.33566505 -0.7537325 0.55892634 0.5410688 0.25872117 -0.35608205 -0.51595634
0.45871767 -0.201844 -0.44869247 -0.07374488 -0.31595403 -0.207229 0.19598578 0.5120543
-0.15221463 -0.09968473 -0.030298928 -0.09135492 0.017532092 0.28328747 -0.05228642 -0.31739038
0.17177773 -0.043582715 0.020262351 0.34305114 0.15360858 -0.18359113 -0.3290054 0.37741962
0.066963315 -0.32745048 0.34081295 -0.11086548 -0.10942823 0.297616 -0.12419882 -0.020002663
-0.26462486 -0.14824945 -0.15053788 -0.108129166 0.09353464 0.13329974 -0.391074 -0.25490502
-0.23633303 -0.35582346 0.51405704 -0.65084183 -0.06894604 0.47564483 -0.050354715 0.12587278
-0.113137774 -0.007509394 0.39977756 0.42755294 0.29798865 0.16527139 -0.26484475 -0.5373241
-0.11506936 -0.06492496 -0.30120108 0.17582606 0.3640791 -0.27824044 -0.14243051 0.03220933
0.4750091 -0.1625962 -0.34768397 -0.38817397 -0.4369779 -0.33998543 -0.006998211 0.2654935
0.14056288 -0.13235138 -0.585055 0.08360507 0.062466353 -0.2657547 0.3524455 -0.08489844
-0.47970808 -0.16110848 0.36919084 0.09822035 0.16674681 0.14639513 -0.4337435 0.25765288
0.14417623 0.21226618 -0.5678997 -0.18921392 0.26943067 0.118238844 0.21510561 0.079631746
0.1591848 0.06143264 0.05807956 0.1759971 0.18634237 -0.13528855 0.063382015 -0.18309715
00000000: b413 56bd 9ea8 c53d b213 8b3e 6d04 ec3e
00000010: 444b 1e3d 128b 843e 4abf 87be 9e08 693e
00000020: 0586 0f3e 4628 053e a080 91be 256d 4cbe
00000030: 9f5f d2be 2387 dfbc 2013 b63e 2b06 a6bd
00000040: c2f4 8d3e 360e 42be 71e8 9f3d 2e7e 9c3e
00000050: bb48 fdbe 3719 bdbe a2e8 06bc 49ae a33e
00000060: 7c67 83bd fb18 243e 2944 ac3e c9b8 d43d
00000070: f01a 3a3e e463 c1bc 91fe bfbe ced5 ac3e
00000080: 4b25 9c3e d29a 703e 6db5 33be c504 b23d
00000090: 6363 41bd b034 37be 8bf5 9e3e 07e4 823e
000000a0: fc1a e8be c55c 80be 6d09 a03e 7bc8 b23d
000000b0: d6a3 9f3e fd59 f6bd 367c 00be 2711 7e3e
000000c0: c11c 39bc 9be8 053e c4be 8c3e 506f 1ebf
000000d0: 2498 1b3e a67d 3dbd 6f89 a13d 0379 313d
000000e0: 0687 6d3e f99f 5e3e dbbc 903d e45a 2ebe
000000f0: 0888 6fbc 40a9 393e debc a43d 3505 b4be
00000100: ef00 3e3c ac0a dfbd fca7 c33e d125 e03e
00000110: 4c8b 6ebb 66b8 873e 201f 993e e128 6dbd
00000120: a00d 783e 85ed 8f3d 8601 97bd fa2d 733e
00000130: d3a7 0bbe 87bc f7bd 5b4d 833d d34d a9be
00000140: 2c35 c7be d04a b3be ecc2 963e 3a27 f73d
00000150: b0ac 943e 70f7 e13e 621b 8bbe b429 113d
00000160: cf73 ac3e 9a1d a43d 49e9 853d 571c debd
00000170: a874 92be c204 90be 8280 c03e 48b4 a5be
00000180: 5ccc 48be 4991 51bd 85c8 a73e 0e1f c7be
00000190: b4c3 b23d eb82 cd3e 8952 e4bd 00df 3fbd
000001a0: 1fd3 82be f80f e43d 79f5 163e d0a1 03bd
000001b0: 0368 8abc 7b5e ccbd 1b51 7cbe b8b0 83bd
000001c0: 4504 64be b7ab a9be 3058 993d 2e42 823e
000001d0: a1e8 85bc b869 543e a3fd 703e 12f5 c6be
000001e0: eae2 90bd 12c9 533e 7a41 96be a3d0 1dbe
000001f0: ac7e 1b3e 6710 8abe 15ed be3e 2efb dbbd
00000200: 11aa ca3e ce0b 9e3e 3174 29be 8e21 953e
00000210: a9bc f4bd 80a2 8cbe 6271 ffb9 7a04 7fbe
00000220: 2449 ad3c cce3 b23d 44f1 1cbe 48d7 fb3d
00000230: 4a0a 883e c763 5e3d 95e7 33bd 1519 c23e
00000240: b6ea 8fbe 4adc ab3e 9df4 40bf cc15 0f3f
00000250: 7c83 0a3f 1a77 843e 6350 b6be b715 04bf
00000260: 0bdd ea3e 32b0 4ebe 05bb e5be 8e07 97bd
00000270: bac4 a1be d733 54be 7fb0 483e fe15 033f
00000280: 27de 1bbe 8227 ccbd 7535 f8bc 4a18 bbbd
00000290: 769f 8f3c 0e0b 913e 492a 56bd fe80 a2be
000002a0: 80e6 2f3e ca83 32bd 3bfd a53c 66a4 af3e
000002b0: 914b 1d3e 50ff 3bbe 6573 a8be 253d c13e
000002c0: 1024 893d 97a7 a7be 097f ae3e 710d e3bd
000002d0: e81b e0bd 2061 983e f35b febd a0dc a3bc
000002e0: e97c 87be b4ce 17be 9a26 1abe d372 ddbd
000002f0: 178f bf3d ba7f 083e da3a c8be e982 82be
00000300: 4901 72be 7e2e b6be 3e99 033f 929d 26bf
00000310: 9533 8dbd b887 f33e bf40 4ebd cbe4 003e
00000320: c7b4 e7bd 5d11 f6bb a5af cc3e 38e8 da3e
00000330: f891 983e e73c 293e bb99 87be 128e 09bf
00000340: 7ca9 ebbd 61f7 84bd 0737 9abe bf0b 343e
00000350: 9368 ba3e 8875 8ebe 4ed9 11be eeed 033d
00000360: 6534 f33e 9e7f 26be a203 b2be bdbe c6be
00000370: 91bb dfbe 9212 aebe 4051 e5bb c4ee 873e
00000380: b7ef 0f3e 1f87 07be 2ac6 15bf 2339 ab3d
00000390: b8dc 7f3d 0011 88be bd73 b43e 3cdf adbd
000003a0: 4c9c f5be 9ff9 24be 9506 bd3e c027 c93d
000003b0: adbf 2a3e 9be8 153e a113 debe 14eb 833e
000003c0: efa2 133e 4e5c 593e e061 11bf 4bc1 41be
000003d0: d1f2 893e 3527 f23d a544 5c3e f815 a33d
000003e0: 5701 233e cba0 7b3d d5e4 6d3d 9538 343e
000003f0: 89d0 3e3e 1589 0abe 6ece 813d d27d 3bbe

gnn_base.gnn.gnn1.lin_query.bias f4 [48]
0.112924404 -0.091947086 -0.1919687 0.02147052 -0.12640087 0.32385048 0.028723704 -0.057064716
0.13238505 0.3421904 -0.17048122 0.15674448 -0.18697177 0.31864375 0.13393939 0.105345376
-0.020886643 -0.15715083 -0.15928504 -0.010374403 -0.06650721 0.12312704 0.0026507387 0.067509584
-0.25499853 0.06556688 -0.2072605 -0.13015307 0.14106095 -0.03337831 -0.24571049 -0.10001153
-0.11969881 0.2888132 0.08077799 0.12978514 0.0149959745 -0.3380639 0.12194802 -0.09530738
0.24112007 -0.07338311 0.021126993 -0.008774976 0.21822602 0.45719275 -0.06156096 -0.34580442
00000000: e944 e73d c14e bcbd 7193 44be f2e2 af3c
00000010: 3b6f 01be bbcf a53e f94d eb3c b1bc 69bd
00000020: f28f 073e 9533 af3e a192 2ebe a081 203e
00000030: 8775 3fbe 4625 a33e 6827 093e 51bf d73d
00000040: 771a abbc 26ec 20be 9e1b 23be 66f9 29bc
00000050: ef34 88bd 082a fc3d 04b8 2d3b 7742 8a3d
00000060: 2b8f 82be ee47 863d 193c 54be d946 05be
00000070: 4872 103e b2b7 08bd 889b 7bbe d8d2 ccbd
00000080: a624 f5bd 53df 933e ee6e a53d 65e6 043e
00000090: adb1 753c b616 adbe e2bf f93d 8430 c3bd
000000a0: 2ee8 763e e249 96bd 8412 ad3c ebc4 0fbc
000000b0: a476 5f3e 2b15 ea3e 5827 7cbd 470d b1be

gnn_base.gnn.gnn1.lin_value.weight f4 [48, 16]
0.21605928 0.070690796 -0.15822525 -0.34165856 -0.005477608 -0.17803423 0.3334826 0.09225483
-0.20811512 -0.20131952 0.57980084 0.3089475 0.19407405 0.7451271 0.022706658 -0.3267325
-0.16292931 0.06260637 0.24719402 -0.17416556 0.27567592 -0.035048325 0.017190227 0.26886618
-0.23424976 -0.1195695 -0.059621096 -0.1678814 -0.08451918 -0.20017911 -0.067811966 0.19842859
-0.22828993 0.07816637 -0.18086478 -0.112945035 0.361437 -0.67354125 0.12647839 0.2696976
0.14352375 0.19469932 -0.11497825 0.2297165 0.17871866 -0.37754238 -0.10226943 0.2740837
0.47938803 0.17615892 -0.3370887 0.15887001 -0.39099276 -0.16164944 0.014867309 0.471516
0.5051664 -0.0036124007 0.24047479 -0.299098 -0.22042292 -0.010088344 -0.10135668 -0.3540984
-0.4676243 0.00554224 0.3525353 -0.0044629956 0.42428425 0.08336863 -0.48704416 -0.22996947
-0.6450646 0.47720546 -0.22075881 0.12442049 0.38383552 -0.1423724 0.16228718 0.14119773
-0.5562105 -0.06432027 -0.15661058 0.1565563 -0.10424833 0.3629263 -0.10341707 -0.24747363
0.24928081 0.20096138 0.11532251 -0.0075800535 -0.08357571 0.24939342 0.4209517 0.11488351
-0.5822319 -0.21398862 0.30964777 0.11245524 -0.16187172 0.16062886 0.124137856 0.12560838
-0.071570955 0.055665497 0.09816747 -0.16563137 -0.5900997 0.35025606 0.06417222 0.31663033
0.038788438 -0.13893543 0.33899242 0.08821445 0.30145553 0.49041426 0.016910424 -0.39966175
0.030918814 -0.23791933 -0.27079383 0.06248621 0.50302744 -0.2128274 -0.17155598 0.14246602
-0.055916503 -0.110233404 -0.15062672 0.008772282 0.029322436 -0.14027137 -0.122107 0.065721005
0.19882949 -0.21841626 0.10619188 -0.09537098 0.31637093 -0.029365392 0.13654236 0.19476303
-0.08148925 -0.3023071 0.44787055 -0.10789548 -0.17758162 -0.14562596 0.19743596 -0.026258282
-0.26664275 -0.030538566 -0.5487002 0.15115646 0.039810803 -0.3193538 -0.47419587 -0.017183892
0.3513613 0.32034683 -0.0037112536 0.037516486 0.045103773 -0.18823685 0.060735505 0.29377237
0.04821143 0.04241468 0.059632953 -0.26222783 0.23738842 -0.3388024 -0.6751543 0.33614117
0.28668913 -0.089059904 0.17190371 0.2830709 0.14301369 -0.21698684 0.17230807 -0.050762143
-0.33689365 0.12510501 -0.07728848 0.11156369 -0.023060346 0.06954067 0.3881 0.07280829
0.019200297 0.032963503 -0.3190401 0.29619744 0.3428454 0.105968565 -0.09224133 0.08428969
0.0050375294 0.34827513 -0.051850528 0.19389836 0.39158976 -0.04417429 -0.068350874 0.033552583
-0.4052018 -0.058593962 0.34411964 0.16910587 0.18326378 0.12510225 0.013663726 -0.07499854
0.17630342 -0.1028565 -0.047306713 0.26391253 -0.35720354 0.14929397 -0.2697187 -0.6527569
0.11486617 -0.029673599 -0.12650847 0.1720922 0.20674829 0.13632652 0.110160924 0.3470889
-0.16010548 -0.1264387 -0.039247435 -0.13678999 0.1145784 0.18043448 -0.49176154 0.10198973
0.40436202 0.1535302 -0.08280501 -0.08526582 0.0046140254 0.20891131 0.18055798 -0.16922508
-0.273281 -0.21464899 -0.12155389 -0.067960344 -0.5862886 -0.3836606 -0.19977818 -0.009384329
00000000: a53e 5d3e 56c6 903d cd05 22be dfed aebe
00000010: 827d b3bb 9b4e 36be 3bbe aa3e 1af0 bc3d
00000020: 211c 55be b426 4ebe d46d 143f 5e2e 9e3e
00000030: 59bb 463e a6c0 3e3f 5003 ba3c 7b49 a7be
00000040: f1d6 26be c537 803d 6e20 7d3e 7558 32be
00000050: 6525 8d3e d58e 0fbd 85d2 8c3c d4a8 893e
00000060: 2bdf 6fbe dbe0 f4bd 4035 74bd 1ae9 2bbe
00000070: 6418 adbd c1fb 4cbe 00e1 8abd dd30 4b3e
00000080: d6c4 69be b115 a03d 9e34 39be ba4f e7bd
00000090: 450e b93e 336d 2cbf 8d83 013e ce15 8a3e
000000a0: e4f7 123e 425f 473e b779 ebbd cd3a 6b3e
000000b0: 0602 373e 3c4d c1be a372 d1bd b354 8c3e
000000c0: 5972 f53e 0163 343e e496 acbe d2ae 223e
000000d0: 3430 c8be 6e87 25be 0396 733c 8c6a f13e
000000e0: 9652 013f 07be 6cbb 063f 763e 6023 99be
000000f0: 8cb6 61be 9549 25bc 1794 cfbd 634c b5be
00000100: 746c efbe ae9b b53b 827f b43e 523e 92bb
00000110: c93b d93e 2cbd aa3d da5d f9be 1e7d 6bbe
00000120: f422 25bf 4654 f43e 990e 62be 2bd0 fe3d
00000130: 1786 c43e 12ca 11be 9c2e 263e 2396 103e
00000140: d063 0ebf 59ba 83bd 865e 20be 4b50 203e
00000150: 2680 d5bd 7ad1 b93e 54cc d3bd ba69 7dbe
00000160: 7843 7f3e d2c8 4d3e 352e ec3d 1962 f8bb
00000170: be29 abbd fd60 7f3e fb86 d73e 0c48 eb3d
00000180: 260d 15bf d51f 5bbe 278a 9e3e ef4e e63d
00000190: b3c1 25be e47b 243e fd3b fe3d 7c9f 003e
000001a0: cb93 92bd 8101 643d 070c c93d 459b 29be
000001b0: c610 17bf c354 b33e ba6c 833d 5f1d a23e
000001c0: a0e0 1e3d 1745 0ebe 6a90 ad3e c7a9 b43d
000001d0: 6158 9a3e 9417 fb3e bb87 8a3c 77a0 ccbe
000001e0: 7449 fd3c 20a1 73be 7da5 8abe 8af1 7f3d
000001f0: 68c6 003f 6def 59be 5fac 2fbe 9de2 113e
00000200: b408 65bd 0dc2 e1bd e43d 1abe 9eb9 0f3c
00000210: 9b35 f03c 4ca3 0fbe 3c13 fabd bc98 863d
00000220: f599 4b3e 83a8 5fbe 217b d93d dc51 c3bd
00000230: 5ffb a13e b18f f0bc c3d1 0b3e f66f 473e
00000240: d6e3 a6bd ffc7 9abe 4a4f e53e 4ef8 dcbd
00000250: f5d7 35be f91e 15be a72c 4a3e 9c1b d7bc
00000260: 6685 88be 042c fabc 9e77 0cbf c2c8 1a3e
00000270: a710 233d 5782 a3be cdc9 f2be 3cc5 8cbc
00000280: a1e5 b33e 8004 a43e 8138 73bb e3aa 193d
00000290: bcbe 383d 29c1 40be cbc5 783d 5569 963e
000002a0: 5979 453d 04bb 2d3d af41 743d ba42 86be
000002b0: f315 733e 8277 adbe ead6 2cbf b21a ac3e
000002c0: ebc8 923e 0a65 b6bd 8707 303e abee 903e
000002d0: 2e72 123e cc31 5ebe 8771 303e f7eb 4fbd
000002e0: 537d acbe 871b 003e 6c49 9ebd 817b e43d
000002f0: 0de9 bcbc 576b 8e3d 0bb5 c63e 831c 953d
00000300: f149 9d3c bd04 073d 3959 a3be 31a7 973e
00000310: 6f89 af3e 0c06 d93d 06e9 bcbd 13a0 ac3d
00000320: dc11 a53b 1e51 b23e 3861 54bd 4b8d 463e
00000330: 747e c83e 1af0 34bd 8bfb 8bbd 6f6e 093d
00000340: 9c76 cfbe 3900 70bd 7330 b03e 172a 2d3e
00000350: 80a9 3b3e ce1a 003e d2dd 5f3c d698 99bd
00000360: e288 343e 6ea6 d2bd afc4 41bd 8b1f 873e
00000370: 62e3 b6be 85e0 183e 9218 8abe 141b 27bf
00000380: f43e eb3d 0c16 f3bc 708b 01be f038 303e
00000390: d3b5 533e 2e99 0b3e 0d9c e13d a3b5 b13e
000003a0: b1f2 23be 2679 01be ebc1 20bd ad12 0cbe
000003b0: 15a8 ea3d d1c3 383e 2bc8 fbbe fedf d03d
000003c0: 8a08 cf3e 0537 1d3e ac95 a9bd d99f aebd
000003d0: 4031 973b d9ec 553e 31e4 383e 5749 2dbe
000003e0: 7deb 8bbe f2cc 5bbe 3ff1 f8bd cb2e 8bbd
000003f0: 0217 16bf 2a6f c4be a792 4cbe bbc0 19bc

gnn_base.gnn.gnn1.lin_value.bias f4 [48]
0.1152939 -0.20370558 0.27971894 0.38712552 -0.110181905 0.17815982 -0.3084198 -0.0217986
-0.01401127 -0.29955173 -0.24747165 -0.0007906582 0.0044791657 -0.16150181 0.06956262 0.04128734
-0.07711669 -0.089874074 0.34009892 0.3391658 0.061735373 0.041892085 -0.06782212 -0.06251332
0.14379114 0.11636367 -0.44798622 -0.3322224 -0.06616581 -0.19186644 0.05697079 -0.11540691
-0.27362084 -0.33089787 0.1763049 0.06850907 -0.069603875 0.22500429 -0.32439682 -0.040078435
0.09416483 -0.2474354 -0.30298463 -0.022095399 -0.13247803 -0.02111271 -0.04484727 -0.23191799
00000000: 351f ec3d 3298 50be 5237 8f3e 5135 c63e
00000010: 0da7 e1bd 876f 363e 33e9 9dbe fa92 b2bc
00000020: 878f 65bc d85e 99be 3569 7dbe 2c44 4fba
00000030: f7c5 923b bb60 25be d976 8e3d ea1c 293d
00000040: 5bef 9dbd e60f b8bd 7221 ae3e 24a7 ad3e
00000050: 3bde 7c3d 0997 2b3d 53e6 8abd fc06 80bd
00000060: fc3d 133e 1350 ee3d 735e e5be 0e19 aabe
00000070: f181 87bd a378 44be 345a 693d 755a ecbd
00000080: 0818 8cbe 726b a9be 4689 343e 7c4e 8c3d
00000090: 7a8c 8ebd 8667 663e 5717 a6be 4929 24bd
000000a0: 7ed9 c03d b55f 7dbe cd20 9bbe 6901 b5bc
000000b0: 52a8 07be 90f4 acbc c5b1 37bd e97b 6dbe

gnn_base.gnn.gnn1.lin_edge.weight f4 [48, 1]
1.1147901 -0.31095725 -0.4134515 0.5426028 0.8679106 0.96435916 0.24410178 0.35144803
0.09105989 -1.0475435 -1.1004955 0.6841799 0.6618092 0.045345787 -1.4608618 -1.045941
0.46836478 -0.88292307 -0.17130914 1.012013 0.71614283 0.9481793 -0.5843175 -0.30860174
0.14177084 -0.3883008 -0.30637276 0.066000566 -0.6248805 0.4472812 -1.3892633 -0.41028205
1.0991362 -0.35237452 -0.7312782 1.2652202 0.22699654 0.4038648 -1.1212251 -0.030167462
-0.4130442 -0.25083646 -1.9087508 -0.64938563 0.53544617 0.90564513 -1.1914065 -0.53310114
00000000: 71b1 8e3f ca35 9fbe eaaf d3be 04e8 0a3f
00000010: 642f 5e3f 3ee0 763f d1f5 793e fff0 b33e
00000020: 9c7d ba3d e815 86bf 09dd 8cbf 6a26 2f3f
00000030: 546c 293f 81bc 393d 85fd babf 65e1 85bf
00000040: 82cd ef3e 3f07 62bf aa6b 2fbe a489 813f
00000050: 2355 373f e1bb 723f d595 15bf 0c01 9ebe
00000060: 602c 113e 5dcf c6be e4dc 9cbe 4e2b 873d
00000070: 2bf8 1fbf 0b02 e53e 61d3 b1bf 7d10 d2be
00000080: 7fb0 8c3f 6f6a b4be 0c35 3bbf bcf2 a13f
00000090: c871 683e 5ec7 ce3e 4e84 8fbf c121 f7bc
000000a0: 887a d3be a36d 80be f251 f4bf 233e 26bf
000000b0: 0013 093f 5cd8 673f 0280 98bf 5179 08bf

gnn_base.gnn.gnn1.lin_skip.weight f4 [16, 16]
0.366134 -0.35496062 0.17303541 0.25937873 0.027517611 -0.6062861 -0.24000058 0.12121733
-0.35158703 0.23096564 0.4070507 0.13048546 -0.24067432 0.628171 -0.12538362 -0.406532
0.09681278 -1.2451305 0.0886306 0.36924952 -0.68662167 0.07819295 -0.10565164 0.26216328
0.011119462 0.01923238 0.36360556 -0.15945917 -0.0323873 0.6959673 0.30443308 0.4901724
-0.19817467 -0.09135563 0.10309073 -0.117457286 0.43258467 -0.27063245 -0.46066603 0.020221684
0.23249437 -0.26316717 0.009708546 0.1430936 -0.66956186 -0.031255066 0.6545951 -0.14116813
-0.11556371 -0.2428137 0.38320667 -0.23155965 0.010188342 -0.30477312 0.17982285 -0.12860781
0.29108742 0.25587356 0.121473886 0.28716904 -0.116062075 -0.19987199 0.4012867 0.06252593
-0.0453644 -0.32975784 -0.120152414 -0.30036137 -0.44350043 0.31280077 0.44608423 -0.052825924
-0.2729171 0.11653522 0.3330865 0.08965161 -0.18891224 0.43988985 0.24786556 -0.6158554
-0.33023348 0.06402364 -0.14052543 -0.3550133 0.32484707 0.39929974 -0.05553395 -0.06109971
0.0711526 -0.07900143 -0.2893261 -0.20913054 0.30294535 0.24539721 -0.008106575 -0.10750475
-0.27654552 0.34928763 -0.20617619 -0.24016875 0.0052211 -0.16306868 0.5735768 -0.17628339
-0.2789161 -0.20417562 0.15668802 0.27795464 -0.4336021 -0.02318961 0.6893354 0.05433439
-0.10316269 0.117078476 -0.06434147 0.2760234 0.2546514 0.3831506 -0.17048077 -0.219694
0.08180864 -0.660056 -0.36068875 -0.5555407 0.39651027 -0.08721831 0.2830481 0.035833567
-0.075616956 -0.17658608 0.17455278 0.50385094 -0.014624368 0.3329265 -0.4055909 -0.19083813
-0.063492306 0.1301431 -0.013737869 -0.034794386 0.21151792 0.3901733 0.458803 -0.101330474
0.43827072 0.026578266 -0.05630088 -0.09434256 -0.6094688 0.32440534 -0.079820916 0.45406622
0.25588346 0.028094277 0.03856543 0.0737391 0.30294958 -0.06432867 -0.67434 0.5148416
0.24610342 0.08876904 0.03672063 0.1892131 0.16668797 -0.1600644 -0.00545286 0.06028345
-0.077310994 -0.1955635 -0.105052195 -0.12158962 -0.36293548 -0.21372664 -0.5697095 0.40637794
0.35498124 0.3198101 0.016983904 -0.65382123 -0.09530499 -0.12617035 0.4848657 0.06372868
-0.22487207 0.44536415 0.07080495 -0.058491 0.6092655 -0.57810336 0.11565481 -0.14739454
0.22334534 0.250349 -0.03695033 0.17148568 0.021189459 0.51097226 -0.29856944 -0.5682571
0.22750108 -0.03847898 0.067392774 -0.13373901 -0.4975614 0.44309232 0.0770337 -0.40853643
-0.52446526 -0.113001175 -0.23694853 0.40946338 -0.4083934 -0.00738428 0.10372506 0.301682
0.34993613 0.10932832 0.07219244 0.1645318 -0.15589026 0.24499081 0.26931843 -0.4716013
0.060605124 -0.108439095 0.08406002 0.06331358 -0.22730961 -0.02814197 -0.1242228 -0.39148608
-0.34311908 0.2963505 0.18015273 -0.19734237 -0.27697417 0.087934084 -0.12518041 0.3671332
0.2734388 0.042633284 0.12114484 0.49521706 0.031893868 -0.2313334 -0.005688211 -0.035319448
-0.59628296 -0.027823675 0.24648535 0.19766527 -0.4267393 -0.47395527 -0.18237133 0.0069805826
00000000: ea75 bb3e 66bd b5be 3230 313e 4acd 843e
00000010: 9d6c e13c 9135 1bbf b6c2 75be cb40 f83d
00000020: 3703 b4be 4282 6c3e f368 d03e fb9d 053e
00000030: 5473 76be d1cf 203f 9064 00be f624 d0be
00000040: c745 c63d 7060 9fbf f683 b53d 460e bd3e
00000050: 70c6 2fbf a023 a03d e35f d8bd 443a 863e
00000060: 672e 363c 398d 9d3c 822a ba3e 4449 23be
00000070: 8ca8 04bd ea2a 323f a7de 9b3e e0f7 fa3e
00000080: 4dee 4abe a918 bbbd 3c21 d33d 728d f0bd
00000090: bd7b dd3e 5690 8abe 6bdc ebbe f2a7 a53c
000000a0: 0113 6e3e d9bd 86be 9810 1f3c 2187 123e
000000b0: 6868 2bbf 5005 00bd 8b93 273f 618e 10be
000000c0: abac ecbd 28a4 78be aa33 c43e f91d 6dbe
000000d0: 01ed 263c 390b 9cbe 7b23 383e c4b1 03be
000000e0: 6909 953e dc01 833e 4dc7 f83d d207 933e
000000f0: f4b1 edbd 3eab 4cbe 7375 cd3e 980d 803d
00000100: 05d0 39bd 05d6 a8be 7812 f6bd f7c8 99be
00000110: 7d12 e3be 6c27 a03e 2765 e43e ff5f 58bd
00000120: cabb 8bbe 04aa ee3d 508a aa3e 439b b73d
00000130: 3672 41be 3e39 e13e 78d0 7d3e b3a8 1dbf
00000140: 5d14 a9be d31e 833d e6e5 0fbe 4ec4 b5be
00000150: 5b52 a63e 0471 cc3e 9177 63bd b143 7abd
00000160: 74b8 913d 80cb a1bd 8d22 94be 5126 56be
00000170: a71b 9b3e 6849 7b3e 71d1 04bc 732b dcbd
00000180: 6097 8dbe d4d5 b23e da1f 53be ccee 75be
00000190: c315 ab3b 7afb 26be eed5 123f a283 34be
000001a0: 17ce 8ebe 6a13 51be d372 203e 1250 8e3e
000001b0: 1801 debe 23f8 bdbc 4978 303f bd8d 5e3d
000001c0: f646 d3bd d7c6 ef3d 76c5 83bd f052 8d3e
000001d0: ab61 823e 512c c43e 8392 2ebe 77f7 60be
000001e0: 4a8b a73d 6ef9 28bf 32ac b8be ea37 0ebf
000001f0: 6503 cb3e 839f b2bd aeeb 903e 38c6 123d
00000200: 10dd 9abd fbd2 34be f7bd 323e 60fc 003f
00000210: 0c9b 6fbc 5875 aa3e 9ca9 cfbe 126b 43be
00000220: 4108 82bd 3c44 053e cd14 61bc 8f84 0ebd
00000230: 2798 583e cbc4 c73e 3ae8 ea3e 5a86 cfbd
00000240: 0565 e03e aaba d93c c09b 66bd ac36 c1bd
00000250: 2606 1cbf 7518 a63e 2679 a3bd 5e7b e83e
00000260: 2803 833e f825 e63c c9f6 1d3d 8604 973d
00000270: 351c 9b3e c0be 83bd 8ca1 2cbf a9cc 033f
00000280: 8902 7c3e 8bcc b53d 5f68 163d 14c1 413e
00000290: 40b0 2a3e ece7 23be e8ad b2bb c7eb 763d
000002a0: 3a55 9ebd cc41 48be 9b25 d7bd fb03 f9bd
000002b0: aed2 b9be 28db 5abe 7bd8 11bf c510 d03e
000002c0: 1ac0 b53e 26be a33e d421 8b3c d460 27bf
000002d0: 432f c3bd cd32 01be 5140 f83e 2f84 823d
000002e0: dd44 66be c506 e43e 3002 913d 4294 6fbd
000002f0: d3f8 1b3f 95fe 13bf 6edc ec3d 98ee 16be
00000300: a4b4 643e be2d 803e 3b59 17bd f199 2f3e
00000310: 8495 ad3c 14cf 023f 18de 98be 4c79 11bf
00000320: 0bf6 683e 239c 1dbd 3905 8a3d e1f2 08be
00000330: 5ec0 febe ffdc e23e d8c3 9d3d b02b d1be
00000340: 5b43 06bf 296d e7bd a3a2 72be 2fa5 d13e
00000350: f118 d1be d5f7 f1bb ce6d d43d 1076 9a3e
00000360: d42a b33e 87e7 df3d a1d9 933d 067b 283e
00000370: b2a1 1fbe dfde 7a3e 1be4 893e ba75 f1be
00000380: 143d 783d 5115 debd a927 ac3d 8daa 813d
00000390: dac3 68be fd89 e6bc 8668 febd dd70 c8be
000003a0: 4ead afbe 41bb 973e f579 383e 1e14 4abe
000003b0: 8fcf 8dbe c916 b43d 4b2f 00be e2f8 bb3e
000003c0: 2c00 8c3e 3da0 2e3d c91a f83d 178d fd3e
000003d0: 25a3 023d aae2 6cbe 2c64 babb 20ab 10bd
000003e0: 00a6 18bf 7aee e3bc a866 7c3e c468 4a3e
000003f0: 937d dabe 44aa f2be 8dbf 3abe 5fbd e43b

gnn_base.gnn.gnn1.lin_skip.bias f4 [16]
0.20247704 0.13461287 0.12744062 0.26204297 0.12987906 0.11959666 -0.24436125 -0.07086268
0.18278052 0.054670524 -0.08438111 -0.09846878 0.23372667 -0.101413876 -0.09372862 0.13642329
00000000: 2456 4f3e f5d7 093e cb7f 023e 7f2a 863e
00000010: 04ff 043e 18ef f43d d639 7abe 7420 91bd
00000020: d12a 3b3e 33ee 5f3d 01d0 acbd 00aa c9bd
00000030: 0b56 6f3e 14b2 cfbd caf4 bfbd 8cb2 0b3e

gnn_base.gnn.gnn2.0.lin_key.weight f4 [48, 16]
-0.0060175117 0.6340894 0.15491678 -0.31209126 -0.045243617 0.11407099 -0.051947676 -0.22526169
0.3693743 0.4086374 -0.0026660592 0.4243811 -0.33213437 0.08706895 0.40816674 0.50491333
-0.18117581 -0.56579715 -0.18270242 -0.11238116 -0.23494212 0.16782333 -0.21060723 0.14322518
-0.1703572 -0.14065398 -0.2185829 -0.41310874 0.36198688 -0.23981936 -0.25364727 -0.24983308
-0.23842731 -0.29256412 0.43336713 -0.029661752 -0.03690368 0.21810786 0.22384456 0.22351749
0.58145213 -0.26226097 0.03683579 -0.45131058 0.31053838 0.28962114 0.008287419 0.5066732
-0.10254093 0.006219347 -0.28275728 -0.060260076 0.150748 -0.0004831396 0.17491764 -0.16707137
-0.29020184 0.20773534 0.25357944 0.104312435 -0.6111995 -0.3012846 0.18740197 0.2646681
0.2177283 0.34740254 0.09685275 -0.12876067 0.33354774 -0.08450551 -0.2360378 0.3104412
0.34249106 0.03537962 0.2115495 0.18495184 0.012743838 0.472199 0.2755556 0.62101525
-0.24094398 0.5853115 0.0623351 -0.09593901 0.21477021 0.11991889 0.17764914 -0.2805084
0.30808008 0.08926811 0.23009647 0.14650558 -0.29372174 0.3524679 -0.098846875 0.31715658
-0.07429725 0.056467872 -0.53783303 0.08407999 0.05117713 0.20577405 -0.1367566 -0.38889632
-0.15783529 0.23732738 0.0020821064 0.6164046 -0.21318741 -0.21837763 0.37937447 -0.8525381
0.23189053 0.40842363 -0.24964054 0.00041887406 0.036230847 0.06813222 -0.20078132 -0.28736472
0.16391541 0.08109694 -0.02343405 0.6478676 -0.45197746 0.074433915 0.40368685 -0.029829431
0.0569547 -0.47642905 0.29939494 0.15160061 -0.1962747 0.06224432 0.22192244 0.41156688
-0.075461544 -0.28365397 -0.06610331 -0.0605877 0.30163485 -0.05244814 -0.039122306 0.11886701
0.021862078 0.025259603 0.098957404 -0.19393753 -0.17823885 0.3119141 0.01835638 0.046793398
-0.12258441 -0.22401963 -0.1274487 0.3986606 0.050874308 -0.08343114 0.32505426 -0.29145953
0.23942126 -0.11241056 0.20836201 -0.052768037 -0.18555893 -0.44157135 -0.1628329 0.23695385
-0.24940808 0.09791921 -0.027502337 -0.84892875 -0.13725087 0.04403942 -0.31012315 0.16845621
0.093871444 0.16371953 -0.44758487 -0.06428606 0.20636591 -0.24578866 0.06942763 -0.058075063
0.09722091 -0.08207287 -0.1927824 0.4620697 -0.03763034 -0.15950221 0.30164474 -0.22012217
-0.064612634 0.8401849 -0.11023646 -0.25065884 0.37532708 0.007485527 -0.19445126 -0.16973303
-0.033938717 0.38023886 0.25212726 0.47746727 -0.35127908 0.33031526 0.16354744 0.25646785
-0.17889512 0.2099002 0.13843428 0.06478016 -0.16107626 -0.007988162 -0.24840823 0.4194949
0.25234267 0.087540254 0.2412174 -0.029241763 0.059940804 0.23720352 -0.009813642 -0.0058379225
0.20672393 -0.3146143 -0.18528372 0.050684195 -0.2262817 0.18016444 -0.039125346 0.31058553
-0.066620626 -0.14652887 0.07601906 -0.5611965 -0.014017343 -0.05347672 0.031256527 -0.30073366
0.21074997 0.0039620292 0.082235955 0.14265537 0.011329741 -0.00748386 -0.3856637 -0.2594548
0.0833976 0.21755598 0.1773542 -0.04483744 -0.4143716 -0.1821244 -0.28834105 0.2669544
00000000: 8c2e c5bb af53 223f 81a2 1e3e 6dca 9fbe
00000010: 5f51 39bd 0d9e e93d 16c7 54bd 00ab 66be
00000020: a11e bd3e ec38 d13e 0db9 2ebb 7b48 d93e
00000030: 840d aabe 3551 b23d 3bfb d03e 0042 013f
00000040: 2786 39be 15d8 10bf 5816 3bbe 1828 e6bd
00000050: ab94 70be e1d9 2b3e 6ca9 57be 9fa9 123e
00000060: 1e72 2ebe 9907 10be 32d4 5fbe fd82 d3be
00000070: 5856 b93e 3593 75be 0ede 81be 3ed4 7fbe
00000080: 4a26 74be f7ca 95be 4ce2 dd3e 34fd f2bc
00000090: 5028 17bd ab57 5f3e 8237 653e c5e1 643e
000000a0: 0cda 143f 1247 86be 20e1 163d 2e12 e7be
000000b0: e3fe 9e3e 3949 943e f4c7 073c 56b5 013f
000000c0: fb00 d2bd aacb cb3b 90c5 90be 45d3 76bd
000000d0: af5d 1a3e e64d fdb9 9c1d 333e c214 2bbe
000000e0: 5695 94be 93b8 543e 2ad5 813e c2a1 d53d
000000f0: 9277 1cbf fa41 9abe 4de6 3f3e 9482 873e
00000100: 2bf4 5e3e bfde b13e bc5a c63d d6d9 03be
00000110: c5c6 aa3e 3a11 adbd e5b3 71be 26f2 9e3e
00000120: fd5a af3e 38ea 103d 6fa0 583e 0464 3d3e
00000130: 88cb 503c 11c4 f13e a015 8d3e dbfa 1e3f
00000140: 05ba 76be f9d6 153f 1753 7f3d ac7b c4bd
00000150: b9ec 5b3e 0998 f53d a8e9 353e cc9e 8fbe
00000160: acbc 9d3e 33d2 b63d 699e 6b3e 8f05 163e
00000170: b262 96be ac76 b43e 3b70 cabd 5962 a23e
00000180: 2829 98bd db4a 673d 6daf 09bf 2132 ac3d
00000190: 1c9f 513d 6fb6 523e ec09 0cbe 6b1d c7be
000001a0: 939f 21be f305 733e f373 083b b1cc 1d3f
000001b0: cd4d 5abe 639e 5fbe 5f3d c23e f03f 5abf
000001c0: b674 6d3e e71c d13e c5a1 7fbe 539c db39
000001d0: cc66 143d e888 8b3d 9e99 4dbe 7821 93be
000001e0: 71d9 273e 2716 a63d c4f8 bfbc a7da 253f
000001f0: 9769 e7be cf70 983d 0bb0 ce3e da5c f4bc
00000200: 5549 693d 82ee f3be 4b4a 993e 313d 1b3e
00000210: 3cfc 48be e6f3 7e3d a33f 633e e5b8 d23e
00000220: 958b 9abd 183b 91be 2c61 87bd cf2a 78bd
00000230: e26f 9a3e dcd3 56bd b63e 20bd 8c70 f33d
00000240: 1a18 b33c 3aed ce3c 2eaa ca3d 8f97 46be
00000250: 3f84 36be 34b3 9f3e 1e60 963c 6faa 3f3d
00000260: 890d fbbd 6765 65be e981 02be 3e1d cc3e
00000270: 9461 503d f2dd aabd 836d a63e 2f3a 95be
00000280: d92a 753e 8237 e6bd da5c 553e 4c23 58bd
00000290: 2903 3ebe a415 e2be abbd 26be 08a4 723e
000002a0: d564 7fbe de89 c83d 954c e1bc 6553 59bf
000002b0: 7e8b 0cbe ae62 343d 76c8 9ebe c97f 2c3e
000002c0: ac3f c03d 18a6 273e d829 e5be 69a8 83bd
000002d0: 9651 533e 06b0 7bbe 1330 8e3d 1ee0 6dbd
000002e0: c21b c73d d215 a8bd c068 45be 6694 ec3e
000002f0: 4522 1abd 8c54 23be 2e71 9a3e b567 61be
00000300: a153 84bd 5c16 573f a7c3 e1bd 5b56 80be
00000310: df2a c03e 2749 f53b 3b1e 47be 7fce 2dbe
00000320: 5303 0bbd abae c23e d316 813e 9776 f43e
00000330: dada b3be 151f a93e fb78 273e c14f 833e
00000340: 4830 37be 14f0 563e b7c1 0d3e 76ab 843d
00000350: 2df1 24be c8e0 02bc ba5e 7ebe 09c8 d63e
00000360: 0f33 813e 4e48 b33d b201 773e 6c8c efbc
00000370: 7d84 753d 7be5 723e 66c9 20bc 0b4c bfbb
00000380: 70af 533e 2015 a1be 04bb 3dbe 3b9a 4f3d
00000390: 64b6 67be 077d 383e e641 20bd 1105 9f3e
000003a0: 6570 88bd aa0b 16be e2af 9b3d 93aa 0fbf
000003b0: ffa8 65bc 680a 5bbd d806 003d c3f9 99be
000003c0: d7ce 573e e9d3 813b 536b a83d 4014 123e
000003d0: 61a0 393c 2b3b f5bb b675 c5be 42d7 84be
000003e0: 5ccc aa3d ffc6 5e3e 579c 353e 77a7 37bd
000003f0: 8428 d4be d27e 3abe 70a1 93be 3fae 883e

gnn_base.gnn.gnn2.0.lin_key.bias f4 [48]
0.087053604 -0.0073495936 0.07225072 0.17055324 -0.1880497 0.21270065 0.16172656 0.121093705
0.02161696 0.24569048 0.0693725 -0.029801223 -0.034572482 0.1485029 0.03663045 0.14601785
0.008587806 -0.033292085 -0.025997201 -0.11614347 -0.09246424 0.21041603 -0.020244809 0.22922237
-0.094064526 -0.06523159 0.015042253 0.18942364 0.11852381 0.0133811 -0.13918503 0.054981787
0.018613001 0.0115124155 0.034194253 0.083615124 0.008800472 0.022243148 -0.063394316 -0.10988842
0.024930561 0.039893314 -0.06318798 -0.067986816 0.018291214 -0.05832101 0.14367257 0.20381577
00000000: 2949 b23d dcd4 f0bb 2ff8 933d 82a5 2e3e
00000010: 1a90 40be 33ce 593e a69b 253e faff f73d
00000020: 0d16 b13c 4996 7b3e 2b13 8e3d b221 f4bc
00000030: e09b 0dbd 2511 183e d009 163d b485 153e
00000040: deb3 0c3c 485d 08bd 15f8 d4bc a1dc edbd
00000050: e45d bdbd 4d77 573e 71d8 a5bc 45b9 6a3e
00000060: e7a4 c0bd 2498 85bd c873 763c 45f8 413e
00000070: 9cbc f23d 673c 5b3c 8586 0ebe 9534 613d
00000080: 4b7a 983c 929e 3c3c 460f 0c3d 683e ab3d
00000090: db2f 103c 4337 b63c e1d4 81bd 2e0d e1bd
000000a0: 2d3b cc3c 2c67 233d b368 81bd ac3c 8bbd
000000b0: 75d7 953c 03e2 6ebd e71e 133e 15b5 503e
