model_weights/FA_FR/tube/feb17/no_transfer_metered/critic.pt (torch, 191627 bytes, 57 tensors)

gnn_base.gnn.embed_layer.layer_norm.weight f4 [16]
00000000: 7412 843f c99d 873f 5b2e 8d3f cfe1 9c3f
00000010: f9f0 513f bbb3 a03f 417c 843f 79c7 543f
00000020: 17a3 623f 454c 7f3f d6bb 783f 23a7 ab3f
00000030: 7c0e 893f 969a 743f 307d 563f e6dd 563f
1.0318131 1.0595027 1.1029772 1.2256411 0.8200832 1.2554849 1.0350419 0.8311687
0.88530105 0.99725753 0.97161615 1.3410381 1.0707545 0.9554838 0.8378477 0.8393234

gnn_base.gnn.embed_layer.layer_norm.bias f4 [16]
00000000: e4a6 fcbd a4ce 2f3c 2a1e 8c3d bb56 d0bd
00000010: b6d0 2c3e dec9 53bd 95f9 08bd ccb2 f23c
00000020: d2f1 d33d b8fc 823d d541 5c3d b5be d6bd
00000030: 4c12 dd3d 5f98 2b3e 4ab5 d83b 78a3 7ebe
-0.12336519 0.010730419 0.06841691 -0.101727925 0.16876492 -0.051706187 -0.033441145 0.029626273
0.10348858 0.063958585 0.05377372 -0.10485593 0.107945055 0.16757344 0.006613408 -0.24867046

gnn_base.gnn.embed_layer.entity_embed.weight f4 [4, 2]
00000000: 3c75 f3bf 3261 96bf fce1 d8be 3214 72bf
00000010: db2a 4c3f 7223 f2bf 2bf0 5dbe ef29 263f
-1.9020152 -1.1748412 -0.42359912 -0.94562066 0.7975289 -1.8917067 -0.21673648 0.64907736

gnn_base.gnn.embed_layer.lin1.weight f4 [16, 10]
00000000: bd3b 9dbd 8efd 783e 9dd4 843f c15f 323c
00000010: 6fc9 833e 486a 873d 5238 983c fc7a c5be
00000020: fb4a 18bf 158d 153e 6aa9 30bf 7021 bcbe
00000030: 3b58 51bf e0a9 7bbf f3f7 b23e e2dc bdbd
00000040: 9460 0b3d 730e 8dbe 996a 763d c60a 583e
00000050: 4678 06bf 7988 50be deb0 063e 97ef 8c3e
00000060: c879 76be 0f0a dc3e cb3d 633f ceac f5be
00000070: 5101 aabe abf2 0d3e 8e4b 643e af57 3ebf
00000080: 2994 0b3f a42e aebf cd4c 66bd fa05 acbe
00000090: f916 9bbf 5750 02be 327a 023e 9faa aebd
000000a0: ae4f 0dbe cbe0 4e3f ce63 f43c cc2e 343f
000000b0: b130 083f 2d89 473f fe03 813e 24d3 b13e
000000c0: b72d 5dbd 3068 b5be b238 1b3d b959 ec3e
000000d0: 330b 983b b0b9 903f 4304 1ebd 31f1 43be
000000e0: 9533 d9be 64be c5be 9057 b83e 1523 d0bd
000000f0: 2941 95bd 2ed7 133f db5e 10be f8e4 3f3f
00000100: a32d 5b3e 718a ae3e e944 21bf 818f d4be
00000110: d499 0d3e 4060 dc3e 4f85 983f f5da bdbd
00000120: e8c7 2cbd a200 bebc c100 1aba a1ed eb3d
00000130: 6591 d0bd b655 81bd f6ee e3be c115 4a3f
00000140: 4bb7 863d 4c51 413e 3e1e 01bd 96e9 4c3c
00000150: 6738 753f 4372 d43d 04f7 843e 9f99 d1be
00000160: af55 88be 34be d3be f549 9abe 6ae0 ca3e
00000170: 6513 6dbe 14cb ee3e 063c 20bf ffef b93e
00000180: f851 cebe c002 ea3e e344 9f3b 2ae7 dfbe
00000190: 60ef d1bd 0c96 563f 0e02 1c3d 29a2 883d
000001a0: 4fa4 073e 714c 5b3e dcf6 983e 3f93 413f
000001b0: fbfa adbe ba83 dcbd 40d9 0bbf ae6e 0abe
000001c0: 7f0e 94bf 0366 50be f86b 38bd 4593 c2bc
000001d0: cf47 81bf b59d a7be 8453 0dbe 0c46 b23d
000001e0: 21c2 b3be e022 edbe 3771 713e c82f 853d
000001f0: 855d 753f 8fbd 8a3e 51b0 6f3e 587f 68bd
00000200: 847b 7e3e 12cc b23e eb79 c1bd 1c7f b9bd
00000210: 15d7 d8bd fcdb 54be 2b65 3c3e 7924 983e
00000220: e44c a4be 2bcf 563f f635 d93d da74 653d
00000230: 0fc8 33be b1c2 abbd 5f00 bc3e 85ec 03be
00000240: 6a97 f73e 6dc7 85be a424 173e fc11 803d
00000250: ce72 533f 1dd2 723e 1ae9 0abf 61f9 a53e
00000260: 4481 aebe 5380 143f 59c5 293e 21c4 4bbf
00000270: b0c1 763e 251e 8c3e 8a97 96be e5b7 033e
-0.0767741 0.24315473 1.0377384 0.010887087 0.2573962 0.066120684 0.018581543 -0.38570392
-0.5948941 0.146046 -0.69008505 -0.3674426 -0.81775254 -0.98306084 0.34954795 -0.09270646
0.03402765 -0.27550086 0.060160253 0.2109786 -0.5252727 -0.2036456 0.13153407 0.27526543
-0.24069893 0.42976424 0.88766164 -0.47983402 -0.3320413 0.13862102 0.22294447 -0.74352545
0.5452295 -1.3607984 -0.056225587 -0.3359831 -1.2116386 -0.1272596 0.12741926 -0.08528637
-0.13799927 0.80811757 0.029832747 0.70383906 0.531993 0.7794369 0.25198358 0.347314
-0.053998675 -0.3543105 0.037895866 0.46162203 0.004640007 1.1306667 -0.038578283 -0.19134976
-0.42422166 -0.3862182 0.36004305 -0.10162941 -0.07287819 0.57750213 -0.14098684 0.74958754
0.21404128 0.34089997 -0.62995774 -0.41515735 0.13828212 0.43042183 1.1915683 -0.09270278
-0.042182833 -0.023193661 -0.0005874746 0.115199335 -0.10183982 -0.06315176 -0.4451825 0.78939444
0.06577929 0.18878669 -0.03152298 0.012506863 0.9578919 0.10373356 0.25969708 -0.40937516
-0.2662787 -0.4135605 -0.3013455 0.3962434 -0.2315193 0.4663931 -0.6259159 0.36315915
-0.40296912 0.45705223 0.004860507 -0.43731052 -0.10250735 0.83822703 0.038087897 0.066715546
0.13246273 0.21415879 0.2987584 0.75615305 -0.33980545 -0.10767312 -0.5462837 -0.13518783
-1.1566924 -0.20351414 -0.045024842 -0.023751864 -1.0100039 -0.32737508 -0.1380139 0.08704767
-0.35109046 -0.4631567 0.23578344 0.06503254 0.95845824 0.27097747 0.23407103 -0.05676207
0.24851805 0.34921318 -0.09447082 -0.09057447 -0.10587899 -0.20787042 0.18397968 0.29715326
-0.32089913 0.83909863 0.10605995 0.05601964 -0.17556785 -0.08386744 0.36719033 -0.12883194
0.48357707 -0.26128712 0.14760071 0.0625343 0.82597053 0.23712964 -0.54261935 0.32416824
-0.34082997 0.5800831 0.16579188 -0.79596144 0.24097323 0.27366748 -0.2941249 0.12863119

gnn_base.gnn.embed_layer.lin1.bias f4 [16]
00000000: 0b60 b03d 8919 56bd b139 e53d d937 b9bc
00000010: 1450 413e 5214 503c 96ff 483e 6055 cf3d
00000020: fae7 163d fd3f 55be 2857 2f3d 418d b93b
00000030: 68eb 2e3e 24b2 14be 87bc 0d3c f1fd 403d
0.08612069 -0.052270446 0.111926444 -0.022609638 0.18878204 0.012700157 0.19628748 0.10123706
0.036842324 -0.20825191 0.042807728 0.0056625907 0.17081988 -0.1452108 0.008650905 0.047117177

gnn_base.gnn.embed_layer.layers.0.weight f4 [16, 16]
00000000: 6288 903e 02fc 3ebf 9f35 d5bd 809e c1bd
00000010: 70bb d03e c734 c23e 692d 2ebe 11da 0e3e
00000020: fe29 b63e 74fe 0bbe 635d 86be a751 163f
00000030: b80f 47be 5735 80be fc64 163f 1314 803d
00000040: 70ca 42be b8ca 76be 7a59 7c3f afdc cd3e
00000050: a5cb 22bd fc24 b53c 503f aebd f03b acbe
00000060: 4754 74bf 388a 073f 9eec c23d 0bb8 a93e
00000070: b17c 713e b64b 5a3e 7f47 8f3e 9d1b dd3e
00000080: 74db ef3e 7ba1 23be a553 863d 9754 9fbe
00000090: cf6f 1bbf 54ca 883e 4eb6 2cbe 47f7 dc3e
000000a0: 2096 1b3e 5a7e e33e f206 df3d 739f 913b
000000b0: b895 97bc 9d2a 073f 3e26 59be d63c 103f
000000c0: 6aa5 90bf e636 263f 0119 c23c 62a7 80be
000000d0: 09bd f43d ae29 153e 084f a23e 537a 25bd
000000e0: 9f05 4a3e b361 2bbe 574b 4cbe e071 283f
000000f0: 7ea7 3e3d 6ccc e03e cc9f d43c 31e9 ed3e
00000100: ee42 28bf d216 f8be af72 c83e 81ea 083f
00000110: f2d3 8f3e 2fef a6be 8c44 86be c95a a73e
00000120: 526b 123f fe5c 26be 26fa 77bc b1a8 ebbe
00000130: 880e 4b3d 058b fc3e 2a92 243f e70a 1dbf
00000140: a3e7 24be c0f6 bcbe 15e5 fc3d a22e 9fbf
00000150: 5bed db3d 413a 0b3f fb7a 9a3e 713b 38be
00000160: f2a0 acbb c304 b43d 35de db3e 1e80 583e
00000170: 6e2c 04be 9a08 b63d c25b 573e 9ef1 2b3f
00000180: 3d9f eb3e a63c 04be 84e2 783e 4fe8 7b3f
00000190: 61b7 82be a403 04bf 03a1 ed3e 4e22 433e
000001a0: dcb9 d33d 6ddc 683e 229c 233e abfc 77bf
000001b0: b069 4abe 04ca a7be 4437 343e 8ef3 8a3d
000001c0: bf33 ecbe 58bf 09bf 2281 18be 0352 813e
000001d0: 5e2a 83be dc3f cdbe 009f 703e 943d ee3d
000001e0: 0df9 95be 42e8 483f a70d 9b3e f40d 0cbc
000001f0: 0993 67bd 3120 d6bd 03ea aebe 5f46 21bf
00000200: dc6c 483e 0ab7 8fbe 431a f03e 3b9d cabe
00000210: b7d9 cf3e edc2 083e bf7d 533f 3f44 593f
00000220: e90f dd3e 8608 6a3e 888c 33bf 09b3 653e
00000230: 7202 723e da97 433e 2e37 01be c104 00bf
00000240: 9f87 8b3d 933f 5fbc c33a 2bbe 07bb f43e
00000250: 945d a7be 0e79 1ebf 061e 143d 7e3c 0cbe
00000260: 54e4 20bf c625 10bf 4e72 123f 291f 3e3f
00000270: 7ade e63e e8ba 0e3f 7360 803d c20c 5ebe
00000280: 36de 9abe 3662 663d 55e9 e0be 43ea 5b3e
00000290: c6e8 d93e 0882 8dbf 8117 b73c 2ec5 df3e
000002a0: 8741 88be 7303 0ebe a2d1 37bf e0a9 bbbd
000002b0: 467f 233c 6a6c ee3e 9e18 c03e 49c6 ac3e
000002c0: 5cfc e63e c940 1abf 798f 01bc cdcc f0be
000002d0: baa7 6abc 9670 583f 0662 7abe 693d 5ebc
000002e0: e2cc 23be 65e5 6a3d 1465 80bd 9f0f 95bf
000002f0: 30eb 76bd 7fd9 773e 32f3 993e c5c1 523b
00000300: f34e b63e 9904 133e 904d 973e 24cb 9e3d
00000310: b239 d83e 140a afbd e0ae 233f 9d4b 113e
00000320: 959c 0abe d37d 8f3d b2d8 b93e b461 a53c
00000330: 05c9 6dbf 6419 af3d 0168 30bf 3afc 003e
00000340: 8153 dd3d 9e1c 543e 5758 313e 4789 a13d
00000350: 18e3 08bf 7034 9dbd 3446 293f 3da3 52bf
00000360: 8c9a a9bd babe 4b3e 2ad5 dabe 6ba5 f83e
00000370: 890c 49bf 3f98 ae3e 09f5 1a3e 3b8b 3ebf
00000380: 341f 4dbe 464e f0be d9d4 b83e 49dc c1be
00000390: ca15 14bf 477a fd3d 6df4 bd3e 550c 55be
000003a0: 9589 163e b37b 3dbf 87a5 f6be b388 9abe
000003b0: 1189 0cbe 96da d2be 41fe 26be 846a 633e
000003c0: 54e7 f9be 681e 093f 4a6f 273f a7d2 67be
000003d0: 6630 813d 0f16 28be d00a 24bf a524 803e
000003e0: 2bdd 82be c750 4ebe 8ed9 4c3e 6adf fc3d
000003f0: 62f6 f1be 58ac 893e 07f7 9f3d 73fe 3ebe
0.28229052 -0.74603283 -0.10410618 -0.094540596 0.40768003 0.3793089 -0.1700951 0.13950373
0.35578912 -0.13671285 -0.26243123 0.5871834 -0.1943959 -0.25040695 0.5874784 0.06253829
-0.19022536 -0.24100769 0.9857403 0.4020743 -0.03974499 0.022112362 -0.0850817 -0.3363948
-0.954411 0.5294528 0.095177874 0.33148226 0.23582722 0.21317944 0.27984235 0.4318513
0.46847117 -0.15979569 0.06558923 -0.31119224 -0.6071748 0.26716864 -0.16866419 0.43157408
0.15193987 0.44432336 0.108899966 0.0044440567 -0.018504009 0.527994 -0.21205994 0.5634283
-1.130048 0.6492752 0.023693563 -0.25127703 0.11950118 0.14566681 0.3170092 -0.04039986
0.19728707 -0.16736488 -0.19950615 0.6579876 0.04654645 0.43905962 0.025955103 0.46466973
-0.65727127 -0.4845491 0.39149997 0.53482825 0.2809139 -0.32604358 -0.26224172 0.3268645
0.5719501 -0.16246411 -0.015135324 -0.4602714 0.049574405 0.49324813 0.6428553 -0.6134476
-0.16103987 -0.36907005 0.123483814 -1.2436106 0.10738631 0.54385763 0.30171952 -0.17991425
-0.0052682096 0.08789971 0.42942968 0.21142623 -0.12907574 0.08888359 0.21031097 0.67165554
0.46019927 -0.1291376 0.24305159 0.9840135 -0.25530532 -0.51568055 0.46411905 0.19056055
0.10338184 0.22740336 0.15977529 -0.96869916 -0.19766879 -0.32771313 0.17599207 0.067847356
-0.4613323 -0.5380759 -0.1489301 0.25257882 -0.2561826 -0.40087783 0.23498154 0.11632839
-0.29291573 0.784794 0.30283853 -0.008548249 -0.056536708 -0.10455359 -0.34162912 -0.62998
0.19572777 -0.28069335 0.46895036 -0.39573082 0.4059579 0.13355608 0.8261375 0.8486976
0.431762 0.22854814 -0.7013631 0.22431578 0.23633745 0.19100896 -0.12618706 -0.50007254
0.06812977 -0.013625997 -0.16721635 0.4779894 -0.32688582 -0.61903465 0.036161445 -0.13694951
-0.628484 -0.5630764 0.57205665 0.74266297 0.4509161 0.55753946 0.06268396 -0.21684554
-0.30247658 0.056246005 -0.43928018 0.21476083 0.42560405 -1.1055307 0.022350075 0.43705124
-0.26612493 -0.13868503 -0.7180425 -0.091632605 0.009979075 0.46567088 0.3751878 0.3374503
0.4511441 -0.60255104 -0.007907742 -0.4703125 -0.014322216 0.8454679 -0.24451455 -0.013564446
-0.15996125 0.057347674 -0.06269279 -1.1645392 -0.060282886 0.24204062 0.30068356 0.0032158953
0.35607108 0.14357223 0.29551363 0.0775359 0.42231518 -0.08546844 0.63938713 0.14189
-0.13536294 0.07006421 0.36298138 0.02018819 -0.92884856 0.08549765 -0.689087 0.12596217
0.10806943 0.20714042 0.17318855 0.07887512 -0.5347152 -0.07676017 0.66122746 -0.8228033
-0.082814306 0.19896975 -0.42740756 0.48563704 -0.7853475 0.3410053 0.15132536 -0.744312
-0.20031434 -0.46934718 0.3609989 -0.37863377 -0.5784575 0.12376838 0.37100545 -0.20805486
0.14700921 -0.74016875 -0.48173162 -0.30182418 -0.13724162 -0.41182393 -0.16307928 0.22208601
-0.48809302 0.5356202 0.6540419 -0.22638951 0.063080594 -0.16414665 -0.64079 0.25027958
-0.25559363 -0.20148002 0.20004866 0.123473 -0.47258288 0.268893 0.078107886 -0.18651752

gnn_base.gnn.embed_layer.layers.0.bias f4 [16]
00000000: b248 5c3d ff23 87bd ef1a 863c 10ee 853c
00000010: 245b 0e3e fae1 0a3d f041 3cbe aaa6 2bbd
00000020: b227 893d 973f b4bc 8df6 8bbd 90fb aebd
00000030: 8683 8abd 48a9 503e 8abd ba3d 869b fbbd
0.053780265 -0.065986626 0.016370265 0.016348869 0.13901955 0.033906914 -0.18384528 -0.04190699
0.066970244 -0.022002978 -0.06834135 -0.085440755 -0.06763367 0.20377076 0.09118183 -0.12285523

gnn_base.gnn.embed_layer.layers.2.weight f4 [16]
00000000: 7412 843f c99d 873f 5b2e 8d3f cfe1 9c3f
00000010: f9f0 513f bbb3 a03f 417c 843f 79c7 543f
00000020: 17a3 623f 454c 7f3f d6bb 783f 23a7 ab3f
00000030: 7c0e 893f 969a 743f 307d 563f e6dd 563f
1.0318131 1.0595027 1.1029772 1.2256411 0.8200832 1.2554849 1.0350419 0.8311687
0.88530105 0.99725753 0.97161615 1.3410381 1.0707545 0.9554838 0.8378477 0.8393234

gnn_base.gnn.embed_layer.layers.2.bias f4 [16]
00000000: e4a6 fcbd a4ce 2f3c 2a1e 8c3d bb56 d0bd
00000010: b6d0 2c3e dec9 53bd 95f9 08bd ccb2 f23c
00000020: d2f1 d33d b8fc 823d d541 5c3d b5be d6bd
00000030: 4c12 dd3d 5f98 2b3e 4ab5 d83b 78a3 7ebe
-0.12336519 0.010730419 0.06841691 -0.101727925 0.16876492 -0.051706187 -0.033441145 0.029626273
0.10348858 0.063958585 0.05377372 -0.10485593 0.107945055 0.16757344 0.006613408 -0.24867046

gnn_base.gnn.gnn1.lin_key.weight f4 [48, 16]
00000000: 856e a9be 3f79 94bd ec65 8d3e 4495 c13e
00000010: 89b1 53be 6bd8 a03e e00b 93be 6aaf d43d
00000020: e056 563d 26e2 a53d 55ce b93c 0e3e 32be
00000030: 8954 4abe 6e89 21be d11c 2cbd 9706 413c
00000040: e3c1 933e 5d7d 923d c887 83be d93e 59be
00000050: f1c5 bc3d 0018 82bc 7c90 2a3d 8717 9b3e
00000060: f0d7 bd3d ceeb 293e 8cc3 8e3d d1b1 9b3e
00000070: e734 963d 3dba acbc 349c 133e dbb2 56be
00000080: 3d32 a03e 58e5 dabd dbd1 7d3e 9f9f 15be
00000090: 8df9 16be bfda 803e 0a81 58bd ad22 713d
000000a0: 2777 90be 0779 793e a4f5 1a3e e50e 32be
000000b0: 714e 8bbb 77d0 6e3e 8387 443d 2fa2 29be
000000c0: 8969 22be e8cf 073e 4236 2c3d 0632 c7bc
000000d0: 56d4 cc3d a13d 8a3c c66e b13d 76d9 eb3d
000000e0: 5293 6b3e 560c 38be b4cb 5c3d 4008 763e
000000f0: ec30 ad3d cdfc 0cbd d8f2 60be ec2c e63d
00000100: f52a 82be b4f2 84bd 7212 f63d dd8c c23d
00000110: cd00 43bc 149a b8bd cedb 7dbd e170 a53e
00000120: 3e6e a13d c431 90bc 377e 303e 4fec 573e
00000130: 998f 09be 8fd1 7f3d 6a55 933e 6692 b4bd
00000140: d4bf 2dbe 61b2 fcbc 4a4e f4bd 3c52 0d3e
00000150: a981 d0bd 86c1 acbb cb06 ddbd 1b07 3cbe
00000160: b265 2cbd 3c4b cf3d a9ea 39be ab67 903d
00000170: 0e8e d73d 4780 35be 0872 91bd 8dff 903d
00000180: 24c8 c13d dcd5 7bbd 76b6 303c c83b 8f3d
00000190: b8c1 193e 4fc6 63bd 3e93 e53d b8d5 44be
000001a0: cf0e 6a3d a44b 283e 895c 15bd eecd 89ba
000001b0: 492b 383c d594 143e b840 19bd 1e1c b63e
000001c0: 6e40 b83d 25a8 31bd daaa 8bbd 6455 d13d
000001d0: bc34 08be ace6 0a3e 518b 2fbe df7c 013e
000001e0: 309d 343e 7efa 1a3e 6295 26bd b5a3 673d
000001f0: 0f6f 2d3e 5752 c9bd 8bd3 913e 1910 0ebe
00000200: 0d1b 6d3e 073e 243d 9aaf 39be b75d 37bd
00000210: 47b0 31bd d69b d73b 2d08 44be 5b61 5dbe
00000220: 3f08 94be e028 653e 6885 163e f21a e7bd
00000230: b523 043e d55f 5b3d 35a6 fe3d 5827 54bd
00000240: bd2e 913c 2902 3dbd ae52 8c3e 074c 83bd
00000250: abcb 7a3e d3bb bebe d50c 58be ebe5 b33d
00000260: 5ff0 513e 8ebe 433e 56ff 0dbe 15ac 4fbd
00000270: 10a8 323c 82c5 46be 97b5 b03e bb7d 29be
00000280: 79ea 9b3e 48e7 723e 8059 9a3e 89dc 25be
00000290: 898d 013e 8667 60bd a290 9abe d4ee 803e
000002a0: da11 5c3d 0cca cfbd 29f8 fabd c2c2 a9be
000002b0: d744 393d 9751 8a3e b1e7 edb9 c121 fd3c
000002c0: 9e33 9abd 5486 3bbe 46d4 5fbe 61c3 293d
000002d0: a374 dd3d 223e afbd 7914 2d3e dc82 81bc
000002e0: dbe0 97be 4ad7 91be b42b a3be 0ace 59be
000002f0: 489b 5cbe f21f c33d 26eb 20be 9467 acbd
00000300: 18fd 1bbe e26a 173e 3c24 dd3e 8482 b73d
00000310: d555 3bbe b972 55be 84d4 40be ee0c 4b3e
00000320: e082 9f3e 50b3 2cbe 4f16 b83d 5bad 8abe
00000330: 0b79 273d d57a a8be 6e60 a6bd ff42 c83d
00000340: ab1f 683e d9e2 9ebd d7ed 9cbd 75e0 1abe
00000350: 9078 cb3d 407c dcbd 4774 073e 2c75 c7b9
00000360: a31c c6bc bff9 eebd 5049 d5bc 4388 b33d
00000370: 6468 10be a5a9 ac3d 4d44 603e 0992 afbe
00000380: 87ba dabd 9f14 48be a77c c6bd 04d3 98be
00000390: d1d7 25be 9217 c83d f4fc 62bd 17c3 3fbd
000003a0: 4bba 093e fab1 7c3c bb9b 853e 1078 413e
000003b0: 1283 e73c 3194 d23d 4c41 01be 0a22 31be
000003c0: 0f4c 0c3e 11f0 b53d 37ac 223e 0c1b 07be
000003d0: 0202 bdbd 24b0 6d3e 45e3 e03c 9360 85be
000003e0: 1974 56be f6e3 4e3e 7168 83be 21dd 3fbe
000003f0: 1ca3 4ebe c206 f73b 2630 25be a993 db3d
-0.33092132 -0.07249688 0.27616823 0.37809193 -0.20673193 0.31415114 -0.28719997 0.1038502
0.052328944 0.08099775 0.022681395 -0.17406484 -0.1975881 -0.15775082 -0.04201967 0.011781356
0.2885886 0.071528174 -0.2568953 -0.2121538 0.09217442 -0.015880585 0.041641697 0.30291387
0.092697024 0.16593859 0.06970891 0.304091 0.07334309 -0.0210849 0.14415056 -0.20966665
0.3128833 -0.10688275 0.24787085 -0.14611672 -0.14743634 0.2516689 -0.052857436 0.05887096
-0.28215906 0.24362575 0.15132767 -0.17388494 -0.0042512943 0.2332171 0.047980797 -0.16565774
-0.15860571 0.13262904 0.04204393 -0.024315845 0.10001437 0.01687509 0.086637065 0.11516087
0.23005417 -0.17973456 0.053905204 0.24026585 0.08456597 -0.034420777 -0.21967638 0.11239037
-0.254234 -0.064916044 0.12015237 0.09499524 -0.011902046 -0.09013763 -0.0619772 0.32312682
0.07882355 -0.017601855 0.17235647 0.21086238 -0.13433684 0.06245571 0.28776103 -0.08816986
-0.16967708 -0.030846776 -0.11928995 0.13800901 -0.10180981 -0.005272093 -0.10792311 -0.18362086
-0.04208917 0.10121772 -0.18155922 0.07051023 0.10525142 -0.17724715 -0.07101828 0.070799924
0.09462002 -0.06148325 0.01078569 0.06993824 0.15015304 -0.055609044 0.11209725 -0.19222152
0.05714303 0.16435105 -0.0364652 -0.0010513642 0.011240789 0.145099 -0.037415236 0.35568327
0.08996664 -0.043373246 -0.06819697 0.10221365 -0.13301367 0.13564557 -0.17142989 0.12645291
0.17638087 0.15134618 -0.040669806 0.056552608 0.16936897 -0.09830158 0.28481707 -0.13873328
0.2315485 0.040098216 -0.18133393 -0.044767108 -0.043381 0.0065798564 -0.19143744 -0.2161917
-0.2891254 0.22378874 0.14699328 -0.11284436 0.12904246 0.05355819 0.12434045 -0.051795334
0.017722482 -0.04614464 0.2740683 -0.064109854 0.24491756 -0.37252674 -0.21098645 0.08784088
0.2050185 0.1911566 -0.13866934 -0.05070122 0.010904327 -0.19411281 0.34513542 -0.16551869
0.30452326 0.2372104 0.30146408 -0.16197409 0.12651648 -0.054786228 -0.3018847 0.2518221
0.053727962 -0.10145959 -0.12254364 -0.331564 0.045231666 0.27015373 -0.00045376786 0.030899884
-0.075293764 -0.18312961 -0.2185832 0.041446093 0.10813262 -0.08556773 0.16902341 -0.015809469
-0.2966374 -0.28484565 -0.3186928 -0.21270004 -0.2154361 0.095275775 -0.15714702 -0.084181935
-0.15233266 0.14786866 0.43191707 0.08960441 -0.18294461 -0.20844544 -0.18831068 0.19829151
0.31154537 -0.16865277 0.0898863 -0.27085385 0.04088692 -0.32906213 -0.08123861 0.097784035
0.2266833 -0.077581115 -0.07662552 -0.15124686 0.09935105 -0.10765886 0.1322795 -0.00038043538
-0.024183577 -0.11668729 -0.026035935 0.08766224 -0.14102322 0.084307946 0.21901055 -0.34291103
-0.106801085 -0.19539116 -0.09691744 -0.29848492 -0.16195609 0.09770121 -0.055417016 -0.04681691
0.13449971 0.015423292 0.26095375 0.18893456 0.028260741 0.102821715 -0.12622565 -0.17298141
0.13700889 0.0888368 0.15886007 -0.13193911 -0.092288986 0.23211724 0.02745212 -0.26050243
-0.20942725 0.20204148 -0.2566562 -0.18736698 -0.20179409 0.0075386474 -0.16131648 0.10721523

gnn_base.gnn.gnn1.lin_key.bias f4 [48]
00000000: e107 a8bd 4cd1 813d 1882 eebc cc1e 7dbe
00000010: bbf4 13be 3653 23be 4c3c 173e 3391 ed3d
00000020: c5b3 143e 8fca 1f3e 40b5 ecbd 954e 303e
00000030: ba23 703e dd23 9a3d 4aab 383e cb1b 68bc
00000040: 1fe4 0d3e c8ad 7d3e ec36 f7bd 7116 5e3e
00000050: e158 03be b370 093e a195 8bbd 5700 02be
00000060: 1c99 583e c8db 673e 7bd4 08bd 9605 7dbe
00000070: ebb9 75be ad5b 063e b7d2 6abe 057c c23b
00000080: e21a 42be 3877 48bc 6ede c33c 4a6e b2bd
00000090: 979c 9bbd ecbc 343e fb49 34be 2c7a 0fbe
000000a0: c36d 2e3c 2375 b63d ee37 213e bf6b b53d
000000b0: f042 92bd 7054 013e 61d7 fc3d b394 443e
-0.08204628 0.06338748 -0.029114768 -0.2471878 -0.14448826 -0.15949711 0.14769095 0.1159996
0.14521702 0.15604614 -0.11558008 0.17217477 0.23451129 0.07526372 0.18034092 -0.014166783
0.13856553 0.24773324 -0.120710224 0.21688248 -0.12826873 0.13421898 -0.06815649 -0.12695442
0.21152157 0.22642434 -0.033405762 -0.24709162 -0.23996703 0.13120909 -0.22931944 0.0059351944
-0.18955567 -0.012235455 0.023909774 -0.08712442 -0.075982265 0.17650193 -0.17606346 -0.14011449
0.010646286 0.08909061 0.15743992 0.088584416 -0.071416736 0.12629867 0.12345768 0.19197349

gnn_base.gnn.gnn1.lin_query.weight f4 [48, 16]
00000000: edba bd3c 0fb2 a93e 47e1 d93d 930a 143f
00000010: 7f50 73bd e68e ac3e 5773 b6be 5e0a 663e
00000020: 6f18 7abe d567 6ebc 5706 03be 5a21 a9be
00000030: eaff a3be 4098 783d 89da 793d 3e1e 5d3d
00000040: d73c 3dbd c5e4 63be 2145 d63d 8153 3a3e
00000050: c797 3bbe a12f b7be b6c6 313e 7fbe 273e
00000060: 3c95 9c3e d82d 543e 04b4 fe3d 130d 1c3e
00000070: 8c1c 3d3e dc42 90be 4ff1 36be 2347 943e
00000080: ca52 c53d 2499 22bc 531e eabc a2d6 f0bd
00000090: f8d2 893d d5b4 ba3e fa9e 16bd 4fb4 dabc
000000a0: 6899 cfbd 381c 35be d507 623c 4769 05be
000000b0: 0181 9f3e f20f 80be f7d7 803e 01ab e63e
000000c0: e5dc a7bd db3d 793e 5725 91bd 77a7 a93c
000000d0: 21c6 303e b9be 92be 3cee 343e abd0 c0bb
000000e0: 5ce9 dfbc f89c 863e 6af5 3a3e 06ab 12be
000000f0: b5f6 56bc f56a 1c3e 192e 1bbd d744 63bd
00000100: d327 183e d72c 563e 7f8d 35bd 1376 f33e
00000110: b870 a33d eaa7 f4bc 9612 813e cca4 11bd
00000120: b4ce a33d 6cb5 a73d 424f 64bd f550 993e
00000130: 3752 14be 18e6 14be 732e 2bbe 086e b8bd
00000140: 952b 2ebe 043f 3c3c fa52 83bc d501 ee3d
00000150: 1a1c 573e abcd b33c 81d1 07be bfc1 e73d
00000160: 75c0 053e 6caa 5fbd 3201 383e ad05 82bd
00000170: 7f42 22be 58c0 b4bd 1e0b 203d 20d3 82be
00000180: 6bb7 bb3d 3512 c93c 80d2 863d 956f a1be
00000190: 09fb 0a3c 47af cd3c d884 e2bc 91d2 2abe
000001a0: e1af e0bd c916 8b3d 4a1d 0c3d 32f4 dbbb
000001b0: f5fa 34bc a49c 7bbd 7128 0ebe d82e 0abd
000001c0: b450 9c3d 5e22 54bc a9a2 52be 65a1 853e
000001d0: 7a90 79bd 524d f13d b7a7 703e e638 07be
000001e0: de40 58be 0006 563e 711b 01be 838d 39be
000001f0: a15a 49bd c79c 53be 88ff 8bba 589c 06be
00000200: d01d 223e a158 c23a 9c31 1e3d 073b ecbc
00000210: 8497 11be e295 923d b82b b1bc 39c4 07be
00000220: b180 993d e939 873d 4ed4 d4bd 4a8c 373e
00000230: eb0e b03e bd10 023e f67a 02bd ba3e 593e
00000240: 30a1 ba3d 7a0c 1fbe 9939 7fbe a1ec 313c
00000250: 9070 143e 6c64 c53e 6ce9 6ebe 2c29 0e3d
00000260: 43b4 033e 86ad 3fbe e085 adbd 09c8 093f
00000270: 66cd 3fbe 6db1 763d 07ee d1bd 36ef fabc
00000280: 4d04 fdbd 3c67 a3be 1cfd ec3d 0444 d23c
00000290: 2f55 01be 5b72 0e3f 8e54 2fbe 4c8a edbd
000002a0: ec09 5b3e 65a7 dd3d 3352 343d 795a 9a3e
000002b0: 3662 1c3c de97 ffbd 822f 76be 0bc2 8a3e
000002c0: d1f2 2e3e 24c3 94be cc45 9abd 36a3 633e
000002d0: c23f babd b75f 433c 62b8 febd 1818 35be
000002e0: 8364 07be 77f7 e8bc f926 38be 9dbb 9dbd
000002f0: b616 9eb9 8ffc 203e 0a96 40be 1c2c 4cbe
00000300: 00d6 7d3d 225e 9dbd e454 57be 62d5 0e3d
00000310: 0d63 063e 04b4 c73e 24c8 acbe 21b4 913e
00000320: 8a23 c4bd bca9 573e e5a2 a83e 7639 b83e
00000330: 6d36 a6be 9496 1d3e 0a2e c2be 3fd5 a5be
00000340: dd2e 2ebe 3e2a 7cbe 1f52 e3ba 56fb 0cbe
00000350: dbd2 323e f55a 95bd 43fc 08bb e069 3b3e
00000360: 25e8 053e 661b 12be 1e3f e7bd 5519 18be
00000370: f87d 2abe 17e5 aebe e398 78be 33ee 083e
00000380: 56c2 5a3d f038 f0bd 83fe 1fbe 5370 3a3d
00000390: 5147 233e 2dc6 a5be 07e4 953e 92b2 44be
000003a0: 9783 3abe 77b0 b8bd 53f5 263e 4f8d 24be
000003b0: 84e6 94bd c1c4 4fbd 160e 1cbe 3f2e 873e
000003c0: 8bd9 5ebd 3926 9c3c 67e9 2dbd 2ae0 38be
000003d0: 0ea0 e43b 16c8 c53e a80c 853c 4c6f f3bd
000003e0: 6ba2 1a3e b141 d03c ff02 1ebd 72cc 85be
000003f0: 1b41 c33e 024d 3bbe f853 923e c7c0 81bd
0.023160422 0.3314366 0.10638671 0.57828635 -0.05940294 0.33702773 -0.35634872 0.22464892
-0.24423383 -0.014551123 -0.12795387 -0.33033258 -0.32031184 0.060692072 0.060999427 0.05398392
-0.0462006 -0.22255237 0.10462404 0.18195917 -0.18319617 -0.35778525 0.17360958 0.16381262
0.30582607 0.20720613 0.12436679 0.15239362 0.18467921 -0.2817601 -0.1786549 0.28960523
0.096349314 -0.009924207 -0.028578913 -0.11759688 0.06729692 0.3646609 -0.036772706 -0.026697306
-0.10136682 -0.17686546 0.013795813 -0.13028441 0.3115311 -0.25012165 0.25164768 0.4505234
-0.08196429 0.24340002 -0.070872 0.020709736 0.1726308 -0.28661135 0.17669004 -0.00588425
-0.027332954 0.26291633 0.1825768 -0.14323053 -0.013120343 0.15275176 -0.03788576 -0.055485573
0.14858942 0.20915543 -0.044324394 0.4755102 0.07980484 -0.029865224 0.25209492 -0.035557553
0.0799841 0.081889 -0.05573965 0.29944578 -0.14484487 -0.14540899 -0.16716938 -0.09005362
-0.17008813 0.0114896335 -0.016030777 0.11621443 0.21006814 0.021948656 -0.13263513 0.11316251
0.13061698 -0.054605886 0.17969206 -0.06348739 -0.15845679 -0.08825749 0.039073102 -0.255517
0.091658436 0.024544815 0.065831184 -0.31530443 0.008482703 0.025107993 -0.027651235 -0.16681887
-0.10971046 0.06791455 0.03420762 -0.00671246 -0.011046161 -0.06142868 -0.13882615 -0.03373608
0.076325804 -0.012947647 -0.20569862 0.26099697 -0.0609288 0.11782326 0.23501478 -0.13205299
-0.21118495 0.20900726 -0.12608124 -0.18120389 -0.049158696 -0.20665275 -0.0010681013 -0.13145578
0.15831685 0.0014827439 0.03862153 -0.02883674 -0.14217955 0.07157494 -0.021627292 -0.13258447
0.07495249 0.06602842 -0.103920564 0.1792461 0.34386382 0.12701698 -0.031855546 0.21215335
0.09112775 -0.15532103 -0.24924316 0.010859639 0.14496064 0.38553178 -0.23331231 0.034707233
0.12861733 -0.18718538 -0.084728 0.53820854 -0.18730697 0.0602278 -0.10250478 -0.030631643
-0.12354336 -0.319147 0.11571714 0.025667198 -0.12630151 0.5564324 -0.17122099 -0.11598644
0.21390504 0.108229436 0.044023704 0.3014715 0.0095449 -0.12480138 -0.2404156 0.27101168
0.17084815 -0.2905513 -0.07532844 0.22230229 -0.09094192 0.011924676 -0.12437512 -0.17684972
-0.13221936 -0.028438313 -0.17983617 -0.077018 -0.0003015303 0.15721343 -0.18807235 -0.19938701
0.061971664 -0.0768397 -0.21028477 0.034871466 0.13123722 0.3900453 -0.33746445 0.2845774
-0.09577091 0.21060842 0.3293678 0.3598134 -0.324634 0.15389472 -0.3792575 -0.32389256
-0.17010064 -0.24625489 -0.00173432 -0.13767752 0.17463247 -0.07292739 -0.0020902313 0.18302107
0.13076837 -0.14268264 -0.112913355 -0.14853413 -0.16649616 -0.34159157 -0.24277072 0.13372116
0.05340799 -0.1172961 -0.15624432 0.045517277 0.15945174 -0.3237776 0.29275534 -0.19208744
-0.1821426 -0.09018033 0.16304521 -0.1606953 -0.0727053 -0.05072475 -0.15239748 0.2640247
-0.054406684 0.019061195 -0.042458918 -0.18054262 0.006977088 0.38629216 0.016241387 -0.118864626
0.1510102 0.02542195 -0.038577076 -0.26132542 0.3813561 -0.18291095 0.28579688 -0.063355975

gnn_base.gnn.gnn1.lin_query.bias f4 [48]
00000000: 64e8 cabc 05b0 efbb 2480 4ebd f3fa da3d
00000010: 8989 47be fa4a 0d3e deaa e63c fc9c 7bbe
00000020: 69a6 c33d 735a e63c da9a 7ebe 6ba7 5b3e
00000030: 99e8 0ebe a4f1 543e d5a3 673e 8c06 c63e
00000040: 9ff5 7abe 735a a7bd 7349 15be 0a42 53bd
00000050: 2ae3 4cbd fe33 5f3e b69f 9b3b 729e ee3d
00000060: c9d6 8dbe 646d 4a3e 1dc0 6ebe 1389 00be
00000070: 2f82 623e 8c55 62bb f353 28be 560f 84bd
00000080: d0af dfbe 6c47 a33e 7a3c d73e 1512 babe
00000090: 974c dcbc 824b 92be 539a b83e 0248 93bd
000000a0: 5acf 4e3e 9685 dbbd f7e3 823e c7ab 3f3e
000000b0: 9d8e 91bd 28e8 3d3e f778 c03e b761 db3b
-0.024769016 -0.0073146843 -0.050415173 0.10692396 -0.19486059 0.13798133 0.028157648 -0.24571604
0.095532246 0.028119301 -0.24863759 0.21450584 -0.13955916 0.20795304 0.2262109 0.3867687
-0.2450776 -0.08171549 -0.145788 -0.05157665 -0.050021328 0.21797177 0.0047492636 0.11651315
-0.2770293 0.19768292 -0.23315473 -0.1255229 0.22119974 -0.0034535853 -0.16438274 -0.064482376
-0.43688822 0.31890428 0.42038327 -0.3634192 -0.02689199 -0.28573233 0.3605524 -0.07191469
0.20196286 -0.10718839 0.25564548 0.18717872 -0.071072794 0.18545592 0.3759229 0.006694998

gnn_base.gnn.gnn1.lin_value.weight f4 [48, 16]
00000000: b5d9 63be 2745 383c 23ef d4bd b37c 00be
00000010: e9cf bdbc 7300 9c3d 9ba3 5f3e 398b 033e
00000020: c56e 14be 9ed8 1f3e 4d70 953e e905 1f3e
00000030: 7f34 c13e a42b a9bd fd35 85be 8772 b33d
00000040: 4a0f 8dbe d7ca 69be 7c1c 703e 2aee 4abe
00000050: fd82 c73d 9cb4 5f3e 01d0 84be c8c4 b83e
00000060: 9630 dabe c80e 74bd 467f babd 69d7 073e
00000070: e6d8 f23e e2de 38bb 3b34 0d3e 8c8f be3c
00000080: ebdd 9bbd 5d04 673e c3ff f4bc e8c5 d8bd
00000090: 9994 823c 536f f6be ccba 39be c54b 12be
000000a0: 65dd 3b3d 770c c93d 3bc5 223d 1c57 f7bd
000000b0: 0611 5b3e 7d3b eebd b23b 523e b900 bd3e
000000c0: 95d5 793e 9e94 4dbe bb0c acbe 551b 633e
000000d0: f3b7 3c3e bb08 a23d f71f 8fbd 2db3 a23e
000000e0: 8cda 8b3e 1033 7b3e 957f 35be 3ab5 633c
000000f0: 8804 bcbd c3ca d43e 7ec8 b4be 1275 c5bb
00000100: b119 a8bd b108 e43d 48d8 7d3e e5a4 b33d
00000110: 9116 7b3d 5656 8cbe b11f dfbe 9a00 e73d
00000120: aa32 8abe b74f b33d b140 203e 7158 b93e
00000130: fe93 393d 3a22 943d f874 353e 0a8e a53e
00000140: 1c99 bcbe cc03 b1be 5547 d7be d1d0 083e
00000150: f357 78be 5806 233f 3e7f 08be 0690 303e
00000160: b57c c53d d295 6c3e c7c2 943e 0a2b 1d3e
00000170: 92ae 6fbe b79a c6bd a61f 2cbd ce0d 863e
00000180: 5daa 2ebe 86c5 18be 7055 6a3e 7d33 853d
00000190: f40d 7dbe 6ade aebd ba96 97be 779e 91be
000001a0: 1935 983e 03e7 72be 587f 8f3d c293 393e
000001b0: 919d 46be 1055 68bd 7303 593e 4f84 9f3e
000001c0: 9d3a 13bd 0680 a3be 9382 633e ebfa 3dbd
000001d0: ee60 a6bb aba6 9cbd 97a2 a23e 39fb 333d
000001e0: d3f1 2f3e cca6 003e b0e0 36be 6d06 60bc
000001f0: f273 6d3c 053b 34be 9584 21be beb0 203e
00000200: 6481 80be 98fd 5d3e d987 793d f242 96bd
00000210: 244b 3e3e 537a 8ebe 367a 0c3e e8ae 463e
00000220: 2f15 c9bd bb32 b4be d5a0 94bd 3371 febd
00000230: 4c84 63be c825 02be 4f9c 973e 0838 0c3e
00000240: 7b62 b0be ab76 f9be c59e 98be 4ca6 80be
00000250: 3165 303d d9ee d63e fe3a 353c 34b5 003e
00000260: 3291 92be 89b4 983e f67a b5be 8cd8 54be
00000270: 7668 533e 4e47 3e3c cf56 20bd 7028 123e
00000280: c307 f43d d9bf 223e 3552 26bd 950d 31be
00000290: 819d 823e a585 113e 8e73 b2bd 8287 783e
000002a0: ad59 ac3d 9704 88bd cd66 db3c 5c48 9ebe
000002b0: 99d0 993e 408c c7bc ca11 3ebe d1c3 c33e
000002c0: 9206 92bd c897 143e 1d90 3cbf 65f4 27bd
000002d0: 2121 c9bc 9d6c 223a 54e8 0c3e 2519 873e
000002e0: 5b91 e53e d14c 5e3e 13f5 dfbd 4ad9 923e
000002f0: b82b 22be 1ec3 203f fdaf 1c3e 6609 58bc
00000300: 7f41 48bd 7a49 d73e a5a1 fdbe 5454 25bc
00000310: eb95 243f 137e da3e 6e48 a1bd 5abe 5d3e
00000320: 1f3c 693e 8e2b 903e e00d 003d 4095 ad3e
00000330: 4250 b93d b086 a2bd 782f 7ebe cedc c73d
00000340: 31af 84bd 3760 9ebe 27d4 b23e b944 933d
00000350: 12ee 07be 6483 113f 696d 363d a2b3 11be
00000360: c1eb 02be 74c5 61be 9867 55be 5a1c 4c3d
00000370: ce81 4cbe edc6 aebd b84e 49be 1476 163e
00000380: 8f80 99be d829 19be fb3c 1dbe 0733 953e
00000390: 6a77 153e c4e0 cf3e 182a 203f abfb 17be
000003a0: fc97 1f3c 0d8f 083e ffdf aabe 348f 9d3e
000003b0: 75aa 88be b8bc 583c 2beb e1be f40a 6a3e
000003c0: 5f79 6cbd fb77 fa3d 7ba3 5bbe 19dd 57be
000003d0: 6267 a63e a3d9 a0bd fa3e 163e 9a25 f5bd
000003e0: 1e77 1c3e 1981 8abe ee0a 95bd 0a3a 5bbd
000003f0: 63f5 b9be 1ce8 a5be c5bf 03bd 6d0c d93d
-0.22251017 0.011246956 -0.10397174 -0.12547569 -0.023170428 0.07617273 0.21839754 0.12846078
-0.1449538 0.15609977 0.2918724 0.15529598 0.37735364 -0.08260277 -0.26017752 0.08762079
-0.27550727 -0.22831284 0.23448366 -0.19817415 0.09741781 0.21846241 -0.25939944 0.36087632
-0.42615193 -0.05958441 -0.09106307 0.13265766 0.47431105 -0.002820902 0.13789456 0.023261808
-0.07610687 0.22560258 -0.029907113 -0.105846226 0.015939998 -0.4813181 -0.18137664 -0.14286716
0.045865435 0.098168306 0.039738875 -0.12077162 0.21393213 -0.1163244 0.20530584 0.36914614
0.24397881 -0.20076224 -0.33603463 0.22178395 0.18429546 0.079118215 -0.06988519 0.31777325
0.27315176 0.24531198 -0.1772445 0.013898188 -0.09180552 0.41560945 -0.35309213 -0.0060259188
-0.08208025 0.1113447 0.24789536 0.087716855 0.061300818 -0.2740962 -0.43578866 0.112794116
-0.2699178 0.08755439 0.15649678 0.36200288 0.045307152 0.07233091 0.17720401 0.3233493
-0.36835563 -0.3457321 -0.4204661 0.13360907 -0.242523 0.63681555 -0.13329789 0.1724244
0.096429266 0.23104027 0.29054853 0.1534845 -0.23406437 -0.09697478 -0.04202237 0.26182407
-0.17057176 -0.14919099 0.22884154 0.06503961 -0.24712354 -0.08538516 -0.29607183 -0.28441212
0.2972801 -0.23720936 0.07006711 0.18122771 -0.19396044 -0.056721747 0.21192722 0.3115563
-0.03594457 -0.31933612 0.22217779 -0.046381872 -0.005077473 -0.07648977 0.3176467 0.043940756
0.17182092 0.12563628 -0.17859149 -0.013673407 0.014492976 -0.17600639 -0.15773232 0.15692422
-0.25098717 0.2167877 0.06092057 -0.073369876 0.18583351 -0.278277 0.13718495 0.19402659
-0.098184936 -0.35194954 -0.07257239 -0.12423935 -0.22218436 -0.12709725 0.29611441 0.13693249
-0.34450135 -0.4872335 -0.29808632 -0.25126874 0.043065254 0.419791 0.011061428 0.12569124
-0.286264 0.29825237 -0.35445374 -0.20785731 0.20645317 0.01161368 -0.039145287 0.14273238
0.11915543 0.15893497 -0.040605742 -0.17290337 0.2551079 0.14211138 -0.087134466 0.24270442
0.08415542 -0.066415004 0.026782418 -0.3091458 0.3004196 -0.024358869 -0.18561473 0.38235334
-0.071301594 0.14511025 -0.736574 -0.041004557 -0.02455193 0.0006195994 0.13760501 0.2638637
0.4483746 0.2170899 -0.10935416 0.28681403 -0.1583699 0.62797725 0.15301509 -0.0131858345
-0.048890587 0.42048246 -0.49537387 -0.010090906 0.64291257 0.42674312 -0.07875143 0.21654645
0.2277684 0.2815823 0.031263232 0.3390293 0.09048511 -0.07935846 -0.24822795 0.09758912
-0.064787276 -0.3093278 0.34927484 0.07190842 -0.1327441 0.5684111 0.044537935 -0.1422868
-0.12785245 -0.22047979 -0.20840299 0.049831726 -0.19971392 -0.08534036 -0.19658935 0.1469348
-0.29980895 -0.14957368 -0.15355293 0.29140493 0.14596334 0.4060117 0.6256423 -0.14842097
0.009740826 0.1333582 -0.3337402 0.30773318 -0.26692548 0.013228588 -0.4412473 0.22855741
-0.057732936 0.12229916 -0.21449082 -0.21080436 0.3250075 -0.07854011 0.14672461 -0.119700626
0.15279815 -0.2705162 -0.07277475 -0.053522147 -0.36320028 -0.32403648 -0.032165308 0.10598073

gnn_base.gnn.gnn1.lin_value.bias f4 [48]
00000000: c9e5 703e a775 d2bc b31c 8cbc 8497 a83e
00000010: 59cb a6bd a953 2d3e 13f2 0ebe bf4d ddbd
00000020: 47d7 aabe 735f 7abe ef72 86be 32bb 533e
00000030: 598d 263d 48bc 003e 6529 5f3e 3a1c 38be
00000040: 3669 2f3d 058b b43d d510 313d c109 903e
00000050: ac35 b93d 8426 073d dfe2 ce3d 7d64 18be
00000060: 3716 34be ef82 2f3e da13 edbe e35c ffbd
00000070: 9d9c f5bc 8c4d c33d 183c 523e 644a acbe
00000080: e45d 1dbe 948f 1cbe 4bd9 f6bd aaf3 2e3c
00000090: c66c 27bd de4e 5d3e 3d4c 1fbe 105f 01be
000000a0: f2ed 66be 0302 45be c0dc a2be 74e6 3d3e
000000b0: 5135 c5bd 183f 883e 3ff1 d33d 85ec e7be
0.23525156 -0.025690867 -0.017103529 0.32928097 -0.08144254 0.16926445 -0.13959531 -0.108058445
-0.3336737 -0.24450473 -0.26259562 0.20676878 0.040662143 0.12571824 0.21793135 -0.17979518
0.042824946 0.08815578 0.043228943 0.28132442 0.0904344 0.032995716 0.10101866 -0.14882083
-0.175866 0.17139791 -0.46304208 -0.124688886 -0.029981906 0.09536275 0.20530736 -0.33650506
-0.15367848 -0.15289146 -0.12053164 0.010678211 -0.04087522 0.21612117 -0.15556426 -0.1263392
-0.22551706 -0.19239049 -0.31809044 0.18544942 -0.0962931 0.26610637 0.103487484 -0.45297638

gnn_base.gnn.gnn1.lin_edge.weight f4 [48, 1]
00000000: 8299 233f dcf3 46be 6269 56bf e9cd 8c3e
00000010: d126 043f 0e8f 303f 42fa 8b3d fb9b e93e
00000020: 4e1d e0be e84c 64be d9d0 7cbe 1182 383f
00000030: 07ba 433f 46c4 ed3d d17a cdbe 8489 7cbf
00000040: 9971 7cbd 6d7d 46bf 073b 0cbf 1b20 353f
00000050: d570 9d3e 2dd2 1c3f bb15 2cbf 91b3 86be
00000060: f99e 99be 97bd 943e 29b5 b33e e6d6 2c3e
00000070: 2f19 ffbe 035c ea3e 8e7d a6be 38ff bfbe
00000080: b089 293f 2ae5 8dbe 5cd3 a0bf 6abe 843f
00000090: b2bd 38bd 12cb 8d3e 69b7 96bf 7f3b b3bd
000000a0: 525c 88bf 4ede 053f ff72 a3bf c5f6 f9be
000000b0: ffd6 103f a65c 613f d0f7 71be d04e 15bf
0.6390611 -0.19428962 -0.8375455 0.27500847 0.5162173 0.68968284 0.06834842 0.45626816
-0.43772358 -0.22294962 -0.24689044 0.72073466 0.7645573 0.11609702 -0.40132764 -0.9864733
-0.061631773 -0.77535135 -0.5477757 0.70752114 0.30750147 0.612582 -0.6722066 -0.26308873
-0.300041 0.29050896 0.35099152 0.16878852 -0.498239 0.45773324 -0.32517666 -0.37499404
0.6622572 -0.277139 -1.2564502 1.037061 -0.045102783 0.27693993 -1.1774722 -0.08751582
-1.0653174 0.52292335 -1.2769469 -0.48821083 0.5657806 0.88031995 -0.23629689 -0.58323383

gnn_base.gnn.gnn1.lin_skip.weight f4 [16, 16]
00000000: a7c0 46bd 14a5 65be 3a9b 253e ad3b 553e
00000010: f013 f5bd 7fe5 7a3d 8e77 dcbe c947 d7bc
00000020: d6c0 413d ec62 ee3c e037 0e3c ae2d 593e
00000030: a398 75be e39c 8ebe 113b 87be a6ea 48bd
00000040: 7ea4 273f f3a3 dd3c 3a0d 91bc 1058 05be
00000050: fd4b cf3d 7294 8e3d 5a26 60be 086a aa3e
00000060: 2805 b63d e277 b43d 7e24 723c 2dd3 7bbe
00000070: 69d5 c23c af10 a33e d62e dabd ec87 b93a
00000080: 4fd3 073e 969b 76bd 671a 4c3e 7b32 82be
00000090: 63b8 85bd 28b8 a2bd 2328 d6bd 53c4 c5bd
000000a0: affb ee3d 7440 c2bd 3564 ee3d e52d 89be
000000b0: 56d6 e8bd cfdb c13d a667 a43e e681 70be
000000c0: 3ca4 a6be 12f1 dfbe c0a3 793e 65e5 09be
000000d0: ee07 183d 9f07 c53d 750a c13d 912c 1f3d
000000e0: e8f2 20be 0068 ca3e 776a e9be 08b7 103e
000000f0: 367a 9d3e 73c2 4cbc 2cc1 d13d e97c e43e
00000100: b315 013e d907 68bc f8b2 0a3d a369 f8be
00000110: 640f adbe ad01 87be a8af ed3e b7e6 503e
00000120: 8094 95be fae4 61be fb2b dfbd 5dc8 6e3e
00000130: 8cd9 4ebd 7368 763e 3c0b 08be f715 5dbe
00000140: 0686 973e c2bd 2fbd 396f 063e 6b80 c9be
00000150: d3ec 633e e5c3 d63d f7ea 59be b423 973e
00000160: 4eff 55be 63bc 573d 7684 0a3d 4375 9bbe
00000170: 49b8 5e3e 41f8 f7bb 4991 0cbe 5487 48be
00000180: 07f6 5a3d 9b67 373e 19a1 4bbe 5483 973d
00000190: 9c9a 553e 893c a6be dcf8 c03d 0461 30be
000001a0: 9404 5b3e 07ed ccbd d6dd 973e e96b 043e
000001b0: 5e8d 20bf 99e7 31be 4c14 af3e 9657 e83d
000001c0: 179f 54bc 346b 8ebe 2ff3 323e f29c 58be
000001d0: f94d 4fbe 2842 d0be e4a3 83bd 4c30 dd3d
000001e0: f91b 7c3e 3bea 2fbe 3f65 623d 1dca 81be
000001f0: ae60 013f 7841 cf3d d230 e73d 1736 57bd
00000200: 16c2 933e 8687 05be a1aa c03e 4b5d b9bb
00000210: 8a73 8bbd 17ba d1bc 20bd 1cbd bcbb 85bb
00000220: b233 97be 5183 05bd 5cd6 953e f611 2b3b
00000230: 531b 463e 8f07 783e c602 72bc e48c 95be
00000240: b694 913d bd5c c73c 3ba3 0abc f2a0 213d
00000250: 6067 efbd 28b6 063f a939 243e 367a 633e
00000260: 9c4a 973e 8191 f6bd 0bb7 923e e6f0 04be
00000270: 0bb0 593e edda 553e 1422 ac3d fba8 67bb
00000280: 4ae6 1d3e d35c 063e 2bdb 40bd 1cc8 bdba
00000290: 1c79 963e eb96 89bd 5343 b5be 0e09 6d3d
000002a0: 8e5e 543e 083f e5be 2ad6 eb3c d09a 7cbe
000002b0: b2d3 05be 9dd9 5f3e 196e 8ebd 2d2e 833e
000002c0: 13df a6bd c38d 94bd be94 a2be bfb0 1abe
000002d0: 45c9 383e 3da2 373e ad30 f03c a464 8f3e
000002e0: 8d99 b33e b8bb 3f3e 9209 b33d aa0b 26bc
000002f0: c3d4 533e e122 233e 77f9 d6bb b330 7c3d
00000300: 7e04 153d dfe3 423e 3683 81be 663c 153e
00000310: 50f2 5c3e f0aa 1d3e 479d f9bd bd09 30be
00000320: f92e 973e 8645 ff3c fef3 ac3d 72c5 e83c
00000330: ffef 0fbf 9448 833e 4464 db3d 3a82 df3c
00000340: f9f3 42bd 5c07 b73b b002 c4be 50b1 0d3e
00000350: 84c4 04bf e280 89be 6458 8f3e c26b ae3d
00000360: d5bb 083e b685 253e b3d5 cc3d e100 9b3c
00000370: d4c7 913e 34f2 f1be 499c a6bc a81f b63e
00000380: b724 553e 07e0 653e 9f68 aa3e 0011 a0be
00000390: d520 303c 1946 76be cc87 7cbe 4953 98be
000003a0: 8c7e 0abe e73a 713e d529 883e 1dfb 7cbe
000003b0: b8c3 20bf 5c36 243e f71b 613e c2d2 1e3e
000003c0: ef0f 853e 3b3b 7d3e be17 f53d 9d87 a13d
000003d0: d1bd 743d 7f44 22be 3778 f5bc af95 91bd
000003e0: 9280 ee3c 96c0 15be c472 bb3d 114e 213e
000003f0: 0536 94bd cb15 7fbe f333 723d a8b6 d7be
-0.04852357 -0.22426254 0.16172495 0.20823546 -0.119666934 0.06125402 -0.43059963 -0.026279347
0.047303043 0.029099904 0.008680314 0.21208832 -0.23984008 -0.2785407 -0.26412252 -0.049051903
0.6548537 0.027055716 -0.017706502 -0.13021874 0.101219155 0.069619074 -0.2188963 0.3328402
0.08887702 0.08811928 0.014779208 -0.24592276 0.023783403 0.31848666 -0.106534645 0.0014154888
0.13264202 -0.060206972 0.19931947 -0.2542914 -0.065293096 -0.07945281 -0.10456874 -0.096565865
0.116690986 -0.0948495 0.11640207 -0.26792827 -0.11369006 0.09465753 0.32110327 -0.23487052
-0.32547176 -0.4373861 0.24378872 -0.13466413 0.037116937 0.09620594 0.09425823 0.03886086
-0.15717661 0.3953247 -0.4558904 0.14132321 0.30757302 -0.012497532 0.10241923 0.4462655
0.12605934 -0.014162027 0.033862084 -0.48518094 -0.33800805 -0.26368466 0.46423078 0.2040051
-0.2921486 -0.22060004 -0.108970605 0.2331862 -0.050500438 0.24063282 -0.13285536 -0.2159041
0.2959444 -0.042905577 0.13128366 -0.39355788 0.2225831 0.10486583 -0.21281038 0.29519427
-0.20898172 0.052669894 0.03381773 -0.303629 0.21749987 -0.007567436 -0.13727297 -0.19582874
0.053457286 0.17910616 -0.19885673 0.07398096 0.2085976 -0.3246806 0.09422466 -0.17224509
0.21388465 -0.10006147 0.29661435 0.1293179 -0.6271571 -0.17373504 0.34195173 0.11344831
-0.012977383 -0.27816164 0.1747558 -0.2115362 -0.20244588 -0.40675473 -0.06427744 0.108002275
0.24620046 -0.17179196 0.055272337 -0.25349513 0.50538146 0.10119909 0.112886086 -0.05254182
0.28859013 -0.1303998 0.3763018 -0.0056568733 -0.06809147 -0.02560143 -0.0382663 -0.0040812176
-0.29531628 -0.032595936 0.29265106 0.0026103235 0.19346361 0.24221633 -0.014771169 -0.29209054
0.071084425 0.024336213 -0.008461769 0.03946013 -0.11689639 0.526217 0.1603762 0.22214589
0.2954911 -0.120394714 0.28655276 -0.1298252 0.21258561 0.20884295 0.084049374 -0.0035348523
0.1541988 0.13121347 -0.047084015 -0.0014479193 0.29389274 -0.067182384 -0.35402927 0.057869963
0.20739195 -0.44774652 0.028788645 -0.24668431 -0.13069037 0.21860357 -0.06954593 0.25621167
-0.08148017 -0.072536014 -0.31754106 -0.15106486 0.18045528 0.17932983 0.029320085 0.2800647
0.35078087 0.18723953 0.0874206 -0.010134617 0.20686631 0.15931274 -0.0065605002 0.06156988
0.036381237 0.19032238 -0.25295419 0.14573821 0.2157681 0.15397239 -0.121882014 -0.17191215
0.29528025 0.031161081 0.08444975 0.028414462 -0.5622558 0.2564131 0.107124835 0.027283777
-0.04759595 0.005585594 -0.382833 0.1383717 -0.5186236 -0.26856142 0.27997124 0.08516647
0.13352902 0.16164288 0.100016974 0.018921318 0.2847277 -0.472551 -0.020338194 0.35571027
0.20814787 0.22448741 0.33282945 -0.3126297 0.010750015 -0.24050178 -0.24661177 -0.29751042
-0.13524836 0.23557626 0.26594415 -0.24705167 -0.62798643 0.16036361 0.21983324 0.15510085
0.2598872 0.24729626 0.11967419 0.07887194 0.059751336 -0.15846442 -0.02996455 -0.07108628
0.029114041 -0.14624247 0.09152749 0.15752436 -0.07236866 -0.24910657 0.059131574 -0.42131543

gnn_base.gnn.gnn1.lin_skip.bias f4 [16]
00000000: 8ec0 7c3e 9112 333e bca9 34be bd25 cb3d
00000010: d2e0 c83d 8c5a f53d e60f 98bd 1cfb 1fbe
00000020: efc5 683c 1b2d 74bb 7904 93bd ff59 133d
00000030: 195c 9e3e 3ea2 cf3d 5770 7e3d 6fe4 dc3d
0.24682829 0.17487551 -0.17642874 0.099193074 0.09808506 0.11980161 -0.074249074 -0.15623134
0.014207347 -0.003725833 -0.071785875 0.0359745 0.3092964 0.10138367 0.062118854 0.10785758

gnn_base.gnn.gnn2.0.lin_key.weight f4 [48, 16]
00000000: a1ea 303e 279b 343e 047a b83e f8fc b5be
00000010: d212 e2be fb97 133d 137e 86bd da9f a0bc
00000020: 2405 c83e 6ffb cc3d 5ad6 8b3d eafd a53c
00000030: 53eb 0bbe d095 28bf 18d6 513e 0681 d83e
00000040: 0f62 98be 7821 3dbe 360a 91be 33ea dcbd
00000050: cf0f 723c 04c7 a73e 7382 19be 8931 183e
00000060: 7e43 27be 075f 07bd 06bb 5fbe ec1a 103d
00000070: f5d8 313e cd6a 853e 537e 643d c510 44be
00000080: dd76 2ebe 2562 e7bd 055a 333e 0d04 f6bd
00000090: 44f2 dbbd bce2 433e 5948 293e ae03 9a3c
000000a0: 35d8 713e 2b9f 0cbe ae7c 773d 63a7 26be
000000b0: bf6d 483e 70cd adbb d86e 8a3e 9830 a23e
000000c0: d257 d0bd 138c e9bd 1a01 2cbc 370f 02be
000000d0: c05c 333e e4b9 ac3d aaf1 2c3e 35b9 cd3d
000000e0: 6793 37be 3455 c43d 1230 4c3e c0a3 5bbe
000000f0: 6852 48be e40b 32be 42ed de3d 6cf8 4e3e
00000100: 4c49 9b3e eb30 053e 1d80 08be 976c 2ebe
00000110: 414e 8d3d c290 15be d485 4abe d918 313d
00000120: 4db4 723d 6744 753d d8cc 033e a84a 513e
00000130: d255 66bd 1322 193d 2c0b 163e c3f7 4c3e
00000140: cb23 e0bd b422 933e fd1d 633e 86df 27be
00000150: 9aee dbbd 925f 113d a735 f63d 98da a7be
00000160: 58af 443e a0f6 fbbc ef41 8a3e e348 3cbe
00000170: 597e 6fbe 32b1 89be 6a6a 8fbe 5f91 083e
00000180: 1872 0abe c472 89be 2292 d4be d6ba 913e
00000190: 0ac4 533e 0f86 3e3e 8aee 41be d575 88bd
000001a0: a255 cf3d adce b73d 3810 d83d a7ea 133e
000001b0: f0cf fcbd d75d 0d3e 4712 8d3e 03be c1be
000001c0: 6d2d 943e 1928 58bd efd9 7cbd 23c6 fe3d
000001d0: e91c f7bd 1b9d 96bc 7274 2cbe 2745 3cbe
000001e0: c9b9 783e d34b 1cbe 2b5d 7ebd c98e 2c3e
000001f0: d68c 30be 8b23 62be b2a1 013d da0d 5dbd
00000200: 4ca5 043d dd83 c8bd 2f69 9d3d ddc6 b83d
00000210: 6845 68bd 7fd3 31bd f83a 033e d9bc 3e3e
00000220: d290 e0bd c1e2 a8bd 65e0 c3bc d0e0 dc3d
00000230: c1d8 d73d 61de 9f3d 5998 023e e959 423e
00000240: be08 f03d d85b 763d 62f5 dd3d 2d0d 34be
00000250: 271d 9bbe bdcf b13c 1f1e e6bd b04c 55be
00000260: 4744 9f3d ac9a 72be 7ddf 4f3d 02c3 5e3e
00000270: 8740 543d ed1f bdbe 72ba 603e 2a93 27bd
00000280: b2f8 6c3e a13f 803e 59dd b63e 486b 98be
00000290: cfdc 39be bba8 76be 2a18 6abc ed3d c73e
000002a0: a6e7 51bd fb1b 193e 6709 47bd 8b98 36be
000002b0: 8af1 7ebe f2a4 1f3d 527f 883c 569d 4e3e
000002c0: b513 493e 4f01 1b3d 809f bcbc 1b99 abbd
000002d0: e446 f53d 63af 23be be64 8cbd adca 3d3e
000002e0: e650 273e 4831 6abe 6272 9cbc 01ca 6b3e
000002f0: 9088 81bd 13d3 bebe 8f1f 833e b559 863d
00000300: b822 e23c 49e7 8e3e 73c7 6ebd fa95 5dbe
00000310: 5911 9f3d 6d58 173d 6cdb adbc 4c33 4f3c
00000320: 06dd 2abd 2d36 763d a3c1 673e 91b7 943c
00000330: 7275 4ebc 2b77 01be 0ad0 adbd 8117 97bc
00000340: cb40 d3bd 46ca 1f3e bd7d 19bd b559 6dbc
00000350: 7925 b5be e234 90be a00b 6dbe 0362 4f3e
00000360: d6ac 393e 3a9f fd3d 6256 523e a4b5 2f3d
00000370: abeb bb3d 6024 16be 6300 b2bd f7c0 d9bd
00000380: ab1a 043e 958d d63d 974d 08be d0b3 423c
00000390: f1e4 97bd a9b7 393e 24f4 9abd 233a 9b3e
000003a0: b4b8 a1bd f593 e3bc 5f67 e63c 6fef 69be
000003b0: 33cf 85bd 8e3f 853e 273a 5f3e b145 27be
000003c0: a3ab 333e 0acd 8abd 545c 9a3e 3c46 fc3d
000003d0: 2b09 07bd dd40 673e e00c 8dbe bb62 213e
000003e0: 6a8e 133e 9270 053e 9389 613e cb5a db3d
000003f0: 1e2e 6ebe 5f2a f8bd f3cf 3fbe 521b d13d
0.17277004 0.17637311 0.3603059 -0.35544562 -0.44154984 0.03603361 -0.065670155 -0.019607473
0.39066422 0.10008895 0.06827994 0.020262677 -0.13663988 -0.65853596 0.20491827 0.42285937
-0.29762313 -0.18469799 -0.28328103 -0.107868575 0.014774277 0.32769024 -0.14991169 0.14862646
-0.1633434 -0.03304961 -0.21848688 0.035181925 0.17367919 0.26058045 0.055784535 -0.19147022
-0.1703753 -0.112980165 0.17514808 -0.120124914 -0.10739568 0.19129461 0.16531505 0.018800583
0.23617633 -0.13732593 0.06042164 -0.1627479 0.19573115 -0.005304031 0.27037692 0.316777
-0.101730004 -0.1140367 -0.0104983095 -0.12701117 0.1751585 0.08433893 0.16889063 0.10045091
-0.17927323 0.09586564 0.19940212 -0.21449184 -0.19562685 -0.17387348 0.10885097 0.20211953
0.3032936 0.13006942 -0.13330121 -0.17033611 0.068996914 -0.14606002 -0.19777614 0.043236587
0.05925398 0.059879687 0.1287111 0.20438635 -0.05623419 0.03738601 0.14652699 0.20016389
-0.10944327 0.28737414 0.22179408 -0.16393861 -0.10738869 0.035491534 0.12021952 -0.3278396
0.19207513 -0.030757248 0.27003428 -0.18387179 -0.23388042 -0.26893002 -0.28010875 0.13336705
-0.13520086 -0.26845372 -0.4151774 0.28462857 0.20680252 0.18605827 -0.18938652 -0.066631
0.10123755 0.08974967 0.105499685 0.14444982 -0.123443484 0.13805328 0.27553007 -0.3784028
0.28940907 -0.052772615 -0.061731275 0.12440135 -0.12066061 -0.01838546 -0.16841295 -0.18385755
0.24289621 -0.152633 -0.06210057 0.16851343 -0.17241225 -0.22083871 0.031648345 -0.053968288
0.032384202 -0.09790776 0.07686078 0.09022305 -0.056706816 -0.04341459 0.12815464 0.18626727
-0.10965122 -0.08246375 -0.02391071 0.10785067 0.105393894 0.07806087 0.12753429 0.1897961
0.117204174 0.060146183 0.10837819 -0.17583151 -0.3029568 0.021705503 -0.11236214 -0.20830035
0.07776695 -0.23691815 0.050750244 0.21754077 0.05181935 -0.3693842 0.21946123 -0.04091183
0.23141745 0.25048545 0.3571575 -0.2976935 -0.18150638 -0.24087803 -0.014287988 0.38914433
-0.051246308 0.1495208 -0.04859295 -0.17831628 -0.24896827 0.038975663 0.016662274 0.20177206
0.19636424 0.037843045 -0.023025274 -0.08378812 0.11976412 -0.15984873 -0.068551525 0.18534346
0.16339454 -0.22870362 -0.01909751 0.23026277 -0.06324875 -0.37270412 0.25610015 0.06560079
0.027604446 0.27910832 -0.05829568 -0.21639243 0.07766981 0.036949564 -0.021222793 0.0126465075
-0.04171469 0.06011026 0.2263246 0.018153938 -0.012601243 -0.12643115 -0.08486946 -0.018443825
-0.10315093 0.15604505 -0.03747343 -0.01448672 -0.35380152 -0.28165346 -0.23148966 0.20252232
0.18132338 0.12383886 0.20540765 0.042897835 0.091758095 -0.14662313 -0.0869148 -0.10632508
0.12900798 0.104762234 -0.13310848 0.011883691 -0.07416714 0.18136467 -0.075660974 0.30317792
-0.078965575 -0.027780512 0.028125463 -0.22845243 -0.06533661 0.2602505 0.21799527 -0.16335179
0.17545943 -0.06777389 0.30148566 0.12318084 -0.032967728 0.22583337 -0.27548885 0.15760319
0.14409795 0.13031223 0.22025137 0.10710677 -0.2325978 -0.12117457 -0.1873167 0.10210289

gnn_base.gnn.gnn2.0.lin_key.bias f4 [48]
00000000: a17a b23d 11bc f0bb 72f1 933d d09c 2e3e
00000010: 33ab 40be fbc0 593e 2294 253e dd3d f83d
00000020: 091c b13c c59e 7b3e d702 8e3d a80b f4bc
00000030: e460 0cbd 980a 183e 7cce 153d fe8a 153e
00000040: 313b 0c3c ea5c 08bd 3675 d5bc fbfc edbd
00000050: 895f bdbd fd70 573e 55ab a5bc e6b0 6a3e
00000060: 7f92 c0bd e785 85bd 9809 743c fa06 423e
00000070: dfb1 f23d ed78 5d3c 749a 0ebe 7712 613d
00000080: 358d 983c 4f90 3c3c b17c 0c3d da5a ab3d
00000090: cb7e 103c 8888 b53c 7217 82bd ef15 e1bd
000000a0: d415 cc3c bb49 223d 5068 81bd 43ec 8abd
000000b0: 504d 963c 1df0 6dbd 0c43 133e 00c1 503e
0.08714796 -0.007346638 0.072237864 0.17052007 -0.18815307 0.21265022 0.1616979 0.121211745
0.021619814 0.24572285 0.069341354 -0.029790714 -0.03427209 0.14847791 0.036573872 0.14603803
0.008559034 -0.033291735 -0.026056867 -0.11620518 -0.092467375 0.21039195 -0.020223299 0.22919044
-0.09402942 -0.065196805 0.014894865 0.18947974 0.118503325 0.0135176005 -0.13926107 0.05494925
0.01862202 0.011509015 0.034298602 0.08366938 0.008819292 0.02215983 -0.06352128 -0.109905116
0.024912752 0.039621096 -0.06318724 -0.067833446 0.018347412 -0.058090318 0.14381045 0.20386124
