model_weights/FA_FR/tube/feb15/curr/actor.pt (torch, 202776 bytes, 58 tensors)

gnn_base.gnn.embed_layer.layer_norm.weight f4 [16]
1.1125361 0.8638446 1.0016465 1.1565467 1.0166168 1.2168505 0.9747351 0.97911674
1.0686858 1.0789341 1.1277181 1.1707798 1.0515323 1.3026164 1.240671 0.99875015
00000000: 9567 8e3f eb24 5d3f f435 803f b909 943f
00000010: 8020 823f c2c1 9b3f 3d88 793f 65a7 7a3f
00000020: b2ca 883f 831a 8a3f 1159 903f 1ddc 953f
00000030: 9c98 863f 22bc a63f 4fce 9e3f 17ae 7f3f

gnn_base.gnn.embed_layer.layer_norm.bias f4 [16]
-0.049645502 0.10693817 -0.013097895 -0.12600169 -0.019295339 -0.034787532 0.09840811 0.03117809
0.10465778 0.05650912 0.043261778 0.06998919 0.03877638 -0.0111796735 -0.0131064635 -0.1413679
00000000: 1559 4bbd 6602 db3d 8e98 56bc 9606 01be
00000010: 4211 9ebc 5f7d 0ebd 318a c93d 3269 ff3c
00000020: d156 d63d 1b76 673d 4333 313d 7e56 8f3d
00000030: fbd3 1e3d f32a 37bc 7ebc 56bc bfc2 10be

gnn_base.gnn.embed_layer.entity_embed.weight f4 [4, 2]
1.5043359 -0.19993073 -2.2219942 0.5126231 -1.0371354 -1.2021712 0.40334684 0.83802634
00000000: 148e c03f a4ba 4cbe 2735 0ec0 443b 033f
00000010: dac0 84bf bfe0 99bf 7a83 ce3e e588 563f

gnn_base.gnn.embed_layer.lin1.weight f4 [16, 10]
0.5103648 -0.5516224 -0.39185923 -0.015249857 0.12037089 0.041913766 0.16763882 -0.108017564
-0.68602264 -0.05671616 -0.04166494 -0.46240246 0.105959296 -0.07354778 0.605951 -0.666641
-0.35414806 0.32024992 0.15180819 -0.59352297 0.18749337 0.44650233 0.8431054 -0.25360203
-0.012512216 0.2570467 0.14359374 -0.49556717 -0.33402568 0.034902994 -0.8115998 0.027274251
-0.091937505 0.06340894 -0.6219463 -0.4219548 -0.09068718 -0.057168223 -0.23792367 0.13129152
-0.4313761 0.27677962 -0.62782955 -0.68450385 0.25571197 -0.023306182 0.06929008 -0.46292698
0.17125168 -0.19205879 0.4888399 0.36983055 0.29575884 0.29023126 0.47592318 0.14242683
-0.5698602 0.5916768 -0.63268524 0.4664547 0.5677026 0.2990851 0.13304295 -0.08287111
-0.091289066 -0.18701133 -0.7956705 -0.5746552 0.05722119 -0.43276054 -0.017492054 0.017523507
0.47239247 0.20505026 1.08173 -0.22130814 0.42053664 -0.34507486 0.10812651 0.26605836
0.60723174 0.15620607 0.2880045 -0.52858454 0.058463898 -1.1064523 0.10523946 -0.031949297
-0.10149297 0.06259574 -0.021344448 -0.7481713 0.5224578 -0.1609046 0.068365596 -0.4139577
0.16035645 0.015836312 0.27645957 -0.014780429 -0.08296018 0.5165829 -0.60492206 0.51041615
-0.4402926 0.06275066 -0.44716758 -0.16796578 0.53306216 0.9410851 0.15253183 -0.50981665
-0.72582144 -0.35250384 -0.6808434 -0.64580667 0.23379987 0.20093088 -0.0724212 0.41667798
-0.2423997 0.07809082 -0.7769115 -0.8920613 -0.2436078 -0.11948232 -0.037545264 0.33780473
0.14197032 0.040644746 0.701088 0.08051719 1.1935742 0.120737195 0.44548753 0.07660292
0.1066183 0.79813236 0.28390086 -0.430648 0.18649544 0.89641833 -0.10968235 0.9203792
0.46473312 -0.032171346 0.22111724 -0.035431165 -0.21977526 -0.2449264 -0.72327024 0.57561207
-0.123932354 -0.03585453 -0.12890585 0.27407047 0.53053206 0.12859786 -0.0700702 -0.24931763
00000000: 44a7 023f 2037 0dbf c6a1 c8be 89da 79bc
00000010: 0385 f63d c5ad 2b3d 83a9 2b3e 5038 ddbd
00000020: 2e9f 2fbf 344f 68bd dba8 2abd 04c0 ecbe
00000030: 3001 d93d 38a0 96bd 9b1f 1b3f fca8 2abf
00000040: e552 b5be ccf7 a33e 9b73 1b3e 1ff1 17bf
00000050: 43fe 3f3e f49b e43e c1d5 573f 20d8 81be
00000060: 0a00 4dbc a09b 833e 3d0a 133e fbba fdbe
00000070: 6a05 abbe 71f6 0e3d 01c5 4fbf 406e df3c
00000080: bb49 bcbd 8cdc 813d df37 1fbf 760a d8be
00000090: 33ba b9bd 3a29 6abd 43a2 73be 4971 063e
000000a0: 54dd dcbe 0fb6 8d3e 70b9 20bf a53b 2fbf
000000b0: aeec 823e 9bec bebc f5e7 8d3d c404 edbe
000000c0: 9a5c 2f3e 0fab 44be 3949 fa3e 6e5a bd3e
000000d0: b46d 973e 3199 943e 34ac f33e 57d8 113e
000000e0: 5ce2 11bf 2178 173f a9f7 21bf 27d3 ee3e
000000f0: f554 113f af21 993e 693c 083e 54b8 a9bd
00000100: c3f5 babd e67f 3fbe 10b1 4bbf 9a1c 13bf
00000110: c460 6a3d ca92 ddbe 7f4b 8fbc 758d 8f3c
00000120: 6ddd f13e b2f8 513e 2176 8a3f 9a9e 62be
00000130: 9450 d73e a7ad b0be 6f71 dd3d cd38 883e
00000140: 8a73 1b3f 7cf4 1f3e 5375 933e 5151 07bf
00000150: d777 6f3d 3ba0 8dbf c987 d73d 44dd 02bd
00000160: 8cdb cfbd 3232 803d 8dda aebc 2888 3fbf
00000170: cbbf 053f 2dc4 24be 4303 8c3d 43f2 d3be
00000180: 7b34 243e 27bb 813c 1c8c 8d3e 9d29 72bc
00000190: 07e7 a9bd c73e 043f 2cdc 1abf a2aa 023f
000001a0: 086e e1be 6b83 803d 26f3 e4be 39ff 2bbe
000001b0: c376 083f f4ea 703f 4e31 1c3e 5883 02bf
000001c0: 6fcf 39bf 627b b4be c14b 2ebf 9653 25bf
000001d0: 3c69 6f3e d3c0 4d3e 9151 94bd d156 d53e
000001e0: a137 78be 14ee 9f3d ace3 46bf 215e 64bf
000001f0: 5374 79be 26b3 f4bd 10c9 19bd bef4 ac3e
00000200: ab60 113e 1b7b 263d 817a 333f 32e6 a43d
00000210: 0ac7 983f 1045 f73d f116 e43e fee1 9c3d
00000220: b25a da3d 6752 4c3f 745b 913e e57d dcbe
00000230: a9f8 3e3e ac7b 653f 24a1 e0bd f99d 6b3f
00000240: 80f1 ed3e 1ac6 03bd 8f6c 623e 4520 11bd
00000250: c40c 61be fccd 7abe 3d28 39bf 505b 133f
00000260: 3fd0 fdbd 33dc 12bd e5ff 03be f752 8c3e
00000270: f3d0 073f 28af 033e f780 8fbd 1f4d 7fbe

gnn_base.gnn.embed_layer.lin1.bias f4 [16]
-0.103765845 -0.06657249 -0.054859843 -0.0017896737 -0.021459313 -0.09900313 -0.07748203 0.047116917
-0.060605865 -0.030445961 -0.036210872 -0.090800926 0.043157957 -0.018983275 0.12860136 -0.12368352
00000000: 3083 d4bd 2857 88bd b7b4 60bd 7c93 eaba
00000010: 71cb afbc 27c2 cabd e6ae 9ebd abfd 403d
00000020: db3d 78bd cf69 f9bc da51 14bd d6f5 b9bd
00000030: 66c6 303d d082 9bbc 13b0 033e c94d fdbd

gnn_base.gnn.embed_layer.layers.0.weight f4 [16, 16]
-0.27174622 -0.2998845 -0.35063055 -0.010189249 0.6251196 0.030467998 0.561828 -0.13798487
-0.30141014 0.016535645 -0.35816172 0.52929884 -0.025430474 -0.77583283 -0.61582446 -0.024599524
0.2432603 -0.06135763 0.26938096 0.1326602 0.39111894 0.6269573 0.92422897 0.092171796
-0.30141962 0.6761875 0.03234582 -0.24874833 0.66464674 0.56072134 -0.2488159 0.3510643
-0.4326189 1.0489771 -0.56043386 0.21022013 -0.25942627 0.66215795 0.19471934 -0.006779982
0.44226965 0.114269 0.32373276 -0.12521449 -0.618722 0.14657383 0.31769264 -0.17816544
0.36437374 0.21863376 -0.33594203 -0.85780394 0.14742985 0.34294203 -0.50033236 0.3316183
0.09254456 0.21951285 -0.28327504 -0.024804354 -0.76843274 0.0926174 0.4890489 -0.19666234
0.4099641 0.34555864 -0.30994594 -0.19202027 -0.20974065 -0.46961597 -0.14123797 -0.3945215
-0.8671872 0.14176066 -0.50741416 -0.08807378 0.72584754 0.14179853 0.31385866 0.55381256
0.2566101 0.30445677 0.61183304 -0.8401008 -0.48427123 0.09339277 -0.018461075 0.0050119897
0.1571948 0.020702261 -0.13165677 0.305086 0.14196181 -0.226307 -0.6339833 0.14186116
0.40672064 0.024845086 -0.26991722 0.5283246 -0.53422713 -0.31782144 -0.05245055 0.4679592
-0.88737434 0.25031027 0.46001327 -0.03963218 -0.35191774 0.06880125 -0.34619826 0.4427627
0.2600503 0.32388642 0.08328756 -0.019953845 -0.39746398 -0.03153834 0.38191214 -0.5417657
-0.48537564 0.012415417 -0.6421334 -0.45036787 -0.33831522 0.60875314 0.16801545 -0.6454768
-0.6324023 0.27280387 0.2649068 -0.2537742 -0.3042197 0.8145279 0.110091224 0.44548336
-0.33206952 -0.43480706 -0.016641377 -0.45180723 0.20561083 -0.08816078 0.59027374 0.20062573
0.023306498 0.13302225 0.59259063 -0.042628713 0.47190258 -0.027783118 -0.13065113 -0.48222864
-0.18963389 0.36767465 0.3421797 -0.60094917 -0.020583805 -0.5867781 0.24406084 0.3424469
0.20815097 -0.11641913 -0.12372346 0.30302897 0.32205832 0.20637438 -0.12546995 -0.8502519
-0.19238864 -0.51126933 0.10756011 0.52960664 -0.094284855 0.31127825 0.15000962 0.76608133
-0.578231 -0.34205633 -0.15506443 -0.17400466 0.2814544 0.35415277 -0.7540019 -0.13965555
-0.6741506 0.12620918 0.75797576 -0.31220722 0.27402514 0.17731509 -0.56832165 -0.37751555
-0.4422314 -0.7497319 -0.61459255 0.054572854 -0.86839837 -0.06444794 -0.08304544 -0.53685105
0.5008008 0.30436358 -0.087980226 0.112443686 -0.006778569 -0.6739229 0.3074369 0.4395157
-0.1969584 0.09738499 -0.2501271 -0.1370605 0.23049091 -0.38449255 0.04620539 0.18380079
0.23617946 -0.3441798 -0.21596663 -0.98173153 -0.21374223 0.33728504 -0.47445762 0.58269536
-0.15430486 -0.004652581 0.14894469 0.5742584 0.10996035 0.22642143 -0.24748449 0.010978115
-0.06917307 0.81569356 -0.7924244 0.009461043 -0.15553139 0.2076955 -0.75626695 -0.091492265
0.8120339 0.018979877 -0.26199433 0.1794693 -0.28941202 0.8648564 0.03787168 0.12568483
0.12973645 -0.17284228 -0.2916123 -0.5341376 -0.025332816 0.06047753 -0.27107143 -0.36683398
00000000: 5222 8bbe 768a 99be d985 b3be cff0 26bc
00000010: d707 203f 0698 f93c f6d3 0f3f e84b 0dbe
00000020: 6e52 9abe c375 873c f960 b7be 2180 073f
00000030: 9253 d0bc fb9c 46bf aca6 1dbf f184 c9bc
00000040: 3a19 793e 2352 7bbd 4dec 893e 13d8 073e
00000050: be40 c83e 4680 203f 459a 6c3f 91c4 bc3d
00000060: ac53 9abe a01a 2d3f 0d7d 043d e2b7 7ebe
00000070: 4a26 2a3f 6f8b 0f3f 98c9 7ebe b3be b33e
00000080: 3980 ddbe e244 863f 9878 0fbf f243 573e
00000090: 85d3 84be 2f83 293f 8264 473e 9c2a debb
000000a0: 2b71 e23e de05 ea3d 4dc0 a53e 3a38 00be
000000b0: 9164 1ebf 7317 163e 9ca8 a23e 0071 36be
000000c0: 328f ba3e 87e1 5f3e 9800 acbe 0a99 5bbf
000000d0: daf7 163e 1996 af3e c815 00bf e0c9 a93e
000000e0: 0188 bd3d fac7 603e 6d09 91be 8032 cbbc
000000f0: 02b8 44bf 31ae bd3d 9e64 fa3e da61 49be
00000100: d1e6 d13e 10ed b03e 3cb1 9ebe f6a0 44be
00000110: 41c6 56be 8171 f0be b0a0 10be b9fe c9be
00000120: fbff 5dbf b529 113e e5e5 01bf 0760 b4bd
00000130: 25d1 393f a233 113e 15b2 a03e a9c6 0d3f
00000140: 6662 833e c2e1 9b3e 17a1 1c3f d910 57bf
00000150: 66f2 f7be b544 bf3d ae3b 97bc 9e3b a43b
00000160: acf7 203e ca97 a93c 08d1 06be 3b34 9c3e
00000170: 705e 113e 06bd 67be bb4c 22bf 0d44 113e
00000180: b03d d03e ec87 cb3c 9732 8abe 4840 073f
00000190: 1cc3 08bf 7eb9 a2be 63d6 56bd 5998 ef3e
000001a0: f72a 63bf ab28 803e dc86 eb3e 5a55 22bd
000001b0: 902e b4be abe7 8c3d e640 b1be cbb1 e23e
000001c0: 5025 853e 71d4 a53e ab92 aa3d 3f76 a3bc
000001d0: 6680 cbbe 592e 01bd fd89 c33e 28b1 0abf
000001e0: 2883 f8be 086a 4b3c db62 24bf 9e96 e6be
000001f0: a737 adbe 3fd7 1b3f 3e0c 2c3e f83d 25bf
00000200: 1ee5 21bf f3ac 8b3e dda1 873e b1ee 81be
00000210: afc2 9bbe e784 503f 8277 e13d 6516 e43e
00000220: 0405 aabe 089f debe 7f53 88bc 4753 e7be
00000230: a58b 523e a48d b4bd 2e1c 173f d570 4d3e
00000240: 45ed be3c fc36 083e 05b4 173f 729b 2ebd
00000250: 379d f13e 6c99 e3bc 69c9 05be ace6 f6be
00000260: 632f 42be da3f bc3e 2d32 af3e ced7 19bf
00000270: 5e9f a8bc 1737 16bf 16eb 793e 3355 af3e
00000280: 8725 553e 276d eebd ba62 fdbd 9d26 9b3e
00000290: d4e4 a43e ce53 533e 327b 00be 1caa 59bf
000002a0: 8701 45be 8ce2 02bf 7a48 dc3d 4d94 073f
000002b0: 6b18 c1bd dd5f 9f3e 1f9c 193e e81d 443f
000002c0: f206 14bf 0222 afbe 36c9 1ebe 472e 32be
000002d0: cb1a 903e 8353 b53e 4506 41bf dd01 0fbe
000002e0: 2295 2cbf fb3c 013e b30a 423f a0d9 9fbe
000002f0: 064d 8c3e 1692 353e 877d 11bf b849 c1be
00000300: 276c e2be 6eee 3fbf f055 1dbf c987 5f3d
00000310: 5b4f 5ebf 48fd 83bd ba13 aabd 126f 09bf
00000320: 7b34 003f 8bd5 9b3e fa2e b4bd e048 e63d
00000330: c21e debb 3686 2cbf 5f68 9d3e 3408 e13e
00000340: 76af 49be c871 c73d a910 80be 9659 0cbe
00000350: cf05 6c3e 35dc c4be dd41 3d3d 4636 3c3e
00000360: 07d9 713e 5638 b0be 5b26 5dbe c252 7bbf
00000370: 3edf 5abe a0b0 ac3e 1cec f2be 862b 153f
00000380: 1802 1ebe ae74 98bb f584 183e 9902 133f
00000390: e432 e13d 05db 673e 936c 7dbe 8ddd 333c
000003a0: 9caa 8dbd 4bd1 503f 53dc 4abf 7e02 1b3c
000003b0: 9f43 1fbe 21ae 543e b69a 41bf 4c60 bbbd
000003c0: 74e1 4f3f b07b 9b3c 1f24 86be cdc6 373e
000003d0: d02d 94be 3b67 5d3f 561f 1b3d 86b3 003e
000003e0: a2d9 043e 91fd 30be 354e 95be 3ebd 08bf
000003f0: c486 cfbc 49b7 773d e0c9 8abe aad1 bbbe

gnn_base.gnn.embed_layer.layers.0.bias f4 [16]
0.13877086 -0.21186766 0.016993659 0.056484886 0.09477673 0.025194045 -0.037848867 -0.0918161
-0.12023359 -0.02858585 -0.117273435 0.045268655 0.10849303 -0.033589147 -0.08773874 -0.10751629
00000000: f319 0e3e d6f3 58be 4936 8b3c b25c 673d
00000010: 4d1a c23d be63 ce3c 6a07 1bbd 140a bcbd
00000020: 073d f6bd df2c eabc 0e2d f0bd a06b 393d
00000030: 9831 de3d c694 09bd 5eb0 b3bd 8031 dcbd

gnn_base.gnn.embed_layer.layers.2.weight f4 [16]
1.1125361 0.8638446 1.0016465 1.1565467 1.0166168 1.2168505 0.9747351 0.97911674
1.0686858 1.0789341 1.1277181 1.1707798 1.0515323 1.3026164 1.240671 0.99875015
00000000: 9567 8e3f eb24 5d3f f435 803f b909 943f
00000010: 8020 823f c2c1 9b3f 3d88 793f 65a7 7a3f
00000020: b2ca 883f 831a 8a3f 1159 903f 1ddc 953f
00000030: 9c98 863f 22bc a63f 4fce 9e3f 17ae 7f3f

gnn_base.gnn.embed_layer.layers.2.bias f4 [16]
-0.049645502 0.10693817 -0.013097895 -0.12600169 -0.019295339 -0.034787532 0.09840811 0.03117809
0.10465778 0.05650912 0.043261778 0.06998919 0.03877638 -0.0111796735 -0.0131064635 -0.1413679
00000000: 1559 4bbd 6602 db3d 8e98 56bc 9606 01be
00000010: 4211 9ebc 5f7d 0ebd 318a c93d 3269 ff3c
00000020: d156 d63d 1b76 673d 4333 313d 7e56 8f3d
00000030: fbd3 1e3d f32a 37bc 7ebc 56bc bfc2 10be

gnn_base.gnn.gnn1.lin_key.weight f4 [48, 16]
-0.014453895 0.1521635 -0.20669414 -0.44918168 0.09847216 -0.073070414 -0.18219356 -0.2399376
0.32948038 0.294248 -0.042733226 0.01205125 -0.43045548 0.06606413 -0.21827528 0.5481762
-0.26237357 0.21671069 -0.008590981 0.024636216 -0.11130463 -0.17965043 0.43907946 -0.19356035
0.1645937 0.33095056 -0.46366796 0.09643531 0.01440253 0.08407723 0.06952142 0.13845468
0.02364813 -0.22305925 -0.12420925 -0.19499363 0.2970627 -0.3879891 0.36716157 0.013574429
0.056023717 0.08911943 0.09452524 -0.28099623 0.2738825 -0.3284417 -0.34223688 0.2707442
0.09454643 -0.18164167 -0.4554584 -0.26082894 0.045635562 -0.19664803 -0.09591483 -0.27774015
0.25749946 0.037852544 0.0811917 0.13204126 -0.47054517 0.2801158 0.14982261 0.2924358
0.23529829 -0.2784941 -0.19630644 -0.17000563 -0.48247787 0.0990774 -0.3288357 -0.23301299
0.43663612 0.46222737 -0.18927272 -0.18620369 -0.54626125 0.02721449 0.056206606 0.36549422
0.14415157 0.1451466 0.35987097 0.08046698 -0.39054796 -0.45652503 0.28592032 -0.025362723
0.19066766 0.31518334 0.08005787 0.22525914 0.10891463 0.039019927 0.13635385 -0.27047482
-0.14897142 0.076931514 0.15171173 -0.16916284 0.09467411 -0.7900637 0.47243392 -0.035400502
0.056089625 0.38133425 -0.23928699 0.30613336 0.1379176 0.0033441214 0.024411798 -0.19754727
-0.11785311 -0.015645703 0.08458103 0.21194369 0.2884236 -0.02172814 -0.021939479 -0.13913809
0.085412525 -0.35786268 0.12489335 -0.07437431 -0.031617843 -0.4677769 -0.057884682 -0.09732245
-0.07875805 -0.33263677 -0.27588302 -0.2580464 -0.28016105 0.45815557 -0.17590971 0.19468516
-0.30601102 -0.17309418 -0.1292636 -0.4506064 0.0017838603 0.49536073 0.43160328 0.23039512
0.065783866 0.057958566 -0.21104617 0.17318496 0.18334815 0.13803144 -0.38423875 0.28957587
-0.23010767 0.082410544 -0.019277494 -0.46436983 -0.14437772 0.19228095 -0.09537323 0.546092
0.14442112 -0.1013379 -0.17114866 0.007855245 -0.22574288 0.3507312 -0.0058857314 0.06431257
-0.07402068 -0.38590828 -0.019920202 -0.41771457 -0.056819733 0.23902825 -0.010967289 0.27627182
-0.052229714 0.11473596 -0.157327 -0.009098059 -0.39162847 -0.270157 0.3110121 0.092375204
-0.032103788 0.5601096 -0.46199128 0.19886635 -0.08934271 0.114152074 -0.09498942 -0.19307542
-0.30613953 -0.34570277 -0.30476844 -0.0012607122 -0.05380542 0.25351736 -0.38410854 0.21215451
-0.0070392415 0.2459235 -0.39327028 -0.0041438295 -0.28349897 0.41853654 0.37871003 0.53975195
-0.09016004 -0.3074952 0.09348284 0.14949965 0.31482 0.20743313 -0.316581 0.06814837
0.053795397 -0.07293238 0.43059006 -0.30156162 0.25315872 -0.3521375 0.2951021 0.36227065
0.028219664 0.47365957 -0.017741704 0.15534008 0.05220788 -0.562462 0.111080006 -0.11948682
0.030261062 0.2049328 -0.066354744 0.20158714 -0.14335322 0.14319302 0.32050857 -0.1649364
0.2277573 -0.0004116635 -0.22527581 -0.056195896 0.08916692 0.36429584 -0.1476599 -0.07620312
-0.13667749 0.11989115 -0.10626177 -0.33562925 0.14434299 0.15877089 -0.05301638 0.5330593
00000000: 08d0 6cbc c0d0 1b3e a1a7 53be 24fb e5be
00000010: c6ab c93d f1a5 95bd f390 3abe 34b2 75be
00000020: a7b1 a83e ada7 963e 0909 2fbd 9b72 453c
00000030: a964 dcbe a14c 873d 8e83 5fbe 4755 0c3f
00000040: d455 86be 68e9 5d3e 30c1 0cbc e4d1 c93c
00000050: aff3 e3bd 48f6 37be 06cf e03e af34 46be
00000060: 408b 283e 5a72 a93e e365 edbe e07f c53d
00000070: 97f8 6b3c af30 ac3d 3f61 8e3d 10c7 0d3e
00000080: b9b9 c13c a569 64be 6b61 febd 69ac 47be
00000090: 9a18 983e 82a6 c6be 9afc bb3e 4867 5e3c
000000a0: 2079 653d 3f84 b63d 7396 c13d bdde 8fbe
000000b0: 543a 8c3e 8329 a8be ac39 afbe fc9e 8a3e
000000c0: 8fa1 c13d 4600 3abe d831 e9be 5f8b 85be
000000d0: 5bec 3a3d 1a5e 49be ff6e c4bd f533 8ebe
000000e0: f8d6 833e 450b 1b3d d647 a63d d335 073e
000000f0: 4ceb f0be 576b 8f3e 196b 193e 25ba 953e
00000100: 09f2 703e c796 8ebe 8e04 49be f515 2ebe
00000110: 5707 f7be 18e9 ca3d 275d a8be f59a 6ebe
00000120: c58e df3e 11a9 ec3e b5d0 41be 2eac 3ebe
00000130: c7d7 0bbf ecf0 de3c e638 663d 0f22 bb3e
00000140: 789c 133e 4fa1 143e 0241 b83e dfcb a43d
00000150: e7f5 c7be a6bd e9be 2664 923e 7cc5 cfbc
00000160: 623e 433e b65f a13e 61f5 a33d 55aa 663e
00000170: a20e df3d 5cd3 1f3d 58a0 0b3e ad7b 8abe
00000180: f78b 18be 458e 9d3d 525a 1b3e 0639 2dbe
00000190: 80e4 c13d 9d41 4abf dce2 f13e 1e00 11bd
000001a0: 3cbe 653d 3e3e c33e a607 75be 83bd 9c3e
000001b0: 453a 0d3e 0c29 5b3b 40fb c73c d549 4abe
000001c0: f95c f1bd 6b2b 80bc d238 ad3d c407 593e
000001d0: 42ac 933e 36ff b1bc 6cba b3bc 377a 0ebe
000001e0: c3ec ae3d c739 b7be 16c8 ff3d 8f51 98bd
000001f0: b681 01bd 7480 efbe 7d18 6dbd fe50 c7bd
00000200: e74b a1bd 5e4f aabe 8a40 8dbe a81e 84be
00000210: 4571 8fbe 5e93 ea3e ad21 34be 8c5b 473e
00000220: 7aad 9cbe 9a3f 31be ad5d 04be e2b5 e6be
00000230: 6bd0 e93a ec9f fd3e 1bfb dc3e b3ec 6b3e
00000240: b1b9 863d f665 6d3d 7d1c 58be 6657 313e
00000250: 9ebf 3b3e 1d58 0d3e f1ba c4be 4a43 943e
00000260: 58a1 6bbe dcc6 a83d d6eb 9dbc e2c1 edbe
00000270: c1d7 13be 4ce5 443e 0a53 c3bd afcc 0b3f
00000280: 21e3 133e 3f8a cfbd 9841 2fbe 49b3 003c
00000290: 2429 67be 0a93 b33e 18dd c0bb 4fb6 833d
000002a0: 2798 97bd c595 c5be b12f a3bc afde d5be
000002b0: cfbb 68bd d2c3 743e 25b0 33bc 8073 8d3e
000002c0: d3ee 55bd b0fa ea3d 541a 21be 0610 15bc
000002d0: 8783 c8be 0552 8abe fa3c 9f3e 362f bd3d
000002e0: 437f 03bd 5863 0f3f 1f8a ecbe 9fa3 4b3e
000002f0: 50f9 b6bd 90c8 e93d d089 c2bd 90b5 45be
00000300: 52be 9cbe f4ff b0be 9c0a 9cbe 7b3e a5ba
00000310: 1263 5cbd 07cd 813e e0a9 c4be 083f 593e
00000320: 70a9 e6bb 5fd3 7b3e b95a c9be f6c8 87bb
00000330: c726 91be 6c4a d63e 48e6 c13e 2f2d 0a3f
00000340: d4a5 b8bd 0370 9dbe ee73 bf3d 7016 193e
00000350: 1630 a13e 5a69 543e e816 a2be 5f91 8b3d
00000360: 9058 5c3d 925d 95bd 4d76 dc3e 4966 9abe
00000370: 059e 813e 5e4b b4be 9f17 973e 8a7b b93e
00000380: ed2c e73c 8283 f23e 0d57 91bc 7811 1f3e
00000390: eed7 553d 82fd 0fbf ea7d e33d 82b5 f4bd
000003a0: 0ce6 f73c e7d9 513e ffe4 87bd dc6c 4e3e
000003b0: 30cb 12be 31a1 123e b319 a43e 16e5 28be
000003c0: 3639 693e 8ad4 d7b9 b4ae 66be ab2d 66bd
000003d0: 259d b63d fc84 ba3e 2834 17be 6210 9cbd
000003e0: 2ff5 0bbe 7e89 f53d c59f d9bd 99d7 abbe
000003f0: a6ce 133e d694 223e b427 59bd 9376 083f

gnn_base.gnn.gnn1.lin_key.bias f4 [48]
0.1915763 0.1979764 -0.068802424 -0.14536983 -0.11082858 -0.17138705 -0.06516146 -0.22562046
0.13442296 -0.23548026 -0.15497574 0.1673627 -0.18768732 0.060005553 0.18660302 0.24540246
0.1262603 -0.06754088 0.14326829 -0.008589406 -0.07802039 -0.00032096033 0.056196056 0.1678694
0.10536589 0.11874349 0.036503777 -0.012330933 0.103267156 0.05987631 -0.23851214 0.041904487
-0.11199659 -0.13181703 0.09655592 0.051409908 0.043053776 -0.11785116 0.11523513 0.23453411
0.030773297 0.10353337 -0.22060503 0.1484792 0.08677271 0.113843426 0.10414986 -0.064601675
00000000: 942c 443e 53ba 4a3e 49e8 8cbd d4db 14be
00000010: 18fa e2bd 1680 2fbe 5f73 85bd 0d09 67be
00000020: 2ca6 093e bd21 71be f6b1 1ebe 2161 2b3e
00000030: 1b31 40be 62c8 753d dd14 3f3e c84a 7b3e
00000040: 614a 013e df52 8abd ecb4 123e 94ba 0cbc
00000050: 27c9 9fbd 9146 a8b9 d62d 663d f5e5 2b3e
00000060: 12ca d73d c92f f33d fc84 153d ae07 4abc
00000070: bb7d d33d dd40 753d 873c 74be 0aa4 2b3d
00000080: 785e e5bd 0bfb 06be 1cbf c53d 3293 523d
00000090: 2859 303d f35b f1bd 6500 ec3d b629 703e
000000a0: 4818 fc3c 4e09 d43d 49e6 61be ee0a 183e
000000b0: e4b5 b13d be26 e93d 864c d53d e24d 84bd

gnn_base.gnn.gnn1.lin_query.weight f4 [48, 16]
-0.23548211 0.34676245 0.30909193 -0.21490379 -0.051126655 0.41806474 -0.32019508 -0.054355167
0.09781376 -0.16172363 0.15791452 -0.16993944 -0.018505448 -0.08493575 0.061347846 0.56940466
-0.0152858095 -0.0013566958 0.074942745 -0.25815162 -0.071109615 0.021503957 -0.30737165 0.089512736
0.32529366 -0.29138666 0.09204728 0.057140503 0.1147487 -0.061868683 0.35153493 -0.021508874
-0.009412458 0.17913169 0.024436314 -0.36501062 0.36517525 -0.040603742 0.060316525 0.099472985
0.1318089 -0.40878874 0.3395011 -0.018314846 0.25468662 0.26419103 0.2340415 0.24301134
-0.17849557 -0.10234448 0.33329412 0.07957012 -0.4112754 0.3179755 -0.008932377 0.1289776
0.036502745 -0.17310843 0.1672072 0.31070992 0.10162687 -0.053053558 -0.093163915 0.371229
-0.4800414 0.14600064 -0.15963635 0.008784646 -0.44621968 0.37665623 -0.1617162 0.05063402
0.10509091 -0.12751637 -0.22942887 -0.3062675 -0.21118377 -0.25712094 0.08228489 0.50175387
-0.13355556 0.45044002 0.15381056 -0.3832009 0.1137438 -0.31889507 0.3379325 0.33038548
0.14586893 -0.17951402 0.027276812 0.17183279 -0.49726588 -0.29946226 0.16574208 -0.018340172
-0.12186919 0.5641455 0.48731703 -0.64878124 -0.10369524 -0.38591963 0.07417816 0.40926725
0.12851796 -0.4125877 0.028436845 0.12720989 0.1855818 -0.36064357 0.30054453 0.098040245
0.2441768 -0.42210495 0.09236893 -0.06482944 0.36475456 -0.1969693 -0.12901387 -0.3301372
-0.37660986 -0.121309064 0.25822794 0.17114462 -0.17758021 0.13469405 0.18982163 -0.20634493
-0.22891425 -0.18849693 0.023251368 0.5749506 -0.21494159 0.16885734 -0.20854074 -0.408657
0.12456447 -0.112229146 -0.28124258 -0.107297406 0.31426704 0.040973682 -0.38214958 0.1341349
-0.025408093 0.17597102 -0.033759117 0.44959122 -0.048515137 0.07896131 -0.43711263 -0.02678947
-0.15678053 0.11942535 0.24557492 -0.10280314 0.36545587 0.017425241 -0.20165451 0.342918
0.03951484 -0.12315945 -0.22256191 0.40205717 -0.29769984 0.25352088 0.1625369 -0.07530407
0.24401033 0.21555254 -0.063929886 -0.18586545 0.11890963 0.21524128 -0.20206495 0.11330304
0.079618886 0.31976387 0.47031194 -0.107720345 -0.25020033 -0.053836 -0.24686317 0.09064436
0.4145131 0.10888716 -0.054207917 0.089216374 -0.30412343 -0.33228526 0.25805095 -0.08113782
-0.41217256 0.008826781 0.07928001 0.33246118 -0.37407786 0.43018794 -0.5046659 -0.021078303
0.120172545 -0.09538406 -0.20332278 -0.18365045 0.1897612 -0.5272583 -0.0033278833 0.058272913
0.28314817 -0.4118604 -0.3139004 0.1613792 0.5471799 -0.013751041 0.049429953 -0.07201523
-0.2719916 -0.27797693 0.043522615 -0.37034512 -0.103910744 0.068738334 -0.043606125 0.13949049
0.060741708 0.25827816 0.35239682 -0.0017937027 -0.0130244205 -0.40615484 0.060795143 0.12850983
0.26881343 -0.1889416 -0.039752264 0.21717471 0.06285373 -0.6491505 0.08565729 0.28358555
-0.3274386 0.09985568 -0.15745103 0.11642896 -0.18279324 0.29068288 -0.25890535 -0.18254742
0.005596519 -0.032026287 -0.027952414 -0.29662243 0.16623285 0.18795684 -0.20523615 0.038698018
00000000: 3922 71be d98a b13e 4c41 9e3e bd0f 5cbe
00000010: 2f6a 51bd 950c d63e 9cf0 a3be 86a3 5ebd
00000020: 9552 c83d e19a 25be 58b4 213e 9b04 2ebe
00000030: bd98 97bc cbf2 adbd e147 7b3d 81c4 113f
00000040: 5571 7abc 28d3 b1ba 957b 993d 732c 84be
00000050: eba1 91bd 1129 b03c d15f 9dbe 7452 b73d
00000060: e48c a63e a230 95be 4983 bc3d 290c 6a3d
00000070: 5e01 eb3d 046a 7dbd 63fc b33e 6133 b0bc
00000080: b636 1abc 4c6e 373e aa2e c83c ace2 babe
00000090: 40f8 ba3e 1c50 26bd 760e 773d 7eb8 cb3d
000000a0: eaf8 063e c24c d1be 17d3 ad3e 0409 96bc
000000b0: 4966 823e 0c44 873e 93a8 6f3e f7d7 783e
000000c0: 8bc7 36be fc99 d1bd 87a5 aa3e a9f5 a23d
000000d0: b092 d2be afcd a23e 1b59 12bc b412 043e
000000e0: e783 153d 5643 31be 5d38 2b3e 5f15 9f3e
000000f0: c021 d03d b04e 59bd b9cc bebd ba11 be3e
00000100: fdc7 f5be 3181 153e b677 23be 7aed 0f3c
00000110: e876 e4be 16d9 c03e ee98 25be 9e65 4f3d
00000120: e739 d73d a793 02be 67ef 6abe 18cf 9cbe
00000130: 8f40 58be 5ba5 83be fb84 a83d f172 003f
00000140: cac2 08be 13a0 e63e 8480 1d3e e932 c4be
00000150: 82f2 e83d 3746 a3be 7d05 ad3e 4928 a93e
00000160: aa5e 153e 86d2 37be 9f73 df3c eff4 2f3e
00000170: a299 febe 1e53 99be 4bb8 293e 213e 96bc
00000180: 8e96 f9bd d76b 103f 9e81 f93e 8716 26bf
00000190: 2c5e d4bd 4297 c5be b8ea 973d 7a8b d13e
000001a0: 369a 033e b23e d3be 63f4 e83c 4f43 023e
000001b0: 2809 3e3e 46a6 b8be f9e0 993e 53c9 c83d
000001c0: 7c09 7a3e 241e d8be ec2b bd3d 4cc5 84bd
000001d0: 1cc1 ba3e 52b2 49be 361c 04be be07 a9be
000001e0: 02d3 c0be e370 f8bd 7436 843e 8940 2f3e
000001f0: 96d7 35be 3ded 093e 9a60 423e 164c 53be
00000200: 7f68 6abe 5705 41be a779 be3c f62f 133f
00000210: a619 5cbe f0e8 2c3e b48b 55be 7e3b d1be
00000220: a81b ff3d 65d8 e5bd 07ff 8fbe bebe dbbd
00000230: 9ce7 a03e 05d4 273d 1ca9 c3be a95a 093e
00000240: a224 d0bc bf31 343e 0047 0abd d230 e63e
00000250: cfb7 46bd 78b6 a13d 3acd dfbe 9775 dbbc
00000260: 138b 20be 4795 f43d fe77 7b3e 748a d2bd
00000270: 081d bb3e 61bf 8e3c 857e 4ebe f392 af3e
00000280: 50da 213d 063b fcbd 45e7 63be 70da cd3e
00000290: 1d6c 98be 7dcd 813e 1370 263e 0539 9abd
000002a0: d8dd 793e ceb9 5c3e aced 82bd 8353 3ebe
000002b0: e486 f33d 3668 5c3e 1dea 4ebe 6d0b e83d
000002c0: 3a0f a33d 17b8 a33e bacc f03e 7c9c dcbd
000002d0: 421a 80be 2383 5cbd b3c9 7cbe c0a3 b93d
000002e0: 103b d43e 3b00 df3d 1f09 5ebd 13b7 b63d
000002f0: 11b6 9bbe 4b21 aabe 411f 843e 962b a6bd
00000300: 4808 d3be 349e 103c 8f5d a23d 5a38 aa3e
00000310: 2287 bfbe 9841 dc3e c931 01bf 68ac acbc
00000320: 061d f63d b858 c3bd d933 50be dd0e 3cbe
00000330: c350 423e 66fa 06bf 9e18 5abb 94af 6e3d
00000340: ccf8 903e 5edf d2be 8eb7 a0be 9740 253e
00000350: fb13 0c3f 0c4c 61bc 1077 4a3d b97c 93bd
00000360: 7c42 8bbe fe52 8ebe c544 323d e09d bdbe
00000370: 28cf d4bd afc6 8c3d 569c 32bd 98d6 0e3e
00000380: 4ccc 783d 093d 843e 5b6d b43e ad1a ebba
00000390: 6164 55bc 87f3 cfbe 5404 793d 1598 033e
000003a0: eaa1 893e e879 41be 45d3 22bd 0c63 5e3e
000003b0: 75b9 803d ba2e 26bf 176d af3d 2032 913e
000003c0: 08a6 a7be 2281 cc3d d83a 21be 4e72 ee3d
000003d0: 272e 3bbe 63d4 943e 3e8f 84be b6ed 3abe
000003e0: 0163 b73b ff2d 03bd 76fc e4bc e5de 97be
000003f0: f238 2a3e c277 403e 6d29 52be d081 1e3d

gnn_base.gnn.gnn1.lin_query.bias f4 [48]
-0.0017036755 -0.2879059 0.03739731 0.13540415 -0.18651597 -0.07040665 -0.10772406 0.097545646
0.2117567 -0.14247721 0.122440845 -0.09133396 0.17910911 -0.0017192649 -0.3570206 -0.024661183
-0.23268346 0.096324496 -0.22330472 -0.13155816 -0.13297293 0.14479747 0.13269076 -0.26533374
-0.14392675 0.106727906 -0.10986166 0.12227232 0.07196249 -0.1877071 0.46570197 0.43588686
-0.050213598 0.015639385 -0.04174369 -0.18063451 -0.11608294 0.19170462 -0.028168546 -0.113177635
-0.21700001 -0.022735316 0.11883951 0.011331025 0.107742734 -0.005506988 0.056362644 0.28065792
00000000: dd4d dfba 6768 93be ec2d 193d 63a7 0a3e
00000010: 0bfe 3ebe 5d31 90bd 6f9e dcbd 03c6 c73d
00000020: c0d6 583e 8ce5 11be 44c2 fa3d 4d0d bbbd
00000030: 6168 373e f558 e1ba 67cb b6be 4006 cabc
00000040: 9344 6ebe c745 c53d fea9 64be 2fb7 06be
00000050: 0e2a 08be ca45 143e 16e0 073e d3d9 87be
00000060: 8961 13be 2994 da3d 26ff e0bd e969 fa3d
00000070: 1261 933d 4a36 40be 7d70 ee3e 902c df3e
00000080: c6ac 4dbd 2b1e 803c 6efb 2abd 41f8 38be
00000090: e4bc edbd 374e 443e b9c1 e6bc adc9 e7bd
000000a0: 4035 5ebe 6a3f babc 2162 f33d c3a5 393c
000000b0: 39a8 dc3d f773 b4bb 84dc 663d 65b2 8f3e

gnn_base.gnn.gnn1.lin_value.weight f4 [48, 16]
0.07847934 0.19884284 -0.27793276 -0.34122044 0.03771058 -0.082781926 0.37809846 -0.123885036
-0.09946962 -0.28003758 0.21141517 -0.04682129 0.09605652 0.122442156 0.61029726 0.31871477
-0.50108105 -0.14711505 -0.012308181 0.008217507 0.21817325 -0.07052228 -0.04143148 -0.0502995
-0.142223 0.10199995 0.2658164 -0.15789203 0.11195618 0.03218765 0.22882059 -0.13439502
-0.39281693 0.060929097 -0.09149832 -0.32394946 0.07576307 0.27756482 0.2574191 0.13805085
-0.39912626 0.11105017 0.29552728 0.07929666 0.088767745 0.007676833 -0.095340565 -0.047040038
0.023769768 -0.011099848 -0.24942185 0.06140731 0.15121348 -0.20811823 0.31239668 -0.3814936
0.23806527 0.25198853 0.10626326 -0.0058902088 -0.12244932 -0.10930703 -0.17487425 -0.23583163
0.117237374 0.07771854 0.12732829 0.10660887 -0.30731657 -0.24454017 0.23114996 0.21441917
-0.39807352 0.32624844 0.045884725 0.0026665474 -0.3368219 0.04512255 0.5034217 0.3269935
0.11994182 -0.2607756 0.20753331 -0.18725081 0.12484415 -0.08505145 0.13664316 -0.22948879
-0.02204742 0.43682322 0.03294036 0.4902998 -0.15048712 -0.186335 0.08365141 0.03440127
0.3017302 0.15811114 -0.13178396 -0.20811507 -0.5126594 0.045924675 -0.20928402 -0.19512683
-0.32574454 0.42786252 0.20320001 0.1393649 -0.44021425 0.4525582 0.09570673 0.10895492
-0.49146348 -0.2271044 0.2936624 -0.1172769 -0.0923354 -0.060656745 0.1312096 -0.23748082
-0.10328589 -0.10074337 -0.21924783 0.09752358 -0.13443652 0.103919074 0.3367989 -0.0882563
-0.06700993 0.12839268 0.13124077 0.1653112 0.20873329 -0.25575304 0.07164938 0.07203959
-0.36004314 0.024102628 -0.10595186 0.397666 0.30668476 -0.19260877 0.009368886 -0.015333753
-0.41528478 -0.058343668 0.056361828 0.14983162 0.28424373 0.14839473 0.10683812 -0.28680867
0.09026493 -0.4313952 0.1102032 0.054072388 0.2906894 -0.2420325 0.107709855 -0.1736744
0.059832636 -0.2696183 0.008054312 -0.17224856 0.12092022 -0.19532743 -0.001605778 0.004938777
-0.42467383 0.22543392 0.10965559 -0.29202577 -0.24381946 0.3851804 0.32732016 -0.0017016304
-0.1339568 -0.118198864 -0.23168401 0.18216385 0.09658794 -0.22650032 -0.33070132 0.27354252
0.3481132 -0.00744503 -0.1649546 0.15624182 -0.048586108 -0.20857051 0.20058629 0.24858636
-0.22489534 0.28616804 0.25823122 0.0596368 0.09525839 -0.07648254 0.3990731 -0.27653468
-0.0125400685 0.029925419 0.18203335 -0.15260631 -0.12754278 -0.5180258 0.09986045 0.221393
0.21958452 0.07801529 -0.22866137 -0.14015561 -0.058523793 -0.3323316 0.45157048 -0.008766033
0.6020253 0.03284316 0.028707918 -0.0211988 -0.34060642 0.4032284 0.03170966 -0.16355205
-0.0860743 0.052410137 -0.30798358 0.26146367 -0.14838842 0.008729059 -0.280228 0.2203116
-0.022903126 0.10317212 0.32808957 -0.2315648 0.030554337 -0.29076993 -0.40922844 -0.08486895
0.06308501 0.3136704 -0.25683683 0.012409744 0.15548465 0.15306732 0.22577064 -0.1237419
-0.10746692 0.05012499 -0.55642223 0.22220723 -0.27600512 0.04273348 0.011857869 -0.11143205
00000000: c7b9 a03d 759d 4b3e 344d 8ebe 72b4 aebe
00000010: 6976 1a3d 9289 a9bd 1f96 c13e 70b7 fdbd
00000020: bab6 cbbd 1661 8fbe 387d 583e aec7 3fbd
00000030: 48b9 c43d f4c2 fa3d 713c 1c3f 952e a33e
00000040: d946 00bf 54a5 16be 41a8 49bc b9a2 063c
00000050: cf68 5f3e fc6d 90bd 0eb4 29bd d906 4ebd
00000060: e8a2 11be 5ae5 d03d 1619 883e 73ae 21be
00000070: 4849 e53d 33d7 033d f24f 6a3e d99e 09be
00000080: 4d1f c9be ca90 793d 7963 bbbd b4dc a5be
00000090: ab29 9b3d fa1c 8e3e 70cc 833e 345d 0d3e
000000a0: 475a ccbe 466e e33d 5a4f 973e 4a66 a23d
000000b0: ddcb b53d f18d fb3b ea41 c3bd 0ead 40bd
000000c0: d1b8 c23c 23dc 35bc 7168 7fbe 3b86 7b3d
000000d0: b5d7 1a3e f21c 55be 75f2 9f3e 2153 c3be
000000e0: 62c7 733e a404 813e 8da0 d93d a702 c1bb
000000f0: b6c6 fabd 5ddc dfbd 3c12 33be d97d 71be
00000100: 261a f03d e62a 9f3d 5962 023e c055 da3d
00000110: 9958 9dbe bd68 7abe 93b2 6c3e b390 5b3e
00000120: 4bd0 cbbe 090a a73e 9ff1 3b3d 3ec1 2e3b
00000130: ec73 acbe 6cd2 383d 3fe0 003f b16b a73e
00000140: 0fa4 f53d 6184 85be 9d83 543e adbe 3fbe
00000150: 4aae ff3d 742f aebd 2fec 0b3e 1cff 6abe
00000160: ca9c b4bc 4ba7 df3e 79ec 063d 9308 fb3e
00000170: 4c19 1abe 9ace 3ebe 6e51 ab3d 59e8 0c3d
00000180: 617c 9a3e e3e7 213e 60f2 06be 1e1c 55be
00000190: a53d 03bf 831b 3c3d 8d4e 56be 54cf 47be
000001a0: fdc7 a6be cc10 db3e aa13 503e acb5 0e3e
000001b0: c363 e1be b5b5 e73e e401 c43d c223 df3d
000001c0: 1aa1 fbbe 0e8e 68be eb5a 963e df2e f0bd
000001d0: 581a bdbd 3573 78bd cf5b 063e 2c2e 73be
000001e0: 8d87 d3bd 8a52 cebd 8182 60be 71ba c73d
000001f0: baa9 09be 86d3 d43d e870 ac3e b8bf b4bd
00000200: 813c 89bd 5f79 033e fb63 063e 5747 293e
00000210: 2ebe 553e 10f2 82be e9bc 923d 7e89 933d
00000220: 9357 b8be e072 c53c 4afd d8bd e19a cb3e
00000230: c905 9d3e 3c3b 45be f57f 193c 6c3a 7bbc
00000240: 35a0 d4be c5f9 6ebd a9db 663d 766d 193e
00000250: 6588 913e caf4 173e f2cd da3d 96d8 92be
00000260: d2dc b83d d5df dcbe 37b2 e13d 027b 5d3d
00000270: 3ed5 943e 5ed7 77be fc96 dc3d b4d7 31be
00000280: 1113 753d 690b 8abe 3cf6 033c ed61 30be
00000290: 05a5 f73d ea03 48be f878 d2ba 77d5 a13b
000002a0: d96e d9be 26d8 663e 1c93 e03d 6784 95be
000002b0: cfab 79be 5e36 c53e 8296 a73e 3e09 dfba
000002c0: f92b 09be 3f12 f2bd 933e 6dbe 2989 3a3e
000002d0: e6cf c53d b3ef 67be af51 a9be c40d 8c3e
000002e0: e53b b23e 70f5 f3bb dce9 28be dbfd 1f3e
000002f0: 3a02 47bd 8293 55be 7e66 4d3e 6c8d 7e3e
00000300: f74a 66be 9e84 923e e236 843e b845 743d
00000310: d516 c33d e1a2 9cbd 4f53 cc3e f495 8dbe
00000320: dc74 4dbc 2726 f53c f366 3a3e d444 1cbe
00000330: 939a 02be 579d 04bf a383 cc3d d9b4 623e
00000340: c4da 603e 7bc6 9f3d 3526 6abe f484 0fbe
00000350: a5b6 6fbd 5e27 aabe 3f34 e73e 689f 0fbc
00000360: 541e 1a3f 8d86 063d de2c eb3c 1ba9 adbc
00000370: f763 aebe f473 ce3e fde1 013d 307a 27be
00000380: b947 b0bd 03ac 563d 06b0 9dbe 91de 853e
00000390: 22f3 17be 5404 0f3c 0b7a 8fbe 5d99 613e
000003a0: 569f bbbc e84b d33d 5bfb a73e 531f 6dbe
000003b0: 174d fa3c ccdf 94be 6486 d1be c6cf adbd
000003c0: b732 813d 6899 a03e 1e80 83be 3d52 4b3c
000003d0: 5e37 1f3e aebd 1c3e 6b30 673e 656c fdbd
000003e0: 9e17 dcbd dd4f 4d3d b071 0ebf 4b8a 633e
000003f0: 8b50 8dbe 4d09 2f3d 8247 423c 7d36 e4bd

gnn_base.gnn.gnn1.lin_value.bias f4 [48]
0.25804 0.052270822 -0.08558822 -0.044828642 0.17259942 0.10502732 0.072259 0.051918656
-0.0329461 0.1755721 0.11841378 0.09005789 -0.1602978 -0.20146553 0.11821898 0.077677816
0.21833137 -0.22816446 -0.019790843 -0.058028873 -0.15178758 0.21634375 0.053011253 0.25047734
0.11792073 -0.21457061 -0.054051008 0.01007265 -0.078402326 0.09483478 -0.11600597 0.19673961
0.25200567 0.22801092 0.17802337 -0.21928759 -0.08656461 -0.07323993 -0.033116125 0.011790094
0.18292637 0.08502546 -0.04109931 -0.013267502 -0.049309667 0.031422276 -0.21470276 -0.005164027
00000000: d21d 843e ee19 563d e048 afbd 3d9e 37bd
00000010: e7bd 303e 9018 d73d 87fc 933d a8a8 543d
00000020: 7df2 06bd 2cc9 333e ed82 f23d 4570 b83d
00000030: 1b25 24be fb4c 4ebe cb1c f23d 8c15 9f3d
00000040: 4292 5f3e f2a3 69be 6820 a2bc afaf 6dbd
00000050: 346e 1bbe 3789 5d3e 5422 593d 913e 803e
00000060: 6c80 f13d 66b8 5bbe 9764 5dbd c207 253c
00000070: 6691 a0bd bd38 c23d 8a94 edbd 1c76 493e
00000080: e306 813e b27b 693e c24b 363e ed8c 60be
00000090: c948 b1bd d1fe 95bd c6a4 07bd 3d2b 413c
000000a0: 0d51 3b3e d421 ae3d c057 28bd f05f 59bc
000000b0: eff8 49bd a5b4 003d 0adb 5bbe 0037 a9bb

gnn_base.gnn.gnn1.lin_edge.weight f4 [48, 1]
0.6538983 0.5249665 -0.9586956 0.9302937 -0.6603666 0.9180516 -0.61609477 0.9420772
0.6743556 -0.32994446 0.41614625 0.96286094 -0.8591351 0.15987636 0.6458445 0.03111454
0.5436272 0.84312105 -1.105222 0.6106272 -1.0647632 0.5476648 -0.9585509 -0.35427272
0.2975301 -1.0817344 -0.18367225 -0.28568482 0.34747946 0.05701846 -1.0011209 -0.20106462
0.098864354 0.6076016 -1.066976 -0.6219221 0.14576732 -0.66338056 -0.76114345 -1.1012307
-0.24361183 -1.1261715 -0.0177807 0.8573069 0.42431092 -0.6919041 0.9268457 -0.74474335
00000000: e165 273f 3464 063f 136d 75bf ba27 6e3f
00000010: c90d 29bf 6e05 6b3f 63b8 1dbf f92b 713f
00000020: 92a2 2c3f 7bee a8be 1f11 d53e 0e7e 763f
00000030: 47f0 5bbf a1b6 233e 1156 253f ebe3 fe3c
00000040: 272b 0b3f c8d6 573f ea77 8dbf 1052 1c3f
00000050: 294a 88bf c333 0c3f 9763 75bf 3c63 b5be
00000060: de55 983e 4676 8abf 9414 3cbe 4845 92be
00000070: d4e8 b13e 308c 693d bb24 80bf e2e3 4dbe
00000080: 6579 ca3d c78b 1b3f ab92 88bf 4936 1fbf
00000090: 0744 153e 4fd3 29bf 4cda 42bf 21f5 8cbf
000000a0: 6175 79be 6326 90bf d5a8 91bc 7778 5b3f
000000b0: 483f d93e a120 31bf c345 6d3f 80a7 3ebf

gnn_base.gnn.gnn1.lin_skip.weight f4 [16, 16]
-0.05735812 0.050606094 0.11007542 0.21023294 0.026575927 -0.5148495 0.046932112 -0.04938435
-0.30724058 -0.087229654 0.4524247 0.052421317 0.2303597 -0.5216858 -0.01938666 0.23602723
0.16055769 -0.06753727 -0.2657604 -0.4255099 0.09587913 -0.14613691 0.11082103 -0.3074637
-0.20726977 -0.20355135 0.11782136 0.044695202 -0.29056585 -0.26358145 0.17689148 0.083906524
-0.31700337 0.030687818 -0.20190881 -0.053347778 -0.21325159 0.3014151 -0.15040775 0.13434799
-0.19364232 0.05204071 0.06161058 -0.09197335 -0.042112038 -0.07684992 -0.07814041 -0.38662288
0.13649708 0.15657984 -0.108489044 0.059802856 -0.27579597 -0.48857605 0.4676513 -0.28604522
0.23559673 0.35146436 -0.38825396 0.43242592 0.054879177 0.18744351 -0.14034593 -0.28185022
-0.09107042 -0.011665173 0.0021153109 0.07973894 -0.21519276 -0.17022228 -0.09211185 -0.21007961
-0.29356715 0.09968145 -0.12877947 0.110213324 0.06698443 0.082321644 0.1328959 0.21650617
-0.29154715 -0.24436255 -0.39315096 -0.2574066 0.34351033 -0.48337138 0.017694216 0.076607086
-0.2566163 0.3740371 0.04508128 -0.051436815 -0.15130089 0.26389983 -0.41794828 -0.17564525
0.20065087 -0.021712128 0.3344476 -0.1102547 0.08023791 0.10577895 -0.28717136 0.27042988
-0.10500674 -0.024335071 0.43637985 0.04210192 0.10221879 -0.32366136 -0.2266572 -0.033914924
-0.23490697 -0.13422129 0.10079524 0.18218213 -0.070160635 -0.19223192 -0.27585882 0.27889547
-0.069745295 -0.13866958 0.058179807 0.2848742 -0.016980583 0.055073533 0.2471502 0.3069141
0.20891903 -0.22435078 -0.24403064 0.086697906 -0.28021216 0.40229908 0.12594219 0.13476266
0.034572 -0.32161376 -0.14124133 0.14649919 -0.1996225 -0.20009392 0.55443984 0.18016784
0.30845192 -0.11474817 -0.01782451 -0.41304687 0.09425276 0.37726322 -0.27818578 0.27081153
0.25829446 -0.60347146 0.23620597 0.023158878 -0.007893709 0.15471263 0.29647288 0.18636602
-0.26920006 -0.040461503 -0.05251853 0.23243009 -0.1521602 0.29338658 -0.23067856 0.14111796
0.24041678 0.3321965 0.10638364 -0.39882973 -0.12667842 -0.34267104 -0.62000424 -0.16294804
0.0011936426 0.18248372 -0.30592558 -0.15196872 -0.3779335 0.3468104 0.08220007 0.09496201
0.10132122 -0.08832939 -0.07823703 -0.2197779 0.061183807 0.06655908 0.31813598 0.29879218
-0.24113683 -0.12360434 0.30048168 -0.31912488 -0.08532849 0.2609375 0.38670006 0.058771044
0.031934194 0.0137364855 0.0074825147 -0.08007122 0.33961764 0.2581151 -0.25984517 0.16731372
-0.18958238 -0.04232144 0.06647405 0.07766243 0.29217452 -0.3159293 -0.030878061 -0.17508063
0.4119372 0.16943987 0.2228316 0.003006762 -0.38965484 0.10604313 0.15908872 -0.030642373
0.19138448 -0.2798883 -0.021928405 -0.26637015 0.10708349 -0.39360735 0.1682561 0.15202151
-0.09473658 0.09208028 0.33239472 0.12830465 0.058606554 0.02531382 -0.017695911 0.11791475
-0.21340919 -0.1956988 0.018967777 0.18984324 -0.5227327 0.23743668 -0.114302926 -0.14094992
0.3794232 0.005687925 -0.26838094 -0.36038727 -0.026686452 0.4924935 -0.43099704 0.359178
00000000: 59f0 6abd 5648 4f3d 396f e13d 4e47 573e
00000010: c2b5 d93c 2dcd 03bf e33b 403d 3f47 4abd
00000020: a34e 9dbe 76a5 b2bd 36a4 e73e bcb7 563d
00000030: 6ae3 6b3e 338d 05bf c6d0 9ebc 1fb1 713e
00000040: 3c69 243e fb50 8abd bf11 88be 6fdc d9be
00000050: 475c c43d eaa4 15be 23f6 e23d e26b 9dbe
00000060: 873e 54be c46f 50be 534c f13d 5112 373d
00000070: 0cc5 94be 26f4 86be 0a23 353e 2fd7 ab3d
00000080: 444e a2be 0565 fb3c 2fc1 4ebe 3383 5abd
00000090: a05e 5abe 1453 9a3e 7d04 1abe 8592 093e
000000a0: 2c4a 46be a428 553d 605b 7c3d 865c bcbd
000000b0: ac7d 2cbd 7e63 9dbd 1408 a0bd 6ff3 c5be
000000c0: e4c5 0b3e 7756 203e 812f debd d7f3 743d
000000d0: 2135 8dbe a426 fabe fe6f ef3e 8574 92be
000000e0: 4540 713e 23f3 b33e 39c9 c6be ee66 dd3e
000000f0: fdc8 603d 31f1 3f3e d8b6 0fbe ac4e 90be
00000100: 2183 babd 481f 3fbc 07a1 0a3b 2b4e a33d
00000110: 7e5b 5cbe c04e 2ebe 23a5 bcbd 1c1f 57be
00000120: 6f4e 96be ca25 cc3d c4de 03be 86b7 e13d
00000130: 222f 893d 4098 a83d dd15 083e cbb3 5d3e
00000140: ab45 95be 2d3a 7abe 154b c9be ccca 83be
00000150: 96e0 af3e 747c f7be 76f3 903c 2de4 9c3d
00000160: 3663 83be ca81 bf3e 26a7 383d 69af 52bd
00000170: 9fee 1abe e11d 873e 51fd d5be 59dc 33be
00000180: 6c77 4d3e a2dd b1bc b73c ab3e 37cd e1bd
00000190: c653 a43d a2a2 d83d 2008 93be c975 8a3e
000001a0: c60d d7bd 585a c7bc 2e6d df3e 1073 2c3d
000001b0: 1658 d13d f1b6 a5be d318 68be 60ea 0abd
000001c0: 748b 70be 4e71 09be bc6d ce3d f48d 3a3e
000001d0: 61b0 8fbd 72d8 44be 5e3d 8dbe 63cb 8e3e
000001e0: 9fd6 8ebd 66ff 0dbe f34d 6e3d 08db 913e
000001f0: dd1a 8bbc c994 613d f114 7d3e d823 9d3e
00000200: dfee 553e 36bc 65be 2be3 79be ac8e b13d
00000210: f877 8fbe 25fa cd3e fdf6 003e 39ff 093e
00000220: 5f9b 0d3d 8faa a4be 91a1 10be e203 163e
00000230: d769 4cbe 6ce5 4cbe c5ef 0d3f eb7d 383e
00000240: 69ed 9d3e 1701 ebbd b504 92bc e17a d3be
00000250: 9707 c13d a528 c13e 5e6e 8ebe cfa7 8a3e
00000260: 2c3f 843e 1b7d 1abf fadf 713e b0b7 bd3c
00000270: 9d54 01bc fd6c 1e3e 4bcb 973e bcd6 3e3e
00000280: 97d4 89be f6ba 25bd ac1d 57bd 2702 6e3e
00000290: e2cf 1bbe c436 963e 0037 6cbe 3a81 103e
000002a0: d12f 763e a915 aa3e aadf d93d 6933 ccbe
000002b0: fdb7 01be 9472 afbe 99b8 1ebf dadb 26be
000002c0: 0074 9c3a 03dd 3a3e 47a2 9cbe b09d 1bbe
000002d0: 8080 c1be 2291 b13e 8358 a83d 717b c23d
000002e0: 8081 cf3d 0ae6 b4bd bc3a a0bd 750d 61be
000002f0: df9b 7a3d 2050 883d b8e2 a23e 4afb 983e
00000300: 93ec 76be 4624 fdbd bcd8 993e 5664 a3be
00000310: b4c0 aebd 9a99 853e 8dfd c53e e8b9 703d
00000320: 6ecd 023d ff0e 613c e22f f53b 61fc a3bd
00000330: 5de2 ad3e aa27 843e 6d0a 85be 4a54 2b3e
00000340: e221 42be 3f59 2dbd 8c23 883d 7b0d 9f3d
00000350: e697 953e 7cc1 a1be fdf3 fcbc 5648 33be
00000360: 6fe9 d23e a581 2d3e f82d 643e 180d 453b
00000370: d780 c7be 242d d93d 27e8 223e b705 fbbc
00000380: 4bfa 433e 854d 8fbe 33a3 b3bc ab61 88be
00000390: 974e db3d e786 c9be 544b 2c3e 87ab 1b3e
000003a0: 4105 c2bd 9694 bc3d a42f aa3e 4b62 033e
000003b0: 6d0d 703d ee5e cf3c 04f7 90bc 4a7d f13d
000003c0: f087 5abe 4465 48be 5062 9b3c 4466 423e
000003d0: cfd1 05bf 9a22 733e a717 eabd 2d55 10be
000003e0: c243 c23e c661 ba3b 3a69 89be ae84 b8be
000003f0: 8c9d dabc 1c28 fc3e a5ab dcbe 2ee6 b73e

gnn_base.gnn.gnn1.lin_skip.bias f4 [16]
0.13481964 -0.11366903 0.011006099 -0.06698815 0.050476342 0.20373386 0.113019764 0.0632884
0.2740077 -0.123228356 -0.009901162 -0.25378016 0.091222495 -0.008823422 -0.19930455 -0.20101848
00000000: 290e 0a3e 4fcb e8bd ed52 343c 1531 89bd
00000010: 48c0 4e3d 9c9f 503e e876 e73d 599d 813d
00000020: bd4a 8c3e 265f fcbd 7c38 22bc 79ef 81be
00000030: dcd2 ba3d 1d90 10bc 7e16 4cbe cad7 4dbe

gnn_base.gnn.gnn2.0.lin_key.weight f4 [48, 16]
-0.36927927 0.07310317 -0.3562286 -0.13002987 -0.12700485 -0.3173611 -0.041345783 0.1006646
0.04000206 -0.14655371 0.22482327 -0.19808705 0.13153338 -0.3413292 -0.13133991 -0.06686527
0.09783816 0.053144976 0.28570452 0.36617887 -0.012203932 0.4219879 -0.2528856 -0.42945838
0.14486691 0.20975599 0.07556884 0.22876975 0.15589412 0.41563237 -0.091913655 0.20793289
-0.054424632 0.030013578 -0.30155408 0.14645667 -0.060099903 -0.11364961 -0.08762962 0.02040211
0.2553584 0.2262569 -0.17183565 0.008091709 -0.07313294 0.50480074 0.33069596 -0.13348486
-0.3545808 -0.42929652 0.26274747 -0.16132146 -0.15653832 -0.44238934 0.30717498 0.34837264
-0.6887604 -0.16939646 0.21938147 0.03249585 -0.114551924 -0.38929415 -0.067052245 0.3335478
0.07997667 -0.13404638 0.28080365 0.15365694 -0.16021642 -0.16544005 0.10843358 0.07452233
-0.25990415 0.20760585 -0.0031593044 -0.09101312 0.21622814 0.014014771 -0.07942646 0.33752075
-0.042743947 -0.15749662 -0.107288525 -0.00022613144 0.07089122 0.04974143 -0.056603696 0.2466984
-0.0012302044 0.25274107 -0.11049517 -0.34254047 0.13909608 0.073771894 0.07110517 0.31188136
0.01760993 0.16112955 0.28569597 0.29772088 -0.29757679 -0.0009548648 -0.540507 -0.2980169
0.33804053 0.25400135 0.015925677 0.013699088 0.09271506 0.031038556 -0.16951132 0.32934332
0.22327991 -0.06102346 0.10988332 0.13053566 -0.17056213 0.11901303 -0.10740448 0.037842475
0.28111106 0.34030125 0.007821493 -0.3126021 0.17783833 -0.11205973 -0.08060038 0.49430037
0.22372401 0.49555156 -0.2310072 0.37131464 0.037120637 0.22915211 -0.19588722 -0.33412904
0.458503 0.4536162 -0.33208463 -0.13310029 0.0023240927 0.23333713 -0.024975432 -0.15291566
-0.18081088 -0.41347522 -0.41075954 -0.18708852 0.095737256 -0.43686345 0.17564832 0.23410311
-0.12189821 -0.3664148 -0.1317962 0.24637985 -0.4156965 -0.14474623 -0.15306106 -0.20489681
0.069548815 -0.27223027 0.03325619 -0.35187107 0.27232927 -0.43511227 -0.0156751 0.08767112
0.038032178 0.11273191 -0.11132331 0.076560244 0.3198881 -0.42398357 -0.11920282 0.05628973
-0.017176133 -0.37910062 0.38892362 0.34676605 0.31178343 0.15086742 0.023077192 -0.28985825
-0.43404862 0.21692084 0.033614546 0.36349744 -0.0851297 0.21656983 0.005626806 0.20436797
0.11814452 -0.19791271 -0.0785751 0.06863462 -0.32855916 0.08499352 -0.040864293 -0.36086705
0.32547966 0.26179153 -0.17714956 0.089705385 0.16240114 0.26286626 0.39218166 -0.031745303
-0.01792991 0.06838726 0.021515794 0.011195812 -0.15080072 -0.11309923 -0.29464895 0.25948155
-0.03058834 0.323993 0.030855244 0.09062945 0.0340934 0.13567789 -0.18276703 0.18901904
0.2977644 0.57911223 -0.46401206 0.08689181 -0.113309555 -0.05970446 -0.21712399 -0.26647586
0.68551403 0.3310176 -0.24143495 -0.06725749 0.22539352 0.31164467 0.20591961 -0.40123793
-0.0069418885 0.058473315 0.14814036 0.12176486 -0.040373836 0.17967655 0.23546386 -0.08941383
-0.0912912 -0.30020586 -0.08481383 -0.1871373 -0.050625805 0.07664217 0.36906126 0.067567356
00000000: 2c12 bdbe 1db7 953d 9863 b6be 8d26 05be
00000010: 8f0d 02be 277d a2be 325a 29bd 3e29 ce3d
00000020: 33d9 233d 2d12 16be 1238 663e 55d7 4abe
00000030: b0b0 063e b3c2 aebe f87d 06be a9f0 88bd
00000040: 605f c83d 8cae 593d dd47 923e cc7b bb3e
00000050: 00f3 47bc cc0e d83e 397a 81be f8e1 dbbe
00000060: fe57 143e 46ca 563e d6c3 9a3d 9e42 6a3e
00000070: b5a2 1f3e c4cd d43e 3a3d bcbd 5cec 543e
00000080: 5dec 5ebd 09df f53c 4c65 9abe bdf8 153e
00000090: 512b 76bd 20c1 e8bd 2977 b3bd 5322 a73c
000000a0: 56be 823e e4af 673e aff5 2fbe 1693 043c
000000b0: b9c6 95bd 9f3a 013f fb50 a93e 41b0 08be
000000c0: 9d8b b5be c1cc dbbe d686 863e 7431 25be
000000d0: 954b 20be db80 e2be 0a46 9d3e e65d b23e
000000e0: 9a52 30bf 4476 2dbe 89a5 603e 5e1a 053d
000000f0: 339a eabd 9051 c7be b052 89bd c7c6 aa3e
00000100: cfca a33d 7443 09be 7fc5 8f3e 3f58 1d3e
00000110: c60f 24be 1e69 29be 6d12 de3d 2a9f 983d
00000120: 2812 85be a196 543e 550c 4fbb 1665 babd
00000130: e96a 5d3e 369e 653c 57aa a2bd 85cf ac3e
00000140: 4714 2fbd cb46 21be 16ba dbbd b21d 6db9
00000150: 6a2f 913d abbd 4b3d 47d9 67bd 819e 7c3e
00000160: cf3e a1ba 4767 813e 4b4b e2bd 7761 afbe
00000170: 346f 0e3e b815 973d 969f 913d eaae 9f3e
00000180: b342 903c 25ff 243e be46 923e df6e 983e
00000190: fc5b 98be e44f 7aba ab5e 0abf ac95 98be
000001a0: a613 ad3e 770c 823e 9176 823c 2472 603c
000001b0: 65e1 bd3d 9244 fe3c 6094 2dbe b09f a83e
000001c0: 7da3 643e bcf3 79bd 820a e13d 24ab 053e
000001d0: d7a7 2ebe 1abd f33d e1f6 dbbd b600 1b3d
000001e0: caed 8f3e f73b ae3e b825 003c 620d a0be
000001f0: 401b 363e 927f e5bd d011 a5bd f014 fd3e
00000200: e817 653e efb8 fd3e 278d 6cbe f41c be3e
00000210: cf0b 183d daa6 6a3e a996 48be f612 abbe
00000220: e8c0 ea3e 6240 e83e ff06 aabe 714b 08be
00000230: ce4f 183b eeef 6e3e 4799 ccbc ec95 1cbe
00000240: 7d26 39be 06b3 d3be 134f d2be 2294 3fbe
00000250: e511 c43d 91ac dfbe 27dd 333e bab8 6f3e
00000260: c5a5 f9bd b89a bbbe 95f5 06be 004b 7c3e
00000270: 2cd6 d4be 5b38 14be 0abc 1cbe 78d0 51be
00000280: 9c6f 8e3d c461 8bbe a537 083d 7228 b4be
00000290: be6e 8b3e 09c7 debe 1169 80bc eb8c b33d
000002a0: a1c7 1b3d fddf e63d 7afd e3bd 9ecb 9c3d
000002b0: 5fc8 a33e 6014 d9be 9c20 f4bd 0f90 663d
000002c0: f6b4 8cbc 7a19 c2be ff20 c73e 528b b13e
000002d0: 14a2 9f3e fd7c 1a3e 610c bd3c 4d68 94be
000002e0: 9f3b debe 7f20 5e3e 68af 093d 561c ba3e
000002f0: 7b58 aebd 7bc4 5d3e 1261 b83b d645 513e
00000300: c1f5 f13d a1a9 4abe fbeb a0bd 4f90 8c3d
00000310: e838 a8be 1511 ae3d 5161 27bd 91c3 b8be
00000320: 45a5 a63e 8a09 863e b266 35be 75b7 b73d
00000330: 7c4c 263e 6896 863e 09cc c83e 5d07 02bd
00000340: bfe1 92bc 9f0e 8c3d e441 b03c a46e 373c
00000350: 816b 1abe 92a0 e7bd 3adc 96be c4da 843e
00000360: 6694 fabc 69e2 a53e 23c4 fc3c ef9b b93d
00000370: 85a5 0b3d 25ef 0a3e 4827 3bbe 358e 413e
00000380: 9374 983e b340 143f fd92 edbe 55f4 b13d
00000390: d70e e8bd aa8c 74bd c055 5ebe 866f 88be
000003a0: d97d 2f3f 247b a93e b93a 77be 4bbe 89bd
000003b0: 8fcd 663e e48f 9f3e 97dc 523e 0f6f cdbe
000003c0: c878 e3bb b781 6f3d 1bb2 173e db5f f93d
000003d0: 095f 25bd 21fd 373e 701d 713e 991e b7bd
000003e0: e1f6 babd 95b4 99be e0b2 adbd eca0 3fbe
000003f0: 015d 4fbd 92f6 9c3d 99f5 bc3e c160 8a3d

gnn_base.gnn.gnn2.0.lin_key.bias f4 [48]
-0.2239563 0.0777038 -0.10478413 -0.16518667 0.07421472 0.116028294 0.20207457 0.24551219
0.08696578 -0.071014404 -0.043152723 0.18852882 -0.1945188 0.17973518 0.11486564 0.09611274
0.07764021 -0.207572 0.09999836 -0.015554078 0.0023722264 -0.11657326 0.18018645 -0.042455416
0.0015310693 -0.21279517 0.1921862 -0.2306066 0.15428282 0.10965434 0.037649777 -0.24284312
-0.11534877 -0.017766371 -0.18528838 -0.08152675 -0.057244774 -0.076690696 0.17322133 0.22855118
-0.11209471 0.12937938 0.015830291 0.1800221 -0.21800745 -0.12288308 -0.04963127 0.24041712
00000000: cd54 65be 2b23 9f3d 1099 d6bd b226 29be
00000010: e3fd 973d 3ea0 ed3d a3ec 4e3e 8c67 7b3e
00000020: 1d1b b23d 0070 91bd e9c0 30bd b30d 413e
00000030: f02f 47be 800c 383e ad3e eb3d c2d6 c43d
00000040: d501 9f3d c18d 54be f1cb cc3d 88d6 7ebc
00000050: 5b77 1b3b f6bd eebd cc82 383e bbe5 2dbd
00000060: 29ae c83a fae6 59be 76cc 443e 2324 6cbe
00000070: 51fc 1d3e 7492 e03d a736 1a3d deab 78be
00000080: fa3b ecbd c88a 91bc 3dbc 3dbe 7ff7 a6bd
00000090: 7f79 6abd 0310 9dbd ef60 313e 5209 6a3e
000000a0: e991 e5bd 077c 043e 87ae 813c b757 383e
000000b0: 583d 5fbe 20aa fbbd 294a 4bbd e82f 763e
