model_weights/FA_FR/tube/feb15/metered/actor.pt (torch, 202776 bytes, 58 tensors)

gnn_base.gnn.embed_layer.layer_norm.weight f4 [16]
0	0x3f5ce83e	0.86291873
1	0x3f41f317	0.7576155
2	0x3f750639	0.9571262
3	0x3f7ad4f7	0.9798121
4	0x3f4b6a9d	0.79459554
5	0x3f8e1772	1.1100905
6	0x3f8e3a06	1.1111457
7	0x3f68cae6	0.909346
8	0x3f85dccf	1.045801
9	0x3f863290	1.048418
10	0x3f9bc9bc	1.217094
11	0x3f794a08	0.9737859
12	0x3f8d8502	1.1056216
13	0x3f9c0d03	1.2191471
14	0x3fb4adf5	1.4115587
15	0x3f9872fc	1.191009

gnn_base.gnn.embed_layer.layer_norm.bias f4 [16]
0	0x3def1c8c	0.11675367
1	0x3c0cabac	0.008585852
2	0x3cd9004e	0.026489403
3	0xbdc07efc	-0.0939922
4	0x3dc5cfd4	0.09658781
5	0xbda34e6c	-0.07973942
6	0x3cfe7799	0.031062888
7	0x3de9e60f	0.11420833
8	0x3cca164c	0.024668835
9	0x3d0f68f0	0.035012186
10	0xbd3db861	-0.046318416
11	0xbbf76d25	-0.007550853
12	0x3db1a19e	0.08673404
13	0x3d7fd26a	0.062456526
14	0x3d161af2	0.03664679
15	0xbd35b26a	-0.044359602

gnn_base.gnn.embed_layer.entity_embed.weight f4 [4, 2]
0	0x3fb8b48b	1.4430097
1	0xbe017ce7	-0.12645303
2	0xbffc9f21	-1.9736062
3	0x3e9c0c28	0.30478024
4	0xbf8ad1a1	-1.0845224
5	0xbfb3052d	-1.3985955
6	0x3ece837a	0.40334684
7	0x3f5688e5	0.83802634

gnn_base.gnn.embed_layer.lin1.weight f4 [16, 10]
0	0xbe93f4b2	-0.28897625
1	0xbeb11e5e	-0.3459348
2	0xbf512c94	-0.81708646
3	0x3d775629	0.060384903
4	0xbed5808b	-0.41699633
5	0x3d89f7c2	0.06736709
6	0x3e88fae1	0.26753905
7	0xbeb3b048	-0.3509543
8	0xbf284aea	-0.6573931
9	0xbaa0cef7	-0.0012268712
10	0xbf46e345	-0.77690536
11	0xbe3d2501	-0.18471147
12	0x3ef3f44a	0.47647315
13	0xbe657c73	-0.22410755
14	0x3c2ccbe5	0.010546659
15	0xbf0c5006	-0.54809606
16	0xbef17782	-0.4716149
17	0x3d84673d	0.06465004
18	0x3e0f196b	0.1397454
19	0xbf106c5d	-0.5641535
20	0x3ee6d435	0.45083776
21	0x3e2fb3ac	0.17158383
22	0x3f4ce80d	0.8004158
23	0xbec65bcd	-0.38741913
24	0x3e32840a	0.17433181
25	0x3e08d88a	0.13363853
26	0x3e199e40	0.15001774
27	0xbec7e15b	-0.3903912
28	0xbef6d2ac	-0.48207605
29	0x3e472881	0.19449045
30	0xbf190d4f	-0.5978593
31	0x3eb53fb0	0.35400152
32	0xbe7da355	-0.24769337
33	0x3daea722	0.08527972
34	0xbe9076a3	-0.28215513
35	0xbedd9612	-0.43278557
36	0xbe121b0c	-0.1426813
37	0x3be8057a	0.007080731
38	0xbea2e901	-0.31818393
39	0x3d8e6d83	0.069544815
40	0xbe11d7c8	-0.1424247
41	0x3e45c024	0.19311577
42	0xbf364f9d	-0.7121523
43	0xbeeba90d	-0.46027413
44	0x3df79296	0.12088506
45	0x3e770c69	0.24125828
46	0x3d1caffd	0.038253773
47	0xbed46c04	-0.4148866
48	0x3e0b6a0a	0.1361467
49	0xbe7cca64	-0.24686581
50	0xbed6291f	-0.41828248
51	0x3e1bc0c8	0.15210259
52	0xbc6da9ea	-0.014505843
53	0xbdaceefa	-0.08444019
54	0x3e9f3013	0.31091365
55	0x3df34cae	0.1187986
56	0xbef51a4f	-0.47871634
57	0x3e20a5ff	0.15688322
58	0xbf0bf77d	-0.5467451
59	0x3ed39d4f	0.41330954
60	0x3e035ca5	0.1282831
61	0x3edfed94	0.43735945
62	0x3f556796	0.83361185
63	0xbcdd3370	-0.027002066
64	0x3ea471be	0.32118028
65	0xbd7c725b	-0.061632495
66	0xbf43993a	-0.7640568
67	0xbf18d23f	-0.5969581
68	0xbd32deac	-0.043669388
69	0xbf01430a	-0.5049292
70	0xbe11ca64	-0.14237362
71	0xbe3414ed	-0.17586108
72	0x3f065db4	0.5248673
73	0x3e0184d5	0.12648328
74	0x3f7c4785	0.9854663
75	0xbe864c2b	-0.26229987
76	0x3eb160e1	0.34644225
77	0xbeae75c6	-0.3407423
78	0x3e69ad0f	0.22819923
79	0x3db9bed2	0.09069599
80	0x3f4dc955	0.80385333
81	0x3e84a503	0.25907144
82	0x3ef06334	0.46950686
83	0xbf0b0f65	-0.54320365
84	0x3e7c14c6	0.246173
85	0xbf556b1a	-0.8336655
86	0x3e17db7c	0.1482982
87	0xbe0eb729	-0.13937058
88	0xbe33c4dc	-0.17555565
89	0x3e163aae	0.14670822
90	0xbcb77dfb	-0.02239894
91	0x3eab1904	0.33417523
92	0x3f1f93e6	0.6233505
93	0x3face5f5	1.3507677
94	0xbdf36440	-0.118843555
95	0xbe5c30e4	-0.21503025
96	0x3e630857	0.2217115
97	0x3dd91a59	0.106007285
98	0x3e87fb6a	0.26559
99	0xbda1ef98	-0.07907027
100	0xbeac2003	-0.33618173
101	0x3dbd6fa5	0.0924981
102	0xbeaceda6	-0.3377506
103	0xbc53d6b1	-0.012929604
104	0xbdb726d4	-0.08942953
105	0xbdfee265	-0.12445525
106	0xbec3cc5e	-0.38241857
107	0xbe742425	-0.23841913
108	0x3ecbc48b	0.39798388
109	0x3f8bafea	1.091306
110	0x3ee6233e	0.44948763
111	0xbd9c2140	-0.076235294
112	0xbf1840e9	-0.59474045
113	0x3c950581	0.018191101
114	0xbe84b951	-0.25922635
115	0xbeef8ed1	-0.46788648
116	0x3ec3519e	0.38148206
117	0x3da182f3	0.07886305
118	0xbd4807fc	-0.04883574
119	0x3f0646c2	0.5245172
120	0x3da9ebb7	0.08296912
121	0xbe32d69e	-0.17464682
122	0x3e31ca8a	0.17362419
123	0xbf9f4ec3	-1.2445911
124	0xbe8227c3	-0.2542096
125	0x3e1ba875	0.1520098
126	0xbe38639e	-0.18006751
127	0x3e954938	0.29157424
128	0x3e144496	0.14479288
129	0x3e8125d5	0.25224176
130	0x3edbc029	0.42920044
131	0x3f07eab4	0.53092504
132	0x3d2f1c18	0.0427514
133	0x3ed02281	0.40651324
134	0x3e3f9041	0.18707372
135	0x3d2ecd77	0.042676415
136	0x3dfe522d	0.124180175
137	0x3f48daf7	0.78459114
138	0x3e6893cb	0.22712629
139	0xbea26606	-0.31718463
140	0xbecb4a3c	-0.39705074
141	0x3f6118b8	0.8792834
142	0xbf120817	-0.57043594
143	0x3fb33bda	1.400264
144	0x3dc61d70	0.096735835
145	0xbddc8b80	-0.10768795
146	0x3e9bd6fd	0.3043746
147	0x3d01df20	0.03170693
148	0xbe2c9130	-0.1685226
149	0xbd300544	-0.04297377
150	0xbfb7967b	-1.4342798
151	0x3f05d34a	0.52275527
152	0xbe9d5902	-0.3073197
153	0xbe028532	-0.12746122
154	0xbead4dc0	-0.3384838
155	0x3e93e55a	0.2888592
156	0x3f17083d	0.58996946
157	0xbc694d56	-0.01423963
158	0xbe17afaf	-0.14813112
159	0xbe6fc2fa	-0.23414221

gnn_base.gnn.embed_layer.lin1.bias f4 [16]
0	0xbd0ff2bf	-0.03514361
1	0xbe303508	-0.1720773
2	0xbd972edc	-0.073819846
3	0x3b7ba823	0.0038399778
4	0xbd8a1f88	-0.06744295
5	0xbe79420c	-0.24341601
6	0xbda07b28	-0.0783599
7	0xbcc841d2	-0.024445448
8	0xbd8c8acd	-0.06862412
9	0xbd916d5d	-0.071009375
10	0x3d28a6e8	0.0411748
11	0x3b66969a	0.003518498
12	0xbcf228b8	-0.029560432
13	0x3ce400cc	0.027832411
14	0x3e596567	0.21230088
15	0xbdc67b0c	-0.09691438

gnn_base.gnn.embed_layer.layers.0.weight f4 [16, 16]
0	0x3dddf04b	0.10836848
1	0xbe6e986e	-0.23300335
2	0xbe945240	-0.28969002
3	0xbedbc89e	-0.42926496
4	0x3efe0afb	0.49617752
5	0x3e19e027	0.15026914
6	0x3f5dd046	0.86645925
7	0xbc8eb36d	-0.017419541
8	0xbf022865	-0.5084289
9	0xbd19f592	-0.03758771
10	0xbe4bdc44	-0.19908243
11	0x3e891227	0.26771662
12	0xbe33900d	-0.1753542
13	0xbf334161	-0.70021635
14	0xbe7b7552	-0.24556473
15	0xbcfc7c65	-0.030821035
16	0x3e2a907e	0.16656682
17	0xbef37b66	-0.47555083
18	0x3e58455d	0.2112021
19	0xbeecb1ca	-0.46229392
20	0x3e73ed85	0.23821075
21	0x3f046184	0.517113
22	0x3f167c47	0.5878338
23	0x3e65a1f5	0.22425063
24	0xbeaf1d97	-0.34202263
25	0x3ee72f7f	0.45153424
26	0x3d80a3c2	0.06281234
27	0xbd9d0eee	-0.07668863
28	0x3ee4bf78	0.4467733
29	0x3f50488d	0.81360704
30	0x3ee1deec	0.44115388
31	0x3ee7add9	0.45249823
32	0xbe7c5cdd	-0.246448
33	0x3f06ae6a	0.52609885
34	0xbe8e8fba	-0.2784403
35	0x3e37f97d	0.17966266
36	0xbb0ea4d5	-0.0021765728
37	0x3f043662	0.5164548
38	0x3ec4f3b3	0.38467178
39	0xbe704e72	-0.23467425
40	0x3ee7a910	0.45246172
41	0xbe8780fd	-0.26465598
42	0x3f55b71c	0.8348253
43	0xbdcff68a	-0.101544455
44	0x3e7448e0	0.23855925
45	0xbdde6cfb	-0.1086063
46	0xbeec02fb	-0.46096024
47	0x3e2a3148	0.16620362
48	0x3e0f750b	0.14009492
49	0x3e64716d	0.22308894
50	0xbeee55dc	-0.4654988
51	0xbec43c35	-0.38327184
52	0x3e908328	0.28225064
53	0x3e2fc698	0.17165601
54	0xbf252258	-0.6450553
55	0x3c6f2a44	0.014597479
56	0xbe3a0220	-0.18164873
57	0x3f6ba118	0.92042685
58	0xbd9b1a6d	-0.075734
59	0x3dc43f7d	0.09582422
60	0xbf363f98	-0.71190786
61	0x3ddbb8c5	0.10728601
62	0x3faeb951	1.3650304
63	0x3da45755	0.0802447
64	0x3ec14a66	0.37752074
65	0x3e5eef3f	0.21770953
66	0xbeaf9986	-0.34296817
67	0xbdbf7ee9	-0.09350378
68	0xbcd1f359	-0.025628733
69	0xbd90b70d	-0.07066164
70	0xbc3e8b1c	-0.011629846
71	0xbeafc652	-0.34330994
72	0xbf1601fc	-0.5859678
73	0x3e381f20	0.17980623
74	0xbf2a81dd	-0.66604406
75	0xbddea413	-0.108711384
76	0x3f93a8e2	1.1535914
77	0x3d97d3b5	0.07413427
78	0xbecd67c5	-0.40118232
79	0x3e692ae0	0.22770262
80	0x3e322690	0.17397523
81	0x3ea25edb	0.31712994
82	0x3f13b689	0.577004
83	0xbf56d327	-0.8391594
84	0xbef4ab7e	-0.47787088
85	0x3e11fe19	0.14257087
86	0x3dadb9c0	0.084826946
87	0x3e10dd3a	0.14146891
88	0x3e271f04	0.16320425
89	0xbd1baad5	-0.038004715
90	0x3e3b443c	0.18287748
91	0x3e6a73cb	0.22895734
92	0x3e37adfb	0.17937462
93	0xbee565d1	-0.44804242
94	0xbf6978cd	-0.9119995
95	0x3e6af783	0.2294598
96	0x3eba8727	0.36431238
97	0x3cfc7b36	0.03082047
98	0xbe489964	-0.19589764
99	0x3e9ae4d7	0.30252716
100	0xbebe34f9	-0.3714979
101	0xbe9f0bf8	-0.3106382
102	0xbe1b5fce	-0.15173265
103	0x3f08deb8	0.5346484
104	0xbf50d968	-0.81581736
105	0x3dcd6ce2	0.100305334
106	0x3f15ec7a	0.5856396
107	0xbe169014	-0.14703399
108	0xbee95aea	-0.45577174
109	0xbd0816f2	-0.033225007
110	0xbeb2bb07	-0.34908316
111	0x3eecb0a8	0.46228528
112	0x3d7f3974	0.06231065
113	0x3d217783	0.039420616
114	0x3ea64759	0.3247631
115	0xbed54233	-0.41652068
116	0xbe9ef11e	-0.31043333
117	0x3e3c8a1f	0.18412064
118	0x3ee94bb0	0.45565557
119	0xbf06f0d9	-0.52711254
120	0xbf76451c	-0.961992
121	0x3c8d8dd9	0.017279552
122	0xbe30c85b	-0.1726393
123	0xbed0b5b6	-0.40763634
124	0xbed33140	-0.41248512
125	0x3f08fa11	0.5350657
126	0x3f1e3d62	0.6181241
127	0xbeaa20b8	-0.33228087
128	0xbf01d977	-0.5072245
129	0x3e9c4020	0.30517673
130	0x3ea43cbd	0.3207759
131	0x3d06d96f	0.032922205
132	0xbe2b6b78	-0.16740215
133	0x3f0d8693	0.5528347
134	0x3ea73e6a	0.32664806
135	0x3f03a9ce	0.51430976
136	0xbecbb70c	-0.3978809
137	0xbee07bd7	-0.43844482
138	0xbf12c68c	-0.5733421
139	0xbee103cc	-0.4394821
140	0x3d8df634	0.06931725
141	0xbeb40054	-0.351565
142	0x3ecbf780	0.39837265
143	0x3ee9d89c	0.45673072
144	0x3d81163e	0.063030705
145	0x3e2c1921	0.16806461
146	0x3f08ec01	0.53485113
147	0x3e003cb2	0.12523153
148	0x3ec94cbb	0.39316353
149	0xbbe3ccf7	-0.006951924
150	0xbeaea368	-0.34109044
151	0xbf10cbf1	-0.5656119
152	0xbea718a0	-0.32635975
153	0x3ecffb97	0.40621635
154	0x3ea0209a	0.31274873
155	0xbeac4f5d	-0.336543
156	0xbd833fa1	-0.064086206
157	0xbf18ad96	-0.5963987
158	0x3e418c2b	0.18901126
159	0x3ecc721d	0.39930812
160	0x3e7f1c57	0.24913155
161	0xbe6754e3	-0.22590975
162	0xbd91b198	-0.071139514
163	0x3e11907d	0.14215274
164	0x3e534bd6	0.20634398
165	0x3e51be88	0.20482838
166	0xbe372094	-0.17883521
167	0xbf23cbbd	-0.63982755
168	0xbddb5a76	-0.107106134
169	0xbf05fbf7	-0.5233759
170	0x3c7bae1a	0.015361333
171	0x3f030e46	0.51193655
172	0xbe957209	-0.29188564
173	0x3e8cd833	0.27508697
174	0x3df8ac2c	0.12142214
175	0x3f73a2ec	0.95170474
176	0xbea2033d	-0.31643096
177	0xbef05cba	-0.46945745
178	0xbe115068	-0.14190829
179	0xbe4d657a	-0.20058241
180	0x3d897908	0.06712538
181	0x3f0c8e8b	0.54905003
182	0xbef2ef5c	-0.47448242
183	0xbe003808	-0.12521374
184	0xbf496a86	-0.78678167
185	0xbb32b7ff	-0.0027270315
186	0x3f322052	0.69580567
187	0xbe9f4b0a	-0.31111938
188	0x3ecb64a8	0.39725232
189	0x3db63fb5	0.0889887
190	0xbe8fe529	-0.28104523
191	0xbe925050	-0.285769
192	0x3cf676eb	0.030086001
193	0xbf1a5269	-0.60282
194	0xbe5c862e	-0.2153556
195	0xbed7ccad	-0.42148343
196	0xbf1679e5	-0.58779746
197	0x3e2a6133	0.16638641
198	0x3ed39235	0.41322485
199	0xbd2496c3	-0.04018284
200	0x3d8e17bf	0.06938123
201	0x3e82c329	0.2553952
202	0xbe223761	-0.15841438
203	0xbf641126	-0.89088666
204	0x3dd13120	0.10214448
205	0xbeec51fe	-0.46156305
206	0x3dd83774	0.10557452
207	0x3f23a4e5	0.63923484
208	0xbe4c6640	-0.1996088
209	0x3e80060e	0.2500462
210	0xbe4953e4	-0.19660908
211	0xbe61c3c0	-0.22047329
212	0x3ea3c197	0.31983635
213	0xbea83bca	-0.32858115
214	0x3e7d853e	0.24757859
215	0x3df79a13	0.12089934
216	0x3e0cbbd3	0.13743524
217	0xbe2b6ff4	-0.16741925
218	0xbf029143	-0.510029
219	0xbf6294ff	-0.885086
220	0xbe86f512	-0.2635885
221	0x3ef02d1e	0.46909422
222	0xbf501a91	-0.8129054
223	0x3eee198b	0.46503863
224	0xbea97780	-0.33098984
225	0xbe26c2da	-0.16285267
226	0x3deb3fdb	0.11486789
227	0x3ea9536a	0.33071452
228	0x3d36c668	0.04462281
229	0x3daad106	0.08340649
230	0xbe8e7cad	-0.27829495
231	0x3d25359b	0.040334325
232	0x3d0e9dd6	0.034818493
233	0x3f2e10ea	0.6799456
234	0xbf11c407	-0.5693974
235	0x3dc20c6d	0.09475026
236	0xbead7458	-0.33877826
237	0x3e637512	0.22212628
238	0xbeb0f5ab	-0.3456243
239	0x3d0702fa	0.032961823
240	0x3f5b96e2	0.85777104
241	0xbe30c8b4	-0.17264062
242	0xbe4e92b5	-0.20173152
243	0x3f1bae3c	0.60812736
244	0xbd356f02	-0.04429532
245	0x3f6580eb	0.8964984
246	0x3d606f2d	0.054793525
247	0xbdcee395	-0.101020016
248	0xbd1c7ac4	-0.038203016
249	0xbe60d8a1	-0.21957637
250	0xbe9da9dd	-0.30793658
251	0xbf541dd4	-0.82858014
252	0x3dd3ce56	0.1034209
253	0x3e171f04	0.14757925
254	0xbe88d46a	-0.2672456
255	0x3e04b47b	0.12959473

gnn_base.gnn.embed_layer.layers.0.bias f4 [16]
0	0xbc42f798	-0.011899851
1	0x3da3bbd1	0.079948075
2	0xbe029315	-0.1275142
3	0x3db2475b	0.08705016
4	0x3bb797b4	0.005602801
5	0x3ba67720	0.005080119
6	0x3bd0cc0b	0.00637198
7	0xbd8136ec	-0.06309304
8	0xbd86b7e8	-0.06578046
9	0xbd22fe58	-0.039793342
10	0xbd5a4cc4	-0.053295866
11	0xbe2aeebe	-0.16692635
12	0xbe5ae67c	-0.21376985
13	0xbd26fe7e	-0.040770046
14	0xbd35034d	-0.0441926
15	0xbe2ad47c	-0.16682619

gnn_base.gnn.embed_layer.layers.2.weight f4 [16]
0	0x3f5ce83e	0.86291873
1	0x3f41f317	0.7576155
2	0x3f750639	0.9571262
3	0x3f7ad4f7	0.9798121
4	0x3f4b6a9d	0.79459554
5	0x3f8e1772	1.1100905
6	0x3f8e3a06	1.1111457
7	0x3f68cae6	0.909346
8	0x3f85dccf	1.045801
9	0x3f863290	1.048418
10	0x3f9bc9bc	1.217094
11	0x3f794a08	0.9737859
12	0x3f8d8502	1.1056216
13	0x3f9c0d03	1.2191471
14	0x3fb4adf5	1.4115587
15	0x3f9872fc	1.191009

gnn_base.gnn.embed_layer.layers.2.bias f4 [16]
0	0x3def1c8c	0.11675367
1	0x3c0cabac	0.008585852
2	0x3cd9004e	0.026489403
3	0xbdc07efc	-0.0939922
4	0x3dc5cfd4	0.09658781
5	0xbda34e6c	-0.07973942
6	0x3cfe7799	0.031062888
7	0x3de9e60f	0.11420833
8	0x3cca164c	0.024668835
9	0x3d0f68f0	0.035012186
10	0xbd3db861	-0.046318416
11	0xbbf76d25	-0.007550853
12	0x3db1a19e	0.08673404
13	0x3d7fd26a	0.062456526
14	0x3d161af2	0.03664679
15	0xbd35b26a	-0.044359602

gnn_base.gnn.gnn1.lin_key.weight f4 [48, 16]
0	0x3bec8a51	0.007218637
1	0x3dd2fffd	0.10302732
2	0xbe05b9ae	-0.13059112
3	0xbe988947	-0.29792234
4	0x3e87454b	0.26420054
5	0xbe1fbcca	-0.15599361
6	0x3e12ce26	0.14336452
7	0xbe15598f	-0.14584945
8	0x3e238f0c	0.15972537
9	0x3e06b7bc	0.13156027
10	0x3e228741	0.15871908
11	0x3dd707dd	0.10499547
12	0xbd9636bd	-0.07334659
13	0x3e2b2dd7	0.16716705
14	0xbe5118ce	-0.20419618
15	0x3e2a8eaf	0.16655992
16	0xbe27b8f3	-0.16379146
17	0xbdac582c	-0.08415255
18	0xbba90bab	-0.0051588616
19	0x3e3393b6	0.17536816
20	0xbec867c7	-0.39141676
21	0x3e9319a1	0.2873049
22	0x3ece89d8	0.4033954
23	0xbed10acb	-0.40828547
24	0x3da64507	0.08118635
25	0x3e154c1c	0.14579815
26	0xbeb95550	-0.361979
27	0xbdfcf449	-0.12351281
28	0x3dfdd1db	0.123935424
29	0x3ecac816	0.39605778
30	0x3e175f6d	0.14782496
31	0xbeb21ca4	-0.34787476
32	0x3eb60b41	0.3555546
33	0xbda96a3b	-0.08272215
34	0x3bd03808	0.0063543357
35	0x3e812a6e	0.25227684
36	0x3e2b9baf	0.16758607
37	0xbe8510e1	-0.2598944
38	0x3e68ed6c	0.2274682
39	0x3e3f2233	0.1866539
40	0x3e6a2690	0.22866273
41	0x3e47b84a	0.19503894
42	0xbdfa697f	-0.12227153
43	0xbe9329c8	-0.28742814
44	0x3e9a4e25	0.30137745
45	0xbeb834c2	-0.3597775
46	0xbe7de9a0	-0.24796152
47	0x3ec3898b	0.38190874
48	0xbe68efc4	-0.22747713
49	0xbe6ee9da	-0.23331395
50	0xbe7d3f72	-0.24731234
51	0xbf226dec	-0.6344898
52	0x3d74c382	0.059756763
53	0x3cced3d5	0.025247494
54	0x3c7078ad	0.014677209
55	0xbed02cf6	-0.40659302
56	0x3e6e0ff7	0.23248278
57	0xbe841d7f	-0.25803754
58	0x3efc1041	0.4923115
59	0x3f08c892	0.53431046
60	0xbe8c7de4	-0.27439797
61	0x3ea7bf8e	0.32763332
62	0xbdbba73d	-0.091627575
63	0x3e28af24	0.16473061
64	0x3de63584	0.11240676
65	0xbe23753f	-0.15962695
66	0xbe072ec6	-0.13201436
67	0x3ea17c50	0.31540155
68	0x3dd606e9	0.10450537
69	0x3e3cff6a	0.18456808
70	0xbe930b0c	-0.28719366
71	0x3ea8e1a1	0.3298464
72	0x3e6e8030	0.23291087
73	0x3e58adf3	0.21160106
74	0xbe3275a1	-0.17427684
75	0xbea03db6	-0.31297082
76	0xbe4f8954	-0.2026723
77	0xbe9d7e09	-0.3076022
78	0x3dcd4b79	0.10024161
79	0x3e7770eb	0.24164169
80	0x3e23b626	0.15987453
81	0x3e526da2	0.20549634
82	0x3e871c44	0.26388752
83	0x3eb13086	0.34607333
84	0x3e2687df	0.16262768
85	0xbece2273	-0.40260658
86	0xbe3a1bc6	-0.18174657
87	0x3e89a328	0.2688229
88	0x3dc59c24	0.09648922
89	0xbd6781c8	-0.056520253
90	0x3ea7bc29	0.32760742
91	0x3aea40a9	0.0017872053
92	0x3e39d183	0.18146329
93	0xbe7e2df7	-0.24822222
94	0x3e031ed1	0.12804724
95	0x3edf1dc7	0.43577406
96	0x3e2ec6fe	0.17068097
97	0x3d28c2bf	0.04120135
98	0x3ea30df4	0.31846583
99	0x3d4fbe83	0.050718796
100	0x3df5ade7	0.1199606
101	0xbf027a83	-0.5096819
102	0x3e51d773	0.20492344
103	0x3cdf046c	0.027223788
104	0x3d9364d9	0.071969695
105	0x3dcb72d2	0.099340096
106	0xbdf0c628	-0.11756545
107	0x3e3b5e61	0.18297721
108	0x3e9942e0	0.29933834
109	0x3cbe8509	0.023256795
110	0xbadeb425	-0.0016990943
111	0x3e3ff794	0.18746787
112	0x3d974a6f	0.07387244
113	0x3e75cb8b	0.24003427
114	0x3e2c2e52	0.16814545
115	0x3e8624f3	0.26200065
116	0x3d140ad8	0.036143154
117	0xbe94af4b	-0.29039988
118	0xbe32175b	-0.17391722
119	0x3dafe177	0.08587926
120	0x3e23c63b	0.15993588
121	0xbe1d0298	-0.1533302
122	0xbe875b64	-0.26436913
123	0xbe844e96	-0.25841206
124	0xbdf655d0	-0.12028086
125	0xbe18ba0c	-0.14914721
126	0x3dff7eab	0.12475332
127	0xbd12b3c8	-0.035815984
128	0xbea098fd	-0.3136672
129	0xbe92ca1a	-0.28669816
130	0x3d9b5adc	0.075856894
131	0xbe8ba314	-0.27272856
132	0xbef3fa1c	-0.47651756
133	0x3ebceea6	0.36900824
134	0x3e24df5b	0.16100828
135	0xbdd80dfb	-0.105495416
136	0xbe2928b1	-0.16519429
137	0xbe4468bd	-0.1918058
138	0xbe0b5c26	-0.1360937
139	0xbe3c10dd	-0.18365808
140	0x3dcb09a5	0.09913949
141	0x3ef615fe	0.48063654
142	0x3e9ff224	0.31239426
143	0xbf057739	-0.52135044
144	0x3e53478a	0.20632759
145	0x3e2b7bdb	0.16746466
146	0xbd6bef8b	-0.057601493
147	0x3ebaf550	0.36515284
148	0xbe135f9c	-0.14391941
149	0x3def64a7	0.1168912
150	0xbeb4186e	-0.35174888
151	0x3e3cc7b2	0.18435553
152	0xbddb7654	-0.10715929
153	0x3dbbd21d	0.09170935
154	0xbd27fd34	-0.041012958
155	0xbdde677e	-0.10859583
156	0xbe7bb33c	-0.24580091
157	0x3d87fb29	0.06639702
158	0xbdb174ef	-0.086648814
159	0x3dfa6f52	0.12228264
160	0xbe455000	-0.19268799
161	0x3cf6b476	0.030115347
162	0x3b993e6b	0.0046766303
163	0xbed4bbde	-0.4154958
164	0x3dc7c9ab	0.09755262
165	0x3e359acf	0.17734836
166	0x3e8f99ef	0.2804713
167	0xbe083cc7	-0.13304435
168	0xbdcffc9f	-0.101556055
169	0xbebaa456	-0.36453503
170	0x3c7ed400	0.015553474
171	0xbe95efed	-0.2928461
172	0xbcf0afef	-0.029380767
173	0x3dcae3ec	0.09906754
174	0xbd30679d	-0.043067563
175	0xbd328f26	-0.04359355
176	0x3e453541	0.19258596
177	0xbd471637	-0.04860517
178	0xbe27f917	-0.16403614
179	0x3ebaef82	0.36510855
180	0xbe80461e	-0.25053495
181	0xbe57a566	-0.21059188
182	0x3dce65fe	0.10078047
183	0x3e30c0e6	0.17261085
184	0xbe0b2ac3	-0.13590531
185	0x3ed72945	0.42023674
186	0xbe757b17	-0.23972736
187	0xbe3fd656	-0.18734106
188	0x3e9f69d8	0.3113544
189	0xbe7d6b00	-0.24747849
190	0xbe95346e	-0.29141563
191	0x3e276bfa	0.16349784
192	0xbe97fb87	-0.29684088
193	0xbe7edd19	-0.2488903
194	0xbbc60246	-0.0060427515
195	0x3ebe8141	0.37207988
196	0xbd85aaa0	-0.06526685
197	0x3e25c9dc	0.16190284
198	0xbe2851d5	-0.16437466
199	0x3f1492a0	0.5803623
200	0xbe02ab6f	-0.12760709
201	0x3e112603	0.14174657
202	0xbd6fd0ae	-0.05854862
203	0xbe61f855	-0.22067387
204	0xbdd4f2ab	-0.10397848
205	0x3e188bbc	0.14897054
206	0x3e2e61de	0.17029521
207	0xbdf91f2b	-0.12164148
208	0xbdd530a7	-0.1040967
209	0x3d0165ec	0.03159134
210	0x3db0f771	0.08640946
211	0x3e0e4aeb	0.13895766
212	0x3ee7856a	0.45218974
213	0x3de2db05	0.11076931
214	0xbee45d88	-0.4460261
215	0x3dc8d1ee	0.09805666
216	0x3dd3e454	0.103462845
217	0x3bdcaa50	0.00673417
218	0xbd1e8538	-0.038701266
219	0xbd737440	-0.059437037
220	0x3d6ee159	0.058320377
221	0xbdb559ac	-0.08854994
222	0x3e714d36	0.2356461
223	0x3e1e8cb2	0.15483359
224	0x3e278730	0.16360164
225	0x3ea145a0	0.31498432
226	0xbe20dd38	-0.15709388
227	0x3df81c19	0.12114734
228	0x3ea9704d	0.3309349
229	0xbe9307b8	-0.28716826
230	0xbd4fc43f	-0.050724264
231	0xbe97c0cf	-0.2963929
232	0x3b611a5f	0.0034347994
233	0xbd809326	-0.06278066
234	0x3dd2e25c	0.10297081
235	0x3d4b2159	0.04959235
236	0xbdf66b41	-0.12032176
237	0x3e41b13f	0.1891527
238	0x3d46d82a	0.048545994
239	0x3cb0223e	0.021500703
240	0x3e05d371	0.1306894
241	0xbe0316c5	-0.12801655
242	0xbd87fb9f	-0.0663979
243	0xbc24a329	-0.010048666
244	0xbe822cc2	-0.25424773
245	0x3e7ea272	0.24866655
246	0xbcdf2c08	-0.027242675
247	0xbe2fa25e	-0.17151782
248	0xbe3d17e8	-0.18466151
249	0x3e290bf4	0.16508466
250	0xbe8b9e3b	-0.27269158
251	0xbea1ec31	-0.31625512
252	0x3c8e0294	0.017335214
253	0x3e5b8cb9	0.214404
254	0x3e59ef68	0.21282732
255	0xbe228085	-0.15869339

gnn_base.gnn.gnn1.lin_key.bias f4 [48]
0	0x3e442ecf	0.19158481
1	0x3e4a889b	0.19778673
2	0xbd8c7f54	-0.068602234
3	0xbe14166d	-0.1446168
4	0xbde350a0	-0.110993624
5	0xbe2f25bb	-0.17104237
6	0xbd85828c	-0.065190405
7	0xbe66be48	-0.22533524
8	0x3e086295	0.13318856
9	0xbe7149a8	-0.23563254
10	0xbe1fe4e5	-0.1561466
11	0x3e2b97f2	0.16757181
12	0xbe3eef9e	-0.18646094
13	0x3d74bd79	0.059751008
14	0x3e3fd80a	0.18734756
15	0x3e7be1df	0.24597882
16	0x3e018752	0.12649277
17	0xbd89a5bc	-0.067210644
18	0x3e122185	0.14270599
19	0xbc07ea6c	-0.008295637
20	0xbd9da1ad	-0.07696853
21	0x3a4542ae	0.00075248897
22	0x3d66007d	0.05615281
23	0x3e2b9558	0.16756189
24	0x3dd6bb4b	0.10484942
25	0x3df4acc1	0.11947013
26	0x3d18deaf	0.037321743
27	0xbc4dc6f3	-0.01255964
28	0x3dd6dad5	0.10490958
29	0x3d765770	0.06014198
30	0xbe74e753	-0.23916368
31	0x3d250b81	0.040294174
32	0xbde2be36	-0.11071436
33	0xbe08239e	-0.13294837
34	0x3dc656a5	0.09684495
35	0x3d5149d8	0.051095814
36	0x3d2e39e4	0.042535678
37	0xbdf2d651	-0.11857284
38	0x3decad54	0.11556497
39	0x3e7049c1	0.23465635
40	0x3cfa3d23	0.03054673
41	0x3dd2a2a4	0.102849275
42	0xbe6063bd	-0.21913047
43	0x3e181c90	0.14854646
44	0x3db19d8f	0.0867263
45	0x3de66a88	0.11250788
46	0x3dd3aebb	0.103360616
47	0xbd86d66e	-0.06583868

gnn_base.gnn.gnn1.lin_query.weight f4 [48, 16]
0	0x3d2f81c0	0.04284835
1	0x3ed11f72	0.40844303
2	0xbcf93c24	-0.030424185
3	0xbc2a3136	-0.010387709
4	0x3e759175	0.23981269
5	0xbd1654a3	-0.03670181
6	0x3ea57b96	0.3232085
7	0xbe19bc03	-0.15013127
8	0x3e509f74	0.20373327
9	0x38c5e7de	9.436881e-05
10	0x3e4e4303	0.2014275
11	0xbbe0c139	-0.0068589714
12	0x3dfca8f6	0.12336914
13	0xbe92faaa	-0.28706867
14	0xbe677318	-0.22602499
15	0x3e70267c	0.2345218
16	0x3e00db2a	0.12583604
17	0xbe5fbb6d	-0.21848841
18	0xbe4058be	-0.18783852
19	0xbe6e1067	-0.23248444
20	0xbd22330c	-0.039599463
21	0x3e0e89bd	0.1391973
22	0xbe98b57f	-0.2982597
23	0xbe3d4103	-0.18481831
24	0x3ec76be6	0.38949507
25	0xbe9d39db	-0.30708203
26	0xbda06055	-0.07830874
27	0xbe620412	-0.22071865
28	0x3e96205c	0.29321563
29	0x3f05e672	0.52304757
30	0x3c8206a1	0.015872302
31	0x3d0a8b98	0.033824533
32	0xbde158d1	-0.110032685
33	0x3de6d25e	0.11270593
34	0x3e0a5555	0.13509114
35	0x3d72a4ba	0.059239127
36	0xbea558f1	-0.3229442
37	0x3d54cb5b	0.051951747
38	0x3e6089c0	0.21927547
39	0xbd5f2f02	-0.05448819
40	0x3e67aee6	0.22625312
41	0xbe430d38	-0.19048011
42	0x3f062b24	0.5240958
43	0xbeebc097	-0.46045372
44	0x3dd8043a	0.10547681
45	0xbdbabfa3	-0.09118583
46	0x3f06b67f	0.52622217
47	0x3e24f4ee	0.16109058
48	0x3e00654a	0.12538639
49	0xbc91e76e	-0.01781055
50	0x3da7b8be	0.08189534
51	0xbbeb7fdf	-0.0071868743
52	0x3e88ac9b	0.26694188
53	0xbdbde66d	-0.09272466
54	0x3f0db1c8	0.553494
55	0x3eb7d264	0.35902703
56	0x3ea1465f	0.31499
57	0xbdfacd17	-0.12246149
58	0x3d70c3ec	0.058780596
59	0x3f3f6d92	0.74776566
60	0x3e9be746	0.30449885
61	0x3a2a3414	0.00064927456
62	0xbf301d2b	-0.68794507
63	0x3e6d1e05	0.23155983
64	0xbe910139	-0.28321245
65	0x3d6a59a4	0.057214394
66	0xbed6a8cf	-0.41925666
67	0xbe24c285	-0.16089828
68	0xbec37546	-0.3817541
69	0x3e5cea72	0.21573809
70	0xbeb0c0d0	-0.34522104
71	0xbe2fe4a8	-0.17177069
72	0xbde9decd	-0.11419449
73	0xbba7cb5f	-0.0051206793
74	0xbdb6cfd6	-0.0892636
75	0xbf02373e	-0.5086554
76	0xbdeea8ad	-0.11653266
77	0xbd10b07d	-0.035324562
78	0x3ecfd8ca	0.40595084
79	0x3e01858b	0.12648599
80	0xbeacc710	-0.33745623
81	0x3d19ae14	0.03751953
82	0x3e574460	0.21022177
83	0x3e5d8bcc	0.2163536
84	0xbce27ec1	-0.027648332
85	0xbdafa674	-0.0857667
86	0x3e54fcec	0.20799607
87	0xbd03d476	-0.03218504
88	0xbed86d79	-0.4227102
89	0xbdaf8e7b	-0.08572098
90	0x3dee4f4e	0.1163622
91	0xbe178cb3	-0.14799766
92	0xbea7d7a1	-0.327817
93	0xbef5d320	-0.48012638
94	0x3ea52531	0.32254937
95	0xbe46b96c	-0.1940667
96	0xbe651f2d	-0.22375174
97	0x3e4403a3	0.19142012
98	0x3f1bc0d5	0.60841113
99	0xbd8fa724	-0.070143014
100	0xbeb156e3	-0.34636602
101	0xbe282989	-0.16422094
102	0x3e6eb264	0.23310238
103	0x3dd77dc1	0.105220325
104	0xbd9df1c0	-0.07712126
105	0xbe79a5ff	-0.24379729
106	0x3d85786e	0.06517111
107	0xbe016396	-0.12635645
108	0x3d34f084	0.044174686
109	0xbee9672a	-0.4558652
110	0x3e5f634f	0.21815227
111	0xbbb2df7c	-0.0054587703
112	0xbe25a1fb	-0.16175072
113	0xbe456027	-0.1927496
114	0x3ed3f9b5	0.4140145
115	0x3e808018	0.25097728
116	0xbdec536b	-0.11539348
117	0xbe2dfe87	-0.16991626
118	0xbe7fa7c5	-0.24966343
119	0xbe274753	-0.16335802
120	0xbe9ad213	-0.302384
121	0xbd87adc7	-0.06624942
122	0xbc10099f	-0.008791356
123	0xbd286607	-0.041112926
124	0xbeb6d99e	-0.35712904
125	0xbd0a0cb2	-0.033703513
126	0x3f14b15b	0.5808312
127	0xbdc7fc55	-0.097649254
128	0xbdb66b6c	-0.08907208
129	0xbbe4fcdd	-0.0069881515
130	0xbe025654	-0.12728244
131	0xbdf04761	-0.117323644
132	0x3d53cc95	0.051708777
133	0x3db363b6	0.08759253
134	0xbe9b6642	-0.30351454
135	0xbe75edf1	-0.24016549
136	0x3e93f7d2	0.2890001
137	0xbe8d9546	-0.2765295
138	0xbee57bf9	-0.44821146
139	0x3d802521	0.06257082
140	0x3e689d70	0.22716308
141	0x3f1cca9a	0.61246645
142	0xbf02dd5e	-0.5111903
143	0x3e34dd5e	0.1766257
144	0x3decde81	0.11565877
145	0xbcaa90b4	-0.020820953
146	0xbc9a462d	-0.01883229
147	0x3d83de98	0.06438941
148	0x3df5456f	0.11976134
149	0x3e16fe8b	0.14745538
150	0xbee7ca6f	-0.45271632
151	0xbe1f3d59	-0.15550746
152	0xbeb1ca99	-0.34724882
153	0xbdcd47c3	-0.10023453
154	0x3e4a870b	0.19778077
155	0xbe0a6e5e	-0.13518664
156	0x3e13d4c2	0.1443663
157	0x3e8ff96f	0.2811999
158	0x3daeea66	0.08540802
159	0x3dda0577	0.106455736
160	0x3dfb692d	0.1227592
161	0x3e5ad4fe	0.21370313
162	0xbdc1fea0	-0.09472394
163	0x3e98f0eb	0.29871306
164	0x3cd232ae	0.025658932
165	0xbb765abe	-0.0037590708
166	0x3e72ca02	0.23709872
167	0x3e6b6338	0.22987068
168	0x3ec0914e	0.3761086
169	0x3c1d028f	0.00958313
170	0xbea07057	-0.31335708
171	0x3e1ca107	0.15295802
172	0x3df8d55c	0.1215007
173	0x3e689085	0.2271138
174	0xbec5197a	-0.38496
175	0x3de4941f	0.11161064
176	0x3e6becdd	0.23039575
177	0xbd2c355c	-0.042043075
178	0x3e41f1d0	0.189399
179	0x3d20c2a5	0.039248127
180	0xbe943c5d	-0.28952304
181	0xbc9cb462	-0.019128982
182	0xbe8e70a4	-0.27820313
183	0xbeacc70d	-0.33745614
184	0x3e6815e4	0.226646
185	0x3e2df5d8	0.16988313
186	0x3e91d541	0.28483012
187	0xbed6ed0c	-0.41977727
188	0xbd46446c	-0.048405096
189	0xbeb77ee5	-0.35839
190	0x3ea1f6d7	0.31633636
191	0xbe556fc1	-0.20843412
192	0xbe4aee4f	-0.1981747
193	0xbe1b9665	-0.1519409
194	0xbe8032b9	-0.25038698
195	0xbc87eca9	-0.01659234
196	0xbdfd1c84	-0.123589545
197	0x3ed00849	0.4063132
198	0xbf0e2fd5	-0.55541736
199	0xbe35641d	-0.17713971
200	0xbe51979d	-0.20467992
201	0x3cbd9a44	0.023144849
202	0xbd026e0a	-0.031843223
203	0xbe8fd56b	-0.28092512
204	0x3d14c966	0.03632488
205	0x3e3edd76	0.18639168
206	0xbd18b35d	-0.03728043
207	0xbd504ff6	-0.050857507
208	0xbdce7add	-0.10082028
209	0xbe80f994	-0.25190413
210	0xbdc4e2f5	-0.09613601
211	0x3e84aa27	0.25911066
212	0x3e21225f	0.15735768
213	0xbc8155f9	-0.015788065
214	0x3b8f4766	0.004372525
215	0x3daa90ae	0.08328377
216	0xbe8ec362	-0.2788344
217	0xbd25607d	-0.04037522
218	0xbe3109bf	-0.17288874
219	0xbe3372ae	-0.17524216
220	0xbe939ea1	-0.28831962
221	0xbd1141c8	-0.035463125
222	0x3e2e4247	0.1701747
223	0x3e576cdf	0.21037625
224	0x3c0aa4a3	0.008462104
225	0xbd813b92	-0.0631019
226	0x3e1ce29c	0.1532082
227	0x3ead8d86	0.33897036
228	0x3e257988	0.16159642
229	0xbdec32a5	-0.11533097
230	0xbdbfbb87	-0.0936194
231	0xbe246a95	-0.16056283
232	0xbd908ae5	-0.07057742
233	0xbec7621c	-0.3894204
234	0xbdd654f7	-0.104654245
235	0x3e4db760	0.20089483
236	0x3e26bd88	0.16283238
237	0xbf1ab1f8	-0.6042781
238	0x3e961a80	0.29317093
239	0x3e0985af	0.13429902
240	0xbddcc22c	-0.10779223
241	0x3e357caf	0.17723344
242	0xbe408188	-0.18799412
243	0xbea8d1ce	-0.32972568
244	0x3bcdf0d2	0.0062848115
245	0x3e53da54	0.20688754
246	0xbeee33be	-0.4652385
247	0xbe37505d	-0.1790175
248	0x3e35a9a8	0.177405
249	0xbd1ac92a	-0.0377895
250	0xbe4ed341	-0.20197774
251	0xbe8dae61	-0.27672103
252	0xbdacad82	-0.084315315
253	0x3eff9ce3	0.49924383
254	0xbcf05558	-0.02933757
255	0xb8f724bc	-0.0001178472

gnn_base.gnn.gnn1.lin_query.bias f4 [48]
0	0x3d04ef0e	0.032454543
1	0xbe4323d4	-0.19056636
2	0x3d970eb9	0.07375855
3	0x3cb25aa4	0.021771736
4	0xbdb5f464	-0.088845044
5	0x3eadd616	0.33952397
6	0x3e5e4d41	0.21709158
7	0x3d80a4d5	0.06281439
8	0x3d3f622a	0.046724476
9	0xbe0c6522	-0.13710454
10	0xbd8d7bfd	-0.069084145
11	0x3dd0c2fe	0.10193442
12	0x3e5d3c01	0.21604921
13	0xbe0a40d7	-0.13501297
14	0xbda945bf	-0.08265256
15	0xbe3e2632	-0.18569258
16	0xbec4017c	-0.38282382
17	0xbdfe10f9	-0.12405581
18	0xbe0dc738	-0.13845527
19	0xbe015f8c	-0.12634104
20	0x3ce47068	0.02788563
21	0xbdf5c5a3	-0.12000587
22	0x3da2d6b3	0.07951107
23	0xbe24472c	-0.16042775
24	0xbe195a97	-0.14975964
25	0x3e952674	0.291309
26	0xbe5dd71f	-0.21664093
27	0x3e5005a3	0.2031465
28	0x3d659ca3	0.056057584
29	0xbe49e5c0	-0.19716549
30	0x3e4b1570	0.19832397
31	0x3e5c58dd	0.21518274
32	0xbe064fbe	-0.13116357
33	0xbde71ced	-0.11284814
34	0x3e7e417b	0.24829666
35	0xbd105883	-0.03524066
36	0xbe18143a	-0.14851466
37	0x3e852b21	0.26009467
38	0x3e8f478f	0.27984282
39	0xbd624467	-0.055241015
40	0xbe2215e3	-0.15828662
41	0x3eca39dd	0.3949727
42	0x3bb3c438	0.0054860376
43	0xbdbeee3b	-0.093227826
44	0xbcae7a70	-0.021298617
45	0x3e815321	0.25258735
46	0x3d469994	0.048486307
47	0x3d8d2d39	0.06893391

gnn_base.gnn.gnn1.lin_value.weight f4 [48, 16]
0	0xbd0ef49f	-0.034901258
1	0x3e4b2245	0.19837292
2	0xbe88cf45	-0.26720634
3	0xbd83c16c	-0.06433377
4	0x3dfe3f6b	0.1241444
5	0x3d5ed41d	0.054401506
6	0x3ec48393	0.38381633
7	0xbd91bf2a	-0.0711654
8	0x3beecc00	0.0072875023
9	0x3d90d469	0.07071764
10	0xbe97e96f	-0.29670283
11	0x3d141880	0.036156178
12	0xbbd5192d	-0.0065032453
13	0x3eb68d3f	0.35654637
14	0x3dfff6c0	0.12498236
15	0x3e8179b6	0.2528817
16	0x3c8c7ba1	0.017148795
17	0xbe2f83e7	-0.1714016
18	0xbe6dee80	-0.23235512
19	0xbdadced9	-0.08486719
20	0x3d9a3aeb	0.07530769
21	0x3e22a378	0.15882671
22	0x3bee0007	0.007263187
23	0x3e0a8c60	0.13530111
24	0x3e9ecd3e	0.31015962
25	0x3ef06acd	0.46956483
26	0xbb6d0182	-0.0036164229
27	0xbe2c944c	-0.16853446
28	0x3da4dd94	0.08050075
29	0x3e0513f8	0.12995899
30	0xbdd0e276	-0.10199444
31	0xbd4a47bd	-0.04938482
32	0x3d4c6590	0.049901545
33	0x3deb9adb	0.11504146
34	0xbea19ff7	-0.31567356
35	0xbc360bb1	-0.011111186
36	0x3e2a31d2	0.16620567
37	0x3e6da2d3	0.23206644
38	0xbe07e740	-0.13271809
39	0x3ed21235	0.41029516
40	0xbe4c20ef	-0.19934438
41	0x3d420e34	0.047376826
42	0x3e49a254	0.1969083
43	0x3f04ca00	0.5187073
44	0xbd3d4936	-0.046212398
45	0x3da5b3f9	0.08090968
46	0xbe9fa79f	-0.31182572
47	0xbc80c0bb	-0.015716901
48	0xbdc81168	-0.09768945
49	0x3cd127bc	0.025531642
50	0xbe60643d	-0.21913238
51	0x3f0069c7	0.50161403
52	0xbdb207c3	-0.08692887
53	0xbece4869	-0.4028962
54	0x3e17d35d	0.14826722
55	0xbe2a4ce5	-0.16630895
56	0x3dd62be9	0.10457594
57	0x3e73fe1f	0.23827408
58	0x3cf02186	0.02931286
59	0xbe561b9b	-0.20908968
60	0xbe48354b	-0.1955158
61	0x3d829e99	0.06377906
62	0x3d8a960f	0.06766903
63	0xbe1c4abd	-0.15262885
64	0x3cdf663f	0.027270434
65	0xbdd183fc	-0.10230252
66	0x3da2fc9f	0.0795834
67	0x3deba288	0.1150561
68	0xbe6c011f	-0.23047303
69	0xbf5cf2a1	-0.8630772
70	0xbd627f9b	-0.055297475
71	0x3e0c415b	0.13696806
72	0xbe22b97c	-0.15891069
73	0xbe1fe3c8	-0.15614235
74	0x3e24d41a	0.16096535
75	0xbe1cdfbf	-0.15319727
76	0xbd430611	-0.047613207
77	0x3eab1678	0.3341558
78	0x3e783311	0.2423823
79	0x3e56bd9e	0.2097077
80	0x3d1b7819	0.03795633
81	0xbd4a95da	-0.049459316
82	0xbd03746c	-0.03209345
83	0xbc9b16b0	-0.018931717
84	0x3e9b73e0	0.30361843
85	0xbe6c1da7	-0.23058186
86	0x3e61357e	0.21993062
87	0xbdf57401	-0.119850166
88	0xbe221640	-0.158288
89	0x3e2cad7a	0.16863051
90	0x3e0c4584	0.13698393
91	0x3e93421a	0.2876137
92	0xbc89b614	-0.016810454
93	0x3e032d05	0.12810142
94	0x3e46af5a	0.19402829
95	0x3eb5dfa9	0.35522202
96	0x3e32c5e7	0.17458306
97	0x3e88c97f	0.2671623
98	0x3c2c0c0f	0.010500922
99	0xbf356497	-0.7085661
100	0xbe630f3f	-0.22173785
101	0x3e3232e2	0.17402223
102	0xbe805b85	-0.25069824
103	0x3d0e7ab6	0.034784995
104	0x3e479b09	0.19492735
105	0x3dffcd66	0.124903485
106	0x3e4a43c4	0.19752413
107	0x3e2ce8a1	0.16885616
108	0xbd3b283a	-0.04569266
109	0x3e981f3f	0.2971134
110	0xbe220bb4	-0.15824777
111	0xbde186f1	-0.11012066
112	0xbdfb82a6	-0.122807786
113	0xbd521e49	-0.051298413
114	0x3dff5520	0.12467408
115	0xbe21495b	-0.15750639
116	0x3e15bf68	0.14623797
117	0xbd06a35f	-0.032870647
118	0xbd83aeb5	-0.06429807
119	0xbdbdf370	-0.09274948
120	0x3e1ab21d	0.15107007
121	0xbe80d8db	-0.25165448
122	0xbd8fca90	-0.070210576
123	0x3eaa3338	0.33242202
124	0xbe87c1b8	-0.26514983
125	0x3e10788b	0.14108483
126	0x3da40539	0.08008809
127	0xbe804cfa	-0.25058728
128	0x3e12de04	0.14342505
129	0x3dbe0583	0.09278395
130	0x3d1edff2	0.03878779
131	0xbbe2df09	-0.0069235605
132	0x3e63fe1b	0.22264902
133	0xbb248fa3	-0.0025110028
134	0xbdb6a036	-0.089172766
135	0x3d12e090	0.03585869
136	0xbe335be7	-0.17515527
137	0xbe38b1a0	-0.18036509
138	0x3e1898c8	0.14902031
139	0x3e7ee7d1	0.24893118
140	0x3e742521	0.23842289
141	0xbe4d8996	-0.20072016
142	0x3da58b77	0.080832414
143	0x3e3a22bf	0.18177317
144	0xbe150ade	-0.14554927
145	0xbeaf6f9b	-0.34264836
146	0xbddcd7d0	-0.107833505
147	0x3cc229f6	0.02370165
148	0xbd2b553c	-0.041829333
149	0x3e769e96	0.24083933
150	0x3f066f92	0.5251399
151	0xbeabd2ee	-0.33559364
152	0xbd91953a	-0.07108541
153	0x3e307991	0.17233874
154	0x3eda0cc8	0.42587876
155	0x3e89ccf7	0.26914188
156	0x3dd50fc1	0.104033954
157	0x3d87abb3	0.06624546
158	0xbed5372a	-0.4164365
159	0xbdf58238	-0.11987728
160	0x3d341581	0.04396582
161	0x3e0b83bd	0.13624473
162	0x3e58b2af	0.21161912
163	0xbdc6bf66	-0.09704475
164	0x3eb595ca	0.35465842
165	0xbe8ffab3	-0.28120956
166	0x3e84255f	0.25809762
167	0x3e906740	0.28203773
168	0xbd4f3368	-0.050586134
169	0xbd8bd164	-0.068270475
170	0xbb04782c	-0.002021323
171	0xbe3a5504	-0.18196493
172	0xbda38ed7	-0.07986229
173	0xbe0c4568	-0.13698351
174	0x3e67300d	0.22576924
175	0x3da2a663	0.07941892
176	0x3de24a3c	0.11049315
177	0x3cdd4553	0.027010595
178	0xbf1b7a67	-0.60733646
179	0x3e9d1f13	0.3068777
180	0x3e38de30	0.18053508
181	0x3e097a44	0.13425547
182	0xbe8ebee6	-0.2788002
183	0x3e287aee	0.16453144
184	0x3e89c513	0.26908168
185	0xbe5efdb2	-0.21776465
186	0xbe9f3fea	-0.3110345
187	0xbe2f7688	-0.1713506
188	0xbd60c6b6	-0.054877006
189	0x3e526bd7	0.2054895
190	0xbe050278	-0.12989223
191	0x3de6089a	0.11232109
192	0x3e1762e4	0.14783818
193	0x3dc98956	0.09840648
194	0x3db4a39d	0.08820269
195	0x3d99c572	0.07508363
196	0xbd0e462b	-0.034734886
197	0x3e9fb686	0.31193942
198	0x3ebe6be3	0.37191686
199	0xbe8731e2	-0.26405245
200	0x3c59bc7d	0.013289568
201	0x3e2c6daf	0.16838716
202	0x3a9b2f73	0.0011839702
203	0x3d021670	0.03175968
204	0xbc4741ce	-0.012161685
205	0xbdc2e569	-0.09516413
206	0xbef6f7cd	-0.48235932
207	0x3edbddda	0.42942697
208	0x3dc9660e	0.098339185
209	0x3e55826c	0.20850533
210	0xbf16bc05	-0.58880645
211	0x3df00cbe	0.117211804
212	0x3e327960	0.17429113
213	0xbdceede6	-0.10103969
214	0x3e63ca64	0.22245175
215	0x3e7a3a03	0.24436192
216	0xbdb13e99	-0.08654518
217	0x3d920425	0.07129697
218	0x3eae8605	0.34086624
219	0xbc877ef8	-0.016540036
220	0xbe92e8a2	-0.2869311
221	0x3e1dce4f	0.15410732
222	0xbe2d2308	-0.16907895
223	0xbec28ff6	-0.38000458
224	0xbe8e239c	-0.27761543
225	0x3d2ac9d3	0.04169638
226	0xbdce2713	-0.100660466
227	0x3ea5461d	0.32280055
228	0xbd70983f	-0.058738943
229	0xbc6e3a4c	-0.014540266
230	0x3e8bc54a	0.27298957
231	0x3de33b87	0.11095338
232	0xbe6e1541	-0.23250295
233	0x3d8274ec	0.06369957
234	0xbe61c31e	-0.22047088
235	0xbe9e0009	-0.30859402
236	0xbdf1336f	-0.11777388
237	0xbe925866	-0.28583068
238	0xbe2a009a	-0.16601792
239	0xbdd33217	-0.10312288
240	0x3e5aa657	0.21352516
241	0x3ec1a0b6	0.37817925
242	0xbeee03cd	-0.46487275
243	0x3bd10705	0.0063790106
244	0x3e36c0f4	0.17847043
245	0x3e61da90	0.22056031
246	0x3de8fd1a	0.113764
247	0x3b6970eb	0.0035620283
248	0xbd4cb006	-0.049972557
249	0x3e7bb6a8	0.24581397
250	0xbe9cc3a8	-0.30618024
251	0x3eadae13	0.3392187
252	0xbdd531de	-0.10409902
253	0xbd03b54c	-0.03215532
254	0xbc25c63c	-0.010118064
255	0x3db1bffc	0.08679196

gnn_base.gnn.gnn1.lin_value.bias f4 [48]
0	0x3e54ae82	0.20769694
1	0xbc7dae15	-0.015483399
2	0xbe5ea141	-0.21741201
3	0x3daa2e04	0.08309558
4	0x3d6d3da9	0.05792013
5	0xbdf7c759	-0.120985694
6	0x3e4e5a34	0.20151597
7	0x3db82e46	0.08993201
8	0xbe392025	-0.18078668
9	0x3e04b2eb	0.12958877
10	0x3d035d6c	0.032071516
11	0x3d7bb9d7	0.061456528
12	0xbe840df0	-0.25791883
13	0xbe3f1e80	-0.18663979
14	0x3e1e8c4a	0.15483204
15	0xbdf97567	-0.12180596
16	0x3e2c035e	0.1679816
17	0xbe977e11	-0.2958837
18	0xbe1b441b	-0.15162699
19	0x3d8f40e6	0.069948
20	0xbe8867e7	-0.2664177
21	0xbc1f3529	-0.009717264
22	0x3e3aa9cf	0.1822884
23	0x3e93bcfd	0.28855124
24	0xbcf50471	-0.029909344
25	0xbe856740	-0.26055336
26	0xbe0fb5b8	-0.14034164
27	0xbc982362	-0.01857156
28	0xbe343d0d	-0.17601414
29	0x3de0a2b3	0.109685324
30	0xbda2a120	-0.079408884
31	0xbb32c40a	-0.0027277493
32	0x3e4e7721	0.20162632
33	0x3e241d16	0.1602672
34	0x3d3d4a4d	0.046213437
35	0xbdbb0b93	-0.09133067
36	0xbe4e1f22	-0.20129064
37	0xbe993da9	-0.29929855
38	0x3dc4daf1	0.09612072
39	0x3d4cb1db	0.049974304
40	0x3d0fecb9	0.035137866
41	0x3d2024dc	0.03909765
42	0xbe026e84	-0.12737471
43	0xbd2b8cd6	-0.04188236
44	0xbe167361	-0.14692451
45	0x3d3d0d52	0.04615528
46	0xbe366312	-0.1781123
47	0xbe518b5b	-0.20463316

gnn_base.gnn.gnn1.lin_edge.weight f4 [48, 1]
0	0x3f1e6154	0.6186726
1	0x3ee16df7	0.4402921
2	0xbf3ebac2	-0.7450372
3	0x3f7ff0b5	0.99976665
4	0xbf270ab6	-0.6525072
5	0x3f2faa50	0.6861925
6	0xbef45fef	-0.47729442
7	0x3f229cea	0.6352068
8	0x3e7bae2c	0.2457816
9	0x3d26d6ee	0.040732317
10	0x3f2f89e4	0.6856978
11	0x3f3fccd3	0.7492191
12	0xbf77bfea	-0.9677721
13	0x3e47d0c7	0.19513236
14	0x3f40494e	0.75111854
15	0xbeedaea0	-0.4642229
16	0x3f229321	0.6350575
17	0x3f405eb0	0.7514448
18	0xbf67d434	-0.9055817
19	0x3f39c43a	0.7256504
20	0xbf9d287d	-1.2277981
21	0x3eea8fff	0.45812985
22	0xbf6c64bb	-0.923412
23	0xbf3374e4	-0.70100236
24	0xbe2d87d2	-0.16946343
25	0xbf479392	-0.7795955
26	0xbb5aea85	-0.0033403945
27	0xbeeeec11	-0.4666448
28	0x3ea5ea25	0.324052
29	0xbe579b57	-0.21055351
30	0xbf558fd3	-0.83422583
31	0xbef7fed4	-0.48436606
32	0x3e43e131	0.19128872
33	0x3f0ffa2c	0.56241107
34	0xbf2d90d3	-0.6779911
35	0xbecf07d3	-0.40435657
36	0x3e35be32	0.17748335
37	0xbf588747	-0.84581417
38	0xbf4e288a	-0.8053061
39	0xbfc0343d	-1.5015942
40	0xbf2fe341	-0.68706137
41	0xbf4a5c11	-0.7904673
42	0x3dfd7613	0.123760365
43	0x3f3bf408	0.7341924
44	0x3eca40cc	0.3950256
45	0xbf5919f4	-0.84805226
46	0x3f7cb3a3	0.98711604
47	0xbf9baaaf	-1.2161463

gnn_base.gnn.gnn1.lin_skip.weight f4 [16, 16]
0	0xbdadfd59	-0.08495588
1	0xbcd18db3	-0.025580263
2	0x3d70c249	0.058779035
3	0x3e1abb5e	0.15110537
4	0xbe80a1b3	-0.25123367
5	0xbeadaac1	-0.33919337
6	0xbd295b4e	-0.04134684
7	0xbe7c491b	-0.24637263
8	0x3c92e217	0.017930074
9	0x3cb803b5	0.022462705
10	0x3ea4943b	0.3214434
11	0xbdcbb6e5	-0.09946994
12	0x3e500d1b	0.203175
13	0xbeff82be	-0.49904436
14	0xbdc99729	-0.09843285
15	0x3e7b537b	0.24543564
16	0x3e956623	0.29179487
17	0xbc0b05ee	-0.0084853005
18	0xbe6d2665	-0.23159178
19	0xbdca0f2e	-0.098661765
20	0x3dd4fa34	0.10399285
21	0xbee0cf46	-0.43908137
22	0x3dbad0a3	0.091218255
23	0xbd029d5a	-0.031888343
24	0x3e2d3dff	0.16918181
25	0xbd996b5d	-0.07491181
26	0x3d916f4b	0.071013056
27	0x3db2f62c	0.0873836
28	0x3c316f04	0.010829691
29	0x3d6c9006	0.05775454
30	0xbe660f24	-0.22466713
31	0x3d7e1f70	0.0620417
32	0xbd2ff423	-0.042957436
33	0x3e8ae450	0.27127314
34	0xbe5337a2	-0.20626691
35	0x3db32b3b	0.0874848
36	0x3e4af2d8	0.198192
37	0x3e82fb4d	0.25582352
38	0xbe7460cb	-0.23865049
39	0x3f0c895a	0.5489708
40	0xbe481e6a	-0.19542852
41	0xbe748bc4	-0.23881441
42	0xbdf988d7	-0.12184303
43	0xbb2d7ff7	-0.0026473978
44	0xbdee552a	-0.116373375
45	0xbe9a96a0	-0.30193043
46	0xbdd46e72	-0.10372628
47	0xbe12ee96	-0.14348826
48	0x3eb0f508	0.34561944
49	0x3e5c444d	0.2151043
50	0x3d3aa0f6	0.04556366
51	0x3c69192a	0.014227191
52	0x3d4b5d18	0.049649328
53	0x3e292a90	0.16520143
54	0xbe433403	-0.1906281
55	0xbd00edce	-0.03147679
56	0x3e1d0d1b	0.1533703
57	0xbe2e9c8d	-0.17051907
58	0xbe347348	-0.17622101
59	0x3e55b7e0	0.20870924
60	0x3e2db009	0.16961683
61	0x3e25d27d	0.16193576
62	0xbe3f91b6	-0.18707928
63	0xbd9d20c0	-0.07672262
64	0x3e5ae2e0	0.21375608
65	0x3d95cbc3	0.07314255
66	0xbea66bee	-0.3250422
67	0x3ec9759f	0.3934755
68	0xbd9e5063	-0.07730176
69	0xbe88b1de	-0.26698202
70	0x3e38994d	0.1802723
71	0xbe9f4497	-0.31107017
72	0xbdbc2539	-0.09186787
73	0xbd29773e	-0.041373484
74	0xbcdf142f	-0.027231304
75	0x3e4e54aa	0.20149484
76	0x3e8fbeee	0.28075355
77	0x3dfb848c	0.12281141
78	0x3db368fd	0.08760259
79	0x3e547b7b	0.20750229
80	0x3d92897c	0.07155129
81	0xbd95a8ce	-0.073075876
82	0xbec3e2e0	-0.3825903
83	0xbe39a29f	-0.18128441
84	0x3e3a173c	0.18172926
85	0xbee50110	-0.44727373
86	0x3e51b00a	0.2047731
87	0xbdf5b3df	-0.11997198
88	0x3e96dec4	0.29466832
89	0x3e9c8e9f	0.3057756
90	0xbd80e573	-0.06293764
91	0x3d511b22	0.051051266
92	0x3e06fa0e	0.13181326
93	0x3e955047	0.2916281
94	0xbe3a7947	-0.18210326
95	0xbc8ec463	-0.017427629
96	0x3dbafc32	0.09130134
97	0xbe899532	-0.2687164
98	0x3e90db51	0.28292325
99	0x3db5d434	0.08878365
100	0x3e1503ce	0.14552233
101	0xbe2fb187	-0.17157565
102	0xbdab4241	-0.08362246
103	0x3db4c762	0.08827092
104	0xbe03e93f	-0.12881945
105	0x3d820f09	0.06350524
106	0x3e8d2dc4	0.2757398
107	0x3bd4a11c	0.0064889323
108	0xbc11d6d2	-0.008901315
109	0x3e8ff756	0.2811839
110	0xbd0c9458	-0.03432116
111	0xbea5aa5b	-0.32356533
112	0xbdc3ef3a	-0.09567113
113	0xbe850e4d	-0.25987473
114	0xbd91041e	-0.070808634
115	0x3d0d8e4f	0.034559544
116	0x3e6639dd	0.2248301
117	0xbf070941	-0.52748495
118	0xbe4e6341	-0.2015505
119	0x3e7fe979	0.24991407
120	0x3be9110c	0.007112628
121	0x3d261e40	0.040556192
122	0x3f2921a5	0.6606696
123	0x3e9ddf3f	0.30834386
124	0x3baf3a9b	0.0053475625
125	0x3d8e6804	0.06953433
126	0x3d4f8633	0.05066509
127	0xbe0858f9	-0.1331519
128	0x3c2a7156	0.010402998
129	0xbe78113c	-0.24225324
130	0xbe90f906	-0.2831499
131	0x3d1c16de	0.038107745
132	0xbe858445	-0.26077476
133	0x3e46d817	0.19418369
134	0x3e4e0cc9	0.20122065
135	0x3e52bd1f	0.20579956
136	0xbd387616	-0.04503449
137	0xbda5cec6	-0.080960795
138	0x3ee0aae8	0.4388039
139	0x3e48f1e3	0.19623522
140	0x3d2a4171	0.041566316
141	0xbf0c3369	-0.54765946
142	0x3e9da4ee	0.30789894
143	0x3c536a08	0.012903698
144	0x3ec2d8ff	0.3805618
145	0xbea2887f	-0.31744763
146	0x3e2d2d44	0.16911799
147	0x3d81bcd9	0.06334848
148	0xbd83c2bb	-0.06433626
149	0xbe5745fa	-0.21022788
150	0x3daae9d3	0.0834538
151	0x3e222106	0.1583291
152	0x3ed1bc9e	0.40964216
153	0xbdccc298	-0.09998053
154	0x3e2289c1	0.15872861
155	0x3e9f3899	0.31097868
156	0x3ed9e68d	0.4255871
157	0xbea3e8dc	-0.32013595
158	0x3d3cf469	0.046131525
159	0x3e919911	0.28437093
160	0xbd1f361a	-0.038869955
161	0x3e974187	0.2954218
162	0xbde2d9fd	-0.11076734
163	0x3ea90f17	0.33019325
164	0x3e2cf5b0	0.16890597
165	0xbe30bfe8	-0.17260706
166	0x3e496f9c	0.19671482
167	0x3e9df5a1	0.30851462
168	0x3d8fd48f	0.07022964
169	0x3ec186e2	0.3779822
170	0xbde95596	-0.11393277
171	0xbcddcadd	-0.027074272
172	0xbe030c90	-0.12797761
173	0xbf174301	-0.59086615
174	0xbf181a3c	-0.5941503
175	0xbda99cbb	-0.08281847
176	0x3e31e307	0.1737176
177	0x3f24e4e9	0.6441179
178	0xbe4606fd	-0.19338603
179	0x3d701ea1	0.05862296
180	0xbb273c83	-0.0025518246
181	0x3ea21e14	0.31663573
182	0x3cbbd152	0.02292696
183	0x3eb228d7	0.34796783
184	0x3f31cc3e	0.69452274
185	0xbe672ef0	-0.22576499
186	0xbedcebe8	-0.43148732
187	0xbd199e29	-0.03750435
188	0x3e02aaea	0.12760511
189	0x3e629f34	0.22131044
190	0xbdf62948	-0.120195925
191	0x3e1d6719	0.1537136
192	0xbe6e02c1	-0.23243238
193	0xbe9e8c59	-0.30966452
194	0x3ee05b6b	0.43819746
195	0xbeb477c1	-0.35247615
196	0x3d7417a1	0.059592847
197	0x3e7a2fbe	0.24432275
198	0x3eb1bba4	0.3471347
199	0xbd1d32e8	-0.038378626
200	0xbc8a1077	-0.016853554
201	0xbe8b5a37	-0.27217266
202	0xbd37cd92	-0.04487378
203	0xbe5b9b12	-0.21445873
204	0x3e2b0c6e	0.1670396
205	0x3e95ae32	0.29234463
206	0x3d905ecc	0.07049331
207	0x3e671f44	0.2257052
208	0x3d755b18	0.059901327
209	0x3dc8d17d	0.09805582
210	0xbed932aa	-0.42421466
211	0xbe7e346f	-0.2482469
212	0x3d8db503	0.06919291
213	0x3d710e88	0.05885175
214	0xbe1514e6	-0.14558753
215	0xbde01459	-0.10941381
216	0x3eba53ed	0.36392155
217	0x3e68c250	0.22730374
218	0xbc94709d	-0.018120104
219	0x3e770541	0.24123098
220	0xbc0eff1f	-0.008727818
221	0xbd56553f	-0.05232739
222	0x3c33cda0	0.010974318
223	0xbc339dc5	-0.010962908
224	0xbd42cd55	-0.0475591
225	0xbece6dff	-0.40318295
226	0x3e7333d7	0.23750244
227	0xbe2c4cba	-0.16826144
228	0xbe541955	-0.20712788
229	0xbec0d47d	-0.37662116
230	0x3ea21c69	0.316623
231	0xbd4c8efd	-0.04994105
232	0xbdc222c6	-0.09479289
233	0x3dc80ecb	0.097684465
234	0x3d80c448	0.06287438
235	0x3e4e978d	0.20175
236	0xbe73126d	-0.23737498
237	0x3d820258	0.06348103
238	0x3dd0f9f9	0.102039285
239	0x3da6ddb0	0.08147752
240	0xbd8c4335	-0.06848756
241	0xbe04b8fe	-0.12961194
242	0x3cfa316d	0.030541146
243	0xbe64da1a	-0.22348824
244	0xbb9b79be	-0.0047447374
245	0x3eea0f49	0.45714787
246	0x3e343e1a	0.17601815
247	0xbe40fd56	-0.1884664
248	0x3dcb2587	0.09919267
249	0xbd57b09a	-0.052658655
250	0xbe3b9098	-0.18316877
251	0xbea91570	-0.33024168
252	0x3db39c37	0.0877003
253	0x3cd7c33a	0.026338208
254	0xbe4e576a	-0.20150533
255	0x3e4fcd04	0.20293051

gnn_base.gnn.gnn1.lin_skip.bias f4 [16]
0	0x3d387b56	0.045039497
1	0xbe46fed8	-0.19433153
2	0x3d04f327	0.03245845
3	0x3e0291f1	0.12750985
4	0xbdb840ee	-0.08996759
5	0xbd2a3d74	-0.041562513
6	0x3e57b4dd	0.21065088
7	0x3c82afcc	0.015952967
8	0x3dc52017	0.09625261
9	0xbe3de0c8	-0.18542778
10	0xbd87c4f9	-0.066293664
11	0xbe878322	-0.26467234
12	0xbdd6b256	-0.10483234
13	0x3e4c6f8a	0.19964424
14	0xbe197bd8	-0.14988649
15	0xbec63605	-0.3871309
