model_weights/FA_FR/tube/feb18/seq/critic.pt (torch, 191627 bytes, 57 tensors)

gnn_base.gnn.embed_layer.layer_norm.weight f4 [16]
00000000: 8f32 923f d034 883f 8efe 923f ddc0 923f
00000010: d471 4f3f f992 a93f 9719 6f3f f3b1 793f
00000020: 1830 593f 7a69 733f e100 6a3f f88d a33f
00000030: 799d 883f c3b3 533f c52d 663f 6bf4 443f
1.1421679 1.0641117 1.1483934 1.1465107 0.8103306 1.3247977 0.9339842 0.97537154
0.8483901 0.9508282 0.9140759 1.27777 1.0673057 0.8269617 0.8991359 0.7693545

gnn_base.gnn.embed_layer.layer_norm.bias f4 [16]
00000000: 0ea1 44be 1f73 3bbd 523f dc3d 30e1 c4bd
00000010: a9ee 743e bc2a 63bd d576 44bd 2f0f 50bc
00000020: 4d0d 5d3d fa72 f43d 4e66 bf3d c801 39be
00000030: c5de 193e b8b5 813e f888 133d 6275 6cbe
-0.19202062 -0.045764085 0.10754265 -0.096132636 0.23919167 -0.055460677 -0.04796489 -0.012698933
0.053967763 0.119359925 0.09345685 -0.18067086 0.15026386 0.25333953 0.036019295 -0.23091653

gnn_base.gnn.embed_layer.entity_embed.weight f4 [4, 2]
00000000: 994a f6bf 4ca3 8abf bac5 aabe b7f2 88bf
00000010: db2a 4c3f 7223 f2bf 2bf0 5dbe ef29 263f
-1.9241515 -1.0831084 -0.33353978 -1.0699071 0.7975289 -1.8917067 -0.21673648 0.64907736

gnn_base.gnn.embed_layer.lin1.weight f4 [16, 10]
00000000: 5010 843e 8c7f a33d 7972 a13f 55d2 3ebd
00000010: 63c8 673e 4148 8c3d f5c7 4abd 0a6b c6be
00000020: e13d 13bf afa6 493d e51c 27bf 9ca3 91be
00000030: 33a0 17bf 5d93 a0bf b39a b33e 106c ca3c
00000040: d5fd dcbc f2d7 a1be 500a 053d 6615 993e
00000050: 1c8f b9be 3153 8dbd b8d0 803d 78b3 6b3e
00000060: f36e 25be 2357 f33e 0dd7 903f 11f3 e7be
00000070: 0527 b7be 1401 123e 741c f23d 6ba3 6cbf
00000080: f1de 103f df96 acbf dcf9 eabd 5d2a a6be
00000090: b277 8dbf f116 5fbe 34c4 0a3d d421 07be
000000a0: 3a15 063e eeca eb3e c428 0e3d 4556 543f
000000b0: 1f4c 103f b6e9 683f df8b f33e e5d9 df3e
000000c0: b3c6 dfbd d38d 8abe 0615 36bc 0588 443f
000000d0: c6f0 4ebd 29cb ac3f f6c7 babd fc4e 2fbe
000000e0: cd33 30bf 4410 f4be d423 903e 76f0 e3bd
000000f0: 7ba6 23be d49f 4e3f c712 3e3d 7c5c 4f3f
00000100: 0065 823e 3e7b b13e 8f8b 10bf 33bb ddbe
00000110: c9ed e93d 1361 cc3e adf6 543f 85c9 033e
00000120: 8d32 0f3d 1d4d 08be 8ca0 3d3d c27c 463e
00000130: c0e7 013d 1109 09be 8ea4 05bf ec97 5f3f
00000140: 978a b53b b6a3 b73e 0a17 aabe 74fa d0bb
00000150: 7fc9 643f 5949 8b3d c79a ca3e eaf8 cebe
00000160: b43e 94be f47b eebe 1ddd 71be e000 0b3f
00000170: e21e 80be ac7c e83e 6ced 39bf 2ff5 843e
00000180: e6a7 12bf 2906 103f 232b 433e b3a7 07bf
00000190: 5e43 c9bc f832 3c3f eb1d 843d 7f25 0ebe
000001a0: 606e 703e d273 3d3e c4b5 d33e 17fc 203f
000001b0: 0c68 e6be 9b32 19bc 66c3 0bbf 7544 1fbe
000001c0: d26d 9dbf ef63 87be c8e1 58bb aad6 0f3c
000001d0: 79d6 90bf 0026 cfbe ef18 55be cbcd 893b
000001e0: 00c7 c3be d3d8 53bc 4193 afbd 90b2 a83d
000001f0: 0579 7c3f 2e0d a33e cd8d b93e 8d79 fcbd
00000200: e211 243e d5c7 743e 64f4 c0bd 0c0e b9bd
00000210: 6e08 e0bd 6d9e 54be 7ccc 383e 4143 983e
00000220: 8c81 a4be f4d8 563f 7319 da3d 1b38 643d
00000230: 585c e03d 36c3 a9be 2f48 bd3d 4f9c 90bd
00000240: 7434 153f 59f6 c7be ab8b 3b3b 8ad6 933c
00000250: 2ac6 583f bee2 ec3d 6453 6ebf 5ad8 d1bd
00000260: 5ba0 b2be a38a 423f 0f19 733e 63c3 27bf
00000270: b0d7 3e3e 3041 1f3e 861a c5be cea2 f93d
0.25793695 0.07983312 1.2613059 -0.046587307 0.22635035 0.06849719 -0.0495071 -0.3875354
-0.57516295 0.049231227 -0.65278465 -0.28445137 -0.5922882 -1.2544972 0.35078964 0.024709731
-0.026976505 -0.31610066 0.032480538 0.29899138 -0.36241996 -0.06900633 0.0628981 0.2301768
-0.16155605 0.47527418 1.1315628 -0.45302632 -0.35771957 0.14258224 0.11821833 -0.92436856
0.5659018 -1.3483542 -0.11473438 -0.32454196 -1.1052153 -0.21786095 0.03387852 -0.13196498
0.13094035 0.4605326 0.034706846 0.82944137 0.5636615 0.90981615 0.4756765 0.43720928
-0.10926571 -0.27061328 -0.011113411 0.7677005 -0.05052259 1.34995 -0.09120171 -0.17119974
-0.6882904 -0.4766866 0.28152335 -0.11129849 -0.15981476 0.8071263 0.046404626 0.81000495
0.25467682 0.3466434 -0.5646295 -0.43306884 0.11422307 0.39917812 0.831889 0.12869842
0.03496032 -0.13310666 0.046295688 0.19383529 0.031715155 -0.13382365 -0.52204216 0.8734119
0.005540203 0.3586709 -0.33220702 -0.0063775126 0.8936996 0.06801099 0.3957121 -0.4042428
-0.2895409 -0.46578944 -0.23619504 0.5429821 -0.25023562 0.45407617 -0.726279 0.2596831
-0.5728744 0.562594 0.19059424 -0.52990264 -0.024568256 0.7351527 0.06451019 -0.13881491
0.23479605 0.18501213 0.41349614 0.6288466 -0.45001256 -0.009350444 -0.5459503 -0.15553458
-1.229914 -0.2644343 -0.003309356 0.008779207 -1.1315452 -0.4045868 -0.20810293 0.0042054406
-0.38237762 -0.012930113 -0.08573008 0.08237183 0.9862216 0.31845993 0.36240998 -0.123278715
0.16022447 0.23904355 -0.09421614 -0.09035882 -0.10939108 -0.2076356 0.18046755 0.2973881
-0.32130086 0.83924794 0.10649385 0.05571757 0.10955113 -0.33156747 0.092422836 -0.070610635
0.5828316 -0.39055136 0.0028617184 0.018046636 0.84677374 0.11566685 -0.93095994 -0.10246344
-0.34887967 0.7599279 0.23740028 -0.6553251 0.18636966 0.15552211 -0.38496798 0.12189256

gnn_base.gnn.embed_layer.lin1.bias f4 [16]
00000000: 9066 923d 0256 d7bc 4b0a 153e aa9d 903d
00000010: 233f 7a3e 9ba6 ba3d 3bb1 623e 7d17 3f3e
00000020: 6b4b 833d d64b c8be 894e 183e 2e44 983d
00000030: f212 873e 871b 15be e3f2 d1bc a049 093e
0.071484685 -0.026286129 0.14554708 0.07061322 0.24438147 0.09113809 0.2213792 0.18661304
0.06410869 -0.39120358 0.14873709 0.07434879 0.26381642 -0.14561282 -0.025628513 0.13406992

gnn_base.gnn.embed_layer.layers.0.weight f4 [16, 16]
00000000: 915e 843e 67ee 2fbf 4822 41bd dff6 33be
00000010: 1bc1 013f 3356 ed3e 7663 e4bd d024 43bd
00000020: 1561 b93e 899b 04be 9157 9ebe c37d 173f
00000030: 8ace 7abd f6ac 8dbe dc23 143f 1f33 e73c
00000040: 98ec d3be 84da 7abe c4c6 633f 7484 023f
00000050: e495 07be 39c3 bd3d c2c9 1abd 5b61 cabd
00000060: 4a29 7fbf af1f 243f 1e8d 853e 6fdd ce3e
00000070: d0e8 87be df7e 413e f150 b43e 7e79 f33e
00000080: e2de 063f 0457 5fbd 2f83 ce3d b5f4 c1be
00000090: 8058 16bf dd2d d43e c25b 06be 207e fe3e
000000a0: 86d4 a73c 27be bc3e 1fba 8b3d 2dbf 033e
000000b0: a7f7 f03c 8a1a fe3e df58 8abe 2e11 0a3f
000000c0: 0bb4 b6bf cfb1 103f 5f76 723e 47b0 bdbe
000000d0: 7e6f 1d3e 2c7f 833e d8a0 ea3e c408 01be
000000e0: 8c41 2d3e 1505 81be 593b 71be ea9c 563f
000000f0: 5fe7 e5bc c74a da3e d3f5 ee3d 27cd f03e
00000100: fda4 39bf c459 20bf 9fa4 283f f905 fd3e
00000110: 64f9 d13e fcb8 b1be 49c6 1cbe d1a9 7b3e
00000120: 0e1a 013f c56a 8fbe 2201 5cbe 9638 cfbe
00000130: ed1d 2fbe 352c c13e 67a6 933f affb 70be
00000140: 79be f0bd ea48 b4be 42bb 103e 7d89 9dbf
00000150: b741 0c3e 2dd3 2b3f e2d3 c23e aa19 3cbe
00000160: 3c23 2ebd 0e64 633d ce4e 923e 38f6 a53e
00000170: e196 8fbe feee b13d 71c4 983d eaa8 383f
00000180: 2cff b53e dc76 adbd cad0 ba3e 6f69 873f
00000190: e35a 3abe 5cbf 15bf 3f90 a93c 3aaf d83e
000001a0: cab1 c6bc 1b9a 973e 3d7c 783e 0f45 93bf
000001b0: c122 53be 23fb 7cbe 8ae0 4f3e dad2 903d
000001c0: 73fc 84bf d49b 1bbf 3cbc 3d3e eebb bb3e
000001d0: 02a2 65bc 95c0 37bf d9ed 343e a7aa 9c3e
000001e0: e650 4bbf 6f85 563f ba56 d33e 259f a73a
000001f0: dcbb efbd 9071 6f3d 1f1c f5be 7075 a2be
00000200: 9ed2 7d3e 7b4e f0be c118 f73e b272 08be
00000210: 0438 8a3e f5eb 3a3d 1298 523f 8ff9 6b3f
00000220: e3a9 943e 930d b63e e2ac 06bf 71bd 163d
00000230: affd b8bd 6fed 973e 0a6c 8a3d 69d8 bcbe
00000240: 5f68 303e 6086 2cbe a81f 00be 677a f83e
00000250: 447c a4be 64f7 3bbf 7e8d 03be de8c c4be
00000260: 441e 50bf 51cb ebbe a851 da3e df1e 583f
00000270: bc52 173f 5be4 173f 75e1 d23e 57fe 22be
00000280: e4c5 86be e58e 8a3e 5b45 d8be f30c 993e
00000290: 981a c93e ad84 9abf 8bab 44be 089f df3e
000002a0: cafd 78be d853 2ebe 9932 48bf 3981 233e
000002b0: 27c1 30be 270a e03e b428 0c3e a3b0 c83e
000002c0: a190 d93e 6b31 35bf 7b78 253e 5130 29bf
000002d0: bcc3 2b3e b308 533f f211 a0be a355 37be
000002e0: 9f18 9ebe 0088 233d 0405 abbd aa94 8abf
000002f0: c0e3 3c3e 6ff8 773e c85b 1d3e 163b 8e3d
00000300: af4b b83e 4e9b 873e bdf6 9f3e 45f3 d03d
00000310: 2659 893e bb88 fdbd 7f2c 483f aa02 fb3d
00000320: 65bc 56be 4bbb acbd ee47 a53e 0c76 a33d
00000330: d107 82bf 9dbb 71bc aa91 00bf 93c2 2f3e
00000340: 22e5 0b3e 416c 2a3e 0495 da3e 8435 693d
00000350: b1c2 0ebf 2c66 543c c73a 653f 80c8 89bf
00000360: 2b8b 3e3e ae61 563e fba7 2ebf 940d d93e
00000370: 5aa1 d8be e4d5 643e e4ac 373e 021f 5cbf
00000380: 2bef 9cbe 13b1 babe 60a4 cd3e d5ea 87be
00000390: bcff 13bf 6e0a 1d3e f3ed a33e 308c ddbe
000003a0: afdd f93d 049d 37bf 927f dfbe f4c4 62be
000003b0: d455 14be d9b8 c4be b09e f0bd c57d 973e
000003c0: f4ee 7fbf 7d37 3d3f 005b 303f d469 a5bd
000003d0: ecbb 9f3d 14af 83be 0b63 0abf 1151 f23d
000003e0: c54f d6be 4f68 47be 025f 1b3e 4737 ca3e
000003f0: ded5 03bf ab9c ad3e 8dab 9ebc 96c0 bfbd
0.25853398 -0.6872315 -0.047151834 -0.17574643 0.5068528 0.46354827 -0.11151783 -0.04764253
0.3620688 -0.12949957 -0.30926183 0.5917627 -0.061232127 -0.2767102 0.5786722 0.028222619
-0.41391444 -0.2449742 0.8897517 0.5098336 -0.13240772 0.092657514 -0.037790067 -0.0988185
-0.9967238 0.64110845 0.26084226 0.40403315 -0.2654481 0.18896054 0.35218003 0.4755363
0.5268384 -0.054526344 0.10083615 -0.3788201 -0.5872879 0.4144124 -0.1312094 0.497056
0.020487081 0.36863825 0.06822609 0.12865897 0.029414965 0.49629623 -0.27020928 0.53932464
-1.4273695 0.56521314 0.23677967 -0.3704855 0.15374562 0.25682962 0.4582584 -0.12601
0.16919535 -0.2519919 -0.23557796 0.8383318 -0.028064428 0.42635176 0.11667981 0.4703152
-0.7251738 -0.6263697 0.6587619 0.4941862 0.41010582 -0.34711444 -0.15310015 0.24576499
0.5043038 -0.28011146 -0.21484807 -0.4047286 -0.1710126 0.3772904 1.1535157 -0.2353351
-0.1175508 -0.3521188 0.14133933 -1.2307583 0.13696943 0.67119104 0.3805228 -0.18369165
-0.04251407 0.05551534 0.28575748 0.32414412 -0.280448 0.08688162 0.07459343 0.7213274
0.35546243 -0.08469936 0.36487418 1.0579051 -0.18198733 -0.58495116 0.020698665 0.42321187
-0.024254698 0.2960976 0.24266143 -1.150545 -0.20618726 -0.24705176 0.20300499 0.07071467
-1.0389541 -0.6078465 0.18528837 0.36666816 -0.014015676 -0.7177823 0.17668857 0.30598947
-0.79420316 0.83797354 0.41277105 0.0012788518 -0.11705753 0.05845791 -0.47873017 -0.31730223
0.24787375 -0.46934876 0.48261073 -0.13325003 0.26995862 0.045635182 0.8226329 0.9217767
0.29035863 0.3555723 -0.5260755 0.03680176 -0.09032761 0.29673335 0.06758888 -0.36883858
0.17227314 -0.16848135 -0.12512076 0.48530886 -0.32126057 -0.73424363 -0.12846944 -0.38388723
-0.8129618 -0.46053556 0.42640424 0.84422106 0.5911062 0.5933282 0.41187635 -0.15917335
-0.26322854 0.27062145 -0.42240414 0.29892692 0.39278102 -1.207174 -0.19206063 0.4367602
-0.24315563 -0.17024171 -0.78202206 0.15967263 -0.17261182 0.43757746 0.13687402 0.39197263
0.42493156 -0.7077853 0.16159241 -0.6608935 0.16773885 0.8243515 -0.3126369 -0.17903762
-0.3087816 0.03992462 -0.08350566 -1.0826619 0.18446255 0.24215864 0.15367043 0.069448635
0.35995242 0.26485676 0.31242934 0.1020265 0.26825827 -0.12379595 0.78192896 0.122563675
-0.20970304 -0.08434161 0.3228144 0.079815 -1.0158635 -0.014754203 -0.50222266 0.17164068
0.13661626 0.16642858 0.42691815 0.056935802 -0.55765826 0.012963813 0.8954281 -1.0764313
0.18607776 0.209357 -0.6822507 0.42393172 -0.423106 0.22347218 0.17937046 -0.85984814
-0.3065122 -0.36463222 0.4016447 -0.2654635 -0.57812095 0.1533601 0.32017478 -0.43271017
0.12200486 -0.7172396 -0.43652016 -0.22145444 -0.14485866 -0.38422278 -0.11749017 0.29588142
-0.9997399 0.73912793 0.68888855 -0.08076826 0.07799515 -0.25719512 -0.5405738 0.118318684
-0.41857734 -0.19473384 0.15172961 0.39495298 -0.5149821 0.3390859 -0.019368911 -0.09362905

gnn_base.gnn.embed_layer.layers.0.bias f4 [16]
00000000: ed3b a03d 7aeb b53a a667 ccbb 1708 e33c
00000010: 31a7 833e ea29 6b3d ef65 41be 7a94 53be
00000020: 9cfc 6cbd 7cf8 f0bd 7ea8 2dbe 5000 97bd
00000030: 7d44 efbc 4573 9f3e 5287 a23d ab28 02be
0.0782393 0.0013879382 -0.006237942 0.027713818 0.25713494 0.05741302 -0.18886541 -0.20662108
-0.057858095 -0.11766145 -0.16958806 -0.073731065 -0.029207462 0.3114263 0.079359666 -0.12710826

gnn_base.gnn.embed_layer.layers.2.weight f4 [16]
00000000: 8f32 923f d034 883f 8efe 923f ddc0 923f
00000010: d471 4f3f f992 a93f 9719 6f3f f3b1 793f
00000020: 1830 593f 7a69 733f e100 6a3f f88d a33f
00000030: 799d 883f c3b3 533f c52d 663f 6bf4 443f
1.1421679 1.0641117 1.1483934 1.1465107 0.8103306 1.3247977 0.9339842 0.97537154
0.8483901 0.9508282 0.9140759 1.27777 1.0673057 0.8269617 0.8991359 0.7693545

gnn_base.gnn.embed_layer.layers.2.bias f4 [16]
00000000: 0ea1 44be 1f73 3bbd 523f dc3d 30e1 c4bd
00000010: a9ee 743e bc2a 63bd d576 44bd 2f0f 50bc
00000020: 4d0d 5d3d fa72 f43d 4e66 bf3d c801 39be
00000030: c5de 193e b8b5 813e f888 133d 6275 6cbe
-0.19202062 -0.045764085 0.10754265 -0.096132636 0.23919167 -0.055460677 -0.04796489 -0.012698933
0.053967763 0.119359925 0.09345685 -0.18067086 0.15026386 0.25333953 0.036019295 -0.23091653

gnn_base.gnn.gnn1.lin_key.weight f4 [48, 16]
00000000: e88d 9fbd 4dfa 89be dc23 973e 0580 863e
00000010: 0cab 85be 98e4 4b3e 55bf a2be 6ba3 253e
00000020: 86fa da3d 6104 853d 421c 85bd f901 7dbe
00000030: 48a2 b5bd bf39 9bbe 049c 80bc 5dc2 f73d
00000040: 1360 2b3e 1820 c33c 6619 85be 7f3f 4abe
00000050: 314e 0f3e 29b4 7ebd edf4 3b3e 9f41 813e
00000060: 9db7 b0bd 7525 8d3e df59 033e 2763 ca3e
00000070: 6290 a13d 9cf5 65bd b07c d33d 1ff5 6dbe
00000080: d14d a23e 7eea 6bbe fe37 bb3e dd92 87be
00000090: 30b3 3fbe 81e9 8c3e 1b2b 3c3d e7a4 53bd
000000a0: ddb3 fabe a0e5 343e c7be 0d3d 3e22 2a3c
000000b0: 377e 883d cf69 2f3e e439 bc3c 3d58 f9bd
000000c0: f10e 0cbe 4387 863e 5ea3 36be f714 013e
000000d0: 7ffd a23e 6e89 e1bc d1c0 c73b d2b5 843e
000000e0: 0beb c23e b0d0 f33c 0bf1 1f3e afeb a23e
000000f0: 51c2 07be a25f 82bd 2bdc 61be 9bbe 83bd
00000100: a81c 6fbe a3ce afbd b375 e43d 86b0 9f3c
00000110: ea0a 423d 8b9d 0b3d 3331 7e3c bd17 a83e
00000120: cf93 f23d 73ab 63be 5f19 933e 26f8 643d
00000130: 05b5 d6bd acfe 74bd 31e4 b03e f0da 82bd
00000140: f6bf 08bc 181a 6cbe 107f eabc a5dd 813e
00000150: 8395 623d 09c0 6abd f85e b0bd 5078 92bd
00000160: 0f6a d0bc f17a 663e 2527 73be f640 d6bd
00000170: 9ae2 823d b286 24be c2cd 5dbe 2839 87bd
00000180: 6694 f73a 5355 173e 53f1 87bd 30a9 8b3d
00000190: 10a4 b03c b50c cfbd 6a3f 7bbd bb85 55be
000001a0: 5d5c 8a3e 5f82 683e 601c 29bd a87c c5bd
000001b0: d56e 92bd 9bb9 973e 27bb cf3d 9934 8b3e
000001c0: 0516 2f3e 67a7 383d d431 4bbd 640a 003e
000001d0: 6bb9 20bd fd2c b93d 35f3 63be 884b 583e
000001e0: 1c6c 553e 311b bb3d 6dec dc3c 1cdd c03d
000001f0: d9f7 bd3d 57c4 8cbe 54b3 693e ac12 e3bc
00000200: 800a 773e c748 693d df42 85be af52 ccbd
00000210: 33e9 03be 2ebc 28be 2fa4 87be 96b2 6bbe
00000220: 20f6 dcbe 8849 a53e c2ec 433e 7684 83bd
00000230: 3034 043e 4b5a 603e 2795 9b3e e245 213d
00000240: bf9c 83bd dbdc 38be d997 973e e0af f4bd
00000250: 5557 fabc 7569 e7be 41c0 09be 6b7d 86bd
00000260: 18ba 5f3e 54b3 fdbc ab62 0ebe db78 cfbe
00000270: fe28 5c3e fdc4 56be b5d8 b13e 1e44 483d
00000280: d16e b33e 7c28 793e 7192 e43e 8201 57be
00000290: c91c 0bbe 062f c2be d616 c5be b433 d33d
000002a0: 8dd2 303e d737 87be ddaf 88bd 38cc 41bf
000002b0: 8cc6 4f3e dcf8 9e3e 8243 0e3e 7104 a13e
000002c0: 8674 a43b 94d6 51be ec52 3cbe 02d5 ef3d
000002d0: b439 85bc 0c06 0cbe 983c 0e3e 5f8c 76bd
000002e0: fe0e 33be 9a34 c5be e851 aabe d1da 08bf
000002f0: 0a96 26be 2a3a 7d3e d70f 12be 5623 68bd
00000300: 31ce 0ebe ab32 8c3e 5ab6 c73e bd18 fc3d
00000310: 8e60 83be 4b2a b1be aef7 93be d8b3 663e
00000320: 358c 073f f96c 85be 29e2 e73d 7414 12bf
00000330: 237a 963d 316e 9bbe c555 22bd ad53 2d3e
00000340: c5f5 2e3e 0ab3 20be 61ab 023e 7fe9 a1be
00000350: 86a3 b13d 8431 04be 7ff6 b43e 1b97 01be
00000360: 81ef 4dbe c5b6 92be 8f29 16bc 2dc5 013e
00000370: da02 bd3d 2943 91bd aace 183e 7d7d a6be
00000380: fb89 03be 1dbb 31be f78a 93bd 80f1 74be
00000390: 8ae2 2e3d a785 4e3e 57e8 653c 6fd9 5fbc
000003a0: d31f 84bd b89f a63d 00ae 8a3e 9d87 d63e
000003b0: a848 3fbd 42d6 e2bb e1cd a1be 47e1 4cbe
000003c0: dce6 343e 01f1 aa3d 1e06 1c3e cbf0 99bd
000003d0: 870a 5f3d 50aa 813e 5048 ad3b 49f2 73be
000003e0: 5137 c4be 94e2 c73e c4e0 71be 51e0 08be
000003f0: c23a 9abe 40a4 f83d ac7c 84be 58c0 953c
-0.07790738 -0.26948777 0.29519546 0.26269546 -0.2610706 0.1991142 -0.317866 0.1617562
0.10692315 0.06494976 -0.064995304 -0.24707784 -0.08868843 -0.30317494 -0.015699394 0.12097619
0.16735868 0.023819014 -0.2599594 -0.19750784 0.13994671 -0.062183533 0.1835515 0.25245377
-0.086287715 0.2756764 0.12827252 0.39528772 0.07888867 -0.056142434 0.10326517 -0.23238038
0.31699994 -0.2303867 0.36566156 -0.26479235 -0.18720698 0.275219 0.045939546 -0.051670935
-0.4896535 0.1766572 0.034605768 0.010384141 0.066646986 0.17130207 0.022976823 -0.12175033
-0.13677575 0.26275072 -0.17835757 0.12605654 0.31834027 -0.027531352 0.0060959836 0.25919968
0.3806995 0.029762596 0.15619294 0.31820437 -0.1325772 -0.06365897 -0.22056644 -0.064328395
-0.23350775 -0.08584335 0.11155262 0.019493353 0.04737369 0.03408579 0.01551466 0.3283061
0.118445985 -0.22233371 0.28730294 0.055900715 -0.104837455 -0.059813187 0.34549096 -0.06389415
-0.008346548 -0.23056829 -0.028625041 0.25364414 0.055318367 -0.057312045 -0.08611864 -0.07151854
-0.025441198 0.22507836 -0.23745401 -0.10461609 0.06390877 -0.16067007 -0.21660522 -0.066026986
0.0018888831 0.14778642 -0.06637826 0.06819379 0.021562606 -0.101098455 -0.061339773 -0.20851795
0.27023593 0.22705983 -0.041286826 -0.09642917 -0.07150046 0.29633793 0.10143118 0.27188566
0.17098244 0.045081522 -0.049608067 0.12503964 -0.03923933 0.09041784 -0.22260745 0.21122563
0.20842022 0.09136046 0.026968205 0.09417173 0.09275789 -0.27493545 0.22822315 -0.027718864
0.24125099 0.05695417 -0.2602758 -0.09976708 -0.12881927 -0.16478035 -0.2649245 -0.23017344
-0.43156528 0.32282662 0.19133285 -0.06421749 0.12910533 0.21909444 0.30387232 0.039373286
-0.06426381 -0.18053 0.29608038 -0.11947608 -0.030559221 -0.45197645 -0.13452245 -0.0656689
0.21848333 -0.0309693 -0.13904826 -0.40521893 0.21500012 -0.20973583 0.34735647 0.048893087
0.35045484 0.2433185 0.44642976 -0.20996669 -0.135852 -0.379265 -0.38493985 0.10312596
0.17267819 -0.2640979 -0.06674168 -0.7570224 0.20290583 0.3104924 0.1389294 0.314487
0.0050187735 -0.20492011 -0.18391007 0.1171055 -0.016262867 -0.13674182 0.13890302 -0.060192462
-0.17486188 -0.38516694 -0.33265615 -0.5345889 -0.16268173 0.24729219 -0.14263855 -0.056674324
-0.13945843 0.27382407 0.3900631 0.12309406 -0.25659603 -0.3460258 -0.28899902 0.22529542
0.52948314 -0.26059702 0.113224335 -0.5706246 0.073475145 -0.30357507 -0.039632577 0.16926451
0.17085941 -0.15693298 0.12760688 -0.31623456 0.08673768 -0.12909514 0.35344312 -0.12655298
-0.20110895 -0.28655067 -0.009165182 0.12672873 0.092290595 -0.07092888 0.14922586 -0.32517615
-0.12845604 -0.17356534 -0.0720424 -0.2392025 0.042696513 0.20168172 0.014032445 -0.01366268
-0.064513825 0.08135933 0.27085876 0.4190034 -0.04670015 -0.006922514 -0.31602386 -0.20007811
0.17666191 0.08346749 0.15236709 -0.07516631 0.0544534 0.2532525 0.0052881613 -0.23822893
-0.38323453 0.39040053 -0.23620898 -0.1336682 -0.30122954 0.12140703 -0.25876367 0.018280193

gnn_base.gnn.gnn1.lin_key.bias f4 [48]
00000000: f051 a7bd 0dc6 813d f10e f0bc 8df3 7cbe
00000010: 19d7 13be b64c 23be 054d 173e c8b6 ed3d
00000020: 58c2 143e 8dc5 1f3e 70ed ecbd de5d 303e
00000030: f74b 703e e901 9a3d 3797 383e 6df8 67bc
00000040: 8fd8 0d3e a2b7 7d3e 571d f7bd 4b20 5e3e
00000050: a371 03be 3358 093e b83b 8bbd 99e1 01be
00000060: 30b6 583e 0aaa 673e 8d74 08bd 3e1e 7dbe
00000070: 84bf 75be ba5d 063e 6cd6 6abe 7c02 c43b
00000080: 04e4 41be ec11 48bc d8ee c43c 59ed b1bd
00000090: ace6 9bbd 9fad 343e 1f41 34be 4a9b 0fbe
000000a0: 4809 2f3c d066 b63d 0718 213e 4d4f b53d
000000b0: e66b 92bd 7e56 013e 1591 fc3d 5e6f 443e
-0.08169925 0.06336603 -0.029304 -0.24702282 -0.14437522 -0.15947232 0.14775474 0.116071284
0.14527261 0.15602703 -0.11568725 0.17223307 0.23466478 0.075198956 0.18026434 -0.01415835
0.13852142 0.24777082 -0.12066143 0.21692006 -0.12836318 0.13412552 -0.067985 -0.12683715
0.21163249 0.22623459 -0.033314276 -0.24718568 -0.23998839 0.13121691 -0.22933358 0.0059817415
-0.18934637 -0.012211304 0.02403967 -0.086878486 -0.076123565 0.17644356 -0.17602967 -0.14024082
0.010683365 0.08906329 0.15731822 0.08853016 -0.07149486 0.1263065 0.1233236 0.19183108

gnn_base.gnn.gnn1.lin_query.weight f4 [48, 16]
00000000: 2c82 2abe eb28 6b3e a3c8 ccba 9b09 1a3f
00000010: e9b1 6fbd e2f9 be3e 1ae8 e4bd 811d 673e
00000020: 9c0d 4abe 4e49 633d d969 5a3c 7267 b2be
00000030: f38d 8ebe 91d3 2d3e ffdf 77bb 8ce8 0fbe
00000040: 962e 6b3d 466b 6bbd b273 5d3e 781c f03d
00000050: c93d 31be 6eb4 0fbf d7bb 053e c7f4 163e
00000060: 5b73 6b3e 80fe 453e f238 6e3c 9c06 54bd
00000070: b6d8 b73e 6ed1 b2be 255e 12be 3ddf 873e
00000080: 015e 5abd 56e6 a73c 1cfe d3bc 55d4 d7bd
00000090: e045 9fbd edf9 a73e 5c3d a63d 0887 2ebe
000000a0: 90a0 ad3d 6aff a3be b9ef 24bd de32 73be
000000b0: a531 993e 0207 91be 3efc e73e 3cf3 093f
000000c0: a610 413d 7cc5 353e 3094 6fbd f157 2bbe
000000d0: b7b8 7c3e 4ddd a7be 1303 5a3e 041b c5bc
000000e0: 396e e7bd 9c17 9d3e b45d 1d3e 294a 14bc
000000f0: 12ee c4bc fd41 e73d 222f 1e3c f41b 21be
00000100: 6eca 8a3d 4d79 563e 01b2 ae3d b4cb cc3e
00000110: b4b3 9b3d d2d3 0bbe 748a ad3e 33f7 80bb
00000120: 6bb3 5e3d 7eb8 133c 51a9 63be 468c 893e
00000130: c031 1a3e b50b 72be 019a 50be 22a4 02be
00000140: 0df1 15be edd7 33be ca74 9ebd ac0a 363e
00000150: c96a 753e 2f87 87bc a77d 48be d504 cb3d
00000160: 4c58 723d dcde 2fbd e075 803e cb4a 15bd
00000170: fd3e 47be 6b59 c83b 0fb6 a03d f4b7 93be
00000180: c368 163e 23a7 263c 6dcc e83c fadc a8be
00000190: e790 9fbd 3f5d 2a3e 17d7 38be d289 61be
000001a0: ad4f 9dbd 8e9c c33d 4e59 213e 4f05 0a3e
000001b0: 83b3 efbd 2949 4ebd 34b3 06be 0170 103d
000001c0: af4e 01bd 0e83 273d 9b7b 53be bccb 8b3e
000001d0: 555a 5bbd 186c 913d 06f7 853e 0ba9 cabd
000001e0: 746b 7abe bc72 833e a051 56bd ff80 82be
000001f0: 764a 353d 960d 1abe b4f7 d7bd c527 4cbe
00000200: c5c9 cc3d 0680 9b3d 6f46 e03d 827f c43d
00000210: 8687 9dbe a1cc f93d e699 c3bc 2eba 5dbe
00000220: 2739 573d 2db8 5b3e 31ac 813e 38e0 13bd
00000230: 7e9f f03e 47a0 983e e3a5 64be 5d8e bc3d
00000240: 0dbb bf3d 8063 24be 2c93 41be f2b4 123e
00000250: cf9a 003e a7d9 f93e 8827 e3be bfbd a83d
00000260: 7960 0e3e 8c2e 4bbe 0981 08bd 2a35 f63e
00000270: b731 19be 0c1f 7c3c 4287 70be 50db d03d
00000280: a9c8 ebbd e8b6 b1be d3ba d73d a078 0e3e
00000290: 9d5b c8bd c4dd 603f 81d5 9bbe f7af 2dbd
000002a0: 43f2 803e cfc0 073e 3735 4d3e 360e a83e
000002b0: f27d b8bd 7f71 63bc af60 f1be 596d b03e
000002c0: fa35 493e 930f e4be 25b7 c1bd 6f3b a23e
000002d0: e03f ecbc bd1d dc3d 5777 34be 78f7 1cbe
000002e0: ab66 ac3d 7545 09be 580b 83be a622 2a3c
000002f0: 5f29 06be 2411 683e f8ad 24be 1e58 bebe
00000300: 1f3b 933c 0233 09be 01e4 a4be f605 4d3e
00000310: 767c a33e 02a3 313f 7434 e0be fbea 013f
00000320: 37ef 0ebe c8c0 863e 4334 f73e 4042 0d3f
00000330: ed4f 08bf bb57 563e 734d 31bf 3c90 90be
00000340: c9d9 3ebe 5e62 f9bd 2bc4 003e b750 13be
00000350: f933 543e 1577 fcbd f768 05be 21bc 833e
00000360: d022 6d3e b2d9 aebe ac68 00bf 90c0 24be
00000370: 0676 ae3c 5083 d6be 60bf 6ebe bf4a 443e
00000380: 8521 f23d 0f35 fc3b 2525 0cbe 03b5 debd
00000390: 5d3c 1a3e 48a6 05bf 99e8 883e 68da 7dbe
000003a0: 218d 65be b77e 02be 78e7 22be ecb3 c3bd
000003b0: a399 fe3c 4a8b 10be f0b9 053d 3ef3 8e3e
000003c0: 23a1 32bd 3a7a c4bd 7296 ab3c 9249 a8be
000003d0: 6a25 3fbe 59fa 983e 2500 923e eef8 b7be
000003e0: 9003 423e d365 d33d 9c4d 423e 4340 a3be
000003f0: 2a45 8d3e b273 86be 10d4 003f fa9e 0abe
-0.16651219 0.22964828 -0.0015623759 0.60170907 -0.058519278 0.3730002 -0.11177082 0.22569849
-0.19731754 0.05548983 0.0133309 -0.34844548 -0.27842674 0.16975237 -0.003782272 -0.14053553
0.057417475 -0.05747535 0.21626166 0.1172418 -0.17308725 -0.5613469 0.13059936 0.14741813
0.22993223 0.19335365 0.014539944 -0.051764116 0.35907525 -0.34925407 -0.14293726 0.26537505
-0.053312305 0.020495575 -0.025878005 -0.10538546 -0.077769995 0.32807866 0.08117172 -0.17043698
0.084778905 -0.32030803 -0.04026768 -0.23749873 0.29920688 -0.2832566 0.45309633 0.5388677
0.047135018 0.17751116 -0.058490932 -0.16732766 0.24679838 -0.32786027 0.21290235 -0.024060734
-0.1130032 0.30682075 0.15367776 -0.009050884 -0.024039302 0.11291883 0.009654792 -0.1573332
0.06776892 0.2094471 0.08530045 0.39999163 0.07602635 -0.13655022 0.33894694 -0.0039357184
0.054370325 0.009016154 -0.22232558 0.26864833 0.1505804 -0.23637278 -0.20371248 -0.12757924
-0.14642735 -0.17562838 -0.077371195 0.17777508 0.23966517 -0.016543953 -0.19579183 0.09913031
0.059166238 -0.042937145 0.2508993 -0.03644828 -0.19457622 0.006114175 0.07847225 -0.28851283
0.14688401 0.010171684 0.02841779 -0.32981092 -0.0779131 0.16637133 -0.180508 -0.2202523
-0.076812126 0.09551345 0.15756723 0.13478588 -0.11704161 -0.05036274 -0.13154298 0.035263065
-0.03156918 0.040896468 -0.2065262 0.27303874 -0.053552944 0.07100695 0.26165026 -0.09895524
-0.24455053 0.25673473 -0.052323937 -0.2548904 0.044260465 -0.15044245 -0.105452925 -0.19937046
0.09999422 0.07592778 0.10950934 0.09594633 -0.3076746 0.12197233 -0.023877095 -0.21653053
0.05254474 0.21456976 0.25326684 -0.036102504 0.46996683 0.29809782 -0.22328906 0.09206841
0.09361849 -0.16053581 -0.18903798 0.14326838 0.12559055 0.48798868 -0.44366097 0.08239316
0.13903989 -0.19841975 -0.033326183 0.48087436 -0.14960371 0.0153882615 -0.23489097 0.101980805
-0.11512882 -0.3470986 0.10533681 0.13913202 -0.09783099 0.8783839 -0.30436328 -0.04240414
0.2518483 0.13257144 0.20039831 0.32823342 -0.09008397 -0.01388204 -0.47144076 0.34458426
0.19649497 -0.44543132 -0.0945876 0.3168597 -0.028839052 0.107478596 -0.1762365 -0.15328777
0.0841802 -0.13405402 -0.25594592 0.010384237 -0.1310172 0.22662789 -0.16081989 -0.37176603
0.017972527 -0.13398364 -0.32205203 0.20021805 0.31930894 0.69389355 -0.4379002 0.50749177
-0.1395844 0.26318955 0.4828206 0.55179214 -0.5324696 0.20931904 -0.69258803 -0.28235042
-0.18637766 -0.12176965 0.12574832 -0.14386259 0.20722951 -0.123274006 -0.13028322 0.25729468
0.23157811 -0.34150463 -0.50159717 -0.16089082 0.021296512 -0.41897058 -0.23315191 0.19169138
0.118227996 0.0076967548 -0.13686045 -0.10874369 0.1506209 -0.5220685 0.26739958 -0.24790347
-0.22417118 -0.1274365 -0.15908611 -0.09555802 0.03107912 -0.14115635 0.032648027 0.27919954
-0.043610703 -0.09593625 0.020945761 -0.3286863 -0.18666616 0.298785 0.28515735 -0.35932106
0.18946671 0.10322156 0.18974918 -0.31884965 0.2759183 -0.26260144 0.5032358 -0.13537207

gnn_base.gnn.gnn1.lin_query.bias f4 [48]
00000000: 789f 4bbc 6d10 903d 8e35 e83d 3bd4 e13d
00000010: e6e5 44be 5b11 de3d 84a7 543c 4355 6dbe
00000020: ae46 3f3e 81b3 72bc 690c a9be 3e2a 263e
00000030: f2c6 b7be 5ab9 2b3e e5de a23e 3805 163f
00000040: 6095 04be 1ea0 18be af01 8cbc a0fd 9d3d
00000050: b63e 903d 8fce 24bb 50e5 f9bd 00e4 bbbc
00000060: 3efb 29be d155 493e ab30 c0be 9046 3ebe
00000070: 20cd 4b3e de4c c73d a752 8dbe d5bd 643d
00000080: 3cf1 dfbe 2b78 633e 0423 c33e 1d11 02bf
00000090: 4f49 5a3c 0ccd 99be 7fed 883e 61f1 9cbd
000000a0: dd12 133e b375 5bbe b87f fd3d f4a0 003e
000000b0: 1f09 2bbe 8d0b 223d 5deb ee3e 3ed9 183e
-0.012428157 0.07034383 0.1133834 0.11026808 -0.19228324 0.10843154 0.012979392 -0.23177056
0.18679306 -0.014813305 -0.3301728 0.16227052 -0.3589397 0.16769925 0.3181068 0.58601713
-0.12947607 -0.1490483 -0.017090647 0.07714391 0.07043211 -0.0025147533 -0.12201941 -0.022935867
-0.16599748 0.19661643 -0.3753713 -0.18581605 0.19902468 0.09731458 -0.2760212 0.0558451
-0.43738735 0.22213809 0.38112652 -0.5080736 0.013323142 -0.3003925 0.26743695 -0.07663227
0.14362665 -0.21431617 0.12377876 0.12561399 -0.16702698 0.039561797 0.46663943 0.14926621

gnn_base.gnn.gnn1.lin_value.weight f4 [48, 16]
00000000: b656 e3bc 593f 5cbd 94e7 2abd 1fcb fabd
00000010: 729e a7be b8c2 323e 7041 623e 4c07 b03e
00000020: c1cf fabc 9538 153e 55ee ed3e ebf0 08be
00000030: ec3d d73e 2f1b 58be 9066 c3be c359 89bd
00000040: a5d3 88be 1af6 c7be cfde bb3e 654d a0be
00000050: d027 6abd 381e 5a3e b8c0 d3be 3dfd 063f
00000060: e2dc 8dbe 7687 263e efb5 273e f07c 95bd
00000070: f044 cd3e 6fc8 2d3d 7929 b6bb 60a3 023e
00000080: 821a 113d 973d 8d3e 03aa 1fbe 9361 7fbe
00000090: 22f1 b0bc 3b17 ffbe b367 fcbd 3181 38be
000000a0: 0f26 773d b725 843e 77b1 323d c9a9 993c
000000b0: 67ab eb3d 52e4 1e3b 6d8d 423e 49d2 a73e
000000c0: fb16 153e 8a3d 50be 695f a7be 1394 a73e
000000d0: 3594 a63e 6e61 ae3d 1418 a3bd 23d0 013d
000000e0: 527f d23e 82f5 b43d f474 84bc 74ec 173d
000000f0: 7857 b9bd cecb 1a3f c952 f1be 5676 42bd
00000100: ff9c a9bd 287c 113e e725 e33d 1b89 823e
00000110: 6148 d53e 16ae 93be 99ed cdbe 6555 fabd
00000120: f644 d6be 054c cfbd 3a5e ed3e f14c a23e
00000130: 50b9 74bc 8732 e93d 6fbe a33e 3152 543e
00000140: a3d9 03bf e994 e4be ff52 dfbe 7e28 8c3e
00000150: bf4b 92be 434c 043f c016 fbbd 5203 a83e
00000160: 0372 103e 0f7a 853e 307b cb3e e68a 8f3e
00000170: 22ff c3be aa21 86be 2f89 79bd fff3 653e
00000180: 0b6b 7bbe f8e6 18be 5c90 263e c64e ad3d
00000190: 50d7 c3be 3b85 9c3a f938 afbe 8618 97be
000001a0: dc30 ab3e 4b97 5abe ce5b 513d 31ad 403e
000001b0: 22bf 4bbd 503c 85bd 9b32 2e3e f1b4 ff3e
000001c0: 5364 243d 5301 9ebe c41e 9b3e c47f 11bd
000001d0: c0b7 34be 9bd0 7b3c 95c4 b13e 76a7 4d3d
000001e0: 499a 143e 717b 993e ea10 4dbe ea3e c4bd
000001f0: 1ba4 87bd 33ab 843d f0bf 59be d42b 5f3d
00000200: 08e4 eabd 26a9 383e c1bf a43d 87bd bcbd
00000210: 651a 973d 9141 c0be b4ae 49bd 4396 1f3e
00000220: 9bb7 81bd 2fa5 9fbe 3980 b7bd a966 d9bd
00000230: ac96 10be b378 063b a7a6 bc3e c1db 9d3d
00000240: 058f c0be 09ac 0dbf ea0d 71be ab7b 96be
00000250: 95a8 a0be 4997 8d3e 654f 283d f85e 3e3e
00000260: 7e83 57be d5d0 873e 6101 dbbe f2e6 5abe
00000270: 294f 473e 4f84 18bd 25aa d43d 2290 b53e
00000280: 1987 093e 59c7 4a3e 2340 433d aecc fbbd
00000290: b8d5 b53e ec73 1b3c 005b 00be b367 a43e
000002a0: cf0e 853e f1b7 d8bd 83ee d2bd ab08 8dbe
000002b0: 7e83 ba3e 6620 37be c9c6 4ebe bc5a 393e
000002c0: 5fcc 11bd 4706 9d3e 5dca 52bf 2b36 a53d
000002d0: 1f23 e53d 6ebb 1c3e 84ff 733d 5594 f93e
000002e0: 7786 ce3e eed5 1e3e 8c6a 4d3d 2bb8 033e
000002f0: c0cf 4dbe 4644 2f3f 01fa b33c 6c33 c1bc
00000300: a1fa af3d ece0 d83e c6a6 fabe 4459 e63d
00000310: 727f 3b3f 780d d43e 2d11 10be e086 b23e
00000320: 3dcb b63e 1036 e83e 55d3 72bd fee8 833e
00000330: 1891 423e 6f3d 073e 0f0e 25bf fcb3 963d
00000340: d08b 10be 3433 82be 485d b13e aaff a23e
00000350: c000 e33c c3d6 f23e 45d2 043e 4b69 59be
00000360: 9595 d0bd e74a 3cbe 23c3 6fbe 60c5 043c
00000370: 69ea ddbe cea8 433d cfc3 60be 6713 b23d
00000380: 59e8 d8be 314c 7fbe ca3c 50be caac 873e
00000390: a41f cf3d 1a33 c83e 3212 263f 1d75 08be
000003a0: c508 e33d 333f d63e 298f cebe 1a3c a53d
000003b0: 53ed 19bd 3f3b d83d 8636 ccbe 1435 ae3e
000003c0: dc5b 0bbe b945 293e b415 1abe aba0 5bbe
000003d0: 4e6c c33e 2923 65be dee4 253e 152a c8bd
000003e0: 64a8 963e 0192 9cbd e7bc 41be 311f 16be
000003f0: 770c cebe c13f 78bc 503a b2bc 9338 b6bc
-0.027751308 -0.05377135 -0.041724756 -0.122457735 -0.32738072 0.17457092 0.22095275 0.34380567
-0.030616643 0.14572366 0.46470895 -0.13373153 0.4203943 -0.2110412 -0.38164186 -0.06706574
-0.26723972 -0.39054948 0.36693427 -0.31309047 -0.057166874 0.2130059 -0.4135797 0.5273016
-0.27707583 0.16262612 0.16377996 -0.072992206 0.40091658 0.042427476 -0.005559143 0.12757635
0.03542567 0.27586052 -0.15592198 -0.24939565 -0.021599356 -0.4982241 -0.123244666 -0.18018033
0.06033903 0.25810024 0.043626275 0.018757718 0.11507302 0.0024244976 0.18999262 0.32777622
0.14559548 -0.20335975 -0.3268998 0.3273016 0.32534948 0.08514677 -0.07963577 0.031692635
0.41112763 0.088358894 -0.016169049 0.037090734 -0.090498865 0.6046723 -0.47133473 -0.047476135
-0.08281898 0.14207518 0.11091214 0.25495228 0.41656783 -0.28843755 -0.40220335 -0.12223319
-0.41849488 -0.101219214 0.46360952 0.31699327 -0.01493676 0.113865905 0.31981227 0.20734479
-0.5150396 -0.4464486 -0.43618008 0.27374643 -0.28573415 0.51678866 -0.122601986 0.32815033
0.14105992 0.26069686 0.39742422 0.2803566 -0.38280588 -0.2619756 -0.060921844 0.22456358
-0.24552552 -0.14931858 0.16266006 0.084622905 -0.38250208 0.0011941561 -0.34223154 -0.29510897
0.33435714 -0.21346776 0.051112942 0.18816067 -0.049742825 -0.06505644 0.17011492 0.49942735
0.04013474 -0.30860385 0.3029691 -0.035522237 -0.1764822 0.01536956 0.34720293 0.05020853
0.1451198 0.2997699 -0.20025983 -0.095823124 -0.066230975 0.06477966 -0.21264625 0.054485157
-0.11469275 0.18033275 0.08044387 -0.09215837 0.07378081 -0.37550023 -0.049238876 0.15584664
-0.06333848 -0.31180713 -0.089600034 -0.10615284 -0.14119977 0.002051872 0.36845896 0.0770793
-0.37609115 -0.5534063 -0.23540464 -0.29391226 -0.31378618 0.27654484 0.04109134 0.18590915
-0.21046254 0.26526514 -0.4277449 -0.21377161 0.19463791 -0.037235554 0.10384015 0.35461527
0.13430442 0.19802608 0.047668587 -0.12294899 0.35514617 0.009488087 -0.12534714 0.32110366
0.2598786 -0.10581959 -0.10299399 -0.27545676 0.36428446 -0.17883453 -0.20193018 0.18101019
-0.035595294 0.30668852 -0.8234003 0.08066972 0.111883394 0.15305874 0.05956985 0.4874598
0.40336964 0.15511295 0.05015044 0.12863223 -0.20098782 0.6846355 0.021969797 -0.02358409
0.085927255 0.42359102 -0.48955363 0.11247495 0.7324134 0.41416526 -0.14069052 0.34868526
0.35701934 0.45353746 -0.059283573 0.25763696 0.19000661 0.13207029 -0.64474577 0.07358548
-0.14115834 -0.2542969 0.3464148 0.3183568 0.027710319 0.47429475 0.12970836 -0.21231572
-0.101847805 -0.18387948 -0.23414283 0.0081036985 -0.43342903 0.047768407 -0.21949695 0.08695107
-0.42364767 -0.24931408 -0.20335689 0.26499015 0.10113457 0.39101487 0.64871514 -0.13325925
0.11085657 0.41845092 -0.40343598 0.08068104 -0.037579846 0.10558175 -0.39885348 0.3402487
-0.1360926 0.16530503 -0.15047342 -0.21448009 0.38168567 -0.22376694 0.16200587 -0.097736515
0.29425347 -0.076450355 -0.18919717 -0.14660336 -0.40243885 -0.015151919 -0.021756321 -0.022243774

gnn_base.gnn.gnn1.lin_value.bias f4 [48]
00000000: ce00 813e 0fb9 3fbd f8d9 afbd b1ad e03e
00000010: 6b33 053d 5597 813e 9ba2 cdbd 2006 88bd
00000020: 7217 d2be d876 7abe 4cee b2be 81e3 833e
00000030: 25b7 b0bd 4526 563e 5afa 2f3e 53dd 80be
00000040: 45dc 733d 1c54 893d b026 d1bc a420 c83e
00000050: 474a 513e f448 ef3d d399 0f3e 6175 dbbd
00000060: 8447 81be 5d6a 2f3e 79c9 0cbf 3243 97bd
00000070: afb1 20be ea18 373e 6b12 233e 0f18 d1be
00000080: 3e40 0cbe c72d 32be b9d0 41be 243b f63d
00000090: 86b4 953d 0194 993e 8653 eebd 315a adbd
000000a0: f5b7 9abe 5c1d 45be 345b cfbe 84f3 713e
000000b0: ec9a 64be e1f5 b23e a62b 6b3d fe5c 06bf
0.25195926 -0.046807345 -0.08586496 0.43882516 0.03251974 0.2531077 -0.1004078 -0.06641793
-0.41033512 -0.24459398 -0.3494743 0.2575951 -0.08628682 0.20913036 0.17185345 -0.25168857
0.059536237 0.06705496 -0.025531143 0.39087403 0.20438491 0.116838366 0.14023523 -0.107157476
-0.25249875 0.17130418 -0.5499492 -0.07385863 -0.15692781 0.17880598 0.15924995 -0.40838668
-0.13696381 -0.17400275 -0.18927278 0.12022999 0.07309823 0.2999573 -0.116370246 -0.08464468
-0.30218473 -0.19249481 -0.4049927 0.2362805 -0.22324723 0.34953216 0.057414673 -0.52485645

gnn_base.gnn.gnn1.lin_edge.weight f4 [48, 1]
00000000: 4c6a 323f d1f2 45be 10c4 8abf 9afd f33e
00000010: dcc4 123f 84f3 383f b406 4d3d fe0e c63e
00000020: 9c94 22bf 4b61 4ebe 8000 86be 3fb6 713f
00000030: cffb 6a3f 5eaf 893e bcc4 57be aef8 96bf
00000040: 8358 57bd b58d 3fbf 7af8 3cbf 576d 593f
00000050: d07d b43e 4d8a 1f3f 901b 35bf be8f 79be
00000060: 0f5c cebe 9afc 7a3e 6547 a93e add8 cf3e
00000070: 3acc d0be fdbd 0c3f c38d ddbd d615 dbbe
00000080: cbe0 3b3f 5685 95be 19b9 cabf 8ed6 9d3f
00000090: 27ca 873d 14a3 ac3e 9435 a1bf 3f12 3cbe
000000a0: d28d a7bf cf41 0e3f c22b b1bf aff7 81be
000000b0: 3d97 2a3f 14e2 8c3f 38d6 0ebd 373c 37bf
0.69693446 -0.19330908 -1.0841084 0.4765442 0.57331634 0.72246575 0.05005522 0.38683313
-0.6350801 -0.20154302 -0.26172256 0.9441871 0.9179048 0.26891607 -0.21071142 -1.1794641
-0.052574646 -0.748256 -0.73816645 0.84932464 0.35252237 0.62320405 -0.7074518 -0.2437124
-0.4030461 0.24510422 0.33062282 0.40594998 -0.40780813 0.549774 -0.108180545 -0.42790097
0.7338988 -0.2920329 -1.5837737 1.2331102 0.066303544 0.3371817 -1.2594476 -0.18366335
-1.3090155 0.55569166 -1.3841479 -0.2538428 0.6663702 1.1006494 -0.034872264 -0.71576256

gnn_base.gnn.gnn1.lin_skip.weight f4 [16, 16]
00000000: 6cd5 753e d6c3 38be c553 053e fe9b 983e
00000010: 9005 9ebe 6e3a 55bd c856 e3be fc08 c8bd
00000020: 328a ffbd afe4 203d 0f08 a73e 67be 6a3e
00000030: c343 debe ade4 ddbe 769f d8be 8350 5f3d
00000040: 876d 1a3f a67d a53e 1736 e63d c79f cdbe
00000050: 2ac1 873e 9599 913c 911e b7be daa0 f23e
00000060: 853b d6bc 0ab0 c13d 0811 9cbe d69f 12be
00000070: 3a2c b53d 2464 853e 5595 febd 3649 08be
00000080: cdc1 113e 3915 29bc d556 3c3e 7526 7bbe
00000090: 2e0a 77bd 90d2 9b3d 2ba8 05be 60a5 dbbd
000000a0: 31f1 a03c 71a0 03bd a82b 763e 6050 b8be
000000b0: fc58 97ba ec5c 5c3d 818a 8b3e f138 8abe
000000c0: b585 46be d075 15bf 0cf3 bb3e 079d 15be
000000d0: e206 673d e2f5 b53c 7e38 c73c d0ba 123e
000000e0: 8fc1 bf3d aef5 e53e 6987 06bf 127b cdbd
000000f0: 234d 963e 5497 c53c 832e c23d 0a9b bf3e
00000100: 6bad 4abd 2308 0e3e ce58 bf3d 461f dfbe
00000110: d946 fdbe 101b 61be b429 063f 0261 8a3e
00000120: 44db 57be 93db 96be cfa6 e3be 6447 9d3e
00000130: b642 b23d 4e8b 783e 8239 9bbe 2e96 eebd
00000140: 669e 9d3e 7586 f73b 1e7e 743e 12e7 b9be
00000150: 12b6 133e 6771 cd3c 964f 4ebe 2d06 6c3e
00000160: d168 12be 61fb e3bd cf46 bb3d c690 58be
00000170: b26b 633e 3f0b 31bd 1eb0 67be c98e 8ebe
00000180: 7ce7 9bbd ae3f 763e f06c 76be fed7 e2bd
00000190: 1d50 6d3e 9cf2 09bf 465d 7bbd 1f8f d4bd
000001a0: 27c5 8c3e a711 ecbd 8966 3b3e 1f88 383e
000001b0: cb01 06bf 5aad 81be 6bb2 2d3f efbd 9c3d
000001c0: df75 23bd 8527 87be 729e 883e 33c2 55be
000001d0: 2c25 f0bc 6d63 c1be ebe1 30be c456 9bbd
000001e0: c6f4 693e bcd0 71be 8668 37bd 4e19 5dbe
000001f0: 57a4 1f3f c8da 2d3e f866 1b3e ad76 083d
00000200: 1ec4 cd3e 3cf3 88bd 029f f83e 0986 a2bc
00000210: 4cc6 0fbe 221c f9bd 6d14 66be 338b 0bbd
00000220: 9e34 9dbe 345a adbd 11fe 8c3e 2285 70bd
00000230: d6de 943d 0f64 a6bd 2a1c ac3d 5d47 03be
00000240: 122a 59bd ac3a 823e f751 543e f5c6 e83c
00000250: 05dd 32be 0f55 f03e 6c76 773d 6e50 993e
00000260: 950b a83e 433c 5dbe b7fc a23e 0a92 98be
00000270: 9cd3 7abd fc38 033f d795 0d3e 9abb d8bd
00000280: d792 513d c15f 953e fb77 b9ba b528 0f3e
00000290: 7e77 8f3e 27ad 1c3c 80a6 1abf b7e6 3c3d
000002a0: fa82 3a3e f3f6 1bbf eff9 293e 77e0 bdbd
000002b0: 50fb 293c 9f85 afbe 38c2 2bbd 7de3 bd3e
000002c0: 5b75 58be 9f43 90bd 1e5c 0dbf 45a5 0abe
000002d0: a421 aa3e c840 9f3e 6ffb a13d 57b7 d93e
000002e0: a90c cc3e 4494 10bc 99df f43d 5f0f 47bd
000002f0: 1fee 003f 42d3 013e e7e8 16be ff14 3a3e
00000300: 9114 bd3e c1ee 453e 7230 85be 4a96 183d
00000310: cec2 5e3e b57d d73c 6e62 9dbd 3769 a1bd
00000320: 9981 a53e 8444 b03e 6eb9 fd3d bacb 493e
00000330: 1b73 55bf e964 c43e a17d 9ebd 3c80 31be
00000340: 31f6 a7bd 0a0e 303d 97d7 91be 9788 053e
00000350: 0510 3cbf d50f 31be 0528 5b3e 5458 c43d
00000360: b5e1 593e ccf8 073e 08bc a6bd 4340 71bd
00000370: 1d57 953e b2a2 8abe af83 6f3c 37bc da3e
00000380: e4ae 9c3e 9d95 363e ea89 e03e 32d3 b7be
00000390: 5b02 a73d 8281 a0be 4709 58be 00f0 8cbe
000003a0: f98c 64bd 46d4 813e d0f2 353e e30a c6be
000003b0: c8b4 23bf ae8c bd3e 8e0c da3d 99a7 9b3e
000003c0: f5c0 cd3e 50fd 073e e07b 333e bb55 15bb
000003d0: efcd 5c3e b89f bdbd 2903 0e3e 0f93 613c
000003e0: fb39 a2be 1bd1 43bd dd5c 9ebe deba f73d
000003f0: 25fc 89bd ecb8 90be e13f f23d 61be c7be
0.24007195 -0.18043455 0.13020237 0.29806513 -0.3086362 -0.052057676 -0.44402146 -0.09767339
-0.124775305 0.03928059 0.32623336 0.22924195 -0.43411073 -0.43338528 -0.4230916 0.05452014
0.60323375 0.32322425 0.112407856 -0.40160963 0.2651456 0.017773429 -0.35765508 0.47388345
-0.026151428 0.09457405 -0.30481744 -0.14318785 0.08846326 0.26052964 -0.124308266 -0.13309178
0.14234085 -0.010320001 0.18392499 -0.24526389 -0.060312442 0.07608521 -0.13052432 -0.10724902
0.019646259 -0.03213543 0.24040091 -0.3599882 -0.0011546905 0.053799555 0.27254108 -0.26996568
-0.19386943 -0.5838289 0.36708868 -0.14610682 0.05640305 0.022211973 0.02431893 0.14329076
0.0936309 0.44914 -0.5255037 -0.100332394 0.29355726 0.02412001 0.09481528 0.37422973
-0.04948179 0.13870291 0.0934311 -0.43578547 -0.49468115 -0.2198298 0.52407384 0.27027136
-0.21079737 -0.29464397 -0.44463202 0.3071853 0.0870413 0.2427189 -0.30317312 -0.11649738
0.3078491 0.0075538703 0.23876235 -0.36309105 0.14424923 0.025078489 -0.20147547 0.23049231
-0.14297797 -0.11131931 0.09144365 -0.21148977 0.22209051 -0.043223616 -0.22625777 -0.2784331
-0.076125115 0.2404773 -0.24064994 -0.110763535 0.23175092 -0.5388582 -0.06136825 -0.10378861
0.27494165 -0.115268044 0.18300833 0.18020676 -0.52346486 -0.2532757 0.6785037 0.076534145
-0.039907333 -0.26397339 0.26683384 -0.20874862 -0.0293146 -0.37771168 -0.17273681 -0.075849086
0.2284728 -0.23614782 -0.044777416 -0.21591684 0.6236014 0.1697799 0.15175998 0.033316303
0.40188688 -0.06687018 0.48558813 -0.019839304 -0.14040488 -0.12163569 -0.2246873 -0.034068298
-0.30704206 -0.084644705 0.27537587 -0.058720715 0.07269065 -0.081245534 0.08403809 -0.12820192
-0.053018637 0.25435388 0.20734392 0.028415183 -0.17467125 0.46939895 0.06041567 0.29944175
0.32821336 -0.2160502 0.3183343 -0.2979892 -0.061236963 0.51258826 0.1382669 -0.10582657
0.051165428 0.29174617 -0.0014150137 0.13980372 0.28020853 0.009562767 -0.6041031 0.046118464
0.18214026 -0.6092369 0.16599248 -0.09271329 0.010374859 -0.34281632 -0.04193327 0.37087622
-0.21138518 -0.07044148 -0.55218685 -0.13539608 0.3322879 0.31104112 0.07909285 0.4252269
0.3985341 -0.008824412 0.1195671 -0.048598643 0.50363344 0.12678245 -0.14737283 0.18172072
0.36929753 0.19329359 -0.26013523 0.0372527 0.21754 0.026305059 -0.076847896 -0.07881396
0.32325438 0.34427273 0.123888835 0.19706622 -0.8337876 0.38358238 -0.077388056 -0.17334074
-0.08201254 0.04298214 -0.28484794 0.13040386 -0.73461944 -0.17291196 0.21401985 0.0958716
0.21277507 0.13278502 -0.08141333 -0.058899175 0.29168025 -0.27077252 0.014618798 0.42721722
0.3060218 0.1783051 0.4385522 -0.35903317 0.08154746 -0.31348807 -0.21097289 -0.27526855
-0.055798505 0.25357264 0.17768407 -0.3868018 -0.63947725 0.37021393 0.10646926 0.30401304
0.40186277 0.13280225 0.17527723 -0.0022786695 0.21562932 -0.092589796 0.13868393 0.013767972
-0.3168486 -0.04780684 -0.30930224 0.12096189 -0.06737546 -0.28266084 0.1182859 -0.39012435

gnn_base.gnn.gnn1.lin_skip.bias f4 [16]
00000000: ce2e 803e dccf 293e 1667 7bbe 89be 003e
00000010: f0aa 013e 1eab 143e 6e41 0fbd 7269 e9bd
00000020: a212 8cbd 787d 5a3d 8bba 23be 92b2 583d
00000030: c9ac aa3e 03e8 263e 2438 863d f427 ae3c
0.2503571 0.16583198 -0.24551043 0.12572683 0.12662864 0.14518401 -0.034974508 -0.11397065
-0.068394914 0.053342313 -0.15989129 0.052904673 0.3333495 0.16299443 0.06553677 0.021259286

gnn_base.gnn.gnn2.0.lin_key.weight f4 [48, 16]
00000000: 340a c23d e84a 2abe dee3 b73e 0b05 42be
00000010: f9ff 9bbe 984d 823d 2fb4 70be e9a9 dabd
00000020: 40d5 f63e 9ccd 8cbd 4314 2d3d 31b2 e8bd
00000030: 7ce7 10be 3a38 0cbf a5c6 1b3e f5d2 9c3e
00000040: 38b3 04bf 453f cc3d 7a6a 78be 03b4 a6be
00000050: f66d 98bd 517a 8a3e a07a e83c 726d f63d
00000060: 1621 a6be c89c 203e bed1 b0be d5b2 5a3d
00000070: 0cb9 383e 80a7 ab3d 1452 663c 8cc7 d0bd
00000080: b595 c8be 7ce5 4cbe 20fb 893e 6326 8cbd
00000090: b535 0f3c f10e fc3d 0908 a8bd 9cbb 943d
000000a0: a81b 893e 7db2 42be d617 d63d ddf3 77be
000000b0: 6333 863e ad1d 823c 39a5 ab3e 3b94 573e
000000c0: 3540 703d f593 093e af3e 823e f9e6 3cbe
000000d0: f065 2c3d d561 0b3e 9c03 c33d b78d ea3e
000000e0: 138a 7a3d ea7d b23e 587c 553c de51 1cbe
000000f0: 5a22 88be b220 cfbe 1659 953e 481a 9c3e
00000100: 0d18 f43e 15e5 39bd b875 9bbe 5407 09bd
00000110: 860e bc3d 8172 15be 6fc0 8abe 0274 55bd
00000120: 92e4 f23d b03e 68bd 8c45 953e 5fb4 1e3e
00000130: 994b 8fbc f781 1b3e 5b0c 2abd 7e66 323e
00000140: 4a2b b9bd 8522 abbc 70e8 493e 9fa3 97bb
00000150: cd71 1fbd 748c d83d b36f 46bd 1f4b cdbe
00000160: 8d26 a83e 6524 3dbe ab79 a43e b1d0 a1be
00000170: 14f4 6fbe 8d16 43be 4ab4 94be efd8 7a3c
00000180: 1013 0ebe 06b3 72ba 3129 85be 4529 a03d
00000190: c310 233e 0431 2c3e de80 bdbd 23ff ea3d
000001a0: fa79 0f3e d2b6 a33e 6303 42bd 7469 4e3e
000001b0: 0d94 3cbe f30c c13d a8c9 e73e f3ea a2be
000001c0: dd2a 963e 658e cabe dfdd 64be da81 883e
000001d0: 084b 61bd 2ede 54bd 0393 48be b4af dfbe
000001e0: 2221 803e 0d3b f2be 962b a43d 4df1 013e
000001f0: b6eb 4fbe 5d35 c3bd b71c 09be 4062 29be
00000200: d545 0a3e ea04 053e 510d 593e 6de4 b23c
00000210: ada1 c8bd 7760 ccbd 029e 1d3e 593b 033f
00000220: 2238 16be bf2a 01be 57fa d83d 863b d83d
00000230: 526e 453e e2eb 2e3d 9d4a d63e 304b c43e
00000240: b83d 23b7 62d3 34be 3dcc 3cbd 8ab7 babd
00000250: b87e 6fbe 266f a0bc 514e 34be 23b8 f4be
00000260: 59f2 f23c b849 8bbe fc32 17bc 4f95 203e
00000270: d644 8e3d 814b a8be f2f4 383c 0ec3 04bd
00000280: 9571 b13e 9b26 e73e ff92 0f3f 23ad 8cbe
00000290: d9eb 19be f7f6 80be 83c9 4ebe 153a 0e3f
000002a0: 0c98 463e 77a3 be3e a24e 4abe 0839 b8be
000002b0: 3539 69be e78b 82bd 8c21 a63d 0d78 5d3e
000002c0: c469 373e 70bc 4ebe 417a 09bd a70a 7b3d
000002d0: 5f16 843e af86 3ebe 5893 6ebe 4d04 1e3e
000002e0: 3935 ac3e a7dd babe 9b06 e3bd bbc8 c03d
000002f0: 7ea3 cbbd 46b2 8fbe 5c2e 3b3e afeb c3bd
00000300: d5f3 9d3d 8981 a63d f22f c6be 2f10 533b
00000310: 15db 453e 9162 563d 4431 c33c 9882 5fbe
00000320: 1b89 48bd e66c 9cbe 15f2 d23e a765 363e
00000330: b772 51bd 8b88 903d 1640 f6be a291 5abc
00000340: 5663 06be ee36 69bd 499a 00be 0913 cc3d
00000350: d70b 8ebe f79c a8be eed7 cabe c285 0b3e
00000360: 2b5f 4c3e 8b80 9ebd cf01 d73e 4178 6bbd
00000370: 5b76 d13d c66f 4abd e580 efbd d471 1ebe
00000380: 0222 1abe 1552 a33e 7981 4bbe f35f a6be
00000390: 3d90 62be 9fae e73c dd98 8c3c 162a fc3d
000003a0: 5dc8 5dbe ddb3 5a3e 8c20 45be ed21 a5be
000003b0: 4cb3 fcbd 4452 cc3d d359 7a3e a662 05be
000003c0: c193 e73e 8026 48bd cd08 0d3f 209a 2d3e
000003d0: 50b7 ae3c a81d 7f3e c6d3 cfbe 537e fc3e
000003e0: 2fda a33e 4510 673e 108d e23d 3faf e53d
000003f0: 2fcb 60be c0bb 3bbe ef76 873a 1351 d23c
0.09474602 -0.16630137 0.35916036 -0.18947236 -0.3046873 0.06362456 -0.23506235 -0.10676939
0.48209572 -0.068751544 0.04225565 -0.11362112 -0.14150804 -0.54773295 0.15212496 0.30629697
-0.51835966 0.09973005 -0.24259368 -0.32559213 -0.074428484 0.27046445 0.028378785 0.12032594
-0.32447118 0.15684807 -0.3453502 0.053393204 0.1803934 0.083815575 0.014057655 -0.101943105
-0.39176717 -0.20009416 0.26949406 -0.06843259 0.008740832 0.12307537 -0.082046576 0.07262346
0.26778913 -0.190134 0.10453765 -0.2421412 0.2621108 0.015883291 0.33524492 0.21052639
0.058654983 0.13435347 0.2543845 -0.18447484 0.042089403 0.13611539 0.09522173 0.45811245
0.061166834 0.3486169 0.013030134 -0.15265605 -0.26588708 -0.40454632 0.2916953 0.304888
0.476746 -0.045384485 -0.3036325 -0.033454254 0.091824576 -0.14594461 -0.2709994 -0.052112587
0.118600026 -0.05670041 0.29154623 0.15498494 -0.017492102 0.15186296 -0.04151569 0.1742191
-0.0904146 -0.020890484 0.19717574 -0.0046276595 -0.03892689 0.10573664 -0.04844637 -0.40096375
0.32841912 -0.18470915 0.32124075 -0.3160453 -0.23432952 -0.19051571 -0.290438 0.01531051
-0.1387446 -0.0009258244 -0.2600799 0.078203715 0.15924363 0.16815573 -0.09253095 0.11474445
0.14011374 0.31975418 -0.04736651 0.20157415 -0.18415852 0.09426298 0.4527104 -0.31819877
0.29329577 -0.39561763 -0.22350262 0.2666157 -0.055003196 -0.0519697 -0.1958733 -0.43688738
0.25025278 -0.47310677 0.08016126 0.12689705 -0.2030476 -0.095316626 -0.1338986 -0.16541386
0.13503201 0.12990156 0.21196486 0.021837438 -0.09796462 -0.09979337 0.15392306 0.5126243
-0.1466985 -0.12613963 0.105946235 0.10558228 0.19280365 0.042705424 0.418538 0.38338614
-9.729927e-06 -0.17658761 -0.046093214 -0.091170385 -0.23388183 -0.01958425 -0.17608 -0.47796735
0.029656576 -0.2720468 -0.009228464 0.15681957 0.06946723 -0.32870105 0.011288868 -0.03241258
0.3465697 0.4514664 0.56083673 -0.27475843 -0.15031375 -0.2518842 -0.20194058 0.55557376
0.19393939 0.3723409 -0.19756559 -0.3598101 -0.22775729 -0.063743405 0.08111867 0.21627827
0.1791144 -0.2018907 -0.033563856 0.061289456 0.25798318 -0.18606065 -0.23298395 0.15431328
0.33634356 -0.36497232 -0.11085244 0.09413286 -0.09943293 -0.280657 0.18279403 -0.095664375
0.07712523 0.081301756 -0.38708454 0.003220569 0.19321854 0.052340094 0.023827203 -0.21827161
-0.04895888 -0.30551833 0.4120032 0.17812215 -0.05113479 0.070572935 -0.4809577 -0.013340386
-0.13123831 -0.05693715 -0.12558855 0.09964568 -0.27743408 -0.32932255 -0.39617866 0.13625243
0.19958179 -0.077393614 0.41993567 -0.05748773 0.10227653 -0.049423 -0.116945066 -0.1547311
-0.15052035 0.3189856 -0.19873609 -0.32495078 -0.22125335 0.028281508 0.017162735 0.12312715
-0.21658464 0.21357675 -0.19250697 -0.32252446 -0.12338886 0.099766284 0.24448328 -0.13025913
0.45229915 -0.04886484 0.55091554 0.16953325 0.021327645 0.24913657 -0.40591258 0.49315128
0.32002398 0.225648 0.11062062 0.11215066 -0.21952508 -0.1833334 0.0010335128 0.025673425

gnn_base.gnn.gnn2.0.lin_key.bias f4 [48]
00000000: 3d84 b13d 2332 f4bb 52ce 933d 7a9f 2e3e
00000010: 33bb 40be 9703 5a3e 1b93 253e 7142 f83d
00000020: 36ed b03c f29f 7b3e 39f9 8d3d c29e f3bc
00000030: e3ac 0bbd e3af 173e 1ecb 153d 2a8a 153e
00000040: ed40 0d3c fcfc 07bd f8a6 d5bc b0e5 edbd
00000050: 0c69 bdbd b36b 573e 7363 a6bc c3b0 6a3e
00000060: 5a6d c0bd 1274 85bd 8e61 733c 8415 423e
00000070: aeb5 f23d 8fa6 5d3c 7390 0ebe 124a 613d
00000080: fe91 983c 4230 3c3c 160e 0c3d dcfc ab3d
00000090: c751 103c afc1 b23c 015c 81bd debd e1bd
000000a0: 306a cd3c 3cee 213d a963 81bd c21f 8bbd
000000b0: 12b5 953c f01e 6ebd f7b5 133e 3afd 503e
0.086678006 -0.007452266 0.07217087 0.17053023 -0.18821411 0.21290432 0.16169398 0.12122048
0.021597486 0.24572733 0.06932301 -0.029738788 -0.034100424 0.14813189 0.03657066 0.14603487
0.008621437 -0.03320025 -0.026080593 -0.11616075 -0.09248552 0.21037178 -0.020311093 0.22918992
-0.09395857 -0.06516279 0.014854802 0.1895352 0.11851059 0.01352848 -0.1392229 0.05500228
0.018624302 0.011486115 0.03419312 0.083978385 0.00880856 0.021820871 -0.063163765 -0.110225424
0.025075048 0.03953384 -0.06317837 -0.06793167 0.018274818 -0.058134973 0.14424883 0.20409098
