model_weights/FA_FR/tube/actor.pt (torch, 202776 bytes, 58 tensors)

gnn_base.gnn.embed_layer.layer_norm.weight f4 [16]
00000000: 88be 843f 7199 593f e09e 783f c15b 993f
00000010: f43d 833f f2b6 963f f302 853f 5300 813f
00000020: 2c10 853f 2da6 7e3f 41b6 8f3f 9bd1 913f
00000030: 640b 7c3f c208 a43f 9176 973f 7502 803f
1.0370646 0.8499976 0.97117424 1.1981126 1.0253282 1.177458 1.0391525 1.0078224
1.039556 0.99472314 1.1227494 1.1392092 0.9845488 1.2815173 1.1833059 1.000075

gnn_base.gnn.embed_layer.layer_norm.bias f4 [16]
00000000: 8550 d4bd 3e00 d03d 6966 30bb 67e6 f0bd
00000010: 5f3a 09bc 000e 48bc c105 8a3d 5f2e 353d
00000020: 0365 953d 1a21 2f3d 035e 0c3d 06c9 103d
00000030: 0f66 473d d28c 683c 2a7e 28bd 313a b7bd
-0.103669204 0.10156296 -0.002691651 -0.11762696 -0.008375733 -0.012210369 0.06739379 0.044233676
0.07294657 0.042756177 0.034269344 0.03534796 0.048681315 0.01419373 -0.041135944 -0.08946646

gnn_base.gnn.embed_layer.entity_embed.weight f4 [4, 2]
00000000: 8636 be3f 03bc 3abe cb83 0fc0 7bff 0d3f
00000010: dac0 84bf bfe0 99bf 7a83 ce3e e588 563f
1.4860389 -0.18235783 -2.242419 0.5546796 -1.0371354 -1.2021712 0.40334684 0.83802634

gnn_base.gnn.embed_layer.lin1.weight f4 [16, 10]
00000000: 5721 ec3e d43d 10bf 6aa7 bcbe 7253 003e
00000010: f9fa 203e 68c8 5d3d f345 143e d96d cebd
00000020: 2d06 32bf 96c9 61bd 904c eb3d 3dcb 14bf
00000030: dc4e 003d 36d1 d7bd 21dd 193f ea06 1bbf
00000040: ae70 d2be 23b7 853e da61 5a3e e3d7 0fbf
00000050: 621c 463e 0c3a c53e 89f4 423f 4edb b2be
00000060: b80a d2bd bad1 5c3e 750e 3a3e f690 f5be
00000070: 8986 afbe 4289 613d 6406 5dbf a9a5 233d
00000080: 62d6 313d c64b dc3d 30ba 14bf 9a03 bfbe
00000090: ec0e 2ebe c5c7 77bd 72f8 7abe 8e6c 453d
000000a0: e9f9 cebe 76fe 7b3e 9b85 1dbf 73dc 2abf
000000b0: 91da 8d3e c47c fe3b 06c7 d73d 2e25 f5be
000000c0: 3e8b 413e fb11 2dbe dd4f 9f3e 6899 b43e
000000d0: 9203 d33d 30a5 6c3e ddcb ed3e 531a 5e3e
000000e0: 8f24 1fbf 8bd9 0e3f 4f66 1cbf 9a4a b63e
000000f0: b9ff 153f ffd4 d93e 424c 243e 3636 19be
00000100: fc4f 85bd 3e12 8fbe 36ab 4bbf 9707 13bf
00000110: d2e7 693d 3fe5 d9be 3a36 a1bd a39e 3c3d
00000120: 4eb9 da3e 43ed 913e ed9d 893f 0f53 2bbe
00000130: 447d e53e d4d9 b8be 1141 063e 5a5b 653e
00000140: 289f 1a3f 3050 443e 5351 913e 5ab5 f2be
00000150: 75d4 ab3d 2276 89bf 939f c03d 7ab5 15bd
00000160: 51db d3bd bdf7 2e3d b340 d7bd e1c6 2bbf
00000170: 29f2 e13e b193 b6bd e5f9 6b3d e34f dabe
00000180: 7f4b 243e 003b 10bc 26a1 9d3e 4029 a0bc
00000190: 70aa 83bd 1dd4 d23e a7c4 1abf f47e f73e
000001a0: fdf7 dcbe 5d31 383d 14cb efbe cecc 19be
000001b0: 5b0a 043f fbab 703f 75b4 063e 0cb5 d3be
000001c0: ee37 2fbf f12d afbe d714 27bf f71e 26bf
000001d0: 5c4e 7a3e 7862 423e ba18 7dbd 458c dd3e
000001e0: 5c5e 0abd c412 d93d dd1a e9be 7bb1 6ebf
000001f0: 463b 35be 3847 e3bd 5fde 7ebc 50ce a73e
00000200: b6f5 3c3e 585e 383e cfde 323f a3af 923e
00000210: cc67 893f e25d 543d 995d 033f 28d1 983d
00000220: 324c b03d 7c77 483f 5441 9b3e f260 d7be
00000230: 4d59 a53e 7d83 4e3f 12f8 fcbd 5388 3f3f
00000240: 0616 ff3e d432 ddbc ae00 3b3e d5f5 453c
00000250: b983 8ebe 21d7 91be 30c5 3cbf d296 1c3f
00000260: da23 fabd afcf 3bbd 4987 6dbe f79a 6a3e
00000270: f1fa 0e3f 10d2 0e3e 1949 86bd 124c 69be
0.46119186 -0.5634434 -0.36846477 0.12531832 0.15720738 0.0541462 0.14479809 -0.100795455
-0.69540673 -0.055123888 0.114892125 -0.58122617 0.031325206 -0.10537951 0.6010304 -0.60557425
-0.41101593 0.26116285 0.2132639 -0.5618879 0.19346765 0.3852085 0.7615438 -0.3493294
-0.10255951 0.2156438 0.18169577 -0.4796216 -0.3428233 0.05506254 -0.86337876 0.039952908
0.043417342 0.1075664 -0.580966 -0.37307435 -0.1699788 -0.06049325 -0.24508837 0.04819923
-0.4042504 0.24608788 -0.6153199 -0.6674263 0.27705815 0.007766338 0.105360076 -0.47879928
0.18900773 -0.1690139 0.31115618 0.3527329 0.10303415 0.23109889 0.46444598 0.2168973
-0.6216516 0.55800694 -0.6109361 0.3560379 0.58593327 0.42545316 0.16044715 -0.14962086
-0.065093964 -0.27943605 -0.7955812 -0.57433456 0.057105847 -0.42557713 -0.07871671 0.046049725
0.427195 0.2850133 1.075132 -0.16730903 0.44822133 -0.3610369 0.13110758 0.22398129
0.60399103 0.19171214 0.28382358 -0.47403985 0.08390132 -1.0739176 0.09405436 -0.036550023
-0.10344566 0.04271673 -0.10510387 -0.6710034 0.44130066 -0.08914889 0.057611365 -0.42639074
0.16044424 -0.008803129 0.3078701 -0.01955092 -0.06428993 0.41177455 -0.6045632 0.48339045
-0.4315795 0.04496895 -0.46834624 -0.15019533 0.515783 0.9401242 0.13154776 -0.41349065
-0.68444717 -0.34214738 -0.65266174 -0.64891 0.24443954 0.18982875 -0.06179116 0.4327108
-0.033781394 0.105992824 -0.45528308 -0.93239564 -0.17698392 -0.11097568 -0.015555947 0.3277459
0.18453106 0.1800474 0.6987123 0.28649625 1.0734801 0.051847346 0.51314694 0.074617684
0.08608283 0.7830732 0.3032328 -0.4206615 0.32294694 0.80669385 -0.12352003 0.7481739
0.4982149 -0.027001776 0.18261978 0.012082537 -0.2783487 -0.28484443 -0.73738384 0.61167634
-0.122138694 -0.04585236 -0.23196138 0.22910677 0.55851656 0.1394732 -0.06556911 -0.22782925

gnn_base.gnn.embed_layer.lin1.bias f4 [16]
00000000: cfb9 b2bd 3138 f8bd 4a3b 07bd 02af 14bd
00000010: dbed 733a ef76 07be 7a2b 9bbd b0d4 a13d
00000020: 01aa 87bd a589 25bc 93bf 63bd 22df a0bd
00000030: b04d b43d b046 fbbc 9bb2 833d be52 c4bd
-0.087268464 -0.12120093 -0.033015527 -0.036299713 0.00093051576 -0.13228963 -0.07576652 0.07901895
-0.066242225 -0.010103618 -0.05560262 -0.07855059 0.0880388 -0.030673355 0.06430551 -0.09586094

gnn_base.gnn.embed_layer.layers.0.weight f4 [16, 16]
00000000: 97e9 8fbe 9a99 aabe 173e b6be 1779 86bb
00000010: 636d 1f3f 0e5e b43c d1af 153f a74b 12be
00000020: b5f7 a0be 0fe8 743a 3d66 bcbe 40b9 063f
00000030: 6a75 6abd 6449 40bf c39f 10bf e9a5 f43b
00000040: 533b 9d3d ea82 3abe 3769 a63e 16e3 883c
00000050: 5d89 cc3e 6f12 003f 24ff 4c3f 0a9e 633e
00000060: af18 e5bd 95d4 4b3f 123c d7bd ccec 8abe
00000070: ed74 073f c1b2 203f f6c9 82be 99ce 9e3e
00000080: 2ee1 a7be 4ca9 7c3f 2bee f8be 8b54 393e
00000090: eca1 53be 43a0 353f dc20 8e3e f5c7 85bd
000000a0: 1b5b c63e ca40 9e3d 5c40 bc3e c306 33be
000000b0: 2faa e4be 8594 3b3d bd7b 7c3e 252c eabd
000000c0: 8a81 c53e 6316 513e 02c6 b3be 9d72 5fbf
000000d0: 4909 123e 0ea0 b43e 7b38 0cbf ea84 ac3e
000000e0: 9fd7 963d a2c5 8b3e 4c51 9abe 312f 92bc
000000f0: bac3 3cbf 0df4 c33d 75da 0d3f aef0 21be
00000100: d8a7 bb3e a5c3 ac3e 20cb a2be ce46 52be
00000110: 4c82 5fbe bc27 f8be 9f01 1dbe fd20 c8be
00000120: dfdb 4fbf f9e6 ec3d 4391 04bf ceb0 56bd
00000130: f3d4 493f 915e 0e3e 11de 9f3e 24f1 0a3f
00000140: 470a 7c3e 9b6e 923e 0d12 183f 55b9 55bf
00000150: 4085 fdbe cf2b be3d 4f56 87bc 7c8b 92bb
00000160: 1e3c 0b3e 5c3c 353d 9f68 08be 789b 943e
00000170: f0a6 e93d 7e01 47be fbe9 17bf fa1b 2c3e
00000180: 005e 803e 9467 f6ba 22f4 78be a683 083f
00000190: c699 eebe cd86 b0be cb60 93bd 2ed9 e73e
000001a0: 6f2c 5abf 931b ab3d aecf 103f ac0b 46bc
000001b0: 34a9 adbe a737 143d 9531 c7be 4d6a e63e
000001c0: 206f 0f3d ecb8 823e 008f a73e a0df b1bd
000001d0: 79f8 dcbe aa95 6fbd 72e0 ce3e 5da9 e5be
000001e0: c86e 0ebf d571 56bd dc55 2ebf 8d7a 0abf
000001f0: 7eec c9be 4566 0f3f 89a5 343e bac1 13bf
00000200: 7fcd 2cbf 1cd0 673e 9506 8f3e 0a99 87be
00000210: 51a9 8fbe f86d 453f 43c6 883d d03c f13e
00000220: f711 babe 18a5 bfbe 6e47 ccbd 9ce2 d0be
00000230: 4ae5 333e f104 86bd ea6c 033f 66c2 973e
00000240: b6a6 7c3d 95d9 003e c5f6 173f b670 69bd
00000250: 5f52 f53e 6bff 10bd 7de6 e7bd da2b fabe
00000260: 0d20 25be 3530 bc3e fc41 b03e 31b2 ffbe
00000270: 29e9 51bd 3a39 18bf 6b1a 373e 6e61 a23e
00000280: c40c ef3d c34e fdbd ce5d 10be 0a99 9d3e
00000290: f0aa a73e 3367 2c3e 3222 09be 60be 5cbf
000002a0: 5e06 dfbd c0bf efbe 26cb dd3d 85c3 153f
000002b0: 5d1e 16bd 5db3 953e 7c02 9c3d a1ea 393f
000002c0: 63bd 0dbf d3af acbe 8718 17be 69b8 4dbe
000002d0: f873 8a3e 38b0 b63e 533f 52bf 8ca9 a3bd
000002e0: 7154 38bf 2248 2e3e 45e5 3d3f e7f2 82be
000002f0: ac1d 893e 2969 2e3e a8c1 15bf 6920 cdbe
00000300: de66 e2be a7e2 3cbf 68a8 1abf 3f15 463d
00000310: f9d9 61bf 162a 7cbd a034 a4bd 4913 06bf
00000320: 0f18 063f afb1 a53e 7b7e b3bd 28da b33d
00000330: 930a cdbc 2fa9 22bf 46d0 933e 550a d63e
00000340: c68a 7ebe 7324 943d 6945 42be 3bb4 2ebe
00000350: 690f 8c3e 3360 d7be f103 b73c 0daa 7e3e
00000360: eef8 453e 8d36 aebe 86e8 50be 295c 7cbf
00000370: fb9c a6be 5fde 993e a651 f0be dd87 163f
00000380: fd5a 43be 854d 263d 9ab7 033e 90a3 253f
00000390: c4da 0f3e 9811 533e 0506 a3be 0b9e 153b
000003a0: 71a1 70bd 0db6 403f 0ca6 35bf fbeb be3c
000003b0: 687c 1bbe 732d 333e 058a 3fbf b6eb e2bd
000003c0: e5d2 623f 7015 5ebd 2376 3fbe 39fa 7a3e
000003d0: 6646 45be 1fbf 283f 2499 b93d 46e1 073e
000003e0: 4d66 aa3d 5eb8 07be b646 7ebe 0280 01bf
000003f0: 61dd 2ebd f383 f8bd 9abc e5be febe b0be
-0.28107902 -0.33320314 -0.35594246 -0.0041037905 0.62276286 0.022017505 0.584714 -0.14286672
-0.31438985 0.0009342441 -0.36796752 0.5262642 -0.05724088 -0.75111985 -0.5649378 0.007466067
0.07677331 -0.18214002 0.32502148 0.016709846 0.3994855 0.5002813 0.80076814 0.22228256
-0.11186349 0.7962125 -0.105095044 -0.27133787 0.5291279 0.62772757 -0.2554471 0.31016997
-0.32788986 0.98695827 -0.48619208 0.18098657 -0.20667237 0.70947665 0.27759445 -0.065322794
0.38741383 0.07727201 0.36767852 -0.17483048 -0.4466109 0.045795936 0.24656577 -0.11434201
0.38575393 0.20418696 -0.35112005 -0.8728426 0.14261355 0.35278362 -0.5477368 0.33695155
0.07365345 0.2729922 -0.3014015 -0.017844768 -0.73736155 0.09568033 0.55411464 -0.15814468
0.36651492 0.33743015 -0.31795597 -0.20534822 -0.21827048 -0.48467815 -0.1533265 -0.39087668
-0.8119487 0.11567492 -0.5178415 -0.052414708 0.7884056 0.13903262 0.3122411 0.542742
0.24613295 0.2860001 0.59402543 -0.8348592 -0.49515724 0.092856996 -0.016520647 -0.0044721942
0.13597152 0.044247016 -0.1332116 0.29024863 0.11408794 -0.19434163 -0.593414 0.16807547
0.25071716 -0.0018799179 -0.2431188 0.5332588 -0.46601695 -0.34477845 -0.07196196 0.45282882
-0.8522405 0.08354869 0.56566894 -0.012087744 -0.33918154 0.036185887 -0.38905016 0.45002976
0.035018086 0.2553171 0.32726288 -0.08685231 -0.4315832 -0.05849234 0.40405613 -0.44855776
-0.5563779 -0.052354652 -0.6809976 -0.5409325 -0.39438242 0.56015426 0.17641272 -0.5771748
-0.6750106 0.22637981 0.2793471 -0.26483947 -0.28058866 0.77120924 0.066784404 0.4711671
-0.3634183 -0.37430644 -0.09974562 -0.4079789 0.17567936 -0.06543911 0.51338065 0.29640502
0.061682425 0.12583001 0.59360915 -0.056992255 0.47914407 -0.035399836 -0.11323259 -0.4886158
-0.16125508 0.3675553 0.34425342 -0.49940637 -0.05124775 -0.5946232 0.17881171 0.31714958
0.11672357 -0.12368538 -0.14098284 0.30780822 0.32747602 0.16836242 -0.1339195 -0.8622799
-0.10889886 -0.4682598 0.10829763 0.58501464 -0.03665005 0.29238406 0.07617661 0.7262364
-0.55367106 -0.33727893 -0.1475545 -0.20089878 0.27041602 0.3568132 -0.82127875 -0.07991323
-0.7200385 0.17019704 0.7417796 -0.25575945 0.2678045 0.17032303 -0.5849862 -0.4006379
-0.44219106 -0.73783344 -0.6041322 0.048360106 -0.88223225 -0.061563574 -0.0801785 -0.52373177
0.5238046 0.32362124 -0.087643586 0.087818444 -0.025029456 -0.63539404 0.28869838 0.41804758
-0.24857625 0.07233515 -0.1897179 -0.1706094 0.27355507 -0.42065582 0.022340747 0.24869557
0.1933324 -0.34025994 -0.204012 -0.98578125 -0.32541642 0.30052468 -0.46937293 0.5880106
-0.19077678 0.040601272 0.12863007 0.647027 0.14048296 0.2061218 -0.3184053 0.0022829797
-0.058747713 0.7527779 -0.7095649 0.023305884 -0.15184176 0.17497806 -0.74819976 -0.110801145
0.8860305 -0.054219663 -0.1869741 0.24509515 -0.19265136 0.6591663 0.090624124 0.13269529
0.083202936 -0.13253924 -0.24831662 -0.5058595 -0.042691592 -0.12134542 -0.44870454 -0.34520715

gnn_base.gnn.embed_layer.layers.0.bias f4 [16]
00000000: 9ba6 0b3e 647e a5bd d2d3 3fbd fcc5 4c3d
00000010: 4a69 ce3d bb0a f23c 58bb 74bc e808 b4bc
00000020: 1735 a5bd 95af bdbc 8b05 a0bd 6e7e 773d
00000030: f96a ce3d 72aa 2d3c 213b 92bd c7a8 86bd
0.13637774 -0.08080748 -0.046832867 0.0499935 0.10078676 0.029546132 -0.014937244 -0.021976903
-0.08066767 -0.023155013 -0.07813557 0.060423307 0.10078997 0.010599719 -0.07140184 -0.065751605

gnn_base.gnn.embed_layer.layers.2.weight f4 [16]
00000000: 88be 843f 7199 593f e09e 783f c15b 993f
00000010: f43d 833f f2b6 963f f302 853f 5300 813f
00000020: 2c10 853f 2da6 7e3f 41b6 8f3f 9bd1 913f
00000030: 640b 7c3f c208 a43f 9176 973f 7502 803f
1.0370646 0.8499976 0.97117424 1.1981126 1.0253282 1.177458 1.0391525 1.0078224
1.039556 0.99472314 1.1227494 1.1392092 0.9845488 1.2815173 1.1833059 1.000075

gnn_base.gnn.embed_layer.layers.2.bias f4 [16]
00000000: 8550 d4bd 3e00 d03d 6966 30bb 67e6 f0bd
00000010: 5f3a 09bc 000e 48bc c105 8a3d 5f2e 353d
00000020: 0365 953d 1a21 2f3d 035e 0c3d 06c9 103d
00000030: 0f66 473d d28c 683c 2a7e 28bd 313a b7bd
-0.103669204 0.10156296 -0.002691651 -0.11762696 -0.008375733 -0.012210369 0.06739379 0.044233676
0.07294657 0.042756177 0.034269344 0.03534796 0.048681315 0.01419373 -0.041135944 -0.08946646

gnn_base.gnn.gnn1.lin_key.weight f4 [48, 16]
00000000: 570b 0abe 9cb5 8b3c b848 71be 2398 adbe
00000010: 3c6d c23d 2739 183e 9dc2 e6bd 4d5f 91be
00000020: 64ad b03e 37c5 353e 0e64 bdbd 6f9e 9c3c
00000030: ca03 b4be da27 243d 0c1a d2bd 4f5d 013f
00000040: 6228 a8be 48e6 343e 1efd 4b3d 497a 853d
00000050: f83c b0bd 7d68 a3bd 42fe ec3e 8913 cebd
00000060: 9522 073e 9ca5 773e b6cf ebbe 43f6 8ebb
00000070: c8c4 173d 45cb 983d 25d8 243e fc9d 4d3e
00000080: e4d2 cbbd ae9c 4ebe 893f 8ebd 748d 09bb
00000090: 4f07 523e c39d 9abe ffce 9b3e 28f6 493d
000000a0: ea49 403e 2ab2 773d ae11 48bd 6190 acbe
000000b0: a5ce 0e3e 5267 34be 8c79 83be e42d 983e
000000c0: 4bd6 ae3d 5082 7bbe 69a9 ccbe 9b56 5abe
000000d0: 741e 8d3d 848e e8bd 34b9 fcbd 5b59 8fbe
000000e0: ad40 6c3e c9d8 3cbc 4905 b43b e75e c33d
000000f0: c8fe d1be 3df6 603e 7d19 163e da86 973e
00000100: a0db 963d c54a cfbe bd4b 7bbe fb5b ebbd
00000110: 8b61 cbbe 6b9f 713e 09cd 49be 0faf 84be
00000120: 7495 dc3e 5880 a23e 084f 16be 3867 81be
00000130: c816 cdbe c1bb 7ebd 8fdb 253e 568b 9d3e
00000140: 4656 f73d 8d63 c53d 0bdf a53e 4f89 9d3d
00000150: 5d21 cdbe fb55 bfbe b874 ab3e 6883 2b3d
00000160: 71f6 023e 338c 853e 611b e43d 69d7 f03d
00000170: 13f1 033e 768a 173d d165 8b3e 5ab3 7ebe
00000180: 29e9 3bbe d872 423d 2804 743e e21c fcbd
00000190: f7e0 a73d 8908 31bf 5bef f43e 049b ae3d
000001a0: c655 c43b 8242 a03e 2ee8 6fbe 5b87 303e
000001b0: ed66 183e 3860 b93b 887a bd3d 33ee 05be
000001c0: 7885 c4bd 29d1 2b3e 3070 393e f666 f73d
000001d0: 2116 713e ba84 f0bd b39d d5bd 6cef 80bc
000001e0: e4ca 4f3d 6c55 88be b601 153d 3272 04bd
000001f0: 768b 1abe 5d2d bfbe 1ce1 15ba 43f7 ab3d
00000200: 8394 31bd db05 c4be 7ea1 a9be f35d 7abe
00000210: 5f08 73be bdaa af3e 293a 12be f809 0f3d
00000220: 19b4 4abe eb13 28be 1a03 b3bc 7745 d3be
00000230: 904f 893b e4ac fc3e 15a7 783e 8510 943d
00000240: 7c4e 123e 3fd6 053c 2930 6cbe 2f9c 4d3e
00000250: 68c6 243e 521b 0b3e 5950 e0be 9b12 513e
00000260: 79fa 24be ea57 ba3d 27cd edbc 9c34 c5be
00000270: 103d 3abe ef75 543e e706 81be 2a76 e23e
00000280: 223d 1d3e 5ef3 d8bd 88e2 7bbe 8622 b0bc
00000290: e5bd 2dbe 8352 793e f9a2 213c 823b 64bd
000002a0: 32b0 04bb daf2 b7be 112d 6b3d e566 c8be
000002b0: 9a72 23bd fcf0 6b3e 3044 19be 739b 2e3e
000002c0: 570c aebd 5428 773d 67d5 f1bd 20da 22bd
000002d0: 9c2e b7be 4df2 42be e96e b23e 0b8e 2f3e
000002e0: ffb2 07be 0502 f93e 2e04 cabe 6947 003e
000002f0: 4898 d2bc 976f 7b3d 70cf d4bb 8077 05be
00000300: b05f a8be e96e e4be abc4 8cbe 8494 ba3d
00000310: 8e10 113d d30f 953e 22bd 8fbe 9621 243e
00000320: f8e1 583a a63e 003e f096 d7be 66d8 8dbc
00000330: 5c5e 52be a3a3 a33e 3ba5 903e 786a f53e
00000340: 8677 d3bd a0d3 82be d55a 713c bebe 2a3e
00000350: cc80 903e 9f8b 3c3e 1884 8abe 3a4c df3a
00000360: d4b2 1b3e a1aa 0cbd b58e b63e 292a 52be
00000370: f902 383e 6ae2 9ebe 329b 983e 7823 aa3e
00000380: 2f64 213d c82a cd3e 24bb e8bb 8f11 2e3e
00000390: 94ce ea3c 8b1c fcbe 4d87 123e ca6d 5fbd
000003a0: 609d d4bc b1a8 133e d13c b1bc ba12 073e
000003b0: e95a 07be 246a 083e ac89 b23e 06a4 1dbe
000003c0: 523c 713e d59a 6abd 1e56 9bbe 7468 edbc
000003d0: 621b e33d 1dee ae3e e220 14be 7d33 63be
000003e0: a032 9dbc fe2a 053e 9ad8 b6bd 83e9 a0be
000003f0: 61a7 113e 9e70 2e3e b400 12be 299b c53e
-0.13480888 0.017054372 -0.23562896 -0.33905134 0.09493491 0.14865552 -0.11267588 -0.2839302
0.34507287 0.17751013 -0.092475995 0.019118516 -0.3515914 0.040077068 -0.10258874 0.50533
-0.3284331 0.1766597 0.04980194 0.06517465 -0.08605379 -0.07978914 0.46287733 -0.1006232
0.13196786 0.24184269 -0.46056908 -0.004362853 0.0370529 0.074606456 0.16098078 0.20079798
-0.099523336 -0.20176956 -0.06945712 -0.0020988854 0.205106 -0.30198488 0.30431363 0.04930702
0.18778196 0.060472645 -0.048844986 -0.33703902 0.13946016 -0.17617539 -0.2567867 0.29722512
0.08536967 -0.24561429 -0.39973 -0.213221 0.06890574 -0.11355308 -0.12340012 -0.2799786
0.23071547 -0.011526295 0.005493794 0.095395856 -0.41014695 0.21968932 0.1465816 0.2959507
0.07366109 -0.40486732 -0.2454061 -0.11492153 -0.39722857 0.2359597 -0.19707121 -0.2591481
0.43082774 0.31738544 -0.14678586 -0.25274062 -0.40056443 -0.062190775 0.16197036 0.30770367
0.12077002 0.096381284 0.3239673 0.07692205 -0.40064517 -0.37370285 0.33487487 0.041873366
0.12789322 0.26083526 0.111380346 0.11759836 0.12884931 0.03699728 0.27226117 -0.24873105
-0.18350662 0.047472805 0.2382971 -0.123101965 0.081972055 -0.6915365 0.47838864 0.08525661
0.0059916703 0.3130074 -0.23428413 0.17239134 0.14883013 0.005657222 0.092518866 -0.13079147
-0.0959577 0.16779007 0.18109202 0.12080185 0.23543598 -0.117440656 -0.10430469 -0.015739165
0.0507306 -0.26627672 0.036378585 -0.032335468 -0.15092263 -0.37339297 -0.0005717443 0.08396771
-0.043354522 -0.38285717 -0.3313102 -0.24449901 -0.23733662 0.3430995 -0.14279999 0.034921616
-0.19795264 -0.16413848 -0.021852065 -0.41263935 0.004190393 0.49350655 0.24282487 0.07229713
0.14287752 0.008168756 -0.23065247 0.2007911 0.16091311 0.1358464 -0.438113 0.20417254
-0.16111173 0.090987995 -0.029028488 -0.385167 -0.18187356 0.20748113 -0.2520058 0.44230777
0.15355352 -0.105932936 -0.24598134 -0.021500837 -0.1696697 0.24347882 0.009865516 -0.055720814
-0.0020246622 -0.3592747 0.057416026 -0.39141002 -0.039904214 0.23041147 -0.14967418 0.17051487
-0.084984474 0.060341194 -0.118082814 -0.0397588 -0.35777748 -0.19037743 0.34850243 0.17144029
-0.13251875 0.48634353 -0.39456314 0.12527241 -0.025707379 0.061385717 -0.006494455 -0.13033867
-0.32885504 -0.44615868 -0.27493796 0.09110358 0.03541618 0.29113635 -0.28073984 0.16028437
0.0008273418 0.12523898 -0.42107344 -0.0173151 -0.20543808 0.31960782 0.2825106 0.47932792
-0.10325532 -0.25552082 0.014731129 0.16674325 0.28223264 0.18412636 -0.27053905 0.0017036267
0.15204936 -0.034342412 0.35655752 -0.20523895 0.17969884 -0.31032115 0.29805905 0.33230186
0.039402183 0.40071702 -0.007102387 0.16998886 0.028662957 -0.49240527 0.14309426 -0.054548062
-0.025953948 0.1441982 -0.021635445 0.13190737 -0.13218273 0.1332174 0.3487066 -0.15394601
0.23558167 -0.057276566 -0.3033914 -0.028980471 0.11089207 0.3416604 -0.14465669 -0.2218761
-0.019189179 0.13004681 -0.08928032 -0.31428155 0.14224006 0.17035148 -0.1425808 0.3859494

gnn_base.gnn.gnn1.lin_key.bias f4 [48]
00000000: ef2e 443e 0af1 4a3e e1f8 8cbd 4bfa 14be
00000010: 8305 e3bd d156 2fbe c729 85bd aa18 67be
00000020: 317c 093e d728 71be 16a3 1ebe e4c6 2b3e
00000030: 8223 40be cb78 753d 9e49 3f3e b900 7b3e
00000040: a800 013e bea8 8abd 4791 123e 0908 0abc
00000050: cfe4 9fbd a24b b5b9 1c61 663d 3c0d 2c3e
00000060: 2020 d83d 550c f43d 24f7 143d b3ec 4bbc
00000070: d0e3 d33d 86ca 743d 726f 74be 70b0 2c3d
00000080: 9b56 e5bd 6a23 07be 9ab3 c53d e738 523d
00000090: 801e 303d 07d4 f1bd b975 ec3d 2057 703e
000000a0: 4972 fb3c 971e d43d 49cc 61be 3512 183e
000000b0: c4b8 b13d 88d8 e83d ecad d53d 8223 84bd
0.19158529 0.19818512 -0.068834074 -0.14548604 -0.11085036 -0.17122962 -0.06502109 -0.22568002
0.13426282 -0.23550735 -0.154919 0.1677509 -0.18763545 0.05992965 0.18680426 0.24511994
0.12597907 -0.06770466 0.14313231 -0.008424767 -0.07807314 -0.0003457936 0.056244954 0.16801924
0.10553002 0.11916415 0.036368504 -0.01244657 0.10346186 0.059763454 -0.23870638 0.04216045
-0.11198159 -0.13197103 0.09653397 0.051323798 0.042997837 -0.11808019 0.11545891 0.23470736
0.030694144 0.10357397 -0.22050585 0.14850695 0.08677819 0.11369425 0.104335636 -0.06452085

gnn_base.gnn.gnn1.lin_query.weight f4 [48, 16]
00000000: a296 58be 1ee4 973e 14ab 873e fd9a 63be
00000010: 11e3 dc3c 873c d83e 2e41 a2be 2d7f ccbd
00000020: 4546 4c3d 0297 27be a743 473e 9caf 51be
00000030: fdae c73c ebf0 6bbd 5801 183d c960 073f
00000040: e3e6 94bc 3f44 253d 47c1 0c3e a94d bbbe
00000050: 2b74 70bd 4283 c23d 4a96 81be f766 e13d
00000060: 8ff6 5e3e 591f ddbe 3ce5 413d a682 b93c
00000070: d0d6 833d 161d adbd b806 e43e 8193 953c
00000080: ce46 963d 0580 113e 34a5 893c 2b81 66be
00000090: 5b9f d83d e60d 023d ab21 413c 6819 8c3d
000000a0: d0e5 063e 0290 f7be fec1 553e 3c44 373d
000000b0: bbf6 5e3e 2682 9e3e 6eda a43e 75b0 443e
000000c0: 1ebd 52be 7b79 08be e25f 913e b5e0 9e3d
000000d0: 88c0 54be 9760 913e 1aec a43c b4fa c73d
000000e0: e035 973c e248 06be 2b42 5e3e 627e 873e
000000f0: ba04 1c3e e23c edbc c7f2 2cbe 5efd af3e
00000100: a0f5 ccbe 208d 8d3d 4061 78be a307 d0bd
00000110: b5ed b5be b459 c33e 9bdc 38be 2ea1 95bc
00000120: 370a 473c 7735 09be ae31 f6bd ec85 97be
00000130: b988 babd becc 74be c3f9 41bc ff07 e23e
00000140: b3e5 2bbe 8821 e83e e2c4 2d3e 02f3 c5be
00000150: ab0a 903e 050b c0be 6361 bf3e 5a60 a93e
00000160: 55c2 4d3e a2eb 1abe 4c93 7d3d ecdd 0c3e
00000170: 9327 e8be be6f afbe 4e1e d73d 9efb b4bc
00000180: 1374 4fbc c9ed f33e da38 e33e 84d6 08bf
00000190: ec14 12be a4b9 92be ea40 633d e5d2 9f3e
000001a0: f273 243d ef1c e6be 7938 a4bd 9458 383e
000001b0: 98c0 223e 7865 80be da23 b53e d9f7 713b
000001c0: a20e 2e3e 6615 b3be 5271 353e 45ba 8b3c
000001d0: 72b7 903e d0b4 49be 2289 0fbe 968d 86be
000001e0: 7b31 8abe 106b 18be 7e30 2d3e 3278 2b3e
000001f0: 8c3e 8fbe b074 d53d e8cb 833e 5330 0fbe
00000200: 3c01 b0be b403 a7bd 4bb8 5d3d a97b e63e
00000210: fefa 48be c104 bf3d 7dff 25be 1198 a2be
00000220: 1432 dd3d f699 a9bd 026f 7dbe ca33 bfbd
00000230: c29f 773e 55ec 263d f990 9ebe 6f0d 753e
00000240: 1b58 6d3c 106d 0c3e fc41 68bd 7ea3 cb3e
00000250: c79d f9bd ace8 433d 56b8 d7be 9ff9 86bd
00000260: c903 97be b4d3 ac3d fdd1 7a3e 5f71 e6bc
00000270: 10b9 f13e 7c17 7b3d 2601 09be 3a90 943e
00000280: b2c7 74bd 1db1 4bbd 6968 3bbe 14b4 b13e
00000290: 2127 8ebe 986e 273e 4e3f 533e 071d 173b
000002a0: e1c2 773e b59e 583e 57d9 89bd 22e0 53be
000002b0: 32d9 033e 4e52 493e cb39 12be 6b33 393e
000002c0: 2f82 993d a783 a43e e704 f43e 8016 39be
000002d0: 8ce3 8ebd 09a2 74bd 8c38 73be b79b bf3d
000002e0: 840e c43e 991e 0e3e 4a70 a1bb 99e8 5b3d
000002f0: 662a 87be 6ae8 b3be dc17 4c3e 07d2 afbd
00000300: 97e9 8abe 01b6 2ebd d8db 383b c78e 153e
00000310: 19fb bcbe cf54 0c3f aa94 fdbe cd2a b6bd
00000320: 07ca ecbd d4d0 42be 974e dabd 7f30 25be
00000330: b63d 843e 46ba ebbe 96f2 45bc be79 453c
00000340: e476 823e d16c b0be f319 8abe 44d5 403e
00000350: 6d72 b33e 6ba2 453b 94b3 103d dc18 7abc
00000360: 5516 33be 8845 8cbe b88a 873b 4bae a9be
00000370: 7b51 66be 9c70 763d 108d 943c 9842 513e
00000380: c76e 3b3d b32e 7d3e 32df af3e fcc7 6bbc
00000390: da6a 133e 5670 ddbe c0ba f43d bc1a cf3d
000003a0: d60a 393e 8a1f 6fbe cb18 3ebd 0a8e 4d3e
000003b0: 7d6e d43d 2de1 1cbf eb59 bc3d 31ff 853e
000003c0: d52c a5be 1f22 d93d 840a 49be b470 953d
000003d0: f23f 81be 07de 8a3e 57da 90be bec6 25be
000003e0: e8a4 9cbb cc86 f63b 59d9 47bc ffcb 83be
000003f0: 026a 3e3e 41bc 4a3e 9837 49be d87f 213d
-0.21151212 0.29666227 0.2649771 -0.22227092 0.026963742 0.4223368 -0.31690353 -0.09985194
0.0498717 -0.16366199 0.19459401 -0.20477146 0.024375433 -0.057602804 0.037110656 0.5288206
-0.018176502 0.040348288 0.13745604 -0.36582687 -0.058704536 0.09497692 -0.25309974 0.11005967
0.21773742 -0.4318798 0.047337756 0.022645306 0.064374566 -0.08452813 0.44536376 0.018258812
0.07337724 0.14208992 0.016802408 -0.22510211 0.1057727 0.031751536 0.011787812 0.06840783
0.13173604 -0.48352057 0.20874783 0.044742808 0.21773808 0.3095867 0.321979 0.19207938
-0.20579955 -0.13327591 0.28393465 0.07757703 -0.2077657 0.28394005 0.020132113 0.09764615
0.018458307 -0.1311374 0.21704929 0.2646361 0.15236178 -0.028959695 -0.16889487 0.3437299
-0.40031147 0.06911683 -0.24255848 -0.101577066 -0.3553292 0.38154376 -0.18052904 -0.018265333
0.0121484315 -0.13399301 -0.120211944 -0.29594362 -0.09108109 -0.23906228 -0.011839333 0.44146726
-0.16786842 0.45338082 0.16969636 -0.38661963 0.2813314 -0.37508407 0.37378988 0.33081323
0.20093663 -0.1512895 0.06190805 0.13756531 -0.45342693 -0.3426494 0.10503827 -0.022092637
-0.012661952 0.47642353 0.44379312 -0.53452325 -0.14265794 -0.28657258 0.05548183 0.31215587
0.040149637 -0.4494395 -0.08018584 0.1800254 0.15893781 -0.25077415 0.35378915 0.003692141
0.1699777 -0.34977263 0.1771901 0.017056594 0.28264958 -0.1969788 -0.14017156 -0.26279896
-0.26990876 -0.14884591 0.1691303 0.1674507 -0.27977407 0.10422647 0.25741506 -0.13983278
-0.34375942 -0.08155003 0.054130834 0.4501622 -0.19626996 0.093270786 -0.16210742 -0.31756642
0.10800567 -0.08281319 -0.24749377 -0.0933605 0.24182037 0.040752728 -0.3096998 0.23930906
0.014486338 0.13713479 -0.056703553 0.39773172 -0.12188297 0.047829315 -0.42132825 -0.0659058
-0.29495075 0.08438817 0.24494167 -0.028130231 0.47211504 0.061301693 -0.13379344 0.29016286
-0.059760757 -0.049729455 -0.18301548 0.347077 -0.27764228 0.16350782 0.20629618 0.0023058073
0.24195434 0.21154292 -0.067309074 -0.20690969 0.12875822 0.19660303 -0.14279859 0.1808602
0.07495534 0.32131693 0.4765999 -0.1807499 -0.06976995 -0.05972484 -0.2375204 0.09355872
0.38292325 0.1387886 -0.004926716 0.05368862 -0.26399535 -0.35138255 0.19930977 -0.085849814
-0.2713134 -0.04265404 0.002820721 0.14605246 -0.36910322 0.5481691 -0.49527484 -0.08894882
-0.11561971 -0.19024974 -0.10659521 -0.16131781 0.25828332 -0.46040553 -0.012081763 0.012052951
0.2548133 -0.3445802 -0.26972923 0.18831354 0.35048237 0.0030156623 0.03532751 -0.015264716
-0.17488988 -0.27396798 0.0041364096 -0.33140787 -0.2249202 0.060165986 0.01813367 0.2043556
0.045759942 0.24724846 0.34349972 -0.014390942 0.1439623 -0.43249768 0.11949682 0.10112521
0.1807054 -0.23351875 -0.046410363 0.20073715 0.103726365 -0.6128109 0.09196838 0.26171258
-0.32260767 0.10602211 -0.19632918 0.07296887 -0.252441 0.27122518 -0.2829158 -0.16189095
-0.0047804005 0.0075233933 -0.012197816 -0.25741574 0.18595126 0.19798376 -0.19650114 0.039428562

gnn_base.gnn.gnn1.lin_query.bias f4 [48]
00000000: 586c 1b3c e762 a2be d67b d63d a79c 093e
00000010: 85ec 12be 36fe a4bd 4c93 0bbc db43 213d
00000020: a38c d03d 911f c1bd da13 563d 2153 bdbd
00000030: 5889 693e f467 5cbd e14b b3be 446b cabc
00000040: 9b5c 68be 9f65 e83d 1ed1 9cbe 0ebd 2cbe
00000050: 89bb 33be 6d44 a73d 39e4 cbbb 6f85 91be
00000060: 934c 7bbe 6a0e b0bd 0768 1cbe 3d93 333e
00000070: 5017 183e 6ca4 01be 0eb5 ec3e b986 893e
00000080: c30e 73bb 552a 80bd ac7f 44bd d264 e0bd
00000090: fb45 aabd 4353 733e 8b03 96bc a16d f4bd
000000a0: cb72 2abe 845e bb3b d043 d83d b544 a3ba
000000b0: b967 8f3d 0587 843d 9136 c63c df84 a03e
0.00948628 -0.31716082 0.104728386 0.13438664 -0.14348038 -0.080562994 -0.008519005 0.039371353
0.10183074 -0.09429849 0.052265026 -0.09244371 0.22806299 -0.053810075 -0.3501883 -0.024709351
-0.22691576 0.11347508 -0.30628294 -0.16868994 -0.17552008 0.08167348 -0.0062222746 -0.28422114
-0.2454093 -0.08596499 -0.15274058 0.17536636 0.14852643 -0.12660378 0.46231884 0.26860598
-0.0037087656 -0.06258074 -0.04797332 -0.1095673 -0.08314129 0.2376223 -0.018312236 -0.119349726
-0.16645353 0.0057180542 0.10559809 -0.0012456389 0.070022054 0.064710654 0.024195941 0.31351373

gnn_base.gnn.gnn1.lin_value.weight f4 [48, 16]
00000000: 3ad4 663d ebae 3e3e f862 90be 1ef1 a7be
00000010: 0b66 653d 0db0 44bd 0fd9 ba3e 4903 09be
00000020: ce59 edbd 7520 83be 7672 873e a4c5 a5bd
00000030: aa6e 023e affb ef3d 788a 063f 6b8d 9b3e
00000040: 06f8 f5be 2adc eebd e019 833d b746 b13c
00000050: a8d9 4d3e 2e86 79bd aef1 a0bd f3c9 f7bc
00000060: 5d19 0fbe 0372 013e 6968 6f3e 583c 2ebe
00000070: d107 5c3d a158 663d 8c9e 5b3e 7b8f dabd
00000080: 67c7 7fbe 82fc 933d 022f cfbd e35c c1be
00000090: e2f2 9c3c 941e 9b3e 4847 953e 1990 133e
000000a0: 3307 c9be 3f08 253e e555 693e 2105 eb3d
000000b0: f6f3 8d3d 406b 063d b8f8 11be 8ee6 30bd
000000c0: 6371 913c b570 66bb 4955 70be 765c 0c3d
000000d0: 31ee 2a3e e94e 53be d351 973e 8940 babe
000000e0: e794 4f3e d597 703e 709f d63d c6e7 dfbc
000000f0: 70e6 d3bd 9e20 01be 71c7 35be 97e4 60be
00000100: a745 193e c0df d13d 1a6c d73d 0865 743d
00000110: c15c 8bbe 21b0 e1be 79a5 263e 1012 843e
00000120: e4a6 b4be 6f56 e13e bca6 ae3d 532b be3c
00000130: fdd6 94be d6f7 183d 3b87 923e 3ff0 ba3e
00000140: c874 fe3d 1ccd 17be 4b68 8a3e 4ab1 37be
00000150: 454f 2c3d 87dd d73d cf89 60bd 3d60 28be
00000160: 6c94 6fbc 3a29 913e 07de 02bd 7b95 d93e
00000170: 94e7 38be 7f9d 29be 03c4 843e 04c9 c73d
00000180: 1584 a53e 7b98 173e 6ee8 35be 35cd a3be
00000190: b12e 07bf 3954 793d 6445 80be 7445 43be
000001a0: 78e4 74be 179e f83e 3d59 e63d e643 1d3d
000001b0: 8fc3 b9be 99f2 013f a79e c23d 1e54 d13d
000001c0: cdd7 debe e587 5fbe ae39 853e c787 edbd
000001d0: 9e98 79bd c70c 90bd 888d 333e 78e1 8fbe
000001e0: d19d 93bd 9af4 c6bd 5539 25be f917 a73d
000001f0: 3966 3cbe e719 483e 2114 5d3e 0c03 e9bd
00000200: dff7 20bd 89bb 3b3e 815c 6d3e c295 623e
00000210: 66bc ef3d 0138 59be 493e b53c 114f d43d
00000220: e491 aebe aabc 5e3d f119 47be 6ce2 d53e
00000230: 8556 683e 120c 07be 13b6 5d3c 8dca 843c
00000240: e27a 91be 802d 07bd 549d 063e 5c98 be3d
00000250: 3d62 513e 0656 443e 673e 813d 3f51 8dbe
00000260: 8fc9 423c f6ae bbbe 1593 643d e6e3 003e
00000270: 0faa 8b3e 988f 8fbe bc98 dc3d 6490 28be
00000280: f6c8 243d 4ab9 9bbe 7d59 42bd 3f1e f7bd
00000290: 8436 093e 20d5 01be e9a2 203d 059a c43a
000002a0: c3e5 a6be bdbf 4d3e ad1b 083e 90ec babe
000002b0: a0c7 5bbe eaa2 ac3e 3f19 853e 4afb 8ebc
000002c0: 520f bbbd 4d0d 49be f27c 35be 7ccb 5a3e
000002d0: 80e4 863d 072e 3abe ee41 b7be ed40 563e
000002e0: e4be a43e 0302 83bd 6520 57be 0e79 713d
000002f0: be13 3ebd 690e c8bd a453 783e 8562 343e
00000300: 9ac6 20be 616a 7c3e 38be 403e 6ecf f43c
00000310: 725d 993d f96c bc3c a32b b73e 12c5 9fbe
00000320: bfdd 25bd e54b 243c 3ed1 2d3e fa33 4cbe
00000330: e87c dbbd 6f2a eabe c4b4 e53d 2286 3f3e
00000340: 83dc 263e 434c ba3d 3d5b 6cbe 5cf9 39be
00000350: 0eff f53c bc18 8abe d558 db3e b29c debc
00000360: 403a 253f 7649 98bd 2346 ae3d 6994 acbd
00000370: 81be 6fbe 7064 db3e 706e 46bd 4a29 2bbe
00000380: 6479 c1bc b2e2 373d 63fa 77be eb75 593e
00000390: 18d3 21be 4608 1c3d 0280 83be 2098 4d3e
000003a0: 3c19 90bd b0ea 8c3d 3d82 a83e 20b3 65be
000003b0: 0f0c a63c 96ff 90be f5cb bbbe 82ef c0bd
000003c0: eb34 e5bc db7a 8c3e 3a38 8abe 50f2 99b9
000003d0: 41dc 4f3e d414 313e e234 883e 1320 0bbe
000003e0: 3bf1 88bd 4d5c 263d 4ffe fdbe 4791 573e
000003f0: 87fe 6dbe 9dda 1e3d ef2a 83bd 82c2 fdbd
0.05635474 0.18621413 -0.28200507 -0.32801145 0.05600552 -0.048019458 0.36493728 -0.1338016
-0.115893945 -0.256107 0.26454514 -0.080943376 0.12737527 0.11717927 0.52555037 0.3038133
-0.4804079 -0.11663087 0.0640142 0.021640165 0.2010256 -0.06091898 -0.07858597 -0.030247664
-0.13974519 0.12641148 0.23379673 -0.17015207 0.05371839 0.056236867 0.214472 -0.10671898
-0.2497841 0.072258964 -0.10116388 -0.3776618 0.019158784 0.30296767 0.29155946 0.14410438
-0.39263305 0.16116427 0.22786672 0.11475588 0.069312975 0.032817125 -0.14255035 -0.043188624
0.017754262 -0.0035162393 -0.23470034 0.034267865 0.16692425 -0.2063557 0.29554614 -0.3637736
0.20271645 0.2349542 0.10479629 -0.027332198 -0.10346687 -0.12610099 -0.17751862 -0.219622
0.14967977 0.10247755 0.105186656 0.059666663 -0.27219203 -0.44079688 0.1627406 0.2579503
-0.35283577 0.44011256 0.08527896 0.023214018 -0.29070273 0.03734573 0.28618798 0.36511418
0.12424618 -0.14824337 0.27032694 -0.17938724 0.042067785 0.105403 -0.054818925 -0.16442962
-0.014622789 0.28351766 -0.031950023 0.42496857 -0.1805709 -0.16563986 0.25930795 0.097551376
0.32327333 0.1480426 -0.17764446 -0.31992498 -0.5280562 0.060871337 -0.2505294 -0.19069463
-0.23915279 0.48558113 0.112474896 0.03839483 -0.36282012 0.507608 0.09502917 0.10221122
-0.43524018 -0.21829183 0.2602057 -0.11598163 -0.060936563 -0.07033687 0.17534459 -0.28101707
-0.072078355 -0.09714623 -0.16135152 0.08158869 -0.1839837 0.19541131 0.2158971 -0.11377534
-0.03929889 0.18333258 0.23179819 0.2212744 0.11705856 -0.2121277 0.022124426 0.10366643
-0.3409568 0.054379143 -0.1944349 0.4177431 0.22689255 -0.13188198 0.013532179 0.016209865
-0.28414065 -0.033002377 0.13145953 0.09306404 0.20447631 0.1917344 0.063107304 -0.27601048
0.011888876 -0.36656922 0.05580433 0.12586936 0.27278182 -0.2803924 0.10771319 -0.1646133
0.040230714 -0.30414802 -0.047448624 -0.12066316 0.13399702 -0.12678957 0.039217863 0.0014999515
-0.3259717 0.20092674 0.13291807 -0.36508608 -0.2146287 0.33718044 0.25995824 -0.017453808
-0.091337815 -0.1963398 -0.17723444 0.21366686 0.06586552 -0.1818162 -0.35792488 0.20923205
0.32176888 -0.06396868 -0.21008451 0.058953337 -0.046405546 -0.097683735 0.24250656 0.17615707
-0.1570076 0.24649955 0.18822563 0.029884066 0.074885264 0.023001181 0.3577548 -0.3120504
-0.040494677 0.01002786 0.16974351 -0.19941702 -0.10717183 -0.457355 0.11216119 0.18703511
0.16295056 0.09096577 -0.2308168 -0.1816153 0.030028846 -0.26971996 0.4284121 -0.027174328
0.6454201 -0.074358866 0.08509471 -0.084267445 -0.23412515 0.42850065 -0.048445165 -0.1671497
-0.023617454 0.044893928 -0.24216609 0.21236388 -0.15803182 0.038093828 -0.256836 0.20077562
-0.07036063 0.068807006 0.32911864 -0.22431612 0.020269422 -0.28319997 -0.36679044 -0.094206825
-0.027979335 0.2743748 -0.26996022 -0.0002936297 0.20298864 0.17293102 0.26602846 -0.13586454
-0.06686636 0.04061537 -0.49608085 0.21051513 -0.23241626 0.038782705 -0.06404673 -0.12390615

gnn_base.gnn.gnn1.lin_value.bias f4 [48]
00000000: 370e 8a3e 6a0f 2e3d 17bd 18be 0a54 9fbd
00000010: 3335 1e3e 376e 813d 0bd3 b03d 6106 833d
00000020: 47e5 a6bd 2737 123e 78c6 c53d c49f bb3d
00000030: 141b 01be fe9f 57be 7a2d 293e 0f83 cb3d
00000040: ec76 6b3e abaa 73be 94b8 aabd c567 babd
00000050: 00f7 2dbe 3ab2 323e 7564 893d 766a 863e
00000060: dd10 8e3d 9b49 7dbe bd6e 9bbd 4820 3e3c
00000070: f4e6 34bd e495 af3d 1458 8dbd d6b1 5f3e
00000080: e5f5 863e 8771 5f3e a669 ea3d e928 81be
00000090: e862 d6bd 17a9 ebbd 77d7 9bbc 475d c33c
000000a0: 7f9b 093e 29fd 553d 17ec 80bd fb09 40bc
000000b0: a34a 77bc d3a9 b63c fdbd 2bbe 3791 873c
0.2696397 0.04249517 -0.14915882 -0.07779701 0.15449981 0.0631985 0.08634003 0.06397701
-0.081492 0.14278851 0.096569955 0.09161332 -0.12607986 -0.21057126 0.16521254 0.09937107
0.22994584 -0.23795573 -0.08335987 -0.09101824 -0.16988754 0.174508 0.06708614 0.26253098
0.0693681 -0.2473511 -0.07589481 0.011604376 -0.044165567 0.08573511 -0.06901565 0.21845183
0.26359478 0.21820651 0.11445932 -0.25226524 -0.104680836 -0.11506861 -0.01902364 0.023848189
0.13438223 0.052243385 -0.062950306 -0.0117211295 -0.015093478 0.022297775 -0.16771694 0.016548736

gnn_base.gnn.gnn1.lin_edge.weight f4 [48, 1]
00000000: 2ee7 223f 040b f13e cb3d 61bf 5cef 653f
00000010: 5292 20bf 6170 6f3f bb1b 1cbf 8237 803f
00000020: 224e 243f 359d 91be 8e1d d13e df30 6f3f
00000030: 231a 3cbf f449 1b3e fb96 303f 8185 7bbb
00000040: c97c 073f d721 4b3f c7df 84bf c043 133f
00000050: 757c 85bf da39 003f b803 74bf fb26 9abe
00000060: 6962 843e 0abc 82bf bb15 3ebe 6390 a6be
00000070: f966 e73e 9cc7 523a 98ac 74bf bace 5dbe
00000080: 2d63 953d 5172 0c3f a8cb 7abf 635f 2abf
00000090: 55b7 323e a6a8 25bf 7f29 46bf 67d5 83bf
000000a0: 1be7 8dbe ac31 89bf 0faf 19bd a2cb 523f
000000b0: 4f49 093f 6b7c 34bf d64f 773f e7d4 46bf
0.63634 0.47078717 -0.87984914 0.8981836 -0.6272327 0.9353085 -0.60979813 1.001694
0.6418172 -0.28440252 0.4084286 0.93433946 -0.7347738 0.1516493 0.6898038 -0.0038379135
0.5292478 0.7934851 -1.0380791 0.57525253 -1.0428606 0.50088274 -0.95318174 -0.30107865
0.2585633 -1.0213635 -0.18562977 -0.32532033 0.4519575 0.00080406084 -0.9557586 -0.21660891
0.07294307 0.54861933 -0.97967005 -0.665518 0.17452748 -0.6471046 -0.7740707 -1.02995
-0.27715382 -1.0718284 -0.037520465 0.8234197 0.53627485 -0.70502347 0.96606195 -0.77668613

gnn_base.gnn.gnn1.lin_skip.weight f4 [16, 16]
00000000: e67e 52bc 53ac 9f3d 21fb 8d3d 5c27 b53d
00000010: 71cc d63c b9d6 e7be f6c3 c73c 50a5 f3bc
00000020: 0a6a 93be 5ec8 47bd f7fe e13e 6b0a 833d
00000030: f48a 533e 4306 18bf c96c 08bc d2f0 853e
00000040: ac7e 2e3e 0a44 60bd c1e5 7abe 8ddf 0abf
00000050: 5148 7d3d 4072 38be 91f6 0d3e 6681 98be
00000060: dc12 2dbe 53b2 50be a332 f73d 14fc 9d3b
00000070: 5de0 9fbe b50a 47be 04f7 213e d660 c73d
00000080: bfcd 81be 201b 133d 58e1 7cbe ca3a 12bd
00000090: a762 2cbe 4555 9e3e aec0 bebd 7ff4 063e
000000a0: f559 63be afca 9c3b 3584 203c cbab dbbd
000000b0: 3a04 43bd e6f7 dbbc 819f d3bd 3f77 c7be
000000c0: a5f6 193e 969d 323e 4430 d1bd d4b2 2c3d
000000d0: 3995 8dbe 3a41 cfbe 73bc e93e 2361 84be
000000e0: 34e9 9e3e c153 723e c2e4 c5be c6b9 dd3e
000000f0: 7b3d 873d b5cf e93d 805e 26be 0430 8abe
00000100: ed39 c1bd 0e1d 5abc 8655 7bbd 3a35 593d
00000110: 90c2 75be 7458 01be 46c9 05be c73a 56be
00000120: 6a08 83be b42d bb3d 6c1a 17bd 5e81 b83d
00000130: d618 7e3d ed1d b93d 69fd 153e e2cc 5f3e
00000140: 7030 92be 2b8e 5dbe 7cb7 adbe 66a8 68be
00000150: d340 a23e e10b f2be 1184 8fbd e01e fd3d
00000160: f31c 6cbe aff0 d03e 2d20 29bc afb4 83bd
00000170: cbd4 1cbe 90f3 6f3e 1bb4 cdbe b3bb febd
00000180: 5d09 433e d5a2 24bd f4ce a33e 43cb e8bd
00000190: 5c2f ae3d 801c cd3d 3300 90be 927c 823e
000001a0: 6e94 b9bd fc77 40bd be12 d03e 0fc3 eb3c
000001b0: 9d4e 0a3e c236 7cbe 46d3 91be 814a 6fbd
000001c0: 354a efbd aa7d 6dbe 7823 bf3c 95d9 cc3d
000001d0: c6e0 07bb 1252 1cbe 4c7b 7fbe 4ace 543e
000001e0: 2e68 13be e740 5bbe d6ae 313c abba 793e
000001f0: 3ef2 023d f22f 183e 703c ae3e 8a43 5f3e
00000200: 372f a23d fd55 74be d130 66be 4ef7 e43d
00000210: aa62 52be b6ba b33e 8f0f 503e 52fd 033e
00000220: ed58 a8bc 1386 98be d0e7 dbbd 8561 b43d
00000230: 32bd 1cbe 8c96 5fbe f4cd 033f 7558 303e
00000240: cda6 8f3e fbc9 f6bd c591 0c3d 7bd8 d5be
00000250: 060b 1c3e ec65 ab3e d4a7 26be 4b26 8b3e
00000260: f58d b33d 91d4 18bf 73c2 893e 0ee3 37bd
00000270: 5cc1 563d 2451 ed3d 5b12 a33e 5c7d 4b3e
00000280: 8dcc 66be 3912 5ebc c0c0 e6bd aeca 433e
00000290: 7aef 3cbe 35fd ae3e ee41 76be 832c 1a3e
000002a0: 0a26 873e d7ac 9b3e f97e b33c fb03 a3be
000002b0: dc3d 14be 9962 a5be 5571 ffbe 0229 33be
000002c0: d1be 1bbd ed74 1a3e 9f8f 75be c596 c9bd
000002d0: 470f c6be 8c7b 8f3e 9b4e 043e 378e a83d
000002e0: be7f f43d e877 37bd 0129 edbd cec4 40be
000002f0: 25ab c43c 4cab 2f3e f539 ba3e 68e3 8f3e
00000300: e18e 07be 2efd 01be 6beb 5d3e 7825 d0be
00000310: 78a5 34be 9234 a13e 7710 d43e a0ea 6d3d
00000320: 2a12 f2bd 98c5 503c c8f6 38bd 3862 a3bd
00000330: e818 943e 085f ce3e caeb 60be cc96 2a3e
00000340: 031c 14bd d383 d5bd be29 3f3d 591f e43c
00000350: 5033 893e af77 8cbe 508e aebd 6dfa 4cbe
00000360: c899 be3e eaa7 803e f906 6f3e 59a0 143d
00000370: 3042 a9be 8827 ab3d 8bf2 2a3e 656d 30bd
00000380: 945d 823e 04f1 9bbe 95b5 053c bd01 b4be
00000390: 001c 233d c620 b1be 800e 403e 0ccc 0f3e
000003a0: b83d 88bd decc c53c 771a 973e 12fd 133e
000003b0: ab08 863d 3a81 1abc 37d8 913d bd8a e03d
000003c0: 87ec 82be 73f6 1bbe d96c 173d 6a11 343e
000003d0: 4e16 01bf 8026 643e 64a3 0cbe 3490 0abe
000003e0: 6bea 743e 1f43 113c 2fe6 72be 3325 98be
000003f0: 95b0 c1bc 75d3 ef3e efba bbbe ee8f be3e
-0.012847638 0.0779654 0.06932665 0.08845398 0.026220532 -0.45281008 0.024385434 -0.029741913
-0.2879184 -0.04877507 0.44139835 0.063984714 0.20658475 -0.59384555 -0.008326718 0.26160294
0.17040509 -0.054752387 -0.24501707 -0.5424736 0.061836544 -0.18012333 0.13863589 -0.29786223
-0.16901726 -0.20380525 0.12070205 0.00482131 -0.31225863 -0.19437678 0.15816885 0.09735267
-0.25352284 0.03591454 -0.24695337 -0.035700597 -0.16834508 0.3092443 -0.093140945 0.13179205
-0.22202285 0.004784904 0.009797146 -0.10726126 -0.047611453 -0.026851606 -0.10333157 -0.38958165
0.15035494 0.17442927 -0.10214284 0.04216273 -0.2765291 -0.4047945 0.45651588 -0.2585536
0.31037295 0.23664762 -0.3865109 0.43305796 0.06603523 0.1141657 -0.16246986 -0.26989758
-0.094348766 -0.013312591 -0.06136086 0.053029276 -0.24000001 -0.12631398 -0.13065061 -0.2092086
-0.25592357 0.091395766 -0.036890432 0.0900905 0.062035404 0.09038911 0.1464745 0.218555
-0.2855258 -0.21636264 -0.3392905 -0.22720489 0.31690082 -0.47274688 -0.070076115 0.123594046
-0.23057918 0.40808627 -0.010322613 -0.06430947 -0.15315549 0.23432755 -0.40176472 -0.124381445
0.1904654 -0.04019435 0.3199383 -0.11366894 0.08505127 0.100152016 -0.28125152 0.25485665
-0.09061514 -0.046989426 0.406393 0.028779535 0.13506551 -0.24630263 -0.284815 -0.05842066
-0.11684076 -0.23192468 0.023332343 0.10002438 -0.002073334 -0.15265682 -0.24949378 0.20781818
-0.1439521 -0.21411477 0.010844907 0.24387614 0.0319693 0.1486204 0.34030485 0.21803108
0.07919162 -0.23860927 -0.2247956 0.11179982 -0.2054545 0.35103387 0.20318435 0.12889603
-0.020550216 -0.2978979 -0.10737574 0.08807663 -0.15306547 -0.21834773 0.51486135 0.17221244
0.28056946 -0.120502435 0.034318704 -0.41766724 0.1523858 0.33476198 -0.16274959 0.27177653
0.087673105 -0.5969935 0.26906165 -0.04489427 0.052430496 0.11587742 0.31849942 0.1987204
-0.22538967 -0.013554149 -0.11267233 0.19120285 -0.18450728 0.34177557 -0.24048588 0.15056042
0.2639621 0.30405304 0.021911131 -0.31838974 -0.14476722 -0.32301787 -0.49891153 -0.17496112
-0.038023774 0.15083666 -0.23980568 -0.0984321 -0.3868353 0.28023946 0.1292061 0.0823025
0.119384274 -0.044792086 -0.115800865 -0.18825075 0.02400739 0.17155188 0.36372343 0.28103185
-0.13238098 -0.12694237 0.21671836 -0.40653586 -0.17641246 0.3148542 0.41418812 0.058085084
-0.11819871 0.0127424225 -0.045157224 -0.07977718 0.28925252 0.40306878 -0.21964946 0.16659087
-0.036159527 -0.10425534 0.046670668 0.027846979 0.2679696 -0.2743506 -0.08523238 -0.20017405
0.372267 0.25128108 0.23342504 0.036285732 -0.3305831 0.08357149 0.16694085 -0.043073077
0.2546202 -0.30457318 0.008160968 -0.35157576 0.039821625 -0.34595317 0.18755531 0.14042681
-0.06652397 0.02414554 0.2951238 0.14452007 0.06544622 -0.009430224 0.07121318 0.10963962
-0.2557108 -0.15230732 0.03696904 0.17584768 -0.5042466 0.22280312 -0.13734204 -0.13531572
0.23917548 0.008866101 -0.2372062 -0.2971588 -0.023643771 0.46841016 -0.36666057 0.37219185

gnn_base.gnn.gnn1.lin_skip.bias f4 [16]
00000000: fe35 353e 48e4 fcbd 7eae 26bd 9eeb ccbd
00000010: 3d36 c83d be2a 4b3e d421 2e3e 2238 bc3d
00000020: 33f1 6f3e 9ad9 1fbe aa63 02bd ef23 81be
00000030: b7d6 023e e8b5 c43c c4a6 1bbe 4690 37be
0.17696378 -0.12348229 -0.040693752 -0.10005878 0.0977597 0.19840524 0.17005092 0.09190394
0.23431854 -0.15610352 -0.03183333 -0.25222728 0.1277722 0.02401252 -0.15200335 -0.1792613

gnn_base.gnn.gnn2.0.lin_key.weight f4 [48, 16]
00000000: 7046 9bbe 926e 1bbc 5fcb 57be 7789 87bd
00000010: 813f 61bd 8eaa 82be 48e0 85bd 1091 723d
00000020: 7307 c03c 4b63 0dbe 16ed 383e bb8d 5dbe
00000030: 6a02 eabc 00e2 86be 6947 39be 48ab 943d
00000040: 9013 253d d319 a73d 7a51 303e 5137 a63e
00000050: cab1 b8bd 0ce4 c83e 6fa0 e2bd 1e44 bbbe
00000060: 40a3 1c3e 3895 da3d 6986 6d3d 8277 563e
00000070: 3565 be3e da8d a13e cc97 a6bd 0486 603d
00000080: 7bf0 52be fa1f 8ebd bc35 64be a20d 6d3e
00000090: 505f 17bd bb41 2bbe 215e debd 3527 09bd
000000a0: a704 7c3e 0a21 253e f989 4cbe 0b5b 5abd
000000b0: 2b6a 45bd 8280 033f 33d0 853e 70c1 90bd
000000c0: c154 46be b919 a0be 3d40 953e 4e69 3dbe
000000d0: 263c 06be 8124 b6be a8db 8c3e f9b4 c53e
000000e0: ba3d 1cbf 7c3a 03bd fa3c 503e ab60 ed3d
000000f0: a6b0 80be edde b7be b021 f33c ec1b a83e
00000100: 34c0 973d e9de 1dbd 1d60 3a3e 7af3 ec3d
00000110: 7d60 39be 9953 7abe 4fed 263d 3d96 113e
00000120: 85ae 8dbe d471 853e 5456 9f3d 5971 73bd
00000130: 4f9d 463e d97c 403c 1922 a6bd 785e a53e
00000140: ee16 22be 101f 97bd 295f 3bbe b94b 653b
00000150: 012a 8f3d f169 6fbd 3024 3abe 7101 873e
00000160: 7be9 bc3d 6323 8c3e 9463 90bd d92e a0be
00000170: eea6 8a3e 4df0 d3bc fa88 833d 8579 633e
00000180: 03e5 74bc aa2a 6e3e 0026 313e a58f 6a3e
00000190: cc7c bebe 5f75 2c3c 729b cbbe a819 67be
000001a0: 09f8 c83e 9c5c 473e 4fba 5dbb f7e3 843c
000001b0: 57dd 7c3e 8e0d bfbc a7ad 37be 91eb 213e
000001c0: af6b cb3d 4468 833d 4721 b8bd 05ea f83d
000001d0: 2a53 89be b367 5b3b 09c2 54be abb0 d33d
000001e0: 9fe5 b83e a921 af3e cc3c c93d 3a55 83be
000001f0: 1d0f 903e 15f9 47be eeee 45bd bd3a d13e
00000200: ed55 863d 485e 063f df70 b9be 561e c23e
00000210: 6a8a 81bd 0596 b43d 91c1 7dbe bcde afbe
00000220: c4fe fb3e 8f53 aa3e b379 68be be0c 16be
00000230: 35e0 1b3e 66b8 243e 4051 2bbd 0a8d 53be
00000240: 8b7c a7bc 393f f0be 9128 57be 8907 22be
00000250: a12e 623e 2404 a2be 3273 863e 4694 4f3e
00000260: 841d 1abe b573 9ebe ac5e 82be 9004 653e
00000270: 6d7e 0bbf 60bc 5abd cfc4 2abe 2b7f 17be
00000280: c155 873e 90d0 80be da58 c73d 1e21 c3be
00000290: 7412 a13e 6f6a 9fbe ca30 023e ea49 963d
000002a0: 5ec8 f03c 1879 7c3e d49e 8abd da4d b83d
000002b0: bfca 583e 0074 cfbe ee70 b8bd 9fc6 c93d
000002c0: 4e73 aebd 33ea b4be cbda aa3e 8d2b 9e3e
000002d0: 9400 913e e8a9 4c3e e775 5c3d 3e49 55be
000002e0: fe54 a3be 7a6f da3d 7bf4 c8bd 8b7e 933e
000002f0: a9e6 c23d 91fc 4d3e 2c33 41bd 6eba 3b3d
00000300: 07cc a13c 131d 5bbe dec1 20be 2dbd 013e
00000310: 7119 b5be a9fe 00be 8b68 d7bc 9810 d3be
00000320: f8ac b53e f1fc 523e 74c5 8dbd 8751 8a3d
00000330: 0759 8f3e 16ba 5b3e 3e71 c23e 9907 9fba
00000340: 7830 203d fa0c 3b3e dd25 abbc b1a5 f4bc
00000350: ecf8 14be 42c3 c2bd 8d92 37be 786d ac3e
00000360: ad8a 5d3d d38a a73e 5e29 1e3d 550c d43d
00000370: 21d5 133e 027f 453d c4e5 1cbe 3bd6 b43d
00000380: 837d 043e cf20 df3e 891e f1be 7b70 e73d
00000390: 422f 05be be54 b1bd 9ab7 40be c72e a2be
000003a0: 6869 1d3f e048 863e 4f13 6abe ff81 0abe
000003b0: 87e5 863e 8a25 a53e d3bd 993d 29d4 a7be
000003c0: ad94 10be 68a2 ab3d 0cca 373d 324b b53d
000003d0: 6a7a cabd 2dcf b73d be74 d13d 91e5 a0bd
000003e0: 8eef c2bd e161 8cbe e033 0dbd b1f7 04be
000003f0: 4bd2 1abd 28e7 f93c f22c d93e 0c53 633d
-0.30327177 -0.009486811 -0.21073674 -0.06618016 -0.054992203 -0.25520748 -0.06536919 0.059220374
0.023441052 -0.13807409 0.18059191 -0.21636097 -0.028565604 -0.263443 -0.18093647 0.07259232
0.04030186 0.081592225 0.17218581 0.32464078 -0.090182856 0.39236486 -0.110657565 -0.36575407
0.1529665 0.106729925 0.05798951 0.20944026 0.3718659 0.31553537 -0.08134422 0.054815307
-0.20599549 -0.06939693 -0.22286123 0.23149732 -0.03695613 -0.16724293 -0.108577974 -0.033484656
0.2461115 0.16125885 -0.19974507 -0.05330948 -0.048196953 0.5136796 0.26135406 -0.07068145
-0.19368269 -0.31269625 0.29150572 -0.18497202 -0.13108882 -0.35574725 0.27511334 0.38614634
-0.6103169 -0.032038197 0.2033576 0.115907036 -0.25134772 -0.35912266 0.02967915 0.32833803
0.07409707 -0.03854266 0.18200727 0.11569877 -0.18103214 -0.24445952 0.04075366 0.14217468
-0.2767221 0.26063406 0.07780138 -0.05943427 0.19395946 0.011748516 -0.08111972 0.32298636
-0.1582906 -0.073789716 -0.1829802 0.0034987761 0.069904335 -0.058450643 -0.18177867 0.26368287
0.0922422 0.27370748 -0.07050243 -0.31285742 0.27080482 -0.02587142 0.064226106 0.22214325
-0.014947179 0.23258463 0.17299652 0.22906359 -0.37204587 0.01052603 -0.39767033 -0.22568381
0.39251736 0.19468921 -0.0033832972 0.016221983 0.2469381 -0.023321893 -0.17937337 0.15812518
0.099326484 0.064163715 -0.08990722 0.12154011 -0.26821262 0.0033478558 -0.20777144 0.10336431
0.36112687 0.34205368 0.09826049 -0.2565096 0.2813653 -0.19528611 -0.048323564 0.40865126
0.06559358 0.5248761 -0.36218926 0.3791377 -0.063252285 0.088176765 -0.24780871 -0.3434962
0.49217808 0.33266875 -0.22702675 -0.14653298 0.15222247 0.16085967 -0.041825533 -0.20659271
-0.020445129 -0.46923235 -0.21011569 -0.15823187 0.220881 -0.31643784 0.26259762 0.20271406
-0.15050322 -0.30947652 -0.25462854 0.22365022 -0.54489785 -0.053402305 -0.16676639 -0.14794604
0.26432613 -0.2515912 0.09733744 -0.38111204 0.3145939 -0.3113589 0.12713924 0.07338317
0.029392418 0.24655569 -0.06768575 0.08999224 0.21171091 -0.40518188 -0.09005915 0.09852337
-0.085180864 -0.3533493 0.3337005 0.30892602 0.28320754 0.19986689 0.053823378 -0.20828721
-0.3190078 0.10665794 -0.09812256 0.28807482 0.09516651 0.20115878 -0.047167942 0.04583209
0.019750608 -0.2139781 -0.15698954 0.12669821 -0.35370973 -0.12597145 -0.026294967 -0.41223598
0.35483527 0.20604302 -0.06922427 0.06753831 0.2799761 0.21457705 0.37977022 -0.0012133002
0.039108723 0.18266669 -0.020892078 -0.029864164 -0.14548081 -0.09509899 -0.17926998 0.33677268
0.05408733 0.32723102 0.03861367 0.10353915 0.14436771 0.048216827 -0.15322024 0.08829924
0.12938504 0.43579718 -0.4709361 0.11300751 -0.13006309 -0.086587414 -0.18820038 -0.31676313
0.6148896 0.26227474 -0.22858928 -0.13526152 0.2634699 0.32255203 0.07506909 -0.32779053
-0.14119215 0.08380586 0.04487042 0.08852233 -0.0988663 0.089750625 0.10227345 -0.07856286
-0.09518348 -0.27418426 -0.0344733 -0.12985112 -0.037798207 0.030505732 0.42417103 0.05549912

gnn_base.gnn.gnn2.0.lin_key.bias f4 [48]
00000000: 2c33 65be 520b 9f3d 667a d6bd 4116 29be
00000010: f806 983d ef9c ed3d 48fe 4e3e 94ce 7a3e
00000020: 9cb6 b13d ca58 92bd f3bb 30bd 8e1a 413e
00000030: a93e 47be 1718 383e 3065 eb3d a6df c43d
00000040: 40ca 9e3d 2bab 54be 28b6 cc3d 0019 80bc
00000050: c3bb 243b a0ad eebd 1f87 383e 218d 2dbd
00000060: 7430 c43a 3c13 5abe 1ebe 443e db2c 6cbe
00000070: 63f6 1d3e 706d e03d 2e4d 1a3d 14d0 78be
00000080: e6ec ebbd 7eed 95bc 87cf 3dbe 3eec a6bd
00000090: bbad 6abd 2a17 9dbd ee64 313e 4425 6a3e
000000a0: fdae e5bd 4e83 043e d4c1 833c c65b 383e
000000b0: 7d38 5fbe f01a fbbd 7d3f 4bbd 8c17 763e
-0.22382802 0.07765831 -0.104725644 -0.16512395 0.07423204 0.11602198 0.20214188 0.24492866
0.08677408 -0.071458414 -0.043147992 0.18857786 -0.19457497 0.1797794 0.11493909 0.0961297
0.0775342 -0.2076842 0.09995681 -0.01563692 0.0025136329 -0.1165421 0.18020295 -0.04237092
0.0014968053 -0.212964 0.19213149 -0.23063986 0.1542602 0.109583735 0.03767126 -0.24298126
-0.11519794 -0.018301722 -0.18536197 -0.08150528 -0.05729459 -0.07670434 0.17323658 0.22865778
-0.11215017 0.12940714 0.016083635 0.18003759 -0.21798892 -0.12260997 -0.049621094 0.2403242
