model_weights/FA_FR/tube/feb18/split/actor.pt (torch, 202776 bytes, 58 tensors)

gnn_base.gnn.embed_layer.layer_norm.weight f4 [16]
0.8223246 0.97318333 1.0723879 1.1046275 1.0890228 0.87789035 0.9682185 0.61158323
0.95302826 1.0954063 1.2846518 0.92382896 0.9618846 1.1572853 1.6526585 1.1138188
00000000: dd83 523f 8b22 793f 0244 893f 6f64 8d3f
00000010: 1965 8b3f 6cbd 603f 2bdd 773f b890 1c3f
00000020: a9f9 733f 4636 8c3f 786f a43f 0e80 6c3f
00000030: 123e 763f ed21 943f 508a d33f 9d91 8e3f

gnn_base.gnn.embed_layer.layer_norm.bias f4 [16]
0.2824048 0.002116216 0.1271252 -0.08150651 0.053558763 -0.13023938 0.18347754 0.17707838
0.08866378 0.014560973 0.1102151 -0.029864883 0.16115992 -0.011759995 -0.017556878 -0.13477947
00000000: 5d97 903e 37b0 0a3b 1c2d 023e e3ec a6bd
00000010: 6f60 5b3d 795d 05be 89e1 3b3e 0954 353e
00000020: 5b95 b53d 2691 6e3c 74b8 e13d 33a7 f4bc
00000030: 1b07 253e feac 40bc 71d3 8fbc a103 0abe

gnn_base.gnn.embed_layer.entity_embed.weight f4 [4, 2]
1.3375165 -0.03181349 -2.256213 0.61997145 -1.0845224 -1.3985955 0.40334684 0.83802634
00000000: be33 ab3f dd4e 02bd cb65 10c0 73b6 1e3f
00000010: a1d1 8abf 2d05 b3bf 7a83 ce3e e588 563f

gnn_base.gnn.embed_layer.lin1.weight f4 [16, 10]
0.54526013 -0.5015983 -1.0667186 0.2815736 0.068891466 -0.027991967 -0.02017397 -0.1230283
-0.89173687 0.103059895 -0.4097351 -0.51054233 -0.59304076 -1.1438894 0.3938038 -0.60195297
-0.36361498 0.028611332 0.18214336 -0.6445893 -0.20412515 1.1495191 0.5622441 -0.8013083
-0.26839554 0.010572878 0.411178 -0.6042684 -0.220304 0.18017475 -0.24007271 -0.27868056
0.34707165 0.19877963 -0.86274123 -0.39232484 -0.045713834 -0.121874906 -0.20463625 -0.12784013
0.17282256 0.17415349 -0.7660838 -0.79891425 0.1306529 0.197831 0.1818721 -0.6147258
0.25678608 -0.09435379 0.02837907 0.4490445 -0.72002316 0.51201147 0.25798833 0.24793859
-0.63450634 0.37358868 -0.7210738 0.25122052 0.22988944 0.15322278 0.22618088 0.246044
0.002715615 0.074150436 -0.9818681 -0.3778399 -0.29803258 -0.79972136 0.4963339 0.3312645
-0.36158422 0.008412202 0.85956717 -0.21728559 0.6331286 -0.40873936 0.42837882 0.053505108
0.9710252 0.3100332 -0.0146529265 -0.48904783 0.07453444 -0.72774535 0.33303258 -0.28967017
0.018859744 0.33364576 -0.08747178 0.73096454 -0.017454177 1.1339844 -0.13822685 -0.3341041
0.3058079 0.0862982 0.3987605 -0.18291004 0.2829768 0.1142982 -0.13853295 0.22502117
-0.22247979 -0.13345498 -0.3095912 -0.3265587 0.50977796 1.2475286 -0.7843092 0.121771514
0.20004007 0.2828721 -0.17975229 -0.41795817 0.32467732 0.13398252 -0.10452534 0.34263209
0.5193504 0.13242094 -0.8035268 -0.9122495 -0.37106428 0.1484452 -0.12911797 0.23669834
0.18089415 0.34402606 0.32470304 0.67656386 0.68585974 0.2685203 0.21899681 -0.017232249
-0.030882092 0.6683929 0.26755118 -0.585163 -0.06370107 1.272226 -0.44319397 1.718489
0.0022309097 -0.061064992 0.049930375 0.24077898 -0.29667658 0.02781337 -0.66296303 0.30392942
0.04330744 0.20023349 -0.29255566 0.19123678 0.27294332 0.022661043 -0.36418906 -0.689025
00000000: 2b96 0b3f bf68 00bf 3c8a 88bf 6a2a 903e
00000010: f816 8d3d 694f e5bc e243 a5bc 43f6 fbbd
00000020: de48 64bf 1111 d33d cdc8 d1be e7b2 02bf
00000030: 85d1 17bf f86a 92bf a7a0 c93e 9719 1abf
00000040: be2b babe 5062 ea3c ca83 3a3e ce03 25bf
00000050: 2f06 51be 7123 933f 3bef 0f3f 8a22 4dbf
00000060: 246b 89be dd39 2d3c ec85 d23e 55b1 1abf
00000070: 5f97 61be bb7f 383e 9fd5 75be 38af 8ebe
00000080: 60b3 b13e e38c 4b3e 9cdc 5cbf cdde c8be
00000090: 6e3e 3bbd 8d99 f9bd 2a8c 51be 86e8 02be
000000a0: 66f8 303e 4b55 323e 111e 44bf a585 4cbf
000000b0: e0c9 053e 3694 4a3e ae3c 3a3e ac5e 1dbf
000000c0: 7779 833e 8f3c c1bd 397b e83c 29e9 e53e
000000d0: 7053 38bf 2f13 033f 0c17 843e 9de3 7d3e
000000e0: 026f 22bf 0447 bf3e 4b98 38bf fa9f 803e
000000f0: 2368 6b3e 6fe6 1c3e f69b 673e f5f2 7b3e
00000100: 76f8 313b 2fdc 973d b55b 7bbf 3b74 c1be
00000110: ba97 98be 8aba 4cbf 7a1f fe3e 809b a93e
00000120: 9121 b9be 55d3 093c 980c 5c3f 1d80 5ebe
00000130: b714 223f 4946 d1be 7854 db3e 2c28 5b3d
00000140: 1c95 783f acbc 9e3e d412 70bc 7a64 fabe
00000150: 83a5 983d 854d 3abf 3f83 aa3e a64f 94be
00000160: c07f 9a3c 9ed3 aa3e 6824 b3bd 7e20 3b3f
00000170: 10fc 8ebc 6726 913f 578b 0dbe b10f abbe
00000180: da92 9c3e 1cbd b03d 562a cc3e c54c 3bbe
00000190: 56e2 903e 2d15 ea3d 95db 0dbe f36b 663e
000001a0: bed1 63be 6ca8 08be bd82 9ebe b432 a7be
000001b0: cf80 023f 04af 9f3f 7dc8 48bf 5863 f93d
000001c0: 4ed7 4c3e 9dd4 903e fc10 38be 9dfe d5be
000001d0: 1b3c a63e b732 093e 6211 d6bd 796d af3e
000001e0: 26f4 043f 5b99 073e efb3 4dbf 2f89 69bf
000001f0: 23fc bdbe 0502 183e 8037 04be 0d61 723e
00000200: 513c 393e 2f24 b03e 7a3f a63e 4a33 2d3f
00000210: 8194 2f3f 7e7b 893e b340 603e a52a 8dbc
00000220: 71fc fcbc cc1b 2b3f 78fc 883e 3ecd 15bf
00000230: b575 82bd 4dd8 a23f 52ea e2be 73f7 db3f
00000240: 7434 123b 491f 7abd cb83 4c3d c48e 763e
00000250: fee5 97be ddd8 e33c f2b7 29bf a39c 9b3e
00000260: 2463 313d 020a 4d3e dbc9 95be 93d3 433e
00000270: 3abf 8b3e a7a3 b93c fd76 babe f163 30bf

gnn_base.gnn.embed_layer.lin1.bias f4 [16]
0.07265595 -0.10879016 -0.0017425846 -0.11236602 0.025003154 -0.046536896 -0.25911087 0.1328227
-0.13302283 0.008013141 0.007483465 -0.015905237 0.064960346 -0.07818454 0.13878188 -0.23807402
00000000: a5cc 943d 60cd debd 7067 e4ba 2820 e6bd
00000010: 6ad3 cc3c 799d 3ebd 2eaa 84be ad02 083e
00000020: 2337 08be 8d49 033c db37 f53b b34b 82bc
00000030: ee09 853d 371f a0bd d61c 0e3e adc9 73be

gnn_base.gnn.embed_layer.layers.0.weight f4 [16, 16]
-0.009672594 0.2290597 -0.46520543 -0.20735474 0.23496638 0.3892647 0.9727619 0.15806991
-1.0062716 0.08565468 -0.88152593 0.17357711 -0.047043 -0.3534529 -0.36322093 0.15235351
-0.22307722 -0.56446207 -0.1538275 0.0065032025 0.029571116 0.60598826 0.34982368 0.10310437
-0.24422897 0.56817424 0.32166177 -0.15058962 0.6075592 1.0508752 0.6391686 0.57294583
-0.09463139 0.79385644 -0.4824731 0.27732506 0.027290272 0.5860717 0.5732941 -0.3677732
0.21713132 -0.6897337 0.5026056 -0.15196344 0.3262346 -0.6216274 -0.11610527 0.2467545
0.3166819 0.26392046 -0.38405395 -0.51741743 0.28956047 0.28173435 -0.38924417 0.18026656
-0.27435696 0.59835047 -0.5349253 0.03076711 -0.4367016 0.15175986 1.0728843 0.1437948
0.16702972 0.594258 -0.37805235 0.14108692 -0.2081416 -0.38546854 -0.11347726 -0.36293846
-0.31551558 -0.08075212 -0.55607504 0.04784296 0.8563628 0.06783193 -0.79990566 0.22812237
0.2756841 -0.09227998 0.46918914 -0.9578727 -0.5005842 0.55505896 0.23215179 -0.131494
-0.5090422 0.36717612 0.16837308 0.24281631 0.12955365 0.17634626 0.06535183 0.5475851
0.2722927 0.07684876 -0.5206451 0.50694764 -0.486609 -0.29605156 -0.06424732 0.20136128
-0.6701069 0.4837676 0.11085651 -0.075877726 -0.33758533 0.4134154 0.30996323 0.32386458
-0.038753327 0.17764609 0.20945606 -0.29773575 -0.37292188 -0.086331055 0.371591 -0.57695246
-0.38573673 0.22517845 -0.30482233 -0.351951 -0.34252614 0.5828582 0.24795443 -0.552921
-0.39880183 0.19702677 0.19728635 0.21870902 -0.036984183 0.7250734 -0.12893282 0.12926194
-0.6776512 -0.04336757 -0.65863407 -0.23212348 0.29066354 -0.17267464 1.0545545 0.63385427
0.22315101 0.06865553 0.2685264 0.26144212 0.27529272 0.28350893 -0.076615095 -0.7707342
-0.5001609 0.5066868 0.13121411 -0.4952636 -0.107884414 -0.3197815 0.5466141 0.83915955
0.24449733 -0.08005343 0.035818003 0.20254877 0.23770362 0.22584625 -0.07872296 -0.58574635
-0.1982405 -0.02851069 -0.47661027 0.6336868 -0.33103314 0.37757903 -0.280149 0.7493924
-0.22964042 -0.5648156 0.23995617 -0.6679167 0.44545296 0.35886753 -0.4439226 0.23828515
-0.45786753 0.021857595 0.39534667 -0.575572 -0.04602377 0.009163205 -0.6554831 -0.43268615
-0.30262062 -0.7782368 -0.5276818 -0.19425482 -0.8277685 0.001759311 -0.09345715 -0.37879732
0.3512433 0.428196 0.22544387 -0.1477307 -0.15870829 -0.20190361 0.7964929 0.1804567
-0.49482104 0.18756689 -0.35471845 -0.61820173 0.33264428 -0.23748471 0.10617578 0.140574
0.32460144 -0.21586181 -0.52362424 -0.78711474 -0.3924943 0.43102753 -0.6845847 0.53051996
-0.26144627 -0.015133198 0.22710888 0.35657707 0.09290889 0.21324985 -0.21355169 -0.17260227
0.013067647 0.76824015 -1.0529156 -0.050672665 -0.38833424 0.3400134 -0.362145 0.12742148
0.7498811 -0.3182973 0.27774742 0.44728407 0.26377246 0.60241914 0.2760014 -0.09790578
-0.06620925 -0.32065502 -0.33809528 -0.60329825 0.18950377 -0.0688541 -0.45415205 0.2950762
00000000: cd79 1ebc a08e 6a3e 682f eebe cd54 54be
00000010: 079b 703e b44d c73e ed06 793f 14dd 213e
00000020: 82cd 80bf b96b af3d afab 61bf 33be 313e
00000030: 29b0 40bd c7f7 b4be 18f8 b9be 8f02 1c3e
00000040: 5b6e 64be 9680 10bf f584 1dbe d118 d53b
00000050: 203f f23c 0c22 1b3f 171c b33e 6228 d33d
00000060: 2917 7abe de73 113f dab0 a43e 2a34 1abe
00000070: 0089 1b3f 1483 863f 8ea0 233f 94ac 123f
00000080: 1ace c1bd 2d3a 4b3f b706 f7be 8dfd 8d3e
00000090: d98f df3c cc08 163f 67c3 123f c54c bcbe
000000a0: ac57 5e3e 6392 30bf c3aa 003f 4e9c 1bbe
000000b0: 3908 a73e f922 1fbf 9ac8 edbd 36ad 7c3e
000000c0: 2124 a23e 9520 873e b8a2 c4be 7875 04bf
000000d0: 4541 943e 7c3f 903e 034b c7be cc97 383e
000000e0: 8478 8cbe 7f2d 193f ddf0 08bf 4e0b fc3c
000000f0: 5a97 dfbe f066 1b3e 4654 893f f23e 133e
00000100: d709 2b3e 4b21 183f 1490 c1be 1779 103e
00000110: 1223 55be 225c c5be c466 e8bd 12d3 b9be
00000120: 428b a1be 5e61 a5bd ef5a 0ebf fbf6 433d
00000130: 983a 5b3f 78eb 8a3d 9ec6 4cbf e998 693e
00000140: 7726 8d3e 49fd bcbd 8f39 f03e 2537 75bf
00000150: 4926 00bf 5818 0e3f 33b9 6d3e 5da6 06be
00000160: 9750 02bf 82fe bb3e fe69 2c3e d7a4 783e
00000170: b6a9 043e 1d94 343e 2ed7 853d 8a2e 0c3f
00000180: f369 8b3e e262 9d3d ff48 05bf 52c7 013f
00000190: d124 f9be 1294 97be 1994 83bd a731 4e3e
000001a0: 208c 2bbf 63b0 f73e bd08 e33d c865 9bbd
000001b0: fcd7 acbe 2fab d33e 80b3 9e3e 94d1 a53e
000001c0: cfbb 1ebd dbe8 353e a67b 563e d270 98be
000001d0: 9eef bebe 56ce b0bd 2d41 be3e 28b3 13bf
000001e0: 497f c5be 2e95 663e ac11 9cbe ec32 b4be
000001f0: 965f afbe 3236 153f c4e7 7d3e 3b8c 0dbf
00000200: c12f ccbe 63c1 493e 6f05 4a3e 42f5 5f3e
00000210: ba7c 17bd 699e 393f f706 04be 3e5d 043e
00000220: 8d7a 2dbf 31a2 31bd 3e9c 28bf c7b1 6dbe
00000230: dad1 943e 9fd1 30be a4fb 863f 4644 223f
00000240: b381 643e 459b 8c3d 4b7c 893e bedb 853e
00000250: 2bf3 8c3e 1528 913e 60e8 9cbd d64e 45bf
00000260: 8b0a 00bf 3ab6 013f fe5c 063e 3193 fdbe
00000270: 81f2 dcbd 67ba a3be e7ee 0b3f 29d3 563f
00000280: 825d 7a3e 0df3 a3bd e6b5 123d f268 4f3e
00000290: 9468 733e 3d44 673e 8139 a1bd 79f3 15bf
000002a0: 8fff 4abe 408f e9bc 4306 f4be 4c39 223f
000002b0: 2d7d a9be 0a52 c13e b16f 8fbe 2ed8 3f3f
000002c0: dc26 6bbe c197 10bf 12b7 753e 97fc 2abf
000002d0: 6912 e43e 7cbd b73e d349 e3be 0601 743e
000002e0: 9d6d eabe b30e b33c e16a ca3e b058 13bf
000002f0: 6c83 3cbd 4421 163c becd 27bf 0a89 ddbe
00000300: 17f1 9abe 873a 47bf 2816 07bf bcea 46be
00000310: a3e8 53bf ae98 e63a 7666 bfbd b9f1 c1be
00000320: 29d6 b33e 823c db3e c2da 663e b746 17be
00000330: 6d84 22be d2bf 4ebe f5e6 4b3f a4c9 383e
00000340: 2f59 fdbe 8911 403e a89d b5be 7842 1ebf
00000350: 5a50 aa3e 312f 73be b072 d93d a1f2 0f3e
00000360: 2932 a63e e10a 5dbe 3d0c 06bf 5a80 49bf
00000370: 03f5 c8be a4af dc3e f140 2fbf 28d0 073f
00000380: 49dc 85be 3cf1 77bc 3b8f 683e 4591 b63e
00000390: 0447 be3d 2b5e 5a3e 4bad 5abe a6be 30be
000003a0: af19 563c 63ab 443f f0c5 86bf 248e 4fbd
000003b0: bfd3 c6be 3d16 ae3e 126b b9be c77a 023e
000003c0: 35f8 3f3f ddf7 a2be e934 8e3e 6b02 e53e
000003d0: 2f0d 873e 2438 1a3f 0e50 8d3e d382 c8bd
000003e0: b798 87bd e52c a4be d31a adbe c171 1abf
000003f0: 470d 423e 6103 8dbd 9e86 e8be 3a14 973e

gnn_base.gnn.embed_layer.layers.0.bias f4 [16]
-0.016328895 0.039747957 -0.1550714 -0.18825477 0.104032815 -0.20584911 -0.02032685 -0.026764171
-0.13839304 -0.25754032 -0.082409024 0.087989904 0.018562343 -0.04666324 -0.12516129 -0.2919679
00000000: 2dc4 85bc c1ce 223d 09cb 1ebe dcc5 40be
00000010: 280f d53d 1cca 52be 7e84 a6bc 8940 dbbc
00000020: e8b6 0dbe 53dc 83be 10c6 a8bd 0d34 b43d
00000030: 0e10 983c f421 3fbd 482a 00be d17c 95be

gnn_base.gnn.embed_layer.layers.2.weight f4 [16]
0.8223246 0.97318333 1.0723879 1.1046275 1.0890228 0.87789035 0.9682185 0.61158323
0.95302826 1.0954063 1.2846518 0.92382896 0.9618846 1.1572853 1.6526585 1.1138188
00000000: dd83 523f 8b22 793f 0244 893f 6f64 8d3f
00000010: 1965 8b3f 6cbd 603f 2bdd 773f b890 1c3f
00000020: a9f9 733f 4636 8c3f 786f a43f 0e80 6c3f
00000030: 123e 763f ed21 943f 508a d33f 9d91 8e3f

gnn_base.gnn.embed_layer.layers.2.bias f4 [16]
0.2824048 0.002116216 0.1271252 -0.08150651 0.053558763 -0.13023938 0.18347754 0.17707838
0.08866378 0.014560973 0.1102151 -0.029864883 0.16115992 -0.011759995 -0.017556878 -0.13477947
00000000: 5d97 903e 37b0 0a3b 1c2d 023e e3ec a6bd
00000010: 6f60 5b3d 795d 05be 89e1 3b3e 0954 353e
00000020: 5b95 b53d 2691 6e3c 74b8 e13d 33a7 f4bc
00000030: 1b07 253e feac 40bc 71d3 8fbc a103 0abe

gnn_base.gnn.gnn1.lin_key.weight f4 [48, 16]
-0.0844346 0.29091933 -0.0035573163 -0.26485938 0.3987432 -0.08000628 -0.21388307 0.011205916
0.22256441 0.0002418404 0.26088557 0.06353832 -0.16885433 0.072522834 0.039166376 -0.02597167
-0.062113464 0.09324921 0.07722339 0.34910786 -0.24594605 0.09028232 -0.07193164 0.07951551
-0.14985448 0.012336718 0.04027333 -0.17199692 0.20135266 0.08447546 0.42364976 -0.026630435
0.013971453 -0.002333468 -0.24674 0.23638554 0.42576295 -0.07122438 0.13286859 0.45200062
0.123644784 -0.10589015 -0.048566528 -0.24753751 -0.2642367 -0.046725187 -0.09963954 0.045109756
-0.06930594 -0.4082879 -0.08072798 -0.5237674 0.27639198 -0.13338737 0.06345599 -0.4347736
0.18504226 -0.02333623 -0.013101939 0.18929113 -0.52924114 0.33724338 -0.016122865 0.35926715
0.13359337 -0.19290766 -0.005460106 0.12512979 -0.19508047 0.11462087 -0.28850076 0.059276726
0.10733835 0.1565511 0.25827006 -0.15607183 0.041519746 -0.24220872 0.06916779 0.04426928
0.0597124 0.23496486 0.08711337 0.35278046 -0.19794399 -0.066765726 -0.15728928 0.26653698
-0.057436276 0.00045835951 0.4128121 -0.1633428 0.16800378 0.03580702 0.2457431 -0.054429136
-0.040088728 -0.037115477 0.08886609 -0.14114182 0.18495356 -0.23712423 0.38553357 0.14835088
0.11519371 0.15788879 -0.12489855 0.03259546 -0.11869428 0.14360745 0.0084633175 0.0022854386
-0.14738111 -0.20835987 0.070695385 0.10028878 0.407921 -0.13637991 -0.21750475 -0.14730836
0.023583982 -0.3117829 -0.1588887 0.06585729 -0.6920899 0.05814551 0.5677282 -0.04965435
-0.1916596 -0.20978272 0.13343655 -0.17056745 -0.38903928 0.15524006 -0.02191099 0.05341373
-0.3115502 -0.052431516 0.006365908 -0.13125038 0.43176705 0.22194365 0.13578585 -0.121527985
0.20791982 0.26300198 -0.16133454 0.25609696 0.19530027 0.118105404 -0.26845875 0.41846842
0.04418251 -0.005719797 -0.23570062 -0.115347065 -0.12680222 0.032774575 -0.3323479 0.06722041
0.12564926 0.48430488 0.010010523 -0.07016232 -0.19765855 -0.024645703 0.20022897 0.16335185
-0.05464326 -0.30915228 0.07048135 -0.41735095 0.22778794 0.049503107 -0.34728575 -0.0426959
-0.028205667 0.078850105 -0.20401643 -0.01944692 -0.24970642 0.12703729 -0.017433507 0.18855578
-0.02208679 0.25212735 -0.0429163 -0.20766518 0.27758121 0.00456772 -0.25448525 -0.104266874
-0.23168157 -0.3039246 -0.15067962 0.44481492 0.14428769 0.054425817 -0.095668666 0.34793755
0.023696927 0.060111396 -0.053584035 0.030906705 -0.07455818 0.21932817 0.19389367 0.0077417544
0.16434912 -0.12585329 0.04651841 0.3150069 0.08967606 0.08694043 -0.41087574 0.24202585
-0.11385233 0.051488087 0.3224027 0.052357372 0.4364926 -0.25084546 0.43038705 0.049835525
0.24369957 0.33388156 -0.31994307 0.4103672 0.33717543 -0.23646218 -0.0005435273 0.20425296
0.050063718 -0.21560931 0.17584956 -0.16279404 -0.36797926 0.07216571 0.22399567 -0.1639321
0.12165349 0.12346096 -0.061006267 0.060695082 0.02292 -0.031402197 -0.19810691 -0.10934483
-0.30234385 0.09298813 0.102150925 -0.03225136 0.27756432 0.058546808 0.34540462 0.028705228
00000000: 0cec acbd 61f3 943e dd21 69bb a69b 87be
00000010: 1228 cc3e 55da a3bd 2a04 5bbe 0599 373c
00000020: ede7 633e 8a96 7d39 cb92 853e 6120 823d
00000030: 26e8 2cbe da86 943d ec6c 203d 8ac2 d4bc
00000040: b06a 7ebd 71f9 be3d 4c27 9e3d 44be b23e
00000050: 48d9 7bbe f0e5 b83d e550 93bd 07d9 a23d
00000060: 7473 19be f21f 4a3c a6f5 243d f61f 30be
00000070: 642f 4e3e 7801 ad3d 9fe8 d83e 1228 dabc
00000080: 85e8 643c 19ed 18bb 69a9 7cbe 0d0f 723e
00000090: 9afd d93e 16de 91bd b40e 083e a06c e73e
000000a0: 7a39 fd3d efdc d8bd b2ed 46bd 797a 7dbe
000000b0: 084a 87be e962 3fbd d10f ccbd 02c5 383d
000000c0: 46f0 8dbd 1d0b d1be b654 a5bd 9f15 06bf
000000d0: 4083 8d3e b396 08be 37f5 813d a59a debe
000000e0: b87b 3d3e 9f2b bfbc 84a9 56bc 89d5 413e
000000f0: 597c 07bf 2aab ac3e 1914 84bc ddf1 b73e
00000100: b3cc 083e 9689 45be b0ea b2bb 0622 003e
00000110: 2dc3 47be 59be ea3d 5fb6 93be 27cc 723d
00000120: 35d4 db3d ee4e 203e f93b 843e 4bd1 1fbe
00000130: 9c10 2a3d 9005 78be d8a7 8d3d b453 353d
00000140: fd94 743d a19a 703e 7f68 b23d a49f b43e
00000150: d4b1 4abe 78bc 88bd 7110 21be 8977 883e
00000160: 4d42 6bbd f94f f039 1c5c d33e 5643 27be
00000170: 2f09 2c3e 62aa 123d 14a4 7b3e 16f1 5ebd
00000180: 1434 24bd 6606 18bd 6dff b53d 7b87 10be
00000190: 7764 3d3e b2d0 72be a864 c53e 4be9 173e
000001a0: aeea eb3d 99ad 213e d0ca ffbd d182 053d
000001b0: fd15 f3bd d50d 133e baa9 0a3c 4cc7 153b
000001c0: 13eb 16be 4a5c 55be bec8 903d 3464 cd3d
000001d0: 05db d03e 2da7 0bbe 91b9 5ebe 01d8 16be
000001e0: 3233 c13c 02a2 9fbe b8b3 22be 30e0 863d
000001f0: ce2c 31bf fc29 6e3d a356 113f 5c62 4bbd
00000200: 6a42 44be 48d1 56be 97a3 083e 3ca9 2ebe
00000210: 2830 c7be 40f7 1e3e ad7e b3bc 5bc8 5a3d
00000220: 8283 9fbe 6ec2 56bd 1b99 d03b 8066 06be
00000230: 9210 dd3e 3245 633e 720b 0b3e aae3 f8bd
00000240: efe8 543e 32a8 863e e234 25be 241f 833e
00000250: cbfc 473e 3fe1 f13d 6d73 89be 7e41 d63e
00000260: b8f8 343d 236d bbbb 815b 71be 153b ecbd
00000270: 71d8 01be a23e 063d 8129 aabe dbaa 893d
00000280: 33aa 003e cff6 f73e 2d03 243c 43b1 8fbd
00000290: 0167 4abe c9e5 c9bc d308 4d3e b545 273e
000002a0: 9cd1 5fbd 3549 9ebe 8758 903d 06af d5be
000002b0: 3e41 693e c5c3 4a3d 70cf b1be e5e1 2ebd
000002c0: 920f e7bc 2a7c a13d afe9 50be 264f 9fbc
000002d0: 0ab3 7fbe 1016 023e b7d0 8ebc c414 413e
000002e0: 5bef b4bc d616 813e 01c9 2fbd 2ea6 54be
000002f0: 201f 8e3e d0ac 953b e44b 82be df89 d5bd
00000300: ef3d 6dbe 019c 9bbe c24b 1abe c8be e33e
00000310: 27c0 133e 9bed 5e3d efed c3bd df24 b23e
00000320: 0f20 c23c 5e37 763d ef7a 5bbd 0f30 fd3c
00000330: f6b1 98bd 9097 603e 108c 463e 8bae fd3b
00000340: 234b 283e afdf 00be 178a 3e3d 9648 a13e
00000350: 15a8 b73d d30d b23d 4e5e d2be a0d5 773e
00000360: 692b e9bd 2ce5 523d f711 a53e af74 563d
00000370: f57b df3e d16e 80be b15b dc3e 5620 4c3d
00000380: 618c 793e 86f2 aa3e 94cf a3be a61b d23e
00000390: 42a2 ac3e 2423 72be 807b 0eba b027 513e
000003a0: 9d0f 4d3d b0c8 5cbe e811 343e 7bb3 26be
000003b0: c767 bcbe 9ecb 933d 1f5f 653e d1dd 27be
000003c0: 7725 f93d 1ad9 fc3d b5e1 79bd 689b 783d
000003d0: b9c2 bb3c 979f 00bd 8adc 4abe 2ff0 dfbd
000003e0: d0cc 9abe 9070 be3d 8134 d13d 011a 04bd
000003f0: e91c 8e3e c7ce 6f3d e0d8 b03e 3a27 eb3c

gnn_base.gnn.gnn1.lin_key.bias f4 [48]
0.19159655 0.1978926 -0.06883641 -0.14541097 -0.110830046 -0.17057776 -0.064383104 -0.22624058
0.13379215 -0.23539855 -0.15542206 0.16793826 -0.18700068 0.05967279 0.18736704 0.24636406
0.1266821 -0.067154445 0.14282572 -0.008213786 -0.07708351 0.00091652106 0.05595775 0.16757254
0.10457189 0.11948446 0.037034284 -0.012035806 0.10498739 0.060553476 -0.23924989 0.040501036
-0.11131936 -0.13268326 0.09663691 0.051205926 0.042479705 -0.1182886 0.115467 0.23453496
0.030570712 0.10249671 -0.2194333 0.14845441 0.08688934 0.11276097 0.104086995 -0.06604313
00000000: e331 443e 5ca4 4a3e 1bfa 8cbd 9de6 14be
00000010: ddfa e2bd f0ab 2ebe 4adb 83bd 9cab 67be
00000020: cf00 093e 510c 71be f626 1fbe 02f8 2b3e
00000030: 1b7d 3fbe 756b 743d 25dd 3f3e dc46 7c3e
00000040: f4b8 013e 4588 89bd e840 123e 1e93 06bc
00000050: f6dd 9dbd b042 703a f433 653d 2398 2b3e
00000060: c929 d63d 45b4 f43d 43b1 173d d431 45bc
00000070: a103 d73d ec06 783d ecfd 74be 6ae4 253d
00000080: 68fb e3bd 1fde 07be 93e9 c53d 4ebd 513d
00000090: 33ff 2d3d 4b41 f2bd f679 ec3d ef29 703e
000000a0: 6e6f fa3c cce9 d13d 1fb3 60be 6f04 183e
000000b0: 0af3 b13d 39ef e63d 902b d53d 9f41 87bd

gnn_base.gnn.gnn1.lin_query.weight f4 [48, 16]
0.08354286 0.10382776 0.24218361 -0.38831386 0.23561981 0.19773063 0.014969321 -0.1228891
0.051737346 -0.06907804 0.089576304 -0.06505616 0.071195155 -0.16192348 -0.16593462 0.26103228
0.03959737 -0.080741376 -0.4199228 -0.047912337 -0.083074346 0.24805164 0.022098258 -0.024656812
0.31774983 -0.00042389083 0.25763297 -0.21741946 -0.020620918 0.20836714 0.226994 0.24784273
-0.16431695 -0.048746895 0.15417463 -0.12832206 0.34036568 -0.00529945 0.31224573 -0.056478336
0.1941366 -0.24215455 0.33841103 -0.104156666 0.19437653 0.033799473 0.23454756 0.25945535
0.014181194 -0.32620984 0.59029853 -0.3001022 -0.17356667 0.087442145 -0.03809459 -0.11088196
-0.13491279 -0.046931796 0.020990418 0.4780792 0.06529934 0.32839847 -0.35662356 0.07020807
-0.29915532 -0.0033381553 -0.233951 -0.18079603 -0.10055857 0.099172994 0.002209796 -0.010634268
-0.06859347 -0.18726295 0.037694644 -0.23169072 -0.035986196 -0.009820746 0.12190103 0.18965381
-0.1222423 0.11732521 -0.49600658 -0.028392034 -0.028904025 0.17650475 0.13447039 0.19805321
-0.06986118 -0.16380647 0.23504712 -0.2423531 -0.2263264 -0.1683146 0.14836575 -0.02060885
-0.130218 -0.0002380385 0.3879921 -0.3379661 -0.20250478 -0.11013695 0.18798663 -0.10280786
-0.031297702 -0.103542134 -0.15331733 0.042965453 0.13921854 -0.13135818 0.10826664 0.037155744
0.04957197 -0.5838943 0.6560379 -0.46757954 0.34813064 -0.10358809 -0.34199047 -0.20530874
-0.28248072 -0.24223262 0.10902125 0.04609688 -0.20536377 0.11297652 0.27779377 0.14831194
-0.015453276 0.22215916 -0.084920794 0.13867691 -0.41919973 0.11745781 -0.14750044 -0.11358988
0.3226403 0.015047024 -0.20339453 -0.010692825 0.045764927 0.16538356 -0.11990173 0.35055012
0.11881253 0.12712449 -0.056625217 0.28148606 0.39532155 -0.18004088 0.14816505 -0.1505153
-0.18978085 -0.16313238 0.28075212 -0.18580109 0.3074959 0.0011354939 -0.12762138 0.043256383
-0.021219077 0.061829727 -0.3779834 0.11506523 -0.2712502 0.1894287 0.5475566 0.15760145
0.26512423 0.12515026 -0.226377 -0.23564468 0.20316103 -0.20157404 -0.031135177 -0.01662856
0.10713657 0.3976739 -0.3356016 0.31529534 -0.07277984 -0.07477591 0.071997516 -9.409502e-05
0.27582696 0.3068019 0.17028467 0.014676307 -0.037019163 -0.36356875 -0.104473844 -0.18552417
-0.22506629 -0.19382595 0.15527034 -0.067610115 0.11557148 0.22054033 -0.17948781 -0.38893786
0.005819351 0.015106503 0.26381326 -0.308505 -0.09006321 0.17328157 0.04137178 -0.10045414
0.14695936 -0.33776382 -0.40652907 0.31378323 0.16882133 0.1159865 -0.17308697 0.11379966
0.070848994 -0.2257433 0.16358092 -0.34911585 -0.3186208 0.059547793 0.12509675 0.37110412
0.017131181 -0.35147783 0.09751079 -0.2013032 0.19596015 -0.08407401 0.18320914 -0.3874497
-0.07922526 -0.34845433 0.049599342 -0.33126417 0.14722121 -0.21353929 0.35536546 0.09008925
-0.15726177 0.08927248 -0.14112285 -0.11730651 0.040716562 0.17164585 -0.1039276 -0.0906031
0.13156427 -0.032303683 0.045816623 -0.19989207 -0.1902479 0.09293783 0.0032529389 0.14689445
00000000: 8518 ab3d a6a3 d43d fbfe 773e 13d1 c6be
00000010: 5246 713e e679 4a3e e241 753c 48ad fbbd
00000020: 8aea 533d ca78 8dbd c873 b73d 2a3c 85bd
00000030: c4ce 913d 45cf 25be c4ea 29be 06a6 853e
00000040: da30 223d bc5b a5bd 1f00 d7be ba3f 44bd
00000050: e222 aabd 4001 7e3e 6807 b53c 15fd c9bc
00000060: 1bb0 a23e aa3d deb9 78e8 833e 35a3 5ebe
00000070: 33ed a8bc 325e 553e 1d71 683e 7cca 7d3e
00000080: b442 28be d3aa 47bd f4df 1d3e dc66 03be
00000090: 6944 ae3e 02a7 adbb acde 9f3e d455 67bd
000000a0: bfcb 463e 5df7 77be 3644 ad3e 1750 d5bd
000000b0: a40a 473e 5171 0a3d 3c2d 703e 55d7 843e
000000c0: 3d58 683c fa04 a7be ce1d 173f ffa6 99be
000000d0: 76bb 31be de14 b33d 1309 1cbd 1516 e3bd
000000e0: 9426 0abe 8e3b 40bd 19f4 ab3c ccc6 f43e
000000f0: a9bb 853d d823 a83e 5d97 b6be 40c9 8f3d
00000100: e32a 99be f4c4 5abb da90 6fbe 9822 39be
00000110: a7f1 cdbd 361b cb3d 3ad2 103b 5a3b 2ebc
00000120: bc7a 8cbd dcc1 3fbe b365 1a3d 5540 6dbe
00000130: 4366 13bd 32e7 20bc 3fa7 f93d 9c34 423e
00000140: 2c5a fabd 3348 f03d 93f4 fdbe 6996 e8bc
00000150: 22c8 ecbc a9bd 343e 9bb2 093e 76ce 4a3e
00000160: 6113 8fbd e2bc 27be 31b0 703e 692b 78be
00000170: 1cc2 67be aa5a 2cbe 31ed 173e e4d3 a8bc
00000180: de57 05be f999 79b9 e7a6 c63e e509 adbe
00000190: 6a5d 4fbe 7b8f e1bd 917f 403e ed8c d2bd
000001a0: 0532 00bd e60d d4bd 38ff 1cbe 8bfc 2f3d
000001b0: 4e8f 0e3e c282 06be e6ba dd3d 9f30 183d
000001c0: fa0b 4b3d 197a 15bf 1af2 273f 9666 efbe
000001d0: 2e3e b23e fe25 d4bd 6019 afbe 743c 52be
000001e0: 50a1 90be d40b 78be 8846 df3d 15d0 3c3d
000001f0: e14a 52be 3c60 e73d fc3a 8e3e 16df 173e
00000200: bd2f 7dbc b17d 633e f4ea adbd 5201 0e3e
00000210: 59a1 d6be b88d f03d 5b0a 17be d0a1 e8bd
00000220: 1c31 a53e cb87 763c a846 50be f530 2fbc
00000230: 0174 3b3d 4f5a 293e 0a8f f5bd 4e7b b33e
00000240: fc53 f33d ec2c 023e d8ef 67bd f11e 903e
00000250: 9667 ca3e a35c 38be 94b8 173e af20 1abe
00000260: e955 42be 2d0c 27be bebe 8f3e a442 3ebe
00000270: 1a70 9d3e dad4 943a 2eaf 02be 9b2d 313d
00000280: a1d3 adbc 2b41 7d3d 0a87 c1be 52a7 eb3d
00000290: 4ee1 8abe 99f9 413e ab2c 0c3f 4662 213e
000002a0: 5dbe 873e 6427 003e 5fcf 67be d74c 71be
000002b0: 7209 503e 6d69 4ebe 330f ffbc 9e38 88bc
000002c0: 6b6a db3d ea9b cb3e f9d3 abbe 646e a13e
000002d0: 990d 95bd 1d24 99bd 6f73 933d e154 c5b8
000002e0: 3139 8d3e 2315 9d3e 1b5f 2e3e e574 703c
000002f0: 68a1 17bd af25 babe 62f6 d5bd 0cfa 3dbe
00000300: c777 66be 4f7a 46be 30ff 1e3e 2c77 8abd
00000310: bdb0 ec3d 53d5 613e a7cb 37be dd22 c7be
00000320: 41b0 be3b 4481 773c 8812 873e 5ef4 9dbe
00000330: 0f73 b8bd b970 313e 7575 293d e6ba cdbd
00000340: 847c 163e 61ef acbe 9424 d0be 32a8 a03e
00000350: 80df 2c3e 558a ed3d b63d 31be cc0f e93d
00000360: 4719 913d 4029 67be c281 273e 50bf b2be
00000370: 4422 a3be 63e8 733d 5d19 003e 5c01 be3e
00000380: b156 8c3c e7f4 b3be bdb3 c73d 6d22 4ebe
00000390: c7a9 483e ff2e acbd 2d9b 3b3e cf5f c6be
000003a0: da40 a2bd 9b68 b2be ae28 4b3d 759b a9be
000003b0: 28c1 163e 0baa 5abe 76f2 b53e b680 b83d
000003c0: 3b09 21be 7dd4 b63d 8282 10be 653e f0bd
000003d0: 69c6 263d eec3 2f3e fed7 d4bd 1e8e b9bd
000003e0: c9b8 063e de50 04bd 36aa 3b3d 82b0 4cbe
000003f0: 58d0 42be 3056 be3d 422f 553b 806b 163e

gnn_base.gnn.gnn1.lin_query.bias f4 [48]
0.10258211 -0.33668965 0.06647946 0.2035074 -0.05406737 0.071576916 0.2028374 -0.112990744
-0.108316004 -0.056485 0.09216686 0.06728332 0.267197 -0.2706643 -0.034656662 -0.18125989
-0.27636856 -0.10059691 -0.2705788 -0.09361712 0.077442184 -0.22017157 0.058817778 -0.19907345
-0.40336275 0.07426308 -0.2894176 0.15485515 0.36493096 -0.1859747 0.18814494 0.30024853
0.01849131 -0.063272126 0.024872292 -0.028614355 -0.37742123 -0.046297017 0.2664153 -0.0014356688
-0.41595256 0.23155022 -0.05053163 -0.17816849 0.21263249 -0.0070683067 -0.017283823 -0.09038171
00000000: 9216 d23d 9662 acbe 6226 883d 3e64 503e
00000010: bf75 5dbd eb96 923d 9bb4 4f3e b167 e7bd
00000020: c8d4 ddbd d15c 67bd fbc1 bc3d d6cb 893d
00000030: 0cce 883e 8394 8abe 25f4 0dbd 319c 39be
00000040: 2e80 8dbe c105 cebd 4e89 8abe 55ba bfbd
00000050: 029a 9e3d a874 61be e9ea 703d e9d9 4bbe
00000060: 9085 cebe 3e17 983d 8b2e 94be 5992 1e3e
00000070: 3bd8 ba3e 2770 3ebe 11a9 403e 2dba 993e
00000080: 167b 973c d194 81bd fac0 cb3c a768 eabc
00000090: 5b3d c1be f1a1 3dbd 9667 883e 0d2d bcba
000000a0: bcf7 d4be 801b 6d3e 41fa 4ebd cd71 36be
000000b0: 55bc 593e 419d e7bb ce96 8dbc 0c1a b9bd

gnn_base.gnn.gnn1.lin_value.weight f4 [48, 16]
0.006491615 0.15186255 -0.3129705 -0.26905724 -0.025842726 0.33014932 -0.019845441 -0.13534169
0.08833972 0.23715888 0.0938278 0.14587046 -0.44701514 0.39450026 0.41970107 0.5142846
-0.36235037 -0.3273345 -0.16790527 0.12399855 -0.0008684397 0.10612355 0.34306997 0.0038082
-0.06014544 0.21174508 0.18539599 -0.13642259 -0.27491713 0.046766367 0.29967666 -0.27860546
-0.26777172 -0.07698112 -0.2900593 -0.24888475 0.27676564 0.21834387 0.08455995 0.1252422
-0.09190384 0.10040578 0.4803488 -0.060592845 -0.27431688 -0.020333337 0.55572736 0.049244303
-0.013768424 -0.3448344 -0.439546 0.24203031 -0.49608836 -0.23824526 0.3665059 -0.33087936
0.17370184 0.27742738 0.2841163 -0.0072896187 -0.3264883 0.033913076 0.2801279 -0.08792708
0.22568953 0.15707436 -0.15481979 0.25682676 -0.24656849 -0.019958684 0.13148035 0.09946976
-0.13399625 0.34861693 -0.15552104 -0.22830123 -0.13054942 0.061628435 -0.40244895 0.37634027
-0.22555594 -0.31416965 0.17453282 0.3366051 0.37868518 0.28101745 0.48225102 -0.38022637
-0.2995934 0.109487146 0.10352518 0.254933 -0.29841754 -0.14944525 -0.22770385 -0.07445522
0.1280593 0.00669254 -0.07341975 -0.28502727 0.01012833 -0.06948824 -0.17197509 -0.042972315
-0.14855002 -0.014283104 0.16809386 0.119105086 -0.03259167 0.25508162 0.13364817 -0.110708326
-0.0023558328 -0.06514748 0.2969016 -0.08655343 -0.107705384 0.068537 -0.19649996 -0.27853978
0.079292655 -0.26587728 -0.3045299 0.27607447 -0.44486794 0.38065305 -0.2840142 -0.42463377
0.09264769 -0.1037068 0.306092 0.239953 0.14358822 -0.11628857 0.007980315 0.10811759
-0.111594886 -0.008810049 -0.0739651 0.049521755 0.24337453 -0.21499085 0.16108961 0.12451009
-0.3635051 -0.27340683 0.03811691 0.12776512 0.054555852 0.041564196 0.70561963 -0.3587442
0.010020128 -0.49257863 0.23054385 0.30407214 0.0786384 0.005114104 -0.13519745 -0.3640055
-0.04856986 -0.012667065 0.19316922 -0.2590185 0.19744638 -0.18011115 0.17763077 0.09651409
-0.15217957 0.0613281 -0.004632176 -0.12502696 -0.31983295 -0.122522354 0.43800128 0.087404974
-0.14213061 -0.67661595 0.04799259 0.2443493 0.38138765 -0.2617831 0.40861356 0.014371499
-0.30991796 -0.5429388 -0.26000088 -0.063096106 -0.11364632 -0.10094144 0.5927654 -0.15547314
-0.2872082 0.12214114 0.23013417 0.045729656 0.38721117 0.20509954 0.104902424 -0.2333111
-0.32229102 -0.2781926 -0.0834816 -0.1398729 -0.4061331 -0.10449673 0.35367998 0.07018847
0.21266632 0.050140873 -0.15202524 -0.3604389 0.19173971 -0.2528799 -0.10313745 0.06673679
0.30039105 -0.056733314 0.44155008 0.037087277 -0.26018333 0.17037582 0.40451574 -0.15332557
-0.07641694 0.23215896 -0.17722313 0.19707908 -0.18318097 -0.09400209 0.04413242 0.17754559
0.6199441 0.37468106 0.012427405 -0.30440977 -0.101682164 -0.2739464 -0.27699962 0.0054261563
-0.118824676 0.19962567 -0.3357421 0.043634206 0.497947 -0.07470695 0.07032041 -0.061692696
-0.4101797 -0.08993234 -0.22497892 0.26696807 -0.35446125 0.2425636 0.15965857 -0.15749648
00000000: 9db7 d43b db81 1b3e ab3d a0be dfc1 89be
00000010: 20b4 d3bc 5509 a93e e892 a2bc 0397 0abe
00000020: 75eb b43d c7d9 723e ca28 c03d 115f 153e
00000030: 2bdf e4be f0fb c93e 0fe3 d63e 28a8 033f
00000040: fd85 b9be 6398 a7be 5cef 2bbe f4f2 fd3d
00000050: 00a8 63ba 4e57 d93d dea6 af3e fe92 793b
00000060: 115b 76bd b4d3 583e 72d8 3d3e 5db2 0bbe
00000070: f0c1 8cbe 178e 3f3d 386f 993e 60a5 8ebe
00000080: 6019 89be 47a8 9dbd a782 94be a5db 7ebe
00000090: 3ab4 8d3e 8995 5f3e c42d ad3d 7e3f 003e
000000a0: 1538 bcbd 8ca1 cd3d 47f0 f53e 3430 78bd
000000b0: 4373 8cbe 1992 a6bc 2644 0e3f 65b4 493d
000000c0: f594 61bc 228e b0be 2c0c e1be cbd6 773e
000000d0: 4bff fdbe 91f6 73be a9a6 bb3e 0569 a9be
000000e0: e5de 313e f60a 8e3e b177 913e c1dd eebb
000000f0: 7929 a7be 70e8 0a3d ed6c 8f3e 1d13 b4bd
00000100: 281b 673e 1ad8 203e 1489 1ebe cc7e 833e
00000110: 737c 7cbe 6580 a3bc c9a2 063e cdb6 cb3d
00000120: 5036 09be eb7d b23e e840 1fbe ccc7 69be
00000130: bfae 05be 196e 7c3d ca0d cebe acaf c03e
00000140: 23f8 66be d8da a0be bbb8 323e 8157 ac3e
00000150: 06e3 c13e 85e1 8f3e 9be9 f63e 08ad c2be
00000160: 4e64 99be cc3a e03d 0205 d43d 9486 823e
00000170: 2fca 98be 2d08 19be 332b 69be fa7b 98bd
00000180: fa21 033e 184d db3b 185d 96bd 18ef 91be
00000190: 4cf1 253c da4f 8ebd 3d1a 30be bd03 30bd
000001a0: 7f1d 18be ae03 6abc cc20 2c3e 5eed f33d
000001b0: d87e 05bd 0f9a 823e 11db 083e 0cbb e2bd
000001c0: 5164 1abb 0b6c 85bd 7d03 983e ed42 b1bd
000001d0: a494 dcbd 205d 8c3d 4937 49be c49c 8ebe
000001e0: 3064 a23d 1121 88be 58eb 9bbe a259 8d3e
000001f0: bbc5 e3be f5e4 c23e 4f6a 91be 9969 d9be
00000200: 12be bd3d 3b64 d4bd 17b8 9c3e 3db6 753e
00000210: ca08 133e b428 eebd debf 023c c16c dd3d
00000220: dc8b e4bd 0658 10bc 047b 97bd 53d7 4a3d
00000230: 2c37 793e 9026 5cbe adf4 243e 25ff fe3d
00000240: 571d babe fbfb 8bbe 7a20 1c3d dcd4 023e
00000250: f575 5f3d 383f 2a3d 7da3 343f 52ad b7be
00000260: 772b 243c 4433 fcbe b013 6c3e 58af 9b3e
00000270: 2b0d a13d 3794 a73b 3371 0abe ee5e babe
00000280: 31f1 46bd 8589 4fbc 27ce 453e 139e 84be
00000290: 622f 4a3e 0f6f 38be d7e4 353e 2ea9 c53d
000002a0: f6d4 1bbe 2c33 7b3d 82c9 97bb 1107 00be
000002b0: 25c1 a3be 00ed fabd b441 e03e 6101 b33d
000002c0: b08a 11be b436 2dbf e193 443d b436 7a3e
000002d0: 3e45 c33e 6f08 86be cc35 d13e 7076 6b3c
000002e0: 91ad 9ebe 0afe 0abf d61e 85be 8838 81bd
000002f0: 67bf e8bd 63ba cebd 79bf 173f 5a34 1fbe
00000300: f40c 93be 2225 fa3d 4ba8 6b3e 054f 3b3d
00000310: 8b40 c63e 9d05 523e 15d7 d63d 1be9 6ebe
00000320: 5403 a5be 436f 8ebe 67f8 aabd d73a 0fbe
00000330: adf0 cfbe 6202 d6bd 8b15 b53e f9be 8f3d
00000340: 33c5 593e 8460 4d3d 81ac 1bbe 738b b8be
00000350: 6a57 443e 7979 81be ba39 d3bd 4cad 883d
00000360: dbcc 993e 3161 68bd da12 e23e d4e8 173d
00000370: c036 85be 0077 2e3e b01c cf3e 6101 1dbe
00000380: 7c80 9cbd 14bb 6d3e fb79 35be 19cf 493e
00000390: cb93 3bbe 2b84 c0bd 32c4 343d 83ce 353e
000003a0: a8b4 1e3f 32d6 bf3e 519c 4b3c 99db 9bbe
000003b0: bd3e d0bd b442 8cbe e5d2 8dbe e6cd b13b
000003c0: 5a5a f3bd ac6a 4c3e 63e6 abbe c8b9 323d
000003d0: e9f2 fe3e f5ff 98bd 2604 903d 7bb1 7cbd
000003e0: 1303 d2be 722e b8bd e060 66be 0ab0 883e
000003f0: f27b b5be 9862 783e 897d 233e c246 21be

gnn_base.gnn.gnn1.lin_value.bias f4 [48]
-0.07477815 0.10774938 -0.18300693 -0.060194142 0.019708194 0.21390982 0.27213764 0.0035450633
-0.16727169 0.2531996 0.021688495 0.14309001 -0.17249888 -0.21465409 -0.12465692 0.16829784
-0.114432454 -0.17264697 -0.117212266 -0.07338463 -0.30458644 0.32524756 0.25291094 0.20219478
-0.016480656 -0.13700704 -0.15068743 0.063065976 -0.09055682 0.08166299 -0.35897216 0.28738415
-0.08081579 0.28351185 0.0805805 -0.23468676 -0.23945728 0.035600007 0.16677137 -0.036462836
0.04857117 0.16258106 -0.1377218 0.039730597 -0.061477568 0.018204594 -0.4576569 0.08548008
00000000: 4925 99bd b5ab dc3d 2b66 3bbe 228e 76bd
00000010: 1473 a13c 2d0b 5b3e a055 8b3e 4b54 683b
00000020: 4549 2bbe 61a3 813e 12ac b13c 3086 123e
00000030: 8ca3 30be 48ce 5bbe 214c ffbd 4556 2c3e
00000040: 905b eabd 5eca 30be fc0c f0bd ae4a 96bd
00000050: c1f2 9bbe d986 a63e 8b7d 813e 260c 4f3e
00000060: 7102 87bc 934b 0cbe ce4d 1abe bc28 813d
00000070: db75 b9bd ed3e a73d 33cb b7be 0424 933e
00000080: c082 a5bd 7728 913e 6407 a53d ba51 70be
00000090: 4a34 75be 50d1 113d 1dc6 2a3e 0e5a 15bd
000000a0: 90f2 463d a67b 263e f206 0dbe 8dbc 223d
000000b0: e7cf 7bbd cd21 953c 0152 eabe 2e10 af3d

gnn_base.gnn.gnn1.lin_edge.weight f4 [48, 1]
0.17597985 0.27127597 -1.0682956 0.43920264 -0.65157884 0.97959423 -0.43389472 1.0683335
0.4050912 -0.08932881 0.3333943 0.77207714 -0.85463506 -0.070427604 0.3454295 -0.31131646
0.09039781 0.5179121 -1.1734968 0.13919078 -1.2204052 0.7541986 -0.7787365 -0.17821532
0.07158503 -0.8726402 -0.35983813 -0.4266991 0.257762 -0.29169947 -1.2941576 -0.50040567
-0.38286006 0.28438506 -0.99657637 -1.0111562 0.11038119 -0.54729795 -0.61928964 -0.8749209
-0.4474328 -0.8360934 -0.124632224 0.7289122 0.3704923 -1.0587928 0.587377 -1.1373726
00000000: 1034 343e afe4 8a3e e9bd 88bf 2bdf e03e
00000010: dfcd 26bf b0c6 7a3f 7327 debe 27bf 883f
00000020: 1d68 cf3e 06f2 b6bd a8b2 aa3e d9a6 453f
00000030: 5dc9 5abf 593c 90bd 23dc b03e df64 9fbe
00000040: 7d22 b93d e395 043f 2535 96bf 0788 0e3e
00000050: 3d36 9cbf 2913 413f 465b 47bf 147e 36be
00000060: 2c9b 923d 5965 5fbf b43c b8be 4e78 dabe
00000070: 62f9 833e a259 95be f5a6 a5bf 961a 00bf
00000080: 3c06 c4be eb9a 913e a11f 7fbf 916d 81bf
00000090: 890f e23d b81b 0cbf c489 1ebf d1fa 5fbf
000000a0: e915 e5be 380a 56bf 2e3f ffbd fd99 3a3f
000000b0: 2bb1 bd3e 8686 87bf 575e 163f 6d95 91bf

gnn_base.gnn.gnn1.lin_skip.weight f4 [16, 16]
0.065064274 0.13162859 -0.051415946 0.13220377 -0.107971616 0.14479965 -0.12716141 -0.32517183
-0.08651567 0.016462792 0.16218323 0.1027016 -0.3774972 -0.16302647 0.30578047 0.57358503
-0.14259467 -0.08517191 -0.41796416 0.060119227 0.25173882 -0.2789023 0.15556696 -0.19478972
-0.28087342 -0.4494205 0.41635188 0.052405283 -0.42690203 -0.16527487 0.48072103 -0.3180348
0.017299404 -0.0537237 -0.09563101 0.07241954 -0.29386663 0.3486381 -0.046897907 -0.083554134
-0.074006096 -0.080423295 -0.13109612 -0.15821065 0.054985885 -0.27121526 0.07010679 -0.067424946
0.16520074 0.0076221637 -0.25364584 0.30321008 -0.27278054 -0.09376831 0.2165489 -0.0984488
0.2553223 -0.16746575 -0.11629005 -0.029146316 0.111616276 0.17999502 0.27976474 -0.18922704
0.21608599 0.20445423 -0.4351807 0.2257816 -0.3434541 0.04604582 0.20082054 -0.28645268
-0.36235097 0.096832804 -0.30629694 0.20792314 -0.1901996 0.30222818 -0.18010257 0.07608656
0.065784454 0.22064005 -0.9693671 -0.3214709 -0.5698989 -0.017755909 0.07537307 0.023306973
-0.24985267 0.38857082 -0.19910523 0.26656553 -0.43855363 0.50199276 -0.36542994 -0.5004932
0.03704687 -0.44110307 0.31024745 0.04633578 0.4890884 -0.13628893 -0.031886987 -0.12380797
-0.10845835 -0.059440237 0.041054547 0.039379127 0.08184135 -0.010706119 -0.0047225445 -0.20372023
0.123609915 -0.30439016 0.12403521 0.36777171 -0.21996799 -0.09759074 -0.23897119 0.2650009
-0.11463947 0.020033948 0.016684886 0.44265625 0.08957232 0.036879964 -0.33941662 0.19006102
0.2459895 -0.29394242 -0.32473734 0.044627286 -0.48794737 0.11336616 0.5830931 0.42124447
-0.19516614 -0.002892826 0.15635592 0.01067805 0.27580568 -0.43937844 0.48566282 0.060018647
0.09404728 -0.25761613 -0.23808798 -0.21735692 0.15141118 0.31297264 0.15848775 -0.008119445
-0.04471376 -0.48203683 0.6429986 0.24564178 -0.025409888 0.13819042 0.23878963 0.011692403
-0.16866234 -0.02984574 -0.18924274 -0.18645057 -0.04932299 0.25695488 0.14789595 -0.09350523
0.022218315 0.16014317 0.4907813 -0.24565028 -0.8252495 -0.14193673 0.09279902 -0.057256326
-0.12179472 -6.30064e-05 0.24188551 -0.2708868 -0.4477616 0.15328638 0.058615673 -0.13613099
0.11208983 -0.17200112 -0.31300148 -0.12247705 0.22023608 0.7550541 -0.12522699 0.039426845
0.0071897204 -0.18850012 0.15070246 -0.30597654 -0.45291454 0.49234688 -0.14837123 -0.051128127
0.123292595 -0.046812873 -0.09462545 -0.23175064 0.27157804 0.5518023 0.084538005 0.12748899
-0.14627336 -0.19295439 0.1075867 -0.39131546 0.48854968 -0.10117038 0.081739016 -0.24186811
0.18274543 0.11905771 0.22506064 0.11691243 -0.37829283 -0.028469492 0.57826245 -0.1044186
0.1863822 -0.0033791757 -0.09480023 -0.42640263 0.12609275 -0.08926468 -0.024104262 -0.032403268
-0.045967534 0.2755337 -0.07585517 0.28368178 -0.3663351 0.12361222 -0.042700708 0.32955912
-0.24893357 -0.26637185 0.2020533 0.16959852 -0.11820845 0.068214834 -0.16473043 -0.1831499
0.046828527 0.044499926 -0.13556291 -0.4378636 0.41399544 0.083995976 -0.20074034 0.03798811
00000000: 6b40 853d a5c9 063e 8799 52bd 6d60 073e
00000010: 3920 ddbd 5c46 143e 9a36 02be ec7c a6be
00000020: 212f b1bd fadc 863c 5c13 263e 3755 d23d
00000030: 5047 c1be 69f0 26be 428f 9c3e 78d6 123f
00000040: 5604 12be 9c6e aebd 66ff d5be 943f 763d
00000050: e9e3 803e 48cc 8ebe f24c 1f3e f576 47be
00000060: a4ce 8fbe 721a e6be 132c d53e eca6 563d
00000070: e792 dabe d13d 29be 1121 f63e 75d5 a2be
00000080: 7bb7 8d3c 620d 5cbd 31da c3bd b250 943d
00000090: b075 96be b180 b23e 0518 40bd 6e1e abbd
000000a0: 8290 97bd f8b4 a4bd 103e 06be f901 22be
000000b0: e138 613d badc 8abe 2694 8f3d 1716 8abd
000000c0: 622a 293e 58c3 f93b dedd 81be 5a3e 9b3e
000000d0: e4a9 8bbe 9a09 c0bd ffbe 5d3e 869f c9bd
000000e0: 9bb9 823e 247c 2bbe 7a29 eebd 41c4 eebc
000000f0: 1397 e43d 9d50 383e 533d 8f3e bcc4 41be
00000100: a545 5d3e 735c 513e 01d0 debe 4b33 673e
00000110: 37d9 afbe 8b9a 3c3d e6a3 4d3e eda9 92be
00000120: 1186 b9be 4750 c63d f4d2 9cbe cee9 543e
00000130: afc3 42be a7bd 9a3e cf6c 38be 45d3 9b3d
00000140: 00ba 863d 77ef 613e 7128 78bf d597 a4be
00000150: e5e4 11bf d774 91bc 325d 9a3d 44ee be3c
00000160: 61d9 7fbe c1f2 c63e 3ee2 4bbe 477b 883e
00000170: 1a8a e0be 9982 003f a219 bbbe 5320 00bf
00000180: 75be 173d 43d8 e1be c1d8 9e3e 96ca 3d3d
00000190: cb69 fa3e 538f 0bbe ee9b 02bd 088f fdbd
000001a0: 691f debd 9b77 73bd d028 283d 024c 213d
000001b0: 709c a73d b868 2fbc 93bf 9abb 099c 50be
000001c0: 3227 fd3d 07d9 9bbe 2c06 fe3d 934c bc3e
000001d0: 4a3f 61be a7dd c7bd ddb4 74be 33ae 873e
000001e0: 19c8 eabd 3c1e a43c beae 883c d7a3 e23e
000001f0: b171 b73d 720f 173d 04c8 adbe 5b9f 423e
00000200: ace4 7b3e 9f7f 96be f943 a6be 1acb 363d
00000210: 3dd4 f9be 842c e83d 9745 153f 5bad d73e
00000220: a2d9 47be 9195 3dbb c41b 203e fdf2 2e3c
00000230: 6736 8d3e 36f6 e0be cca8 f83e 1dd6 753d
00000240: dc9b c03d 43e6 83be 56cd 73be d092 5ebe
00000250: 880b 1b3e f33d a03e 9d4a 223e 6c07 05bc
00000260: c725 37bd 88cd f6be 8e9b 243f 8589 7b3e
00000270: 6628 d0bc ca81 0d3e 4585 743e 7e91 3f3c
00000280: d2b5 2cbe 0e7f f4bc d9c8 41be e6ec 3ebe
00000290: e706 4abd 978f 833e 0972 173e ac7f bfbd
000002a0: 2f03 b63c 92fc 233e b047 fb3e bf8b 7bbe
000002b0: 8d43 53bf dd57 11be 6a0d be3d 9c85 6abd
000002c0: 836f f9bd 4e22 84b8 d6b0 773e adb1 8abe
000002d0: 0241 e5be 1bf7 1c3e fd16 703d ec65 0bbe
000002e0: 5a8f e53d 1021 30be bb41 a0be 3fd5 fabd
000002f0: 9185 613e 3a4b 413f 813b 00be 0b7e 213d
00000300: bf97 eb3b 2d06 41be bf51 1a3e f5a8 9cbe
00000310: 6ae4 e7be e414 fc3e a1ee 17be ba6b 51bd
00000320: d480 fc3d dbbe 3fbd fdca c1bd 0a50 6dbe
00000330: 470c 8b3e ea42 0d3f 4322 ad3d 798c 023e
00000340: afc8 15be d695 45be 6a56 dc3d 805a c8be
00000350: 2f23 fa3e 6b32 cfbd c966 a73d 46ac 77be
00000360: 9e21 3b3e 87d4 f33d 4c76 663e c96f ef3d
00000370: 99af c1be da38 e9bc 0209 143f 6bd9 d5bd
00000380: fada 3e3e 2975 5dbb 9f26 c2bd 7251 dabe
00000390: 751e 013e 67d0 b6bd 4d76 c5bc 4ab9 04bd
000003a0: 7448 3cbd c112 8d3e f559 9bbd bd3e 913e
000003b0: 4690 bbbe 6728 fd3d f0e6 2ebd f9bb a83e
000003c0: 71e8 7ebe e461 88be 0fe7 4e3e 3cab 2d3e
000003d0: 4617 f2bd 38b4 8b3d 18af 28be a68b 3bbe
000003e0: 45cf 3f3d 8e45 363d 01d1 0abe a82f e0be
000003f0: 36f7 d33e 1506 ac3d e08e 4dbe 6c99 1b3d

gnn_base.gnn.gnn1.lin_skip.bias f4 [16]
-0.37242445 -0.026066292 -0.10294717 -0.19406517 -0.20224255 0.28883716 0.1946917 -0.0124134235
0.15195476 -0.023434637 -0.14533366 -0.18966699 -0.01375203 -0.0024552923 -0.4693173 -0.09829547
00000000: 6bae bebe fa88 d5bc f7d5 d2bd 05b9 46be
00000010: ac18 4fbe 77e2 933e 435d 473e ac61 4bbc
00000020: 079a 1b3e fff9 bfbc 59d2 14be 1038 42be
00000030: 3250 61bc f8e8 20bb 5b4a f0be 234f c9bd

gnn_base.gnn.gnn2.0.lin_key.weight f4 [48, 16]
-0.17387776 -0.1433633 -0.19975774 0.23005809 -0.1836898 -0.21204105 -0.3829729 -0.10898999
-0.018485595 -0.18700734 0.11672215 0.046793826 0.24699558 -0.34885144 -0.08332908 0.325213
-0.07644689 -0.02056174 0.054877575 0.01618701 0.095242076 0.25998333 -0.23209386 -0.030564535
-0.1067514 -0.12818044 -0.24548824 0.30001062 0.20375364 0.069788635 0.09357913 0.091797195
-0.035851575 0.054715212 -0.18119623 0.004393558 -0.1145372 -0.16172259 0.41466996 0.22467986
-0.15026094 -0.06487661 -0.1792649 -0.13422331 -0.35689074 0.4349975 0.31220558 -0.26805726
-0.22923659 -0.27993602 0.13495408 0.056400813 -0.15892498 -0.10741413 -0.09875648 0.045581292
-0.20868762 -0.00010454115 -0.015360384 0.49009788 0.12593888 -0.25845784 0.002282611 0.17208923
0.2106335 -0.14927992 0.31959033 0.25773436 -0.034855768 -0.088527665 0.007799142 0.3045051
0.20489365 0.020274932 0.0031439767 0.15179732 0.14129713 0.06284542 0.069304116 0.3805426
0.052794814 0.20927301 -0.08226445 -0.05274338 0.06405735 -0.13392204 0.4090732 0.2469768
-0.020708058 0.24953063 -0.014783385 -0.40359247 -0.13349326 0.15973662 0.2598535 0.020468106
-0.17585349 0.032669093 0.3245326 0.034594096 -0.16646878 -0.109731086 -0.087914556 0.038793948
0.35513073 -0.10277793 -0.10841835 0.14327702 0.06277429 -0.061687667 -0.12193434 0.16179524
0.0574928 0.0569586 0.036210727 0.12414155 -0.10175141 -0.041727483 0.23175779 0.27121928
0.39246607 0.05776713 0.101366304 -0.34771323 -0.06905298 -0.039814003 0.027742343 0.25152132
-0.085687876 0.33924842 -0.23117161 0.15281631 0.12202388 -0.17187 0.016787559 -0.02331065
-0.077006705 0.16644914 -0.24237786 -0.19199316 0.06300405 0.016592959 -0.21545 -0.39973494
0.06277071 -0.2508644 -0.090233825 0.08102463 0.09107212 -0.07919444 0.333336 0.07752364
0.29182065 -0.03425373 -0.09724776 0.2615489 -0.2768647 0.10988429 -0.13869485 -0.038935427
0.06430742 -0.31883442 -0.027412644 -0.094312824 0.14932954 -0.21942253 -0.49745438 -0.25478038
0.17872477 0.19040738 -0.08753159 0.21241711 0.3998812 -0.3157552 -0.11503008 0.30224833
-0.078221865 -0.17662497 0.27292395 0.2507492 0.15698527 0.08895644 -0.20743604 -0.20417598
-0.39135924 0.11383842 -0.17874397 0.3213723 -0.016739866 0.10379338 -0.02223351 -0.08024793
-0.19163969 -0.39064008 -0.20688763 0.010048263 -0.15480211 -0.28469205 -0.14247847 0.005005466
0.13623516 -0.24255401 -0.22236203 0.2655006 0.1573102 -0.14279233 0.09392034 0.18378915
0.17168503 0.2961941 -0.05287598 0.02862525 -0.12100367 -0.04262887 0.1315428 0.23345055
0.08730432 0.23601878 0.0889096 -0.04937435 -0.17138034 0.19348255 0.09981332 0.0438822
0.12540917 0.13533336 -0.21968533 0.06072659 -0.030940233 -0.12809302 -0.33609244 -0.03379687
0.1929762 0.032964405 -0.2537043 0.061797246 0.16332084 0.13587588 0.31661174 0.07248717
-0.09552492 -0.06334477 0.11939603 -0.12155586 -0.19867714 -0.022233557 0.24978 0.011071825
0.12831672 -0.14546874 -0.16786194 -0.042240918 0.10330416 -0.22519967 0.1995362 0.1268404
00000000: 030d 32be d4cd 12be 4b8d 4cbe 5994 6b3e
00000010: 2e19 3cbe 4a21 59be 0615 c4be 2536 dfbd
00000020: 1a6f 97bc da7e 3fbe 060c ef3d e2aa 3f3d
00000030: 69ec 7c3e a89c b2be 70a8 aabd 5182 a63e
00000040: 3090 9cbd 1871 a8bc 4fc7 603d 9f9a 843c
00000050: 470e c33d 891c 853e 03aa 6dbe 7a62 fabc
00000060: 7aa0 dabd bc41 03be 4561 7bbe fe9a 993e
00000070: cba4 503e 58ed 8e3d 6aa6 bf3d 2b00 bc3d
00000080: 1ad9 12bd 0f1d 603d 818b 39be d6f7 8f3b
00000090: 7b92 eabd 9b9a 25be 9f4f d43e 7a12 663e
000000a0: 01de 19be 07de 84bd 3891 37be d671 09be
000000b0: 62ba b6be feb7 de3e 69d9 9f3e cd3e 89be
000000c0: ffbc 6abe c653 8fbe 6731 0a3e 8a04 673d
000000d0: 3bbd 22be f0fb dbbd d640 cabd 73b3 3a3d
000000e0: 35b2 55be 1a3d dbb8 1faa 7bbc 1cee fa3e
000000f0: 1ff6 003e 9654 84be dc97 153b 2938 303e
00000100: 4fb0 573e d6dc 18be 58a1 a33e c2f5 833e
00000110: ecc4 0ebd fe4d b5bd f28f ff3b 18e8 9b3e
00000120: a4cf 513e 9d17 a63c 2d0b 4e3b c270 1b3e
00000130: 32b0 103e 19b5 803d 51ef 8d3d 7bd6 c23e
00000140: 603f 583d aa4b 563e 447a a8bd 7109 58bd
00000150: 8030 833d dc22 09be 0b72 d13e 7ce7 7c3e
00000160: f2a3 a9bc f584 7f3e 0336 72bc aca3 cebe
00000170: 75b2 08be ff91 233e 850b 853e bbac a73c
00000180: f012 34be 07d0 053d 2329 a63e 8ab2 0d3d
00000190: cb76 2abe b1ba e0bd 8c0c b4bd 67e6 1e3d
000001a0: b2d3 b53e 3c7d d2bd 710a debd 36b7 123e
000001b0: cf8f 803d 35ac 7cbd b6b8 f9bd a7ad 253e
000001c0: 927d 6b3d 6c4d 693d b351 143d ed3d fe3d
000001d0: 0b63 d0bd 70ea 2abd ea51 6d3e 41dd 8a3e
000001e0: 50f1 c83e 3a9d 6c3d 2399 cf3d 7807 b2be
000001f0: a66b 8dbd 0214 23bd e943 e33c 67c7 803e
00000200: 207d afbd f8b1 ad3e 40b8 6cbe e17b 1c3e
00000210: a8e7 f93d b0fe 2fbe 1086 893c faf5 bebc
00000220: b1b5 9dbd a571 2a3e e731 78be db99 44be
00000230: 4408 813d f5ed 873c ed9e 5cbe 0faa ccbe
00000240: ee8d 803d 4c71 80be 83cc b8bd 3ef0 a53d
00000250: 0584 ba3d b230 a2bd 04ab aa3e b7c4 9e3d
00000260: 8469 953e a44d 0cbd d529 c7bd bde9 853e
00000270: 36c1 8dbe 040b e13d 0606 0ebe c17a 1fbd
00000280: 9cb3 833d 443e a3be 7b90 e0bc 1527 c1bd
00000290: d8e9 183e 4db0 60be 57b2 febe 9372 82be
000002a0: a003 373e 27fa 423e c343 b3bd df83 593e
000002b0: 3bbd cc3e aaaa a1be e494 ebbd 4bc0 9a3e
000002c0: c932 a0bd 2ddd 34be b0bc 8b3e 3362 803e
000002d0: bfc0 203e cb2e b63d 1d6a 54be 8213 51be
000002e0: 3d60 c8be 1e24 e93d a908 37be e98a a43e
000002f0: 0b22 89bc a091 d43d 0d23 b6bc 0759 a4bd
00000300: 323d 44be fa01 c8be 5ada 53be 78a1 243c
00000310: 7284 1ebe 28c3 91be e0e5 11be e404 a43b
00000320: 3b81 0b3e 1460 78be dfb2 63be b2ef 873e
00000330: ed15 213e 2738 12be 4f59 c03d 3933 3c3e
00000340: 33ce 2f3e c1a6 973e 7c94 58bd 807f ea3c
00000350: c6d0 f7bd 9c9b 2ebd 28b3 063e a90d 6f3e
00000360: 9bcc b23d e8ae 713e 3d16 b63d c23c 4abd
00000370: 547e 2fbe 4a20 463e ed6a cc3d d2bd 333d
00000380: 436b 003e d494 0a3e 31f5 60be 72bc 783d
00000390: 5f76 fdbc d12a 03be 4f14 acbe 966e 0abd
000003a0: 8e9b 453e af05 073d 88e5 81be 1c1f 7d3d
000003b0: 943d 273e 0c23 0b3e ef1a a23e 2774 943d
000003c0: 92a2 c3bd e7ba 81bd e885 f43d 47f2 f8bd
000003d0: 0572 4bbe 2623 b6bc 54c6 7f3e 9a66 353c
000003e0: 7565 033e c2f5 14be 00e4 2bbe d004 2dbd
000003f0: 2291 d33d be9a 66be 3853 4c3e 73e2 013e

gnn_base.gnn.gnn2.0.lin_key.bias f4 [48]
-0.22378331 0.077570975 -0.10546144 -0.16522919 0.07445284 0.11536257 0.20215534 0.24487796
0.08655093 -0.07243129 -0.04310249 0.18863676 -0.19437689 0.17949167 0.11537945 0.0961542
0.07740865 -0.20751683 0.10010027 -0.015122678 0.003214416 -0.11623371 0.18098502 -0.04143061
0.0019145794 -0.21357122 0.19208303 -0.2307789 0.15491654 0.109698415 0.03801036 -0.2421152
-0.11520536 -0.016519826 -0.18520132 -0.080776766 -0.056491435 -0.07811142 0.17400996 0.2285653
-0.11180179 0.1292717 0.01566876 0.1829702 -0.21803387 -0.123921506 -0.05009657 0.24021102
00000000: 7427 65be 88dd 9e3d 2bfc d7bd d731 29be
00000010: bb7a 983d 3643 ec3d cf01 4f3e 4ac1 7a3e
00000020: 9d41 b13d db56 94bd 3d8c 30bd ff29 413e
00000030: bc0a 47be aacc 373e 104c ec3d 7eec c43d
00000040: 6d88 9e3d 4b7f 54be 5f01 cd3d 1cc5 77bc
00000050: f4a8 523b f00b eebd 2354 393e 25b3 29bd
00000060: a0f2 fa3a 6ab2 5abe 6ab1 443e 4e51 6cbe
00000070: 71a2 1e3e 90a9 e03d c0b0 1b3d 0ced 77be
00000080: caf0 ebbd 9654 87bc 6aa5 3dbe 4a6e a5bd
00000090: 9063 67bd e1f8 9fbd ab2f 323e 060d 6a3e
000000a0: 56f8 e4bd cd5f 043e c55b 803c 8a5c 3b3e
000000b0: 4544 5fbe 8fca fdbd 1032 4dbd e1f9 753e
