model_weights/FA_FR/rota_tube/critic.pt (torch, 191947 bytes, 57 tensors)

gnn_base.gnn.embed_layer.layer_norm.weight f4 [16]
0	0x3f65fa4f	0.89835066
1	0x3f7004e2	0.9375745
2	0x3f8cfab8	1.1014013
3	0x3f85d33f	1.0455092
4	0x3f5ecdd6	0.8703283
5	0x3f8a2506	1.0792549
6	0x3fa6c219	1.3027984
7	0x3f6f6777	0.9351725
8	0x3f99c88b	1.2014326
9	0x3f88e05e	1.0693471
10	0x3f7527fa	0.95764124
11	0x3f7f5307	0.99736065
12	0x3f8129bb	1.009086
13	0x3f5176f1	0.81822115
14	0x3f856d58	1.0423994
15	0x3f862f6f	1.0483226

gnn_base.gnn.embed_layer.layer_norm.bias f4 [16]
0	0x3c081b94	0.008307356
1	0x3d6e3b0d	0.058161784
2	0x3df94a48	0.12172371
3	0x3d979e79	0.07403273
4	0x3d2240c0	0.03961253
5	0xbd7c0f3b	-0.061537962
6	0xbd578b07	-0.05262282
7	0xbdceeda8	-0.10103923
8	0xbccc45f1	-0.024935694
9	0x3e151caa	0.14561716
10	0xbd1b45ad	-0.037908245
11	0xbe46c837	-0.19412313
12	0xbdbb23a1	-0.09137655
13	0x3d859bb9	0.06523842
14	0x3d48ed4d	0.049054433
15	0x3cff849d	0.031191165

gnn_base.gnn.embed_layer.entity_embed.weight f4 [4, 2]
0	0xbf363e66	-0.7118896
1	0x3eceaa14	0.40364134
2	0x3fe471bd	1.784721
3	0xbf3bf8a4	-0.7342627
4	0xbf960d21	-1.1722757
5	0x3fa5c045	1.2949301
6	0x3de7ff6e	0.11328016
7	0x3ec76c2e	0.38949722

gnn_base.gnn.embed_layer.lin1.weight f4 [16, 15]
0	0x3c9af6cf	0.018916516
1	0xbf2037b8	-0.6258502
2	0x3e485d99	0.19566955
3	0xbf51d4cb	-0.8196532
4	0x3ed00d56	0.40635175
5	0x3e55d2d7	0.2088121
6	0xba3fa453	-0.0007310558
7	0xbd1f6a2e	-0.03891962
8	0x3f0694d3	0.5257084
9	0xbf2f128c	-0.68387675
10	0x3d4811bc	0.048845038
11	0x3e8a77ae	0.27044433
12	0xbdb6429b	-0.08899423
13	0xbd0eb4d7	-0.03484043
14	0x3bbe5e53	0.005809584
15	0x3e5b2a0a	0.21402755
16	0xbde61703	-0.11234858
17	0x3e37606e	0.17907879
18	0xbdb4d4e9	-0.08829672
19	0x3f83dc4f	1.0301608
20	0xbeeddeaa	-0.46458942
21	0xbdedfdab	-0.11620649
22	0x3d922225	0.07135419
23	0xbe707824	-0.2348333
24	0x3e415a67	0.18882142
25	0xbe02407c	-0.12719911
26	0xbea382d3	-0.31935748
27	0x3eb4e08e	0.35327572
28	0x3e055b4a	0.13023105
29	0xbe686095	-0.22693093
30	0x3cecd213	0.028908765
31	0xbd082dbe	-0.03324675
32	0xbf0279d3	-0.5096714
33	0xbef247ac	-0.47320306
34	0x3e2982da	0.16553822
35	0xbe4922d4	-0.19642192
36	0xbe89c440	-0.2690754
37	0x3e25c475	0.16188224
38	0xbee75b8b	-0.4518703
39	0xbde25015	-0.11050431
40	0x3dde032d	0.108404495
41	0x3efb6743	0.4910222
42	0x3f1989fc	0.5997617
43	0xbef76ca7	-0.48325083
44	0x3f09f60d	0.5389107
45	0x3d3c9d8b	0.046048682
46	0x3ed9d507	0.4254534
47	0x3e81b119	0.25330427
48	0x3d04eddd	0.032453407
49	0x3ccb8864	0.02484531
50	0x3f450793	0.7696468
51	0xbe151ee8	-0.14562571
52	0x3eab34c7	0.33438703
53	0xbd2a4840	-0.04157281
54	0x3e6c6017	0.2308353
55	0x3f1db375	0.61601955
56	0x3de67c6d	0.11254201
57	0x3e699e35	0.22814257
58	0xbe9a3375	-0.30117384
59	0xbeaa8cad	-0.33310452
60	0x3d0c886b	0.034309786
61	0x3dd6e54c	0.10492954
62	0x3e703acb	0.23459928
63	0xb9eda0ee	-0.00045324065
64	0xbdc236bb	-0.09483095
65	0xbea1cd61	-0.31602004
66	0xbdfedd87	-0.12444597
67	0xbceb5cff	-0.028730867
68	0xbf3d06cb	-0.7383849
69	0xbef43106	-0.47693652
70	0x3ed0668f	0.40703246
71	0xbd4c6112	-0.04989726
72	0xbe895263	-0.2682067
73	0x3f3c2ddc	0.73507476
74	0x3dbff5a8	0.09373027
75	0x3ed57b89	0.41695812
76	0x3e3ebd60	0.18626928
77	0x3f752b3a	0.95769083
78	0x3e9928d5	0.29913965
79	0x3ed62ed8	0.41832614
80	0xba674e8d	-0.00088236557
81	0x3d421d43	0.047391187
82	0xbef9cd97	-0.48789665
83	0x3f234add	0.6378611
84	0x3de86784	0.11347869
85	0x3cffd92a	0.031231482
86	0x3f2c7a70	0.67374325
87	0xbe2dec83	-0.16984753
88	0x3e9f85d0	0.31156778
89	0xbd9c26ac	-0.076245636
90	0xbded6e54	-0.11593309
91	0x3e8d8602	0.27641302
92	0xbe61d314	-0.22053176
93	0x3f1079c6	0.5643581
94	0x3d80b069	0.062836476
95	0xbc7a9d7e	-0.015296338
96	0xbf40bf9a	-0.7529236
97	0xbf37f1b3	-0.7185318
98	0xbee8371d	-0.45354548
99	0x3e999386	0.29995364
100	0xbde2e6c7	-0.110791735
101	0x3f7305bc	0.94930625
102	0x3eea7aef	0.45796916
103	0xbe009887	-0.12558185
104	0x3ed3a2ff	0.41335294
105	0xbe031f28	-0.12804854
106	0x3eb54ae8	0.3540871
107	0xbf10c45b	-0.56549615
108	0x3e3e1876	0.18564019
109	0x3e2ab53c	0.16670698
110	0xbe93944c	-0.2882408
111	0xbe2fe449	-0.17176928
112	0x3e7c4867	0.24636994
113	0x3e742468	0.23842013
114	0x3f05f7e5	0.5233138
115	0x3c65ba34	0.014021445
116	0x3f2f5172	0.6848365
117	0xbf72bd41	-0.9482003
118	0x3eca5009	0.39514187
119	0xbca756e0	-0.020427167
120	0x3cd7f2ec	0.026360951
121	0xbe5498cf	-0.20761417
122	0xbda2b628	-0.079449
123	0x3ec5cc24	0.3863231
124	0x3e5b5e11	0.21422602
125	0x3d9f18f4	0.07768431
126	0xbedc9993	-0.43085918
127	0xbf09fee3	-0.5390455
128	0xbe87c2ba	-0.26515752
129	0xbea3a13c	-0.3195895
130	0x3d97b6ff	0.074079506
131	0xbe8f443b	-0.27981743
132	0xbef7f1bb	-0.48426613
133	0xbf4aac29	-0.79168946
134	0x3e97d5fd	0.29655448
135	0xbec46483	-0.38357934
136	0xbe1605b8	-0.14650619
137	0x3ea2d170	0.31800413
138	0xbe88ad00	-0.2669449
139	0xbead62e5	-0.33864513
140	0x3e18d472	0.14924791
141	0xbe38efc9	-0.18060221
142	0x3eae26b4	0.34013903
143	0xbf6d2cef	-0.9264669
144	0xbdaad4a8	-0.08341342
145	0xbf434aed	-0.762862
146	0x3e28ac64	0.16472012
147	0xbefb8849	-0.49127415
148	0xbe4f3ab7	-0.20237242
149	0xbe24429a	-0.16041031
150	0x3cc3e337	0.023912055
151	0x3d1f4bea	0.038890757
152	0x3ecad823	0.39618024
153	0xbf482dc1	-0.78194815
154	0xbc5f4c4a	-0.013629029
155	0xbea476cc	-0.32121885
156	0x3eb756c2	0.35808378
157	0xbe2be09a	-0.16784897
158	0xbd634cb5	-0.055493075
159	0x3f13d92d	0.5775326
160	0x3e1a4047	0.15063582
161	0xbdce8225	-0.10083417
162	0x3be76141	0.007061154
163	0xbee364f0	-0.44412947
164	0x3e0bf61a	0.13668099
165	0xbd7f21e5	-0.062288184
166	0x3cf29aa5	0.029614756
167	0x3d3951f3	0.04524417
168	0xbe342c01	-0.17594911
169	0xbe3e393a	-0.18576518
170	0xbe71606d	-0.2357194
171	0xbf02eeae	-0.51145446
172	0xbf7666ea	-0.96250784
173	0xbd6c1bdf	-0.057643767
174	0x3eadd4ab	0.33951315
175	0xbc7c796a	-0.015409807
176	0xbdb987d5	-0.09059111
177	0xbe3747c9	-0.17898478
178	0x3e681bb2	0.22666815
179	0xbe638bcd	-0.22221299
180	0xbdb69d22	-0.089166895
181	0xbeb6f1b6	-0.35731286
182	0xbca4e869	-0.020130353
183	0x3ea16578	0.31522727
184	0xbe7d3b57	-0.24729668
185	0xbf5201f1	-0.8203421
186	0x3e06fb0b	0.13181703
187	0x3e829ca7	0.2551014
188	0xbd6f1431	-0.058368865
189	0xbe866fb3	-0.26257095
190	0x3ced7c89	0.028990047
191	0x3f1715cb	0.5901763
192	0x3e598191	0.21240832
193	0xbe82d036	-0.25549477
194	0xbeb17321	-0.3465815
195	0xbb831735	-0.004000569
196	0xbf154548	-0.5830884
197	0xbe867953	-0.26264438
198	0xbd8bbffc	-0.068237275
199	0x3dfd7ff0	0.12377918
200	0x3f318a30	0.6935148
201	0x3e09753d	0.13423629
202	0x3f2c53b0	0.67315197
203	0xbe690313	-0.22755079
204	0x3ef4fd14	0.47849333
205	0x3e7676b3	0.24068718
206	0x3e7d60fd	0.2474403
207	0x3e28b8c6	0.16476735
208	0x3eedc80b	0.46441683
209	0x3ecb1334	0.39663088
210	0xbd500ad5	-0.05079158
211	0x3f12d1e3	0.5735151
212	0x3ca69ba0	0.02033788
213	0x3d96189f	0.07328915
214	0xbdd6fcef	-0.10497462
215	0x3e3a1824	0.18173271
216	0xbed1609b	-0.40894017
217	0x3c264190	0.010147467
218	0x3e888af5	0.26668516
219	0x3c58e488	0.01323808
220	0xbee0feda	-0.43944436
221	0x3d31e3e0	0.04343021
222	0x3f1b7c3c	0.6073644
223	0xbe15cd9b	-0.14629214
224	0xbf3b7085	-0.73218566
225	0xbebf6a23	-0.37385663
226	0x3bf01105	0.0073262476
227	0xbf35b589	-0.70980126
228	0xbd03b37a	-0.032153584
229	0x3e63b727	0.22237836
230	0x3d7d1e2b	0.06179635
231	0x3f1a4057	0.60254425
232	0xbf0c2703	-0.5474703
233	0xbf12b275	-0.57303554
234	0xbde2b35b	-0.110693656
235	0xbd8ae66e	-0.06782232
236	0x3d118dca	0.03553561
237	0xbebebf1e	-0.37255186
238	0x3cee1a43	0.029065257
239	0xbf4daa5b	-0.80338067

gnn_base.gnn.embed_layer.lin1.bias f4 [16]
0	0x3e09b06d	0.13446207
1	0x3c8730fb	0.016502848
2	0xbd806a0a	-0.06270225
3	0x3e068ba8	0.13139212
4	0xbdefda4e	-0.1171156
5	0xbd0b9b73	-0.034083795
6	0x3aa5330a	0.0012603712
7	0x3d903a26	0.07042341
8	0x3de67e4f	0.1125456
9	0x3dcd8b6b	0.100363575
10	0x3d653725	0.055960793
11	0x3d6c83da	0.05774293
12	0xbde32d3c	-0.11092612
13	0x3e40ef86	0.18841371
14	0x3c948679	0.018130528
15	0x3d707f9b	0.058715444

gnn_base.gnn.embed_layer.layers.0.weight f4 [16, 16]
0	0x3f843e06	1.0331428
1	0x3e105f76	0.14098915
2	0xbf05f3a1	-0.52324873
3	0x3cb0a2b1	0.021561952
4	0xbc3ec45b	-0.0116434945
5	0x3e1dc2b8	0.1540631
6	0xbc3171a0	-0.010830313
7	0x3c370ef2	0.011172997
8	0xbecf1b4a	-0.40450507
9	0x3e86a8ea	0.26300746
10	0x3d4263e4	0.047458544
11	0xbf0f223b	-0.55911607
12	0xbf2abbc7	-0.66692775
13	0x3e8400a1	0.2578173
14	0xbf414fcd	-0.7551239
15	0x3ee632d4	0.44960654
16	0x3e87c611	0.265183
17	0xbd576796	-0.05258902
18	0xbed8926d	-0.42299214
19	0x3e6958c4	0.22787768
20	0xbed3799d	-0.4130372
21	0x3f1db03c	0.6159704
22	0xbf5f7156	-0.8728231
23	0xbd07dda4	-0.033170357
24	0x3f3a1244	0.7268412
25	0x3e603441	0.21894933
26	0x3e66bdd2	0.22533348
27	0x3f35d864	0.7103331
28	0xbe4ca44b	-0.19984548
29	0xbbd54d1f	-0.0065094377
30	0x3ed46ca9	0.4148915
31	0xbebe2b73	-0.37142524
32	0x3eb3ee18	0.3514259
33	0x3e8341b4	0.25636065
34	0x3e0d9370	0.13825774
35	0x3e1895c7	0.14900886
36	0xbe3dccb7	-0.18535124
37	0xbf575ced	-0.8412617
38	0x3ed556fd	0.4166793
39	0x3eb4a341	0.35280803
40	0x3f25883e	0.64661014
41	0xbd3906c8	-0.045172483
42	0x3e765eeb	0.24059646
43	0xba88a442	-0.0010424929
44	0x3ea37f5a	0.319331
45	0xbf041f1c	-0.5160997
46	0x3eb26774	0.34844553
47	0x3f4af1b3	0.79275054
48	0xbd9eafcc	-0.07748374
49	0x3dbfcdc6	0.0936542
50	0x3ed1c03b	0.40966973
51	0x3db9753c	0.09055564
52	0xbeeb02dc	-0.4590062
53	0x3e89b3b8	0.26894927
54	0x3f07374a	0.5281874
55	0xbf758295	-0.9590238
56	0x3c0a7881	0.008451582
57	0xbe8b6c48	-0.2723105
58	0xbc55fa5f	-0.013060181
59	0xbdb47f60	-0.08813357
60	0xbd9cabe0	-0.0764997
61	0xbe948b33	-0.2901245
62	0x3f1fc4b6	0.6240953
63	0x3c288200	0.010284901
64	0x3f288892	0.6583339
65	0x3ee39d86	0.44456118
66	0x3f4e6761	0.80626494
67	0xbec5552b	-0.3854154
68	0xbd2b02bb	-0.04175065
69	0x3e75ae32	0.23992231
70	0x3e8550d3	0.26038226
71	0xbdc66ba1	-0.09688497
72	0x3edae6a9	0.42754105
73	0x3ed8e949	0.42365482
74	0xbe79df17	-0.24401508
75	0x3e852dd5	0.2601153
76	0xbf314ed7	-0.69260925
77	0xbf0e3685	-0.5555194
78	0x3d125b45	0.035731573
79	0xbe8ac3cb	-0.27102503
80	0xbe6a5e68	-0.22887576
81	0x3eabbe9e	0.33543867
82	0xbf4c4401	-0.79791266
83	0x3dc8e340	0.098089695
84	0x3e96d588	0.29459786
85	0x3de74f69	0.11294443
86	0x3f52f746	0.8240856
87	0xbdeda9c7	-0.11604648
88	0x3ebbc7cf	0.3667588
89	0x3eea2ae3	0.45735845
90	0xbe8ac323	-0.27102003
91	0x3e3cffe0	0.18456984
92	0xbe173d96	-0.14769587
93	0xbe1b3ed6	-0.15160689
94	0xbda2cd7d	-0.0794935
95	0xbe965b7b	-0.2936667
96	0x3e07ff6d	0.13281031
97	0x3ea7a013	0.32739314
98	0x3c251bc3	0.01007742
99	0xbf670049	-0.9023481
100	0xbe178fa5	-0.1480089
101	0x3cd6e295	0.02623109
102	0xbd4f5738	-0.050620288
103	0xbe9c8ec1	-0.30577663
104	0xbf0d902b	-0.5529811
105	0xbddde6d5	-0.10835043
106	0xbec5184d	-0.38495103
107	0x3e16e82d	0.14737006
108	0x3f00cfec	0.50317264
109	0xbe7faa1c	-0.24967235
110	0xb92224ba	-0.00015463206
111	0x3d0ef5c6	0.034902357
112	0xbe5216b2	-0.2051647
113	0xbef27232	-0.4735275
114	0x3dba7b39	0.09105534
115	0xbeac9807	-0.33709738
116	0xbe48fd25	-0.19627817
117	0x3ef537bf	0.47894093
118	0xbd8fe1d2	-0.07025494
119	0x3f6a3890	0.9149256
120	0xbe27f853	-0.16403322
121	0x3eb05e4f	0.34446952
122	0xbee23a74	-0.4418522
123	0xbed6ea27	-0.4197552
124	0x3e4c658b	0.1996061
125	0x3f1b3ef8	0.6064296
126	0x3962e7f0	0.00021639443
127	0x3e140c21	0.14457752
128	0xbe50ff30	-0.20409846
129	0x3f64dffc	0.89404273
130	0x3e9b4bed	0.30331364
131	0x3ea745ec	0.32670534
132	0x3e39aaa1	0.18131496
133	0x3d8c21ba	0.0684237
134	0xbe610ea7	-0.21978246
135	0x3db80cb4	0.08986798
136	0x3eb81124	0.35950577
137	0xbecc6d67	-0.39927217
138	0xbe4d4db3	-0.20049171
139	0x3e61cb27	0.22050153
140	0xbddd5467	-0.10807114
141	0xbe0d2329	-0.13782944
142	0x3d8182dd	0.06323788
143	0x3ef8ab91	0.48568395
144	0x3e1a523e	0.15070435
145	0x3ec62b1a	0.3870476
146	0x3ebf85d7	0.374068
147	0x3de43a83	0.11143973
148	0xbe7a7d32	-0.2446182
149	0xbe251730	-0.16122127
150	0x3ea4ee1d	0.32212916
151	0x3eb47d2c	0.3525175
152	0xbe16d453	-0.14729433
153	0x3cf7a7f2	0.03023145
154	0x3ee5f65b	0.44914517
155	0xbf3e1e2e	-0.742648
156	0x3f59e467	0.8511414
157	0x3cd6d07e	0.026222464
158	0xbd564fc1	-0.052322153
159	0xbea57159	-0.3231304
160	0xbea1d4b8	-0.31607604
161	0xbd64fe7b	-0.055906754
162	0x3edd3839	0.43206957
163	0x3d916b35	0.07100526
164	0xbe80fc0f	-0.25192305
165	0x3eb1f19c	0.34754646
166	0x3f06b460	0.5261898
167	0x3ef2ebcd	0.47445527
168	0xbdad97fe	-0.08476256
169	0xbdcbfe5f	-0.09960627
170	0x3e42e1c3	0.19031434
171	0x3edae42a	0.427522
172	0xbce920da	-0.028458048
173	0xbe84a329	-0.2590573
174	0xbecc7130	-0.39930105
175	0x3e92a88e	0.28644222
176	0x3e27e6bc	0.16396612
177	0x3e27be8b	0.1638128
178	0xbe557ea5	-0.20849092
179	0xbf1275e9	-0.57211167
180	0x3f4544de	0.7705821
181	0x3f48d53d	0.78450376
182	0xbe12f7ed	-0.14352389
183	0xbd8c468f	-0.068493955
184	0x3ec5bf6d	0.3862261
185	0x3e49b27b	0.19696991
186	0x3ee5f540	0.44913673
187	0xbedbd84e	-0.42938465
188	0xbc484aa6	-0.012224829
189	0xbe3f87df	-0.18704174
190	0x3e8f4e6c	0.2798952
191	0x3d757aca	0.059931554
192	0x3e2addc4	0.1668616
193	0xbdd9a7a0	-0.10627675
194	0xbd5f8a90	-0.054575503
195	0xbe1ef757	-0.1552404
196	0x3e25745c	0.16157669
197	0x3d2eb335	0.042651374
198	0x3ed19f05	0.40941635
199	0x3e96a6c4	0.29424107
200	0x3e5a4d9a	0.21318665
201	0xbf73428b	-0.9502341
202	0xbe530b0c	-0.20609683
203	0x3ea489c0	0.32136345
204	0xbe482f6e	-0.19549343
205	0x3ee3bb48	0.44478822
206	0x3eb7461e	0.35795683
207	0xbe7f8cd9	-0.24956073
208	0x3f041d29	0.51606995
209	0xbd35b1b5	-0.044358928
210	0x3e695fd8	0.22790468
211	0x3e976a7a	0.29573423
212	0x3f16b8b7	0.588756
213	0x3be73a43	0.007056506
214	0x3e47edf4	0.19524366
215	0xbefd8573	-0.49515876
216	0x3d3353ff	0.043781277
217	0x3ee0c6b6	0.43901604
218	0x3d05f0e1	0.032700423
219	0x3ed78431	0.42093042
220	0x3f16cd3e	0.58906925
221	0x3ee6654b	0.44999155
222	0xbea1bf36	-0.31591195
223	0x3d94a238	0.07257503
224	0xbe27f5d3	-0.16402368
225	0xbf020edc	-0.50803924
226	0xbdecb44d	-0.11557827
227	0x3d3c09da	0.045907833
228	0x3e0bf253	0.13666658
229	0xbdef25b5	-0.11677114
230	0xbf0df120	-0.5544605
231	0xbdea2140	-0.11432123
232	0x3f75cb38	0.9601321
233	0xbe9102a6	-0.28322333
234	0x3c80f5b8	0.015742168
235	0xbe6fcb3b	-0.2341737
236	0xbea7ff08	-0.3281176
237	0xbe6f4852	-0.23367432
238	0xbf22879d	-0.6348818
239	0xbe85794b	-0.26069102
240	0xbe2e0e2a	-0.1699759
241	0x3ebc457a	0.36771756
242	0x3df845ce	0.12122689
243	0xbf0a8945	-0.54115707
244	0xbe2814a2	-0.16414121
245	0xbf4ceecd	-0.8005188
246	0xbeb07cac	-0.34470117
247	0xbe5b9fdc	-0.214477
248	0x3f370279	0.7148815
249	0x3d203755	0.03911527
250	0x3f262b48	0.6490979
251	0x3ee59b8e	0.4484524
252	0xbdbe52d3	-0.09293141
253	0x3f09c320	0.5381336
254	0xbe7eef21	-0.24895908
255	0x3f0078e8	0.5018449

gnn_base.gnn.embed_layer.layers.0.bias f4 [16]
0	0x3bda6d4f	0.0066658626
1	0xbd83d98b	-0.064379774
2	0xbdc5c52c	-0.09656748
3	0xbd473b4f	-0.048640545
4	0x3e194f9d	0.14971776
5	0xbdbd9b17	-0.09258097
6	0xbc4ccbfc	-0.012499806
7	0x3df18a26	0.11793928
8	0xb96feb3f	-0.00022880452
9	0x3ce647cb	0.028110405
10	0xbde86967	-0.11348229
11	0x3d27af5c	0.04093872
12	0xbd9d2dc3	-0.07674744
13	0xbd20541d	-0.039142717
14	0xbd3f49ca	-0.04670123
15	0x3abe2e72	0.0014509691

gnn_base.gnn.embed_layer.layers.2.weight f4 [16]
0	0x3f65fa4f	0.89835066
1	0x3f7004e2	0.9375745
2	0x3f8cfab8	1.1014013
3	0x3f85d33f	1.0455092
4	0x3f5ecdd6	0.8703283
5	0x3f8a2506	1.0792549
6	0x3fa6c219	1.3027984
7	0x3f6f6777	0.9351725
8	0x3f99c88b	1.2014326
9	0x3f88e05e	1.0693471
10	0x3f7527fa	0.95764124
11	0x3f7f5307	0.99736065
12	0x3f8129bb	1.009086
13	0x3f5176f1	0.81822115
14	0x3f856d58	1.0423994
15	0x3f862f6f	1.0483226

gnn_base.gnn.embed_layer.layers.2.bias f4 [16]
0	0x3c081b94	0.008307356
1	0x3d6e3b0d	0.058161784
2	0x3df94a48	0.12172371
3	0x3d979e79	0.07403273
4	0x3d2240c0	0.03961253
5	0xbd7c0f3b	-0.061537962
6	0xbd578b07	-0.05262282
7	0xbdceeda8	-0.10103923
8	0xbccc45f1	-0.024935694
9	0x3e151caa	0.14561716
10	0xbd1b45ad	-0.037908245
11	0xbe46c837	-0.19412313
12	0xbdbb23a1	-0.09137655
13	0x3d859bb9	0.06523842
14	0x3d48ed4d	0.049054433
15	0x3cff849d	0.031191165

gnn_base.gnn.gnn1.lin_key.weight f4 [48, 16]
0	0xbebc643c	-0.36795223
1	0xbe20a7d7	-0.15689026
2	0x3bab1611	0.0052211364
3	0x3e512c8b	0.20427148
4	0xbdd27242	-0.10275699
5	0xbe8f36d2	-0.27971512
6	0xbe85891c	-0.2608117
7	0x3e81e7c3	0.25372133
8	0x3db3b934	0.08775559
9	0xbca056f4	-0.019572712
10	0x3eb62581	0.35575488
11	0xbe42ec43	-0.19035439
12	0x3e92f826	0.28704947
13	0x3dc6f90a	0.09715469
14	0xbe581c6d	-0.21104594
15	0xbe7374eb	-0.2377507
16	0x3d680d1d	0.05665313
17	0x3d31e8ec	0.043435022
18	0x3dda6a7b	0.10664841
19	0xbcc62094	-0.024185456
20	0xbd9269b1	-0.07149065
21	0xbd9f3355	-0.07773463
22	0xbd0164ff	-0.031590458
23	0xbd192f6e	-0.037398748
24	0xbe70c423	-0.2351232
25	0xbe82287b	-0.2542151
26	0xbe894ddd	-0.26817217
27	0x3e9245dc	0.28568923
28	0xbe6939f4	-0.22776014
29	0x3e73c92f	0.23807214
30	0xbd0531de	-0.03251826
31	0xbe62de2e	-0.22155067
32	0x3e8e43fa	0.27786237
33	0x3e3afb15	0.18259843
34	0xbe9e42fe	-0.30910486
35	0x3e7b0ccd	0.24516602
36	0xbdc594eb	-0.096475445
37	0xbe5370ec	-0.20648545
38	0xbecc9a10	-0.3996129
39	0x3b9a0132	0.0046998495
40	0xbeb0fa6e	-0.34566063
41	0x3e7e7a8f	0.2485144
42	0x3de7325a	0.11288901
43	0x3e990b9d	0.29891673
44	0x3ea82ead	0.3284811
45	0xbd67c1c0	-0.05658126
46	0x3e415a00	0.18881989
47	0xbe63d734	-0.22250062
48	0x3d007498	0.031361192
49	0xbdc0a013	-0.09405532
50	0xbefbab6d	-0.49154225
51	0x3d19da20	0.037561536
52	0xbe6f9797	-0.2339767
53	0x3e98806d	0.2978548
54	0x3dd978cf	0.106187455
55	0xbd46d3ea	-0.04854194
56	0x3f0d4dc7	0.55196804
57	0x3e81e01c	0.25366294
58	0x3e1856f9	0.14876927
59	0xbe5258c8	-0.2054168
60	0xbe601a3b	-0.21885006
61	0xbe956885	-0.29181305
62	0xbc24cb54	-0.010058243
63	0x3de8e94d	0.113726236
64	0x3dc9b82d	0.09849582
65	0x3db9ba67	0.090687566
66	0x3ee4d0d9	0.44690588
67	0xbe18113e	-0.14850327
68	0xbeabf250	-0.33583307
69	0xb763dd6f	-1.3581811e-05
70	0xbe8f2bfb	-0.27963242
71	0x3e631b38	0.22178352
72	0x3d8c9bb0	0.068656325
73	0xbe81f046	-0.25378627
74	0xbc5b18c3	-0.013372603
75	0xbde0c3ed	-0.1097487
76	0x3e1812e4	0.14850956
77	0x3ebfcd0d	0.3746113
78	0xbde6e655	-0.11274401
79	0xbe9568b5	-0.29181448
80	0xbeb219c9	-0.34785298
81	0x3db3576a	0.08756907
82	0x3e57d9cc	0.21079177
83	0x3da97f60	0.08276248
84	0xbe9a82e1	-0.30177978
85	0xbed57dfa	-0.41697675
86	0x3da7e53b	0.08198019
87	0x3c03d41f	0.008046179
88	0xbe1a62c8	-0.15076745
89	0x3df7cb58	0.120993316
90	0xbe8fe21b	-0.28102192
91	0xbd926736	-0.07148592
92	0x3e1538cd	0.14572449
93	0x3df04560	0.11731982
94	0x3e4d86d6	0.20070967
95	0x3f0e0616	0.55478036
96	0x3e7d71c3	0.24750428
97	0x3db30ea6	0.08743028
98	0x3e73f59b	0.2382416
99	0xbe8a1fe0	-0.26977444
100	0xbeb34d6b	-0.35020003
101	0x3dc5fa96	0.09666936
102	0xbe8ad182	-0.27112967
103	0x3e4bce09	0.19902815
104	0xbd68ecaa	-0.056866325
105	0xbeb26cab	-0.34848532
106	0xbd115972	-0.035485692
107	0x3e431a62	0.19053033
108	0x3e871b35	0.26387945
109	0xbcaecc55	-0.021337667
110	0x3e2537cc	0.16134566
111	0xbe8a449e	-0.27005476
112	0xbe48d616	-0.19612917
113	0xbbaec07f	-0.005333006
114	0x3e3cf6dd	0.18453546
115	0x3e378987	0.17923556
116	0x3e9612a7	0.29311106
117	0xbe04a996	-0.12955317
118	0x3d05ff01	0.032713894
119	0x3dc9ccea	0.098535374
120	0x3e1d269d	0.15346761
121	0x3eb708fb	0.3574904
122	0x3d396ed4	0.04527171
123	0xbeae4457	-0.34036514
124	0x3e1b5221	0.15168048
125	0xbc39702d	-0.011318249
126	0x3df0d0f6	0.11758606
127	0x3e8d4d04	0.2759782
128	0xbe7f0dbf	-0.24907587
129	0x3edb0ec3	0.427847
130	0xbe87884c	-0.26471174
131	0x3e29b682	0.16573527
132	0xbe312ee7	-0.17303048
133	0xbdb37c4f	-0.08763944
134	0xbdc10c00	-0.09426117
135	0x3e2175be	0.15767571
136	0xbdc977f8	-0.09837335
137	0xbc942420	-0.018083632
138	0x3d01b0c7	0.03166273
139	0x3dd9601b	0.10614034
140	0x3d233bc5	0.039851923
141	0x3e9eca65	0.3101379
142	0x3e9aea4e	0.30256885
143	0x3e879771	0.26482728
144	0x3dfb44f4	0.12269011
145	0xbe0d2402	-0.13783267
146	0xbc5f9e73	-0.013648617
147	0xbd8d612f	-0.06903302
148	0x3e8e6aff	0.27816007
149	0xbe372594	-0.17885429
150	0x3e357992	0.17722157
151	0x3da4d94d	0.08049259
152	0xbe9544cd	-0.29154053
153	0x3eb00e02	0.34385687
154	0x3d349c27	0.04409423
155	0xbc2ff82b	-0.01074032
156	0x3e6fbb89	0.23411383
157	0x3e9c9245	0.30580345
158	0xbe4e0764	-0.20120007
159	0xbe08a7b0	-0.13345218
160	0x3d8edc64	0.0697563
161	0xbcce0153	-0.025147116
162	0x3d8162f3	0.06317701
163	0xbdaa2ef6	-0.08309738
164	0x3e2af380	0.1669445
165	0xbea52d81	-0.3226128
166	0xbf0660b7	-0.52491325
167	0x3e0dbecf	0.13842319
168	0xbf1bb6c1	-0.60825735
169	0x3e0af43c	0.1356973
170	0xbe789001	-0.24273683
171	0x3ecae395	0.39626756
172	0x3e42349b	0.1896538
173	0xbe83bc1b	-0.2572945
174	0x3ddb44e7	0.107065015
175	0xbe3b3eb7	-0.18285643
176	0xbe169724	-0.14706093
177	0xbe4a62fb	-0.1976432
178	0x3da25b2e	0.079275474
179	0xbe7ff66a	-0.24996343
180	0xbe43c086	-0.1911641
181	0x3e1c77e8	0.15280116
182	0x3e80afe7	0.25134203
183	0xbd001a6c	-0.031275198
184	0x3e64181c	0.22274822
185	0xbe9de1ef	-0.30836436
186	0x3e18fedc	0.14940971
187	0xbec1ef92	-0.3787809
188	0xbe89bff7	-0.2690427
189	0xbc4ef48c	-0.012631547
190	0xbcee6eb2	-0.029105518
191	0x3d9264bd	0.071481206
192	0xbd02c25e	-0.031923644
193	0x3eb83c70	0.3598361
194	0x3b454adf	0.003010444
195	0x3e13b51b	0.14424555
196	0xbec230e8	-0.37927938
197	0xbddb66bd	-0.10712955
198	0xbc9686da	-0.01837485
199	0xbe164634	-0.14675218
200	0xbdccba7f	-0.09996509
201	0xbdec3bba	-0.115348294
202	0x3e39d1a8	0.18146384
203	0x3d95cbea	0.07314284
204	0xbcad209b	-0.021133712
205	0x3e0d1f0f	0.13781379
206	0x3e934d3c	0.28769863
207	0xbe28af8e	-0.16473219
208	0xbc5a0cad	-0.013308686
209	0xbcdd1abf	-0.026990293
210	0xbd8ce669	-0.06879885
211	0x3e322d37	0.1740006
212	0x3e80ff9a	0.2519501
213	0xbe841eda	-0.25804788
214	0xbcdfdf5b	-0.027328184
215	0x3cb3a473	0.021929001
216	0xbe5f229c	-0.21790546
217	0x3e30cbef	0.17265294
218	0x3e4b28f7	0.19839846
219	0xbce7dabf	-0.028302548
220	0x3e1813b3	0.14851265
221	0xbedddb5e	-0.43331426
222	0x3dcea347	0.100897364
223	0xbdbfe4ee	-0.09369837
224	0x3dbab025	0.09115628
225	0xbea871b8	-0.3289926
226	0x3e837846	0.256777
227	0xbd639aec	-0.055567667
228	0xbe2be0ef	-0.16785024
229	0x3e1a0e1c	0.15044445
230	0xbcd5b5bc	-0.026087634
231	0xbe3d3e30	-0.18480754
232	0x3e442212	0.19153622
233	0xbdd70880	-0.10499668
234	0xbd56b131	-0.052415077
235	0x3e4ab1c4	0.19794375
236	0xbd80637f	-0.062689774
237	0xbf043bdc	-0.5165384
238	0xbe902c19	-0.28158644
239	0xbe591635	-0.21199878
240	0xbd190ca6	-0.037365578
241	0x3df0e3e4	0.11762217
242	0xbecf32ad	-0.4046835
243	0xbdffd522	-0.12491824
244	0xbe5e03c8	-0.2168113
245	0x3cf56e68	0.029959872
246	0x3df98616	0.12183778
247	0xbc9947c9	-0.018710988
248	0x3e91fdf3	0.2851406
249	0xbea585f4	-0.3232876
250	0x3db0d2e2	0.08633973
251	0x3cb29f06	0.021804344
252	0xbe5c3870	-0.21505904
253	0xbd98e40e	-0.07465373
254	0x3ea5c986	0.32380313
255	0xbce7ee85	-0.028311977

gnn_base.gnn.gnn1.lin_key.bias f4 [48]
0	0xbe6d7764	-0.23190075
1	0xbe5e466f	-0.21706556
2	0xbe1416c8	-0.14461815
3	0xbdeb6bd2	-0.114951745
4	0x3db5af78	0.08871359
5	0x3e2763cd	0.16346665
6	0x3d04ba39	0.03240416
7	0x3e42bc54	0.19017154
8	0x3bb64fd7	0.005563717
9	0xbe3f60bc	-0.18689245
10	0xbdf3ab10	-0.11897862
11	0x3e29ea00	0.1659317
12	0x3dd902e8	0.105962574
13	0xbe366aba	-0.1781415
14	0x3e170565	0.14748152
15	0xbd863113	-0.06552329
16	0xbe504fbe	-0.20342919
17	0x3e69ddbe	0.22838494
18	0x3d9f4944	0.07777646
19	0x3b8331f7	0.004003759
20	0x3d8448a5	0.06459168
21	0x3d847797	0.064681225
22	0xbe6d0933	-0.2314804
23	0x3ca93e35	0.020659545
24	0xbe6f6552	-0.23378494
25	0x3dd4b271	0.103855975
26	0xbdf51666	-0.11967163
27	0x3e515b51	0.2044499
28	0xbdca24b7	-0.09870284
29	0xbe6a1eeb	-0.22863357
30	0x3cd6dfbb	0.02622973
31	0xbe4f4a0f	-0.20243095
32	0xbe13c3f8	-0.14430225
33	0xbe273bc5	-0.16331394
34	0x3da83ce2	0.082147375
35	0xbe1a3815	-0.15060456
36	0xbb883caa	-0.0041576223
37	0xbd8fabd5	-0.07015196
38	0x3e0343a0	0.12818766
39	0xbe75d81f	-0.24008225
40	0xbde34f6b	-0.11099132
41	0xbdb7fc9a	-0.08983727
42	0xbe6bb71d	-0.23019071
43	0xbcc24d9a	-0.023718644
44	0x3e31e281	0.1737156
45	0x3e793ea7	0.24340306
46	0x3e326198	0.17420042
47	0xbdc7ee56	-0.09762256

gnn_base.gnn.gnn1.lin_query.weight f4 [48, 16]
0	0xbe4439b9	-0.19162644
1	0xbe455324	-0.19269997
2	0xbe1c5bed	-0.15269442
3	0x3d953442	0.07285358
4	0x3e7cf00f	0.2470095
5	0xbf2a12e4	-0.66435075
6	0x3cc9b18d	0.024620796
7	0xbe752cc5	-0.2394286
8	0x3c1c8d33	0.009555149
9	0x3d90bcb5	0.07067243
10	0xbd38d865	-0.045128245
11	0xbe2d016d	-0.16895075
12	0xbebc72d7	-0.36806366
13	0x3e2d18fe	0.16904065
14	0x3e927319	0.28603438
15	0x3e1069f4	0.14102918
16	0x3c0dfa37	0.008665613
17	0x3e260a20	0.162148
18	0x3e62d43b	0.22151272
19	0x3dd47525	0.10373906
20	0xbe466be8	-0.193771
21	0x3eaf124c	0.34193647
22	0xbe952acb	-0.2913421
23	0x3dc1440f	0.09436809
24	0x3dec6939	0.11543507
25	0xbcb19334	-0.021676637
26	0xbe868133	-0.26270446
27	0xbd829a6f	-0.06377112
28	0xbd6c4318	-0.057681173
29	0xbcb9445e	-0.022615608
30	0x3cff3137	0.031151397
31	0x3c140276	0.00903379
32	0xbe42cd26	-0.1902357
33	0xbe932001	-0.28735355
34	0x3f046a1d	0.51724416
35	0x3e32c4b8	0.17457855
36	0xbe4baa1d	-0.19889112
37	0x3d88c800	0.06678772
38	0x3da0c32e	0.078497276
39	0xbe253ed1	-0.16137244
40	0x3dbacd71	0.09121216
41	0x3e636d9e	0.22209784
42	0xbee2a314	-0.44265044
43	0xbe5ff03f	-0.2186899
44	0xbe3febe9	-0.18742336
45	0xbbc5fc88	-0.006042067
46	0xbe473b3d	-0.19456191
47	0xbd36fccc	-0.04467468
48	0xbd5e3bee	-0.054256372
49	0xbedb3ab0	-0.42818213
50	0xbefb82e0	-0.49123287
51	0x3dfae973	0.12251558
52	0xbdd5a9f7	-0.10432809
53	0xbd4aa367	-0.04947224
54	0x3ea701ca	0.32618552
55	0x3da61c6d	0.081108905
56	0x3e56eaed	0.20988055
57	0x3ee72a66	0.45149535
58	0x3c6de2b1	0.0145193795
59	0xbe1366a4	-0.14394623
60	0x3d38859d	0.0450493
61	0xbea8e8d0	-0.32990122
62	0x3da1d17f	0.07901286
63	0xbcaf059a	-0.021364976
64	0xbd2a896f	-0.041634973
65	0x3eb2df86	0.3493616
66	0x3e94c1af	0.2905402
67	0xbe0312ab	-0.1280009
68	0xbea96441	-0.330843
69	0xbecc5656	-0.3990962
70	0xbcf14053	-0.029449617
71	0x3d0afaf5	0.033930738
72	0xbb37f8c7	-0.0028071867
73	0xbe931a04	-0.28730786
74	0xbdd087a0	-0.101821184
75	0xbe7204a9	-0.2363459
76	0x3e943dc3	0.2895337
77	0x3e04db42	0.12974265
78	0xbc7eda33	-0.015554952
79	0x3dfcbd5c	0.12340805
80	0xbe24417f	-0.1604061
81	0x3e2970f0	0.16546988
82	0xbd25479e	-0.040351503
83	0xbed2a267	-0.41139528
84	0x3dc58655	0.096447624
85	0x3ee521bd	0.44752303
86	0x3df41ae2	0.1191919
87	0xbe87f00c	-0.2655033
88	0xbe6dee66	-0.23235473
89	0xbe8a0699	-0.2695816
90	0x3e8525c5	0.26005378
91	0xbe1359dc	-0.14389747
92	0x3e14fc01	0.14549257
93	0x3ee2b807	0.44281027
94	0x3da35a4e	0.079762086
95	0xbdd1c64e	-0.10242902
96	0x3cd8536c	0.026406966
97	0x3e8dd4be	0.27701372
98	0x3f000ce5	0.50019675
99	0x3ed66233	0.41871795
100	0xbe9db05b	-0.3079861
101	0xbe5491c7	-0.20758735
102	0x3db7b165	0.08969382
103	0xbd69b80d	-0.05706029
104	0x3e6a9368	0.22907794
105	0xbdafb680	-0.08579731
106	0x3e15ce8c	0.14629573
107	0xbce87cba	-0.028379787
108	0x3eb22809	0.3479617
109	0xbe9a1f7c	-0.30102146
110	0x3e229c1b	0.15879862
111	0x3cc22ad9	0.023702072
112	0xbda82ee0	-0.08212066
113	0xbdcfdfbd	-0.101500966
114	0xbe21008d	-0.15722866
115	0xbea5dd2a	-0.32395297
116	0x3e5bd2b4	0.21467096
117	0xbe3a927d	-0.18219943
118	0x3da3c0b0	0.079957366
119	0xbe7b70b4	-0.24554712
120	0xbede9ea2	-0.43480402
121	0xbdb5255f	-0.088450186
122	0x3ccb90f6	0.024849396
123	0x3e2e9c3f	0.1705179
124	0xbe59ef5a	-0.21282712
125	0x3e945d2c	0.28977334
126	0xbe86d579	-0.26334742
127	0xbe0f6c72	-0.14006212
128	0xbeb544dd	-0.354041
129	0xbdbf4484	-0.0933924
130	0x3dcf6c16	0.10128038
131	0x3e1c4b9a	0.15263215
132	0xbde52443	-0.11188557
133	0x3efa8159	0.4892681
134	0x3e4a4da2	0.19756177
135	0xbd9cb5fa	-0.07651897
136	0xbdba9ad3	-0.091115616
137	0x3e2c7f88	0.16845524
138	0x3eaa558e	0.33268398
139	0xbeaf52f0	-0.34242964
140	0xbd0978b9	-0.033562396
141	0x3e7d0ee3	0.2471271
142	0xbda4bb4c	-0.080435365
143	0xbd9d1825	-0.07670621
144	0xbd55a244	-0.0521567
145	0x3dfc841d	0.12329886
146	0x3e95a92a	0.29230624
147	0x3e64b4c6	0.22334585
148	0xbe2fa3f9	-0.17152394
149	0xbe4cde25	-0.20006616
150	0x3e3a9642	0.18221381
151	0x3e12df8c	0.14343089
152	0xbe8b4f5f	-0.27208993
153	0x3e921821	0.28534034
154	0xbea49e90	-0.32152224
155	0x3e83bf77	0.25732014
156	0xbebe6734	-0.37188113
157	0x3d721357	0.059100475
158	0x3e1b40d5	0.1516145
159	0x3d00d93d	0.031457175
160	0x3e233991	0.15939929
161	0xbe0dbccf	-0.13841556
162	0x3eb6e132	0.35718685
163	0x3ea9253c	0.3303622
164	0xbe837d60	-0.2568159
165	0x3ea6707e	0.325077
166	0xbcce59c9	-0.025189297
167	0xbe8742d0	-0.2641816
168	0x3e3ba08a	0.1832296
169	0xbe4bfe54	-0.19921237
170	0xbf068b61	-0.52556425
171	0xbdc2833d	-0.09497688
172	0x3eb0732d	0.34462872
173	0x3e647aa9	0.22312416
174	0xbdd8d001	-0.105865486
175	0xbcd34269	-0.025788503
176	0xbd1235c7	-0.035695817
177	0x3da0945a	0.07840796
178	0xbe877dde	-0.26463217
179	0x3e304f5b	0.17217772
180	0xbde5b042	-0.11215259
181	0xbea0ad31	-0.31382135
182	0x3bc35912	0.0059615457
183	0x3d7ffb7f	0.062495705
184	0xbdd8ab4b	-0.105795465
185	0xbe4dc269	-0.20093693
186	0x3ef0d9ad	0.47041073
187	0x3dde7a61	0.10863186
188	0x3ddef798	0.108870685
189	0xbe8185ca	-0.25297385
190	0x3c846bea	0.016164739
191	0x3e2bf4b9	0.16792573
192	0xbe377561	-0.1791587
193	0xbe045208	-0.12921917
194	0x3e549207	0.2075883
195	0x3d8af832	0.06785621
196	0x3e345189	0.17609228
197	0x3e95650b	0.29178652
198	0xbe6c4a15	-0.23075135
199	0x3ddad737	0.1068558
200	0x3e6a1573	0.22859745
201	0xbc9c9678	-0.019114718
202	0x3e0c7947	0.13718139
203	0xbdd13e1a	-0.10216923
204	0xbd77a197	-0.06045684
205	0xbb918291	-0.0044406136
206	0xbda2a813	-0.07942214
207	0x3e8ff408	0.2811587
208	0xbb27d7ff	-0.0025610921
209	0xbcab7fd1	-0.020934971
210	0x3e0d7694	0.13814765
211	0x3e921f04	0.28539288
212	0x3dc7f206	0.09762959
213	0xbbbb853a	-0.005722669
214	0x3e2630a9	0.162295
215	0xbe859f18	-0.2609794
216	0x3e6e0e8b	0.23247735
217	0x3dbf57f6	0.09342949
218	0xbe22de9e	-0.15905234
219	0x3e88b57f	0.2670097
220	0xbd3ed17a	-0.04658649
221	0x3ecd1aa7	0.40059397
222	0xbe4c6522	-0.19960454
223	0xbe876cc9	-0.26450184
224	0x3e191f43	0.14953332
225	0x3e67cef5	0.22637542
226	0xbdad8d42	-0.084742084
227	0xbd94e483	-0.07270148
228	0xbe0d8918	-0.13821828
229	0xbe85840d	-0.2607731
230	0x3e082a4f	0.1329739
231	0xbc2e2bff	-0.010630607
232	0x3e957cc2	0.29196745
233	0xbe6d90b8	-0.23199737
234	0xbd1bb337	-0.03801271
235	0x3e0443f0	0.12916541
236	0x3e8a85fe	0.27055353
237	0xbe815b46	-0.2526495
238	0x3d318f7e	0.043349735
239	0xbe09d563	-0.13460307
240	0xbe319f37	-0.17345892
241	0xbe50b846	-0.20382795
242	0xbe2c5032	-0.16827467
243	0x3e04136c	0.12898034
244	0x3e071bdf	0.13194226
245	0x3e348690	0.17629457
246	0xbdfe2456	-0.12409274
247	0xbdce9389	-0.10086734
248	0x3e5354b5	0.20637782
249	0x3e0ac628	0.13552153
250	0x3d3f1b2a	0.046656765
251	0xbe97b362	-0.29629046
252	0x3e9e5163	0.30921468
253	0xbebeb6b7	-0.37248775
254	0xbe224771	-0.15847565
255	0xbc39492c	-0.011308949

gnn_base.gnn.gnn1.lin_query.bias f4 [48]
0	0xbe9de760	-0.30840588
1	0xbd35410f	-0.044251498
2	0xbe6f941a	-0.2339634
3	0x3efb0400	0.4902649
4	0xbdc05bf2	-0.09392537
5	0x3e71abbe	0.2360067
6	0xbe76e8cd	-0.24112244
7	0x3e88a37c	0.2668723
8	0xbd36dbb1	-0.044643108
9	0xbd536bdb	-0.05161653
10	0xbee8f8ef	-0.4550242
11	0x3ea4c795	0.3218352
12	0xbe764ca2	-0.2405267
13	0xbdc52202	-0.09625627
14	0x3dd58562	0.104258314
15	0x3db5d387	0.08878236
16	0xbe1c76ea	-0.15279737
17	0x3e42e85c	0.1903395
18	0xbefc8c96	-0.4932601
19	0x3e285f4a	0.164426
20	0xbdb01bdf	-0.08599066
21	0x3e20fe28	0.15721953
22	0x3d55b64c	0.052175805
23	0x3cfed8db	0.031109264
24	0x3cc8f7fc	0.02453231
25	0x3e6b10b3	0.22955589
26	0xbe33d027	-0.17559873
27	0x3d6c9a92	0.057764597
28	0xbd187094	-0.037216738
29	0x3e773217	0.24140202
30	0xbddae73e	-0.10688637
31	0x3ed23b51	0.4106088
32	0xbe4a2882	-0.19742015
33	0xbd85531c	-0.065099925
34	0xbe432a83	-0.19059186
35	0xbd2a1ca4	-0.04153122
36	0x3e174737	0.1477326
37	0x3cb8e021	0.02256781
38	0x3df52846	0.11970572
39	0x3e6d1a1a	0.23154488
40	0xbea57f8e	-0.3232388
41	0xbd378282	-0.044802196
42	0xbe00885c	-0.12552017
43	0xbd66aeaf	-0.056318935
44	0x3e79e9fb	0.24405663
45	0xbdccff0d	-0.100095846
46	0x3e75f2e9	0.24018444
47	0xbe8a2cac	-0.26987207

gnn_base.gnn.gnn1.lin_value.weight f4 [48, 16]
0	0x3b8959b8	0.0041916035
1	0x3e95c818	0.29254222
2	0x3e190624	0.14943749
3	0x3e8623a6	0.26199073
4	0xbe19d7e9	-0.1502377
5	0xbe7773ae	-0.24165222
6	0x3dd79787	0.105269484
7	0xbda1d6c6	-0.07902293
8	0x3e1adaea	0.15122572
9	0x3dab10fe	0.083528504
10	0x3e21dec0	0.15807629
11	0xbdda01e3	-0.10644891
12	0x3ea62a6a	0.32454234
13	0xbe348ee2	-0.1763263
14	0xbd287f62	-0.041137107
15	0xbc6acb9e	-0.014330773
16	0xbe5f3b0b	-0.21799867
17	0xbe4efd23	-0.20213751
18	0xbe9aa5e3	-0.30204687
19	0x3e5fb137	0.21844946
20	0xbdde5953	-0.10856881
21	0x3e1e7ca8	0.1547724
22	0x3e2b9fe2	0.16760209
23	0x3d5c4484	0.05377628
24	0xbcb61768	-0.022227958
25	0xbe9111cc	-0.2833389
26	0x3e4e7e41	0.2016535
27	0xbea349de	-0.31892294
28	0x3ea823a3	0.3283969
29	0x3ce82800	0.028339386
30	0x3d63a0e5	0.055573363
31	0x3b0705d1	0.0020602832
32	0x3e442323	0.19154029
33	0x3d829c99	0.06377525
34	0x3deaed66	0.114710614
35	0xbe8549c1	-0.26032832
36	0xbe328e2f	-0.17437051
37	0xbe31b184	-0.17352873
38	0x3d1ae6c5	0.037817735
39	0xbce66fcf	-0.028129486
40	0x3da245d7	0.07923477
41	0x3c3aba35	0.011396934
42	0x3e54d658	0.2078489
43	0xba9d912b	-0.0012021413
44	0x3e01e6f1	0.12685753
45	0xbdfe36f9	-0.12412829
46	0x3ebb957c	0.36637485
47	0x3e353843	0.17697243
48	0x3d7e10d0	0.062027752
49	0x3e00dda8	0.12584555
50	0x3e541520	0.20711184
51	0x3e0b7cbe	0.13621804
52	0xbb006dde	-0.0019596736
53	0xbd01a7a7	-0.031654026
54	0xbe1d5c62	-0.15367272
55	0x3dcabf58	0.09899777
56	0x3e159eb7	0.14611326
57	0x3d2d7b01	0.042353634
58	0xbc732029	-0.014839211
59	0xbd2513aa	-0.040301956
60	0x3e29a2d8	0.16566026
61	0xbe68a5b7	-0.22719465
62	0x3db7972e	0.08964382
63	0x3dfdd477	0.1239404
64	0x3cfe50d4	0.031044401
65	0xbdd10081	-0.10205174
66	0xbd5d2d17	-0.05399808
67	0xbe630f08	-0.22173703
68	0xbe08cce7	-0.13359414
69	0x3e3685b6	0.17824444
70	0xbe1fcb37	-0.15604864
71	0xbe32e9d8	-0.17472017
72	0x3e7643a7	0.24049245
73	0x3e70e283	0.23523907
74	0xbe5245a5	-0.2053438
75	0x3e8acfce	0.27111667
76	0xbd597300	-0.05308819
77	0x3e2a9f44	0.16662318
78	0xbe3c39f4	-0.18381482
79	0xbeac8d84	-0.33701718
80	0xbdcff74d	-0.10154591
81	0x3e0e8158	0.13916528
82	0x3e8ecf6c	0.27892625
83	0xbd4feba7	-0.050761845
84	0x3da516d2	0.08060993
85	0xbe1f17cb	-0.1553642
86	0xbcc8311f	-0.024437485
87	0xbe05af3f	-0.13055132
88	0xbe4efe4e	-0.20214197
89	0x3f052046	0.5200237
90	0xbd1292f3	-0.035784673
91	0xbd956880	-0.072953224
92	0x3e0ba96a	0.13638845
93	0xbca6d9b7	-0.020367486
94	0x3e082d74	0.13298589
95	0x3df7191b	0.12065335
96	0xbe277682	-0.16353801
97	0x3e40dd6d	0.18834467
98	0xbe64d6e7	-0.22347604
99	0xbe95fd8c	-0.29295003
100	0xbdc94ee1	-0.09829498
101	0xbe9f7a49	-0.31147984
102	0xbc14c9b3	-0.009081292
103	0x3d4b0f21	0.049574975
104	0x3e416c2a	0.18888918
105	0x3d63fc83	0.055660736
106	0x3e2760e1	0.1634555
107	0xbbc920e5	-0.0061379545
108	0x3de9133f	0.11380624
109	0x3e3fc549	0.18727602
110	0x3e14af55	0.14520009
111	0xbe30c3e3	-0.17262225
112	0xbaf0d5f5	-0.0018374311
113	0x3e8985bf	0.26859853
114	0xbe294cb8	-0.16533172
115	0xbdcb20ad	-0.09918342
116	0xbe60f3d4	-0.21968013
117	0xb9c09480	-0.00036731735
118	0x3d2102ef	0.03930944
119	0xbe27337b	-0.16328232
120	0xbdc88b87	-0.09792238
121	0xbb8ac179	-0.0042344895
122	0xbe5a5362	-0.2132087
123	0x3de4eca4	0.11177948
124	0x3d68a8de	0.05680167
125	0x3e464ab1	0.1936443
126	0x3edbe6ec	0.42949617
127	0x3ce6d2a1	0.028176608
128	0x3e0fa0c3	0.1402617
129	0xbc87a125	-0.016556332
130	0xbe0747a5	-0.13210924
131	0xbdae599f	-0.085131876
132	0x3d5729c9	0.052530084
133	0xbe941dc1	-0.2892895
134	0x3e062f6b	0.13104026
135	0xbe807abe	-0.25093645
136	0xbc216328	-0.009850301
137	0xbde4f67b	-0.11179825
138	0x3e085af9	0.13315953
139	0xbe88b836	-0.26703042
140	0xbe8d8ff2	-0.27648884
141	0x3d7f0d8f	0.06226879
142	0x3d7af72a	0.06127087
143	0x3da969e8	0.08272153
144	0xbe0c181f	-0.13681076
145	0x3eb55147	0.35413572
146	0x3e5fb273	0.21845417
147	0x3e2a44bd	0.16627784
148	0x3c9db960	0.019253433
149	0xbdd63be6	-0.104606435
150	0xbd94810e	-0.07251178
151	0x3e320777	0.1738566
152	0xbe27f4f9	-0.16402043
153	0x3de3ceb0	0.11123407
154	0x3d45e104	0.048310295
155	0xbea58db2	-0.32334667
156	0xbe0aba90	-0.1354773
157	0xbc495c3a	-0.012290055
158	0x3d25c140	0.0404675
159	0xbdf2483c	-0.11830184
160	0xbcb4795c	-0.022030525
161	0xbdc5dd02	-0.096612945
162	0xbe9fea73	-0.31233558
163	0x3e5c154e	0.21492502
164	0x3efdb87f	0.49554822
165	0xbeb386de	-0.35063833
166	0xbd59fed5	-0.053221542
167	0x3ce9b35d	0.02852791
168	0xbeb08b4e	-0.3448128
169	0xbdb0a4b3	-0.08625164
170	0xbeae260b	-0.340134
171	0x3e3676aa	0.17818704
172	0xbe488219	-0.19580878
173	0x3e537cd5	0.20653088
174	0xbea7964d	-0.32731858
175	0x3caa860a	0.020815868
176	0xbe5bc108	-0.21460354
177	0x3d291bae	0.041286163
178	0x3eae1dd2	0.34007126
179	0x3e228bb7	0.1587361
180	0x3e2c8552	0.16847733
181	0xbdcadd7f	-0.09905528
182	0xbdd473eb	-0.10373672
183	0xbe4a38f7	-0.19748293
184	0x3e78a1f8	0.24280536
185	0xbba65fe9	-0.0050773514
186	0x3e1d2e75	0.15349753
187	0x3e91e7ea	0.2849725
188	0x3e4ca532	0.19984892
189	0xbe83a880	-0.25714493
190	0x3cae5520	0.021280825
191	0xbeaedee7	-0.34154436
192	0xbce58d36	-0.028021436
193	0x3e9fd88c	0.312199
194	0x3dbd61e5	0.092471875
195	0xbe58592f	-0.21127771
196	0x3deb3c99	0.114861675
197	0xbd6a27ae	-0.057166748
198	0xbd417455	-0.047230083
199	0xbb8a8bf7	-0.004228111
200	0xbdc46c23	-0.09590938
201	0x3d1b7754	0.037955597
202	0x3e21ff40	0.15820026
203	0xbe323baf	-0.1740558
204	0x3dc464e1	0.095895536
205	0x3e1b564b	0.15169637
206	0x3efdc4af	0.4956412
207	0x3e3d951d	0.18513913
208	0xbe9cec06	-0.30648822
209	0x3de25742	0.11051799
210	0xbf098c13	-0.5372936
211	0xbe4b1366	-0.19831619
212	0xbcabe5a2	-0.02098352
213	0xbd94926d	-0.07254491
214	0xbd235c6f	-0.039883073
215	0x3dd241a6	0.10266428
216	0x3e74796b	0.23874442
217	0xbe77acae	-0.24186966
218	0xbb20cb1e	-0.002453513
219	0x3de8b46f	0.1136254
220	0x3e8e02e7	0.2773659
221	0x3d58190a	0.052758254
222	0xbd81972b	-0.06327661
223	0xbe21bcdb	-0.15794699
224	0x3e521f27	0.20519696
225	0xbe9ac00e	-0.3022465
226	0x3da13e75	0.07873241
227	0x3ea8c341	0.32961467
228	0x3ece61a4	0.4030887
229	0xbe447758	-0.19186151
230	0x3d886a2d	0.066608764
231	0xbd727bcc	-0.059200093
232	0x3c05b84a	0.008161614
233	0xba1c3a38	-0.0005959603
234	0xbe27e985	-0.16397674
235	0xbec197f9	-0.37811258
236	0xbe733182	-0.23749354
237	0xbea1afb8	-0.31579375
238	0xbea360e6	-0.31909865
239	0x3f2cab15	0.6744855
240	0x3e2423c6	0.16029271
241	0xbe9568c0	-0.2918148
242	0xbde252b7	-0.11050933
243	0x3dd234da	0.10263987
244	0xbe5de4e6	-0.21669349
245	0xbe05b471	-0.13057114
246	0x3d67670b	0.056494754
247	0x3e4d043f	0.20021151
248	0xbe4570a0	-0.19281244
249	0x3daf1d2c	0.08550486
250	0x3dca51fe	0.0987892
251	0x3eb61a71	0.35567048
252	0x3bacdde1	0.0052754735
253	0x3e2b9471	0.16755845
254	0xbccb2043	-0.024795657
255	0xbe495d55	-0.1966451

gnn_base.gnn.gnn1.lin_value.bias f4 [48]
0	0xbea49e66	-0.32152098
1	0xbe4e1380	-0.20124626
2	0x3eb10742	0.3457585
3	0xbdeed44c	-0.11661586
4	0x3c88ebbf	0.016713975
5	0x3df062c9	0.11737592
6	0xbe40a940	-0.18814564
7	0x3cdf99d0	0.027295023
8	0xbdd58d12	-0.10427298
9	0x3e6f71af	0.2338321
10	0x3dd3710b	0.103242956
11	0xbe055148	-0.13019288
12	0xbea48a5f	-0.3213682
13	0x3eb96d70	0.36216307
14	0x3daa35bb	0.083110295
15	0x3e85c196	0.26124257
16	0x3c79f616	0.015256425
17	0x3d438a3a	0.047739245
18	0x3e27b559	0.16377772
19	0x3e8a2e3b	0.26988396
20	0x3b54def4	0.0032481523
21	0xbe1c88d5	-0.15286572
22	0x3be30669	0.0069282544
23	0x3e46ce70	0.19414687
24	0x3cd9f086	0.026603948
25	0xbdafe394	-0.08588329
26	0x3d634f45	0.05549552
27	0x3e211c4e	0.15733454
28	0xbde5d322	-0.11221911
29	0xbd2ed09b	-0.04267941
30	0x3d81dda5	0.063411035
31	0xbe18c284	-0.14917952
32	0x3da52d38	0.080652654
33	0x3e34c532	0.17653349
34	0x3de57fad	0.11205993
35	0x3dc2d1ab	0.09512647
36	0x3e5e8875	0.21731742
37	0x3e440643	0.19143014
38	0xbe08d964	-0.13364178
39	0x3e22e27d	0.15906711
40	0x3e9fc85a	0.31207544
41	0x3d591ba0	0.05300486
42	0x3e2432c8	0.16034997
43	0xbd031423	-0.032001626
44	0x3dd78925	0.10524205
45	0x3e7d0717	0.24709736
46	0x3e1329d6	0.14371428
47	0x3e8d8543	0.27640733

gnn_base.gnn.gnn1.lin_edge.weight f4 [48, 1]
0	0xbf0fa0da	-0.56104815
1	0xbf307036	-0.6892122
2	0x3e330210	0.17481256
3	0xbf04ee97	-0.5192656
4	0xbef9a6fe	-0.48760217
5	0x3f3379a0	0.7010746
6	0x3f61dc51	0.882268
7	0x3e56a77d	0.20962329
8	0x3efc336a	0.49257976
9	0x3e485e19	0.19567145
10	0x3f201987	0.6253895
11	0x3f670ec0	0.9025688
12	0xbf4aa327	-0.791552
13	0x3f1cfd9c	0.6132448
14	0x3f5f9537	0.8733706
15	0x3ea34183	0.3188592
16	0xbf783ffd	-0.9697264
17	0xbfab739b	-1.3394655
18	0x3f0baad9	0.5455757
19	0xbeb10a52	-0.34578186
20	0xbe3c2345	-0.1837283
21	0x3f9c13fc	1.2193599
22	0x3ea806ca	0.3281768
23	0xbec02ee2	-0.3753577
24	0x3eb7ad46	0.35874385
25	0x3f68be86	0.90915716
26	0xbf6a2b95	-0.9147275
27	0x3ec96815	0.3933722
28	0x3eef6070	0.46753263
29	0x3f28adf9	0.6589046
30	0x3e0d47c8	0.13796914
31	0xbee0ae76	-0.43883103
32	0xbd0f7fff	-0.035034176
33	0xbf3e5d98	-0.7436156
34	0xbe8d3305	-0.27577987
35	0xbf83af90	-1.0287952
36	0x3f86cf63	1.0532039
37	0x3e207d1d	0.15672727
38	0x3f447ca5	0.7675269
39	0xbf2e3ff1	-0.68066317
40	0x3ef6aa27	0.4817669
41	0xbf5b86ff	-0.8575286
42	0xbe6290aa	-0.22125497
43	0x3f1535e5	0.5828536
44	0x3e49a261	0.19690849
45	0x3f358f06	0.7092136
46	0xbdd0456d	-0.10169492
47	0xbf0171e0	-0.50564384

gnn_base.gnn.gnn1.lin_skip.weight f4 [16, 16]
0	0x3dd17ad2	0.10228504
1	0xbe55e78a	-0.20889106
2	0xbe349e33	-0.17638473
3	0xbe13f82b	-0.14450137
4	0x3d5aa0f8	0.053376168
5	0xbb888c8e	-0.004167146
6	0xbe4f5127	-0.20245801
7	0x3d202f21	0.039107446
8	0xbd1fa77b	-0.03897808
9	0xbd54e595	-0.05197676
10	0x3e177ead	0.14794417
11	0xbe9d1220	-0.3067789
12	0x3e5268a1	0.20547725
13	0xbdc2b001	-0.09506226
14	0x3e0c56a6	0.13704929
15	0x3d4e9881	0.050438408
16	0x3e479e13	0.19493894
17	0xbe58c4b6	-0.2116879
18	0x3d87c54e	0.0662943
19	0x3d74ef63	0.05979861
20	0xbd114ec9	-0.035475526
21	0xbe77e657	-0.24208961
22	0x3e43e45e	0.19130084
23	0x3e03ffdb	0.1289057
24	0x3d00e8ed	0.031472135
25	0x3d39db30	0.04537505
26	0x3d855f24	0.06512287
27	0x3d186a3c	0.037210688
28	0xbe93705b	-0.28796658
29	0xbe85c8ab	-0.2612966
30	0xbdc824bf	-0.09772634
31	0xbc7680d1	-0.015045361
32	0x3e042cfc	0.12907785
33	0x3ea0d3cf	0.31411597
34	0xbd4e3e28	-0.050352246
35	0x3b60b9d2	0.0034290445
36	0x3ee2ad4e	0.44272846
37	0x3eb3f346	0.3514654
38	0xbeb7d0c6	-0.3590147
39	0xbe9a1542	-0.30094343
40	0xbe9dbf02	-0.3080979
41	0xbd5c1b71	-0.053737108
42	0xbe2fb5ae	-0.17159149
43	0xbe223d28	-0.15843642
44	0xbe41a8ee	-0.18912098
45	0x3e041912	0.12900189
46	0x3d068a0b	0.03284649
47	0xbd60e00c	-0.054901168
48	0xbd65dfae	-0.05612152
49	0xbe12b8c5	-0.14328296
50	0x3eb4475a	0.35210687
51	0x3ee9d0ea	0.456672
52	0x3df9b2e3	0.12192323
53	0x3a969be0	0.0011490546
54	0xbf12b650	-0.57309437
55	0xbc3ce66f	-0.011529549
56	0x3eaa00ca	0.33203727
57	0x3d1e72d2	0.03868372
58	0xbdc113ca	-0.094276026
59	0x3e1f3a2d	0.15549536
60	0xbcea35c9	-0.0285901
61	0xbd28a518	-0.04117307
62	0xbe561c67	-0.20909272
63	0x3da88d2c	0.082300514
64	0xbe761c80	-0.2403431
65	0xbd84e304	-0.06488612
66	0xbe80d404	-0.25161755
67	0xbe2aea85	-0.16691025
68	0x3d15877d	0.036506165
69	0xbe02b216	-0.12763247
70	0x3e09fdeb	0.13475768
71	0xbe194527	-0.14967786
72	0x3ecad94b	0.39618906
73	0xbd951500	-0.07279396
74	0xbe24829d	-0.1606545
75	0x3dfb4215	0.122684635
76	0x3ea3b804	0.3197633
77	0xbe413253	-0.18866853
78	0x3e317f32	0.17333677
79	0xbe572f03	-0.21014027
80	0x3dc5fc37	0.09667247
81	0xbe2f6127	-0.17126904
82	0x3ddb43db	0.10706302
83	0x3ea89631	0.32927087
84	0x3d349950	0.044091523
85	0xbe7d7e57	-0.24755226
86	0x3e838aa9	0.25691727
87	0x3d5cef42	0.05393911
88	0xbdf126a6	-0.1177495
89	0x3f0bd1c0	0.5461693
90	0xbeab0805	-0.33404556
91	0x3e2ab35c	0.16669983
92	0x3d23ca87	0.039988067
93	0xbc719040	-0.014743865
94	0xbe0a8139	-0.13525857
95	0x3e1e9d27	0.15489636
96	0xbd00589d	-0.03133451
97	0xbe7a27a2	-0.24429181
98	0xbdc902d4	-0.098149925
99	0xbdbf73ac	-0.093482345
100	0x3e312dcc	0.17302626
101	0xbd82841b	-0.06372853
102	0x3e578d80	0.21050072
103	0x3d5916fb	0.05300043
104	0x3ea38a06	0.3194124
105	0xbdda788b	-0.10667523
106	0xbe05a679	-0.13051786
107	0x3d9752db	0.0738885
108	0xbbd8fdb3	-0.00662204
109	0x3e374e3b	0.17900936
110	0xbecd5ab7	-0.40108272
111	0xbdbd5bd0	-0.092460275
112	0x3dce0cff	0.100610726
113	0x3e65cbfb	0.22441094
114	0xbea9ea3f	-0.33186528
115	0x3ebc05fe	0.36723322
116	0xbe731d37	-0.23741613
117	0x3e036d32	0.12834623
118	0xbdbeefa4	-0.093230516
119	0x3dd1cf03	0.102445625
120	0xbd000ecd	-0.031264115
121	0x3e8cd2b9	0.2750452
122	0xbe0260e2	-0.1273227
123	0xbdcd8f18	-0.100370586
124	0xbe8cc688	-0.27495217
125	0x3d7c2ce3	0.061566245
126	0x3d923cf8	0.07140535
127	0x3e718d95	0.23589166
128	0xbe82772a	-0.2548154
129	0x3d7e36a1	0.062063817
130	0xbdd9260a	-0.106029585
131	0xbdf9a7fd	-0.12190244
132	0x3cf6598e	0.030072
133	0x3e147ac6	0.1449996
134	0x3e758164	0.2397514
135	0xbe614af5	-0.2200125
136	0xbc50aa16	-0.012735864
137	0xbe7e4855	-0.2483228
138	0x3eaf39c2	0.34223753
139	0xbe5c790c	-0.2153055
140	0xbdd6c93f	-0.104876034
141	0xbd016672	-0.03159184
142	0xbea34269	-0.31886604
143	0x3e45cdc8	0.1931678
144	0xbdf5f115	-0.120088734
145	0xbcca62a8	-0.024705246
146	0xbdbc1d76	-0.09185307
147	0x3e558f84	0.20855528
148	0xbe060580	-0.13088036
149	0x3d287793	0.04112966
150	0xbe5690cc	-0.20953673
151	0x3c1864f1	0.00930141
152	0x3d0d3641	0.03447557
153	0x3e19887e	0.14993474
154	0xbdf948fa	-0.12172122
155	0x3c2ed0aa	0.010669867
156	0xbe83d6a5	-0.25749698
157	0xbda1dbbe	-0.079032406
158	0x3cc2509a	0.023720074
159	0xbe1668e4	-0.1468845
160	0xbdbe9cca	-0.09307249
161	0x3e966196	0.29371327
162	0xbd8dc4f6	-0.06922333
163	0x3de8b427	0.11362486
164	0xbdf59e65	-0.11993102
165	0xbe384914	-0.17996627
166	0x3df5e12f	0.12005841
167	0x3d7daa50	0.06193
168	0xbe73cb50	-0.23808026
169	0x3e33c697	0.17556225
170	0xbe732d33	-0.23747711
171	0x3d45e7a9	0.04831663
172	0x3e35555e	0.17708346
173	0x3e0a49fd	0.13504787
174	0x3e2e81e3	0.17041735
175	0xbe089e56	-0.1334165
176	0xbeb83f2e	-0.35985702
177	0xbe24387f	-0.16037177
178	0x3eaa6c36	0.33285683
179	0xbe8cd889	-0.27508953
180	0xbd2f3404	-0.042774215
181	0xbdf809a2	-0.12111212
182	0xbe47219f	-0.19446419
183	0x3e994c75	0.29941145
184	0xbdad2847	-0.08454948
185	0x3eb1508c	0.34631765
186	0x3e942acc	0.289389
187	0xbdf816f7	-0.12113755
188	0xbe14a772	-0.14517
189	0x3d3e95d5	0.04652961
190	0x3e38e432	0.180558
191	0x3e1c7e06	0.15282449
192	0x3d1cda7c	0.0382943
193	0xbe7f87a3	-0.24954085
194	0xbe3223da	-0.17396489
195	0xbcae5b6b	-0.021283826
196	0xbe44c5f3	-0.19216137
197	0xbe94d6c5	-0.29070106
198	0x3eb28c0d	0.34872475
199	0xb887c151	-6.4733096e-05
200	0x3e5f05f3	0.21779613
201	0xbe81f447	-0.2538168
202	0xbde4a37f	-0.11163997
203	0x3e64db35	0.22349246
204	0xbd338ca7	-0.04383531
205	0xbcf0d3e9	-0.029397922
206	0xbe238884	-0.15970045
207	0x3df8015d	0.12109635
208	0xbec80a1f	-0.39070222
209	0xbd8dd13f	-0.06924676
210	0xbe1175f6	-0.14205155
211	0x3dc4737c	0.095923394
212	0x3e565b27	0.2093321
213	0xbe81802e	-0.25293106
214	0x3d90159f	0.07035374
215	0xbea85cb9	-0.32883242
216	0x3c9553a5	0.018228361
217	0x3f1bed85	0.609093
218	0xbe2d80ee	-0.16943714
219	0xbd8fc094	-0.07019153
220	0xbeb5181a	-0.3536995
221	0xbe70492d	-0.23465414
222	0xbd84453a	-0.064585164
223	0xbc6b366c	-0.014356237
224	0xbdaad137	-0.08340686
225	0xbe7bbed7	-0.24584518
226	0x3e5d346f	0.21602033
227	0xbe25e23f	-0.16199587
228	0xbd5e1325	-0.054217476
229	0x3db8b2cb	0.09018477
230	0xbdab300e	-0.08358775
231	0xbe0d1d11	-0.13780619
232	0x3dbdb12c	0.092623085
233	0xbe6d65dd	-0.23183389
234	0xbe8a6d44	-0.27036488
235	0x3d3db03b	0.046310645
236	0xbd55cbe6	-0.052196406
237	0xbe812783	-0.25225458
238	0xbd751a19	-0.05983934
239	0x3e91cb01	0.28475192
240	0xbe9dc1aa	-0.30811816
241	0x3e8e477c	0.27788913
242	0xbcee0597	-0.0290554
243	0xbd406630	-0.046972454
244	0x3e1de7cc	0.15420455
245	0x3e096ebb	0.13421147
246	0xbbda39f0	-0.0066597387
247	0xbc5fb207	-0.013653285
248	0xbe5bd9c0	-0.21469784
249	0xbd8601be	-0.06543301
250	0x3c5748bc	0.0131399
251	0xbe505749	-0.20345797
252	0xbd69d4e4	-0.057087794
253	0xbe5b2cbe	-0.21403787
254	0x3ddbcad6	0.10732047
255	0xbd8d1ce6	-0.068902776

gnn_base.gnn.gnn1.lin_skip.bias f4 [16]
0	0xbe99ed8b	-0.30064043
1	0xbe671877	-0.22567926
2	0x3dfcab64	0.12337378
3	0xbe33282b	-0.17495792
4	0xbe38e5b2	-0.18056372
5	0x3d3a79e8	0.045526415
6	0xbc3bf944	-0.011473004
7	0x3e131bf5	0.14366134
8	0xbdbd61ea	-0.09247191
9	0x3e19923e	0.14997193
10	0xbe25a75c	-0.16177124
11	0xbe411e40	-0.18859196
12	0xbc1eec85	-0.009699945
13	0x3dae7baf	0.085196845
14	0x3e65c5f5	0.22438796
15	0xbe4d92be	-0.20075509
