model_weights/FA_FR/tube/feb15/basic/actor.pt (torch, 202776 bytes, 58 tensors)

gnn_base.gnn.embed_layer.layer_norm.weight f4 [16]
0	0x3f871d7c	1.0555873
1	0x3f4f444e	0.809636
2	0x3f773744	0.96568704
3	0x3f95ba63	1.1697506
4	0x3f8204d3	1.0157722
5	0x3f9aa376	1.2081134
6	0x3f82f620	1.0231361
7	0x3f7c38e4	0.9852431
8	0x3f84da5d	1.0379139
9	0x3f842a00	1.0325317
10	0x3f8e00cb	1.1093992
11	0x3f909f6d	1.1298653
12	0x3f83ac5e	1.0286977
13	0x3fa22fb6	1.267081
14	0x3f9d5c0d	1.2293717
15	0x3f844823	1.0334514

gnn_base.gnn.embed_layer.layer_norm.bias f4 [16]
0	0xbdea41b8	-0.11438316
1	0x3dee481a	0.11634846
2	0xbc06c6da	-0.008226121
3	0xbe011e1d	-0.12609144
4	0x3c86dd43	0.016462928
5	0xbce119c7	-0.027478112
6	0x3d97022b	0.073734604
7	0x3d6409ad	0.05567329
8	0x3d09b05c	0.033615455
9	0x3d178a8a	0.036997356
10	0x3d7bf5dc	0.061513767
11	0x3d59df55	0.0531915
12	0x3d1ad863	0.03780402
13	0x3b975892	0.0046187127
14	0xbbb4cce8	-0.005517591
15	0xbe0366c0	-0.12832165

gnn_base.gnn.embed_layer.entity_embed.weight f4 [4, 2]
0	0x3fbacf3b	1.4594492
1	0xbe2450be	-0.16046426
2	0xc00ceb98	-2.2018795
3	0x3f0e785b	0.556524
4	0xbf84c0da	-1.0371354
5	0xbf99e0bf	-1.2021712
6	0x3ece837a	0.40334684
7	0x3f5688e5	0.83802634

gnn_base.gnn.embed_layer.lin1.weight f4 [16, 10]
0	0x3ef1ef1a	0.47252733
1	0xbf1d81aa	-0.61525977
2	0xbec00d38	-0.37510085
3	0x3dc4fca0	0.09618497
4	0x3ddc4e5a	0.10757132
5	0x3db8b490	0.090188146
6	0x3da6babd	0.08141086
7	0xbe1c2e15	-0.15251954
8	0xbf2852d9	-0.65751415
9	0xbded2e34	-0.11581078
10	0x3e267fc9	0.16259684
11	0xbeffa536	-0.49930733
12	0x3d4432d0	0.04790002
13	0xbe146cad	-0.14494582
14	0x3f0e4d7a	0.5558697
15	0xbf217556	-0.63069665
16	0xbeb40bd4	-0.35165274
17	0x3e99467d	0.2993659
18	0x3e32e460	0.1746993
19	0xbf0fa06c	-0.5610416
20	0x3e63e0cd	0.22253723
21	0x3ebcd3dd	0.3688039
22	0x3f4edad2	0.80802643
23	0xbeaf5186	-0.34241885
24	0xbde0579c	-0.1095421
25	0x3e7fda92	0.24985722
26	0x3e23c2e7	0.15992318
27	0xbeeb2251	-0.4592462
28	0xbebcaec1	-0.36852077
29	0x3c635223	0.013874563
30	0xbf5d68e8	-0.864882
31	0xbc77c476	-0.0151225235
32	0x3d0cf200	0.034410477
33	0x3e163c23	0.14671378
34	0xbf0c52a4	-0.548136
35	0xbeb7805d	-0.3584012
36	0xbe1fe6f5	-0.15615447
37	0xbd642a4a	-0.055704392
38	0xbe7df6c5	-0.24801166
39	0x3da6e608	0.08149344
40	0xbecc82f9	-0.39943674
41	0x3e7ef830	0.24899364
42	0xbf31dc03	-0.69476336
43	0xbf3d582f	-0.7396268
44	0x3ea3eeb8	0.32018065
45	0xbd1ff6e1	-0.0390538
46	0x3e011e7c	0.12609285
47	0xbeee1e07	-0.46507284
48	0x3e35a343	0.1773806
49	0xbe06c816	-0.13162264
50	0x3e64b6ae	0.22335312
51	0x3ed6045b	0.41800198
52	0x3e5fc51e	0.21852538
53	0x3e78275b	0.24233763
54	0x3f0270cd	0.5095337
55	0x3e7a9a5f	0.2447295
56	0xbf1a4e61	-0.60275847
57	0x3f0f17b1	0.55895525
58	0xbf1b59e0	-0.60684013
59	0x3eb43ad0	0.3520112
60	0x3f185fed	0.5952137
61	0x3ed7d26d	0.4215273
62	0x3e2ffe63	0.17186885
63	0xbe09148f	-0.13386749
64	0xbdd4aff9	-0.103851266
65	0xbec83f17	-0.39110634
66	0xbf45d959	-0.7728477
67	0xbf136d2c	-0.5758846
68	0x3d8c06ca	0.068372324
69	0xbec2b079	-0.38025263
70	0xbc910088	-0.017700449
71	0xbce12345	-0.027482638
72	0x3ec668e2	0.38751894
73	0x3eaa7a38	0.3329637
74	0x3f76501d	0.96215993
75	0xbe5f390c	-0.21799105
76	0x3ee82ab1	0.4534507
77	0xbeaf37b2	-0.3422218
78	0x3df4b0ba	0.119477704
79	0x3e53d3cb	0.20686261
80	0x3f1b945a	0.6077324
81	0x3e4d94d8	0.2007631
82	0x3e945ef6	0.289787
83	0xbee00ad9	-0.43758276
84	0x3d9559e5	0.07292537
85	0xbf874d87	-1.0570534
86	0x3dfed881	0.124436386
87	0xbc8c7986	-0.01714779
88	0xbdf5f286	-0.12009148
89	0x3d529f56	0.051421486
90	0xbe235288	-0.15949452
91	0xbf50a427	-0.81500477
92	0x3f0167fc	0.5054929
93	0xbdc016b6	-0.09379332
94	0x3dca9301	0.0989132
95	0xbeccffe1	-0.4003897
96	0x3e210a73	0.15726642
97	0xbacae331	-0.0015479085
98	0x3e938fae	0.28820556
99	0xbcb476ed	-0.022029364
100	0xbd72bb62	-0.059260733
101	0x3f05511e	0.520769
102	0xbf0be4a9	-0.5464578
103	0x3f018366	0.50591123
104	0xbece58bb	-0.4030207
105	0xbd37d31f	-0.044879075
106	0xbef82889	-0.48468426
107	0xbe1a00f5	-0.15039428
108	0x3f054b9c	0.52068496
109	0x3f736c8d	0.9508751
110	0x3e2707d5	0.16311581
111	0xbeef68e8	-0.46759725
112	0xbf274172	-0.65334237
113	0xbec8ee6a	-0.39244395
114	0xbf1256bf	-0.57163614
115	0xbf2480b8	-0.6425891
116	0x3e67251f	0.22572754
117	0x3e319af9	0.17344274
118	0xbd40b172	-0.047044225
119	0x3ee86981	0.45392993
120	0xbb91a558	-0.0044447593
121	0x3dba37ec	0.090926975
122	0xbf0da08a	-0.5532309
123	0xbf865407	-1.0494393
124	0xbda015be	-0.07816647
125	0xbdb408af	-0.08790719
126	0xbd1ca1c9	-0.038240228
127	0x3e95ccdd	0.2925786
128	0x3e609fb4	0.21935922
129	0x3e1691c1	0.14704038
130	0x3f18c978	0.59682417
131	0x3ec35e0d	0.38157693
132	0x3f92bc61	1.1463739
133	0xbd0e3a74	-0.034723714
134	0x3f00eb01	0.5035859
135	0x3da79622	0.081829324
136	0x3db97c05	0.09056858
137	0x3f46d49a	0.77668154
138	0x3e9e2d13	0.30893764
139	0xbeede954	-0.46467078
140	0x3e8ce86d	0.27521077
141	0x3f557f84	0.833977
142	0xbd89a763	-0.067213796
143	0x3f80943f	1.0045241
144	0x3edb2fb5	0.42809835
145	0xbd65f69c	-0.05614339
146	0x3e26c100	0.16284561
147	0x3c7f51e0	0.015583485
148	0xbe8c3ee2	-0.27391726
149	0xbe8df3d5	-0.27725092
150	0xbf38d21a	-0.7219559
151	0x3f1aeeeb	0.6052081
152	0xbe3e2b14	-0.1857112
153	0xbe708eca	-0.2349197
154	0xbe5c8d0d	-0.21538182
155	0x3ea5c063	0.32373342
156	0x3f0a410b	0.540055
157	0x3dbb887b	0.09156891
158	0xbcd94faf	-0.026527254
159	0xbe7bdd0e	-0.24596044

gnn_base.gnn.embed_layer.lin1.bias f4 [16]
0	0xbe0b9d96	-0.13634333
1	0xbdaac128	-0.08337623
2	0xbd820e58	-0.06350392
3	0xbd127094	-0.035751894
4	0x3c08518f	0.008320226
5	0xbe06d904	-0.13168722
6	0xbd056a92	-0.032572336
7	0x3dcae301	0.09906579
8	0xbd7a2394	-0.061069086
9	0xbd0825ce	-0.03323918
10	0xbd0c62a5	-0.034273762
11	0xbda49919	-0.080370136
12	0x3d829e7c	0.06377885
13	0xbd150a35	-0.036386687
14	0x3d9bfcf6	0.07616608
15	0xbe12c86f	-0.14334272

gnn_base.gnn.embed_layer.layers.0.weight f4 [16, 16]
0	0xbe8ec0ee	-0.2788157
1	0xbe983278	-0.29726005
2	0xbeb5aa0f	-0.35481307
3	0xbda53dc7	-0.08068424
4	0x3f220cd6	0.63300836
5	0x3c5dbad4	0.013533313
6	0x3f15f916	0.585832
7	0xbe14a793	-0.1451705
8	0xbe9e4a53	-0.3091608
9	0x3ca36915	0.019947568
10	0xbebef524	-0.37296402
11	0x3f0ba2e0	0.545454
12	0xbc9deeab	-0.019278845
13	0xbf421490	-0.75812626
14	0xbf14476c	-0.5792148
15	0xbd803e82	-0.062619224
16	0x3d7be125	0.06149401
17	0xbe4e0249	-0.20118059
18	0x3eb8af4d	0.36071244
19	0xbc47827e	-0.012177108
20	0x3ed3f656	0.41398877
21	0x3ef27ae6	0.4735939
22	0x3f4b2703	0.793564
23	0x3e9110fb	0.28333268
24	0xbe08d325	-0.13361795
25	0x3f52f501	0.82405096
26	0xbde34adb	-0.11098262
27	0xbeb3fcab	-0.35153708
28	0x3ed3150c	0.41226995
29	0x3f2077f9	0.62683064
30	0xbe8a78f1	-0.27045396
31	0x3eacd90c	0.33759344
32	0xbea85c71	-0.32883027
33	0x3f5f44d3	0.8721439
34	0xbef9a549	-0.48758915
35	0x3e5d6aac	0.21622723
36	0xbe633c18	-0.22190893
37	0x3f35725a	0.7087761
38	0x3e84d036	0.25940102
39	0xbd763340	-0.06010747
40	0x3ec7c87c	0.39020145
41	0x3d536b3a	0.05161593
42	0x3ebc18d1	0.36737683
43	0xbe1cd53e	-0.1531572
44	0xbf19a2e1	-0.6001416
45	0x3da1f5b9	0.07908196
46	0x3ecdb35b	0.401759
47	0xbd9b1ffd	-0.07574461
48	0x3eb44660	0.35209942
49	0x3e6a3357	0.22871147
50	0xbeb85a29	-0.36006287
51	0xbf54355b	-0.82893914
52	0x3e0695c4	0.13143069
53	0x3ead4236	0.33839577
54	0xbf0d167c	-0.55112433
55	0x3eae3e8a	0.3403209
56	0x3dca9bbf	0.098929875
57	0x3e9f20e6	0.31079787
58	0xbea659db	-0.3249043
59	0xbc7a5287	-0.015278465
60	0xbf56c029	-0.83886963
61	0x3da75451	0.08170379
62	0x3f09aa17	0.5377516
63	0xbe36d696	-0.17855296
64	0x3eb65803	0.35614023
65	0x3eb52fef	0.35388133
66	0xbe9f9c9e	-0.31174177
67	0xbe3dac88	-0.18522847
68	0xbe383fba	-0.1799306
69	0xbeef1aa7	-0.46700022
70	0xbe0abedf	-0.13549374
71	0xbed3e6bd	-0.41386977
72	0xbf50fdda	-0.81637347
73	0x3d6e91f8	0.058244675
74	0xbeff624e	-0.49879688
75	0xbd83256c	-0.06403622
76	0x3f53bf29	0.8271356
77	0x3dc9ab9b	0.09847184
78	0x3ea8427c	0.32863224
79	0x3f0a22e2	0.53959477
80	0x3e8844a9	0.26614884
81	0x3e914af4	0.28377497
82	0x3f18800e	0.59570396
83	0xbf57df0e	-0.8432473
84	0xbf019441	-0.5061684
85	0x3dcdd5b6	0.10050528
86	0xbc95372e	-0.018214788
87	0xbc9b43cf	-0.018953232
88	0x3e0d9b1a	0.13828698
89	0x3d59c78f	0.05316883
90	0xbe0cc330	-0.13746333
91	0x3e9288f5	0.28620115
92	0x3e394fc9	0.18096842
93	0xbe20b644	-0.15694529
94	0xbf24009f	-0.6406345
95	0x3e234ed1	0.15948035
96	0x3e9f1c10	0.31076097
97	0x3863a399	5.427338e-05
98	0xbe50d355	-0.20393117
99	0x3f04415b	0.51662225
100	0xbeebf418	-0.46084666
101	0xbeaa8110	-0.33301592
102	0xbd7301a3	-0.059327733
103	0x3edbe03a	0.4294451
104	0xbf69103b	-0.9104039
105	0x3cd8076b	0.026370725
106	0x3f132ac9	0.5748716
107	0xbc867b9e	-0.016416367
108	0xbe890f17	-0.26769325
109	0x3d146242	0.03622652
110	0xbed38135	-0.41309515
111	0x3ee6e015	0.45092836
112	0x3d42f7c2	0.04759956
113	0x3ec8e7b2	0.3923927
114	0x3e89d19d	0.26917735
115	0xbe0009e6	-0.12503776
116	0xbed83f22	-0.42235667
117	0xbd8a020f	-0.06738674
118	0x3edb77cb	0.42864832
119	0xbee1cace	-0.4410004
120	0xbf0d3fb9	-0.5517536
121	0x3d7f341e	0.062305562
122	0xbf30d4be	-0.6907462
123	0xbeeb7222	-0.45985514
124	0xbed2aab6	-0.41145867
125	0x3f0017de	0.5003642
126	0x3d50f097	0.051010694
127	0xbf24e6f7	-0.64414924
128	0xbf2557c0	-0.6458702
129	0x3e78f472	0.24311998
130	0x3e95bacf	0.29244086
131	0xbe6f075f	-0.23342656
132	0xbe83a128	-0.2570889
133	0x3f4c2a98	0.7975249
134	0x3da1d495	0.07901875
135	0x3eee0cb2	0.4649406
136	0xbedb0cd3	-0.42783222
137	0xbecd24f6	-0.4006726
138	0xbd1b1a73	-0.03786702
139	0xbef67a83	-0.48140344
140	0x3e158398	0.1460098
141	0xbda9408f	-0.08264267
142	0x3f0aedbf	0.5426902
143	0x3e86ff00	0.26366425
144	0x3d3ce045	0.046112318
145	0x3e02a396	0.12757716
146	0x3f193d99	0.59859616
147	0xbd5c6f96	-0.053817354
148	0x3ef5ee82	0.4803353
149	0xbd08fc28	-0.0334436
150	0xbda337e3	-0.07969644
151	0xbefabc32	-0.48971707
152	0xbdf44130	-0.11926496
153	0x3eb2df7a	0.34936124
154	0x3e9f1800	0.31072998
155	0xbf0c6151	-0.54835993
156	0xbcecfd2f	-0.028929321
157	0xbf17d995	-0.5931638
158	0x3e38d50f	0.18050025
159	0x3ea8f2f4	0.3299786
160	0x3d213ec6	0.039366506
161	0xbde7844c	-0.113045305
162	0xbdf1bff4	-0.1180419
163	0x3eb0814b	0.34473643
164	0x3ec41d3d	0.38303557
165	0x3e2438d8	0.16037309
166	0xbe0efa0d	-0.13962574
167	0xbf5dfe7a	-0.86716425
168	0xbe070c85	-0.1318837
169	0xbf04c05d	-0.51856023
170	0x3e0a3ddc	0.1350016
171	0x3f102044	0.56299233
172	0x3c991b1d	0.018689686
173	0x3e9d346f	0.30704066
174	0x3d22ebd8	0.0397757
175	0x3f3f8cea	0.7482439
176	0xbf14f8c4	-0.58192086
177	0xbeabd850	-0.3356347
178	0xbdef178a	-0.116744116
179	0xbe66efff	-0.22552489
180	0x3e8d4e38	0.2759874
181	0x3eb54a42	0.35408217
182	0xbf44db39	-0.7689701
183	0xbd91657f	-0.07099437
184	0xbf325c24	-0.69671845
185	0x3e02b51c	0.127644
186	0x3f456b80	0.77117157
187	0xbead26e0	-0.33818722
188	0x3e7c3a38	0.24631584
189	0x3e120eab	0.14263408
190	0xbf14fcee	-0.5819844
191	0xbeca7c2b	-0.39547858
192	0xbedb0dea	-0.42784053
193	0xbf49cd32	-0.7882873
194	0xbf146a43	-0.5797464
195	0x3d88dd18	0.06682795
196	0xbf56ffb3	-0.83983916
197	0xbd1169e6	-0.035501383
198	0xbd483339	-0.048876975
199	0xbf0152b8	-0.50516844
200	0x3ef80b2d	0.48446026
201	0x3e98c0ba	0.2983454
202	0xbd7ec77a	-0.062201954
203	0x3d93a097	0.072083645
204	0xbd85bfdc	-0.06530735
205	0xbf34e79f	-0.70665926
206	0x3eb19e33	0.3469101
207	0x3ee91c95	0.4552962
208	0xbe735d07	-0.23765956
209	0x3cd44bf8	0.025915131
210	0xbe6202ee	-0.2207143
211	0xbe33336a	-0.17500082
212	0x3e985c7f	0.2975807
213	0xbed9285a	-0.42413598
214	0x3d517941	0.051141027
215	0x3e406f9f	0.1879258
216	0x3e3ec8e1	0.18631317
217	0xbed5e6e4	-0.41777718
218	0xbe3a8944	-0.18216425
219	0xbf6f7035	-0.9353059
220	0xbe300cb1	-0.17192341
221	0x3e8a3ee7	0.27001116
222	0xbefd5f97	-0.49486992
223	0x3f238957	0.6388144
224	0xbe19ce47	-0.15020095
225	0x3c45e3a5	0.0120782005
226	0x3dd23ed5	0.102658905
227	0x3f21035a	0.6289574
228	0x3dfb3ee1	0.122678526
229	0x3e6c7b38	0.23093879
230	0xbea43624	-0.32072556
231	0xbbca416f	-0.006172351
232	0xbdac8906	-0.08424573
233	0x3f485663	0.78256816
234	0xbf32abcd	-0.697934
235	0x3c920cfd	0.017828459
236	0xbd9d4a0f	-0.07680141
237	0x3e5f8197	0.21826778
238	0xbf482e48	-0.7819562
239	0xbd910c0e	-0.070823774
240	0x3f656e37	0.896213
241	0xbd1b62d8	-0.03793606
242	0xbe4fe10e	-0.20300695
243	0x3eb2493d	0.348215
244	0xbe44a23a	-0.1920251
245	0x3f210d3b	0.62910813
246	0x3e10d206	0.14142618
247	0x3d2b9cde	0.041897647
248	0x3d8315ed	0.064006664
249	0xbe098733	-0.1343048
250	0xbe677cbd	-0.22606178
251	0xbed39235	-0.41322485
252	0x3bb065c8	0.005383227
253	0xbe4d3a7f	-0.20041846
254	0xbed5b019	-0.41735914
255	0xbe82a932	-0.2551971

gnn_base.gnn.embed_layer.layers.0.bias f4 [16]
0	0x3e162ca2	0.14665464
1	0xbd225926	-0.0396358
2	0xbd57983d	-0.05263542
3	0x3d97b76a	0.0740803
4	0x3dacdf99	0.08441085
5	0x3ca2b089	0.01985957
6	0xbcd18a83	-0.025578743
7	0xbc3c8ee8	-0.011508681
8	0xbdca55d0	-0.09879649
9	0xbcd9c61c	-0.026583724
10	0xbda24aaa	-0.07924397
11	0x3d7bec0d	0.061504412
12	0x3d8faf8b	0.07015904
13	0xbabe8f29	-0.0014538515
14	0xbdc31142	-0.09524776
15	0xbe286d54	-0.16447955

gnn_base.gnn.embed_layer.layers.2.weight f4 [16]
0	0x3f871d7c	1.0555873
1	0x3f4f444e	0.809636
2	0x3f773744	0.96568704
3	0x3f95ba63	1.1697506
4	0x3f8204d3	1.0157722
5	0x3f9aa376	1.2081134
6	0x3f82f620	1.0231361
7	0x3f7c38e4	0.9852431
8	0x3f84da5d	1.0379139
9	0x3f842a00	1.0325317
10	0x3f8e00cb	1.1093992
11	0x3f909f6d	1.1298653
12	0x3f83ac5e	1.0286977
13	0x3fa22fb6	1.267081
14	0x3f9d5c0d	1.2293717
15	0x3f844823	1.0334514

gnn_base.gnn.embed_layer.layers.2.bias f4 [16]
0	0xbdea41b8	-0.11438316
1	0x3dee481a	0.11634846
2	0xbc06c6da	-0.008226121
3	0xbe011e1d	-0.12609144
4	0x3c86dd43	0.016462928
5	0xbce119c7	-0.027478112
6	0x3d97022b	0.073734604
7	0x3d6409ad	0.05567329
8	0x3d09b05c	0.033615455
9	0x3d178a8a	0.036997356
10	0x3d7bf5dc	0.061513767
11	0x3d59df55	0.0531915
12	0x3d1ad863	0.03780402
13	0x3b975892	0.0046187127
14	0xbbb4cce8	-0.005517591
15	0xbe0366c0	-0.12832165

gnn_base.gnn.gnn1.lin_key.weight f4 [48, 16]
0	0xbd3fd275	-0.046831567
1	0x3d97680c	0.07392892
2	0xbeac45d2	-0.3364702
3	0xbec8c499	-0.39212492
4	0x3d80ae9c	0.06283304
5	0x3df18f9d	0.1179497
6	0xbe01964a	-0.12654987
7	0xbe77f1a1	-0.24213268
8	0x3ec42f4e	0.3831734
9	0x3e65da41	0.22446539
10	0xbdfdf954	-0.12401071
11	0x3d4112fa	0.047137238
12	0xbeb8a54b	-0.3606361
13	0x3da25b5e	0.07927583
14	0xbe1174b3	-0.14204673
15	0x3f003ba9	0.50091034
16	0xbe5fec25	-0.21867426
17	0x3e559568	0.20857775
18	0xbd81d6e5	-0.06339816
19	0xbccb75eb	-0.024836501
20	0xbdc01a90	-0.093800664
21	0xbde7fbdc	-0.11327335
22	0x3eec6d53	0.46177158
23	0xbda9ef98	-0.08297652
24	0x3e2e20e4	0.17004734
25	0x3e9480f6	0.2900464
26	0xbeed3b98	-0.4633453
27	0x3ca3a5ac	0.01997646
28	0x3ca76ce5	0.020437667
29	0x3dd44811	0.10365308
30	0x3e1773f3	0.14790325
31	0x3e469bfd	0.19395442
32	0xbd636c46	-0.05552318
33	0xbe1bde6e	-0.15221569
34	0xbe0c2e1d	-0.13689466
35	0xbcb810b7	-0.022468908
36	0x3e3626d4	0.17788249
37	0xbea0dd6d	-0.31418934
38	0x3ea23dda	0.31687814
39	0x3dbb2430	0.091377616
40	0x3e316950	0.1732533
41	0x3d92c9ca	0.071673945
42	0xbde2e873	-0.110794924
43	0xbead2e4f	-0.33824393
44	0x3de64001	0.112426765
45	0xbe1a87cb	-0.15090863
46	0xbe5cecf6	-0.21574768
47	0x3ea35282	0.31898886
48	0x3e45260a	0.19252792
49	0xbe6382a3	-0.22217803
50	0xbf08ccc5	-0.53437454
51	0xbea4fd62	-0.32224566
52	0x3d3c6da8	0.046003014
53	0xbddbe880	-0.10737705
54	0xbe0e9c97	-0.13926922
55	0xbe928c36	-0.28622597
56	0x3e89fabf	0.26949117
57	0x3d19c741	0.03754354
58	0x3d59dc60	0.05318868
59	0x3e164227	0.14673673
60	0xbeb0c369	-0.34524086
61	0x3e76bf34	0.24096376
62	0x3d8d1999	0.06889648
63	0x3e9a28b1	0.3010917
64	0x3e1deb60	0.1542182
65	0xbec6df3a	-0.38842183
66	0xbe89cf5d	-0.26916018
67	0xbe266cb0	-0.16252398
68	0xbed3417d	-0.412609
69	0x3e52183e	0.2051706
70	0xbe6ae037	-0.22937094
71	0xbe7208be	-0.23636147
72	0x3ef28a52	0.47371155
73	0x3ebcedeb	0.36900267
74	0xbe084e41	-0.13311101
75	0xbe5f8d39	-0.21831216
76	0xbeeaee94	-0.45885146
77	0xbca436dd	-0.020045692
78	0x3dda1950	0.10649359
79	0x3e951d04	0.291237
80	0x3df61108	0.12014967
81	0x3cf2c08e	0.029632833
82	0x3efee5b9	0.4978464
83	0x3d4bd083	0.0497594
84	0xbec3c651	-0.3823724
85	0xbedab170	-0.427135
86	0x3ea41e48	0.32054353
87	0x3c635f71	0.0138777355
88	0x3e1419d1	0.14462973
89	0x3ea01e31	0.31273034
90	0x3e312eb9	0.1730298
91	0x3e320c61	0.17387535
92	0x3d39e7a6	0.045386933
93	0x3d55e93b	0.05222438
94	0x3ea7a503	0.3274308
95	0xbe8e1eff	-0.27758023
96	0xbdd1c5be	-0.102427945
97	0x3c8ec83c	0.017429464
98	0x3e402588	0.18764317
99	0xbe6f128b	-0.23346917
100	0x3dbdf6ff	0.092756264
101	0xbf3d3968	-0.7391572
102	0x3eecc635	0.4624497
103	0x3d961e8b	0.07330044
104	0x3d58cb6a	0.052928366
105	0x3ec2977c	0.38006198
106	0xbe2a72d6	-0.16645369
107	0x3e74c9d8	0.23905122
108	0x3dcf7b8f	0.10130989
109	0x3cf2dc11	0.029645951
110	0x3dd01dfc	0.10161969
111	0xbe1102cc	-0.14161223
112	0xbe2da523	-0.16957526
113	0x3e2124be	0.15736672
114	0x3e5d5da5	0.21617754
115	0x3e04da54	0.1297391
116	0x3e767869	0.2406937
117	0xbe129b5e	-0.1431708
118	0xbd9e4d6d	-0.077296115
119	0xbc639038	-0.013889365
120	0x3d34addc	0.044111118
121	0xbe951970	-0.2912097
122	0x3cc11149	0.023567813
123	0xbd3c6c08	-0.046001464
124	0xbdcdf16b	-0.100558124
125	0xbec923ad	-0.3928503
126	0x3d4684f8	0.048466653
127	0x3db8c4d0	0.09021914
128	0x3c8b1259	0.016976522
129	0xbeb34abc	-0.35017955
130	0xbf01ecef	-0.50752157
131	0xbe853425	-0.26016346
132	0xbe7fc8df	-0.2497897
133	0x3ec632e9	0.38710716
134	0xbe18cb64	-0.14921337
135	0x3ccaa091	0.024734767
136	0xbe6d0697	-0.23147045
137	0xbe2e457c	-0.17018694
138	0xbd04b2fc	-0.032397255
139	0xbedb2b4e	-0.42806476
140	0x3dd73d0d	0.105096914
141	0x3ef6679d	0.48125926
142	0x3e12558e	0.14290449
143	0x3d93eb56	0.07222621
144	0x3e1ad812	0.15121487
145	0x3d9bb3df	0.07602667
146	0xbecdf156	-0.40223187
147	0x3e51609f	0.20447014
148	0x3e0de81a	0.13858071
149	0x3e28de17	0.1649097
150	0xbedfc9fd	-0.43708792
151	0x3e80855a	0.2510174
152	0xbe20d474	-0.15706044
153	0x3d94e509	0.072702475
154	0xbd538368	-0.05163899
155	0xbeca3e32	-0.39500576
156	0xbd8c12cf	-0.06839525
157	0x3e58099c	0.21097416
158	0xbea5dce5	-0.32395092
159	0x3ef5fa5f	0.4804258
160	0x3e3d4936	0.18484959
161	0xbd894708	-0.06703001
162	0xbeb6d42f	-0.35708758
163	0x3c86e60a	0.016467113
164	0xbe40ef03	-0.18841176
165	0x3e962095	0.29321733
166	0x3c245f25	0.01003245
167	0xbd8d0ebb	-0.06887575
168	0xbd027050	-0.03184539
169	0xbec12407	-0.377228
170	0xbb95b723	-0.0045689507
171	0xbed97556	-0.42472333
172	0x3c8f5bd9	0.017499851
173	0x3e5bf39c	0.21479648
174	0xbe634f3d	-0.22198196
175	0x3e2626f1	0.16225792
176	0xbd1cc517	-0.038273897
177	0x3d16204c	0.036651894
178	0xbdf02ad6	-0.1172692
179	0xbe0007fd	-0.12503047
180	0xbeabedfc	-0.33580005
181	0xbe81bf55	-0.25341287
182	0x3eabaf1b	0.33532032
183	0x3e121db4	0.14269143
184	0xbd8f91bb	-0.07010218
185	0x3f095392	0.53643143
186	0xbeabaf2c	-0.33532083
187	0x3e21ddab	0.15807216
188	0xbd4e85bb	-0.050420504
189	0x3d9ef149	0.07760865
190	0xbc3f4d74	-0.011676181
191	0xbe16eebc	-0.14739507
192	0xbe8b4767	-0.27202913
193	0xbeb1deab	-0.34740195
194	0xbeeb3cd3	-0.45944843
195	0x3d43aa8c	0.047770068
196	0x3c8ed1c6	0.017434012
197	0x3e9ebea5	0.31004825
198	0xbe9af09d	-0.30261698
199	0x3e6a2a45	0.22867687
200	0x3cea35b1	0.028590055
201	0x3e0b0efc	0.13579935
202	0xbedb6577	-0.4285085
203	0xbc7d1708	-0.015447386
204	0xbdf741bd	-0.120730855
205	0x3ead3063	0.3382598
206	0x3e5f9766	0.21835098
207	0x3f043893	0.51648825
208	0xbe47352a	-0.19453874
209	0xbe761907	-0.24032985
210	0x3ded6b8d	0.11592779
211	0x3e941a0e	0.28926128
212	0x3e8763ba	0.26443273
213	0x3e66b811	0.22531153
214	0xbe8246c2	-0.2544461
215	0x3d3ce318	0.04611501
216	0x3db117e6	0.086471364
217	0xbdb054cc	-0.08609924
218	0x3e8cd5fd	0.2750701
219	0xbe754356	-0.23951468
220	0x3e38ab3a	0.18034068
221	0xbea71c27	-0.32638666
222	0x3eab6e19	0.33482435
223	0x3eadcefe	0.33946985
224	0x3da622a7	0.08112078
225	0x3eb354a1	0.35025504
226	0xbc844337	-0.016145332
227	0x3d9c74a9	0.07639439
228	0x3d51de68	0.051237494
229	0xbf07e6a4	-0.53086305
230	0x3e030f89	0.12798895
231	0xbd822045	-0.06353811
232	0x3c4f1e4d	0.012641502
233	0x3e47616a	0.19470754
234	0x3d994669	0.07484133
235	0x3e4eca1b	0.20194285
236	0xbe22f6aa	-0.15914407
237	0x3e20d175	0.15704902
238	0x3ea9d6e0	0.3317175
239	0xbe252417	-0.16127048
240	0x3e89bdcf	0.26902625
241	0x3c8bdcfa	0.017073143
242	0xbef134d9	-0.47110632
243	0xbbef5795	-0.0073041418
244	0x3da118d1	0.078660615
245	0x3ebb48f7	0.36579105
246	0xbe147e60	-0.14501333
247	0xbe477148	-0.19476807
248	0xbd01122b	-0.031511467
249	0x3dfbc06f	0.12292563
250	0xbe259b30	-0.1617248
251	0xbeae064f	-0.33989188
252	0x3e538ed9	0.20659961
253	0x3e318154	0.17334491
254	0xbe62ec46	-0.22160444
255	0x3ecb9246	0.39760035

gnn_base.gnn.gnn1.lin_key.bias f4 [48]
0	0x3e442476	0.19154534
1	0x3e4af666	0.19820556
2	0xbd8cfe08	-0.0688439
3	0xbe14f766	-0.145475
4	0xbde2f62d	-0.110821106
5	0xbe2f5d0c	-0.17125338
6	0xbd85296d	-0.06502042
7	0xbe6711db	-0.22565405
8	0x3e097128	0.13422072
9	0xbe712bcc	-0.23551863
10	0xbe1e9fda	-0.15490666
11	0x3e2bb6b6	0.16768917
12	0xbe4017e5	-0.18759115
13	0x3d757c07	0.059932735
14	0x3e3f300a	0.18670669
15	0x3e7b0e86	0.24517259
16	0x3e010689	0.12600149
17	0xbd8a9cc5	-0.06768183
18	0x3e128961	0.14310218
19	0xbc09f513	-0.008420247
20	0xbd9fd355	-0.0780398
21	0xb9bded0b	-0.000362255
22	0x3d66435e	0.05621659
23	0x3e2c0a95	0.16800912
24	0x3dd80ec1	0.10549689
25	0x3df3f8ca	0.11912687
26	0x3d14dd3a	0.03634379
27	0xbc4bfeaf	-0.012450858
28	0x3dd3e69f	0.10346722
29	0x3d74ae22	0.05973638
30	0xbe745ce0	-0.23863554
31	0x3d2d357b	0.04228733
32	0xbde598c4	-0.11210778
33	0xbe072ab4	-0.13199884
34	0x3dc59a0e	0.09648524
35	0x3d5213bf	0.051288363
36	0x3d2fd13b	0.042924147
37	0xbdf1add8	-0.11800736
38	0x3dec6c70	0.1154412
39	0x3e705782	0.23470882
40	0x3cfc0faa	0.030769188
41	0x3dd45438	0.10367626
42	0xbe61a545	-0.22035702
43	0x3e1835f4	0.14864331
44	0x3db1b649	0.08677346
45	0x3de8fe50	0.11376631
46	0x3dd59003	0.10427859
47	0xbd84372c	-0.06455836

gnn_base.gnn.gnn1.lin_query.weight f4 [48, 16]
0	0xbe49afaa	-0.19695917
1	0x3e81ee9b	0.25377354
2	0x3ec0fffc	0.376953
3	0xbe986e7d	-0.29771796
4	0xbdb58b40	-0.088644505
5	0x3eec4a6e	0.46150535
6	0xbec41c0f	-0.38302657
7	0xbdc0731e	-0.09396957
8	0x3c99007c	0.018676989
9	0xbe4a50c6	-0.19757375
10	0x3e1a222e	0.15052101
11	0xbe5eb091	-0.21747042
12	0x3dde0a18	0.10841769
13	0xbe137d06	-0.14403161
14	0x3e36ffb0	0.17870975
15	0x3f0895f5	0.53353816
16	0x3d7edfea	0.06222526
17	0x3d041f7f	0.0322566
18	0x3d97669b	0.07392617
19	0xbed77f34	-0.42089236
20	0xbbbc0262	-0.0057375887
21	0x3e2675a1	0.1625581
22	0xbe8d7b1b	-0.27632985
23	0x3d7ee54e	0.0622304
24	0x3e5177a2	0.20455793
25	0xbee94ee6	-0.45568007
26	0x3e01d7dc	0.1268
27	0xbc9aa11a	-0.018875647
28	0x3da85e2a	0.08221085
29	0xbd3f4ca6	-0.046703957
30	0x3eca7c09	0.39547756
31	0xbcc02cc1	-0.02345884
32	0x3d82cf2e	0.06387173
33	0x3e29371f	0.16524933
34	0xbca120c7	-0.01966895
35	0xbe2b28b7	-0.1671475
36	0x3e0e814e	0.13916513
37	0xbc42ae6f	-0.0118824085
38	0x3c80c1eb	0.015717467
39	0x3d7ddb5d	0.06197678
40	0x3e39eafb	0.18156044
41	0xbee4b2f0	-0.44667768
42	0x3e79360a	0.2433702
43	0x3da38fed	0.07986436
44	0x3e274b21	0.16337253
45	0x3ea772fc	0.32704914
46	0x3e92d8d1	0.28681043
47	0x3e40df76	0.18835244
48	0xbe571c6a	-0.21006933
49	0xbe3a6c6d	-0.18205424
50	0x3ecffbb1	0.40621713
51	0xbb9734e1	-0.004614458
52	0xbead64a9	-0.3386586
53	0x3e9d42d5	0.3071505
54	0xbd0078e8	-0.031365305
55	0x3ddfcb7b	0.10927483
56	0xbc9d4b46	-0.019200932
57	0xbe253ad7	-0.16135727
58	0x3e27ded9	0.16393603
59	0x3e79c428	0.24391234
60	0x3e6f21c4	0.23352724
61	0xbddc58fc	-0.1075916
62	0xbc91867d	-0.017764324
63	0x3eb5b4de	0.35489553
64	0xbed04b2c	-0.40682352
65	0x3dc7bbb1	0.09752596
66	0xbe6498b6	-0.2232388
67	0xbe0d3c97	-0.13792644
68	0xbec81792	-0.39080483
69	0x3eb3a24d	0.35084763
70	0xbe1772e2	-0.14789918
71	0x3cdd9167	0.027046872
72	0x3d3e3b57	0.04644331
73	0xbde54641	-0.111950405
74	0xbdd91a34	-0.10600701
75	0xbe93f512	-0.2889791
76	0xbe0ec6f1	-0.13943078
77	0xbe77cb2e	-0.241986
78	0xbc5e254a	-0.013558695
79	0x3efa1f22	0.48851877
80	0xbe3fb487	-0.1872121
81	0x3ee2a2c9	0.4426482
82	0x3e795d5a	0.24352017
83	0xbef73be4	-0.4828788
84	0x3e7cf0b8	0.24701202
85	0xbeb3fad8	-0.35152316
86	0x3eba96c3	0.36443147
87	0x3eb4e998	0.35334468
88	0x3e2ec72d	0.17068167
89	0xbe217e19	-0.15770759
90	0x3d8abb0d	0.06773958
91	0x3dfdad77	0.123866014
92	0xbee09f31	-0.43871453
93	0xbebf6a09	-0.37385586
94	0x3e25dc4c	0.16197318
95	0xbaea8755	-0.0017893115
96	0xbd35da44	-0.044397607
97	0x3f01c6b9	0.5069385
98	0x3ee4b196	0.44666737
99	0xbf0d1b1b	-0.55119485
100	0xbdd1dc25	-0.10247067
101	0xbeb854ac	-0.360021
102	0x3d8f9836	0.07011454
103	0x3eb30691	0.34965947
104	0x3da13184	0.078707725
105	0xbec193c2	-0.37808043
106	0xbcbfec31	-0.023428055
107	0x3e598ce5	0.21245153
108	0x3d962746	0.073317096
109	0xbe792b8e	-0.24333021
110	0x3eb0502c	0.34436166
111	0x3d40898f	0.047006186
112	0x3e6326bb	0.22182743
113	0xbeb35924	-0.35028946
114	0x3e179a83	0.14805035
115	0xbcd88de2	-0.026434842
116	0x3e9cd49e	0.30630964
117	0xbe148dea	-0.14507261
118	0xbe2c1d1b	-0.16807978
119	0xbe93a966	-0.28840178
120	0xbe8dcdea	-0.27696162
121	0xbe1cfb31	-0.15330197
122	0x3e278415	0.16358979
123	0x3e3a07d6	0.18167052
124	0xbe869627	-0.26286432
125	0x3df28f87	0.11843782
126	0x3e5ccc69	0.21562351
127	0xbe2a54b3	-0.16633873
128	0xbea00e32	-0.3126083
129	0xbe14a442	-0.14515784
130	0x3de46713	0.11152472
131	0x3ee31c2b	0.44357428
132	0xbe803fe0	-0.25048733
133	0x3e1ad1d9	0.15119113
134	0xbe4e512d	-0.20148154
135	0xbebb7dd4	-0.36619437
136	0x3d4191c3	0.04725815
137	0xbe2b2675	-0.16713889
138	0xbe911c7e	-0.2834205
139	0xbe0db51e	-0.13838622
140	0x3eaf0fd1	0.34191754
141	0xbc6bf384	-0.01440132
142	0xbe55e23a	-0.2088708
143	0x3e3f27f9	0.18667592
144	0x3c90db3a	0.01768266
145	0x3e0cd80c	0.1375429
146	0xbdd0d447	-0.10196739
147	0x3ee04237	0.43800518
148	0xbe03007b	-0.12793152
149	0x3dc22a3f	0.09480714
150	0xbed7e09c	-0.4216355
151	0xbdc5005a	-0.09619208
152	0xbe9a33a2	-0.30117518
153	0x3d1f64fd	0.03891467
154	0x3e77088e	0.24124357
155	0xbd8792c7	-0.066197924
156	0x3f0684ed	0.5254658
157	0x3d55010b	0.052002948
158	0xbddb07ce	-0.10694848
159	0x3e8693c7	0.2628462
160	0xbce266b0	-0.027636856
161	0xbddf2fb9	-0.10897774
162	0xbe22d2da	-0.15900746
163	0x3ebfd4be	0.37466997
164	0xbeb504ea	-0.35355312
165	0x3e7f9e40	0.24962711
166	0x3e2caeed	0.16863604
167	0xbd7efdae	-0.062253647
168	0x3e42ca52	0.19022492
169	0x3de4ca90	0.11171448
170	0xbde6d30c	-0.11270723
171	0xbe81dbb9	-0.25362948
172	0x3e88b186	0.2669794
173	0x3e1ddabf	0.15415476
174	0xbd5cc785	-0.053901214
175	0x3de4e1ca	0.11175878
176	0x3d945598	0.07242888
177	0x3e8f4288	0.27980447
178	0x3f08b9da	0.53408587
179	0xbe774434	-0.24147111
180	0xbde94102	-0.113893524
181	0x3d017b42	0.03161169
182	0xbe890781	-0.26763538
183	0x3d978db5	0.07400075
184	0x3e9fb010	0.31189013
185	0x3d66be1c	0.056333646
186	0xbb9bad5e	-0.0047508916
187	0xbb69e552	-0.0035689664
188	0xbe1a7ccf	-0.15086673
189	0xbecfab8e	-0.40560573
190	0x3e984572	0.29740483
191	0xbde20864	-0.11036757
192	0xbe68dbb6	-0.22740063
193	0x3bdd57ec	0.006754866
194	0xbdc0e6d4	-0.09419027
195	0x3dfac384	0.12244323
196	0xbe8f63ec	-0.28005922
197	0x3f099cb6	0.53754747
198	0xbee91d84	-0.4553033
199	0xbdb36d80	-0.0876112
200	0xbd9a16fb	-0.075239144
201	0xbe29d6b2	-0.16585806
202	0xbbf88807	-0.007584575
203	0xbe2734d3	-0.16328745
204	0x3e3ca52f	0.18422388
205	0xbeda8a21	-0.4268351
206	0xbe031270	-0.12800002
207	0x3cdd7b00	0.02703619
208	0x3e8c29d9	0.27375677
209	0xbea7c877	-0.3277013
210	0xbea07238	-0.31337142
211	0x3e56a74f	0.2096226
212	0x3ed4915f	0.4151716
213	0xbb23fb91	-0.0025021771
214	0x3ced67e1	0.028980197
215	0xbd0da3f1	-0.034580175
216	0xbe2235a4	-0.15840775
217	0xbe833bf8	-0.2563169
218	0x3b422944	0.0029626647
219	0xbe9b8c7c	-0.3038062
220	0xbe878639	-0.2646959
221	0x3db36fd2	0.087615624
222	0xbd933e52	-0.07189621
223	0x3e3b911a	0.1831707
224	0x3d690359	0.05688796
225	0x3e73a148	0.23791993
226	0x3ec0017b	0.3750113
227	0xbe09446f	-0.13405012
228	0x3ded614d	0.11590824
229	0xbecb7640	-0.39738655
230	0x3ddcfd5c	0.10790512
231	0x3dd23853	0.10264649
232	0x3e23f5aa	0.16011682
233	0xbe6e791a	-0.23288384
234	0xbcc0769d	-0.02349406
235	0x3e380ff8	0.17974842
236	0x3dfa670d	0.122266866
237	0xbf226d7f	-0.6344833
238	0x3e0e9720	0.13924837
239	0x3e88e805	0.26739517
240	0xbe9ff493	-0.31241283
241	0x3d49c1cd	0.04925709
242	0xbe17cf44	-0.1482516
243	0x3e233a04	0.159401
244	0xbeb17d64	-0.34665978
245	0x3ea905f4	0.33012354
246	0xbea622e7	-0.32448503
247	0xbe60c6ca	-0.21950832
248	0xbd52a49c	-0.051426515
249	0xbdc2374b	-0.094832025
250	0xbd9af00e	-0.07565318
251	0xbea049dd	-0.31306353
252	0x3ea26e49	0.31724766
253	0x3e1c71e0	0.15277815
254	0xbdbe809e	-0.093018755
255	0xbceebb78	-0.029142126

gnn_base.gnn.gnn1.lin_query.bias f4 [48]
0	0x3c73ec2e	0.014887853
1	0xbe92fc26	-0.28708
2	0x3dd8f569	0.10593683
3	0x3e0a5ca0	0.13511896
4	0xbe48a8ba	-0.19595614
5	0xbdbaf553	-0.09128823
6	0xbd514667	-0.05109253
7	0x3d8f17bd	0.069869496
8	0x3e1b1b6f	0.15147184
9	0xbd9a064a	-0.07520731
10	0x3dedc0f6	0.1160907
11	0xbd81809e	-0.0632336
12	0x3e488a06	0.19583902
13	0xbd0c5f3b	-0.034270506
14	0xbeb64e30	-0.35606527
15	0x3d21fb6d	0.03954642
16	0xbe9437ba	-0.28948766
17	0x3e239957	0.15976463
18	0xbeb63a74	-0.3559147
19	0xbe35060e	-0.17678091
20	0xbe499590	-0.1968596
21	0x3d8133d8	0.063087165
22	0xbd6d10f9	-0.057877515
23	0xbea6dda4	-0.32590973
24	0xbe8fdcb5	-0.28098074
25	0xbe0d31e8	-0.13788569
26	0xbe18f416	-0.14936861
27	0x3e702016	0.2344974
28	0x3e25244d	0.16127129
29	0xbe1712c1	-0.14753248
30	0x3ee7fc93	0.45309886
31	0x3e9528e0	0.29132748
32	0xbc9630ae	-0.01833376
33	0x3c0b76c8	0.008512206
34	0xbd013e14	-0.031553343
35	0xbded0dca	-0.11574896
36	0xbde4258c	-0.11139974
37	0x3e4a8262	0.197763
38	0xbd2d7b00	-0.04235363
39	0xbdc3a793	-0.095534466
40	0xbe43a865	-0.19107206
41	0x3d7011d2	0.058610745
42	0x3dea05c5	0.11426882
43	0xbcebc6ea	-0.028781373
44	0x3df31c98	0.11870688
45	0x3e04fced	0.12987109
46	0x3d9b0564	0.075693876
47	0x3e9e120a	0.30873138

gnn_base.gnn.gnn1.lin_value.weight f4 [48, 16]
0	0xbc1918ce	-0.009344293
1	0x3e2b327f	0.16718481
2	0xbe8df63b	-0.2772692
3	0xbe71efe6	-0.2362667
4	0x3d85b34b	0.06528338
5	0xbd169998	-0.036767572
6	0x3eb669d6	0.3562762
7	0xbe10ca48	-0.14139664
8	0xbe0456da	-0.12923756
9	0xbe8b0c67	-0.271579
10	0x3e8df9d9	0.2772968
11	0xbdc1b8f5	-0.09459106
12	0x3e012625	0.12612207
13	0x3dbcc48f	0.09217178
14	0x3f085309	0.532517
15	0x3e919c00	0.2843933
16	0xbf077f69	-0.5292879
17	0xbe060a03	-0.13089757
18	0x3dd0576b	0.10172924
19	0x3d608579	0.05481479
20	0x3e6d1754	0.2315343
21	0xbda02876	-0.07820217
22	0xbcf72ae8	-0.030171826
23	0xbd6b5700	-0.057456017
24	0xbe0287c1	-0.12747099
25	0x3db6929e	0.08914684
26	0x3e6b4a01	0.22977449
27	0xbe3d6f38	-0.18499458
28	0x3d9431d5	0.07236067
29	0x3d9140b9	0.07092423
30	0x3e3727c8	0.17886269
31	0xbe069cae	-0.13145706
32	0xbe9f9b5b	-0.31173214
33	0x3d5e4264	0.054262534
34	0xbdd438b2	-0.10362376
35	0xbec2112f	-0.37903735
36	0x3cc30b11	0.023808988
37	0x3ea09b34	0.3136841
38	0x3e8ebe78	0.2787969
39	0x3dfe8573	0.12427797
40	0xbece6303	-0.40309915
41	0x3e1b33b7	0.15156446
42	0x3e4d6241	0.20057012
43	0x3ddd746d	0.10813222
44	0x3da83a76	0.082142755
45	0x3d363447	0.04448345
46	0xbdcb0726	-0.09913473
47	0xbd80160b	-0.06254204
48	0x3dcbb748	0.099470675
49	0xbd264b3d	-0.040599097
50	0xbe5e28e1	-0.21695282
51	0xbdadad15	-0.084802784
52	0x3e3806e4	0.17971379
53	0xbe58758b	-0.21138589
54	0x3e999772	0.29998356
55	0xbeb311b0	-0.34974432
56	0x3e38b792	0.18038777
57	0x3e834078	0.25635123
58	0x3e66d8fa	0.22543707
59	0x3be55a21	0.0069992696
60	0xbe0a2fc2	-0.1349478
61	0xbe1e15e5	-0.1543804
62	0xbe37589b	-0.17904894
63	0xbe4cdf04	-0.20006949
64	0x3e45e823	0.19326834
65	0x3e019e0f	0.12657951
66	0x3e11a5f7	0.14223467
67	0x3ddc0f32	0.10745086
68	0xbeae9586	-0.34098452
69	0xbebf7936	-0.37397164
70	0x3db06de4	0.0861471
71	0x3e5db686	0.21651658
72	0xbece6294	-0.40309584
73	0x3eca10a7	0.3946583
74	0x3d003df8	0.031309098
75	0x3d14f320	0.036364675
76	0xbe9bc98f	-0.30427215
77	0x3cf51265	0.029915998
78	0x3eae4218	0.340348
79	0x3ea274ba	0.3172968
80	0x3de3e56c	0.11127743
81	0xbe5d02a6	-0.21583042
82	0x3e90eb4e	0.28304523
83	0xbea15761	-0.31511977
84	0x3cf3a49a	0.029741574
85	0x3d9d88f5	0.07692138
86	0xbd858999	-0.06520385
87	0xbe309ca2	-0.1724725
88	0xbc85fc6f	-0.016355721
89	0x3ea56d71	0.3231006
90	0xbcda8e86	-0.026679289
91	0x3eda4cb0	0.42636633
92	0xbd99ece5	-0.07515887
93	0xbe3055c6	-0.1722022
94	0x3e9fd7fb	0.31219468
95	0x3dc0c74e	0.09413014
96	0x3eb00c66	0.3438446
97	0x3e2e09b4	0.16995889
98	0xbe747ac5	-0.23874958
99	0xbe939a44	-0.28828633
100	0xbf0a8309	-0.54106194
101	0x3e15b734	0.14620668
102	0xbe715415	-0.23567231
103	0xbe37808c	-0.1792013
104	0xbe7d5997	-0.24741207
105	0x3eea44d0	0.45755625
106	0x3dacc0e4	0.084352285
107	0x3d4e5ae6	0.050379656
108	0xbecec934	-0.4038788
109	0x3f009385	0.50225097
110	0x3dd3dcad	0.10344825
111	0x3de29f39	0.110655256
112	0xbed86fcd	-0.42272797
113	0xbe85bf5d	-0.2612256
114	0x3e340e9a	0.17583695
115	0xbdf8f2e0	-0.121557
116	0xbdd2b7fd	-0.10288999
117	0xbd6e5c58	-0.058193535
118	0x3dff50c9	0.124665804
119	0xbe97540d	-0.29556313
120	0xbdc58331	-0.096441634
121	0xbdfa9e45	-0.12237219
122	0xbe1adb8d	-0.15122814
123	0x3d6c191c	0.057641134
124	0xbe0bc8e6	-0.13650855
125	0x3df985a7	0.12183695
126	0x3e9212cd	0.2852997
127	0xbe02ec71	-0.12785508
128	0xbda1b96e	-0.07896696
129	0x3e38296d	0.17984553
130	0x3e78ee39	0.24309625
131	0x3e4a1795	0.19735558
132	0x3e22b86c	0.15890664
133	0xbe83f226	-0.25770682
134	0x3d83f73d	0.06443641
135	0x3dba35b9	0.09092278
136	0xbeb1bd13	-0.34714565
137	0x3d84de63	0.064877294
138	0xbe41955d	-0.18904634
139	0x3ed28897	0.41119835
140	0x3e72a4b1	0.23695637
141	0xbddcf79d	-0.10789416
142	0x3ce20a21	0.02759272
143	0x3c2c25c4	0.010507051
144	0xbe9001c9	-0.28126362
145	0xbd41b6d3	-0.047293495
146	0x3dffc7b0	0.12489259
147	0x3d130026	0.035888813
148	0x3e347359	0.17622127
149	0x3e58497f	0.21121787
150	0x3d08249a	0.03323803
151	0xbe8d6177	-0.27613422
152	0xbc48df59	-0.0122602815
153	0xbec7c0a2	-0.39014155
154	0x3d173f4e	0.036925606
155	0x3dd06209	0.10174949
156	0x3e9cf557	0.3065593
157	0xbe9d9352	-0.3077646
158	0x3e1d69cd	0.15372391
159	0xbe2b6a6a	-0.16739812
160	0x3d083d7d	0.033261765
161	0xbe9fe448	-0.31228852
162	0xbc9ad21a	-0.018899012
163	0xbe0cff6c	-0.1376931
164	0x3e085411	0.13313319
165	0xbe1f94b4	-0.1558407
166	0x3d55dbbb	0.052211504
167	0xbc41e260	-0.011833757
168	0xbeac3908	-0.3363726
169	0x3e2a0a20	0.16605425
170	0x3dfae48c	0.12250623
171	0xbecb128f	-0.39662597
172	0xbe4fc121	-0.20288517
173	0x3eb3a8e5	0.35089794
174	0x3ebcb54a	0.36857063
175	0xbce9bc91	-0.028532298
176	0xbe13dc0a	-0.14439407
177	0xbe49eae8	-0.19718516
178	0xbe2b64dd	-0.16737695
179	0x3e5c3c34	0.2150734
180	0x3d962441	0.07331134
181	0xbe1837cd	-0.14865036
182	0xbeb01362	-0.34389788
183	0x3e500b99	0.20316924
184	0x3eb3640c	0.35037267
185	0xbd8ac746	-0.0677629
186	0xbe74917d	-0.23883624
187	0x3d73b4d7	0.059498634
188	0xbd6aaf81	-0.05729628
189	0xbd7a3cdc	-0.061093196
190	0x3e7fe27a	0.24988738
191	0x3e2da777	0.16958414
192	0xbe29c2e1	-0.16578247
193	0x3e7cbe88	0.24682057
194	0x3e815823	0.25262555
195	0x3c1f5612	0.009725111
196	0x3d4b0180	0.049561977
197	0xbd8156c1	-0.06315375
198	0x3ea6156e	0.32438225
199	0xbe9f2f53	-0.31090793
200	0xbd3f880d	-0.046760608
201	0x3d0ae47d	0.03390931
202	0x3e1f81b9	0.15576829
203	0xbe48fe7a	-0.19628325
204	0xbdaafe56	-0.08349292
205	0xbee5c919	-0.44879988
206	0x3e227b72	0.15867403
207	0x3e41f08e	0.1893942
208	0x3e1e2b6b	0.1544625
209	0x3dae9562	0.08524586
210	0xbe575663	-0.21029048
211	0xbe7c5c43	-0.2464457
212	0x3cbfc6ca	0.02341022
213	0xbe7a1763	-0.24422984
214	0x3ec1f488	0.37881875
215	0xbce256bc	-0.027629249
216	0x3f120fc8	0.5705533
217	0xbd2d3d52	-0.042294808
218	0x3d8e82ea	0.069585636
219	0xbcfc74a5	-0.03081734
220	0xbe589a3d	-0.21152587
221	0x3ee56155	0.4480082
222	0xbcf5afa2	-0.029990975
223	0xbe162a86	-0.14664659
224	0x3ca5dd90	0.02024725
225	0x3c50dff8	0.012748711
226	0xbe523246	-0.2052699
227	0x3e7f7f8e	0.24951002
228	0xbe450dbe	-0.19243523
229	0x3d97e197	0.07416075
230	0xbeb7417c	-0.35792148
231	0x3e395ca0	0.1810174
232	0xbdcf8199	-0.10132141
233	0x3d864d40	0.06557703
234	0x3e9c358d	0.30509606
235	0xbe5a0ec3	-0.21294694
236	0x3ce83983	0.028347736
237	0xbe89f7b8	-0.26946807
238	0xbecee92e	-0.40412277
239	0xbde02889	-0.109452315
240	0xbd2ebe95	-0.042662222
241	0x3e918f06	0.2842943
242	0xbe6ecd2a	-0.23320451
243	0x3cafe0ca	0.021469492
244	0x3e3739c3	0.17893128
245	0x3e2d7541	0.1693926
246	0x3e8b1c08	0.27169824
247	0xbe1338e8	-0.14377177
248	0xbd99a259	-0.075016685
249	0x3d227d00	0.03966999
250	0xbf040a8f	-0.5157861
251	0x3e4ad8d1	0.19809271
252	0xbe8008c9	-0.25006703
253	0x3c978b70	0.018499106
254	0x3cfd7d00	0.030943394
255	0xbe00e3e5	-0.12586935

gnn_base.gnn.gnn1.lin_value.bias f4 [48]
0	0x3e958021	0.29199317
1	0x3d050e27	0.0324842
2	0xbdf677dc	-0.1203458
3	0xbdc4a0aa	-0.09600957
4	0x3e40b8e2	0.18820527
5	0x3dac92e9	0.084264584
6	0x3d4656db	0.048422676
7	0x3dc401fe	0.095706925
8	0xbdbcd924	-0.09221104
9	0x3e21fbcd	0.1581871
10	0x3dac5954	0.084154755
11	0x3db42898	0.08796805
12	0xbe14674e	-0.14492533
13	0xbe58e807	-0.21182261
14	0x3e3e0575	0.18556769
15	0x3dbc5eb6	0.09197752
16	0x3e812da6	0.2523014
17	0xbe7de996	-0.24796137
18	0xbd5f7695	-0.054556448
19	0xbddfb221	-0.10922647
20	0xbe0b76b0	-0.13619494
21	0x3e4843ab	0.19557063
22	0x3ceec943	0.029148703
23	0x3e96a9f0	0.29426527
24	0x3d702ce7	0.058636572
25	0xbe6d8508	-0.23195279
26	0xbdb4d56c	-0.088297695
27	0x3c02542b	0.0079546375
28	0xbd810ea3	-0.0630162
29	0x3dad0b2f	0.08449399
30	0xbd475f07	-0.04867461
31	0x3e581f93	0.21105795
32	0x3e926810	0.28595018
33	0x3e55337e	0.20820424
34	0x3e12b52c	0.14326924
35	0xbe8a7a73	-0.27046546
36	0xbd91683c	-0.07099959
37	0xbdc08194	-0.09399715
38	0xbd6949e8	-0.056955248
39	0x3d63aadc	0.055582866
40	0x3dfd3d39	0.12365193
41	0x3d8a877d	0.067641236
42	0xbd9a5662	-0.075360075
43	0xbc7bd3ef	-0.015370353
44	0xbd0afd1b	-0.033932786
45	0x3cac852c	0.021059595
46	0xbe16ea7d	-0.14737888
47	0x3c15f0da	0.009151662

gnn_base.gnn.gnn1.lin_edge.weight f4 [48, 1]
0	0x3f2a0fa8	0.6643014
1	0x3f03d70b	0.51500005
2	0xbf60f945	-0.87880355
3	0x3f6b631a	0.9194809
4	0xbf22817d	-0.63478833
5	0x3f6fcb0c	0.936692
6	0xbf1f6f6d	-0.622794
7	0x3f862582	1.0480196
8	0x3f229a87	0.6351704
9	0xbe9f84c2	-0.31155974
10	0x3ed491e3	0.41517553
11	0x3f79559c	0.97396255
12	0xbf3cfc96	-0.73822916
13	0x3e08ea21	0.13370563
14	0x3f3e30e6	0.74293363
15	0xbdbfd545	-0.0936685
16	0x3f08f124	0.5349295
17	0x3f52cb67	0.8234162
18	0xbf843c77	-1.0330952
19	0x3f184eb0	0.5949507
20	0xbf85cd54	-1.0453286
21	0x3f0bde5c	0.5463617
22	0xbf776b7e	-0.96648395
23	0xbe82982a	-0.25506717
24	0x3e7de32f	0.24793695
25	0xbf86be05	-1.0526739
26	0xbe3c409c	-0.18384022
27	0xbe916758	-0.28399158
28	0x3ee7343d	0.45157042
29	0x3c2c0124	0.010498319
30	0xbf6651fb	-0.8996884
31	0xbe9f3508	-0.31095147
32	0x3db21212	0.08694853
33	0x3f122805	0.57092315
34	0xbf789717	-0.97105545
35	0xbf2f00f4	-0.6836083
36	0x3e30f958	0.17282617
37	0xbf1a3539	-0.6023746
38	0xbf4b3dcd	-0.79391176
39	0xbf7c7964	-0.9862273
40	0xbe91c459	-0.28470114
41	0xbf8d2e4e	-1.1029756
42	0xbce2ca74	-0.027684428
43	0x3f5dc230	0.8662443
44	0x3f07a86f	0.52991384
45	0xbf3696d4	-0.71323895
46	0x3f81e28f	1.0147265
47	0xbf5c8392	-0.8613826

gnn_base.gnn.gnn1.lin_skip.weight f4 [16, 16]
0	0xbd89f688	-0.06736475
1	0x3d31bf58	0.04339537
2	0x3e076b45	0.13224514
3	0x3e106306	0.14100274
4	0x3d15a307	0.036532428
5	0xbef96e36	-0.48716897
6	0x3d1536dd	0.036429275
7	0xbd847266	-0.06467132
8	0xbea3722b	-0.3192304
9	0xbdba1d07	-0.09087568
10	0x3ee61a64	0.4494201
11	0x3d163afe	0.036677353
12	0x3e75b000	0.2399292
13	0xbf1557b4	-0.5833695
14	0xbcc20f4e	-0.023688938
15	0x3e6c8cd1	0.23100592
16	0x3e2eb673	0.17061786
17	0xbd972e07	-0.07381826
18	0xbe6b59dc	-0.22983497
19	0xbf0c1ed5	-0.54734546
20	0x3da8a684	0.08234885
21	0xbe49e820	-0.19717455
22	0x3e14cda7	0.14531575
23	0xbeaa48fd	-0.3325881
24	0xbe23c22f	-0.15992044
25	0xbe648e22	-0.22319844
26	0x3e15610e	0.14587805
27	0x3cb49591	0.022043975
28	0xbe989d1e	-0.2980737
29	0xbe4c7425	-0.1996618
30	0x3e23ff8b	0.1601545
31	0x3d831e4f	0.06402265
32	0xbe98dcab	-0.29855856
33	0x3c315af9	0.010824912
34	0xbe8367e6	-0.25665206
35	0xbd0fb32d	-0.035082985
36	0xbe25d9bf	-0.16196345
37	0x3eaa2fbc	0.33239543
38	0xbddfc88b	-0.109269224
39	0x3dda2651	0.106518395
40	0xbe7a4bb3	-0.2444294
41	0xbc61d851	-0.013784484
42	0xbb868527	-0.0041052285
43	0xbdfe214a	-0.12408693
44	0xbd02d3e8	-0.03194037
45	0xbcba33f3	-0.02272985
46	0xbd76e1d0	-0.060273945
47	0xbed1e1bb	-0.4099253
48	0x3d4186fd	0.047247875
49	0x3e0ac5dd	0.13552041
50	0xbdd76193	-0.10516658
51	0x3dfdfeaf	0.12402093
52	0xbe83e849	-0.25763157
53	0xbee50c30	-0.4473586
54	0x3f01c5e7	0.506926
55	0xbe8f7c97	-0.28024742
56	0x3ebe03b2	0.37112194
57	0x3e5d2101	0.21594621
58	0xbec89c98	-0.39181972
59	0x3f028267	0.5098023
60	0x3d939f7c	0.072081536
61	0x3da289ba	0.079364255
62	0xbe1fe560	-0.15614843
63	0xbe8eba23	-0.27876386
64	0x3c931405	0.017953882
65	0xbd36a03e	-0.044586413
66	0xbdaf95e1	-0.08573509
67	0x3d1dc194	0.03851469
68	0xbe516f25	-0.20452555
69	0xbdfa1dd7	-0.12212723
70	0xbdd52c11	-0.104087956
71	0xbe4c7f17	-0.19970356
72	0xbe724bd8	-0.23661745
73	0x3dbda9a3	0.09260871
74	0x3c5315af	0.012883588
75	0x3dbb8a7c	0.09157273
76	0x3d51bc57	0.051205005
77	0x3dafd6e9	0.08585913
78	0x3de5e6fc	0.112256974
79	0x3e69f193	0.2284606
80	0xbec92cb0	-0.39291906
81	0xbe66270c	-0.22475833
82	0xbe9823b9	-0.29714754
83	0xbe6a65a9	-0.22890343
84	0x3eaf1ce2	0.34201723
85	0xbeda29bc	-0.42609966
86	0xbd9c2ef9	-0.07626147
87	0x3dee1f3d	0.11627052
88	0xbe8d1619	-0.27555922
89	0x3e9c8061	0.30566695
90	0x3d999175	0.07498447
91	0xbdfd2bb1	-0.12361849
92	0xbd79d0f6	-0.060990296
93	0x3e4a8b90	0.19779801
94	0xbec6fd72	-0.38865238
95	0xbe04ae3c	-0.1295709
96	0x3e59f29c	0.21283954
97	0xbd3fc346	-0.046817087
98	0x3e755921	0.23959781
99	0xbdb07216	-0.0861551
100	0x3d5859ad	0.052819896
101	0x3e2e707d	0.17035098
102	0xbea69a06	-0.32539386
103	0x3e6f96d3	0.23397379
104	0xbdf47507	-0.11936384
105	0xbd807aa2	-0.0627339
106	0x3ec28ca5	0.37997928
107	0x3c48f6e5	0.0122658955
108	0x3e1d11a2	0.15338758
109	0xbe81cc79	-0.25351313
110	0xbe5f5349	-0.21809115
111	0xbd9238d4	-0.07139745
112	0xbe059823	-0.13046317
113	0xbe883d3f	-0.26609227
114	0xbbb7e7ff	-0.005612373
115	0x3e319b24	0.17344338
116	0xbd2f69bf	-0.042825457
117	0xbe30693b	-0.17227642
118	0xbe93ca28	-0.2886517
119	0x3e3d446e	0.18483135
120	0xbe2d0282	-0.16895488
121	0xbe5fe08d	-0.21863003
122	0x3cbee2b1	0.023301454
123	0x3e703f0c	0.2346155
124	0x3d83166a	0.064007595
125	0x3de5a0fa	0.112123445
126	0x3eb1fa6f	0.34761378
127	0x3e4e79cc	0.2016365
128	0x3c5be3e1	0.01342103
129	0xbe5e5593	-0.21712331
130	0xbe86ea9c	-0.26350868
131	0x3e0531b0	0.13007236
132	0xbe41a233	-0.1890953
133	0x3ebf3c52	0.37350708
134	0x3e74855d	0.23878999
135	0x3e0bd8ba	0.13656893
136	0xbba945fc	-0.0051658135
137	0xbe9083db	-0.28225598
138	0xbd97855a	-0.07398482
139	0x3e0b14e7	0.13582192
140	0xbe34d856	-0.1766065
141	0xbe835cfb	-0.25656876
142	0x3f0412a4	0.51590943
143	0x3e3b6752	0.18301132
144	0x3e9290f4	0.28626215
145	0xbdcebb6b	-0.10094341
146	0xbcaf8d8f	-0.021429805
147	0xbed2a3e7	-0.41140673
148	0x3e173346	0.14765653
149	0x3eb87a52	0.36030823
150	0xbe12a9f8	-0.1432265
151	0x3ea21e30	0.31663656
152	0x3de4ebb0	0.11177766
153	0xbf12a25e	-0.57279
154	0x3e7d0ce8	0.24711955
155	0x3b82210e	0.0039712256
156	0x3d15698d	0.036477614
157	0x3d538d81	0.05164862
158	0x3e8d573e	0.27605623
159	0x3e77357b	0.24141495
160	0xbe685268	-0.22687685
161	0x3bfe6f16	0.0077647073
162	0xbd9806fc	-0.07423207
163	0x3e09913e	0.13434312
164	0xbe587169	-0.21137013
165	0x3eaf96c3	0.3429471
166	0xbe8ab62d	-0.27092114
167	0x3e059c2c	0.13047856
168	0x3e8ca417	0.2746894
169	0x3ea6908e	0.3253216
170	0x3d496e30	0.04917735
171	0xbeada318	-0.33913493
172	0xbe1234ae	-0.14277908
173	0xbe8eaa3f	-0.27864262
174	0xbee28d05	-0.44248214
175	0xbe3a7dcd	-0.18212052
176	0xbd0bb4db	-0.034108024
177	0x3e1b07e9	0.15139736
178	0xbea292ac	-0.31752527
179	0xbe022034	-0.12707597
180	0xbec42da2	-0.38316065
181	0x3eaa03f6	0.33206147
182	0x3e00f70a	0.12594238
183	0x3da76343	0.081732295
184	0x3e217606	0.15767679
185	0xbd55ab82	-0.052165516
186	0xbdceb0f0	-0.10092342
187	0xbe45eb29	-0.19327988
188	0x3cac9e26	0.021071505
189	0x3e3d0a33	0.18460922
190	0x3eb4803d	0.35254088
191	0x3e8e35f2	0.27775532
192	0xbe44173c	-0.19149488
193	0xbdcf14b0	-0.10111368
194	0x3e640749	0.22268404
195	0xbed272f8	-0.4110334
196	0xbdf135dd	-0.11777852
197	0x3ea6d399	0.3258331
198	0x3ede9b8c	0.43478048
199	0x3dd63305	0.1045895
200	0xbd779463	-0.060444247
201	0x3cdbe06e	0.026840415
202	0x3b90c678	0.0044181906
203	0xbd8b117c	-0.06790444
204	0x3e867027	0.2625744
205	0x3ecf08ed	0.40436497
206	0xbe93f1e0	-0.28895473
207	0x3e590862	0.21194604
208	0xbd00018e	-0.031251483
209	0xbe38fb0f	-0.18064521
210	0x3cfa9393	0.030587947
211	0x3ae82428	0.0017710971
212	0x3e99f92f	0.30072924
213	0xbe98f1dd	-0.29872027
214	0xbd56b6c4	-0.052420393
215	0xbe5c6b50	-0.21525311
216	0x3ebe8e20	0.37217808
217	0x3e895579	0.26823023
218	0x3e8da412	0.27664238
219	0x3d597f41	0.053099874
220	0xbebba23d	-0.36647215
221	0x3e0ca6c6	0.13735494
222	0x3e00aaa6	0.12565097
223	0xbd6758f9	-0.056481335
224	0x3e97d9ac	0.29658258
225	0xbead8d9a	-0.33897096
226	0x3ca0e860	0.019642055
227	0xbe918d33	-0.2842804
228	0x3d34e557	0.044164028
229	0xbea79523	-0.3273097
230	0x3decf048	0.115692675
231	0x3dbfaf4f	0.09359609
232	0xbd9b3033	-0.07577553
233	0x3c8c1773	0.017101025
234	0x3e98499b	0.29743657
235	0x3dd13275	0.10214702
236	0x3d6f76e5	0.058462996
237	0x3d600834	0.054695323
238	0x3db56934	0.088579565
239	0x3d8d99e9	0.06914122
240	0xbeb0bb08	-0.34517694
241	0xbe062e56	-0.13103613
242	0x3d83ff67	0.064451985
243	0x3e3455a3	0.17610793
244	0xbf01c080	-0.50684357
245	0x3e3e5a22	0.1858907
246	0xbde0b379	-0.10971732
247	0xbde9b62f	-0.11411702
248	0x3e828da7	0.25498697
249	0x3d13a3dd	0.036044944
250	0xbe6091cf	-0.21930622
251	0xbe9ddff7	-0.30834934
252	0xbc82a723	-0.015948838
253	0x3eec4f99	0.46154478
254	0xbecbb925	-0.39789692
255	0x3ecc39f3	0.39887962

gnn_base.gnn.gnn1.lin_skip.bias f4 [16]
0	0x3e482e55	0.19548924
1	0xbe08b370	-0.133497
2	0xbc4172b4	-0.0118071325
3	0xbdf2c805	-0.11854557
4	0x3dff1982	0.12456037
5	0x3e64657d	0.2230434
6	0x3e13fe22	0.14452413
7	0x3e0572d2	0.13032082
8	0x3e7148c4	0.23562914
9	0xbe0ffbf9	-0.14060964
10	0xbd359e74	-0.044340566
11	0xbe830812	-0.25592095
12	0x3e03e7ff	0.12881468
13	0x3cec5350	0.02884832
14	0xbe06a28a	-0.13147941
15	0xbe3f42b1	-0.18677785
