model_weights/tube/rot_inv/airtaxi/try/one/try/actor.pt (torch, 202382 bytes, 58 tensors)

gnn_base.gnn.embed_layer.layer_norm.weight f4 [16]
00000000: a719 883f 60c8 7b3f 697e 663f 2396 683f
00000010: 758f 873f ca15 873f c9c4 7c3f 46fc 7b3f
00000020: 244f 813f 6f7a 813f 8c7d 823f f4c5 6c3f
00000030: 1fcc 873f 646e 813f 8bf8 813f 30d8 893f
1.0632828 0.98352623 0.90036637 0.9085409 1.0590655 1.0553524 0.9873777 0.98431814
1.0102277 1.0115489 1.0194564 0.9248955 1.0609168 1.0111814 1.0153974 1.07691

gnn_base.gnn.embed_layer.layer_norm.bias f4 [16]
00000000: 1e8d 7d3c a8e8 a83d da14 eabb 3476 9c3d
00000010: 6a83 423d 4178 9fbd 5a14 1b3c cc3e 3abd
00000020: b2a9 263c a279 6bbd 46ca 55bd 3c56 febc
00000030: 502a 813d 79a2 ebbc a5b1 b73b 1bc1 a7ba
0.0154755395 0.08247501 -0.007143599 0.07639733 0.047488607 -0.077866085 0.009465301 -0.045470044
0.010172294 -0.057489045 -0.052194856 -0.03104698 0.063068986 -0.028763996 0.0056058937 -0.0012798639

gnn_base.gnn.embed_layer.entity_embed.weight f4 [4, 2]
00000000: 2b19 b33f 89a3 c6be 6c54 07c0 a1f9 063f
00000010: a1d1 8abf 2d05 b3bf 7a83 ce3e e588 563f
1.3992056 -0.38796642 -2.1145277 0.52724653 -1.0845224 -1.3985955 0.40334684 0.83802634

gnn_base.gnn.embed_layer.lin1.weight f4 [16, 9]
00000000: 18ba a3be 086f 28be b042 533f dd3a d1bd
00000010: 6c44 013f 4ac9 bbbe a65c e7bd d7ab d63e
00000020: 0afb 823c 4c80 56bc 952e 6f3e 2a55 f33d
00000030: 231e f73e 2c12 9f3e 7191 c4be ea83 0d3f
00000040: 0815 e13e e3e6 06be c7b2 0abe cdab 223e
00000050: 6b8c d93d cbdb 193d 2f67 8cbb c6f0 c8bc
00000060: a322 15bf 997e 293e dff4 f1be 8ee5 023e
00000070: 1971 3f3e 21bd 05bf 977d 173f 03bb 0ebf
00000080: d304 363e eb1a 163e b192 f23e d7c3 1abf
00000090: c5e5 c9bd a32c 553f 9a50 d03e 8215 52bf
000000a0: 58bb 2dbe df29 c73e a557 2c3e 3840 b6be
000000b0: d70c d4be 7a73 f63e 40dd 2cbe f5d5 c53d
000000c0: 6e32 493e 48ef afbd 826c 36bf 707c 87be
000000d0: 42a3 5dbe 191c 58bf d5a1 4dbd dded b4bc
000000e0: bb87 a3be 4529 e23e 7f2d b2be c0ad 54bf
000000f0: ace0 7d3e b942 74be fa7d 933e 3fc3 c8be
00000100: dd91 a5be b487 713e b40d cebe 1bb8 54bd
00000110: 1325 f13d 0db7 2d3b f957 2e3f 7349 05be
00000120: 94ae cabd 8965 0f3e 8272 c9be ed15 f63e
00000130: 219f db3e 0506 cf3e 12e6 b6be cfe8 733e
00000140: 9604 04bd 466c f93d c816 0ebf f67c 14bf
00000150: 56fb 05bf 9354 0c3e c544 f8be fc07 adbe
00000160: a48d 52bd 21ed 11be 2e56 733f 850d b3bc
00000170: 7eba 323e 07ac ffbd fe2a 6b3e 67a3 793e
00000180: 7bfb 023f e6fd 9e3e 00f9 99bc 9e4a debe
00000190: 570f 02bf e548 e9be f300 8dbe 9db9 3d3e
000001a0: be53 08be d713 f93e e9d3 96bd 0d39 68bd
000001b0: b8d2 273e e5a4 153f 68cc fabe 0f3d ddbe
000001c0: 5ddf 0d3f b6de 01bf 93c7 19be e2c9 503e
000001d0: c0fb a83e 7f56 c63e f038 38bd 99f2 9f3e
000001e0: f827 c73d 0ba7 b5be 3bae 013e a5ab 95be
000001f0: 2ff5 8e3d e322 513f 56d0 0c3d 21bd 85be
00000200: 16f7 c1be f5cc aabe 4e23 8cbe d27b febe
00000210: 1838 413e 1cbd e33e 27c3 46be 4966 b83e
00000220: f74c 403e 2fb4 21be 1f9c 25bf a27b 43bf
00000230: d93e 72be 708a e8bd b5e7 cd3e 9b71 633e
-0.31977916 -0.16448605 0.8252363 -0.102163054 0.5049503 -0.3667701 -0.11296968 0.41927978
0.015988845 -0.013092112 0.23357613 0.11881478 0.4826518 0.31068552 -0.38392213 0.5527941
0.43961358 -0.13174014 -0.1354476 0.1588585 0.10622486 0.037563127 -0.0042847614 -0.024528872
-0.58255976 0.165522 -0.47257134 0.1278288 0.18695487 -0.5224171 0.5917601 -0.5575411
0.17775278 0.14658706 0.47377542 -0.6045508 -0.09858278 0.83271235 0.40686494 -0.8206407
-0.16965997 0.38899133 0.16830309 -0.3559587 -0.41416046 0.48134977 -0.16881275 0.0965995
0.19648144 -0.08590561 -0.7125932 -0.26462126 -0.21644309 -0.84417874 -0.050203163 -0.022086078
-0.31939492 0.4417211 -0.34800336 -0.8307762 0.24792737 -0.23853578 0.2880705 -0.3921146
-0.32337847 0.23586923 -0.4024483 -0.05193339 0.117746495 0.0026506812 0.68102986 -0.130163
-0.098965794 0.14003576 -0.39345175 0.48063603 0.42894843 0.4043428 -0.35722405 0.23819278
-0.032230936 0.12178855 -0.5550351 -0.58003175 -0.52336633 0.13704138 -0.48489967 -0.33795154
-0.05140461 -0.14250614 0.95053375 -0.021857033 0.17453954 -0.124839835 0.22965619 0.2437874
0.5116498 0.31053084 -0.01879549 -0.43416303 -0.50804657 -0.45563427 -0.27539787 0.18527837
-0.13313195 0.4864795 -0.073646374 -0.056695033 0.16388977 0.58454734 -0.48984075 -0.43210647
0.5541895 -0.50730455 -0.15017538 0.20389512 0.3300457 0.38737866 -0.044976175 0.31239775
0.0972442 -0.35479006 0.1266412 -0.29232517 0.06980359 0.8169386 0.034378372 -0.26120856
-0.37883824 -0.33359495 -0.27370685 -0.49703842 0.18869054 0.44480217 -0.19410382 0.36015537
0.1877936 -0.15791391 -0.64691347 -0.76360524 -0.23656787 -0.1135453 0.4021584 0.22211306

gnn_base.gnn.embed_layer.lin1.bias f4 [16]
00000000: a60a acbb 259d 10bd 3d6e f1ba 8c7a 3cbe
00000010: 90a3 9d3d 7f97 593c af64 e8bc 4e8e 1a3d
00000020: 4546 a7bd 8485 34bd a3d1 86bb 7a1c afbd
00000030: aed8 eb3d 8dc7 6a3d 4665 8fbc 32cc 883d
-0.005250293 -0.035306115 -0.0018419694 -0.18406123 0.07697213 0.013280748 -0.028368322 0.03773337
-0.081677 -0.044072643 -0.004114346 -0.08550353 0.11515938 0.057319213 -0.017504346 0.06679572

gnn_base.gnn.embed_layer.layers.0.weight f4 [16, 16]
00000000: 8279 9c3d 1a66 7cbe c989 8a3e 04a9 253f
00000010: 3b0c a6be 2532 433e 38a0 84bd e831 4dbc
00000020: 2ad2 3f3e 57f6 363f 30f6 ad3e 0691 b1be
00000030: b242 0ebe 5f20 ae3e bda8 a23d d16d 2dbf
00000040: 88bc 2c3d 2e76 b2be cb66 d23e 5db3 92be
00000050: 8ded 47be 036c dc3e b4a4 69bd f6f0 5e3f
00000060: e9f5 4fbe ca07 aa3b 8b92 9ebe f244 03bf
00000070: c6f3 dc3e 5676 8cbe 70db 7c3d 0df7 023e
00000080: 1ae7 21bd 8d85 29be 8036 a4be 5327 8cbe
00000090: ae9e a03e 7d69 443e 78e3 2d3f afcd 823c
000000a0: 9c86 dfbe af18 ab3e a82a 1d3e 316a ca3d
000000b0: 27dd 023f cf73 12be 0b85 1f3e ccee 51bf
000000c0: a0a5 1f3e 3695 89be b677 4a3d 029f d3bc
000000d0: 4689 523e ec45 183f 4c67 333f e336 29be
000000e0: 4745 d03d 3963 763e 4230 bd3d fb18 993d
000000f0: 497e d2be 5739 be3e 0d06 1abf b0bb 223f
00000100: 76a7 0bbf aa41 4d3f 0d56 a3be ed1f b23e
00000110: c3e8 80be 83c1 033f d907 ae3e 5d0a d4bd
00000120: 0e7f 8c3e a599 243e 56b3 453c 1cf0 5abe
00000130: b718 a73e b5b1 d6be 8520 9e3d fc5d 953e
00000140: 278a 613e 5114 0e3e 6598 f3be 43e6 94be
00000150: 2b52 193e 4539 2f3f 016b a7be 270a 033e
00000160: 47d2 403d 48a5 f13e 7fc8 65be af3b 81bd
00000170: ca14 2bbf c6ed bebd cb98 ea3e ff6e e9bd
00000180: 0e20 c33e a5a6 bc3e 1d60 d2be b760 0d3c
00000190: 3564 9abe 7eaf a7bd c898 853c 5b96 7dbd
000001a0: d087 06bf c073 a63e cbe9 30bf 88d8 babd
000001b0: 9a5a 003f af5d e43e b21d ddbe db93 e7ba
000001c0: 0700 be3e 71ef c33e 37e9 fd3e 35de 3abf
000001d0: 0d4e 36bf da6c 113d e60b 253e 0802 2fbe
000001e0: a897 ce3d f005 80bc 8d96 f03e 68d5 223e
000001f0: e0e4 b53e d7da 95bc 760a 93be cccf a5be
00000200: 9a81 803e 2c40 a33d 3e9e 73be 94e2 c93e
00000210: e87f e9be d24b d8bc a1ab 093c b563 f03e
00000220: d4e8 27bf d29e d93c f32a 143f 60fb 673e
00000230: 7970 ddbe fb7f 94be e6cf 5abe f5c7 2d3e
00000240: 8dd6 74be 959a 5f3e b7fc 973e c8a6 1cbe
00000250: aabb d7be c26c 39be f9ff e03e 441a 2abf
00000260: 40ca 03bf cf0e 3ebd 167c d1bd 2c18 e6be
00000270: 0cf3 01bf 6047 0a3e 733f 123f 859b f33e
00000280: a3b0 3fbf 28e8 293e 67bb df3e 3ea0 983d
00000290: 661c 64be eef7 a73e 9d4a 1bbe e556 203e
000002a0: f313 48be 2585 23be f7ec e6be 3241 7b3e
000002b0: a920 f1be 83e8 5a3e de68 e2be 4447 d0be
000002c0: 88eb 683e 1f43 a13d f189 e33e 516a fd3d
000002d0: 3770 1f3f 51a7 febd b22c 7abe 6faa e1be
000002e0: a7c6 9fbe fd23 f43e 6694 05be 06a5 f93d
000002f0: dc54 fd3c a19b 6ebf 6964 aabe 3a41 87bd
00000300: a90a 4c3e 7492 29be d43e 1dbe 2936 013e
00000310: ca10 863e 6e6e 5d3e 5b2f 75be 05dd f8be
00000320: f178 b3bb e3e9 64bf 4333 963e 790b 29bf
00000330: 4517 873d 6ad8 ccbd e2f9 f9be 6830 cbbe
00000340: 9b54 1abf 9514 82be cd3f 4bbe 68ce 56be
00000350: 8870 f13d c8c2 aa3e 17c0 1fbf b5b0 a2be
00000360: 2da5 1cbf ecf6 8a3e 3d26 ea3e 5ddb 063e
00000370: c70d 923e 0901 b03e c9c8 813d fafe fd3e
00000380: 4922 d3be aa89 29bf be02 c0be 614b 30be
00000390: 8758 39bf 00f6 003d 8334 fd3c 59ad bbbe
000003a0: b486 343e 078d a33e 7b4d ecbe 8cff 413c
000003b0: 459a 54bd e71f fcbe 5896 73be 797c 943d
000003c0: 5ea3 01bf 4d62 0a3e 483c 4fbe 4983 d3be
000003d0: 4c7a 903e de52 42bf 9d28 583d 63b7 8f3e
000003e0: 0f2f 333e 625d dc3d c374 b33e 2f48 2ebf
000003f0: 1878 bcbe 9ee9 4f3d c710 f1be ea9d 6f3c
0.07640363 -0.24648324 0.27058247 0.6471102 -0.32431206 0.19062097 -0.06475872 -0.012524106
0.18732515 0.71469635 0.3397689 -0.34680957 -0.1389263 0.34009072 0.079423405 -0.6774569
0.042171985 -0.3485579 0.4109405 -0.28652468 -0.19524212 0.43051156 -0.05704184 0.8708643
-0.20308651 0.005188917 -0.30971178 -0.5127708 0.43154734 -0.27434033 0.06173271 0.12789555
-0.039527036 -0.16554852 -0.3207283 -0.27373752 0.31371063 0.19180866 0.67925215 0.015967218
-0.43657386 0.3341727 0.15348303 0.09883536 0.511187 -0.1430199 0.15578096 -0.82005
0.15590525 -0.2687165 0.04943057 -0.025832657 0.20560178 0.5948169 0.70079494 -0.16524844
0.101694636 0.24061288 0.0923772 0.07475468 -0.41111973 0.37153122 -0.6016548 0.6356764
-0.545524 0.8017832 -0.3190159 0.34789982 -0.25177583 0.5146715 0.33990362 -0.10353539
0.27440685 0.16074236 0.012066683 -0.21380657 0.32636043 -0.41932455 0.07721046 0.29173267
0.22025357 0.13874938 -0.47577205 -0.29081926 0.14972751 0.6844676 -0.32698825 0.12796842
0.047075536 0.47196412 -0.22439764 -0.06310212 -0.66828597 -0.093226954 0.45819697 -0.11398124
0.38110393 0.3684589 -0.41088954 0.008629016 -0.30154577 -0.08187769 0.016308203 -0.06191097
-0.52550983 0.32510185 -0.6910674 -0.09123331 0.50138247 0.44602725 -0.43186718 -0.0017667966
0.37109396 0.38268617 0.4959199 -0.7299531 -0.71212846 0.0355042 0.1611782 -0.17090619
0.1008752 -0.015627831 0.4698986 0.1590172 0.3552618 -0.018292828 -0.2871892 -0.323851
0.25098878 0.07971224 -0.23790833 0.39430678 -0.45605397 -0.026403341 0.008402736 0.4695107
-0.6558964 0.02656499 0.57878035 0.22654486 -0.43249872 -0.2900389 -0.2136837 0.16970809
-0.2390997 0.21836312 0.29684994 -0.15297997 -0.42135364 -0.18107894 0.43945292 -0.6644633
-0.51480484 -0.04640084 -0.10228746 -0.44940317 -0.50761485 0.1350379 0.57128066 0.4757959
-0.748789 0.16592467 0.43697664 0.07452439 -0.22276458 0.32806343 -0.15165181 0.15658148
-0.1953886 -0.1596876 -0.45102665 0.24536589 -0.4709523 0.21377759 -0.44220632 -0.4067937
0.22746098 0.078741305 0.44441178 0.12373794 0.622806 -0.12434257 -0.24431112 -0.44075343
-0.31206247 0.47683707 -0.13044891 0.12189679 0.030924253 -0.9320622 -0.33279732 -0.06604238
0.19925942 -0.16559774 -0.15355998 0.12618317 0.26184684 0.21624157 -0.23943846 -0.48606125
-0.005477064 -0.8941938 0.29335985 -0.6603313 0.06596235 -0.10002215 -0.48823458 -0.3968537
-0.6028535 -0.25406328 -0.19848557 -0.20977175 0.11789042 0.3335173 -0.6240248 -0.31775442
-0.6118954 0.2714151 0.45732298 0.13169618 0.28526136 0.3437579 0.06337125 0.49608594
-0.41237095 -0.66225684 -0.37502092 -0.17216255 -0.72400707 0.031484604 0.030908829 -0.3665569
0.1762951 0.31943533 -0.46152863 0.011840712 -0.051904935 -0.4924309 -0.2378782 0.07250304
-0.50639904 0.13514061 -0.20237839 -0.413111 0.28218305 -0.75907695 0.052773107 0.280696
0.1749842 0.10759999 0.3505002 -0.68078893 -0.36810374 0.050759904 -0.47083113 0.014625052

gnn_base.gnn.embed_layer.layers.0.bias f4 [16]
00000000: 54f3 f9bc fecc 0a3c 7711 01bd 8d4c 67bc
00000010: 040f 173d 4bef 87be 4233 743b 8c21 42bd
00000020: 192a 5fbd 58ca 0b3e 53e7 dbbc 3d44 433d
00000030: bfa4 d13d 787d 07bd 0975 a5bd 85a7 053d
-0.030511536 0.0084717255 -0.031510796 -0.014117372 0.036879554 -0.26549754 0.0037261997 -0.047395274
-0.054483507 0.13651407 -0.026843702 0.0476725 0.10236501 -0.03307864 -0.08078963 0.032630462

gnn_base.gnn.embed_layer.layers.2.weight f4 [16]
00000000: a719 883f 60c8 7b3f 697e 663f 2396 683f
00000010: 758f 873f ca15 873f c9c4 7c3f 46fc 7b3f
00000020: 244f 813f 6f7a 813f 8c7d 823f f4c5 6c3f
00000030: 1fcc 873f 646e 813f 8bf8 813f 30d8 893f
1.0632828 0.98352623 0.90036637 0.9085409 1.0590655 1.0553524 0.9873777 0.98431814
1.0102277 1.0115489 1.0194564 0.9248955 1.0609168 1.0111814 1.0153974 1.07691

gnn_base.gnn.embed_layer.layers.2.bias f4 [16]
00000000: 1e8d 7d3c a8e8 a83d da14 eabb 3476 9c3d
00000010: 6a83 423d 4178 9fbd 5a14 1b3c cc3e 3abd
00000020: b2a9 263c a279 6bbd 46ca 55bd 3c56 febc
00000030: 502a 813d 79a2 ebbc a5b1 b73b 1bc1 a7ba
0.0154755395 0.08247501 -0.007143599 0.07639733 0.047488607 -0.077866085 0.009465301 -0.045470044
0.010172294 -0.057489045 -0.052194856 -0.03104698 0.063068986 -0.028763996 0.0056058937 -0.0012798639

gnn_base.gnn.gnn1.lin_key.weight f4 [48, 16]
00000000: cb63 81be ad80 3b3e 25d3 6d3e 3606 783e
00000010: 97f4 06be 6716 d53d ad66 59bd bea8 4abe
00000020: 889a 3c3e 28a6 a0bd 2bf8 16bc 3553 f7bd
00000030: a3c4 bbbe fde5 203e 61ab 9e3d a0b6 cabd
00000040: a685 403e f5da e23c dc70 eabc 70e8 35be
00000050: 5293 61be 3c04 33bd 0e0f 4cbe 9607 22be
00000060: baa7 003d 1d1a 0cbe cf53 6bbd ec8e 003e
00000070: 29d7 c73d a906 01bc affe 2f3e c6c6 47be
00000080: d44a 3cbd 51f9 ac3e 02cc 32bc 468e 75be
00000090: fef8 a53e 2f4b dabc abc6 923c 2aeb 0bbe
000000a0: b314 0c3e a5a0 7c3d dbed 443b b74e 053e
000000b0: 4bde a5bd 9c83 efbd 9491 14be f4a7 693e
000000c0: b2da c9bd 33cb f53d c192 06bd 2a74 913e
000000d0: b396 7bbe 12ec 24bd 18fe d73c d94c e1bc
000000e0: ad8d 653c a365 603e 1ab0 70bd 955a c8bd
000000f0: 4dd1 013b cde9 663e 7a7d b13e 85cf e5bd
00000100: 184e 803b a269 3cbe 0078 32bd 0747 c4bd
00000110: 5290 6a3e 871a 8c3c 6297 113e 4b60 6a3d
00000120: 80a3 be3d 0d85 343e 3884 0abe 2ee2 49be
00000130: 8a36 b23d aa00 043d bbfa 18be 8dca be3d
00000140: c580 82bd 0d29 2bbe dee8 77be 11f9 82be
00000150: b6b6 b13d bfb9 07be 1f18 86bd 486c 4bbc
00000160: 70fb 8d3e 7825 41ba 410f 013e 9668 233e
00000170: c106 78be e0f2 813e 47ff 00bd a643 d33d
00000180: 6894 d43c 103b d1be 1a2b 313e 09d3 b13d
00000190: 09d3 f4bd 6a4b 843e 01fa 97be 0d98 cabd
000001a0: 396c c03e 51c5 d43e 5961 093d d317 b5bd
000001b0: 5602 02be a573 47bd 78b3 b8bd 0040 553c
000001c0: 2835 b7bc 7761 4bbe 3a23 c43e 29d5 413e
000001d0: d847 e4bd 7065 38bd caa0 223c fa30 e13c
000001e0: b97d 733c 883b 4e3e f967 383d abd2 883c
000001f0: c2f3 793e ad30 413d 8bed e33c 2637 133e
00000200: 39df 51be 5123 69be ed0d 173e 118f b7bd
00000210: 42a7 263d d006 2fbe 019b 2e3e 50d6 093d
00000220: 6cc2 ecbc c73e a63e 46e1 0abe c61e af3c
00000230: 7107 e33c 5bc3 343e 059a 0c3e a9ea 9cbb
00000240: 7f08 ad3d 2b04 a53e 122a 21be b39d 1f3e
00000250: 34ed 223e 62b4 7ebe d783 d23d b658 c93c
00000260: b7a0 933c bc96 bdbe b8f7 aabd 9640 3abe
00000270: 0406 81be b092 b7be 02c6 783e fce0 423e
00000280: 5db5 b9bd 6b87 b7bd f641 01be 696a efbb
00000290: a99d 8fbe dbbd f53d 2f95 29be 0db7 6e3e
000002a0: f521 01be 8520 4fbe f8d7 103e 0898 62be
000002b0: 694b 0e3e 9226 943e 0480 923e 667b 51be
000002c0: b5a3 e13d effc f23d a806 b1bd 7f42 c0bc
000002d0: 7a04 1b3e 292d 463e 9ecb 2fbe 566a 593e
000002e0: b35b 4f3d c0c4 2a3e af41 85be ebd1 13be
000002f0: 8383 a2bd ef56 1f3e 622e 2dbe 209e f13d
00000300: 6d32 613e 3c6a 133d 7c6e f9ba 1773 c5bd
00000310: 6473 a8bc 06b5 1abd 4492 ca3d 10b9 7a3d
00000320: 450a a2bd 54bc c5be 306d b13d ebe9 22be
00000330: ecb9 ff3d 92d1 9a3d 1004 7bbe d041 023e
00000340: 65f7 a8bd 00ce 7fbd db1e 85be 73eb 1f3d
00000350: b6b4 c0bd 4c1d e53d bad0 2d3e cd99 163e
00000360: 2c56 99be 3247 303e ad1c 88be 7e2d 36be
00000370: 7795 433e f2b4 4fbe b6f5 3cbe 472f e63c
00000380: 8871 52be 1010 2fbe 5e51 a3bd f92c 1d3e
00000390: 5753 e13d 28ca f53c 6b33 09bd 95cb a83e
000003a0: 1a0f 2b3b 288c 603d 0c26 1dbd c054 2a3d
000003b0: debe 193e 13a2 e93d 2ffb 7d3d a9ce f73a
000003c0: d46d 753d 4477 03be bb49 813e 5787 3b3d
000003d0: 9886 253e 3746 6e3b 288b 80be c136 1ebd
000003e0: 42e5 423e 8a8d 8f3e 0ec5 633d 92ca 163e
000003f0: 3fc0 653e ac3f f23d 170e 6e3e a001 b7bc
-0.25271448 0.18310805 0.23225076 0.2422112 -0.13179241 0.104046635 -0.053076435 -0.19790933
0.18418324 -0.07844192 -0.009214441 -0.12076417 -0.3667346 0.15712734 0.07747532 -0.09898114
0.18800983 0.027692297 -0.028618269 -0.17764449 -0.22028854 -0.04370521 -0.19927618 -0.15823206
0.031409957 -0.13681836 -0.057452973 0.1255452 0.097578354 -0.007875123 0.17186998 -0.1950942
-0.0459698 0.33783963 -0.010912897 -0.23980054 0.32416528 -0.026647178 0.017916998 -0.13663927
0.13679771 0.06167664 0.0030049 0.13018309 -0.0809904 -0.11695024 -0.14508659 0.22817975
-0.09856166 0.12001648 -0.0328548 0.2840894 -0.24569206 -0.040264197 0.026366279 -0.027502464
0.014010829 0.21913771 -0.058761694 -0.09782902 0.001980859 0.22550125 0.34666044 -0.11221222
0.0039155595 -0.1839967 -0.043571472 -0.0958386 0.22906616 0.017102493 0.14217904 0.05722074
0.09308529 0.1762888 -0.13527 -0.19715187 0.08701809 0.032227196 -0.14939396 0.09315977
-0.06372217 -0.16714878 -0.24209926 -0.25580648 0.086774275 -0.1325445 -0.065475695 -0.012415953
0.27730894 -0.0007367949 0.12603475 0.15957865 -0.24221326 0.2538061 -0.03149345 0.10315637
0.025949672 -0.40865374 0.17301598 0.0868283 -0.11954314 0.25838786 -0.29682925 -0.09892283
0.37582567 0.4155679 0.033540104 -0.08842435 -0.12696204 -0.04869427 -0.09018606 0.013015747
-0.022364214 -0.19861399 0.38308126 0.1892897 -0.111465156 -0.045018613 0.00992603 0.027489174
0.014861518 0.20139897 0.04502103 0.016702017 0.24409392 0.04716556 0.02782323 0.14376506
-0.20495309 -0.22767378 0.14751406 -0.089628346 0.040686853 -0.17092443 0.17051317 0.03365165
-0.028901301 0.3246977 -0.13562497 0.021376979 0.02771351 0.17652647 0.13730629 -0.004788716
0.08448886 0.32229742 -0.15738705 0.15587501 0.15910798 -0.24873498 0.10279053 0.024578433
0.01802097 -0.37029064 -0.0834803 -0.181887 -0.25199902 -0.358541 0.24294284 0.19031137
-0.090677954 -0.08961376 -0.12622818 -0.0073063863 -0.28049973 0.11999103 -0.16560815 0.23312016
-0.1261061 -0.20227249 0.14144886 -0.22128308 0.13895954 0.28935677 0.28613293 -0.20457229
0.11017553 0.118646495 -0.08643848 -0.023469208 0.15138426 0.19353165 -0.17167518 0.2123197
0.05062456 0.16676617 -0.26026675 -0.14435546 -0.0793524 0.15560506 -0.16912225 0.11797738
0.21991892 0.035989985 -0.0019030119 -0.09641092 -0.020562835 -0.037770294 0.09891179 0.061211646
-0.07912115 -0.38620245 0.08663404 -0.15909545 0.12486634 0.075595036 -0.24513268 0.12720418
-0.08250312 -0.062452316 -0.26000103 0.0390429 -0.09409468 0.111872286 0.16974154 0.14707108
-0.29948556 0.17214659 -0.26584378 -0.17790791 0.19099985 -0.20283869 -0.18453106 0.028098715
-0.20551121 -0.17095971 -0.07974504 0.15349187 0.11002224 0.030003622 -0.0334963 0.3296782
0.002610153 0.054821163 -0.038366362 0.04158473 0.15014216 0.11407866 0.062007125 0.0018906194
0.059919193 -0.12838465 0.25251564 0.045783367 0.16164625 0.003635777 -0.25106168 -0.038626436
0.19032767 0.28037673 0.055607848 0.14725712 0.22436617 0.11828551 0.23247562 -0.022339642

gnn_base.gnn.gnn1.lin_key.bias f4 [48]
00000000: 8158 9e3d 687f 72be 8d5a 28be fce2 bebd
00000010: e72e c7bc db9a 71be 72cc cb3b c078 233d
00000020: 1c27 cbbd a70c a63d 65ae 5f3e 6ae1 2ebd
00000030: da4e 08be 56d6 62be 29f3 3abe a9a3 0dbe
00000040: 6e32 3dbe 016c c9bd 1011 0d3e f75d a03d
00000050: 08bd 663e e11c 7e3e 496d b8bd 2754 c8bd
00000060: 67f3 0b3d a4ce 4bbe 754b 0b3e 5267 38bd
00000070: af5d 56be b53e 41be 0b48 30be b2c7 8c3d
00000080: 0c67 443e 5bb2 4a3e ef60 8dbd 45bc 14be
00000090: 2e27 e3bd 37cf 2ebe d618 84bd 8a28 67be
000000a0: 49c9 083e 7614 71be 2823 1fbe aabb 2b3e
000000b0: 664c 3fbe 8cac 743d 6401 403e bc2c 7c3e
0.077317245 -0.23681414 -0.16440792 -0.093206376 -0.024314357 -0.23594229 0.00621944 0.039910078
-0.09919569 0.08107882 0.2184387 -0.04269544 -0.1331133 -0.22152075 -0.1825682 -0.13831963
-0.18476269 -0.09835053 0.1377604 0.07830422 0.22533047 0.24815704 -0.090052195 -0.09781676
0.034167673 -0.19903046 0.13603003 -0.04502041 -0.20934175 -0.18871577 -0.17214982 0.06874026
0.19179934 0.197946 -0.06903254 -0.14524944 -0.11091457 -0.17071234 -0.064500496 -0.22574058
0.13358034 -0.23542961 -0.15540755 0.16770807 -0.18681487 0.059734866 0.1875053 0.2462644

gnn_base.gnn.gnn1.lin_query.weight f4 [48, 16]
00000000: 26b7 0a3e 6b62 58bd 4c0c 4d3e d8a7 11be
00000010: 816e 8d3b 4be0 6ebd 1802 7e3d 2b73 a63e
00000020: dd59 073e b07c 1bba e96f 3bbc 2025 92bd
00000030: 0236 eb3d 4dc2 4dbd 8f1f 77be 1049 a93d
00000040: 8746 b8bd 6e45 52be 1aa7 ae3c 77d5 393e
00000050: 113c fb3c 3daa d2bd abf4 eabc ed6d 303e
00000060: a9a9 c93d 1480 273e 66db 1abe 1b4b b93d
00000070: e2cb e13c 483b 403e 16e4 2e3e df50 4cbd
00000080: 67ee ac3c 9839 4e3e 8e59 303e c196 c2bd
00000090: 7bb1 383e 0873 4a3e 2373 b7bd bfbf 96be
000000a0: 230f d73c 53e2 1e3e b021 7e3e f0c5 94be
000000b0: 7d96 d03b 9ba8 9cbb d566 1b3d 0e50 413e
000000c0: 957c a93a 8ee3 81be fe92 0bbd 529e 6fbe
000000d0: cef6 1a3e 43c5 213e 84ab 89bc 50a8 2b3c
000000e0: 9674 2f3e b2dc b7be 8f25 d53d d65a 163c
000000f0: 3f54 583e ebaa 063e 6a78 a7bc 6fab 4d3d
00000100: de9d d8bd 72d7 3e3e 7348 063e 56bc 9a3d
00000110: 37a7 043d 8e82 c13c d506 3e3e bae2 e9bc
00000120: 2854 5c3d 9355 d6bd 625a c33e 0f13 203e
00000130: 52d1 e43d 1d1b 983a d48d 273e bae0 5f3e
00000140: 21b7 36bd 4945 34be c849 4d3e 4e83 67bd
00000150: ef74 1abe ab6f dfba 42d3 453e 544a 043e
00000160: a181 48bc 0e87 20be 74b6 f33d c105 dc3d
00000170: c752 4f3e 5497 543e a4a1 07be 4662 d73d
00000180: 0834 62be da33 943e 8a7c b4be c56a a1be
00000190: fd49 a6be 5197 633d df8a b13d 52b3 fc3d
000001a0: 3282 913c 85a8 8ebe b7e7 b9bd db81 53be
000001b0: 063d 99bc e7a5 2fbe b10f 7a3b 1e42 783e
000001c0: 332a 41be 250d 763e 1adc 52be 806c 03be
000001d0: 71cd 0dbd 2232 2cbd 3eda c63e a417 e03d
000001e0: 7f61 4cbe 8275 8cbe fc36 2ebd 26fd 75be
000001f0: 2093 3abe e484 d8bd 3490 4b3d 4d3e 15be
00000200: 1244 35bd 0343 3e3e c37e 8b3e c709 d1bd
00000210: 7c9b 85be b402 00be fa72 213e ead5 b13d
00000220: d5cc 42be 46d8 89be 2172 973d b258 74bd
00000230: aa94 343e 9ba5 8cbe 8fc2 163e d190 a53d
00000240: de33 81bd 63d2 adbe da8a a73e 4752 46bc
00000250: 3182 9a3e 3820 af3c 92e7 b6be de5b bfbe
00000260: 23b5 82bd 5b0d 6c3d bd10 8fbd c786 ae3e
00000270: d67c 6dbe 28b4 2b3e 5488 403e e2a6 f8bd
00000280: 54a4 81be 49c2 81bd d8c7 f83d dfc5 aa3d
00000290: 952d ac3c ceb5 cbbc 5981 e1bd 07f4 01be
000002a0: a0c7 8f3e d974 85be 290b 9abe 9825 243d
000002b0: c3a2 853e ad30 a03e fc3f 85be c3e9 df3d
000002c0: e5b7 233e 61e6 573e 5403 283c c294 233e
000002d0: b776 c43d ae64 37be 6bf1 03be f71d 133c
000002e0: b01f 24be 892c 0bbd bb52 0a3e 11c3 f73d
000002f0: 9f8a 693e 5cd0 9b3d 7ba2 0abe e58c 043e
00000300: eb5f cfbc 18f2 84bc cc4e 183c 73a1 433e
00000310: 4ee8 debd 7a52 9d3e 8a98 603e bbfe 96bc
00000320: 16e6 363e c3a9 973e 5ed5 0dbe 51d9 08be
00000330: d326 aebc 4080 3a3e 6d58 6cbc d050 9cbd
00000340: 6dae 6f3e cabd 4b3e c8ab 663e 82ee 6cbd
00000350: 16c1 f0bc 32ac 0d3d a7af c03d 3afa 29be
00000360: 85ee 5b3d e818 213e c729 153e 3fd3 d93d
00000370: 9657 a6bd 15f1 84be 0e2b 5abd ecc6 0fbe
00000380: f1b8 72be 50ed cb3b 817a 08be 4933 f73a
00000390: e372 7cbe 3167 0c3e ca13 29be 6248 6bbb
000003a0: 1b9c bcbd af77 dfbd 7ccd a93d c2fd a4bd
000003b0: c116 c63d f9c1 3dbd cf08 16be 20fa 633b
000003c0: 6d85 753d 9278 adbd 5713 91be 789e 243e
000003d0: 71eb 313d 5992 9abd db43 8b3d 4be0 f03d
000003e0: 9539 5b3d f69b a8be 6e57 adbd a674 92be
000003f0: 4cb1 1dbe 31da 28bd 2387 67bc 1e5c 343e
0.13546428 -0.052828234 0.20024222 -0.14224184 0.0043161516 -0.05831937 0.062013716 0.3250974
0.13217874 -0.00059313606 -0.011440256 -0.07135987 0.114849105 -0.050234128 -0.24133132 0.08265889
-0.08997827 -0.20534298 0.021319915 0.18147837 0.03066829 -0.102863766 -0.02868112 0.17229433
0.09846813 0.16357452 -0.15122756 0.09047528 0.02756304 0.18772614 0.17079195 -0.049881812
0.021109773 0.20139158 0.17221662 -0.0950141 0.18036453 0.19770443 -0.089575075 -0.29443166
0.026252335 0.15516023 0.24817538 -0.29057264 0.006365596 -0.0047808415 0.037939865 0.18878195
0.0012930805 -0.25368923 -0.03407573 -0.23400238 0.15133211 0.15797906 -0.016805418 0.010477141
0.17134318 -0.35910565 0.10407554 0.00917693 0.21125887 0.13151138 -0.02044316 0.05021232
-0.10576986 0.18636873 0.13113575 0.075554535 0.03238603 0.023621824 0.18557294 -0.028550494
0.053791195 -0.10465541 0.38154894 0.1563227 0.11172737 0.001160476 0.16362697 0.2186307
-0.04460824 -0.17604555 0.20047677 -0.056521706 -0.15083669 -0.001704683 0.1931887 0.12918979
-0.012237937 -0.1567652 0.119000345 0.10743285 0.20246421 0.20760852 -0.13245255 0.10516791
-0.22090161 0.2894581 -0.35251266 -0.3152677 -0.32478324 0.05556423 0.08669066 0.1233889
0.017762277 -0.27862945 -0.09077399 -0.20655005 -0.018705856 -0.1715313 0.0038156325 0.24243972
-0.18863754 0.24028452 -0.20591775 -0.12834358 -0.034619752 -0.042039998 0.3883838 0.10942009
-0.19959067 -0.274334 -0.042532906 -0.2402235 -0.18220186 -0.10572222 0.04969807 -0.14574547
-0.04425437 0.1858025 0.2724515 -0.10206943 -0.26095188 -0.12501031 0.15766516 0.08683379
-0.1902345 -0.26922816 0.07394815 -0.0596549 0.17634836 -0.27470097 0.14722656 0.08084262
-0.06308721 -0.33949575 0.32723123 -0.012104577 0.30177453 0.021377668 -0.3572355 -0.37374777
-0.06382205 0.057629924 -0.069856144 0.34087202 -0.23192152 0.16767943 0.18802005 -0.12141205
-0.25320685 -0.06335885 0.12147492 0.08338522 0.021017829 -0.024866965 -0.11010999 -0.12690745
0.2808199 -0.2606571 -0.3008664 0.040074915 0.2610074 0.31287137 -0.2602538 0.109332584
0.15988119 0.21083976 0.0102547 0.15974715 0.095929556 -0.179095 -0.12885062 0.008979312
-0.16027713 -0.03397802 0.13508122 0.12097753 0.22806786 0.07608101 -0.13538544 0.12944372
-0.025314292 -0.01622872 0.00929613 0.19104557 -0.10884152 0.30726987 0.21933189 -0.018432012
0.17861208 0.29621705 -0.13850924 -0.1336415 -0.021258747 0.18212986 -0.014425379 -0.07632601
0.23406382 0.19896618 0.22526467 -0.057844646 -0.029388946 0.034588046 0.09408503 -0.1659936
0.053694267 0.15732157 0.14566718 0.10635995 -0.081221744 -0.2596518 -0.053263716 -0.14040726
-0.23703362 0.006223358 -0.13327982 0.0018859889 -0.24653201 0.1371124 -0.16511455 -0.0035901298
-0.09209462 -0.109115 0.08291146 -0.08056213 0.09672309 -0.046327565 -0.14651798 0.0034786537
0.059941698 -0.084702626 -0.28335068 0.16076076 0.043437425 -0.07547445 0.06800052 0.117615305
0.05352171 -0.3293149 -0.084639415 -0.2860462 -0.15399665 -0.04122371 -0.01413134 0.17613265

gnn_base.gnn.gnn1.lin_query.bias f4 [48]
00000000: ca83 16bd a514 8a3e 0a0d 923e 8468 523d
00000010: 20be 173e 25c1 253e 8633 943e 9d6a 2abc
00000020: 25af 203d eeea c6bd 593d 2abb 9421 82bd
00000030: a9bc 27be 43be e13c c632 ff3d e297 90bd
00000040: 5b4c 60be 2b4f 153e 0119 84be 1c2e 81bc
00000050: 51c3 01be 5660 743e 59d4 593e e318 0bbe
00000060: 5e03 17be a696 bfbd 1528 1b3d 250b 24be
00000070: 3170 7bbd 0e59 07be fe20 7b3d a3a5 15bd
00000080: 8bb0 123e a173 53be 9532 07bd 7850 5c3e
00000090: efa9 39be 3c19 073e 67ac f83d f882 10bd
000000a0: 4075 133d d790 70be ad91 52bc 6d9d 053e
000000b0: 0832 203e 87a1 12be 20cd 50bd 2fd4 eabd
-0.036746778 0.26968876 0.28525573 0.051369205 0.1481862 0.1618696 0.2894556 -0.010401395
0.03922953 -0.09712778 -0.0025976507 -0.06354061 -0.16380562 0.027556544 0.12460856 -0.07060219
-0.21904127 0.14580981 -0.25800326 -0.015769057 -0.12672164 0.23864874 0.2127241 -0.13583712
-0.14747378 -0.09354906 0.037880022 -0.16019876 -0.06138629 -0.13217565 0.06131076 -0.036534917
0.14325158 -0.20649578 -0.033007223 0.21515071 -0.18131231 0.1319322 0.12142258 -0.03528115
0.03600049 -0.23492752 -0.012852115 0.13048334 0.15644085 -0.1431943 -0.050976872 -0.11466252

gnn_base.gnn.gnn1.lin_value.weight f4 [48, 16]
00000000: aadb 81be b4cc cfbd 8522 bb3d 0f6a b0bb
00000010: d9ed 71bd 2072 fa3c d1e2 0cbd 2d96 7abe
00000020: ffac adbd 25e8 e63d d8ff dfbd 8d25 283e
00000030: 4d45 903c 30d6 65be d017 0b3e b4d3 a73d
00000040: a1a3 86be 2726 7b3d fdff fd3d f0f3 6abe
00000050: 1a22 0cbe 47f3 443e 19b8 a73e 0aab 78be
00000060: 8f37 16be 7079 943e aa06 f4bd 0966 aabc
00000070: ddbe 223e 7cbf ab3e 74f3 2ebb a6f2 473e
00000080: 4a95 0f3d 57b6 8c3e 08d8 80be 4b77 1fbe
00000090: 24b8 a33d c038 dd3c 88c6 163e 81e9 b2bd
000000a0: eae3 283d efa7 98bd 9c40 403e b9be 373c
000000b0: 0091 80bd fc06 013e 97ad 873e 7135 683e
000000c0: 7be9 98be c903 0dbc 22cf 63bd 26b6 9a3c
000000d0: 8b2d 8b3d b12b 6c3d e358 a23d 39ae 19be
000000e0: 129f 903d 8bba 3f3e bfe9 463e 127f bdbd
000000f0: 0cb4 3abe 3e4f 133e 353c de3d 8f40 21be
00000100: 7992 63be 3116 4b3d d176 a4bd 79df e4bd
00000110: 6eb1 95bc e7ca 903e 2845 7c3e 1b0b d93d
00000120: 7ff7 35be b2eb 723e b254 0c3e f2aa 123e
00000130: 6892 96bd c39d 4abd 3e4d d5bd 3934 3bbe
00000140: c847 83bd 95ac 04be 8dd5 b1be fb5b fd3d
00000150: 79af 81be d183 75be c5c1 a5bd 1619 61be
00000160: 4f26 983e 4eef 523e 06fd 64bd 9e2d b7bd
00000170: 1717 5cbe 16b6 4e3e 133d 603d f774 5b3c
00000180: 33d7 943d c643 75bd feae 1dbe 1717 6f3d
00000190: b555 81be f363 3abe 603a f7bc 7b78 533e
000001a0: 296b b1bd 81ea 403e 40a0 243d 16f2 e6bd
000001b0: cfca d73c ab84 103e ef18 5d3c e2e0 753e
000001c0: ab93 25bd 34b9 e0bd e964 9b3e cb0b 25be
000001d0: 870b 253e 2537 273e 3376 8a3d 527a 92be
000001e0: 2214 51be 213f 743d 4ad6 1f3e b43c 233e
000001f0: 7a4a 98be 8cf9 18bd c177 a73e d09f ef3d
00000200: f2b5 923e c112 5e3e 77b4 99bd b69b 82be
00000210: f15f f7bd be45 5f3e 6a3a a1bd b4ec fbbc
00000220: 5537 613d 1753 0e3e 914f 4f3e 1b27 833e
00000230: ab73 793d b90c 0a3e 2c4c f5bd 9101 5cbe
00000240: 7376 893d 8ae7 95bd c515 2a3e 1a67 31bc
00000250: dc2f fabd b304 d63c 0129 103d e072 1bbe
00000260: a7fd cabd 098a 4abe f2d4 02bd 8801 133e
00000270: dcc5 8bbe a393 073e dd17 1b3e 46d6 66be
00000280: e232 753d 8636 143e 3e1c 993e c9ca 753d
00000290: 3608 0a3e 2d52 c23d b953 5c3e d7a5 64bd
000002a0: 6949 73be fc2c adbd 0fa8 8bbd d9f7 8b3e
000002b0: f707 b03d a0b7 c5bd 6788 753d a879 c13d
000002c0: 5662 17be c02d c13d bd5a 933d 232a 02bb
000002d0: 938d 46bd 3a0f 443e f462 2d3e 297c 3dbe
000002e0: c2ae d43d a508 4bbe ebe2 113e 1a73 2c3e
000002f0: 6478 1ebe 4359 f3bd 2ee0 95bd 1408 05be
00000300: d7b8 3fbd 0bf9 21be c98c 683e 0a30 22be
00000310: fad7 f33d 35fd 86bd 145b 79bd 218b ee3d
00000320: 6af4 66bd c2a3 56bd 7fe5 133e b1b2 70bd
00000330: 4f4e 57bd 118d 783e 5755 913e 1457 94bc
00000340: e2ae 7f3d 1f1e 2cbe aa8a 34be fb22 273e
00000350: 6830 693e 2b1a 99bd db78 0d3a 500d e73c
00000360: 60cd ce3d 05bc 8bbe 846f 14be ff2d 0ebe
00000370: dd79 dfbd cce9 32be e24e 083e ca8a 4d3d
00000380: b49f 32be 59ef 3e3e 3d2c 4f3e 0be0 313e
00000390: 33af 0e3e 5640 333e 7c16 183e dcd1 b2be
000003a0: df94 88be 3a08 a63b 4b0d 0f3d f5b6 b3bd
000003b0: fee6 67be 5d4b 14be 78d7 23bd 205a 833e
000003c0: 5254 443e 7a2e ec3d 059a d4bd 02cd ef3c
000003d0: e7b7 0abc 2d6d 4bbe 209d 12be bc29 9639
000003e0: c172 363e aee3 12bc 0d9b af3e b376 fa3c
000003f0: 91d2 8bbe cd62 233e b2e9 d73e a5a1 83be
-0.25362903 -0.10146466 0.091374435 -0.005383737 -0.05906472 0.030571997 -0.034395996 -0.2447135
-0.08480262 0.11274747 -0.1093747 0.16420574 0.01761117 -0.22444987 0.13583302 0.08194676
-0.26296714 0.06131568 0.124023415 -0.22944617 -0.13684884 0.19233428 0.32757643 -0.24283996
-0.14669631 0.289989 -0.119153336 -0.020800607 0.15893121 0.33544528 -0.0026695402 0.19526157
0.035054483 0.27482864 -0.2516482 -0.1557285 0.079941064 0.0270046 0.14724171 -0.087359436
0.04123298 -0.07453906 0.18774647 0.011214905 -0.062776566 0.1260032 0.26499626 0.22676636
-0.2986563 -0.0086068595 -0.05561746 0.018885683 0.06795796 0.057658855 0.0792711 -0.15007867
0.0706159 0.18723504 0.19425105 -0.09252752 -0.18232745 0.14385697 0.10851327 -0.15747283
-0.22223844 0.04958171 -0.08030475 -0.111754365 -0.018273082 0.28279802 0.24635756 0.10597821
-0.17770194 0.23722723 0.13704184 0.14323023 -0.073521435 -0.04946686 -0.104151234 -0.1828164
-0.064101756 -0.1295646 -0.3473324 0.123710595 -0.25329188 -0.23976065 -0.08093599 -0.21982226
0.29716727 0.205991 -0.055905364 -0.08944248 -0.21493183 0.20186648 0.054745745 0.013394586
0.072676085 -0.059879087 -0.15398785 0.05837163 -0.25260702 -0.1820219 -0.030179203 0.20651428
-0.08663017 0.18839456 0.04019189 -0.11276643 0.026341824 0.14113109 0.013494714 0.24011567
-0.04042403 -0.10972825 0.30350426 -0.1611778 0.16117679 0.1632963 0.06760826 -0.28608948
-0.20417836 0.059630517 0.15609089 0.15941125 -0.2974432 -0.03734736 0.32708552 0.11700404
0.28654438 0.21686842 -0.07505124 -0.25509423 -0.12078846 0.21803948 -0.0787247 -0.030752517
0.05498441 0.13898884 0.20245196 0.25615773 0.060901325 0.13481416 -0.11977419 -0.21484973
0.067120455 -0.07319553 0.16609867 -0.010827804 -0.1221616 0.026125288 0.035195354 -0.1518054
-0.099116616 -0.19779219 -0.03194136 0.14356053 -0.27299392 0.13239913 0.15145822 -0.22542676
0.05986298 0.14473924 0.2990436 0.060007844 0.13479695 0.0948833 0.21516313 -0.05582222
-0.23758473 -0.08455846 -0.06819164 0.2733753 0.08595269 -0.09654164 0.059944537 0.09447032
-0.14783606 0.09432554 0.07195041 -0.0019861541 -0.04847486 0.19146433 0.16932279 -0.18504395
0.10384895 -0.19827516 0.14246719 0.16840783 -0.15475613 -0.1188226 -0.073181495 -0.12991363
-0.046807136 -0.15817659 0.22709955 -0.15838638 0.11906429 -0.06591264 -0.060877874 0.116476305
-0.056385435 -0.052402265 0.14443015 -0.058764163 -0.052564915 0.24272563 0.28385422 -0.018107928
0.06242264 -0.16808365 -0.17631021 0.16321938 0.22772372 -0.07475694 0.0005396732 0.02820459
0.10097766 -0.27291885 -0.14495665 -0.13884734 -0.109119155 -0.17471999 0.13311341 0.050181188
-0.17443734 0.18645991 0.2023172 0.17370622 0.1393402 0.17505011 0.14852327 -0.34925735
-0.2667608 0.0050668987 0.034924787 -0.08775131 -0.2264671 -0.14481874 -0.04000041 0.25654697
0.1917279 0.11532302 -0.103809394 0.02927256 -0.008466697 -0.19865866 -0.14317751 0.00028641324
0.17817213 -0.008965416 0.34297982 0.030574178 -0.27309087 0.15955658 0.42170483 -0.25709262

gnn_base.gnn.gnn1.lin_value.bias f4 [48]
00000000: ca41 36be 95ed a1be d6c5 19bd 8210 013e
00000010: 88c3 30be cf20 00be 0775 343b 042c 97be
00000020: c94f 283d 8e35 eabc d7b4 e13d e1f7 8f3d
00000030: f33b 84bd a560 dd3d e203 1b3e 7596 76be
00000040: d094 4fbe 58c0 eb3d 5762 8c3d d41a 1d3e
00000050: 5647 38bd 10b2 1e3e f69f 363e a0a9 913d
00000060: b3e8 0d3c 6982 85be 534c 20bd 21d0 53be
00000070: c735 f9bd 0f95 243e a55d 28be 92a7 073e
00000080: 5ee5 303e 2ff8 a8bb a9ec 4fbe 369e 90bd
00000090: dde0 ba3d e0f6 df3d eed7 773e f0f3 96bd
000000a0: 9b26 7abe b392 c93d 2b80 ebbc 9f69 d13d
000000b0: af4d 9bbe 33ad 29be 585b b13d 33a9 463b
-0.17798534 -0.31626573 -0.037542187 0.12603953 -0.17262089 -0.12512515 0.0027535574 -0.2952577
0.041091714 -0.02858999 0.110208206 0.07029701 -0.06456747 0.10809449 0.151382 -0.24080832
-0.20271611 0.11511296 0.06854694 0.15342265 -0.044989906 0.15497613 0.17834458 0.071124315
0.008661437 -0.26076058 -0.03913529 -0.20684864 -0.1216846 0.16072486 -0.16441973 0.13247517
0.17274997 -0.005156539 -0.20305122 -0.07061426 0.091249205 0.109357595 0.24203464 -0.07370746
-0.2442879 0.09842434 -0.028747639 0.10225224 -0.30332705 -0.16569977 0.086600006 0.0030313253

gnn_base.gnn.gnn1.lin_edge.weight f4 [48, 1]
00000000: db20 343f 3613 50bf 9619 e3be 47ac fcbd
00000010: 8f59 0abf f454 323f 396e 5b3f 5c93 4f3f
00000020: c86b cf3c ea5a 78bf 2f77 e6be c16e 5e3e
00000030: b8a2 b3be 3547 d23e 0850 a8be c9be 183f
00000040: 2f80 5b3f 2158 7f3f 564e aa3e ca13 3bbf
00000050: 3a24 bebe 9d04 f2be 4e6e 013f 73bc 23be
00000060: 351d 7b3e 0439 733e 183d bfbe 7b08 f73d
00000070: b33a 8bbe 6993 293e 8b05 39bf f52b 4cbe
00000080: f6ba 5d3f ef1c 133f 432d 21bf 9f1d 4f3f
00000090: b131 d8be c22e 6d3f c655 13be cb61 713f
000000a0: ccb8 d03e d3ce 10be 591d 1e3f 374c 423f
000000b0: c1ee 5cbf ed6b 473e 90ea 1d3f 1305 88be
0.70362633 -0.81279314 -0.44355458 -0.12337547 -0.54042906 0.6966088 0.8571506 0.8108423
0.025319949 -0.97013724 -0.45012805 0.21721937 -0.35085082 0.41069952 -0.3287356 0.59666115
0.8574247 0.9974385 0.3326289 -0.7307707 -0.37137014 -0.47269145 0.50558937 -0.15989856
0.2452286 0.23752218 -0.37351298 0.120621644 -0.2719322 0.16560139 -0.7227408 -0.19938643
0.86613405 0.57466024 -0.6295969 0.80904573 -0.42225412 0.9264947 -0.14388189 0.94289845
0.4076599 -0.14141397 0.6176353 0.75897545 -0.8630181 0.19474764 0.6168604 -0.2656637

gnn_base.gnn.gnn1.lin_skip.weight f4 [16, 16]
00000000: b24b d9bd 3781 d13d e60b 8cbd 667a e23e
00000010: 06ca 85be 3171 433e a090 943a f383 95be
00000020: 3a6e 7ebd 076b fdbd 7686 b13d 49bf d6bd
00000030: 374a 61be ea18 1d3e 9857 833d 29ed d0bd
00000040: 10cd cebd 776f 443e 3b77 5b3c b60f e7bd
00000050: ecf1 243e 8ceb aebd 83e1 06bd 7dd0 7ebe
00000060: dcf2 9ebd 5701 59be 4995 b83c fec5 973e
00000070: c6b6 edbc b071 4bbe 89bb 883e 944d b8be
00000080: 61a4 c4bd 2b84 e63c b99d 333e 20dd d03d
00000090: edb6 b73c d57c 6bbe 1af2 a9be ab0f ef3c
000000a0: 61bf 32be 615b 3cbe 7530 633e 082f c9bd
000000b0: e9d5 043e 5f46 37be e0dd 04bd a2ea 8b3e
000000c0: cb69 3e3e ba44 dbbd 8e5f 9cbd a9f6 97be
000000d0: adaf 0a3e 5448 6ebe feda 6fbe 77c7 8bbe
000000e0: ea8a 7f3d 8789 82be a8ad aa3e c364 053d
000000f0: 62e1 9bbb f6dd 52be 0868 31be 7776 78bd
00000100: eb41 a8bd 32ba 78bc abc7 81be 0eb5 f73d
00000110: 33c3 57be 8149 a43e e800 9dbd 12b0 333d
00000120: c7ac ddbd 2176 bcbd 81fd c3bb 4554 97bd
00000130: 96d6 183c c1fd efbd baba 8ebc cef7 7fbe
00000140: 04a3 853e 9284 c73d 6ebc e5bd 5e9d d93d
00000150: 9096 69be d557 7ebe 854a 473d d7d8 ebbd
00000160: 5a6e 653e d614 dfbd b79f 7abe fcda 4b3e
00000170: ff35 db3d f47d 2d3e 0bfc d3bd 670d 58bd
00000180: 915b 9f3c 0e28 9ebd ce9a 0bbe 1389 1d3e
00000190: 59b2 8ebe 6ce4 33be eb5a f2bd 846e 96be
000001a0: eb27 18be f134 bcbd bbf0 96bb 7272 283e
000001b0: d824 2d3e 1222 bf3e ef98 4c3d 3e3e 873d
000001c0: 6b81 a13d 773e 593d 8c85 2ebe 3c84 86be
000001d0: 4ec6 6b3d e418 30be eeec b93d 91ed 753d
000001e0: cfb5 40be ce83 163e e313 2fbb ad33 42bd
000001f0: 2465 0dbe e965 313d 4665 72bd ee0f a1be
00000200: 77cc 913e 0c02 d7bd b0b1 8c3e 1656 933c
00000210: 3a43 023e cee3 353e 7550 02be 464d 7abd
00000220: d11e b2bd 4a3c 063e a65b 833e 56cd 623e
00000230: f630 983d 3f8a 0a3d 7761 773d 2163 92be
00000240: a017 f1bd d9b6 60be e995 09bd e1c6 1b3b
00000250: caa1 8a3e addf 0abe 6097 9bbe d702 583e
00000260: 64e0 dabd 5d29 573d bf1e 863e fdcc 673e
00000270: 53ba 563d a5d1 0f3d e0b7 713d 3990 7b3d
00000280: f740 ea3d a357 a5be 7920 01be db77 663e
00000290: 0ede 92be 0c21 4b3e 09af 383e 84c4 e23d
000002a0: 1b18 ca3d 372c 613c 69e9 6b3e 5fbf 643e
000002b0: 7ead 0abd e502 05be a8b9 653e 2f48 a73d
000002c0: 4d03 253e f998 3abe c82f 2a3d 109f 2dbe
000002d0: 7d30 913d 64ae 703e 97a8 87bd 4b68 583e
000002e0: 50ab 0d3e 27c6 08be f3a6 b33e 20f8 f8bc
000002f0: d17a af3d 7f94 453d 4dee 483c b5c4 833e
00000300: 8b19 15be d525 033e 133f 48be 86a3 29be
00000310: ec6d 16be 69ed 623e f55b 1d3e 4955 0e3e
00000320: b068 f43d 9720 3f3e b6d8 683d c087 7cbe
00000330: 756e 123d 9125 98be b464 6ebe 107e aebe
00000340: 9e9e b93d a603 b73e 38d8 0ebe f312 af3d
00000350: 4df8 f5bd d717 343e b4f3 4f3e 691a 193e
00000360: d788 663e 3347 69be 7fcd 5fbe b03f 46be
00000370: 2335 abbd f50c 073e 54c6 5a3e f026 9c3d
00000380: 973e 81bd d85c 97bd 1cd2 fe3d b36f 9abd
00000390: 0b62 38be 6bc9 9a3e cc14 283e 2674 a2bd
000003a0: a182 a4bd cd79 3e3d 285c 163e 1b25 19bd
000003b0: 6025 8d3e 8ff0 a53e b1a0 00bd 7b7f 543e
000003c0: b52f d2bc fc60 2dbe 0116 063e eaad b4bd
000003d0: 7664 053e 53f7 3e3d dafe 01be 89fb 79be
000003e0: 1c6f 123e 7125 343e ccf4 e43d cc78 1e3d
000003f0: d711 f7bd fe07 6b3d 0f86 9c3e 7f80 adbd
-0.10610141 0.10229724 -0.06838207 0.44234008 -0.26130694 0.19086148 0.0011334606 -0.29202232
-0.06211684 -0.123739295 0.086682245 -0.104857035 -0.22000967 0.15341535 0.064131916 -0.10201485
-0.10097706 0.19183145 0.013395126 -0.112822935 0.16107911 -0.08541021 -0.03292991 -0.2488422
-0.077611655 -0.21191917 0.022532122 0.29643244 -0.029017817 -0.19867587 0.26705578 -0.35996687
-0.09601665 0.028139194 0.17540635 0.10198426 0.022426093 -0.22996838 -0.3319252 0.029182276
-0.17455818 -0.18394233 0.22186454 -0.098234236 0.12972225 -0.17897938 -0.03243816 0.27327448
0.18595044 -0.10706468 -0.07635413 -0.29680374 0.13543577 -0.23269778 -0.23423383 -0.27300617
0.06238834 -0.2549555 0.33335614 0.032566797 -0.0047570923 -0.20592484 -0.17324841 -0.060659852
-0.08215698 -0.015181111 -0.25347647 0.1209508 -0.21070556 0.3208733 -0.076661885 0.043869086
-0.1082397 -0.09202219 -0.0059811478 -0.0738912 0.009328505 -0.117183216 -0.017423023 -0.24996874
0.26100934 0.09742083 -0.11217581 0.106257185 -0.22811341 -0.24838193 0.04865505 -0.11515968
0.22405377 -0.10892646 -0.24474989 0.19907755 0.10703658 0.16942579 -0.10350808 -0.052747156
0.019452842 -0.077224836 -0.13633272 0.15384321 -0.27870443 -0.17567605 -0.118337475 -0.29381192
-0.14858977 -0.09189785 -0.004606334 0.16449907 0.16908586 0.3733068 0.049950536 0.06603669
0.07886013 0.053038087 -0.17043132 -0.26272762 0.057562165 -0.17196995 0.09078394 0.060041014
-0.18819354 0.14698717 -0.0026714734 -0.047412563 -0.13808113 0.04331008 -0.059178613 -0.31457466
0.28476307 -0.10498437 0.27479315 0.017985385 0.12720957 0.17762682 -0.12726004 -0.06110885
-0.08697284 0.13108936 0.2565586 0.22148642 0.074312136 0.033823248 0.060395684 -0.28591254
-0.11772084 -0.21944751 -0.03359023 0.0023769664 0.2707656 -0.13561888 -0.30388927 0.21094833
-0.1068733 0.05252968 0.26195332 0.2263679 0.052423786 0.035112042 0.059013247 0.06141684
0.11438172 -0.32293424 -0.12610044 0.22506659 -0.2868504 0.19836825 0.1803552 0.11072639
0.09867879 0.013743452 0.23038258 0.22338627 -0.03385686 -0.12989385 0.22434103 0.08168065
0.1611454 -0.18222417 0.041549474 -0.16955209 0.070893265 0.23504025 -0.06623953 0.21133535
0.13834882 -0.13356839 0.3508831 -0.030391753 0.08568347 0.04823732 0.012263847 0.25736013
-0.14560525 0.128074 -0.19555311 -0.16566285 -0.1469037 0.22160877 0.1536711 0.13899721
0.1193403 0.18664776 0.056847297 -0.2466116 0.03574987 -0.2971616 -0.23280603 -0.34080553
0.09063457 0.3574497 -0.13949668 0.08548536 -0.1201025 0.17587219 0.20307809 0.14951481
0.22513138 -0.22781067 -0.21855734 -0.19360232 -0.083597444 0.13188536 0.21364719 0.07624614
-0.06310766 -0.073907554 0.12442419 -0.07540836 -0.1800615 0.30231795 0.16414183 -0.0793231
-0.08032728 0.046502877 0.14683592 -0.037388902 0.27567577 0.32410094 -0.031403247 0.20751755
-0.025657514 -0.16931528 0.13094331 -0.08822234 0.13026604 0.046622586 -0.12694874 -0.2441236
0.14300197 0.17592408 0.11179504 0.03868942 -0.120639496 0.05738067 0.3057103 -0.08471774

gnn_base.gnn.gnn1.lin_skip.bias f4 [16]
00000000: 9575 18bd 7386 a1be f2e2 13bd 543c 4fbe
00000010: 9ff8 35be 4533 88bd 4725 583e ca57 6d3d
00000020: 1329 82be 50b7 ffbd 2287 073e de45 efbb
00000030: 3209 94be 53fc 0e3e 760a 1abd fa19 823d
-0.03722151 -0.3154789 -0.036105104 -0.20237857 -0.17770623 -0.06650404 0.2110797 0.05794505
-0.25421962 -0.12486136 0.13235143 -0.00730203 -0.28913265 0.13963442 -0.037607633 0.06352611

gnn_base.gnn.gnn2.0.lin_key.weight f4 [48, 16]
00000000: b14c 553d f7c8 58bd 7330 37be 3dc8 353e
00000010: 0ac7 4a3d d20d 503d ab1d 80bd d395 d43d
00000020: 56f4 89bd dbf4 e63d e30a b33d 5f8d a03d
00000030: 0c04 44be a680 6cbe 8e16 01be 6cc1 7fbe
00000040: 3a3d 39be 4b44 75be 7847 bfbd 178b 9a3c
00000050: 4a3e 03be 4833 40be 8755 b53c 8b40 3e3e
00000060: f7f3 093e e759 403e 40fe 2f3e e19e da3d
00000070: 884e 3dbb d84b e8bd c7ba 9b3c 2c1d 593e
00000080: 3ae1 23bd 26b5 dabd df7c 93be 8f24 413e
00000090: 644e 38be b4f4 1bbe 9178 3b3d c33a 79bd
000000a0: dcdf 883b 16b1 08be f009 993e a898 55be
000000b0: 576a 523d aa98 75be 4982 a1bd 8adc 1b3e
000000c0: 7c25 54be 5415 df3c 9caf 7b3d ab84 84bb
000000d0: e518 303d a2d0 6e3e 24a6 e7bd e87c 213d
000000e0: 418c 6fbe aa08 18be 3134 81be 7210 ff3d
000000f0: 279e 193d 9419 833e 9db5 453e b3da 16bc
00000100: 813d 02be 4f84 d83d f98f 29bd 8cf4 7e3d
00000110: 0d58 55bd bd98 07be 4409 cebc 0d30 2f3d
00000120: e85b 22bd a907 2a3d d484 84be 20a4 95bb
00000130: adda 4bbe fb00 403e b27b 893e 0e86 2abe
00000140: cac4 45be de45 bcbd 3310 0b3e 9043 783d
00000150: 9d50 64be 8935 82bd 9e9a eb3d c339 c1bd
00000160: 3d8a 5bbe dd18 903d 7e67 713e 0322 703e
00000170: 8ed4 8e3c 3930 a4bd 4c5b a73d a089 2d3e
00000180: 5a25 e63d c060 8ebe dd9e 603d 7c2f 3d3e
00000190: 11fd 52be 5579 1ebe 6b56 813e e1b2 5b3e
000001a0: 334c 54be 9bf8 893d 4547 5c3e fd3b 07bd
000001b0: 5b32 cc3d 877b 3a3d cc45 93bd 0e3a 163e
000001c0: a794 a9bc c00a c23d 4210 43bd 8c3e ffbb
000001d0: 35d0 cd3d 0ab1 08be 0ded c93c dfd4 843e
000001e0: 5edf 133e 445a a13e 147b b13d 97df a8bd
000001f0: 2fa5 443e 5fa8 8fbe ef7c cf3a 7731 5a3e
00000200: 3226 a3bd 233d 0d3e 96a6 5a3e 8052 943c
00000210: 37c9 5cbe f9e5 fbbd 3d62 65be dc0c a0bc
00000220: 4101 453e b774 6f3c 249e a33c bea4 093d
00000230: be60 64bd 0241 57be 341e 0cbe 0cca 0d3d
00000240: 7986 8f3d b5d6 ef3d 5471 be3c 3074 ea3d
00000250: 044d 8ebd 3de3 bfbc 5465 72bc fc01 4c3e
00000260: 7aa5 113e ece5 513e e428 ef3d 975a 80bd
00000270: efb4 13bc 726b b4be 9a0b 5bbd dd9a 893e
00000280: c50d a6bd 8302 933e ebc4 4cbe d855 073e
00000290: 53e5 8f3d 2ab4 39be 1d6b 8ebe cde2 23be
000002a0: 8674 d13d 76ff 583e 3d36 6bbe ec5d 0cbe
000002b0: 152b df3d 2aa7 263d 2235 5cbe e607 d2bd
000002c0: d0d5 bb3d 482c c5be 5df6 1fbe fc18 263e
000002d0: a84b ff3d 5854 0bbe 2562 623e ffc5 023e
000002e0: 2479 1a3e 65a7 f93c 2529 6fbd 09c7 243e
000002f0: 0b49 63be b9e8 d03c a5cc 7abe 6239 94bd
00000300: e931 1d3e b264 cbbe 1ab0 bfbd 06bd f2bd
00000310: 9a88 423e 4e9c 17be 3f31 8fbc 484d 09be
00000320: cdb8 223e f483 f33d 7145 9a3c 7508 ab3c
00000330: 278a 8d3e f968 69bd a39c 303d 934c 3b3e
00000340: 8c53 78bd 534d 3dbe 3bfa 4e3e 9a29 4a3e
00000350: 9318 ff3d 9c9d 263e 46a2 b0bc fe43 5bbe
00000360: 9c5d 72be e6a9 103d 8055 edbd 4e8c 7f3e
00000370: f1fe 953c b74a 123e ee4c 843d 7ff1 a9bd
00000380: 74d3 16be fc04 a7be 31bd 78be 5a7a 8fbd
00000390: f4e9 62be c38c 7dbe 2caa a93c e553 c0bd
000003a0: c0cd afbc 427d c7bd 411c 98be c6e4 84bd
000003b0: 4561 eebd ea50 033e 4094 9b3e e7bd 6dbd
000003c0: e4f4 0f3e 5e0f 7a3e 268e 1d3e f913 973d
000003d0: 944b 68bd 6769 61bd c747 c8ba 37a3 603e
000003e0: 93cd c23d 4496 813e be65 973e eeb6 743e
000003f0: a13e 4a3c e503 30be 8b2e 25be 89d0 ff3d
0.05207509 -0.05292603 -0.17889576 0.17752166 0.049506225 0.05079443 -0.06255659 0.10380139
-0.067360565 0.11277171 0.08742311 0.078394644 -0.19142169 -0.2309595 -0.1260626 -0.24976128
-0.18089762 -0.23951833 -0.093398035 0.018865151 -0.1281673 -0.18769562 0.02213551 0.18579309
0.13471971 0.18784295 0.17186832 0.10674835 -0.002888592 -0.11342591 0.01900996 0.21202534
-0.040009715 -0.106790826 -0.28806207 0.18861602 -0.17998654 -0.15230066 0.045769278 -0.060847055
0.0041770767 -0.13348803 0.29890394 -0.20859015 0.051370945 -0.23984018 -0.07886178 0.15220848
-0.20717424 0.02723185 0.06144677 -0.0040441356 0.04299249 0.23321775 -0.11310986 0.03942576
-0.23393346 -0.14847055 -0.2523513 0.124543086 0.03750434 0.25605452 0.19307561 -0.009207415
-0.12718774 0.10572111 -0.04139707 0.062244937 -0.052085925 -0.13241859 -0.025150903 0.042770434
-0.03963843 0.04151121 -0.2588259 -0.0045666844 -0.19907637 0.18750374 0.26852185 -0.166527
-0.1931335 -0.091930136 0.13580398 0.060611308 -0.22296377 -0.06357867 0.115041 -0.09434845
-0.21439452 0.07035992 0.23574635 0.23450474 0.017435338 -0.0801701 0.0817171 0.16947031
0.11237593 -0.2780819 0.054839004 0.18475145 -0.2060435 -0.15475972 0.25261244 0.21454956
-0.20732193 0.06736871 0.21511562 -0.033016194 0.09970542 0.04552796 -0.07191047 0.14670584
-0.020700766 0.09474707 -0.047622927 -0.0077894386 0.10049478 -0.13348785 0.024649167 0.25943658
0.14440677 0.3151418 0.086660534 -0.082457714 0.19203638 -0.28058144 0.001583008 0.21307932
-0.079662696 0.13792853 0.2135261 0.018105745 -0.21561132 -0.12299723 -0.22400756 -0.019537382
0.1923876 0.014615229 0.019972868 0.033604376 -0.055756323 -0.21020892 -0.13683397 0.034616515
0.070080705 0.11710874 0.023247398 0.11447942 -0.06948283 -0.023423785 -0.014794666 0.19922632
0.1422328 0.20497864 0.11677721 -0.06267279 -0.009015306 -0.35238224 -0.05347786 0.26875964
-0.08108095 0.28712854 -0.19996993 0.1321634 0.07026162 -0.18135133 -0.27816096 -0.16004486
0.10227303 0.211912 -0.22969909 -0.13707703 0.10896889 0.040686764 -0.21504644 -0.10255413
0.09171641 -0.38510346 -0.15621324 0.16220468 0.12465602 -0.13606393 0.22107752 0.12770842
0.15085274 0.030475328 -0.058388848 0.16091551 -0.22195832 0.025501596 -0.24492128 -0.072375074
0.1535107 -0.39725262 -0.093597606 -0.118524596 0.18997422 -0.1480572 -0.017479537 -0.13408387
0.15890808 0.118904024 0.01883194 0.020878056 0.27644464 -0.056984875 0.04311813 0.1829093
-0.06062655 -0.18486528 0.20212643 0.19742432 0.12455859 0.1627106 -0.021561753 -0.21412656
-0.23668522 0.035318278 -0.115885735 0.24955866 0.018310042 0.14286314 0.06459986 -0.08298015
-0.147291 -0.3262099 -0.24290921 -0.070057586 -0.22159559 -0.24760728 0.020711027 -0.093910016
-0.021460414 -0.09740688 -0.29709056 -0.064889476 -0.116396464 0.12823835 0.30386543 -0.058042433
0.14058262 0.24419925 0.15386257 0.07376856 -0.056712702 -0.05503216 -0.001528018 0.21937262
0.095118664 0.25309956 0.2956981 0.23897907 0.012344033 -0.17188986 -0.16131036 0.12490947

gnn_base.gnn.gnn2.0.lin_key.bias f4 [48]
00000000: 14b8 2abe c9b3 7b3e 63be b1bd a9a7 c03d
00000010: 0f57 fdbd 1732 ae3d 98a3 b1bd 1b4b 07be
00000020: f2f9 64be 044f b43d 927f 0c3d 5c9b 9d3d
00000030: 1b8a 0cbe 8a14 5a3d c356 d1bd 9e55 8e3d
00000040: 5b0c 6f3e f479 56be b06d c43d 6f0b 25be
00000050: dcec 9c3d 576e 5fbd 8ffb d03d e30f 3fbe
00000060: 8e12 343e 3797 103e 63ea 2fbe 9ca9 34be
00000070: 10dd 0b3e bee5 48be f00e c83d 3fed fcbd
00000080: 0760 65be c5e4 9e3d 2d11 d7bd 29fd 28be
00000090: 541c 993d 12be ec3d 86e8 4e3e 2670 7a3e
000000a0: 0514 b13d a3f7 93bd cb1a 2fbd 723f 413e
000000b0: 8205 47be ccef 373e 063c ec3d fcd2 c43d
-0.16671783 0.24580301 -0.086788915 0.09406979 -0.12370121 0.08505648 -0.08673781 -0.13212244
-0.22360972 0.088041335 0.034301348 0.07695648 -0.13724558 0.053242244 -0.102216266 0.06949924
0.23344557 -0.20944959 0.09591234 -0.16117643 0.07662365 -0.054548588 0.10204231 -0.18658404
0.17585203 0.14120184 -0.17179255 -0.17642826 0.13658547 -0.1961889 0.09768474 -0.123499386
-0.22399913 0.07758478 -0.10501323 -0.16502823 0.07476106 0.115596905 0.20205888 0.24456844
0.086463965 -0.07224967 -0.04275016 0.18871859 -0.19435695 0.17962569 0.11534886 0.096105546
