model_weights/tube/rot_inv/airtaxi/try/one/try/critic.pt (torch, 192453 bytes, 57 tensors)

gnn_base.gnn.embed_layer.layer_norm.weight f4 [16]
000000 21 4d 6e 3f 5e c4 5b 3f 34 08 85 3f 27 d1 88 3f
       0.9308644 0.8584651 1.0393128 1.0688828
000010 56 0c 84 3f 74 f9 8e 3f 5a bf 90 3f 8b 4d 82 3f
       1.0316265 1.1169877 1.1308396 1.0179914
000020 66 05 88 3f 2c e4 88 3f ef 2a 81 3f 0e b8 74 3f
       1.0626647 1.0694633 1.0091227 0.95593345
000030 c1 8b 82 3f d2 3b 81 3f a3 82 7e 3f e5 3f 83 3f
       1.01989 1.0096381 0.99418086 1.0253874

gnn_base.gnn.embed_layer.layer_norm.bias f4 [16]
000000 f2 70 b9 3d 6a 8a a2 3a eb 94 21 bd 7d 2b b7 3c
       0.09054746 0.001240087 -0.03944866 0.022359604
000010 ba 07 a2 3d a2 4c 75 bd 15 9a 9c bd 55 b6 c9 3c
       0.0791163 -0.059887536 -0.07646576 0.024623076
000020 6c 49 a3 bd e8 32 62 bd 2d 41 93 3d c1 d0 97 3d
       -0.079729885 -0.05522433 0.07190166 0.074128635
000030 ad 69 ce ba 3d d7 c0 3d 3e aa 53 3d 3f 80 ac bc
       -0.0015748047 0.094160534 0.051676027 -0.021057246

gnn_base.gnn.embed_layer.entity_embed.weight f4 [4, 2]
000000 d9 34 bc bf aa cc 15 be 5f 8a 3d 3f 57 b4 cb 3f
       -1.4703628 -0.14628854 0.7403926 1.591441
000010 01 7f 0a 3e f5 f9 44 3f 9e 60 06 40 fd 9a 22 3f
       0.1352501 0.76943904 2.099647 0.63517743

gnn_base.gnn.embed_layer.lin1.weight f4 [16, 9]
000000 71 f6 85 bb 73 63 9e 3f 48 53 04 3e 7a 4a 5c bf
       -0.004088216 1.23741 0.12922394 -0.8605114
000010 28 73 69 3e ea 73 bb bd b5 af 6e 3c 48 64 c1 3d
       0.22797835 -0.09152968 0.014568259 0.09442955
000020 b4 a1 16 be 3d 51 21 bd 29 07 26 bf 1c 79 a9 3d
       -0.14710122 -0.039384115 -0.64854676 0.08275053
000030 a8 9f 23 be 2c 5b 2f bf de ba f0 3d f4 f1 20 be
       -0.15978873 -0.6849849 0.11754392 -0.15717298
000040 fc 05 5b 3f cf 46 72 3e 21 e8 53 be 70 f8 03 bd
       0.85556006 0.23659824 -0.20694019 -0.03221935
000050 a9 06 99 be 78 d7 e5 bd 54 47 5c 3e e9 71 17 be
       -0.29887894 -0.11222738 0.21511585 -0.14789547
000060 15 a2 68 be 49 df 2f bf a2 74 17 3f 6e 4b 83 3e
       -0.2271808 -0.6870008 0.5916234 0.25643486
000070 18 99 76 bf 05 78 e8 bd 2e 6c 7a be ed ae b0 3e
       -0.9632735 -0.11351017 -0.2445533 0.34508458
000080 d9 3e 80 3e f6 c2 9b 3e 11 68 60 be fd 02 9c bd
       0.2504795 0.3042218 -0.21914698 -0.076177575
000090 12 26 25 be 9c 41 00 bd 27 1c 27 3b 65 c1 1b 3d
       -0.16127804 -0.03131257 0.0025498958 0.038026232
0000a0 51 b4 4c 3f f0 e0 16 3e 88 c3 c2 3e 29 ed ae 3e
       0.7996264 0.14734244 0.38039804 0.34165314
0000b0 6b 2e 68 3e e2 b3 84 bd cb c4 0f 3e bf 24 67 bf
       0.22673957 -0.064796224 0.14039914 -0.90290445
0000c0 e0 d6 70 3d 57 3f 04 bf 5c af 55 3e 52 23 51 3f
       0.05879867 -0.5165915 0.20867676 0.8169452
0000d0 d6 9c ed 3d 83 18 85 be fa ea 0e 3f c5 01 a2 3e
       0.1160218 -0.25995263 0.55827296 0.31641975
0000e0 ac 8c 14 3f 72 83 91 3d 49 bf 1e be d7 55 00 be
       0.5802715 0.07105149 -0.15502657 -0.12532745
0000f0 6c 7c 72 3f 5b e8 b4 bd 3d 50 14 3e e4 77 0e 3f
       0.947211 -0.08833381 0.14483733 0.5565169
000100 86 5d 97 bd e6 47 23 be f5 8f 16 be 9f 72 f7 3e
       -0.07390885 -0.15945396 -0.14703353 0.48329636
000110 a1 b0 58 3f f8 12 d6 bc 77 38 48 3e d3 d1 c9 3d
       0.84644514 -0.026132092 0.1955279 0.09854474
000120 52 4e 87 bd 45 47 00 3e 88 5e 64 3d 46 10 1a be
       -0.06606735 0.12527187 0.055754215 -0.1504527
000130 e0 91 b8 3c 23 e3 51 3c dd 68 98 be f9 35 ee be
       0.022530496 0.012810501 -0.29767504 -0.46525553
000140 46 80 df 3e eb 34 ab be fe 11 10 be 91 f8 65 bc
       0.43652552 -0.3343881 -0.14069363 -0.014036314
000150 59 92 82 bd 97 d0 c9 3d d0 1b fe bd ea 8c 0d 3f
       -0.0637557 0.098542385 -0.124076486 0.5529314
000160 4b 38 57 3e 8a 9b 18 3d 19 df 81 3e 4c 18 28 bd
       0.21017568 0.03725771 0.25365523 -0.041038796
000170 c6 7c 07 be 08 45 61 bd 4d 0d c8 3e ef d0 86 bf
       -0.13231191 -0.054997474 0.39072648 -1.0532511
000180 08 b5 0a be f7 72 2d be a0 8d 3d 3e 40 16 9e 3d
       -0.1354562 -0.16938387 0.18511057 0.077190876
000190 20 21 08 3e 75 06 01 3d 5a 28 6f be d8 5f 56 3e
       0.13293886 0.0315003 -0.23355237 0.20934999
0001a0 1d 4e a5 be 6e d8 27 be ef 78 c2 be 6b d6 49 bf
       -0.32286158 -0.16391155 -0.3798289 -0.788428
0001b0 48 65 4c 3d 6c 2c 61 be 97 2e 89 3d bb ea 02 3f
       0.049901277 -0.21989602 0.066983394 0.5113942
0001c0 4d 40 25 be 41 5d 6f bd 86 97 6b 3d 71 d0 a2 3e
       -0.1613781 -0.058438543 0.05751755 0.31799653
0001d0 f6 a3 8c 3e 32 8a 45 bd 0c 4e a8 be 9f 65 a6 3c
       0.27468842 -0.048227496 -0.32872045 0.020312129
0001e0 6f b8 07 be fa 08 d6 be 22 85 04 3f e1 27 d7 3e
       -0.1325395 -0.41803724 0.51765645 0.42022613
0001f0 30 4a c7 be aa 59 9c 3e b0 c7 9e 3f fc f5 e9 be
       -0.38923788 0.30537158 1.240469 -0.45695484
000200 ac cc 82 bc ae d8 a1 3c cd 4e 9b be aa f3 fb be
       -0.015966736 0.019756641 -0.30333558 -0.49209338
000210 04 08 15 be 6e 0b 93 bd be 75 8c 3d 40 78 26 be
       -0.14553839 -0.071799144 0.06858395 -0.16256809
000220 8c 0a 2c 3e a4 bb 4e bd 04 00 36 be 0a b6 8a 3c
       0.16800898 -0.050471917 -0.17773443 0.016932506
000230 a6 00 e5 be a9 86 ac 3e 61 6c bf 3e ca 6b 12 3d
       -0.44727057 0.33696488 0.37387374 0.035747327

gnn_base.gnn.embed_layer.lin1.bias f4 [16]
000000 2f f5 73 3d 8c 02 9e bc cd db 09 3e 99 f4 76 bd
       0.059559997 -0.019288324 0.13462754 -0.06029186
000010 e4 64 9d bd dd ea 4e 3d 81 00 85 bc 3e 91 bf 3d
       -0.07685259 0.05051695 -0.016235592 0.093538746
000020 4b 83 10 3e 73 68 ac bd 7e 74 da 3d cb dd f7 3d
       0.14112584 -0.084183596 0.1066675 0.121028505
000030 2b e6 8d 3d 46 a6 b1 3d ba fc f3 bd 26 39 ac bd
       0.06928667 0.08674292 -0.11913438 -0.08409338

gnn_base.gnn.embed_layer.layers.0.weight f4 [16, 16]
000000 30 b3 1c be c7 24 3b 3d b6 be 3d 3e 6a e1 83 bf
       -0.1530273 0.04568937 0.18529782 -1.0303166
000010 7e 7a 2b be ba fe aa bd 84 d5 87 be e5 35 3b bf
       -0.16745946 -0.083493665 -0.26530087 -0.7312911
000020 06 f5 0d bf c5 91 98 be 9e 53 c1 3e 9b 4b 1a 3e
       -0.55452 -0.29798713 0.37759107 0.15067904
000030 db e7 71 bd 22 17 e0 3e 9c 49 76 3e 8d 58 43 3e
       -0.059059005 0.4376765 0.24051517 0.19076748
000040 cd 17 7a 3e 06 44 bc bd 48 b9 73 3e 85 93 44 3e
       0.24423142 -0.09192662 0.23801148 0.19196899
000050 5c 12 fb 3e 15 6b ff 3e 73 23 3c 3c 4c b4 0f bf
       0.49037445 0.49886385 0.011483061 -0.56134486
000060 ed 40 90 bd ce ed f6 3e 39 ee a3 3e 30 ff 33 3e
       -0.070436336 0.48228306 0.32017687 0.17577815
000070 8b 11 e5 be f4 98 ae 3b e1 1a f3 be ce 8e 12 bf
       -0.44739947 0.005328292 -0.47481444 -0.5724915
000080 8b a8 b1 bd e7 c3 1d 3e 34 85 65 bd aa 9a 12 3e
       -0.08674725 0.15406762 -0.056035236 0.14316812
000090 67 2f 14 3e 07 f3 9e be 71 4c b6 bd f7 22 54 be
       0.14471208 -0.3104479 -0.08901299 -0.20716463
0000a0 0b 6f 8b be 6b 54 1a bf 21 60 a3 3e e1 9c 1c bd
       -0.27233157 -0.6028506 0.31909278 -0.03823555
0000b0 df 15 13 bf f2 de 6c bf bf 32 4e be 56 a1 b6 3e
       -0.5745525 -0.9252769 -0.20136546 0.35669965
0000c0 e2 a4 7b be 54 96 48 bf 7c f4 b1 be e1 b1 f6 bd
       -0.24574617 -0.7835438 -0.3475684 -0.120456465
0000d0 02 93 36 3e 4b 36 99 3e e5 fa 36 be f5 29 8a 3e
       0.17829517 0.29924235 -0.17869146 0.26985136
0000e0 93 90 a8 3e 98 fe 13 be 41 4b ef 3e 1b af 1d bf
       0.329228 -0.14452589 0.46737102 -0.61595315
0000f0 1f 0b 0e bf ba 4c c7 3e 5a 14 c7 be c3 cf 0c 3e
       -0.5548572 0.38925725 -0.38882715 0.1375113
000100 01 c9 dd 3e 1e 93 bb be e6 c6 d4 3b 29 df 9b 3e
       0.43317416 -0.3663568 0.006493437 0.30443695
000110 c7 3b 23 be 39 f5 ce be d7 fb d9 be e1 0a f6 3e
       -0.15940772 -0.40421465 -0.4257495 0.48055175
000120 0c 1d 59 bf d6 69 a4 3e b4 1a af 3e 11 c4 03 be
       -0.84809947 0.32111996 0.3420006 -0.12867762
000130 a7 b6 c1 bb 53 f6 68 3d fd a6 78 be 0e ab f8 3d
       -0.0059116664 0.056875538 -0.24282451 0.12142001
000140 e3 19 44 3e a3 1a 81 be 8f f4 93 3d 2f b0 93 3e
       0.191505 -0.25215635 0.0722438 0.28845355
000150 cc e4 d0 3e 6d 46 39 bf 0a a9 eb bc ec 1c 5d 3d
       0.40799558 -0.72373086 -0.028767128 0.05398266
000160 0b fa 13 3f 99 f7 22 be ea 71 be 3e f9 d8 12 3f
       0.5780341 -0.15914764 0.37196285 0.57362324
000170 42 85 93 be 39 54 b4 3e 77 9d 28 3e 92 2e 20 3e
       -0.28812605 0.35220507 0.16466318 0.15642765
000180 65 e0 d0 3d 56 cc fb 3d 45 28 0a 3f 26 c8 75 be
       0.1019905 0.12294833 0.53967696 -0.24002132
000190 b9 d3 a2 be 73 03 55 3e 2d 0a 23 bf 7b 4b 50 3e
       -0.31802157 0.20802097 -0.636874 0.20341294
0001a0 e5 ce 3c 3f e7 c6 dd 3e ec 9a 17 3e 9d ba b2 3e
       0.73753196 0.43315813 0.14805192 0.34908
0001b0 f0 66 b7 3e aa 0b 52 be 07 dd b1 be c0 12 f4 bc
       0.35820723 -0.20512262 -0.34738943 -0.029794097
0001c0 69 d5 49 3e 9a 83 03 bf fd cf 7e 3e 8d b7 08 bf
       0.19710316 -0.51372683 0.24884029 -0.53405076
0001d0 8c 38 dd be 4a 9c bd 3d 0f 73 9b 3e f9 67 e4 3e
       -0.43207204 0.092583254 0.3036122 0.44610575
0001e0 ad 24 04 3e 49 26 fc 3e dd 2b 16 bf 19 60 ff 3e
       0.12904616 0.4924796 -0.5866068 0.49878004
0001f0 ed 34 12 be b7 42 c1 be da c0 93 3e 7a 26 d1 bd
       -0.14278002 -0.37746212 0.28858072 -0.10212417
000200 d7 14 46 3f 1a 1f 05 3e e1 ba e1 3d 74 90 75 bd
       0.7737555 0.13000146 0.110219724 -0.059952214
000210 14 54 dd 3e a3 3f ef 3e d5 95 05 bf 5d 9a fb 3e
       0.4322821 0.46728238 -0.5218175 0.49141207
000220 72 2c 23 be b0 e5 d4 be 39 ad 9a be 9d 6e 39 be
       -0.15934923 -0.41581488 -0.30210283 -0.18108602
000230 c9 a0 7f be 19 aa cc 3d 18 7b b0 3e f9 52 09 bc
       -0.24963678 0.09993381 0.34468913 -0.008381599
000240 f6 35 d4 3d 56 46 6e 3d e8 b2 4a bf f1 b3 37 3e
       0.10361855 0.058172546 -0.7917924 0.17939736
000250 dd 2b dc be 98 42 64 3f d7 ec 9e be 2a 5a f4 3d
       -0.43002215 0.89164114 -0.3104007 0.1193126
000260 30 b1 c6 be cc 25 96 be 32 98 50 3e a1 64 1d 3f
       -0.38807058 -0.29325712 0.20370558 0.6148167
000270 bd 70 b3 3d 6b 88 22 3c 9d 81 d7 3c 9d d1 8a 3e
       0.087617375 0.00992022 0.026306922 0.27113047
000280 a8 93 52 be e3 9e 65 3d 3f dd 2f bf 13 75 a3 be
       -0.20564139 0.05605973 -0.6869697 -0.31925258
000290 36 22 0b 3f b9 77 9b be 1a 8d d0 be 65 42 b9 3e
       0.54349077 -0.3036478 -0.40732652 0.36183468
0002a0 c2 c4 82 bd 8d 5f 84 be e7 b1 24 3e aa da b2 3e
       -0.06385185 -0.2585415 0.1608349 0.34932452
0002b0 77 f3 85 3e f6 b6 00 be 80 63 1c be c0 28 1f bf
       0.2616231 -0.12569794 -0.15272331 -0.62171555
0002c0 08 95 de 3d 20 a7 7d 3d 7e 8c 80 bd 31 69 a6 3e
       0.10868269 0.06192696 -0.06276797 0.3250213
0002d0 58 b5 ae bd 92 b6 83 3d f7 01 dd 3d f3 6d 90 3e
       -0.08530682 0.06431307 0.107913904 0.28208885
0002e0 8a 19 80 bd b8 8b b6 be b1 dd 66 bf 49 0d 0b 3e
       -0.06254871 -0.35653472 -0.90182024 0.13579287
0002f0 b7 1e 45 3e dd 53 94 3e 6c 18 90 bf 47 73 60 3e
       0.19249998 0.28970233 -1.1257453 0.21918975
000300 c6 fc 09 be fc 99 db 3e 5b bb 15 bf b3 51 80 ba
       -0.13475332 0.42890918 -0.58489007 -0.0009789973
000310 4f 53 86 3e 24 df c7 be c5 42 5d bd bb 3d 82 bc
       0.26235434 -0.3903743 -0.054018755 -0.015898576
000320 36 b3 19 be d2 82 3f 3f 54 c8 67 be f4 81 ce 3d
       -0.1500977 0.7480899 -0.22635013 0.1008338
000330 e6 5f b9 be 8c 8e 06 bb b2 e9 22 bd bd 1d 0f 3f
       -0.36205977 -0.0020531742 -0.03977365 0.5590475
000340 9c 05 d8 3e 1e 27 0d 3f 0b 6e c5 be bb 44 9c be
       0.4219178 0.55137813 -0.3856052 -0.30521187
000350 97 87 0d bf cc fa 5d be 58 4c 07 3f 41 74 12 3f
       -0.5528502 -0.21677703 0.52850866 0.5720864
000360 3d 28 c4 3e 79 bd db bd f1 9c 93 3e 66 56 6f be
       0.3831195 -0.107294984 0.28830674 -0.23372802
000370 5e 65 e3 3d d1 66 e5 3d 5b 04 7b 3b c6 b1 e3 be
       0.11103319 0.11201251 0.0038302157 -0.44471568
000380 b3 7c c1 be e8 d9 b5 3d 2e 7a 32 bd df ef ad 3e
       -0.3779045 0.08879453 -0.04357355 0.3397207
000390 b3 f4 3d bf ca 1e 8c be ef 2f 26 bf 1d a7 05 bf
       -0.74201506 -0.2736724 -0.6491689 -0.5220812
0003a0 ca 62 9c 3d 4f 76 9b be 83 c3 54 be 34 30 4e be
       0.0763603 -0.303637 -0.20777707 -0.20135576
0003b0 9b 88 73 be 09 ef df 3e ad e6 b2 3e a4 27 21 bf
       -0.2378258 0.43737057 0.34941617 -0.6295111
0003c0 5c 45 2a 3f bc 7d da be 26 13 e2 be 82 6b d4 be
       0.66512084 -0.42674053 -0.44155234 -0.41488272
0003d0 98 c3 62 be 93 1b 06 be 7d 05 b1 3d c1 15 fa be
       -0.22144926 -0.13096456 0.08643625 -0.48844722
0003e0 87 4a c3 3e 7f 77 87 3e cd 73 dd be 34 75 db be
       0.38142797 0.26458356 -0.4325241 -0.42862856
0003f0 b1 bd c7 3e 49 00 07 bf 99 bd 62 be 4c e4 35 bd
       0.3901191 -0.5273481 -0.22142638 -0.044407174

gnn_base.gnn.embed_layer.layers.0.bias f4 [16]
000000 28 99 e1 3d cb 1d 3f 3a 2e 10 63 bb 51 b0 04 3c
       0.1101554 0.0007290511 -0.0034647095 0.008098678
000010 a9 12 a9 3d e2 4a b8 3d 51 e3 30 bd aa 7d 2c be
       0.08255512 0.08998658 -0.043185536 -0.16844812
000020 0f b0 2e 3d d5 d9 20 3e fa 3f a0 3d a2 48 39 3d
       0.04264837 0.15708096 0.078247026 0.045235284
000030 3d 70 21 be 25 aa 00 3d 84 6d 98 3d a9 81 00 bb
       -0.15765472 0.031412262 0.074427634 -0.0019608533

gnn_base.gnn.embed_layer.layers.2.weight f4 [16]
000000 21 4d 6e 3f 5e c4 5b 3f 34 08 85 3f 27 d1 88 3f
       0.9308644 0.8584651 1.0393128 1.0688828
000010 56 0c 84 3f 74 f9 8e 3f 5a bf 90 3f 8b 4d 82 3f
       1.0316265 1.1169877 1.1308396 1.0179914
000020 66 05 88 3f 2c e4 88 3f ef 2a 81 3f 0e b8 74 3f
       1.0626647 1.0694633 1.0091227 0.95593345
000030 c1 8b 82 3f d2 3b 81 3f a3 82 7e 3f e5 3f 83 3f
       1.01989 1.0096381 0.99418086 1.0253874

gnn_base.gnn.embed_layer.layers.2.bias f4 [16]
000000 f2 70 b9 3d 6a 8a a2 3a eb 94 21 bd 7d 2b b7 3c
       0.09054746 0.001240087 -0.03944866 0.022359604
000010 ba 07 a2 3d a2 4c 75 bd 15 9a 9c bd 55 b6 c9 3c
       0.0791163 -0.059887536 -0.07646576 0.024623076
000020 6c 49 a3 bd e8 32 62 bd 2d 41 93 3d c1 d0 97 3d
       -0.079729885 -0.05522433 0.07190166 0.074128635
000030 ad 69 ce ba 3d d7 c0 3d 3e aa 53 3d 3f 80 ac bc
       -0.0015748047 0.094160534 0.051676027 -0.021057246

gnn_base.gnn.gnn1.lin_key.weight f4 [48, 16]
000000 23 ec 21 bd fa f8 7f bd e3 d9 c3 bd 93 ec 84 bd
       -0.03953184 -0.062493302 -0.09563043 -0.064904355
000010 70 f0 65 3d 97 ac 8d bd 09 52 93 bc 83 39 06 be
       0.056137502 -0.069176845 -0.017983453 -0.13107876
000020 82 f1 1e bd 05 70 99 3c 9a 9c 5d 3e 71 f1 77 3e
       -0.03880454 0.018730173 0.2164177 0.24213196
000030 f1 60 0c 39 fa 23 65 3b 24 28 84 be 76 eb ad bd
       0.00013387554 0.003496407 -0.25811875 -0.08492176
000040 ce 3b aa bd 34 71 14 3e 36 8b cf 3a 9a a0 9e 3d
       -0.08312188 0.14496309 0.0015834335 0.07745476
000050 2c 15 4e bd ea df 2e 3e e9 59 d2 bd 51 38 e6 bd
       -0.05031316 0.17077604 -0.10271055 -0.1124121
000060 79 68 1c 3e 5e 3e 17 3d 5b 14 34 be 38 9c 5d be
       0.15274228 0.036924712 -0.1758589 -0.21641624
000070 32 44 e9 3d 02 a3 dc bd db 8c 8c bd 06 78 9a 3e
       0.1138996 -0.10773279 -0.068628035 0.30169696
000080 23 4f 85 be d6 60 70 be c3 44 6c 3e 59 5e a6 bd
       -0.2603694 -0.2347444 0.23073106 -0.08123464
000090 61 8f 93 3d b7 3f ab 3d 50 9e f4 3c 13 87 22 be
       0.07205082 0.08361762 0.029860646 -0.15871839
0000a0 b5 20 9d 3e b4 c4 f9 3d 14 29 98 3e 26 6b 61 3e
       0.30689016 0.12195721 0.2971884 0.2201353
0000b0 88 59 c2 3d 3d 35 00 3e 2e db 86 be 6f 8b 92 be
       0.09489733 0.12520309 -0.26339096 -0.28622004
0000c0 76 9b 23 be e5 c8 6a be 49 82 81 3d a1 0c 9b 3c
       -0.15977272 -0.22928198 0.06323678 0.01892692
0000d0 57 13 ab 3e 00 18 5f 3e 75 ed 6a 3e 2a f2 c2 3d
       0.33413193 0.21786499 0.22942145 0.095188454
0000e0 bb e6 d8 3d 88 9e 99 3d ee a7 3c 3d 44 56 0d 3e
       0.10590883 0.075009406 0.046058588 0.13802439
0000f0 41 51 6a be f0 2d 5f 3e e4 34 36 be 23 9b 46 3e
       -0.22882558 0.21794868 -0.17793614 0.19395117
000100 70 b2 26 3e 8b 22 c3 3d 12 a9 c1 bc 4a 5c 37 3d
       0.16279006 0.09528073 -0.02364019 0.044765748
000110 15 0b 2f 3e 60 c0 1e 3d f0 a3 67 be 64 d3 84 be
       0.17094071 0.03875768 -0.22621131 -0.25942528
000120 31 7a d9 3c d0 c0 1c 3d fc c0 30 be 73 da 36 be
       0.026547523 0.038269818 -0.17261118 -0.1785677
000130 c1 97 34 bd d2 ef 21 3c 95 b9 19 3e bc 95 45 3e
       -0.044090036 0.009883838 0.150122 0.192954
000140 cf 25 fb 3c 95 e2 4b be c1 2e 39 3e 92 fe 0f 3d
       0.030657677 -0.19910653 0.18084241 0.035154887
000150 30 08 16 be e3 46 cd 3d b7 1b 47 be 66 55 96 bd
       -0.14651561 0.10023286 -0.19444166 -0.07340507
000160 59 e8 76 be bc 22 ea 3d 32 e1 3e be 43 42 f5 3d
       -0.24112071 0.11432406 -0.18640593 0.11975529
000170 55 75 cf 3d 13 d1 e3 bd ff e4 78 bd 64 9c 9e 3e
       0.10129801 -0.11123862 -0.060765263 0.30978692
000180 b5 74 0a 3e 98 8b 49 3e 07 2a fe 3c f2 e2 93 be
       0.13521083 0.19682157 0.0310259 -0.28884083
000190 be a3 92 3d b1 20 7e bc d8 d9 98 be 7a 5c a7 bd
       0.071601376 -0.015510724 -0.29853702 -0.081719354
0001a0 2f f2 d9 3d 95 49 cb 3d 2f 6e 74 be 36 97 30 3d
       0.10641896 0.09926144 -0.23870157 0.043112956
0001b0 41 37 3f bd 7a d3 6f 3d c1 a1 d0 3b 31 e7 8e 3e
       -0.046683554 0.05855129 0.006366939 0.2791076
0001c0 3d a8 04 3e 20 1a 58 be 0a 56 b2 3d 36 aa d4 bd
       0.12954803 -0.21103716 0.08707817 -0.10384028
0001d0 87 6d ac bd 2b a6 c5 3c 17 d0 a3 bd 07 dd 68 bd
       -0.08419328 0.024127087 -0.07998674 -0.056851413
0001e0 eb 36 9b 3d 49 2d ad 3d 4f 0f 11 be 12 ed 92 bd
       0.07578834 0.08455903 -0.14165996 -0.07174124
0001f0 80 3e be 3c f1 01 0c be 6c 17 65 3e 48 9c 08 3e
       0.023223162 -0.13672616 0.22372216 0.13340867
000200 ab 02 08 be 4e ee 03 3e 64 83 91 3d e5 2b cd bd
       -0.13282268 0.12883875 0.07105139 -0.10018138
000210 87 52 84 3e 21 cb 1f bd 0d 74 96 3d 38 0a fd 3d
       0.25844213 -0.03901208 0.07346354 0.12355465
000220 1b 9f 3e be 72 c1 7a 3c 3c d6 99 be b8 4f 65 bd
       -0.18615381 0.01530491 -0.3004626 -0.05598423
000230 da ea 51 bd a7 f4 00 3d 38 82 98 3e 48 52 e7 bd
       -0.051249363 0.03148332 0.2978685 -0.11294991
000240 dd 3d 4f bd 39 b5 73 3c dc be d4 bd ae 56 1e be
       -0.050596107 0.01487475 -0.10387966 -0.15462753
000250 77 18 43 3e ee 93 5c 3e a8 f4 95 be 9c e6 27 3e
       0.19052301 0.21540806 -0.2928822 0.16396564
000260 98 e8 22 3e af 52 ff 3c 8c 40 48 be 0e e6 30 bd
       0.1590904 0.031167356 -0.19555873 -0.043188147
000270 7a 70 5a 3e 9d b2 48 be 85 cb 26 be 89 94 7a bd
       0.21331969 -0.19599386 -0.16288574 -0.06117681
000280 27 14 3e be 6b 2f e0 bb a3 e8 78 be 79 66 f0 bd
       -0.18562375 -0.00684159 -0.24307494 -0.11738295
000290 55 81 4c be 64 59 b0 be 3e 6b 0c bd 11 7b b6 bd
       -0.19971211 -0.344432 -0.03428196 -0.08910192
0002a0 ba 58 ff bc 5f f4 48 bd 7f 41 1b be ef f9 a5 3d
       -0.031170238 -0.049061175 -0.15161704 0.08104312
0002b0 6c 4f 49 3e 32 9b 31 be 37 6c 08 3e c6 96 5c 3e
       0.19659203 -0.17344359 0.1332253 0.2154189
0002c0 9a 0b 6c be 36 6e 47 be 9b 66 ad 3d e2 0f f2 3a
       -0.230513 -0.19475636 0.08466836 0.0018467868
0002d0 dc 05 7a 3e 43 b9 86 bd 0f 89 ac be 1e b0 26 be
       0.24416298 -0.065783046 -0.33698317 -0.16278121
0002e0 02 4c 5e 3e 78 e0 62 be 08 ec b6 3d cf 65 08 be
       0.21708682 -0.2215594 0.08931738 -0.13320087
0002f0 08 22 92 3d c7 f3 01 3e 0e 06 37 be 72 bb 87 3e
       0.07135397 0.1269065 -0.17873403 0.26510197
000300 3b a9 0a 3e f8 23 26 bd ef d6 60 be a8 16 82 3d
       0.13541119 -0.040561646 -0.2195699 0.063519776
000310 4b 5e b0 bd fb 99 3b 3e 0c 51 fb 3d 7f af 1e 3e
       -0.08611735 0.18320458 0.12271318 0.15496634
000320 0f d7 8e 3e 16 e1 64 3e 3e 31 3c 3e 9d 07 37 3e
       0.27898452 0.22351488 0.1837816 0.17873998
000330 92 f2 91 bd c2 43 3f be 7d 22 69 be a0 e1 ac be
       -0.07126345 -0.18678191 -0.22767062 -0.33765888
000340 d1 d8 41 be a5 64 5c 3d 48 7c 2a be 48 e7 5c 3e
       -0.18930365 0.05380692 -0.16648972 0.21572602
000350 c8 43 52 3e 52 37 47 3d 8d 34 bd bd 06 3c 0f be
       0.20533669 0.048636742 -0.09238539 -0.13987741
000360 f1 e8 94 bd f6 4d 0e 3d d0 82 9a bc 5b df 05 bd
       -0.072709925 0.034742318 -0.018861204 -0.03268371
000370 3f e2 da bd 9f dc e3 bd c4 26 16 3e 32 c7 c0 bc
       -0.10687684 -0.111260645 0.14663225 -0.023532484
000380 63 ec 3a be 6f 2f 2f be 4a 67 34 be a3 d8 42 3e
       -0.18254237 -0.17107938 -0.17617527 0.19027953
000390 e1 a0 0d bd 91 b3 70 be 5a c3 e0 bd 75 48 73 3e
       -0.034577254 -0.23505999 -0.1097476 0.23758109
0003a0 e8 36 22 bd b0 7d 3d be 4e a7 50 3a db 3b 30 3c
       -0.039603144 -0.18504977 0.00079595007 0.010756458
0003b0 c0 b5 a8 3d 25 72 ce bd bb d7 89 3c e3 7a cf 3d
       0.08237791 -0.10080365 0.016826501 0.10130861
0003c0 72 79 98 be 07 5f 56 be 84 3e 37 3e c8 43 b2 3d
       -0.29780155 -0.20934688 0.17894942 0.087043345
0003d0 74 61 94 be 5e 6c 03 3e ae f9 a5 be 79 16 b3 3d
       -0.289806 0.12834308 -0.32417053 0.08744521
0003e0 33 c1 16 be 85 05 e5 bd f7 fd 8f 3c 95 6c bb 3e
       -0.14722137 -0.111826934 0.017577155 0.3660628
0003f0 e0 40 ad 3e 52 87 f7 3d 09 da ea bc f7 73 4d be
       0.33838558 0.12086357 -0.02866842 -0.20063768

gnn_base.gnn.gnn1.lin_key.bias f4 [48]
000000 88 88 54 bd 1d 26 d4 3d f3 b6 6e 3e 52 47 24 3e
       -0.05188802 0.10358832 0.23311977 0.16042832
000010 df 20 7d be c7 5e 4f bd 21 17 51 bd a8 1e 23 3e
       -0.2471957 -0.050627496 -0.051047448 0.15929663
000020 2e bd 07 3e 79 f4 ab bd c1 95 e5 3d 67 10 1d be
       0.1325576 -0.08396239 0.11210204 -0.15338288
000030 32 fc 63 3c 51 3d 55 be 2a 5b 61 be 4c b5 02 3e
       0.0139151085 -0.20824172 -0.22007433 0.12764472
000040 78 48 70 3e e9 1d a8 bc 0c b7 30 be ba 9e d6 3c
       0.23465145 -0.020522075 -0.17257327 0.026198734
000050 25 04 e5 3d c2 35 63 bd 65 d5 6b 3e 0d be 94 bd
       0.11182431 -0.05547119 0.23030622 -0.07262812
000060 a6 d8 54 be fc ff 6f bd 84 34 bc bd 15 69 28 3d
       -0.2078577 -0.058593735 -0.09189704 0.04111584
000070 90 12 52 be ea 2c 85 3d 07 70 36 3e a2 10 6f be
       -0.20514894 0.06502707 0.17816173 -0.23346189
000080 7d 59 54 bd 8e 0e 13 be 95 90 e9 bd 9f f0 e5 bd
       -0.051843155 -0.14361021 -0.1140453 -0.112275355
000090 15 a4 51 be 6b eb bc 3d 9e 4d ef bc a3 db f2 bd
       -0.20472749 0.0922459 -0.029211815 -0.11858299
0000a0 b9 0e 35 bd 9c dd ef 3d 34 d7 4b 3e bd ac 8b 3d
       -0.044203494 0.117121905 0.19906312 0.068200566
0000b0 57 a2 d9 3c d0 19 d3 3d 49 14 12 be d1 f2 96 bd
       0.026566667 0.10307658 -0.1426555 -0.07370532

gnn_base.gnn.gnn1.lin_query.weight f4 [48, 16]
000000 dd 27 13 3d 5f 7e e4 3d 2f ec 3a 3e 81 8c 09 be
       0.03592669 0.11156916 0.1825416 -0.13432504
000010 b1 ea dc bd ad 86 0b 3d 38 ae 9e 3b c9 47 34 be
       -0.10786951 0.034063984 0.004842546 -0.17605509
000020 ce 37 2f be d1 be 00 3e a3 e3 72 be d0 c7 71 3c
       -0.17111132 0.1257279 -0.23719649 0.014757112
000030 a9 ee 78 be a4 cc f1 bd 08 39 68 be 13 19 81 3e
       -0.24309792 -0.1180661 -0.22678006 0.25214443
000040 00 87 0b 3e 2e c1 58 3e 1a a5 f7 bd ee 0b 78 be
       0.13625717 0.21167442 -0.120920375 -0.24223301
000050 cd 0a 7c be 13 2a 37 be 72 bc 04 be 54 73 2e be
       -0.24613495 -0.17887144 -0.12962511 -0.17036182
000060 18 33 85 3d 5a 1e ef 3d f5 44 02 3e 79 eb 49 be
       0.06503886 0.11675711 0.12721618 -0.19718732
000070 33 da 8b 3e d4 20 b1 bd 1a ba 67 be 54 4d 06 be
       0.2731491 -0.086488396 -0.22629586 -0.13115436
000080 48 c4 96 3d fa 6e 79 3e 96 5f 84 3d fb a1 6f 3d
       0.073616564 0.2435874 0.06463544 0.058504086
000090 84 04 2d be 2b d3 fa bd c4 86 f9 3d 5c e0 03 be
       -0.16896254 -0.12247308 0.12183908 -0.12878555
0000a0 4f ce b8 bd a4 60 67 bd a7 05 c4 be 8d 5e 52 3e
       -0.09023725 -0.056488648 -0.38285562 0.20543881
0000b0 ab 0a 29 be 42 14 22 bc ca c9 19 3d d7 66 38 3e
       -0.16507976 -0.009892525 0.037545957 0.1800798
0000c0 28 62 94 be 1f dd 7c 3b de 41 a1 be c4 8b 8d bd
       -0.28981137 0.0038583947 -0.31495565 -0.06911424
0000d0 c2 6b 47 3e 20 16 f3 bd b6 06 9d bd 46 3e a1 3d
       0.194747 -0.118694544 -0.07667296 0.07873206
0000e0 98 77 85 3e df 95 18 be 8b 77 68 3d d7 2e 81 3e
       0.26067805 -0.14900921 0.05675463 0.25231048
0000f0 eb 01 2c 3e 3e fd dd 3d 0e 9c 03 be 07 66 86 3e
       0.16797607 0.10839318 -0.12852499 0.26249716
000100 6b 67 6d bd e9 97 22 3e 07 19 76 3d e5 de 8b be
       -0.057959955 0.15878262 0.06008246 -0.27318493
000110 1e 8d 06 3e 63 5a 85 bc f2 52 ef bc f0 d2 e1 3b
       0.1313977 -0.016278451 -0.029214356 0.006891601
000120 b4 6b 88 3e 15 4e 2f 3e 12 00 6f 3e 3a 51 01 3e
       0.2664467 0.1711963 0.2333987 0.12628642
000130 ba 33 88 3d 04 cd 4d be 56 3b 41 be 2f ed e5 bc
       0.06650491 -0.20097739 -0.18870291 -0.0280672
000140 5c 2f b1 bd b2 d5 89 3b 59 19 41 3e 02 8a 2a 3e
       -0.08651611 0.0042063827 0.18857326 0.16654208
000150 3e 23 4a be ba 18 73 be c2 e8 06 be 3c 15 3f 3d
       -0.19740006 -0.23739901 -0.13174728 0.04665111
000160 51 12 91 3d 2b ec 28 be c5 b4 4d 3e 8e 01 55 be
       0.07083572 -0.16496341 0.2008849 -0.20801374
000170 e6 d2 5a 3e ed 78 52 be c6 5b 2d be fa 50 11 be
       0.21369514 -0.20553942 -0.1692954 -0.14191046
000180 21 05 31 bd 7b 93 34 bd f5 dd 4e 3e b2 7b fe 3d
       -0.043217782 -0.04408596 0.20201857 0.12425937
000190 a2 c7 45 be d5 19 cf bc 33 de 21 bb db 41 d8 bd
       -0.19314435 -0.025280872 -0.0024699091 -0.10559436
0001a0 15 ca 26 bd 02 44 41 be 4c 8d 4f be f9 a3 cc 3c
       -0.040720064 -0.18873599 -0.20268744 0.024980532
0001b0 2d 52 16 3d 68 f1 0c 3e 6a f8 0b be 1b 4b 2e be
       0.036699463 0.13763964 -0.13668981 -0.17020838
0001c0 41 db 55 3e c9 dc a4 3d f9 ee ba bd be 60 24 3d
       0.2088442 0.08049924 -0.09127612 0.040131323
0001d0 a9 d8 00 3c 4e 39 ee 3c 38 98 4d be 83 87 0d be
       0.007864156 0.02908006 -0.20077598 -0.13821225
0001e0 a9 ef 79 3d 57 be 9a 3d df 75 92 3d 6a 15 2e 3e
       0.061019573 0.07555836 0.071513884 0.17000356
0001f0 7b f0 45 3e 16 79 ef bc fb 39 17 3e 7e 66 88 3d
       0.19330017 -0.029232543 0.14768212 0.06660174
000200 66 22 ca bd 1b 14 04 3c 86 f5 4f be 23 79 a7 3d
       -0.09869842 0.008061434 -0.20308504 0.08177402
000210 49 5d 10 be 17 b8 5d 3e 58 30 24 3e d4 15 08 be
       -0.14098085 0.21652256 0.16034067 -0.13289577
000220 34 06 92 3e e3 ce a7 3d 54 57 84 3e 54 be 4f be
       0.28520358 0.081937574 0.25847876 -0.20287448
000230 cd d2 2b bc 8b 97 f6 bd 0e 25 1c bd 7c c1 2e bc
       -0.010487271 -0.12040623 -0.038121276 -0.010666247
000240 69 48 aa 3d ab f0 55 3e b3 34 9a 3e cb 74 0b be
       0.083145924 0.20892589 0.3011833 -0.13618772
000250 4d bb 50 be 56 df 3b be 40 b0 26 be ea 66 33 3e
       -0.2038395 -0.18346915 -0.16278172 0.17519727
000260 6b a0 84 3e 7f 48 22 be 81 b0 50 be 31 59 71 be
       0.2590364 -0.15847968 -0.20379831 -0.2356918
000270 97 b8 5e 3d 76 97 5a 3e ed c1 73 3c 8a ce 5d be
       0.054375257 0.2134684 0.0148777785 -0.2166082
000280 0e 33 43 3c 6a 04 7a be cf fe a0 3e 29 07 c8 bd
       0.011914028 -0.24415746 0.31444404 -0.09766991
000290 5a 19 1d be 65 2f 24 be 0c 2c 52 3e a2 c0 d7 3d
       -0.15341702 -0.16033705 0.20524615 0.10534789
0002a0 0b 6a 9d be 6a 7d c5 3d 87 95 8b be 87 ec e4 bd
       -0.30744967 0.096430615 -0.27262518 -0.111779265
0002b0 02 56 d5 3d e8 d2 ad bd 9e 21 86 bd 12 08 63 3e
       0.10416795 -0.08487493 -0.06549381 0.22171047
0002c0 44 a2 e3 3d 01 ef 3b 3e 73 98 85 3e 6a bc 1a bb
       0.11114934 0.18352892 0.26092872 -0.0023610839
0002d0 58 ce 80 bb 4c e5 03 be 98 aa 1e be 68 42 4f bd
       -0.003930848 -0.12880439 -0.15494764 -0.05060044
0002e0 db 1d 17 3e 87 9b 44 be 75 a2 b0 be fc 4a 46 3e
       0.14757483 -0.19199954 -0.34498945 0.19364542
0002f0 2c da 22 3e e1 eb 17 3e 3c a8 54 3e a5 19 94 bd
       0.15903538 0.14836074 0.20767301 -0.07231454
000300 07 58 8f bd c1 d9 86 bc 5e b6 32 3c fa ff 97 bc
       -0.06999212 -0.016461255 0.010907738 -0.018554676
000310 ff de 3b 3d 22 27 11 be a5 89 e3 3d 56 c3 79 3e
       0.045866963 -0.14175084 0.11110238 0.24390921
000320 2f b1 36 3e 81 d6 c3 3e 59 b2 31 bd a9 b8 60 be
       0.17841028 0.3824959 -0.043382976 -0.21945442
000330 13 17 0c be 53 7c 04 3e ad 40 94 3e 27 1e 9a 3e
       -0.13680677 0.12938051 0.28955594 0.3010113
000340 5a 69 7c be 74 73 50 3e 99 b1 bb bd ab 6b ee 3d
       -0.24649563 0.20356542 -0.091647334 0.1164163
000350 e4 47 94 3d a4 c3 50 be 6f b1 b8 bd 00 b8 81 3e
       0.072402745 -0.20387131 -0.09018218 0.25335693
000360 01 ce bc 3d fb ca b5 3b 6f 6e 09 3e f3 75 36 3e
       0.092189796 0.005547879 0.13421033 0.17818432
000370 e0 3e 51 3d aa f1 43 3d 80 8c 6a bd bd d7 b3 3d
       0.051085353 0.04783789 -0.057262897 0.08781383
000380 a3 bc a9 3d f2 29 34 be fb a4 6b 3e 1f 55 31 be
       0.08287933 -0.17594126 0.23012154 -0.17317627
000390 1c 49 1f 3e 25 14 2b be 4a ac 61 3e 81 6d 3a bc
       0.15555233 -0.16706903 0.2203838 -0.011378647
0003a0 13 68 c2 bd 95 d5 17 3c 81 9c 00 bd 0d 7a 00 3e
       -0.09492507 0.0092672305 -0.031399254 0.12546559
0003b0 30 af 89 bc 57 a8 a9 3d a7 01 c9 bd 49 df 25 3e
       -0.016807169 0.082840614 -0.09814768 0.16198458
0003c0 34 fd 93 3d 98 76 08 be f1 6f ca 3e 9e 75 0e be
       0.07226029 -0.1332649 0.3953853 -0.13912055
0003d0 b4 76 51 3e 78 59 f0 bd d7 7b 40 be 0a b5 33 be
       0.20455438 -0.11735815 -0.18797241 -0.1754953
0003e0 e0 5d 9b be aa eb 98 bc ce 96 67 be f0 a0 46 3e
       -0.30345058 -0.01866706 -0.22616121 0.1939733
0003f0 42 d1 10 3d b4 ac 64 be b4 d0 84 3d 83 72 38 3e
       0.035355814 -0.22331506 0.064851195 0.18012433

gnn_base.gnn.gnn1.lin_query.bias f4 [48]
000000 ec a2 77 bd b9 f5 d0 bd fc 93 55 be 7f 59 43 be
       -0.06045811 -0.10203118 -0.20857233 -0.19077109
000010 08 9c f5 bc 70 40 0d 3e 15 31 05 be 94 4a b0 3d
       -0.029981628 0.13794112 -0.13007005 0.08607975
000020 04 9e 3a 3e b6 f8 bf 3d 30 39 89 3e f3 10 0c 3e
       0.1822434 0.0937361 0.26801443 0.1367834
000030 c8 61 ca bd 01 ce b7 3d ac a2 0a be 4d bb 28 be
       -0.098819315 0.08974839 -0.13538617 -0.164777
000040 19 8b 55 be a6 04 4f be 92 f1 69 bc af 89 6f be
       -0.20853843 -0.20216617 -0.014278786 -0.23392366
000050 59 d1 29 3e 8f 40 5a 3c 3c 19 ff bd b2 ba 56 3e
       0.16583766 0.013321056 -0.12455985 0.20969656
000060 c7 c0 2b 3e 38 00 94 be 83 8a e9 bd 76 96 1d be
       0.16772757 -0.28906417 -0.11403372 -0.15389428
000070 cb d2 ac bd 39 0d 3f be 6b b4 90 be f1 c1 db 3d
       -0.08438643 -0.18657388 -0.28262648 0.10730351
000080 d0 f4 12 3e 2f 03 04 be 10 88 4b be 0b fc 45 3d
       0.14351201 -0.1289184 -0.19876122 0.04833607
000090 2c d8 40 3e 9f 95 dc bd 34 c3 0e 3e 75 a3 72 bd
       0.18832463 -0.107707255 0.13941652 -0.059237916
0000a0 47 85 8f be 02 4c 09 be 32 9d 64 3e 68 01 18 3c
       -0.2803137 -0.13407901 0.2232559 0.009277679
0000b0 59 db 51 be 44 52 05 3e b8 8c 80 be 88 0b 42 3d
       -0.2049383 0.13019663 -0.2510736 0.04737428

gnn_base.gnn.gnn1.lin_value.weight f4 [48, 16]
000000 98 ec 98 bd 54 3b b2 3d c4 9b 1a be 78 57 23 3e
       -0.07467002 0.08702722 -0.15098482 0.15951335
000010 63 8b 41 3e 97 77 5e 3e 7e 15 42 3e ab ad 09 3c
       0.18900828 0.21725307 0.18953511 0.008403222
000020 e0 a6 6f bd 8f f6 e6 3d 9b 7b a8 3d 2e d2 c7 bd
       -0.058508754 0.11277496 0.08226701 -0.097568855
000030 fc 78 52 3e 60 74 e9 bd 31 97 7d 3d ea 07 09 be
       0.20553964 -0.1139915 0.061911765 -0.13381925
000040 32 32 7c be 9c 1a 9a bd 6c ae 9e 3e 02 bf 34 3e
       -0.24628523 -0.075246066 0.30992448 0.17650989
000050 94 f5 61 3e 67 50 85 3e 6e ad 74 3e 3c 74 47 bb
       0.22066337 0.26037905 0.23894283 -0.0030434271
000060 05 ca 90 be 60 21 23 be eb df d9 bc 04 f2 86 3d
       -0.2827913 -0.159307 -0.02659603 0.065891296
000070 e2 e2 1a be 71 01 cd bc b9 18 09 3e e9 54 e3 bc
       -0.15125611 -0.025025101 0.13388337 -0.02775045
000080 ba 17 93 be 5c 33 25 be d9 98 a1 bd 8e 4b cf b9
       -0.2872904 -0.16132873 -0.078904815 -0.0003953841
000090 d4 e3 ad bc 7b c6 a1 3e ef 53 13 3d 58 39 8f 3d
       -0.021226801 0.3159674 0.035968717 0.06993359
0000a0 b7 e7 cf bc d4 df 2e be c3 91 f4 bd d0 15 20 3e
       -0.025379045 -0.17077571 -0.11941864 0.15633321
0000b0 e5 ec 29 3e 1b 31 da be 29 cb c5 3c 7e d3 a1 3d
       0.16594274 -0.4261559 0.024144726 0.07901667
0000c0 d6 64 a8 be b6 49 f7 3d 20 3c 8d bd 7a cc da bd
       -0.32889432 0.12074606 -0.068962336 -0.10683532
0000d0 d2 9a 5f bd 77 d4 9d 3d 7d cf 22 be ea 52 b6 3c
       -0.054591008 0.0770654 -0.15899463 0.022256333
0000e0 22 84 49 be db 2d fa 3d 73 fc a2 3c 19 95 8d 3e
       -0.19679311 0.122157775 0.019895768 0.27652815
0000f0 5f db b9 3c e9 48 06 be 7b ad 14 be 46 ff a7 be
       0.022687612 -0.1311375 -0.14519303 -0.32811946
000100 33 c3 d5 bd 6f f0 94 3c 10 f4 29 3e 00 50 94 3d
       -0.10437622 0.018181054 0.16597009 0.07241821
000110 3b 83 2c 3e 6f 83 cb bd fb 12 b6 be 4e e4 8d be
       0.16846935 -0.09937178 -0.35561356 -0.27713245
000120 04 25 28 be fb f6 9d bc 96 df 38 be 7b c5 13 3e
       -0.1642037 -0.019282809 -0.18054041 0.14430802
000130 d3 c6 57 3d 56 b9 98 3e 30 47 4e 3e 14 00 0a be
       0.052679848 0.298289 0.20144343 -0.13476592
000140 39 90 91 be db 99 05 be 0a 89 0d be a0 51 b0 3e
       -0.28430346 -0.13046972 -0.13821808 0.34437275
000150 51 83 c2 3d e9 7f e5 bd ac c9 4c 3c 10 ae 11 be
       0.09497703 -0.112060376 0.012499254 -0.14226556
000160 c2 44 ee bd 2c 5f e1 bc 58 21 32 3e 8d b2 65 be
       -0.11634208 -0.027511202 0.17395532 -0.22431393
000170 d2 a5 80 be e4 e8 92 be a6 f6 88 3d 3b 96 4c bd
       -0.2512651 -0.28693306 0.066876695 -0.04994796
000180 b9 f9 89 3b 72 4f a2 3c 5d ad 5d 3e bb 1b 87 3e
       0.0042106775 0.019813273 0.21648164 0.26388344
000190 66 ee b5 3d c9 7a 4d 3e c1 59 df be 11 2c 21 bc
       0.088833615 0.2006637 -0.43623164 -0.009837166
0001a0 72 65 e2 bc ef 2c e4 3d 1d 86 a3 bd b1 87 5e be
       -0.027636264 0.11141383 -0.079845645 -0.2173145
0001b0 1c 47 54 be 7d cd d0 3d df ee dd bd 85 fa 81 bc
       -0.20730251 0.10195444 -0.10836577 -0.015866527
0001c0 57 33 93 be 1d 9e 54 bb 25 d7 5a bc 01 77 5e be
       -0.28750107 -0.0032442876 -0.0133569585 -0.21725084
0001d0 c0 e6 90 be 1a 8c 68 3c 12 03 73 3e 97 7f a4 be
       -0.28301048 0.014193559 0.2373164 -0.32128593
0001e0 7a 1a 5d 3e 06 65 68 3e 08 77 94 be c6 2e 99 bd
       0.21592131 0.22694787 -0.28997064 -0.074796245
0001f0 32 68 74 be 04 e4 b9 bd 5a 74 23 bd 16 f1 ae bd
       -0.23867872 -0.09076694 -0.039905883 -0.08542077
000200 4b 12 a2 bd 32 20 60 be 97 16 58 be 7c 97 44 3e
       -0.07913645 -0.21887282 -0.21102367 0.19198412
000210 e1 1a 82 be b7 66 02 bc 17 08 75 3e ff a4 36 3e
       -0.25411132 -0.007959059 0.23928867 0.17836379
000220 30 ee 52 3e 85 88 4b 3e dc 39 86 be 44 14 29 be
       0.20598674 0.19876297 -0.26216018 -0.16511637
000230 b0 4a 9a 3d 90 61 49 be 6f 43 aa 3e 1f 9f 5c 3d
       0.07533777 -0.19666123 0.33254573 0.053862687
000240 7b 35 9f 3d 85 e7 47 3e 4f 84 40 3d 91 4e cb bd
       0.077738725 0.19521911 0.04700118 -0.09927095
000250 e3 70 b2 bd 5f ab 8f be 22 51 4c 3d 90 a1 b1 bc
       -0.08712938 -0.28060433 0.04988206 -0.021683484
000260 84 ce 71 3e fc b3 2a bd 0f 87 e6 bd c8 76 91 be
       0.23613936 -0.041675553 -0.11256229 -0.28410935
000270 35 89 28 3e b8 5b 6f 3c 85 39 e0 bd af a7 b9 bd
       0.1645859 0.01460927 -0.10948471 -0.09065186
000280 5c cf 80 bc fe bf 07 3e e1 b3 f3 3d 46 2e 99 3d
       -0.015723877 0.13256833 0.118995436 0.07479529
000290 df b5 da 3b 3b 36 86 3e 0f a4 36 be cd 1b 36 bd
       0.0066745128 0.2621325 -0.17836021 -0.044460107
0002a0 4c ba 32 3e 94 31 24 be ff 30 de 3d 59 9d 08 be
       0.17453879 -0.16034538 0.10849189 -0.13341273
0002b0 f4 69 28 bd e7 74 61 3e e5 a9 eb 3d a4 fe 44 be
       -0.04111667 0.22017251 0.11507014 -0.19237763
0002c0 9e 8c 78 3d a1 5b 12 3e 63 a9 04 3d 3e 24 f6 bc
       0.060680978 0.14292766 0.032388102 -0.030046578
0002d0 2f a0 f3 bd 55 99 99 be 85 c2 9a 3e 9b 80 b3 bc
       -0.11895787 -0.29999796 0.30226532 -0.02191191
0002e0 66 1c 99 3e 92 88 b3 3b ec 4b 4a 3e 10 0a 2d 3e
       0.2990448 0.005478927 0.19755524 0.1689837
0002f0 c5 a0 8d bd 96 b6 5e bb f3 ec ac 3d ec d6 41 3e
       -0.0691543 -0.0033983341 0.08443632 0.18929642
000300 a1 39 89 be 77 2d 92 bd 4b 20 65 bc 5c 1e 8e be
       -0.2680178 -0.07137578 -0.01398475 -0.27757537
000310 ca 85 c6 bd 44 95 9c be 84 60 18 3e 86 fa d6 be
       -0.09693487 -0.3058263 0.14880568 -0.4198801
000320 d7 c9 84 be 04 52 10 3e 88 45 00 3d 7d 63 21 3e
       -0.25935242 0.14093786 0.03131631 0.15760608
000330 90 82 96 3d 7e 2e 7a 3d c9 0c 5a be 32 69 7d bd
       0.073491216 0.061079495 -0.2129394 -0.0618679
000340 f1 05 54 bd 12 9f b8 3d d2 58 a3 bd aa 6a 41 3e
       -0.05176348 0.09014715 -0.079759255 0.18888345
000350 45 36 16 be d3 af ce 3e 63 a0 f3 3d fa f1 1e 3e
       -0.1466914 0.40368518 0.11895826 0.15521994
000360 b3 a6 10 bd 39 5a 81 3e c5 da 0e 3e 95 3c 9a be
       -0.035315227 0.25264147 0.13950641 -0.30124345
000370 2e 02 6b be 74 44 6a bd dd b2 06 bd 9d f4 76 3e
       -0.2295005 -0.05719419 -0.03288542 0.2411675
000380 4a 5c e3 bd 89 8e 8c 3e 3f a6 3b 3e 35 f6 bb 3d
       -0.11101587 0.27452496 0.18325137 0.0917782
000390 61 0a 53 bd da 2d 1a bb c6 6b 2e 3e 13 cd 4b 3c
       -0.05152357 -0.0023525865 0.170333 0.01243903
0003a0 43 64 8b be da 39 53 3e 17 98 91 3d 4d d8 49 3c
       -0.2722493 0.20627537 0.07109087 0.0123196365
0003b0 27 45 7c be 1b 95 28 be ba 0e be 3d fa 09 6d 3d
       -0.24635755 -0.16463129 0.092801526 0.057870843
0003c0 8c 0b 20 3e 15 02 42 be 3a 41 6b 3d 3c 42 55 3c
       0.15629405 -0.18946107 0.05743525 0.01301628
0003d0 85 fc 8c bd 37 1d 3a 3e 22 31 9c 3e c1 28 b7 be
       -0.06884102 0.18175207 0.30506235 -0.3577328
0003e0 65 dd 82 3d d7 37 69 be 95 65 be be c0 f1 ac be
       0.06389884 -0.22775207 -0.37186876 -0.3377819
0003f0 88 3f 82 3e 90 45 17 3d 39 10 69 bd 36 ab 85 3e
       0.25439095 0.036931574 -0.056900237 0.26107186

gnn_base.gnn.gnn1.lin_value.bias f4 [48]
000000 f9 dc cf bc 2d 96 4f 3d 60 65 84 3d 7b 29 3d 3e
       -0.025373923 0.05068033 0.06464648 0.18472855
000010 10 60 65 3d dd 14 a5 3e 29 44 8a 3c e5 2d 89 3e
       0.055999815 0.3224248 0.016878204 0.26792827
000020 6e 0b 72 3d 11 e0 d9 3d b3 f2 c0 3d 6c 3b 80 3d
       0.05909293 0.106384404 0.09421291 0.06261334
000030 4d ec 85 3e 03 cf 8d be 7e 87 e7 bd 48 d7 08 3e
       0.26156846 -0.27697 -0.1130514 0.13363373
000040 43 67 04 bd 67 c9 4b be e9 c4 33 3e fe 94 0e 3e
       -0.03232504 -0.19901048 0.17555584 0.13924024
000050 79 6b ce 3b 2b df 6b 3e f0 1b 0c 3d d3 a4 c0 bc
       0.006299433 0.2303435 0.03420633 -0.023516094
000060 6c d2 20 be 2b bf 90 be 0d 4f ef 3b 93 e0 f6 3c
       -0.1570527 -0.2827085 0.0073031248 0.030136382
000070 07 05 ee 3d 2f 87 de bc 17 75 83 be 74 45 44 3c
       0.11622053 -0.02716407 -0.2567527 0.01197945
000080 36 00 69 3d ae 85 2c bc 99 3c 4b 3e fc ee 59 bd
       0.056884967 -0.010529919 0.19847335 -0.05320643
000090 dd 68 6d 3c d8 20 7c 3e c1 2a 51 3e c9 77 9b bd
       0.014490333 0.24621904 0.20426466 -0.075912066
0000a0 7a 23 98 3d 1f fa 70 bc 17 76 06 be b5 64 95 3c
       0.074286416 -0.014708071 -0.13130985 0.018236497
0000b0 19 e3 12 3e e8 f0 4c bc af 7c 86 be 56 cc 75 3e
       0.14344443 -0.012508608 -0.26267 0.24003729

gnn_base.gnn.gnn1.lin_edge.weight f4 [48, 1]
000000 e8 4a 10 3f a5 48 6c be 09 c7 68 bf 36 26 e8 be
       0.563643 -0.23074587 -0.90928704 -0.45341653
000010 cb f3 d2 3e 1e 1f dc 3e 46 09 c3 3e c8 69 98 be
       0.41201624 0.4299249 0.38093013 -0.29768205
000020 e7 67 c0 3e e4 2c 63 bf 2d 7a a9 bd 94 37 6b 3d
       0.3757927 -0.8874037 -0.08275256 0.05742605
000030 c1 d7 43 bf 11 b9 6e bf 47 2c d9 be 96 26 28 3e
       -0.7650109 -0.9325114 -0.42416593 0.1642097
000040 d9 ae 0b be c4 d9 25 3f 9b b8 86 be 57 13 11 bf
       -0.13640918 0.6478541 -0.26312718 -0.56670135
000050 c5 6c 39 bf 68 c5 82 3d 4f 4a ce be 21 1c c7 3e
       -0.72431594 0.063853085 -0.40291068 0.38888648
000060 12 a6 0a bf f4 ab 5e be 91 36 1f be 6d 88 45 3f
       -0.54159653 -0.21745282 -0.15548159 0.77161294
000070 74 cc 47 bf 14 05 1a 3c 2e 1d eb 3e 27 0f a9 be
       -0.78046346 0.009400625 0.459207 -0.33019373
000080 50 4c 11 bf 71 a6 c2 3e 01 61 08 3f 3e 98 3f 3f
       -0.5675707 0.3801761 0.53273016 0.7484168
000090 65 4d 09 3f eb 86 12 3f 7a a1 d8 3e ac 82 66 3e
       0.5363372 0.5723712 0.42310697 0.22510785
0000a0 93 d8 1f 3f 9c b4 83 3e 33 dc 4f be 91 b0 ed 3e
       0.6243984 0.25723732 -0.20298843 0.46423772
0000b0 52 54 be be df fa 9d be bf f0 86 3d 18 1f 21 3f
       -0.37173706 -0.30855462 0.065888874 0.6293807

gnn_base.gnn.gnn1.lin_skip.weight f4 [16, 16]
000000 97 c6 68 bd 10 21 88 3e e3 47 e3 3c 44 0b a1 3e
       -0.056830015 0.26587725 0.02774424 0.31453907
000010 da b9 63 3d 8c a8 86 3d 9d 1f 92 3e 57 01 12 3e
       0.055597164 0.065751165 0.28539744 0.14258324
000020 9d ef 87 be ab 28 68 3d 32 2b 44 be bb 08 c3 be
       -0.26549998 0.05667941 -0.19157103 -0.38092598
000030 19 0a d6 3d d6 72 a5 3c 2d 3c 62 be 2e b8 b9 3e
       0.10451145 0.02019636 -0.22093268 0.3627333
000040 f5 31 ca bd 79 3b a5 3d f7 f8 b7 bd 26 be bd bd
       -0.0987281 0.08067984 -0.08983033 -0.092647836
000050 e6 4a 19 3e 18 4a 0d bc 21 0c eb 3d 6f e8 cd 3d
       0.14969978 -0.008623622 0.11476923 0.10054099
000060 37 be 7b be 58 60 82 3d b1 bd 27 be 1f 1e 3b 3e
       -0.2458428 0.06366032 -0.16380955 0.18273209
000070 4c 19 78 3e 01 4c 83 be 3e 96 75 3e b9 56 86 bd
       0.242284 -0.25643924 0.23983094 -0.0655951
000080 de 2b 28 be 38 36 47 3e fc fb 5b 3e 9b 40 ae 3e
       -0.16422984 0.19454277 0.21482843 0.34033665
000090 a5 d6 2c be 39 c2 97 bc 53 a0 3c 3e e4 5b 3e be
       -0.16878755 -0.01852523 0.18420534 -0.18589741
0000a0 47 11 2d 3e cc 86 80 3e 92 fb d4 3d eb 07 9e 3d
       0.16901122 0.25102842 0.10399546 0.07716354
0000b0 fe d1 74 3e c1 6a d4 be a4 3a a4 be 34 da b2 3d
       0.2390823 -0.41487697 -0.3207599 0.08733025
0000c0 40 a2 37 be 0b a4 19 be 6c ff 82 be 98 e2 b2 bd
       -0.17932987 -0.15003984 -0.25585496 -0.087346256
0000d0 07 83 94 be 8d 15 ab bd b0 70 70 3e d2 fc 70 3e
       -0.29006216 -0.0835372 0.23480487 0.23533943
0000e0 ff 6d 56 3d 3d 5e 8c bd b9 3f 44 3e 5f 15 a2 bd
       0.052350994 -0.06853912 0.19164933 -0.079142325
0000f0 11 69 e0 bc 7e 38 95 3d 62 0a 27 3d 19 63 d1 bd
       -0.02739385 0.07286166 0.040781386 -0.102239795
000100 03 b4 83 3e ce ad 43 3d 2e 46 17 3e 01 5b bf 3d
       0.25723276 0.047773175 0.14772865 0.093435295
000110 bc a1 bd 3d ec 31 cf bd 51 af 00 bf aa 6e fe 3c
       0.09259364 -0.10116944 -0.5026751 0.031058628
000120 77 04 f6 3d c8 9d 5b 3d 64 d7 4d 3e 07 6e 2e 3e
       0.1201257 0.05361727 0.20101696 0.1703416
000130 bc b3 f7 bc b1 35 27 be 06 cb e5 3d b4 b9 bc 3d
       -0.030237071 -0.16329075 0.11220364 0.092151076
000140 f9 c9 e6 bd e1 78 56 bd c6 53 72 3d 8a 5f bb 3e
       -0.11268992 -0.052361373 0.059161924 0.36596328
000150 fe d0 60 bd c0 6a 04 3e 38 3e ae 3e d3 17 02 3d
       -0.05488681 0.12931347 0.34031844 0.031761
000160 ab 07 15 3e 40 d7 2c be 46 81 30 3d 8a e4 40 bd
       0.14553706 -0.16878986 0.043092035 -0.04709295
000170 03 0f fc 3d 70 e2 07 be 9e 00 81 be 11 5a 22 3e
       0.12307551 -0.13269973 -0.25195783 0.1585467
000180 1c b9 58 be 61 c3 32 3e 36 0d 32 3e fa 99 7b 3c
       -0.21164364 0.17457344 0.17387852 0.015356535
000190 57 96 a9 bd bd 43 97 3e ee ad 9a be 08 50 1b be
       -0.08280628 0.29543868 -0.30210823 -0.15167248
0001a0 72 70 db 3d 84 72 ed 3c f6 64 a5 bd ec 17 e3 3d
       0.107148066 0.02898527 -0.080758974 0.11088547
0001b0 8e 3a 7b be f9 c0 60 3e 90 61 5d 3e df 38 4d be
       -0.24534056 0.21948613 0.21619248 -0.20041226
0001c0 c3 1c 63 3d aa af 68 3e 60 98 fa 3d e3 99 af be
       0.05544735 0.2272326 0.122360945 -0.34297094
0001d0 b5 cb 4f be 5c 98 34 bc ac b8 71 3d 04 fc aa 3b
       -0.20292552 -0.011022653 0.059014007 0.005218031
0001e0 d8 3c 79 bd c7 36 83 3e 85 48 d7 be 86 21 82 bd
       -0.06084904 0.2562773 -0.42047516 -0.0635405
0001f0 7d 80 e3 3d a1 7d 83 3d 31 d1 de 3d 3a e1 ad 3d
       0.111084916 0.06420446 0.10879744 0.08490224
000200 27 3f f2 bc 9a a8 7b 3e d2 1c 8a be b0 67 56 be
       -0.029571129 0.24576035 -0.26975113 -0.20937991
000210 cd 99 6c be 20 03 62 be 18 97 3f bc c8 aa d1 3d
       -0.23105545 -0.22071505 -0.011693738 0.10237652
000220 d6 af 0b 3d e8 5a 8f 3d a3 5a 4c bc fa 05 67 be
       0.034103237 0.06999761 -0.012472781 -0.22560874
000230 e9 b4 aa 3d 4b 4a 1a 3e 5f c7 a8 3e 89 cb a4 bd
       0.08335287 0.15067403 0.32964608 -0.08046634
000240 94 a9 ef 3e 20 eb 43 3e 92 ea cb bd 00 52 15 3d
       0.46809065 0.19132662 -0.0995685 0.036455154
000250 c3 d8 5c 3c 57 82 77 be 2e 07 47 3c 75 99 31 bd
       0.013479414 -0.24170814 0.012147708 -0.04335924
000260 67 3e 2f bd 87 14 13 3e a4 5b 96 be 67 30 de be
       -0.04278412 0.143633 -0.2936679 -0.43396303
000270 29 0b 5c 3e a2 c3 43 3b 21 5d 46 3d ec 97 37 3c
       0.21488632 0.0029871245 0.04842866 0.011205655
000280 80 b4 29 3e 73 9b 5d bd 0e cc 6e bd 33 5f 89 3e
       0.16572762 -0.054103326 -0.05830007 0.26830444
000290 3c ab e8 3d 29 e4 4e bc da 20 65 be bf b4 13 be
       0.11360785 -0.01262764 -0.22375813 -0.14424418
0002a0 75 a9 19 3e b4 39 a2 be e5 3f 02 3e 39 da b4 bd
       0.15006049 -0.3168465 0.12719686 -0.08830685
0002b0 56 68 a7 be 2b 24 a9 3c 78 c0 00 3e 62 e4 55 be
       -0.3269679 0.020647129 0.12573421 -0.20887902
0002c0 56 93 af bc 90 ba 07 3d db c0 13 be 5d 4b 84 be
       -0.02143256 0.033136904 -0.14429037 -0.25838748
0002d0 1e a3 2f be 84 49 b9 be 27 9e f5 3d b0 c9 9a 3e
       -0.17152068 -0.361889 0.11993056 0.30232
0002e0 ee b7 15 3e 39 36 a0 3e ee 92 0c bc 83 0b a2 3d
       0.14620945 0.3129137 -0.008579953 0.07912352
0002f0 dd cf 8e bd 77 d6 01 3e 8c 96 5f be e4 db 39 bd
       -0.069732405 0.12679468 -0.21834773 -0.04537572
000300 1d 07 2f be d0 8c 8c bd cf dd 9a be 08 f4 78 bc
       -0.17092557 -0.06862795 -0.30247352 -0.0151949
000310 5e b9 5b 3e 67 f7 73 be d4 26 15 3e bc 86 17 3e
       0.2145743 -0.23824845 0.14565593 0.14797491
000320 f7 f1 ac be f7 18 40 be 04 5b 80 be 1f b3 98 bd
       -0.33778355 -0.18759523 -0.2506944 -0.0745604
000330 cc 1e 59 bd bb 3a 16 3e ec 29 2c be 76 fa 9a 3e
       -0.053007886 0.14670841 -0.16812867 0.30269212
000340 1d 01 e0 bd a4 37 1e bc 07 90 b1 bd e4 d2 bf 3d
       -0.10937712 -0.00965682 -0.08670049 0.09366396
000350 a0 68 a7 3d 08 6f 85 bb bb d3 81 bc d9 95 18 be
       0.081742525 -0.004072074 -0.015848031 -0.14900912
000360 66 e0 c8 3d 62 47 d2 bd 46 6f 30 bd 20 e4 10 3e
       0.098084256 -0.102675214 -0.04307487 0.14149523
000370 82 1f 61 3e 7f 66 66 3d e1 ee 99 3e 30 96 1d be
       0.21984676 0.05625009 0.30065063 -0.15389323
000380 02 cf 00 3e f7 e7 db 3d a2 85 a6 3e 8d 80 7d be
       0.12578967 0.10737603 0.3252383 -0.2475607
000390 56 aa ea 3d cc b0 02 3e 89 ee de bd 2b 3d c6 3d
       0.1145827 0.12762755 -0.10885341 0.096796356
0003a0 c1 fb 82 be 71 3a fc 3c f5 66 45 3e a2 d7 5f be
       -0.25582698 0.030789586 0.19277556 -0.21859601
0003b0 40 9b fb bc 3a 96 5c 3d 6d 9d 8c 3c 0a 10 64 3c
       -0.030713677 0.053854205 0.01716491 0.01391984
0003c0 8e ce 28 be 30 7d 0c be 27 81 35 be b2 7d 53 be
       -0.16485044 -0.1371963 -0.17725049 -0.20653418
0003d0 e1 d3 89 be 29 ff 36 3e ba 9c ea 3d b3 33 de bd
       -0.26919463 0.17870773 0.114556745 -0.108497046
0003e0 d2 d4 31 ba 5b a3 5a bd a4 b7 27 bd 26 91 22 bd
       -0.0006783727 -0.053378444 -0.040946618 -0.039689206
0003f0 0a d1 bc 3d 85 20 1b be 85 c9 bc 3d 10 f9 a5 3d
       0.092195585 -0.15149124 0.09218124 0.081041455

gnn_base.gnn.gnn1.lin_skip.bias f4 [16]
000000 2a f6 2a 3e 6f de 02 bd 11 16 bb bc df fa 14 3e
       0.16695467 -0.03195041 -0.02283767 0.14548825
000010 d3 7a 67 3e 65 52 e2 bb f3 98 0c bc 7e 33 37 bd
       0.22605447 -0.006906795 -0.008581388 -0.04472684
000020 0c d6 0a be d1 d7 81 be 0c 73 8c bd 9f db cf bd
       -0.13558215 -0.25359967 -0.06857881 -0.10149311
000030 c7 1b 46 3d ea df 3a be 84 f9 83 bd e5 27 54 3d
       0.048366334 -0.18249479 -0.06444076 0.05179586
