model_weights/old_FA_FR/tube/feb15/metered/critic.pt (torch, 191627 bytes, 57 tensors)

gnn_base.gnn.embed_layer.layer_norm.weight f4 [16]
000000 45 ab 8f 3f a9 0c 8a 3f f3 9d 84 3f 19 3e 93 3f
       1.1224142 1.0785114 1.0360702 1.1503326
000010 55 e6 7d 3f 8c fd a0 3f 74 49 5e 3f 80 74 87 3f
       0.99179584 1.2577376 0.8683083 1.0582428
000020 2f 15 85 3f c3 53 63 3f 71 41 5b 3f 68 01 89 3f
       1.039709 0.88799685 0.8564673 1.0703554
000030 4f 00 6a 3f 01 8c 4a 3f 72 13 89 3f 04 ab 66 3f
       0.9140672 0.7911988 1.0709059 0.901047

gnn_base.gnn.embed_layer.layer_norm.bias f4 [16]
000000 0a a4 49 ba b4 ee 72 be 44 9e d0 bd 32 f7 89 3c
       -0.0007691985 -0.2372387 -0.10186437 0.016841505
000010 ff b2 61 3e a3 26 4d 3d 29 84 bf 3d 88 03 11 3a
       0.22040938 0.050085675 0.093513794 0.0005531837
000020 17 7e d0 3d 54 37 56 3e e7 13 fc 3d bf 29 41 3d
       0.101803 0.20919544 0.123084836 0.047158953
000030 c3 6f 4b 3e ec f6 ac 3e 61 56 81 3d 77 ec b3 be
       0.19866852 0.33782136 0.063153036 -0.35141346

gnn_base.gnn.embed_layer.entity_embed.weight f4 [4, 2]
000000 ca 43 04 c0 79 f2 8e bf b4 6e 2a bf 8a 29 af bf
       -2.0666375 -1.1167747 -0.6657517 -1.3684552
000010 db 2a 4c 3f 72 23 f2 bf 2b f0 5d be ef 29 26 3f
       0.7975289 -1.8917067 -0.21673648 0.64907736

gnn_base.gnn.embed_layer.lin1.weight f4 [16, 10]
000000 c6 c2 33 3f a5 31 ba 3d 95 83 92 3f e3 07 d5 be
       0.70219076 0.090915 1.1446406 -0.4160758
000010 f5 5b f8 3e fd 0e f5 3d 9f 46 ef bd 86 14 ac be
       0.48507658 0.119657494 -0.11683392 -0.33609408
000020 13 92 00 bf 42 5f 8f bd 51 48 1c be 63 4f f8 3d
       -0.5022289 -0.07000591 -0.15261962 0.12124517
000030 0b 74 af be b4 5c c4 be 7d 8a 1b 3f b1 c7 7e be
       -0.3426822 -0.38351977 0.6075819 -0.24880864
000040 03 83 b7 3d ca fe 08 bf 6f 8f 47 be 21 4f bb 3e
       0.089605354 -0.5351378 -0.1948831 0.36583808
000050 8e 45 cb 3d 49 c5 48 bd 58 ed 6e 3e ca 7c a5 3d
       0.09925376 -0.04901627 0.23332727 0.08080442
000060 8a 15 b8 bd 54 53 6d 3e ae b4 87 3f 72 e2 1d bf
       -0.08988483 0.23176318 1.0602014 -0.61673653
000070 a9 44 f8 be 1d 75 b2 3e dc 6c cc 3e 62 c6 64 bf
       -0.48489884 0.34854975 0.39926803 -0.8936521
000080 ca bd d5 3e 46 ad 95 bf 8e fc 14 be 7c 9a 8d be
       0.4174636 -1.1693504 -0.14549467 -0.27656925
000090 54 dd fb bf 86 c1 71 be b2 aa 0e 3e 7c ec d2 be
       -1.9676919 -0.2360898 0.13932303 -0.41196048
0000a0 66 b6 80 3f 4c a3 da 3e 8b 8f 48 3f ae 3e 5b 3e
       1.0055664 0.4270271 0.7834403 0.21410629
0000b0 bb fc 8a 3e b0 cc 4b bc ad ff 8a be 09 82 d3 3e
       0.27145943 -0.012438938 -0.2714819 0.41310146
0000c0 ea 9c 78 3e 13 f7 1a bf 82 0e e7 3e da 59 70 3f
       0.24278608 -0.60533255 0.45128256 0.938871
0000d0 f2 31 0a 3f b9 b2 fc 3f ba dd 60 bd 52 77 2f be
       0.5398246 1.9742042 -0.054898955 -0.17135361
0000e0 af c4 62 bd 53 93 de be 13 42 9c 3e 78 b8 96 3d
       -0.055363353 -0.43471774 0.3051916 0.07359403
0000f0 e0 e9 c4 3d fe 8e d4 3d 19 e0 ee 3c 09 f8 14 3e
       0.096149206 0.10378836 0.029159592 0.14547743
000100 40 44 cc bd cf 44 90 3e 3c ba 13 bf 6f 83 d2 3d
       -0.09973955 0.28177497 -0.57706046 0.10278975
000110 a3 56 1d 3f 31 18 02 3e 10 7a b0 3e c2 c2 a5 be
       0.6146032 0.12704541 0.34468126 -0.3237515
000120 b5 1e b0 be ca fb a1 3d 58 c6 60 3e 00 fc c5 3c
       -0.34398428 0.07909353 0.21950662 0.024168015
000130 fc 02 30 bd 9e df 7c bd 8f b1 b9 be 1f 68 8e 3f
       -0.042971596 -0.061736695 -0.3626828 1.1125525
000140 14 1f 0f 3d 36 97 f7 bd 38 90 55 bf f3 88 8e 3e
       0.034941748 -0.12089388 -0.83423185 0.2783886
000150 86 13 14 3f 64 30 e4 3d 39 f9 74 3f 70 bf ba be
       0.5784229 0.11142042 0.95692784 -0.3647418
000160 27 87 9b be e4 22 52 bf 07 97 8a bf 4b 26 0f 3f
       -0.3037655 -0.8208449 -1.082734 0.55917805
000170 f9 c8 49 3e f8 b3 a5 3f 6a 78 22 3f 4f 01 89 3f
       0.19705571 1.2945547 0.6346499 1.0703524
000180 e8 b6 c1 ba 0b 87 64 3e a9 62 94 be fd 00 06 bc
       -0.0014779242 0.2231714 -0.28981522 -0.008178947
000190 95 79 fe 3c 55 58 26 be c3 aa 81 be 24 3a dd be
       0.031063834 -0.16244633 -0.25325593 -0.4320842
0001a0 c9 b9 61 be e6 59 4c be 96 9b 16 3f e3 2b 18 3f
       -0.22043528 -0.19956169 0.58831155 0.59441966
0001b0 ed fb 11 bf 42 94 d9 3d 0a 1a 87 bf 04 ba 89 be
       -0.57025033 0.10623981 -1.0554821 -0.2689973
0001c0 a0 b7 b4 be a4 07 83 be 7f 0a a0 be da b0 1b bd
       -0.35296345 -0.25591767 -0.31258008 -0.038010456
0001d0 ed 31 0f bf 42 9d da be 03 3a 93 be 20 2c b5 3c
       -0.55935556 -0.42698103 -0.28755197 0.022115767
0001e0 0a 77 2a bf 99 a6 8f 3e 27 46 d8 be f7 fb 74 be
       -0.6658789 0.2805679 -0.42241022 -0.23924242
0001f0 1e 56 fc 3e c7 37 e8 3e 61 90 37 3d df 9e 41 be
       0.49284452 0.45355055 0.044815425 -0.18908261
000200 11 3f 82 3e ff b9 38 3f d8 71 16 3f b7 c6 95 be
       0.2543874 0.7215881 0.5876746 -0.2925317
000210 16 5b a8 be 29 98 05 bf d3 cb 03 3f af a5 9c 3d
       -0.32881993 -0.521853 0.51482886 0.07648789
000220 8b a9 46 3b da 7a 39 3f f5 e9 45 be c1 81 93 3e
       0.0030313458 0.7245308 -0.19327529 0.28809932
000230 a0 48 1f 3e ce 33 9a bf a0 e5 e0 3b e8 57 51 be
       0.15555048 -1.204706 0.006863311 -0.2044369
000240 04 c6 3a 3e 17 24 0f be cc 28 15 3f 87 5c 6d 3d
       0.182396 -0.13978611 0.58265376 0.05794957
000250 b2 d5 36 3f f4 4d 8e 3d 17 82 24 be a3 5a de 3c
       0.71419823 0.06948462 -0.1606525 0.027142828
000260 70 90 f3 3a 94 38 36 3f db 40 6e 3e 40 72 6d bf
       0.0018582474 0.7118008 0.23266928 -0.92752457
000270 17 3e 4b 3d 60 eb dd 3e 30 ef 43 3c e6 c4 ed 3e
       0.04961976 0.4334364 0.011958882 0.46439284

gnn_base.gnn.embed_layer.lin1.bias f4 [16]
000000 a2 ae 4b 3b 3d dd 3e 3e 38 7a 77 3e d4 f4 8f bc
       0.003107943 0.18639083 0.24167717 -0.017572798
000010 98 a9 12 be 09 d8 8e 3d 54 56 8b be 11 b1 15 3d
       -0.14322507 0.06974799 -0.272143 0.036545817
000020 b9 ba 96 3d 84 9e 14 3e 78 dc 5e 3e 3a 55 2d 3e
       0.07359833 0.14513594 0.2176379 0.16927043
000030 b4 73 20 3e f5 cd 1a 3e 76 10 d6 3d 35 b6 91 be
       0.15669137 0.15117629 0.104523584 -0.28459325

gnn_base.gnn.embed_layer.layers.0.weight f4 [16, 16]
000000 d9 4f 02 3f 43 7f 83 bf 5d f6 f0 bd 87 2e c6 3e
       0.5090309 -1.0273212 -0.1176574 0.38707373
000010 b4 f7 2e 3f 7d 73 d7 3d 4c 03 b0 bd b5 c6 0d bf
       0.68346715 0.105200745 -0.08594379 -0.5538133
000020 84 f7 7e 3f 67 62 5f be ec d8 e2 bc 2d 1c 15 3f
       0.9959643 -0.21814881 -0.027691327 0.5824612
000030 05 2c b7 bd d0 4e 46 bc f3 22 04 3e fa 80 63 be
       -0.08943943 -0.012103751 0.12903957 -0.2221717
000040 07 3a ee 3e 9e 69 82 be 25 9d 5a 3f 01 71 0e 3f
       0.46528646 -0.25471205 0.85396034 0.5564118
000050 90 e2 a6 be 3e 10 9b 3e b5 88 83 be d3 fc e5 bc
       -0.32594728 0.3028583 -0.25690237 -0.028074658
000060 28 d4 de bd c4 f4 67 3d 99 74 a7 be a1 70 3c 3e
       -0.10880309 0.05662991 -0.32706144 0.1840234
000070 67 3a 76 3e a4 3f 94 be 3a b8 b9 3d 2e d8 0a 3f
       0.24045716 -0.28954804 0.090683416 0.54236114
000080 9f b8 ff 3e d0 0d 54 be 02 37 ad bd 9a d3 81 be
       0.49945542 -0.20708394 -0.084577575 -0.25356752
000090 3a 0e 0e bf 64 e9 28 be 3c 41 89 be a6 e1 1b 3f
       -0.5549046 -0.16495281 -0.26807582 0.6089119
0000a0 78 f8 57 3f 22 03 01 3f a8 66 c1 3d aa 26 07 bd
       0.8436351 0.50395405 0.09443408 -0.032995857
0000b0 f6 18 92 3e 63 f6 24 3f b1 1f b6 be eb 9b 60 3e
       0.2853467 0.64438456 -0.35571054 0.21934478
0000c0 af e2 21 bf 78 ea bb 3b e6 14 56 3e b8 6a a3 be
       -0.63236517 0.005734738 0.2090641 -0.31917357
0000d0 34 2a 08 3d 12 1f 4c 3f cb 29 82 3e 04 07 75 3d
       0.033243373 0.7973491 0.2542251 0.059821144
0000e0 c4 d1 80 3f 12 33 1d bf 2a fe 1c be f3 40 72 3e
       1.0064015 -0.6140605 -0.15331331 0.23657589
0000f0 47 72 d5 bd 0a fa 07 3f 4b ce 2d bd 4d 7a 04 3f
       -0.10422187 0.53115904 -0.042433064 0.51749116
000100 c7 34 f2 be 43 df 46 bf f5 34 22 3f d9 18 f5 3e
       -0.4730589 -0.7768442 0.63362056 0.4787052
000110 ab 0b 15 3e 76 bc 5b 3d dc 7d 96 be d6 b8 32 3f
       0.14555232 0.053646527 -0.29392898 0.6981329
000120 dc e0 ae 3e eb d8 48 3e 3a b8 93 3e 0b b4 49 bf
       0.3415593 0.19613998 0.2885149 -0.7879035
000130 b8 af 0c 3f 36 e5 11 3f 74 8b 31 be 94 d9 60 bf
       0.54955626 0.56990373 -0.17338353 -0.87832
000140 f8 58 95 bd 6d 0c 40 bd 7f 30 fc 3e 44 9f 24 bf
       -0.0729236 -0.04688685 0.4925575 -0.6430552
000150 28 55 1b 3f 38 29 6f bf 0f 45 1c 3f de e3 c9 be
       0.60676813 -0.9342227 0.61042875 -0.3943166
000160 de ed d0 3e 3f f7 62 3e 1a 80 3e 3f c9 7c 37 bf
       0.40806478 0.2216463 0.7441422 -0.7167478
000170 51 66 89 bd 01 01 ff 3c 0e 41 e9 3e 78 99 8b 3e
       -0.067089684 0.031128408 0.45557445 0.27265525
000180 74 d4 33 3f e3 28 b6 3e 65 9e 60 3d 92 e3 1b 3f
       0.7024605 0.3557807 0.054838557 0.6089412
000190 3e 89 d0 be 36 12 6a 3d 91 a0 11 3f 42 e8 fd 3e
       -0.40729707 0.057146274 0.5688563 0.4959126
0001a0 34 fd b3 3d ea 16 80 3e 53 ef 86 be a9 c3 e9 be
       0.08788529 0.25017482 -0.26354465 -0.4565709
0001b0 4a 82 87 bd a9 a4 d8 be 1c a2 4f 3f ad 12 5e be
       -0.066166475 -0.42313126 0.81106734 -0.21686812
0001c0 1c 56 a0 be 88 4b fc be c1 fa ed be b6 6a 0d 3f
       -0.31315696 -0.49276376 -0.46480373 0.5524095
0001d0 a6 45 03 bf a6 c4 fe be d0 4e 9a be 7e 18 17 3f
       -0.5127815 -0.49759406 -0.30138254 0.5902175
0001e0 51 a1 97 3e 95 67 31 3f b1 6f 42 bf 16 44 e3 3e
       0.29615262 0.6929868 -0.7595168 0.44387883
0001f0 c6 68 06 bf 09 7a 1d bf 95 09 ac be c8 c9 71 3c
       -0.5250362 -0.61514336 -0.3360106 0.014757581
000200 56 43 76 3b 3e a7 10 bc da 40 ed 3e eb c1 90 3d
       0.0037576756 -0.008828936 0.4633854 0.07068237
000210 6f f8 19 3e af e2 59 3e 76 3c 1d 3f 2e e7 af 3e
       0.15036176 0.21277879 0.6142038 0.34356064
000220 c9 23 7c 3e 01 5d d9 3e 70 5b 28 bf 62 df cd 3e
       0.24623026 0.4245377 -0.6576452 0.4020949
000230 63 fc f7 3d d7 61 e6 3d a6 19 3e be ce e8 35 bf
       0.12108686 0.1124913 -0.18564472 -0.71058357
000240 12 b4 22 bd 0c 5a f7 be db 8f 52 be 01 47 19 3e
       -0.03972251 -0.48310888 -0.20562689 0.14968492
000250 4b 48 b6 be a0 4c 73 3e 07 f2 45 3e 61 8f c5 3d
       -0.3560203 0.23759699 0.19330607 0.09646488
000260 61 20 21 be 36 92 d5 be 51 c7 1f 3f 07 84 61 3f
       -0.15735008 -0.41713113 0.6241351 0.8809208
000270 35 65 75 be ac bb 7b 3e 63 ae 82 3e ee b2 be be
       -0.23964389 0.2458331 0.25523672 -0.37245888
000280 4b 53 63 be 34 22 27 3e d9 c9 bb bf f4 f8 37 3e
       -0.22199742 0.16321641 -1.4670974 0.17966062
000290 e8 2c 23 3e 42 1b 0b 3e d3 1f 47 bd 88 b6 4c 3d
       0.15935099 0.13584617 -0.048614334 0.049978763
0002a0 b8 70 93 be 9b 0b 46 be 31 fd c5 be 6f 69 08 be
       -0.28796935 -0.19340365 -0.38669732 -0.1332147
0002b0 fd 94 cb 3d 6e 23 a0 3d c5 6a fc 3c df 17 bb 3e
       0.09940527 0.07819258 0.03081263 0.3654165
0002c0 23 ce 18 3f 3c 90 9b be 54 89 04 bf 61 da ae bd
       0.5968954 -0.3038348 -0.51772046 -0.08537746
0002d0 20 12 47 3e 54 2f 87 3e c5 66 73 3c d2 93 66 3e
       0.19440508 0.26403296 0.014856045 0.22517326
0002e0 c9 d7 e1 be c2 17 cb bc bc 06 da bd ca d2 7d bf
       -0.44109944 -0.024791602 -0.10645816 -0.99149764
0002f0 d3 82 58 bc 6f 80 03 3f 15 49 bd 3e 30 0c 02 bf
       -0.013214785 0.5136785 0.3696982 -0.50799847
000300 51 36 c7 3e af dc 23 3e 72 f3 e5 3d ef 21 3a 3f
       0.38908628 0.16002153 0.11228074 0.7270803
000310 73 d4 11 3f a5 3d 6f bf a5 c7 07 3f f9 a4 96 bc
       0.56964797 -0.9345344 0.5303901 -0.018389212
000320 63 97 62 be 67 32 4b 3e 01 a9 ee 3e 87 63 0d be
       -0.22128062 0.19843446 0.46613315 -0.13807498
000330 0d 08 fa be 99 c9 1a bc b1 08 2b bf 2e e1 6c 3e
       -0.48834267 -0.009447479 -0.6681014 0.23132774
000340 db bb e1 bd 07 d8 50 be 29 17 df bd d9 ac b0 be
       -0.11022159 -0.20394908 -0.10893089 -0.34506872
000350 54 1e 14 be 35 98 15 bf a3 57 e9 3e 7c 4a d2 be
       -0.14464694 -0.58435374 0.45574674 -0.41072452
000360 59 6c 05 bf e5 14 66 3e 9d 29 bf 3b e8 87 9f 3e
       -0.5211845 0.22468908 0.005833818 0.31158376
000370 48 60 81 be 49 94 0a 3f 2b 87 45 3f c0 7d c6 be
       -0.2526877 0.54132515 0.77159375 -0.38767815
000380 7a a7 55 be 4d d9 1a bf 32 b1 cc 3e e2 16 85 bf
       -0.20864668 -0.60487825 0.3997894 -1.0397608
000390 92 9b ef be 58 99 82 3e 3a 53 bc 3e 5d 7f ce bd
       -0.46798378 0.25507617 0.36782247 -0.10082886
0003a0 7e 6f 65 3c 6e 3f 01 bf e0 91 b1 be 77 1e 95 be
       0.014003633 -0.5048741 -0.34681606 -0.29124805
0003b0 44 ff 4c be c8 c0 97 be bb d4 e2 be 8e fa e4 3e
       -0.20019251 -0.29639268 -0.44302925 0.44722408
0003c0 9e 03 ae be 78 cc 0e 3f 7a d6 5f 3f b2 14 71 be
       -0.33987135 0.55780745 0.8743664 -0.23543051
0003d0 35 2a 97 bd f9 97 ca bd e8 db 35 bf 23 ba 95 3e
       -0.07381097 -0.09892268 -0.71038675 0.29243574
0003e0 79 1e 9c be 8f a4 da bd 02 56 e0 bc 45 fd 73 bc
       -0.30492 -0.10675918 -0.027384762 -0.014891927
0003f0 29 3d 42 bf 8b 6f 67 3e ed 16 a9 bd c6 66 c4 3d
       -0.75874573 0.22601144 -0.08256326 0.09589915

gnn_base.gnn.embed_layer.layers.0.bias f4 [16]
000000 62 a6 20 be c0 ef 96 3d a1 8d 18 3c e6 86 1b 3e
       -0.1568847 0.073699474 0.009311111 0.15188178
000010 38 bf 65 3e 4d 56 3f be f9 b6 10 be aa 5b 84 3e
       0.22436225 -0.18685265 -0.14132299 0.25851184
000020 99 45 13 be 19 7c f0 3b 38 21 51 3e 42 64 4a 3a
       -0.14382018 0.0073390123 0.20422828 0.0007720628
000030 a9 3c 95 3c 0d c7 44 be 24 b2 bf bd 5e d6 1f be
       0.018217402 -0.19216557 -0.093601495 -0.15609118

gnn_base.gnn.embed_layer.layers.2.weight f4 [16]
000000 45 ab 8f 3f a9 0c 8a 3f f3 9d 84 3f 19 3e 93 3f
       1.1224142 1.0785114 1.0360702 1.1503326
000010 55 e6 7d 3f 8c fd a0 3f 74 49 5e 3f 80 74 87 3f
       0.99179584 1.2577376 0.8683083 1.0582428
000020 2f 15 85 3f c3 53 63 3f 71 41 5b 3f 68 01 89 3f
       1.039709 0.88799685 0.8564673 1.0703554
000030 4f 00 6a 3f 01 8c 4a 3f 72 13 89 3f 04 ab 66 3f
       0.9140672 0.7911988 1.0709059 0.901047

gnn_base.gnn.embed_layer.layers.2.bias f4 [16]
000000 0a a4 49 ba b4 ee 72 be 44 9e d0 bd 32 f7 89 3c
       -0.0007691985 -0.2372387 -0.10186437 0.016841505
000010 ff b2 61 3e a3 26 4d 3d 29 84 bf 3d 88 03 11 3a
       0.22040938 0.050085675 0.093513794 0.0005531837
000020 17 7e d0 3d 54 37 56 3e e7 13 fc 3d bf 29 41 3d
       0.101803 0.20919544 0.123084836 0.047158953
000030 c3 6f 4b 3e ec f6 ac 3e 61 56 81 3d 77 ec b3 be
       0.19866852 0.33782136 0.063153036 -0.35141346

gnn_base.gnn.gnn1.lin_key.weight f4 [48, 16]
000000 96 a5 2c bf be 01 25 be fc 29 d4 3d 66 d9 00 3f
       -0.67440164 -0.16113946 0.103595704 0.50331724
000010 79 67 15 be 80 e3 1f 3e 7d da ba bc ba c2 44 be
       -0.14590253 0.15614128 -0.022809261 -0.19214907
000020 29 a9 bb 3c ce bc 99 3d 6e c4 22 bd 2b b0 8f bd
       0.02290781 0.07506715 -0.03973811 -0.07016023
000030 f1 9c b1 3d 0e 3a 63 be 74 08 80 3e 8c 61 ea bc
       0.08672512 -0.22190115 0.2500645 -0.028610967
000040 31 f0 3f 3e a6 24 6e 3e 24 45 b1 be 4c bb 1c be
       0.1874397 0.23256168 -0.34623063 -0.15305823
000050 e7 df 35 bc c8 30 8a 3d 0e 87 f5 3d 3d 1f c3 3e
       -0.011100746 0.067475855 0.1198865 0.3810977
000060 95 00 c3 bd 7d 07 cc 3d 61 13 ba bd 3e cd 7d 3e
       -0.095215954 0.09962366 -0.090857275 0.24785325
000070 b4 b7 8c 3e 66 67 04 be 82 49 10 3e 5e bc df be
       0.27483904 -0.12930068 0.14090541 -0.436984
000080 b7 f7 5b 3e 5b d1 1e 3c 52 38 a7 3d bd 48 ed bd
       0.21481214 0.009693469 0.08165039 -0.11586139
000090 ee fd 23 be ef 8e 27 3d 5d 23 87 bd cb 0e 24 3e
       -0.16014835 0.040907796 -0.06598542 0.16021268
0000a0 42 d5 a4 be d5 28 4c 3e ae 8a 41 3e d7 d4 a8 bd
       -0.32193953 0.19937451 0.18900558 -0.08243721
0000b0 1f 39 e2 3d a4 d0 0a 3e 2d 31 5b 3e ff b9 fe be
       0.11046051 0.13556153 0.21405478 -0.4975128
0000c0 9a e2 41 3e 46 6a 14 3e 3e 42 9a 3e db 82 a5 bc
       0.18934098 0.14493665 0.30128664 -0.020203998
0000d0 e0 21 f4 3d 8a 95 ed 3d 3f da 0d bc b4 bc 5f 3e
       0.11920524 0.11600788 -0.008657991 0.21849328
0000e0 9b b6 e6 ba 86 ae 8a be 31 83 6b 3d 36 46 70 3e
       -0.0017602028 -0.27086276 0.05749816 0.23464283
0000f0 5a 74 84 bd 6e 6f fd 3c 4e c6 a0 be 48 78 7e 3d
       -0.06467505 0.030936923 -0.31401294 0.062126428
000100 fc ed a7 be 8e 31 13 be e0 af 63 bc e1 41 cb 3d
       -0.32798755 -0.14374372 -0.013896912 0.09924675
000110 79 1a ea bd 65 04 ca 3c 50 d4 d1 3d da 93 2b 3e
       -0.114308305 0.024660299 0.102455735 0.1675562
000120 c1 05 b9 3d 24 12 f2 3d 19 13 c5 3d 8f b3 52 3e
       0.090343006 0.11819866 0.09622783 0.20576309
000130 40 64 2f be 8b b4 22 3e 22 12 ac 3e 47 21 4d 3e
       -0.17128086 0.15889184 0.33607584 0.20032226
000140 57 07 95 be 75 c1 69 be ca 9d bd bd b7 83 31 be
       -0.29107162 -0.22827704 -0.092586115 -0.17335401
000150 db 50 1b bc 42 07 84 3d dc 7e 3a bd c6 71 8d be
       -0.009479727 0.06446697 -0.04553114 -0.27625865
000160 d3 cc a1 3d ef d3 1d 3e 94 4c 34 be 76 71 0f 3e
       0.07900395 0.15412878 -0.17607337 0.14008126
000170 3c 76 7c 3d 3d 93 04 be 9e 57 0f be 79 7a ed 3e
       0.061636195 -0.12946792 -0.13998267 0.46382502
000180 04 7a 17 3e c2 2e 7e be 40 c1 3b 3e 69 c3 95 be
       0.14792639 -0.24822524 0.18335438 -0.2925065
000190 3d f8 14 3d c5 37 2c be e4 3c 61 3e a1 0e 4b be
       0.03636955 -0.1681815 0.21995884 -0.19829799
0001a0 e0 69 9d 3e 3a 7c 09 3e 6b db 10 3e 08 26 38 3e
       0.3074484 0.13426295 0.14146201 0.17983258
0001b0 d5 5c ad 3d e8 fe 68 3e 9b f1 4b bd 0c 70 ef 3e
       0.08464972 0.22753489 -0.04979096 0.46765172
0001c0 f2 3c 05 3e 2e 21 48 3c c2 74 98 be 83 90 85 bd
       0.1301153 0.012214942 -0.2977658 -0.06521704
0001d0 c8 2b 28 be 21 18 49 3e 89 14 4f be 77 c9 43 3e
       -0.16422951 0.1963811 -0.20222677 0.19119821
0001e0 96 35 7d 3e ab 86 b5 3e 7c d5 16 bc d0 60 78 3e
       0.24727473 0.35454306 -0.009206172 0.24255681
0001f0 ce 4b 96 3d f9 7f 58 3d bd 2c 36 3e 26 81 3c 3d
       0.07338677 0.05285642 0.17790504 0.046021603
000200 a2 42 20 3e 47 d9 97 3e 48 e4 a7 be c7 89 68 3e
       0.15650418 0.29657957 -0.32791352 0.22708808
000210 15 66 f8 bb 34 5f 7b 3c 9f 95 90 be e8 d9 38 be
       -0.0075805285 0.015342522 -0.28239152 -0.18051875
000220 1f d6 9b be 6b 29 f4 3d 38 e7 60 3d 2e 1d 85 be
       -0.304368 0.11921962 0.054908007 -0.25998825
000230 fa 1e 75 3e 40 d1 cf bd bb 8d 1c 3e c4 7d ca be
       0.23937598 -0.10147333 0.15288441 -0.39549077
000240 9f a5 63 be 8f 62 5d be 1f bf f6 3a f6 ae 22 3f
       -0.22231148 -0.21619628 0.0018825269 0.6354822
000250 ad b1 be 3e 9d b3 28 be ae e2 6b be 10 e7 a3 be
       0.3724493 -0.16474767 -0.2303569 -0.32012224
000260 a2 b3 49 3d 90 96 4d 3e 06 6e c8 be 2a 6e 22 bd
       0.049243577 0.20076966 -0.3914644 -0.039655842
000270 af 3c c6 bd 41 0c ad be 41 89 a6 3e 08 4e 5e 3e
       -0.09679543 -0.3379841 0.3252659 0.21709454
000280 ca da f6 3e 61 8d 96 3e dd e6 46 3d d6 4a 97 be
       0.48213798 0.2940474 0.048560012 -0.29549283
000290 47 90 00 3d 54 93 8f bc 32 c8 7c be 19 54 b5 3e
       0.031387594 -0.017526306 -0.24685743 0.35415724
0002a0 1d be 00 3d c9 48 fe bd f0 b6 a3 bd c7 76 87 be
       0.031431306 -0.124162264 -0.07993877 -0.26457807
0002b0 cc 81 e8 3d 82 fd 44 3e 42 13 b4 be 54 4d 89 3e
       0.11352882 0.1923733 -0.35170943 0.2681681
0002c0 9e f2 ae bd 94 2c 23 be eb b8 67 be 90 9b c6 be
       -0.08542369 -0.15934974 -0.22629134 -0.3879056
0002d0 56 57 98 bd 44 98 c3 be 30 6c 9e 3e cb fd 06 3e
       -0.07438533 -0.38202107 0.30941916 0.13182752
0002e0 d2 d0 62 bd 54 44 4e be d5 2e 16 be 8d 8a 12 be
       -0.055374928 -0.20143253 -0.14666303 -0.14310665
0002f0 0f d7 92 bd 44 51 3d 3e a6 75 2e be 8c d0 00 be
       -0.071699254 0.18488032 -0.17037067 -0.12579554
000300 90 da 62 3d 9d dd aa bd 13 f1 a2 3e 8d 58 36 be
       0.05538422 -0.08343051 0.3182455 -0.17807217
000310 d1 11 c4 be cf bb f2 bd b6 39 95 3d 29 07 71 3e
       -0.38294843 -0.11852228 0.07286398 0.23537888
000320 24 c2 d8 3e d6 31 b6 bc 95 54 9b 3e d4 5d d2 bd
       0.42335618 -0.02224056 0.30337968 -0.102718025
000330 f4 ee d8 bb 5a 29 89 bd 23 58 8f be 51 a9 f1 3e
       -0.0066202823 -0.0669734 -0.2799693 0.4719949
000340 14 1d 26 3e 9f 25 e2 bd cf 7b 3d be 60 79 bb 3d
       0.1622203 -0.11042332 -0.1850426 0.0915401
000350 74 da 8d 3e 30 64 85 3d f5 a9 6b 3e c0 22 45 39
       0.2770573 0.0651325 0.23014052 0.0001880033
000360 17 5c ce be e3 81 29 be 9b 38 60 be 32 a9 4d 3c
       -0.40304634 -0.16553454 -0.21896593 0.012552546
000370 90 19 c0 bc ad e8 27 bc 0d 96 ab 3d d4 b2 b4 be
       -0.02344969 -0.010248345 0.08378229 -0.35292685
000380 3a 8a 11 3e 5a 54 10 be 98 52 27 be f8 5e 23 be
       0.14212885 -0.14094678 -0.16340101 -0.15954196
000390 37 cb 8a be 51 e6 50 3d b2 55 c4 bd 5f 2f d0 3b
       -0.27108166 0.051000897 -0.095866576 0.0063533033
0003a0 95 2c d2 bd 4a a1 f2 3d 6e 24 72 3e 09 be 06 3e
       -0.102624096 0.1184717 0.2364671 0.1315843
0003b0 8e 5a 48 ba bd 66 15 3e 01 f8 02 be 19 4c 5c be
       -0.0007642888 0.14589973 -0.12789918 -0.21513404
0003c0 6d 81 5c 3e 4d 80 b5 3d b0 3d b1 3e ae b2 54 3d
       0.21533747 0.08862362 0.34617376 0.051928215
0003d0 eb 48 78 be 37 42 0b 3e 35 8f 29 be df 2b 95 be
       -0.24246566 0.13599478 -0.16558535 -0.29135033
0003e0 da cd 06 bd 7f 91 04 3e d2 67 23 be cf c0 a2 bd
       -0.03291116 0.12946127 -0.15957573 -0.079469316
0003f0 4d ae 12 bf b1 b0 de bc c2 eb c0 bd 1f b5 28 3e
       -0.5729721 -0.027183862 -0.09419967 0.16475342

gnn_base.gnn.gnn1.lin_key.bias f4 [48]
000000 17 29 a8 bd 5e e6 81 3d 43 5a ee bc 3c 0b 7d be
       -0.08210962 0.06342767 -0.029095775 -0.24711317
000010 10 f4 13 be d5 4e 23 be 78 33 17 3e a7 8f ed 3d
       -0.14448571 -0.15948041 0.14765728 0.11599665
000020 06 9f 14 3e ac cd 1f 3e d4 d6 ec bd b7 5b 30 3e
       0.14513788 0.15605801 -0.11564413 0.17222486
000030 72 fa 6f 3e a1 20 9a 3d ca a7 38 3e b7 5b 67 bc
       0.23435381 0.07525755 0.18032756 -0.014120988
000040 59 e5 0d 3e 7d b1 7d 3e f5 4e f7 bd f9 2e 5e 3e
       0.1385702 0.24774738 -0.12075607 0.21697606
000050 eb 3f 03 be 44 6f 09 3e 2f 98 8b bd 8f 01 02 be
       -0.12817352 0.1342135 -0.06816136 -0.12695907
000060 dd 9b 58 3e 74 d8 67 3e 16 b2 08 bd b0 eb 7c be
       0.21153207 0.22641164 -0.03337296 -0.24699283
000070 1f bb 75 be 63 5b 06 3e c7 dc 6a be aa e2 c2 3b
       -0.23997162 0.13120799 -0.22935782 0.0059474306
000080 61 24 42 be 1b 58 49 bc f0 ec c4 3c 43 87 b2 bd
       -0.1895919 -0.012289072 0.024038762 -0.087172054
000090 1e 99 9b bd 8a b1 34 3e 9f 52 34 be a2 5b 0f be
       -0.07597564 0.17645851 -0.17609642 -0.13999799
0000a0 63 80 30 3c fc 43 b6 3d 30 7b 21 3e d5 5a b5 3d
       0.010772797 0.08899686 0.15769649 0.088552155
0000b0 54 1e 92 bd b8 4c 01 3e d3 d5 fc 3d 9d ae 44 3e
       -0.07134691 0.12626922 0.12345471 0.19207235

gnn_base.gnn.gnn1.lin_query.weight f4 [48, 16]
000000 4c df 68 3d f2 b6 ab 3e b8 22 be 3d a1 20 af 3e
       0.056853577 0.33538014 0.09283966 0.3420458
000010 1c fb 1f 3e c7 b2 86 3e 71 9d a0 be 2a 65 fc 3d
       0.15623134 0.2630827 -0.31370118 0.12323983
000020 47 0e d3 bd f6 77 61 3d 9f 0c 12 be 7b bc c3 bd
       -0.103054576 0.055046044 -0.14262627 -0.09557434
000030 5d 3d c5 be ac c6 5f 3b a0 40 e0 3e b4 73 3c be
       -0.3852338 0.0034145517 0.43799305 -0.18403512
000040 55 96 0a 3d 91 69 38 be b6 3e 8b 3d ed 89 c1 3e
       0.033834774 -0.1800902 0.067990705 0.37800542
000050 a8 03 d8 be 42 96 96 be 5f 76 85 3d 00 5e a9 3e
       -0.4219029 -0.29411513 0.06516718 0.3307953
000060 4c 05 17 bd 49 6a 43 3e 7a 72 38 3e b2 99 c0 3d
       -0.036870286 0.19083513 0.1801242 0.09404315
000070 16 a7 9a 3e 73 4c 27 be c3 e7 eb be 2f c0 e1 3e
       0.302056 -0.16337757 -0.46075258 0.44091937
000080 67 3c 1b 3e 7f 55 3b 3e 57 e5 1b be 11 d6 6a 3b
       0.1515976 0.18294333 -0.15224205 0.003583316
000090 76 c4 12 3d 02 96 64 3d a2 20 23 3e b2 f5 a2 3e
       0.03583189 0.05580712 0.15930417 0.31828076
0000a0 a8 97 b2 be 14 c8 2f be 82 1e 45 3e bf 87 6b 3b
       -0.3488133 -0.17166167 0.19249919 0.0035939065
0000b0 df af 9e 3e b4 83 2e be 98 c1 7a be 56 9f a2 3e
       0.30993554 -0.17042428 -0.24487913 0.3176219
0000c0 42 b3 28 be 5b a1 4b be d4 82 6f 3d ff 0c d6 be
       -0.16474631 -0.19885771 0.058474377 -0.4180679
0000d0 6e c4 32 3e 87 68 ad bd d5 ae a5 3e 5a cd bd bd
       0.17457744 -0.08467203 0.3235995 -0.09267683
0000e0 2e 12 23 3e e0 54 8c 3e 05 73 33 3e af 79 3b be
       0.15924904 0.27408504 0.17524345 -0.18308137
0000f0 6a 0e a8 3e ee f3 2c 3e 1e 92 b4 bc 0a a7 00 be
       0.32823497 0.16889927 -0.02204233 -0.1256372
000100 31 8e 2b 3e cb 4a 18 3e e7 1a 70 3d 72 ba 97 3e
       0.1675346 0.14872281 0.058619406 0.29634434
000110 57 3f 14 3e 80 c3 84 3e 8f 56 7e 3e 14 3f bf bd
       0.14477287 0.25930405 0.24837707 -0.09338203
000120 61 e0 c7 bd eb 5f 29 3e 73 ba c0 3b cb 58 9f 3e
       -0.09759594 0.16540496 0.0058816015 0.3112243
000130 a1 9f ec 3c c1 57 1f be e7 9e 18 3e 88 74 bc be
       0.02888471 -0.15560819 0.14904366 -0.36807656
000140 94 66 05 be a4 93 b0 be 56 bd 8b 3e 9d 04 68 bd
       -0.13027412 -0.3448764 0.2729289 -0.056645025
000150 d7 ac 89 3e b8 7f 91 3e c1 8f 19 be 41 22 30 bc
       0.2688968 0.28417754 -0.14996244 -0.010750354
000160 ab c8 a6 3d e8 dc cd 3d 38 4f 86 3e e3 7d a7 bc
       0.08143743 0.100519 0.26232314 -0.02044577
000170 17 c3 6d be 26 c8 6c be a6 80 e6 3e a3 a1 cf be
       -0.23218952 -0.23123226 0.45020026 -0.40553007
000180 1f b6 ec 3d 5e 96 69 be 02 7b 6f 3e b6 01 d2 be
       0.11558174 -0.22811267 0.23386768 -0.4101693
000190 43 5e f7 3d 36 79 8a 3e d1 1c f2 bc a3 2d 2c bd
       0.12078526 0.27045602 -0.029554756 -0.04203571
0001a0 88 87 88 be c3 c5 5f 3e b5 aa 8b 3e 7c b9 2e bd
       -0.26665902 0.21852784 0.27278677 -0.04265736
0001b0 75 5b 41 be 4f e2 b6 bd 02 b1 ee bd 3a 85 40 be
       -0.18882544 -0.08929884 -0.11654855 -0.18800822
0001c0 13 6d c2 bb ba bf e4 bd 94 b8 6a be 55 9a 7b 3d
       -0.005933413 -0.111693814 -0.22921973 0.06142648
0001d0 29 df 18 be 69 5d 3f 3e ac 2c 78 3e 7c 7f 82 be
       -0.14928879 0.18687977 0.24235791 -0.25487888
0001e0 28 12 9b be e7 ec 9d 3e c0 11 65 be 1e fe a5 bd
       -0.3028729 0.30844805 -0.22370052 -0.0810511
0001f0 de 39 6a 3e dc 9d 5e be a5 59 97 3e 13 6a f8 bd
       0.22873637 -0.21739906 0.2956058 -0.12129607
000200 c3 b5 8e 3e 70 3c bb 3e 5c b9 37 be c9 af 92 3e
       0.27873048 0.36569548 -0.17941803 0.28649738
000210 0b f7 56 be 51 ac 14 be ce 9f f4 bc 6b af 3e be
       -0.20992677 -0.14518858 -0.029861357 -0.18621604
000220 26 73 64 3d 86 79 62 3d 31 ad d6 bd 07 5d 42 3e
       0.055773877 0.055291675 -0.104822524 0.189808
000230 00 8b 23 3e d0 a8 f2 3d ae a0 0e be 5a b3 bd 3e
       0.15970993 0.11848605 -0.13928482 0.37050897
000240 3b eb 0f 3c f3 2b cd 3e ae fc aa be b5 2d 00 3f
       0.008784111 0.40072593 -0.33395904 0.50069743
000250 5c a8 60 3e 15 51 4f 3e a4 30 f3 be 50 0c 92 be
       0.21939224 0.20245774 -0.47498047 -0.2852502
000260 89 4f 00 3f 49 a0 b9 be 14 30 a6 be 14 d9 b2 3d
       0.5012136 -0.362551 -0.32458556 0.087328106
000270 f8 c7 2a bf 3d d8 df 3c 58 09 99 3e 56 e6 10 3e
       -0.6671138 0.02732479 0.2988994 0.14150366
000280 00 2f 0c be 14 7a ee be db f9 5a 3e 42 7c 11 3d
       -0.13689804 -0.46577513 0.21384375 0.035518892
000290 1f 60 9d be bf e5 2e 3e f0 91 0e bd e0 d4 15 be
       -0.30737397 0.17079829 -0.034807146 -0.14631987
0002a0 50 8d a9 3e 83 65 1b 3d 0e fe 0b bc 7a 14 6f 3e
       0.33115625 0.037938606 -0.008544458 0.23347655
0002b0 ca 0c d7 3d fd c0 c2 bd 68 fe d3 be e9 b2 da 3e
       0.10500486 -0.09509466 -0.41405034 0.42714623
0002c0 82 f2 5a 3e 31 6e ef be 39 75 ae 3c ed 38 9c 3d
       0.21381572 -0.46763757 0.02129613 0.07628045
0002d0 77 88 9c bd 02 9a 02 3e b7 8e bb bb b6 38 06 bd
       -0.07643216 0.12754062 -0.0057238 -0.032768928
0002e0 30 ae 02 bf 2d 0f 80 3c d4 9d 56 bd f1 01 f7 bd
       -0.5104704 0.015632236 -0.05239661 -0.12060917
0002f0 75 89 52 3e 93 6b 98 3d 97 98 9f be aa 9d 62 be
       0.20560248 0.07442393 -0.31171104 -0.22130457
000300 6c c3 bb 3c ec 03 25 bf 36 34 c4 3c 19 da bc be
       0.022920333 -0.6445911 0.023950677 -0.36885145
000310 37 71 38 3c 30 6c 84 3e aa 69 8e bd 2d 9e 18 3e
       0.011257461 0.2586379 -0.069537476 0.1490409
000320 c6 ee c9 bd 6d 5a a9 3e 47 e8 c9 3e 16 94 9d 3e
       -0.098599955 0.33076802 0.39435026 0.30777043
000330 a4 ae 1a 3e 3d ba 41 3e 38 c1 15 be a4 c1 d9 be
       0.15105683 0.189187 -0.14624488 -0.4253055
000340 cc 9b 01 be b4 91 dd bd e2 ed 4d 3d be 95 1d be
       -0.12657088 -0.10818806 0.05027569 -0.15389153
000350 fb c0 3d 3e bd f5 bc bc a0 90 3d bd c9 2c 0a 3e
       0.18530647 -0.023066396 -0.046280503 0.13493647
000360 f6 5b 8c 3d 8f 9f 9e be 50 5a 22 bd db 98 3f be
       0.06853478 -0.3098111 -0.03963691 -0.18710653
000370 79 c6 11 be 4d 01 81 be 79 07 19 be 85 95 97 bc
       -0.14235868 -0.25196305 -0.14944257 -0.018503914
000380 3f 42 02 3e dd 52 d6 bd ac e2 c6 be c3 a9 42 3c
       0.12720583 -0.10465024 -0.38844812 0.011881295
000390 a1 41 49 bc ed bb 09 be e1 ba 08 3e 29 71 f8 3d
       -0.012283714 -0.13450594 0.13352539 0.121309586
0003a0 22 bb 40 be 2e 39 d6 bd b2 62 cb 3d 03 f8 0d ba
       -0.18821386 -0.10460125 0.09930934 -0.000541568
0003b0 d6 83 73 bd d6 b2 fb 3d f8 92 0a bf 73 38 91 3e
       -0.0594519 0.122899696 -0.54130507 0.2836338
0003c0 b1 83 b1 bb f7 ac 9a 3e 97 68 ae be e2 44 da bd
       -0.00541731 0.30210087 -0.3406417 -0.106576696
0003d0 53 58 83 3e 66 32 2d 3e 68 e5 a0 bc 70 ec 49 bd
       0.25653324 0.16913757 -0.01964064 -0.04929775
0003e0 c0 f6 0d 3f cb ab 86 3d e8 8c 4d bd c1 13 52 bb
       0.55454636 0.06575736 -0.050183207 -0.0032055231
0003f0 3d 23 06 3e a7 26 df bd 74 bb e5 bd 3f b3 3b bc
       0.1309938 -0.10896044 -0.112173945 -0.01145631

gnn_base.gnn.gnn1.lin_query.bias f4 [48]
000000 31 73 4c bd f4 ca 4a 3d 53 21 b4 bd a3 70 e3 3d
       -0.049914543 0.049509957 -0.087954186 0.11105468
000010 5c 58 4d be f0 8a 2e 3e c6 3f 3e bd b5 e9 15 be
       -0.20053238 0.17045188 -0.046447538 -0.14639933
000020 c7 7d bd 3d 37 26 e0 3d ed 2f e5 bd 4a 65 33 3e
       0.09252506 0.10944789 -0.11190782 0.17519107
000030 4e 70 f6 bd 73 1d 1c 3e 0b 9a 5d 3e f9 1c 67 3e
       -0.12033139 0.15245609 0.21640794 0.22569646
000040 a6 85 04 bd 0e 5c 42 bd b5 f7 20 be af 9c b4 bd
       -0.03235402 -0.04745107 -0.15719493 -0.088189475
000050 64 b7 3d bb 71 fb 08 3d f2 33 a5 3d 35 9b e9 3c
       -0.002894842 0.03344292 0.080665484 0.028516391
000060 3e 87 19 be c8 72 ce 3d 71 e6 72 bc e7 92 96 be
       -0.14992997 0.100804865 -0.014825449 -0.29408953
000070 6e 61 99 3e b0 f3 9e bd b1 50 10 be 29 ba 25 bd
       0.29957145 -0.077613235 -0.14093281 -0.04046074
000080 db 89 81 be 2d bb 14 3e a7 22 83 3e aa 0b 11 be
       -0.25300488 0.14524527 0.25612375 -0.14164606
000090 42 b9 a9 3d 47 c4 81 be 0d c8 c3 3d 91 40 03 be
       0.08287288 -0.2534506 0.09559641 -0.12817599
0000a0 e4 22 82 3e e7 68 db bd 9a 36 ef 3c 19 ed 81 3c
       0.25417244 -0.10713368 0.02920084 0.015860127
0000b0 88 8a 8c 3d 31 36 8e 3e ba 29 a2 3d 1b a8 e1 bd
       0.0686236 0.2777572 0.07918115 -0.11018392

gnn_base.gnn.gnn1.lin_value.weight f4 [48, 16]
000000 0b 92 da 3e c9 5d a2 3d 7a 6b ef 3d 53 cd 15 be
       0.42689547 0.07928044 0.116904214 -0.14629106
000010 d8 a6 7f bc 2e bf 7a bd 77 1a 05 3e 2f d1 ed 3d
       -0.0156037435 -0.06121748 0.12998377 0.11612164
000020 8a 1b 52 bd 4c 98 ad 3d 92 bc 1b 3f d6 a1 d2 3d
       -0.051295795 0.08476314 0.6083461 0.10284774
000030 02 2c ab bd 31 07 15 3d c3 30 16 bf a6 db df 3a
       -0.08358003 0.03638381 -0.58668154 0.001707901
000040 87 64 b2 be 82 5d 93 bd 4d e7 0f 3e 18 83 10 be
       -0.3484232 -0.071955696 0.14053078 -0.14112508
000050 19 6c 38 3e 10 87 2a 3d 34 37 3a be c6 48 f2 3e
       0.18009986 0.041632712 -0.18185121 0.47321147
000060 9f 4c 85 bd 30 3f cc 39 83 08 22 be e8 c5 bd be
       -0.06508755 0.0003895699 -0.1582356 -0.37065053
000070 f9 b2 a3 3e ef 45 3d be 35 06 c0 3d 08 d5 19 3e
       0.31972483 -0.18483709 0.09376184 0.15022671
000080 87 93 af be 45 e6 42 3d 45 69 67 ba 56 05 92 be
       -0.34292242 0.047582883 -0.0008827637 -0.28519696
000090 60 d3 f5 3e 43 5e 13 bf 96 d5 28 3e 19 90 b8 3d
       0.4801283 -0.57565707 0.16487727 0.090118594
0000a0 46 6e cd 3e f2 b0 85 3e ab 98 8a bd 9c 9e 3b 3e
       0.40123194 0.2611156 -0.067674 0.18322223
0000b0 65 5f a9 3e f3 31 97 bd 65 04 65 bd 90 84 01 3e
       0.33080593 -0.07382574 -0.055912394 0.12648225
0000c0 1b 22 c7 3e 54 30 47 3e af bf f1 bd 21 62 71 3e
       0.38893208 0.1945203 -0.11804139 0.2357259
0000d0 34 a6 f7 3c 8c f8 9a bd cd ec 2d 3e 30 39 0a 3f
       0.030230619 -0.07566938 0.16984864 0.5399351
0000e0 77 23 8c 3d d4 9b b6 3e 0f 71 37 3e d1 c5 94 be
       0.06842702 0.35665762 0.17914222 -0.29057172
0000f0 07 99 7f be 99 41 24 3e 91 4d 41 be d2 98 2b bf
       -0.24960719 0.16040649 -0.18877245 -0.6703006
000100 66 78 be be 96 77 f4 bd 6e 1d bc 3d 58 69 9c bd
       -0.37201232 -0.11936872 0.09185301 -0.0763728
000110 22 a3 55 3e 43 e0 0d 3e 77 48 99 be cd e5 bd be
       0.20863011 0.1385508 -0.299381 -0.37089387
000120 af c5 6c be 0d 70 db 3d 87 28 b2 bd 43 fc 01 3e
       -0.23122285 0.10714731 -0.08699136 0.12693886
000130 73 4e 58 3e 9e 70 8d 3e ed a1 93 3e 0c ae 72 3e
       0.21123676 0.27624983 0.28834477 0.23699206
000140 5b 21 a3 be 03 aa b7 bd 1e 3d 0e be d0 c2 67 3d
       -0.31861386 -0.08967974 -0.13890502 0.056582272
000150 52 1e 0b be bb 93 97 3e 72 64 48 be ee 2c 33 be
       -0.13585785 0.29604897 -0.19569567 -0.17497608
000160 6c 31 aa 3e 00 4c f1 bd 0c 44 0b 3d ad 68 17 be
       0.3324083 -0.11782074 0.03400044 -0.14786024
000170 d8 f5 95 bc 58 fb 17 3e 6d c8 ce 3e ea fc 50 3e
       -0.018305704 0.14841974 0.40387288 0.20408979
000180 4e 1c 09 bf 6e 7d 4b bb 52 2e 9e 3e bf 31 a8 3d
       -0.53558815 -0.0031050104 0.30894715 0.08212613
000190 77 aa a9 be 11 7c 56 3e 8f af 87 bb a6 4b 04 be
       -0.33137867 0.20945765 -0.0041408013 -0.12919483
0001a0 a4 27 f3 3c 57 4e 3b be 8e 76 23 3e 60 b5 3b 3e
       0.029681988 -0.18291603 0.15963194 0.18330908
0001b0 e5 25 90 be ee 84 62 3e a7 68 b8 3d 23 35 ec 3d
       -0.2815391 0.22121021 0.09004336 0.115335725
0001c0 05 7c 3d 3d 52 4b 8c be 2c ec c1 bd 20 79 f9 bd
       0.046260852 -0.27401215 -0.09468874 -0.12181306
0001d0 83 fa 82 3e 23 11 a0 3e 9b eb a1 3d 59 79 55 be
       0.2558175 0.31263074 0.07906266 -0.20847072
0001e0 3c 28 a2 3e 16 35 35 be 7d 6a b3 be 1a b2 9f 3e
       0.3167132 -0.17696032 -0.35042182 0.31190568
0001f0 f6 79 b4 3e 41 86 ba bd 54 90 8a be 74 49 65 3e
       0.352493 -0.09107638 -0.2706324 0.22391301
000200 d3 1c 26 be 9c 25 89 bd 75 31 4c be 25 db a3 bb
       -0.16221933 -0.066966265 -0.19940741 -0.0050004893
000210 5b d3 a6 3e 19 76 ec bd 60 d3 06 bd 12 0c 52 3e
       0.32583126 -0.11545963 -0.032916427 0.20512417
000220 47 f0 89 3e a9 df 82 bd 48 fc 04 bd a3 79 9c bb
       0.2694113 -0.06390316 -0.032467157 -0.0047752424
000230 d0 da c5 3d eb 21 5e be b2 79 43 3d f7 28 00 3e
       0.09660876 -0.21692626 0.04772348 0.12515627
000240 97 23 c8 3d 73 64 5b be 49 75 52 be 5e 20 0d be
       0.09772413 -0.21425037 -0.20552553 -0.13781878
000250 b6 fb 6e bd cc 95 1a be 98 88 8d 3e 1b fd 40 3e
       -0.05834552 -0.15096205 0.27643275 0.18846552
000260 e7 97 b9 bd 0b cb ba be 3c f6 bd be 97 01 9b bd
       -0.09062176 -0.36483034 -0.37101924 -0.075686626
000270 30 bd 88 3e 6c 49 a8 3d be a6 0e bf a3 a6 de 3c
       0.2670684 0.08217129 -0.5572318 0.027179068
000280 ce 5e ad 3e da 93 8e 3e 8d 92 27 bb 1c f8 e9 3d
       0.33861393 0.27847177 -0.0025569529 0.11424276
000290 6d 0c 4d 3e a7 6b 20 3d 6f 1a 0a 3e e0 93 9b 3e
       0.20024271 0.039165165 0.13486646 0.30386257
0002a0 5e 5f 7d bd c4 72 23 bd 08 f7 99 bd 13 c2 c0 be
       -0.061858527 -0.03990437 -0.075178206 -0.37648067
0002b0 a0 ff de 3e 14 36 9a be 75 03 5a bf a1 89 86 3e
       0.435544 -0.30119383 -0.85161525 0.26276878
0002c0 7d 60 8f bc 2f 8a e0 3a c0 6f 2b be c2 c1 00 be
       -0.017502064 0.0017131026 -0.16741848 -0.12573913
0002d0 0f dd 32 3c c3 8f ae be d8 35 f7 3c a0 5d cc 3d
       0.010916962 -0.34094056 0.030177042 0.09978795
0002e0 1b 36 c2 bd 4a 31 3c be bb 58 b1 3d 62 b2 0d 3e
       -0.09482976 -0.18378177 0.08659502 0.13837579
0002f0 6d 35 5d 3e cf 45 b7 3e c1 55 05 3e cd 45 6f 3e
       0.21602412 0.35795447 0.13020994 0.2336647
000300 c2 bb d5 3d b5 0a 36 3e d8 6f 51 3d 10 4c 4f 3e
       0.104362026 0.17777522 0.051132053 0.2024386
000310 7b 11 67 bd f3 2e a9 3e f5 02 5b be ca ca a4 bc
       -0.056413155 0.33043632 -0.21387847 -0.020116229
000320 17 c9 77 bd 35 bf 31 bc 01 3b 50 be b6 62 b2 3d
       -0.06049451 -0.01084881 -0.20335008 0.08710234
000330 0a 81 bb 3e 1a 23 77 be 66 ac ba 3d e9 c5 32 3e
       0.36621886 -0.24134484 0.09114914 0.17458309
000340 5a e1 93 bd 2a 7b f3 bd 57 db a4 3e 29 46 24 3e
       -0.07220717 -0.11888726 0.32198593 0.16042389
000350 5d 23 9f 3e f0 c0 4f 3e 29 14 17 3e e9 bd cf 3d
       0.31081668 0.20288444 0.14753784 0.10143644
000360 9f 1b 8e be bd a8 26 be 2d 86 2f 3e da ec 2c bc
       -0.27755448 -0.16275306 0.17141028 -0.010554517
000370 2c 08 0f be ed f4 d3 3e 13 89 1d be 7f 78 39 bf
       -0.13967961 0.413978 -0.15384321 -0.7244949
000380 3a 28 81 bd 16 83 ac 3d 27 47 4b 3e c5 7f 43 bc
       -0.06306501 0.0842344 0.19851361 -0.011932318
000390 bd 2a 0b 3e 2a 5b 45 3e 24 e0 41 3e c0 f8 00 3c
       0.13590522 0.19273058 0.18933159 0.007871807
0003a0 49 03 12 bd 89 c9 80 3d 0f ba 50 bd 75 09 cd bb
       -0.035647664 0.0628844 -0.05095869 -0.006257231
0003b0 23 92 a9 bc 99 d1 ae 3d ae 43 1b bf 75 52 6d 3e
       -0.020699566 0.08536071 -0.60650146 0.23175986
0003c0 0f dc 54 3e 7a e5 34 3e 7a 1f 4b be bc 2f 19 be
       0.2078707 0.17665663 -0.19836226 -0.14959615
0003d0 c5 a2 a0 bd 0a 3b a4 bc 83 a1 de bd 59 50 ad 3d
       -0.07843546 -0.020047683 -0.1087065 0.08462591
0003e0 5f ae 8e 3d 2b 14 52 be dc 09 81 bd 47 c2 af bd
       0.069668524 -0.20515506 -0.06300709 -0.08581977
0003f0 38 63 01 bf 1f a7 43 be fc 3c 92 be 5d 20 4c 3e
       -0.5054202 -0.1910672 -0.28562152 0.1993422

gnn_base.gnn.gnn1.lin_value.bias f4 [48]
000000 e6 5d 82 3e fe d5 30 bd 89 47 a1 3e 76 9a c4 3e
       0.25462264 -0.04317283 0.3149989 0.38399094
000010 b4 74 11 be 86 73 60 3e 4d 2c 5e be 3d eb 9f bc
       -0.14204675 0.21919069 -0.21696587 -0.01952135
000020 64 21 e7 3b 0c 6e a6 be d9 ae 45 be 9a b2 8f 3d
       0.007053541 -0.32505834 -0.1930498 0.070164874
000030 3c e5 bd 3d 6f 0a f5 3d 82 09 26 3e 6b 57 51 3d
       0.092722386 0.11964881 0.16214564 0.05110876
000040 40 c3 7e 3d 78 be 90 3d d2 31 c0 3e 13 0a ac 3e
       0.062197924 0.07067579 0.3753801 0.33601436
000050 c0 85 f4 3c e3 d0 a9 3d d3 a6 c1 3c 2b b9 76 bd
       0.029848933 0.08291795 0.023639118 -0.060235184
000060 5a cd 28 3e 68 1d ba 3d 04 78 c9 be b0 c7 85 be
       0.16484585 0.0908764 -0.39349377 -0.26128912
000070 53 c8 b4 3c 42 d8 b6 3d cd 23 19 3e 1b 45 d8 bd
       0.022068178 0.08927967 0.14955063 -0.10560056
000080 fe 87 09 be 5f 6c 2e be 58 aa 58 3e 94 e0 85 3d
       -0.13430783 -0.17033528 0.21158731 0.065369755
000090 4a d2 cf bd 6d 33 88 3e d7 84 6e be fc d0 1a bd
       -0.10147531 0.26601735 -0.23292862 -0.03779696
0000a0 7e f4 eb 3d cd bb 8b be 06 86 7e be 1a 16 48 3d
       0.115212426 -0.27291718 -0.24855813 0.048849203
0000b0 4d 48 35 bd 18 23 85 3e 3a 82 43 3d 67 6c 63 be
       -0.044258405 0.26003337 0.047731616 -0.22209321

gnn_base.gnn.gnn1.lin_edge.weight f4 [48, 1]
000000 c8 57 87 3f 92 69 b1 be dd 39 46 bb 8a e3 1d 3f
       1.0573664 -0.34650856 -0.0030246892 0.6167532
000010 8a 4e 6b 3f 2d 57 84 3f 95 6c d5 3e 5d 9f 7f 3e
       0.91916716 1.0339104 0.41684404 0.24963136
000020 d9 46 c9 bd 98 9b af bf 85 d3 95 bf f0 d1 26 3f
       -0.09827966 -1.3719358 -1.1705176 0.6516409
000030 5b 39 2a 3f 7b 7a 0c 3f f9 ee 9f bf 85 2c a5 bf
       0.6649377 0.5487439 -1.2494804 -1.2904211
000040 0f dd c7 3e 21 45 57 bf 89 80 6d 3e fe 60 88 3f
       0.39035842 -0.8408986 0.23193564 1.06546
000050 4f e1 48 3f 62 14 80 3f 7e 0d d8 be ef 14 c7 be
       0.78468794 1.000622 -0.42197794 -0.3888316
000060 b3 4e 37 bd 28 e7 21 bf 46 6b e2 be 99 d4 2f 3e
       -0.044752788 -0.6324334 -0.44222468 0.17170943
000070 11 df 20 bf 33 cf 74 3f f6 f9 a0 bf 96 38 31 bf
       -0.6284037 0.9562866 -1.2576282 -0.6922697
000080 c9 c8 83 3f 7f b6 b1 be 86 84 a1 be 28 14 ab 3f
       1.029565 -0.34709546 -0.3154642 1.3365526
000090 9d 8c a4 3e 39 9f f2 3e ce a1 71 bf 56 5a 22 be
       0.3213853 0.47387102 -0.9438752 -0.15854773
0000a0 6c 3e 1f bf c7 9a f4 be d6 58 f8 bf 1f d0 1e bf
       -0.62204623 -0.47774336 -1.940211 -0.6203632
0000b0 69 de 05 3f e2 47 af 3f b6 d8 7b bf 0f 65 47 bf
       0.52292496 1.3693812 -0.9837755 -0.7788858

gnn_base.gnn.gnn1.lin_skip.weight f4 [16, 16]
000000 99 a2 cc 3e 81 9e 9a be 6f 1c 66 3e 4a 19 69 3e
       0.39967802 -0.30199054 0.22471784 0.22763553
000010 ac a6 28 3e cd 08 67 bd 3c e6 65 bc 91 47 a1 be
       0.1646983 -0.056404877 -0.014031943 -0.31499913
000020 7e 1d 00 be dc 7a fc 3e b1 05 52 3e 3c 76 5c 3e
       -0.1251125 0.49312484 0.20509984 0.21529478
000030 64 67 d2 be 1c dc 0d bd 7e ed 38 be d2 52 34 bf
       -0.41094506 -0.03463374 -0.18059346 -0.70438874
000040 dd 60 e9 3e 8c 28 7f bf 3c 90 48 3c d8 f6 ab 3e
       0.45581713 -0.99671245 0.012241419 0.33586764
000050 3d b4 d9 3c df 38 7e 3e 73 19 3f be c6 50 04 3f
       0.026575202 0.24826382 -0.18662052 0.5168575
000060 69 fd e6 bd 95 0a 2e 3e 62 be 64 3e 29 1a b8 bc
       -0.11278803 0.16996224 0.2233825 -0.022473412
000070 20 5a c0 bd f3 11 53 3c c7 05 77 bc ac cf 54 3e
       -0.0939219 0.012882697 -0.015077061 0.20782346
000080 44 c5 1d be f7 73 09 be 29 d1 03 3e 41 b3 8c be
       -0.15407282 -0.13423143 0.12872757 -0.2748051
000090 12 78 12 3f 23 8f 96 be 03 c8 31 bf 40 f5 27 be
       0.5721446 -0.2940608 -0.6944582 -0.16402149
0000a0 b5 f8 ff 3e 3c 01 1f bd 8f 07 0d be 2c ed a4 3e
       0.49994436 -0.038819537 -0.13772415 0.32212198
0000b0 f2 a2 2d bf 0f a2 97 3e dc 94 0f 3f fc 01 ab bd
       -0.6782676 0.29615828 0.56086516 -0.08349988
0000c0 96 d6 da bb 59 df 7f bd 2e 35 19 3e 56 e6 62 be
       -0.0066784127 -0.06246886 0.14961693 -0.22158179
0000d0 ff b0 d1 3c 17 dc 6c 3c ca 3f 19 be b6 d0 a4 be
       0.025597094 0.01445677 -0.1496574 -0.32190484
0000e0 2d d1 12 be 6b 0d e1 bd e3 e9 ed 3d b3 58 7c 3e
       -0.14337607 -0.109888874 0.11616876 0.24643211
0000f0 ee ac ba 3b 9b 0a ac 3e a0 72 95 3e d3 9f 53 3e
       0.0056968844 0.3360184 0.29189014 0.20666437
000100 05 e6 9f be 39 6c 2a bf 2b de af 3e 6b ae 90 be
       -0.31230178 -0.66571385 0.34349188 -0.2825807
000110 20 b3 06 bf 52 2b 91 bd e1 e7 e8 3e 96 3c 2a 3e
       -0.52617073 -0.07088341 0.4548941 0.16624674
000120 c2 d4 68 be 33 89 ab 3d 5a 89 1c bb b2 08 94 3c
       -0.2273741 0.08375778 -0.002388558 0.018070552
000130 d9 25 e4 bd 29 33 da 3e 38 0e 4a be 6a 2f ea be
       -0.11140031 0.42617157 -0.19731987 -0.457393
000140 87 33 25 be 84 0d ef bd 38 75 3a be 87 aa a6 be
       -0.16132937 -0.116725 -0.18208778 -0.32551977
000150 c9 72 94 3e e8 58 87 3e fe 90 08 bd 43 85 cb 3d
       0.28993824 0.26435018 -0.0333414 0.09937527
000160 03 07 75 3c a9 8f a9 be 4f 9e 9a be 29 4a a5 be
       0.014955285 -0.33117417 -0.30198905 -0.32283142
000170 48 02 dd 3e 6c 8e 37 bc 5d a2 00 3d 2f e4 7a bb
       0.43165803 -0.01120339 0.03140484 -0.003828298
000180 b0 2a 95 be a2 5e 28 3f 90 e1 ce 3d be 40 e0 be
       -0.2913413 0.657694 0.101016164 -0.43799394
000190 7c 25 51 bd 8d fd 1a 3d d1 7b b2 3e 81 dc b2 be
       -0.05106114 0.03783946 0.3486009 -0.34933856
0001a0 9b f7 b0 be b5 cc 66 3e e0 52 17 3d 12 7d e0 3d
       -0.34563908 0.22539027 0.03694427 0.10961355
0001b0 eb 90 f2 b8 06 35 72 be 7b a3 da 3e fb a0 5a 3c
       -0.00011566452 -0.2365304 0.4270285 0.013344045
0001c0 3d 29 95 bd dd f4 34 3e b1 7b b5 be f7 60 a2 3d
       -0.07283256 0.17671533 -0.35445932 0.07928651
0001d0 97 a3 d0 3e 93 47 32 3e 32 f3 d5 be 82 dd 33 3d
       0.4074981 0.17410116 -0.41787106 0.04391242
0001e0 7b d9 90 3e d2 f3 2c bf a9 3d 0e bf 3f 1b 84 be
       0.28290924 -0.6755954 -0.55562836 -0.25802037
0001f0 f9 0d cc 3e 7d 88 a9 3d fe 57 6b 3e 38 25 89 bb
       0.3985441 0.08277986 0.22982785 -0.004185345
000200 1e 42 11 be f2 d3 ba bd 0f 12 20 3a f9 cc 08 3f
       -0.14185378 -0.091224566 0.00061062066 0.53437763
000210 14 98 fe 3d ad 04 02 3e b4 c7 29 be a0 31 2f be
       0.1243135 0.12697096 -0.16580087 -0.17108774
000220 87 8d 51 3d 15 93 d4 bc 72 a4 ec bd 45 2e ae bc
       0.05116036 -0.02594904 -0.11554803 -0.021262297
000230 52 2f 19 3e 63 e5 ac bd 96 6f 2a 3f c5 6b 69 bd
       0.14959458 -0.084421895 0.66576517 -0.056987543
000240 99 6d 73 3e 69 4b 87 3e ca 2e 7a bd d0 a2 c3 3d
       0.23772277 0.2642472 -0.061079778 0.095525384
000250 11 10 e9 be cb b6 5a 3e 42 6c 1a be 15 fa 1d 3f
       -0.4552007 0.21358792 -0.1508036 0.6170972
000260 60 ac a7 3e 1a 4a e4 3c 03 d7 49 3e cf 9b 6b be
       0.327487 0.027867366 0.19710927 -0.23008655
000270 57 b0 c0 3d 0b 98 5c 3e 70 4c cb be f1 77 76 3e
       0.09408634 0.21542375 -0.39706755 0.24069192
000280 3b 25 0d 3e b1 26 4d 3e d3 43 a5 3d d0 45 88 3e
       0.13783734 0.20034291 0.08069577 0.26615763
000290 cd 8f 8b 3e 00 bf 37 be 40 78 aa 3d 81 62 01 be
       0.2725815 -0.17943954 0.08323717 -0.12635233
0002a0 d2 12 93 bd de 41 a2 be 91 50 04 be eb 32 28 be
       -0.07181324 -0.31690878 -0.12921359 -0.16425674
0002b0 71 31 e5 bc c7 fa 51 be 6d fd 9a be 9d 51 7c 3e
       -0.027977677 -0.2050582 -0.30271474 0.24640508
0002c0 a0 30 14 be db a8 59 3d 12 e1 39 3e 40 9e dc bd
       -0.14471674 0.05313955 0.18152264 -0.10772371
0002d0 83 b8 69 be b1 7a b1 bd 52 68 19 3f a1 d4 08 3f
       -0.22824292 -0.0866598 0.59924805 0.53449446
0002e0 87 a9 52 be 3b 07 99 3e 09 28 f8 3d e3 4b 02 be
       -0.20572482 0.2988833 0.12117011 -0.12724261
0002f0 fd dc 07 3f 3d 55 0c bf e2 a1 f8 bc 8b aa 4f be
       0.53071576 -0.54817563 -0.03035063 -0.202799
000300 26 5a 5c 3e aa 12 5f 3e 07 ea eb bb 90 f1 0a 3e
       0.21518764 0.21784464 -0.007199529 0.13568711
000310 b2 f8 1a 3a 10 52 25 3f fd 3d ab bd 98 27 10 bf
       0.0005911692 0.6457834 -0.08361433 -0.56310415
000320 be 5e 52 3e 0c 2a 36 be ae 26 58 be 18 41 ac bd
       0.20543954 -0.17789477 -0.21108505 -0.08410853
000330 60 d5 10 bf cf ee 76 3e 88 7f af 3e 39 35 4a be
       -0.56575584 0.24114536 0.34276986 -0.19746865
000340 fb 4f bc be 8a bb 91 bc 0f 0e 5d be 00 cc b4 3e
       -0.3677977 -0.01778962 -0.21587394 0.3531189
000350 71 e9 74 bb 17 1a a2 bd 0a be 12 3e b4 e1 42 3d
       -0.0037370587 -0.079151325 0.14330307 0.04757853
000360 44 db c4 3d 00 18 e4 bc be ed 87 3e e0 7f d3 bd
       0.09612134 -0.027843475 0.2654857 -0.103271246
000370 73 f0 2b 3e 0c 28 19 3e 3f 63 69 3e 97 ea 8c be
       0.16790943 0.14956683 0.22791766 -0.27522728
000380 68 03 64 bd 1b de 8b be c8 69 48 3e 21 8b 13 be
       -0.05566731 -0.2731789 0.19571602 -0.14408542
000390 98 16 ab be a8 d0 75 bd 50 c0 00 bd 6c ab e6 be
       -0.33415675 -0.060013443 -0.031433403 -0.4505266
0003a0 c0 32 87 be 79 db a3 3e f3 83 85 3d 92 f5 6f 3d
       -0.26405907 0.32003382 0.06519308 0.058583803
0003b0 db 09 45 be 48 00 b4 3e c0 73 bc bc f1 42 d2 3e
       -0.19242041 0.35156465 -0.023004413 0.41066697
0003c0 1c 72 6e 3d 31 83 95 3e 6a 23 23 3e e6 f9 83 3e
       0.058214292 0.29201654 0.15931478 0.25776595
0003d0 f6 75 6e be fe c0 cc be 4b d5 20 3d 4d 1d a1 3e
       -0.23287186 -0.3999099 0.039265912 0.31467667
0003e0 ba 72 44 be 43 4d 24 3e 69 41 36 3e 4c 98 00 3d
       -0.1918439 0.16045098 0.1779839 0.03139524
0003f0 36 00 a7 be 55 5f c4 be e7 1c c3 bd b8 a5 db bd
       -0.32617348 -0.38353983 -0.09526997 -0.10724968

gnn_base.gnn.gnn1.lin_skip.bias f4 [16]
000000 e0 a1 87 3e 7e 35 5d 3e a3 61 4f 3e 02 0c 5e 3e
       0.26490688 0.21602437 0.20252089 0.21684268
000010 e2 c7 93 3d 3a 0b 26 3e 34 01 1a be b8 48 8c bd
       0.07215859 0.1621522 -0.15039521 -0.068498075
000020 77 b7 69 3e 6b fc 05 3b 43 2c 1b bd 3f d3 ef bc
       0.22823893 0.0020444642 -0.03788401 -0.029275535
000030 6c 17 b0 3e 01 5b 23 3e ff 48 f6 3b a8 56 d8 3d
       0.3439287 0.15952684 0.007516026 0.10563403
