model_weights/tube/rot_inv/airtaxi/critic.pt (torch, 192453 bytes, 57 tensors)

gnn_base.gnn.embed_layer.layer_norm.weight f4 [16]
00000000: 67c7 5e3f 84c7 833f 0001 843f 8e68 913f
00000010: 0437 653f 42dd 853f 44b6 7b3f e553 593f
00000020: 0a38 8b3f ac08 8f3f 8c60 823f 6ffc 753f
00000030: 9d28 783f a350 993f 00b8 713f dd6b 903f
0.87023014 1.0295262 1.0312805 1.1360033 0.8953707 1.0458148 0.9832499 0.8489364
1.0876477 1.1174521 1.0185714 0.9608831 0.9693697 1.1977733 0.94421387 1.1282917

gnn_base.gnn.embed_layer.layer_norm.bias f4 [16]
00000000: 85a3 093e dea8 cebd 1b32 113d 618a b3bb
00000010: 5965 c33d 940f 17be 99a9 4e3d bde9 27bc
00000020: eadc 07be bc44 d2bd 2ac4 eebd 87ad 103e
00000030: 0d95 3e3d e73f e1bd 5863 f53d d462 f93d
0.13441284 -0.100908026 0.035448175 -0.0054791425 0.09540815 -0.14752036 0.05045471 -0.010248599
-0.13267866 -0.10267016 -0.11658509 0.14128695 0.046528865 -0.109985165 0.11981839 0.12177053

gnn_base.gnn.embed_layer.entity_embed.weight f4 [4, 2]
00000000: e0d2 49bf 4c18 633e f11b cabe 6922 643f
00000010: 0d01 3cbf e07b 49bf adeb 8bbf 568f c9bf
-0.78837395 0.22177237 -0.39474443 0.89115006 -0.73439103 -0.78704643 -1.0931298 -1.5746868

gnn_base.gnn.embed_layer.lin1.weight f4 [16, 9]
00000000: 1c31 40bf 01d8 0e3f 7983 05be f1ba c83e
00000010: 6474 043f 5f99 923e fac0 94bd 7f46 d9be
00000020: be68 cebe 8ad1 ca3e d4a4 13be 4b61 10bf
00000030: 5943 603e f30a e03e 3de1 213e 328f 0abe
00000040: 8015 d8bd 810f a6be 9b35 d13f bd80 9c3e
00000050: 4380 5f3d 999f 253c 4f97 943d f12b b13e
00000060: e16d 95be e3e9 e8be e43b d9bd 0b71 8b3f
00000070: dbe5 4abf 69ef 933f 2449 2abf 04ca 5a3e
00000080: 8a42 293e da64 df3e 6b7d 373e 6365 d53e
00000090: 462b 3f3d 65a0 af3e 03f1 b6be edbe e7be
000000a0: c562 5e3e f07c 75bf d8ec bebc 0bae d2be
000000b0: ac7f 453e 3a85 59bf cc62 da3e b32d b5bd
000000c0: bcc5 d53d 799f 0dbe 9ae5 3c3e fb57 82bf
000000d0: e76b 963e a887 6f3d 07af 85be 137f bebf
000000e0: 552e 0a3d 4d63 21bf e20f 99bd 58cb 11be
000000f0: 3d16 933d 837f 4b3e 17f7 53bf 1d91 b93e
00000100: 501a abbe d76c 123e a2e7 aebe c171 abbe
00000110: 0dce cdbd 021e a3bd af1b 8a3e 16f7 bfbe
00000120: eca5 e13e 3ea2 3640 756a 233f b83e 953f
00000130: 7fee 99bc 3446 c43b c6a4 a3be bbe6 913d
00000140: e7c9 c93e 202e 723f b67b 623f 301b c23e
00000150: bb06 84bd 3966 e43d e432 d6bd 1a59 00bf
00000160: 962a 403f fc77 adbe eac3 41bf 4601 a1bf
00000170: 4172 9ebe 1730 0abf 1878 813e 95c1 e63d
00000180: da7c c8be 09d1 31bf d965 0a3f 2567 04bf
00000190: 4e6a 5a3f b22f 0b3d 2ef3 e63e ee31 0abf
000001a0: 4dc4 60be 2c5a 1cbe 7927 dbbe 0bb7 0cbf
000001b0: a9b7 6b3e 414d f8bf 0954 e13d dd9d f2be
000001c0: 342f 44be 1deb 623d 743e 31bf d1b6 ca3e
000001d0: c2e5 f53e ff03 30c0 a992 43be 58ab 2cbf
000001e0: 8bce d7be e5d3 533e 4b1f 173d 6c77 a73d
000001f0: a261 143e 58e4 ab3d 64b2 473d c85c a53d
00000200: d897 5bbf 9627 49be 5f61 e3be bc49 653e
00000210: 44e2 993e d117 d1be e7e2 163f 6285 80bf
00000220: 618b 3a3f 5201 91bf 616e 693e 1ed7 533c
00000230: b428 ec3b f50e 03be 1330 39bc a219 173f
-0.75074935 0.55798346 -0.13038434 0.39205125 0.517401 0.28632638 -0.0726337 -0.42436597
-0.40314287 0.3961299 -0.14418346 -0.5639846 0.21900691 0.43758354 0.15808578 -0.13531187
-0.10550976 -0.32433704 1.6344484 0.3056697 0.05456568 0.010108852 0.07255422 0.34603837
-0.29185393 -0.4549094 -0.10607126 1.0893873 -0.7925698 1.1557437 -0.66517854 0.21366125
0.16529289 0.4363163 0.17918937 0.41678914 0.04667213 0.3430206 -0.35730752 -0.45262852
0.21717365 -0.95893764 -0.023306295 -0.4114841 0.19286984 -0.8496891 0.426535 -0.08846607
0.104381055 -0.13830365 0.18446961 -1.01831 0.29379198 0.05847898 -0.26110098 -1.488253
0.033735592 -0.63042146 -0.074737325 -0.14237726 0.07181976 0.1987286 -0.82798904 0.36243525
-0.33418512 0.14299332 -0.34161097 -0.33485225 -0.10049067 -0.07964708 0.26974246 -0.374932
0.440719 2.8536525 0.63834316 1.1659765 -0.018790482 0.005989814 -0.3196165 0.071240865
0.39411852 0.9460163 0.8847002 0.37911367 -0.06446596 0.1115231 -0.10458925 -0.5013596
0.7506498 -0.33880603 -0.75689566 -1.2578514 -0.30946544 -0.5397963 0.25286937 0.112673916
-0.39157754 -0.6945959 0.5406166 -0.51719886 0.8531846 0.033981033 0.45107406 -0.53982437
-0.21949883 -0.15268773 -0.42803553 -0.549668 0.2301928 -1.9398576 0.110023566 -0.47386065
-0.19158632 0.055400003 -0.6923592 0.39592603 0.48026854 -2.750244 -0.19098915 -0.6744895
-0.42149767 0.206863 0.036895078 0.08177075 0.14490369 0.083931625 0.04875411 0.08074337
-0.8577857 -0.19644007 -0.44410226 0.22391409 0.3005544 -0.40838483 0.58939976 -1.0040705
0.72868925 -1.1328528 0.22796012 0.012929706 0.0072070006 -0.12798674 -0.011302966 0.5902349

gnn_base.gnn.embed_layer.lin1.bias f4 [16]
00000000: 7e9a b5bd 3af3 aabd d603 cebb 6602 163e
00000010: b166 61be 686b e83d 7351 9fbd bd85 1a3e
00000020: 1904 cb3d 858a 3a3e d685 893d 059a be3c
00000030: b81a 493e d2dc 503b f53a 8abd f4a1 4b3d
-0.08867358 -0.08347173 -0.0062870784 0.14649352 -0.2201183 0.11348611 -0.07779207 0.1509008
0.09912891 0.18216904 0.0671498 0.023266802 0.19639099 0.00318699 -0.067495264 0.049714997

gnn_base.gnn.embed_layer.layers.0.weight f4 [16, 16]
00000000: 89af 363e d083 e9bd 66bc ff3e de7c 333f
00000010: a002 10bf 0e2d 7e3e e0fa ba3e 01bb da3e
00000020: 7450 a33c 6362 45bf 3e8e 9e3e d3d2 8dbe
00000030: dcde 7f3c e77f 0d3f 24c1 a23e 644b 8e3e
00000040: 215f b6be c6d1 893e d23a cfbc 3445 783e
00000050: d3b0 aabd 65cf 42bf b7a7 0b3f 29b8 ff3d
00000060: 0d20 80bf c77d ff3c b598 cc3e 7f71 89be
00000070: 059f 533f 8ce4 9cbe 9221 ac3e 159e b7be
00000080: be3f 8f3e 711f 413f 3c23 04bf 7e39 fdbe
00000090: bb6f 8b3d 13dd 173f 4363 60be 6391 4cbb
000000a0: 26de 0abf 0f90 7c3e bdf3 c4bd 2342 243e
000000b0: 271c 2e3e ed18 ce3e 82e3 eb3e c41c 01be
000000c0: 4808 8abe 7779 813d 5b3d 6c3e 3669 653f
000000d0: 4080 1cbc 86f4 b0be 04da 6abf 36f7 613e
000000e0: 89a6 ad3e a21e 7d3e 808a 61bf 73a8 2d3e
000000f0: a039 a13c 0fa5 1ebf 45ef 133d 5b44 49be
00000100: 517f a03d df2c 173f 79b5 a5bd a0c0 143f
00000110: 3302 323f 71d8 5cbe 44f0 03bd 6d74 863e
00000120: 4912 d03d 75ea 1dbf cbf6 ec3e 0c59 2cbe
00000130: e6a6 aebe f1f9 d23e 98c5 e6be 50bc cf3e
00000140: b3d5 29be 29a0 c7be fdd6 0bbf e9a1 9b3e
00000150: 0ad0 65be 0cb8 b13d 1504 e4be cc41 ab3e
00000160: 7f2c ce3e 9244 a53e a28c 5d3f 5413 46be
00000170: 8247 323e fdd3 5b3e 510a 89bd 5232 b03e
00000180: d044 05bf 4ca9 d23e 1cc2 a83e a6a1 8fb9
00000190: 8724 92be 0c66 893e 6189 bbbd 32b1 2c3f
000001a0: 8a12 21be 6f25 96bd 6e6c c83c 8e2d 723e
000001b0: 7771 37be 7c02 9dbd 94b2 e5be 9b96 12bf
000001c0: 8e3d 273e 41c4 fc3e d2cd 753e 196f 39bf
000001d0: 9a06 f73d 3a37 09bf a239 943d e6f4 c73e
000001e0: 6521 013f 416a 583e f0f1 39be b60f 4fbe
000001f0: 7482 02bf 7618 183e d03c e63d e182 183f
00000200: b03a 263f 8a2a 703e 12ca a6bd 0d08 47be
00000210: de3b a4be 31ee dcbe b124 25be 4043 fc3d
00000220: d032 cd3e a85f 92be 8f6d bc3d 221c f13e
00000230: 63df 22be 7824 8dbf 8c96 71be e389 7d3e
00000240: de24 223e 829f a13d ead1 313e 0cd6 563e
00000250: a26e 2b3d 0d36 ef3c d417 8e3e 6712 1b3e
00000260: a428 613e 0ae9 0c3f 59c5 bdbe b859 3c3e
00000270: fe0f 5b3f 56a2 b43e 8d73 dcbe 1745 0cbf
00000280: 02b9 b63d 2d92 513e 144c 5cbe 11e6 233e
00000290: 7319 a3be 52fa f63d 5bdd 2a3e 6765 d0be
000002a0: ccd5 373f 416c 88bc c107 fdbe 08c2 a3bd
000002b0: 8776 9dbe a6e6 06bf c1d7 433e 115c 0a3f
000002c0: 9e21 fc3e d27d eebe d9b4 83bd 7d19 683e
000002d0: d8b5 023e b6f4 c5be f188 b53d d1f0 f33e
000002e0: 6be7 28bf a877 823d dc51 b9be bd70 393e
000002f0: b300 f3be 95c6 833e 5bc9 953e 06fa 47bf
00000300: df12 bf3e 1a01 e7bd c5cc b73d 338a bdbe
00000310: 45f0 ac3e 771c 273e 0ddf d0be 15f4 ee3e
00000320: 0788 3bbc 2512 36be 69d9 073d 1856 ffbe
00000330: 2367 eb3e a411 afbe 8d33 b73e dd8f 2ebe
00000340: 1714 c73c 526e b3bd 6f48 dbbe cdd0 82be
00000350: 1297 b33b fe97 d5bd 5d65 efbe 7b52 c3bd
00000360: 37a5 c6be 01ea 37bf ba5d 9dbe 1b00 a3be
00000370: 8fad bb3e 9499 c33e 06e8 c5be 6c0f 523f
00000380: 90c0 063e d2ab a2bd f12a 023f c695 b63d
00000390: f6bd fa3e 0f07 a0be f5a3 8dbe 82af 9bbc
000003a0: d9a3 023e 47b2 1fbf 1750 bf3d 8446 603f
000003b0: b8a5 403d 3009 643e b959 1b3f 32bc ab3e
000003c0: 1c84 d5be 67d0 ebbd 2344 1abe b4ca 8dbe
000003d0: b869 69bd 6bf2 80be 1ba2 cebd b37c f5bd
000003e0: 1859 233f 8dc3 e6be abb0 80be ab2a 21be
000003f0: 68da d0bc e8c4 db3e 0287 ea3d a70f 4abf
0.17840399 -0.11402094 0.49948424 0.7011241 -0.56254005 0.24821874 0.36519527 0.42720798
0.019935824 -0.7710325 0.30967897 -0.2769991 0.015617099 0.5527329 0.3178798 0.27791893
-0.35619453 0.26917857 -0.025296602 0.24245149 -0.08334508 -0.7609771 0.5455279 0.12486298
-1.0009781 0.031187905 0.39960256 -0.26844403 0.8266452 -0.30643117 0.33619362 -0.35862795
0.2797832 0.754386 -0.51616263 -0.49457926 0.0680842 0.5932171 -0.21912865 -0.0031214587
-0.5424522 0.24664329 -0.09616802 0.16040854 0.17002927 0.40253392 0.46072012 -0.1260863
-0.26959443 0.06321996 0.2307028 0.89613664 -0.009552062 -0.34561557 -0.91738915 0.2206696
0.3391612 0.24718717 -0.8810196 0.1695879 0.019680798 -0.6197061 0.036116857 -0.19654982
0.07836784 0.5905284 -0.08091254 0.5810642 0.69534606 -0.21566941 -0.032211557 0.262607
0.101597376 -0.6168588 0.46282038 -0.16830844 -0.34111708 0.41206315 -0.45072627 0.4057336
-0.16585426 -0.3898938 -0.5462492 0.30396965 -0.22442642 0.08677682 -0.44534364 0.33448637
0.40268323 0.32278877 0.86542714 -0.1934331 0.1741009 0.21467586 -0.06691421 0.3441339
-0.52058125 0.41144788 0.32960594 -0.00027395523 -0.28543493 0.26835668 -0.09157062 0.6745788
-0.15729728 -0.07331359 0.024465766 0.2365019 -0.17914377 -0.076664895 -0.44862807 -0.57261056
0.16332075 0.4936848 0.24004295 -0.72435147 0.12061806 -0.53599894 0.07237555 0.3905403
0.5044158 0.21134283 -0.18158698 -0.20220837 -0.50980306 0.14853081 0.11242068 0.59574705
0.649333 0.23453727 -0.081440106 -0.19436665 -0.32076925 -0.43150476 -0.16127278 0.123175144
0.4007783 -0.28588605 0.09200584 0.47091776 -0.15905528 -1.1026754 -0.23592585 0.24759631
0.15834376 0.07891752 0.17365232 0.2098009 0.041853555 0.029200578 0.27752554 0.15143739
0.2198816 0.5504309 -0.37064627 0.183936 0.8557128 0.35280102 -0.43056908 -0.5479292
0.08922006 0.20465918 -0.21513397 0.16005732 -0.31855354 0.120594636 0.16686003 -0.40702364
0.71810603 -0.016653182 -0.49419978 -0.07995993 -0.30754492 -0.5269569 0.19125272 0.5404673
0.49244398 -0.46580368 -0.06430978 0.22665973 0.1276468 -0.38663262 0.0886401 0.47644666
-0.65978116 0.06370479 -0.36195266 0.18109412 -0.4746147 0.25737444 0.29255185 -0.7811588
0.37319085 -0.11279507 0.089746036 -0.370195 0.3377706 0.16319452 -0.40795174 0.46670595
-0.011446006 -0.17780359 0.033166323 -0.49870372 0.45977125 -0.34193146 0.35781518 -0.17047067
0.024301572 -0.08761276 -0.428287 -0.25549927 0.0054806555 -0.10429381 -0.46757022 -0.09537216
-0.38797924 -0.71841437 -0.3073557 -0.31836018 0.36655852 0.38203108 -0.38653582 0.8205478
0.13159394 -0.079429284 0.50846773 0.08915286 0.48973054 -0.31255385 -0.27664152 -0.019004587
0.12757815 -0.62381405 0.09341448 0.876076 0.04703304 0.2226913 0.6068378 0.3354202
-0.41702354 -0.11514359 -0.15065055 -0.27693713 -0.056985587 -0.2518495 -0.10089513 -0.11986675
0.6380782 -0.45071068 -0.25134787 -0.15738933 -0.02549477 0.42923665 0.11451532 -0.78930134

gnn_base.gnn.embed_layer.layers.0.bias f4 [16]
00000000: 9ba4 6ebd cdd5 323d d725 6d3d 8d40 9fbc
00000010: c2b4 843d e9f0 3abb ea5d b0bd 5686 a5bd
00000020: ae14 b2bd 4aae 04bc b58a b13d 4ecd 293e
00000030: ca47 2f3d 01a7 583e 56cd a53d 84b5 4ebe
-0.05826245 0.043660928 0.057897415 -0.01943996 0.06479789 -0.0028524941 -0.08611663 -0.08082263
-0.086953506 -0.008098194 0.086690344 0.16582224 0.042793073 0.21157457 0.08095805 -0.2018643

gnn_base.gnn.embed_layer.layers.2.weight f4 [16]
00000000: 67c7 5e3f 84c7 833f 0001 843f 8e68 913f
00000010: 0437 653f 42dd 853f 44b6 7b3f e553 593f
00000020: 0a38 8b3f ac08 8f3f 8c60 823f 6ffc 753f
00000030: 9d28 783f a350 993f 00b8 713f dd6b 903f
0.87023014 1.0295262 1.0312805 1.1360033 0.8953707 1.0458148 0.9832499 0.8489364
1.0876477 1.1174521 1.0185714 0.9608831 0.9693697 1.1977733 0.94421387 1.1282917

gnn_base.gnn.embed_layer.layers.2.bias f4 [16]
00000000: 85a3 093e dea8 cebd 1b32 113d 618a b3bb
00000010: 5965 c33d 940f 17be 99a9 4e3d bde9 27bc
00000020: eadc 07be bc44 d2bd 2ac4 eebd 87ad 103e
00000030: 0d95 3e3d e73f e1bd 5863 f53d d462 f93d
0.13441284 -0.100908026 0.035448175 -0.0054791425 0.09540815 -0.14752036 0.05045471 -0.010248599
-0.13267866 -0.10267016 -0.11658509 0.14128695 0.046528865 -0.109985165 0.11981839 0.12177053

gnn_base.gnn.gnn1.lin_key.weight f4 [48, 16]
00000000: 8038 86bc 1e35 bc3e 4055 7b3e 066b 873e
00000010: 6359 22be c348 98be bc22 7a3d f96e 0bbb
00000020: 7f93 d7be 16f2 a3bd 06c3 783e 877d 52bc
00000030: ea08 cfbd e32a e13d b6b5 0bbe 2c14 8a3e
00000040: 4e95 fcbc a0f8 3fbd 5f58 b13d 223d eb3b
00000050: 0094 a73d 9ec1 8ebe 4d33 bdbd 9dae e3bc
00000060: dd6a 303e 4535 6a3e 23e2 4c3d 4fb5 8c3d
00000070: d88d 233f 03aa 51be 4b38 8dbd e86c 79be
00000080: 195a f8bd 37d9 8bbe e6a0 a03d 990d ff3d
00000090: 4211 07bd e3c9 563d bc98 5c3c 4ba5 4b3d
000000a0: 7467 573d 46b7 203c a136 f43d 0c46 923d
000000b0: 6bca 86be 2dc3 493e efd2 ba3d 24bd 773d
000000c0: 5551 35bc e019 a53e 0b34 053f e177 b1be
000000d0: e4f0 12be f619 dabe 5858 643e 00e8 403e
000000e0: 0ccd 1abe 4064 0dbd eb96 ba3d 7fcb 80be
000000f0: 7730 573d 8431 603d a2e2 6ebd 761b d93d
00000100: cf90 443e 2855 abbe 52e3 18be 73f5 bb3e
00000110: 6ebf ce3d dcff a53e 7266 1e3e 46ba 183e
00000120: 02bb 3ebe 7601 ac3e b2c3 823d 88a4 a63c
00000130: 678f 2f3e d08b 913e 80d4 09be b331 753e
00000140: bc0d b7bd 88d9 ea3e ae7d 693e 6dc6 663d
00000150: 989a 31be 0d79 ddbe 3987 94bc 4e69 ab3e
00000160: 67a8 24bd f9d8 2e3e 3a41 a0bc af57 3fbe
00000170: cb05 dd3d f5b2 44be b09c 27bd 6867 cfbd
00000180: f984 4a3e b023 173e f154 93bd cd23 31bd
00000190: 7038 913e 433d 0b3d e6ed 80bd 6126 4ebe
000001a0: a7dd d6bd 3862 d7bd 6a8f 4abe af83 aa3e
000001b0: 0c12 443e e26b c5be b018 693d baee 083e
000001c0: eab0 923d 60db de3e f503 43be 3f85 0b3d
000001d0: c37c bd3d b3ed 85bd d91d 91bd 848e 033f
000001e0: bf23 e6bd 4a64 0d3d 8294 653e a6b3 b7ba
000001f0: 0789 ffbe 5cca 2a3e ee25 e7bd a517 c3bc
00000200: 777d aa3d 4733 0cbe e485 9c3e 67ea abbd
00000210: c7ce bb3e a418 24be 4ec8 a1bd 0a6f aabe
00000220: 41e3 a0bd 9dd5 8d3e 0281 4fbe 7c82 4f3e
00000230: acbd b13e c32c 8bbe 679b 8dbe af56 283d
00000240: a72d 253e 1c48 ab3e 13b4 ae3e 4250 d3be
00000250: 1094 c03c 0307 47be db7a dc3c f80c c93d
00000260: 61b9 ac3e a3d6 3ebe 8451 af3d 1fab c63e
00000270: 703a 49be 5c23 8fbe cc6c d13e a006 02bd
00000280: 9cbc 88bc 5a9d 073d 9a64 cdbe f5d3 0dbe
00000290: bf5e 3a3e 46ac a33e 0b09 c8ba 1db2 d13d
000002a0: 7e62 4dbe 8dc1 90be 6600 08bc 3fc2 aa3c
000002b0: 8319 e3be 0811 37be e440 2f3e fc36 353e
000002c0: 6e3e 9fbe 3123 9a3c 1cbd 033e f1ae 19be
000002d0: bd4f ca3d a247 a6be 3149 413d 174a 373e
000002e0: b438 a43c 1697 a23d 0788 213e 9429 2e3e
000002f0: 5080 6dbe cba0 0cbe 1260 d63d fd72 823d
00000300: 53f3 8cbc 2e95 24be aef1 993d d7a3 a63e
00000310: 7526 aabe 2ff2 61be 4d32 0e3e c47f bf3d
00000320: 07e2 fc3d b9fc 7fbe 00fd 0c3c 4b1b 363c
00000330: 702b b4be 4541 b53e 02ad e33c 675c 14bd
00000340: d98a 863e 4713 1dbe c0f6 13be 5ded 21be
00000350: 5195 f0bd 6228 38bd 01c6 fb3c 892e 17bf
00000360: 1e08 c03e de1e 8bbc da67 cdbe 6cdd 983c
00000370: c08a 163f c2f6 093e a7b1 203d e089 543e
00000380: 024b 823e 7429 b3be 4595 90be 10b6 0e3e
00000390: 4293 193e 3a21 a13e 225b 49be ef70 03bf
000003a0: 9630 f5bc e5af 99bb 136c d8bd b859 4fbe
000003b0: 0849 4f3e 754e b0bd e2c7 b63d c5ea aabd
000003c0: ef5c 023e a9a2 0dbf 6e67 08be 36cf 3cbe
000003d0: 1563 61be a3b9 f73c f53b a53d 9624 7f3e
000003e0: 5e39 f93e cf08 213e 8133 bf3e d36d d83d
000003f0: e82c f4bc 6181 13be 863f c43e c015 58be
-0.016384363 0.36759275 0.24544239 0.2644884 -0.15854411 -0.29743013 0.06106828 -0.0021275862
-0.42104718 -0.080051586 0.24293146 -0.012847311 -0.10109122 0.10994508 -0.13643536 0.26968515
-0.030832913 -0.046867967 0.086594336 0.0071789185 0.08182526 -0.27882093 -0.092383005 -0.027793223
0.17228265 0.22871883 0.05002035 0.06870519 0.6388831 -0.2047501 -0.06895503 -0.2435795
-0.1212656 -0.2731416 0.07843189 0.124537654 -0.032975443 0.052438628 0.013464149 0.049718183
0.052588895 0.009809321 0.11924482 0.07142267 -0.26326308 0.1970336 0.09122264 0.060483113
-0.011066754 0.32246304 0.52032536 -0.34661773 -0.14349705 -0.42597932 0.22299325 0.18838501
-0.15117282 -0.034519434 0.091108166 -0.25155255 0.052536454 0.05473472 -0.058321603 0.10600941
0.19195865 -0.33463407 -0.14930466 0.367107 0.10095106 0.32421768 0.15468767 0.14914808
-0.18626025 0.33594865 0.06384982 0.020342126 0.17144547 0.2842698 -0.13459969 0.2394474
-0.089381665 0.45869088 0.22801849 0.056341577 -0.17344129 -0.43256417 -0.018130885 0.3347878
-0.040199663 0.17074956 -0.019562352 -0.18685792 0.107921205 -0.19208892 -0.040920913 -0.10127145
0.19777288 0.14759707 -0.07193936 -0.043247033 0.2836337 0.03399397 -0.062953755 -0.20131828
-0.104914956 -0.105167806 -0.1978127 0.33303592 0.1914751 -0.3855887 0.05690831 0.13372317
0.0716265 0.43526745 -0.19044478 0.03406262 0.09252312 -0.06539478 -0.07085771 0.51389337
-0.11237287 0.03451947 0.22419932 -0.0014015331 -0.4990923 0.16678756 -0.112865314 -0.023814986
0.08324712 -0.13691436 0.305709 -0.08394318 0.36681196 -0.16025025 -0.07899533 -0.3328784
-0.07855845 0.27702036 -0.20264056 0.2026462 0.3471502 -0.27182588 -0.27657625 0.041098293
0.16130696 0.33453453 0.3412176 -0.4127217 0.023508102 -0.19436269 0.02691405 0.09816927
0.33735183 -0.18636565 0.0856047 0.3880243 -0.19651198 -0.27956665 0.40903318 -0.0317446
-0.016691498 0.033109047 -0.40115815 -0.13850386 0.18200205 0.31967372 -0.0015261484 0.102390505
-0.20057103 -0.28272668 -0.008300876 0.020844577 -0.443554 -0.1787759 0.17114598 0.17696756
-0.31102318 0.018815609 0.12865108 -0.15008141 0.0987849 -0.32476526 0.04718894 0.17899357
0.02004657 0.079389736 0.15774547 0.17008048 -0.23193479 -0.13733213 0.10467543 0.063695885
-0.01720587 -0.16072533 0.075168 0.32546875 -0.33232465 -0.22065042 0.13886376 0.09350541
0.12347799 -0.2499875 0.008605242 0.011114906 -0.3518939 0.3540136 0.027792457 -0.036220934
0.26277807 -0.15339385 -0.14449596 -0.15813203 -0.1174723 -0.044960387 0.030734064 -0.5905538
0.37506193 -0.016982492 -0.40118295 0.01866027 0.58805466 0.13473037 0.039231922 0.2075572
0.2544785 -0.34992564 -0.28238884 0.13936639 0.1499758 0.31470662 -0.1966367 -0.513442
-0.029930394 -0.0046901577 -0.105674885 -0.20249069 0.20242703 -0.086087145 0.08924843 -0.0834556
0.12730764 -0.55326325 -0.13320705 -0.1843842 -0.22010453 0.030239886 0.080680765 0.249163
0.4867658 0.15726016 0.37343982 0.10567822 -0.02980657 -0.14404823 0.38329715 -0.21102047

gnn_base.gnn.gnn1.lin_key.bias f4 [48]
00000000: df0b 1a3e 1470 68be 8e40 67be 7dda a53d
00000010: 863d 1a3d ccad 683e 7d9a 09be d660 6fbd
00000020: cca3 823d 0145 e13d 4c25 583e a0d6 633e
00000030: de9d fb3d 1027 d63c d505 dc3d 3d44 2a3e
00000040: 8e70 c23d 50e0 893c 9761 36be 57cd a7bc
00000050: cde0 01be 259c 7fbd 816d 313e fc9e 10be
00000060: 0d91 733e fbba 293e 2791 3c3e 36e8 f43d
00000070: 7e65 04be c31a 35be 9456 a1bd 371f 1c3e
00000080: 3a92 043e 6216 7abe 98a1 3d3e a2a5 24be
00000090: 60ea 18be e06f 14bd 0193 f0bd 6ef1 213e
000000a0: df24 11bc 2ab1 1fbe 297c 8e3d 0b42 ea3b
000000b0: 721f 7abe 0eff 293e fc5b 81bd 7c85 73bd
0.15043591 -0.22699004 -0.2258322 0.08098314 0.03765633 0.22722548 -0.13437839 -0.05844196
0.06378898 0.109994896 0.21107978 0.22249842 0.1228597 0.026141673 0.107433 0.16627593
0.09494124 0.016830593 -0.17810665 -0.020483656 -0.12683411 -0.06240477 0.17326929 -0.14123148
0.23785801 0.16575234 0.18414746 0.11958353 -0.12929341 -0.1768599 -0.078778416 0.15246283
0.12946406 -0.24422601 0.18518674 -0.16078809 -0.14933157 -0.036239505 -0.11746789 0.15814754
-0.008858888 -0.15594926 0.069572754 0.007148986 -0.24426058 0.16601202 -0.06316373 -0.059453472

gnn_base.gnn.gnn1.lin_query.weight f4 [48, 16]
00000000: fc07 103e be1d e6bc 798f fd3e a4aa c9bd
00000010: d517 dd3e 0576 fc3d 6d14 2ebe 8fe0 f93d
00000020: 1542 413c ec68 423e cb99 72be a125 01bd
00000030: 1e14 963d 4589 2a3e 8c93 0abe a58a 04bd
00000040: dfd4 97be a811 50be e558 303c 7395 c83e
00000050: 5d59 f7be faa3 b23e 283a 58bd 3b02 793e
00000060: 8204 6c3e e75b 683e 8a30 983e 50de 58be
00000070: 047f 9cbe ee3e 61be 7372 60be 8829 6e3e
00000080: 2b58 093e bfda 7f3d 1694 04be a2bb 9bbe
00000090: 67d8 9b3c c675 9d3c 9868 223e 3f74 a33e
000000a0: 1c60 133d eb7a 083c ea52 e93c b3c9 3a3e
000000b0: c6c9 a8bc 7dfa 413e bc2b 9f3e 44b0 31b9
000000c0: 06bb ce3e 2859 21be 3420 b83e ae92 e6bd
000000d0: 2cdb 993d bfb0 193e 4d7c 6bbe 7017 7abd
000000e0: bc0f dfbd 6575 6e3e 7d1d 583d 0991 a6be
000000f0: 26f0 153e 3c51 a03d 9943 89bd 028d d0be
00000100: 63fd 26be 6ccf 4f3e ac07 623e 33a0 c13d
00000110: e1a9 16bd 1ca2 ddbc ce18 f33d 45e2 943e
00000120: 0d01 ea3d b9ac 7abe 4566 e0bc fa72 af3e
00000130: c3e6 7dbe 30b3 043e 4b01 29be bcf7 d43e
00000140: c7e5 39be bb6f b7be 4ae0 ad3e c67a a63e
00000150: 3a79 503e 10c5 013e 6072 77be e0e6 473e
00000160: b230 3abd 9d05 de3d 6324 74be db2a eb3d
00000170: 2f80 353e c9ca c3bc ffed 913d 0237 98be
00000180: 55aa 68be 1a5f cc3d 4ae5 bbbe 5388 e23d
00000190: c344 a3be 3587 873e 803a 693d e6b5 3bbe
000001a0: 020a 16be 6860 a43e f328 c8bd ff84 6f3e
000001b0: 77d5 c4bd 72d3 a2be 81f5 7bbe b737 5b3e
000001c0: 5de2 a2bd 2470 4ebd 44b5 d03e 7868 64be
000001d0: 1832 2d3f 8035 edbd 1110 44be 937e d3be
000001e0: e40f 69bb 00e8 783c ed50 c5be 078a 4e3e
000001f0: fe74 bb3e 21c1 8b3d 0c84 fb3d e95d 0bbe
00000200: 13c8 7d3d 303c a5bc cdad 88be bf83 c53e
00000210: 295e febe 6782 f63e 91bb 3e3c 285c 6c3e
00000220: 2ba9 a33d dac1 e43e 7039 e13c 7a07 223e
00000230: 8e38 67be 36be 81bc 5497 dcbc 4f49 8e3d
00000240: 0952 683e 46b8 7ebc 9cc6 6ebe 1a50 a03d
00000250: e0c5 223c e114 ccbc 919e aabe f341 dfbe
00000260: b1cc 1abe 42ca 6d3e a1df 393e 53c8 c5be
00000270: 0559 303f af10 40be 1217 573e 6f64 afbe
00000280: c571 913d 26b4 cd3d c668 9dbd dc99 2fbe
00000290: d3cc 523e 817c 85be c484 033b 0f46 3abe
000002a0: 5d2c e4bd d12b 0d3e 0d94 f9bd 63b4 903e
000002b0: 3a3a 3a3d 31b0 7abe 0318 c43e bf01 39bd
000002c0: a91d 653d 7fc2 793d ee8f 033e 645a bcbd
000002d0: 69a1 09bd 84a2 643d f31b 3dbe ce8e 203e
000002e0: 414a 993e 4252 573d c811 fbbd b65c c3be
000002f0: 7ca7 bb3e 87be e93c 12e3 7cbc 3ef6 273b
00000300: 4ae9 68be e4df 38be 8601 a5bd 2503 b3be
00000310: 1aac 793e 68ad adbe ea29 343e 410f f63d
00000320: fe4d 8abe 10be bcbe f01b 81be 3c2f 8ebe
00000330: f658 9fbc 2879 c93e dcac 86bc ef82 08be
00000340: 797a 243d c2b8 853e 16ae 40bd 697f 093e
00000350: 6d21 15bf 4fc5 8e3c 276a 243e d34b 3f3e
00000360: b9c8 5a3d 8257 183c 1def d93e 77cc 32be
00000370: 5848 68be 84a8 c5bd f741 aabe 0230 b53e
00000380: ce95 d73d f470 0c3e 5d47 dabe ecf5 fd3c
00000390: a7f5 7bbe 9114 9d3d 3f43 003f f005 8a3d
000003a0: 7ff9 9abe b9fb e1bb 0246 533e 75fe 2c3e
000003b0: ae07 27bf 7285 133e f730 3c3e 5ef0 013e
000003c0: c1c1 65bd 4d74 04bf f7f1 35be 8cae 07be
000003d0: a707 78be 472d 6bbe 1dec 113c 10f4 01bd
000003e0: d455 173e ccbc b3bd 4296 0d3f 0b2b f3bb
000003f0: c2f2 bf3e df1a 0a3c e3a6 1e3e ec60 1dbd
0.14065546 -0.028090354 0.49523523 -0.09847 0.43182245 0.12327198 -0.1699998 0.12201034
0.01179554 0.18985337 -0.2369148 -0.031530026 0.07328056 0.16653927 -0.13532847 -0.032358784
-0.29654595 -0.20319235 0.010763382 0.3917652 -0.48310366 0.3489073 -0.052789837 0.24317257
0.23048595 0.22691308 0.29724532 -0.21178555 -0.30565655 -0.21996662 -0.21918659 0.2325803
0.1341254 0.062464472 -0.12947115 -0.3041659 0.019024087 0.019221198 0.15860212 0.31924626
0.03598033 0.008330087 0.02848192 0.18241005 -0.020604026 0.1894321 0.31088054 -0.000169457
0.40377063 -0.15756667 0.3596207 -0.11258446 0.07512507 0.1500883 -0.22996636 -0.061057508
-0.10891673 0.2328697 0.052762497 -0.32532528 0.1464239 0.07827994 -0.06702346 -0.4073258
-0.16307597 0.20293969 0.22073239 0.09454384 -0.036783103 -0.027054839 0.118699655 0.2907888
0.11425982 -0.24479951 -0.027392516 0.34267408 -0.2479506 0.1295898 -0.165044 0.41595256
-0.1815406 -0.3582743 0.3396018 0.32515544 0.20358744 0.1267283 -0.24164724 0.19521666
-0.045456596 0.108409144 -0.23842005 0.114827834 0.1772468 -0.023900406 0.07125472 -0.29729468
-0.22721227 0.09979077 -0.3669837 0.11061158 -0.318884 0.26470342 0.056940556 -0.18331107
-0.14652255 0.32104802 -0.097734354 0.23390578 -0.09611028 -0.31801945 -0.24605371 0.21407972
-0.079533316 -0.050399914 0.40763295 -0.22305477 0.6765456 -0.1158247 -0.19146754 -0.41307506
-0.003556245 0.015192032 -0.38538304 0.20169841 0.36612695 0.06823946 0.12281045 -0.13610043
0.061958384 -0.020170301 -0.266951 0.38577077 -0.49681213 0.48146364 0.011641399 0.2308203
0.079912506 0.44679147 0.027493209 0.15823165 -0.22580168 -0.01583777 -0.026927628 0.06947576
0.22687544 -0.015546864 -0.23317951 0.07827778 0.009934872 -0.0249123 -0.33324102 -0.43605003
-0.15117146 0.23221686 0.18151714 -0.38629398 0.68885833 -0.18756364 0.21004894 -0.34256312
0.07101778 0.10044126 -0.076859996 -0.17148536 0.20585947 -0.2607155 0.0020068148 -0.18190788
-0.11141274 0.13786246 -0.121864416 0.28262624 0.045465685 -0.24481274 0.3829957 -0.04516768
0.05593649 0.0609765 0.12847874 -0.09196928 -0.0336012 0.05581905 -0.18467693 0.15679476
0.29939464 0.05256868 -0.12259251 -0.3815667 0.36651218 0.028533233 -0.015434997 0.002562895
-0.22745243 -0.18054157 -0.08056931 -0.34963337 0.24382058 -0.3392136 0.17594114 0.12014628
-0.27012628 -0.36863756 -0.25216627 -0.27770412 -0.0194516 0.39350247 -0.016439848 -0.13331197
0.04015586 0.26117522 -0.04704102 0.1342751 -0.5825413 0.017428068 0.16056119 0.18681268
0.05341408 0.009298207 0.4256524 -0.1746081 -0.22683847 -0.096512824 -0.33253452 0.3538819
0.1052662 0.13714963 -0.4263257 0.031001054 -0.24605428 0.07669938 0.5010261 0.06739414
-0.30268475 -0.0068964628 0.20632175 0.16893943 -0.65246093 0.14406374 0.18378054 0.12689349
-0.05609298 -0.5173996 -0.17768084 -0.13250178 -0.24221669 -0.2296649 0.008906391 -0.031726897
0.14778835 -0.087762445 0.553074 -0.0074209026 0.37489897 0.008429258 0.1549335 -0.03842251

gnn_base.gnn.gnn1.lin_query.bias f4 [48]
00000000: 460e 01bd 9d9c 03bd ad1b 7d3d f55f ce3e
00000010: 4782 c7be 9765 8c3e 07fd 173e 01b5 073f
00000020: 8951 60bd 2a58 d73e 6bf3 7a3d 4930 893d
00000030: ca8c 0cbc 3b2d 78be 7b6f 17bf 6c64 533e
00000040: f552 8cbd 6c55 b2bc 9e68 11be 592f d3be
00000050: 88a3 11be 1507 18bd 4803 ba3c cb32 bc3e
00000060: 8909 b53e 23c1 5d3e 5949 95be 1a2c 8dbc
00000070: 4388 5e3d 0470 f6bd 598f ab3e b75e 9dbe
00000080: a454 d63e 164b 823e ab53 13be 4e67 ef3e
00000090: 6681 11be 5c3a fa3d 6ac5 0f3d 32f7 82be
000000a0: 1675 b23e 1364 973e d54d 043e 92ed 6fbe
000000b0: c97a dfbe 3dae 6d3e 5680 d8be 1282 57be
-0.031507753 -0.03213178 0.06179397 0.40307584 -0.3896658 0.27421257 0.14842616 0.53010565
-0.054765258 0.4205945 0.061267298 0.06698663 -0.008578489 -0.24236004 -0.5915448 0.20643777
-0.0685176 -0.021769248 -0.14200065 -0.4124706 -0.14222538 -0.03711613 0.022706643 0.36757502
0.35358837 0.21655707 -0.29157522 -0.017232943 0.054329168 -0.12033084 0.33507803 -0.30736324
0.4186145 0.2544791 -0.14387386 0.46758503 -0.14209518 0.122181624 0.035100378 -0.2557922
0.34854954 0.29568538 0.12920316 -0.2343047 -0.43648365 0.23210998 -0.42285413 -0.21045712

gnn_base.gnn.gnn1.lin_value.weight f4 [48, 16]
00000000: 2426 75be be5d 5fbe 38b1 783e 821b 1abe
00000010: 6fd8 16bc c956 8d3e 8090 e6bd bd28 b2be
00000020: e9ff b13d fd1a 013e 45d2 c23d 9382 383e
00000030: 9c4f b0bd d89d df3c c31a 943d 42e4 193e
00000040: de2c 86be 5499 a63e 0b66 87be d174 5d3e
00000050: 9741 7ebd 6508 6e3d 824c 5abd f3e0 053e
00000060: a79a b9bd b41c 59be fe19 803d f888 ccbe
00000070: 8c5b d83d 7af4 9e3c c98d b03e 58f8 af3e
00000080: 7d0f 593e 9526 25be e2dd fb3d 9ac5 5e3e
00000090: 1eda 2abe 20b1 43be 02fb 473b 581f b43d
000000a0: 92a5 483e 5b9d b83e 117c bb3d 5a7d f63e
000000b0: 1c86 113d b4ff 20bf 3463 49be 00ad 4b3e
000000c0: 3edf 3c3e 888d 113e b9ea 11be e1d3 253c
000000d0: 128a a93e 0b48 bbbd 2325 b43d 341b 91bc
000000e0: 4f44 09be f5bb a8be f6a9 243e 1509 303e
000000f0: 89a4 1a3d 3542 c1bd 914c 723e f5b1 c53e
00000100: b88d 65be 7e44 b33e 091f 10bd 0af6 a3be
00000110: dee3 0abe f0a7 0ebe 68f1 a33e 2eae c83b
00000120: 21c7 0c3e 511e a73e e091 2e3e 9fce 90be
00000130: 1c0b 8e3e deab 563d af68 62bd d7ef d1bd
00000140: 4ecf 533e 2f57 0cbe edfb 823d 7f40 403e
00000150: 3e02 523b f363 0f3e 3a39 973e 847c 8bbe
00000160: 6cfe aa3c 50a8 e73d d3a0 24be 614f d63e
00000170: 513c 083e 774b ccbe 78aa 37bd a98f 2fbe
00000180: 168a e93d 852e 4ebe fc2a 9bbc 0646 393e
00000190: 423c e13d 7b9a 033e 33cb 09bd e2f8 993e
000001a0: fb40 1e3c 76df 55ba f3d8 4ebd 0e48 30be
000001b0: 9971 73be 414e 3fbe f60c 3fbd 08f7 babd
000001c0: 2daa 96bb 458e 8dbc da7d c5bd 459b 32be
000001d0: 982f 0fbd 9e26 aa3e 9d68 38bd c4ad 4ebe
000001e0: 14d4 d4bd e793 a43e 2a64 2c3d 991e 4cbe
000001f0: 6652 433c 04bd edbc 6eed e1be b241 5fbd
00000200: b852 a13e 8397 2fbe 7671 eebd 6efe 843b
00000210: d47b 25be 7b18 6c3e a3cd 9b3e 03af 94be
00000220: 4c30 ffbe ff67 413e 7fa7 6ebe 75f3 06be
00000230: 7d08 bf3d 6b04 5bbe 8e83 913d 5434 42bb
00000240: 5696 b23e a62d ff3a a8b5 353e 1819 64bd
00000250: 6de1 3bbe 666b e03a 394c cd3d bc1d be3a
00000260: d8e1 db3d d384 773e 6098 c8ba 9a5b 753e
00000270: 6675 913d dc27 b73d 6a19 e2bd c049 773e
00000280: dadc 013e 0d2a 3cbe 49ac 4bbc 4774 643e
00000290: d2d8 3d3e efad 7a3e 6345 d9be c245 9f3d
000002a0: d64c 863e 87f9 b5be 06bd 4dbe 96d8 f73d
000002b0: 2555 2bbe 2a50 22be 620a dcbb 3127 053e
000002c0: b077 be3d 8a3a 37be d901 a63e 6187 673d
000002d0: 8e96 5dbe cf99 623e 1dca 76bd 98da b4be
000002e0: 2504 843e 3bf4 473e b134 1cbd ff90 443e
000002f0: 647e a1ba f33e 6fbe 63c7 80be 09d2 da3d
00000300: fc23 2d3e 5135 28be 0281 81be 1ad4 883e
00000310: c44d 86be 31bc 993e 3423 17bd aa0b 133b
00000320: 1094 5ebe baf1 35bb ea77 cebc 2964 8abe
00000330: 732a 43bd 3afa a43e 7645 98be 2f8a e4bd
00000340: a0fc 93bd 4a24 1abe 8075 7d3d c836 01be
00000350: beab 18be f8e3 4c3e e1c2 85bd dcd1 b23d
00000360: d982 013e 1069 273e ca51 663e 4142 6cbd
00000370: 7da6 d2bd 9524 fd3d dc3c 1ebe 76e2 d3bd
00000380: 13ac 94be 6a0a d1be fa92 d43d bfe6 25be
00000390: 5cd6 823e 0c08 bb3e baab 3fbd eab6 3c3e
000003a0: b873 0b3e c729 26be e7d2 31be 3524 d6be
000003b0: 11f7 a6be eb3d dfbd 0a4e afbe 8368 18bd
000003c0: e571 3b3e bae4 1bbe 1532 a3be c89c 1b3e
000003d0: d81e 6e3e 4241 e0bd 7cba 5c3e 87b9 643e
000003e0: c752 83be fd47 bfbd 02bd ec3d a7f6 103d
000003f0: 0f80 abbd 555f 913e 2a2a 72be 67dc c03c
-0.2394033 -0.21813104 0.24286354 -0.15049556 -0.009206875 0.27605274 -0.1125803 -0.34796706
0.08691389 0.12607951 0.09512762 0.1801856 -0.08608934 0.027296945 0.07231667 0.1502848
-0.26206106 0.32538855 -0.2644504 0.21626593 -0.06207427 0.058113474 -0.05329562 0.13074093
-0.09062701 -0.21202356 0.062549576 -0.3994825 0.10564336 0.019403685 0.34483173 0.3436916
0.21197315 -0.16127999 0.1229818 0.21755067 -0.16684768 -0.19110537 0.0030514603 0.08795041
0.1959441 0.36057553 0.09154523 0.4814251 0.035528287 -0.6289017 -0.19666749 0.19890213
0.18444535 0.14214146 -0.14249696 0.010121317 0.33113152 -0.091446005 0.08796146 -0.017713167
-0.13404964 -0.329559 0.1608046 0.17190965 0.03775457 -0.09436456 0.2366202 0.38612333
-0.22417343 0.35013193 -0.035185847 -0.3202365 -0.13563487 -0.1393125 0.32020116 0.0061242795
0.13747837 0.32640317 0.17047834 -0.2828264 0.2774285 0.05241 -0.055275615 -0.10250824
0.20684549 -0.13705133 0.06395707 0.18774603 0.0032044793 0.14002971 0.29535848 -0.27243435
0.02087327 0.113114 -0.16076975 0.41857436 0.13304259 -0.39901325 -0.044840306 -0.17144646
0.11403291 -0.20134933 -0.018941395 0.18093118 0.109978214 0.12851898 -0.03364105 0.30072695
0.009659047 -0.00081586035 -0.050499868 -0.17214987 -0.23773803 -0.18682195 -0.04664322 -0.09129149
-0.0045979233 -0.017279753 -0.09643145 -0.17442043 -0.0349575 0.33232588 -0.045021642 -0.20183474
-0.10392013 0.3214409 0.04208771 -0.19933547 0.011921501 -0.029020794 -0.44126457 -0.05450601
0.31508422 -0.17147641 -0.11642735 0.0040586507 -0.16160518 0.23056214 0.30430326 -0.29039773
-0.49841535 0.18887328 -0.23306082 -0.13178809 0.09327791 -0.21388404 0.0710517 -0.002963324
0.34880322 0.001946856 0.17745078 -0.055687994 -0.18347712 0.0017121851 0.10024304 0.0014504711
0.10736436 0.24171762 -0.00153042 0.23960724 0.0710247 0.089431494 -0.110400036 0.24149227
0.12681904 -0.18375416 -0.012431213 0.22309981 0.18539742 0.24480413 -0.4243575 0.07776977
0.26230496 -0.35541937 -0.20091638 0.12101857 -0.16731699 -0.15850893 -0.006715105 0.13003232
0.09300172 -0.17893425 0.32423285 0.05652559 -0.21639463 0.22128986 -0.060251344 -0.35323024
0.25784412 0.1952676 -0.038136188 0.19195937 -0.0012320993 -0.23363857 -0.2515212 0.10684592
0.16908258 -0.16426589 -0.25293738 0.2672432 -0.26231205 0.3002639 -0.036898807 0.0022437372
-0.21736169 -0.0027762488 -0.025203664 -0.2702954 -0.047647905 0.32222158 -0.29740494 -0.11159169
-0.07225919 -0.15052906 0.061879635 -0.12618554 -0.14909264 0.20008838 -0.06531311 0.08731434
0.1264757 0.16348672 0.22492138 -0.057680372 -0.10285661 0.12360493 -0.15452904 -0.10345928
-0.29037532 -0.40828258 0.10379596 -0.16201304 0.25554168 0.36529577 -0.04679463 0.18429151
0.13618362 -0.16226874 -0.17365609 -0.418245 -0.32610372 -0.10900482 -0.34239227 -0.037209045
0.18305166 -0.15223971 -0.31874147 0.15196526 0.23253953 -0.10949947 0.21555513 0.22336398
-0.25649092 -0.093399025 0.11559488 0.035391476 -0.083740346 0.28393045 -0.23648897 0.023542596

gnn_base.gnn.gnn1.lin_value.bias f4 [48]
00000000: 9a12 c2bb 943f 5ebe 639c d8bd e2d3 ff3d
00000010: c14a 083d 9802 fb39 11b6 823d c28a febd
00000020: ae56 f3bd d9f9 aabe 9f82 aebd cf9e 70be
00000030: 0cde 9c3d 634b bdbe 2858 04be 4cd7 4b3d
00000040: e44b dcbc c3ab 4dbe dbb3 07be e6d2 573e
00000050: 759b 8cbe 9036 6b3e 6e35 86bc c1f4 41be
00000060: ab62 37bd dfe6 dfbc 5776 f1bd 3351 aa3d
00000070: 01b8 cb3c 8c5e c43c 44eb 2b3e 769f 553e
00000080: 0eb4 31be 5425 8ebe 6204 e2bd d41a a03d
00000090: e1e0 4bbe ef6d b23d 906c 403d 690a 5e3d
000000a0: 5cd0 b8be b03d f7bc 68c7 d7bc 79af 4abe
000000b0: a1e9 723e beb1 16be 5d2a 3ebe 1524 8abd
-0.0059226276 -0.2170394 -0.105767034 0.12491585 0.033274416 0.00047876383 0.06382383 -0.1242881
-0.11881767 -0.33393744 -0.08521008 -0.2349808 0.076595396 -0.36971578 -0.12924254 0.04976587
-0.026891656 -0.20085053 -0.13252203 0.21076545 -0.27462354 0.22970033 -0.0163829 -0.18941022
-0.04477183 -0.027331768 -0.1179015 0.08316269 0.024868013 0.023970865 0.16788965 0.20861611
-0.17353842 -0.27762854 -0.11035992 0.07817617 -0.19910003 0.087123744 0.046978533 0.054209147
-0.36096466 -0.030180782 -0.026340201 -0.197935 0.23721935 -0.14716241 -0.18570848 -0.06745163

gnn_base.gnn.gnn1.lin_edge.weight f4 [48, 1]
00000000: 7a43 81bf 86d9 143f b856 143f 0304 08be
00000010: 6b97 6b3e 6c6c babf 1ab4 363f c3c3 38bf
00000020: 3ee6 483f f4e6 cabe 1d57 673e b60b b4bd
00000030: d3f9 ae3d 271f 773f 6a9d 793f d3ab b9be
00000040: 68bc 29be a25c e4bd f0c1 74bd 3513 a3bd
00000050: ab9c aabe e6f9 26bf 38c5 303f c0a8 d7bd
00000060: 8c01 c83d aeed 0abf f13f 2b3f 63c1 423c
00000070: 8700 bb3e fff6 9d3e 5d76 53bf 5809 533f
00000080: 9ed7 a4bf bf97 a4bd 07d0 b83e 058b 27bf
00000090: 1990 00bc 5bcc b7be 7f98 66bf 1e99 543f
000000a0: e9d5 11bf 0925 75bf 1452 32be 21f2 dbbe
000000b0: e9fc 733f 9b52 4e3e 3958 353f ffa3 2e3f
-1.0098717 0.58144414 0.5794482 -0.1328278 0.2300698 -1.4564338 0.71368563 -0.7217371
0.7847632 -0.39629328 0.22591825 -0.08791296 0.08543744 0.9653191 0.9750582 -0.36263904
-0.16575778 -0.11150481 -0.059755266 -0.07962648 -0.33322653 -0.65225065 0.6905093 -0.105302334
0.0976592 -0.5426892 0.6689444 0.011886927 0.3652384 0.30852506 -0.82602483 0.8243613
-1.2878301 -0.08036756 0.36096212 -0.654465 -0.007846856 -0.35898098 -0.9007644 0.8304614
-0.56967026 -0.95759636 -0.17414123 -0.42958167 0.95307785 0.20148699 0.7083774 0.6821899

gnn_base.gnn.gnn1.lin_skip.weight f4 [16, 16]
00000000: a596 4dbe 095a 26be c9f0 fd3d 4bf8 8dbe
00000010: 76b9 843e accc 6cbd 7e7d 4ebd 0635 83bd
00000020: 3f18 da3c 377f 363e 612f e53d c7e0 0c3e
00000030: a687 753e f2af 3abd 9639 e33d a620 113e
00000040: 7c80 0f3e 34cb ba3e 9644 03bf d073 b83c
00000050: a9b9 3a3e 4bc8 99ba a6ce 793d ebc5 eabd
00000060: 788b f7bd eb41 25bd 6e9b b63c b8fb 3abe
00000070: fa45 c43d a506 ec3d 25f1 4a3d c51a e23d
00000080: 26d8 fc3d db7e a2be 8613 903e b5b8 f1bd
00000090: 650e 9c3e 985c 76bd f9c8 8fbe 45e2 94bd
000000a0: 24ab 9dbd 683c 28bc 464b 07bd 61a9 eabd
000000b0: 918c 0e3e 0271 c5be 6e5d 733e 13ac 433e
000000c0: 2ccd 2cbd 5f45 153e cf39 8fbe 680d b93d
000000d0: d779 ffbd 8a53 4bbd 3a29 b3be eddf ddbd
000000e0: 10e0 f73d 24d5 49be 1e48 873d 62d4 073d
000000f0: c887 8cbe c36e 1b3e 35d7 963e 9367 943e
00000100: 2036 34be 2d3a 503e ed0a 273e 35bb 553d
00000110: 4b18 1ebf aaa0 04bd c7f4 f5bd afad 56be
00000120: 532b 23bd fe29 913e 8f37 9d3d a843 453e
00000130: eaac b4be 6f80 f93d 31da aa3b 331c 923e
00000140: 78b6 bdbb 42ce a0be 029d 6e3e 5dba 8abd
00000150: 425b c93d f69e 8a3c d38a 1d3e ca77 cc3c
00000160: 5b8e ff3c 1442 083e 5804 abbe a005 8fbc
00000170: c5e8 1b3e c198 efbd 80ee 5cbe 7861 fc3d
00000180: ff92 893e 3d48 76bd 3b25 19be 4666 e93d
00000190: bb85 7c3e 8d51 64be 420d 4b3e c29b 8f3e
000001a0: 21f5 93bd a5f8 a9be b8cf e2bd c2ef 94bd
000001b0: 558d d23c 011a 6ebd 9bdc 9dbd 31f4 4a3d
000001c0: ce93 a2be ac66 83be 5b01 52be d9cf 71be
000001d0: 647e 82be 9898 563e 1c61 80bd 3ca1 013e
000001e0: db8a 1cbe 787b 90bd 8d0b 4cbe 647a 98be
000001f0: 232f 663e dd20 8e3d c62b 67be ef4e 153e
00000200: cf63 9f3e 2b6f 873e 63ac 163e 5a27 143e
00000210: 2373 3fbd b9cf 863e 1e8b 913e c351 3c3e
00000220: ce73 a0be a956 a33e b857 b0bc 18a3 54bc
00000230: e332 3e3d 2715 91be 320d 99be 0195 b93e
00000240: f9df 623e 599e 0abd ea5d 803c 2769 98be
00000250: 6144 8abe 614c 9ebe e101 ce3d 8d45 e73e
00000260: bc6e e83d befa 7b3d 2e02 fa3d 04b8 0a3e
00000270: bec4 113e b099 853e 354f 943e 950b f3bc
00000280: 9546 a3be 63a6 153f 4977 37bc 4e75 c03e
00000290: 4935 7f3d 715f 453c 950a f8bd a571 7e3e
000002a0: 972e 173e 2f95 4b3e 4866 b43d f72f 953d
000002b0: 4aca b13d c358 96be ef76 61bd 2d53 293d
000002c0: b302 673c 7490 8cbe 7a8f 963e 5a7c a53d
000002d0: 2832 d13d 5181 3a3e b84e 603d ff49 59be
000002e0: 9cbf a8bd e0b3 87be da1a 1ebe 064c e3bd
000002f0: 6514 afbb c38d 413d dc31 afbe d455 64be
00000300: 657a 33be e7fe 543e 021c 5cbc c5c3 26bd
00000310: 3ce1 2bbe 4492 9b3e bffa 853e 374b a03d
00000320: 9047 a63d 7ec7 2c3e 2922 ad3d b5ec a9bd
00000330: 40af 58bd e659 ca3e 29f9 83be 53e5 343e
00000340: 3f32 2c3e 1fcd 34be 3f47 8fbe 3458 63bd
00000350: 26ab ccbd 69ac 8d3e 06f6 4a3e 8fda 92bb
00000360: 5c92 4b3e a534 40be cb7d 4ebd 5659 48be
00000370: 22b7 acbe 4416 85bd 93a3 debd 9f7d 1f3e
00000380: 53f4 aebe 9ab8 d2bc e3d0 2f3c 0af5 cfbd
00000390: 1c60 36be 8fa7 be3e 23eb adbc 6b99 543b
000003a0: 3fad 9abd 5071 753d 3a99 a2bc 17a5 ec3d
000003b0: 4190 dfbe 0b0c acbc 0612 a53c 9579 76bd
000003c0: 4753 90be f91b 863e dd05 983d c015 033f
000003d0: 392d cf3d c0bb 393c f1e1 223e 423e 51bd
000003e0: beb1 663e 2c0a 683e 0ae1 5abe c4a2 7d3d
000003f0: 2074 29bd 6b08 73bd 1eca 23bd 96cc 1e3e
-0.20076998 -0.16245283 0.12399442 -0.27728495 0.25922745 -0.057812378 -0.050412647 -0.06406598
0.02662289 0.17821966 0.111906774 0.13757621 0.23977527 -0.04557795 0.11094968 0.1417261
0.14013857 0.36483157 -0.5127653 0.022516161 0.18234886 -0.0011732666 0.06098809 -0.11463531
-0.120871484 -0.040346067 0.022290912 -0.18260086 0.095836595 0.11524705 0.04954638 0.11040262
0.123459145 -0.31737408 0.28139895 -0.11802808 0.30479732 -0.060146898 -0.28083017 -0.0726972
-0.07698658 -0.010268308 -0.03303077 -0.11458088 0.1392081 -0.3856278 0.2376611 0.1910861
-0.042187855 0.14577244 -0.27973792 0.0903576 -0.12474411 -0.049640216 -0.3499239 -0.10833726
0.121032834 -0.19710213 0.06605552 0.03316153 -0.27447343 0.15178971 0.29461065 0.2898527
-0.17598772 0.20334692 0.16312762 0.052180488 -0.6175582 -0.032379784 -0.12009578 -0.20964693
-0.03983624 0.2835235 0.076766126 0.1926409 -0.35288173 0.121827 0.0052139987 0.2853714
-0.0057895742 -0.31407362 0.23302081 -0.06773827 0.09831859 0.016921502 0.15384988 0.024959464
0.03119581 0.13306457 -0.33401752 -0.017458737 0.15225513 -0.11699057 -0.21575356 0.12323278
0.26869962 -0.060127486 -0.14955609 0.1139646 0.24660389 -0.22296734 0.19829276 0.2804852
-0.07224489 -0.33197513 -0.110747755 -0.07272293 0.025702158 -0.058130268 -0.07708093 0.049549285
-0.3175339 -0.2566427 -0.2050833 -0.23614444 -0.25487053 0.20956647 -0.06268522 0.12659162
-0.15287344 -0.070548 -0.19926281 -0.29780877 0.22478919 0.06939862 -0.22575292 0.14580892
0.31130835 0.26452002 0.14714198 0.14468136 -0.046740662 0.26330355 0.2842645 0.18390565
-0.31338352 0.31902054 -0.021526203 -0.012978338 0.046435248 -0.2833645 -0.2989288 0.36246493
0.22155751 -0.03384242 0.015669782 -0.29767725 -0.27005294 -0.30917647 0.10058952 0.4517025
0.11349246 0.061518423 0.12207447 0.13546759 0.14235207 0.26093817 0.2896668 -0.029668609
-0.31889787 0.5845701 -0.011197873 0.37589496 0.062306676 0.012046681 -0.12111393 0.2484804
0.14763866 0.19881128 0.08808571 0.07284539 0.08681162 -0.29364595 -0.055045065 0.04133909
0.014099765 -0.2745396 0.2940634 0.08080359 0.10214645 0.18213393 0.054762572 -0.21219634
-0.082396716 -0.2650442 -0.1543993 -0.11098485 -0.0053430074 0.047254335 -0.34217727 -0.22298366
-0.17527159 0.20800363 -0.013434412 -0.040714044 -0.16785139 0.3038503 0.26167867 0.07826846
0.08119118 0.16872975 0.08453781 -0.082971014 -0.052901506 0.39521712 -0.25776032 0.17665605
0.16816042 -0.17656372 -0.27984044 -0.05550404 -0.099935815 0.276706 0.19820413 -0.0044816206
0.1988005 -0.18770082 -0.050412934 -0.19565329 -0.3373347 -0.064983875 -0.10871043 0.15575264
-0.3417078 -0.02572279 0.010730955 -0.10154159 -0.178101 0.37237212 -0.021230286 0.0032440077
-0.07552575 0.059922516 -0.019848455 0.11554926 -0.43664744 -0.021001836 0.020150196 -0.060174543
-0.28188536 0.26193216 0.07422993 0.5120506 0.101160474 0.011336267 0.15906502 -0.051084764
0.22528741 0.2266013 -0.21374908 0.061922804 -0.04137051 -0.0593342 -0.039987676 0.15507731

gnn_base.gnn.gnn1.lin_skip.bias f4 [16]
00000000: 9c21 263d 7120 4d3d 28ed 87bd f201 933e
00000010: da4c 283d 9b6f 9b3c 2434 8f3d 26cf 243e
00000020: ff97 41be 1f68 b23d 24c5 81bd deaa 84be
00000030: 3178 eb3d 5a56 f4bd b4bf 59be 09b3 8b3e
0.040559396 0.050079767 -0.06637031 0.28712422 0.041088916 0.018974116 0.06992367 0.16094646
-0.18905638 0.08711266 -0.0633643 -0.2591161 0.11497534 -0.11930533 -0.21264535 0.2728503

gnn_base.gnn.gnn2.0.lin_key.weight f4 [48, 16]
00000000: 2177 99be 37fd 7b3e 4662 e53d c6df 43be
00000010: cfd3 1dbe 19d9 ffbd eadb 2c3e dd22 0b3e
00000020: e696 2c3e 2581 4cbc 3285 28bc 34d7 743d
00000030: ea14 db3d 5aba 093e aa19 df3b ed08 013e
00000040: 0fe3 493e f160 c63c 3abe 2e3e 48e6 11be
00000050: f9cb 66be d4ed a13e 85bb c33c 44b1 913c
00000060: fe3a 783e fc09 38be f737 793d ef1f b9be
00000070: 1908 0b3d 49d9 d43d f1c2 a1bd df1d 033e
00000080: 05b5 6bbe c001 c03c 1749 f13d 9182 9dbe
00000090: beb0 b8bc e342 9dbe 3088 813e 3a75 5bbe
000000a0: 3533 a4be e595 c53d ca24 0d3d 6106 b7bd
000000b0: 7e1a 8f3e 40a5 4e3d f929 8f3e e574 2ebd
000000c0: b5f4 ba3c e06a 903d 6741 613e 388e b0bd
000000d0: 2569 14be fbbc f23e 1047 bfbe 085a fe3d
000000e0: df69 8a3a ba4a 513d e5fe 58be c079 7cbd
000000f0: 651d 84be 21e9 9cbe 1796 c9be b2ca 7b3e
00000100: c6bf b6be e5af 4e3e ce95 33be 1514 12be
00000110: 6842 033e 334c 023e fa10 c43d 9227 533e
00000120: 587b 25be 7b17 493c 14a5 af3d 6292 893d
00000130: 5c25 343e aa02 563e 9089 813e 04a5 c53e
00000140: b829 2fbe 39c5 84bd 9fa4 d13e c30f 7a3d
00000150: 6393 e43d 6199 08be cfd8 f4bd 5d5f 5dbe
00000160: 69a5 5ebe 8b4c 5a3e 5900 bbbc 594f 493e
00000170: 7b13 b3be 399d 81bd ce4e f9bd 776d bebe
00000180: 03fc 4fbd 6fca 57bd d433 2dbe 365e a2bd
00000190: d7cb 833e fd8e 3a3d f97e e0bd a6c0 353e
000001a0: 4151 4ebe cffe 513e 4ae1 293e e4e0 813d
000001b0: 9569 0fbe c979 a23e e014 0cbe 127d 913d
000001c0: d747 41be c1ec 70bc 61f3 8a3e 6339 253e
000001d0: 514b d03d 5fa9 f0bc caf8 083e e032 b0be
000001e0: 12db 943e 28f8 be3d 6b68 6dbe 23a8 38bd
000001f0: 1167 18be f1e6 2cbe f7b9 4e3e c378 a0be
00000200: 30f7 803b 6519 953c eb4e 8bbe a2a0 08be
00000210: 9ab6 983d 0289 a93d 1ffa 3bbe 0e4e c33d
00000220: 9802 debd d38e cd3c b136 ed3d efab 36be
00000230: 9e03 243e 11f4 e73d d7ef ab3c 859c 36bc
00000240: 2e4f 943d fb78 50be 03e0 95be faee 09be
00000250: 9e7a 1cbe 80e9 83be 9c04 5dbe 97c5 aabd
00000260: e4ec 41bd eef3 c6ba ca69 103e a1ad 5dbd
00000270: 25fc 033e f16d ddba 7ec5 57be e92e ab3d
00000280: 873e 4d3e 0eaf 6f3e d1e2 9ebe 8429 3a3e
00000290: 53a4 49be 6046 4bbd 6720 b2bd 5600 6cbe
000002a0: f9aa a63e 35eb 1fbe 6069 8e3e 2f43 74be
000002b0: c5a0 03be 86ff 8ebd a1aa dcbd 17c5 b63e
000002c0: 7c76 0c3d c697 0fbe 88c3 2a3e bebe 5e3e
000002d0: 1f59 2ebe d1d6 8abe e774 5f3e 1bdf 1dbe
000002e0: 8d8f a33d 3d69 acbd 58dd 573d 5d24 21bd
000002f0: d9b3 2e3e 7ac9 693d 3684 1a3e e212 cc3d
00000300: d63b 3c3e c309 7bbe fd85 233e 30ce 5ebd
00000310: 24fa 7dbe 2f91 d73e d57f 5dbc 8369 2a3e
00000320: dea4 ef3d 49ca 80be 2277 15bd 167b 733b
00000330: 8ed5 053d f0d6 85bd e4ea abbe 80f6 373d
00000340: 9542 4f3e f4a9 693d 9cdd 21bc 8bd2 0dbe
00000350: 8ebd 98bd 266e 4d3e ed88 0cbe ab01 adbc
00000360: 5c78 d03d ea2c a8bd 4198 733e 3209 b5be
00000370: 0b32 803e 78fa e13d 32f8 16be 7651 6a3e
00000380: cf8b 0f3d 6aa8 7bbd 3ecd b83e ec15 6ebe
00000390: a792 2c3e 2b4d acbe c893 a23d 8597 48be
000003a0: 8ac9 1dbe c602 863d 40a4 0fbf 841c 2d3e
000003b0: 3e53 013e ae4d 6bbe 08a0 a0be 77e2 16bf
000003c0: 6f29 3dbe 2dea cdbc f603 be3e 9ac8 493e
000003d0: d133 3abe 5791 6bbe 5de3 6bbe 10e8 713e
000003e0: cb00 3d3d 00a6 df3c 2cf3 f7bd 802e 5cbe
000003f0: 440f 87be b66d cdbe dcb8 04be 2c87 0abe
-0.299737 0.24608313 0.11200385 -0.19128332 -0.1541283 -0.1249258 0.16880766 0.13587518
0.16854438 -0.012481962 -0.0102856625 0.059775546 0.106973484 0.13449994 0.0068084793 0.12601061
0.19715522 0.024216147 0.17064753 -0.14248002 -0.22538747 0.3162676 0.023893127 0.017784722
0.24241254 -0.17972559 0.060844388 -0.36157176 0.03394327 0.10393006 -0.0789851 0.12804364
-0.23018272 0.023438334 0.11781519 -0.30763677 -0.022545215 -0.30715093 0.25299215 -0.21431437
-0.32070318 0.09647731 0.034458913 -0.089367636 0.279499 0.050450563 0.2796171 -0.042591948
0.022821764 0.07051635 0.21997605 -0.08620876 -0.14493234 0.47409806 -0.37358904 0.12419516
0.0010560116 0.051096655 -0.21190985 -0.061639547 -0.25803676 -0.30646613 -0.39372322 0.24589041
-0.35693187 0.20184286 -0.17537615 -0.14265473 0.128183 0.1272438 0.095735505 0.20620564
-0.16160333 0.012273665 0.08576408 0.067173734 0.17592376 0.20899454 0.25300264 0.3860246
-0.17105758 -0.0648293 0.40945908 0.061050188 0.11160924 -0.1333976 -0.119554155 -0.2161841
-0.21742786 0.21318261 -0.022827314 0.19659175 -0.349758 -0.06328816 -0.12173234 -0.3719289
-0.050777446 -0.05268329 -0.16914302 -0.079281256 0.25741455 0.04554652 -0.10961718 0.17749271
-0.20148183 0.20507358 0.16589847 0.063417226 -0.1400512 0.3173354 -0.13679838 0.071039334
-0.18875061 -0.014704884 0.27138808 0.16135173 0.101706155 -0.029377637 0.13376155 -0.34413815
0.29073387 0.09324676 -0.23184364 -0.045082223 -0.14883067 -0.16884972 0.20188127 -0.31342134
0.003935717 0.018200586 -0.27208647 -0.13342527 0.074567035 0.08278085 -0.18357132 0.09536372
-0.108403385 0.025092518 0.11582697 -0.17839025 0.16017005 0.11325849 0.020988388 -0.011145716
0.07241665 -0.2035865 -0.2927247 -0.13470069 -0.1528115 -0.25764084 -0.2158379 -0.083384685
-0.047345057 -0.0015178898 0.14102855 -0.054120664 0.12889154 -0.0016893727 -0.21071431 0.08358557
0.20043384 0.23406622 -0.31032422 0.181799 -0.19691591 -0.04962766 -0.086975865 -0.23047003
0.32552317 -0.15617068 0.2781477 -0.23853754 -0.12854297 -0.06982331 -0.107747324 0.35697243
0.034292683 -0.1402274 0.16676152 0.2175245 -0.17026184 -0.27117017 0.21821938 -0.15417139
0.079863645 -0.0841851 0.052701324 -0.03934132 0.17060794 0.05707691 0.15089497 0.09964539
0.183822 -0.24515443 0.15969081 -0.054395854 -0.24802452 0.42102954 -0.013519247 0.16641812
0.11701368 -0.2515433 -0.036490567 0.0037152222 0.032674365 -0.06535137 -0.33577645 0.044912815
0.20240243 0.057046846 -0.009879496 -0.13849847 -0.0745803 0.2006155 -0.13724108 -0.02111896
0.10179207 -0.08211692 0.23788549 -0.35358578 0.2503818 0.11034101 -0.14743116 0.22882637
0.03504544 -0.06143991 0.36094087 -0.2325055 0.16852818 -0.33652624 0.07938343 -0.1958905
-0.15408912 0.06543498 -0.5611 0.16905409 0.1262941 -0.22978851 -0.31372094 -0.5893931
-0.18472837 -0.025136078 0.37112397 0.1970543 -0.18183829 -0.23004662 -0.23035951 0.23623681
0.046143334 0.027300835 -0.12106928 -0.21502113 -0.26378834 -0.40122765 -0.12961143 -0.13528126

gnn_base.gnn.gnn2.0.lin_key.bias f4 [48]
00000000: f3ae 0b3e 4a78 353e 2b8d cb3c 9c85 733e
00000010: b08b e5bd 0eea 4ebd 771e 993d aca3 96bc
00000020: 0cf0 58be e5f2 bdbd 67b3 44be 93b3 36be
00000030: 4e0e 79be 2bc6 f13c 0208 d1bd 2feb 723e
00000040: 473b 1c3e d915 7f3e 7dc5 83bd 4f60 77be
00000050: 9db6 5e3d 3965 5abe 5654 e9bd fc61 f0bc
00000060: 59e0 e43d 5024 613e b8ed 11be efe3 78be
00000070: c2ad b23d b924 9dbd 768e 77be d8dd 3d3e
00000080: d53b 3a3e 9373 7cbe 35da 6dbd f863 0abd
00000090: 5aee 31bd 48fb 0c3c 3363 0bbe 3aa4 21be
000000a0: 307b 493e 1e16 4ebe ce80 75be 750c 6bbe
000000b0: 6aef b5bd 4e34 043e 5eca 53ba 775e 09bd
0.13640957 0.17721668 0.024847588 0.23781437 -0.11208284 -0.05051618 0.07476514 -0.018388592
-0.2118532 -0.09274844 -0.19209062 -0.1784194 -0.24321863 0.02951344 -0.102066055 0.23722528
0.15256988 0.24910678 -0.06434152 -0.24157833 0.054373372 -0.21327676 -0.11393039 -0.029343598
0.111756034 0.21986508 -0.14250839 -0.243057 0.08724548 -0.0767302 -0.24175438 0.18541658
0.18186887 -0.24653463 -0.058069427 -0.033786744 -0.0434402 0.008604832 -0.1361206 -0.15785304
0.19675899 -0.20125625 -0.23974916 -0.2295397 -0.08883555 0.12910578 -0.00080791663 -0.033537354
