model_weights/FA_FR/tube/tube_1817/actor.pt (torch, 203096 bytes, 58 tensors)

gnn_base.gnn.embed_layer.layer_norm.weight f4 [16]
0	0x3f811d40	1.0087051
1	0x3f88abee	1.0677469
2	0x3f68d25c	0.9094598
3	0x3f75d5a6	0.96029127
4	0x3f770e89	0.96506554
5	0x3f70a07b	0.93994874
6	0x3f841736	1.0319583
7	0x3f8dc6ca	1.1076291
8	0x3f9760e5	1.1826445
9	0x3f8314ad	1.0240685
10	0x3f88f962	1.0701106
11	0x3f825741	1.0182878
12	0x3f77a69f	0.9673862
13	0x3f8f7dd9	1.1210281
14	0x3f7c98fe	0.9867095
15	0x3f8f7db9	1.1210243

gnn_base.gnn.embed_layer.layer_norm.bias f4 [16]
0	0x3b9a1f61	0.0047034477
1	0x3c43248e	0.011910571
2	0xbcdff0f4	-0.027336575
3	0x3dbabf0c	0.091184705
4	0x3d481c73	0.048855256
5	0xbd1868d4	-0.037209347
6	0xbce8aa7c	-0.028401606
7	0x3d0b1aa3	0.03396095
8	0xbd36e405	-0.04465105
9	0xbca39b22	-0.019971434
10	0xbd75eb89	-0.060039077
11	0x3cd47951	0.025936754
12	0x3da5221a	0.08063145
13	0xbde98a29	-0.11403305
14	0x3d741b84	0.059596553
15	0xbca88ad8	-0.020574018

gnn_base.gnn.embed_layer.entity_embed.weight f4 [4, 2]
0	0x3fc41fa6	1.5322158
1	0xbe965a83	-0.2936593
2	0xc010c97a	-2.2622972
3	0x3f0f0a0b	0.558747
4	0xbf89e1da	-1.077205
5	0xbfac8b1f	-1.3479956
6	0x3ece837a	0.40334684
7	0x3f5688e5	0.83802634

gnn_base.gnn.embed_layer.lin1.weight f4 [16, 15]
0	0x3edf4cc3	0.43613252
1	0x3de4101b	0.111358844
2	0x3f33105a	0.69946826
3	0xbee2efa7	-0.44323465
4	0xbe9ab172	-0.30213505
5	0xbf397759	-0.72447735
6	0x3e1694d1	0.14705206
7	0x3d23ef4f	0.040023144
8	0x3f0b6099	0.5444427
9	0x3e335fbd	0.1751699
10	0x3eacfff1	0.33789018
11	0x3f046204	0.5171206
12	0x3e0b1337	0.13581549
13	0x3f33230b	0.69975346
14	0xbe3f9898	-0.18710554
15	0x3dc158ab	0.0944074
16	0xbdaf97a1	-0.08573843
17	0xbb5ee179	-0.0034008904
18	0x3e65656b	0.22401969
19	0x3e1f50c9	0.15558161
20	0xbe13c6ce	-0.14431307
21	0x3ec67c17	0.38766548
22	0xbca91014	-0.02063755
23	0x3e4ff561	0.20308448
24	0x3cd39ddf	0.025832115
25	0xbede3a61	-0.43403915
26	0xbf13906a	-0.57642233
27	0xbf3cb4e4	-0.7371352
28	0x3edb981f	0.42889497
29	0x3f2d299e	0.6764163
30	0xbc5ed7b7	-0.013601235
31	0x3d61afeb	0.05509941
32	0xbf2fe1df	-0.68704027
33	0x3dfdc5c3	0.12391236
34	0xbe562d65	-0.20915754
35	0xbeea9f19	-0.45824507
36	0x3d304645	0.043035764
37	0x3e83a66b	0.25712904
38	0xbe65d63a	-0.22445002
39	0x3e9838a8	0.29730725
40	0xbdf3e078	-0.119080484
41	0x3eefb98d	0.46821252
42	0xbf244513	-0.641679
43	0xbf3a2d2e	-0.7272519
44	0x3c93981b	0.018016865
45	0xbdd99163	-0.106234334
46	0x3d2a0f02	0.04151822
47	0x3e70365d	0.23458238
48	0x3e180d29	0.1484877
49	0xbefc06e1	-0.49223998
50	0x3e500197	0.20313106
51	0x3f36db06	0.71427953
52	0x3e3b84fb	0.18312447
53	0x3e991581	0.2989922
54	0x3f135e9d	0.57566243
55	0x3d186354	0.0372041
56	0x3e2371b6	0.15961346
57	0x3f182fb6	0.594478
58	0xbeae0ba0	-0.33993244
59	0x3f1e27b1	0.61779314
60	0xbe04460d	-0.12917347
61	0x3f28b60c	0.6590278
62	0xbe6f09f7	-0.23343645
63	0x3f82bdd0	1.0214176
64	0x3e9d8c39	0.30771044
65	0xbdad5c4c	-0.0846487
66	0x3e3413aa	0.17585626
67	0x3e948db0	0.2901435
68	0x3f28e387	0.6597218
69	0x3f488fd4	0.78344464
70	0x3f2a48e6	0.66517484
71	0x3f19570d	0.59898454
72	0x3d4bac79	0.04972503
73	0x3e6bc51f	0.23024414
74	0xbea78c90	-0.32724428
75	0x3e25448e	0.16139433
76	0x3e994a43	0.2993947
77	0x3f0ab593	0.5418331
78	0xbeb89f44	-0.3605901
79	0xbe3352f1	-0.17512108
80	0x3dcc7cd7	0.09984749
81	0x3cc8f75d	0.024532015
82	0xbec6692e	-0.3875212
83	0x3e6f76d9	0.2338518
84	0x3c3efa12	0.011656301
85	0x3f594973	0.848777
86	0xbeb69665	-0.35661617
87	0xbe399785	-0.18124206
88	0xbe0a1768	-0.13485491
89	0x3c482358	0.012215458
90	0xbecd1611	-0.40055898
91	0x3f019422	0.5061666
92	0xbf244c26	-0.64178693
93	0x3f152dfb	0.58273286
94	0x3e4edc75	0.20201285
95	0xbeb2ba65	-0.34907833
96	0xbdb3e076	-0.08783047
97	0xbecb81ca	-0.3974746
98	0xbf15361e	-0.582857
99	0x3f483879	0.7821117
100	0xbedbf4af	-0.42960116
101	0x3f4d05cf	0.8008699
102	0x3d621d63	0.055203807
103	0x3e3d7b7d	0.18504138
104	0xbdaa9c86	-0.08330636
105	0x3ec570be	0.38562578
106	0xbeb3ffd6	-0.35156125
107	0x3f27a697	0.6548857
108	0xbda9a7f2	-0.08283986
109	0x3f4b8d98	0.7951293
110	0x3d2615d1	0.04054815
111	0x3f2b8146	0.6699413
112	0xbe2ad13a	-0.16681376
113	0x3ef96935	0.4871308
114	0xbe7a0158	-0.24414575
115	0x3f339a61	0.7015744
116	0x3e5378fe	0.20651624
117	0xbe56aecc	-0.20965117
118	0xbdfaf5ed	-0.12253938
119	0xbdf73a09	-0.12071616
120	0xbd851f75	-0.065001406
121	0xbe190ceb	-0.14946334
122	0xbda9d2ed	-0.08292184
123	0xbf26d020	-0.65161324
124	0x3e0214fd	0.12703319
125	0xbe8a306c	-0.26990068
126	0xbd297a54	-0.041376427
127	0xbd6a0b44	-0.05713965
128	0x3f053172	0.5202857
129	0x3bb23a61	0.005439088
130	0xbf2d3a9f	-0.67667574
131	0xbf6ebcb2	-0.93256676
132	0x3e256e4c	0.16155356
133	0xbe719cb1	-0.2359493
134	0xbf0d3836	-0.55163896
135	0x3eecbf0a	0.462395
136	0x3d948ee6	0.07253818
137	0x3f2c4527	0.6729302
138	0x3efeb808	0.4974978
139	0x3de95bbc	0.1139445
140	0xbec79295	-0.3897902
141	0xbe0026a2	-0.12514737
142	0x3ec703bc	0.38870037
143	0xbe9918b4	-0.2990166
144	0x3f56e77a	0.83946955
145	0x3ef5ad1b	0.47983631
146	0xbe9636c6	-0.29338664
147	0xbd9a4d75	-0.07534305
148	0xbdd234b7	-0.10263961
149	0xbde1bc72	-0.11022271
150	0x3e09d42d	0.13459845
151	0xbe4cee01	-0.20012666
152	0xbf11a9d9	-0.5689979
153	0x3e4b86e9	0.19875683
154	0xbe0d53c3	-0.13801484
155	0x3c007d19	0.007842326
156	0x3ee480f7	0.44629642
157	0xbee9f32e	-0.45693344
158	0xbee618e7	-0.44940874
159	0xbe7847f7	-0.24246202
160	0xbde840ac	-0.1134046
161	0xbf08e27d	-0.53470594
162	0x3f04dd82	0.51900494
163	0xbde5a56f	-0.112131946
164	0xbe2c8164	-0.16846234
165	0xbf0aa1cd	-0.5415314
166	0x3ea985e7	0.33109972
167	0x3de1b7b5	0.110213675
168	0x3e55adf6	0.20867142
169	0xbdb56aae	-0.08858238
170	0xbd4c70bd	-0.049912203
171	0x3efaa4c8	0.48953843
172	0x3d9f1098	0.07766837
173	0xbf82df0c	-1.0224319
174	0xbdaeea2d	-0.08540759
175	0xbf0cc3ff	-0.54986566
176	0x3d142e73	0.03617711
177	0xbd62c343	-0.055361997
178	0x3cd01e43	0.025405055
179	0xbebb483d	-0.3657855
180	0xbde5729b	-0.112035
181	0xbe7f70d3	-0.24945383
182	0x3ee95083	0.45569238
183	0x3ed4b6c3	0.41545686
184	0xbf1a73df	-0.60333055
185	0x3e05aec2	0.13054946
186	0x3eb8d846	0.36102504
187	0x3dc25d41	0.09490443
188	0x3f1f9373	0.62334365
189	0xbe88e7ab	-0.2673925
190	0x3ed6f70e	0.41985363
191	0xbd07de59	-0.03317103
192	0xbeea90c3	-0.4581357
193	0x3e65e9f3	0.22452526
194	0xbeef6e91	-0.46764043
195	0xbdae3086	-0.08505349
196	0x3e89122e	0.26771683
197	0xbf64723b	-0.892368
198	0x3f5eec8c	0.8707969
199	0xbb429928	-0.002969334
200	0xbebc59e9	-0.36787346
201	0xbf1e13d5	-0.6174901
202	0xbed02c83	-0.4065896
203	0xbf2c30ed	-0.67262155
204	0x3ed976e1	0.4247351
205	0xbec7654f	-0.3894448
206	0x3ea6812a	0.3252042
207	0x3df8ee8e	0.12154876
208	0x3e94d8c5	0.29071632
209	0x3e870aac	0.2637533
210	0x3f03d44d	0.5149582
211	0x3f10cbe4	0.5656111
212	0x3ea80a99	0.32820585
213	0x3e9d2bf1	0.30697587
214	0xbe29d469	-0.16584934
215	0x3eff235f	0.49831674
216	0xbd60ca8b	-0.05488066
217	0xbf383680	-0.7195816
218	0x3d5195be	0.051168196
219	0x3ee789ac	0.45222223
220	0xbec60229	-0.38673523
221	0x3ed2487a	0.4107092
222	0xbee184b0	-0.44046545
223	0xbeb4da7e	-0.35322946
224	0xbe8720cb	-0.26392207
225	0x3e6fe68b	0.23427789
226	0x3e8c193e	0.27363008
227	0x3f5984ea	0.84968436
228	0x3f19263a	0.59823954
229	0x3e34b692	0.1764777
230	0xbec12d2a	-0.3772977
231	0xbd0a4fb2	-0.03376741
232	0x3e84cf0e	0.2593922
233	0x3f2ba2d5	0.67045337
234	0xbf298378	-0.6621623
235	0x3dbb5120	0.09146333
236	0x3dfa0b78	0.12209219
237	0x3e71e7c8	0.23623574
238	0xbf03f8d0	-0.5155153
239	0x3e506944	0.20352656

gnn_base.gnn.embed_layer.lin1.bias f4 [16]
0	0xbdbfbfc2	-0.09362747
1	0x3c88a90c	0.01668217
2	0xbdca3173	-0.09872713
3	0x3dd4b6f0	0.10386455
4	0x3dd0d01a	0.10195942
5	0xbe0177e6	-0.12643394
6	0xbe14811c	-0.14502376
7	0x3ba5cefa	0.005060074
8	0xbd876c6a	-0.06612475
9	0x3c942ed3	0.018088734
10	0xbd8b788c	-0.06810102
11	0xbd345cf8	-0.044033974
12	0xbd13169a	-0.035910226
13	0xbdc7d69c	-0.0975773
14	0x3df494f0	0.1194247
15	0x3c73690a	0.014856586

gnn_base.gnn.embed_layer.layers.0.weight f4 [16, 16]
0	0x3e236175	0.15955146
1	0xbe17e623	-0.14833884
2	0xbe1a1da1	-0.15050365
3	0x3e38b5f6	0.18038163
4	0x3e959609	0.2921603
5	0x3eb87db4	0.36033404
6	0xbef1da37	-0.47236797
7	0xbefc3209	-0.49256924
8	0x3e83759d	0.2567567
9	0xbeb8461e	-0.35990995
10	0x3f290d5b	0.66036004
11	0x3e4e2c8c	0.20134181
12	0x3f3b2fe7	0.7311997
13	0xbe8fdf56	-0.2810008
14	0xbeb35c35	-0.35031286
15	0x3ec374d4	0.3817507
16	0xbea23c48	-0.31686616
17	0xbf0287c7	-0.5098843
18	0x3d3860a0	0.045014024
19	0xbd54af22	-0.051924832
20	0x3c18c559	0.009324395
21	0x3f4bbda6	0.79586256
22	0xbca7eb11	-0.02049783
23	0x3e232683	0.1593266
24	0xbe7f34e1	-0.24922515
25	0xbecdd0fa	-0.401985
26	0x3def6d1c	0.11690733
27	0xbdac0fce	-0.08401452
28	0xbe962eb3	-0.29332504
29	0x3f31540e	0.6926888
30	0x3ca65cce	0.020307925
31	0xbedcde71	-0.4313846
32	0xbe7671f4	-0.24066907
33	0xbf3ee046	-0.74560964
34	0x3b898524	0.00419678
35	0x3dd3e207	0.10345846
36	0xbefe6ec0	-0.4969387
37	0xbe8bc0a0	-0.272954
38	0x3cbf9608	0.02338697
39	0xbe7f9512	-0.2495921
40	0xbf936e8f	-1.1518115
41	0x3eafac2e	0.3431105
42	0xbf134e9b	-0.5754182
43	0xbe798ec2	-0.24370864
44	0x3d976b2e	0.0739349
45	0xbdc6b6cb	-0.09702834
46	0xbecb18c9	-0.39667347
47	0x3dcda902	0.10042001
48	0xbe810cb3	-0.25205
49	0x3d9b7c30	0.07592046
50	0xbe3e3b69	-0.1857735
51	0xbe538a36	-0.20658192
52	0xbd700f31	-0.058608238
53	0xbb2b6e29	-0.002615819
54	0xbef01689	-0.46892193
55	0x3ebf3f67	0.3735306
56	0x3ede29bd	0.4339122
57	0xbe32576d	-0.17416163
58	0xbeefd1a0	-0.4683962
59	0xbf50b5e8	-0.81527567
60	0x3edd31a8	0.43201947
61	0x3e34b801	0.17648317
62	0x3da3313a	0.079683736
63	0x3f098dce	0.53732
64	0xbea3d42c	-0.31997812
65	0xbe10a529	-0.14125504
66	0x3eb01e57	0.34398147
67	0x3f09431b	0.5361802
68	0x3ea453a8	0.32095075
69	0x3e893ee2	0.26805788
70	0x3980e56b	0.00024584992
71	0xbefd27f8	-0.49444556
72	0x3ef2544f	0.47329947
73	0x3f262489	0.648995
74	0xbea83010	-0.3284917
75	0xbe8743e5	-0.26418987
76	0xbe3c7661	-0.18404533
77	0x3e821a46	0.2541067
78	0xbec61ae2	-0.38692385
79	0x3e09fc56	0.13475165
80	0x3f5d97c6	0.8655971
81	0xbd94e919	-0.07271022
82	0xbeb37f70	-0.35058165
83	0x3e1dcfaa	0.15411249
84	0xb8f5070b	-0.00011683822
85	0x3f2e146e	0.67999923
86	0x3c3e31fd	0.011608598
87	0x3edf6d2c	0.4363798
88	0xbe183c87	-0.1486684
89	0x3eec0e1d	0.46104518
90	0xbea98055	-0.33105722
91	0xbe6459f0	-0.22299933
92	0x3eb8813a	0.36036092
93	0x3dbc89ed	0.09205995
94	0xbe07ca6d	-0.13260813
95	0xbeb25df8	-0.34837317
96	0xbe841906	-0.2580034
97	0x3dc79abf	0.09746312
98	0x3dfe3f9e	0.12414478
99	0x3f48f072	0.7849189
100	0xbeb80142	-0.3593846
101	0x3c4f1ee0	0.0126416385
102	0x3e858adc	0.26082504
103	0x3da6fe09	0.08153922
104	0xbdf91db3	-0.12163868
105	0xbe03cffb	-0.12872307
106	0x3ef0146e	0.46890587
107	0xbececf98	-0.40392756
108	0x3ebde8ed	0.3709177
109	0xbedc2501	-0.42996982
110	0x3e9974a3	0.299718
111	0xbf286c97	-0.65790695
112	0x3c692f62	0.014232488
113	0xbeae5811	-0.34051564
114	0x3f085e90	0.5326929
115	0xbe3ca85d	-0.184236
116	0xbf26ebef	-0.65203756
117	0x3e2e24fa	0.17006293
118	0x3eff7878	0.49896598
119	0xbd1cdfe7	-0.038299467
120	0x3f29bfff	0.6630859
121	0xbdb01c48	-0.08599144
122	0x3c8b612d	0.01701411
123	0x3f0ba518	0.5454879
124	0x3e6e08f1	0.23245598
125	0xbad13e29	-0.001596396
126	0x3dc51980	0.09624004
127	0x3ccf99fd	0.025341982
128	0x3d0feb63	0.03513659
129	0x3ee36f20	0.4442072
130	0x3ef55166	0.47913665
131	0xbd51d1d1	-0.051225487
132	0x3d41de4f	0.04733115
133	0xba2b9a26	-0.0006546102
134	0x3ee80043	0.453127
135	0x3ef166fe	0.4714889
136	0xbea17bd5	-0.3153979
137	0xbdb956b4	-0.090497404
138	0x3e38c39c	0.18043369
139	0xbe835add	-0.2565526
140	0x3ce95dcd	0.02848711
141	0x3e244b4c	0.16044348
142	0xbf6c9b85	-0.92424804
143	0x3d575d57	0.05257925
144	0x3e5b688d	0.21426602
145	0x3f118573	0.5684425
146	0x3f0d013f	0.55080026
147	0x3d070472	0.032963224
148	0xbe86f85b	-0.26361355
149	0x3dad11bd	0.08450649
150	0x3e5a1ef2	0.21300867
151	0xbf417200	-0.75564575
152	0xbf1d35f3	-0.61410445
153	0x3b367df8	0.002784608
154	0xbea09d19	-0.31369856
155	0xbc0c4412	-0.008561151
156	0x3e81dbbc	0.25362957
157	0x3f00e43e	0.5034827
158	0x3ee8bf47	0.45458433
159	0x3d9264c9	0.071481295
160	0x3cd6f7bf	0.026241181
161	0x3ef53597	0.47892448
162	0xbe488964	-0.1958366
163	0x3dd9fb7b	0.10643669
164	0xbf1551a1	-0.5832768
165	0xbe1c4da4	-0.15263993
166	0xbf0f169f	-0.5589389
167	0xbd946345	-0.07245497
168	0x3f0176f6	0.50572145
169	0xbde350e2	-0.110994115
170	0x3ead1c98	0.33810878
171	0xbe71db2d	-0.23618765
172	0xbec08f3a	-0.37609273
173	0xbc9ddb78	-0.01926969
174	0xbdc9f11f	-0.09860443
175	0xbedb6f60	-0.4285841
176	0xbdf78a4c	-0.12086925
177	0x3ead5ffa	0.33862287
178	0xbeebe28d	-0.46071282
179	0xbe1d0be3	-0.15336566
180	0xbdcae4cb	-0.0990692
181	0x3e9f6551	0.31131986
182	0x3edcccda	0.4312504
183	0xbf1af87f	-0.60535425
184	0x3d7f7d7b	0.062375527
185	0xbebd2acc	-0.36946714
186	0xbeb61034	-0.35559237
187	0xbd77da96	-0.060511194
188	0xbeb8b671	-0.36076692
189	0xbef7105d	-0.48254672
190	0xbe88a710	-0.2668996
191	0x3bcb1a83	0.006198229
192	0xbed0f0c8	-0.40808702
193	0x3eb8c4b5	0.36087576
194	0xbd8fcad6	-0.0702111
195	0xbf68911b	-0.90846413
196	0xbe3f142b	-0.18660037
197	0x3ed107a3	0.4082614
198	0xbe3267d1	-0.17422415
199	0x3db744a7	0.08948641
200	0x3e572051	0.21008421
201	0x3f47c185	0.7802966
202	0x3deb5b6a	0.11492045
203	0xbc7d0f38	-0.015445523
204	0x3ea82e86	0.32847995
205	0xbf082e29	-0.53195435
206	0x3d26514c	0.040604874
207	0xbd93bb8b	-0.07213505
208	0xbecdb07f	-0.40173718
209	0x3e6f7095	0.2338279
210	0xbf1a2b8b	-0.6022269
211	0x3ec899c0	0.39179802
212	0xbeaad5b9	-0.33366182
213	0x3db2dd25	0.08733586
214	0x3eb41163	0.35169515
215	0x3e427c5b	0.1899275
216	0xbe7f7ec6	-0.24950704
217	0x3e4b78fe	0.19870374
218	0x3e8feaa8	0.28108716
219	0x3eaef1a0	0.3416872
220	0x3d094bfc	0.03351973
221	0x3f185e3e	0.595188
222	0x3da54726	0.08070211
223	0x3f03b4fb	0.5144803
224	0x3e0d7e4d	0.13817711
225	0xbe441434	-0.19148332
226	0x3e6dcac0	0.23221874
227	0x3d052f40	0.032515764
228	0x3e7bdaec	0.24595231
229	0x3e80103f	0.25012395
230	0x3e79fea5	0.24413545
231	0x3e93b1b7	0.28846523
232	0xbe9eb079	-0.30994013
233	0x3e94ed9e	0.29087538
234	0x3e3573cd	0.17719956
235	0xbf0f161b	-0.55893105
236	0xbf12a730	-0.5728636
237	0xbeae0d0e	-0.33994335
238	0x3eec8b04	0.4619981
239	0x3f1c033d	0.6094244
240	0xbecfa4a7	-0.40555307
241	0xbd4ae54b	-0.049535077
242	0x3d08f2ba	0.033434607
243	0xbed6c5e0	-0.41947842
244	0x3ed97439	0.42471483
245	0xbea9d643	-0.3317128
246	0x3f227819	0.63464504
247	0xbedc340d	-0.43008462
248	0xbdd851a0	-0.10562444
249	0xbe13a0b0	-0.14416766
250	0x3ef366dd	0.47539416
251	0xbe842744	-0.25811207
252	0x3e3346cb	0.17507474
253	0x3ef383b3	0.47561416
254	0xbd983142	-0.0743127
255	0xbf2e45d7	-0.6807532

gnn_base.gnn.embed_layer.layers.0.bias f4 [16]
0	0xbdc04915	-0.09388939
1	0xbccaee0d	-0.024771715
2	0xbcef30ef	-0.029198138
3	0x3d546252	0.051851578
4	0xbad09cae	-0.0015915835
5	0xbd5fbb06	-0.05462172
6	0x3d21c82c	0.03949754
7	0xbd4fcb2e	-0.050730877
8	0xbd809de6	-0.06280117
9	0xbd16c6cc	-0.03681068
10	0xbe154733	-0.14577942
11	0xbd0d6221	-0.03451741
12	0xbcc843f4	-0.024446465
13	0xbcefd0c8	-0.02927436
14	0xbda17bd4	-0.078849465
15	0xbd8bce12	-0.06826414

gnn_base.gnn.embed_layer.layers.2.weight f4 [16]
0	0x3f811d40	1.0087051
1	0x3f88abee	1.0677469
2	0x3f68d25c	0.9094598
3	0x3f75d5a6	0.96029127
4	0x3f770e89	0.96506554
5	0x3f70a07b	0.93994874
6	0x3f841736	1.0319583
7	0x3f8dc6ca	1.1076291
8	0x3f9760e5	1.1826445
9	0x3f8314ad	1.0240685
10	0x3f88f962	1.0701106
11	0x3f825741	1.0182878
12	0x3f77a69f	0.9673862
13	0x3f8f7dd9	1.1210281
14	0x3f7c98fe	0.9867095
15	0x3f8f7db9	1.1210243

gnn_base.gnn.embed_layer.layers.2.bias f4 [16]
0	0x3b9a1f61	0.0047034477
1	0x3c43248e	0.011910571
2	0xbcdff0f4	-0.027336575
3	0x3dbabf0c	0.091184705
4	0x3d481c73	0.048855256
5	0xbd1868d4	-0.037209347
6	0xbce8aa7c	-0.028401606
7	0x3d0b1aa3	0.03396095
8	0xbd36e405	-0.04465105
9	0xbca39b22	-0.019971434
10	0xbd75eb89	-0.060039077
11	0x3cd47951	0.025936754
12	0x3da5221a	0.08063145
13	0xbde98a29	-0.11403305
14	0x3d741b84	0.059596553
15	0xbca88ad8	-0.020574018

gnn_base.gnn.gnn1.lin_key.weight f4 [48, 16]
0	0xbd80f2f3	-0.06296339
1	0x3e021841	0.12704565
2	0xbe55e624	-0.20888573
3	0x3e008896	0.12552103
4	0xbeb0d885	-0.3454019
5	0xbe8ad2a6	-0.27113837
6	0x3e86ee0f	0.263535
7	0x3ca35846	0.019939553
8	0x3d803515	0.062601246
9	0xbecc64f5	-0.39920774
10	0x3d5b3617	0.05351838
11	0xbe819c36	-0.25314492
12	0x3e13fcea	0.14451948
13	0xbb0161d6	-0.0019742153
14	0xbe6e50c5	-0.23272999
15	0x3df7787a	0.12083526
16	0xbeaf2fa7	-0.34216043
17	0xbe808b13	-0.25106105
18	0xbe17ff15	-0.148434
19	0xbe4a2a30	-0.19742656
20	0xbe2be27d	-0.16785617
21	0x3da10b15	0.07863442
22	0xbd261f07	-0.040556934
23	0x3e8cd861	0.27508834
24	0x3cad9a7e	0.021191832
25	0x3f22a0e0	0.63526726
26	0xbe8980e6	-0.26856154
27	0xbe99b048	-0.30017304
28	0x3da7aa8f	0.08186828
29	0x3e0bef33	0.13665466
30	0xbe15a3ca	-0.14613262
31	0xbdf43601	-0.11924363
32	0xbec0b714	-0.37639678
33	0xbe332e6d	-0.17498179
34	0xbdd67a75	-0.104725756
35	0x3e33f049	0.1757213
36	0x3d8f5796	0.069991276
37	0x3db34514	0.0875341
38	0xbdfc543d	-0.12320755
39	0x3e85c585	0.26127258
40	0x3d48dfe2	0.049041636
41	0xbceee5c1	-0.02916229
42	0xbcad206e	-0.021133628
43	0xbcc05b28	-0.023480967
44	0x3deb7452	0.11496796
45	0x3e7985b6	0.24367413
46	0x3e1bacd5	0.15202649
47	0x3e1a6b2d	0.15079947
48	0x3de17698	0.11008948
49	0x3db3bdac	0.087764114
50	0x3d8673d7	0.065650634
51	0x3dd80ac8	0.10548931
52	0x3e113398	0.14179838
53	0xbb8ddab1	-0.0043290486
54	0xbe23f16a	-0.16010061
55	0x3cf89554	0.030344643
56	0x3dafd7e5	0.085861005
57	0x3d53a664	0.051672354
58	0x3dd332bf	0.103124134
59	0x3ca21f9e	0.019790467
60	0x3e3a52a5	0.18195589
61	0xbdde21be	-0.108462796
62	0x3ea61379	0.3243673
63	0x3e4e06ef	0.20119832
64	0x3e80621c	0.25074852
65	0x3e4262e7	0.18983041
66	0xbe5f7d66	-0.2182518
67	0x3d733fba	0.059386946
68	0x3ed451a4	0.41468537
69	0xbe53b760	-0.20675421
70	0xbdf87fdb	-0.121337615
71	0xbda525c0	-0.08063841
72	0xbe4bbc82	-0.19896129
73	0x3bb31fe5	0.0054664486
74	0x3cab46b8	0.020907745
75	0xbd6cc1c3	-0.057801973
76	0xbe94a13f	-0.2902927
77	0x3e93df96	0.2888152
78	0x3df946e2	0.12171723
79	0x3d898983	0.067156814
80	0x3e0df0f6	0.1386145
81	0x3e8729fb	0.26399216
82	0xbd88a811	-0.06672681
83	0x3d8d43b4	0.06897679
84	0xbd798793	-0.06092031
85	0xbdccb298	-0.099950016
86	0xbcd432ce	-0.025903132
87	0xbe0ccdeb	-0.13750426
88	0x3c0a4667	0.008439637
89	0xbcaf02d8	-0.02136366
90	0xbd2684de	-0.040654056
91	0xbe2f1d19	-0.17100944
92	0x3ea947e6	0.33062667
93	0xbd11c33b	-0.035586577
94	0x3df37d98	0.118891895
95	0x3e0baed1	0.13640906
96	0xbe5f4449	-0.21803392
97	0xbd54d4da	-0.051960804
98	0x3e902e1d	0.28160182
99	0xbe5c7ce2	-0.21532014
100	0xbe72f07a	-0.23724547
101	0x3c12472c	0.0089281015
102	0x3d750dfa	0.059827782
103	0x3e00f67b	0.12594025
104	0x3e8fae0f	0.28062484
105	0xbe436817	-0.19082676
106	0x3e3caf42	0.1842623
107	0x3e02e31b	0.12781946
108	0xbc2e0a93	-0.010622638
109	0xbe7ddbbb	-0.24790852
110	0xbea12673	-0.31474647
111	0x3e1699ce	0.1470711
112	0xbe2e35b9	-0.17012681
113	0xbe5abd14	-0.2136119
114	0x3e5a66a9	0.21328224
115	0xbdc2b038	-0.09506267
116	0x3dcb5cfe	0.09929846
117	0xbe1b537f	-0.1516857
118	0x3dd4c494	0.10389057
119	0xbc92702b	-0.017875751
120	0xbb93701a	-0.0044994475
121	0x3ea1d049	0.3160422
122	0x3e99a298	0.30006862
123	0xbea2c243	-0.31788835
124	0x3d94da2b	0.07268175
125	0x3d8c10c1	0.06839133
126	0x3b67f69c	0.0035394793
127	0xbe435989	-0.19077124
128	0xbde3c437	-0.111214094
129	0x3e3cbd25	0.18431528
130	0xbe6f02f9	-0.23340978
131	0xbeaa964e	-0.33317798
132	0xbe71dd2d	-0.23619528
133	0xbd61bc06	-0.055110954
134	0xbddb2496	-0.107003376
135	0x3c949f7b	0.018142452
136	0x3ec12544	0.37723744
137	0x3d5917c7	0.05300119
138	0xbe1c484d	-0.15261956
139	0xbc098a5b	-0.008394803
140	0xbd801dd8	-0.06255692
141	0xbd46789e	-0.048454873
142	0x3d8bd477	0.06827634
143	0x3ce1bb0e	0.027555015
144	0xbe721176	-0.23639473
145	0x3e747b3b	0.23875134
146	0x3e2b1558	0.1670736
147	0xbe957c32	-0.29196316
148	0x3e73b55e	0.23799655
149	0x3bf0bdec	0.007346859
150	0xbe81772b	-0.2528623
151	0xbe35a728	-0.17739546
152	0xbde24eb6	-0.11050169
153	0x3ed21789	0.4103358
154	0xbafd8f5b	-0.0019345091
155	0x3e142b98	0.14469755
156	0xbde926e5	-0.11384372
157	0x3e5c2e89	0.21502127
158	0x3d8136cb	0.06309279
159	0xbea857f3	-0.328796
160	0xbde64bef	-0.11244952
161	0x3bc23de3	0.0059277876
162	0x3ad31544	0.001610436
163	0x3e579112	0.21051434
164	0xbe69566e	-0.22786877
165	0xbe019c7e	-0.12657353
166	0x3e511f65	0.20422132
167	0xbe3200ff	-0.17383192
168	0x3e4f89bc	0.20267385
169	0xbead0dcc	-0.3379959
170	0x3d2c644d	0.04208784
171	0xbe825022	-0.2545176
172	0x3d18160a	0.037130393
173	0x3d83d63c	0.06437346
174	0xbe81009a	-0.2519577
175	0x3dd1d7cc	0.10246238
176	0xbe96c609	-0.29447964
177	0x3cb8805c	0.022522144
178	0xbe4e8de2	-0.20171311
179	0xbe808c7a	-0.25107175
180	0xbe499cca	-0.19688717
181	0xbe421a21	-0.1895528
182	0xbc8a3251	-0.016869696
183	0xbddbc557	-0.10730999
184	0x3dcae93f	0.099077694
185	0x3e7cea9f	0.24698876
186	0x3e47a4b1	0.19496419
187	0x3de3ab6f	0.11116683
188	0x3e354c71	0.17704941
189	0x3c2d27a7	0.010568536
190	0xbdb2fb8d	-0.08739386
191	0x3e7b99f2	0.24570444
192	0xbd53875a	-0.051642753
193	0xbe156cf4	-0.14592344
194	0x3e77f46d	0.24214335
195	0xbe7ad574	-0.24495488
196	0x3e81ebf8	0.25375342
197	0x3d620e79	0.055189583
198	0xbe8a819a	-0.27052003
199	0xbdeefc3c	-0.11669204
200	0x3e6d4ace	0.23173067
201	0x3ebeec61	0.37289718
202	0x3a9a5139	0.0011773474
203	0xbe0a5317	-0.13508259
204	0x3e140a44	0.14457041
205	0x3e69b72d	0.22823782
206	0x3c2397d5	0.00998493
207	0x3e3a8eb7	0.18218504
208	0x3eaa7ef3	0.3329998
209	0x3d6774f4	0.05650802
210	0x3e2eaa22	0.17057088
211	0xbe310dbf	-0.172904
212	0x3d8b734c	0.068091005
213	0x3ea02f51	0.312861
214	0x3e03cfd2	0.12872246
215	0xbe0cc36d	-0.13746424
216	0xbe3afafc	-0.18259805
217	0x3d0f6f9e	0.035018556
218	0xbef19779	-0.47185877
219	0x3e2bea7c	0.16788667
220	0xbe69e7a7	-0.22842275
221	0xbddb9b2e	-0.107229576
222	0x3e613010	0.2199099
223	0x3d789cd7	0.06069645
224	0xbe875f59	-0.26439932
225	0xbe109fa3	-0.14123397
226	0x3d60b56c	0.054860517
227	0xbd86d959	-0.065844245
228	0x3d4e2a56	0.050333343
229	0x3e7d4c9e	0.24736258
230	0xbd540b64	-0.051768675
231	0xbde63d74	-0.1124219
232	0xbe4fbd5a	-0.20287076
233	0xbe6b6920	-0.22989321
234	0xbe5272ce	-0.20551607
235	0x3e10df18	0.14147604
236	0x3e2285ba	0.15871325
237	0xbe43c7ae	-0.1911914
238	0x3e4e0212	0.20117977
239	0x3da10b95	0.07863537
240	0x3e368b9b	0.17826693
241	0xbe85c059	-0.26123312
242	0x3baf4d54	0.0053497944
243	0xbdfe499f	-0.12416386
244	0x3da0e763	0.078566335
245	0xbd0558c1	-0.032555345
246	0x3e91b1a4	0.28455842
247	0xbe3ebad9	-0.18625964
248	0xbe59ba9e	-0.21262595
249	0x3e6e371f	0.23263215
250	0xbdd34ab9	-0.103169866
251	0x3e453dd7	0.19261871
252	0xbe2a123f	-0.16608523
253	0x3d01b6f8	0.031668633
254	0x3e59a47b	0.2125415
255	0xbd448c53	-0.047985386

gnn_base.gnn.gnn1.lin_key.bias f4 [48]
0	0xbd2cb80c	-0.04216771
1	0xbe640dec	-0.22270936
2	0x3e7ccfb9	0.24688615
3	0xbd358c43	-0.044323217
4	0x3e20f76e	0.15719387
5	0xbe049d11	-0.12950541
6	0xbe799beb	-0.24375884
7	0xbe4bb370	-0.19892669
8	0xbe032a1d	-0.12809034
9	0xbda3d721	-0.08000017
10	0xbd0fdc0a	-0.035121955
11	0x3e558e8f	0.20855163
12	0xbe6c311e	-0.23065612
13	0x3dff0737	0.12452548
14	0x3e572b89	0.21012701
15	0x3ac3d3e1	0.0014940464
16	0xbe200918	-0.15628469
17	0x3c00be98	0.007857941
18	0x3d714d7a	0.058911778
19	0x3de20451	0.110359795
20	0xbd9b4010	-0.07580578
21	0xbdafe42c	-0.08588442
22	0xbdf1980d	-0.117965795
23	0xbe77e08e	-0.24206755
24	0x3db41847	0.08793693
25	0xbe41dded	-0.18932314
26	0xbdf6286c	-0.120194286
27	0xbb160dd9	-0.0022896437
28	0x3e454cbc	0.19267553
29	0x3e6449c5	0.22293766
30	0xbe3a6d22	-0.18205693
31	0x3e5e7358	0.21723688
32	0x3e65ab8d	0.22428723
33	0x3e4e761c	0.20162243
34	0x3cb42db6	0.021994453
35	0x3e4dd6da	0.2010149
36	0x3df82a18	0.12117404
37	0xbe37a901	-0.17935564
38	0xbe07007c	-0.13183779
39	0x3b8d5737	0.0043133753
40	0xbe35459a	-0.17702332
41	0xbda8b871	-0.082383044
42	0x3e4ef305	0.20209892
43	0x3dee68bf	0.116410725
44	0x3e5f09ce	0.21781084
45	0x3af654bb	0.0018793562
46	0xbe02b3d7	-0.12763916
47	0x3e2a4fb1	0.16631962

gnn_base.gnn.gnn1.lin_query.weight f4 [48, 16]
0	0x3c3a2f4f	0.011363818
1	0x3da104c9	0.07862241
2	0xbcca2e63	-0.024680322
3	0x3e1df53b	0.15425579
4	0xbe21cd68	-0.15801013
5	0x3ea4abea	0.3216241
6	0x3e5344ab	0.20631664
7	0x3da65509	0.08121688
8	0x3d687cba	0.056759574
9	0x3dd8eabd	0.10591648
10	0xbe860ee9	-0.2618325
11	0xbeaadf55	-0.33373514
12	0xbda0639b	-0.07831498
13	0x3eccf5ec	0.40031374
14	0x3c5a663a	0.013330037
15	0x3e25fd53	0.16209917
16	0x3ebde4c4	0.37088597
17	0x3db6381f	0.08897423
18	0x3d2a8c2b	0.04163758
19	0x3de020f3	0.109437846
20	0xbe48f465	-0.19624479
21	0xbdd93775	-0.10606281
22	0xbd837320	-0.06418443
23	0xbd2e6fed	-0.04258721
24	0x3e20c8ca	0.15701595
25	0x3eca6008	0.3952639
26	0x3e63e2b9	0.22254457
27	0xbdca8ef0	-0.098905444
28	0xbe36279f	-0.17788552
29	0xbec465b5	-0.38358846
30	0xbbb35a6d	-0.005473426
31	0xbe7f8c52	-0.24955872
32	0xbd815b96	-0.06316297
33	0xb8faad43	-0.000119532015
34	0x3d73788e	0.05944114
35	0x3e136963	0.1439567
36	0xbea1ebf0	-0.3162532
37	0x3e936236	0.28785866
38	0xbe0996cd	-0.13436432
39	0xbe51138d	-0.20417614
40	0xbe48909b	-0.19586413
41	0x3c20a577	0.009805075
42	0x3dca74bb	0.09885546
43	0xbe1714f1	-0.14754082
44	0x3c8749a0	0.0165146
45	0x3d47348b	0.048634093
46	0xbe09abca	-0.13444439
47	0xbe8270f7	-0.2547681
48	0x3d8f8dc4	0.070094615
49	0xbe173fb4	-0.14770395
50	0xbca476ec	-0.020076238
51	0x3e3dc418	0.18531835
52	0x3e61ab83	0.22038083
53	0x3c1b1088	0.009464391
54	0x3dc44b91	0.09584726
55	0x3b082e33	0.002077949
56	0xbcc352f5	-0.023843268
57	0xbde5dcef	-0.1122378
58	0xbde662b2	-0.112492934
59	0xbe947547	-0.28995726
60	0xbe1efd66	-0.15526351
61	0x3c606a9f	0.013697295
62	0xbe23e004	-0.16003424
63	0x3cf9cb3f	0.030492423
64	0x3c31a14b	0.010841678
65	0xbd93f994	-0.072253376
66	0xbe573563	-0.21016459
67	0x3e353ba4	0.17698532
68	0xbdedef25	-0.11617879
69	0xbe8bcbcb	-0.2730392
70	0x3cc579f9	0.024106013
71	0xbe06f1bf	-0.13178156
72	0x3d96a260	0.07355189
73	0xbedbf916	-0.42963475
74	0xbd8a9fac	-0.06768736
75	0x3cc5ed1d	0.024160916
76	0x3ee59db6	0.44846886
77	0xbeabef1b	-0.3358086
78	0x3c95b7d3	0.01827613
79	0x3dbd85f5	0.09254066
80	0xbd4fbff9	-0.05072019
81	0x3e6e3771	0.23263337
82	0xbd5033e3	-0.050830733
83	0xbdaacefa	-0.08340259
84	0x3cbc0407	0.02295114
85	0x3e43fc74	0.19139272
86	0xbe4f47a4	-0.20242172
87	0x3c01abae	0.007914467
88	0x3c278a26	0.010225808
89	0xbe7a9120	-0.24469423
90	0xbd06070d	-0.032721568
91	0xbe645e12	-0.2230151
92	0xbe514a44	-0.20438486
93	0x3e7a16e7	0.24422799
94	0xbdf0073d	-0.117201306
95	0xbde725ae	-0.11286484
96	0x3e3f0417	0.18653904
97	0xbc598a55	-0.01327761
98	0x3e370259	0.1787199
99	0xbe1deaea	-0.15421644
100	0x3e0f358d	0.13985272
101	0x3e318264	0.17334896
102	0xbd48ecc1	-0.04905391
103	0xbea2adc0	-0.31773186
104	0xbd9e4d8f	-0.07729637
105	0x3e9480f1	0.29004624
106	0xbe0db88a	-0.13839927
107	0xbea9f1fd	-0.33192435
108	0xbeb379bb	-0.3505381
109	0xbe316b13	-0.17326002
110	0x3dc86cda	0.09786387
111	0x3e844c60	0.2583952
112	0xbd869f64	-0.0657337
113	0x3df6614a	0.12030275
114	0xbd5e2c9d	-0.054241765
115	0xbe48dcc6	-0.19615468
116	0xbce7db40	-0.028302789
117	0xbe59cf12	-0.21270397
118	0x3e3118b5	0.17294581
119	0x3d99662e	0.07490192
120	0xbe20d5e5	-0.15706594
121	0x3eb0647d	0.34451666
122	0x3c472e0d	0.012156975
123	0xbe42bcb7	-0.19017301
124	0x3cbdf2f2	0.023187134
125	0xbe8e0fbc	-0.2774638
126	0xbe6a79bc	-0.22898
127	0x3d62e113	0.05539043
128	0x3ebb6669	0.3660157
129	0xbd7138bc	-0.058891997
130	0xbc85a0da	-0.016312052
131	0x3e1924aa	0.14955392
132	0xbe193c4a	-0.14964405
133	0x3e458521	0.19289066
134	0x3e426a81	0.1898594
135	0xbc3023e8	-0.010750748
136	0xbd55bcb8	-0.05218193
137	0x3e3e70ba	0.1859769
138	0x3e7a01fe	0.24414822
139	0xbeaa78c0	-0.3329525
140	0xbe4d6f4a	-0.20061985
141	0xbe45642c	-0.19276494
142	0x3e64ca84	0.22342879
143	0x3cd750b4	0.0262836
144	0x3dba4aae	0.09096275
145	0xbc473d72	-0.012160646
146	0xbd751b53	-0.05984051
147	0xbe66b747	-0.22530852
148	0x3d39564f	0.045248326
149	0x3cbe17af	0.023204653
150	0x3c932fd8	0.01796715
151	0x3d5ef48a	0.05443243
152	0x3dafe01a	0.08587666
153	0x3d3eaee5	0.04655351
154	0x3ecd6107	0.40113088
155	0x3e2a979b	0.16659395
156	0x3e6283a9	0.22120537
157	0xbe919e13	-0.28440914
158	0x3dad2d82	0.084559456
159	0xbe7a34e2	-0.24434236
160	0xbe9428c6	-0.28937358
161	0x3e83112f	0.25599048
162	0x3de602d0	0.11231005
163	0xbcbbc8b3	-0.02292285
164	0xbce63c85	-0.02810503
165	0x3d5d46e1	0.054022674
166	0x3dcb4a68	0.09926301
167	0x3d932eaf	0.071866386
168	0xbe0a3582	-0.13496974
169	0x3d39ac17	0.045330133
170	0xbca4763e	-0.020075914
171	0xbe059c43	-0.1304789
172	0xbe39ac47	-0.18132125
173	0x3e28a001	0.16467287
174	0x3db0717f	0.08615398
175	0xbcb8c59d	-0.022555167
176	0x3e9d1cc7	0.30686018
177	0x3dd7c309	0.10535247
178	0x3e242441	0.16029455
179	0xbdd50dc5	-0.10403017
180	0xbe835aed	-0.25655308
181	0xbe22ee81	-0.15911295
182	0x3d90f78d	0.070784666
183	0xbe5f9ddc	-0.21837562
184	0x3e5984b0	0.21242023
185	0x3e0916bc	0.13387579
186	0xbda3bbc0	-0.07994795
187	0xbecc2f4d	-0.39879838
188	0x3e68139d	0.22663732
189	0xbdc1cf91	-0.09463418
190	0x3dffcd4f	0.124903314
191	0x3de92ac4	0.1138511
192	0x3d89e09d	0.06732295
193	0x3e2f8d25	0.17143686
194	0xba0056d7	-0.00048957526
195	0xbdc46260	-0.09589076
196	0xbe2c9bca	-0.16856304
197	0x3e2c24f4	0.16810971
198	0x3df92a28	0.12166244
199	0xbe0285a2	-0.1274629
200	0xbd58b2bc	-0.05290483
201	0x3dce5ae9	0.100759335
202	0x3e91321e	0.2835855
203	0x3dbec75c	0.093153685
204	0xbcdea89d	-0.02718001
205	0xbee9f096	-0.45691365
206	0xbdce549b	-0.10074731
207	0xbd2d0eca	-0.042250432
208	0xbd035c43	-0.03207041
209	0xbe7cd3bd	-0.24690147
210	0xbe4369a4	-0.19083267
211	0x3e5422b2	0.2071636
212	0xbe3f19da	-0.18662205
213	0xbe57e040	-0.21081638
214	0x3de40f01	0.11135674
215	0x3e9d173a	0.30681783
216	0xbe16c818	-0.14724767
217	0xbeb8f2b0	-0.36122656
218	0xbdbeeda5	-0.09322671
219	0x3f12ae82	0.5729753
220	0xbddd4ddb	-0.108058654
221	0xbdb60079	-0.08886809
222	0x3e88a2bb	0.26686653
223	0xbe267123	-0.16254096
224	0xbd61ca97	-0.055124845
225	0xbe75d5e2	-0.24007371
226	0x3d23760e	0.039907508
227	0x3e38b061	0.18036033
228	0x3e4d2fee	0.20037815
229	0x3e93b27c	0.2884711
230	0xbc75c44e	-0.015000416
231	0x3c6fceec	0.014636736
232	0xbdb5da74	-0.08879557
233	0xbde266d1	-0.11054767
234	0xbd553ef5	-0.052061994
235	0x3d7de6ec	0.061987802
236	0xbddcb917	-0.107774906
237	0x3dc6158e	0.0967208
238	0x3e85cde4	0.26133645
239	0xbe1baf99	-0.15203704
240	0xbe6c4652	-0.230737
241	0xbe888136	-0.2666108
242	0xbe835063	-0.25647268
243	0x3dc032dd	0.093847014
244	0x3e814b03	0.25252542
245	0x3d889928	0.06669837
246	0x3db4da6c	0.08830723
247	0x3e60c4d8	0.2195009
248	0x3e407415	0.18794282
249	0x3d870328	0.06592399
250	0x3dcda92b	0.10042032
251	0x3eaa8bdc	0.3330983
252	0x3dab25e7	0.08356839
253	0xbe897d05	-0.26853195
254	0xbdee86a2	-0.11646773
255	0x3d890b33	0.06691589

gnn_base.gnn.gnn1.lin_query.bias f4 [48]
0	0xbdbc2966	-0.091875836
1	0xbd26f885	-0.04076435
2	0x3e31e00a	0.1737062
3	0xbda0b872	-0.0784768
4	0xbd224a71	-0.039621774
5	0xbcbe72ee	-0.023248162
6	0xbb94f7da	-0.004546148
7	0xbe2543ce	-0.16139147
8	0x3d107ffc	0.035278305
9	0xbe4d50bc	-0.20050329
10	0xbe67c288	-0.22632802
11	0x3e0387b8	0.12844741
12	0xbe918ffe	-0.2843017
13	0x3d4cdd4d	0.050015736
14	0x3d9a91b4	0.07547322
15	0xbe642741	-0.22280599
16	0xbb33832d	-0.002739142
17	0x3e54f2a2	0.20795682
18	0x3e8bb6d6	0.2728793
19	0x3d802ab1	0.06258143
20	0x3d59aa5d	0.053140987
21	0x3dc1176b	0.09428295
22	0x3dc9850b	0.09839829
23	0xbdb55fbb	-0.0885615
24	0xbe5a37f0	-0.21310401
25	0xbe637401	-0.2221222
26	0xbdb7638a	-0.089545324
27	0x3d4b8a6e	0.049692564
28	0x3e56d724	0.20980507
29	0x3dce8133	0.100832365
30	0xbe865ca5	-0.26242557
31	0xbc9416de	-0.01807731
32	0xbeb605c3	-0.3555127
33	0xbe5b86da	-0.2143816
34	0xbd5c6d74	-0.05381532
35	0xbc8d140b	-0.017221471
36	0xbd85c756	-0.06532161
37	0x3e643810	0.22287011
38	0x3c934965	0.017979333
39	0xbde3a053	-0.11114564
40	0x3ed583db	0.4170216
41	0xbea61e1d	-0.3244485
42	0x3e983d63	0.29734334
43	0x3e908e15	0.282334
44	0x3d2b361b	0.041799646
45	0xbd9c4a33	-0.0763134
46	0xbdeecaec	-0.11659798
47	0xbe089afd	-0.13340373

gnn_base.gnn.gnn1.lin_value.weight f4 [48, 16]
0	0xbdc9a9e2	-0.09846856
1	0xbd91216d	-0.070864536
2	0x3ebf8b6b	0.37411055
3	0xbdd7783c	-0.1052098
4	0x3e4f980d	0.20272847
5	0xbe3e47f7	-0.1858214
6	0x3df0ce40	0.11758089
7	0x3d9a248d	0.07526503
8	0xbe8a0733	-0.26958618
9	0x3bac3917	0.005255829
10	0xbb0e937a	-0.0021755383
11	0xbe514cdd	-0.20439477
12	0xbe2bae48	-0.16765702
13	0x3e0557ec	0.13021821
14	0x3e8a73ed	0.2704157
15	0xbdaf3e2a	-0.08556779
16	0x3e08eacf	0.13370822
17	0xbe1dacc8	-0.15397942
18	0xbe6ec379	-0.23316754
19	0x3db674dd	0.08909009
20	0x3eecccc4	0.46249974
21	0xbe21f677	-0.15816675
22	0xbd9d5b1c	-0.07683393
23	0xbdb0da0a	-0.08635338
24	0x3cebd771	0.028789254
25	0xbda39e17	-0.079891376
26	0xbe84523f	-0.25844
27	0x3e4997a7	0.19686757
28	0xbd8c8274	-0.068608195
29	0xbc374101	-0.011184932
30	0x3de4112e	0.11136089
31	0xbd52a2dc	-0.051424846
32	0xbe37a31c	-0.17933315
33	0x3e3c0ac2	0.18363479
34	0x3e4c8244	0.19971567
35	0xbccd7719	-0.025081204
36	0x3e2ac747	0.16677581
37	0x3de374c1	0.111062534
38	0x3e699187	0.2280942
39	0xbe8c83ab	-0.27444205
40	0xbe01765e	-0.1264281
41	0xbd803497	-0.06260031
42	0x3d6aae87	0.05729535
43	0xbe531530	-0.20613551
44	0xbe8f83d8	-0.28030276
45	0xbe7b2747	-0.24526702
46	0xbce06f05	-0.027396688
47	0x3e644e85	0.22295578
48	0x3dcb4d78	0.09926885
49	0x3df7dace	0.121022806
50	0xbe42b289	-0.19013418
51	0xbddb3420	-0.107033014
52	0xbd7d5e35	-0.06185742
53	0xbe8f357a	-0.27970487
54	0x3d89066d	0.06690679
55	0x3e0173d3	0.1264184
56	0x3e956270	0.29176664
57	0x3d7af771	0.061271135
58	0x3e09d115	0.13458665
59	0x3d4b3a19	0.049615953
60	0xbe1b7fe7	-0.1518551
61	0x3dd5be13	0.104366444
62	0x3deb00e6	0.11474781
63	0xbe57decb	-0.21081083
64	0xbdbd693c	-0.092485875
65	0x3e1b8a31	0.15189435
66	0xbd2de8b4	-0.04245825
67	0x3e2b173f	0.16708086
68	0xbd325500	-0.043538094
69	0xbe19f665	-0.15035398
70	0x3bb6b602	0.0055758962
71	0x3e2c1afa	0.16807166
72	0xbdefac73	-0.11702814
73	0xbe3c3906	-0.18381128
74	0x3e2c8dba	0.1685094
75	0xbc0bcb21	-0.008532316
76	0xbcde9634	-0.027171232
77	0xbe13f8ec	-0.14450425
78	0xbe8b7cc3	-0.27243623
79	0xbd883dc7	-0.06652408
80	0xbe461b3e	-0.1934633
81	0x3e242e55	0.160333
82	0xbe701e89	-0.23449148
83	0x3c55eba4	0.013056669
84	0xbcd98ff7	-0.026557906
85	0x3d7f179b	0.06227837
86	0x3e00f790	0.12594438
87	0xbe23ac95	-0.15983804
88	0x3ddd3bec	0.10802445
89	0x3b27ddaa	0.00256143
90	0xbe43d291	-0.19123293
91	0x3e1dcb9a	0.15409699
92	0xbe01f9eb	-0.12692992
93	0x3e12e530	0.1434524
94	0x3e07351b	0.13203852
95	0xbe764c5e	-0.2405257
96	0x3ea16ccc	0.31528318
97	0x3e284acd	0.16434784
98	0x3dd1e852	0.1024939
99	0x3dc39e14	0.095516354
100	0xbe1ea4a4	-0.15492493
101	0x3de66408	0.11249548
102	0x3e3904d2	0.18068245
103	0x3d02f84d	0.03197508
104	0x3e3985e8	0.18117487
105	0xbe7cde7a	-0.24694243
106	0x3e6873bf	0.22700404
107	0xbcc4e0b0	-0.02403292
108	0xbea71c06	-0.32638568
109	0xbcd1b9c6	-0.025601279
110	0x3e88946c	0.26675737
111	0xb82a0d18	-4.0543353e-05
112	0xbdb88f5b	-0.09011718
113	0xbe4fc19e	-0.20288703
114	0xbdacc3a5	-0.08435754
115	0x3c9c8c3c	0.019109838
116	0x3d7d4916	0.06183728
117	0x3d99c596	0.0750839
118	0x3bbd8006	0.005783084
119	0x3db39f9f	0.0877068
120	0xbe3f5452	-0.1868451
121	0x3d32346a	0.043507017
122	0x3d0ffcac	0.035153076
123	0xbed08799	-0.40728453
124	0x3db6f6b3	0.08933773
125	0x3cb7d1a7	0.022438837
126	0xbcd7618e	-0.026291635
127	0x3e2880d2	0.16455391
128	0x3e865804	0.26239026
129	0x3e0a5be9	0.13511623
130	0x3e03a5e2	0.12856248
131	0xbbcbcd7e	-0.006219565
132	0xbd6bc208	-0.05755809
133	0x3d81880f	0.06324779
134	0xbe8f3b66	-0.27975005
135	0x3e0370ca	0.12835994
136	0xbdbe3c54	-0.092888504
137	0x3d774f88	0.06037858
138	0x3e5ed228	0.21759856
139	0x3ec8c4ac	0.3921255
140	0x3e603666	0.21895751
141	0x3d879613	0.06620421
142	0x3e2bf541	0.16792776
143	0x3db3ec08	0.08785254
144	0x3eb58b40	0.35457802
145	0x3e75c1e5	0.23999746
146	0x3d0209a8	0.03174749
147	0xbdc3a59b	-0.09553071
148	0xbd580ed4	-0.052748516
149	0xbd63dbcf	-0.055629548
150	0x3e6d4ba3	0.23173384
151	0xbe6da454	-0.23207217
152	0x3d3ec366	0.046573065
153	0x3d917b16	0.07103555
154	0x3e20c287	0.15699206
155	0xbe4b03d5	-0.1982568
156	0xbd1167b0	-0.035499275
157	0x3e34bc88	0.17650044
158	0xbe9313e4	-0.28726113
159	0x3e92066b	0.28520522
160	0xbc70f948	-0.014707871
161	0xbd9f4956	-0.077776596
162	0xbdd23a17	-0.10264986
163	0xbdaa4636	-0.08314173
164	0x3b315898	0.0027060863
165	0x3dda4eda	0.10659571
166	0x3dfc92de	0.123327
167	0x3dd15e7f	0.10223102
168	0x3d702a87	0.058634307
169	0xbded4b7a	-0.11586662
170	0xbea25a7d	-0.31709662
171	0xbde7d04b	-0.113190256
172	0xbe30b0a3	-0.17254882
173	0xbdaa12a1	-0.083043344
174	0x3d655613	0.05599029
175	0xbeb58a91	-0.3545728
176	0xbe0cc74e	-0.13747904
177	0x3e16e39b	0.14735262
178	0xbea3b9e3	-0.31977758
179	0x3d561f03	0.05227567
180	0xbd607a66	-0.05480423
181	0xbd373a78	-0.044733495
182	0x3e2d1e39	0.1690606
183	0xbe082606	-0.13295755
184	0x3e03a253	0.1285489
185	0xbe467544	-0.19380671
186	0x3e38b29e	0.18036887
187	0x3e8f7e7d	0.2802619
188	0xbe1430be	-0.14471719
189	0x3d6f1933	0.05837364
190	0x3da8b703	0.08238032
191	0x3e78d159	0.2429861
192	0x3e2694ff	0.16267775
193	0x3ce5d8c9	0.028057473
194	0xbd07e4e1	-0.03317726
195	0x3e0bde6d	0.13659067
196	0xbe817df1	-0.25291398
197	0xbd80f8c4	-0.06297448
198	0x3ce42916	0.027851623
199	0xbe814d33	-0.2525421
200	0xbcb3eef7	-0.021964533
201	0xbda855c4	-0.082194835
202	0x3bc1d247	0.0059149596
203	0xbe1f4629	-0.15554108
204	0xbe44fda3	-0.1923738
205	0x3db5d673	0.088787936
206	0x3e57101e	0.21002242
207	0x3e24dd7a	0.16100112
208	0xbe3bf61b	-0.183556
209	0xbe80e346	-0.25173396
210	0xbc80f0a6	-0.01573975
211	0x3d944042	0.07238819
212	0x3bee2196	0.0072671873
213	0x3deba74b	0.11506518
214	0x3c9e7ab1	0.019345613
215	0xbcb9d55b	-0.022684744
216	0x3dad5e39	0.08465237
217	0x3ced5f44	0.02897609
218	0xbd53613b	-0.051606398
219	0xbdac7973	-0.08421602
220	0xbda110e3	-0.07864549
221	0x3dde164a	0.10844095
222	0x3daa1701	0.08305169
223	0x3e357fcf	0.17724536
224	0xbd8b4ef4	-0.068021685
225	0xbe6d0f0f	-0.23150276
226	0xbdc613e7	-0.09671765
227	0xbb350258	-0.0027619805
228	0xbe799112	-0.24371746
229	0xbd124671	-0.03571171
230	0x3cdf10e7	0.02722974
231	0x3d6ae30e	0.057345442
232	0x3ea6c7e7	0.32574388
233	0x3e07d9d8	0.13266695
234	0xbdaa98ec	-0.08329949
235	0xbeadc265	-0.33937374
236	0xbd9d51e5	-0.07681636
237	0xbe6d4ca8	-0.23173773
238	0xbe451f70	-0.19250274
239	0x3e559957	0.20859276
240	0xbedad7eb	-0.42742857
241	0x3e2c9a08	0.16855633
242	0x3e801d43	0.25022325
243	0x3b9e4412	0.004829892
244	0xbc0f2efd	-0.00873923
245	0x3cadcb01	0.021214964
246	0x3deadbd3	0.114677094
247	0xbefab6a1	-0.4896746
248	0x3e102447	0.14076339
249	0x3e5c04be	0.21486184
250	0x3e73070b	0.23733155
251	0x3ca24214	0.0198069
252	0xbe289904	-0.16464621
253	0x3e22b645	0.15889843
254	0xbe3482ac	-0.17627972
255	0x3e92c77a	0.28667814

gnn_base.gnn.gnn1.lin_value.bias f4 [48]
0	0x3d937274	0.071995646
1	0xbdb6e055	-0.08929507
2	0xbdc4fe09	-0.09618766
3	0x3d88c7b8	0.06678718
4	0xbe8ddd67	-0.2770798
5	0xbe14b350	-0.14521527
6	0x3d8383bf	0.06421613
7	0xbe8c801d	-0.27441493
8	0xbe471ca2	-0.19444516
9	0xbd8398e4	-0.06425646
10	0xbd89fa03	-0.06737139
11	0x3e35dcc2	0.17759994
12	0x3e12c219	0.14331855
13	0x3e3091d4	0.17243129
14	0x3d508a99	0.050913427
15	0xbd39174d	-0.045188237
16	0xbd67f929	-0.056634102
17	0xbe481a9d	-0.19541402
18	0xbe1e61fd	-0.15467067
19	0xbe9ba937	-0.30402538
20	0x3d81d2d5	0.06339041
21	0xbe17da76	-0.1482943
22	0x3ca3a83c	0.019977681
23	0x3d9d374d	0.076765634
24	0xbdfdc08b	-0.1239024
25	0x3dd380fd	0.10327337
26	0xbd0b8878	-0.034065694
27	0x3d3b738d	0.045764495
28	0xbdb2a6aa	-0.08723195
29	0x3dfa6e0b	0.1222802
30	0xbe6cc2c2	-0.23121169
31	0xbe9fbc21	-0.31198218
32	0x3e3f0bea	0.18656889
33	0xbe848bda	-0.25887948
34	0x3e9e5bf3	0.30929527
35	0x3d10cf43	0.03535391
36	0x3d5afbf2	0.05346293
37	0xbcac39b2	-0.021023605
38	0x3e2da36f	0.16956876
39	0x3cc4dec1	0.024031999
40	0xbdb206bf	-0.08692693
41	0x3e478b0b	0.19486634
42	0x3e089ed4	0.13341838
43	0x3c11d65e	0.008901207
44	0x3dc964d6	0.09833686
45	0xbdb90352	-0.090338364
46	0xbdefaa7c	-0.11702439
47	0xbe8aeccb	-0.27133784

gnn_base.gnn.gnn1.lin_edge.weight f4 [48, 1]
0	0xbec12140	-0.3772068
1	0xbf82356b	-1.0172552
2	0xbf194f2f	-0.5988645
3	0x3eb44628	0.35209775
4	0x3f84ed3e	1.03849
5	0xbf64c924	-0.89369416
6	0xbf585219	-0.8450027
7	0x3f43c845	0.7647746
8	0xbeb12561	-0.3459883
9	0xbc9ca5a7	-0.019121958
10	0x3f126846	0.5719036
11	0x3f40d7c1	0.75329214
12	0x3eb398c9	0.35077503
13	0x3e0b2d1c	0.13591427
14	0xbdeb22b6	-0.1148123
15	0xbce68734	-0.028140642
16	0x3edfe922	0.43732554
17	0xbf82a720	-1.0207253
18	0xbf97822a	-1.1836598
19	0x3f09c926	0.53822553
20	0xbf60a8b2	-0.8775741
21	0x3f028c9f	0.5099582
22	0x3f3660e7	0.7124161
23	0x3f1ae6f4	0.60508657
24	0x3eba80a6	0.36426276
25	0x3df24d84	0.11831191
26	0x3ed763e8	0.4206841
27	0x3eebcd42	0.46055037
28	0xbbfd4b87	-0.007729951
29	0xbf61a385	-0.88140136
30	0x3f1a117a	0.6018292
31	0x3d1d1f77	0.038360085
32	0x3f2834cf	0.6570558
33	0xbf4411cb	-0.7658965
34	0xbebc5e2d	-0.367906
35	0xbf4b16bc	-0.79331565
36	0x3c888727	0.016666008
37	0x3f431bae	0.7621411
38	0x3e4e6040	0.20153904
39	0x3f5fe576	0.87459505
40	0x3f50c559	0.8155113
41	0xbf3aab80	-0.7291794
42	0x3f754071	0.95801455
43	0xbd6ce3bd	-0.057834376
44	0x3f540a30	0.82828045
45	0x3dd267c9	0.10273702
46	0xbe2c6261	-0.16834404
47	0x3f393df9	0.7236019

gnn_base.gnn.gnn1.lin_skip.weight f4 [16, 16]
0	0xbe98e2ec	-0.29860628
1	0x3da321c6	0.07965426
2	0x3d19bda7	0.037534382
3	0x3c957b57	0.01824729
4	0xbe370db7	-0.17876326
5	0x3e3f411f	0.18677185
6	0xbd9213b6	-0.07132666
7	0x3e3e4b57	0.18583427
8	0x3d62c7c0	0.055366278
9	0x3eaf53a8	0.34243512
10	0x3d4aca40	0.049509287
11	0xbe5cad6d	-0.21550532
12	0xbe49d51e	-0.19710204
13	0xbe529c45	-0.20567425
14	0xbe8c42d2	-0.2739473
15	0xbe4f0011	-0.20214869
16	0x3daf2815	0.08552567
17	0x3e9a681f	0.30157563
18	0xbda5f44b	-0.08103236
19	0xbd3bb5b6	-0.04582759
20	0x3db37d9a	0.08764191
21	0x3e5b0e63	0.21392207
22	0x3e447596	0.1918548
23	0x3bba031e	0.005676641
24	0x3e2be0a2	0.1678491
25	0xbe19de18	-0.15026128
26	0xbeb9014f	-0.3613381
27	0x3d0f8584	0.03503944
28	0x3ca016e0	0.019542158
29	0x3e72d9b7	0.23715864
30	0x3e280cc1	0.16411115
31	0xbc8bc3c2	-0.017061118
32	0x3e561257	0.20905434
33	0xbe6722ec	-0.22571915
34	0x3db34292	0.08752932
35	0xbe9dc146	-0.30811518
36	0xbd08876e	-0.03333228
37	0x3e6f9845	0.2339793
38	0x3e367d8d	0.17821331
39	0x3d8c2acd	0.06844101
40	0x3b97b759	0.004630011
41	0xbe0f3006	-0.13983163
42	0x3e1037a9	0.14083733
43	0xbddd8e57	-0.10818165
44	0x3e6b3bb6	0.22971997
45	0x3d822bc8	0.06356007
46	0xbd12907e	-0.03578233
47	0x3e1f6a26	0.15567836
48	0xbd863407	-0.06552892
49	0xbe9596fe	-0.2921676
50	0x3e0a212c	0.13489217
51	0xbe70d155	-0.23517354
52	0x3ebdb7e4	0.3705436
53	0x3d999d6d	0.0750073
54	0xbe033aa2	-0.12815335
55	0xbe3ee7f8	-0.18643177
56	0x3e268422	0.16261342
57	0x3e3e51a4	0.18585831
58	0x3db2f22f	0.08737599
59	0x3d7ec6c4	0.062201276
60	0xbde20000	-0.11035156
61	0x3e670ccd	0.22563477
62	0x3e68ceae	0.22735092
63	0x3d04e2c4	0.032442823
64	0x3dc4ce60	0.096096754
65	0xbe0c0767	-0.13674699
66	0xbcc8195c	-0.024426155
67	0xbe54d1f1	-0.20783211
68	0xbe7d004e	-0.24707147
69	0xbe81b46b	-0.2533296
70	0x3edb866e	0.42876
71	0x3e7bfe66	0.24608764
72	0xbe0f1a16	-0.13974795
73	0x3de5bdb0	0.11217821
74	0x3dff1b96	0.124564335
75	0xbd8f2346	-0.0698915
76	0xbdf0e371	-0.11762131
77	0x3d1c381c	0.038139448
78	0xbd991825	-0.07475308
79	0x3dc7bbad	0.09752593
80	0xbdbe143e	-0.09281205
81	0xbe667b9a	-0.22508088
82	0x3e8e7917	0.2782676
83	0xbe5902d9	-0.21192493
84	0xbe20a2eb	-0.15687148
85	0x3e9050f2	0.28186756
86	0xbde14dd3	-0.11001172
87	0xbe2f9fbe	-0.1715078
88	0xbe097cec	-0.1342656
89	0xbd80b720	-0.06284928
90	0xbd5ebec2	-0.05438114
91	0xbe3ea2b2	-0.18616751
92	0x3dfbcc6e	0.12294851
93	0x3e8b96c9	0.27263477
94	0xbe1a0400	-0.15040588
95	0x3e6ec01c	0.23315471
96	0x3d4555d6	0.048177563
97	0xbd099484	-0.0335889
98	0xbdca60d0	-0.09881747
99	0x3cf1fbb4	0.029538967
100	0x3d2fb061	0.042892817
101	0x3e2247d1	0.15847708
102	0x3e871c44	0.26388752
103	0x3d0ae31b	0.03390799
104	0x3ea6c0ac	0.32568872
105	0xbe3b43ea	-0.18287626
106	0xbc3748f6	-0.011186829
107	0xbe8a052a	-0.26957065
108	0x3dc7e847	0.097611
109	0x3cf227e3	0.029560035
110	0xbda3a674	-0.07990733
111	0xbe505fe5	-0.20349081
112	0xbdb3afbb	-0.08773752
113	0xbd903066	-0.07040481
114	0xbe118fc6	-0.14215001
115	0xbea397d1	-0.31951764
116	0xbd42435f	-0.04742753
117	0x3ea418ee	0.3205027
118	0xbe5a6104	-0.21326071
119	0x3d69f34f	0.057116803
120	0x3dbbc768	0.09168893
121	0x3beec02b	0.007286092
122	0x3e52f07b	0.20599549
123	0x3e197022	0.14984182
124	0x3adfbcea	0.0017069851
125	0x3aa20c27	0.0012363241
126	0x3eaf1e3d	0.34202757
127	0xbdd5090b	-0.104021154
128	0x3e4095a3	0.18807082
129	0x3e096ae6	0.13419685
130	0x3d83a949	0.06428773
131	0x3df2c572	0.11854066
132	0xbd97d8d1	-0.07414401
133	0x3dfd34ea	0.12363608
134	0xbe5ca836	-0.21548542
135	0x3e2b8760	0.1675086
136	0xbef38b43	-0.47567186
137	0x3b8a2fb8	0.0042171143
138	0x3d19d9c3	0.03756119
139	0xbe14b5c3	-0.14522462
140	0xbd9c2559	-0.07624311
141	0x3ea86d1c	0.32895744
142	0xbded85a2	-0.11597754
143	0xbe217997	-0.15769039
144	0xbea9b022	-0.3314219
145	0x3ea6bc8d	0.32565728
146	0x3d580b4c	0.05274515
147	0xbe0729a3	-0.13199477
148	0xbe50ca4e	-0.20389673
149	0x3b3d9a6e	0.0028931159
150	0x3e72492b	0.23660724
151	0xbde989ca	-0.11403234
152	0x3e4f2c22	0.20231679
153	0xbe34a747	-0.17641936
154	0x3de909c4	0.11378816
155	0xbe3774dd	-0.17915674
156	0x3e63596e	0.22202083
157	0x3e994c5d	0.29941073
158	0x3db2a34f	0.08722555
159	0x3ad91147	0.0016560935
160	0x3cd1d6e9	0.025615172
161	0x3e41a41d	0.1891026
162	0xbe3bdc69	-0.18345799
163	0xbdada24b	-0.084782206
164	0xbe99103a	-0.29895192
165	0x3e5955c3	0.21224122
166	0xbd70199a	-0.058618166
167	0x3e36f8ac	0.17868298
168	0xbd8d5d2d	-0.069025375
169	0xbe10d5cc	-0.14144057
170	0x3e1d331a	0.15351525
171	0xbc634a86	-0.013872748
172	0xbe0067cb	-0.12539594
173	0xbc1c942a	-0.009556809
174	0xbdf86d7c	-0.121302575
175	0xbebdcde9	-0.3707116
176	0xbe3df1cc	-0.1854927
177	0x3d865296	0.06558721
178	0xbdc9cdac	-0.09853682
179	0xbe5a61c0	-0.21326351
180	0x3e57ab14	0.21061355
181	0xbc0774cf	-0.008267595
182	0xbe68c9cb	-0.22733228
183	0x3e11fa4d	0.14255638
184	0x3e11630f	0.14197944
185	0xbe42e976	-0.19034371
186	0x3e47be0b	0.1950609
187	0x3e6d7523	0.23189215
188	0xbe9d4937	-0.3071992
189	0x3ef61ac5	0.480673
190	0x3e708e07	0.23491679
191	0xbeb71a4f	-0.3576226
192	0xbde77694	-0.11301914
193	0xbe9a4480	-0.30130386
194	0xbe9dfd95	-0.3085753
195	0xbcfbe1e3	-0.03074736
196	0x3e238d38	0.1597184
197	0x3ca6a6b7	0.020343168
198	0x3d22df2f	0.039763626
199	0xbddfdc84	-0.10930732
200	0x3e3b3f61	0.18285896
201	0x3e0a38d7	0.13498245
202	0x3e88e151	0.26734403
203	0x3d50804d	0.050903607
204	0xbe5775fa	-0.21041098
205	0xbc77961e	-0.015111474
206	0xbe2f1801	-0.17099
207	0x3e986669	0.29765633
208	0xbe441ddd	-0.19152017
209	0x3e8ab38f	0.27090117
210	0x3e1fc67f	0.15603064
211	0xbbb4d108	-0.0055180825
212	0xbe6c2879	-0.23062314
213	0x3da68a24	0.08131817
214	0xbce8ae33	-0.028403377
215	0xbefb9fd9	-0.49145392
216	0xbe93903a	-0.28820974
217	0x3e46e2f6	0.19422516
218	0xbea6e82c	-0.32599008
219	0x3d626128	0.055268437
220	0x3cb9280d	0.022602106
221	0xbe78c521	-0.24293949
222	0x3dfb5da3	0.12273719
223	0xbd85c9d3	-0.065326355
224	0x3e0f9977	0.14023386
225	0xbe6c1658	-0.23055398
226	0xbcf19b43	-0.02949298
227	0xbd09e836	-0.03366872
228	0x3de3f31f	0.11130356
229	0xbec1ec11	-0.37875417
230	0xbe6b5d9e	-0.22984931
231	0x3eacf1e5	0.337783
232	0x3dcf88e0	0.10133529
233	0x3e956106	0.29175586
234	0xbbc49f95	-0.006000469
235	0x3e283da9	0.16429771
236	0x3d585bd5	0.052821953
237	0x3dcbfafe	0.09959982
238	0xbe92a053	-0.28637943
239	0x3da9ba1c	0.08287451
240	0x3c2359da	0.009970153
241	0xbe1a7f77	-0.15087686
242	0xbddf0b7d	-0.10890863
243	0x3cea1c64	0.02857799
244	0x3cd69053	0.026191866
245	0x3e3e2097	0.1856712
246	0xbd01faae	-0.031733207
247	0xbe840492	-0.25784737
248	0xbe231380	-0.15925407
249	0xbd37cbfa	-0.04487226
250	0x3ea7f21e	0.32801908
251	0xbe327854	-0.17428714
252	0xbdc23ad3	-0.09483876
253	0x3ea8ecb2	0.32993084
254	0x3e16f1f4	0.14740735
255	0xbe099793	-0.13436727

gnn_base.gnn.gnn1.lin_skip.bias f4 [16]
0	0xbd151eda	-0.036406375
1	0x3d9fc5af	0.07801377
2	0x3d81bd6d	0.06334958
3	0xbe62a26d	-0.22132273
4	0xbe81315b	-0.25232968
5	0xbe28f327	-0.16499005
6	0x3e331ebe	0.17492196
7	0xbe197fbb	-0.14990132
8	0xbe50dc5c	-0.2039656
9	0x3e735cee	0.23765919
10	0x3db1aa4f	0.08675062
11	0xbda9a04a	-0.08282526
12	0x3d5f6631	0.054540817
13	0xbe16e3c4	-0.14735323
14	0xbe4f4f05	-0.20244987
15	0xbe9fee21	-0.31236365
