model_weights/FA_FR/tube/tube_1817/critic.pt (torch, 191947 bytes, 57 tensors)

gnn_base.gnn.embed_layer.layer_norm.weight f4 [16]
00000000: 9f88 823f 7214 623f 7236 863f 6819 6a3f
00000010: 3602 873f ebdb a13f ad39 b83f 60a6 853f
00000020: b0ab 823f 7b45 863f 4c66 723f 297e 683f
00000030: 6d02 613f a849 503f 1d25 8d3f efb3 8f3f
1.0197943 0.8831245 1.0485365 0.91445017 1.054755 1.2645239 1.4392601 1.0441399
1.0208645 1.0489954 0.9468734 0.90817505 0.87894326 0.8136239 1.1026951 1.1226786

gnn_base.gnn.embed_layer.layer_norm.bias f4 [16]
00000000: 90ee 7b3c 1a57 13bd b297 63bc da96 c93d
00000010: a737 3c3d 5eed 693c a0cb 1cbd 3f7c 47bb
00000020: 6093 6b3d 7965 7d3d 853b 90bd d5fe 41bd
00000030: 6547 71bd ce89 cf3c e9a4 8f3c 6c2a e2bb
0.015376702 -0.03597174 -0.013891147 0.09843226 0.04595151 0.014277784 -0.03828013 -0.0030439047
0.057513595 0.06186435 -0.070426024 -0.047362167 -0.058905978 0.025334265 0.01753469 -0.0069020297

gnn_base.gnn.embed_layer.entity_embed.weight f4 [4, 2]
00000000: f8a8 17bf f823 013f 91c0 e23f 6d23 f4be
00000010: 70ff 6fbf 5cff 7c3f 6eff e73d 2e6c c73e
-0.592422 0.5044551 1.7715017 -0.47683278 -0.9374914 0.9882715 0.11328016 0.38949722

gnn_base.gnn.embed_layer.lin1.weight f4 [16, 15]
00000000: d65d 323e 390f 51be 17d8 aa3e b649 62bf
00000010: bd13 bf3e cc3f a23d 6287 6ebe 7734 44be
00000020: 80e9 293f 7787 3fbf 3857 3f3e 461b 533e
00000030: 6d42 00be 560b c9bd 8c47 e7bd 961a 70bc
00000040: a2e5 1b3e 617b 3f3e 4225 973e 3c76 3d3f
00000050: 8b3a d4be 1e8e 16be ea69 263e 075d 68be
00000060: fb83 123f a34a f4bd 0c5e 833d 14d5 e03e
00000070: f26b 6a3d dc2b dcbe c1de 5b3e d39b 2a3e
00000080: bf08 c6be accb 01bf 0157 783c 4400 15be
00000090: 5183 89be 0d0d a1bd 8170 a8be 1fc8 13be
000000a0: d8d7 6c3e 0e17 ea3e 2104 d93e dc8b a6be
000000b0: ab77 cb3e f101 533f 1af4 c23e f930 0b3f
000000c0: cab8 653c df5d 8c3d 674f 463f 90ee 323e
000000d0: 774c 073f adcf 7e3e 0680 593e c30b 683f
000000e0: 77bc c03d 6f57 24be 5559 ce3d be11 27bf
000000f0: ae18 273e 9f12 ac3d 69f4 103f b2ed 57be
00000100: 9d0e 2dbb 3b00 adbe c793 d83c 448e 0c3d
00000110: d142 d0be 0bf6 2fbf eb18 3d3f 8147 85be
00000120: dfe2 3bbe 2491 2e3f 1e6a c13d 1d84 8a3e
00000130: df67 7c3d 847b a23f e2e4 da3e 9b7f 2e3e
00000140: 781f 4f3d 3cac 723e 105f 07bf 6716 733f
00000150: d6ab 773e f794 af3e 6258 4d3f 2957 bfbd
00000160: 0eb2 863e 9f59 493c 52fa 83be 7a48 383e
00000170: 43c0 05bf 6f86 4c3f bd1b 99bc 8f38 a03d
00000180: fa51 60bf a2b4 3dbf 1c67 41bf 84d6 083f
00000190: 8250 d3be 7289 973f 66ad ac3e 1e1a e73d
000001a0: ef3c 463e 50e5 653d 72f4 bc3e d4be 21bf
000001b0: 067a ad3e d098 0b3e c159 b0be 9ef6 bdbe
000001c0: 56ef 5c3e 733a 303e b82e 2d3f 223a 56bd
000001d0: 5b88 563f 0aff 52bf 4af4 723e 21c2 49be
000001e0: 12c9 503e ba2b 01be 778c 363e 8a54 943e
000001f0: cc03 453e 28bf d73c 6e8f 2dbf 884d d6be
00000200: d8c4 f3bb d018 d5be 90e1 a93e d1bb c0be
00000210: a19f d0be e914 59bf 1874 063e 43d6 bfbe
00000220: cfb6 c9bb 1269 b33e 4fa3 85be 419d 8dbe
00000230: db54 833e 6978 84be ee01 403f 29e1 64bf
00000240: 26ac 9ebd 27ff 3abf 7ac0 2e3e 42c1 edbe
00000250: f4b6 6bbe 15da 27be 71d6 f03c 736b c13d
00000260: cee0 693e 54e6 23bf 34a9 d4bd 9f11 a5be
00000270: 3cc4 f23e f7ba 4ebe 8ba2 64be 9a20 383f
00000280: 0179 8cbc c76e 273d fd18 5fbc f988 dcbe
00000290: 0af9 163e 0588 bebd 4327 78be 493a 183e
000002a0: 7374 11bf 805a 9fbe cd1e 7bbe d23f 09bf
000002b0: e3f0 43bf 5d7a 3b3d 19f3 57bd f23b b43d
000002c0: e834 f7be 70d5 d3bd e3b0 653e 06b0 1dbe
000002d0: f698 2d3d 6166 15be 4432 5f3b de01 363e
000002e0: deb8 d2be fd55 41bf 699e 803e 2fac 903e
000002f0: c1ac 0ebd 44d4 ccbe b524 573d 97c7 e73e
00000300: d18f 603e 0925 7dbe bb95 a4be e523 c53e
00000310: 1bdb 1dbf 2607 94be 80bb 74be 4fbc 3a3d
00000320: 4490 ac3e c654 d43c 3ee5 eb3a 7a0f 82be
00000330: 598f 9d3e 9c5a 5b3e 320b 9d3d 381f 18bd
00000340: 03bf 053f 423d 873e e320 353e a83e febc
00000350: b29d c2be d3cc 35be 8614 13be 7504 36bd
00000360: 438b 2cbf 6631 12be a1f9 08be ed4a 73be
00000370: 2c03 57bf 2160 54be c46d c53e b3a3 b93d
00000380: b90d 33bf 247f 6abe f854 47be 94d2 44bf
00000390: 3848 81be 445e 9e3e 7224 fb3c 3005 043f
000003a0: 6f17 16bf aacf 21bf a37e a9be dce7 01be
000003b0: 2440 3dbe eff2 aabe a6f8 2ebd f86c 0abf
0.17418608 -0.20415963 0.33367988 -0.88393724 0.37319747 0.079223245 -0.23293832 -0.19160639
0.6637192 -0.7481608 0.18685615 0.20615873 -0.1252534 -0.09816615 -0.11292943 -0.014654776
0.15224317 0.18699409 0.29520613 0.74008536 -0.41450915 -0.14702651 0.1625134 -0.22691737
0.57232636 -0.11928298 0.064144224 0.43912566 0.05723185 -0.43002212 0.21471693 0.16661005
-0.38678548 -0.50701404 0.015157462 -0.14550883 -0.26858 -0.07863817 -0.32898334 -0.14431809
0.23129213 0.45720714 0.42385963 -0.3252858 0.39739737 0.8242484 0.3807686 0.543716
0.014021108 0.06853842 0.7746491 0.17473817 0.5285105 0.2488391 0.21240243 0.90642947
0.09410947 -0.16048978 0.100756325 -0.6526145 0.16318008 0.08401989 0.5662294 -0.21086767
-0.0026406415 -0.33789238 0.026437653 0.034315363 -0.40675977 -0.68734807 0.73866147 -0.26031116
-0.18348263 0.68190217 0.09444068 0.2705392 0.061622497 1.2693944 0.4275275 0.17040865
0.05056712 0.23698515 -0.5287943 0.9495606 0.24186644 0.3429334 0.80212986 -0.09342796
0.2630772 0.012289434 -0.25776917 0.17996398 -0.52246493 0.7989263 -0.018689984 0.07823288
-0.87625086 -0.7410375 -0.7554796 0.53452325 -0.4127236 1.183882 0.33726043 0.11284278
0.19359182 0.056126893 0.36905247 -0.63181806 0.3388216 0.13632512 -0.34443477 -0.37102216
0.21575674 0.17209797 0.6764941 -0.052301534 0.8380181 -0.8242041 0.23726001 -0.1970296
0.20389202 -0.12614337 0.1782702 0.28970748 0.1923973 0.026336268 -0.6779698 -0.41856027
-0.007439237 -0.41620493 0.33179903 -0.37643293 -0.40746787 -0.8479753 0.13130224 -0.37468156
-0.0061558257 0.350411 -0.26101157 -0.27659038 0.25650677 -0.25873116 0.75002944 -0.8940607
-0.077476785 -0.7304558 0.17065611 -0.46436507 -0.2301901 -0.16391785 0.029399129 0.094443224
0.22839662 -0.6402333 -0.103838354 -0.32240006 0.4741534 -0.20188509 -0.2232763 0.71924746
-0.017147543 0.04087713 -0.0136167975 -0.43073252 0.14743438 -0.093032874 -0.24233727 0.14865984
-0.5681831 -0.31123734 -0.24523468 -0.5361301 -0.7653944 0.04577099 -0.05272207 0.08800496
-0.48282552 -0.10343444 0.22430758 -0.15399179 0.042382203 -0.14589836 0.003405706 0.1777415
-0.41156667 -0.7552183 0.25120857 0.28256366 -0.03483272 -0.40005696 0.05252524 0.45269462
0.21929862 -0.24721159 -0.32145485 0.38503948 -0.61662453 -0.28911704 -0.2389965 0.04558974
0.33703816 0.02591933 0.0017997397 -0.25402433 0.30773428 0.21421283 0.07668151 -0.037139148
0.52244586 0.26413924 0.17688327 -0.031035736 -0.38010937 -0.17753915 -0.14363298 -0.044437844
-0.67399997 -0.14276657 -0.13376476 -0.2375905 -0.83989215 -0.20739795 0.38560307 0.09064426
-0.69942814 -0.22900063 -0.19466007 -0.76883817 -0.2525041 0.30931294 0.030657027 0.51570415
-0.58629507 -0.63207495 -0.3310443 -0.12686104 -0.18481499 -0.3338847 -0.0427176 -0.54072523

gnn_base.gnn.embed_layer.lin1.bias f4 [16]
00000000: b837 5f3c b067 5abd e6aa 143d 144a 5a3e
00000010: 2219 86b8 fa16 063d e0e3 b53d f343 d4bb
00000020: b2cb 193c e97b b0bd 05dd b63c b6a3 8dbd
00000030: d8fb 04bd 8539 fb3d 179d 843d 6497 843c
0.013624124 -0.05332154 0.036295794 0.21317321 -6.394299e-05 0.032736756 0.08881354 -0.0064778267
0.009386944 -0.08617384 0.022322187 -0.06915991 -0.03246674 0.1226683 0.06475275 0.01618547

gnn_base.gnn.embed_layer.layers.0.weight f4 [16, 16]
00000000: c979 763f a40e c73c e1d5 c0be 3fd5 f23d
00000010: d0ad 67be 0cfb 593e 227e 383d 8ee5 023e
00000020: db4e 7bbe 2eee 103e c49a 17be cf02 c3be
00000030: b7b8 17bf 0685 023e 7f04 28bf 0c5a b83e
00000040: e2a1 ba3e f608 233e e259 c9be d582 663e
00000050: c39d b5be cb95 273f dd08 3ebf 300e 183d
00000060: 5acf d93e ba70 353e cdc5 a93e 9f73 2c3f
00000070: 811b 36be e73e 31be 8b2f a63e d24e bcbe
00000080: 7f40 f13e 1ab8 b6bc 8384 243e bf06 cd3d
00000090: 58eb 42be cd21 44bf c15c 283f e04f aa3e
000000a0: be3f d53e a061 4ebd 6fde bb3d 3741 933c
000000b0: 064c e53e eea1 f1be c58d de3e 209a 3f3f
000000c0: e174 3a3e 7cab 95bd bcb8 063f 5e27 943d
000000d0: 05d4 1fbf 0ca6 1d3e 9c11 013f 1e88 84bf
000000e0: 6c1c 103e b428 47be d6f5 823d 3af3 193e
000000f0: 3556 92bc 2d14 763d 54fd 2d3e 37fa 4e3d
00000100: 6fbc ca3e fa55 b23d c491 213f 8d32 b1be
00000110: b15d 3d3e 2e69 9bbd 95d4 bb3e 72bf 633e
00000120: 13bc 1e3e e1f1 1d3f 0b0a cbbd a85d 6c3e
00000130: 026d d1be c5ef d5be 0de9 98bc 32bd a6be
00000140: 5700 6abe a47e 623e d939 48bf 4429 af3d
00000150: 2173 b83e 1fa5 6a3d afaf 3d3f b8e2 7ebe
00000160: 5b00 f23e 5694 e83e ca19 4ebe 0a3e 0c3e
00000170: 288d 27be 6910 d3bd e3cb bcbd 4301 903d
00000180: 8e30 833d 4670 423e a450 0c3e 7297 4fbf
00000190: d06c 17be 1df7 46bd 47c1 8cbe 6c8a dcbe
000001a0: d824 2e3d 98db b63c bb84 b4be d649 403e
000001b0: fc13 be3e 2df8 88be c392 2e3e 24d5 80be
000001c0: d230 8bbe 5975 e3bd 85dd babd 4925 d8be
000001d0: 4391 2bbe c209 c23e 9dc9 7fbe 51e1 0b3f
000001e0: f230 8b3e 78c8 fc3e 0145 dcbe 0c12 2abd
000001f0: e523 803e c130 193f 8d28 533e 3761 bb3e
00000200: 537a 4dbe 4890 713f 6671 853e ed65 153f
00000210: cd9a 56bc 86dd bf3d c291 82be 935a 1e3e
00000220: 52aa de3d d942 bfbe 9111 cbbe aafd 8c3d
00000230: 1649 f2bd 4b10 273d 0897 9f3d 21ad 3a3e
00000240: f226 743e 9080 e73e dee6 9c3d 023b 303d
00000250: 9942 cabe 026a a93e 7ddf 543f fae5 c33e
00000260: cd6c cdbd 17e4 10be df62 ca3e 6db0 15bf
00000270: 55f2 093f 8c63 ed3b 27da b7bd d1bd 1dbf
00000280: e943 bdbe cefc a2bd eead 063f 1abf 113d
00000290: dd46 76be 5c1a e33e 2a29 bf3e b2a3 b63e
000002a0: 6a88 ec3d 7237 6b3d e29f 573e c4e5 d03e
000002b0: b69b 56bd d469 18be 17bf 88be dd10 a73e
000002c0: 9f5c f93c d886 6c3e 8c90 89bc 0c88 e6be
000002d0: 3c4a 173f 21a3 8f3f 8754 7abd aa61 91be
000002e0: 62ce c53e 9252 dc3a 34bc 993e b23b c7be
000002f0: 454f 9e3d 611d dfbc 5559 5b3e c5ba 813e
00000300: 35f9 a33e 5df2 33be 7a08 a2bc b459 8dbe
00000310: e3a5 543e 85a0 1dbd 9ea8 d33e 73f6 b43e
00000320: 2a3f 003e 53a1 60bf 5026 48be 777e 8b3e
00000330: 2bf6 c9be 9783 b93e cb70 ba3e 8c42 b5bd
00000340: 0c6a 2d3f 9860 2dbe 55d7 bc3e 394a b33e
00000350: d8e8 283f 929f f93d be65 32be 0eaf 17bf
00000360: 81a8 7c3d 902c 0b3e 8cae 64bd f0dc df3e
00000370: 8efe da3e b720 163f cdff 70be 666e 2c3e
00000380: 51be 573d 5575 d3be 38d2 45bc b31a a73d
00000390: 2e21 b2bd fb2a 823e 92b5 9bbe e67e 22be
000003a0: d7ff 833f b5dc c9be d064 6abe 4806 5abe
000003b0: b449 833c 8380 bdbe 0938 44bf 6745 0ebf
000003c0: 9620 c3bd 8fd8 703e 7b61 543e f6fd debe
000003d0: 7248 2cbe 53f5 35bf 3cfc efba c3d0 4ebe
000003e0: 4ac9 c53e 1716 07be aeda 2f3f 4dd8 8f3e
000003f0: 705a 2abe 06fc 0e3f 63ea 63be cb5a f43e
0.9627958 0.024298973 -0.37663177 0.1185708 -0.22624898 0.21287173 0.045042165 0.1278288
-0.245418 0.14153358 -0.14805132 -0.3808808 -0.5926623 0.12746057 -0.6563186 0.360062
0.36451632 0.15921387 -0.39326388 0.22510846 -0.35471925 0.6546294 -0.74232274 0.037122905
0.4254101 0.17718783 0.33158723 0.67363924 -0.1778393 -0.17309152 0.32458147 -0.36778885
0.4711952 -0.022304583 0.16066174 0.10011052 -0.19035089 -0.76614076 0.6576653 0.33264065
0.41650194 -0.05038607 0.09173285 0.017975433 0.44784564 -0.47193855 0.43467537 0.7484455
0.18208648 -0.07308099 0.5262563 0.07234071 -0.6243289 0.15395373 0.50417495 -1.035404
0.14073342 -0.19449121 0.06394546 0.1503419 -0.017863372 0.060077835 0.16991168 0.050531592
0.39596888 0.08707805 0.63113046 -0.3460888 0.18492772 -0.07588421 0.36685625 0.22241
0.15501432 0.616972 -0.09914025 0.23082602 -0.4090348 -0.41784492 -0.018665815 -0.3256622
-0.22851692 0.22118622 -0.7821327 0.08552793 0.36025336 0.057286378 0.74096197 -0.24891174
0.47265896 0.4542567 -0.20127025 0.13695541 -0.1636244 -0.10305864 -0.09218576 0.07031491
0.064057454 0.18988141 0.13702637 -0.8109046 -0.14787602 -0.04857551 -0.2749121 -0.43074358
0.042515606 0.022321507 -0.35257515 0.18778166 0.37124622 -0.26751843 0.17048173 -0.25162613
-0.27185684 -0.11106367 -0.09124283 -0.42215946 -0.16754632 0.3789807 -0.24979253 0.5464068
0.2718578 0.49371696 -0.43021396 -0.041521117 0.25027385 0.5984002 0.20620938 0.36597607
-0.20066194 0.9436078 0.2606308 0.5835865 -0.013098431 0.09368424 -0.2550183 0.15464239
0.1087233 -0.37355688 -0.3966184 0.0688432 -0.11830346 0.040787023 0.07792479 0.18230106
0.23842981 0.45215273 0.07661222 0.043025024 -0.39503935 0.3308869 0.83153516 0.38261396
-0.10030518 -0.1414951 0.39528558 -0.5847233 0.53885394 0.007244533 -0.08977156 -0.6161776
-0.36965874 -0.07958375 0.52609146 0.03558264 -0.2405047 0.44356048 0.37336093 0.35671765
0.115494564 0.057425924 0.21057084 0.40800297 -0.05239459 -0.1488412 -0.2670829 0.32630053
0.030439673 0.23098314 -0.016792558 -0.4502567 0.5909765 1.1221658 -0.061115768 -0.28394824
0.3863402 0.0016809276 0.300264 -0.3891273 0.07729963 -0.027235689 0.21420796 0.25337806
0.32026067 -0.17572923 -0.019779433 -0.276075 0.20766406 -0.03848316 0.41339582 0.35344276
0.12524095 -0.8774616 -0.19545865 0.27244923 -0.39445624 0.36233208 0.3641418 -0.088505834
0.6773994 -0.16931379 0.36883035 0.35017565 0.6598029 0.12188639 -0.17421624 -0.5925149
0.061684135 0.13591218 -0.055830523 0.4372325 0.42772335 0.5864367 -0.2353508 0.16838989
0.052671734 -0.41300455 -0.012074046 0.08159389 -0.08697735 0.25423416 -0.30411965 -0.1586872
1.0312451 -0.394262 -0.2289002 -0.21291459 0.016026355 -0.3701211 -0.76648 -0.5557465
-0.095277 0.2352011 0.20740311 -0.43553132 -0.1682451 -0.7107746 -0.0018309425 -0.20196824
0.38630134 -0.1319202 0.68693054 0.28094712 -0.16636062 0.5585331 -0.2225738 0.4772552

gnn_base.gnn.embed_layer.layers.0.bias f4 [16]
00000000: c042 3dbd 3962 303d b2e1 18bd aca4 18be
00000010: cd84 4f3d 7756 6ebb 4b82 e8bd 0b76 293e
00000020: d76e 983b c967 f6bc 3e5c f0bd c4b9 313d
00000030: 15cf e4bc ada5 76ba 7f0b 413c e7ed acbc
-0.046206236 0.043062422 -0.037324615 -0.14906567 0.050663758 -0.0036367455 -0.113529764 0.16548936
0.004651885 -0.030078785 -0.11736344 0.04339005 -0.027930776 -0.0009408843 0.011782526 -0.021109534

gnn_base.gnn.embed_layer.layers.2.weight f4 [16]
00000000: 9f88 823f 7214 623f 7236 863f 6819 6a3f
00000010: 3602 873f ebdb a13f ad39 b83f 60a6 853f
00000020: b0ab 823f 7b45 863f 4c66 723f 297e 683f
00000030: 6d02 613f a849 503f 1d25 8d3f efb3 8f3f
1.0197943 0.8831245 1.0485365 0.91445017 1.054755 1.2645239 1.4392601 1.0441399
1.0208645 1.0489954 0.9468734 0.90817505 0.87894326 0.8136239 1.1026951 1.1226786

gnn_base.gnn.embed_layer.layers.2.bias f4 [16]
00000000: 90ee 7b3c 1a57 13bd b297 63bc da96 c93d
00000010: a737 3c3d 5eed 693c a0cb 1cbd 3f7c 47bb
00000020: 6093 6b3d 7965 7d3d 853b 90bd d5fe 41bd
00000030: 6547 71bd ce89 cf3c e9a4 8f3c 6c2a e2bb
0.015376702 -0.03597174 -0.013891147 0.09843226 0.04595151 0.014277784 -0.03828013 -0.0030439047
0.057513595 0.06186435 -0.070426024 -0.047362167 -0.058905978 0.025334265 0.01753469 -0.0069020297

gnn_base.gnn.gnn1.lin_key.weight f4 [48, 16]
00000000: 5e00 2abe db80 813c 5fdd 16bd b0c7 363e
00000010: e0a8 10be 73bf f0be fc46 9cbe 2d99 643e
00000020: 883b 403e 798a a7bc 1843 403e d1a5 903d
00000030: 77bf 1b3b db82 4abd 6b77 84be 8928 b5bd
00000040: 2832 2b3d f440 57be 5814 273e 3689 3a3e
00000050: 218f 34bd 6089 aebe d9ab 593b 247e 4dbb
00000060: 62c5 0e3e d2d1 95be 5753 d6bb c787 893e
00000070: ead0 47be 8d0f 193e d52a acbe 2841 9ebe
00000080: 149c 8b3e 3401 0c3d c48b 53be b71b 0c3e
00000090: 5a0e 043e 3cf8 9bbd d7fc e6bd 78ad 28be
000000a0: c489 52bc 3781 4dbc bb8f d73c d2fc 183e
000000b0: 772f 223d a7ac 653d 12ce 593e cf49 ae3d
000000c0: d346 8ebd cdc9 193e 7e7c 9cbe aed7 6b3e
000000d0: 64da 1fba 1fbe 10be 891a c63d 45f0 31be
000000e0: a50f bd3e aa61 823e c62b 84bd 9652 a7bd
000000f0: 3d08 70be c6a8 9fbd f003 88bc 599f 633e
00000100: d506 02be b9e5 633e a968 aa3e fa4a 2ebd
00000110: 9af8 56b9 55a7 203e 22fa 433d 73fc d43d
00000120: 8a3a 8d3e bc2b e5be 97ab a03d f9ef 81be
00000130: 3f67 723e 601e 123e 0986 16be d087 68be
00000140: 1f6b 18be 2a5d fbbd 6fd4 973e 3603 8cbd
00000150: 13b0 68be c581 ba3d 0fb6 903c 64fe 113e
00000160: 9eba dabe b3bb ad3e b8f7 97be 34eb aebe
00000170: 027d 5a3e 316d 62bd 2b32 ac3d f574 a53e
00000180: ea6b 803d f6d9 3e3e 7f62 ec3d 4cc0 033e
00000190: cd1d 853d 397d ddbd e8e1 d93a 5f55 07be
000001a0: 777a 333e 3342 d3bd bb9f 95be cef1 0e3d
000001b0: 46a8 e23d 8fee 8b3e 84de 773e b265 aebd
000001c0: d0be 33be 46fe 76bd e0d2 533e 2062 38bd
000001d0: 081b d5bc 3931 423e a11c 803e d554 ed3c
000001e0: baef abbc afbd 483e 2a95 533d 0bb9 d6be
000001f0: 0d72 463e 59ec e93c eaff b73e 91be 5b3e
00000200: dd67 e5bd 9665 3c3e e301 10be 4f4d 993d
00000210: a179 a5bd b669 133d b08b f2bd 0699 8e3e
00000220: 0ef3 63be a026 d83d 6308 23bd 8b34 99bc
00000230: 014d 84bd fe16 de3c be67 5c3e fb09 303e
00000240: 6ced 033e f9e7 5bbe 9ec6 5fbc 6be2 87bd
00000250: 751b 983e 2a9b aebe 9839 b83e e022 d9bd
00000260: 8c34 4d3e 87f5 ba3d d3fd dc3d 1891 883d
00000270: a4f5 eebd 8f51 8b3d 811a e53c 272b c1ba
00000280: 51b3 54be 62da 7e3d ac56 c53e 884c 19be
00000290: 7266 473e d1fd e63c a72a 29be 18a4 d0bd
000002a0: bb0a c7be 6a57 653e 5c22 97be a36e e33d
000002b0: 2ff7 983b 475d e6bd 46fc 40bd ff88 9a3e
000002c0: 8021 81be faa1 38be dd0c 73be 8f1f 3bbe
000002d0: d6a1 82be 7641 bf3d 4acf 073e bd72 f63d
000002e0: afdd 12be 3466 37be 950f b93d 060f c6be
000002f0: d9b7 64bc 3cb2 d2ba 2bbf 563e 10f1 c0bd
00000300: 517e be3c bcc5 413e c9d0 bcbc 08a2 213e
00000310: feb0 f53c 9b79 a0be e993 fabd 5c9f 183d
00000320: 46e8 1e3e 115f 5abe 9f81 593e ec73 003e
00000330: be5b 6b3d 5e8f 313e 0f0f 533d 3031 7fbe
00000340: 3350 06be d007 bf3a 0766 3f3d c26e 1abe
00000350: 4199 d53d 662c b23e e43f 4d3e b2c4 08be
00000360: 45d6 94be 0e3d 553d e26e df3c fd55 debd
00000370: d9dc df3c 953e 2fbe 5cb7 663e ff26 3f3e
00000380: cf9c 4fbd fbaa 8f3d 5bf2 a63e d6bc 2c3e
00000390: c48b bb3d 04ea 9b3d 0344 88bb dfc8 8cbe
000003a0: d888 5f3e a52a 973e b7f2 ffbe 7628 2a3e
000003b0: 7bc1 2dbe 6773 95be 0efa 8cbe df73 c9bd
000003c0: 68af b1bc a922 bbbd 37e7 f3be 3de8 39be
000003d0: d079 12be 7443 d03d a98d 93bc 23ee 1a3e
000003e0: 6e3d debd fcf0 08bf fffc 9f3e 1d2e 40bd
000003f0: da61 f93d 66e2 353e ca67 343e 3791 2fbe
-0.16601703 0.015808513 -0.03683221 0.17849612 -0.1412692 -0.47021064 -0.30522907 0.22324057
0.1877271 -0.020451771 0.18775594 0.07062877 0.0023765245 -0.0494412 -0.2587236 -0.08845622
0.04179588 -0.21020871 0.16316354 0.18216404 -0.04408181 -0.34089184 0.0033214001 -0.0031355703
0.13942483 -0.29261643 -0.0065406966 0.26861402 -0.19513288 0.14947338 -0.33626428 -0.30909085
0.27267516 0.034180835 -0.20658785 0.13682447 0.128961 -0.07615706 -0.11278694 -0.16472423
-0.012850229 -0.012543014 0.026313653 0.14940193 0.039596047 0.056072857 0.21270016 0.085101716
-0.069471024 0.15018387 -0.3056373 0.23031494 -0.00060979114 -0.14135025 0.0967303 -0.17376812
0.36925998 0.25465137 -0.064536616 -0.08170049 -0.23440643 -0.07795863 -0.01660344 0.22228755
-0.12697919 0.22255601 0.33282974 -0.042551972 -0.00020501242 0.15688832 0.047845967 0.10399713
0.27583724 -0.4475993 0.07845228 -0.25378397 0.23672198 0.142694 -0.14699568 -0.22708058
-0.14884613 -0.12273629 0.2965426 -0.0683655 -0.22723417 0.09106783 0.017664937 0.14257199
-0.42720503 0.33932266 -0.29681182 -0.3416382 0.21336749 -0.055279914 0.08408006 0.32315794
0.06270583 0.18637833 0.11542224 0.12866324 0.06499825 -0.108149 0.0016623111 -0.1321616
0.17527185 -0.10315361 -0.29223427 0.03489857 0.11067252 0.27330443 0.24205977 -0.085154906
-0.17553258 -0.060301088 0.20685911 -0.045015454 -0.026013866 0.1896409 0.25021842 0.028971115
-0.020988334 0.19603609 0.051655926 -0.41938052 0.19379444 0.028555082 0.35937434 0.21459414
-0.11201451 0.18398127 -0.1406322 0.074854486 -0.080798395 0.035989486 -0.118430495 0.27851123
-0.22260687 0.10554242 -0.03980292 -0.018701812 -0.0646 0.027110573 0.2152395 0.17191307
0.12883538 -0.2147521 -0.013658194 -0.06634983 0.29708448 -0.34102756 0.3598144 -0.10602355
0.20039576 0.09128862 0.10790601 0.066682994 -0.11667946 0.068026654 0.02796674 -0.0014737592
-0.20771529 0.062219985 0.38542688 -0.149706 0.19472674 0.028197201 -0.16520177 -0.101875484
-0.38875374 0.22396627 -0.29518402 0.11105087 0.0046681385 -0.1124826 -0.047115587 0.30182645
-0.2522087 -0.18030539 -0.23735376 -0.18273757 -0.25514096 0.093386576 0.13262668 0.12033603
-0.14342378 -0.17910081 0.09036175 -0.38683337 -0.013959848 -0.0016074846 0.20971362 -0.09420979
0.023253592 0.18923086 -0.023048775 0.15784466 0.029991623 -0.31342778 -0.12235243 0.037261352
0.15518293 -0.21325327 0.21240853 0.1254422 0.05746054 0.17339846 0.051528033 -0.24921107
-0.13116531 0.0014574472 0.04672816 -0.15081313 0.104296215 0.34799498 0.20043904 -0.13356283
-0.29069725 0.05206018 0.027274553 -0.10856245 0.027326988 -0.17113717 0.22530884 0.1866722
-0.050686654 0.07015034 0.32606778 0.1686891 0.091575176 0.07612994 -0.0041584983 -0.27497002
0.21829545 0.29524723 -0.49989864 0.16616997 -0.16968338 -0.29189608 -0.27534527 -0.09836554
-0.021690086 -0.0913747 -0.4763734 -0.18154998 -0.1430428 0.10169116 -0.018011885 0.15129904
-0.108515605 -0.5349271 0.31247708 -0.046918977 0.12176867 0.17762145 0.17617717 -0.17145239

gnn_base.gnn.gnn1.lin_key.bias f4 [48]
00000000: 4091 6dbe c76c 5ebe e864 14be 03eb ebbd
00000010: a221 b63d 4501 283e 9243 033d c43a 433e
00000020: 789c b33b 14a9 3fbe 4d20 f3bd d611 2a3e
00000030: 11f2 d83d 28b1 35be 78dc 163e 7a53 86bd
00000040: 0e2d 50be aae1 693e f633 9f3d c9c6 813b
00000050: 2a42 843d 0c15 853d d1ee 6cbe 02da a93c
00000060: 8e4e 6fbe ab9f d43d 7b13 f5bd 2b75 513e
00000070: be47 cabd 1727 6abe 1576 d63c 272c 4fbe
00000080: b1ce 13be c1f8 26be 34f7 a73d b926 1abe
00000090: 6f8d 88bb 63f7 8fbd 215c 033e decf 75be
000000a0: 7e3a e3bd 349d b7bd 98f9 6bbe 2d94 c1bc
000000b0: 2eeb 313e 6815 793e 0491 323e ff49 c8bd
-0.2319994 -0.21721183 -0.14491618 -0.11519434 0.08893134 0.16406734 0.032046862 0.19065386
0.005481299 -0.18716842 -0.11871395 0.16608366 0.105930455 -0.17743361 0.1473254 -0.06558891
-0.20329687 0.2283999 0.07773583 0.0039604646 0.06457932 0.06498155 -0.23137976 0.020733837
-0.2336981 0.10382017 -0.11966606 0.20454852 -0.09876965 -0.22866474 0.026179353 -0.20231687
-0.14434315 -0.1630583 0.08201447 -0.15053834 -0.004167251 -0.07029607 0.12828113 -0.24005076
-0.11095141 -0.08965531 -0.23044431 -0.023630226 0.1737487 0.24324572 0.17438132 -0.09779739

gnn_base.gnn.gnn1.lin_query.weight f4 [48, 16]
00000000: da4d 88bd 09ca 8fbd 06c7 2abe e7cf 683e
00000010: 2c54 9a3e 10c1 0fbe 8519 f2be 9879 89bd
00000020: e6b1 fbbd 8cfa 26be d4b9 e3bc 2e95 5ebd
00000030: a2c9 83be 2dde 99bd c4c8 2e3e 6cb1 003e
00000040: ae1f 993c bb00 c13d e823 8f3e d7e7 893e
00000050: 0794 143e f01a 6d3e 417a d3be f300 b7bc
00000060: 6789 3c3e 36b7 83bd b792 babe 92ac c1bd
00000070: de07 91bd 29c9 4abd e02e aaba 19a5 fdbd
00000080: 84ce 18be d8ca 20be 1c8e d1bd 7f68 eb3c
00000090: 9abf 62bd e506 f33c 6c2f 3c3d 6253 e6bd
000000a0: ecbc d03d f334 7f3e 68b7 52be 728a 20be
000000b0: ae72 71be 51b6 24bd d94a 7cbe 5a11 8fbc
000000c0: 05b4 a0bd a13e 1fbe 97aa 90be 2344 6b3e
000000d0: 20f6 ddbd cda5 3a3d e33f 903e 11ee 783d
000000e0: 0f36 573e 3079 903d f5fe 99be b8d9 b13c
000000f0: 19e1 3ebd 9b43 31be 1c56 943e 19fa ae3d
00000100: 2ce2 29be 1584 ad3e d97e ab3e 3444 62be
00000110: f249 12be 72f3 90be e6c1 64bd bd2d 88bd
00000120: 3313 c33d 0325 b8be b396 09be 36c7 8fbd
00000130: c318 b63e a956 babd 1735 28be a3ea 553c
00000140: a6a7 ccbd c2d6 a1bc fb0f 6bbe 6fb3 bebe
00000150: 0f0e e7bd dece 623e ebfd 3f3e 3644 35be
00000160: 6afe ebbd a019 75be 20e3 c93e 9417 85be
00000170: d774 c23e 585d a53e e1a0 883e 235d 72be
00000180: 1a23 333e d5d8 1a3e 69f2 773b ba76 663e
00000190: b105 1bbe 7249 35be f041 8c3e a9dc 82bd
000001a0: a6db 803e 1e1c 333e d34d 433e 6f80 3a3d
000001b0: 91fc 57bd a5b5 8fbe ab26 6a3d 8584 ce3d
000001c0: d9db 8abe 1cba 5cbd af36 1fbd 8188 8cbe
000001d0: 2d7d 79bd 4a00 a9be a80c 393e b41c 98be
000001e0: 0498 d5be d590 f3bb 4fa9 c13d cd60 2b3e
000001f0: 3cac 85bd 2eec 363e 96df 20be 5e1d 1dbe
00000200: 9fae fd3c 6208 e9bd 306d dcbe 7203 a23d
00000210: d70d 40be ad13 923e 930f 473e 703f 373e
00000220: 2751 d33b 414e 6e3e fd27 7e3e 8a62 5dbe
00000230: 1497 8ebe cf3a 133e 27a8 1dbe c3c0 b53d
00000240: 2546 18be 61c3 863e 12cf 123e 9a8f 5d3e
00000250: 5aa6 fb3c a351 37bc dea0 273e 9d4a 873d
00000260: 3a83 5fbd 9f6f ca3e e2aa 14be 016e 5c3e
00000270: 89d7 abbe 3499 74be 91a5 593e 7ff1 7a3c
00000280: ee0f 533d 6321 41be 5210 51be 66a5 5d3d
00000290: 5056 09be bb32 5b3e 32fa ef3d d3f1 99be
000002a0: 96a0 243e b0af b2be f13c 0bbd 4df9 c2be
000002b0: 8c40 a93e c662 343e d2af 803e fcd2 04be
000002c0: 0303 823d f61f 6abe ee60 db3c bf31 82bc
000002d0: d85b acbe b304 b5be 15c9 623e 5921 323e
000002e0: 63e4 3cbe 18e0 033d 2943 523e dbba 9c3e
000002f0: 7889 e2bd 732e ddbc 6ae6 c2be d6ca ae3e
00000300: d8e4 c93c 1ea2 78bd 4128 083e 4013 603c
00000310: 3ef1 8b3e 67a8 213c 505e 0dbe ba3b 12bb
00000320: 945a 8e3e d4e7 683d 894a 2abe 0948 b93e
00000330: b715 8a3c 82f4 8a3d 004e bbbe 1a2a 303e
00000340: 70d4 33be 311d 0c3e d7a2 a33d 39c4 d83d
00000350: a880 74be 270e a3bd 0180 d93e 55cc 31be
00000360: db82 84ba 53e2 0e3d 7182 8c3e 08fc 253d
00000370: 8e6b 963d 3e6c b73e cb32 1fbe 901a f6bd
00000380: 7d7f e03d e004 bb3e ec9d 8cbe ae25 24bd
00000390: b5b5 14bd 32d3 6a3c 925e 963e a603 8e3c
000003a0: d2e7 6a3e 3bb3 a7be 36df c43d e48e 0fbe
000003b0: debd 723e 699f 58be ccd5 c73e bff4 9fbe
000003c0: 6013 f73c 86b6 d4be 936c b93d 7c7f 8fbd
000003d0: a47b 1a3c da0f 43bc 1af6 1fbd c1aa 90bc
000003e0: 1d6c 80bd c310 7d3e ba69 e3bd 18bb 59bc
000003f0: cd90 d23c e24e dbbb 9b6e 36bf 98bb c73e
-0.06655474 -0.07020957 -0.16677484 0.22735558 0.30142343 -0.14038491 -0.47285095 -0.06712645
-0.12289791 -0.16306514 -0.02779857 -0.054341488 -0.2573977 -0.0751308 0.17068774 0.12567681
0.018691864 0.094239675 0.27957082 0.26934692 0.14509593 0.23154807 -0.4130421 -0.02233932
0.1841179 -0.06431429 -0.3644006 -0.09456743 -0.07081579 -0.049508248 -0.001298394 -0.123850055
-0.1492253 -0.15702379 -0.10232183 0.028736351 -0.055358507 0.029666374 0.045943663 -0.11246373
0.10192284 0.24922542 -0.20577776 -0.15677813 -0.23578903 -0.040212933 -0.24637927 -0.017464329
-0.07846836 -0.15551235 -0.2825515 0.22975211 -0.1083796 0.045568276 0.28173742 0.060773913
0.21016715 0.07054365 -0.3007733 0.021710262 -0.04660139 -0.17310946 0.28971946 0.08543796
-0.16590184 0.33889833 0.33495215 -0.2209633 -0.1428602 -0.28310734 -0.05584898 -0.06649349
0.09525146 -0.35965738 -0.13436393 -0.07020418 0.35565767 -0.0909856 -0.16426502 0.01305643
-0.09992914 -0.019755725 -0.22955315 -0.37246272 -0.11281978 0.22149226 0.18749206 -0.17701802
-0.11523135 -0.23935556 0.39431095 -0.2599455 0.37979767 0.32297778 0.2668524 -0.23668341
0.17493859 0.15121777 0.0037833697 0.22506228 -0.1513889 -0.17703798 0.27394056 -0.06389744
0.25167578 0.17491195 0.19072656 0.04553264 -0.0527311 -0.2806827 0.057165783 0.1008387
-0.27120855 -0.053888425 -0.03887051 -0.27447894 -0.060910393 -0.33008033 0.18071234 -0.297094
-0.4171754 -0.007433037 0.09456121 0.16736145 -0.06526992 0.17863533 -0.15710291 -0.15343234
0.030967055 -0.11378552 -0.43052053 0.079108134 -0.1875528 0.28530636 0.19439535 0.17895293
0.006448883 0.23272039 0.24819942 -0.21619621 -0.27849638 0.14377902 -0.15396176 0.08874657
-0.14870508 0.26320937 0.14336804 0.21636811 0.030718971 -0.011188897 0.1636996 0.06606028
-0.054568507 0.39538285 -0.14518312 0.21526338 -0.33562878 -0.23886567 0.21254565 0.015316366
0.051528864 -0.18860392 -0.20416382 0.054112814 -0.13411832 0.21406071 0.11717643 -0.3006731
0.16076884 -0.34899664 -0.033993665 -0.38080826 0.33057058 0.17615804 0.2513414 -0.12971109
0.06348231 -0.22863755 0.026779618 -0.015892861 -0.3366382 -0.35355148 0.22147019 0.17395534
-0.18446498 0.032196134 0.20533432 0.3061131 -0.11061376 -0.026999688 -0.38066417 0.34139127
0.024645254 -0.060701482 0.13296606 0.013676465 0.2733249 0.00986681 -0.13805509 -0.0022313432
0.2780348 0.056861714 -0.16629995 0.3618777 0.016856058 0.067849174 -0.36582947 0.1720356
-0.17561507 0.1368301 0.079900436 0.105843015 -0.23877203 -0.07961684 0.42480472 -0.17363103
-0.0010109799 0.03488381 0.2744327 0.04052356 0.07344733 0.3582477 -0.1554672 -0.12016785
0.109618165 0.36527157 -0.27464235 -0.040074997 -0.0363061 0.014332579 0.29369026 0.017335724
0.22939995 -0.3275393 0.096128866 -0.14019352 0.23705241 -0.2115456 0.39030302 -0.31241414
0.030160606 -0.41545504 0.09053912 -0.070067376 0.009428892 -0.011905635 -0.03905306 -0.017659547
-0.06270621 0.24713425 -0.1110415 -0.0132892355 0.025703812 -0.006692753 -0.7126252 0.3901031

gnn_base.gnn.gnn1.lin_query.bias f4 [48]
00000000: 89c5 83be 9fde 9ebc 2c3f 033d 873d 443e
00000010: 6764 e83d 6bb5 8a3e 1c5c 8c3d 1c25 5e3e
00000020: 7a5c cd3d 62ae cdbc 8b12 27bc 8755 7f3e
00000030: d62b 45be 8580 e43d cab5 743d e01a 7f3e
00000040: 5d1c bd3d 5fea b83e bda7 cebd 39a9 eb3e
00000050: 1b25 ab3c d7a6 3ebe c255 c7bc 8245 823e
00000060: 6e46 7abe 0106 a6bc dc8c ed3c 49f7 58be
00000070: 3525 c4bd c988 383d 6c0b 2abe b146 a83e
00000080: 56f3 0ebe 3a95 8ebc 8b64 1fbe 57c5 d1bd
00000090: 3f68 8d3e e2fd 203d b343 4a3e 89f2 85bb
000000a0: c3b1 89be 0997 8fbc 0f30 86bd d6c6 df3d
000000b0: 88bc 663e 3541 3dbe a5f1 3a3e 66a0 9fbd
-0.25736645 -0.019393263 0.032042667 0.19164096 0.11347275 0.27091536 0.06853506 0.21693844
0.10027404 -0.025107566 -0.010197292 0.2493497 -0.19255003 0.11157326 0.05974368 0.24912596
0.092339255 0.3611631 -0.10090587 0.46027544 0.020891717 -0.18618332 -0.024332885 0.25443655
-0.2444093 -0.020266535 0.028997831 -0.21188082 -0.09577409 0.045052323 -0.1660592 0.32866433
-0.13960013 -0.017405141 -0.15565698 -0.10242718 0.27618596 0.03930462 0.19752388 -0.0040877503
-0.26893434 -0.017528074 -0.06552135 0.10926597 0.22532856 -0.18481906 0.18256243 -0.077942654

gnn_base.gnn.gnn1.lin_value.weight f4 [48, 16]
00000000: 1c29 62be e8d0 b23d aeb4 2fbd 19aa 013e
00000010: cd1b c1bd abc7 b5bd 9343 923e 3560 fabc
00000020: f081 453e 9258 abbd d986 7a3e 266f 183e
00000030: 19a9 613e 145b 14be 5446 adbd e9dc 00be
00000040: 4787 22be cb43 2cbe 525b 33be 9a0d 3abc
00000050: 0301 38be 3af8 afbc caac 413e 2506 093e
00000060: 9f7f 6d3b 1af9 e1bd 6f1c 863e 080b 35be
00000070: e3bb 8d3b 4c91 f5bd 8598 883d 4aa4 e1bd
00000080: df6a 943e 668f 7b3d 6814 3e3e 56e7 67be
00000090: 3ea8 5fbe 62e3 05bd fe03 25bd f03a 6c3d
000000a0: fd5d 873e dd33 0b3c 38a8 133e 430c 8bbd
000000b0: c82e 6dbd e8e7 44be 6ff3 273d 84f4 883e
000000c0: 04dc de3d 9031 4a3e f8e5 513e 2baf 5e3e
000000d0: ab00 1ebd 9a37 9b3c 3549 69bd 2fac fa3d
000000e0: b446 cf3d e93e dd3d a5ab 903d e0e9 a7be
000000f0: 336d af3d acdd eebd d8b6 0fbe 26af 833e
00000100: 3780 27be f268 d73d 76e2 783d c117 1bbe
00000110: 5fab 95bc 1712 a13e a5da 0dbe ee1b 46be
00000120: 95ab 463e 71f6 993d 60f3 26be ba5b 053e
00000130: f99e f9bc d99b 2f3e 2c49 593e f14e 4bbe
00000140: a87c a2bc 4b66 4b3e 61b9 c13d 09d1 2abd
00000150: f427 10bd bf06 e33c acae 00be 7213 d53d
00000160: 7e9d 3ebe 3953 773e af0b a8bd eb43 acbd
00000170: 8a58 2b3d 2a22 283d 0d1d 2b3d b6ea 113e
00000180: fa9b 6ebd aeab 9d3d c207 dabe 2594 92be
00000190: 86bd 5fbe 02b4 11be 70fb f0bd f98a 113e
000001a0: 4af4 933d 3685 d8bd a6c9 453e 09ca 2cbd
000001b0: f864 793e 8860 183e 4fb0 6c3e 81e3 24be
000001c0: ca4e 563e 0cab d43e a02a 18be 1749 3f3d
000001d0: c68c 1bbe 8711 443d e830 80be 6ed3 24be
000001e0: 9740 c53c 23dd 1b3e 5e77 29be fa4a 7cbe
000001f0: ff8a 2b3e 170d 233d 579f 2f3e b48b 863d
00000200: a2e2 0c3e a108 92bd 3394 4fbe d1b2 c53b
00000210: 6306 383e 2591 8cbe b35e 98bd 5bed e2bd
00000220: eafe babd 4c9b 94be 3ff0 cb3d 5c69 ccbd
00000230: 3c29 dcbc 1a0b b1bb 5974 143e 99b6 a9bd
00000240: 45fd ea3d e435 a83d a40b b03e 8f1d cebc
00000250: d7fd edbd a2be 4bbe 5884 03bc 82d8 1c3e
00000260: a2ea 12be 9a71 5a3e d5f4 2f3d 7262 343d
00000270: c37d 43be 9ed2 a5bd c6c4 86be b019 3fbe
00000280: 4938 2abe b597 0abe 4349 c8bd cd81 3f3d
00000290: 92e5 393e e26e b7be 094a a33b 0f3d 0f3e
000002a0: ba7c 6ebe 6c8a 2ebe 7b1e 3fbe 483d af3d
000002b0: 0adc 9bbd 0831 4c3e e31e a1be 4a81 573d
000002c0: 6846 fcbd fe9e 3ebe 3fff abbc 9706 713d
000002d0: d293 cb3d c0b2 cbbd 4643 093e 015f 31be
000002e0: 3d24 7d3e 9310 02be c0ca 8a3d 5169 9f3c
000002f0: 1951 7c3e 10f5 7ebc fb5c 333e 8642 86bd
00000300: ccb0 31bd 3cdd 9dbc f91e 673e 6bdc 08be
00000310: 1ece 243e 3474 073d de8f ccbd 45f3 123e
00000320: 32fd 07bd cf55 303e 95b9 003e 2313 0fbd
00000330: 5589 063d 8c6f 793d 875e 973e 47e1 ac3b
00000340: d5ce 4cbe 92d5 87bc 0a1c 72bd 1401 bfbd
00000350: e332 6dbe 4c29 e43d 27bc 8fbc 22c7 813d
00000360: 7370 223c 30c2 53be b677 5b3d 5929 c23d
00000370: 2f10 283d 1cfe 47be 9a32 e43d 568f ccbd
00000380: 4288 023e 76e1 e63d b883 953d dfc1 853e
00000390: c98e 3e3e dc3a a0bc ede5 9c3d fc6d 7e3d
000003a0: 6ade 26be e81d a4bd 8af3 2fbe 9e97 94be
000003b0: 0522 12be 23e6 8bbd d6c7 813e 2e00 eb3a
000003c0: 52c6 c83d 0d8d bbbd 68ea 00be a0b2 0e3e
000003d0: 10c1 823d 3997 6f3e 8a38 17bc 7c01 ac3c
000003e0: c744 d3bd 947d f93d 1ad0 1c3e 5662 5f3e
000003f0: b83c f33d 69b2 323e 261c 4fbd d403 22be
-0.22085994 0.08731252 -0.04289692 0.12662543 -0.09429131 -0.08875974 0.2856718 -0.030563453
0.19287848 -0.08366503 0.24465503 0.1488615 0.22037162 -0.14487869 -0.0846068 -0.1258427
-0.15871917 -0.16822736 -0.17515305 -0.011355782 -0.17969136 -0.021480668 0.1891357 0.1338125
0.0036239398 -0.110338405 0.26193568 -0.1767999 0.0043253764 -0.11990604 0.06669716 -0.11017664
0.28987786 0.061416052 0.18562472 -0.22646841 -0.21841523 -0.032687552 -0.04028701 0.057673395
0.26438895 0.008496252 0.14419639 -0.06789448 -0.057905942 -0.1922909 0.04100364 0.2674905
0.108818084 0.19745469 0.20497882 0.21746509 -0.038574856 0.018947411 -0.05695458 0.12239873
0.101209074 0.10803015 0.070639886 -0.3279562 0.0856575 -0.11663374 -0.14034593 0.25719565
-0.16357504 0.105180636 0.060762845 -0.1514578 -0.018270193 0.31459114 -0.13852938 -0.19346592
0.19401391 0.07517708 -0.16303778 0.13023272 -0.030471312 0.17149295 0.21219319 -0.19854333
-0.019834831 0.1986324 0.09459186 -0.041703258 -0.035194352 0.027713178 -0.12566632 0.104040995
-0.18614766 0.2415284 -0.082053535 -0.08411392 0.041832484 0.041048206 0.04177575 0.14249691
-0.05825422 0.07698761 -0.42584044 -0.2862865 -0.21849641 -0.14228824 -0.11766708 0.1421317
0.07224329 -0.10572283 0.19315204 -0.042184863 0.24354923 0.14880574 0.23114131 -0.16102411
0.20928493 0.41536748 -0.1486001 0.046700563 -0.1519042 0.047868278 -0.25037313 -0.16096279
0.02407865 0.15221076 -0.16549441 -0.24637976 0.16752242 0.039807405 0.17150627 0.06569615
0.13758329 -0.07130552 -0.20271377 0.0060332795 0.17971186 -0.27454486 -0.074399374 -0.11080428
-0.09130652 -0.29024732 0.09957933 -0.09981033 -0.02687513 -0.0054029347 0.14497508 -0.08286781
0.114740886 0.08213404 0.3438388 -0.025160579 -0.11620682 -0.1989694 -0.008027159 0.15316966
-0.14347318 0.21332398 0.0429581 0.044039197 -0.19090943 -0.08096813 -0.26322 -0.18662143
-0.16623034 -0.13534434 -0.097795986 0.046754647 0.1815398 -0.35826784 0.004983191 0.13988136
-0.23289767 -0.17044991 -0.18663971 0.0855661 -0.076103285 0.19940579 -0.31468877 0.052613534
-0.123181164 -0.18615338 -0.020995734 0.058844175 0.09940304 -0.09946203 0.13404569 -0.17321397
0.24720855 -0.12701635 0.06776953 0.019459398 0.24640311 -0.015561357 0.17515938 -0.06555657
-0.043381497 -0.019270532 0.22570409 -0.13365333 0.16094252 0.033069804 -0.09988378 0.14350612
-0.03320045 0.17220233 0.12570794 -0.03493036 0.032845814 0.060897395 0.29564306 0.0052758786
-0.20000775 -0.01658133 -0.05910877 -0.093263775 -0.23163943 0.11140689 -0.017545773 0.0633681
0.009914505 -0.20679545 0.053580962 0.09480543 0.04103106 -0.19530529 0.11142464 -0.09988277
0.1274729 0.11273472 0.07300514 0.26124474 0.18609156 -0.019559316 0.07661042 0.062116608
-0.16295782 -0.08013517 -0.17182747 -0.29021925 -0.1427079 -0.068310045 0.25347775 0.0017929131
0.098034516 -0.09157763 -0.12589419 0.13935328 0.0638448 0.2339753 -0.009229789 0.020996802
-0.103158526 0.12182155 0.1531376 0.21814856 0.118768156 0.1745087 -0.050563954 -0.15821773

gnn_base.gnn.gnn1.lin_value.bias f4 [48]
00000000: 9421 21be ea67 ebbd 9ec9 7d3e c30d 00be
00000010: 1a0d c73a b1da 853c 8f79 0bbe 208c 1cbd
00000020: e415 72be 83b4 7a3e 8d12 2a3e 2d36 76bb
00000030: 7fa4 47be 14e4 503e 77bc 3f3e 147a 823e
00000040: 34bc 373e 4745 093e f8e5 863d 34de 853e
00000050: f9de 43bc b3fe 81be cc28 713d eebc 033e
00000060: bb30 d8bd 9c5d 99bd a55e f23d f149 913e
00000070: ebe9 673c d1a0 4dbe 2794 2b3e 314c 1fbe
00000080: f9af 7a3e 6992 863e 90cf 673c 5d8a b13d
00000090: 4ff8 4e3e 2f2a b93d 2f4b a7bd cf99 bf3d
000000a0: c53e 383e 9419 833d d090 643e 3260 c13d
000000b0: 4c2d 6d3e ae2b b63d 9ed0 7d3e 5a3e 8a3e
-0.15735465 -0.114944294 0.24783942 -0.1250525 0.00151864 0.016339632 -0.1362059 -0.03821957
-0.23641163 0.24482922 0.16608639 -0.0037568912 -0.19496344 0.20399505 0.18724237 0.25483763
0.17942888 0.13405333 0.06586832 0.2614609 -0.011955016 -0.25389633 0.058876798 0.1286504
-0.105561696 -0.07488558 0.11834458 0.28376725 0.0141548915 -0.20080878 0.16755734 -0.15556408
0.2448119 0.26283577 0.014148608 0.08668969 0.2021191 0.09041249 -0.08168637 0.093555085
0.17992695 0.06401363 0.22320867 0.09442176 0.2316181 0.0889505 0.24786612 0.27000695

gnn_base.gnn.gnn1.lin_edge.weight f4 [48, 1]
00000000: e385 a8be 3c12 cebe 8a0d 7d3d 1768 0bbf
00000010: 0c14 00bf cb69 033f d7e3 553f 27bb 863e
00000020: 9c8a f73e 9264 1a3d 6e0b 473f 6dbc 7f3f
00000030: d604 33bf eacd 153f 5750 783f dca7 163f
00000040: 2808 66bf ac6c 6abf cd20 013f 9638 bbbe
00000050: c7f2 68be cd57 713f 817b ad3e 86b7 6cbe
00000060: 96e6 7e3e f7b5 813f 4e78 2cbf 408b f03e
00000070: a0c7 1a3f 81e9 483f b856 283e d7cd 26bf
00000080: 5e00 493e 4fc6 8bbe 9d8d b6be 6ccb 7abf
00000090: dc01 803f 3780 9e3c 735d 423f fc8a 0bbf
000000a0: a3d7 003f 0bb6 7cbf fb05 8bbb 7957 143f
000000b0: 1dad 983e 07d9 383f 3137 3bbd 0853 8dbe
-0.32914647 -0.40248287 0.06178049 -0.54455703 -0.5003059 0.513333 0.8355078 0.2631466
0.48347938 0.037693568 0.77751815 0.9989689 -0.69929254 0.58517325 0.9699759 0.58849883
-0.89856195 -0.9157207 0.50440675 -0.3656661 -0.22748862 0.942746 0.33883289 -0.23116884
0.24892649 1.0133656 -0.6737107 0.4698124 0.60460854 0.784813 0.1643933 -0.65157837
0.19629046 -0.27299735 -0.35654917 -0.9796665 1.0000567 0.019348247 0.7592384 -0.5450895
0.50329036 -0.98715276 -0.0042426563 0.5794597 0.29819575 0.7220616 -0.04570693 -0.2760241

gnn_base.gnn.gnn1.lin_skip.weight f4 [16, 16]
00000000: 29ea 5e3d 9e10 ddbd 7f9d 88be 591e c8bd
00000010: bd27 29be 0e3c 06bd 003c 98bd b4d5 e03d
00000020: 5d69 f8bd 76ee 24be 06dc 0a3e 38d1 60be
00000030: f4b6 8f3e 9a38 e7bd f2ab 003e 7756 2ebe
00000040: 57b0 dabb 30d4 9fbe 4ac4 c53d 548e 883d
00000050: a313 c43d 6310 16be ef52 913e 2666 4e3e
00000060: 8d2d 483e 1552 44bd 6818 e4bd 5f7c e23d
00000070: 8f9a 35be 64eb 70be 45de 6cbe 8606 95be
00000080: df21 433e 24cf bd3d 6308 76be ffde aabd
00000090: a55b 113e cf8c 823c 7a70 34be fdb7 02be
000000a0: 72c2 1ebe 9018 8b3c 25ea 6ebe d26f b7bd
000000b0: 849c 7fbe de66 5c3e c284 9bbc f4b0 013e
000000c0: c59d a8bd b207 50be a0a2 253e aa96 3a3e
000000d0: 1162 59bd cd02 413d 77b4 a4be 482d 88ba
000000e0: 677c e53d 2653 203e c139 f5bc 3d2b d03d
000000f0: dbbf 8e3d eb1b 583e a8ca 59be 7fe0 29bc
00000100: edc5 62ba 237e 1fbe 43e4 c1bd 1bfe 73be
00000110: 6750 32ba 6c48 a83e 717d 25bc 68b3 39be
00000120: 9e15 653e 0648 4bbe bbe1 3fbe 6047 6b3c
00000130: 96ed a03e 07b2 36be 2ce9 243e 4439 efbd
00000140: 96ae 2b3e 76e2 6bbe e8ca 69be 18db 533e
00000150: d378 febb 5048 0cbe ea4d 243d 2cda 183e
00000160: 60d7 df3d a460 8c3e 051b 35be a127 833e
00000170: c32e 0a3e af14 3c3d de4d fbbd bbe8 8a3b
00000180: 2c95 73bc 3f68 58be 1dd1 40be 59c3 dfbd
00000190: 10aa 0c3c ebbb 6b3e 6f7d ae3d 12a0 473d
000001a0: f842 7d3e 76ee 6fbe 9896 a4bd 469b 403e
000001b0: 8bbe 893e 2fa9 2b3d d731 28be 3133 1bbd
000001c0: 8fa1 893e 3b18 933e 8965 58be 58d1 443e
000001d0: ab23 bfbd de21 913d 9252 05be 4189 3b3e
000001e0: 5e7d 2b3e 8ff0 4e3e 89ef efbd 1fde dcbd
000001f0: 6205 3abe 0c3e b3bd 3062 763d f390 943d
00000200: e442 6dbe 578e 183d 1e15 b8bd 7a9b e93d
00000210: 1b3f 723e ea9c 873d efed 92bd f217 16bd
00000220: bb6b 30be 1491 70be 1583 7c3e 5121 51be
00000230: 1752 efbd fcdf 0b3d 4414 17be be8d ef3d
00000240: 95bd 7dbe 3abe dfbd 6322 debd a3c5 6c3e
00000250: b5e4 70be 8510 1cbd 3903 c2bd 44ae b6bb
00000260: 25ec 08bc 7a51 803e 0ab3 5d3c b3a1 f3bd
00000270: b69a c7bc bcec 9ebe 9398 e1bc b6f3 18bd
00000280: e96e 81be 8219 483e 6a35 b03e c6c0 0dbd
00000290: c3e6 3abe deaf 2cbe 11ed 433e 7134 29be
000002a0: 885a 04be 4eae 193d a273 babd 9675 0dbd
000002b0: 5799 13be a743 7dbd cda7 d83e 42d0 583e
000002c0: 0ea6 62bd 8364 1bbe f044 613e 5243 d9bd
000002d0: 8d19 00be 0246 583d af1e 90bc b6d2 303e
000002e0: 3231 683c fbb9 a73e aa71 b4bc 12ab 06be
000002f0: 2dd0 8bbe c377 1e3e 1ed8 cfbd 0d2a 1b3e
00000300: 54ff 1f3e c10f 93be 6de5 a6bd 7313 213d
00000310: 7eb5 f9bd 94b8 40be 0335 2b3e 6796 f6bd
00000320: 22a2 a73e 29b4 903d d128 95be ed65 273e
00000330: 21ec 0e3e de20 53be 026f ef3c 4347 843d
00000340: 715d 90be c46a 6abe c224 80bd 494c 8bbd
00000350: b9e9 bebd 2b09 57bd 78c3 3c3e c1e1 adbe
00000360: 6ad4 27be 1078 8a3e ffe7 38bc c27b 38be
00000370: ee47 e1bd 666c 59be 0d96 b93c e65a 5b3d
00000380: 8e0c 5bbe 1ced 97be ee2f a1bd 139a a3bc
00000390: 1fdc 113e be4f 643e a495 b1bd 22fb 103d
000003a0: 8b5b 513d 75a5 bb3d da79 b0be cfd8 47be
000003b0: e576 bfbe 387d c9bd ad30 663e ed4a ba3d
000003c0: d907 02be 9cdd 4b3d f47b b93d dc64 58be
000003d0: 250a 913e da35 ae3e 1e8c 54bc 70c1 3a3e
000003e0: 220b 63be 8ffd 26be 3c67 2fbc f8a6 85bd
000003f0: 1f85 73bd 14d9 a7be 653f babc b976 95be
0.05442253 -0.10794185 -0.2668266 -0.09771413 -0.16519065 -0.032772116 -0.07433319 0.10978261
-0.121294715 -0.1610659 0.13560495 -0.2195481 0.2806927 -0.11290093 0.12565592 -0.17025171
-0.0066738534 -0.31216574 0.0965658 0.06667772 0.09574058 -0.14654689 0.28383586 0.20156154
0.19548626 -0.047929842 -0.111374676 0.11058878 -0.1773474 -0.23527294 -0.23131664 -0.2910654
0.1905589 0.092680246 -0.24026637 -0.083433144 0.14195116 0.015936283 -0.17621031 -0.12765498
-0.15503863 0.016979486 -0.23331507 -0.08956875 -0.2496205 0.21523616 -0.018984202 0.12665159
-0.08233217 -0.20315436 0.16175318 0.18221536 -0.05307204 0.04712181 -0.32168934 -0.0010389471
0.112053685 0.15656719 -0.029934766 0.10164497 0.06970187 0.211044 -0.21268713 -0.010368465
-0.0008650709 -0.15575461 -0.094673656 -0.23827402 -0.0006802142 0.32867754 -0.010100708 -0.18134844
0.22371528 -0.19851694 -0.18738453 0.014360279 0.31431264 -0.1784135 0.16104573 -0.116808444
0.16765818 -0.23035607 -0.22831309 0.20689046 -0.007765868 -0.1369946 0.040113367 0.14926976
0.109297514 0.2741748 -0.17686088 0.25616172 0.134944 0.045918163 -0.12270711 0.0042391694
-0.014867108 -0.21133517 -0.1882977 -0.109259315 0.008585468 0.23020904 0.08520018 0.04873664
0.24732578 -0.2343081 -0.08036536 0.18809232 0.26903185 0.041909393 -0.16425262 -0.037890617
0.26881072 0.28729424 -0.21132483 0.19220483 -0.09332975 0.07086538 -0.1301978 0.18314077
0.16747043 0.20208953 -0.117156096 -0.10784554 -0.18166116 -0.08752069 0.060152233 0.07254209
-0.23170048 0.03724512 -0.08988403 0.11406608 0.23656885 0.06621726 -0.071742885 -0.03664393
-0.17228596 -0.23492843 0.24659379 -0.20422865 -0.11685579 0.034149155 -0.14753824 0.11696957
-0.24779351 -0.10924955 -0.108464025 0.23122267 -0.23524745 -0.03810169 -0.09473271 -0.0055749733
-0.0083570825 0.25062162 0.013531456 -0.11896076 -0.024365764 -0.3103999 -0.027538573 -0.037341796
-0.2527993 0.1954098 0.34415752 -0.03460767 -0.18252091 -0.16863963 0.19133402 -0.16523911
-0.1292516 0.037519746 -0.091040865 -0.034535967 -0.14413963 -0.061832096 0.42315522 0.21173194
-0.055334143 -0.15175061 0.21998954 -0.106085435 -0.12509747 0.05280114 -0.017592756 0.1726788
0.014171885 0.3275908 -0.022026855 -0.13151196 -0.27307263 0.15475373 -0.10148643 0.1515276
0.15624744 -0.28722957 -0.08149228 0.03932519 -0.1219282 -0.18820411 0.16719441 -0.12040406
0.32740885 0.07065613 -0.29132703 0.16347475 0.13957264 -0.20618007 0.029227737 0.064589046
-0.2819629 -0.2289229 -0.06257011 -0.068016596 -0.09321923 -0.052498978 0.1843394 -0.339613
-0.16389623 0.27044725 -0.011285781 -0.1801596 -0.110000476 -0.21232757 0.022654558 0.053553484
-0.21391508 -0.29673088 -0.0787047 -0.01997093 0.14244126 0.22296044 -0.0867112 0.03539575
0.051112693 0.09162418 -0.34467965 -0.195163 -0.37395397 -0.09838337 0.22479506 0.09096322
-0.12698306 0.04977189 0.09056845 -0.21132225 0.28328052 0.3402546 -0.01297286 0.18237853
-0.22172216 -0.16307662 -0.010705765 -0.065259874 -0.059453126 -0.32782805 -0.022735307 -0.2919214

gnn_base.gnn.gnn1.lin_skip.bias f4 [16]
00000000: bc8d 08be eb18 0bbe cce1 1fbb 67ab 3dbe
00000010: 0fac 4abe 681e edbd ec33 97bb f64d 983c
00000020: 4b4c 6abe dc61 2e3e 9589 c4bd 7de4 56bd
00000030: 2eb1 053e 10fa 393c 52e3 823e 8f82 53be
-0.13335317 -0.13583724 -0.002439606 -0.18522416 -0.19792198 -0.11578065 -0.004614344 0.018591862
-0.22880666 0.17029518 -0.09596554 -0.052463997 0.1305587 0.011351123 0.25564057 -0.20655273
