model_weights/old_FA_FR/tube/feb17/metered/critic.pt (torch, 191627 bytes, 57 tensors)

gnn_base.gnn.embed_layer.layer_norm.weight f4 [16]
00000000: c103 773f 321d 943f c4c5 813f 7bbf 993f
00000010: 5139 813f 17ac a83f 72ad 4f3f 9b7b 893f
00000020: ce22 8f3f 243a 593f 5a43 5f3f f35d 803f
00000030: afaa 673f 4d18 543f 44bf 823f e16d 813f
0.96490103 1.157141 1.0138478 1.201156 1.0095617 1.3177518 0.8112403 1.0740846
1.1182497 0.8485434 0.87212145 1.0028671 0.9049482 0.8284958 1.021462 1.0111657

gnn_base.gnn.embed_layer.layer_norm.bias f4 [16]
00000000: 00fe 02ba 5d75 53be c8aa adbd 0d4a ea3c
00000010: a4e4 433e 3643 a63d 7ef9 963d 9451 01bd
00000020: 4458 873c 0173 593e 82b4 e63d 9f4a aa3d
00000030: fb1e 163e a1f6 c23e 2394 003e 3b6a 9fbe
-0.00049969554 -0.2065024 -0.084798396 0.028599763 0.19130188 0.08118288 0.073718056 -0.03157194
0.01652158 0.21235277 0.11264898 0.08315014 0.14660256 0.38078788 0.1255651 -0.31135735

gnn_base.gnn.embed_layer.entity_embed.weight f4 [4, 2]
00000000: f3ed 08c0 ad94 8cbf 56eb 12bf d4cb a2bf
00000010: db2a 4c3f 7223 f2bf 2bf0 5dbe ef29 263f
-2.1395233 -1.0982872 -0.57390344 -1.2718453 0.7975289 -1.8917067 -0.21673648 0.64907736

gnn_base.gnn.embed_layer.lin1.weight f4 [16, 10]
00000000: e83e 3c3f 9895 d9be 2557 883f b2ec 99be
00000010: 0d17 023f 0f10 48bc d505 4bbe b9a2 97be
00000020: d45b e1be e2b1 73be 2dfd a6bb aea0 093c
00000030: 6bdc 14bf fbf4 05bf 2c67 fa3e 6431 6cbe
00000040: 3176 3cbe 735d 03bf 29bc dbbd fb0a e33e
00000050: cb1f c53d 9eef 793d 8436 1a3e 89e2 a0bd
00000060: d393 bb3c c5a7 853e 0162 773f df4f 1abf
00000070: 6c79 ddbe 8602 a03e 108c 173e c262 57bf
00000080: fadd f33e 14f0 a4bf 78ec a2bc 4376 aebe
00000090: d545 0ac0 a1ea 21be 56b4 223e 20a3 febe
000000a0: 9c04 933f 3b77 303f 8f49 fa3e 443c 823e
000000b0: 86bc 113f cb8b 883e 7e22 dcbe a38f e13e
000000c0: cb28 943e 40eb 2ebf c572 443e 4f43 843f
000000d0: fbfb fd3e c134 e73f 6212 c23d 38b6 29be
000000e0: 0502 08be fc87 cdbe 3151 b13e 2479 ae3d
000000f0: ee86 263e 415c 573d 0ddd a93d f8b4 d6bc
00000100: ab5f aebd 8e56 2d3e fb6b 1abf a646 773d
00000110: cea6 143f 974b 463e 2b9a c13e 0e49 c0be
00000120: 8ab0 5dbe e8d2 0c3d e6ac 46bd f17f 5e3e
00000130: 804f b03d caf7 223d 17f6 bcbe c3f2 913f
00000140: 7f88 2a3e ff81 a8be 90f5 0dbf 7a95 233f
00000150: 1a3f c13e d041 ebbc d993 513f e6d3 d7be
00000160: 5138 a5be 4e29 59bf 4677 41bf 4505 fa3e
00000170: 6fd9 16bd 40ee 533f f691 34bf e759 8a3f
00000180: 8213 863d c27a 263e 6035 afbe 72a7 a3be
00000190: 01d1 84be 32e1 ccbe d4c7 f5be 7067 b0be
000001a0: 69e8 3c3c b441 81be 6d7e ab3e 5e93 253f
000001b0: 7014 d8be d186 5e3e eda9 3abf 5515 60be
000001c0: aa12 19bf d639 02be 53f3 babe 3e8f 51bd
000001d0: 686b 07bf cdc6 dcbe 7514 9cbe 81b7 033d
000001e0: 5a51 05be d015 b63c 7855 93be 7994 9e3b
000001f0: c92b 863e c19b 303f ae07 dd3e 8226 01be
00000200: a83a c43d 39d1 253f d1b6 413e 324d 53be
00000210: da9d 2f3d 4071 11bf f26b fd3e 5248 873d
00000220: d3ad 6fbd 49b8 323f 2c5f 19be d25f f03e
00000230: 9e30 653f 3061 cebe c770 f03d 4d27 3c3e
00000240: 72c4 c33e c16a 42bd df34 8e3e c83a 9c3d
00000250: 4a26 543f badf 993e 65eb cd3e 4614 76be
00000260: f1ea 3bba 9371 103f 5302 a63d a71f 7cbf
00000270: 573d 653e 4bc7 073f e7ac 49ba 13c6 e13e
0.7353349 -0.42496943 1.0651594 -0.30063397 0.5081642 -0.01221086 -0.19826443 -0.29616335
-0.44015372 -0.23798326 -0.005096099 0.008400125 -0.5814883 -0.52326936 0.4890684 -0.23065716
-0.18404461 -0.5131447 -0.10729248 0.44344315 0.09625205 0.061019532 0.15059859 -0.07855708
0.022897637 0.2610456 0.9663392 -0.60278124 -0.432567 0.31251925 0.14799523 -0.8413507
0.47630292 -1.2885766 -0.019888148 -0.34074602 -2.1605122 -0.1581216 0.15889105 -0.4973383
1.1485782 0.6893193 0.48884246 0.25436604 0.5692829 0.26669154 -0.42995065 0.440549
0.28937373 -0.68327713 0.19184406 1.0333041 0.49606308 1.8062974 0.094761625 -0.16573417
-0.1328202 -0.4014281 0.34632257 0.085191995 0.16262409 0.052578215 0.08294115 -0.02620934
-0.08514341 0.16927549 -0.60321015 0.06037011 0.58067024 0.19364773 0.37812933 -0.37555736
-0.21649376 0.034380823 -0.048504733 0.21728493 0.086089134 0.03978709 -0.36906502 1.140221
0.16653632 -0.3291168 -0.55452824 0.6389996 0.37743455 -0.028717905 0.8186622 -0.42153853
-0.32269529 -0.8482865 -0.7557262 0.48832145 -0.036828455 0.82785416 -0.7053522 1.0808686
0.065466896 0.16257766 -0.3422041 -0.31963688 -0.25940707 -0.4001556 -0.4800402 -0.34453917
0.01153002 -0.2524544 0.33494893 0.6467799 -0.42203093 0.21731116 -0.72915536 -0.21883138
-0.59794104 -0.12717375 -0.36513767 -0.051161997 -0.52898264 -0.43120423 -0.30484357 0.032157425
-0.13019314 0.022227198 -0.28776145 0.0048394767 0.2620528 0.6898766 0.43169922 -0.12612346
0.095815 0.64772373 0.18917395 -0.20634916 0.04287515 -0.5681343 0.49496418 0.06605591
-0.05851538 0.69812447 -0.14977711 0.46948105 0.8952731 -0.40308523 0.117402606 0.18374367
0.38235813 -0.04746509 0.27774712 0.07628399 0.82870924 0.30053502 0.40218654 -0.24031171
-0.0007168493 0.564233 0.08105912 -0.984858 0.2238668 0.5303847 -0.0007693306 0.4409643

gnn_base.gnn.embed_layer.lin1.bias f4 [16]
00000000: 2be0 63bd f219 db3d bc66 473e f0c6 4bbd
00000010: e1e6 39be 72ba fb3c 996c 69be d54d d83c
00000020: bcc9 ce3d b351 483e 0398 aa3d 762d 3f3e
00000030: 44df 913e f6b9 e53d 0b9d 153c 20a3 93be
-0.055633705 0.10698308 0.19472784 -0.04975027 -0.1815448 0.030728552 -0.22795333 0.0264043
0.100970715 0.19562416 0.08329775 0.18669686 0.2849065 0.1121711 0.00913168 -0.28835392

gnn_base.gnn.embed_layer.layers.0.weight f4 [16, 16]
00000000: c218 bf3e a533 24bf 12bf c4bd 56c2 9fbd
00000010: df05 113f 57eb 6abe 9264 09be bb3e 13bf
00000020: 1d2e 883f fab9 223d 608c 61be 3c21 2b3f
00000030: c057 9dbe 5277 26be cc89 a83e 65b1 c03c
00000040: 8219 f53e b4ab a1be 37cb 4a3f 68bf 073f
00000050: cb89 a4be 2fe2 1b3f a13e 7abe 46dd d83d
00000060: 6637 c8bd e1d6 303e ea2f adbe 48ae b53b
00000070: bf4a 873e 5313 cf3c 5645 483e 4ffd 0e3f
00000080: 02fe e53e c9cb a4be 7c51 cebd b100 4bbe
00000090: 08e7 08bf 546a 55be abb0 6bbe b3bf 293f
000000a0: 3a05 613f 1aeb d63e ff08 9c3e dbc4 5cbe
000000b0: 46ed 173e 864c 263f 9130 54be 61bc 943e
000000c0: c906 f3be 6a96 0e3e 1456 13bb be49 26bf
000000d0: 86e1 b53c 1574 f93e e365 993e 0e1e 13be
000000e0: 0413 5a3f 2db7 b1be fc16 353e 2a97 bc3e
000000f0: eb30 1abe 6e8f e33e 3a4e 81be 8a9e 0a3f
00000100: 9353 82be bf7f 53bf ac4e 5c3f 9e51 213e
00000110: d101 4b3e d414 9a3d a192 91be d1b4 ea3e
00000120: 65ab 0d3f 8b15 03be 67db be3e a3bb 01bf
00000130: 58ab 323f 44bf dc3e 5a39 4bbe e03a 72bf
00000140: 4939 a1be 3599 fbbb c340 f43e bcf4 1cbf
00000150: 6f06 303f 975a 47bf 92c0 2a3f 73d8 acbe
00000160: 2199 8a3e 62d8 773d 9bc9 293f 3afa 0cbf
00000170: c8d5 4abe 0441 bd3d fb95 163f 7b7d 853e
00000180: 462d fe3e 8e96 d23e 81b0 283e ec3a 2a3f
00000190: ec1a d3be 87a1 193e 344c f33e a154 ae3e
000001a0: cc0f 743e 48ef 623d 7ece 8bbe 800c f5bd
000001b0: 539a 8cbe daa5 5dbe 4e28 343f 1811 b1be
000001c0: 77c2 12bf e760 1dbf 0293 83be 998a 0d3f
000001d0: 72be 01bf a08e b3be 7d04 91be 1076 b63e
000001e0: 4819 9b3c 7db9 413f 1254 2abe 1303 063f
000001f0: 9b77 27bf 9c03 27be cf37 0ebf ac36 4abe
00000200: e720 4a3d a262 813d 29dc f23e ab50 9f3d
00000210: 4cbe 253e 9d31 da3d fc8c 1c3f 9a61 c33e
00000220: 109b 5a3e a629 963e 42f1 51bf d448 a33e
00000230: 5585 4c3e b805 df3d 5479 30be 7856 0fbf
00000240: 8aa1 0cbd e007 0dbf 4a85 44be d3db 0cbb
00000250: 3dfe c5be 196f ed3d d37e 3b3e 90ad 0b3e
00000260: 8547 61be 0efa 61be 5d16 173f 5912 753f
00000270: ab4c d53c 0a94 e73e cda4 563e a423 bebe
00000280: 0ecc e6bd 6e6b fb3c 14de babf e853 323d
00000290: 61c3 2b3e 3d66 16be 08e0 13ba c172 f0bd
000002a0: 3d51 a7be a9b8 21be 3f1f d6be b0b0 74be
000002b0: aa38 0fbe 3b66 0c3f b034 1f3e d3a8 0a3f
000002c0: 5116 0f3f bcbc ea3c acc8 3abf 6421 a6be
000002d0: 5f7a 823e 9039 923e 14c0 e0bd f325 593e
000002e0: 8bbc fcbd 607d 0cbe 2444 c13c b803 75bf
000002f0: 6622 293b b61c 2e3f 2ed5 d83e a22e d5be
00000300: 9d6e 0d3e 768f 383e 5b9b 84bd 0d85 2a3f
00000310: 1e3d 183f f7d9 71bf 3f85 0c3f d28b 1dbb
00000320: 0a10 87be d394 263e 296a fd3e 6424 64bd
00000330: 4c55 09bf 10bf 30bd 822b 32bf d276 b13e
00000340: 9a01 87be 1d86 493e 9ce7 29bf dfe2 52bf
00000350: ae05 74be 4cc5 7cbe f06f ce3e db4e f8be
00000360: a1ac cc3d b66b 8a3e 6c3b 19bd 14c2 ef3e
00000370: 17e3 a2be cfe2 a53e bcf6 cc3e bf8b 89bc
00000380: 8dbc a0be e01c 17bf ff7b 8f3e 8621 7ebf
00000390: b3a7 e3be 174c be3e b44f b03e cc49 b6be
000003a0: daf0 b4bc 6559 17bf 8e4f dabe 4b41 6fbe
000003b0: f91f cfbd 5637 91be b54e 5cbe 4bdd d03e
000003c0: 8ba8 9ebe 3452 003f 90b5 323f d752 70bd
000003d0: b89e 923c e550 893d 2d95 15bf ffd7 a03e
000003e0: 8396 cbbe fd0d 68be 0ca7 86be ab8d 48bc
000003f0: 5288 0ebf 9be5 633d 42ee efbc a82c f5bc
0.37323576 -0.64141303 -0.09606756 -0.078007385 0.56649584 -0.22941338 -0.13417271 -0.57517594
1.0639073 0.039728142 -0.22026205 0.66847587 -0.3073101 -0.16256455 0.3291763 0.023522088
0.47871023 -0.31576312 0.7921633 0.5302644 -0.32136378 0.60892004 -0.24437954 0.105890796
-0.097761914 0.1726947 -0.33825618 0.0055444576 0.26424214 0.02527777 0.195577 0.5585527
0.44920355 -0.32186726 -0.10074136 -0.19824483 -0.53477526 -0.20841342 -0.23016612 0.66308135
0.878986 0.41976243 0.30475613 -0.2155947 0.14836606 0.64960515 -0.20721652 0.29049972
-0.47466114 0.13924566 -0.0022481726 -0.6495627 0.022202265 0.48721376 0.29960546 -0.14366934
0.85185266 -0.34710065 0.17684549 0.3683408 -0.15057723 0.44445366 -0.25254995 0.5414816
-0.25454387 -0.826168 0.86057544 0.1575379 0.19824912 0.07523504 -0.2843218 0.45841077
0.5533965 -0.12801187 0.37276766 -0.50676936 0.697927 0.43114674 -0.19846097 -0.94621086
-0.31489018 -0.007678176 0.4770566 -0.61310935 0.68759817 -0.77872604 0.6670009 -0.33758888
0.27069953 0.060509093 0.6632325 -0.55069315 -0.19808114 0.09240916 0.588226 0.26072297
0.49643916 0.4113049 0.16473581 0.6649616 -0.41231477 0.15003024 0.47519076 0.34048942
0.23834151 0.055403978 -0.2730598 -0.11965275 -0.2746149 -0.21645299 0.70374 -0.34583354
-0.5732798 -0.61475986 -0.25698096 0.5528961 -0.5068122 -0.35069752 -0.28323737 0.3563695
0.018932953 0.7567366 -0.16633633 0.5234844 -0.6541688 -0.1630997 -0.5555391 -0.19747418
0.049347784 0.06317641 0.47433594 0.07779058 0.16185874 0.10653994 0.61152625 0.38160402
0.21348214 0.2932865 -0.82008755 0.318915 0.19972737 0.10889763 -0.17233783 -0.55991316
-0.034333743 -0.5509014 -0.1919147 -0.002149333 -0.3867053 0.11593456 0.18310098 0.13640428
-0.21999939 -0.22068045 0.590185 0.9573112 0.026037535 0.45230132 0.20961304 -0.37136567
-0.11269389 0.030690875 -1.4599023 0.04353705 0.1677375 -0.14687438 -0.0005640988 -0.117406376
-0.32679167 -0.15793099 -0.41820714 -0.23895526 -0.1398646 0.5484349 0.15547442 0.54163855
0.5589343 0.028654449 -0.7296245 -0.3244735 0.25483987 0.28559542 -0.10974136 0.21205883
-0.12340649 -0.13719702 0.023592062 -0.957088 0.0025807857 0.6801256 0.42350143 -0.4163714
0.13811727 0.18023476 -0.06474944 0.6660927 0.5946826 -0.9447321 0.5489082 -0.0024039638
-0.26379424 0.1626771 0.49495056 -0.055698767 -0.5364578 -0.04315096 -0.6959764 0.34660965
-0.2636841 0.19680066 -0.6636903 -0.8237743 -0.23830292 -0.24684638 0.40319777 -0.48497662
0.09993864 0.27035302 -0.037410185 0.46827757 -0.3181388 0.32399604 0.40031993 -0.016790269
-0.31393853 -0.59028435 0.2802429 -0.992699 -0.44463882 0.37167427 0.3443581 -0.35603178
-0.022087503 -0.5912078 -0.4263882 -0.23364751 -0.1011352 -0.2836253 -0.215144 0.40793833
-0.30987963 0.5012543 0.6980829 -0.058672752 0.017897949 0.067048825 -0.5843075 0.31414792
-0.3976327 -0.22661586 -0.26299322 -0.0122408075 -0.5567676 0.05563889 -0.029288415 -0.02992852

gnn_base.gnn.embed_layer.layers.0.bias f4 [16]
00000000: df98 17be 40b8 4d3d 3732 06bd c616 333e
00000010: 665a 653e aebc 74be dc36 f8bc 1975 873e
00000020: 1afe 0dbe dd53 fdbc 2c20 ec3d b821 0d3e
00000030: 0739 763b 40f9 38bd bce8 d8bd 8a57 38be
-0.1480441 0.050224543 -0.032762732 0.17489156 0.22397766 -0.239001 -0.030299596 0.26456526
-0.13866463 -0.030923778 0.11529574 0.13782394 0.0037570612 -0.04515958 -0.105912656 -0.18002144

gnn_base.gnn.embed_layer.layers.2.weight f4 [16]
00000000: c103 773f 321d 943f c4c5 813f 7bbf 993f
00000010: 5139 813f 17ac a83f 72ad 4f3f 9b7b 893f
00000020: ce22 8f3f 243a 593f 5a43 5f3f f35d 803f
00000030: afaa 673f 4d18 543f 44bf 823f e16d 813f
0.96490103 1.157141 1.0138478 1.201156 1.0095617 1.3177518 0.8112403 1.0740846
1.1182497 0.8485434 0.87212145 1.0028671 0.9049482 0.8284958 1.021462 1.0111657

gnn_base.gnn.embed_layer.layers.2.bias f4 [16]
00000000: 00fe 02ba 5d75 53be c8aa adbd 0d4a ea3c
00000010: a4e4 433e 3643 a63d 7ef9 963d 9451 01bd
00000020: 4458 873c 0173 593e 82b4 e63d 9f4a aa3d
00000030: fb1e 163e a1f6 c23e 2394 003e 3b6a 9fbe
-0.00049969554 -0.2065024 -0.084798396 0.028599763 0.19130188 0.08118288 0.073718056 -0.03157194
0.01652158 0.21235277 0.11264898 0.08315014 0.14660256 0.38078788 0.1255651 -0.31135735

gnn_base.gnn.gnn1.lin_key.weight f4 [48, 16]
00000000: 402f febe 4bcb bbbe ea64 493e 947e b93e
00000010: 1745 1a3d 92ee dc3e be47 10be 3f9c 8b3d
00000020: d038 96bd 1d15 adbc 652d 37be 33e4 38be
00000030: 1b51 3a3e e619 81be cadf 273e fcd5 12be
00000040: 239e c83e 4fd1 323e 9bab d2be dfa3 3abe
00000050: 5f70 a73d 56b6 7e3c 6658 4a3e dd17 943e
00000060: 084e 54be 7df5 e03d c047 91be 8650 1f3e
00000070: 0430 633e 44b9 28be f153 873e b0c5 a9be
00000080: 934c a93e 3c58 443e a993 a7bb 1163 4abe
00000090: a4fd 76be 5d9f babd 0ed0 a03d 143f 0b3e
000000a0: 53d2 d0be 2c37 813e b0e9 a53d 8bcd e0bd
000000b0: 5a26 113e ec5c e23d adea f73d 0c9c e0be
000000c0: 8407 7d3c 29b7 e63e 38f8 893e d427 8d3d
000000d0: 4ac9 8b3d ea2f e43d d265 2d3a 6320 913c
000000e0: 3a6f 2abe 7158 4fbe 513c 123e 1983 723e
000000f0: d9fd 31be 1f16 ad3b f39c 96be 406b 2b3e
00000100: b402 92be 9e5c 7dbe 70e2 203e cc78 523e
00000110: 1204 a8bb b93a 1c3e 284b edbd b87f 233e
00000120: 957e 323e 7e26 803d 2d9a 993d 5e84 3d3e
00000130: 2193 62be e795 153e aa2e ac3e 5b3b e73d
00000140: 9cba c1be 6638 bebe 1ef4 debc 4a93 b13c
00000150: a707 9c3d 0150 a43e a040 80be cb4b 80be
00000160: 23e4 6abc a30b e13d cd67 aebd 3bf1 293e
00000170: 853d 3ebc c892 e1bd c534 afbd edd9 cb3e
00000180: 5dda 52bc 710b e6bd 8b41 693e 36cd bcbd
00000190: 965c 61bd f860 60be 7129 063e 6e20 85be
000001a0: 6ff9 e23e 754f 323e d8b2 9d3e 1638 6b3e
000001b0: 3f0a 533c fb3b 7f3e 9c8b e3bd 6091 e03e
000001c0: 63db 103e bee0 39be 08b7 3cbe bd39 c53d
000001d0: 87d3 71bd 86fe 843e 3226 a7be 91e9 bf3d
000001e0: d687 ae3e 9ef6 ab3e f96e 64bb 4a3d 413e
000001f0: 824c 9e3c b5f5 3c3d e4d8 7e3e e955 833d
00000200: d3f2 af3e 96c1 9b3e 4adb d4be 4d85 373d
00000210: 67d3 95bb ed21 6cbd f6cd 21be 14ca 27be
00000220: c923 dbbe 3049 a83d 178b 09be 6c29 a8be
00000230: 4dc8 9f3e e485 1dbe f10b 2b3e 8e7e b2be
00000240: a36a f4bd 43f3 1dbf 6c94 bebd 15c1 6a3e
00000250: d72a c83e 0b8f 76bc 63c1 fdbd a4c9 523d
00000260: e072 80bd 8335 9d3d 979e 02bf 7f99 1ebb
00000270: 7499 793e 7d2f 9ebe ee16 a63e df62 c93d
00000280: ed05 b13e 4a6b 9d3d 527d 9dbd a5f5 1ebe
00000290: 34c5 8abd a5de 38be 202b f7bd 3b49 873e
000002a0: 610a 1d3e aa19 8abd e6a3 1d3d 9986 08be
000002b0: 89e0 003e eae9 833e 071d 45be ac1e 943e
000002c0: 20b4 90bd 6cbe 93be 0d26 29be 5293 b8bd
000002d0: 289b 62bc 1320 bcbe dd18 493e b935 803d
000002e0: 48fc 43bd bd96 39be 0a93 32be f4da 57be
000002f0: 4569 2abe e8c0 333e f78d dabd 2105 17be
00000300: 1201 d7bd d8d7 29bd f6e9 d63e 79b0 553d
00000310: 5db7 a9be fcad 33be 85cb 86bd 0af5 173e
00000320: 351a 313f d7f5 e83c def3 fb3e 62c0 bcbd
00000330: 4f02 f8bd ee95 2bbd 9962 94be 4da1 e23e
00000340: 5c3a 6a3e 536d 8cbe 4ff4 90be 78bd 0cbd
00000350: 80e7 573e a487 1b3e 1689 953e ed91 813d
00000360: bbcc 2cbf c513 26be 9eb1 8cbe e725 453c
00000370: 4b12 a63d 2a66 02bc 98f5 143e f6e0 adbe
00000380: b591 aa3d 3f24 06be 2cc8 83be 6eed 12be
00000390: 2a60 cbbe c2fc 26be 0a2f e53d 5a91 37bd
000003a0: e26f 6cbd db94 183e 1a05 803e 7c05 4b3e
000003b0: 9ddd 713d 4370 313e e9ca 43be 9d84 48be
000003c0: eb57 e83a df3a 843e 86cd 7e3e 8c0b 39be
000003d0: 72eb aabe 4148 a93c eb5c 90bb f988 64be
000003e0: 8cc6 a2bc 543c 553e 031a 6cbd 4d11 16bc
000003f0: 5918 bbbe 365d 9ebc 0498 9cbe 767b 563e
-0.49645424 -0.36678538 0.19667402 0.36229384 0.037663545 0.43150765 -0.14089867 0.06816911
-0.07335055 -0.021128232 -0.1788841 -0.18055801 0.18195002 -0.2521507 0.16393963 -0.14339441
0.3918315 0.17462657 -0.4114655 -0.18226574 0.0817573 0.015546402 0.19760284 0.28924456
-0.20732892 0.10984323 -0.28375053 0.15558061 0.22186285 -0.16476923 0.2643123 -0.33158636
0.33066234 0.19174284 -0.005114038 -0.19764353 -0.24120194 -0.091124274 0.07852183 0.13598281
-0.40785465 0.25237405 0.08101213 -0.10976704 0.14174786 0.1105288 0.12105308 -0.43869054
0.015443686 0.45061615 0.26947188 0.06892362 0.06825502 0.111419514 0.00066145987 0.017715639
-0.16643992 -0.20248581 0.14280821 0.23682822 -0.17381991 0.005282178 -0.29416618 0.16740131
-0.28517687 -0.24742362 0.15711379 0.20553893 -0.0051274383 0.15256776 -0.115866005 0.1596669
0.174311 0.06257342 0.0750011 0.18507525 -0.22126438 0.14607964 0.33629352 0.11290618
-0.37837684 -0.37152404 -0.027216014 0.021676678 0.07618647 0.32092288 -0.25049305 -0.25057825
-0.014336619 0.10988548 -0.08515892 0.16595928 -0.011611347 -0.110143244 -0.08554987 0.39814702
-0.012869445 -0.11232651 0.22778909 -0.092188284 -0.055019937 -0.2191199 0.13101746 -0.26001304
0.44330928 0.17413123 0.3080051 0.22970614 0.012880861 0.24925224 -0.11110613 0.43860912
0.1414619 -0.18152139 -0.18429196 0.09630153 -0.05903962 0.25975436 -0.32646328 0.09370721
0.3408801 0.3358659 -0.0034856184 0.18871036 0.019323591 0.046132762 0.24887425 0.064128704
0.34364948 0.30421132 -0.41573554 0.04480486 -0.0045723203 -0.05764954 -0.15801224 -0.1638568
-0.4280074 0.082170844 -0.13431965 -0.32844102 0.31207505 -0.15383106 0.16703774 -0.3486218
-0.11934402 -0.6169931 -0.09305653 0.22925217 0.39095184 -0.015048753 -0.12390401 0.05146183
-0.06271911 0.07676222 -0.5102324 -0.0024200378 0.24374944 -0.30895606 0.3243937 0.09833311
0.34574834 0.076864794 -0.076899186 -0.15523393 -0.06775895 -0.18053682 -0.12068772 0.26423058
0.1533599 -0.06743176 0.038486384 -0.13332595 0.12585653 0.257644 -0.19249354 0.2892965
-0.07065606 -0.28856218 -0.16518421 -0.09012474 -0.013830937 -0.3674322 0.19638391 0.06260247
-0.047848016 -0.18123908 -0.17438903 -0.21079618 -0.1664172 0.17554057 -0.10671609 -0.1474805
-0.10498251 -0.04146561 0.41975373 0.05217025 -0.33147708 -0.17546839 -0.06581787 0.14839569
0.69180614 0.028437538 0.49209493 -0.092163816 -0.12109815 -0.04189103 -0.28981474 0.44263688
0.22873825 -0.27427158 -0.28311393 -0.03436038 0.21084404 0.15188462 0.2920615 0.06326661
-0.67499894 -0.16218479 -0.2747926 0.012032962 0.08108958 -0.007958928 0.14546812 -0.33960694
0.08328573 -0.13099764 -0.25738657 -0.14348385 -0.39721805 -0.16307357 0.111906126 -0.044816352
-0.057723887 0.14900534 0.25003892 0.19826311 0.059049238 0.1732798 -0.19120373 -0.19581838
0.0017726397 0.25826165 0.24883088 -0.18070811 -0.33382756 0.020664336 -0.004405608 -0.22317876
-0.019870065 0.20823795 -0.057641994 -0.009159398 -0.36542013 -0.019331556 -0.3058473 0.20945534

gnn_base.gnn.gnn1.lin_key.bias f4 [48]
00000000: 221d a8bd 4e80 813d 9f60 eebc 2e0a 7dbe
00000010: 6dec 13be f142 23be f219 173e 3e72 ed3d
00000020: 959f 143e 94ca 1f3e 2eb6 ecbd 814f 303e
00000030: eadd 6f3e 4945 9a3d a3a2 383e cc7a 67bc
00000040: 04e2 0d3e 099f 7d3e af33 f7bd dc24 5e3e
00000050: 4c62 03be a668 093e 8771 8bbd c7fc 01be
00000060: 4f7e 583e 83de 673e 6f8e 08bd 52e3 7cbe
00000070: 49ba 75be ee59 063e 1ae3 6abe 6f91 c23b
00000080: 0502 42be 6264 49bc d873 c43c 7943 b2bd
00000090: 8198 9bbd 23af 343e be7d 34be a7bb 0fbe
000000a0: 34c7 2e3c 443c b63d 9a0d 213e b561 b53d
000000b0: a658 92bd 4c66 013e 89ed fc3d aaca 443e
-0.08208682 0.063233 -0.029098807 -0.24710914 -0.14445658 -0.15943505 0.14755991 0.115940556
0.14514 0.15604621 -0.115581855 0.17217828 0.23424497 0.07532746 0.18030791 -0.014128398
0.1385575 0.24767698 -0.12070405 0.21693748 -0.12830466 0.13418826 -0.06808763 -0.12694083
0.21141933 0.22643475 -0.03333896 -0.24696091 -0.23996843 0.13120243 -0.22938195 0.005937747
-0.18946083 -0.0122919995 0.02398102 -0.08704276 -0.07597447 0.17644934 -0.17626092 -0.14036427
0.010667611 0.088982135 0.15727845 0.08856527 -0.071458146 0.1263668 0.12349994 0.19217935

gnn_base.gnn.gnn1.lin_query.weight f4 [48, 16]
00000000: 2d4a ac3d 7be7 34bd c734 213e b477 d93e
00000010: ac4c dc3d 27d5 853e 5fcf 7cbe 20b8 273e
00000020: c551 9d3d 8297 a03d 4319 0bbe 63b9 26be
00000030: 0aad c3be 56bb ce3c 406a ed3e c2a0 1bbe
00000040: bec9 64bd 49a5 7f3d 1337 953d fb30 d03e
00000050: 868c 97be 6b7a b2be 70d3 11be da38 5b3e
00000060: 37b0 67bd 9202 ca3d be6e cd3d 487a a73d
00000070: a54c 873e f4fd 69be bad6 e1be 6135 073f
00000080: 8e35 b43d 54a1 953e 4db0 a7bd 75c0 343d
00000090: ba02 0c3e 4c05 6d3c 2962 d13c 02d2 8c3e
000000a0: 700a dcbe b68b 4ebe 6a19 f63d 41f2 f73c
000000b0: 2358 943e 7cb0 56be b212 47be 4e33 bb3e
000000c0: f220 49be c5d3 9a3e 91f4 a3bb 64a6 f1be
000000d0: 16e9 2e3e 810a 10be d03b bc3e 7129 0abe
000000e0: 2c76 813e d662 4b3e 3464 9f3d 56d5 51be
000000f0: c56d 963e 7c42 043e eaba 813d 1b2c 5fbe
00000100: 5bd3 323e 9669 77bd 6be7 cc3d 7655 ca3e
00000110: ebf0 fd3c e59f 473e ba17 ac3e 08b0 90bd
00000120: 8d7c b63d 7196 b83d 1cad 613c 1cb2 8c3e
00000130: 0fb4 37bc 65c1 f1bd b76e 893e 7415 b2be
00000140: 3848 45be 52b0 95be 40ce b13d 8643 df3c
00000150: 78e5 473e 42fd 563e 72ad 3e3d 4681 cc3c
00000160: b834 bb3e 5c52 1d3d 8eb2 b23d 5cfb 2cbe
00000170: 5d59 66be cc17 7fbe 53ad 023f 1344 91be
00000180: 482f 833d 52af b1bd a59b cf3c e6d7 cabe
00000190: cc34 30bc c14b 593e 2c4a 213e 7d4e 2ebc
000001a0: b557 d1bd 21d2 113e 0825 ed3d a175 c2bd
000001b0: 4da1 02be ec00 94bd be49 d7bd 8884 f3bc
000001c0: 7510 6e3c 4a3e 9fbe be47 0fbe ed4f f23d
000001d0: f4e9 46be 7540 163e e1a6 773e 1ce5 88be
000001e0: cc47 69be ea07 7f3e 0d78 1abe 52bb bfbd
000001f0: 9e54 233e cd52 4abe 8e55 d33e b86a 12be
00000200: 031e 8a3e 5db0 bc3e 9657 48bc 17c8 623e
00000210: 307a e6bd 97b5 1ebe e1b3 a7bd 5eee 83be
00000220: 7eaa 18bd c0dd 873d 0cb5 c4bd 07e3 4d3e
00000230: 118e 383e 6b4b c73d 01c7 25be b309 b83e
00000240: 220a 983d 77db 80be fee0 8ebe 8416 263f
00000250: 1f7e 353e a5dc 893e 241b f3be 0619 72be
00000260: 985e b13e ef2f 25be b7f1 9bbd d4b9 c83d
00000270: 1523 15bf 003f 903d e363 3b3e a8ac 083e
00000280: 2548 1fbe 181d 41be 5a63 a93d f991 a7bb
00000290: be19 71be 89a2 423e 635d 05be 2e52 e8bd
000002a0: 936f c23d 4ed7 973d 4942 963c a351 693e
000002b0: d3dc 053e 4be0 0bbe f4a4 ffbe 8baf df3e
000002c0: 38dc 1a3e c117 88be d949 f8bd 0100 d03d
000002d0: f8b3 60bd 7230 813d c44f 46bd 1bdf 26bd
000002e0: fa11 80be 7a9d 08be e32b 5dbe 602c 59be
000002f0: de95 353e 001c 8b3d ef71 83be 2dbd f7bc
00000300: 7619 bc3d 36c9 dabe ecbc 84bd 36fe 00bf
00000310: 7201 22be 5d6f 793e 8cb7 d23d 1609 9b3e
00000320: 6b7a 33bd cb2d 443e c413 ba3e 73b1 a83e
00000330: 9e29 553e 4d25 843e c990 e4bd 3805 dabe
00000340: 741a 8abe 6a7b d3bd 0072 a2bd 49d9 4f3e
00000350: 9ce4 9b3e fe7e 4bbe 6a73 6bbe 7b86 663d
00000360: 2839 9a3e fb30 a4be 6ff8 4fbe dc1b b7be
00000370: ec2f 52be 58f1 aabe 1392 70bd 1ed6 833e
00000380: a67e 153e d83b 1fbe e81e 7cbe 7e0f e5bd
00000390: a209 313e 7ac2 abbc 40f9 163c 4eb4 9a3d
000003a0: 0868 d6be 0992 9ebd 9f99 553e de02 0e3e
000003b0: f08e 56bd be5b 103e df19 24bf 701e 5f3e
000003c0: f902 763d 1ead 793e ce7e 86be c8bc 6ebe
000003d0: e4d6 4a3e bb3c 893e 994a 343d b4c2 8a3c
000003e0: 1e59 ef3d e92f 703e c5b9 303e 8501 f23d
000003f0: 89c7 813e 328c 97bd 846b 7fbe bd94 21be
0.084125854 -0.04416607 0.15742789 0.4247414 0.107568115 0.26139185 -0.24688481 0.16378832
0.07681612 0.07841398 -0.13583855 -0.16281657 -0.38217956 0.025235813 0.46370125 -0.15198043
-0.05585646 0.062413488 0.07285895 0.4066237 -0.29599398 -0.34859022 -0.14240813 0.21408406
-0.056564536 0.098637715 0.10030888 0.0817762 0.26425663 -0.22850782 -0.44109136 0.52815825
0.08799277 0.29224646 -0.081879236 0.044128854 0.13672915 0.014466595 0.025559502 0.27503973
-0.42976713 -0.20170483 0.12016566 0.030266883 0.28973493 -0.20965761 -0.19440725 0.3656258
-0.19641474 0.30239692 -0.00500352 -0.47197258 0.17081103 -0.14066507 0.36764383 -0.13492371
0.2528547 0.19861922 0.07782784 -0.20491537 0.29380623 0.12915987 0.06334479 -0.21794169
0.17463438 -0.06040343 0.10005077 0.39518327 0.030998668 0.19494589 0.33611852 -0.07064825
0.08910475 0.090130694 0.013774183 0.27479637 -0.011212363 -0.11804465 0.2684228 -0.34781992
-0.1926583 -0.29236084 0.08681917 0.027253877 0.19521129 0.20995048 0.04655213 0.024963986
0.3656366 0.038408622 0.08725463 -0.16892761 -0.22495027 -0.24911422 0.5104572 -0.2837225
0.064055026 -0.08676018 0.025342772 -0.39617842 -0.010754775 0.21220304 0.1575095 -0.01063883
-0.10221807 0.14240314 0.11579329 -0.09495092 -0.12756844 -0.07226738 -0.10512112 -0.029726282
0.014530291 -0.3110221 -0.13992211 0.11831651 -0.19425184 0.14673026 0.24184753 -0.26737297
-0.22781295 0.24905363 -0.15084858 -0.093619004 0.15950248 -0.19758148 0.4127621 -0.14298522
0.26976022 0.36853305 -0.012227913 0.2214664 -0.11253774 -0.15498959 -0.08188606 -0.25767797
-0.03727197 0.06634092 -0.096048445 0.20106135 0.18022944 0.09731182 -0.16189195 0.359449
0.07423808 -0.25167438 -0.2790603 0.64878106 0.17723893 0.2692615 -0.47481644 -0.23642358
0.34642482 -0.16131566 -0.07614463 0.09801069 -0.58256656 0.07043266 0.18299823 0.13347113
-0.15554865 -0.18858755 0.08270903 -0.005113837 -0.23544976 0.19007315 -0.13023905 -0.113437995
0.09493937 0.07414113 0.018342154 0.22785048 0.13072519 -0.1365978 -0.49930537 0.43688616
0.1512307 -0.26580623 -0.1212346 0.10156251 -0.05485913 0.06308068 -0.048415914 -0.040740114
-0.25013715 -0.13341323 -0.21598773 -0.21208334 0.17732951 0.0679245 -0.25672862 -0.030241573
0.09184544 -0.42731637 -0.064813465 -0.50387895 -0.15820864 0.24358888 0.10288915 0.3028037
-0.04381792 0.19158094 0.36343205 0.32947883 0.20816657 0.25809708 -0.11160428 -0.42582107
-0.26973307 -0.10326274 -0.079319 0.20297731 0.30447853 -0.19872662 -0.22993246 0.056280594
0.30121732 -0.3206862 -0.20309614 -0.35763443 -0.20526093 -0.33387256 -0.058733057 0.25749296
0.14599094 -0.15550172 -0.24621165 -0.111845955 0.17288831 -0.020966757 0.009214699 0.07553922
-0.41876245 -0.07742698 0.20859383 0.13868281 -0.05238241 0.14097497 -0.64101976 0.21788955
0.06006143 0.24382445 -0.2626862 -0.23314202 0.19808537 0.26804146 0.044016454 0.016938545
0.1168692 0.23455776 0.17258365 0.11816696 0.25347546 -0.07399787 -0.24943358 -0.15779395

gnn_base.gnn.gnn1.lin_query.bias f4 [48]
00000000: d545 29bc 215b 743d 1af5 dfbd 86b9 143e
00000010: eaf3 25be 62e2 9a3e 303d 0f3d 8943 17be
00000020: 0509 6a3d ef26 ca3d 89d6 06be 5602 803e
00000030: f5b3 12be 1819 923e 6104 b33d 465b 023e
00000040: 5ba7 37bd 3612 0bbe d74c 25be 8e57 15bd
00000050: fc6d 5bbb c29e 003e 713a 883c 3e3f 2a3c
00000060: 6ba5 34be d591 fa3d 82a5 b5bd c0ee 60be
00000070: 0a7f 473e 460b 09bb 091c 67be 90ad 4ebd
00000080: ee57 3ebe 0ce4 033e 771c 693e d29b f5bd
00000090: 3fe9 043e 83d1 79be f42b c03d 1393 03be
000000a0: bdf5 273e 4ae6 9bbd 4e5b dcbd 478f 04bd
000000b0: 1259 503d d619 903e 960c dd3d 7475 27be
-0.010331591 0.05965722 -0.10935421 0.14523897 -0.16206327 0.3025084 0.034970462 -0.14771856
0.057137508 0.09870707 -0.13167776 0.25001782 -0.1432646 0.2853477 0.087410696 0.1273013
-0.044837337 -0.13581166 -0.16142593 -0.03646045 -0.0033482304 0.12560561 0.01662943 0.010391055
-0.17641227 0.122348465 -0.08869459 -0.21966076 0.19482055 -0.002091126 -0.22569288 -0.05045849
-0.1858823 0.12879962 0.22764765 -0.11992611 0.12979601 -0.24396329 0.093833834 -0.12849073
0.16402335 -0.076122835 -0.107596025 -0.032363202 0.050866194 0.2814471 0.10793416 -0.16353399

gnn_base.gnn.gnn1.lin_value.weight f4 [48, 16]
00000000: d506 723d ac9c 463d 62fe 87be 5470 cebe
00000010: 40a7 803d 1140 67bc 2c6d 673e e5c6 ee3d
00000020: 86b0 0c3e 9a18 253c 5428 1e3f cfe2 a43e
00000030: 29f8 abbd fea2 ae3e c3f4 89be 3320 2cbe
00000040: 9289 89be aa4e e7bb dcf4 773e 9e55 83be
00000050: 3b7c 703e 38dc 963e 69c2 0ebe 82f9 b13e
00000060: 7a8d a0be 0901 2cbe 7605 b8bd d69f 1ebe
00000070: f7aa 883e 32f0 8ebd 87b8 883e 9633 aa3d
00000080: f7b4 77be 4b50 e13c e6ca 3bbe 77b0 85be
00000090: 5f9b 043f 0087 0ebf aa96 853d 5b94 a8bc
000000a0: d301 7a3e 6b34 55bd 98a3 20be 0f76 0e3e
000000b0: 1dc1 eb3e 9cb6 9bbe 54fe bd3d 67e7 8c3e
000000c0: f28e 053f f016 163d ade6 85bd 4256 5c3e
000000d0: 9c5d 13be 2c9b bfbd b6fd a33d 4320 8c3e
000000e0: bdb2 1a3e 3540 bd3e bbc3 533e 87b3 fcbd
000000f0: 01f5 aabe 27d4 663b 7a29 39be 0219 1cbf
00000100: 8108 b7be 0726 233d 43a1 973d d5be 07be
00000110: 7d2f b23e 931c 25be 79a8 2cbf 8d4f e3be
00000120: d8b2 45be 7307 833e 2fea 053e ff53 993d
00000130: 9ae6 ac3e ce8f 033e 891f d83e 5f20 233e
00000140: e644 d9be a04e 753d 0a8b 24be 5e25 893d
00000150: a54f c1bd 0703 b03e 8085 01be c670 26be
00000160: d926 6c3e c812 76bd d384 f23c 395b c8bd
00000170: 42e8 17bd 2aca 133e a736 6c3e 6b63 613e
00000180: 21f6 d7be 6ba2 9cbd 048b cb3d 83bb 043e
00000190: 58bf 94be ecd3 bb3d 0e6e ccbc c6c0 c2bd
000001a0: 05b9 abbd dcdf a73d 8e41 e43d 90b0 863d
000001b0: 77ff 70be 005f b83e 18c5 153e b7c0 2e3e
000001c0: 09f5 c0bd 32ed ccbd c382 b2bc f03a 73bd
000001d0: e73b 8b3e 3d53 dc3e 0809 00bd 2d79 acbe
000001e0: 1dad c03e c19f 82be a538 81be 72ad e03d
000001f0: be4c 863e 9837 0a3e fb56 37be e51b 373e
00000200: e9e2 5fbe 3e89 2ebe 674d 22be 862e 4abd
00000210: 7d6c 333e 403f a6bd fc9e e53d 259e 303e
00000220: cc6f 423e 2388 9abe 79b9 e73d 8d51 61bd
00000230: 5963 543e 0f85 5ebd e67e 833d c225 8b3e
00000240: a8e8 04be 5572 7ebe 2bcf 303e c593 50be
00000250: 3454 ebbe a52b 7ebe 602f 2a3e c2d5 12be
00000260: 2ab2 9ebe 53f0 74be a2e0 cbbd 7e8e cfbd
00000270: 1f21 cd3e dac4 1d3e daeb f8be 1c2b 883e
00000280: 9561 8b3e 8bb9 ae3e 0bd7 103e 4f61 003e
00000290: afd6 133e 8e07 693c dc21 ec3d cc0e 793e
000002a0: 162e 5bbe 6196 7d3e 4468 abbc 81a6 a7be
000002b0: 33c7 563e 5bc2 b4be 6cc7 29bf 00e3 6f3e
000002c0: d42f 543d 5b1c e9bd 45d7 98bd 9425 053e
000002d0: d2e2 1bbd 1dd8 1bbe 1efd 64bc c0d9 89be
000002e0: f2e6 81be fe67 bdbc ef2d bf3e 3654 d13d
000002f0: ffd9 dcbd 9fb5 833e 9a78 a33e 2825 ae3e
00000300: 7dd2 3ebe 4703 873e 650e 01be 2bfc 773e
00000310: 62ba b43d 9ac6 d23e 6e2d bfbe 86bc ad3d
00000320: 31fe 1e3e 2edb 893e 8b26 36be 6d9c a93d
00000330: 49d3 553e 247c 9abd 838a 87be 01e2 b63d
00000340: 73b6 7dbe 0f09 a3be 31c7 593e cd89 34be
00000350: 0646 9b3e 7f02 7f3e 31cb 243e e58f 533d
00000360: 658d d43a 84de b7bd 9959 5f3e e4cb 523e
00000370: f79e 9fbd 0c2b 593e ee4e a4be 77d1 1bbf
00000380: 6b2b b5bd 5687 a93d 4dec 983c f07e cbbc
00000390: 7d81 233e 3537 eb3d 4367 773e 804a 313e
000003a0: 3067 183d 9ab4 ab3d a0b1 cfbd db5d 36bd
000003b0: 05aa 133e 0345 00bd 5980 b5be 7417 0f3e
000003c0: a93c ab3d ac67 0bbc 3781 66be 18cf 31bd
000003d0: 8a77 78be b360 53bd 4c62 253e 9fd8 693d
000003e0: f76d 943e 5eff 71be 17d7 15be 0f65 1ebb
000003f0: 729b 1ebf 0f12 a9be 6e2b 0dbe 2370 6e3e
0.059088547 0.048489258 -0.26561266 -0.40320075 0.062819004 -0.014114396 0.2260024 0.1165903
0.13739213 0.010076666 0.61780286 0.3220429 -0.08396942 0.34108728 -0.2694455 -0.16809158
-0.2686277 -0.007058938 0.242145 -0.25651258 0.2348489 0.2946489 -0.13941349 0.34760672
-0.31357938 -0.1679727 -0.089854166 -0.1549066 0.26692936 -0.06979407 0.26703283 0.083106205
-0.24190126 0.027504107 -0.18339118 -0.26111194 0.5179958 -0.55674744 0.065228775 -0.020578554
0.24414758 -0.052051943 -0.15687406 0.13912223 0.4604577 -0.30412757 0.09277025 0.27520296
0.5217124 0.03664297 -0.065381385 0.2151728 -0.14391178 -0.093557686 0.08007376 0.27368364
0.15107246 0.3696305 0.20680134 -0.123389296 -0.33390048 0.0035221667 -0.18082228 -0.6097566
-0.35748675 0.039831188 0.07403805 -0.1325639 0.34801856 -0.16124181 -0.6744457 -0.4439663
-0.19306505 0.2559162 0.13077615 0.07486724 0.33769685 0.12847826 0.4221156 0.15930317
-0.42435378 0.059889436 -0.16068664 0.0669658 -0.09439019 0.3437731 -0.12648582 -0.16253957
0.23061694 -0.060076505 0.029604351 -0.09783024 -0.037086733 0.14432588 0.23067723 0.22010581
-0.4217997 -0.07648166 0.099386245 0.12962155 -0.29052234 0.0917128 -0.024954822 -0.09509425
-0.08384899 0.08196995 0.11145316 0.065766454 -0.23534952 0.3600998 0.14625967 0.17065702
-0.09421737 -0.10006179 -0.021790868 -0.05938238 0.2719414 0.43032256 -0.031258613 -0.336862
0.37632075 -0.25512508 -0.2523853 0.10970582 0.26230425 0.1349777 -0.17904274 0.17881735
-0.21863903 -0.17044541 -0.15849839 -0.049360774 0.17521854 -0.08117533 0.112119645 0.17247827
0.1898796 -0.3018199 0.11314673 -0.055009414 0.20741023 -0.054326113 0.06420688 0.27177244
-0.12979376 -0.24848302 0.17266528 -0.2036887 -0.4596268 -0.24821337 0.16619635 -0.14339355
-0.30995303 -0.23919801 -0.09954955 -0.101346 0.40064332 0.15407124 -0.4861744 0.2659539
0.27222887 0.34125933 0.14144532 0.1253712 0.14437364 0.014222993 0.11529896 0.24322051
-0.21404299 0.24764396 -0.020923741 -0.3274422 0.20974426 -0.3530453 -0.6631992 0.23426437
0.051803425 -0.113823615 -0.074629344 0.13002616 -0.03805811 -0.1521916 -0.013976363 -0.26923943
-0.2537151 -0.023120876 0.37339732 0.1022114 -0.10783767 0.25724503 0.3192795 0.34012723
-0.18634982 0.26369688 -0.12603147 0.24217288 0.08824612 0.41167146 -0.37339348 0.084832236
0.15526654 0.26925033 -0.1778814 0.08281789 0.2088138 -0.07543209 -0.26472864 0.089298256
-0.2477663 -0.3184285 0.21267392 -0.17630692 0.3032686 0.24903296 0.16093136 0.0516509
0.0016216455 -0.08977988 0.21811523 0.2058559 -0.07793992 0.21207827 -0.3209147 -0.60866493
-0.08846172 0.082777664 0.018667364 -0.024840802 0.15967365 0.11485139 0.24160485 0.17313576
0.037207782 0.083840564 -0.10141301 -0.0445231 0.14420326 -0.031315815 -0.35449484 0.1397379
0.083611794 -0.008508604 -0.22510229 -0.04341039 -0.2426435 -0.05160589 0.16150779 0.05709135
0.28990147 -0.23632571 -0.14632832 -0.0024169122 -0.6195594 -0.3302159 -0.13786098 0.23284964

gnn_base.gnn.gnn1.lin_value.bias f4 [48]
00000000: a059 e03c d2d5 8dbd 4acf cd3e 7a00 b23e
00000010: d901 27be da9f 853e e293 76bd 3432 54bd
00000020: 5ed2 66bc 3322 8cbe 6f7d 42be e6e9 513d
00000030: 63fc 14bd a147 27be c214 033e 5bd2 9dbc
00000040: eeff 28be 70af 363d 0bba ec3e 2971 993e
00000050: a50c 103c f36c ff3d 6ab6 383e f478 bdbd
00000060: e827 133e 76a2 113e a6e2 c7be 0a76 8fbe
00000070: 3e2f dbbd 9e60 46be 1a67 ec3d 7b2d 34be
00000080: e11b b9be a11b 49be 7edc 983e a5e4 ed3c
00000090: 76f5 fabd 9c9e 9d3e 7807 9cbd d089 8fbd
000000a0: fa9d c03d 72e3 62be 4254 7bbe 8730 f53c
000000b0: 2780 31be 1b39 bcbc 01fd 5e3c dfbd 95be
0.027386487 -0.069255486 0.40197212 0.3476599 -0.16309299 0.2609852 -0.060199626 -0.05180569
-0.014088241 -0.27369842 -0.18993162 0.051248454 -0.036373507 -0.16335918 0.12800887 -0.019265344
-0.1650388 0.044600904 0.4623569 0.29969147 0.008792077 0.12471952 0.18038335 -0.092515856
0.14370692 0.1422213 -0.39040107 -0.28019744 -0.1070237 -0.19372794 0.115431026 -0.17595474
-0.36154082 -0.19639446 0.29855722 0.02903969 -0.12253849 0.30785072 -0.07618612 -0.070087075
0.09405132 -0.22157076 -0.2454386 0.029930366 -0.17334042 -0.022976449 0.0136101255 -0.29246423

gnn_base.gnn.gnn1.lin_edge.weight f4 [48, 1]
00000000: c8c7 1b3f e1ab b2be 422e f6bd e5bb 123f
00000010: ebe4 5e3f 579a 883f 9604 093f 4c6e 8a3e
00000020: 924a 9b3d f1ce 71bf b66c 89bf 73eb 183f
00000030: e209 113f ef57 8e3e e9e7 9dbf f6d4 7cbf
00000040: 33b4 a4bc b1cb 5fbf 751d e83d 620a 843f
00000050: 48df 373f d013 863f 2a29 9bbe c4d3 b9be
00000060: b3b7 1b3e 0b00 97be 3018 afbe 6356 a83d
00000070: b1c9 2ebf 1401 2b3f bb08 9cbf 6923 d0be
00000080: 58d8 193f b4af d2be 642d d9be f224 a63f
00000090: 7171 8e3e c6a8 023f 0cf9 49bf 349f 25be
000000a0: 5408 e0be 69b1 00be a7ff f0bf d4a6 29bf
000000b0: 5d12 db3e 3f2d 8c3f 6548 74bf 930e fabe
0.60851717 -0.34896758 -0.12020542 0.57317954 0.8706805 1.0672101 0.5352262 0.27037275
0.075825825 -0.9445639 -1.0736301 0.59734267 0.56655705 0.27801463 -1.2336398 -0.9876245
-0.020105457 -0.87420183 0.113337435 1.0315669 0.71825075 1.0474796 -0.30304843 -0.36294377
0.15206794 -0.2949222 -0.3419814 0.08219602 -0.68276507 0.6679852 -1.2190164 -0.40652016
0.6009574 -0.41149676 -0.42417443 1.2980025 0.27820924 0.5103878 -0.7889564 -0.16174012
-0.43756354 -0.12567677 -1.8828019 -0.66270185 0.42787448 1.0951308 -0.95422965 -0.48839244

gnn_base.gnn.gnn1.lin_skip.weight f4 [16, 16]
00000000: ff8b 703e bb9e cbbe 7f5b 4cbd 7ab5 503d
00000010: 2c93 27bb e749 91bd 98c4 93bd 9ace 29be
00000020: 30cb 0f3e 957b 843e 2527 9e3e ef49 b53e
00000030: 0b84 bcbe 434a 9c3e 09bf 32be 3be3 36bf
00000040: 609e 973e d618 77bf c00a 1d3e 1cc9 cf3e
00000050: d4a9 0bbe 1082 653e 2a3c 61bc 7df5 203e
00000060: 55d3 bdbd 8290 163e a749 b13d d89c 2ebe
00000070: 71e8 dbbc f34d 9c3e 79e9 4d3c 6019 4c3e
00000080: f859 a0bd ad8a 27be ffa3 453d 7195 31bd
00000090: 969e 1f3f 54bf b3be 6d45 d1be f120 e9bd
000000a0: 8329 af3e f8b0 1cbe 9f4c 53bd ce68 cc3d
000000b0: 0d34 18bf a206 733e 7660 033f da04 5abe
000000c0: 3a3a 14bd 8555 84be 4cc1 2c3e a940 59be
000000d0: cea5 1fbd 5dcb 84bd 33fb b4bd f167 c4be
000000e0: 19af c0bd ad00 893d 2211 e03d 1330 753e
000000f0: e4f0 793d f300 ff3d ae33 473e 70e0 bd3e
00000100: e53c 3dbe b690 abbe 8e5c 01bc ce45 c3be
00000110: a199 14be 8c08 093e 8848 1d3e 6d0e 073e
00000120: 479c 69be b13f b43e 766f b13e 70a5 e1bd
00000130: 0cf4 1abe 8c2d 9a3e 7869 febd 79e6 2dbf
00000140: 0bfc 8fbe 48e5 993c c315 62be ffdb a3be
00000150: fc80 a23e c7a3 b13e 2da4 7f3d 8ed1 6c3d
00000160: dac1 ac3c e278 88be a019 c9be bb9a 4dbe
00000170: 9c92 b43e 97dc 083e 4ee2 893e dc88 b7bd
00000180: f205 1ebe 3371 093f 5b91 45be e0c5 04bf
00000190: 458b 803d ee8b dbbd 1996 9d3e 08a4 68be
000001a0: 8813 a6be eabd bbbd c569 ab3d 27d5 953e
000001b0: eb0b 46bd bed9 843e 9045 183f c65a bc3d
000001c0: 906e eabd 90f8 8c3d 3467 81be 2418 293d
000001d0: f8fa be3d 6d02 6b3e 06b5 99be c537 31be
000001e0: 672c 9a3e b473 27bf 238b d4be 68c1 b2be
000001f0: 3fcd 063f f75a 983e 4922 643e ccbb 24bd
00000200: 0f05 06bd e8f3 2dbe 8b4c 08bd 420b e03e
00000210: 6d19 ddbb 232a 8b3e 70d2 e6bd a158 2cbd
00000220: f15c 95bd 8352 4c3e bff6 cbbd 9bf2 73bd
00000230: 8dcf 043e 6824 c93e ff9d 0d3f 5667 f03b
00000240: 3ebf cf3e b7ee 403e 67b1 af3d db65 393c
00000250: 128b dfbe 5d40 e13e 1d8e e8bd 257f df3e
00000260: 90ed 4c3e ee38 bd3d f188 7c3e 2ed6 c9bd
00000270: 41b7 b0bd a5aa b13e be7a bcbe 3cde 403e
00000280: 67b9 4f3e 46dc 463e 2abe 313e 9dc0 853e
00000290: 806f 1b3e 901e 08be 044f 3b3d af34 ae3b
000002a0: bf52 89be 5900 05be 9d09 36be c539 46be
000002b0: 32ad 9fbd 187f 69be 223e d5be d7ac 7b3e
000002c0: 3e7c 5e3d 7508 b3bd 5876 6c3e a174 f6be
000002d0: 28a8 a4bb 9750 2e3e ed63 bf3e ce93 c93e
000002e0: fbaa 0dbe fe42 a33e 4b54 233d a524 e4bd
000002f0: ea46 ce3e 3f1e b7bd 8224 10be 4353 28be
00000300: 0536 563c d1ce 5f3d 158c 733c e28b 433e
00000310: d7c0 bcbd 507e 133f af1d dfbe 6090 0cbf
00000320: ec4b 863e fe06 13be fa55 9cbb 6ab6 8e3d
00000330: 5ef9 c6be ddc9 033f 78fc 793e 4c47 7fbe
00000340: 4b2f debe 5f09 2cbe 4be8 e7be cdf5 423e
00000350: a550 20be ea2c 79ba ed36 ff3d 2aac 963d
00000360: 9dd7 bd3e 4cb2 a3bd 037c 783e 0e59 b43e
00000370: ef10 453e bd74 3b3d 8759 2e3e adda b9be
00000380: d4c5 0dbe 080b 4dbe 68a2 ba3e 4eaf 2fbe
00000390: 00fe 47be 7a6c 1dbd 375a 27be e129 1cbf
000003a0: c48a 01be a731 263e d141 6c3e d6bd 02bd
000003b0: 0f11 71be ad64 893c 87b1 453e ed7c e63e
000003c0: 5176 d93d 16ac 5e3e 5d1c cf3d a637 933e
000003d0: 7fdb bbbe 0554 89be 7ca8 673c 7fe5 b43d
000003e0: 7d9e e83d 8310 8dbd 4fd8 943d 174e 533e
000003f0: 265a 1fbf c98c 98be 6c7f b43e 2f4e 20be
0.23490904 -0.3976954 -0.049891945 0.05095432 -0.00255699 -0.07094174 -0.07215232 -0.16582718
0.14042354 0.25875536 0.3088924 0.3540797 -0.3681949 0.30525407 -0.17455687 -0.71440476
0.29613018 -0.9652227 0.15336132 0.40583122 -0.13639003 0.22412896 -0.013747254 0.15718646
-0.09268824 0.14703563 0.08656626 -0.17052019 -0.026844235 0.3052822 0.012567871 0.19931555
-0.0782966 -0.16361494 0.048252102 -0.04335541 0.6235136 -0.3510691 -0.4087328 -0.11383236
0.34211358 -0.15301883 -0.051586743 0.099809274 -0.59454423 0.23732999 0.5131906 -0.21290913
-0.03618834 -0.25846496 0.16870612 -0.21216072 -0.038976483 -0.06484101 -0.08836975 -0.3836055
-0.09408397 0.06689582 0.10940768 0.2394412 0.061020747 0.12451353 0.19453308 0.37085295
-0.1848026 -0.33508843 -0.007895602 -0.38139194 -0.1451173 0.13382167 0.153597 0.13189097
-0.22813521 0.35204843 0.3465535 -0.11017883 -0.15132159 0.30112875 -0.1242246 -0.679298
-0.2812198 0.018786088 -0.22078614 -0.3200378 0.31739032 0.34695265 0.06241243 0.057817034
0.02108853 -0.26654726 -0.39277363 -0.20078556 0.35268104 0.13365398 0.2693047 -0.08961651
-0.15431955 0.53688353 -0.1929373 -0.51864433 0.062765636 -0.10720049 0.30778578 -0.22718823
-0.32436776 -0.091670826 0.08369783 0.29264185 -0.04835121 0.25947374 0.59481144 0.09197001
-0.114468694 0.06883347 -0.2527405 0.041282788 0.09325212 0.22950144 -0.30020922 -0.1730643
0.30112 -0.65410924 -0.41512403 -0.34913182 0.5265693 0.297569 0.22278704 -0.04021816
-0.032719668 -0.16987574 -0.033276122 0.4375859 -0.0067474158 0.27180585 -0.112706065 -0.04207671
-0.07293118 0.1995335 -0.099591725 -0.05955754 0.129698 0.39285588 0.5531921 0.0073365374
0.40575594 0.18841062 0.08578759 0.011315788 -0.4366079 0.43994418 -0.11355231 0.4365169
0.20012498 0.09239374 0.24661614 -0.09855305 -0.08628703 0.34700504 -0.36812395 0.18834776
0.20285569 0.19419965 0.17357698 0.26123515 0.15179253 -0.13292909 0.045729652 0.005316339
-0.26820943 -0.12988414 -0.17777105 -0.19357975 -0.07796706 -0.22802389 -0.41648966 0.24577652
0.054317705 -0.087418474 0.2309202 -0.48135856 -0.0050249286 0.1702293 0.37380925 0.3937058
-0.13834755 0.31887048 0.03987531 -0.11139802 0.40288478 -0.08941316 -0.14076427 -0.16438012
0.013074403 0.054640595 0.014864941 0.1909633 -0.09216469 0.5761461 -0.43577334 -0.549078
0.262298 -0.14358136 -0.0047709914 0.069683865 -0.38862127 0.51479894 0.24412715 -0.24929541
-0.43395457 -0.1680045 -0.45294413 0.19039078 -0.15655763 -0.0009505289 0.12461648 0.073570564
0.37078562 -0.07992992 0.24266057 0.35224193 0.19244741 0.045765627 0.1702634 -0.3629965
-0.13844997 -0.2002374 0.3645203 -0.17156717 -0.19530487 -0.03843353 -0.16343008 -0.610014
-0.12650591 0.16229878 0.23071982 -0.031919323 -0.23541664 0.016771639 0.19306003 0.45017186
0.1061827 0.21745333 0.10112832 0.28753394 -0.366909 -0.26821914 0.014139291 0.088328354
0.11358354 -0.06887915 0.0726782 0.20635258 -0.6224693 -0.2979491 0.35253465 -0.15654825

gnn_base.gnn.gnn1.lin_skip.bias f4 [16]
00000000: d738 3a3e a800 523e 653c 373e f072 353e
00000010: 4da2 003e 0833 453e 55cf 60ba db50 cfbd
00000020: 238c 343e cc32 5f3d 5b0b 08bd 7270 34bd
00000030: 1a40 933e b936 90bd fa48 4dbd 05b7 e93d
0.18185745 0.20508063 0.17894132 0.17719626 0.12561913 0.19257748 -0.0008575817 -0.10122844
0.17631583 0.054491803 -0.033213954 -0.04405255 0.28759843 -0.070416875 -0.050118424 0.11411861

gnn_base.gnn.gnn2.0.lin_key.weight f4 [48, 16]
00000000: 7499 3fbb 1404 d03d b172 3db9 3cdd a1be
00000010: 73f8 95be f825 b33d 6e5c b13d 2135 03be
00000020: bc1f e83e 0076 c93e 1a67 b0bd 47f2 943e
00000030: 8d4b 3dbe 1914 f3bc edc4 133b 0849 0b3f
00000040: a207 4bbe 4a9e 82be 8c34 28be ea7d b3bd
00000050: 524f 0a3c d575 5c3e 9404 d2be f592 943d
00000060: de7a 94be 4818 f9bd a88c d6bd 7f19 88be
00000070: c00f 8e3e 70ed c9bd 8ef6 2a3e 2cfb 6bbe
00000080: 7d02 64be 94d9 1fbd 5537 e03e 242d 503e
00000090: 335f 523d 0a84 9d3d a2e9 bd3d 9a5c 10bc
000000a0: d4a9 133f ca28 c9bd e33c 7e3e 541e 03bf
000000b0: 2271 f03e 034d 2e3e 13e2 fe3e c372 e53e
000000c0: a6c2 cbbd 7ee4 cebc 04ca 95be 8493 bbbd
000000d0: a269 c93d b409 b8bd d0f7 2b3e 76ff 80be
000000e0: 8fee 22be f3b3 943e 6779 5d3e 5308 94ba
000000f0: a9a8 aebe b304 79be 3a24 3f3c afcd 973e
00000100: 0074 633e b1b0 043e 525c 0b3e 93a8 c73d
00000110: bc25 3c3e 3ee7 e4bd 5f71 79be 2b84 8a3e
00000120: 329d 0e3f e365 c33d 4204 af3e f864 cabc
00000130: 0f81 933e 84ee 9c3e 86a5 a93e 3177 083f
00000140: 188f 6abe 6164 3f3e 016c ccbc 1ca7 fabd
00000150: fc09 213b e8b5 c83d 68af 903e 9254 10be
00000160: 4454 b73e 8a81 be3d a46b 243e 0d6a 833d
00000170: acf1 d2bd a6b1 883e e1a3 e2be 193d bf3e
00000180: fc29 a0bd 8f59 0abe c9d5 0ebf b256 8a3c
00000190: a645 c6ba d37f 373e 9498 f5bc feae cebe
000001a0: 1f12 23be 9e2e d23d c46f 53be a21c 023f
000001b0: 7e87 bebe 8700 3cbe 42d9 313d bc39 2cbf
000001c0: 8d0e 643e 3933 3dbb 2a0f c9be 7a0d 3abd
000001d0: 69ee 2cbe 526f 7e3d 5319 d8bc c11a 34be
000001e0: b796 513e 50c9 3c3d fc12 08be 3758 0b3f
000001f0: 1d45 bdbe 7ce8 303d a958 4dbd 6f7b 91bc
00000200: 9ce8 a83d 1e21 84bd fc45 8e3e 2b08 8b3e
00000210: 9535 ecbb 8089 c3bd 1271 8a3e 8342 953e
00000220: 8ff0 95bd a2df 95be 7e67 ed3d f850 a5bd
00000230: 04c4 8b3e 7f7b a6bd ac62 d23e 4ecf 653e
00000240: 7129 f93c 06c3 afbd d086 07be 2344 69be
00000250: d66d 43be 4a37 203e 5bfb f5bd 7fba 16bd
00000260: dd25 4cbe 70a8 61be b7d3 2bbe 55a1 a13e
00000270: 5000 5abd c2cc 91bd 5877 443e 075e 9bbe
00000280: e402 5c3e 9686 e83d 09f3 0d3f ac75 babd
00000290: f15c cebd b521 b9be 8767 c8be 35ac 623e
000002a0: df82 a2bd daf2 5b3e d42b 163d 0b66 2ebf
000002b0: a71d 3cbd b263 5d3d 1202 8d3d 8090 383e
000002c0: 2f81 d83d 6544 85bd 9014 9ebe a9bd eebd
000002d0: d2d8 2e3e a270 39be 7c5a e13c c21d 8ebd
000002e0: ef51 163e 368f 7bbe 6c0b 8ebe c9ce e93e
000002f0: 1c1a 51bd e8e6 3ebe 86f6 993d ae26 17be
00000300: 4ea7 bebd c5fa 953e 519e b4be 66dd 98be
00000310: dca0 b73d 56e7 ef3c 7c98 a73c 7b4f 9fbd
00000320: 366c 1a3c 6518 b63e 6e2f 363e 0081 c23e
00000330: 9d75 81be 2510 8a3e 600b 78be 023c 473e
00000340: d35d 2dbe 006b 363e 4836 783c 4984 483e
00000350: c171 7fbe ad7a abbd 12b7 1bbe 172b b83e
00000360: 8411 813e d8d3 133e fca6 5d3e f71f 01be
00000370: c344 3d3e 08cf 373e 5bd6 db3c 9fbc 843c
00000380: 8e18 513e a4cc 183e 6f65 5cbe a505 213e
00000390: 584b a7bc 195d 0f3e 2b29 59be 804f ef3d
000003a0: e949 69be 1427 a9bd 4dd2 ec3d 1b95 cebe
000003b0: b9cf 90bd 8565 b93d fb24 c93e 380b bebe
000003c0: aee1 4a3e 90a3 7bbc eb68 973e 1a1f 863d
000003d0: caaa 12be 2a0d 123e 828b d9be 183e 43be
000003e0: 61db 093e 0b95 923e 3de8 143e bf35 c03c
000003f0: 5245 adbe d079 e9bd 6b5c bcbe f4f8 163e
-0.0029235752 0.10157028 -0.0001806717 -0.316141 -0.29291114 0.08747476 0.08660208 -0.12813236
0.4533671 0.3934784 -0.08613415 0.29091093 -0.18485852 -0.02967267 0.0022547797 0.5440831
-0.1982713 -0.2551139 -0.16426295 -0.087642506 0.008441763 0.21529324 -0.41019118 0.07254592
-0.2899999 -0.121628344 -0.10476047 -0.26581952 0.2774639 -0.09859741 0.16695616 -0.23045033
-0.22266574 -0.039025858 0.43792215 0.2032972 0.05136032 0.076912 0.092730775 -0.00881114
0.5768101 -0.09822233 0.24827914 -0.5121815 0.46961313 0.17021565 0.49781856 0.4481412
-0.099492356 -0.025255438 -0.29255688 -0.09158996 0.09834601 -0.08986226 0.16793752 -0.251949
-0.15911315 0.2904354 0.21628343 -0.0011293985 -0.34113052 -0.24318199 0.011666352 0.29649112
0.22212219 0.12958027 0.13609436 0.0974895 0.1837377 -0.111769184 -0.24359654 0.2705396
0.5570861 0.09540918 0.34182936 -0.024706349 0.288094 0.30650723 0.33134097 0.5330687
-0.22906148 0.18690635 -0.024953844 -0.12238905 0.0024572602 0.09800321 0.28258824 -0.14094761
0.35806477 0.09302051 0.16056687 0.06416712 -0.103000015 0.26698035 -0.44265655 0.373513
-0.07820508 -0.13510726 -0.5579496 0.016887043 -0.0015126958 0.17919855 -0.029979981 -0.40367883
-0.15924881 0.10262798 -0.20648104 0.5082494 -0.37212747 -0.18359576 0.043420084 -0.67275596
0.22271176 -0.0028869642 -0.39269382 -0.04542301 -0.16887821 0.062117882 -0.026379263 -0.17588331
0.2046765 0.046090424 -0.13288492 0.5443148 -0.36966792 0.043190464 -0.05013338 -0.017759053
0.08247492 -0.06451629 0.2778777 0.2715467 -0.007208536 -0.095477104 0.2703939 0.29152307
-0.073212735 -0.2927218 0.11592005 -0.08072084 0.27297986 -0.08129024 0.41090906 0.22442362
0.030415269 -0.0858212 -0.1323502 -0.22779898 -0.19084868 0.15646091 -0.12010833 -0.03679895
-0.19936319 -0.2203691 -0.16779982 0.315684 -0.053222954 -0.071191326 0.19186151 -0.30345175
0.21485478 0.11353795 0.5544897 -0.091044754 -0.10076321 -0.3615853 -0.39141485 0.22136004
-0.07935118 0.2147936 0.03666289 -0.68124455 -0.045926716 0.054050155 0.068851605 0.18023872
0.10571515 -0.06507186 -0.30875063 -0.116572686 0.17074898 -0.18109372 0.027508967 -0.069392696
0.14679693 -0.2456635 -0.2774309 0.45665577 -0.05105029 -0.18642771 0.07517724 -0.14760849
-0.093092546 0.29292884 -0.35277036 -0.29856414 0.08966228 0.029285114 0.020458452 -0.077788316
0.009425214 0.35565487 0.1779153 0.37989044 -0.25285044 0.26965442 -0.24223089 0.19456485
-0.16930322 0.17814255 0.01514966 0.19581713 -0.24945737 -0.08373008 -0.15206555 0.35970375
0.25208676 0.1443628 0.2164573 -0.1260985 0.18483262 0.1795007 0.026835611 0.016203223
0.20419523 0.14921814 -0.21523069 0.1572481 -0.020421669 0.14000358 -0.2120711 0.11685085
-0.227821 -0.08259407 0.11563549 -0.40348133 -0.0707087 0.090525664 0.39286026 -0.37117934
0.19812652 -0.015358821 0.29572234 0.06548901 -0.14322963 0.14262834 -0.4248925 -0.19066656
0.13462593 0.28629336 0.14541717 0.023463128 -0.3384195 -0.11400187 -0.3678926 0.14743406

gnn_base.gnn.gnn2.0.lin_key.bias f4 [48]
00000000: 542e b23d b05e f1bb e239 943d 1b9b 2e3e
00000010: d586 40be 6ed4 593e 8e9a 253e 6160 f83d
00000020: a1d8 b13c 6299 7b3e ae0e 8e3d bd83 f4bc
00000030: 412d 0dbd 4b25 183e d898 153d 6492 153e
00000040: 9def 0c3c 03d7 08bd 1774 d5bc e2da edbd
00000050: 4453 bdbd ab74 573e 5fc6 a5bc 90ac 6a3e
00000060: b99b c0bd 9548 85bd d99f 723c 80d4 413e
00000070: 04a7 f23d 5353 5d3c df97 0ebe 8b2a 613d
00000080: 10de 983c cd7d 3b3c d5bd 0b3d 1e4b ab3d
00000090: 301b 0e3c cda3 b53c 61a1 81bd 2580 e0bd
000000a0: f783 ce3c b7aa 233d a2e6 80bd 245b 8bbd
000000b0: 5f33 973c 6612 6fbd 5d59 133e dfd9 503e
0.08700243 -0.007366024 0.07237603 0.17051356 -0.18801434 0.21272442 0.16172239 0.12127758
0.021709742 0.2457023 0.06936394 -0.029847974 -0.034466986 0.14857976 0.036522716 0.14606625
0.00860205 -0.033408176 -0.026056333 -0.11614014 -0.09244397 0.21040599 -0.020236192 0.2291739
-0.09404702 -0.065079845 0.014808618 0.18928719 0.11848262 0.013508636 -0.13925122 0.054972213
0.018660575 0.011443567 0.034116585 0.08363937 0.008673474 0.022172833 -0.06329609 -0.10961942
0.02520941 0.03995773 -0.0629399 -0.06804493 0.018457113 -0.058367155 0.14389558 0.20395611
