model_weights/old_FA_FR/tube/feb17/no_transfer_metered/actor.pt (torch, 202776 bytes, 58 tensors)

gnn_base.gnn.embed_layer.layer_norm.weight f4 [16]
00000000: bece 763f e145 7c3f 91ed 7d3f ea5f 953f
00000010: 3bcd 873f 05d4 623f 2fa4 723f b36b 3a3f
00000020: be5f 783f 0d91 813f bf86 953f 3d9b 6f3f
00000030: 752a 8b3f 94b1 8c3f dbd0 b53f 0497 973f
0.96409214 0.98544127 0.9919062 1.1669896 1.0609506 0.88604766 0.94781774 0.72820586
0.9702109 1.0122391 1.1681746 0.9359625 1.0872332 1.0991693 1.4204363 1.1842961

gnn_base.gnn.embed_layer.layer_norm.bias f4 [16]
00000000: 6551 f73d 1115 ff3c 6766 bf3d 9e88 2cbd
00000010: fc49 1e3d d31e 1fbe 108f 2b3e 8445 333e
00000020: 7eb1 8b3d c44d a13c 395a df3d b738 debd
00000030: 5137 2f3e 9bea d7bc 6f29 14bd 14eb 25be
0.12076072 0.031137975 0.093457036 -0.042122476 0.038644776 -0.15539102 0.16753793 0.17506987
0.06820963 0.019690402 0.109058805 -0.10850661 0.17110945 -0.026356986 -0.036172327 -0.16202956

gnn_base.gnn.embed_layer.entity_embed.weight f4 [4, 2]
00000000: fd5c a83f 6c5f 64bd b3e2 1cc0 b0ba 353f
00000010: a1d1 8abf 2d05 b3bf 7a83 ce3e e588 563f
1.3153378 -0.055755064 -2.4513366 0.7098799 -1.0845224 -1.3985955 0.40334684 0.83802634

gnn_base.gnn.embed_layer.lin1.weight f4 [16, 10]
00000000: b13f da3e a58d 08bf a5e0 70bf fa9b df3e
00000010: b2ff 933d 3dd9 c03d 2ae9 4f3d ebf7 b5bd
00000020: e831 68bf edfb 033e e259 c5be ba85 60be
00000030: facf 3dbf 1d9b 91bf 119e d93e 1248 21bf
00000040: c1a8 aebe 3101 a13d 247a 3e3e b990 14bf
00000050: 623f 36bc 9317 393f b5f1 273f 7d49 1bbf
00000060: 5f01 9cbe 83f3 c0bd 19f8 f33e 45ed 15bf
00000070: 1c2d 2cbe 56e6 763e 29a9 cbbe 277b bcbd
00000080: 85f5 d03e db52 233d a068 59bf c971 c6be
00000090: 70be 1cbe 058d f7bd caef 67be 876c c6bd
000000a0: a791 953e e66c 013f 847d 5fbf f2d8 57bf
000000b0: 1e44 6a3e 8799 493b 113e 923e d6fc 03bf
000000c0: 3a54 a83e c2c4 513e ea34 1bbe e59b 173f
000000d0: fc93 b7be 000d d03d 850a c83e 3811 4b3e
000000e0: ac1c f7be bb82 933e d1f1 26bf 9f72 673e
000000f0: 33fa 443e 3501 443e f7b6 6c3e e137 903e
00000100: 8903 0a3c 90b0 e03d 220f 6dbf fcfd dabe
00000110: 8b48 76be 646b 45bf ffba 3f3e 0cc2 bf3e
00000120: c5e6 9abe ee3f cd3b ab1a 653f 4ed5 39be
00000130: 66a6 063f 4e81 e0be b7c5 a73e 9df9 8ebc
00000140: 7aec 893f 654b 5d3e 6ecb 21bd 7e18 96be
00000150: 6618 fe3c a5b6 3ebf 24d3 843e b1e2 88be
00000160: bdb1 17bd 4790 9a3e dc1f 9abe e75a 1e3f
00000170: 7df2 c13d a492 873f c380 18be dc79 a1be
00000180: 7d79 603d 32dc f73c 4e94 b93e 6adb 39be
00000190: e5c9 193e 0c77 773e 7f11 d9bd 70ee 2d3e
000001a0: d21d 80be aff5 11be c40e 5fbe b5dc abbe
000001b0: 8319 0d3f 57c1 973f 9bf0 1cbf 135f 3dbd
000001c0: 6b8f 173e 0955 1b3f 3082 28be 5c56 dabe
000001d0: e2eb 713e bcf1 063e eae6 3dbe f1df a63e
000001e0: e5a1 ce3e b88a 5f3c c601 49bf ced3 40bf
000001f0: 55b4 c2be 1a96 3e3e b359 f6bd 369a 923e
00000200: 6bfd 5e3e 82b3 bf3e b107 af3e 6af6 0e3f
00000210: 6633 393f 0cbb 1d3e 9c15 483e d9c8 47bc
00000220: f78f ea3d a564 233f 9fb1 a53e d6b5 0bbf
00000230: 878e c5bc 6421 9e3f 781b fcbe 0dc0 bb3f
00000240: 7243 a73d 4a7e 36bd 9f06 a9bd 1263 4b3e
00000250: 4e7c cabe 7c85 c7bc 0a1d 0bbf c421 143f
00000260: 50a5 e3bd 34a3 35be 38b2 a4be d1a0 f03d
00000270: 0df6 fc3e d7ca 79bc c528 3fbe 5a6a f1be
0.42626718 -0.5334113 -0.9409278 0.43673688 0.072265044 0.09416435 0.050759472 -0.08885177
-0.9070115 0.12889071 -0.38545138 -0.21926013 -0.7414547 -1.1375462 0.42503408 -0.63000596
-0.34113124 0.07861555 0.1860128 -0.5803333 -0.01112351 0.72301596 0.6560319 -0.6065901
-0.30469796 -0.09421446 0.4765022 -0.5856517 -0.16814083 0.24111304 -0.39777496 -0.09203177
0.40812317 0.03987394 -0.8492527 -0.38758686 -0.15307021 -0.12087444 -0.22650066 -0.09688669
0.29212686 0.5055679 -0.87300897 -0.8431541 0.22877547 0.0030761675 0.28562978 -0.5155767
0.3287676 0.20485213 -0.15156904 0.5922225 -0.3585509 0.101587296 0.39070526 0.19830787
-0.48264062 0.28810677 -0.6521273 0.22602318 0.19236068 0.19141085 0.2311667 0.28167632
0.008423694 0.109711766 -0.92601216 -0.427719 -0.2405111 -0.7711699 0.18723677 0.37452734
-0.30254188 0.0062637245 0.8949382 -0.18147776 0.52597654 -0.43848652 0.32768032 -0.01745301
1.0775292 0.21610792 -0.039500646 -0.2931556 0.031017493 -0.74497443 0.25942338 -0.26735452
-0.03703474 0.301882 -0.30102432 0.61857456 0.09470079 1.0591626 -0.14892869 -0.31538284
0.05480336 0.030256364 0.3624596 -0.18150106 0.15018423 0.24166507 -0.1059904 0.16985488
-0.2502275 -0.14253877 -0.21782976 -0.33566824 0.5511705 1.1855878 -0.61304635 -0.046233248
0.14800803 0.6067663 -0.16455913 -0.42644012 0.23625138 0.13178152 -0.18545118 0.3259273
0.4035789 0.013643913 -0.7851833 -0.7532319 -0.38028207 0.18611947 -0.120288275 0.2863328
0.21776359 0.3744164 0.34185556 0.5584475 0.7234405 0.15403384 0.19539493 -0.012193882
0.1145324 0.63825446 0.32362077 -0.54574335 -0.024115814 1.235394 -0.49239707 1.4667984
0.08167161 -0.044554032 -0.08253216 0.19862011 -0.39547962 -0.024355642 -0.54341185 0.5786402
-0.11115515 -0.17738038 -0.3216722 0.11749423 0.49406472 -0.015246115 -0.18667896 -0.47151452

gnn_base.gnn.embed_layer.lin1.bias f4 [16]
00000000: cd3c 003e 9fca 58bd 4c94 a03d 67b1 f0bd
00000010: 3c25 9b3e 8bd3 02be 144e 50be e952 493d
00000020: c18f f5bd 68dd 73bd 97be 183c b34c 1ebd
00000030: 484d e73d 2cdb debd 8456 bb3d 2a3c edbd
0.12523194 -0.05292761 0.078407854 -0.11752587 0.30301845 -0.1277601 -0.20342284 0.049151335
-0.119903095 -0.05953732 0.009322784 -0.038647365 0.11294037 -0.108816475 0.09147361 -0.11583741

gnn_base.gnn.embed_layer.layers.0.weight f4 [16, 16]
00000000: 3ce2 41be 0a24 43be 8691 bdbe 8e49 7bbe
00000010: eb20 b23e a934 d13e 91ee 863f 2507 a53d
00000020: 8879 62bf 8c6d ab3e 5a7e cebe 2341 313d
00000030: c692 0ebd d9ed 00bf df68 36be ba5e 5f3e
00000040: 3263 bbbd 659a febe 9ac4 0d3d dfea ff3c
00000050: 1071 9e3d 23b5 113f 865e d53e 45cd 833b
00000060: 0377 9bbe 873f f03e d12d 763e af23 14be
00000070: 733b 263f 6f68 6c3f 9c9f da3e 2632 293f
00000080: 13f0 f3bd f669 403f 26fc ddbe 5c8d 803e
00000090: b54b 1ebc 47a4 0b3f 4d44 023f 692f 95be
000000a0: 5055 8a3e 21b4 11bf bc30 043f d099 3fbe
000000b0: b058 c53e 5fe1 06bf 4861 16be fc3e 573e
000000c0: ae92 d43e 5b76 673e 7ec1 f3be 652f 19bf
000000d0: d1b6 873e 4716 c23e 6172 e0be b780 c63d
000000e0: 7cd4 7cbe 2edd dd3e 88a1 63be c88c 903c
000000f0: eec6 bebe 1139 0e3e 96a6 8f3f a9d3 dc3d
00000100: 0098 523e 6060 193f d986 f2be 9a7d c73d
00000110: cc7b 12be 0263 c1be f35c f0bd 721e e7be
00000120: ad1b b8be be96 da3c 57f1 13bf 11e2 1a3d
00000130: ac0c 673f b5c9 153d 94ab 00bf efca 6e3e
00000140: f5f2 773e aaac 6f3e abed e63e 15c3 6ebf
00000150: 3696 13bf 132a ab3e 40f1 0f3e 762f 843b
00000160: 72f5 2ebe a101 893e 2795 ce3d 33d1 a13e
00000170: 0263 d33d 0411 7e3c 9568 8abe 7c44 f03e
00000180: b628 743e c3a9 223e c401 a5be 3cf8 023f
00000190: 4b1b f9be 7a18 8cbe 60f2 9abd fac9 883e
000001a0: 94cf 31bf 63be d63e 1822 f83d 5d93 79bd
000001b0: 84ac f1be 323c bd3e d499 293d e704 a53e
000001c0: 3105 9c3d 9b78 fa3d 286c a43e ff55 95be
000001d0: 9d7e a1be d526 ba3c a50c e33e 2d89 29bf
000001e0: 9db2 f4be d036 0b3e 0113 8cbe 5683 b3be
000001f0: 609d dbbe 93bb 023f 0a90 663e a348 01bf
00000200: b9fa e7be 1329 8a3e 551c 9c3e 5eab 5f3e
00000210: e76f c8bd 77ec 453f f6f6 39bd 1336 693e
00000220: 8b5f 16bf f5c6 a5be ef20 26bf 9637 65be
00000230: 7a1a 9c3e 0693 3dbe e17b 353f e73c 213f
00000240: 14fe f63d fca1 99bd f4e0 043f 95c8 5b3e
00000250: a3a5 b13e 3d4b f93d 2819 39be 6b50 1ebf
00000260: e218 9dbe 832d a53e ae2e 9c3e cd52 0dbf
00000270: 8b9a ebbc 80d0 e8be d3ba ba3e d0ce 2e3f
00000280: fcb7 8b3e a635 24be 16d0 3a3b 2866 0d3e
00000290: 1767 8e3e 2f9d 723e b4d0 85bd 19b4 1ebf
000002a0: 2229 25be eaa0 a2bd a69a 84be 9a16 173f
000002b0: 1908 9cbe 4961 ba3e 0076 65be cf80 413f
000002c0: 22c2 c7be 3a36 e3be 1607 3f3e b2d7 0dbf
000002d0: 68d1 9b3e 4e9c 133e 8ae9 17bf a347 323e
000002e0: 9814 80be 13b5 d2bd 1635 053f 60f6 cbbe
000002f0: 903a 773d 6fbc e8bc 7c23 49bf 11de 25bf
00000300: 0f67 a1be 342b 4dbf af16 eebe 343b 13be
00000310: 9d27 57bf f560 9fbc 6fca 60bd e15c e2be
00000320: 2269 bb3e 0735 e53e 895d 513e d653 0abe
00000330: 3450 68be 2a31 57be ea26 183f f7dd 483e
00000340: 4ce0 d7be c1aa 5f3e 11cf 9abe 6796 ebbe
00000350: 7fd8 a33e 0450 98be 8295 d13d 823a 143d
00000360: 8703 ad3e 6f8d d4be dfac e0be 3b5c 46bf
00000370: 808d 4fbe f485 b13e cde8 51bf 3c0d 063f
00000380: 3dc8 93be 4a51 20bd 04fd 3f3e d9d8 d53e
00000390: 4cf0 973d 12dd 4d3e 638c 6fbe c63d e4bd
000003a0: 12c7 0cbc 1f24 383f a8e2 67bf 0630 2bbd
000003b0: 4d42 76be f631 853e 49c1 d4be a226 ec3d
000003c0: 3dc9 5e3f 1f02 93be 225d 873e ee2a cc3e
000003d0: 9509 d73d 448c 1d3f 7320 853e 07b3 febd
000003e0: 99da cf3c c2d7 94be a1c6 b9be 1f78 0bbf
000003f0: dbdb de3d 1bf6 d3bd 2fa5 c8be bad0 913e
-0.18933958 -0.19056717 -0.37025088 -0.24539778 0.3479074 0.4086049 1.0541555 0.08058003
-0.8846669 0.33482015 -0.40330774 0.04327501 -0.034807943 -0.50362927 -0.17813443 0.21813479
-0.091497794 -0.4972717 0.034611322 0.031239925 0.07736409 0.5691702 0.41673678 0.004022273
-0.30364236 0.46923468 0.24040915 -0.14466737 0.6493446 0.92346853 0.42699897 0.66092145
-0.11911025 0.75161684 -0.43356436 0.2510785 -0.009661605 0.5454754 0.5088547 -0.29137734
0.27018213 -0.5691548 0.5163686 -0.18711019 0.38544226 -0.5268764 -0.14685547 0.2102012
0.41518158 0.22603743 -0.4760856 -0.59837943 0.26506665 0.3790762 -0.43837264 0.09692519
-0.24690431 0.4333281 -0.22229588 0.017645255 -0.37261146 0.13888957 1.1222713 0.107825585
0.20565796 0.5991268 -0.47368506 0.097407535 -0.14305037 -0.3777085 -0.11736479 -0.45140415
-0.35958615 0.026683208 -0.5779013 0.03781325 0.9025371 0.036569316 -0.5026181 0.233196
0.24213775 0.2340571 0.451032 -0.9326642 -0.5765108 0.33430538 0.14056873 0.004033978
-0.17085817 0.26759055 0.10087042 0.3160492 0.103216186 0.0155069865 -0.27032915 0.4692725
0.23843655 0.15885071 -0.3222791 0.51160026 -0.48653635 -0.27362424 -0.075657606 0.26716596
-0.69457364 0.4194213 0.12115878 -0.060931552 -0.4720193 0.36959988 0.041406468 0.32230303
0.07618178 0.12230035 0.32113767 -0.29167172 -0.3154191 0.022723595 0.44345585 -0.6622494
-0.4779252 0.13595128 -0.2735825 -0.3506114 -0.42893505 0.51067466 0.22515884 -0.5050146
-0.45308474 0.26984462 0.30490366 0.21842715 -0.09786969 0.7731394 -0.045401536 0.22774534
-0.58739537 -0.32378355 -0.64894 -0.22384486 0.3048895 -0.18513116 0.7089215 0.62983555
0.1206018 -0.07501599 0.5190575 0.21463235 0.34696683 0.12172554 -0.18076003 -0.6184146
-0.30683047 0.32261285 0.30504364 -0.5520447 -0.028760215 -0.45471573 0.3647066 0.6828432
0.27288806 -0.1603609 0.0028505377 0.13808501 0.27813026 0.23692773 -0.065339476 -0.6199356
-0.16128972 -0.07940848 -0.25899237 0.5901886 -0.30474928 0.36402348 -0.22408295 0.7558717
-0.390153 -0.4437731 0.18655047 -0.5540725 0.30433202 0.14415094 -0.5934073 0.1741014
-0.25015712 -0.102884434 0.5203413 -0.39836407 0.060358584 -0.028410165 -0.7856977 -0.6479197
-0.3152394 -0.8014405 -0.4650168 -0.14378053 -0.8404482 -0.019455412 -0.054880556 -0.44211486
0.36603647 0.4476702 0.20445837 -0.13508543 -0.22686845 -0.21014848 0.5943438 0.19615923
-0.42163312 0.21842481 -0.30236104 -0.46013185 0.3200111 -0.29748547 0.102335945 0.03618861
0.33791754 -0.41514155 -0.4388189 -0.7748448 -0.20268822 0.3467251 -0.8199585 0.52363944
-0.28863707 -0.039140023 0.18748862 0.41767004 0.0741888 0.20103863 -0.23393397 -0.11144595
-0.008592384 0.71930116 -0.90580225 -0.041793846 -0.24048729 0.2601468 -0.41553715 0.11530806
0.87025815 -0.28712556 0.26438242 0.39876503 0.104998745 0.61542153 0.2600132 -0.124364905
0.02537279 -0.2907086 -0.36284354 -0.54480165 0.10881778 -0.10349675 -0.39188525 0.28479558

gnn_base.gnn.embed_layer.layers.0.bias f4 [16]
00000000: d2e3 21be 4f2f 0a3d 2b81 f8bd b479 10be
00000010: abc2 b53d 8579 26be f7a7 93bc 686a 9cbd
00000020: eccb 34be fdc5 1ebe 5324 f7bd dee0 843e
00000030: eeb7 103b 2996 a5bc 6cac cfbd acfe 9abe
-0.15809563 0.033736523 -0.12134012 -0.14108926 0.088750206 -0.16257294 -0.018024428 -0.07637483
-0.17655915 -0.15505214 -0.12067475 0.2595281 0.0022082287 -0.020213204 -0.10140309 -0.30272424

gnn_base.gnn.embed_layer.layers.2.weight f4 [16]
00000000: bece 763f e145 7c3f 91ed 7d3f ea5f 953f
00000010: 3bcd 873f 05d4 623f 2fa4 723f b36b 3a3f
00000020: be5f 783f 0d91 813f bf86 953f 3d9b 6f3f
00000030: 752a 8b3f 94b1 8c3f dbd0 b53f 0497 973f
0.96409214 0.98544127 0.9919062 1.1669896 1.0609506 0.88604766 0.94781774 0.72820586
0.9702109 1.0122391 1.1681746 0.9359625 1.0872332 1.0991693 1.4204363 1.1842961

gnn_base.gnn.embed_layer.layers.2.bias f4 [16]
00000000: 6551 f73d 1115 ff3c 6766 bf3d 9e88 2cbd
00000010: fc49 1e3d d31e 1fbe 108f 2b3e 8445 333e
00000020: 7eb1 8b3d c44d a13c 395a df3d b738 debd
00000030: 5137 2f3e 9bea d7bc 6f29 14bd 14eb 25be
0.12076072 0.031137975 0.093457036 -0.042122476 0.038644776 -0.15539102 0.16753793 0.17506987
0.06820963 0.019690402 0.109058805 -0.10850661 0.17110945 -0.026356986 -0.036172327 -0.16202956

gnn_base.gnn.gnn1.lin_key.weight f4 [48, 16]
00000000: 415a 9bbd 5c64 613e a193 2d3e 6568 80be
00000010: 170e 053f d95d 6fbd 528a d3bd 9cc1 f3bd
00000020: 8e44 143e e5cf afbd bf32 f23d a8c3 173d
00000030: a520 a2bd 3238 fabd e5d0 d5bd 78cb 463e
00000040: a185 cfbd b022 273e 52fd 103e 9315 633e
00000050: c7c4 1dbe 42cb 7a3c da88 bf3d 5bca 2b3d
00000060: e251 3dbc 6467 0f3e 8df5 3dbe 24d2 2cbe
00000070: 4416 383e 79a6 ab3d 5361 013e f89a 17bc
00000080: 3637 953d 85ec 01be 8550 22be f30d c83d
00000090: b577 5b3e cc3b aebc 8684 2e3e 763b 773e
000000a0: 6e13 913d 23d6 693b 7166 c0bd 6479 83be
000000b0: 0c83 4e3d 9c01 0fbc 5863 38be f3fa 953e
000000c0: 5f50 8dbd f376 4ebe 6da0 9dbe 78c9 98be
000000d0: 54c4 6f3e bc4d e9bd 4ffb 91bb b2a7 91be
000000e0: ad16 173e 60a4 b1bd 6bfd 213e 1607 c63d
000000f0: a565 dabe 0a38 933e 6d96 4c3e ddcc 3e3e
00000100: d259 033e b874 7abe 1ce7 463d ecc6 833c
00000110: 2119 11bd da44 c23d e3fb 57be 0c12 0ebc
00000120: e763 523e 7326 7d3e 9a05 ed3d a3ef 10be
00000130: d15b a8bd a895 93be f2f9 3cbd 21c0 1c3e
00000140: b7cc 923d 3014 7bbc 39d0 ba3e 3535 0f3e
00000150: 54f9 3ebe 5498 00be f611 0fbe 5800 093e
00000160: 3881 d0bc 8768 103e 44aa e73d fc76 82bc
00000170: 23cd 1c3e b6c0 c93d 4d12 81bd a014 df3d
00000180: 35a7 4fbd 4e4e a8bd 8fdc 9d3b e850 aabc
00000190: 931e 1e3e 1853 29be 1a2d b43e 03b6 133e
000001a0: 8cab dbbc ab38 e13d 8dc5 cebd f1ba a1bd
000001b0: a902 a43d 555e 8c3d 5c1f 063e b2a2 333d
000001c0: a7b2 d3bd 0cf9 e93d 08f5 433d b202 523e
000001d0: e242 a23e b72c 11be d37e 35bd 013e 24be
000001e0: 50f6 cd3d 75c8 88be 60ca 51be ccee 09bd
000001f0: 945c c4be 0ddb 1ebe 7113 893e 5b4e 0cbd
00000200: 3c3a 86be c270 adbd bea6 3a3d c72b 07be
00000210: 6033 44be acd5 3d3e d503 13bc ecec 3c3e
00000220: ae83 3dbe 740b 08be f8e4 ef3d 8f5d 5abe
00000230: 1432 093e ee91 383e 67df 703e 66ef 6bbe
00000240: a3d2 583e 9a53 0e3e 80ee ecbd 541a 363e
00000250: f545 853c 2f58 163e eb2e 9bbe ee9d 9d3e
00000260: 09ee a3bb 157c c13d c039 24be dd41 18be
00000270: d182 b3bc bfbb 233e b81a 85be f718 333e
00000280: ca76 893d dd2e e13d 0957 d53d 641a 6ebe
00000290: 1b75 47be 7869 adbd 736c cc3d 1155 3c3d
000002a0: d55f 06be 4787 3dbe 531f 3a3c 1c53 92be
000002b0: 3868 2d3d fc2e 653e 13a9 89be 136a 093e
000002c0: 6c8c 86bd 093f 16be 4541 aeba 66b6 a63c
000002d0: 6bca 59be 62e0 d63d 28aa 85bd 95de 423e
000002e0: 013e 0ebe b8e7 6c3e e1b8 8ebe 7dd0 b4bd
000002f0: 7ceb 113e 09ac 063d f0e4 b6be 969e 51bd
00000300: 96bd 30be 7c60 46be 54a5 bbbd 4c86 b23e
00000310: 1451 293d b47c a93d 81e9 c13c f65f 923e
00000320: edd6 803d 2b38 033e 78f8 563c 7ca9 debd
00000330: d1f6 b53d 7271 2a3e 13a2 043e 67f4 ba3d
00000340: 3653 cf3d 17da 84bd dc28 413e a698 113e
00000350: afbd 623e d26f 46bd 4d4c aabe 5e0c 203e
00000360: 0e19 6e3d 3e1f 3a3e be6d cb3d 43c8 073e
00000370: af72 b43e db7f 63be 6872 113e b265 093e
00000380: cafa 8a3e 47a3 8c3e fb1c 8cbe 8ffa 913e
00000390: a3e6 d23d 0830 44be 4023 0b3d 9e25 883c
000003a0: 6972 2d3d 4a71 d83c 50d8 e83d 4857 14be
000003b0: 33b3 97bd 91a2 ef3d bf78 1b3e 585e 9c3d
000003c0: a72d 173e 2145 043e 641a 033e fa7d 9cbd
000003d0: 1321 5b3e 6065 bdbc 0c94 afbd 44e9 3dbe
000003e0: fc46 74be d5fe df3d af86 fcbc 6bb4 acbd
000003f0: bd6d 493e a503 a2bd cdbe e33d c465 283e
-0.07585574 0.2201094 0.16950847 -0.25079647 0.51974624 -0.05843911 -0.10329117 -0.119021624
0.14479277 -0.085845746 0.11826085 0.037051827 -0.07916383 -0.1221775 -0.10440234 0.19413555
-0.101329096 0.16321826 0.14159134 0.22176199 -0.15407096 0.0153072495 0.09352274 0.041941028
-0.011555167 0.14004284 -0.18550701 -0.16877037 0.17977244 0.083813615 0.12634782 -0.009253256
0.07285921 -0.12687881 -0.15851028 0.097682856 0.21432383 -0.021268748 0.17042741 0.24143776
0.07083784 0.0035680614 -0.09394539 -0.2567855 0.050417945 -0.008728411 -0.18006647 0.29293022
-0.06900095 -0.20162563 -0.30786458 -0.29841208 0.23414737 -0.1139178 -0.004455007 -0.28448254
0.14754744 -0.0867393 0.15819328 0.0966932 -0.42655674 0.28753692 0.19979258 0.18632837
0.12827232 -0.24458587 0.048560247 0.016086064 -0.035424355 0.09485789 -0.21092181 -0.008671295
0.20545922 0.24721698 0.11573334 -0.14153914 -0.082206376 -0.28825116 -0.046136804 0.15307666
0.071679525 -0.015324637 0.36486986 0.1398514 -0.18649799 -0.12558109 -0.13971695 0.13379037
-0.025452241 0.14102374 0.113117725 -0.015925877 0.15312628 0.0985121 -0.06302319 0.10892606
-0.05069657 -0.082180604 0.0048175524 -0.020790532 0.1544135 -0.16535604 0.3519066 0.144249
-0.026815198 0.10997137 -0.100962736 -0.07896984 0.0800832 0.0685393 0.130979 0.04385633
-0.103368096 0.11424455 0.047841102 0.2050884 0.31691653 -0.14177214 -0.044310402 -0.16039278
0.10056746 -0.26715437 -0.20487356 -0.033675 -0.38351882 -0.15513249 0.26772645 -0.034254413
-0.26216304 -0.084687725 0.045569174 -0.13200293 -0.19160223 0.1853854 -0.008973082 0.18449754
-0.18507263 -0.13285619 0.11713594 -0.21324752 0.1339801 0.18024418 0.23522721 -0.23040542
0.21174102 0.13899079 -0.11568928 0.17783481 0.01626871 0.14682077 -0.30309233 0.30784553
-0.0050027412 0.09447495 -0.16037655 -0.14868875 -0.021912964 0.15989588 -0.25996947 0.17489992
0.0671211 0.109952666 0.10416991 -0.23252255 -0.19478266 -0.08467382 0.099816225 0.045979563
-0.13122495 -0.18508635 0.011360007 -0.28579032 0.04233572 0.22381204 -0.26886806 0.1341937
-0.06569752 -0.14672484 -0.0013294598 0.020350646 -0.21268623 0.104920164 -0.06526595 0.19030221
-0.1389084 0.23135269 -0.27875426 -0.088288285 0.14249986 0.03287891 -0.3572154 -0.05117663
-0.17259821 -0.19372743 -0.09162393 0.34868085 0.041337088 0.08275738 0.023670914 0.28588837
0.06290994 0.12814395 0.013120763 -0.1087217 0.08884967 0.16644838 0.12952451 0.09128647
0.10123293 -0.0648691 0.18863243 0.14218387 0.22142671 -0.048446484 -0.33261338 0.15629718
0.058129363 0.1817598 0.09933041 0.13259988 0.35243747 -0.22216742 0.14203799 0.134177
0.27144462 0.2746832 -0.2736586 0.28511474 0.10297897 -0.19158947 0.033969164 0.0166195
0.04234544 0.026421208 0.11369383 -0.1448642 -0.074072264 0.11700929 0.1518278 0.07635182
0.14763509 0.12916996 0.12803036 -0.076412156 0.21399336 -0.023119628 -0.085731596 -0.18546015
-0.23855203 0.10937277 -0.03082594 -0.084328495 0.19670768 -0.079108514 0.11120377 0.1644507

gnn_base.gnn.gnn1.lin_key.bias f4 [48]
00000000: c848 443e 26c4 4a3e 75ce 8cbd 88dc 14be
00000010: dd6b e3bd 07dd 2ebe a5da 83bd b053 67be
00000020: 19d0 083e 18ed 70be 3e38 1fbe 35e6 2b3e
00000030: 6c65 3fbe fe56 743d 0fcf 3f3e 9e4f 7c3e
00000040: 50a5 013e 5a5e 89bd fe3a 123e 5490 07bc
00000050: 91f2 9dbd 3251 423a 84af 653d b196 2b3e
00000060: 62d3 d63d 3434 f43d 5a50 193d e159 4cbc
00000070: 26c9 d63d 8434 763d 4904 75be 0491 253d
00000080: 2a6a e3bd 29dc 07be 9133 c63d f9d8 513d
00000090: e5c2 2d3d 12a9 f2bd 0c8e ec3d ac33 703e
000000a0: 394a fb3c fc6e d23d 63bd 60be 0f3d 183e
000000b0: 69ff b13d 01dc e63d 548c d53d 8004 87bd
0.19168389 0.19801387 -0.06875316 -0.14537251 -0.11104558 -0.17076503 -0.064381875 -0.22590518
0.13360633 -0.23527944 -0.15548798 0.16787036 -0.18691033 0.059653275 0.1873133 0.24639747
0.12660718 -0.06707449 0.14280316 -0.008274157 -0.077122815 0.0007412612 0.056075588 0.16756703
0.10489537 0.119240195 0.037430145 -0.012472601 0.10487585 0.060108677 -0.23927416 0.0404215
-0.111042336 -0.13267578 0.09677804 0.051232312 0.042422194 -0.11848654 0.11550531 0.23457211
0.03067504 0.10275075 -0.21947245 0.14867042 0.08691294 0.11272431 0.10427156 -0.06592655

gnn_base.gnn.gnn1.lin_query.weight f4 [48, 16]
00000000: 46ca 383e 2207 bc3e 967e a23d f954 a6be
00000010: 34b3 583d 9396 b03e 6674 49be 4d00 30bd
00000020: a1f3 533e 4353 b13d 7664 223e 1587 f9bd
00000030: 940b adbd 7b70 64bd 4906 0bbe 963f a83e
00000040: ff46 1ebb 7b4b 3dbe 3084 f3bd 794c 00bd
00000050: e035 293d d109 0d3e ddae 0a3d 4415 01be
00000060: 96d8 0a3e 9797 5abe 178c 563e dc2f 75be
00000070: f2bf 6e3e b376 db3d 0080 1d3e 97d4 d43d
00000080: 6288 d2bd 0d64 1d3e b462 143e 7eba dfbd
00000090: f3d6 043e 8172 a93d b56b 063e 771d a93d
000000a0: 6bb9 3d3e b82d 6abe f727 c93e fb17 053d
000000b0: e781 f73d 4df4 0c3e 9a10 4e3e 2469 8f3e
000000c0: b2ab 1f3d f7bd 06be bd4e 3a3e 8b06 14be
000000d0: 7015 93be 95e9 0d3e dbeb fd3d 3577 043e
000000e0: 6a58 6c3d aec3 993c a8df 993d 1cc8 d33e
000000f0: 2cf9 133d e465 903e 42c7 bebe 23cd c63d
00000100: 298e 8cbe 623e 723d 1c66 62be 2242 5ebe
00000110: 22bb e2bd c9b3 0d3e 9290 8ebd 4146 96bd
00000120: 7b03 dfbc 21b4 0abe 24aa debb dbe7 6bbe
00000130: 939e acbb 4d88 37bd e9cd 753d 4462 193e
00000140: 46b7 7cbe dd12 cb3d a2ee 1ebe 275c 50bc
00000150: 490f 533e adf6 f53c bf99 0a3e d035 b9bc
00000160: 6bf9 fdbd da71 43be 7d7e d23c 1ebb d4be
00000170: f39f b7bd a5ea 92be 5911 ab3d 0e99 48be
00000180: 74b5 92bd c5fa 443e 631b 6c3e f130 81be
00000190: a06b c4be c30c 39bc 6f7f 1d3e c2c0 cd3d
000001a0: 85b5 64bd 8082 11be f5f7 853b a1f9 333d
000001b0: 73ef ab3d ad75 c2bc 9701 0a3e 5ea3 a53d
000001c0: dcaf 033e 6cd6 1abe 4a07 a23e 2c20 9cbe
000001d0: cbf4 e13d 7506 cabc 77d9 d4be 1419 9fbd
000001e0: 7af5 8abb ff0b 643c 1314 7d3d 0133 3c3e
000001f0: fe94 89be 3929 013e 4ee1 4a3e 8bc1 453e
00000200: 78b7 fdbd cba5 613d d57a d2bc 0cc1 2e3e
00000210: 387f 5ebe c31a 95bc 3d26 103d 3e11 55be
00000220: 012c 123e fa1a 45be 24a7 5cbe fd9a 2fbc
00000230: 74fb 5f3e 27b8 c53d 01b0 19be 11d9 813e
00000240: d6f7 1c3e 0d7d 773d a2b3 ae3d e1e5 613e
00000250: 641b 833e 0a30 2abe c6a7 1539 d427 1bbe
00000260: f729 87be d880 12be 2025 793e 4b9c 44bd
00000270: d44f 8a3e 26b6 e63d afcb 94bd f884 543d
00000280: 4768 abbd 4410 54bd effe cf3c 75d4 073e
00000290: 346c b5bd 518b 123e c1a1 b53e cf36 b43c
000002a0: ac74 d33d d60d 8dbc 0538 2ebe 3803 b3be
000002b0: 22f4 563e b5fc e1bc 0ba8 bc3c 412d fbbd
000002c0: d805 873d 03ba b13d 9308 db3d 25b0 5a3e
000002d0: a81a 1e3e e3df 1abe 38c0 1b3d 50ba 4ebe
000002e0: bc37 173e f5c2 3d3e a551 373e a153 36be
000002f0: 70d0 c1bc ef5a c2be 8a95 e33c 7907 8ebe
00000300: 2065 7bbe c9ac debd f891 ea3c 9dcf 913a
00000310: 0a2c f0bd a6a5 233e fa18 d4bd 160e 6abe
00000320: 99d0 12be d9b2 d1bc b1aa 1a3e 4baf 5abd
00000330: 6fc9 183d a0b0 223e b66d f0bd cfe2 dfbd
00000340: 06f8 bd3d cf0c 5bbe 3396 6fbe 24be 653e
00000350: b878 4c3e feb4 c23c 5dad 04be c3a2 453d
00000360: 7a6d 9e3d d127 16be 507a a63d f60e a4be
00000370: 00b1 69be 3eea d0bd a241 8c3d 3c19 893e
00000380: 6803 453d 649d dfbd a018 843d 261c 9abd
00000390: 1640 7abd b9bd 20bd 43f3 9b3c 0ce0 87be
000003a0: 1cd2 83bd 9c53 97be 545d a6bd a3a3 0dbe
000003b0: beff 303e 255f b9bd cc54 813e b4a5 a93d
000003c0: 3a6a 02be b7a9 393e 1d84 b7bd 5788 1cbe
000003d0: b2d0 a9bc c9e5 2f3e e001 6fbe bee5 c8bc
000003e0: a1ac ab3d 10f5 b3bd db6b f63d aebd 2abe
000003f0: f688 c1bd 3da4 5b3d b525 5cbc 1438 293d
0.18045911 0.36724192 0.079343006 -0.32486704 0.052905276 0.3448988 -0.19673309 -0.042969037
0.20698406 0.08658459 0.15858635 -0.12183968 -0.08449474 -0.055771332 -0.13576616 0.32861012
-0.0024151204 -0.18485825 -0.11890447 -0.03132293 0.041311145 0.13773276 0.03385817 -0.12605768
0.13559183 -0.2134689 0.20951878 -0.23944038 0.23315409 0.107159995 0.1538086 0.10392111
-0.10279919 0.15370198 0.14490777 -0.109242424 0.12972622 0.08273793 0.13127024 0.08257573
0.18527763 -0.22869003 0.39288303 0.032493573 0.12085324 0.13765068 0.2012352 0.28009903
0.0389821 -0.13158403 0.18194099 -0.14455621 -0.28727293 0.13858636 0.123985015 0.12936099
0.057701506 0.018770065 0.07513362 0.4136361 0.0361263 0.28202736 -0.37261397 0.097070955
-0.2745221 0.059141524 -0.22109264 -0.21704915 -0.11070849 0.13838114 -0.06961168 -0.073376186
-0.02722334 -0.13545276 -0.0067951847 -0.23037665 -0.005267927 -0.04480772 0.060010824 0.14978892
-0.24679288 0.09915707 -0.15520719 -0.012717283 0.206113 0.03002485 0.13535212 -0.022608668
-0.12401088 -0.190864 0.02569508 -0.4154901 -0.08966055 -0.28694645 0.08352918 -0.19589636
-0.07163516 0.19236286 0.23057322 -0.25232652 -0.3836336 -0.011294547 0.15380643 0.10046531
-0.055837173 -0.14209938 0.0040883967 0.043939237 0.08395281 -0.023737753 0.13477169 0.080878004
0.12860054 -0.15120858 0.31646186 -0.30493295 0.11033019 -0.024661282 -0.41572163 -0.07768455
-0.004240689 0.013918876 0.061786722 0.18378831 -0.26871485 0.12613381 0.1981251 0.19312112
-0.123885095 0.055089753 -0.025693337 0.17065829 -0.21728218 -0.018201238 0.035192717 -0.20807359
0.14274599 -0.19248572 -0.21548134 -0.010718104 0.21873266 0.09654265 -0.15008546 0.2536092
0.15328917 0.060421992 0.08530356 0.22060348 0.25606835 -0.16619888 0.00014272248 -0.15151912
-0.26399204 -0.14306962 0.24330568 -0.048000615 0.2701403 0.11265211 -0.07265412 0.05188462
-0.08369499 -0.051773325 0.025390116 0.1326464 -0.08858529 0.14310957 0.3547497 0.021998791
0.10324988 -0.017218512 -0.17013557 -0.34963393 0.20991567 -0.02758632 0.023029348 -0.12264491
0.065929115 0.08678057 0.10694995 0.21356256 0.15439856 -0.15124469 0.03802511 -0.2018826
0.14767355 0.18531401 0.17902239 -0.1780534 -0.023658961 -0.37960002 0.027781267 -0.27740076
-0.24550295 -0.108728 0.028634056 0.0011124496 -0.1172715 0.15981159 -0.103563264 -0.22856936
-0.14337386 -0.025597977 0.15104176 -0.05338983 0.037301477 0.1588769 -0.11739676 -0.10931932
0.09275822 -0.21391605 -0.2339714 0.22435814 0.19967926 0.023767944 -0.12956758 0.048250925
0.07735725 -0.14663626 0.08128798 -0.32042664 -0.22821426 -0.10200928 0.06848456 0.26777065
0.04809895 -0.10918692 0.06450009 -0.075249 -0.061096273 -0.039243434 0.019036895 -0.26538122
-0.064365596 -0.29555976 -0.0812327 -0.13831954 0.17285058 -0.090513505 0.25260007 0.082835585
-0.12735835 0.18131147 -0.089607455 -0.15286385 -0.020729396 0.171775 -0.23340559 -0.024523612
0.08382536 -0.08786976 0.120322905 -0.1667392 -0.09449951 0.053623427 -0.013436724 0.041313246

gnn_base.gnn.gnn1.lin_query.bias f4 [48]
00000000: dcb2 10bd 66be 45be 5282 2ebd 044e 2a3e
00000010: c46a b3bd a72f 663e 4861 a93d f672 5fbe
00000020: 836f 3e3d 5b3e abbd e3bb 043e 1041 0d3e
00000030: 4633 943e e10c 3ebe 5137 e5bd efa4 22be
00000040: a8f8 c2be 1519 f7bd 76d6 14bd a2c1 18be
00000050: 5a22 2cbd 6399 22bd 7feb 303d b117 2bbe
00000060: b6da 16be 5bb7 9a3d 6eff 72be 53ed 0e3e
00000070: 6902 3a3e e395 9ebd 32da 933e 756f ab3e
00000080: b1da dbbd d79d 81bd 6a62 823c 011a 013d
00000090: a626 56be 1261 123e 9ce0 773e becc 12be
000000a0: 001d 88be 0839 933e e93d 48bd 2ea6 09be
000000b0: 7dfc 2e3e ffb9 8abb 0fce a03d 81b4 863d
-0.035326824 -0.19310912 -0.042604752 0.16631323 -0.08760598 0.22479115 0.08270508 -0.21821198
0.046493065 -0.08361503 0.12962298 0.1379435 0.2894537 -0.185596 -0.111921914 -0.1588323
-0.38080335 -0.12065331 -0.03633734 -0.14917615 -0.042024948 -0.039697062 0.043193337 -0.16708256
-0.14731869 0.075545035 -0.23730251 0.1395772 0.18164982 -0.077434324 0.28877407 0.33483472
-0.107350715 -0.06328934 0.015916068 0.03151894 -0.2091318 0.14294842 0.24206775 -0.14335915
-0.26584625 0.2875445 -0.048887167 -0.13442299 0.17088504 -0.0042335982 0.078518026 0.06577397

gnn_base.gnn.gnn1.lin_value.weight f4 [48, 16]
00000000: 2900 05be 280b a83d a9c5 97be 0b2e 08be
00000010: 6185 a63d 129f 2f3e fbc7 233e 831c 44be
00000020: bb6f 29bd 07ff 07bd dc17 453e 00b7 0f3d
00000030: d1bd c1be e231 ea3e 9c3a ee3e 3e4a 763e
00000040: 8235 b1be 84e1 b9be 3405 7abe 3c57 ec3d
00000050: 23cf a0bd 9113 0d3d e8b4 b23e ce8a bebd
00000060: 20c6 1cbd abbc 653e c27f 123e 1488 10bd
00000070: 8403 7fbe c850 003e 8a71 9d3e 8f6b 9cbe
00000080: 08c1 aabe cbeb fbbc e48b 36bd 84f5 42be
00000090: e208 9e3e 7931 4a3e b8a3 423e 5848 1d3e
000000a0: 4e81 28be 6965 173d c4bc b13e 0244 16bd
000000b0: 33a8 1bbe ec02 c33d f80c df3d d1f1 c4bc
000000c0: 7936 e4bd fe99 93be 5f97 d8be 8ad8 ea3d
000000d0: 9747 ddbe ed17 93be bec5 393e f7ba 6bbe
000000e0: d81e 5a3e 1df3 a33e f974 053e 2000 f13d
000000f0: 69db 84be 4a8a 323d b12d a63e ca99 ffbd
00000100: 2b68 763e c2e6 743e 15b5 6ebe e633 663e
00000110: e93c 91be ec65 44bd 044d b73d 7694 873e
00000120: 0a20 11be 1850 783e 237f 05be f0ff 4dbe
00000130: 4e8f 07be a7d1 723d a5d9 92be 6c10 7c3e
00000140: fef2 4fbc 5a92 89be cd8e 2b3e 74cb 783e
00000150: 0ea6 8e3e 868c d33e c7e8 273e 86f0 86be
00000160: 0a7b a0be cdb6 003d 0fba 923e 2f9c 693e
00000170: eb2f a5be c6d1 09be 73ef 80bd 74ac 143e
00000180: 6aba 223e a589 8f3d f701 88bd 6438 6cbe
00000190: 8933 c338 db68 53bd 0d87 44bd 5765 17be
000001a0: 76c8 f6bc 4047 893c 9fce 253e b728 fa3d
000001b0: be99 86bd 124f 5d3e 1dba f43b cae1 38be
000001c0: 422f 05bd 2643 94bd 5727 423e e4e8 04bd
000001d0: a03f 32be 8c1e bd3d ff3e 68bd 5de8 5abe
000001e0: 67ad f03c c159 82be 4d59 5dbe ed82 893e
000001f0: 1618 d4be b97b af3e 180b 5dbe a8a8 b1be
00000200: 7dcf 903d 8a00 d73d 803a 683e aa05 473d
00000210: c2c4 a23d 34e1 efbd afa5 453e 1018 403e
00000220: e83f 76be 86ae 80bd 10db 5bbe 2335 173e
00000230: 1e05 9b3e 9dd0 76be c098 0a3e 3ea8 063e
00000240: c455 b4be eb74 7ebe dbfb b43d 4527 de3d
00000250: ab59 9c3d 7129 153d b282 0b3f 0aa0 c1be
00000260: a031 713d 8d25 d9be f414 973e 4058 b43e
00000270: c89e 23bd 4abc 083c f67d 42bb 8f19 90be
00000280: 7f74 86bd fc5d c4bd e6e8 0e3e 4ff6 9ebc
00000290: 5dbe af3d 9bdb d0bd 1bc0 053e 6202 6b3e
000002a0: a397 f0bd 9b0c dfbc 1416 0f3e 5ce7 95be
000002b0: 9594 cdbe 70d2 d33d 6398 dc3e 1ef9 0dbc
000002c0: e1e9 19be d22b 03bf 6ba9 8cbd 9121 8b3e
000002d0: 4e5d de3e 6592 3cbe 029a 5e3e a482 0bbe
000002e0: 690d e2bd b929 abbe 3fbd 233b c3e4 183c
000002f0: 1add 93be 5b6a 07bb 7e82 083f 3df4 8fbd
00000300: 0e0d 8dbe 9c0b ca3d 7f65 7b3e b08b 95bd
00000310: b76e b63e e4cb 2b3e 3828 713e 5e01 98be
00000320: 6fa5 63be 4220 1fbe 86c6 3e3d dbef 80be
00000330: c6cf cdbe 89d1 cabd 8928 5b3e 2292 263e
00000340: 9268 743e 092c 6e3c 4955 2bbe 98ef 4fbe
00000350: 7015 b73d 77d6 57be ca99 993c 3e01 ed3d
00000360: 191b 923e 8e13 21bc 9d82 863e 1219 8e3d
00000370: 7227 d2be f993 a23e 6dc4 b93e 2813 12be
00000380: c749 97bd 25b0 773d af01 20be e987 643e
00000390: b268 5fbe 66b4 f3bd 7829 bfbc bc46 c23e
000003a0: c14a a73d 9cae 533c 0be6 6f3d f62c d3bd
000003b0: 6112 1dbe a561 9dbd 82f1 83be d1f5 cc3c
000003c0: 3121 98bd 5b05 9a3d 4c01 55be e5a5 bebc
000003d0: e882 023f bd46 15bd 7fb2 273e 5881 9bbe
000003e0: aa13 56be b739 39bd d160 683c 70ac de3d
000003f0: 0922 f3be ff3c ad3e 8b1e 283d 1db1 3fbe
-0.12988342 0.08205253 -0.2964299 -0.13298814 0.08130909 0.17150524 0.15994255 -0.19151501
-0.04136632 -0.033202197 0.19247383 0.03508663 -0.3784013 0.45741183 0.4652909 0.24051759
-0.34611136 -0.36304867 -0.24416047 0.11540076 -0.07852008 0.034442488 0.34903646 -0.09303819
-0.038274884 0.22435252 0.14306548 -0.035286024 -0.24903685 0.12530816 0.30750686 -0.3055081
-0.33350396 -0.030752083 -0.044567004 -0.1903897 0.30866152 0.19745435 0.19007766 0.15359628
-0.16455576 0.036961947 0.3471433 -0.03668595 -0.15200882 0.09522042 0.108911455 -0.024041088
-0.11143202 -0.28828424 -0.42302987 0.11467083 -0.4321868 -0.2872919 0.18141839 -0.2302054
0.21300828 0.32021418 0.13032903 0.11767602 -0.25948647 0.043588914 0.32456735 -0.12480505
0.24063174 0.23916152 -0.23311265 0.22480735 -0.28366783 -0.047948763 0.089502364 0.26480454
-0.14172378 0.24249303 -0.1303678 -0.20117164 -0.1323826 0.05928197 -0.28681675 0.2461564
-0.012692211 -0.2686947 0.16753693 0.24296361 0.27861065 0.41318148 0.16397391 -0.2635538
-0.3134387 0.031424332 0.28657576 0.22813486 -0.3226312 -0.13458928 -0.06295671 0.1451891
0.15891424 0.070086755 -0.06641 -0.23068386 9.307924e-05 -0.05161367 -0.047980357 -0.14784752
-0.030124884 0.016757607 0.16192101 0.12214797 -0.06572293 0.21612194 0.0074684755 -0.18054882
-0.03251577 -0.0723937 0.1896032 -0.032448664 -0.17407084 0.09234342 -0.056700703 -0.21377702
0.02937956 -0.25459102 -0.21616097 0.268577 -0.41424626 0.3427408 -0.21586263 -0.34698987
0.07070825 0.1049815 0.22678566 0.048589386 0.07947685 -0.11712876 0.19301485 0.18759179
-0.24047816 -0.06283288 -0.21470284 0.14766364 0.30277342 -0.24103017 0.13534832 0.13150117
-0.35221684 -0.24849288 0.088371 0.10847334 0.0763429 0.036416475 0.544963 -0.37817413
0.058885217 -0.4241146 0.29508173 0.3522358 -0.039946347 0.008345673 -0.002967713 -0.281445
-0.065651886 -0.095882386 0.13956031 -0.019404558 0.08581231 -0.101981364 0.13061564 0.22950128
-0.117476724 -0.02722769 0.13973266 -0.29278076 -0.40152422 0.10342872 0.43085012 -0.008665351
-0.15030624 -0.5123874 -0.068682514 0.27174047 0.4343056 -0.1841522 0.21738437 -0.13624054
-0.11037714 -0.3343027 0.0024984626 0.009331885 -0.28879625 -0.0020662758 0.53324115 -0.07029007
-0.27549022 0.098654956 0.24550436 -0.07302034 0.35631344 0.16776997 0.23550498 -0.29688543
-0.22231077 -0.15539649 0.046576045 -0.25182995 -0.4019758 -0.09903247 0.21402182 0.16266683
0.23868015 0.014536866 -0.16731752 -0.20306242 0.08939636 -0.21077906 0.01875009 0.115725026
0.285363 -0.009831322 0.26271525 0.069383755 -0.4104572 0.3175352 0.36282673 -0.1426512
-0.07387119 0.06047072 -0.15625642 0.2231747 -0.21817282 -0.11899643 -0.023335204 0.3794459
0.08168555 0.012920048 0.058568995 -0.1031131 -0.15339042 -0.0768464 -0.25770193 0.025019558
-0.07428206 0.07520553 -0.20801276 -0.023272464 0.50981 -0.036444414 0.16376685 -0.3037212
-0.20905939 -0.045221057 0.014183239 0.108727336 -0.47486904 0.338356 0.041044753 -0.18719907

gnn_base.gnn.gnn1.lin_value.bias f4 [48]
00000000: 9e8e 4f3e fdae 1f3e e89b 27be 280a 0abd
00000010: 2141 d83d ab89 d33d 6d40 8f3e 4136 6dbc
00000020: e892 0bbe 7543 783e a999 6d3d c064 063e
00000030: d9da bfbd 4bba 89be 047b 5fbd 5d80 1f3e
00000040: c9f7 263e c3f0 febd 0075 c8bd 5ff0 3fbd
00000050: 3a03 60be 4cc1 5b3e 6865 853e 8e91 3c3e
00000060: 3315 6f3c 3749 17be 634a eabd 61d5 513d
00000070: 16ac 40bc ade1 df3c 42e4 93be d0ba 8c3e
00000080: c664 493e a6d3 a93e c6c0 cc3d b02c 55be
00000090: 6f4d 1dbe 7ea4 99bd 249d 323e 7a34 5fbd
000000a0: 7bfa a23d 6679 1b3e b2c0 cfbd 8757 e43c
000000b0: 44d6 8d3c 270e 14bd 116b c6be ea4a 953d
0.20269248 0.15594096 -0.16368067 -0.033701092 0.10559297 0.103289925 0.2797884 -0.014478267
-0.13630259 0.24244483 0.05800787 0.1312437 -0.09367914 -0.26899943 -0.054560676 0.1557631
0.1630546 -0.124482654 -0.09787941 -0.046860095 -0.21876231 0.21460456 0.2605393 0.184149
0.014592457 -0.14774023 -0.114399694 0.051228885 -0.0117597785 0.02732929 -0.28885084 0.27486277
0.19667348 0.33169287 0.09997706 -0.20817828 -0.1536157 -0.075020775 0.17442757 -0.054493405
0.079579316 0.15183029 -0.101441756 0.027873768 0.017314084 -0.03614631 -0.3875356 0.07289679

gnn_base.gnn.gnn1.lin_edge.weight f4 [48, 1]
00000000: d2dc 0b3f 571a be3e 91fe 76bf a3a4 cc3e
00000010: 1f56 21bf 8f54 6d3f e5bb c2be bbfd 7d3f
00000020: fafb f73e 0ed1 acbd 1bf2 e03e 060c 2b3f
00000030: b593 40bf 1bf0 b0bd 2a2b 023f 122e 85be
00000040: ac2e d83e 5248 1e3f 09f6 90bf 3239 103e
00000050: 009f 96bf 98dd 2a3f 91c0 3bbf b8d5 84be
00000060: d215 1c3e dd6a 5dbf 2532 8abe 0833 09bf
00000070: bae4 ad3e a0e1 a8be aca3 92bf 9e53 e1be
00000080: e0d7 60bd f3e1 ce3e a9f0 69bf 5477 82bf
00000090: 8a76 233e c80a 14bf 8847 11bf 4602 77bf
000000a0: 59bf b3be e09c 4dbf 315a 96bd 5dad 1d3f
000000b0: fb9f f63e 21cf 8abf 9d07 3e3f 59b7 8abf
0.5463382 0.3712947 -0.9648219 0.39969358 -0.63022035 0.9270715 -0.38033977 0.99215287
0.4843443 -0.084383115 0.43934712 0.6681522 -0.75225383 -0.086395465 0.50847113 -0.2601171
0.42223108 0.618291 -1.1325084 0.14084318 -1.1767273 0.66744375 -0.7334071 -0.25944304
0.15242699 -0.86491185 -0.26991382 -0.5359349 0.33963567 -0.32984638 -1.1456199 -0.44009107
-0.054893374 0.4040676 -0.91382843 -1.0192666 0.15963188 -0.5782895 -0.56749773 -0.96487844
-0.35106924 -0.803175 -0.073414214 0.61592656 0.4816893 -1.0844461 0.74230367 -1.0837203

gnn_base.gnn.gnn1.lin_skip.weight f4 [16, 16]
00000000: a118 01be f5c0 e63d 977c a13d dd35 5a3e
00000010: 0ce2 153d 8b1a 0abe 9635 a6bd b2d1 fabd
00000020: 945d 9abe 98eb 75be fa80 c93d 0942 07bd
00000030: 0078 4cbe 13ff 46bc 96f1 3e3e 16c5 643e
00000040: 2c6a 13be e591 10be f7ae a7be 4108 5bbd
00000050: 8db2 8b3e c64f a6be 8407 9e3e 5368 a9be
00000060: 5f4c 93be cbb5 d0be 0c56 9e3e 8dc7 a63c
00000070: cd63 b0be d7eb 46be 100d d03e 2249 b9be
00000080: b93f 8bbd 85af b9bc dff7 02be a621 2e3e
00000090: c92a 92be fde7 a83e 7062 1ebe aff5 783d
000000a0: ba68 d5bd 474c 17be 1b4f 003d aef9 5cbe
000000b0: a11f 10bd 7a57 72be 1431 243d 0fbb 0bbe
000000c0: 4fa3 303e db58 cf3d ad35 01be 1852 5f3e
000000d0: bfa4 29be f02d 86bd 8abb b93c fd7e c6bd
000000e0: 6c51 b03e 7fd3 cebd 37c5 23be 9e74 ba3c
000000f0: c25f 603d e734 0c3e 8523 033e b530 2abe
00000100: 01d4 103e 8da9 263e 6ea2 b5be e87e 833e
00000110: dbdf 8bbe 6672 52ba b744 ab3d e1d5 81be
00000120: 1650 8dbe be14 0639 e268 a7be 3eb3 363e
00000130: 43b5 acbd d028 9b3e e026 40be 18e7 3b3d
00000140: 3b98 2b3e 9d16 99bd 64ec f1be 8271 edbe
00000150: 5296 83be 6dfc 8c3d 5066 9fbd de37 b8bd
00000160: d5d7 fabd 9b7d 9a3e 0970 8ebd 6d25 1d3e
00000170: b4f5 1fbf a1b1 f63e 4f2e 88be 9dae e3be
00000180: 1f11 2b3d 6ef4 76be 37b2 913e 2e4e 083e
00000190: 0c54 d83e 27a5 33be a895 e23b 1d21 3d3b
000001a0: 790f 27be 22d8 52bd b133 ec3d 2067 b93d
000001b0: 38e7 b93d 29d1 1c3d 6ee4 c2bd aedb 7cbe
000001c0: 68fc 453d 772e 59be 4d5d c93d 97e1 803e
000001d0: 8a95 17bd a15a 33be e37d 7dbb 0343 743e
000001e0: 7668 b5bd 30cf 99bc 42b2 9cbd 7be5 e43e
000001f0: a2d6 d23d 0aa2 8a3c e610 d4be 0259 083e
00000200: 79c2 543e d5f2 46be b9b9 b1be 552f 203e
00000210: 63b9 f8be 61cd a63d 60c9 d73e 7727 313e
00000220: 1817 b2bd b2c4 24bd 84d4 363e 72b9 13bd
00000230: 2815 bb3e f298 b8be aaf3 b33e 71bb 893a
00000240: 8da1 143e a5b7 afbe 3c78 e3bd 7820 83be
00000250: 705d 953d 8ce9 9f3e 42d9 633e d47b de3d
00000260: cc8b 57bc 17a3 e0be 69b4 f63e 01d9 5b3e
00000270: 423b 69bd ff6a 3f3d f942 973e 5633 9a3c
00000280: b8b8 43be 6ae4 1dbd 751b 04be a9db 553d
00000290: 8a06 1ebe ef33 a43e 5896 0e3c 0eb0 153d
000002a0: bf60 183e 64cc 573e a8ac 4e3e 58d3 b3be
000002b0: 210e 00bf 15f5 13bd f122 7fbd a3e4 51be
000002c0: f961 bbbc c9ec ac3d 9e20 4d3d 9943 6fbe
000002d0: 12d0 92be 43f7 6a3e 16ff d83d 09f9 80bc
000002e0: 2abe 753e 0a9f 9fbd d078 7fbe 3a8e 11be
000002f0: 91c6 da3d 0c82 093f d8e7 903d 9e52 133d
00000300: 6876 a5bd c3e5 45be b854 893e b94c 9bbe
00000310: 694a a5be 3f4c c43e 1655 aa3d cfe7 49bc
00000320: 673c 48bc 334b 63bd ebd5 acbd 46e3 87be
00000330: a4fb e73d 292d 083f 829b c1ba 34bf 993d
00000340: 6f7d 1bbd 971c 7abe 4e95 913d 5f51 43be
00000350: a250 c93e d57a aabb 9b7d ff3d 6094 1dbe
00000360: f541 473e 0b20 163e 060a 173e abfd 923d
00000370: c0e8 f4be 7cb9 7e3d 07d8 023f d1b9 35bd
00000380: 36c4 283e 74a0 26be 0433 0fbe 33c4 a0be
00000390: 1ccc af3d 4540 08be 7ee5 2a3d 62b8 883e
000003a0: 9d55 dfbd 1374 9b3e bcfd 63bd 9d1c 8b3e
000003b0: aa59 e2be 4b69 273e ca75 2d3c de2c 613e
000003c0: 6e06 67be 43d0 1cbe f0f4 453e 4fb6 2d3d
000003d0: 59ba 8bbd d5c5 c7b9 512d 54bd 6bae 3bbe
000003e0: 5614 bc3c cb95 4a3c 1bc0 653d 8435 97be
000003f0: bb4f 803e 0ce2 b03d 024b 11be 6dfd a53d
-0.12607051 0.112672724 0.07885092 0.2130961 0.03659253 -0.13486688 -0.081156895 -0.122470275
-0.3014952 -0.24015653 0.098390535 -0.03302196 -0.19967651 -0.012145775 0.18646845 0.22340807
-0.1439597 -0.14118154 -0.32750675 -0.05347467 0.2728466 -0.32482737 0.3086511 -0.33087406
-0.28769204 -0.40763697 0.30925024 0.020358825 -0.34451142 -0.19425903 0.40634966 -0.36188608
-0.067992635 -0.022666702 -0.12789868 0.17005023 -0.28548267 0.32989493 -0.15467238 0.060781177
-0.10420366 -0.14775191 0.03132544 -0.2157962 -0.035186414 -0.23666182 0.040085867 -0.13645576
0.17249797 0.1012437 -0.12618132 0.2180866 -0.16566752 -0.06551731 0.022672433 -0.0969219
0.3443712 -0.100989334 -0.159932 0.022760686 0.05477882 0.13692056 0.12806518 -0.16620143
0.14143373 0.16275616 -0.35475487 0.2568276 -0.27319226 -0.0008027911 0.08362716 -0.2535849
-0.27600163 0.00012786963 -0.32697207 0.17841813 -0.084330104 0.30304575 -0.1876483 0.045874685
0.1675729 -0.07475016 -0.47250664 -0.46375662 -0.25700623 0.06884084 -0.077831864 -0.08995031
-0.12248198 0.30173954 -0.06954963 0.15346308 -0.6248429 0.48182395 -0.2659783 -0.44469157
0.041764375 -0.2411668 0.2845628 0.13311073 0.42251623 -0.1754347 0.006914813 0.0028858848
-0.16314496 -0.05147565 0.11533297 0.09052873 0.090773046 0.03828541 -0.09516226 -0.24693176
0.048336416 -0.21209131 0.09832249 0.2517211 -0.037007846 -0.17515041 -0.003867977 0.23853688
-0.08857815 -0.018775553 -0.076511875 0.4470633 0.10294844 0.01692297 -0.41419142 0.13315204
0.2077731 -0.1942857 -0.34712008 0.15643056 -0.4857894 0.08144642 0.42145824 0.17300211
-0.08695811 -0.040226646 0.17854506 -0.036065526 0.36539578 -0.36054188 0.35146838 0.0010508132
0.14514752 -0.34319797 -0.11106917 -0.2561071 0.072932124 0.3123287 0.22250846 0.10863462
-0.013155889 -0.43874428 0.48184517 0.21469499 -0.05694128 0.0467329 0.29543284 0.018823307
-0.19113433 -0.03854791 -0.12901099 0.052211437 -0.15432182 0.32070872 0.008702837 0.036544852
0.14880656 0.21074063 0.2018305 -0.3512218 -0.5002156 -0.0361224 -0.062289182 -0.20497374
-0.022873865 0.08443601 0.050079934 -0.2336563 -0.2867437 0.22945885 0.10595529 -0.01574375
0.23998323 -0.07794006 -0.2494843 -0.14214411 0.10682405 0.5371406 0.07075471 0.03596746
-0.08079225 -0.19325928 0.26822448 -0.30331972 -0.32283333 0.3833942 0.0831701 -0.012323334
-0.012221432 -0.055491637 -0.08439239 -0.26540583 0.113272935 0.5319391 -0.0014771076 0.07507172
-0.03796142 -0.24424969 0.07108556 -0.1907401 0.3931933 -0.005202631 0.12475129 -0.15388632
0.19458754 0.14660661 0.14749917 0.071772896 -0.47833824 0.06218861 0.5111088 -0.04436666
0.16481099 -0.16272146 -0.13984305 -0.31399688 0.08583853 -0.13305767 0.041722767 0.26703173
-0.10905001 0.30361995 -0.0556619 0.27170268 -0.44209033 0.1634876 0.010587165 0.21989772
-0.22561046 -0.1531382 0.19331717 0.04241019 -0.06822652 -0.00038103634 -0.05180103 -0.18328254
0.022958916 0.012364815 0.05609141 -0.29533017 0.2506083 0.08636865 -0.1418877 0.08104978

gnn_base.gnn.gnn1.lin_skip.bias f4 [16]
00000000: 73d9 a7bd 640b 7038 b2ab aebd 61cd 2bbe
00000010: 241b ebbd 2432 893e b2b0 353e 3534 fcbc
00000020: 2d4f 7d3e 9234 11bd 1d5a e2bd dc89 4ebe
00000030: 84dc be3d 134b 57bd c0ba cbbe 4d37 e3bd
-0.08195772 5.7231067e-05 -0.08528842 -0.16777565 -0.11479786 0.26796067 0.17743185 -0.030786613
0.24737234 -0.035450526 -0.11052344 -0.20169777 0.09319404 -0.05256183 -0.39790916 -0.11094532

gnn_base.gnn.gnn2.0.lin_key.weight f4 [48, 16]
00000000: 4ab4 0cbe 5202 90bd 9ce8 7ebe 6d58 5b3e
00000010: 9ff8 8ebe 2a75 47be c1b7 14be f8bf 85be
00000020: 99cb bcbd f9e9 ccbd cae6 843e b486 19be
00000030: f7e3 e33d 37e6 88be 4b35 c33b eeca 313e
00000040: 2351 ecbd 3698 683c 0347 9b3c f121 ecbc
00000050: 92f5 9ebc e878 433e fa10 15be 0635 c3bd
00000060: c08f 92be 378a 6cbd 60b4 0dbe fc92 283e
00000070: adf6 cf3d cec7 2f3e f6d2 b93d 0ad9 d93b
00000080: 7ae6 12bd 7225 8dbc e396 e8bd b9c7 3f3d
00000090: 8b18 a03c e06a 07be 3864 363e 6f89 a33e
000000a0: 5f43 073d 2ed3 0ebe 656c 9bbe 4a18 b5bb
000000b0: 6bb1 78be 25fc 903e 9f07 7c3e 717f 07be
000000c0: 17ee 62be c110 92be d563 ea3d 2289 163d
000000d0: 9725 9dbe cc93 39be 4717 dfba 0713 24be
000000e0: 7a37 66be 977e 433d 5ef1 2a3e 72a7 9a3e
000000f0: 49f3 833d 586b 32be 6df2 89bc 9b0b 453e
00000100: 4c52 1f3e 3c31 4bbe 0d71 413e e284 433e
00000110: 0a7c 18be 3d7e b8bd 9f94 b43e e317 953e
00000120: e5dd e1bd 959c 28bd 4feb b93d 9973 2c3e
00000130: 7e33 d33d fd38 083e 862b 253e b980 8e3e
00000140: 0f34 2d3c 824c 103e 9306 31bd de30 2bbd
00000150: 105b 263e c1d7 92bd 3f1d 573e 5576 dc3e
00000160: 7e1a 313e 2d89 523e fc07 d3bd a9ab 2dbe
00000170: f219 b63d 2e21 16bd afec 003e da61 313e
00000180: def5 1dbe 029e 763c 8f14 7f3e bdf6 093c
00000190: de17 1ebe f64f 83bd 1c5e 71bd aba6 8c3d
000001a0: 08c0 473e 1a1e 15be 22b6 08be d078 263e
000001b0: 9de9 a4bc c580 69bc 87de bb3c b415 3a3e
000001c0: c158 693d 6025 8c3d c2e6 f73a 04eb de3d
000001d0: d3de f03c a4b4 8b3d e04d 723e 6023 e73e
000001e0: 6b9b 2b3e 59a0 a83d 91ac 93bb 14da 5bbe
000001f0: 43de d3bd f9b5 f1bc 4d92 7f3d e35a 733e
00000200: 5598 a7bd 164c bf3e c2d6 febd 7b71 113e
00000210: 96b6 993d e288 97be a950 70be 40cb 14be
00000220: 1008 263e 442b 893e b809 59be e959 25be
00000230: d94b d53d b425 9e3c a5a1 bcbe 0c1a 17be
00000240: e6fa b63d 6acd 70be 11d8 f8bd 64f2 fd3d
00000250: 4b60 6a3e 6b9a 8cbd 903c c53e d339 303e
00000260: dd03 3a3e 4608 fabd 0706 65be f65c 913e
00000270: 585a 7bbe f31a ab3d a5b0 1abd cbcb a8bc
00000280: 0b6b b23d 600d 8dbe 3a72 6cbd 5666 cbbd
00000290: 4dca bb3d 97fa 67be 905d a4be 1d18 c2be
000002a0: 9d74 df3d 2d7e a13e 6c98 803d 7914 6a3c
000002b0: 4a05 9b3e 7aef 8ebe f1b0 25bd af57 0a3e
000002c0: 5c3e b3bd 7fe5 11be 0126 7c3e 1355 653e
000002d0: a7d9 093d 758d 943d fee3 20be ed28 aabe
000002e0: 032f 63be ab89 283e 9168 16bd 3dca 5c3e
000002f0: 1620 cd3c 1363 1c3e 8330 58bd 25b0 c3bd
00000300: f591 19be dccd 87be 2222 89be 4b5e 36bb
00000310: 04f7 2abe 99b9 85be fa68 fb3c 5aaa 08be
00000320: 5efd 01bd fdec c0bd 1e46 55be 34e3 5c3d
00000330: f206 22bd efcc e0bb f63c 783e 2406 2abd
00000340: b0ce e83d 4cbd 203e 755d a63d 0c1e 213c
00000350: 8e52 9bbd 5255 97bc 36b8 ca3d 0611 c93e
00000360: fec4 c43d e0dc b53d 50dd 9c3d 1a1e 733e
00000370: 6d0f b03c c7e1 373d 2064 0dbd 4100 6f3e
00000380: c68c e23d 9b44 463e bf2c 66be e269 0f3d
00000390: b8ff f4bd 392f f2bd 2ff7 f5bd 3e5c 88bd
000003a0: 5880 683e 46e7 cb3c c629 4dbe 32a2 b63d
000003b0: e74d 1b3e e4f1 133e 1d54 813e c5af 933d
000003c0: fc17 a7bc 6d2e 3dbd 635a c13d a9d2 d0bd
000003d0: 292e 35be 31a0 4f3d 83b9 b03e 4a24 1b3d
000003e0: a90b 5abd 51c7 d3bd 32ee 38be 3b5a 8f3c
000003f0: 4418 d03c 5a78 f2bd d674 993e 5c4c 173e
-0.1374065 -0.070316926 -0.24893421 0.2142045 -0.27924058 -0.19478288 -0.14523222 -0.26123023
-0.09218521 -0.10005564 0.25957328 -0.14992791 0.11127465 -0.2673814 0.0059572808 0.17362568
-0.11538913 0.014196446 0.01895476 -0.028824778 -0.019404206 0.19089091 -0.14557257 -0.09531598
-0.28625298 -0.057749 -0.13838339 0.1646232 0.101544715 0.17166063 0.09073441 0.0066481875
-0.03586433 -0.01722977 -0.11356904 0.04682133 0.019542953 -0.13224363 0.17811668 0.3194079
0.033023234 -0.13947746 -0.30356136 -0.005526577 -0.2428643 0.2831737 0.24612282 -0.13232209
-0.22161137 -0.28528407 0.11444823 0.036751874 -0.3069274 -0.18122786 -0.0017020487 -0.16022883
-0.224821 0.047728147 0.16693637 0.30205876 0.06442887 -0.17423761 -0.01683923 0.19242708
0.15558738 -0.19843 0.18890782 0.1909366 -0.14891067 -0.09008453 0.3526964 0.29119787
-0.11028651 -0.041164953 0.09078085 0.16840972 0.10312556 0.1330299 0.16129884 0.27832583
0.010571494 0.14091685 -0.04321916 -0.04179465 0.16245675 -0.07170058 0.2100725 0.4305903
0.17295262 0.20560141 -0.10304257 -0.16960014 0.088916674 -0.036652736 0.12590288 0.17322484
-0.15425822 0.01505232 0.24910186 0.008420643 -0.15438792 -0.06411736 -0.05892764 0.06867727
0.19506848 -0.14562264 -0.13350728 0.16257024 -0.020130927 -0.014251892 0.022933258 0.18172342
0.056969408 0.06843066 0.0018913376 0.108846694 0.029403126 0.06821564 0.2366252 0.45144176
0.16758506 0.08233709 -0.0045066555 -0.21469909 -0.103451274 -0.029505717 0.062395383 0.2376514
-0.08183352 0.37362736 -0.124433056 0.14203446 0.07505529 -0.2959662 -0.2346827 -0.14530659
0.16214013 0.26790822 -0.21195114 -0.16147579 0.104148574 0.019305088 -0.36842075 -0.1475603
0.08934574 -0.23515859 -0.121505864 0.12399748 0.22888295 -0.068653904 0.38522768 0.17209558
0.18165536 -0.12208609 -0.2236558 0.28391236 -0.24546182 0.083547495 -0.037766118 -0.020604989
0.08711823 -0.27549267 -0.057726122 -0.099316284 0.09169445 -0.22654186 -0.32102633 -0.37909022
0.10910914 0.31541577 0.06279072 0.014287108 0.30277473 -0.2791708 -0.040451948 0.13510011
-0.087521285 -0.14247702 0.24623872 0.22395734 0.033654835 0.07253543 -0.15711972 -0.3323435
-0.22185902 0.16458766 -0.036720816 0.21561523 0.025039714 0.15272169 -0.05278064 -0.09555081
-0.14997084 -0.26524246 -0.26783854 -0.00278272 -0.16695791 -0.26118162 0.030689705 -0.13346234
-0.03173577 -0.09420202 -0.20827529 0.053927615 -0.039557405 -0.0068603675 0.24242005 -0.041509762
0.113675475 0.15697211 0.08123294 0.009833824 -0.075841054 -0.018473301 0.09898417 0.392708
0.09607886 0.08880019 0.076593995 0.23741952 0.02149173 0.044893052 -0.034519315 0.2333994
0.11062007 0.19362108 -0.22478007 0.035013087 -0.11962837 -0.11825413 -0.12010037 -0.06658219
0.2270521 0.024890553 -0.20035467 0.08917655 0.15166436 0.14447743 0.25259486 0.0721126
-0.020397179 -0.046186853 0.09441068 -0.1019643 -0.1769339 0.05068988 0.34516534 0.037876405
-0.053233776 -0.10340751 -0.18059614 0.01749908 0.025402196 -0.118393615 0.2997195 0.14775223

gnn_base.gnn.gnn2.0.lin_key.bias f4 [48]
00000000: 074b 65be 30c7 9e3d 2f9a d7bd 30f6 28be
00000010: 6b90 983d 2bd9 ec3d 91f0 4e3e c951 7a3e
00000020: 85f5 b03d f7f6 93bd e070 30bd b44c 413e
00000030: 1406 47be efe2 373e 4e1c ec3d 44b1 c43d
00000040: 1f9b 9e3d b27b 54be eeee cc3d a204 75bc
00000050: 0b0a 4b3b 93d2 edbd a853 393e 0778 2abd
00000060: 360a ef3a 09be 5abe c785 443e 2e4f 6cbe
00000070: 7f6a 1e3e 6c91 e03d e3aa 1b3d 56d6 77be
00000080: f8fd ebbd 09c2 87bc cfb0 3dbe 0fa3 a5bd
00000090: a5b2 67bd dfdc 9fbd 6726 323e b512 6a3e
000000a0: 8a2c e5bd 9226 043e 7f93 803c a669 3b3e
000000b0: f83f 5fbe 16be fdbd 760c 4dbd 5c04 763e
-0.22391902 0.07752836 -0.10527455 -0.16500163 0.074494205 0.11564859 0.20208956 0.24445261
0.08640579 -0.07224839 -0.043076396 0.18876916 -0.19435912 0.17957662 0.11528836 0.09604123
0.07744431 -0.20750311 0.1000651 -0.014954718 0.0030981328 -0.116124295 0.18098319 -0.041618373
0.0018237296 -0.21361555 0.19191657 -0.2307708 0.15470313 0.10965237 0.038004767 -0.24202856
-0.1152305 -0.016572015 -0.18524478 -0.080877416 -0.056566853 -0.078058 0.17397462 0.22858699
-0.11190136 0.12905338 0.015695332 0.1830202 -0.21801746 -0.12389772 -0.05006071 0.240251
