model_weights/FA_FR/tube/curr/actor.pt (torch, 202776 bytes, 58 tensors)

gnn_base.gnn.embed_layer.layer_norm.weight f4 [16]
00000000: 363a 843f 34ec 4c3f 4dfb 703f 11ec 9f3f
00000010: fc38 853f a5cb 913f e0ca 893f 207a 7a3f
00000020: 655a 903f 82eb 8b3f cb5b 963f b757 903f
00000030: a712 833f 3c54 aa3f 39e8 913f 91fd 863f
1.0330265 0.8004792 0.94133455 1.2493917 1.0408015 1.1390272 1.0765038 0.978426
1.1277586 1.0931246 1.1746763 1.1276768 1.0240067 1.3306956 1.1398994 1.0546132

gnn_base.gnn.embed_layer.layer_norm.bias f4 [16]
00000000: ba56 80ba d3f0 423e 005a cbba e879 efbd
00000010: d4c1 1ebd fd81 0ebd 48c6 c73d f4b1 1d3d
00000020: 118b 993d ca86 1f3d c4e5 bc3c 38eb 333d
00000030: 3b57 52bc 4551 bd3c bd70 873b 527f d3bd
-0.0009791472 0.1903718 -0.0015514493 -0.11693174 -0.038759068 -0.034791935 0.09754616 0.038499787
0.07497228 0.038946904 0.02305878 0.043925494 -0.01283818 0.023110041 0.0041333125 -0.10327019

gnn_base.gnn.embed_layer.entity_embed.weight f4 [4, 2]
00000000: 02b8 b83f 8907 b5bd 5661 febf 3d47 163f
00000010: f946 7ebf a07a 9bbf 7a83 ce3e e588 563f
1.4431155 -0.08839328 -1.9873455 0.5870245 -0.99327046 -1.2146797 0.40334684 0.83802634

gnn_base.gnn.embed_layer.lin1.weight f4 [16, 10]
00000000: 992f e53e df59 f8be a2b1 84be b1ca 103e
00000010: db11 523e 0f3b 843d 2dc2 0d3e 6220 fdbd
00000020: 5de4 39bf 0ee7 35be d6f2 c43c 53c2 b5be
00000030: a802 7c3e 7420 2cbf 84e2 d53e fe42 26bf
00000040: 6890 b6be 11d0 9f3e 9eb4 8d3e 737c 23bf
00000050: 202e 533e 9627 c33e 3df1 4b3f dc89 b7be
00000060: 0670 a6bd 5345 683e 16cd 403e 62d7 f1be
00000070: 6182 a7be 81dd 55bb 24dd 84bf b4b6 74bb
00000080: d55c a93d b2c7 e63d aca5 f3be c281 92be
00000090: 8bfe 4ebe d636 dcbd 163f 80be 5857 c13d
000000a0: a7b9 80be 430c 383e d4f6 40bf c4bb 38bf
000000b0: 525e 273e ecf3 38bd 6bf5 be3d efc8 fbbe
000000c0: d85e 303e 0846 46be 7099 d63e 60ce c23e
000000d0: 32ea be3e 3880 ba3d 738f 373f 42f0 a53d
000000e0: 7c0b 13bf cade 013f a0f6 28bf b344 f43e
000000f0: 97b5 423e abc8 283f 5b2e 213e 6b14 24be
00000100: 3df0 34bb 8859 ebbe 0f94 55bf c41a 19bf
00000110: 8ccb b23e d7ba 02bf 5109 0abd 0f73 a73d
00000120: d705 0d3f 8dc3 2e3e c683 923f 077c 48be
00000130: 0a38 db3e d7d1 acbe 6643 0f3e 6c6e 333e
00000140: 809d 1c3f c9c7 783e b0b0 933e a70c 00bf
00000150: 6281 ad3d 7351 89bf 922a 123e d506 7fbd
00000160: 499e 37be 41e9 523d 9c83 ce3c a590 30bf
00000170: e312 d33e 0bb0 27be de73 703d 42d8 01bf
00000180: 94bd 2d3e e07f b8bb aa42 eb3e 6426 f0bd
00000190: 263e cc3b 818e b23e afa6 02bf 5adc 113f
000001a0: 0d46 a3be 4c14 1b3e a9b2 fcbe bbbf 11be
000001b0: 2a6e 053f 9427 753f 4fe6 753d e2b2 e1be
000001c0: de33 43bf f193 93be 31f8 2cbf 068b 1ebf
000001d0: e1ff 733e 83db 383e 77c3 05bd 7db6 fb3e
000001e0: 27e1 28be 3ee4 323e 4531 fcbe 1723 83bf
000001f0: 4b69 d6bc 49fd 54bd 87c8 23bb e100 123e
00000200: c866 f53d 1cd3 193e 968c 673f 720b 553e
00000210: ff54 c43f 4c04 80bd 08fb 973e 1f84 3d3d
00000220: 070e 563d 0909 3c3f bd44 eb3e 1111 18bf
00000230: da88 ca3e 5264 543f f482 28be 3bc8 6d3f
00000240: 377e 923e fbfd b6bd dc9d d73d f49d 183d
00000250: 52a0 6dbe c31e 82be 0c37 68bf 28cf 1d3f
00000260: d218 49be 45d5 383c 3205 96be 8569 893e
00000270: 8483 073f b602 b53c cc7e a4bd bd25 8bbe
0.44762877 -0.48506066 -0.25916773 0.1413982 0.20514624 0.06456577 0.13843603 -0.12359692
-0.7261408 -0.17763922 0.024041574 -0.3549982 0.24610388 -0.6723702 0.4177438 -0.6494597
-0.35657048 0.3121343 0.27676862 -0.6386177 0.20623064 0.3811614 0.79664975 -0.35847366
-0.081268355 0.22682695 0.18828234 -0.47234637 -0.3271666 -0.0032633247 -1.0379987 -0.0037340345
0.082696594 0.112685576 -0.47587335 -0.28614622 -0.20214288 -0.107526466 -0.2504813 0.094404876
-0.25141641 0.17973427 -0.7537663 -0.7216151 0.16344574 -0.045154497 0.093241535 -0.49176738
0.1722368 -0.19362652 0.4191394 0.38048077 0.37288052 0.09106487 0.7170326 0.08102466
-0.574394 0.50730574 -0.6600132 0.47708663 0.19014584 0.65931195 0.1574034 -0.16023414
-0.0027609013 -0.45966744 -0.83429044 -0.59806466 0.3492092 -0.51066345 -0.03370029 0.081762426
0.55087036 0.17066784 1.1446464 -0.19578563 0.42816192 -0.33753845 0.13990554 0.17522591
0.61177826 0.24294962 0.2884574 -0.50019306 0.084719434 -1.0727981 0.14274052 -0.062262375
-0.17931475 0.05149198 0.02520924 -0.6897071 0.41225347 -0.16375749 0.05870425 -0.5072061
0.1696685 -0.0056304783 0.45949298 -0.117260724 0.0062329946 0.34874347 -0.5103559 0.56976855
-0.31889382 0.15144461 -0.49355057 -0.14233296 0.5212122 0.95763516 0.060034093 -0.4408179
-0.7625102 -0.28823808 -0.6756621 -0.6193088 0.23828079 0.18052487 -0.032657113 0.49162665
-0.16492139 0.1746988 -0.4925634 -1.0245084 -0.026173254 -0.051999364 -0.002499135 0.14258148
0.119824946 0.15021938 0.9044889 0.20805147 1.5338439 -0.062508196 0.2968371 0.04626858
0.05225947 0.73451287 0.4595088 -0.5940104 0.39557534 0.82965577 -0.16456205 0.9288365
0.2861192 -0.08935162 0.10528156 0.03726001 -0.23205689 -0.25414094 -0.90708995 0.6164422
-0.19638374 0.011281316 -0.2930084 0.26838318 0.5293505 0.02209602 -0.08031997 -0.2717723

gnn_base.gnn.embed_layer.lin1.bias f4 [16]
00000000: 86d4 a7bd 6b5d f6bd 547f 2abd cee8 1ebd
00000010: 393d e43b 02da a7bd 0d6e dabd 2642 643d
00000020: b1e0 84bc 3b51 bebc 9aad 95bd 2301 a9bd
00000030: 7064 163e 2cd0 afbd cbc0 033d 760a 83bd
-0.081948325 -0.12029537 -0.041625336 -0.03879624 0.006965306 -0.081958786 -0.10665522 0.055727147
-0.016220422 -0.023232093 -0.073085025 -0.0825217 0.14686751 -0.085846275 0.032166284 -0.0639848

gnn_base.gnn.embed_layer.layers.0.weight f4 [16, 16]
00000000: 9807 3fbe 4765 c4be 57d0 c9be a476 a03c
00000010: 01ef 2c3f 82c9 80bc 7e4d 273f 9855 3bbe
00000020: c56c a8be 17d0 c3bc b859 94be 94c2 183f
00000030: b571 eebd 0357 46bf e326 1dbf cb9a a1bd
00000040: d53c 593e c394 0cbe 9515 2e3e 4d74 853d
00000050: 1dc1 873e 433d 1a3f 130a 483f bec7 083e
00000060: 9663 15bf b5f0 5d3f ad7f 303d f5b5 8fbe
00000070: 8ef0 b63e af44 4d3f 6ae9 0c3e 6b17 063f
00000080: 704d 5abe e438 7b3f 6cd7 dbbe 0000 023e
00000090: 3d2c 2fbe f124 3f3f bb83 853e e8ae 1cbe
000000a0: 5d46 a23e 2c4b 1f3e fd84 db3e 9bd2 54be
000000b0: df2e 2dbf 3262 b33e 6274 8b3e eb9c 84bd
000000c0: be4c 903e 7e9c 2f3e 866a c1be ee08 69bf
000000d0: 7e8e 6bbd 9c74 aa3e f3d5 0cbf 63ff 913e
000000e0: 9670 2b3e 757a d43e f80c afbe bbec 903d
000000f0: 89bb 43bf a280 0a3e 026a 203f ec51 53be
00000100: 6f9a 813e 129d af3e 082b a9be 346d 43be
00000110: d7d3 70be a489 efbe bef8 16be 7f03 c3be
00000120: 8ef4 5dbf c876 083e 9962 01bf dedb bebd
00000130: ef00 383f fba8 ec3d e47e b03e e0bb 1e3f
00000140: 4ad0 523e 4569 bc3e 71b0 193f 7744 51bf
00000150: 3b02 d1be a8ec ee3d d49c c8bc 8290 3dbd
00000160: e5db fd3d b837 a03b 8c97 44be 93bc 583e
00000170: 9cc0 893e 10e9 68be e304 0dbf ea04 693e
00000180: 71be 6d3e aae2 0f3d 2a03 73be f42c fb3e
00000190: 928c 15bf 7f76 b0be 5e52 9dbd 00b4 043f
000001a0: 3ca2 75bf b9ac 323e 8ab6 253f 98aa c1bd
000001b0: b9a1 a5be 267d 69bb 5afb aebe 87e2 cf3e
000001c0: f9e1 153e ae57 1f3e 9f18 d03e 4fb6 9dbe
000001d0: 3837 1dbf 4c90 11be 7944 5e3e 52c8 5bbe
000001e0: fc15 1cbf 6b16 62bc 3a97 27bf 6ce8 0fbf
000001f0: 268d 10bf 6256 073f 4794 6e3e af5b 15bf
00000200: 9ead 40bf 7632 8c3e e689 943e dce8 afbe
00000210: 9cb2 73be 3f73 683f fde3 e53d 6199 f53e
00000220: 583c 92be e0c5 e1be b7e9 bd3c 4e34 d0be
00000230: 669b 933e b22f 09be 477a c53e 540a 863e
00000240: 2b9f 293e 00d0 183e 511b 153f 9dce 99bd
00000250: 7050 e13e d466 d3bc 1687 00be 2cbe 06bf
00000260: 5922 61be 9ce9 b83e a333 da3e ff36 08bf
00000270: faf6 84bd 47a3 11bf c95e 703e a1f0 a23e
00000280: 6765 573e 6b15 10be 804d 16be fbab ce3e
00000290: 9784 9c3e 7ecc 2f3e a14d f6bd 1231 67bf
000002a0: a63f 28be 07ef f9be 3263 d23d 52c2 223f
000002b0: 8ff7 92bd effc 863e 42b1 a63d bd73 423f
000002c0: f94e 13bf 8d18 8fbe 57f5 e4bb 9d4e bdbe
000002d0: d315 9e3e 6120 aa3e 5d0e 96be 51ea bcbd
000002e0: 4a87 d0be 394f 0c3e dd4e df3e 356e f7be
000002f0: 1013 c53e 7ad2 f83d 6779 22bf 4b6a 52bf
00000300: 8f8b e4be 3fa4 2cbf df88 25bf bd51 53be
00000310: a262 67bf fafe 10bc 5261 97bd c811 16bf
00000320: 3523 003f ab14 ac3e 90ec 9d3a 16d3 d53d
00000330: f4be 363c 7694 20bf 9008 d33e ebe0 e03e
00000340: 3599 90bd 9d29 fe3c 92cb 09be 7a3f 7ebd
00000350: 16d6 973e 8d02 f5be eae5 11bd a26a 3b3e
00000360: cda9 463e e7f2 dcbe e134 77be 08c3 84bf
00000370: 399e 8bbe 6c63 853e 9b6f c2be b4a8 233f
00000380: 617e 25be b8f4 f53d 1f36 d73d a8e2 403f
00000390: 2d77 303e c81b 1d3e 086a a1be c37d b0ba
000003a0: b91e 50bd 726c 313f dee9 2fbf 56bf 87bc
000003b0: 0971 8f3b ae9b 5c3e f63b 41bf 2e71 53be
000003c0: 35fc 7e3f 6b17 15be be1a eabd d026 a63e
000003d0: ac58 bfbd b788 153f d3c3 a73c 0061 363e
000003e0: e574 db3d 5f85 93be 9e59 bcbe 8d8a d5be
000003f0: 38bb b1bd bf3f 3dbe 5c20 eebe 3f7d 64be
-0.1865524 -0.38358518 -0.39416763 0.019587822 0.6755219 -0.015721086 0.6535262 -0.1829437
-0.32895485 -0.023902936 -0.289747 0.596719 -0.11642782 -0.7747652 -0.6138746 -0.078908525
0.21214612 -0.13728623 0.1700042 0.06516323 0.2651452 0.6024973 0.7814037 0.13357446
-0.5835508 0.86695415 0.04309051 -0.2806851 0.35730404 0.8018293 0.13760915 0.52379483
-0.21318603 0.98133683 -0.4293779 0.12695312 -0.1710672 0.74665743 0.26077065 -0.15301096
0.31694308 0.1555602 0.428749 -0.20783465 -0.67649645 0.35035855 0.2723723 -0.06475242
0.2818355 0.17149541 -0.37776583 -0.9102925 -0.057508938 0.3329209 -0.5501396 0.28515157
0.16742167 0.41499677 -0.34189582 0.07076403 -0.7645803 0.13525632 0.62661755 -0.2063672
0.25313136 0.34299523 -0.33040643 -0.19084626 -0.2351831 -0.467847 -0.14743325 -0.38088605
-0.86701286 0.13326561 -0.50541073 -0.0931928 0.71876425 0.11555668 0.3447181 0.62005424
0.20587268 0.36799064 0.60034853 -0.81745094 -0.40822014 0.11666232 -0.024488844 -0.04628039
0.12395457 0.0048894547 -0.19198436 0.21165685 0.26904762 -0.22745156 -0.5508558 0.22755781
0.23217179 0.035128273 -0.23731676 0.49057734 -0.5841762 -0.34465405 -0.07681726 0.5183716
-0.95950675 0.17448701 0.6473166 -0.09456366 -0.32349947 -0.0035627573 -0.3417614 0.40602514
0.14636983 0.15560791 0.40643784 -0.30803153 -0.6141238 -0.14215201 0.21705808 -0.21463135
-0.60971045 -0.01379929 -0.6546513 -0.5621402 -0.56465375 0.52866185 0.23298751 -0.58343023
-0.7526492 0.2738225 0.29011458 -0.34357345 -0.23798603 0.9080085 0.11225126 0.4796858
-0.28561664 -0.4409628 0.023182733 -0.40664905 0.28829497 -0.133971 0.38569853 0.26179755
0.16564624 0.14923096 0.58244807 -0.075101115 0.4400668 -0.025805868 -0.12551531 -0.5263393
-0.21985759 0.3611573 0.4261752 -0.5320892 -0.064924195 -0.56889766 0.23473658 0.3182421
0.21034776 -0.1407067 -0.14678001 0.40365586 0.30569908 0.17167851 -0.12026525 -0.9030925
-0.1643053 -0.48815176 0.10272826 0.6357776 -0.07176124 0.26364848 0.08139278 0.7595785
-0.5754238 -0.27948418 -0.0069872546 -0.3697404 0.30876026 0.33227828 -0.29307833 -0.0922438
-0.40728217 0.13702096 0.43614855 -0.4832627 0.38491106 0.1214952 -0.63466495 -0.8219344
-0.44637725 -0.6743812 -0.64661974 -0.2063665 -0.90384877 -0.008849854 -0.07391609 -0.5862088
0.5005372 0.33609518 0.001204865 0.10440652 0.011153925 -0.62726533 0.4121747 0.439216
-0.07060472 0.031025702 -0.13456562 -0.062072255 0.29655522 -0.4785351 -0.035619654 0.18302396
0.19400711 -0.4315407 -0.24141265 -1.0372019 -0.27269152 0.26052415 -0.37975773 0.63929296
-0.16161491 0.12009567 0.1050837 0.7534585 0.17232962 0.15342629 -0.31526208 -0.0013465214
-0.05081055 0.693061 -0.6871623 -0.016570728 0.0043774885 0.21543762 -0.7548212 -0.20648643
0.9960359 -0.14559714 -0.11430882 0.32451487 -0.09343085 0.58411735 0.020479118 0.1781044
0.10715655 -0.28812692 -0.36787122 -0.41707268 -0.08678287 -0.18481348 -0.46509063 -0.22313403

gnn_base.gnn.embed_layer.layers.0.bias f4 [16]
00000000: 8372 153e 4b42 66be ff86 b7bd 4b00 ba3d
00000010: 2c65 e73d 844e 9c3c 4532 34bc f795 1e3e
00000020: 3b16 ddbd 8bf7 58bd 4d29 65bd 54a0 65bc
00000030: 06c3 9e3d 4bff 9f3b acd6 d0bd da14 bbbb
0.14594464 -0.22486226 -0.08961295 0.09082087 0.11298594 0.019080408 -0.010998313 0.15486895
-0.10795256 -0.05297045 -0.05594759 -0.014015276 0.077520415 0.004882728 -0.101971954 -0.005709273

gnn_base.gnn.embed_layer.layers.2.weight f4 [16]
00000000: 363a 843f 34ec 4c3f 4dfb 703f 11ec 9f3f
00000010: fc38 853f a5cb 913f e0ca 893f 207a 7a3f
00000020: 655a 903f 82eb 8b3f cb5b 963f b757 903f
00000030: a712 833f 3c54 aa3f 39e8 913f 91fd 863f
1.0330265 0.8004792 0.94133455 1.2493917 1.0408015 1.1390272 1.0765038 0.978426
1.1277586 1.0931246 1.1746763 1.1276768 1.0240067 1.3306956 1.1398994 1.0546132

gnn_base.gnn.embed_layer.layers.2.bias f4 [16]
00000000: ba56 80ba d3f0 423e 005a cbba e879 efbd
00000010: d4c1 1ebd fd81 0ebd 48c6 c73d f4b1 1d3d
00000020: 118b 993d ca86 1f3d c4e5 bc3c 38eb 333d
00000030: 3b57 52bc 4551 bd3c bd70 873b 527f d3bd
-0.0009791472 0.1903718 -0.0015514493 -0.11693174 -0.038759068 -0.034791935 0.09754616 0.038499787
0.07497228 0.038946904 0.02305878 0.043925494 -0.01283818 0.023110041 0.0041333125 -0.10327019

gnn_base.gnn.gnn1.lin_key.weight f4 [48, 16]
00000000: cc20 acbe 8d0a 1dbd 1847 57be faee 61be
00000010: 0814 d73e 4c4a a5bb 60a6 073e fe8e 9abe
00000020: 4e72 683e 7491 443e 89a0 643b 67f9 5abe
00000030: 54a0 acbe ed7d fc3d 1695 bd3b 1e2c ee3e
00000040: c366 ecbe d189 2b3d 9f00 e3bc b900 893e
00000050: 5081 613e 5630 edbc 83bc 0e3f 0551 4abe
00000060: 5fcb 743d af45 8b3e 4d32 ccbe 4ee4 6fbe
00000070: 6a44 dabb 7450 b83d 3d3e 823e a09a 593d
00000080: b3e8 443e 4180 86be 786f 51be 0226 de3c
00000090: ca9d a93e 9c1f c1be a396 9e3e 21cc d0bd
000000a0: fdb5 f03d 7408 883e 899a 443d 31b1 0abf
000000b0: 3d51 bebd 9a67 23be d322 71be 695d 1e3e
000000c0: e3b0 0cbe 1a97 34be d2b8 8abe a9d3 e9bd
000000d0: 023c 183d d676 67be 18af dabd f820 03be
000000e0: 3503 793e b1f0 87bd e1ee 003b 12d4 df3d
000000f0: f815 c7be 4341 9d3e 0bcc bc3e 01ac b63e
00000100: b4f0 27be 4952 cbbe 5ad5 9dbd 21d2 103e
00000110: 8c08 a0bd 348d 3c3e e22d d3bd e383 71be
00000120: bc39 b23e f3eb 713e edd2 5fbe 5bd8 eebe
00000130: 6238 9bbe 248d a8bd 5443 7f3d b08e d93e
00000140: 6eb7 513c 74c1 f4bc d241 9a3e e260 9c3e
00000150: 91e2 b5bc 156d 6cbe 8bfc 073f 8c1c 83bc
00000160: 2787 553e e112 873e 67a3 143e bc92 5b3c
00000170: 839e 883e f5d3 f7bd fc85 f23d 3313 dabe
00000180: fa6c bebe e9e9 f7bd c6a6 033e f459 c03d
00000190: f8bc c73e c687 17bf 263c 0d3f 3ad6 593c
000001a0: 4a75 853c 2229 b03e 3b05 22be 88ec 30bd
000001b0: 45c2 ef3d 64b8 97bc 6f08 0b3e 654c aebe
000001c0: 5ade ba3d 3000 363d 4791 54bd 15c1 3b3e
000001d0: 4173 8b3e da59 c5bd 7f34 07be 8c51 dbbd
000001e0: e010 473e cf9d 68be 2b73 123c 1bf4 c3bd
000001f0: 1618 4ebe 12b3 c8be 8a19 8cbd b10c 31be
00000200: cb63 473c fc1d 74be 195f 63be 043d bebe
00000210: 07aa f1be 1738 b73e 9dc5 19be b40d e63d
00000220: 59db 81be d255 25be 4267 c33d cf85 a7be
00000230: 15fd 8abd cd42 033f c792 e33d df1e 8e3e
00000240: d2a7 3f3e fd67 ce3d 83a7 59be 69d8 0c3d
00000250: 3630 6bbd 2c7c a03c 35e4 09bf 42d8 933e
00000260: 9197 6bbe ae2b 823d b5cb dc3b be8f cdbe
00000270: 76f0 b6be 5dd2 cc3e 8796 93bd b8d3 0a3f
00000280: df5f b43e 4c36 b03c a7c2 1cbe 61c1 79be
00000290: f51a f8be 6f37 6f3e 74b5 bfbd 770c d4bc
000002a0: 9487 e9bc eb11 bcbe 4c6b 993d 3c86 83be
000002b0: 1743 94bd 8f08 843e f606 33be 0e47 e33e
000002c0: 7a07 b1be 62d4 9abd 8307 f5bd c9a6 293e
000002d0: 89b9 323d e8d1 23bd f1c5 193f b7c7 833d
000002e0: e78d 5abe f977 ec3e ce93 98be 2de6 cabd
000002f0: d8ed e23d 4b93 3abd 0a3d 0dbe 9502 51be
00000300: ebfb e6be da54 90be f03f b3bd d832 f13d
00000310: f7b6 b5bd ae3a 563e 3465 a5be 80f7 b23e
00000320: 8a20 33bd 3c6d 9cbd 4227 02bf 6d92 7e3d
00000330: 7b47 81be 5302 043f 4e7e fa3e c2f7 1e3f
00000340: 9fa4 eb3d 1c19 8dbd ba3b 1e3e f36a 6b3e
00000350: 9a08 ec3d 02cb fe3d 622a 6ebe 960c 463e
00000360: 4a36 b63e 7edc 7bbe 9c7a 893d 14b0 a33b
00000370: f5f2 803e 1297 f2be d950 763e aa72 9f3e
00000380: 177e 7abe 567e a33e 46fb c0bb 328d 033f
00000390: 21a6 b23e 1f53 95be 9cce 553e 52f7 713c
000003a0: 390f 193d adcc c23c e23b 53bd 5dd5 1ebc
000003b0: 92e5 39bd 3039 9a3d a339 c43e b55e d0be
000003c0: 3c08 c63e e931 c93c c4c2 91be ed8b 91be
000003d0: 7a85 08be 4fc2 4d3e d55c 47be d90c 80be
000003e0: 0eef 25be 5b05 6e3e 8cbe 83bc fd33 a3be
000003f0: b446 003c 7b92 933e 532a afbd 0493 243f
-0.33618772 -0.03834014 -0.21023214 -0.22063819 0.4200747 -0.0050442573 0.13247061 -0.3018722
0.22699854 0.19196111 0.0034885725 -0.21384202 -0.3371607 0.12328706 0.0057855947 0.46518034
-0.4617215 0.04187948 -0.027710257 0.26758364 0.22021985 -0.028953712 0.55756396 -0.19757469
0.059764262 0.27201602 -0.39882126 -0.23426935 -0.0066609876 0.0899972 0.2543811 0.053125978
0.19229393 -0.26269725 -0.20452678 0.027117733 0.33128196 -0.3771943 0.30974302 -0.101951845
0.117534615 0.2656895 0.04799894 -0.5417662 -0.09292839 -0.1595749 -0.2354844 0.1546532
-0.13739352 -0.17635766 -0.27094132 -0.11417324 0.037166603 -0.22603926 -0.10677928 -0.12805545
0.2431763 -0.06637705 0.0019673633 0.10929121 -0.38883948 0.30713853 0.36874422 0.35678104
-0.16400415 -0.39711216 -0.07706709 0.14142658 -0.0781413 0.1841324 -0.10311486 -0.23585467
0.34809673 0.23625164 -0.21857806 -0.4664944 -0.30316454 -0.082300454 0.06232007 0.42491674
0.012800081 -0.029877402 0.30128342 0.30542666 -0.022202762 -0.23088486 0.53119725 -0.016004823
0.20852338 0.2638159 0.14515458 0.013401683 0.26683435 -0.121009745 0.11841962 -0.42592773
-0.37192518 -0.12105162 0.12856588 0.09392157 0.3901136 -0.5919155 0.55169904 0.0132957045
0.01629128 0.34406382 -0.15822308 -0.043194324 0.11706976 -0.018520541 0.13577436 -0.3404266
0.091244414 0.044433773 -0.05189636 0.18335374 0.2723637 -0.096362785 -0.1320362 -0.10708913
0.19440031 -0.22716449 0.008938591 -0.09568044 -0.20126376 -0.3919912 -0.06840809 -0.17289998
0.012169789 -0.23839563 -0.22204246 -0.37155926 -0.47200033 0.3578498 -0.1501679 0.112330824
-0.2536266 -0.16146019 0.09541179 -0.32719275 -0.06786553 0.51273805 0.1111198 0.27757928
0.18716362 0.10078428 -0.21255307 0.034386072 -0.057419024 0.01959046 -0.5386384 0.2887593
-0.23007037 0.063559875 0.006738151 -0.4014873 -0.35730332 0.40004244 -0.07206445 0.5422931
0.35229394 0.021510266 -0.15308629 -0.24390174 -0.48458067 0.2336099 -0.09360781 -0.02588485
-0.028507032 -0.3673242 0.074911684 -0.2568835 -0.07239359 0.2578778 -0.17483124 0.44390148
-0.34576017 -0.0756004 -0.11964323 0.1656753 0.04363397 -0.039995104 0.6006766 0.06434577
-0.21343194 0.46185282 -0.29800266 -0.09907184 0.11080521 -0.045550626 -0.13792816 -0.20411141
-0.45114073 -0.28189737 -0.087524295 0.11777276 -0.088727884 0.20920822 -0.32303774 0.34954453
-0.043732204 -0.07638022 -0.5084115 0.06215136 -0.25249848 0.51566046 0.48924488 0.620968
0.11506008 -0.06889555 0.15452471 0.22990017 0.11525078 0.124410644 -0.23258355 0.19340739
0.35588294 -0.2459583 0.06712839 0.0049953554 0.25185362 -0.47380883 0.24054278 0.3114217
-0.24462162 0.31932324 -0.005889329 0.5138732 0.3489237 -0.2916498 0.20879596 0.014768438
0.037368033 0.023779238 -0.05157078 -0.009694424 -0.04538495 0.07530439 0.38325223 -0.40697256
0.38678157 0.024559932 -0.28468907 -0.28427067 -0.13332167 0.20093654 -0.19469006 -0.25009802
-0.16204473 0.2324423 -0.01608207 -0.318756 0.007829357 0.28822693 -0.085529946 0.6428683

gnn_base.gnn.gnn1.lin_key.bias f4 [48]
00000000: c102 463e 726b 4b3e 6c69 8cbd 422c 15be
00000010: 46ce e1bd 6197 30be 6d9f 87bd 0a67 67be
00000020: f5f6 093e 3e2c 72be 0f44 1dbe 4958 2a3e
00000030: c005 3bbe a5fa 783d 4294 3c3e c99b 7c3e
00000040: 35fa 003e fcd5 88bd 4b4f 113e 4540 0abc
00000050: 6cbf 9ebd ed97 3739 e310 653d 7305 2b3e
00000060: 0aa2 d03d a498 e63d 822e 143d 14bd 46bc
00000070: c31a d43d 826c 6b3d 7b78 74be 7afc 1e3d
00000080: 6554 e1bd b927 07be c7df c23d 74af 503d
00000090: 7fd4 1d3d 9ff0 f0bd 5767 eb3d 84f9 6f3e
000000a0: 97d4 fb3c 6997 ce3d e2c4 5cbe 3da3 183e
000000b0: 0a15 b13d 00c9 e73d 2151 d33d 4c2a 7bbd
0.19336988 0.19865206 -0.06856045 -0.14567664 -0.11025672 -0.17245246 -0.06622205 -0.225979
0.13473113 -0.2364969 -0.15357994 0.1663524 -0.18263912 0.06078591 0.18415931 0.24668802
0.12595446 -0.06681439 0.14190404 -0.008438175 -0.077513546 0.00017508837 0.055924308 0.16701297
0.101871565 0.11259583 0.036177166 -0.012130041 0.10356667 0.057476528 -0.23874085 0.038815
-0.11002425 -0.13198747 0.095153384 0.050948575 0.03853273 -0.11764645 0.1149432 0.23435026
0.03074102 0.10087473 -0.2155948 0.1490602 0.08646591 0.113176346 0.103182085 -0.061319634

gnn_base.gnn.gnn1.lin_query.weight f4 [48, 16]
00000000: 8167 13be da59 b83e b7e8 803e cab4 96be
00000010: 3470 10be 1fc6 ae3e 918b 04bf a806 bdbd
00000020: fcc3 983c c1f9 c4bd 3805 4a3e 994c 75be
00000030: 1a1c 193d d6a7 583e c77a f33d 4102 f03e
00000040: da57 1ebd dce7 b33d c822 623e edc0 0cbf
00000050: a795 c5bb 622b 473e 0bb4 9bbe 7dde 023e
00000060: 5eaa 573e 2b51 dbbe 9c6b 043e b689 a13c
00000070: 2f11 8a3d 29c3 91be 04db c63e 8edd bc3d
00000080: b232 b4be 2b08 973e 5003 083e 54ba 22be
00000090: c205 3b3e 189e 0ebe d95f dfbd 236b 823e
000000a0: bbbb 223e 36af 5ebe 4943 a23e dc95 d6bb
000000b0: 2a60 2d3e bd02 d43e eaf4 623e 971f a73e
000000c0: 1a76 083e 573f 86be f7ce d33d 5632 12be
000000d0: 07ca bbbe 2595 b03e ad53 4dbe a565 ccbd
000000e0: aa05 0cbe b54d fdbd 6b21 6a3e ac7c ef3d
000000f0: 8fa3 5b3e 034e 8d3e a97c 02bc f5e8 663e
00000100: 86b2 debe a6fd b73d 0f6e 8dbe 4851 12be
00000110: 4f18 bfbe 0c9c a63e 1ac8 86be fc9f e0bd
00000120: 983e 95bd e5cb 9dbe def8 46be e7ae 7ebe
00000130: ed0b dabc 65c4 3fbc c67d 373e fdcd db3e
00000140: f592 7bbd 4e26 b03e 8dbf 203e 5b39 1bbf
00000150: 66f0 a43e 7fd6 93be 71bd 913e 5b9a 6d3e
00000160: 76e9 9a3d f806 0ebe 8e4f 4b3e e645 aa3d
00000170: 0711 b8be 6be1 cfbe 15d7 8c3d 8be0 86bd
00000180: 1adb 1a3d 831b cf3e 6096 bb3e 588d 41bf
00000190: 1b82 f3bd 4d44 46be 599f 29bd ef6c 643e
000001a0: 49da 7abd 933d 9ebe 8821 a03d 07b2 783d
000001b0: 3e37 6c3e 1eb4 92be ca77 933e 4844 7dbc
000001c0: 57d0 913d 093f 69be 981e ac3e 1f31 3a3e
000001d0: 553a 663e 1873 81be 277e 37bb 9702 803b
000001e0: 71fb 13be 0969 bcbe 40f8 803e 9a5e 9c3e
000001f0: 4d77 bcbe 37c5 04be 093d 293e 7bcc 58bd
00000200: 61cf 46be 1917 2dbe 4ac8 19bd c334 923e
00000210: 461b b4be 012e 053e 85c4 d4be 11aa ffbe
00000220: b02b 16bd 8a10 b43c 3dda 92be ee2c 88be
00000230: c10d b13e 5fab 823e 51c0 44be 9723 f83d
00000240: 48ec 363c 0fc4 d33d 10af 04be 4434 ab3e
00000250: 4129 9fbe 7e43 7a3b 07fb 0fbf d311 0ebe
00000260: 734f 41be 5258 ad3c 00f4 8d3d 90c3 27be
00000270: 1d4b 0b3f ae90 c93e 9d44 b13d e6cb 583e
00000280: f755 a6bc 7cbb c9bd a67a 73be bc10 023f
00000290: 696e b4be b3af 123e c950 ae3d 860b a4bd
000002a0: 658d 533e dffc 453e 8c1b 4cbe 93c0 96be
000002b0: 5940 f13d f768 b83e c86b 99bd 319e e03d
000002c0: 10c8 623c 6653 b93e 7117 193f 9613 cdbe
000002d0: d622 803d 425f 8abc d0b5 96be 4cf5 f83c
000002e0: d530 a93e 334f 273e 8289 863b 9616 863d
000002f0: 0f42 5abe f303 c1be 77ec 723e aba1 e9bb
00000300: 2473 4d3d 8d2c 58be 4a9f 57be e78d 08bd
00000310: 87b6 0dbf 67e3 553f db10 20bf 20b2 a0be
00000320: 9719 72be a3eb b1be 1540 71be 9331 93be
00000330: 9d45 ca3e 9591 e5be 73b9 1a3e 53fe b9bd
00000340: 91a7 013e cdd4 5bbe a9dc c6bd 0058 cb3e
00000350: f09d 853e 3101 86bd 09bd 393e 6d27 8a3e
00000360: d279 5cbc 2ecc e1be 42fb 893d 80c3 1dbe
00000370: 02ea b1be 5647 21be 2c2b c8bd 6237 943e
00000380: 3e02 ab3e cff0 893d dae6 3f3e 3861 a9be
00000390: 1ed6 a23c fa3a 84be f3bc 27be f102 9fbd
000003a0: 5047 34bd 7ac5 b4be 35ac b63d fe1c ad3c
000003b0: 5631 863e 40d5 32bf 5df4 363e 7fc3 eb3d
000003c0: 3e93 c9be e519 fe3d e745 40be 148a 0d3c
000003d0: bab0 a8be 7463 2c3e a08c b2be 8640 50be
000003e0: ba3d f03a b752 e33d cbe7 2ebe 3c1a acbe
000003f0: 990f 173e d1e9 0e3f 1db9 32bd 2d2e a83b
-0.14394952 0.3600605 0.25177547 -0.29434806 -0.14105302 0.3413553 -0.5177546 -0.09229785
0.01864814 -0.09617949 0.19728553 -0.23955001 0.037380315 0.21157774 0.11888652 0.4687672
-0.038658 0.08784458 0.2208358 -0.5498188 -0.006029803 0.19450143 -0.304108 0.12780185
0.21061084 -0.42835364 0.12931675 0.019718986 0.06741559 -0.28469208 0.3883897 0.09221946
-0.35194927 0.2949842 0.13282514 -0.15891391 0.18263915 -0.13927495 -0.10906953 0.25472364
0.15891926 -0.21746525 0.3169196 -0.0065486263 0.16931215 0.4140834 0.2216374 0.3264129
0.13326302 -0.262202 0.1034221 -0.14277014 -0.36677572 0.34488788 -0.20051451 -0.09980325
-0.13674036 -0.12368337 0.2286431 0.11693701 0.21449111 0.2759858 -0.007964292 0.22549804
-0.43495578 0.089839265 -0.2762303 -0.14288819 -0.37323233 0.3254093 -0.2632454 -0.109680146
-0.072873294 -0.30819622 -0.19430873 -0.24871407 -0.026617015 -0.011704539 0.17919073 0.42930594
-0.061419446 0.34404224 0.15698071 -0.6063439 0.3221466 -0.28874585 0.28464845 0.23203413
0.075640604 -0.13869846 0.19854566 0.08314113 -0.3595049 -0.40601668 0.06876961 -0.06585797
0.037806608 0.40450677 0.36638165 -0.756063 -0.1189005 -0.19361992 -0.04141173 0.2230718
-0.06124333 -0.30906352 0.078188956 0.060716655 0.23067948 -0.28653044 0.2880233 -0.015458174
0.07119816 -0.22777952 0.3361709 0.181828 0.2248319 -0.25283122 -0.0027998777 0.0039065587
-0.14451386 -0.36798885 0.251894 0.30540925 -0.3680977 -0.12965856 0.1652719 -0.052929383
-0.19415046 -0.16903342 -0.037544526 0.2855588 -0.35177058 0.1300583 -0.41556183 -0.49934438
-0.036662757 0.021980543 -0.28682128 -0.2659678 0.34580806 0.2552137 -0.19213988 0.12116163
0.011164732 0.103401296 -0.12957406 0.33438313 -0.31086162 0.00381872 -0.5624241 -0.13873987
-0.18877964 0.021160278 0.06931305 -0.16383195 0.5441149 0.39368194 0.08655665 0.21171531
-0.020304663 -0.09850213 -0.23777255 0.50806785 -0.35240486 0.14324836 0.08511502 -0.080100104
0.20659406 0.19334744 -0.19932383 -0.29443797 0.117798515 0.36017582 -0.07491261 0.109676726
0.013841644 0.3619644 0.59801394 -0.40054005 0.062566444 -0.016891126 -0.29435587 0.030390404
0.33045068 0.16338806 0.0041057477 0.06547277 -0.21314262 -0.37698326 0.23723017 -0.007129868
0.050158635 -0.21110745 -0.21056858 -0.033338454 -0.5535664 0.83550113 -0.6252572 -0.313859
-0.23642574 -0.3475009 -0.23559602 -0.2874876 0.39506236 -0.44837633 0.15109806 -0.090817116
0.12661578 -0.21467896 -0.09710056 0.39715576 0.2609706 -0.06543196 0.18138517 0.26983204
-0.013456779 -0.4410109 0.06737377 -0.15406609 -0.34748846 -0.15749869 -0.097738594 0.28948504
0.33400148 0.06735384 0.18740407 -0.33081985 0.01987749 -0.25826246 -0.16380672 -0.07764233
-0.04401332 -0.35306913 0.08919565 0.021131989 0.26209515 -0.69856644 0.17866655 0.11511897
-0.3937015 0.12407283 -0.18776666 0.008638877 -0.32947332 0.16834813 -0.34872913 -0.20337114
0.0018328943 0.11099761 -0.1708061 -0.33613765 0.14752044 0.55825526 -0.04363357 0.0051324577

gnn_base.gnn.gnn1.lin_query.bias f4 [48]
00000000: 541c 203c 70c0 cebe 3813 6bbe aacb ac3e
00000010: 9617 a2bd 1302 24bc e659 32bb 7293 8abd
00000020: eb66 653e 44b2 bdbc 8eb6 133e 4103 44be
00000030: 855c f93e 715e 2ebe 8313 2bbe 00e1 6bbd
00000040: cb75 6fbe 46c7 2b3e ce98 b8be b29e 56be
00000050: 866b 5dbe 2df8 d43d c04c 1ebd d9f8 50be
00000060: d6ed b5be fd0e 3fbe 1d81 33be 2437 483e
00000070: 2920 7b3e 2de8 24bb d7d5 0a3f c111 993e
00000080: 4c55 133c f35d d7bd 8188 4bbe 75aa 96bd
00000090: f36c 6cbe f365 8f3e 930d 31be 108d 4bbe
000000a0: 344f 63be 1c51 dabc 4fe2 f73d add9 9a3d
000000b0: c48d 8d3d a395 463e 752e cf3d 1ea6 0b3f
0.009772379 -0.40381193 -0.2295655 0.33749133 -0.07914655 -0.01001026 -0.0027214228 -0.06766404
0.22402541 -0.023156293 0.14425108 -0.19141866 0.487034 -0.17028214 -0.16706662 -0.057587624
-0.23384778 0.16775236 -0.3605408 -0.20958975 -0.21623048 0.10398898 -0.038647413 -0.20407428
-0.35533017 -0.18658061 -0.17529722 0.19552284 0.24523987 -0.0025162802 0.54232544 0.29896358
0.008992504 -0.10515966 -0.19876291 -0.07356731 -0.23088436 0.2800747 -0.17290334 -0.1987803
-0.22198182 -0.026650004 0.12103712 0.075610496 0.06911805 0.1939302 0.10116283 0.5455035

gnn_base.gnn.gnn1.lin_value.weight f4 [48, 16]
00000000: 0bd6 07bc 49a4 a03e c859 c8bd c335 71be
00000010: b3bf bdbd 55de e1bd 547a 9b3e 835a c9bd
00000020: bade bfbe 3d75 14bf 64e2 803e 8c84 3abe
00000030: d5d7 ae3e d105 d1b9 d7bd 3d3f 92c0 563e
00000040: 780d b4be 703f a0bb 7515 4f3c 3090 bcbb
00000050: 4689 843e d8fb abbd 86f5 89bd 31c8 d63b
00000060: d8ac 54be c21c 77bc fb32 62bb 8bf2 0ebe
00000070: f4fd d43d 487c 8f3d 8943 8d3e 21f9 553d
00000080: b4c5 8abe 53e4 d53d e7dd 06bd 86ef d9be
00000090: e5b3 403d b280 943e 35e3 983e a225 363e
000000a0: a2d9 fcbe 9616 7c3e 5358 573e ae0b 373e
000000b0: 4dd1 f33c d099 a63d 850a 03be ce3e 22bd
000000c0: c630 9a3e 6959 b4bd 5f51 b0be ae6e 98bc
000000d0: f555 8d3d 431c 6cbe d88f 573e bc4a dfbe
000000e0: 9b5f 833c 417f bd3e 722e 1a3d 8464 1fbe
000000f0: 2f3b ffbd 4ceb 7b3c ea3e 313c 59c5 97be
00000100: e862 773c 1263 cd3d e0e7 76bc afd0 05bd
00000110: 812b 95be 1dd2 e5be e4cb 3b3e 69e6 aa3e
00000120: 5e3f ccbe 7b7f 003f d81d 103e b1d9 893d
00000130: 9660 71be 65fb eb3d f1a4 cb3e c884 af3e
00000140: 1df5 b13e 0425 cbbd 136d a83e 9089 84be
00000150: 1d3c 36be fed7 e53d 2c47 8dbe 96ad e6bd
00000160: fcfb ad3c fd1e c73e 72bd 3c3e a7bd 343e
00000170: ac91 56be f343 a3bd d8c5 3cbd 0e52 483e
00000180: f79a 4a3e e537 253e be18 14be f820 9fbe
00000190: 9318 26bf 9d8f 0a3e 9b68 c0bd c8e0 acbd
000001a0: 3aa7 b5bc 25a5 cc3e 5b1b abbd 16a9 44bc
000001b0: 5433 bebe b99e f93e 9702 b1ba 5120 483e
000001c0: dd17 07bf dbf2 9ebe e5e8 a83d b57d b2bd
000001d0: 632d 103e e766 b2bd f6b1 053e 6b4b f8bd
000001e0: f2aa a2bc 8df2 563e 4cdf 83be b460 853d
000001f0: 3a38 6dbe a991 773e fab3 f43d b4e4 0ebe
00000200: 3fef 283e d31e 573e 048d 213e a39c 023d
00000210: 3e42 153e d0d7 8abe 2d7e 233e d636 d33d
00000220: 1599 f4be 56c8 b63e 8b09 41be 11a0 043f
00000230: e1d8 493e 6b58 aebe 785a 443d 0f35 6fbc
00000240: fe07 65be 37dc e0bc ce39 7d3d 8033 f23b
00000250: 5736 ba3e 8246 e03d c905 663e b9ae b7be
00000260: 0653 433e 73c3 b6be b85e 3abc cc0b 633e
00000270: cfb0 843e ba1d 8abe b2d5 17bc fcc3 20bd
00000280: c40f bbbd 563e 93be eb00 073e f22c a43b
00000290: d9d4 31be b967 64be 0b4f 0b3e d0c5 62be
000002a0: 79d7 91be 24ba 423e 30ca 343e a549 afbe
000002b0: 7b1d 1bbe 7799 d53e a38b 7f3e b88e 893d
000002c0: e7a2 bd3d 6c15 a4be 4e33 d3be 635a 3b3e
000002d0: aea5 263e f081 b9bd 8e77 eabe 0069 1b3e
000002e0: 37ed 9a3e de4d 153e 013f 29be 80b6 f73c
000002f0: 00ba 2bbe ddda c2bd 10a3 3f3e 8313 7c3e
00000300: da02 9dbe 4675 ec3d 5aa7 e83d 82a0 883e
00000310: 9af9 27bd 7ad4 153c 1760 db3e ed5b fabe
00000320: 62bf a5bd a6db a83d de6f 913e 1dc4 8fbe
00000330: 50f6 dfbd 28fb 87be bf4f 4a3d 8e23 e63d
00000340: d6ef b53c 0867 873d ef71 33be 8d26 d1be
00000350: 24c2 f1bc e56b 6abe 407c 093f 613b 32be
00000360: 2839 6b3f ce86 02be f5af ef3d 0d3b 383d
00000370: fe74 e3be 4a07 033f d016 07bd 786a a9bd
00000380: 162c 91be fbea 5e3d 4007 91be 9f75 a03e
00000390: 3bfe d03d 1bd0 22bd 3a8a a0be 8f12 c33d
000003a0: 4a12 c8bd 44ff 903e cca5 3a3d 2d02 a0be
000003b0: 59e4 613d 522d 213d 5875 84be dfa8 12be
000003c0: 286f eebc 2458 a43e cc92 a3be d4ad a1bc
000003d0: e294 fc3d 88c3 9d3d e3d8 943e 3b68 05be
000003e0: 145f 863d 19f6 733d 0a10 17bf 56d0 943e
000003f0: d81e 6dbe fc10 343d 6267 773d bac7 1abe
-0.008290778 0.3137534 -0.097827494 -0.23555665 -0.09265079 -0.110287346 0.30366766 -0.09831717
-0.37474614 -0.5799139 0.25172722 -0.18214625 0.34149042 -0.0003986792 0.741178 0.20971897
-0.35166526 -0.004890375 0.012639393 -0.005754493 0.2588598 -0.08397645 -0.06736283 0.0065546264
-0.2076906 -0.01508254 -0.003451525 -0.1395971 0.104 0.07006127 0.27590588 0.05223954
-0.2710396 0.1044394 -0.032926466 -0.42565554 0.04704656 0.29004437 0.29860845 0.17787793
-0.4938479 0.24617991 0.21029787 0.17875549 0.029762888 0.08134806 -0.12796982 -0.039610676
0.30115336 -0.08806116 -0.3443708 -0.018607464 0.06901161 -0.23057656 0.21050966 -0.43611705
0.0160368 0.3701115 0.03764195 -0.15565687 -0.1246246 0.015375923 0.010818223 -0.29642752
0.015099265 0.10028662 -0.015069932 -0.03266972 -0.29134753 -0.44886866 0.18339497 0.33378914
-0.39892095 0.5019452 0.14073884 0.067309745 -0.23572001 0.11522559 0.39774278 0.34280992
0.3475732 -0.099191695 0.32895717 -0.25886202 -0.17796369 0.11222838 -0.27593362 -0.11263578
0.02123832 0.3889083 0.18431643 0.17650472 -0.20954007 -0.07971945 -0.046087116 0.19562551
0.19785677 0.16134603 -0.14462563 -0.3107984 -0.6488125 0.13531347 -0.09394952 -0.08441311
-0.022174466 0.39969745 -0.08354827 -0.012003204 -0.37148535 0.48753908 -0.00135048 0.19543578
-0.5277079 -0.3104466 0.08247546 -0.08715383 0.14079814 -0.08711033 0.13056168 -0.1212376
-0.019856904 0.20990963 -0.257563 0.06512585 -0.2316598 0.24176659 0.1194839 -0.13954431
0.16497515 0.21007852 0.1577645 0.03188766 0.1457605 -0.27117777 0.15966101 0.103131935
-0.47773042 0.3569972 -0.18851297 0.5180674 0.19711639 -0.34051833 0.04793784 -0.0146000525
-0.2236633 -0.027448757 0.061822705 0.007391393 0.36369583 0.10950948 0.22463144 -0.3587549
0.1907464 -0.3569599 -0.011375122 0.22172469 0.25916144 -0.26975805 -0.0092672575 -0.039249405
-0.091338664 -0.28758496 0.13183944 0.0050102407 -0.17366351 -0.22305192 0.13604371 -0.22145772
-0.28484705 0.1901632 0.17655253 -0.34235874 -0.15147965 0.41718647 0.24955611 0.067166746
0.09259587 -0.32047594 -0.4125008 0.18296199 0.1627414 -0.09057987 -0.45794338 0.15176773
0.30259106 0.14580485 -0.1652794 0.03023839 -0.16770172 -0.09514401 0.18714547 0.24616818
-0.30666238 0.11545806 0.11360045 0.26684958 -0.041009523 0.009144897 0.42846748 -0.4889826
-0.08093144 0.082450196 0.2840566 -0.2807931 -0.10935652 -0.26558805 0.049392458 0.1123725
0.02220909 0.066114485 -0.17523931 -0.40849724 -0.029511519 -0.22892721 0.53705215 -0.17405464
0.9188409 -0.12746736 0.11703483 0.04497819 -0.44425195 0.51183 -0.03298074 -0.082722604
-0.28353947 0.054423314 -0.28325844 0.31339738 0.102047406 -0.039749246 -0.31355458 0.09525024
-0.09769113 0.28319752 0.045568272 -0.3125166 0.05514941 0.03934986 -0.25870776 -0.14322232
-0.029105738 0.32098496 -0.31947935 -0.019736208 0.12333085 0.0770331 0.2907172 -0.13028042
0.065611035 0.05956087 -0.5900885 0.29065198 -0.23156297 0.04396151 0.060401328 -0.15115252

gnn_base.gnn.gnn1.lin_value.bias f4 [48]
00000000: 6d2b 503e fc21 a0bd cca5 fabd eab1 29bd
00000010: 060e 2d3e ad83 85bb 0543 1c3e 514c d33d
00000020: a736 d9bc 8486 623d 8fbe e63d 2340 9a3c
00000030: e99f 3abd 966e 5cbe 24da f63d 3b57 1c3d
00000040: d681 273e 26a5 b7be 86c8 67bd 0dda 5fbd
00000050: 8e38 1fbe 32aa db3d 6b94 083e 9a7b 9a3e
00000060: aeb3 fe3d 5272 abbe 92c5 74bd a39f 7abd
00000070: 5ffd 143d caea a53d 46d3 e8bd ac1d 213e
00000080: 60fe 493e 2ca0 c73d b4a3 103e 6c05 5dbe
00000090: 0003 b9bd fbb7 3abe caf4 413d ff2d 813d
000000a0: 86ea 413e c963 10bd 5efc 3fbd 7e0c adbd
000000b0: 591c 863d 9d8d 8f3c 6a70 59be 3ada 36bd
0.20329066 -0.07818982 -0.122386545 -0.041429438 0.16899881 -0.004074535 0.15259941 0.103172906
-0.026515318 0.055304065 0.11266815 0.01882941 -0.04556266 -0.2152656 0.12053326 0.038169127
0.16358122 -0.35868186 -0.05658772 -0.05465131 -0.15548918 0.107258216 0.13337867 0.30172426
0.12436615 -0.33485657 -0.05975873 -0.061187398 0.036374446 0.08101423 -0.11368422 0.15733975
0.19725943 0.09747347 0.14124948 -0.215841 -0.09033775 -0.18234245 0.04735259 0.06307601
0.1893712 -0.035251413 -0.046871535 -0.08449648 0.06548376 0.017523581 -0.21234289 -0.04464171

gnn_base.gnn.gnn1.lin_edge.weight f4 [48, 1]
00000000: 08cb 1a3f 7cb1 c93e e32e 7cbf 6499 823f
00000010: 261a 2ebf c020 613f 6787 d4be b849 8c3f
00000020: 3e73 143f 812a dbbe c5ba 023f 10d7 8b3f
00000030: 8684 2bbf f1ab 763e bfe8 2d3f b073 36bd
00000040: 5464 f53e 08b3 263f 432d 8fbf 2a74 1e3f
00000050: 8f0e 8bbf 4437 c03e bd63 4bbf 1415 b4be
00000060: 5c03 4c3e 8942 81bf acdc 4ebd 655d c7be
00000070: 41c3 ee3e f550 183d 336d 6dbf 34a6 9dbe
00000080: f26f a03c b470 ec3e 1ffd 84bf 68e3 f4be
00000090: 8e51 053e 854b 43bf 03ec 2cbf 063f 8abf
000000a0: 4172 9fbe efbf 90bf 0d84 2c3e 6bb2 563f
000000b0: c084 2e3f 3af5 22bf 77f8 8f3f 0fc8 3abf
0.6046605 0.39393222 -0.98509043 1.0203061 -0.6800865 0.879406 -0.41509554 1.0959997
0.57988346 -0.42805865 0.5106624 1.0925007 -0.6699909 0.24089028 0.6793327 -0.044543922
0.47928107 0.6511693 -1.1185688 0.61896 -1.0863818 0.37542164 -0.79449064 -0.3517233
0.19923156 -1.009843 -0.050503418 -0.38938442 0.46633342 0.03718658 -0.9274475 -0.30790865
0.01958463 0.46179736 -1.0389746 -0.47829747 0.13019392 -0.7628711 -0.67547625 -1.0800483
-0.31141856 -1.1308573 0.16847248 0.83865994 0.6817131 -0.63655436 1.12477 -0.72961515

gnn_base.gnn.gnn1.lin_skip.weight f4 [16, 16]
00000000: af4b a33d 51f1 c83d b53b d03d 26ca ed3d
00000010: 0235 013b 16b0 1fbf a276 acbe c954 c0bc
00000020: 3ab6 aebe d92f 2a3d 5211 183f a57b 8b3d
00000030: 405e 3e3e a80f 0ebf 0eab 063d 5bb7 583e
00000040: dc7d 703e ec0e 73bc fa88 95be abac 23bf
00000050: 6652 33bd f735 01be 1d20 b83c 18f3 91be
00000060: 7c93 87be e18a 7ebe 02cd d13d e062 debd
00000070: b0f0 5dbe e054 75be a2bc 303e 2915 843e
00000080: 3dd4 9abe 2ce6 a23d 93bd 32be df86 9abd
00000090: 1e70 4abe 6e8f 913e d371 e2bd 847f 513e
000000a0: 87ca 7cbe 7877 7dbd c6fa a1bd 6856 053d
000000b0: 5a8a f6bc 2ed9 97bd 668e c1bc 2539 a4be
000000c0: da8d a13d 8f41 e43d c2c7 06be 5fef f2bc
000000d0: 2956 b0be 270f bfbe 177e 063f 0543 22be
000000e0: f665 f53e 1bf9 8b3e f403 dfbe 55b4 c23e
000000f0: cbec 0d3e c5d3 b7bc 5546 35be 7e7e abbe
00000100: 3eea 9abe 1aca fb3c aed2 a33c 2316 9a3d
00000110: 1d64 4bbe 8210 f7bd ad2b 52be b881 2abe
00000120: 207c a5be c73f e5bc 4a93 b7bc 41ba de3d
00000130: 01aa 293e bb82 133e ed29 423e 3905 ae3d
00000140: c0d6 7cbe e248 78be cc72 b0be 3170 7dbe
00000150: 6815 cf3e 4744 33be 5772 3dbe d650 023d
00000160: fccf bbbe 4b3c f53e cc58 563d 48db c0bd
00000170: ba88 57be b265 b73e 2634 eabe e4a6 ccbd
00000180: 4f65 663e 2386 b1bc 95f1 d23e 9df6 1bbe
00000190: 3a81 30be f1e8 923d 9ada bbbe 1a36 a73e
000001a0: 1dea b0bd 4d08 b9bd b2b3 263f e285 3c3c
000001b0: 85c8 fe3d da46 abbe e410 69be 6f9d 513d
000001c0: 19cd 8fbc a347 a0bd 455e 36bd 4f19 213d
000001d0: ba86 33bd 6c25 92be 763e 3fbe 12a8 c23e
000001e0: a655 a1bd 6718 44be 23da 7b3e 897f 5d3e
000001f0: 39b6 b7bd c1f9 6a3e 9407 e53e 4a26 ac3e
00000200: 3414 233e 5e0a 9ebe 481b e8bd 8eca a73c
00000210: 81d0 c8be cc38 be3e fb9a 283e 8b8b b2bb
00000220: a414 4fbe 9884 a1be 4378 05be 4851 413e
00000230: 66d3 e2bd 8ff0 48be 87dd 293f c5ac 133e
00000240: da2c 7e3e 03a6 15be 8266 48bc 99f8 09bf
00000250: c962 973e 233c 803e 0f3e d6bd 6959 983e
00000260: d78e ef3d 7320 fbbe 2211 d73e 6e9a babd
00000270: 911f 113c a3f8 2c3e bb1f 9a3e 2b83 8f3e
00000280: 023d 4abe c709 cfbc 3349 bebd 5ad5 723e
00000290: 1990 b0be da8f ab3e 1b2f a3be 36eb ab3d
000002a0: 914e 8e3e 2dec da3e 041e 2b3d 5222 89be
000002b0: 7558 57be 4967 b1be 29cd febe 7d64 06be
000002c0: 3a08 c7bd 1a94 f83d 0590 aabe 4643 01be
000002d0: 9c28 99be eb0b 923e c363 e2bc cdd8 ffbc
000002e0: f1e8 af3d 57d7 16be 887b 04be 1a83 39be
000002f0: f79e 323e 0eca 3c3e e96b ff3e 8e7f 7d3e
00000300: 4095 56bd 0442 fcbd 05b7 433e 9850 a6be
00000310: 7c14 b3be f9aa b23e dea0 bb3e 80fd b93d
00000320: e678 5cbe 83ac 9cbd dcaf 55bd aec4 56bc
00000330: 6eb2 b23e 3d8d af3e 87bb e3bd c4b2 de3d
00000340: 6495 793d 8a5f 92bd b541 923d 5683 05be
00000350: a3e8 983e f2e2 b6be 999b 1b3e 4f6a adbe
00000360: eba3 333d bb21 1a3e 1aae 943e a20e a83c
00000370: 48cf 39be bfd5 c63d ebf3 903e 5e05 0abd
00000380: 5071 863e b60f 79be f55c 6d3d 511d c0be
00000390: 1e67 87bd 6550 bebe bc89 753e 8529 143e
000003a0: 90be e5bc 0dc8 893c bd92 ad3e aa3a 023e
000003b0: 246f e73d 9802 22bd 8235 253c 4dfd a93d
000003c0: 64ac cebe 2f53 d0bd 8d22 bfbc dcfb e43d
000003d0: fb9c c1be 10e2 6b3e 8345 b0be baf8 c7bc
000003e0: 5450 4e3e 5baf eb3d ac81 61be 237d 93be
000003f0: 3cac 8fbc bc2c e93e 0ebc bbbe fc3c c03e
0.0797342 0.098116525 0.10167638 0.116108224 0.0019715433 -0.6237806 -0.3368426 -0.023477929
-0.34123403 0.041549537 0.5940143 0.06810693 0.18590641 -0.5549264 0.032877974 0.21163695
0.23485512 -0.014835101 -0.29206067 -0.63935345 -0.043779753 -0.12618242 0.02247625 -0.28505778
-0.2647971 -0.24857666 0.1024418 -0.10858703 -0.21673846 -0.23958158 0.17259458 0.25797394
-0.3024005 0.07954058 -0.1745513 -0.07545256 -0.19769332 0.2842974 -0.110568665 0.204588
-0.24686633 -0.061881512 -0.07909159 0.032553107 -0.030095268 -0.074144706 -0.023627471 -0.32074848
0.07888384 0.11145317 -0.13162139 -0.029655157 -0.34440735 -0.37316248 0.5253615 -0.15845878
0.47929353 0.2733849 -0.43557703 0.38028207 0.1385986 -0.022439847 -0.17702611 -0.33494943
-0.30256838 0.030736018 0.01999792 0.075237535 -0.19862409 -0.120636955 -0.20524473 -0.16651046
-0.32321262 -0.027984513 -0.0224091 0.10875369 0.16568758 0.14405338 0.18961306 0.0849709
-0.24691296 -0.24246553 -0.34462583 -0.24749829 0.4044602 -0.17506514 -0.18500648 0.031815372
-0.36682117 0.47897562 0.052330777 -0.094168246 -0.21048251 0.35819775 -0.4574291 -0.09992769
0.22499584 -0.021670407 0.41199937 -0.15230794 -0.17236796 0.07173336 -0.36690217 0.32658464
-0.086384036 -0.090347864 0.65117943 0.0115065295 0.1244059 -0.33452493 -0.2276035 0.05117553
-0.017553853 -0.078261636 -0.044523496 0.039330777 -0.043829657 -0.28544176 -0.1867617 0.38018852
-0.07877664 -0.19149934 0.24594931 0.21630682 -0.08970303 0.22946836 0.44732344 0.33622962
0.15925676 -0.30867285 -0.113333285 0.020482328 -0.39221576 0.37152708 0.1646537 -0.0054487637
-0.20222718 -0.31546474 -0.13034157 0.18878663 -0.11075477 -0.19623016 0.6635365 0.14421375
0.24821797 -0.1461411 -0.012231471 -0.53894955 0.29567555 0.2504588 -0.104610555 0.29755715
0.116971664 -0.49048194 0.4200526 -0.091114864 0.008857624 0.16891722 0.30102333 0.2802976
-0.19749835 -0.025273217 -0.092913054 0.237142 -0.34484938 0.33508188 -0.31871876 0.08394472
0.27794316 0.42758313 0.041776672 -0.26783997 -0.21029837 -0.34649113 -0.497659 -0.1312427
-0.09718366 0.12137623 -0.33313003 -0.12623319 -0.29913795 0.28524718 -0.02763546 -0.031231308
0.08589352 -0.14730583 -0.12937748 -0.18116418 0.17443453 0.18436453 0.49887016 0.2475569
-0.05238843 -0.12317279 0.19112785 -0.32483363 -0.34976566 0.34896067 0.3664617 0.090815544
-0.21530494 -0.076500915 -0.052169666 -0.0131084155 0.34901756 0.34287444 -0.111197524 0.108739406
0.060933486 -0.07147129 0.07141439 -0.13038382 0.29864988 -0.3572002 0.15196075 -0.3387017
0.043857496 0.1505193 0.2903908 0.02051479 -0.18145478 0.097087376 0.28311095 -0.033696525
0.26258326 -0.243224 0.05794998 -0.37522367 -0.06611465 -0.3717071 0.23978323 0.14468963
-0.028044969 0.016819024 0.33901015 0.12717691 0.11300495 -0.039553255 0.010083558 0.083002664
-0.403659 -0.10172116 -0.023331905 0.11180851 -0.3781508 0.23035455 -0.34428033 -0.024410594
0.2014783 0.11508056 -0.22022122 -0.2880641 -0.017538182 0.45541942 -0.36666912 0.37546527

gnn_base.gnn.gnn1.lin_skip.bias f4 [16]
00000000: bd01 a73d b836 7bbe 2671 b2bc 81ed 80bd
00000010: 4264 cd3d 1d9e 863e 9a56 193e c56a a33d
00000020: 065e 8b3e 41fa 79be bf8b 9ebc b5f4 a6be
00000030: c010 743e 1cf6 c43c aa93 49be 3e7f 76be
0.081546284 -0.24532592 -0.021782469 -0.062953 0.10028888 0.26292506 0.14974442 0.07979349
0.27220172 -0.2441187 -0.019353746 -0.32608572 0.23834515 0.024043135 -0.19685236 -0.24071977

gnn_base.gnn.gnn2.0.lin_key.weight f4 [48, 16]
00000000: 945c 93be f2e5 833d 68e3 02be 511e 3b3d
00000010: d255 84ba cec7 1cbf ee82 9ebe dac0 a93b
00000020: 765e 8b3e a0b0 96be 4633 993e d0ea 36be
00000030: 1baf 513e a918 0cbf 6deb 9b3d 5c9d a73e
00000040: 2fc6 43bd b1a9 9ebd a188 b73d aa9d 8a3e
00000050: 9b65 7b3d a50c 293f 1424 c93d 890a e5bd
00000060: a44b 0bbd 48ad 343e ab7d 1abe 2fc8 433e
00000070: 1512 693e 168f 433f 789f c3be 2c88 33be
00000080: 7617 8dbe b803 d7be 7340 113d 8853 b83e
00000090: b03a a73d f2c7 a3bd d813 4dbe 6b76 403d
000000a0: e480 9b3e da33 9f3e f664 5cbe 922f 9abd
000000b0: 98be 423e 6492 853f 75df f43d 6c8f 413e
000000c0: b136 313d 4ced 36bd 05e9 2b3e 4dbf 67be
000000d0: c63f aebe 67ab 1ebf ec7b 573e 634b 79bc
000000e0: 04f6 1fbf f20d 6abe a272 a43e e91a a73d
000000f0: dc29 dabe 546d 61bf 9e68 343e f7fc 913e
00000100: 2a71 5d3e 6e44 3c3e 5f42 0f3e 571a 563e
00000110: d208 2fbe d73c dcbe 75a9 db3d 263f 28be
00000120: 94db c4be e2de 283e cc11 983c a783 cdbd
00000130: c954 e23d 81b0 9abe aad9 253e b5f6 b73c
00000140: ad73 8f3c 49b8 8abe 09cb ffbd 61ed acbe
00000150: e17c 043d c86f a03e 527b 903d c098 093f
00000160: 09e9 033e 900b 043f 11bc 32be 5dbd 0ebe
00000170: 0b89 2a3e 5e14 99be 5182 7fbe cd8e 8f3e
00000180: b673 a03c 3763 d53e fbb2 dc3c 7cf4 db3d
00000190: 997b 9dbe d033 153e fcd0 9bbd 252d dfbc
000001a0: 3246 413e e130 a73e 424f d0be 3d50 02be
000001b0: 9921 f83d e6ec d7b9 9903 46bd bc95 64be
000001c0: ddf6 803e e69f af3d 992e 56be d500 5cbe
000001d0: 0c68 8cbe d202 6b3e e2be 283e 8ba2 9e3e
000001e0: c8c5 b03e f741 173f 7e0f 0ebe fd02 97be
000001f0: 5a4b 3c3e 887a 27bf cdf6 18be b209 413e
00000200: be94 48bd 62e8 083f ebe3 c9be d038 8d3e
00000210: 9d64 c33d bf01 313e ffcb 653c 20dc f93c
00000220: 1803 193f 3030 073f 075d 23bf d748 8fbe
00000230: de8a 943e 4f62 f93e 41a7 013e 6d71 edbe
00000240: a40a 21bb 3e71 f8be 954f b9bd 7ad5 2f3e
00000250: 4f1d 1d3e 917b 02bf a656 f93c a0bf 973c
00000260: fa5c 18be ccd8 e3be ce2e 3d3d 5fa1 9d3e
00000270: 93ed f5be 80e5 aa3e d32a 29be bb80 143e
00000280: eb31 f23e d381 b83d c624 35bd 38a5 cabe
00000290: aedf 6b3e e037 cebd a276 d73e b217 873e
000002a0: bb0a df3c d9d8 cc3e e0cd d4bb 6208 073e
000002b0: 3671 1e3c 82f0 0bbf 5567 a2bd 1c33 ffbc
000002c0: 40de 8cbe 8a9a 37bf 6574 8e3e fb73 063f
000002d0: 3153 ca3e 009c ac3d 1f25 92be 47c6 8dbe
000002e0: 2774 c7be b05b b6be c698 58bd 6cf6 893e
000002f0: ea0d 4dbd 2e65 233f 11df 00be e3cd 863e
00000300: c20a de3c b13c 7bbe 9b84 41be 9210 3e3d
00000310: 3cbe 0bbe 3a53 53bd 8d29 133e 4029 63bd
00000320: edeb dc3e b524 063f 2354 ccbe a667 dc3b
00000330: 80fd f03e 5449 b33e 1a44 063f 3b71 7abd
00000340: ff7a 3a3e 6890 a03d d52a b9bc 2cb2 6ebe
00000350: d5f1 40be c757 713e 6582 4c3d 66ee 3a3f
00000360: 92de 203e 93b0 0a3f 76b8 c23d f502 c03e
00000370: 4974 91bd 37c9 10bd d3f5 b1be d32c 4b3d
00000380: 9ece 1abd 01e3 c23e 8405 80be de1a 763e
00000390: 0410 0f3e 8794 9c3d a8eb afbd 8331 55bd
000003a0: b213 3e3f 2f70 183f 6690 acbe 1b6e 93bd
000003b0: 79d6 0a3f 1e2b 5c3f 3e03 b93d 2410 6dbe
000003c0: 99a4 1abe b56f ae3e 759f 873e 70fb c53d
000003d0: 31dd 293e d457 35be 4fd0 28bd 813c 8cbe
000003e0: a822 753e bf89 d3be 7a30 febd 3c83 bcbd
000003f0: 716c 833e b99b d1be e6c2 063f 6e28 663e
-0.2878157 0.06440343 -0.12782061 0.04568321 -0.0010096377 -0.6124238 -0.30959266 0.0051804604
0.27220505 -0.2943163 0.2992193 -0.17863011 0.20476954 -0.5472513 0.07613263 0.32737243
-0.047796424 -0.0774721 0.08961607 0.27073413 0.061376195 0.6603492 0.098213345 -0.1118365
-0.034007683 0.17644227 -0.15087001 0.19119333 0.22760804 0.76390207 -0.38207603 -0.17532414
-0.27556962 -0.41995025 0.035461854 0.3600123 0.081654906 -0.07997121 -0.20027101 0.046987932
0.30371773 0.31094247 -0.21522889 -0.075286046 0.19018018 1.04353 0.119566835 0.18902367
0.04326505 -0.044659898 0.16788109 -0.22631569 -0.3403303 -0.6198029 0.21043366 -0.0152157275
-0.62484765 -0.22856882 0.32118708 0.081594296 -0.4261006 -0.88057446 0.17618033 0.2851331
0.216252 0.18385479 0.13990162 0.20908485 -0.17093208 -0.43015167 0.10725681 -0.16430339
-0.38448775 0.16491273 0.018563174 -0.10034876 0.11051328 -0.30212787 0.16196314 0.022456506
0.017511213 -0.27093723 -0.12489898 -0.33774856 0.032345656 0.31335282 0.070547715 0.53748703
0.12881865 0.5158014 -0.17454554 -0.13939424 0.1665384 -0.2989835 -0.24952056 0.28038636
0.019586425 0.41677257 0.026940813 0.10739991 -0.3075836 0.14570546 -0.0760822 -0.027243206
0.18874434 0.3265448 -0.4068547 -0.12725921 0.12115783 -0.000411845 -0.048343275 -0.22322744
0.25188342 0.0857542 -0.20916213 -0.21484692 -0.2742313 0.22950295 0.16479066 0.30983385
0.34525895 0.5908503 -0.13873097 -0.29494467 0.1838812 -0.6542134 -0.14937897 0.18851355
-0.048969977 0.5347959 -0.394317 0.27582407 0.09540675 0.17285822 0.014025687 0.030500472
0.59770346 0.52807903 -0.63813823 -0.2798526 0.29012197 0.48707816 0.12661459 -0.463756
-0.0024572993 -0.48523897 -0.09048382 0.17171279 0.15343212 -0.509698 0.030436825 0.018523991
-0.14879218 -0.4450134 0.046187215 0.3078718 -0.48032817 0.3337822 -0.16520242 0.14502232
0.4730371 0.09009137 -0.044224523 -0.39579177 0.23034546 -0.10069251 0.42082697 0.26385266
0.027226796 0.40009192 -0.006494269 0.13186792 0.009670546 -0.5466386 -0.07929865 -0.0311523
-0.27513313 -0.7172018 0.27823177 0.5252072 0.39516595 0.08428192 -0.28543946 -0.27690336
-0.38955805 -0.35616827 -0.05288007 0.26945817 -0.050062098 0.6382626 -0.12585093 0.26328954
0.02710474 -0.2453487 -0.18898241 0.04640252 -0.13646787 -0.051593043 0.14371319 -0.05545926
0.43148747 0.5239976 -0.3990794 0.006726223 0.47068405 0.35016882 0.52447665 -0.06114314
0.18210982 0.07840043 -0.022603432 -0.23310155 -0.18842252 0.2356864 0.04992904 0.7302002
0.15709904 0.5417568 0.095078394 0.37502256 -0.07102258 -0.035348143 -0.34757861 0.049603295
-0.0377947 0.38063815 -0.25004208 0.24033687 0.13970953 0.07645517 -0.0858987 -0.05204917
0.742488 0.5954618 -0.33703917 -0.07198735 0.5423351 0.8600329 0.090338215 -0.23150688
-0.15101852 0.340696 0.26488844 0.096670985 0.16588284 -0.17709285 -0.041214284 -0.2738991
0.23939002 -0.4131603 -0.1241159 -0.092047185 0.25668672 -0.4093912 0.5264114 0.2247636

gnn_base.gnn.gnn2.0.lin_key.bias f4 [48]
00000000: 408a 66be 6cc7 a13d 180d e3bd a22c 2abe
00000010: b870 983d c46b ed3d 69c4 4e3e 6b8c 7b3e
00000020: ffa8 b33d 8f73 91bd 8628 26bd 8a74 413e
00000030: c049 48be da8f 393e 6211 e23d 2122 c33d
00000040: d076 9c3d a566 55be 2f22 cf3d eefa 2ebc
00000050: beed 603b 28ad edbd 7783 353e 3b44 2ebd
00000060: 5551 fa3a 2f86 5cbe 75a2 493e 8863 6bbe
00000070: 9830 1d3e e360 e13d b840 123d 9cfa 76be
00000080: 1d81 ebbd 5d41 a5bc 6c7b 3dbe 4601 a8bd
00000090: 7c61 70bd 6eb3 9abd 1700 313e b1bc 673e
000000a0: 88bb e7bd a0a7 033e 9241 5c3c fd98 373e
000000b0: 8cc8 5fbe 4739 fcbd b414 4fbd fa1d 773e
-0.22513676 0.07899365 -0.11086482 -0.16618589 0.074433744 0.1159282 0.20192112 0.24565284
0.08772468 -0.07102119 -0.04056599 0.18892112 -0.19559383 0.18121281 0.11038472 0.09527994
0.07639849 -0.20839937 0.10113942 -0.0106799435 0.0034321393 -0.116052926 0.17725931 -0.04254554
0.0019097725 -0.21535562 0.19690879 -0.22987187 0.15350568 0.11004808 0.03570625 -0.24119037
-0.11499236 -0.02017277 -0.18504113 -0.08203368 -0.05868672 -0.07553755 0.1728519 0.22630574
-0.113150656 0.12856913 0.013443368 0.17929454 -0.21853846 -0.12315612 -0.050556853 0.24132529
