model_weights/FA_FR/tube/curr/critic.pt (torch, 191627 bytes, 57 tensors)

gnn_base.gnn.embed_layer.layer_norm.weight f4 [16]
000000 c0 d4 8a 3f 54 c4 b0 3f 0d 7e 4e 3f 3a 4c 59 3f
       1.0846176 1.3809915 0.8066109 0.8488194
000010 c2 04 63 3f 18 fc a3 3f 21 f7 91 3f b8 e1 64 3f
       0.88679135 1.2811308 1.1403543 0.8940692
000020 01 12 8c 3f 69 33 57 3f e9 8f 8f 3f c6 27 6d 3f
       1.0942994 0.8406282 1.1215793 0.92638814
000030 44 95 5f 3f bd ff 70 3f 5d f1 76 3f 61 74 72 3f
       0.87337136 0.94140226 0.9646204 0.9470883

gnn_base.gnn.embed_layer.layer_norm.bias f4 [16]
000000 af 36 8f bc f9 25 d5 bd d9 49 01 be 61 6c 18 3e
       -0.01748213 -0.10407633 -0.12625827 0.14885093
000010 76 fd 84 3d ab 8b 28 3d b8 96 ad 3b 67 de e8 bd
       0.06493656 0.041148823 0.005297508 -0.11370545
000020 4b 55 ee 3c ca 54 1c 3d 75 16 70 bc 89 fb 3a 3e
       0.029093405 0.0381668 -0.014653792 0.18260016
000030 73 33 4d 3e 7e 7a 0a 3d 62 d1 1f bd bd a8 3f be
       0.20039158 0.033808224 -0.039018042 -0.18716712

gnn_base.gnn.embed_layer.entity_embed.weight f4 [4, 2]
000000 70 d7 f4 bf 24 c4 a2 bf 4a d9 cd bf 09 01 f9 3e
       -1.9128246 -1.2716107 -1.6081936 0.48633602
000010 5d 6b 5d 3f 49 18 03 c0 2b f0 5d be ef 29 26 3f
       0.8649195 -2.0483572 -0.21673648 0.64907736

gnn_base.gnn.embed_layer.lin1.weight f4 [16, 10]
000000 44 4a 06 3f ce 72 9c 3d d1 51 ce 3f 45 19 00 3d
       0.5245707 0.07639085 1.6118718 0.0312741
000010 de b5 b5 3e e9 f9 b2 3d e9 80 a7 bd 29 af 8a be
       0.35490316 0.08739073 -0.081788845 -0.27086762
000020 ff 07 1b bf 27 a7 ef bc 88 7b de bd 3f b4 a8 be
       -0.60559076 -0.02925451 -0.108634055 -0.32950017
000030 04 be ab bd e2 aa 9d bf 13 cc 88 3e 8b e5 06 be
       -0.08385852 -1.2317774 0.26718196 -0.13173501
000040 c3 92 4a 3d a3 db 8b be 39 5a fe bd e3 81 9e be
       0.04945637 -0.27316007 -0.12419552 -0.3095847
000050 4d b7 6d be 8a 7d c3 3e c3 dd f7 3e 54 26 a1 3d
       -0.23214455 0.38181716 0.48411378 0.07868639
000060 87 4a 78 bd 32 b3 00 3e 05 80 b7 3e a4 24 f2 be
       -0.06061795 0.12568358 0.3583986 -0.4729358
000070 67 0b a1 be 8b bc 09 3f e9 bf 75 3e 1c e5 c2 be
       -0.31454012 0.5380332 0.23998989 -0.38065422
000080 e7 58 bd bd 52 a4 56 bf 4d 9d 9f be 65 16 8e be
       -0.092454724 -0.8384448 -0.31174698 -0.2775146
000090 cc bc a1 be a0 e8 c2 3c 34 9c a8 3e 67 d7 ca be
       -0.31589353 0.023792565 0.32931674 -0.39617464
0000a0 36 f5 7d 3f 0f 52 27 3f 66 f1 2b 3e e5 60 52 3f
       0.9920229 0.65359586 0.16791305 0.821791
0000b0 9a e5 24 3f 1c f2 ca 3e 71 f0 84 be 90 69 28 3f
       0.64412844 0.3963784 -0.25964692 0.65786076
0000c0 d7 a4 69 bd 74 49 1c be 95 ea a6 bd 06 31 a2 3f
       -0.05704197 -0.15262395 -0.08150212 1.2671211
0000d0 de de de bd d5 be 20 40 2f 97 91 3d ea e1 6e be
       -0.10882352 2.5116475 0.07108914 -0.23328367
0000e0 e7 24 48 bd cd aa 00 bf 8c 2f de 3e 1c e6 e5 bd
       -0.048863318 -0.5026062 0.4339565 -0.112255305
0000f0 18 e0 e1 3d 41 26 0b 3f 5a 64 a5 3e fe 52 05 3f
       0.110290706 0.54355246 0.32303125 0.5207976
000100 75 51 98 3d 75 9d a2 3f 94 2e 74 be 36 d6 38 be
       0.07437412 1.2704302 -0.23845893 -0.18050465
000110 a4 8e 5e 3e 07 f9 43 3c a6 80 3a 3f c0 8d 1c 3e
       0.217341 0.011961228 0.7285255 0.15288448
000120 7d 07 9d be 7c b7 9b bb 52 6a ce bd 80 c9 69 3d
       -0.30669776 -0.0047520977 -0.10078873 0.05707693
000130 85 df 3f be 0e 9e db bd 09 aa ca be bd 8b 1a 3f
       -0.1873761 -0.10723506 -0.39582852 0.60369474
000140 79 6e 88 be 19 88 0d 3f 39 ad c8 be be be 3c 3e
       -0.26646784 0.55285794 -0.39194658 0.18432137
000150 f1 87 e3 3e 03 4e 18 be 09 cd ae 3d 71 dd db be
       0.44439653 -0.14873509 0.08535201 -0.42942384
000160 a0 6f 83 be 33 5d 9f be 98 2e 63 be 61 4f b9 be
       -0.256711 -0.31125793 -0.22185743 -0.36193374
000170 c4 77 12 3d f8 04 0a 3f bd 59 de bc 3b 6e da bd
       0.03575875 0.5391383 -0.0271424 -0.10665556
000180 b2 5d 8a 3a 84 a6 0c 3f 2f 76 e3 be 35 a4 b2 be
       0.0010556488 0.5494158 -0.44426104 -0.34890905
000190 2d 9e bf be e8 6a 2c 3f 74 3e be 3d 4b 63 59 be
       -0.37425366 0.67350626 0.09289256 -0.21229284
0001a0 11 a3 12 3e 64 93 0d be 22 35 f4 bc 50 5e 83 3f
       0.14320017 -0.13825756 -0.029810492 1.0263157
0001b0 46 a6 da be db 38 91 3d 2f 15 8e bf 18 61 35 be
       -0.42704982 0.070909224 -1.1100215 -0.1771282
0001c0 bb fc a3 bf 8c 30 99 bb 74 d8 78 be 32 8f 68 3e
       -1.2811502 -0.0046749767 -0.2430132 0.22710875
0001d0 6d 3c 03 bf 9d aa c5 be c8 a9 dc bd 4b f1 0a 3f
       -0.5126408 -0.3860673 -0.10774571 0.54274434
0001e0 68 62 28 bf 1d 68 27 bd f5 58 59 bf 24 43 00 bd
       -0.65775156 -0.040870775 -0.8490136 -0.03131403
0001f0 3f 0c 15 3f de fc 9d 3e eb 7f cf 3d 4e cd d4 be
       0.5822181 0.30856985 0.1013182 -0.41562885
000200 1b ff 04 3f 87 67 47 3f 7a cf 12 3e 74 12 b0 be
       0.5195176 0.77892345 0.14336959 -0.3438908
000210 7a 15 d1 3d df c6 9f be 47 75 dc 3e 1f b1 5e 3e
       0.102091745 -0.31206414 0.43058226 0.21747254
000220 03 25 10 be a0 fc 3f 3f 59 d8 2d be 86 59 aa 3e
       -0.14076619 0.7499485 -0.16977061 0.33271426
000230 78 6e a9 3f fc 43 09 3e cb b1 aa 3e 8b 0b 18 3f
       1.3236837 0.1340484 0.3333877 0.59392613
000240 48 44 64 3e 99 ac a3 be 70 83 8f 3e 22 f0 3e 3e
       0.22291672 -0.3196762 0.28029966 0.18646291
000250 32 62 47 3f 69 48 f3 3e 73 6e 87 3d 5a 67 26 bf
       0.7788421 0.47516182 0.066128634 -0.6500145
000260 38 91 2d be a1 c5 62 3e b7 04 8d 3e 76 59 44 bf
       -0.16949928 0.22145702 0.2754266 -0.76699007
000270 54 6a 03 3e ea 19 f9 3e 83 67 41 be 23 94 38 3e
       0.1283353 0.48652583 -0.18887143 0.1802526

gnn_base.gnn.embed_layer.lin1.bias f4 [16]
000000 2b 1c 06 bc 3d 4f 44 3e fe 11 ca 3d 4d 43 fa bc
       -0.008185427 0.19170852 0.09866713 -0.03054967
000010 ec 2b 09 3e a5 e4 22 3c 84 30 66 3e 79 89 06 3e
       0.13395661 0.009942208 0.22479445 0.13138379
000020 26 a5 41 bc f7 90 6c 3e e6 30 68 3b 73 0e a8 3d
       -0.01181916 0.23102175 0.0035429536 0.08205881
000030 ec f9 8f 3e 85 c1 07 3e 25 fd 4a be 77 5e 8b be
       0.28120363 0.13257416 -0.1982313 -0.27220508

gnn_base.gnn.embed_layer.layers.0.weight f4 [16, 16]
000000 e3 2b 4d 3f f4 fb 78 bf 56 36 1f 3e 62 15 21 3e
       0.8014509 -0.9725945 0.15548071 0.15730813
000010 dc ca c5 3e 65 a7 99 3e 72 aa cf be 25 7d fd bd
       0.38631332 0.30010524 -0.40559727 -0.12377385
000020 d1 c9 8c 3e 67 5d 44 be 90 35 37 be 9f fc 29 3f
       0.27497724 -0.19176255 -0.17891526 0.66401094
000030 a2 6a 30 bf 09 37 1b be 83 6e dc 3e 3e 44 e8 bd
       -0.6891271 -0.15157713 0.43053064 -0.11341141
000040 b2 c2 ba bc d7 d3 05 3e 6e f0 2c 3f 78 2a 0a 3f
       -0.022797916 0.13069092 0.67554367 0.5397105
000050 6a ae 67 be df 78 78 3e 83 8e 76 be c9 94 89 be
       -0.22625127 0.24264859 -0.24077801 -0.26871327
000060 85 1e 1d bf 99 80 fa 3e 55 d9 24 be 1b 5c b8 3e
       -0.61374694 0.48926237 -0.1609853 0.3600777
000070 c4 15 de bd fd 34 11 3e b6 7b 0f 3f 2b 5a 05 3f
       -0.10843995 0.1418037 0.5604814 0.5209071
000080 77 c9 7d 3e b1 f0 e5 3d e3 c7 a3 be be d1 2f 3e
       0.24783884 0.11227549 -0.3198844 0.17169854
000090 33 b6 e3 be 03 1d cb be 22 97 4d be b5 bd 8f 3e
       -0.44474944 -0.39670572 -0.20077184 0.28074422
0000a0 15 fa 32 3f 98 8a bc 3e d1 12 23 3d 32 cf d3 3e
       0.69912845 0.3682449 0.039812867 0.41369015
0000b0 dd 39 eb bd 4e f9 d1 3e c3 ef 34 be b3 d7 f5 3e
       -0.11485646 0.41010517 -0.17669587 0.48016128
0000c0 1b 20 ac bf 74 75 32 3d 6a ed 69 3d 97 9f bc bd
       -1.3447298 0.043569043 0.05711118 -0.09210127
0000d0 9d 36 08 bc d7 e5 a3 3e 3d 6e 8e 3e ef cb d6 3d
       -0.008313802 0.3201129 0.2781848 0.10488116
0000e0 e9 fc a3 3e 35 7b 39 bd b5 99 29 bd be 4a 67 3d
       0.32028893 -0.045283515 -0.041406352 0.056467764
0000f0 64 2e 27 3f 29 00 f4 3e 87 b6 0b bf 2b f3 06 3f
       0.6530516 0.47656372 -0.5457539 0.52714795
000100 ba f4 bf be 93 2d 6d bf 8b 57 ca 3e a9 90 3e 3f
       -0.374914 -0.92647666 0.39519915 0.74439484
000110 58 08 d6 3d 8e 8b 5b 3e 3c 40 e3 be f6 53 4a 3e
       0.1045081 0.21439955 -0.44384944 0.19758591
000120 5d ae c3 3e aa 58 0a be a0 47 2e 3f 76 c8 3d bf
       0.38218966 -0.13510385 0.6807804 -0.74134004
000130 c7 76 fa be 1d 8e bc 3e bb 09 2b be 38 dc b5 bd
       -0.48918745 0.36827174 -0.1670293 -0.08879894
000140 47 bf 36 bf 17 a5 94 3e 40 0c 91 be 19 47 f6 be
       -0.71385616 0.29032204 -0.28329659 -0.48101118
000150 d8 fd 1e 3e b1 6a 70 3e 3a 66 ae 3e 14 9e 71 3e
       0.15526521 0.234782 0.34062368 0.23595458
000160 c4 10 ac be e3 05 13 3f ea 2a 1a 3f 9f b6 e8 bd
       -0.3360654 0.5743086 0.6022173 -0.11362957
000170 84 4a 9b 3d 30 00 6f 3c 5b b4 dd 3e 2d bf c3 3e
       0.07582572 0.014587447 0.43301663 0.38231793
000180 b6 a0 47 3e 43 e8 14 3f 1f 32 e0 3d e1 60 1e 3f
       0.194949 0.58166903 0.1094706 0.61866575
000190 af ad 9e be 46 81 91 bf 26 1f 1a 3f 71 61 26 3e
       -0.30991885 -1.1367576 0.6020378 0.16248108
0001a0 f7 ff d4 bd 58 7c db 3d 6a 6e 0e 3e d2 ad 9c 3d
       -0.10400384 0.10717076 0.13909307 0.07650341
0001b0 a7 df a7 be b8 38 d1 be 97 d1 80 3e 4a ee d5 3e
       -0.3278782 -0.40863585 0.25159904 0.41783363
0001c0 b2 ed b2 bf f9 94 a3 be 07 4d 51 3d 41 1d bc 3d
       -1.3978789 -0.31949595 0.05109885 0.09185267
0001d0 d9 6d 06 be 1a 22 f6 bd 2d aa 77 3e f3 2d a0 bb
       -0.13127841 -0.12018223 0.2418601 -0.00488829
0001e0 1b 24 ae be f0 94 02 3f 5e cc c5 3d ec e7 43 3f
       -0.3401192 0.5100851 0.096581206 0.7652576
0001f0 fe 45 00 be 6a 09 85 bd 23 8e 5b bf 32 11 ae be
       -0.125267 -0.06495936 -0.8576376 -0.33997494
000200 f3 2e 18 be 1b a1 c0 3e 97 38 b3 3e 59 b2 b5 be
       -0.1486166 0.37622914 0.35004112 -0.3548763
000210 76 2b 59 3f 7c a2 95 3d ee cd 6c 3f e4 9b 79 3d
       0.8483194 0.07306382 0.92501724 0.060939685
000220 51 da 84 bd 7d 1a 02 3f 53 27 17 bf 57 2a f8 3e
       -0.06486953 0.5082167 -0.5904438 0.48469803
000230 b1 6a d6 3e a0 e3 9e bc 5c 2f 25 3f 13 8e 8f bf
       0.41878274 -0.01939565 0.6452539 -1.1215233
000240 1b c3 11 be 43 21 10 3f 8b 75 17 3d a6 a0 51 3e
       -0.14234583 0.56300753 0.036977332 0.20471439
000250 c5 f0 06 bf d8 93 ad bd 6b 80 2f 3d 86 56 5b 3e
       -0.52711135 -0.084754646 0.04284708 0.21419725
000260 99 9f 28 bf d6 fa 0d bf 6e 86 5f 3f 20 4f fb 3e
       -0.65868527 -0.5546087 0.873145 0.49083805
000270 90 92 cf 3e 8f 2f e1 3e c0 04 8d be ce 46 f3 be
       0.40541506 0.43981597 -0.27542686 -0.47514957
000280 be 7d 8f 3d cb 39 a4 3e 57 bc 60 bf f4 83 ee 3e
       0.07006405 0.32075343 -0.87787384 0.46585047
000290 88 3b ab 3e 05 e9 7f 3e 6d fc ce bd ed 18 2c bf
       0.33443856 0.24991234 -0.1010674 -0.67225534
0002a0 1c e6 f3 be dc 29 de be bb 43 56 bf 62 9a 82 3d
       -0.47636497 -0.4339131 -0.836971 0.063771024
0002b0 1a 41 4f 3e f9 03 0a 3f 76 0a 42 3e 9a 6c fb 3c
       0.20239678 0.5391231 0.18949303 0.030691434
0002c0 2a 23 e7 3e 6e 9c 3e 3d b3 70 50 bf 9a 90 6a be
       0.45144016 0.0465359 -0.81421965 -0.22906724
0002d0 93 9a 9c be 05 ea 70 3f 72 6f a2 bd 24 f4 15 3f
       -0.3058668 0.94107085 -0.07931413 0.58575654
0002e0 50 e8 44 bf 48 6f 56 3d 96 9a 65 be 1f ed 83 be
       -0.7691698 0.05235222 -0.22422251 -0.25766847
0002f0 82 32 98 bc e3 a8 cb 3c d3 a6 0a bf 6c 94 ac 3e
       -0.018578772 0.024860805 -0.54160804 0.33706987
000300 67 f0 03 3f d1 58 06 3e 3d 66 3d be cf 99 84 3e
       0.515387 0.13119818 -0.18496032 0.25898597
000310 0c 24 b7 3e 1d c3 00 be bb cf 0a 3f 3a 8e fc be
       0.3576969 -0.1257443 0.5422322 -0.4932726
000320 6d e3 53 bf 68 5e 1a 3e 09 6b 6e 3e e4 e8 21 3f
       -0.827689 0.15075076 0.23283018 0.6324599
000330 01 57 0b bf dd 0e 2f 3f 0e ed 1b bf 70 8f b9 3e
       -0.5442963 0.68382055 -0.6090859 0.36242247
000340 04 ed b6 3e 1f c1 6f 3e 1c b8 f5 be 7f ec 6a bc
       0.35727704 0.23413514 -0.47992027 -0.014338612
000350 b5 33 5b be 4d 0d 2e be 6a 27 3a 3f 55 62 20 bf
       -0.21406443 -0.16997261 0.7271639 -0.6265004
000360 31 1b 00 be 21 37 91 be 64 ed 7a bf ef 3e 41 3f
       -0.12510373 -0.28362373 -0.9801848 0.75486654
000370 f9 56 10 bf 65 55 bf 3e 99 ff e9 3e a1 92 86 bf
       -0.5638271 0.37369838 0.45702818 -1.0513498
000380 d2 95 6b 3e ad 45 83 bf dd f3 91 3e 76 eb 54 be
       0.2300637 -1.0255638 0.28506365 -0.20792946
000390 8e fd 3d bf e8 f6 96 be c8 4e b6 3d 4a f1 ec 3e
       -0.7421502 -0.2948525 0.08901745 0.4627784
0003a0 9b 72 bd bd 96 e9 f9 be 98 ce a6 be ec c5 09 3e
       -0.09250375 -0.48811024 -0.32579494 0.13454407
0003b0 e1 22 86 bc 9a d7 98 be a3 50 23 bf 20 e7 e8 3d
       -0.016374053 -0.2985199 -0.63794917 0.113722086
0003c0 96 35 7a be 8e e1 1b 3f a6 52 aa 3e b6 83 9d bb
       -0.24434504 0.60891044 0.3326618 -0.004806961
0003d0 34 72 82 3e 83 00 2b be a9 44 2d bf ac 79 f6 3e
       0.25477755 -0.16699414 -0.6768289 0.48139703
0003e0 09 74 da be fa fd bc bc 46 0d 90 be 24 d4 71 3e
       -0.42666653 -0.023070324 -0.28135127 0.23616081
0003f0 79 7e e0 be 45 6b fe 3d 05 80 86 be 39 36 3e be
       -0.4384649 0.12422804 -0.26269546 -0.18575372

gnn_base.gnn.embed_layer.layers.0.bias f4 [16]
000000 39 5b 9d 3d 6a 86 ad 3d 5d b2 f0 bc 67 d8 58 bd
       0.07683415 0.08472903 -0.029381925 -0.052940752
000010 af b3 b8 3d 18 10 f5 bd 46 a3 1f bd fd fa f2 3d
       0.09018647 -0.1196596 -0.03897407 0.118642785
000020 28 49 ff bd 3a c1 df 3d 6e 4e 58 3e 01 e7 92 3d
       -0.12465125 0.10925527 0.21123669 0.07172967
000030 77 29 67 bc 5a 02 91 3c dd aa 1a 3d f4 65 57 bd
       -0.014109007 0.017701317 0.037760604 -0.052587464

gnn_base.gnn.embed_layer.layers.2.weight f4 [16]
000000 c0 d4 8a 3f 54 c4 b0 3f 0d 7e 4e 3f 3a 4c 59 3f
       1.0846176 1.3809915 0.8066109 0.8488194
000010 c2 04 63 3f 18 fc a3 3f 21 f7 91 3f b8 e1 64 3f
       0.88679135 1.2811308 1.1403543 0.8940692
000020 01 12 8c 3f 69 33 57 3f e9 8f 8f 3f c6 27 6d 3f
       1.0942994 0.8406282 1.1215793 0.92638814
000030 44 95 5f 3f bd ff 70 3f 5d f1 76 3f 61 74 72 3f
       0.87337136 0.94140226 0.9646204 0.9470883

gnn_base.gnn.embed_layer.layers.2.bias f4 [16]
000000 af 36 8f bc f9 25 d5 bd d9 49 01 be 61 6c 18 3e
       -0.01748213 -0.10407633 -0.12625827 0.14885093
000010 76 fd 84 3d ab 8b 28 3d b8 96 ad 3b 67 de e8 bd
       0.06493656 0.041148823 0.005297508 -0.11370545
000020 4b 55 ee 3c ca 54 1c 3d 75 16 70 bc 89 fb 3a 3e
       0.029093405 0.0381668 -0.014653792 0.18260016
000030 73 33 4d 3e 7e 7a 0a 3d 62 d1 1f bd bd a8 3f be
       0.20039158 0.033808224 -0.039018042 -0.18716712

gnn_base.gnn.gnn1.lin_key.weight f4 [48, 16]
000000 81 96 3f bf f7 96 80 be 7b dd 94 3e b5 cf 92 3e
       -0.74839026 -0.25115177 0.29075226 0.28674093
000010 f2 8b e9 bb 72 c1 20 3e 1a 04 07 bd e2 d4 12 bf
       -0.0071272785 0.15698794 -0.032962896 -0.57356083
000020 23 ae ff 3d 38 a7 f2 3d 01 0a e8 bc df 0d 30 3f
       0.12484386 0.11848301 -0.028325083 0.68771166
000030 06 6a 90 bd 91 e7 b4 be 35 9f 9b be 14 ad 04 3f
       -0.07051472 -0.3533292 -0.30394903 0.51826596
000040 1b a9 e3 3e 6e 7a 3f bd 91 03 f9 be 7b d9 74 3e
       0.44464955 -0.046747617 -0.48635533 0.23911087
000050 6c 38 60 bd 15 6b 3a 3e f9 5a af 3d a2 a7 16 bb
       -0.054741308 0.18204911 0.085622735 -0.00229881
000060 49 21 d0 3c 18 9c e7 3c 6e 1b 33 be 0d 2d cd bd
       0.025406497 0.028272673 -0.17490932 -0.100183584
000070 1a 7f 08 3f 61 38 1c bd c4 81 26 ba e5 0d 94 be
       0.5331894 -0.038139705 -0.0006351734 -0.2891685
000080 60 d0 9e 3e bf d6 c2 3d 2b b4 ab 3e ef 41 65 be
       0.31018353 0.09513616 0.33535895 -0.22388433
000090 92 50 84 be f2 12 a4 3c 57 50 ae be f0 88 e1 bc
       -0.2584272 0.020028565 -0.3404567 -0.027531117
0000a0 ff 56 b1 be ca cd 45 3e ff df 96 3e 0e ff 8f be
       -0.34636685 0.19316784 0.2946777 -0.2812428
0000b0 1b c7 9f 3e 62 a4 8f 3e a4 c8 61 3e 83 79 f8 bd
       0.31206593 0.28055102 0.22049195 -0.121325515
0000c0 dc e5 6f be d5 45 2a 3e 02 48 1e 3f 14 ec e6 bd
       -0.23427528 0.16628201 0.61828625 -0.11275497
0000d0 c3 cd f0 bd 74 68 50 be 6b e1 8f 3e 5c 36 87 3d
       -0.11757996 -0.20352346 0.28101668 0.06602165
0000e0 14 c0 be bd dc dd 74 3e a7 b0 38 be 47 d4 20 3e
       -0.0931398 0.23912758 -0.18036138 0.15705977
0000f0 32 2a 40 be f0 99 d2 be 31 cd 80 3d 49 85 03 3f
       -0.18766096 -0.4113307 0.06289137 0.5137525
000100 cb 7e 1f bf e1 9c e5 be a1 cc 8e 3d 0d de 06 3b
       -0.62302846 -0.44846252 0.069726236 0.002057913
000110 6f f1 c9 bd fb f8 84 3e 1b cd 22 be 59 c6 b5 3e
       -0.09860503 0.25971207 -0.15898554 0.3550289
000120 bf 3e 28 bd 03 ee 07 be ed bd 07 3e 1d 78 2e 3f
       -0.041075464 -0.13274388 0.13256045 0.6815203
000130 e9 82 a9 bb 27 9b 78 3e 38 69 89 3e 55 f3 a3 3d
       -0.0051730764 0.24277936 0.26838088 0.08005396
000140 dc 71 88 bd f3 92 87 be 70 ec 3e bf 7c 2e 53 3e
       -0.06662342 -0.264793 -0.74579525 0.20623201
000150 d5 91 a8 3c 6a 86 0f be 03 16 20 be 16 90 b5 bd
       0.02057735 -0.14016119 -0.15633397 -0.08865373
000160 b5 5f 60 bd e2 2b 04 3e b0 e2 26 be 9b a9 cb 3e
       -0.054778773 0.12907365 -0.16297412 0.39777836
000170 db 99 d5 3d 83 ae ce bd 38 d0 1e 3e 4a f1 4b 3e
       0.10429736 -0.10091879 0.15509117 0.19916263
000180 19 a3 74 3c 9b 50 3b 3e 1c 39 7b 3e e1 6e fc be
       0.014931464 0.18292467 0.24533504 -0.49303344
000190 9e 90 5e 3e 8f 96 76 be 14 2b 2a 3f 1d 9b 44 3e
       0.21734855 -0.24080871 0.6647198 0.19199796
0001a0 7a 6b 23 3e a2 e4 9d 3d 16 03 33 3e 3c 60 c1 3d
       0.15958968 0.07709624 0.17481646 0.094421834
0001b0 cb 96 e7 be 77 32 1b 3d 14 58 79 bd 68 04 20 3f
       -0.45232233 0.037889924 -0.060875013 0.62506723
0001c0 a4 f4 f1 bd 2b 9f 5a be b3 6c 35 bf f0 a2 b9 3d
       -0.118142396 -0.2134978 -0.70868987 0.09064281
0001d0 0b 56 b4 3d a8 88 79 3e 9f f4 f9 be eb 4d 70 3e
       0.08805474 0.24368536 -0.48819444 0.23467223
0001e0 ad 03 8b 3e 33 8d 8f 3e 0f 6b 63 bd 66 3c a0 3d
       0.27151242 0.28037414 -0.05552202 0.0782402
0001f0 b7 87 99 3e cf c5 ac bd 09 1b e6 3e 77 71 fa 3d
       0.29986355 -0.084361665 0.449425 0.12228673
000200 94 b8 fa 3d 74 c3 ae 3d 6b 91 be be 22 cc 56 3e
       0.12242237 0.085333735 -0.3722032 0.20976308
000210 0c ce 06 be 20 c1 3c 3e 5c 10 d3 be e6 01 0f be
       -0.13164538 0.18433046 -0.4122342 -0.13965568
000220 94 7a 0f be de 01 19 3e 67 4d c1 3c d9 c2 c6 be
       -0.14011604 0.14942119 0.023596479 -0.38820532
000230 35 b5 1b 3f 73 10 86 bc fd fe 21 3c dd 0b 26 bf
       0.60823375 -0.016365265 0.009887454 -0.6486185
000240 8f 66 8e be e6 a1 76 be 77 d1 12 3f 7e 5a 1b be
       -0.2781262 -0.24085197 0.5735087 -0.15171239
000250 da 23 54 be bc aa 82 be 52 46 c6 bc e2 d9 af 3e
       -0.20716801 -0.25520885 -0.024203453 0.3434592
000260 7e 2f 05 3e cc c9 79 3e 16 bd 93 3b 2b b4 e3 3e
       0.13006398 0.24393386 0.004508625 0.44473395
000270 08 15 72 be 6c ea 29 be f2 70 09 3f cf be d5 bd
       -0.23640835 -0.16593331 0.53687966 -0.104367845
000280 de e8 74 3e a6 db 3a 3d 21 80 4f be ce 0f 7e bc
       0.23916957 0.04561963 -0.20263721 -0.015506698
000290 69 a1 48 3e 47 3b 7b 3e c3 3f f1 bb ae 49 a2 bd
       0.19592823 0.24534331 -0.0073623373 -0.079242095
0002a0 94 c7 2e 3e 6f 8e f2 be 14 84 0a be 0e 52 6c be
       0.1706832 -0.47374293 -0.13526946 -0.23078176
0002b0 51 f8 87 3e 9f 2f cf 3e d7 80 94 be fc 29 cf 3e
       0.26556638 0.4046602 -0.29004547 0.4046172
0002c0 58 dd 32 3e 2b 5c 11 be a7 01 3c bf e7 f2 ee 3d
       0.17467248 -0.14195316 -0.7344002 0.11667424
0002d0 89 8b 4b 3e d9 8b 57 be a2 3f b1 3e 11 77 38 be
       0.19877447 -0.21049441 0.3461886 -0.1801417
0002e0 8c 89 88 be 0d 38 94 be 79 3b 85 be a9 6a 0b bf
       -0.2666744 -0.28949013 -0.26021937 -0.54459625
0002f0 76 0a 82 bd 65 ce 87 3e 54 de ea be 9c 2b 17 3c
       -0.063496515 0.26524654 -0.45872748 0.009226706
000300 ab 11 34 ba 71 fb d9 bb f5 30 c3 bd 54 76 17 3f
       -0.0006869088 -0.0066522886 -0.09530822 0.5916493
000310 91 23 a5 be 09 65 73 3e 58 eb b7 be d6 f2 20 be
       -0.32253698 0.2376901 -0.3592174 -0.15717635
000320 29 08 3f be 0c d6 18 3d 41 a0 c1 bd 97 8c 84 be
       -0.18655457 0.037313506 -0.09454394 -0.25888512
000330 69 68 ef 3e b3 ec 8e be cb 2b a7 be 8b f4 4e bd
       0.46759346 -0.27914962 -0.326506 -0.050526183
000340 66 07 d9 3e 2f 46 71 be 5e eb 57 bf 8b 7f 26 3e
       0.42388457 -0.23561929 -0.84343517 0.16259591
000350 68 81 9d 3e 7c c2 5f 3d 68 ba 21 3e f7 47 80 be
       0.30762792 0.054628834 0.15793765 -0.25054905
000360 bf c7 85 be c2 01 a0 bd 02 a2 37 3c 20 4a 6b 3e
       -0.26128957 -0.07812835 0.011208059 0.22977495
000370 58 a0 e2 be b2 45 01 3e a9 08 e0 3e 42 d6 0f be
       -0.44262958 0.12624243 0.43756607 -0.14046577
000380 72 91 a7 3d f8 89 36 3d a5 ef 5c be a7 36 a9 3d
       0.08182038 0.04456517 -0.21575792 0.08262377
000390 46 7b 6e be 77 a1 c5 3d ac fb ea be 47 15 f5 bd
       -0.23289213 0.096499376 -0.45895135 -0.11966949
0003a0 a8 66 14 be c0 63 a0 be ef 24 96 3e ae bc be bd
       -0.14492285 -0.31326103 0.29325053 -0.093133315
0003b0 4e ef c8 3e 00 39 96 3e 1d 4a 55 be 9f 5d 19 3e
       0.39245075 0.29340363 -0.20829053 0.1497712
0003c0 ee 18 eb bd 91 4b eb 3d 54 26 f1 3e 01 18 4c bd
       -0.11479364 0.114890225 0.47099555 -0.04982758
0003d0 ed ea 01 bf b7 89 9c 3c 59 0e bc be 40 18 db be
       -0.50749093 0.019108636 -0.36729696 -0.4279194
0003e0 5f b8 c6 bd ab 5c d9 3e f0 37 90 be 13 4d 8f 3e
       -0.09703135 0.42453513 -0.28167677 0.2798849
0003f0 49 82 6c 3e c8 0a 50 bc 9d 7a 43 be e4 51 66 3e
       0.23096575 -0.012697883 -0.19089742 0.22492176

gnn_base.gnn.gnn1.lin_key.bias f4 [48]
000000 26 fd a7 bd 59 5d 80 3d f7 32 f4 bc 86 7d 7d be
       -0.08202581 0.06267805 -0.029809458 -0.24754915
000010 b6 15 14 be 9b fb 22 be 83 96 17 3e e1 5f ed 3d
       -0.14461407 -0.15916292 0.1480351 0.11590553
000020 fa 95 14 3e 1d a3 1f 3e 3e be ec bd fc f0 2f 3e
       0.14510337 0.15589567 -0.11559723 0.17181772
000030 57 53 70 3e e6 8f 9a 3d c9 43 39 3e e2 ed 6d bc
       0.23469292 0.07546978 0.18092264 -0.014522048
000040 bd 5b 0d 3e cd 40 7d 3e ae 08 f7 bd 07 90 5e 3e
       0.13804527 0.24731751 -0.120622024 0.2173463
000050 16 81 03 be 5f e2 08 3e e4 75 8b bd 12 8b 01 be
       -0.12842211 0.13367604 -0.06809595 -0.12650707
000060 c9 94 58 3e dc b1 67 3e 7c 7e 08 bd a1 b9 7c be
       0.21150507 0.22626442 -0.03332375 -0.24680187
000070 20 7e 74 be b2 06 07 3e 35 af 6a be e3 1c cb 3b
       -0.23876238 0.13186148 -0.22918399 0.006198512
000080 a2 b6 42 be a7 b7 45 bc a2 e7 d1 3c b4 24 b2 bd
       -0.19014981 -0.012067712 0.025623146 -0.08698407
000090 34 b2 9c bd da c6 34 3e 74 9f 33 be 20 54 10 be
       -0.07651177 0.17653981 -0.17541295 -0.14094591
0000a0 89 af 2f 3c e8 19 b6 3d 13 6b 21 3e a7 40 b5 3d
       0.010723003 0.0889166 0.15763502 0.08850222
0000b0 48 c1 90 bd e9 fd 02 3e 71 64 ff 3d 8a b5 44 3e
       -0.070681155 0.12792172 0.124703296 0.19209877

gnn_base.gnn.gnn1.lin_query.weight f4 [48, 16]
000000 bc 66 b6 3e 26 49 0e 3f d2 b7 2c bf 40 2f c0 3e
       0.35625255 0.55580366 -0.6746799 0.3753605
000010 c2 1a 9c bd bf 7f 35 3e 1c 6d 58 be 81 23 7e 3d
       -0.07622291 0.17724513 -0.21135372 0.062045578
000020 30 e2 75 bc eb a0 bf bd 7e 04 c4 3e 9b 6f bc 3d
       -0.015007541 -0.093568645 0.38284677 0.092009746
000030 e5 84 09 bf f3 0f 2f 3f 45 cc 99 bd 71 8a 4b be
       -0.53718406 0.6838371 -0.075096644 -0.1987703
000040 b0 f8 ac 3e 86 78 67 be c6 4f 5c 3e a1 b5 e1 3e
       0.33783484 -0.2260457 0.21514806 0.44083884
000050 7e 8c 35 be d5 7c 90 be ca f6 71 be 97 a9 ab 3e
       -0.17729375 -0.2822024 -0.23629299 0.33527824
000060 95 6b b3 3e 18 92 dc 3d 06 57 49 3e 95 70 fa 3d
       0.35043016 0.10770053 0.19662103 0.122285046
000070 09 cf 0b 3f f2 44 d3 bd e3 be 06 bf 32 85 60 be
       0.54612786 -0.10315885 -0.5263502 -0.2192581
000080 c0 df ab 3d e8 db 81 be 9f 09 c1 3d dd c4 17 bd
       0.08392286 -0.25363088 0.09425663 -0.037052978
000090 7a 68 fa 3e 56 25 08 be 2d 27 0b 3d bf b1 09 bd
       0.48907834 -0.13295493 0.033972908 -0.033616778
0000a0 a6 6a e0 bd 18 88 79 3e 19 37 ac 3d b9 1c 50 be
       -0.109578416 0.24368322 0.084089465 -0.20323457
0000b0 ed f0 0b 3f 39 31 c6 be ad cb c9 3e 69 17 50 bd
       0.546645 -0.3870943 0.39413205 -0.050803576
0000c0 c9 8c 1d be b2 81 ef 3e 36 de 0d 3e d6 d1 dc bd
       -0.15385737 0.46778637 0.13854298 -0.107822105
0000d0 e3 53 84 3d 88 61 66 3e e2 c3 bd be 1f 16 af bd
       0.064613126 0.22498143 -0.3706351 -0.08549141
0000e0 7c 31 c7 bd 00 03 4c 3e bf ca 80 3e 4b 6d aa be
       -0.09726235 0.1992302 0.25154683 -0.3328651
0000f0 29 ad 07 bf 45 87 53 3e 4a 87 c5 3e 08 96 14 3d
       -0.52998596 0.2065707 0.3857978 0.036275893
000100 f4 62 54 bb ad b0 b6 3d 42 58 ca be 97 54 cd 3e
       -0.0032407613 0.08920417 -0.3952046 0.401036
000110 d1 fd d1 bd 3c 69 a9 bd a3 00 92 3e b3 17 9c be
       -0.1025349 -0.08272025 0.2851611 -0.3048683
000120 9f e6 45 3f 60 24 7d bd 26 6a 88 3c 6f 88 13 3f
       0.77305025 -0.061802268 0.016652178 0.57630056
000130 dc 89 de bb cc 4c c2 3d e1 3a eb bc af ba 19 be
       -0.0067913365 0.09487304 -0.0287146 -0.1501262
000140 20 bf b9 3d 4b 74 04 be 14 85 b2 bd 04 55 0b bf
       0.09069657 -0.12934987 -0.08716789 -0.544266
000150 57 36 92 3e c7 42 b4 3e 53 e9 d7 3e 28 5d 86 3d
       0.28557083 0.35207197 0.421702 0.06560737
000160 e7 ad 5e 3e 07 3a 06 be 90 d9 98 3e a9 e8 b2 3e
       0.21746026 -0.13108073 0.29853487 0.3494313
000170 d6 12 a2 be ea 54 52 bc 78 a0 11 be 7f b5 8e be
       -0.31654996 -0.012837628 -0.1422137 -0.27872846
000180 ee d1 5f 3e 22 c2 ae 3e a4 0c cc 3e e7 81 e1 bd
       0.21857426 0.34132487 0.39853394 -0.11011105
000190 61 c6 a1 be e3 c0 95 3e b8 3f c7 3d dc 0e 8f bc
       -0.31596664 0.29248723 0.0972895 -0.01746314
0001a0 5b 8b a8 be d5 c4 f0 3c 6e f5 cd 3d 4b e3 19 be
       -0.3291882 0.029390732 0.100565776 -0.15028112
0001b0 72 0d 2c bf fd 11 2f be 4f b0 06 3a 8d c2 53 3e
       -0.67208016 -0.17096706 0.00051379664 0.20679684
0001c0 38 b6 12 3e 60 a4 89 be 85 7e 7b be 69 0d 00 be
       0.14327323 -0.2688322 -0.24559982 -0.12505116
0001d0 50 8b a7 be ed d1 25 be e5 53 03 3f 9b b5 ab 3c
       -0.32723475 -0.16193362 0.5129989 0.02096062
0001e0 a9 27 d2 3e a2 88 ca 3c 11 cd 8c 3d 9e c6 70 3e
       0.41045883 0.024723355 0.06875051 0.23513266
0001f0 7d 21 99 3e b0 3c 21 3e 36 6b 9b bd 1c f6 35 bf
       0.29908362 0.15745807 -0.07588808 -0.7107866
000200 80 a7 88 3e a0 0d 85 be 66 ff 97 be 6c fc 09 be
       0.26690292 -0.25986958 -0.2968704 -0.13475198
000210 43 a1 20 3e 7c 3f 86 be ec 06 b7 39 61 9b a2 3d
       0.15686516 -0.2622031 0.00034909637 0.079397924
000220 e7 a7 9b 3d 5d 06 51 3e 56 e0 a7 bd b1 b1 1c 3e
       0.07600384 0.20412584 -0.081970856 0.15302159
000230 3b e1 4c 3f ad 54 ba 3d 2b 1a c1 bd fe 75 46 be
       0.80031174 0.09098182 -0.09428819 -0.19380948
000240 5e 0c 1c bd 32 87 7b be 42 31 2f be 08 63 2b be
       -0.03809773 -0.24563292 -0.17108634 -0.16736996
000250 ae 4a d4 3d d7 ec 4e 3e 80 b5 d7 be 9e 73 2d be
       0.103658065 0.20207535 -0.4213066 -0.16938636
000260 e7 04 cd 3e b1 ab 44 be dc 82 55 be fe f7 17 3e
       0.40042803 -0.1920612 -0.208507 0.14840695
000270 be f7 c4 be dc 89 8c bd 7b ee 5b 3f c4 0c 40 3d
       -0.38470262 -0.06862232 0.8591077 0.046887174
000280 44 a7 db 3d b5 a1 4b be 82 3d bc 3e 8e fc 41 3f
       0.10725263 -0.19885905 0.36765677 0.7577599
000290 79 f0 9c be da 98 21 3a 47 93 25 3e 72 84 a4 bd
       -0.30652216 0.0006164439 0.16169463 -0.080330744
0002a0 8f 29 ba 3d 9f 76 fa 3d 29 54 3f 3d ec 35 83 3e
       0.09089958 0.122296564 0.04671112 0.25627077
0002b0 a9 b8 9c 3e 83 61 d1 bd 92 c0 50 bf cc 9c c2 3d
       0.30609635 -0.10223677 -0.8154384 0.09502563
0002c0 90 ed 98 3e e7 d8 94 3b e8 98 07 3e 4d e9 59 3e
       0.29868746 0.0045424583 0.13241923 0.21280403
0002d0 9e 84 4e be ba 2c 6b 3e 0b 76 cc 3e 3e 1b 89 be
       -0.20167777 0.2296628 0.3993381 -0.26778597
0002e0 07 ca b8 be 29 c8 6e be 52 d0 bb bd 6e 32 32 bd
       -0.36091635 -0.23318543 -0.09170593 -0.043505125
0002f0 33 7b 16 3e 25 c5 92 3d 4d 29 54 bf 5c bb 26 3d
       0.14695434 0.071665086 -0.8287552 0.040706024
000300 3d 7e 60 3d c1 66 48 be ba 72 bd be eb cf 97 be
       0.05480789 -0.19570448 -0.37001592 -0.29650816
000310 63 5f bd 3e 5e 99 a3 bc 69 a4 a6 bd 58 a6 26 bf
       0.36986837 -0.019970592 -0.081368275 -0.6509757
000320 21 a0 fd bd a8 de 3c 3e 93 f9 98 3e 4c 0d 0b 3e
       -0.12384058 0.18444312 0.2987791 0.13579291
000330 8e f3 0b 3d ab 72 09 3e 76 90 69 be ac e6 d3 bd
       0.03416782 0.13422649 -0.22809014 -0.103467315
000340 e1 f9 9e be a5 96 84 be 95 3a e6 3e f1 ed 4f bf
       -0.31050017 -0.25896183 0.4496657 -0.81222445
000350 09 71 7a bb 00 ae 4e bd 8c c8 92 3e f2 3b 96 3e
       -0.0038214347 -0.050458908 0.2866863 0.2934261
000360 27 b0 bf 3e 03 1b 13 bf 7f 53 a7 3d fe 76 d2 3d
       0.3743908 -0.5746309 0.081702225 0.10276602
000370 9f 90 e7 bd 05 69 3a be 29 a1 e7 be d2 ed d1 3e
       -0.11306881 -0.18204124 -0.45240143 0.41001755
000380 31 9b d5 bd ff c7 0c bf 34 fe 93 be b6 57 5c 3f
       -0.10429991 -0.5499267 -0.2890488 0.86071336
000390 06 9f 8f 3e 8a 81 62 be 29 c6 2f 3d 3c d8 6b bb
       0.28051013 -0.22119728 0.04291359 -0.003598704
0003a0 f9 f6 74 3d 11 00 e8 3d a8 58 6f 3d e9 15 e2 be
       0.059805844 0.11328138 0.05843416 -0.4415734
0003b0 c3 33 28 3e 97 d0 26 3d df a1 41 bf 0b 3c 40 be
       0.16425996 0.04072627 -0.7563762 -0.18772905
0003c0 9e 1b 45 3e 50 27 a4 3e 11 11 af bd 4f f6 2a 3f
       0.19248816 0.32061243 -0.08548177 0.6678209
0003d0 bb 65 0a 3f 32 15 d4 bb 20 50 de be 1c fb a1 bd
       0.5406148 -0.0064722532 -0.43420506 -0.079092234
0003e0 84 3c 59 bd 14 34 a4 3d 12 1a f3 3e 7b ed 87 be
       -0.053036228 0.080177456 0.47480828 -0.2654837
0003f0 c4 36 59 3e e7 86 83 3c cc 6b 3b 3e 42 4f 31 bf
       0.21212298 0.016055537 0.1830284 -0.6926156

gnn_base.gnn.gnn1.lin_query.bias f4 [48]
000000 a0 a1 94 be 27 1e 47 be 8c e9 c4 bd 33 04 9f 3d
       -0.2902956 -0.19445096 -0.09614858 0.07764473
000010 20 e5 26 3d 48 e9 b1 bb 5d b9 85 3e 4e 3f a6 be
       0.040745854 -0.0054294206 0.26117983 -0.32470173
000020 e7 cb 92 bd e1 a5 cb 3e 9a 34 93 be d6 96 b9 3d
       -0.071677975 0.39774993 -0.2875107 0.09061973
000030 6a 2c e6 bd 83 c9 a4 3d 41 ff 12 3e 13 e7 07 bd
       -0.1123894 0.08046248 0.14355184 -0.033179354
000040 fe 2a 8c be b8 e8 72 3e 59 54 02 bc 67 a1 e5 bc
       -0.2737655 0.23721588 -0.00795468 -0.028031064
000050 9f f5 c4 bd e4 19 24 be 97 ad 17 3e 4d d4 89 3e
       -0.09617161 -0.16025501 0.14812313 0.26919785
000060 4f 57 a8 be d2 52 f5 3d fa 24 54 be 2e 08 83 be
       -0.3287911 0.11978687 -0.2071723 -0.25592178
000070 46 3c 0a 3f ed d5 90 bc 2f 2b af 3d 1b 99 8a 3e
       0.5399822 -0.017680133 0.085531585 0.27069935
000080 18 5f 2c be 12 b2 40 3f c8 1e 2e 3d 1c 1b 00 be
       -0.1683315 0.75271714 0.042509824 -0.12510341
000090 9e c8 4b 3e b5 43 df be 2d c0 a3 3e 43 8c 06 bf
       0.19900748 -0.43606344 0.31982556 -0.5255777
0000a0 68 6b 4a 3e aa 07 d5 3c 85 ba 47 3d ed 43 93 3d
       0.19767535 0.026004631 0.048761863 0.0719069
0000b0 3f a7 ac bd be 66 81 3d ca b3 93 3e b8 30 6d bd
       -0.08430337 0.06318425 0.28848106 -0.05790779

gnn_base.gnn.gnn1.lin_value.weight f4 [48, 16]
000000 f4 f3 37 bd 0d 37 91 3e d7 82 b6 3e 86 4e 89 be
       -0.044910386 0.28362313 0.35646698 -0.2681772
000010 ff 14 84 be 25 66 2b 3e 39 66 88 3e 9a 8e a0 3e
       -0.2579727 0.16738184 0.2664049 0.31358796
000020 dc 43 df 3e 88 3a af be 55 c0 8f bd a2 63 71 be
       0.4360646 -0.34224343 -0.07019106 -0.23573163
000030 5d e1 1b be 58 96 90 bc d1 36 00 bf 16 22 84 3e
       -0.15222688 -0.017649814 -0.50083643 0.25807256
000040 2d 42 d4 3c 11 d3 59 3e 8c ec 91 bd b9 9b b0 3e
       0.025910461 0.21271922 -0.07125196 0.34493807
000050 08 03 30 3d 15 d7 97 be ab 01 a1 bd d3 88 8c be
       0.04297164 -0.29656282 -0.07861646 -0.2744814
000060 4c bc a3 3e d9 ba 1c bf a2 92 48 3e 5f aa 19 bd
       0.31979597 -0.61222607 0.19587186 -0.037515994
000070 b2 e8 06 3f 9a ab b8 bc 32 5b b8 3e 61 12 cc bd
       0.52698815 -0.022542764 0.36007077 -0.09964443
000080 c6 1a 26 be 1c ca 31 be b1 ee e1 bd 7e 41 d4 3d
       -0.16221151 -0.17362255 -0.11031855 0.10364054
000090 09 e9 bb 3e a4 4e a8 bd 13 81 59 be 40 e3 09 3e
       0.3670123 -0.082181245 -0.21240644 0.13465595
0000a0 b7 f0 86 3e ee 42 77 3e f3 05 07 be 43 35 82 3e
       0.26355526 0.24146625 -0.13185863 0.2543126
0000b0 1a b7 b2 bb 65 ea 75 be 65 86 ea bc 2d 7b ca 3d
       -0.0054539563 -0.24015196 -0.028628537 0.09886775
0000c0 ba f7 32 3e b7 d1 88 3e b0 55 50 3e 99 99 d6 3e
       0.17477313 0.267225 0.20345187 0.4191406
0000d0 14 db 8f bd 98 3f 32 bd 4b 44 a7 be 45 75 33 be
       -0.07024208 -0.04351768 -0.3266929 -0.17525204
0000e0 f6 96 19 3d 6a ce ba 3d 8e 52 50 3e 9f 13 40 be
       0.037497483 0.091214016 0.20343992 -0.18757485
0000f0 6a 80 4d be 54 72 ab bc df a0 e3 bd e6 63 8c be
       -0.20068517 -0.02092854 -0.11114668 -0.27419966
000100 17 35 80 bd fa 49 d1 3b bb 36 a9 bd 9d 65 89 bd
       -0.06260126 0.0063869925 -0.08262392 -0.06708834
000110 8c c0 be 3e 4b c3 58 bd 9f 42 a0 be a8 d7 ab bc
       0.37256277 -0.05292062 -0.31300828 -0.020976856
000120 5d c2 1b 3d 6d 57 91 be 1e 08 4b 3e 0c e8 dd 3d
       0.038027156 -0.28387013 0.19827315 0.10835275
000130 01 37 5b 3e b7 df 86 3d 56 f6 6d 3e ed 21 60 3e
       0.21407701 0.06585639 0.23238501 0.21887942
000140 0a 5c 0b be d6 7c e8 3b d8 29 f3 be d1 28 93 be
       -0.13609329 0.0070949597 -0.47492862 -0.28742078
000150 04 d6 27 3e 67 83 ef bd 73 e6 3f be ed 47 ca 3d
       0.16390234 -0.11694985 -0.18740253 0.09877
000160 56 da d7 3e 38 c7 80 bc 5f 96 b2 3d a7 42 47 3d
       0.42158765 -0.015719995 0.08720087 0.04864755
000170 83 35 28 3d b4 32 5d 3d 1d 87 aa bd c2 60 8b 3e
       0.041066658 0.054003432 -0.08326552 0.27222258
000180 02 ac d8 be b6 9c d5 be fc 82 ed 3c 40 bd 52 3e
       -0.42318732 -0.41721123 0.028993122 0.20580006
000190 a2 76 a1 bd cf 34 6a be 87 04 6f 3d 85 71 be be
       -0.078839555 -0.22871707 0.058353927 -0.37195984
0001a0 5f 82 2a 3d 18 41 e5 bc 51 96 62 be 86 83 77 3d
       0.041628238 -0.02798514 -0.22127654 0.060428165
0001b0 09 3d 67 be e3 d6 f6 3e c9 53 96 3d 1e d5 08 3f
       -0.22581877 0.4821082 0.073401995 0.5345019
0001c0 ec 6e 0a bd 58 7f a3 be 0a ca 01 be 63 b5 f9 be
       -0.03379719 -0.31933093 -0.12674728 -0.487712
0001d0 ac 84 85 3d 5d 15 70 3e 28 1b 3a 3e 43 09 9b bd
       0.06519446 0.2344565 0.18174422 -0.07570126
0001e0 a4 61 81 3e 69 81 b9 3e a8 3b 4a be 5b 19 9c 3d
       0.25269806 0.36231545 -0.1974932 0.07622024
0001f0 85 d8 6c 3e eb a8 49 be 15 fb 32 3b 56 29 5e be
       0.2312947 -0.19693343 0.00273103 -0.21695456
000200 18 6c fe be 4a 3a 0a bf 0e af 23 3e 9a 87 34 3e
       -0.49691844 -0.5399519 0.15984747 0.17629853
000210 eb bc e8 3e f6 51 8e be 17 40 16 3e fe 7a f3 bd
       0.45456633 -0.27796906 0.14672886 -0.11888693
000220 c9 10 e4 3d f0 f9 f5 3d 78 ce 92 3e 4a 3e 24 be
       0.11136014 0.120105624 0.28673148 -0.16039386
000230 40 a8 f9 be 65 36 35 3e 27 d1 43 3e 6b 4a 12 3e
       -0.48761177 0.17696531 0.19122754 0.142862
000240 a1 76 cc bc 82 1b 3b bd 91 15 8c 3e b2 20 d0 be
       -0.02495891 -0.04568053 0.27360204 -0.40649945
000250 97 c4 18 be 11 39 79 be 16 25 0c bf 0b 44 9b be
       -0.14918743 -0.24338175 -0.5474409 -0.3032535
000260 ef 1e bc be 2b 2b 96 be 1f ba a6 bd 2e 39 b8 3c
       -0.3674235 -0.2932981 -0.081409685 0.022488203
000270 9a 15 a2 3e fc 39 87 bb 2f ae 0f 3e 3e c8 b4 3e
       0.31657106 -0.0041267853 0.1403129 0.35309023
000280 3f d2 f8 3e 30 74 04 3f 47 50 4a 3e 42 c7 d7 3d
       0.48597905 0.5173979 0.19757186 0.10536052
000290 c1 aa 00 bf 9c c3 7e 3e 29 51 c0 3c 10 b1 6f 3c
       -0.5026055 0.24879307 0.0234762 0.014629617
0002a0 55 ca 6c bd ef e7 a4 3d ff 35 a2 3e 13 b6 29 be
       -0.057810146 0.0805205 0.3168182 -0.16573362
0002b0 ac de 79 3e 83 9d b0 3e 26 af bd be a7 11 37 3d
       0.24401349 0.34495172 -0.3704769 0.04469457
0002c0 fe 99 78 3e b4 32 8c 3e 92 76 62 bf 55 3b 31 3e
       0.24277493 0.27382433 -0.88462174 0.1730779
0002d0 c7 de c4 3d 46 b5 8d bd ae 6d 0f be c0 c3 93 3e
       0.09612804 -0.06919341 -0.14006683 0.28860283
0002e0 11 e7 36 bd 3d 7e f6 3e f0 f9 0b 3f d5 d3 13 3e
       -0.044653956 0.48143187 0.5467825 0.14436276
0002f0 c4 2c 57 be b5 7d 08 3f ba e5 8d 3d 3f 91 4a be
       -0.2101317 0.53316814 0.069285825 -0.1978197
000300 82 9b 6b be 95 a3 15 be ea 1a 89 3e e4 4c 07 3e
       -0.2300854 -0.14613183 0.26778346 0.13212925
000310 5c e0 b7 3e c9 28 9e 3e 48 8a ab be d3 05 06 3e
       0.3591336 0.30890492 -0.33503938 0.1308816
000320 a4 d0 29 be 5a db f5 3d 26 a1 91 3e 04 af 85 3d
       -0.16583496 0.120047286 0.2844326 0.06527522
000330 b1 67 92 3e 38 e4 12 be 43 cb 17 3b d9 32 d6 bd
       0.28594735 -0.14344871 0.0023161925 -0.10458917
000340 c4 2d db 3b 43 d6 40 be a2 83 47 3e 84 13 35 bc
       0.0066888053 -0.18831734 0.19483808 -0.011052016
000350 16 9e 3d 3e fa 34 4f 3e 10 39 7e bc 11 8c 98 3c
       0.18517336 0.20235053 -0.015516534 0.018621476
000360 52 d4 5f be 38 e8 8c be 8c 7e 3f be 40 d9 8c 3d
       -0.21858338 -0.2752092 -0.18700618 0.06877375
000370 c3 46 35 be 8a 6a ba 3c 82 00 7b bd b5 77 33 3e
       -0.17702775 0.02275588 -0.06127978 0.17526133
000380 2b 99 ea 3c 34 ba 7a 3e 63 5b df 3e 4f 65 db bc
       0.02863749 0.24485093 0.4362441 -0.026781706
000390 e3 08 92 3c 5a 2a 2c 3e ea 32 98 bc c5 6b 8f be
       0.017826503 0.16813031 -0.018578965 -0.2801191
0003a0 c7 23 4d 3e d0 ba 63 3d 81 7d 82 be fd c9 a5 be
       0.20033179 0.05559808 -0.25486377 -0.32380667
0003b0 fd bf 46 3d c1 83 fe 3d b5 03 d2 bd c8 e2 e3 bd
       0.048522938 0.12427474 -0.10254613 -0.111272395
0003c0 71 0f 2e be f3 e6 aa be 02 89 d3 be 2a 65 fd bd
       -0.16998078 -0.33379325 -0.41315466 -0.12372811
0003d0 41 c8 84 3e 7f 24 6f 3e d2 7e bb 3d 51 47 95 be
       0.25934032 0.23353766 0.091550484 -0.29155973
0003e0 98 0a 8d bd 42 74 f8 bd 10 d6 8c bd 3a b0 50 3e
       -0.06886786 -0.121315494 -0.06876767 0.20379725
0003f0 aa ad 48 bc 1c 57 92 be 32 9a 43 3e e4 87 c4 3d
       -0.012248436 -0.28582084 0.1910179 0.095962316

gnn_base.gnn.gnn1.lin_value.bias f4 [48]
000000 2f 60 65 3e e0 db 88 be 0d 1c d5 3e 0a 95 1a 3e
       0.22399972 -0.2673025 0.41622964 0.15095916
000010 f6 65 2f 3c 2b 11 69 3e c2 81 34 3e f0 c7 33 3d
       0.010705462 0.22760455 0.17627624 0.043891847
000020 37 89 89 bd 05 7a 35 be 29 d2 39 3d e9 f8 70 3d
       -0.06715625 -0.17722328 0.04536644 0.05883113
000030 cf 4e c0 3b c9 8b 5a 3d 71 97 ad 3e e8 63 44 3e
       0.0058687697 0.053355966 0.33904603 0.19178736
000040 de 41 01 3d fb 2e 1d be 72 04 f4 3e 68 e9 d2 3d
       0.031556956 -0.15349953 0.47659642 0.10298425
000050 24 00 3b 3e e4 21 bb 3d 94 77 d5 3e 54 09 50 3b
       0.18261772 0.091373235 0.41692793 0.0031743841
000060 4e bb b9 3d 35 61 74 3e 8b c6 1e be a2 9a 8b be
       0.09068929 0.23865207 -0.15505426 -0.27266413
000070 5c a2 84 bd 65 59 bc 3c 4f 1f a7 3e f6 d5 0f 3d
       -0.0647628 0.022991845 0.32641074 0.03511616
000080 ea e8 28 be 19 fb c9 be 10 2b a0 3e ae ad 2b be
       -0.164951 -0.39449385 0.31282854 -0.16765472
000090 26 fa 51 3d 3e 88 8c 3e 20 24 24 3e 73 e4 d1 3c
       0.05126395 0.27447695 0.16029406 0.025621628
0000a0 e9 13 28 3d ff 1a 00 be b1 14 26 bc 37 93 19 3d
       0.041034613 -0.12510298 -0.010136769 0.03749391
0000b0 e7 36 06 be fa 5f 46 3e 6a f1 65 3e d6 9b a6 bd
       -0.13106881 0.1937255 0.22455373 -0.08135192

gnn_base.gnn.gnn1.lin_edge.weight f4 [48, 1]
000000 e8 62 26 3f a5 d1 25 bf 87 14 0d bf 65 b4 b6 be
       0.6499467 -0.6477302 -0.5510945 -0.35684505
000010 db 61 c9 3e 5d 90 87 3f a8 30 2a be 90 ab a1 3e
       0.3933247 1.0590931 -0.16620123 0.31576204
000020 08 ae c9 3e 89 11 88 be e1 b6 fc be c4 28 7c 3f
       0.39390588 -0.26575878 -0.49358276 0.98499703
000030 45 c1 7d 3f f9 3d 18 3e a7 e6 81 bf e7 9a a0 be
       0.9912303 0.1486739 -1.0148515 -0.3136818
000040 a0 9a 4c 3e 2e 99 9c bf d4 0d 12 bf b8 e0 aa bd
       0.1998086 -1.2234247 -0.5705235 -0.08343643
000050 ac 16 60 3e 76 43 a6 3f 99 02 7f bf ba 52 e8 be
       0.21883649 1.2989337 -0.9961334 -0.45375615
000060 f5 94 a2 3e ab 8b 9e 3d f1 e5 30 3e 90 ea e4 3e
       0.3175427 0.07741483 0.17275216 0.44710207
000070 13 36 8f be 10 ad 1e 3f 21 77 8b bf fe 6d b8 3d
       -0.27970943 0.6198282 -1.089573 0.09005354
000080 e6 b3 4c 3f 22 47 6c bf 11 79 a6 bf 64 e5 70 3f
       0.79962003 -0.9229604 -1.3005697 0.9410002
000090 ac a3 41 bd ca 89 28 3f 16 1c e9 bf 2f be 29 3d
       -0.04727523 0.6583525 -1.8211696 0.04144114
0000a0 4b 9b ef be 62 64 bf 3e e1 88 e6 bf 5d 32 28 be
       -0.46798167 0.37381274 -1.8010522 -0.16425462
0000b0 26 a8 08 3f 0e 10 8b 3f e0 58 4c bf 33 c2 d7 3d
       0.53381574 1.0864275 -0.7982311 0.105350874

gnn_base.gnn.gnn1.lin_skip.weight f4 [16, 16]
000000 30 cc 3b bb b2 3c b2 be 48 b8 b3 3e 98 c6 a8 bc
       -0.002865564 -0.34811932 0.35101533 -0.02060251
000010 08 75 cc be 2e a2 1a bf 97 f4 ed bd 24 cf 0e 3d
       -0.39933038 -0.60403717 -0.116189174 0.034865513
000020 81 56 93 3e c3 3c c0 bd e8 ca 5a bc 13 4e 14 3f
       0.28776935 -0.093865894 -0.013354041 0.5793163
000030 16 11 99 be d0 cc 42 3e 83 69 76 bd 13 1e ac be
       -0.29895848 0.19023442 -0.060159218 -0.33616695
000040 67 06 d8 bd 20 2c 12 bf 70 de 4b be a8 85 77 3e
       -0.10548096 -0.5709858 -0.19909072 0.2417208
000050 17 be 9f bd f0 a0 72 be d5 ae 23 3e d2 c0 4f 3f
       -0.07799929 -0.23694205 0.15984662 0.81153595
000060 44 e2 07 bd db e6 2b 3e 7a 88 c5 3d a2 8e 7c 3e
       -0.033174768 0.16787283 0.096451715 0.24663785
000070 bc 98 b9 bc bb bd 3f 3e 75 bf 50 3e cc 12 7e 3e
       -0.022655837 0.1872472 0.20385535 0.24811858
000080 37 27 dc 3d 0f f0 05 3e 53 50 aa 3e b3 e3 b8 be
       0.10749667 0.13079856 0.33264408 -0.3611122
000090 07 f0 ae 3e cb a7 75 bd e8 10 94 3e d8 5c 80 3d
       0.341675 -0.059974473 0.28919148 0.062677085
0000a0 8a 45 e0 3e fb 84 fa be c1 37 64 3e ab 87 aa be
       0.43803054 -0.4892958 0.22286893 -0.3330663
0000b0 cc 8b 9c be c2 e9 e8 bb 69 72 0b 3e a2 04 be be
       -0.30575407 -0.007107944 0.13617863 -0.3711291
0000c0 33 8e 9e be ca 4b 46 be 75 98 7b 3e 76 0f 8a be
       -0.30967864 -0.19364849 0.24569876 -0.2696492
0000d0 10 42 91 3c 39 c2 ed 3d 00 33 9f be 3d eb bf 3b
       0.017731696 0.11609311 -0.31093597 0.0058569
0000e0 e5 12 14 be 7d 9d 33 3d 77 42 6d be 3c 6f 96 3e
       -0.14460333 0.043851364 -0.23169886 0.2938174
0000f0 4f 42 e8 3e de 0e 58 be f5 b0 5c 3e 70 23 1f 3f
       0.4536309 -0.21099421 0.21551879 0.6216345
000100 4b 1b d1 3d 53 3f ab bd 01 25 0f 3e 65 89 4c be
       0.10210284 -0.083616875 0.1397896 -0.19974287
000110 c4 28 bc be 87 ee 75 bf 27 05 25 be 41 5d f6 3d
       -0.36749852 -0.9606709 -0.16115247 0.120295055
000120 9a 0f 12 bf d0 b0 07 3e 02 d2 36 3e e2 92 37 bd
       -0.57055056 0.13251042 0.17853549 -0.044817813
000130 23 56 c9 3e 78 0a 09 3f 72 a6 07 be b5 65 24 be
       0.3932353 0.535316 -0.13247088 -0.16054423
000140 f0 be 36 3e 54 36 ba bd 92 c7 af bd fc 46 ed 3d
       0.17846274 -0.090923935 -0.08582987 0.11585805
000150 b5 e2 a5 3e 0a f6 c4 bb c4 f5 84 bd 7f 8f 94 be
       0.32399526 -0.0060107755 -0.064921886 -0.2901573
000160 9a ec 8b 3d 6c 9d 75 3e 09 6c 24 be 86 18 88 be
       0.068322375 0.23985833 -0.16056837 -0.2658121
000170 45 aa 33 3d 9f 14 06 3e f4 04 8c bd 84 21 81 be
       0.043863554 0.13093804 -0.06836882 -0.25220883
000180 b1 f8 7b be fa e5 14 3e 15 e6 61 bc b0 f7 3f be
       -0.24606587 0.14540854 -0.013787766 -0.18746829
000190 24 00 92 bd 32 d7 9b be 5e ac b9 bb e3 09 09 3e
       -0.07128933 -0.30437618 -0.0056662997 0.13382678
0001a0 9f 47 46 bd b7 5a 54 be 35 03 85 3e 23 98 17 3f
       -0.048408147 -0.2073773 0.2597901 0.5921652
0001b0 f5 ff d0 3d bd 8f 2a 3d 08 ec 74 3e 81 f3 3c bd
       0.1020507 0.041640986 0.23918164 -0.04613066
0001c0 65 b6 26 be c7 b9 48 3e 03 3c d5 3d 2e 3f d1 3e
       -0.16280515 0.19602118 0.10411837 0.40868515
0001d0 e4 ca 19 bf bc 16 25 bd aa 0a 2c be 0b 20 01 3e
       -0.6007521 -0.040304884 -0.16800943 0.1260988
0001e0 73 7f 10 3f fe 9b e4 be 93 ce 03 be e6 23 e0 be
       0.5644447 -0.44650263 -0.1287177 -0.43777388
0001f0 3b 67 05 3f 71 3f 9a be 63 e2 3e bc 21 d7 c9 bc
       0.5211064 -0.30126527 -0.0116506545 -0.024638714
000200 03 f5 eb bc 8a 67 92 be 0f a2 9b 3e 31 83 5b 3c
       -0.028803354 -0.2859462 0.30397078 0.013397978
000210 2b 81 a7 bd 10 4c 15 be 9b ea 8b bd ac 51 05 bd
       -0.08178934 -0.14579797 -0.06831857 -0.03254859
000220 3f 44 8d bd 7a 28 93 3d 74 b7 4f 3d 00 ca 18 3e
       -0.068977825 0.07185455 0.050712064 0.14920807
000230 22 c0 ad be 40 6b 6e 3f f5 77 5f 3e b6 6b 16 bd
       -0.33935648 0.931324 0.21823104 -0.036723815
000240 0f 98 14 3e f8 f2 36 be e6 7f a6 3e 11 dd aa 3e
       0.14511131 -0.17866123 0.32519454 0.33371785
000250 05 ba 87 be 4c f9 23 3f 6c e6 d0 3d 91 bf 2c bd
       -0.2650911 0.6405227 0.102001995 -0.04217488
000260 d5 0e 9b 3d 4d 26 dd 3e 10 ee c1 bd a9 de 86 3d
       0.07571188 0.43193284 -0.09469235 0.06585438
000270 59 5b 01 3e f4 d2 79 3e 49 14 f5 b9 8b 30 18 3e
       0.12632503 0.24396878 -0.00046745155 0.14862268
000280 70 14 9a bd 6c aa 88 be d3 aa a2 3c f4 23 9a be
       -0.075234294 -0.26692522 0.019856846 -0.30105555
000290 de f5 44 be 09 df 10 3e 86 4e bd 3e 73 46 e8 3e
       -0.19234416 0.14147581 0.3697397 0.45366248
0002a0 5b 68 83 be fe 79 97 be 54 01 1b bc 86 20 23 3d
       -0.25665554 -0.2958526 -0.009460766 0.03982594
0002b0 d1 7d 28 bf cc 90 69 3e 82 64 68 3e b0 f1 94 3e
       -0.6581698 0.22809142 0.2269459 0.29090643
0002c0 19 37 b2 bd fa 10 99 3d 53 54 b0 3c c6 e7 ae bd
       -0.08701915 0.07473941 0.021524584 -0.08540301
0002d0 d9 9f 8f bd ce dc c8 3d c6 ca 2a 3d c7 e1 08 3f
       -0.070129104 0.0980774 0.041697286 0.5346951
0002e0 84 31 ec 3d 50 3c c1 3e f1 a5 d6 3d 72 31 90 be
       0.11532882 0.37741327 0.104808696 -0.28162724
0002f0 5d 04 60 3e 6c 54 3d 3d a3 8a 30 3e f9 44 86 3d
       0.21876664 0.04622309 0.17240386 0.06556124
000300 82 89 cb 3d 08 45 d1 3e 0c fa 0d 3e c7 b0 8b 3e
       0.09938337 0.4087298 0.13864917 0.27283308
000310 ff e6 28 3d b7 7f 2e 3d e4 7b c8 bd fe 4a 05 bf
       0.04123592 0.042602267 -0.09789255 -0.52067554
000320 f0 ec d3 bc 8e d1 b7 be 75 71 32 3f 71 74 70 be
       -0.025869817 -0.35902065 0.6970437 -0.23481919
000330 07 c1 61 be 66 da b7 3e 8e ae 3c 3d 7f 62 14 bf
       -0.2204629 0.35908812 0.046064906 -0.57962793
000340 b7 2b 41 3d 46 53 e3 bc f1 e0 55 3d 0a 95 f2 3e
       0.04716083 -0.027749669 0.052216474 0.47379333
000350 af ce cc be 87 e8 08 be 42 e3 ea 3e e8 40 00 3e
       -0.40001437 -0.13369952 0.4587651 0.1252476
000360 4d fc a0 3e 50 b3 12 be a2 32 67 be 96 cb 39 bd
       0.3144249 -0.14326215 -0.22577909 -0.04536017
000370 bb 90 57 3e 12 c8 9b be 32 af 18 be e7 cd 0c be
       0.21051304 -0.3042608 -0.14910582 -0.1375042
000380 dc 0d c0 be 60 fd 9d 3e 8c 47 62 3e f4 a8 15 be
       -0.37510574 0.30857372 0.22097605 -0.14615232
000390 5b 26 20 bd 50 86 22 be 70 20 22 bf 81 1e ad be
       -0.03909908 -0.15871549 -0.63330746 -0.33812335
0003a0 08 86 eb bd 85 9f 0c 3e 6d 6d 18 3e 6c 89 12 be
       -0.11500174 0.13732727 0.14885493 -0.14310235
0003b0 21 3a 48 be 55 55 a4 3e da c8 85 3e 8e fa 55 3e
       -0.19553424 0.32096353 0.261298 0.2089636
0003c0 5e d1 3e 3e 90 03 62 be 1c bf 04 bf 56 55 55 3e
       0.18634555 -0.22071671 -0.5185411 0.20833334
0003d0 00 b5 d9 be 7b cc ab be ef fd dc 3e 70 10 db 3e
       -0.42520905 -0.33554444 0.43162486 0.42785978
0003e0 66 c5 62 be 2f 56 23 3d 0c 9c bc 3e b3 5b d9 3d
       -0.22145614 0.039877113 0.36837804 0.10613193
0003f0 6e 43 8b bd 61 af 7c 3e 86 94 dc be ad 2c 43 3d
       -0.067999706 0.24676277 -0.43082064 0.047650028

gnn_base.gnn.gnn1.lin_skip.bias f4 [16]
000000 84 72 6f 3e 65 0b 10 3e 35 3a 08 3d 25 0c 2b 3c
       0.23383528 0.14066847 0.033258636 0.010439907
000010 f2 28 bb 3d b2 ff be 3d 6d 1d 0f 3d 66 d4 dd bc
       0.09138669 0.09326114 0.034940172 -0.027078819
000020 d8 36 46 3d 2d ee d5 bb 9a bf 9a 3c 59 df 3c be
       0.048392147 -0.006528637 0.01889019 -0.18444575
000030 2f b0 87 3e 3a 2e eb 3d 43 fc 81 3d 72 c0 3c 3e
       0.26501605 0.114834264 0.06346943 0.18432787
