model_weights/tube/rot_inv/airtaxi/try/three/collision_rotate/actor.pt (torch, 202382 bytes, 58 tensors)

gnn_base.gnn.embed_layer.layer_norm.weight f4 [16]
000000 9e bd 5b 3f 31 ba a3 3f 52 c1 80 3f b2 10 81 3f
       0.8583621 1.2791196 1.0058997 1.008322
000010 a1 83 9a 3f c6 a9 58 3f 34 50 58 3f c7 1c 54 3f
       1.207142 0.84634054 0.8449738 0.8285641
000020 84 ab 8a 3f 74 27 6d 3f 0e 11 82 3f dd d5 75 3f
       1.0833592 0.92638326 1.0161455 0.96029454
000030 f7 0a 87 3f d5 63 8c 3f 91 66 75 3f c6 20 56 3f
       1.0550221 1.0967966 0.9585963 0.8364376

gnn_base.gnn.embed_layer.layer_norm.bias f4 [16]
000000 00 98 96 3d 18 fe ac bc 8b 64 25 bd 0e 20 75 3d
       0.073532104 -0.021117255 -0.04037909 0.059845023
000010 a5 24 46 3d b0 53 d0 3d 14 45 8d bc 00 02 b6 3c
       0.04837479 0.10172212 -0.017244853 0.02221775
000020 f5 4a 8c 3d 28 10 8c bc 71 31 dc bd 10 fd 70 bd
       0.068502344 -0.017097548 -0.10751618 -0.05883509
000030 be 73 1a bd d0 25 c1 ba ea 7d ff bc a5 90 09 39
       -0.037708037 -0.0014736 -0.03118797 0.00013119222

gnn_base.gnn.embed_layer.entity_embed.weight f4 [4, 2]
000000 b6 31 bf 3e 9f e2 d5 3d 25 b7 0e 3d 4f 89 af 3e
       0.37342614 0.10443615 0.03484263 0.34284446
000010 38 60 e7 be 0b 1e 2a be 14 ea c2 bf 13 6c c3 3e
       -0.45190597 -0.16613023 -1.5227685 0.38168392

gnn_base.gnn.embed_layer.lin1.weight f4 [16, 9]
000000 c8 0d 6f be e1 3c a6 3e 31 43 00 bf 2a 39 ee bd
       -0.23345101 0.32468322 -0.50102526 -0.11631997
000010 ab 2e 46 be 9d d3 17 3f 43 74 33 3f a4 05 5e 3d
       -0.1935374 0.5930727 0.70099276 0.054204598
000020 bd 0d 27 3e 25 62 90 3d 17 5b 82 bf 70 eb e6 3e
       0.16313834 0.070499696 -1.0184048 0.451015
000030 f0 26 f8 bf 8e f7 53 3e ba 28 9f be 00 ff 23 be
       -1.9386883 0.20699903 -0.3108576 -0.16015244
000040 01 55 b8 3d 06 3e 5f 3d 3c 11 13 3e b1 d2 db 3e
       0.09000588 0.05450251 0.14362043 0.42934182
000050 35 61 e8 3e 92 3a 0e bf 68 d8 d4 3d fc af 8c 3e
       0.45386663 -0.5555812 0.10392839 0.27478015
000060 f3 94 41 3e 72 6e 04 be b6 6f bf be f5 53 ef be
       0.18904476 -0.12932757 -0.37389916 -0.46743742
000070 f8 32 e8 be 09 8b a7 be c4 0f 33 bf 34 66 ab 3e
       -0.45351386 -0.32723263 -0.6994593 0.33476412
000080 ce 97 b5 be 7d 85 0e 3c fe 5f b0 be 86 69 df be
       -0.3546738 0.008698818 -0.34448236 -0.43635195
000090 1f c6 f2 3e b6 f7 40 3f 4e ee 96 3e e3 81 f2 be
       0.4741678 0.75377977 0.29478687 -0.4736472
0000a0 5e e2 2b bf 5e 3c 64 be 79 c4 cb be 32 f3 a2 3e
       -0.67142284 -0.22288653 -0.39798334 0.31826168
0000b0 4e 07 df be 74 5c 37 3d 7d 23 b5 bd 46 27 61 bf
       -0.4356026 0.044765905 -0.088446595 -0.8795055
0000c0 b8 3c 6c bf f1 d2 8a be 01 0c f6 bc 81 0a e5 3e
       -0.9228015 -0.2711406 -0.03003502 0.44734576
0000d0 38 7d 78 be ae 86 2b be 4d 71 8b ba 0b 72 d4 bd
       -0.24266517 -0.16750595 -0.0010638625 -0.103733145
0000e0 cb e2 7e 3f f7 8f 33 3e 67 15 38 3e f2 25 8d 3c
       0.9956481 0.17535387 0.17976914 0.017230008
0000f0 e7 bd 4e be af 66 fa 3e 8d a7 79 3e ad 4b 20 be
       -0.2018963 0.48906466 0.24380322 -0.15653868
000100 e8 24 ac bd e8 79 94 3e c2 8d 58 bf 03 74 ca 3d
       -0.08405477 0.28999257 -0.84591305 0.09885409
000110 f6 d9 25 bd c8 b5 a9 3e 31 1c a3 3e 58 99 31 bf
       -0.040491067 0.331465 0.31857446 -0.6937461
000120 18 ba 2b 3d f7 7d 34 3f e0 5b 3e bf e1 7c fd bd
       0.04192552 0.7050471 -0.7435894 -0.123773344
000130 fb 69 02 3f 35 89 8c be 6d f5 b9 be d1 dd ba be
       0.50942963 -0.2744843 -0.36320058 -0.36497357
000140 cb 3e b0 3e 83 69 0f be d1 c1 cd 3e 8c 7f 45 3f
       0.34422907 -0.14005093 0.40186933 0.77147746
000150 9a 06 88 3e f5 87 2c 3f 5c 04 28 be 31 8c b5 3b
       0.26567537 0.67394954 -0.16407913 0.0055403938
000160 c3 e4 91 bd 3a 93 00 bf fa 50 0c 3f be 18 33 3e
       -0.07123711 -0.5022465 0.5481106 0.17489907
000170 0c 18 4a bf f7 ed 21 3f e0 52 eb 3e 29 65 6c be
       -0.7894294 0.6325373 0.45961666 -0.23085465
000180 78 b6 17 3e c4 8b b5 3e 1e d2 ab be 5c 78 43 bf
       0.148157 0.35458195 -0.33558744 -0.7635553
000190 ba 86 f9 3d 20 04 02 bf 0d af 7a 3e 92 c9 1d be
       0.121839 -0.50787544 0.24480839 -0.15408924
0001a0 5a a6 ce be d4 77 92 3d ff 1b 36 3e a3 4f 92 be
       -0.4036129 0.07151762 0.17784117 -0.28576383
0001b0 71 4f 0f 3e 63 c2 3f 3f d8 28 23 3f 29 8a 30 3e
       0.13995148 0.74905986 0.637342 0.17240204
0001c0 80 13 42 3c d7 ef 05 bf a8 59 cd 3e 8b 17 13 bd
       0.0118454695 -0.5231909 0.40107465 -0.035911124
0001d0 2f ba 09 3f 4b 9b fb 3e 08 52 d0 bd cc 24 6e bf
       0.5379972 0.49141917 -0.10171896 -0.930249
0001e0 8d 33 32 be 3c c4 d3 3d 70 96 4b be 25 d1 cd 3e
       -0.17402478 0.10340163 -0.19881606 0.40198627
0001f0 b0 d8 91 bb 73 5d 92 3e 71 26 3f 3e a8 b1 4a 3e
       -0.00445088 0.2858692 0.18667008 0.19794333
000200 bf 8c d0 3a 11 e8 c6 bd af b3 a0 3e 1b d2 20 be
       0.0015911086 -0.09712232 0.31387088 -0.15705149
000210 66 4f 3f be 6e 10 2d 3f a8 af 4b be 58 75 df 3e
       -0.18682632 0.67603195 -0.19891226 0.43644214
000220 b1 6d 89 be c5 68 e6 3e b6 4a 83 3f 6e ea 14 bd
       -0.268415 0.45001808 1.0257175 -0.036356382
000230 e9 6c 49 bf 8e 1f 22 3e 4f db c1 be 7a d4 18 bf
       -0.7868181 0.1583235 -0.37862632 -0.59699214

gnn_base.gnn.embed_layer.lin1.bias f4 [16]
000000 f1 8c 72 3d d7 c0 ef bd 5f 52 a4 bd 55 0d bd 3d
       0.059216443 -0.11706703 -0.080235235 0.092310585
000010 57 7b 39 be 45 07 0d be c4 5c f2 3d fa 40 8e 3c
       -0.18113457 -0.13772304 0.118341 0.017364968
000020 12 80 7e 3d e1 b0 a7 3d 80 04 27 be 81 c5 63 be
       0.062133856 0.08188034 -0.1631031 -0.2224331
000030 2d ba 87 bd 50 ce 45 be 49 61 92 3d 12 a1 e2 3c
       -0.06627307 -0.19316983 0.07147462 0.027664695

gnn_base.gnn.embed_layer.layers.0.weight f4 [16, 16]
000000 33 35 c4 3c 99 09 ae be 26 bc 7e ba ff 90 06 be
       0.023951149 -0.33991697 -0.00097173674 -0.13141249
000010 09 99 9d 3e a4 79 80 3e 63 f7 04 bf 82 26 34 3f
       0.3078082 0.25092804 -0.5193998 0.7037126
000020 4f c5 53 bf 21 a5 07 bf 8b cb 1b 3e 08 d6 9d 3e
       -0.82722944 -0.5298634 0.15214364 0.30827355
000030 b7 36 95 bd d8 eb 6a 3e 16 26 b1 3b f6 2a a0 3e
       -0.07285827 0.2294153 0.0054061515 0.31282777
000040 61 4c 14 3b 66 bd 4f be c1 80 15 3f 55 5a a9 bd
       0.0022628533 -0.20287094 0.5839959 -0.082691826
000050 9a 94 8f be 3c d0 01 bf 61 d7 17 3e b2 89 9a be
       -0.28043061 -0.50708365 0.14828254 -0.30183178
000060 7e 97 91 be f3 e6 27 bf ec 17 8f bd 77 2f ab 3e
       -0.28435892 -0.65586776 -0.069869846 0.3343465
000070 54 47 9e 3e fd 2d 34 3f 8d 8f c6 be bb d2 c0 3e
       0.30913794 0.7038267 -0.38781396 0.37660775
000080 8f e6 10 bf 39 29 ba be d3 58 e7 3d 81 ab 3a bf
       -0.56601804 -0.36359575 0.11296239 -0.72917944
000090 fa 20 bd be 6f 92 9c be 5e 40 1c 3f 64 56 46 3e
       -0.36939222 -0.3058047 0.61035717 0.19368893
0000a0 b5 94 65 3d e0 66 bb 3e aa f8 7a be a9 ef c3 3e
       0.05605002 0.36601925 -0.2450892 0.38268784
0000b0 1b 2f 67 3d bc b2 84 be 7b 73 e8 3e e9 ff d8 3e
       0.056441408 -0.25917614 0.45400605 0.42382744
0000c0 7c 83 ab 3e 30 b3 f7 be 69 51 c1 3d ae 96 a8 be
       0.33498752 -0.48378897 0.09439356 -0.3292746
0000d0 67 01 1f 3f 51 eb 7d be 03 f3 41 bd df 6a 92 be
       0.62111515 -0.24796797 -0.047350895 -0.2859716
0000e0 f5 51 31 3f 1d 14 b9 3e d2 62 c8 3e 8c 11 c7 be
       0.6926568 0.36148158 0.39137894 -0.38880575
0000f0 fd e4 05 3e 09 87 37 3f 39 f2 38 3e cc 09 02 3f
       0.13075633 0.7169042 0.1806115 0.507962
000100 55 f6 95 3d 7c e5 a9 bf a6 d8 b2 bd 81 1c 42 3e
       0.07322375 -1.3273158 -0.08732729 0.18956186
000110 e8 f3 6a bd 47 3a bf 3e 74 6f c1 be 02 05 0d bf
       -0.057361513 0.3734915 -0.37780344 -0.55085766
000120 6a f7 88 3e 31 b2 9d 3e ba f2 54 3e 8c 76 ff 3e
       0.26751262 0.30800012 0.20795718 0.49895132
000130 97 7f 44 3e 40 01 9a be 1b 37 d1 3d f6 53 ca 3c
       0.19189297 -0.3007908 0.10215589 0.024698239
000140 bf 89 84 3e 8e ce 13 3f 69 6f 01 3f cc 09 8d 3d
       0.25886342 0.5773705 0.50560623 0.06886634
000150 92 c2 21 be 69 22 cb 3e b0 4d 8d be 2b 5a df 3e
       -0.15796879 0.3967469 -0.27598333 0.4362348
000160 22 c5 b3 be 7d f8 94 3e 50 e7 7c 3e fa 36 78 3f
       -0.35111338 0.29095832 0.24697614 0.9695889
000170 c4 2b 49 3e 40 0f 8f 3e 10 70 95 3b aa 6b 43 3e
       0.19645602 0.27941322 0.004560478 0.1908404
000180 54 b9 0a be 21 be 17 3e 32 aa 79 3e ed bd 1f 3e
       -0.1354726 0.14818622 0.2438133 0.15599795
000190 9e 42 2a bd 31 9f 16 be 41 79 e7 3d 31 af 0c 3e
       -0.041567437 -0.14709164 0.11302424 0.13738705
0001a0 53 fd e1 be d0 21 ec 3e 26 b1 5e bf 4c 7a e1 be
       -0.44138584 0.46119547 -0.8698906 -0.44038618
0001b0 2e 7b 33 3f dd d3 5d be d0 b9 3b 3f 05 8a 24 be
       0.7010983 -0.2166285 0.733304 -0.16068275
0001c0 7d d5 9e 3e 44 8f af bd 22 c8 ed 3c 47 73 39 bf
       0.31022254 -0.085722476 0.029026095 -0.72441524
0001d0 2b c2 19 bf 9f 01 a7 3d 44 e1 49 bf 80 4f b7 bd
       -0.600619 0.08154606 -0.78859353 -0.0895071
0001e0 39 89 09 3f 35 12 c1 bd 97 38 36 3e 25 2f 9f bd
       0.5372501 -0.09427301 0.17795025 -0.07772664
0001f0 55 a1 e1 3c 1f e6 d8 3e d7 0d 67 be a5 51 f4 be
       0.02754275 0.42363068 -0.22563873 -0.4771854
000200 d6 01 ef be 08 a5 99 be 25 6a 1b 3f 18 8a fe 3e
       -0.46681088 -0.3000872 0.6070884 0.49714732
000210 b0 6b ab be 7a fb 05 3e cb 7d 7a be 4d 81 0a 3f
       -0.33480597 0.13084212 -0.24462049 0.5410355
000220 7b 41 ae 3e 1d b9 a2 3d 31 66 3f be c6 f4 86 be
       0.34034333 0.07945464 -0.18691327 -0.26358622
000230 0d fa 02 bf d2 bf 26 3f cf 2c a3 be 14 69 54 be
       -0.511628 0.65136445 -0.31870124 -0.20743209
000240 5e 2e 0b 3f d8 10 f4 3d 91 a7 78 3e 61 bd bf bd
       0.54367626 0.11917275 0.24282672 -0.09362293
000250 61 da a4 bc 0b 06 0f bf 86 79 04 3f 0a 72 ef 3e
       -0.020123662 -0.55868596 0.5174793 0.46766692
000260 66 fa c8 39 f6 b2 9d 3e ba 02 2a bf b2 ce 81 3e
       0.00038333534 0.308006 -0.6641041 0.25353009
000270 ee e6 b5 3d 5e 5e fb be 7b 77 38 bf 73 bd 15 3e
       0.08881937 -0.49095434 -0.7205731 0.1462305
000280 76 3a ba 3e f9 2d aa 3e 6a b5 93 3e 4c 0a 11 3f
       0.36372727 0.332382 0.28849345 0.56656337
000290 85 44 ba be 8e d9 21 bf ab d1 6b be 16 7f e2 3d
       -0.363804 -0.6322259 -0.230292 0.11059396
0002a0 86 6a a4 3e c4 33 86 be 53 06 a5 3e d5 d0 f0 3c
       0.3211252 -0.2621137 0.32231387 0.029396454
0002b0 9a 08 80 3e 46 73 06 3f 8e f8 86 3e 7b b4 02 bf
       0.25006562 0.52519643 0.26361507 -0.5105664
0002c0 0a fc 82 be d9 eb 1a be 64 90 71 3e 0e 44 7f 3d
       -0.25582916 -0.15129031 0.23590237 0.06232076
0002d0 1f c8 72 bd b6 97 45 bf 52 90 2f bf 23 2a 87 3d
       -0.05927288 -0.7718462 -0.6857959 0.06599834
0002e0 bd 8b b3 bc 1d 44 9f 3d a3 cd 4a 3e 12 ed 41 be
       -0.021917218 0.077766635 0.19805007 -0.18938091
0002f0 5b 44 ca be ec e4 28 bf 25 a6 14 3d fc 03 d9 3e
       -0.39505276 -0.6597431 0.03629126 0.42385852
000300 cb 8b 1c be 11 bf 32 bd e7 f0 80 3e bc a2 dd 3d
       -0.15287702 -0.043639246 0.25183794 0.10822055
000310 ae ad 37 3f 24 52 4b be 1a e0 45 be 96 c3 bf 3d
       0.7174939 -0.19855553 -0.19323769 0.09363477
000320 77 c1 f2 bd 70 49 56 be cf d6 7a be f6 51 18 3f
       -0.11853307 -0.20926452 -0.24496005 0.5950006
000330 ee 9b 02 bf 4e c2 69 3e 42 65 30 3d 71 75 54 bf
       -0.5101918 0.22828028 0.043065317 -0.829917
000340 42 4d f4 3e 9a 1e ae bd 4b b8 5e bf 37 1d 8d 3e
       0.47715193 -0.085019305 -0.8699996 0.27561352
000350 aa 22 c1 be a1 68 63 be 8a b9 8d be 75 25 7d bc
       -0.3772176 -0.22207882 -0.27680618 -0.015450825
000360 52 a7 53 be eb d1 e9 3e a9 39 bc bd 14 be e1 3d
       -0.20669296 0.45667967 -0.09190685 0.11022583
000370 36 5c ef be 09 dd 3d 3f 5d 9e 04 3d 9b b2 1a 3d
       -0.4675004 0.741654 0.03237759 0.037767988
000380 dd 27 02 bf 40 75 b3 be 3c bb 50 be f5 4c 99 be
       -0.50842077 -0.35050392 -0.20383924 -0.29941526
000390 80 62 9c 3e f8 6f c4 be 29 bb ce 3c 84 fb 7f 3e
       0.305439 -0.38366675 0.02523573 0.2499829
0003a0 66 ff b3 be cc 25 ab 3e c3 10 91 3e 50 bd f9 bc
       -0.3515579 0.33427274 0.283331 -0.030485779
0003b0 e8 9f 1e 3f ff d5 60 be 4d 19 ff be 60 cc cc be
       0.6196275 -0.21956633 -0.4982399 -0.39999676
0003c0 6f 65 2d 3c f6 b3 bf 3d f9 29 c8 3e a6 67 51 3d
       0.010583266 0.09360497 0.39094523 0.051124237
0003d0 55 1a a7 bd d7 75 19 bd 22 36 3d 3e 76 0a f3 be
       -0.08159319 -0.037465896 0.18477681 -0.4746892
0003e0 df 8f 28 bf 65 f8 f4 3e 44 64 43 3e 41 76 72 be
       -0.6584453 0.4784576 0.19081217 -0.23677923
0003f0 e5 0a c6 be 80 1d e6 bd 73 3c 88 bd 0c af 72 be
       -0.38680187 -0.112360954 -0.06652155 -0.23699588

gnn_base.gnn.embed_layer.layers.0.bias f4 [16]
000000 e5 28 a5 bd 59 4d 55 be 42 b7 86 bd a7 1e 1f 3d
       -0.08064441 -0.20830287 -0.065779224 0.03884759
000010 9e fe a4 3b 91 fa e4 bd 32 26 26 3c 8e e0 a5 3d
       0.0050352355 -0.11180604 0.010140942 0.08099471
000020 24 26 e9 bd da 39 9a 3d 09 a7 41 bd 21 24 97 bd
       -0.11384228 0.075305656 -0.047278438 -0.07379938
000030 87 87 b3 bd b9 bf 03 3c 4c 24 8e bd 5e 4a 99 bc
       -0.08766084 0.008041316 -0.06940517 -0.018712219

gnn_base.gnn.embed_layer.layers.2.weight f4 [16]
000000 9e bd 5b 3f 31 ba a3 3f 52 c1 80 3f b2 10 81 3f
       0.8583621 1.2791196 1.0058997 1.008322
000010 a1 83 9a 3f c6 a9 58 3f 34 50 58 3f c7 1c 54 3f
       1.207142 0.84634054 0.8449738 0.8285641
000020 84 ab 8a 3f 74 27 6d 3f 0e 11 82 3f dd d5 75 3f
       1.0833592 0.92638326 1.0161455 0.96029454
000030 f7 0a 87 3f d5 63 8c 3f 91 66 75 3f c6 20 56 3f
       1.0550221 1.0967966 0.9585963 0.8364376

gnn_base.gnn.embed_layer.layers.2.bias f4 [16]
000000 00 98 96 3d 18 fe ac bc 8b 64 25 bd 0e 20 75 3d
       0.073532104 -0.021117255 -0.04037909 0.059845023
000010 a5 24 46 3d b0 53 d0 3d 14 45 8d bc 00 02 b6 3c
       0.04837479 0.10172212 -0.017244853 0.02221775
000020 f5 4a 8c 3d 28 10 8c bc 71 31 dc bd 10 fd 70 bd
       0.068502344 -0.017097548 -0.10751618 -0.05883509
000030 be 73 1a bd d0 25 c1 ba ea 7d ff bc a5 90 09 39
       -0.037708037 -0.0014736 -0.03118797 0.00013119222

gnn_base.gnn.gnn1.lin_key.weight f4 [48, 16]
000000 a8 72 ac bd bc 2d 1f be 33 ef 98 3e f2 8f 50 3d
       -0.084203064 -0.1554479 0.29869995 0.050918527
000010 4a 75 78 3c 00 8c 0e be 81 12 2d bd 6e 78 27 3e
       0.015164683 -0.13920593 -0.042253975 0.16354534
000020 88 1c 81 be 5e b0 cd 3d 52 51 ed 3d 4b 31 47 bd
       -0.2521708 0.10043405 0.11587776 -0.048630994
000030 f6 5e 01 3d e4 7b 83 3e 3e 2e c8 3c 82 f9 04 be
       0.031584702 0.2568046 0.024436112 -0.12985805
000040 24 c1 b1 3d 6d 87 0f be c8 46 b3 3d 8e 83 8e be
       0.08679417 -0.14016505 0.08753735 -0.27834743
000050 29 63 10 be aa 46 04 3e 08 33 33 3d 92 5b c2 3e
       -0.14100327 0.12917581 0.04374984 0.37960488
000060 56 30 bc bd 39 46 eb be b8 3b e6 3e e3 2a 42 be
       -0.09188907 -0.45952013 0.44967437 -0.18961672
000070 c9 8d 97 3d c4 41 95 be 50 4d 91 3e c0 92 7b be
       0.0740009 -0.29151738 0.28379297 -0.245677
000080 d0 7d 5b be cd e0 8b 3e 97 a9 eb 3e cf 32 8f bd
       -0.21434712 0.27319947 0.46027824 -0.06992113
000090 38 49 a8 bd e9 47 fe bd 09 25 80 bb f6 6b 1a 3e
       -0.0821709 -0.124160595 -0.003910665 0.15080246
0000a0 f5 bf c9 be 4e d2 39 bd 0f 1d a6 3e b8 a5 dd bd
       -0.39404264 -0.045366578 0.32444045 -0.10822624
0000b0 5a a9 ce bd b9 e7 d2 3e 0f d0 57 be f5 de 63 bd
       -0.10090895 0.41192415 -0.21075462 -0.05563255
0000c0 bf 24 0a bd e1 c9 68 3e fb b2 09 bf 49 b9 87 3e
       -0.03372645 0.2273326 -0.5378873 0.2650855
0000d0 db 2e 97 3c 5a 7f 1d be 66 d0 59 be bd 51 ae 3e
       0.01845496 -0.15380612 -0.21270904 0.34046736
0000e0 9e 4c 6f 3c fb 1d 49 be 5a c9 f3 3d 29 1e 38 bd
       0.014605669 -0.19640343 0.11903639 -0.044950638
0000f0 16 66 23 bd 72 b1 a0 be d8 d3 3d be 1d 1d 66 bd
       -0.03989228 -0.3138538 -0.18537843 -0.05618011
000100 4d 37 76 be 77 1c 93 3d 8c a6 65 be 5b e7 a1 be
       -0.24044533 0.071831636 -0.22426814 -0.31621823
000110 ef 2a c5 bd 71 ea 8f 3d 48 0a 36 3e 7a 7d 14 3d
       -0.096273296 0.07027138 0.1777736 0.036252476
000120 2c 30 67 3e b6 fa 88 3c 00 2c 16 3d e3 2e 20 3e
       0.2257697 0.01672111 0.036663055 0.15642886
000130 25 67 38 bd 12 7f df 3d 16 27 8b 3e a4 01 64 3e
       -0.04502024 0.109129086 0.27178258 0.22266251
000140 d8 ff 3f 3e 10 7b 94 be 46 f5 8f be a7 8c e7 3d
       0.1874994 -0.2900014 -0.28116816 0.11306124
000150 b1 32 11 3e 26 e9 12 3c 49 27 7f 3d 39 ca dc 3d
       0.14179493 0.00896672 0.062293325 0.107807584
000160 19 bc 98 3e 32 50 33 bd 0b 07 88 3d 9e 26 ab 3e
       0.29831007 -0.043777652 0.06641968 0.334279
000170 75 45 eb 3d bc 42 64 be b6 9b a3 3e 5e c3 6e 3e
       0.11487857 -0.22291082 0.31954736 0.23316714
000180 7e 31 e3 3c 6b b3 44 3e 0b f1 32 bd be cc c3 be
       0.02773356 0.19209068 -0.043686908 -0.38242143
000190 39 67 a8 be 7f e4 0e 3e d8 78 9a bd 46 7a 3f be
       -0.32891253 0.13954352 -0.0754258 -0.18698987
0001a0 aa 46 77 3e 11 6b ce bd 7c 65 6e 3c b2 9f 9a 3e
       0.2414805 -0.10079015 0.014550563 0.30199963
0001b0 90 38 3e be 03 38 83 be 5c e4 29 be 95 87 f3 3e
       -0.18576264 -0.2562867 -0.16591018 0.47564378
0001c0 5d b3 90 3e d0 f8 25 bd 3d 1e 5f be 17 e1 f7 3d
       0.28261843 -0.04052049 -0.21788879 0.12103479
0001d0 e0 f8 88 3b a6 05 42 be 34 a0 89 be f0 f8 ed 3e
       0.004180059 -0.18947467 -0.26880038 0.46478987
0001e0 aa fd 93 be 3d f7 c5 3d 2c a2 fb 3d a9 96 11 be
       -0.28904468 0.096662976 0.12286791 -0.14217629
0001f0 a2 8d 76 3c 87 bb 3a 3e 00 fd e2 bd a5 de 09 bf
       0.015048416 0.18235599 -0.11083412 -0.53855354
000200 6b ce 16 3e cc 4f 12 be 97 ef 19 be 2a 21 bd 3b
       0.1472718 -0.14288253 -0.15032803 0.0057717757
000210 a3 24 4a be 86 73 88 bd 1a d4 0b bd b3 25 17 be
       -0.19740538 -0.06662659 -0.034137823 -0.14760475
000220 87 ba d5 3e 91 bd 28 3e 86 7f 42 be 44 56 81 3e
       0.41743872 0.16478564 -0.18993959 0.25261128
000230 55 1a ff 3d e3 72 39 be 77 76 fb bd 53 68 06 3f
       0.12456194 -0.18110232 -0.12278455 0.52502936
000240 1c e0 6e 3e 82 11 2a 3e 27 5f b8 3e db 6f 02 be
       0.23327678 0.16608241 0.36010095 -0.12737982
000250 16 92 9b bd d9 25 3f be df 22 ae bd 7f c2 9f bd
       -0.07596223 -0.18666781 -0.08502745 -0.07800769
000260 33 07 35 3e 70 21 f5 bd 9b d8 89 3d 08 b5 18 be
       0.17678528 -0.11969268 0.06730767 -0.14912808
000270 ef cd f2 3d 97 85 e6 3d 73 e9 8a be d0 bc b2 3e
       0.11855685 0.11255949 -0.27131233 0.34909678
000280 a3 51 f4 bd 90 73 29 be ba 12 76 be 82 6f 5e bd
       -0.119296335 -0.1654799 -0.24030581 -0.05430556
000290 fb 25 d2 bc 0a 87 b5 bd 47 b4 86 bd 61 ab b9 bd
       -0.025652876 -0.08863647 -0.06577354 -0.09065891
0002a0 c9 45 aa 3e b2 b0 96 3e 53 df a9 be c0 8b 4b 3e
       0.33256367 0.29431683 -0.33178195 0.19877529
0002b0 09 98 0f be 2a f8 12 be e8 23 a5 3c 7b 59 a2 bc
       -0.1402284 -0.1435248 0.020158723 -0.019818058
0002c0 e8 ca 44 3d 7f 53 a4 be 14 21 74 3e 20 11 26 be
       0.04804507 -0.32094952 0.23840743 -0.1621747
0002d0 82 6a fe 3d 5a 33 92 ba a0 41 16 3e c7 31 93 be
       0.124226585 -0.001115422 0.14673471 -0.28748915
0002e0 78 7f 5f ba 8b a7 ec bc ab 62 d7 3d 92 a1 9a 3d
       -0.0008525769 -0.028888484 0.10516866 0.07550348
0002f0 e5 45 df bd d0 b0 2a 3c 4d 73 49 bd 26 1c 46 3e
       -0.10902003 0.010418132 -0.049182225 0.19346675
000300 e9 7a c4 3c dd bb ba 3e 03 51 8d be 26 6e aa 3e
       0.02398439 0.36471453 -0.2760087 0.33287162
000310 82 03 20 3e 3a c5 d1 bd 7a 39 ca 3d 0f b8 6f be
       0.15626338 -0.10242696 0.09874244 -0.23410057
000320 56 8f 69 bd f6 10 22 3b a8 d5 8b be 13 f4 fc 3c
       -0.05702146 0.0024729348 -0.27311444 0.030878102
000330 3f a1 b6 3d fe c0 60 bd e9 8a 1a bd 40 9f 44 3e
       0.08917474 -0.05487155 -0.03773013 0.19201374
000340 cf 5f 99 be 4e 50 e3 3c 1b e0 85 be f3 b0 f0 bd
       -0.2995591 0.027748253 -0.2614754 -0.117525004
000350 c7 6b 16 3e 77 39 8d bd 50 4d 72 bd ea 20 c5 3d
       0.14689551 -0.06895726 -0.059155762 0.096254185
000360 dd d1 e9 3d ce 7c c0 bd 66 5c 13 bd c3 5a 60 be
       0.11416981 -0.093988046 -0.03597679 -0.21909623
000370 c9 2e 80 3e 12 f9 83 be 4f 70 a3 bc 13 98 ad be
       0.25035694 -0.25775963 -0.019951014 -0.33905086
000380 9e f7 db bd 55 f2 1d bd a7 06 ab bd 77 f3 8d be
       -0.107405886 -0.038561184 -0.08350878 -0.2772481
000390 91 f4 64 be 8a 4a ed bd 4d 8d 7c bd 35 39 2c be
       -0.2235892 -0.11586483 -0.061658192 -0.16818698
0003a0 ab 23 7f 3e 7e fa a3 3d 3b 12 3c bd 04 73 3d be
       0.2491595 0.08006762 -0.045915823 -0.18500906
0003b0 f9 50 d6 3b 8e 28 2b be c4 e2 9c be de f0 57 3e
       0.0065404144 -0.16714689 -0.30641758 0.21087977
0003c0 de b9 29 be c1 d4 cc 3d 3f 34 87 3d 35 b3 ea 3d
       -0.16574809 0.10001517 0.06601762 0.11459962
0003d0 b6 bb 85 3e 5a 19 58 bd 47 77 b2 3d db ce c8 be
       0.26119775 -0.052758552 0.087141566 -0.39220318
0003e0 60 7e 69 be a8 6b 43 3c 26 ad 05 be 26 b6 36 bc
       -0.22802114 0.011927523 -0.13054332 -0.011151826
0003f0 b3 e5 8e 3d 55 0a 21 3e 72 f8 51 be 06 04 73 3e
       0.069774054 0.15726598 -0.2050493 0.23732004

gnn_base.gnn.gnn1.lin_key.bias f4 [48]
000000 9a 1d ae 3d b5 e0 0b 3e bb f8 3d bd 71 e6 68 3e
       0.0850174 0.13659938 -0.046379786 0.22744156
000010 33 31 f0 bd 17 21 e1 3d fd 96 2d 3e b6 8e 1a be
       -0.11728134 0.109926395 0.16952129 -0.15093502
000020 9f 68 4a bb 89 49 46 3e 97 99 4b be 46 80 04 be
       -0.0030885113 0.19363989 -0.19882809 -0.12939557
000030 d2 2f 7c be 01 3d 32 3e 7b dc 2c 3e f5 ed 2a 3d
       -0.24627617 0.17406084 0.16880982 0.04173084
000040 6c 42 36 3d 67 aa 76 be 6e cc e7 3d 69 63 f6 bd
       0.04449694 -0.24088441 0.11318289 -0.1203068
000050 55 4b 09 3e 0b ac 24 be 56 93 2d be 15 bf 33 3e
       0.13407643 -0.16081254 -0.16950735 0.17553361
000060 54 aa 90 3d bd b3 94 bd 07 6e 25 be 1a 51 60 be
       0.070637375 -0.07260845 -0.16155253 -0.21905938
000070 23 53 34 3e c4 88 ae bd cc e4 5d 3d 15 62 18 3e
       0.17609839 -0.0852218 0.054173276 0.14881165
000080 55 fb 7c bd 02 86 f0 bd 80 b6 0e be 46 dd ae 3c
       -0.061763126 -0.1174431 -0.13936806 0.021345746
000090 57 ab da bc 4c a9 d0 3a aa e1 83 3d 31 8b 65 be
       -0.02669303 0.0015919595 0.064395264 -0.22416379
0000a0 b2 6f 01 3e d3 ae 21 bd 1c c0 5c be 5b 5b b9 bd
       0.12640265 -0.039473366 -0.21557659 -0.09050628
0000b0 b6 76 88 3b e5 6d 5f 3e 85 ce 78 3e c8 fb bf bd
       0.004164542 0.21819265 0.24297531 -0.09374195

gnn_base.gnn.gnn1.lin_query.weight f4 [48, 16]
000000 4a 25 21 be d9 50 37 3e 90 4b 89 3e 5d 40 25 bd
       -0.15736881 0.17901935 0.26815462 -0.040344585
000010 13 f7 42 be 86 33 9a 3d a9 41 18 3e 87 fb fd bd
       -0.19039564 0.075293586 0.14868797 -0.12401491
000020 74 e6 91 bc 0f bd b9 bd ee 86 06 bd aa 1f 97 3e
       -0.017810084 -0.09069263 -0.032843523 0.29516345
000030 b4 13 2f be 25 8f 91 3d 7c 27 f1 3d 1f 02 ae 3d
       -0.1709736 0.07107381 0.11775109 0.08496498
000040 a7 55 63 bd bf 5d 4a 3e cf d7 23 3e 30 fc ae be
       -0.055501606 0.19762324 0.16000293 -0.3417678
000050 f9 5c 46 3d 19 c0 3d 3e cd 6d 1d 3e 48 78 30 3e
       0.04842851 0.1853031 0.15373917 0.17233384
000060 a7 d7 37 be 4b d0 be be 2b 28 98 bd ce 1e e5 bc
       -0.17953359 -0.3726829 -0.074295364 -0.02796879
000070 8f 37 5a 3e f9 03 d4 bd 97 b2 b2 bd 9a fc e8 be
       0.21310256 -0.1035232 -0.087254696 -0.4550522
000080 0e c6 d9 be ca 06 54 3c aa a9 df 3e 5f 8b be 3c
       -0.42533916 0.012941072 0.4368413 0.023259817
000090 ec 09 95 bd 78 66 5d 3d 0e 47 d7 3e 8a a5 c9 be
       -0.07277283 0.0540528 0.42046398 -0.3938411
0000a0 11 e0 70 be 55 3a b7 bd 7a cf 9f bd 79 83 df 3d
       -0.23522975 -0.08946673 -0.07803245 0.10913748
0000b0 f4 de dc bd 88 4e 11 be ed 41 6d 3e 2a 58 cf bd
       -0.107847124 -0.14190114 0.2316968 -0.10124238
0000c0 ba ff 93 be 68 bf 10 b9 a7 42 27 be b3 8f 99 3e
       -0.2890604 -0.00013804215 -0.1633402 0.29992446
0000d0 4d 02 8a 3d ff 49 76 3d 6f 58 a9 be e3 f6 5e 3e
       0.0673872 0.060129162 -0.33075282 0.21773867
0000e0 83 8a b7 bd ec 95 78 be 32 d3 6f 3e 0d 5d 65 be
       -0.08961966 -0.2427594 0.23420408 -0.22398777
0000f0 22 89 1f bc 2e ff d5 bc 97 8f 37 bd 93 c3 22 be
       -0.009737285 -0.026122656 -0.044814672 -0.15894918
000100 33 9c 72 bd 97 fa c0 3d 55 fe 0e be 19 f2 86 be
       -0.059230994 0.09422796 -0.13964207 -0.2635658
000110 7d a1 62 3d f6 69 98 bc de 59 6b be 06 a7 a8 3e
       0.05532979 -0.018605214 -0.229835 0.3293993
000120 89 47 55 be 8c c6 94 3e ad cd 17 3d 94 63 39 3e
       -0.2082807 0.2905773 0.037061382 0.18104392
000130 64 d9 bf 3e 9a b3 86 be 7b f1 32 3e f1 04 a7 3d
       0.37470543 -0.263089 0.1747493 0.081552394
000140 22 10 39 3e 66 03 86 3c ee dc bc be a6 f1 18 be
       0.1807256 0.016359042 -0.36887306 -0.14935932
000150 47 cd 50 bc e4 c1 07 be c6 0a a3 be a8 b4 bd 3e
       -0.012744254 -0.13257557 -0.31844157 0.37051892
000160 b5 27 1c be bb 3c 25 be 02 2d 4b be 3c 08 d8 bd
       -0.15249522 -0.16136448 -0.19841388 -0.105484456
000170 af 01 b7 bd 6f db d9 bd 46 24 5a be 7d d1 e2 bd
       -0.08935868 -0.10637557 -0.213029 -0.11075113
000180 9f e9 8b 3e f2 90 c1 3e 7c 82 a6 3d 46 ba 25 bc
       0.27326676 0.37805897 0.08130357 -0.010115212
000190 76 92 bd bd d3 a6 bd bd 61 90 ea bd e9 00 f4 3d
       -0.09256451 -0.09260335 -0.11453319 0.11914236
0001a0 05 74 84 be 0c c4 e7 3e 6d e4 d4 be ba 3f 43 be
       -0.25869766 0.4526676 -0.41580525 -0.19067279
0001b0 b0 0e 7d 3e 92 7f 75 3e 0e ca 1f 3e 07 a9 09 be
       0.24712634 0.23974445 0.15604421 -0.13443385
0001c0 94 dd a9 be 16 99 21 3e 92 7b 76 be 1c 76 b8 3e
       -0.33176863 0.15781054 -0.24070576 0.3602761
0001d0 b0 67 da 3e de d1 b6 bd e7 2e 06 3e 19 96 98 bd
       0.42657232 -0.08926748 0.1310383 -0.07450504
0001e0 c2 f5 13 3e 04 8d 59 be 71 e7 03 3f 6e 50 20 3d
       0.14449218 -0.212452 0.51525027 0.039139204
0001f0 18 3f 69 bc 16 c3 25 bd 27 d3 0c 3e 11 70 f2 bd
       -0.014236234 -0.04046925 0.13752423 -0.11837781
000200 3b dc 35 3e 12 0e 6f 3e aa 59 3b be 23 ca 3c 3e
       0.17759793 0.23345211 -0.18295923 0.18436484
000210 8b 04 bd be f5 ae 7d 3e 87 7e 92 be 4c 97 1e 3e
       -0.3691753 0.24773772 -0.28612158 0.15487403
000220 05 54 75 3d 19 f7 99 3e 5c 23 d7 be 1a cf 89 be
       0.05989458 0.30071333 -0.42019165 -0.26915818
000230 14 a3 d1 3e 45 ce 1e bd fa f8 8f be 0b 0f 00 3e
       0.4094473 -0.038770933 -0.28119642 0.12505738
000240 1b 0b be bb 54 60 ef bd dd be 18 3e 5d 78 39 be
       -0.0057996637 -0.11688295 0.14916559 -0.18112321
000250 9c 32 49 3e 9a cc 51 3e 29 52 5e 3e 2f 6f 68 be
       0.19648212 0.20488206 0.21711029 -0.22698663
000260 9c c6 20 be 6c 84 74 3e 09 5f 8c be 30 f4 c2 bd
       -0.15700763 0.2387864 -0.27416256 -0.09519231
000270 78 bd 0e 3e c4 2e 28 3e 12 71 df 3d 3d f4 0d 3e
       0.13939464 0.1642409 0.10910238 0.13862701
000280 1f 08 d9 3d fe e6 01 be 02 05 bc be 8c 6c b0 3d
       0.10597252 -0.12685773 -0.3672257 0.08614454
000290 7a e3 b1 bd 98 7f 3b 3d fc 83 37 bd 3f 06 f3 3d
       -0.08685966 0.04577598 -0.044803604 0.11866426
0002a0 2e 9f 37 3d f6 2b 75 bd 57 21 08 be 7c 4d 80 bc
       0.04482954 -0.059856378 -0.13293968 -0.015661947
0002b0 ad 36 87 3e 69 50 25 3d 7d 87 a3 3c 3f e6 0c 3e
       0.26408902 0.04035989 0.019962067 0.13759707
0002c0 92 df b6 3d 35 01 19 3e 70 ac a5 3e dd d9 d3 bd
       0.089293614 0.14941867 0.32358122 -0.103442885
0002d0 90 dd e5 3c 15 2b 10 3e 2d 28 cb bc cc 2f 11 be
       0.02805975 0.14078934 -0.02479943 -0.1417839
0002e0 44 0e e5 3d da da bc 3e c4 57 24 bd ac 9e eb 3a
       0.111843616 0.3688572 -0.040122762 0.0017976365
0002f0 68 d9 22 3e 6e c8 8c be f0 3c 12 be 6b e3 ad 3e
       0.15903246 -0.27496666 -0.14281058 0.3396257
000300 3c 60 e6 bd fe 89 30 be 87 c9 a7 3d 7c 40 90 3e
       -0.11248824 -0.1724014 0.08192735 0.28174198
000310 cd 06 5f 3e 8b f5 99 3d f3 f5 72 be 9d 95 0c 3e
       0.21779938 0.07517537 -0.23726635 0.13728948
000320 07 5a 0d 3e ea 1e 9f 3c 3b 0f bc bc 93 db 06 bd
       0.13803874 0.01942392 -0.022956481 -0.032924246
000330 2e 74 2c be 66 00 ab 3e 94 8c 29 bd 9f c3 a8 3e
       -0.16841194 0.3339874 -0.04139383 0.32961747
000340 dd 44 61 3d 3f 6c 6d bd 40 a6 ba 3d 87 ba 45 3e
       0.054997314 -0.05796456 0.09113741 0.19309436
000350 2a 8c 5b 3e 8c 4e 4e be d2 5e eb bc 12 0a 67 3d
       0.21440187 -0.20147151 -0.028731737 0.05640609
000360 e2 56 18 be f3 cb e7 be 26 c7 e3 3d 08 6e d6 3c
       -0.14876893 -0.45272788 0.11121969 0.026175514
000370 8e 9d 99 3e f3 95 f4 3b 05 33 0d be a6 e2 8d be
       0.30003017 0.0074641644 -0.13788994 -0.27711982
000380 ad b1 4e 3e d0 33 99 3d 9f b8 59 3e b1 a2 30 3e
       0.20184965 0.074805856 0.21261834 0.17249562
000390 f3 e1 4f 3c 16 f9 9e 3e d1 c6 34 be db 62 69 bd
       0.012688148 0.31049412 -0.17653967 -0.05697904
0003a0 0f 34 e1 bd 38 8d 05 3e c4 33 39 be 71 4e 48 3e
       -0.109962575 0.13042152 -0.18086153 0.19561173
0003b0 96 d1 a5 3d 4e a9 1e 3e e6 3b d1 3d 00 94 9c 3d
       0.08096616 0.15494272 0.10216503 0.07645416
0003c0 69 53 1b be f3 2e bb be 4e 34 40 bc 58 bd 41 3d
       -0.15168537 -0.36559257 -0.01173122 0.047299713
0003d0 1b e8 0f bd fd 28 21 be e3 40 9d bd 0d 78 21 be
       -0.035133462 -0.15738292 -0.07678392 -0.15768452
0003e0 a6 da 0f 3e 42 18 a6 3d e3 25 4e be ce 5d b0 be
       0.14048252 0.081100956 -0.2013164 -0.34446567
0003f0 9e e8 64 be c8 36 f6 bd af 7d 6d bc b7 a8 c9 3e
       -0.22354361 -0.120221674 -0.014495297 0.39386532

gnn_base.gnn.gnn1.lin_query.bias f4 [48]
000000 63 86 40 3e b3 3e 81 3e e4 03 bf bc 5d 90 a4 3e
       0.18801264 0.25243148 -0.023317285 0.3214139
000010 81 b9 8c bc 04 bf fd bd 5d 21 ba be d4 51 7d 3e
       -0.017178299 -0.12389949 -0.3635358 0.24738246
000020 2c 22 d1 bd e9 bb 99 3a 73 bc c2 3d a3 e2 7f bd
       -0.10211596 0.0011728975 0.095086 -0.062471997
000030 aa f5 57 bd e7 e9 87 3c 15 43 48 be 5f e3 ee bd
       -0.052724518 0.016591026 -0.1955684 -0.11664461
000040 1a 34 d5 be 47 b1 69 be ae 95 07 3e 6e de 87 3e
       -0.41641313 -0.22821532 0.13240692 0.26536888
000050 c2 de 94 bd 93 2d 35 3c 21 64 8a 3d 4f 47 0d 3d
       -0.0726905 0.011058229 0.06757379 0.034491833
000060 64 8f 01 be d2 5b 2d 3e cc d0 b6 bd de 0b 64 3e
       -0.12652355 0.16929558 -0.089265436 0.22270152
000070 c5 5a 37 3e a5 ac 42 3e 5a 5a 2c 3e 7e e2 ab 3d
       0.1790572 0.19011171 0.16831341 0.08392809
000080 a1 25 8a bd e4 f9 82 bd 38 c9 c5 be 87 70 90 be
       -0.067454584 -0.06395319 -0.3863008 -0.28210852
000090 72 3c 33 be 4c a4 6d 3d 15 31 b2 bd 70 9a 14 bd
       -0.17503527 0.058018014 -0.08700768 -0.036280096
0000a0 fc af 03 ba 49 1d d1 3d ec e6 be 3d e9 90 43 3e
       -0.0005023477 0.10210664 0.093213886 0.19098248
0000b0 be a6 d5 3d 92 fe 9d be 8c 58 ca 3e 26 ad 6d be
       0.10432194 -0.30858284 0.3952068 -0.23210582

gnn_base.gnn.gnn1.lin_value.weight f4 [48, 16]
000000 65 06 c0 bd 26 f6 92 3e 46 93 11 be 9e 1c 39 3d
       -0.0937622 0.2870342 -0.14216337 0.045193307
000010 d4 9a 72 3e 02 9a f8 bd 62 ac 1d 3e 63 e1 71 3e
       0.23691875 -0.1213875 0.1539779 0.23621134
000020 5f ce 66 be b3 0a 80 bc cd 1d 9b bd de e3 cb 3b
       -0.22539662 -0.015630102 -0.075740434 0.0062222322
000030 e2 53 e0 3d f4 ec 88 bc 97 e0 51 3e 5a 0f 34 be
       0.109534994 -0.01671455 0.2049583 -0.17583981
000040 32 ba 02 be b8 5a 9c bd fb a5 a7 bd ee 3a 85 3c
       -0.1276634 -0.07634491 -0.08185955 0.016263451
000050 01 4f 22 bd 7b 9f 45 3d 62 f4 86 3e 75 fb 87 be
       -0.039626125 0.048247796 0.26358324 -0.26559034
000060 73 47 d6 be e9 a5 d6 3c a0 a1 38 bd 47 dc 8c be
       -0.41851386 0.026202159 -0.045076013 -0.27511808
000070 87 98 96 3c 2a d5 dd bc 1e 77 f0 bd 3a 44 ca be
       0.018383278 -0.027079184 -0.1174147 -0.39505178
000080 d0 d3 24 be 70 c7 9b bd ef b5 8f 3d d3 11 20 3e
       -0.16096425 -0.07606399 0.07017123 0.156318
000090 3a 4c a1 3e 0e cd 61 be c2 ce 8e 3e 31 75 a2 3e
       0.3150347 -0.22050878 0.2789212 0.31730035
0000a0 70 e1 45 bd a0 b2 bf bd 98 6b 7b 3e 55 93 8c bc
       -0.048310697 -0.09360242 0.24552763 -0.017160097
0000b0 f4 d4 51 3d d0 b7 48 3e d6 ff 1f bd b6 6c 3c be
       0.05122848 0.19601369 -0.039062344 -0.18400845
0000c0 7b c9 03 be 52 d2 ef 3d fb 5a 0b be 59 3b 5b 3e
       -0.12869827 0.11710037 -0.13608925 0.21409358
0000d0 02 24 dc bd 11 ad be bc d9 4b 8b 3e 5f dd 98 3d
       -0.107490554 -0.023275884 0.27206305 0.07464098
0000e0 74 d7 85 3e d1 79 87 be 17 34 f3 3d e7 66 a6 3d
       0.2614094 -0.26460126 0.1187517 0.08125096
0000f0 fe 28 4b 3e 05 74 4e be d1 58 59 bc 3c 63 b5 3d
       0.19839856 -0.20161445 -0.013265804 0.08856818
000100 11 2d 81 3e fd c8 7c 3e 6f 04 1a be 63 b2 88 be
       0.25229695 0.24686046 -0.15040754 -0.26698598
000110 ac 04 34 3d e2 dd a3 3e 5a bf ac bd cd 1a 01 3e
       0.043949768 0.3200522 -0.08434935 0.1260788
000120 b1 02 cc 3e 29 03 2b 3e 0b 61 2c be e6 3e ee 3d
       0.39845803 0.16700424 -0.16833894 0.11633091
000130 61 b9 a5 bd 7e 57 b1 be 44 99 ba 3e f9 bc 51 3d
       -0.08091999 -0.34637064 0.36445057 0.05120561
000140 6f 15 d5 bd 00 18 41 3e da a4 16 3e 5d 6c 80 bd
       -0.10404479 0.18856812 0.14711323 -0.06270669
000150 bb 10 c1 be e3 a3 5e 3e 24 9f 42 be 66 47 ad b9
       -0.37708077 0.21742205 -0.1900602 -0.00033050327
000160 e9 d8 30 3e 60 92 ad bd 80 66 c7 be f0 f5 51 3e
       0.17270245 -0.084751844 -0.3894539 0.20503974
000170 61 82 99 3c 4d 9a 4d be 4e d3 90 3e 91 b7 1f be
       0.018738927 -0.20078392 0.28286213 -0.15597369
000180 23 86 05 3e a9 2f 08 3f 9c 0c c4 3d fb 83 06 be
       0.1303945 0.53197724 0.095727175 -0.13136284
000190 a9 01 c7 be ad b0 37 3e a9 52 9b 3d 5f 87 00 3c
       -0.38868454 0.1793849 0.075841255 0.007844775
0001a0 b5 75 0f be 91 48 3f be 21 6f 21 bd 07 f1 6b 3a
       -0.14009745 -0.18680026 -0.03941262 0.00090004544
0001b0 30 a7 08 3e f1 59 50 3b 12 b4 88 be ad b5 cf be
       0.13345027 0.003179189 -0.26699883 -0.40568295
0001c0 42 bf 45 be 17 14 b1 3e 20 92 86 3e d3 32 af be
       -0.1931124 0.3458564 0.2628336 -0.34218463
0001d0 1f af bb be fe 2c 94 3b 90 a6 b0 bc b4 a2 10 3d
       -0.36657044 0.004521965 -0.021563798 0.035311416
0001e0 2d 49 7a 3d 10 6b 20 be 5f 3d 8b 3c be 07 dc bc
       0.061104942 -0.15665841 0.016997037 -0.02685916
0001f0 2a 56 ee bc 89 1f 40 3e 28 fd 08 3e 02 00 ad be
       -0.02909382 0.1876203 0.13377821 -0.33789068
000200 28 0e 29 3e eb 81 b7 3e 5b d5 05 be b1 d2 53 be
       0.16509306 0.35841307 -0.1306967 -0.20685841
000210 4b 13 43 3e cc 7c d2 3d 65 a2 38 be 70 59 70 3e
       0.19050328 0.10277709 -0.18030699 0.23471618
000220 1c ce 77 3e cd 8e c4 bd 41 ed 4d 3d 50 d6 b1 3e
       0.24199718 -0.095975496 0.05027509 0.3473382
000230 9c 89 a2 3e a9 c2 99 bc 16 c3 07 be 62 f1 8f 3e
       0.31745613 -0.018769579 -0.13258013 0.28113848
000240 b7 3a 66 3e fd 1d ca bd 87 27 12 be 52 23 a4 bd
       0.22483335 -0.09869001 -0.14272891 -0.08014549
000250 80 3f 8a bd a7 0a 51 3e 1c 39 7a be b1 08 a9 3e
       -0.06750393 0.2041422 -0.24435848 0.33014444
000260 0a 05 1f bd 0e 8c ff 3e 3a 45 a6 be fd 7a 57 be
       -0.038823165 0.4991154 -0.3247469 -0.2104301
000270 8f 6d 8b 3e b6 62 96 3e b9 cf 6d be bd ac 07 3c
       0.27232024 0.29372185 -0.23223771 0.00828093
000280 d5 6a cd bd 3d 17 25 3e 67 70 c0 3c 08 a4 87 be
       -0.10030142 0.16122146 0.023491098 -0.26492333
000290 17 44 96 bd 5f f6 c0 3e 71 41 1e 3d 6a 9f 59 3e
       -0.07337206 0.37687966 0.03863663 0.21252218
0002a0 e3 ad 7c 3e a6 aa 39 be 54 d4 60 be 03 af d9 3e
       0.24675708 -0.18131503 -0.21955997 0.42516336
0002b0 77 0e 9c 3d 07 a0 29 3d 3e 5f 2e be be 86 e9 bd
       0.076199464 0.04141238 -0.1702852 -0.11402653
0002c0 0d d8 a5 3b e2 38 de bd ef 1e ff bd 00 54 57 3e
       0.0050611557 -0.10850693 -0.12457072 0.21028137
0002d0 6a cd b9 bd ef c4 cd 3d 6a 1d c7 3c 9f 3f 04 bd
       -0.09072383 0.10047328 0.024306018 -0.032287236
0002e0 42 31 94 3d aa c3 13 3e 42 e1 88 3d 36 0c e4 3d
       0.07235958 0.14430109 0.066835895 0.111351416
0002f0 02 d0 93 3d c2 93 06 3e 3c 2f df 3d 2e dd 3a 3e
       0.07217409 0.13142303 0.10897681 0.18248436
000300 18 19 51 bd 9c 39 84 3e 15 34 63 be da 82 99 3b
       -0.051049322 0.25825202 -0.22187836 0.004684788
000310 c1 25 a9 bd a2 7a ae 3e e1 23 ae 3e cb 4c cd 3d
       -0.08259154 0.34077936 0.34011748 0.10024413
000320 9b 9e 26 be 8c af 84 3e 24 f9 b4 be 9d a0 6c 3d
       -0.1627144 0.25915182 -0.3534633 0.05777036
000330 2f b3 af 3e da aa e3 bd de 5e a1 3b 75 1c 89 be
       0.34316394 -0.11116572 0.004924639 -0.26779523
000340 63 37 92 3e 85 59 75 be 95 8c b0 3c b6 6c d8 bd
       0.28557882 -0.2395993 0.02155141 -0.1056761
000350 fc 37 43 3e 3c cf e6 3d da 00 1a 3e 82 60 3a be
       0.19064325 0.112699956 0.15039387 -0.18200877
000360 2a 00 3d 3e 35 96 92 bd dd c1 d3 3c 79 f9 20 bd
       0.18457094 -0.07157556 0.025849277 -0.039300416
000370 17 12 d9 3e 01 81 ed bd 58 b4 5d be 30 2e 0c 3e
       0.42396614 -0.11596871 -0.21650827 0.13689494
000380 a1 89 85 be 78 af f0 bd b1 e3 c0 bd 6e 41 f4 3d
       -0.26081565 -0.11752218 -0.09418429 0.11926542
000390 6b 04 99 bd 4d 8d 94 3d bc 24 19 3e 87 11 a8 bc
       -0.07471546 0.072535135 0.1495542 -0.02051617
0003a0 96 94 43 be 18 78 14 be af 1d 92 3d 56 32 5a be
       -0.1909965 -0.14498937 0.07134568 -0.21308264
0003b0 a6 88 56 bc bd 92 1f 3d a8 0f 49 bd 19 44 80 bd
       -0.013094103 0.0389583 -0.049087197 -0.062629886
0003c0 bd 47 67 be 0c c2 ad 3d 91 5a 30 3e c0 55 92 3d
       -0.2258596 0.08484277 0.17222048 0.07145262
0003d0 f7 78 06 3f 7a a7 7f be bc fa 24 3d 3b 39 06 3e
       0.5252833 -0.24966231 0.04027818 0.13107769
0003e0 f2 49 63 bd 7a 0c 1d 3e a0 50 ef 3c dd 7e 96 3d
       -0.05549044 0.1533679 0.02921325 0.07348416
0003f0 76 f7 6e be 97 9e d5 3c d6 b4 9b 3e f0 f4 67 3d
       -0.23336586 0.026076598 0.30411404 0.056630075

gnn_base.gnn.gnn1.lin_value.bias f4 [48]
000000 d2 74 18 3e 62 d0 46 3e 93 ac cc bd 3c 93 84 3d
       0.14888313 0.19415429 -0.099938534 0.06473395
000010 17 5f 23 be 84 05 22 bd 20 a5 1e 3e d3 56 a1 bd
       -0.15954243 -0.03955604 0.15492678 -0.078778885
000020 e7 b8 44 be 70 d0 15 bb c5 cb 25 be 8f d5 36 3e
       -0.1921116 -0.0022859834 -0.16191013 0.17854904
000030 1b 94 08 be 7a 1b 8a bd 64 14 62 3e 2e bb 1e be
       -0.13337748 -0.06743522 0.22078091 -0.15501091
000040 68 d2 35 be 18 37 a2 3e 19 e1 a7 be 03 ce 5a be
       -0.17756045 0.31682658 -0.32788923 -0.2136765
000050 f2 1d f2 bd 20 00 68 bd d3 99 64 3e 77 54 c0 be
       -0.11822118 -0.056640744 0.22324304 -0.37564442
000060 22 d3 10 bd 63 e2 24 be a7 7d 88 3d 09 59 55 3e
       -0.035357602 -0.16101985 0.06664591 0.20834745
000070 30 ea ec 3d 3e 95 be be 95 e0 7e 3d 01 22 54 3e
       0.11568105 -0.37223238 0.062225897 0.20716096
000080 e6 8b ff 3d d2 72 6e bd 88 cb 94 3d 21 ff 42 3d
       0.124778554 -0.05821497 0.07265383 0.04760659
000090 a5 c3 c3 be 7c 0b 46 be ef 21 49 be d6 aa a3 be
       -0.38235202 -0.19340318 -0.19641851 -0.31966275
0000a0 24 6c 73 be de 30 ff bd 1e ad 01 bd 79 84 35 3e
       -0.23771721 -0.124604926 -0.031659238 0.17726316
0000b0 18 92 2e 3e 11 cd c6 bd af 0e 99 3e 9e 82 39 3e
       0.17047918 -0.09707082 0.29894015 0.18116233

gnn_base.gnn.gnn1.lin_edge.weight f4 [48, 1]
000000 fd 86 85 3e a0 cb c8 be cc df cc 3e 8b 8c ce 3d
       0.2607955 -0.39217854 0.40014493 0.100854
000010 7e 9b 95 bf 84 e0 ce be 14 26 07 bf 61 9c 3d 3e
       -1.1688077 -0.40405667 -0.5279248 0.18516685
000020 e2 7a 3c bf 4e 6a 98 3e 2b 3c 89 be 0d ee 93 be
       -0.73625004 0.29768604 -0.26803717 -0.28892556
000030 a0 53 00 3f 93 56 27 3f 3e 6e bf 3e d3 1b 2e 3e
       0.501276 0.65366477 0.37388796 0.17002802
000040 aa 96 f1 bc 76 dd cf bd 93 f5 09 3f 1b 5a 9d be
       -0.029490788 -0.10149662 0.5389034 -0.30732808
000050 34 f5 cd 3e e9 ed 30 3f 05 57 7e bf b3 2e 8c bc
       0.40226138 0.6911302 -0.9935153 -0.017112112
000060 00 25 b1 be c2 3d db 3d 44 cc 1a 3f 91 0b a4 3b
       -0.3459854 0.10705139 0.60467935 0.0050062616
000070 1a e6 01 bf bd 4f 50 be d6 0d d9 be 09 65 16 3f
       -0.5074173 -0.20342918 -0.42393368 0.5874792
000080 53 25 11 3f 1e ee 15 3e 0f 86 5e bf cd d5 93 bd
       0.5669758 0.14641616 -0.8692331 -0.07218514
000090 08 f4 2e 3f b5 00 99 bd 26 a4 8b 3e 8c 6c 6f bf
       0.6834111 -0.07470838 0.27273673 -0.93525004
0000a0 0c 7f d4 3d f4 bb 0a 3f 84 2b 07 be 56 54 4b be
       0.10375795 0.54193044 -0.13200194 -0.1985639
0000b0 a8 ba 96 3e 2d 5a 71 bf e3 27 d9 3d f4 bc a7 be
       0.29439282 -0.9427822 0.10603311 -0.32761347

gnn_base.gnn.gnn1.lin_skip.weight f4 [16, 16]
000000 ef 89 6f 3e a1 c0 20 bd 08 60 90 3e ae 94 bf bd
       0.23392461 -0.039246205 0.28198266 -0.0935453
000010 23 82 a0 bd 0b 12 1d 3e c3 22 01 3e fa db 83 be
       -0.078373216 0.15338914 0.12610917 -0.25753766
000020 9d f7 d6 bd 54 62 78 bc 20 01 3e 3d d5 a4 1b 3d
       -0.10496447 -0.015160162 0.04638779 0.037998993
000030 e9 0f 2d be 2a ca f9 be fc e6 cb 3e 01 ec c3 bd
       -0.169006 -0.4878705 0.39824665 -0.095664985
000040 c7 4b 07 3d 5a d1 83 bc 7a 91 08 bd 2b 2f d6 3d
       0.03303125 -0.016091038 -0.033341862 0.10458215
000050 9b 7e ec 3e bc 6a 61 bd f1 2a 7a 3d ac 3f ab be
       0.46190342 -0.05503343 0.06107611 -0.33447015
000060 d5 0d 0a bd a6 a3 7c bd 5e c3 1f bf 9d 9d 63 be
       -0.033704598 -0.061679505 -0.6240748 -0.22228093
000070 72 3e 75 3e b4 90 59 be ac 11 1b 3e af 43 b5 3c
       0.23949602 -0.21246606 0.1514346 0.022127
000080 87 1c 26 3e 4d bb b2 3e d3 8c 34 be 29 15 72 be
       0.1622182 0.34908524 -0.17631845 -0.23640884
000090 dc 61 0d bf f4 d0 3d 3e 00 3f 42 3e 75 60 80 3e
       -0.55227447 0.1853674 0.18969345 0.2507359
0000a0 5f 6a 7e 3e 53 cb bd 3d e7 01 32 3e d2 16 95 be
       0.24845265 0.09267297 0.17383538 -0.29118973
0000b0 a9 78 96 3d cb b5 d3 be 5c 84 10 3d 56 56 f9 3c
       0.07347233 -0.41349635 0.035282478 0.030436676
0000c0 27 d8 f6 3b 9d 3c 15 3d 61 9a b7 3c 9b d7 e7 bc
       0.0075330916 0.03643476 0.02241248 -0.02830105
0000d0 05 0b 61 be 32 d2 eb 3e e8 72 26 3c 97 24 16 3e
       -0.2197686 0.46058804 0.010159232 0.14662395
0000e0 c7 5e b3 3e c5 a0 f2 3d 5a 96 c7 be a8 52 dd 3d
       0.35033247 0.118470706 -0.38981897 0.10806781
0000f0 4f 2f af 3e 9f f9 9a bb af f9 09 be 3d 28 6d 3d
       0.3421578 -0.004729464 -0.13474153 0.057899702
000100 f4 43 7f bb 9c ac 10 be 7d 45 1a be 3f e7 34 3d
       -0.0038950415 -0.14128345 -0.1506557 0.044165846
000110 4f 9b 4d be c6 23 41 3e c4 67 a1 be 7c cd 39 bd
       -0.20078777 0.18861303 -0.3152448 -0.04536198
000120 db 2b 13 3d ed 24 5a bd 5a 78 fa 3d 77 80 91 3d
       0.035930496 -0.05325787 0.122299865 0.07104581
000130 94 46 21 be 17 20 10 bd 86 bf fc 3d df f3 28 be
       -0.1574958 -0.035186853 0.12341218 -0.1649928
000140 95 9e b7 3d 26 26 95 3d 3e b6 97 be ef cf 86 3d
       0.08965794 0.07282667 -0.29631227 0.06582629
000150 2b 06 a2 bc 3b 29 7b be 7c be 53 be c3 c2 9b 3e
       -0.019778332 -0.24527447 -0.20678133 0.3042203
000160 df b0 6b 3e 0f 1f 67 3e 67 e5 37 3e 72 2b 29 38
       0.2301669 0.22570442 0.17958604 4.03332e-05
000170 04 a8 32 3e 2a 9b 0b 3e 2d 73 7f bc e5 42 bf 3d
       0.17446905 0.13633409 -0.015591425 0.09338931
000180 90 34 1e be 9f 4f ea bd 11 78 a4 be 9a 69 0a bd
       -0.15449739 -0.11440968 -0.32122853 -0.033792116
000190 f8 67 cc be 3a 6f 82 3e 04 7f 60 3e 60 14 c4 bd
       -0.39923072 0.25475484 0.21923453 -0.09574199
0001a0 6d 0b 19 be 08 2c 20 3e fd 47 29 bd 43 6c 5e 3e
       -0.14945765 0.15641797 -0.04132842 0.21720986
0001b0 ab 28 40 3e f8 9b 0a be 65 77 ae bc fa a3 05 3e
       0.18765514 -0.1353606 -0.021297166 0.13050833
0001c0 2c 50 bf be 9d 0a 5b be d6 e0 e5 3d b5 98 36 be
       -0.37365854 -0.21390767 0.11224525 -0.1783169
0001d0 0a c1 52 be e5 a4 60 be 4e b0 8d 3e 11 43 8e be
       -0.20581451 -0.21937902 0.27673572 -0.27785543
0001e0 ca 34 8e bd a0 c9 56 be db ea 90 3d 1a 82 a2 3e
       -0.069436625 -0.20975351 0.07076045 0.31739885
0001f0 59 e7 56 be 99 ad b6 3e 96 c4 5f be 0e 57 8e 3d
       -0.2098669 0.3567932 -0.21852335 0.06950198
000200 04 68 8c 3e 1f 40 80 3e f2 82 8f bd 15 9d 97 be
       0.27423108 0.2504892 -0.07007398 -0.29612032
000210 d6 e6 63 3e 33 fc 80 3e ee d6 da be 7e 16 19 3e
       0.22256026 0.25192413 -0.42742103 0.14949986
000220 10 6c 89 3c f1 f2 33 3e a3 e4 89 bd 70 3e 5c 3e
       0.016775161 0.17573144 -0.06733062 0.21508193
000230 68 9d dd 3b 73 dd 16 bd 6a 60 81 bd d0 14 ae bc
       0.006763149 -0.036832284 -0.06317218 -0.021250159
000240 84 36 6c bd 43 fa de bd 93 27 17 be 5e 2d db bd
       -0.057669178 -0.108875774 -0.1476119 -0.107020125
000250 cc 5c 48 be 53 b7 17 3e 16 d2 02 bd 6f 82 91 3e
       -0.19566649 0.14816026 -0.031938635 0.28419825
000260 c3 0e 0b 3e 10 20 f1 3e a9 74 9c be 1c b5 dd 3d
       0.1357985 0.47094774 -0.30557755 0.108255595
000270 c4 ee 8f 3e 50 24 d3 bc d3 5c 90 bd 8f 72 7b 3d
       0.2811185 -0.025774151 -0.07048955 0.06138855
000280 b9 23 95 3d 86 23 a4 3e 23 14 8d 3d 4f 3e 8d be
       0.07282204 0.32058352 0.068886064 -0.275866
000290 27 77 4b bd 62 2b 29 3e 37 ac a9 3c 58 a7 ff 3d
       -0.04967418 0.16520455 0.020712001 0.1248309
0002a0 3f 09 ac 3b 6f c3 ae 3d 1a e5 bf bb 45 3c bd 3e
       0.0052501257 0.0853337 -0.0058561685 0.36960045
0002b0 03 2d 03 3e d1 f8 90 bb c2 c3 c2 bd 89 69 ab 3d
       0.1281014 -0.0044241925 -0.09509994 0.083697386
0002c0 2e f8 39 3e 5e 80 66 3e 56 5d 13 bf 21 d3 40 bd
       0.1816108 0.22509906 -0.57564294 -0.04707635
0002d0 cf e5 0c be 25 e4 8e 3e 6b fe 22 be 82 3d 37 3e
       -0.1375954 0.27908435 -0.15917365 0.17894557
0002e0 31 0e d0 3d 66 73 e9 3e 53 69 eb 3d 85 5b 1e be
       0.10158957 0.45595855 0.114946984 -0.154646
0002f0 3b f4 de bd 40 3c fa 3e b9 8d 3a bd db 41 63 bd
       -0.10886427 0.48874092 -0.045545314 -0.055482727
000300 cf b1 17 3b b1 0b b6 3c 7a d3 1d be 57 a1 12 3e
       0.0023146754 0.022222372 -0.15412703 0.14319359
000310 b9 e5 a6 3e b9 9f a0 3c 99 87 1e 3e 5d 83 ba 3d
       0.3259714 0.019607412 0.15481414 0.09107087
000320 9c 3e b0 bd cc ce 65 be d4 41 8b 3c 08 26 43 3d
       -0.08605692 -0.22442168 0.016999163 0.04764369
000330 03 6e c9 bd 81 d0 b0 be 13 0b d3 3e 4d 87 8f be
       -0.09835436 -0.34534076 0.41219386 -0.28032914
000340 28 17 58 3e 25 d4 3c be 07 ca 38 be 0d 4b 06 3e
       0.21102583 -0.18440302 -0.18045817 0.13114567
000350 81 90 40 3e f9 51 e9 3c e2 af 51 3d 05 45 3b be
       0.18805124 0.02848147 0.051193126 -0.18288048
000360 ab 72 38 3d d9 d1 82 3d 30 be 25 be 39 f3 90 3e
       0.04503123 0.063876815 -0.16185832 0.28310564
000370 64 bd 15 3f d0 8e a1 be 41 9d 5d bd 95 97 84 3d
       0.5849211 -0.3155427 -0.054105047 0.064742245
000380 6b 8b d0 3b dd 0a 28 bd 64 48 10 3d 60 c0 52 be
       0.006364276 -0.041025985 0.035225287 -0.20581198
000390 46 ff eb be 16 de 4a be 38 66 27 be 5e 1a 60 3e
       -0.46093196 -0.19811282 -0.16347587 0.21885058
0003a0 a7 a2 3b be 65 b6 5c be ae 6b 6d 3e 6d 0f 19 3c
       -0.18323766 -0.21553953 0.23185608 0.009342057
0003b0 4e 07 1c 3d 00 a1 4d 3e b6 0b d3 3d 66 75 0c 3e
       0.038092904 0.20080948 0.10304968 0.13716659
0003c0 ae ae 80 3d ca 8d 38 bd b7 37 89 3e 28 74 65 3e
       0.062833175 -0.045057096 0.2680032 0.22407591
0003d0 c7 8b d3 3e 24 ba 23 be b3 ee 5b be 5c 78 04 3d
       0.4131758 -0.15988976 -0.21477775 0.032341346
0003e0 c0 bc af be 73 e9 e3 bd 04 4f b8 be 70 1b 5e bc
       -0.34323692 -0.11128511 -0.35997784 -0.013556346
0003f0 ab 2c 28 bd 57 9e 24 3d da 5d 56 3e 5a aa 6a bd
       -0.041058224 0.040190067 0.20934239 -0.057291366

gnn_base.gnn.gnn1.lin_skip.bias f4 [16]
000000 76 e6 79 3d 0b 37 b9 3c 23 3b 26 be b6 78 2f 3e
       0.0610108 0.022609254 -0.16233496 0.17135891
000010 a5 01 c7 be 61 d2 f4 bd 72 f8 00 be 64 65 20 be
       -0.38868442 -0.11954189 -0.12594774 -0.15663677
000020 2a 2c 2d be ae f7 5e be ac 04 e3 bc 71 0d ff bc
       -0.16911379 -0.2177417 -0.027712189 -0.031134339
000030 99 02 65 be 59 82 fd 3d 64 bc b7 3d 24 75 03 3e
       -0.22364272 0.123783775 0.089714795 0.12837654
