model_weights/FA_FR/metered/critic.pt (torch, 191627 bytes, 57 tensors)

gnn_base.gnn.embed_layer.layer_norm.weight f4 [16]
0	0x3f88e4de	1.0694845
1	0x3f87e00c	1.0615249
2	0x3f890d5c	1.0707202
3	0x3f922115	1.1416346
4	0x3f82a2fa	1.0205986
5	0x3f967264	1.1753659
6	0x3f56ed94	0.83956265
7	0x3f7cf5f3	0.9881279
8	0x3f946f2e	1.1596429
9	0x3f639940	0.88905716
10	0x3f5e9d48	0.8695874
11	0x3f898f81	1.0746919
12	0x3f6be5af	0.92147344
13	0x3f499267	0.7873902
14	0x3f874150	1.0566807
15	0x3f6b7c4c	0.91986537

gnn_base.gnn.embed_layer.layer_norm.bias f4 [16]
0	0x3c8db640	0.017298818
1	0xbe4baad9	-0.19889392
2	0xbd810874	-0.063004404
3	0x3bb4def9	0.0055197445
4	0x3e33cfea	0.17559782
5	0x3c988b7e	0.018621203
6	0x3dd9ea56	0.10640399
7	0xbd174a35	-0.036936004
8	0xbb8c5e51	-0.0042837043
9	0x3e2bf6d7	0.1679338
10	0x3e2d9b1a	0.16953698
11	0x3c5d3c82	0.013503196
12	0x3e1cc546	0.15309629
13	0x3e895b5d	0.26827517
14	0x3d465203	0.048418056
15	0xbe9a5f5d	-0.3015088

gnn_base.gnn.embed_layer.entity_embed.weight f4 [4, 2]
0	0xc004b7e1	-2.073723
1	0xbf96cdea	-1.178159
2	0xbf1a35b5	-0.602382
3	0xbfa5815c	-1.2930102
4	0x3f4c2adb	0.7975289
5	0xbff22372	-1.8917067
6	0xbe5df02b	-0.21673648
7	0x3f2629ef	0.64907736

gnn_base.gnn.embed_layer.lin1.weight f4 [16, 10]
0	0x3f474d1f	0.7785205
1	0xbd80920f	-0.062778585
2	0x3f4568b3	0.77112883
3	0xbedc4205	-0.4301912
4	0x3f253ec7	0.64548916
5	0x3deade66	0.114682004
6	0xbdd345d2	-0.103160515
7	0xbe9bfa68	-0.30464482
8	0xbef79c53	-0.48361453
9	0xbe7fdb7f	-0.24986075
10	0x3d0c6837	0.034279075
11	0xbcd839ea	-0.026394803
12	0xbed3b4fb	-0.41349015
13	0xbed1e409	-0.4099429
14	0x3f10dd13	0.5658733
15	0xbe801053	-0.25012454
16	0xbc2b6d42	-0.010463061
17	0xbeed2e38	-0.46324325
18	0xbdd0977b	-0.101851426
19	0x3ee8c068	0.45459294
20	0x3cbae9f4	0.022816636
21	0x3d9bc665	0.076062
22	0x3d243cff	0.040097233
23	0x3d4835a3	0.048879277
24	0xbd1469e9	-0.036233816
25	0x3e8ea8da	0.278632
26	0x3f79745f	0.97443193
27	0xbf1d8ab0	-0.61539745
28	0xbee81cea	-0.4533456
29	0x3e9e5e16	0.30931157
30	0x3d7a85d6	0.061162792
31	0xbf31ccc6	-0.69453084
32	0x3ed3147e	0.41226572
33	0xbf979f25	-1.1845442
34	0xbd85c2c6	-0.06531291
35	0xbe9cfbed	-0.30660954
36	0xbfe8eba8	-1.8196917
37	0xbda5f6fa	-0.08103748
38	0x3e6155a5	0.22005327
39	0xbf054806	-0.52063024
40	0x3f2a6202	0.665558
41	0x3d8e8b55	0.06960169
42	0x3f175b3c	0.5912359
43	0x3c4e179c	0.012578871
44	0x3f0af0b0	0.5427351
45	0x3de1ed88	0.110316336
46	0xbebfda8b	-0.37471423
47	0x3ef192e2	0.47182375
48	0x3e9c2864	0.30499566
49	0xbf2e3b59	-0.6805931
50	0x3df6aacb	0.12044295
51	0x3f517d02	0.8183137
52	0x3ea259e9	0.3170922
53	0x3fd53ae8	1.6658602
54	0x3e09b451	0.13447692
55	0xbe11e2d5	-0.14246686
56	0x3d5da73c	0.054114565
57	0xbeae5dbd	-0.34055892
58	0x3ec28e13	0.3799902
59	0x3e412f71	0.18865754
60	0x3e309945	0.17245968
61	0x3d2d30e9	0.042282972
62	0x3dc06370	0.09393966
63	0x3c252ff8	0.010082237
64	0xbd95119e	-0.07278751
65	0x3e5089a6	0.20365009
66	0xbf1a6bfb	-0.60321015
67	0x3d0ec7cc	0.03485851
68	0x3f0fe3bd	0.56206876
69	0x3e538171	0.20654847
70	0x3e2f84f1	0.17140557
71	0xbde3d562	-0.11124684
72	0xbe9624ca	-0.29324943
73	0x3bc76ec9	0.0060862047
74	0x3e2b0ede	0.1670489
75	0x3dfa43e4	0.1221998
76	0x3d480d64	0.048840895
77	0xbb203774	-0.0024447115
78	0xbec30744	-0.3809148
79	0x3f91f142	1.1401751
80	0x3e89a5c3	0.2688428
81	0xbb8c53f8	-0.004282471
82	0xbf0688c6	-0.5255245
83	0x3f07a587	0.5298695
84	0x3f0737ae	0.52819335
85	0x3e1d2b0f	0.15348457
86	0x3f660354	0.8984883
87	0xbebfb214	-0.3744055
88	0xbe96f399	-0.29482725
89	0xbf3e77ee	-0.7440175
90	0xbf5893fa	-0.84600794
91	0x3f14eae8	0.5817094
92	0xbdff0481	-0.12452031
93	0x3f41c369	0.756888
94	0xbeeff9fa	-0.46870404
95	0x3f4d862a	0.80282843
96	0x3e1f17dd	0.15536447
97	0x3e74827e	0.23877904
98	0xbeb0f96c	-0.34565294
99	0x3c2525ae	0.010079784
100	0xbdeccb5c	-0.11562225
101	0xbe88b6d3	-0.26701984
102	0xbda4ad90	-0.08040917
103	0xbee20439	-0.44143847
104	0x3cddb8d4	0.027065672
105	0xbe6429f9	-0.22281636
106	0x3eb5922d	0.35463086
107	0x3f24f00e	0.64428794
108	0xbedd858a	-0.43265945
109	0x3e57a9f7	0.2106093
110	0xbefe4a82	-0.4966622
111	0xbdec043b	-0.115242444
112	0xbec0edee	-0.37681526
113	0xbe4b2186	-0.19837007
114	0xbed64e56	-0.4185664
115	0xbd0b51f1	-0.034013692
116	0xbf289fd0	-0.65868855
117	0xbed644ff	-0.41849515
118	0xbe7add23	-0.2449842
119	0xbb2ca2fe	-0.0026342268
120	0xbe562af6	-0.20914826
121	0xbdc54bf9	-0.09633631
122	0xbe997173	-0.29969367
123	0xbdb160e6	-0.0866106
124	0x3eb0e3d3	0.34548816
125	0x3f041acf	0.51603407
126	0x3e8b7908	0.27240777
127	0xbe52fd21	-0.20604374
128	0x3e033dbc	0.12816519
129	0x3f29e083	0.663582
130	0x3e89df92	0.26928383
131	0xbe19aaed	-0.1500661
132	0xbe31f13d	-0.17377181
133	0xbee757e8	-0.45184255
134	0x3f109927	0.5648369
135	0x3dbfcaa5	0.09364823
136	0xbbef7d9a	-0.007308674
137	0x3f20ed26	0.6286186
138	0xbe5b57c3	-0.21420197
139	0x3ed85908	0.42255425
140	0x3ec70048	0.38867402
141	0xbf39b5c1	-0.7254296
142	0x3d155d61	0.036466006
143	0x3def51f9	0.11685557
144	0x3ee4c22b	0.44679388
145	0xbe0d37ca	-0.13790813
146	0x3ebd91a4	0.37025177
147	0x3d3cb82d	0.04607408
148	0x3f4bc9f3	0.79605025
149	0x3dea56fb	0.114423715
150	0x3e66f0d6	0.22552809
151	0x3a78ea81	0.0009495393
152	0xbd0e34f6	-0.034718476
153	0x3f2e5936	0.68104875
154	0x3e0df0a3	0.13861327
155	0xbf7280c5	-0.94727737
156	0x3e368571	0.17824341
157	0x3ef0ac4a	0.47006446
158	0xbd1f8fd5	-0.03895553
159	0x3ee71899	0.45135954

gnn_base.gnn.embed_layer.lin1.bias f4 [16]
0	0xbc8e5aa4	-0.017377205
1	0x3dc47487	0.09592538
2	0x3e5a66ba	0.2132825
3	0xbde81d99	-0.1133377
4	0xbe4e7ec7	-0.20165549
5	0xbbb69d5d	-0.0055729584
6	0xbe57eb7b	-0.21085922
7	0x3d27003d	0.04077171
8	0x3d8b9d64	0.06817129
9	0x3e4093fd	0.18806453
10	0x3dbbe408	0.09174353
11	0x3e072525	0.13197763
12	0x3e876d94	0.2645079
13	0x3e34f9b5	0.1767338
14	0x3d31368d	0.043264914
15	0xbe7b31a3	-0.24530654

gnn_base.gnn.embed_layer.layers.0.weight f4 [16, 16]
0	0x3ed8d23c	0.42347896
1	0xbf38eeb8	-0.72239256
2	0xbbe3b16f	-0.006948642
3	0x3eaf0847	0.34186003
4	0x3f06309d	0.5241793
5	0xbe2430e9	-0.16034283
6	0xbe3228e2	-0.17398408
7	0xbf1a268a	-0.60215056
8	0x3f30e17f	0.6909408
9	0xbc8dd0d9	-0.0173115
10	0xbe36dc57	-0.1785749
11	0x3f4a9801	0.7913819
12	0xbea8a11d	-0.3293542
13	0xbe2bd445	-0.16780193
14	0x3e79c357	0.24390922
15	0xbdad4904	-0.08461192
16	0x3eb63b8f	0.35592315
17	0xbe7362d9	-0.23768176
18	0x3f51f93f	0.82020944
19	0x3eb24bf3	0.3482357
20	0xbe8f59e2	-0.27998263
21	0x3e5257de	0.20541331
22	0xbe5b360e	-0.21407339
23	0xbcfb2c15	-0.030660668
24	0xbd605e02	-0.054777153
25	0x3e31fb71	0.17381074
26	0xbe9dc5f7	-0.30815098
27	0x3e81e555	0.2537028
28	0x3e7c38d8	0.24631059
29	0xbe02f3ac	-0.12788266
30	0x3e314a57	0.17313515
31	0x3efd7f8a	0.49511367
32	0x3edd0f77	0.4317586
33	0xbe686eb7	-0.22698484
34	0xbe01570e	-0.12630865
35	0xbe552d28	-0.20818007
36	0xbf0d330b	-0.5515601
37	0xbe66aec3	-0.22527604
38	0xbe6d38a8	-0.23166144
39	0x3efe9251	0.49721006
40	0x3f6945c0	0.91122055
41	0x3ed5c52e	0.41752
42	0x3e5ddb32	0.21665648
43	0xbd5db45c	-0.054127082
44	0x3d86f54f	0.06589758
45	0x3f1b2081	0.6059647
46	0xbe8cbda3	-0.2748843
47	0x3eb88c37	0.36044475
48	0xbf174465	-0.59088737
49	0x3cafb291	0.021447452
50	0x3de98ae4	0.114034444
51	0xbf01a6ba	-0.5064503
52	0x3d423733	0.047415923
53	0x3f6cbcc9	0.92475563
54	0x3ea826d5	0.32842126
55	0xbe41c915	-0.18924363
56	0x3f49af0a	0.78782713
57	0xbea8e155	-0.32984415
58	0xbe0af251	-0.13568999
59	0x3e921e41	0.28538707
60	0xbdfbf8ed	-0.12303338
61	0x3ee460ca	0.44605094
62	0xbe7b454d	-0.24538155
63	0x3f115a9a	0.5677887
64	0xbebf6d60	-0.37388134
65	0xbf416351	-0.7554217
66	0x3f5e54eb	0.86848325
67	0x3ed12e6a	0.40855724
68	0x3e03e898	0.12881696
69	0x3db6791f	0.08909821
70	0xbe9e6ac9	-0.30940846
71	0x3eae81c2	0.34083372
72	0x3f1062cb	0.56400746
73	0x3d32993d	0.04360317
74	0x3e871b99	0.26388243
75	0xbf102caa	-0.5631815
76	0x3f026537	0.5093569
77	0x3ece741b	0.40322956
78	0xbe8d508e	-0.2760052
79	0xbf52ebdb	-0.82391137
80	0xbe618be0	-0.22026014
81	0xbdaf47ec	-0.0855864
82	0x3ef604fb	0.48050675
83	0xbf1e7dda	-0.61910784
84	0x3f117a6c	0.56827426
85	0xbf48926a	-0.7834841
86	0x3f0cf908	0.5506749
87	0xbe46a3fa	-0.1939849
88	0x3ec5454c	0.38529432
89	0x3e4cb220	0.19989824
90	0x3f43a22f	0.7641935
91	0xbef3e424	-0.47634995
92	0xbe31c5f6	-0.17360672
93	0x3dcccdfe	0.100002274
94	0x3ef04e07	0.4693453
95	0x3e647976	0.22311959
96	0x3ee5ab96	0.44857472
97	0x3ed3f6c9	0.4139922
98	0x3db79d14	0.08965507
99	0x3f27c3c7	0.6553311
100	0xbec6f43c	-0.3885821
101	0x3dff1de2	0.124568716
102	0x3f05296f	0.5201635
103	0x3ebbfc26	0.36715811
104	0x3e4be68d	0.19912167
105	0x3ddb232f	0.1070007
106	0xbe263a0d	-0.16233082
107	0xbe8cd765	-0.27508083
108	0xbe89f6b1	-0.26946023
109	0xbe92260b	-0.2854465
110	0x3f38badf	0.7216014
111	0xbe7476ba	-0.23873416
112	0xbecb7636	-0.39738625
113	0xbf0bdcc4	-0.54633737
114	0xbe6e5c7f	-0.23277472
115	0x3f0a6f1b	0.54075783
116	0xbef7ddf7	-0.48411533
117	0xbedd3350	-0.4320321
118	0xbe7f3728	-0.24923384
119	0x3eafa7ce	0.34307712
120	0xbd92b36a	-0.07163127
121	0x3f2a960e	0.66635215
122	0xbe968a42	-0.29402357
123	0x3ec08402	0.37600714
124	0xbf1639a2	-0.5868169
125	0xbe01123a	-0.12604609
126	0xbf0c525b	-0.54813164
127	0xbe246cc1	-0.16057111
128	0x3e7aca83	0.24491315
129	0x3b93f74b	0.0045155636
130	0x3ef91e23	0.48655805
131	0x3d9ac5f7	0.0755729
132	0x3dd308f8	0.10304445
133	0x3dfefc3f	0.12450456
134	0x3f0f8a53	0.5607044
135	0x3ee1aa97	0.44075462
136	0x3e2ab912	0.16672161
137	0x3e988e69	0.2979615
138	0xbf3f14e6	-0.74641263
139	0x3ea57e29	0.32322815
140	0x3e6e1040	0.23248386
141	0x3e1fbbeb	0.15599029
142	0xbe71acdf	-0.23601101
143	0xbf00ca1a	-0.5030838
144	0x3d386d67	0.04502621
145	0xbef06eed	-0.4695963
146	0xbe79a03e	-0.24377534
147	0x3d1e3a24	0.038629666
148	0xbed39353	-0.41323337
149	0x3e944677	0.2896001
150	0x3e1b2663	0.15151362
151	0x3ecefd68	0.4042771
152	0xbe21cfb3	-0.15801887
153	0xbee65949	-0.44989994
154	0x3f0ff3c6	0.56231344
155	0x3f60be04	0.8778994
156	0xbd1ad162	-0.03779734
157	0x3e82cf58	0.25548816
158	0x3e320603	0.17385106
159	0xbeab6c99	-0.3348129
160	0xbea74ad4	-0.32674277
161	0x3d8da145	0.06915525
162	0xbfb73a96	-1.4314754
163	0x3e060e71	0.13091446
164	0x3e4bb488	0.19893086
165	0xbe0e6e6b	-0.13909309
166	0x3c136d9a	0.008998299
167	0xbb896307	-0.004192713
168	0xbee5033e	-0.44729036
169	0xbe0d62fe	-0.13807294
170	0xbe922c53	-0.28549442
171	0xbe718484	-0.23585707
172	0xbdffadfd	-0.124843575
173	0x3eff3dab	0.49851736
174	0x3e355382	0.17707637
175	0x3ef54878	0.47906852
176	0x3f099e2c	0.53756976
177	0xbe4aca48	-0.19803727
178	0xbf06dd25	-0.5268119
179	0xbe3ca3aa	-0.18421808
180	0x3df81b33	0.12114563
181	0x3e959a15	0.29219118
182	0xbd53ecfa	-0.05173967
183	0x3ecfbcfe	0.40573877
184	0xbeef4128	-0.46729398
185	0xbd9b4795	-0.075820126
186	0xbdba6151	-0.09100593
187	0xbf3f66c4	-0.7476618
188	0xbdfe4db9	-0.12417168
189	0x3f02b2db	0.5105416
190	0x3f005e95	0.5014432
191	0xbee5c027	-0.44873163
192	0x3e23d6b2	0.15999869
193	0x3e52631c	0.2054562
194	0x3c69fac2	0.014280977
195	0x3f1fc428	0.62408686
196	0x3f12141b	0.5706193
197	0xbf1d149d	-0.6135958
198	0x3f04994a	0.517964
199	0xbe4fafab	-0.20281856
200	0xbe9903f9	-0.29885843
201	0x3e0c0243	0.13672738
202	0x3f03a50b	0.5142371
203	0xbde19050	-0.110138535
204	0xbf147936	-0.57997453
205	0xba0a97f8	-0.00052869273
206	0xbf3dcf3b	-0.74144334
207	0x3ec5f94e	0.38666767
208	0x3bbba365	0.0057262653
209	0xbe6801fe	-0.2265701
210	0xbed76fc5	-0.4207746
211	0xbedb0620	-0.4277811
212	0xbc155559	-0.009114587
213	0xbebaa491	-0.3645368
214	0x3f15cf98	0.5851989
215	0xbf15c8fc	-0.585098
216	0xbec48aee	-0.38387245
217	0x3e99efca	0.30065757
218	0xbd9ba655	-0.07600085
219	0x3ec27c77	0.37985584
220	0xbdff2a0d	-0.124591924
221	0x3f1bece2	0.6090833
222	0x3f214d53	0.6300861
223	0xbe92324b	-0.28553995
224	0xbe9deeab	-0.30846152
225	0xbf1d0989	-0.61342674
226	0x3eb396aa	0.35075885
227	0xbf7d7b5b	-0.9901635
228	0xbeeb59b9	-0.4596689
229	0x3e45162e	0.19246742
230	0x3ea6d035	0.32580724
231	0xbe3bb82c	-0.18331975
232	0xbd063455	-0.03276475
233	0xbf1a43a2	-0.6025945
234	0xbec857c8	-0.39129472
235	0xbe552668	-0.20815432
236	0xbd7b33d3	-0.06132872
237	0xbe83dcc8	-0.2575438
238	0xbe19fff2	-0.15039042
239	0x3eba6931	0.3640838
240	0xbeb65feb	-0.35620055
241	0x3efd11a9	0.49427536
242	0x3f26fb53	0.6522724
243	0xbca7f7ac	-0.020503841
244	0xbcba83eb	-0.022767982
245	0x3ce024f1	0.027361365
246	0xbf248ef9	-0.6428066
247	0x3ec85ad9	0.3913181
248	0xbecfbdc9	-0.40574482
249	0xbe5b4a9e	-0.21415183
250	0xbd8ee23d	-0.06976745
251	0x3d5aede5	0.05344953
252	0xbf1ba78e	-0.60802543
253	0x3e07a230	0.13245463
254	0xbdd92424	-0.106025964
255	0xbcd59c66	-0.026075553

gnn_base.gnn.embed_layer.layers.0.bias f4 [16]
0	0xbd9b0457	-0.07569187
1	0x3adfdc31	0.0017079172
2	0xbd0f67c9	-0.035011087
3	0x3d90cb88	0.070700705
4	0x3e7f9266	0.2495819
5	0xbe16e3be	-0.14735314
6	0xbd98dffb	-0.07464596
7	0x3e1deb6b	0.15421836
8	0xbd810316	-0.06299417
9	0x3cc481a2	0.023987595
10	0x3ddd1d2b	0.10796579
11	0x3deae4a8	0.11469394
12	0x3d499dac	0.049222633
13	0xbe5cb1ec	-0.21552247
14	0xbd8fa9d1	-0.07014812
15	0xbe085381	-0.13313104

gnn_base.gnn.embed_layer.layers.2.weight f4 [16]
0	0x3f88e4de	1.0694845
1	0x3f87e00c	1.0615249
2	0x3f890d5c	1.0707202
3	0x3f922115	1.1416346
4	0x3f82a2fa	1.0205986
5	0x3f967264	1.1753659
6	0x3f56ed94	0.83956265
7	0x3f7cf5f3	0.9881279
8	0x3f946f2e	1.1596429
9	0x3f639940	0.88905716
10	0x3f5e9d48	0.8695874
11	0x3f898f81	1.0746919
12	0x3f6be5af	0.92147344
13	0x3f499267	0.7873902
14	0x3f874150	1.0566807
15	0x3f6b7c4c	0.91986537

gnn_base.gnn.embed_layer.layers.2.bias f4 [16]
0	0x3c8db640	0.017298818
1	0xbe4baad9	-0.19889392
2	0xbd810874	-0.063004404
3	0x3bb4def9	0.0055197445
4	0x3e33cfea	0.17559782
5	0x3c988b7e	0.018621203
6	0x3dd9ea56	0.10640399
7	0xbd174a35	-0.036936004
8	0xbb8c5e51	-0.0042837043
9	0x3e2bf6d7	0.1679338
10	0x3e2d9b1a	0.16953698
11	0x3c5d3c82	0.013503196
12	0x3e1cc546	0.15309629
13	0x3e895b5d	0.26827517
14	0x3d465203	0.048418056
15	0xbe9a5f5d	-0.3015088

gnn_base.gnn.gnn1.lin_key.weight f4 [48, 16]
0	0xbf25850c	-0.6465614
1	0xbe8d0ddd	-0.2754964
2	0x3e141d75	0.14464362
3	0x3ed911cb	0.42396387
4	0xbe08e06b	-0.13366859
5	0x3e501523	0.20320563
6	0xbd637717	-0.055533495
7	0xbe2acac2	-0.16678908
8	0xbd43e971	-0.04783005
9	0x3c596a17	0.013269923
10	0xbbe37f3c	-0.0069426578
11	0xbd3cb469	-0.04607049
12	0x3d975a2e	0.07390247
13	0xbe4468d7	-0.19180618
14	0x3e89bd74	0.26902354
15	0x3d940dc9	0.07229192
16	0x3e480b9f	0.19535683
17	0x3e21cbd6	0.15800413
18	0xbe6ce0d3	-0.23132639
19	0xbd40c9e5	-0.04706754
20	0xba92386f	-0.0011155735
21	0x3dc220a8	0.09478885
22	0x3e13c098	0.14428937
23	0x3e11caa7	0.14237462
24	0xbda2c8ab	-0.07948431
25	0x3d81e006	0.06341557
26	0xbcc3d870	-0.023906916
27	0x3e8b4831	0.27203515
28	0x3e12361c	0.14278454
29	0xbde6d07b	-0.11270233
30	0x3e910b68	0.28329015
31	0xbeaf2da2	-0.34214503
32	0x3e46b600	0.19405365
33	0x3d259387	0.040423896
34	0x3e475ab6	0.19468197
35	0xbe104cfe	-0.1409187
36	0xbe1c7d33	-0.15282135
37	0x3db43ae6	0.088002965
38	0x3bd5a29d	0.006519629
39	0x3d68789d	0.05675565
40	0xbe8e55de	-0.27799886
41	0x3e238fbd	0.159728
42	0x3e47e030	0.19519114
43	0xbe04d625	-0.12972315
44	0x3e1e97ad	0.15487547
45	0x3dea11ff	0.11429214
46	0x3dd4262c	0.10358843
47	0xbeceb6fc	-0.4037398
48	0x3e2e0ade	0.16996333
49	0x3ea21b9e	0.31661695
50	0x3e6cf06b	0.23138587
51	0x3da784c3	0.08179619
52	0x3dba297e	0.09089945
53	0x3dc64d46	0.096827075
54	0xbca21288	-0.019784227
55	0x3e55fccb	0.20897214
56	0x3c84be3b	0.01620399
57	0xbe4dcf3e	-0.20098588
58	0x3cdd96a2	0.027049366
59	0x3e49928e	0.19684812
60	0xbd743761	-0.059623126
61	0x3c29687e	0.010339854
62	0xbeb4e220	-0.3532877
63	0x3a99401a	0.0011692077
64	0xbe8d0c9a	-0.27548677
65	0xbe66ab92	-0.22526386
66	0x3d8f9871	0.07011498
67	0x3e046a4a	0.12931171
68	0xbd9beb93	-0.076132916
69	0x3d95f048	0.07321221
70	0xbcfd7b3a	-0.030942548
71	0x3e71b643	0.23604684
72	0xbb27fd0b	-0.0025633003
73	0x3dd518f0	0.10405147
74	0x3db7ed14	0.08980766
75	0x3e4fbc57	0.2028669
76	0xbe561da8	-0.2090975
77	0x3e22533c	0.15852064
78	0x3e9feba2	0.3123446
79	0x3e489dec	0.19591492
80	0xbe83579d	-0.2565278
81	0xbe359116	-0.17731127
82	0xbe391d49	-0.18077578
83	0xbd882308	-0.06647307
84	0x3c36ab76	0.011149278
85	0x3dc90724	0.09815815
86	0xbe2dfbef	-0.16990636
87	0xbe4c0a40	-0.19925785
88	0xbc576eaa	-0.013148943
89	0x3e369f54	0.17834216
90	0xbe4a1674	-0.19735128
91	0x3e0d7f8b	0.13818185
92	0xbc661830	-0.014043853
93	0xbe02e965	-0.12784345
94	0xbdcb21b0	-0.09918535
95	0x3ee2dbfd	0.44308463
96	0x3dd5b78a	0.10435398
97	0xbe2b182e	-0.16708443
98	0x3e1f58b4	0.15561181
99	0xbe82a476	-0.255161
100	0x3dfe321f	0.124119036
101	0xbdb727bb	-0.08943125
102	0x3e14b84a	0.14523426
103	0xbddcd00d	-0.1078187
104	0x3e89cc8d	0.26913872
105	0x3e236f45	0.15960415
106	0x3d3f3d50	0.04668933
107	0x3dbac2e4	0.09119204
108	0x3de4c67c	0.111706704
109	0x3e3d00e6	0.18457374
110	0xbe06d558	-0.13167322
111	0x3ee3a896	0.44464558
112	0x3e13979d	0.14413305
113	0xbd88f314	-0.066869885
114	0xbe2778f9	-0.16354741
115	0x3e14b6bd	0.14522834
116	0xbdb823a0	-0.0899117
117	0x3e9383b9	0.28811434
118	0xbe85cbe3	-0.26132116
119	0x3e0064d0	0.12538457
120	0x3e1d9bf9	0.1539153
121	0x3ea26f85	0.31725708
122	0xbcfe6ef5	-0.031058768
123	0x3e532a05	0.20621498
124	0xbdb654a1	-0.089028604
125	0x3d108955	0.03528722
126	0x3e68b17d	0.22723956
127	0x3cc75114	0.024330653
128	0x3e1e0cd2	0.15434578
129	0x3e52996b	0.20566337
130	0xbe908e78	-0.28233695
131	0x3e20a88f	0.156893
132	0xbd8ee964	-0.069781095
133	0xbd1bca2b	-0.0380346
134	0xbe3d5a78	-0.18491542
135	0xbe8234b7	-0.25430843
136	0xbe835668	-0.2565186
137	0x3dcfa21e	0.10138343
138	0x3e033168	0.12811816
139	0xbe4dc17f	-0.20093344
140	0x3e8ec63b	0.27885613
141	0xbd9a268c	-0.075268835
142	0x3e35e60e	0.1776354
143	0xbec17e67	-0.3779175
144	0xbe5d566a	-0.21614996
145	0xbeb481a0	-0.35255146
146	0xbde4a0c4	-0.11163476
147	0x3e9e4374	0.30910838
148	0x3e8d0cb3	0.2754875
149	0xbe8815e9	-0.26579216
150	0xbdd38197	-0.10327452
151	0xbe0b97ee	-0.13632175
152	0x3df21a9b	0.11821481
153	0x3e4c8b56	0.19975027
154	0xbe9ffc50	-0.31247187
155	0x3d9fbd5d	0.0779979
156	0x3de8f13e	0.11374138
157	0xbe8b0249	-0.2715018
158	0x3ebe3ff9	0.37158182
159	0x3e466579	0.19374646
160	0x3ee27894	0.4423262
161	0x3e9ad710	0.30242205
162	0xbce51f27	-0.027968956
163	0xbe4af2bc	-0.19819158
164	0x3d40bf72	0.047057576
165	0xbc59822f	-0.013275667
166	0xbe5afd9c	-0.21385807
167	0x3e9dd7e1	0.30828765
168	0x3daf35e9	0.085552044
169	0xbd7a8ab0	-0.06116742
170	0xbdc3addf	-0.09554648
171	0xbe829d06	-0.25510424
172	0x3d8b97e9	0.06816084
173	0x3e3c3775	0.1838053
174	0xbe6132e7	-0.21992074
175	0x3e3e32b5	0.1857403
176	0xbd95f3fb	-0.07321926
177	0xbe1ac918	-0.15115774
178	0xbe041854	-0.12899905
179	0xbe4f2d5f	-0.20232151
180	0xbaa60f35	-0.0012669327
181	0xbe94421f	-0.28956696
182	0x3e7461ba	0.23865405
183	0x3c90b3d1	0.017663868
184	0xbdf44bde	-0.11928533
185	0xbe5ee941	-0.21768667
186	0xbe370b7f	-0.17875479
187	0xbe4e00d5	-0.20117505
188	0xbe7028c4	-0.23453051
189	0x3e25cf8e	0.16192457
190	0xbe09a5cf	-0.13442157
191	0xbd952eb5	-0.07284299
192	0x3d2f0889	0.04273275
193	0x3c7a3e77	0.015273682
194	0x3e9dbe51	0.30809262
195	0xbd8ced3d	-0.06881187
196	0xbe89738f	-0.26845977
197	0xbd2fdbb2	-0.042934127
198	0xbd4a56a5	-0.049399037
199	0x3e871d0f	0.26389357
200	0x3ea6b33a	0.32558614
201	0xbbc66695	-0.006054709
202	0x3e3e1239	0.18561639
203	0xbe4618a4	-0.19345337
204	0xbd95d059	-0.0731513
205	0xbe0121dd	-0.12610574
206	0xbe92d48e	-0.2867779
207	0x3ed9fdcd	0.42576447
208	0x3e35fc09	0.17771925
209	0xbd4eba66	-0.050470732
210	0xbe7be31f	-0.24598359
211	0x3e021e16	0.1270679
212	0x3e4186f7	0.18899141
213	0x3cecad39	0.028891193
214	0x3e7a44fe	0.24440381
215	0xbdcf9e00	-0.10137558
216	0xbeb4457a	-0.35209256
217	0xbe02646f	-0.12733625
218	0xbe3222cb	-0.17396085
219	0x3d4ca17e	0.0499587
220	0xbdd18196	-0.10229795
221	0x3c956703	0.018237596
222	0x3e4c13bf	0.19929408
223	0xbea93390	-0.33047152
224	0x3ddd11f3	0.10794439
225	0xbe07db3e	-0.13267228
226	0xbe08e675	-0.13369162
227	0xbe34897f	-0.17630576
228	0xbe861911	-0.26191
229	0x3d4987be	0.04920172
230	0xbc93e92d	-0.018055523
231	0xbd8390ac	-0.06424078
232	0xbd52e076	-0.051483594
233	0x3dca0721	0.09864641
234	0x3e69a2c5	0.22815998
235	0x3dd0753e	0.10178612
236	0x3d402918	0.04691419
237	0x3e0583c1	0.13038541
238	0xbe4525f8	-0.19252765
239	0xbe257cf5	-0.16160949
240	0x3e10be19	0.14135017
241	0x3e4b44a3	0.19850402
242	0x3e603868	0.21896517
243	0xbdd8cf32	-0.10586394
244	0xbe5a404f	-0.21313594
245	0x3dd2e2d8	0.10297173
246	0xbd7f55bd	-0.062337626
247	0xbe38ab02	-0.18033984
248	0x3c0d29f8	0.008615963
249	0x3e2e4aa7	0.17020665
250	0xbe5cc0a8	-0.21557868
251	0xbdc58664	-0.096447736
252	0xbebce501	-0.36893466
253	0xbd40485d	-0.04694401
254	0xbe699245	-0.22809704
255	0x3e210b3a	0.15726939

gnn_base.gnn.gnn1.lin_key.bias f4 [48]
0	0xbda829ce	-0.082110986
1	0x3d81c273	0.06335916
2	0xbcee0483	-0.029054886
3	0xbe7d1258	-0.24714029
4	0xbe1403c8	-0.14454567
5	0xbe234c2c	-0.15947026
6	0x3e172bd7	0.14762817
7	0x3ded7f60	0.115965605
8	0x3e14b184	0.14520842
9	0x3e1fce19	0.15605964
10	0xbdecbe1c	-0.11559698
11	0x3e305133	0.17218475
12	0x3e6fe928	0.23428786
13	0x3d9a3122	0.075289026
14	0x3e38a411	0.18031336
15	0xbc67956c	-0.014134746
16	0x3e0de660	0.13857412
17	0x3e7daf27	0.24773847
18	0xbdf74031	-0.120727904
19	0x3e5e2493	0.2169364
20	0xbe03554b	-0.12825505
21	0x3e096f00	0.1342125
22	0xbd8b8d2c	-0.06814036
23	0xbe02053e	-0.12697312
24	0x3e589832	0.21151808
25	0x3e67dedb	0.22643606
26	0xbd08be34	-0.033384517
27	0xbe7d04de	-0.24708888
28	0xbe75bc61	-0.23997642
29	0x3e066012	0.13122585
30	0xbe6ad5b8	-0.2293309
31	0x3bc1ff52	0.005920329
32	0xbe42240f	-0.18959068
33	0xbc4911ac	-0.01227228
34	0x3cc40255	0.023926893
35	0xbdb26fb3	-0.08712711
36	0xbd9b9592	-0.07596888
37	0x3e34be78	0.17650783
38	0xbe344bfd	-0.17607112
39	0xbe0f6f9b	-0.14007418
40	0x3c2ece3a	0.010669285
41	0x3db65dc5	0.08904604
42	0x3e21374b	0.15743749
43	0x3db561d7	0.08856552
44	0xbd9244ca	-0.07142027
45	0x3e015344	0.1262942
46	0x3dfcdb78	0.12346548
47	0x3e4497d7	0.19198547

gnn_base.gnn.gnn1.lin_query.weight f4 [48, 16]
0	0x3b2531ae	0.0025206613
1	0x3ddfc2ff	0.109258644
2	0x3d241294	0.04005678
3	0x3f0ac199	0.54201657
4	0xbcea41d1	-0.028595837
5	0x3e05fbb2	0.13084295
6	0xbe88a099	-0.26685026
7	0x3eb06eb4	0.3445946
8	0xbddf4816	-0.10902421
9	0x3e2c663b	0.16835873
10	0xbe583b31	-0.2111633
11	0xbe4a0781	-0.19729425
12	0xbeae5d2f	-0.34055468
13	0xbd2f5a23	-0.04281057
14	0x3eda8b7c	0.42684543
15	0xbd1fc935	-0.039010245
16	0x3cfe7d66	0.031065654
17	0xbcb7f3da	-0.022455145
18	0x3e07a1b0	0.13245273
19	0x3e592154	0.2120412
20	0xbea859b2	-0.32880932
21	0xbe6e0f09	-0.23247923
22	0x3b879227	0.0041372958
23	0x3ded44d4	0.115853935
24	0x3e0b9fd5	0.1363519
25	0x3d981215	0.07425324
26	0x3e1c4b73	0.15263157
27	0x3dfbf3e9	0.123023815
28	0x3e66990f	0.22519325
29	0xbe203a2a	-0.15647188
30	0xbec723f1	-0.3889461
31	0x3ed661e6	0.41871566
32	0x3e0f155e	0.13972995
33	0x3e7ecd95	0.24883111
34	0xbda0a359	-0.07843656
35	0xbd3cc9f9	-0.046091054
36	0x3d88b51d	0.066751696
37	0x3dcf1416	0.10111253
38	0x3e2b7845	0.16745098
39	0x3e0fa3de	0.14027354
40	0xbe9b56a0	-0.30339527
41	0xbe81c080	-0.25342178
42	0x3e3a3346	0.18183622
43	0x3d58dab8	0.05294296
44	0x3e897c31	0.26852563
45	0xbe215007	-0.15753184
46	0xbe1f5384	-0.15559202
47	0x3e9c147d	0.3048438
48	0xbe2d917e	-0.16950032
49	0x3da25e07	0.079280905
50	0xbd251c5e	-0.040310256
51	0xbeb1437b	-0.34621796
52	0x3e219216	0.15778384
53	0xbdd974d4	-0.10617986
54	0x3e8b9882	0.27264792
55	0xbdc63309	-0.09677703
56	0x3e0f3c7a	0.13987914
57	0x3e66e02f	0.22546457
58	0x3e1e3764	0.15450817
59	0xbe32958c	-0.1743986
60	0x3ea361bf	0.31910512
61	0x3e249bed	0.16075106
62	0xbcd5943d	-0.026071662
63	0xbe199dc2	-0.15001586
64	0x3e210d85	0.15727814
65	0xbc76eebc	-0.015071567
66	0x3cbb5d6a	0.022871692
67	0x3ef9fd1a	0.48825914
68	0xbc82b92e	-0.015957441
69	0x3dedce72	0.11611642
70	0x3e899425	0.26870838
71	0x3d6a6c94	0.057232454
72	0x3d7fe18d	0.06247096
73	0x3e4c1226	0.19928798
74	0xbdc0f7a0	-0.09422231
75	0x3e7fe74d	0.24990578
76	0xbda35d31	-0.07976759
77	0xbe40ea6b	-0.18839423
78	0x3e434551	0.19069411
79	0xbe9565bb	-0.29179177
80	0xbe2b8a3d	-0.16751952
81	0xbe667344	-0.22504908
82	0x3dd684e6	0.10474567
83	0x3db40b49	0.08791215
84	0x3e61b3f8	0.22041309
85	0x3e4453dd	0.19172616
86	0xbe5181a6	-0.20459613
87	0x3e0e8aeb	0.1392018
88	0x3e1a2b8f	0.15055679
89	0x3e193544	0.14961725
90	0x3dc692a5	0.09695939
91	0xbdc9c049	-0.098511286
92	0xbe93956b	-0.28824934
93	0xbe8a088b	-0.26959643
94	0x3eb564e3	0.35428533
95	0xbe9ed75f	-0.3102369
96	0x3df1f6c6	0.118146464
97	0x3b330482	0.002731592
98	0x3dbb6ffc	0.09152219
99	0xbea10bc4	-0.3145429
100	0x3dc25ad2	0.09489979
101	0x3e66c04d	0.22534294
102	0xbdc0d63d	-0.09415863
103	0xbb9417e2	-0.0045194486
104	0xbe7b25fe	-0.24526212
105	0x3e53398d	0.20627423
106	0x3e11b0e3	0.14227633
107	0xbd3e76f2	-0.046500154
108	0xbe6f4a8a	-0.23368278
109	0xbda69f42	-0.08135845
110	0xbe3bcfaf	-0.18340944
111	0xbe12761e	-0.1430287
112	0xbc42d4e2	-0.0118915755
113	0xbe8ed88f	-0.27899596
114	0xbe109c2e	-0.14122078
115	0x3da66501	0.08124734
116	0xbe18d424	-0.14924675
117	0x3e14c266	0.14527282
118	0x3e97afa4	0.2962619
119	0xbe6edb4d	-0.23325844
120	0xbe0d4d83	-0.137991
121	0x3e8870a5	0.2664844
122	0xbe7255fb	-0.23665611
123	0xbdd65e23	-0.10467174
124	0x3dd6f549	0.10496003
125	0xbe7d097c	-0.24710649
126	0x3e9f444f	0.31106803
127	0xbe15bb6b	-0.14622276
128	0x3e5ab498	0.21357954
129	0x3e81d7b6	0.25359887
130	0xbd963572	-0.07334413
131	0x3e5b0105	0.21387108
132	0xbe2d123f	-0.16901492
133	0xbe1f4f2f	-0.1555755
134	0xbcbf6f07	-0.023368372
135	0xbe85655c	-0.26053894
136	0x3df5cd7f	0.12002086
137	0x3cce5776	0.025188189
138	0xbdbba116	-0.09161584
139	0x3e0d5d49	0.13805117
140	0x3e4c5b2d	0.19956656
141	0x3dc33843	0.095322154
142	0xbdde7ac5	-0.1086326
143	0x3ee01157	0.4376323
144	0x3cd8db44	0.026471741
145	0xbc9001c0	-0.01757896
146	0xbe77205f	-0.24133442
147	0x3eea1b4f	0.4572396
148	0x3e348e08	0.17632306
149	0x3e6a5762	0.22884896
150	0xbeacfe22	-0.33787638
151	0xbe13d675	-0.14437278
152	0x3e7980cc	0.24365538
153	0xbe3e1864	-0.18563992
154	0xbe14d996	-0.14536127
155	0x3dd8aa68	0.105793774
156	0xbefb2ab8	-0.4905603
157	0x3d49d485	0.04927494
158	0x3e6f8f8f	0.23394607
159	0x3e056e07	0.13030253
160	0xbd9f5f57	-0.077818565
161	0xbe89de21	-0.26927283
162	0x3e8f8dea	0.2803796
163	0xbe4ac1c7	-0.19800483
164	0xbd8af095	-0.06784169
165	0x3eb1b754	0.3471018
166	0xbd13c224	-0.03607382
167	0xbe9df361	-0.30849746
168	0x3e5e551b	0.21712153
169	0xbcec86c7	-0.02887286
170	0x3e0a38ce	0.13498232
171	0x3ea3e82f	0.3201308
172	0x3dcbcf13	0.09951606
173	0xbd781a53	-0.06057198
174	0xbeee9daf	-0.46604678
175	0x3e7bcb69	0.24589314
176	0x3e7ddca9	0.24791206
177	0xbe8d1897	-0.27557823
178	0xbd6dd7dd	-0.05806719
179	0x3e0c87d4	0.1372369
180	0xbdc5da7f	-0.096608154
181	0x3da58c0c	0.080833524
182	0xbde503a7	-0.11182337
183	0xbd132dc5	-0.03593232
184	0xbe8b9e14	-0.27269042
185	0xbd20dc03	-0.03927232
186	0xbe31f92c	-0.17380208
187	0xbe033279	-0.12812223
188	0x3d5b9aee	0.05361455
189	0x3dab1f9c	0.083556384
190	0xbe8d2d94	-0.27573836
191	0xbe5f3fc9	-0.21801676
192	0x3cfbeb55	0.030751863
193	0xbeb33881	-0.35004047
194	0xbd0d52e1	-0.034502868
195	0xbe94cfc8	-0.29064775
196	0x3ce1621c	0.027512603
197	0x3e51b55e	0.20479342
198	0xbdccddc5	-0.10003237
199	0x3e10b391	0.14130999
200	0x3c1ea8fe	0.009683846
201	0x3e4ad746	0.19808683
202	0x3ea9be11	0.33152822
203	0x3e85820d	0.26075783
204	0x3cd532cc	0.026025198
205	0x3e3213ea	0.17390409
206	0xbe1be8ad	-0.15225478
207	0xbee52559	-0.44755057
208	0xbe3cebd8	-0.18449342
209	0xbe05bae3	-0.13059573
210	0xbd434c18	-0.04767999
211	0xbcfaedda	-0.030630995
212	0x3da2d1ab	0.07950147
213	0xbe00d6d0	-0.12581944
214	0xbdc18266	-0.094487
215	0x3e3bd44a	0.183427
216	0x3e63bb2f	0.22239374
217	0xbe7d96e9	-0.24764599
218	0xbe1eff83	-0.15527157
219	0xbe6cb037	-0.23114096
220	0xbe1613e6	-0.14656028
221	0xbe885368	-0.26626134
222	0xbdf1a29f	-0.11798596
223	0x3e24eeef	0.16106771
224	0x3e0e2fbf	0.13885401
225	0xbd7f6249	-0.06234959
226	0xbe7d4e3e	-0.24736878
227	0xbe194afc	-0.1497001
228	0x3e106e56	0.1410459
229	0xbb9eafe5	-0.0048427456
230	0x3e238345	0.15968044
231	0xbddf6819	-0.10908527
232	0xbe92077c	-0.28521335
233	0xbe45cd3b	-0.1931657
234	0x3e648440	0.22316074
235	0x3d9697a1	0.0735314
236	0xbd2faadc	-0.042887554
237	0x3e187396	0.14887843
238	0xbf00dd4f	-0.5033769
239	0x3e4757bb	0.1946706
240	0xbc957bbe	-0.018247481
241	0x3c94d53e	0.018168088
242	0xbe7f71a1	-0.2494569
243	0xbe43ccb4	-0.19121057
244	0x3ea5306c	0.32263505
245	0x3e8a3e48	0.27000642
246	0x3db9f3dd	0.09079716
247	0x3c9ca9dc	0.019123964
248	0x3e482b74	0.19547826
249	0x3dfa1de7	0.12212735
250	0x3deaff68	0.11474496
251	0x3c8295c5	0.015940556
252	0x3eb07170	0.34461546
253	0xbdcb3946	-0.099230334
254	0xbe1a1f50	-0.15051007
255	0xbd87618e	-0.06610404

gnn_base.gnn.gnn1.lin_query.bias f4 [48]
0	0x3d67903b	0.056534033
1	0x3c8e60ca	0.017380137
2	0xbdf4a347	-0.11945205
3	0x3dd27bf3	0.10277548
4	0xbe079474	-0.13240224
5	0x3e6d6eb7	0.23186766
6	0xbd1798ae	-0.03701084
7	0xbe04df56	-0.12975821
8	0x3e1553db	0.1458277
9	0x3de85b39	0.11345524
10	0xbe6778db	-0.22604696
11	0x3e321053	0.1738904
12	0xbdd3acf3	-0.10335722
13	0x3e4eedb9	0.20207871
14	0x3e0ecabd	0.13944526
15	0x3e4140eb	0.1887242
16	0xbd0fd34d	-0.03511362
17	0xbddc624e	-0.10760938
18	0xbe1292b6	-0.14313778
19	0x3ca83308	0.020532146
20	0xbb836ef2	-0.0040110284
21	0x3ddacb65	0.10683326
22	0x3ccdfc90	0.025144845
23	0x39c20c0c	0.0003701154
24	0xbe2a0b22	-0.1660581
25	0x3dfeddc2	0.12444641
26	0xbdfabcae	-0.12243019
27	0xbe891b5f	-0.26778695
28	0x3e75143a	0.23933497
29	0x3c93036b	0.017945966
30	0xbe470069	-0.1943375
31	0xbde5d544	-0.11222318
32	0xbe292365	-0.16517408
33	0x3e395bea	0.18101469
34	0x3e6c6c75	0.23088248
35	0xbe098998	-0.13431394
36	0x3d961cbe	0.07329701
37	0xbe9abfab	-0.30224356
38	0x3e18c19c	0.14917606
39	0xbe45cecf	-0.19317172
40	0x3e6aee61	0.22942497
41	0xbcdc0b96	-0.026860993
42	0x3d38cab6	0.045115195
43	0x3d94cb3c	0.072653264
44	0x3db46e39	0.08810086
45	0x3e52a89d	0.20572133
46	0x3e46e48a	0.19423118
47	0xbde40967	-0.11134606

gnn_base.gnn.gnn1.lin_value.weight f4 [48, 16]
0	0x3e6ee1b8	0.23328292
1	0xbde471c7	-0.11154514
2	0xbdaa32b2	-0.083104506
3	0xbd8fc4df	-0.07019972
4	0xbe130e6c	-0.1436097
5	0xbd810bd8	-0.06301087
6	0x3e1d0fd4	0.15338069
7	0x3e087aeb	0.1332814
8	0x3d57ad1d	0.052655328
9	0x3d86fa35	0.06590692
10	0x3ef0a9d6	0.47004575
11	0x3e197264	0.14985043
12	0x3be917ae	0.0071134185
13	0x3e8410b0	0.25793982
14	0xbef42308	-0.47682977
15	0x3dbe2b44	0.09285596
16	0xbe92cc32	-0.28671414
17	0xbdf1c96d	-0.11805997
18	0x3e6c4a72	0.23075274
19	0xbe1af527	-0.1513258
20	0x3e794ff2	0.24346903
21	0x3e3c1b29	0.18369736
22	0xbe6f7cb7	-0.23387419
23	0x3efab589	0.48966625
24	0xbeaf6e42	-0.34263808
25	0xbdd35a8d	-0.103200056
26	0xbe233842	-0.1593943
27	0xbe1aa4d8	-0.15101945
28	0x3e893c1a	0.26803666
29	0xbdde519e	-0.10855411
30	0x3e391e1c	0.18077892
31	0x3df2980a	0.118454054
32	0xbe981aac	-0.2970785
33	0x3d91cbb0	0.071189284
34	0xbcfcee84	-0.030875452
35	0xbe9c2ae2	-0.30501467
36	0x3ef4ca8a	0.47810775
37	0xbee683dc	-0.45022476
38	0xbdc44d9b	-0.095851146
39	0x3de777c0	0.113021374
40	0x3dd93a64	0.1060684
41	0x3e5170f1	0.2045324
42	0x3c4f8514	0.012666006
43	0x3e22343a	0.15840235
44	0x3ece2fc4	0.40270817
45	0xbe328420	-0.17433214
46	0xbe361fa9	-0.17785515
47	0x3e300d4f	0.17192577
48	0x3ede5b52	0.43429047
49	0x3d8fa93a	0.07014699
50	0xbe403c74	-0.18773061
51	0x3e7a529c	0.24445575
52	0xbd29a0d4	-0.041413143
53	0xbdb6d3d5	-0.089271225
54	0xbc255bf8	-0.010092728
55	0x3e969a38	0.29414535
56	0x3e1ef477	0.15522943
57	0x3df9620f	0.12176906
58	0x3e2b3eb0	0.16723132
59	0xbe258654	-0.16164523
60	0xbe4bb06a	-0.19891515
61	0x3dfee77c	0.12446496
62	0xbe744b2d	-0.23856802
63	0xbee0f799	-0.43938902
64	0xbebc8f6e	-0.36828178
65	0xbd9cb911	-0.07652486
66	0x3e08a366	0.13343582
67	0xbd92eeeb	-0.07174476
68	0x3e83270e	0.25615734
69	0x3d5033a3	0.050830495
70	0xbecb3cf7	-0.3969495
71	0xbe40101f	-0.1875615
72	0xbe487ea8	-0.19579566
73	0x3e3661cf	0.17810749
74	0xbdd8af5e	-0.10580324
75	0x3db7e59a	0.0897934
76	0x3e53381f	0.20626877
77	0x3e02db0b	0.12778871
78	0x3ed4764e	0.4149651
79	0x3e56fbf9	0.20994557
80	0xbebfcabb	-0.3745936
81	0xbd6df33e	-0.058093302
82	0xbe16db0d	-0.14731999
83	0x3d9d8e4c	0.076931566
84	0xbce3ab05	-0.02779151
85	0x3e924881	0.2857094
86	0xbe07eca2	-0.13273862
87	0xbe462a06	-0.19351968
88	0x3e73b552	0.23799637
89	0xbc37abcf	-0.011210396
90	0x3d454d8c	0.048169658
91	0xbdd762d8	-0.105169
92	0xbdb7030d	-0.08936129
93	0x3e15628b	0.14588372
94	0x3e872e0e	0.26402324
95	0x3e80b40c	0.25137365
96	0xbf129a92	-0.57267106
97	0x3d94d729	0.07267601
98	0x3e10bd36	0.14134678
99	0x3dd2d447	0.10294395
100	0xbe46d2b4	-0.19416314
101	0x3e2ae21f	0.16687821
102	0x3c491a55	0.012274344
103	0xbe04dfb1	-0.12975956
104	0xbc562230	-0.013069674
105	0x3cdffd04	0.027342327
106	0x3be66550	0.0070311204
107	0x3deab6a2	0.11460616
108	0xbe9a51df	-0.30140588
109	0x3ea3d742	0.32000166
110	0x3ded6f02	0.11593439
111	0x3e26b9a2	0.16281751
112	0xbc48a369	-0.012245991
113	0xbe913cc6	-0.2836668
114	0xbc3fe846	-0.011713093
115	0xbd4f2dc8	-0.05058077
116	0x3e891904	0.26776898
117	0x3e8b11fc	0.27162158
118	0x3dd6ed08	0.10494429
119	0xbe358ede	-0.17730281
120	0x3eadc674	0.3394047
121	0xbdfe64f8	-0.12421602
122	0xbe924c3f	-0.28573796
123	0x3dba1954	0.09086862
124	0x3eaea669	0.34111336
125	0x3c126dfb	0.008937354
126	0xbe42cfc7	-0.19024573
127	0x3e595c8c	0.2122671
128	0xbe61855b	-0.22023527
129	0xbdd2b58b	-0.10288533
130	0xbe074223	-0.13208823
131	0xbbeada2d	-0.007167122
132	0x3eab5e31	0.334703
133	0xbbd70c98	-0.0065627806
134	0xbccb2df1	-0.02480218
135	0x3e2a8f58	0.16656244
136	0x3e484a56	0.19559607
137	0xbe8a694d	-0.27033463
138	0x3d486281	0.048922066
139	0xbc96c059	-0.018402265
140	0x3e1b194c	0.15146369
141	0xbd7c3025	-0.06156935
142	0x3e0a16bf	0.1348524
143	0x3dcef80a	0.101059034
144	0xbdb39270	-0.08768165
145	0xbe8541e8	-0.26026845
146	0x3e223aec	0.1584279
147	0xbdaf1e30	-0.0855068
148	0xbe6b8a3f	-0.23001955
149	0xbd84044d	-0.06446133
150	0x3e15a3a7	0.1461321
151	0x3cb3734c	0.021905564
152	0xbe2f15e2	-0.17098191
153	0xbe0e1141	-0.1387377
154	0xbebd5dea	-0.36985713
155	0xbe73a952	-0.2379506
156	0x3e8d2c37	0.27572796
157	0xbdc62ceb	-0.09676536
158	0xbec65062	-0.38733202
159	0x3dfa7b69	0.1223057
160	0x3ea21d96	0.31663197
161	0x3e73199e	0.23740241
162	0x3ddf0cd6	0.1089112
163	0x3cff6f66	0.031181049
164	0x3d9092ff	0.07059287
165	0x3ce0315f	0.027367292
166	0x3e1987bb	0.14993183
167	0x3e7ddd92	0.24791554
168	0xbd9be417	-0.07611864
169	0x3e0a18f3	0.1348608
170	0x3dc0757c	0.09397408
171	0xbeb457dd	-0.35223284
172	0x3eb875a4	0.36027253
173	0xbe60113d	-0.21881576
174	0xbf1b6812	-0.60705674
175	0x3e6c1539	0.23054971
176	0x3b16487c	0.0022931388
177	0xbe1ea7de	-0.15493724
178	0xbd81be6e	-0.0633515
179	0xbdf6c171	-0.12048615
180	0xbd831825	-0.064010896
181	0xbd73cf52	-0.059523888
182	0x3e673a52	0.22580841
183	0xbc40cbcb	-0.011767338
184	0xbe650005	-0.22363289
185	0x3e5be53c	0.21474165
186	0x3e7b9d52	0.24571732
187	0x3e0f0cff	0.13969801
188	0x3d608b32	0.054820247
189	0x3e4b5e2b	0.19860141
190	0x3e60a4c2	0.2193785
191	0x3e3bf194	0.18353873
192	0x3ce1d500	0.027567387
193	0x3de8dd85	0.113703765
194	0xbd8bb525	-0.0682166
195	0x3e61471b	0.21999781
196	0x3cba8525	0.022768566
197	0x3e8e2a3a	0.2776659
198	0xbe09e865	-0.13467558
199	0x3de60301	0.11231042
200	0x3dd82c5c	0.10555336
201	0x3db81c87	0.08989816
202	0xbd7b223f	-0.061311956
203	0x3e2f9d42	0.17149833
204	0x3e801472	0.250156
205	0xbdf5e8df	-0.12007307
206	0xbdf9281c	-0.121658534
207	0x3d917f70	0.07104385
208	0xbe14fbfe	-0.14549252
209	0xbe61aa92	-0.22037724
210	0x3e444e81	0.19170572
211	0x3e142b1b	0.14469568
212	0x3d3ada1f	0.045618173
213	0x3e2dc2ae	0.16968796
214	0x3db355b8	0.08756584
215	0xbb8dc61f	-0.0043265964
216	0xbe46c5d7	-0.19411407
217	0xbd8cf231	-0.06882132
218	0x3e11e072	0.14245775
219	0x3e05e208	0.13074505
220	0xbd234d96	-0.039868914
221	0x3ea40502	0.3203507
222	0xbe82d73f	-0.25554845
223	0xbf033631	-0.51254565
224	0xbd6a92e9	-0.05726901
225	0xbd037e11	-0.03210265
226	0x3e0ea211	0.13929011
227	0xbc66e590	-0.014092818
228	0x3d9a247b	0.07526489
229	0x3e2904aa	0.16505685
230	0x3e050712	0.12990978
231	0x3ccafc28	0.02477844
232	0x3d9796ef	0.07401835
233	0x3cfc4df8	0.030798897
234	0xbe25cec2	-0.16192153
235	0xbd48869c	-0.0489565
236	0x3defb3d7	0.117042236
237	0x3db64ee0	0.08901763
238	0xbe9fa4b0	-0.31180334
239	0x3e32cbc2	0.1746054
240	0x3e305c16	0.17222628
241	0x3e045abf	0.12925242
242	0xbdbcccb6	-0.09218733
243	0xbd2fb471	-0.04289669
244	0xbe36b04c	-0.1784069
245	0xbd65a32c	-0.056063816
246	0x3baafee5	0.005218374
247	0x3d1defef	0.038558897
248	0xb92e5a04	-0.00016627467
249	0xbe3b16a9	-0.18270363
250	0x3c9bb4e6	0.019007158
251	0xbd0cdc5d	-0.034389842
252	0xbecc258a	-0.3987239
253	0xbe8b21f6	-0.27174348
254	0xbdc99baa	-0.09844144
255	0x3d19ec76	0.037579022

gnn_base.gnn.gnn1.lin_value.bias f4 [48]
0	0x3e500bc0	0.20316982
1	0xbdc14c6b	-0.09438404
2	0x3e9cf20a	0.3065341
3	0x3eb7e7fd	0.3591918
4	0xbdc2a9ac	-0.095050186
5	0x3e42bef4	0.19018155
6	0xbe199035	-0.14996417
7	0xbd1bfda2	-0.03808368
8	0xbc8ca117	-0.017166657
9	0xbeac6f4a	-0.33678657
10	0xbe2df31e	-0.16987273
11	0x3cbf6a8d	0.023366237
12	0xbd22cacb	-0.03974418
13	0x3c96d443	0.018411761
14	0x3e56b440	0.20967197
15	0x3dbae777	0.0912618
16	0x3c300516	0.0107434
17	0x3c9f6d6c	0.019461356
18	0x3ebbdc09	0.3669131
19	0x3e9f5806	0.31121844
20	0x3d9d5d49	0.07683808
21	0x3d5cd175	0.05391069
22	0x3db99cdd	0.090631224
23	0xbda168cc	-0.078813165
24	0x3e0fffb4	0.14062387
25	0x3da20d26	0.07912664
26	0xbebd9e5f	-0.3703489
27	0xbe9dbbe7	-0.3080742
28	0xbde2180f	-0.11039745
29	0xbc43cf4f	-0.011951282
30	0x3e49cfde	0.19708201
31	0xbd860777	-0.065443926
32	0xbe3e36c4	-0.18575579
33	0xbe62dec3	-0.2215529
34	0x3e4fffae	0.20312378
35	0x3d262e62	0.040571578
36	0xbd5f2c49	-0.054485593
37	0x3e72b962	0.2370353
38	0xbe29ed97	-0.1659454
39	0xbd66e7f9	-0.05637357
40	0x3dba560d	0.09098444
41	0xbe91c00b	-0.2846683
42	0xbe66ca79	-0.22538175
43	0x3b06bd91	0.0020559768
44	0xbe34f435	-0.17671283
45	0x3e229c59	0.15879954
46	0x3dc315b1	0.09525622
47	0xbe3a4caf	-0.18193315

gnn_base.gnn.gnn1.lin_edge.weight f4 [48, 1]
0	0x3f724164	0.9463103
1	0xbea7c4e8	-0.32767415
2	0xbe7ea2ee	-0.2486684
3	0x3f123008	0.5710454
4	0x3f5d636b	0.86479825
5	0x3f81dc6c	1.0145392
6	0x3eb4ba7c	0.35298526
7	0x3ea74465	0.32669368
8	0x3d4d8e13	0.05018432
9	0xbf8533dc	-1.0406451
10	0xbf73b032	-0.9519073
11	0x3f1ea483	0.61969775
12	0x3f07a933	0.5299255
13	0x3ed341f0	0.41261244
14	0xbf9667f4	-1.1750474
15	0xbf7b52aa	-0.9817301
16	0x3e8cfd0a	0.27536803
17	0xbf5a641e	-0.85309017
18	0xbc953c45	-0.018217215
19	0x3f838af2	1.0276778
20	0x3f398c59	0.7247978
21	0x3f7c167b	0.984718
22	0xbee6fbc6	-0.45113963
23	0xbea80237	-0.3281419
24	0x3dd77b4b	0.10521563
25	0xbecd3ee2	-0.40087038
26	0xbe6b2831	-0.2296455
27	0x3de5f05d	0.11227486
28	0xbf381644	-0.71908975
29	0x3f4dcd38	0.80391264
30	0xbf93aaf7	-1.1536549
31	0xbecb386a	-0.39691478
32	0x3f684047	0.9072308
33	0xbec25a61	-0.3795958
34	0xbf0fdf14	-0.56199765
35	0x3fa5a709	1.29416
36	0x3e834ce6	0.25644606
37	0x3ef381cf	0.47559974
38	0xbf7615a8	-0.96126795
39	0xbdc80d1c	-0.097681254
40	0xbee8b108	-0.45447564
41	0xbe6beb7f	-0.23039053
42	0xbfe379c5	-1.7771536
43	0xbf26f4fc	-0.65217566
44	0x3ecc2694	0.39873183
45	0x3f9afc99	1.2108337
46	0xbf68836b	-0.9082553
47	0xbef7a627	-0.48368952

gnn_base.gnn.gnn1.lin_skip.weight f4 [16, 16]
0	0x3ea0f324	0.31435502
1	0xbed38646	-0.4131338
2	0x3daaf5d9	0.08347673
3	0x3e550589	0.20802893
4	0xbe31642b	-0.17323367
5	0xbe09da33	-0.13462143
6	0xbe7d9457	-0.24763618
7	0xbdcb0a2c	-0.099140495
8	0x3cb189b7	0.021672113
9	0x3ea13c9c	0.31491554
10	0x3e080cea	0.13286176
11	0x3e6b169c	0.22957844
12	0xbe5a7ada	-0.21335927
13	0x3e37b439	0.17939843
14	0xbe51454c	-0.20436591
15	0xbee7a746	-0.45244807
16	0x3ead89fd	0.3389434
17	0xbf1588cf	-0.5841188
18	0x3deb4aed	0.114889
19	0x3e76dc55	0.24107487
20	0xbd126aa2	-0.035746224
21	0x3e1f29a9	0.15543236
22	0xbd295336	-0.04133912
23	0x3edbbb45	0.42916313
24	0xbe00d1b7	-0.1258
25	0x3d4e24df	0.05032813
26	0x3d9b2347	0.07575088
27	0xbe0755f5	-0.13216384
28	0xbdad4d33	-0.0846199
29	0x3df51dd4	0.1196858
30	0xbd08d1e8	-0.033403307
31	0x3e6caaa9	0.23111977
32	0xbe54d0fa	-0.20782843
33	0xbd1e6c2f	-0.03867739
34	0x3e21f657	0.15816627
35	0xbdae393b	-0.085070096
36	0x3f1446ab	0.5792033
37	0xbe77c037	-0.24194418
38	0xbed96480	-0.42459488
39	0xbdd44704	-0.10365108
40	0x3e6c9914	0.2310527
41	0xbe094422	-0.13404897
42	0x3cafd86f	0.021465508
43	0x3c1fbd7f	0.009749769
44	0xbf1f0945	-0.6212352
45	0x3dd85936	0.10563891
46	0x3f1c0f53	0.6096088
47	0xbe311cf0	-0.17296195
48	0xbd8c3b3e	-0.06847237
49	0xbe04886c	-0.12942666
50	0x3e65af2c	0.22430104
51	0xbe490391	-0.19630267
52	0xbd803ebc	-0.06261966
53	0xbd440328	-0.047854573
54	0x3d406ac9	0.04697684
55	0xbe8b4aab	-0.27205405
56	0xbdbb94a2	-0.09159209
57	0x3e82c4c1	0.25540736
58	0x3e486913	0.19571333
59	0x3e13bd6c	0.14427727
60	0xbcd2c617	-0.025729222
61	0xbc1e8754	-0.009675819
62	0x3eaf2863	0.342105
63	0x3e1e107b	0.15435974
64	0xbe65d56e	-0.22444698
65	0xbefc5bee	-0.49288887
66	0x3dfab97e	0.12242411
67	0xbe847dc6	-0.25877208
68	0xbe6c4baf	-0.23075746
69	0x3d46b96c	0.048516676
70	0x3ea59a9e	0.32344526
71	0x3ddff85d	0.109360434
72	0xbe707f7a	-0.23486128
73	0x3eaec842	0.3413716
74	0x3da230d7	0.07919472
75	0xbdafe2a8	-0.08588153
76	0xbe500d5c	-0.20317596
77	0x3ee192fa	0.44057447
78	0xbe0bce66	-0.13652954
79	0xbed19b40	-0.4093876
80	0xbe5eff1a	-0.21777001
81	0xbd7e4836	-0.062080584
82	0xbe6c0ca7	-0.23051701
83	0xbea74ca4	-0.3267566
84	0x3eb8b1e4	0.3607322
85	0x3e95c7ec	0.2925409
86	0x3b737d44	0.0037153522
87	0x3cae15dd	0.02125066
88	0x3d15df1e	0.036589734
89	0xbe49d666	-0.19710693
90	0xbea1bafe	-0.31587976
91	0xbe5efa9c	-0.21775287
92	0x3e98aa28	0.2981732
93	0x3e0a35c5	0.13497074
94	0x3dae57ef	0.08512866
95	0xbc697977	-0.014250151
96	0xbeb1b3c3	-0.3470746
97	0x3ea9ba55	0.33149973
98	0xbe28c1e1	-0.16480209
99	0xbec7a7e6	-0.38995284
100	0x3d8810f5	0.06643859
101	0xbdc4f984	-0.09617904
102	0x3ef8b2a5	0.48573795
103	0xbe958811	-0.29205373
104	0xbe90cfd4	-0.2828356
105	0x3cc9c514	0.024630107
106	0x3dcbd138	0.09952015
107	0x3e9a2730	0.30108023
108	0xbd2d6225	-0.042329926
109	0xbc67fb7f	-0.014159082
110	0x3ef8bdb7	0.4858224
111	0x3dd59eaa	0.104306534
112	0xbd11c9df	-0.03559291
113	0x3ca4eced	0.020132506
114	0xbe573c8a	-0.21019188
115	0x3c15239b	0.009102727
116	0x3e060c31	0.13090588
117	0x3dfaed18	0.12252253
118	0xbe8d01ae	-0.27540344
119	0xbd69547c	-0.056965336
120	0x3ea7188a	0.3263591
121	0xbedaebd8	-0.4275806
122	0xbec0a273	-0.3762394
123	0xbea195f3	-0.31559715
124	0x3ed4fb98	0.415982
125	0x3e143878	0.14474666
126	0x3ea1d070	0.31604338
127	0xbd17cd1c	-0.037060842
128	0x3bc25db6	0.0059315814
129	0xbe25c974	-0.1619013
130	0x3cf3e7b8	0.029773578
131	0x3f00008e	0.50000846
132	0x3d1d767a	0.038443066
133	0x3e59b299	0.21259536
134	0xbe30f24c	-0.17279929
135	0xbda9cf1a	-0.082914546
136	0x3c9d1011	0.0191727
137	0x3d1d4b4c	0.038401887
138	0xbd7472ac	-0.059679672
139	0x3c264690	0.010148659
140	0x3d24cfeb	0.04023735
141	0x3e4691a9	0.19391502
142	0x3ec6a6b1	0.3879905
143	0xbc8be9b8	-0.01707922
144	0x3ec0159a	0.3751648
145	0x3e8c34b4	0.2738396
146	0x3daab2a1	0.08334852
147	0xbc9efdd0	-0.019408137
148	0xbe1538e5	-0.14572485
149	0x3e90ac0b	0.28256258
150	0xbce30464	-0.027712055
151	0x3eb4798e	0.3524899
152	0x3ec5cfec	0.38635194
153	0x3ce7e517	0.02830748
154	0x3deafed5	0.114743866
155	0xbdfd6676	-0.123730585
156	0x3dc71bf4	0.097221285
157	0x3e606a34	0.21915513
158	0xbef360e0	-0.47534847
159	0x3e1a6a68	0.15079653
160	0x3e4da970	0.20084167
161	0x3df77027	0.12081938
162	0x3e01bf63	0.12670664
163	0x3e3ba103	0.1832314
164	0x3e3012c6	0.17194661
165	0xbdd52276	-0.104069635
166	0x3d8a678f	0.067580335
167	0xbd8268f3	-0.06367674
168	0xbe10a0de	-0.14123866
169	0xbea93990	-0.3305173
170	0xbd88a1f4	-0.06671515
171	0xbe60aa8f	-0.21940063
172	0x3c727568	0.0147985
173	0xbdca04ac	-0.09864172
174	0xbe965cb7	-0.2936761
175	0x3e8a468b	0.27006945
176	0xbd00f04c	-0.031479165
177	0xbd2cc3ae	-0.042178802
178	0x3c43a892	0.011942046
179	0xbeb1d208	-0.34730554
180	0xbd7060c4	-0.058686033
181	0x3da3fb14	0.08006874
182	0x3ee62446	0.4494955
183	0x3e9e0d3f	0.3086948
184	0xbe7ce2d4	-0.24695903
185	0x3e69e6c2	0.22841933
186	0x3e3f81f5	0.18701918
187	0xbdd8c489	-0.10584361
188	0x3edd6331	0.4323974
189	0xbdd04804	-0.10169986
190	0xbe00a5d3	-0.12563257
191	0x3d3e524f	0.046465214
192	0x3e23af1e	0.1598477
193	0x3dad535d	0.08463166
194	0x3c2ce82a	0.010553399
195	0x3e42c756	0.19021353
196	0xbe128870	-0.1430986
197	0x3ed589d5	0.4170672
198	0xbe3d5109	-0.18487944
199	0xbf02ddd3	-0.51119727
200	0x3e837669	0.25676277
201	0xbe58b3f8	-0.21162403
202	0x3d172d7b	0.036908608
203	0x3d11e1bd	0.03561567
204	0xbeeb42cf	-0.45949408
205	0x3ea7d473	0.32779273
206	0x3e63ba0e	0.22238943
207	0xbe26545a	-0.16243115
208	0xbe9eaa04	-0.30989087
209	0xbe113ba1	-0.14182903
210	0xbe6af6f5	-0.22945769
211	0x3ea3cae9	0.31990746
212	0xbe3e6475	-0.18593009
213	0xbdd3414a	-0.10315187
214	0x3da24419	0.07923145
215	0x3e3c5dac	0.18395108
216	0x3e879c68	0.26486516
217	0x3dba529f	0.0909779
218	0x3d863cb8	0.0655455
219	0x3df9a9a3	0.12190559
220	0x3e062e42	0.13103583
221	0x3c1263e6	0.00893495
222	0x3e7dba75	0.24778159
223	0xbeac7b4f	-0.33687827
224	0xbe16da70	-0.14731765
225	0xbe83c860	-0.25738811
226	0x3eb288d1	0.34870008
227	0xbdb93fe8	-0.09045392
228	0xbe7751db	-0.24152319
229	0x3b939cf1	0.004504793
230	0xbe4406c7	-0.1914321
231	0xbeca6b51	-0.39535
232	0xbe2c5544	-0.16829401
233	0x3e902a70	0.28157377
234	0x3e0f0c50	0.1396954
235	0xbdeebf34	-0.11657563
236	0xbe52cf6d	-0.20586939
237	0x3e33f550	0.17574048
238	0x3e151b00	0.14561081
239	0x3ec1202c	0.37719858
240	0x3e39f435	0.18159564
241	0x3e8fa349	0.28054264
242	0x3e24d457	0.16096626
243	0x3e955f6a	0.29174358
244	0xbe9f718e	-0.31141323
245	0xbec2412b	-0.37940344
246	0x3c44cc2d	0.01201157
247	0x3df4f94c	0.11961612
248	0xbe6214a6	-0.22078189
249	0xbdc323ec	-0.09528336
250	0x3e323ea1	0.17406704
251	0x3ddc86da	0.107679084
252	0xbe0558b0	-0.13022113
253	0xbeae09bf	-0.3399181
254	0x3dac21ef	0.0840491
255	0xbe1eb992	-0.15500477

gnn_base.gnn.gnn1.lin_skip.bias f4 [16]
0	0x3e7cb70b	0.246792
1	0x3e3f3394	0.18672019
2	0x3e3a7cf4	0.18211728
3	0x3e47a305	0.19495781
4	0x3e0e098c	0.1387083
5	0x3e0b7d93	0.13622122
6	0xbda932b9	-0.08261628
7	0xbdb307d0	-0.087417245
8	0x3e63c91a	0.22244683
9	0x3cea88ba	0.02862965
10	0xbc56a36e	-0.013100488
11	0xbd95541f	-0.072914355
12	0x3e81aaee	0.25325722
13	0x3da91d48	0.08257538
14	0x3d17aae4	0.03702821
15	0x3e44447f	0.19166754
