model_weights/old_FA_FR/tube/feb18/seq/actor.pt (torch, 202776 bytes, 58 tensors)

gnn_base.gnn.embed_layer.layer_norm.weight f4 [16]
00000000: dad5 663f 755a 823f 4212 623f 816a 973f
00000010: 6fbd 823f 5c75 493f 35f8 6a3f 045b 3a3f
00000020: 56f5 6d3f 44df 803f 7c60 973f 1603 5e3f
00000030: 96a0 8f3f abb5 7d3f f477 d53f a7e2 8e3f
0.9017006 1.0183855 0.8830911 1.1829377 1.021406 0.786947 0.91784984 0.7279513
0.9295248 1.0068135 1.182632 0.8672346 1.1220882 0.9910533 1.6677232 1.1162919

gnn_base.gnn.embed_layer.layer_norm.bias f4 [16]
00000000: db58 3b3e d418 483d e131 103e 5429 e5bd
00000010: 9a84 ec3c 60fe 76bd ec53 1d3e 785d 513e
00000020: 7286 063e eb9d 113c f3c4 f23d 5154 0cbe
00000030: c374 763e 80b6 f7bd bb3a 22bd 3f0b 07be
0.18295614 0.048851803 0.14081527 -0.11189523 0.028871823 -0.060301185 0.15364045 0.20445812
0.13137224 0.008887748 0.11853971 -0.13704039 0.24067979 -0.12095356 -0.03960679 -0.13187884

gnn_base.gnn.embed_layer.entity_embed.weight f4 [4, 2]
00000000: 13ea a63f 72c5 e73c 6a3b 1fc0 f17c 533f
00000010: a1d1 8abf 2d05 b3bf 7a83 ce3e e588 563f
1.3040184 0.028292391 -2.4880013 0.8261252 -1.0845224 -1.3985955 0.40334684 0.83802634

gnn_base.gnn.embed_layer.lin1.weight f4 [16, 10]
00000000: e0bf 073f 6beb 02bf 15e7 83bf e21c 7e3e
00000010: 49e9 193e 432a 653e 970f 11be 713c 50be
00000020: c01b 62bf 0e94 b4bd 73f6 c6be 5f24 cfbe
00000030: 6807 41bf 4ebf 96bf 1644 d93e 1d35 1dbf
00000040: cee3 7bbe 239b 5a3d 3918 783e 94ec 1cbf
00000050: 270b 49bd 005e 3e3f 9c76 6c3f 4674 1abf
00000060: 966b f6bd 9b7e 87bd 815d fc3e 65aa 14bf
00000070: 2332 2cbe 0ac8 593e 3aaf fbbe 9cf2 51be
00000080: 46c1 063f 705b 07be 46e8 3cbf 0325 d6be
00000090: 4e78 533d f78a 79bd 86b5 16be 17f6 6bbd
000000a0: 6611 003f 616d 0c3f a707 7cbf 78c8 2cbf
000000b0: b9dc 673e d716 3ebd 1680 8c3e 001d febe
000000c0: 4e99 ac3e 5669 c03c 4b30 22bc 72f5 353f
000000d0: cb3c 87be 3221 eabd 0174 a43e 79ec ba3e
000000e0: 45c2 f9be caf8 243e 58c0 10bf f0c0 523e
000000f0: b1b1 bd3e 6db7 7f3e 34fc 9f3e 9008 6b3e
00000100: b9e9 033e 32b2 b43d f4aa 61bf 3428 05bf
00000110: dd4e 57be b557 4abf f654 9b3e f279 c93e
00000120: e162 60bd bcc4 653a f038 713f fa91 29be
00000130: ea00 013f f598 f3be 5968 a33e ac27 08bd
00000140: b791 a83f 6f4a 4f3d e848 d6bc 515d efbd
00000150: 6aec b3bd 473c 39bf 0ecc 393e a02e 85be
00000160: e35b cdbd f6d3 833e a0e5 a1be f87d 3d3f
00000170: 1694 403e 0eb4 733f 8262 8abd e5ad b5be
00000180: 4fc0 4c3d 4909 cc3d d32c be3e a5f7 f5bd
00000190: 24b0 0b3e a019 b4bc 497d 29bd 9ad6 e53d
000001a0: 9da1 8ebe 35e3 0dbe 6cc8 e9ba 59b6 b5be
000001b0: be4d 273f db00 993f 9011 3bbf 33ad cdbd
000001c0: f735 4d3e 8648 1c3f f648 01be 8679 c4be
000001d0: 0d07 a43e 5c8b 2a3d e91c fcbd fa6d 983e
000001e0: d210 a63e 4d26 5dbc e739 2ebf be8b 69bf
000001f0: 3f88 d7be 3c6e b53d 8d1c 34be 48dd b23e
00000200: 5c83 253e 58a6 c13e 3026 343e 9cba 2d3f
00000210: 219a 383f adac 7d3e 9fee c53d e802 aebc
00000220: 8cf6 81ba 694a 213f 8d2a 803e c604 1abf
00000230: 129a 6fbe 222f b13f af8f 0abf 1349 d73f
00000240: 2785 553d 691c 72bd cac9 acbd e79b 3d3e
00000250: 8a58 9fbe 7b7c 4d3d e162 ddbe 311c 263f
00000260: 0d29 38be 00e1 8ebe 03ca eabe 42cf 753d
00000270: 645a f03e 2408 2e3b a6e0 55be 2e9e d3be
0.53027153 -0.5114047 -1.0304896 0.24815705 0.15030397 0.22379403 -0.14166103 -0.20335557
-0.88323593 -0.08817302 -0.388599 -0.40457436 -0.75401926 -1.1777132 0.42434758 -0.6140917
-0.2459862 0.053370606 0.2422799 -0.6129849 -0.0490829 0.7436218 0.92368484 -0.6033367
-0.12032239 -0.06615945 0.49290088 -0.580725 -0.16816 0.21267715 -0.49157125 -0.20502704
0.5263866 -0.13218474 -0.7379192 -0.41825113 0.051628403 -0.060923543 -0.14717683 -0.057607736
0.5002655 0.548544 -0.98449177 -0.6749339 0.22642793 -0.0464085 0.27441472 -0.496315
0.33710712 0.023487728 -0.009899209 0.71077645 -0.2641357 -0.11432113 0.32119754 0.3650854
-0.48781028 0.1611053 -0.56543493 0.20581412 0.3704963 0.24972315 0.31247103 0.22952485
0.12882127 0.088230506 -0.8815148 -0.5201447 -0.21026178 -0.7904008 0.30338258 0.3935085
-0.0547818 0.00087649724 0.94227505 -0.16559592 0.5039202 -0.47577634 0.31915548 -0.03324096
1.3169469 0.050608095 -0.026157811 -0.116877206 -0.08785327 -0.723576 0.18144247 -0.26012135
-0.100272916 0.2574765 -0.31620502 0.7402034 0.1880649 0.95196617 -0.0675707 -0.35484233
0.049988087 0.099627085 0.37143573 -0.12010125 0.13641411 -0.021984875 -0.041379247 0.112225726
-0.27857676 -0.13856204 -0.001783622 -0.35490683 0.65353 1.1953386 -0.73073673 -0.10042801
0.20040117 0.6104816 -0.12625489 -0.38373965 0.3203663 0.04163681 -0.12310202 0.29771405
0.32434708 -0.013497901 -0.680571 -0.91228855 -0.42096135 0.08858916 -0.17589016 0.3493445
0.16163391 0.37822223 0.17592692 0.6786287 0.7211018 0.24772902 0.09664654 -0.02124162
-0.0009915396 0.63004166 0.25032464 -0.60163534 -0.23398617 1.3842509 -0.54125494 1.6819175
0.052128937 -0.059109125 -0.08436926 0.18516503 -0.31122237 0.050167542 -0.432395 0.64886767
-0.1798441 -0.27906036 -0.45857248 0.06001211 0.46943963 0.0026555145 -0.20886478 -0.4133162

gnn_base.gnn.embed_layer.lin1.bias f4 [16]
00000000: 8176 7cbb bf52 8fbd 6fff 7a3d 894b d1bc
00000010: 85af a83e b451 82be b2ad 3dbe 6bec 80bb
00000020: 8999 febd 3572 1c3c aa82 463b 8ca5 d5bd
00000030: bd91 313e e2c3 f2bd 2a46 973d 4cc8 17be
-0.0038522782 -0.069982044 0.061278757 -0.025548713 0.3294641 -0.2545296 -0.18523291 -0.003934433
-0.12431628 0.009548713 0.0030290284 -0.10431966 0.17340751 -0.11853768 0.073864296 -0.14822501

gnn_base.gnn.embed_layer.layers.0.weight f4 [16, 16]
00000000: ccee b2bd 411c 31be 655e dabe ffa3 85be
00000010: f306 073f 509c ff3e 93de 873f ad55 52bd
00000020: 7ced 65bf 65be ca3e 3bd2 e5be 3917 0bbe
00000030: 48ae 7b3e 28f5 08bf cfbd 4cbd 6209 303e
00000040: 97f2 51bc cb77 18bf 5f9b 133d 2909 d93d
00000050: 8fc4 b43d 0d66 163f f372 e53e d599 84bd
00000060: f0f2 08bf 22a5 133f 6a53 a73e d392 24bd
00000070: 88d0 453f 4c50 5e3f 71da e63e 224f 2f3f
00000080: a57d 53be dcf3 4a3f ebd9 fbbe 826c d43e
00000090: 39c5 0cbd 2187 023f b4ad fe3e 967c 88be
000000a0: 3add 6f3e 4ea6 0cbf 3640 fe3e fc37 16be
000000b0: 695a bf3e 5808 39bf f818 b5bd 07a3 533e
000000c0: c5f0 be3e e952 8f3e 6b03 fdbe cf0d 35bf
000000d0: 58f0 6b3e bc19 953e 70ad f5be 17ef a23d
000000e0: 9f32 24be d04e 153f 0739 cfbd ca2e f73c
000000f0: 43e0 f8be 4175 6cbd 9b39 b03f f86c 9b3d
00000100: 6bf8 413e 8dfc 1b3f 8553 d7be 38b9 df3d
00000110: f436 09be 65ab b1be fc25 00be 8c69 c2be
00000120: bea6 96be e568 cabc b03d 24bf f0d3 6bbb
00000130: b728 4e3f caf7 c63d 8c3f 59bf a07b 7c3e
00000140: 1111 b73e 2e45 a73e 8f87 a83e 16b0 91bf
00000150: 7e62 19bf d03f db3e 4da9 8a3d 11af d33b
00000160: 0612 f7bd 3d86 c83d 7ced 473e 9931 a43e
00000170: d22e cf3e 78fc 96bd c90d 86be e900 cf3e
00000180: 9a64 823e c809 793e af92 63be a84c 063f
00000190: 8f22 cebe ec04 8cbe ff0e 0b3c eed6 373e
000001a0: 07f6 41bf 32b1 c43e 836a b63d e216 f0bd
000001b0: 8f05 c5be 56ec 683e d48c 903d c972 e23e
000001c0: dd24 1e3e ee5e 37be c20b 093f 03f1 49be
000001d0: d439 83be e5ed fe3b c8d5 103f f09c 45bf
000001e0: 7e57 30bf eab1 2f3e 46a0 b5bd 71ab bcbe
000001f0: 0a61 30be 27c8 e73e 8183 4a3e 5a5a d5be
00000200: 58b2 29bf baf4 353e 9945 813e 756a d53d
00000210: 606b 2a3d f45d 483f 9dd3 c1bd 702a 803e
00000220: 56a4 f1be 1698 79be 3601 22bf 467e 23be
00000230: 557a bd3e aa02 41be b138 693f 3eed 0d3f
00000240: b516 053e 26e9 c4bd d53f 213f c17b 49bc
00000250: 767d 053f c44d c33d 44bb cabd a96a 04bf
00000260: ac89 03be 53ed d93d 7c7a b03e 5f0e 58bf
00000270: fe3a d4bd 7b21 10bf 0e9e 683e 5490 1f3f
00000280: 26da 863e 66bc 1abe ca50 bc3d 2047 283e
00000290: fad1 3e3e 0d6f 583e b042 dabd 7087 20bf
000002a0: 6b9d e5bd d6ee 1cbc 5da2 05be e9b5 273f
000002b0: 9a6a cebe 7997 ce3e 9ba8 b8be 9376 353f
000002c0: cf66 ccbe 29ce e9be 63c7 603e a426 ebbe
000002d0: db76 483e 78d3 843d 8b20 1ebf c220 853e
000002e0: 8dc8 48be d105 4c3d 89f9 db3e 4530 92be
000002f0: 5fca 80bd 2baa 6c3d f840 8abf dbc7 29bf
00000300: 15ab abbe d4eb 47bf 772b fbbe 3942 a5bd
00000310: e436 55bf fca2 15bd 1f42 a0bd fbb2 21bf
00000320: 804f cd3e acfa fd3e 374c 4c3e 9afd 02be
00000330: 008f 75be 74da 1cbe 3442 293f 0d9f 113e
00000340: 66e8 bfbe 7d73 323e 27e4 dabe d129 25bf
00000350: 1a9f aa3e 81da a8be 4b53 d13d ee8a c8bd
00000360: e9a5 c33e 5c44 6abe bc4f d3be f06e 3dbf
00000370: 3e7b 27bd b3b1 f03e 0072 3dbf 9584 003f
00000380: 933a 90be 5433 dcbc 7d0c 1f3e 2f21 bb3e
00000390: 95e1 9f3d 0508 3e3e 846a 76be 7779 ebbd
000003a0: 94a1 81bb 705d 3c3f 71be 67bf 8eac ec3b
000003b0: c247 83be b525 923e 0fa9 e9be 1b93 d73d
000003c0: c78c 5a3f 6b54 aabe 940a 073f 9a2a 963e
000003d0: 305b 75bd 5cc5 233f 9b49 8f3e 86e3 843d
000003e0: f264 7c3d fac4 dcbe a24f 14bf e8d9 4fbf
000003f0: 16af 063c 8f5c 743e 97c4 cfbe 4b28 403e
-0.08736953 -0.17295934 -0.42650142 -0.26101682 0.5274498 0.49923944 1.0614799 -0.051351238
-0.898155 0.39598384 -0.44886956 -0.13583077 0.24578202 -0.5349908 -0.049985703 0.1719108
-0.012814186 -0.5955779 0.036036845 0.1059745 0.08826553 0.5874947 0.44814262 -0.06474654
-0.53495693 0.5767385 0.32680827 -0.040179085 0.7727132 0.86841273 0.45088533 0.6848012
-0.20653398 0.7927835 -0.49189696 0.41489035 -0.034367774 0.5098744 0.497419 -0.26657552
0.23424235 -0.5494126 0.49658364 -0.14669794 0.37373665 -0.72278357 -0.08842653 0.20667659
0.37293068 0.27992943 -0.4941667 -0.70724195 0.23040903 0.29121196 -0.47983885 0.07955759
-0.16034935 0.58323383 -0.10118299 0.030173678 -0.48608598 -0.05772901 1.376758 0.075891435
0.1894242 0.60932237 -0.42055908 0.109239995 -0.13399869 -0.34701076 -0.1251449 -0.3797115
-0.2942409 -0.02470822 -0.6415663 -0.003598448 0.80530876 0.09715231 -0.8486259 0.24656534
0.35755208 0.32669967 0.32915923 -1.1381862 -0.5991591 0.42822123 0.06770573 0.0064600785
-0.120639846 0.09791229 0.19524187 0.3206909 0.4046541 -0.07372373 -0.26182392 0.40430382
0.25467378 0.24320138 -0.22223924 0.5246072 -0.4026074 -0.27347505 0.008487462 0.17953083
-0.7576603 0.3841644 0.08907034 -0.117231146 -0.38480803 0.22746405 0.07058111 0.442282
0.1544375 -0.17907307 0.53533566 -0.19720845 -0.25630057 0.007779824 0.56576204 -0.7719259
-0.688835 0.17157713 -0.0886846 -0.3684955 -0.17224517 0.45269892 0.19776727 -0.41670495
-0.66287756 0.17769137 0.2524841 0.10420696 0.041606307 0.7826836 -0.0946419 0.25032377
-0.4719569 -0.24374422 -0.632831 -0.15966138 0.37007394 -0.18848673 0.9110213 0.5544013
0.12996943 -0.09614782 0.62988025 -0.012297572 0.52144563 0.09536317 -0.09898999 -0.5172525
-0.12845486 0.10640969 0.34468448 -0.8439693 -0.10362814 -0.5630109 0.22716543 0.623296
0.2633831 -0.15110931 0.09195097 0.16433382 0.18634787 0.21136113 -0.10657251 -0.6270666
-0.11211666 -0.009578427 -0.13050218 0.6551195 -0.40315706 0.4034994 -0.36066136 0.70884055
-0.39922187 -0.456651 0.2195106 -0.45927918 0.1957659 0.06485647 -0.61768407 0.26001555
-0.19607754 0.049810234 0.42963818 -0.28552452 -0.06288599 0.057779472 -1.0801077 -0.6632058
-0.33528963 -0.7809422 -0.490566 -0.080692716 -0.8328688 -0.036532387 -0.078251116 -0.6316373
0.40099716 0.4960531 0.19950949 -0.12792054 -0.23980331 -0.15317708 0.6611664 0.1422083
-0.37481993 0.17426868 -0.4275219 -0.6451693 0.3332451 -0.32979205 0.10220965 -0.09792124
0.38212517 -0.2287764 -0.4127177 -0.739974 -0.040889017 0.47010574 -0.74002075 0.50202304
-0.2816969 -0.026879944 0.15532108 0.36548755 0.07806698 0.18557747 -0.2406407 -0.11497777
-0.003956029 0.73580074 -0.90524966 0.0072227186 -0.25640684 0.28544393 -0.45636794 0.10526105
0.8537106 -0.3326753 0.52750516 0.29329377 -0.059901416 0.6397302 0.27985844 0.06488709
0.061619706 -0.4311903 -0.5793401 -0.81191874 0.008220455 0.23863433 -0.40579674 0.1876537

gnn_base.gnn.embed_layer.layers.0.bias f4 [16]
00000000: 4b69 58be 6104 50bc b9eb d2bd b561 e4bd
00000010: 073e aa3d 4aca ecbd 6eda 01be 23fb 22be
00000020: 12ee 17be 07de 9cbd c3e8 d9bd ed75 a43e
00000030: c7f4 e23c 6457 5ebd 3533 d3bd 05d1 3dbe
-0.21133916 -0.0126963565 -0.10298867 -0.11151449 0.08312612 -0.11562021 -0.1268098 -0.15916114
-0.1483691 -0.07659536 -0.10640099 0.3212122 0.02770461 -0.05428256 -0.10312501 -0.18536766

gnn_base.gnn.embed_layer.layers.2.weight f4 [16]
00000000: dad5 663f 755a 823f 4212 623f 816a 973f
00000010: 6fbd 823f 5c75 493f 35f8 6a3f 045b 3a3f
00000020: 56f5 6d3f 44df 803f 7c60 973f 1603 5e3f
00000030: 96a0 8f3f abb5 7d3f f477 d53f a7e2 8e3f
0.9017006 1.0183855 0.8830911 1.1829377 1.021406 0.786947 0.91784984 0.7279513
0.9295248 1.0068135 1.182632 0.8672346 1.1220882 0.9910533 1.6677232 1.1162919

gnn_base.gnn.embed_layer.layers.2.bias f4 [16]
00000000: db58 3b3e d418 483d e131 103e 5429 e5bd
00000010: 9a84 ec3c 60fe 76bd ec53 1d3e 785d 513e
00000020: 7286 063e eb9d 113c f3c4 f23d 5154 0cbe
00000030: c374 763e 80b6 f7bd bb3a 22bd 3f0b 07be
0.18295614 0.048851803 0.14081527 -0.11189523 0.028871823 -0.060301185 0.15364045 0.20445812
0.13137224 0.008887748 0.11853971 -0.13704039 0.24067979 -0.12095356 -0.03960679 -0.13187884

gnn_base.gnn.gnn1.lin_key.weight f4 [48, 16]
00000000: 758e 1e3d 32a4 b83e 2b82 1e3d c4f7 3ebe
00000010: 7069 273f 1218 c2bb 588f 0a3e 011e 623d
00000020: a52e 3b3e 40b6 86be b96b bd3e 2f0b 9abe
00000030: 73ed 053c 35b0 96be 8e7d 55bc 5fd2 c93e
00000040: 2b15 7d3d 7055 8c3d 1bd0 783e 1b48 653e
00000050: 1c14 82be dc72 edbd 0cb5 f6bd 300f f83d
00000060: b347 48bd d7d7 a83d d945 45be 4747 35bd
00000070: 4973 8d3e f84b 22bc b529 bf3d dc8b 413e
00000080: 11e2 143e 2d59 a0bd ff59 b6bd 9c7d f33d
00000090: 7eeb d83e 8a90 d53d 04b7 683e c6d3 a23e
000000a0: c6f1 4e3e 3dd7 62be f88d 3e3c 10f2 05bf
000000b0: 1381 b4bc 4687 e0bd 04f4 82be f05e 013f
000000c0: 7c21 82be 4a74 44be 23cd dabe 09b0 03bf
000000d0: 514f 9d3e 985f a0bd e572 173e 32d1 ecbe
000000e0: 8e32 503e c225 973d f312 d33d cd56 743d
000000f0: f294 e2be 2ec1 113f dcd4 643e d225 f43c
00000100: cc71 803e 270c 7abe 3fee 0d3c adea 7c3d
00000110: 796c bc3d bd6f ca3d 2aa4 b4bd 7a9b 003e
00000120: d02e 743e b4b8 313d 77d0 b03e bf56 92be
00000130: eac4 17bc aa2d 01bf f70f 483d 494f bd3e
00000140: 97da 523e 7ad9 0bbd b408 fd3e 0c39 aa3e
00000150: 2b1e 8dbe cf32 71bd 4f5a 99be 7278 923e
00000160: 413c 8bbd 66e3 63bd 3b77 233e f78d d3bc
00000170: e0e1 313e f0e6 fabd 6649 05be 5d3d 8d3e
00000180: 7ab4 e3bb 5cdc 303e d383 0fbe 72d6 fcbd
00000190: de8b 633e ce89 50be 91a8 0e3f dd91 813e
000001a0: 8f93 ea3b cf9b f9bb 870d ae3d 06c8 98be
000001b0: b521 4a3e d7cf 1bbd 716f 7d3e 36c2 5b3e
000001c0: 3718 85bd 5235 263e edb3 1d3e ae0f a63e
000001d0: 52d0 e13e 3d52 31bc 9c23 0f3d c4f2 0abe
000001e0: 1fe2 a93e 11d7 93be 1807 83be 4ffd 74be
000001f0: dd5f 05bf 8ea3 1dbe 4c64 053e e1aa 6c3d
00000200: 6e4e 89be c0ac 4bbc a616 8dbe aeb4 aebe
00000210: 9290 85be ca54 483d 7316 2f3d f568 173e
00000220: ca98 a4be b5ed 14bd a45d 163e 77df c5bd
00000230: c1ab 9b3e 44d5 8a3e e64f da3e c46a 88be
00000240: 7a13 353e 07bb 33be 2a41 dbbc ecf3 8e3e
00000250: ca51 74bd 726b 8a3e 3975 f5be 453f 573e
00000260: 657f f4bd 8739 423e 3ae4 bcbe 3837 933d
00000270: 5ff4 ffbd 9bfa 913e 3e32 d0be 7a43 8c3d
00000280: af17 f23d 7217 8e3c 99c0 473b 025e a1be
00000290: 4a95 a5be 7f83 4fbe 0836 75bd d94b 3c3d
000002a0: be9b e6be 916a 60bd 9287 96bd 996b c53d
000002b0: 29bb 0b3e 3ec0 263e a7b8 7bbe be6b ef3d
000002c0: 6107 2f3c 4c83 42bd d940 443d d74a 283e
000002d0: 7cee 9ebe a3cb ac3d 527a 67be 980c 8c3e
000002e0: bfd4 9ebe 684f 3e3e 31d0 b6be d98d b2bd
000002f0: 3e4c 323e a734 0abd 773a f6be 513c f03c
00000300: 01a4 3cbe 9284 98be aa3f 76ba cb81 a63e
00000310: f536 053d f692 423e 5272 84bb e8b2 163e
00000320: 79cf 0e3e 57e8 6c3e 8fea b1bd ed3a 24bd
00000330: 5f21 09bd 14a0 bf3e e186 de3a 7314 4b3d
00000340: be6c 983e e411 d0bd f62d 193e 3dc1 9c3e
00000350: 5b75 9e3e ffb4 15be 64b9 82be e4ad b63e
00000360: 75c6 d83d e147 193d 5dbe a03e 16e0 643d
00000370: 9389 c13e 365b 0dbf 8934 9d3e 3653 a63e
00000380: eaad c43e 1769 583e 3005 1fbe b5a2 cd3e
00000390: 8698 25bc 7c06 78be 90fe 58bd 02bf a53d
000003a0: 80f5 073d 1638 b3bb 73d2 123c 6610 07bd
000003b0: 70fb 77bd 6513 0b3d fc41 363d fc4e 363e
000003c0: 4eaf 8b3e e2a2 883e d174 bfbb 3752 48bd
000003d0: f6ad aa3e 7243 a0bd 31ee 063e bb88 c83b
000003e0: 9fc3 1abe 585f d1bd 736a 743e 89fd c0be
000003f0: cf86 8b3e a0cb 89be 2a83 8e3e 17a8 c03e
0.038710076 0.3606277 0.038698357 -0.18649203 0.6539526 -0.0059232796 0.13531244 0.055204395
0.18279512 -0.2631092 0.36996248 -0.30086657 0.008174288 -0.2943131 -0.013030423 0.39418313
0.061787765 0.068522334 0.24298136 0.22390787 -0.25405967 -0.11594173 -0.12046251 0.12112272
-0.048896503 0.08244293 -0.19264926 -0.04425743 0.27627018 -0.009905808 0.09334127 0.18901008
0.14539362 -0.07829509 -0.08903884 0.118891925 0.42367166 0.10427959 0.22726065 0.31802195
0.20209417 -0.2215242 0.011630528 -0.52322483 -0.022034204 -0.10963301 -0.25576794 0.5053549
-0.25416172 -0.19184986 -0.42734632 -0.51440483 0.30724576 -0.07830733 0.14789923 -0.46253353
0.20331785 0.073802486 0.10306349 0.059653092 -0.4425426 0.56935394 0.22346824 0.02980319
0.2508682 -0.24418698 0.008662759 0.06174724 0.09200377 0.09884594 -0.08820374 0.1255931
0.23845983 0.043389037 0.34534046 -0.28581807 -0.009263257 -0.504603 0.04884335 0.36974552
0.20591198 -0.03414295 0.49420702 0.33246648 -0.2756208 -0.058886345 -0.29951712 0.28607517
-0.06798602 -0.055636786 0.15963452 -0.02582453 0.1737132 -0.12251079 -0.1301628 0.2758588
-0.0069490047 0.1727156 -0.1401513 -0.1234559 0.22221324 -0.20365068 0.5572596 0.25306597
0.0071587036 -0.007617451 0.08498674 -0.29840106 0.1973942 -0.03804001 0.24749543 0.21460804
-0.06498759 0.16231278 0.15400667 0.32433838 0.44104248 -0.01082283 0.03494607 -0.1356917
0.3318033 -0.2887502 -0.2559135 -0.23924755 -0.520994 -0.15394422 0.13026541 0.05778015
-0.2681765 -0.0124313235 -0.27556342 -0.34122223 -0.2608686 0.048908986 0.04274602 0.14786132
-0.3214782 -0.036359508 0.14684159 -0.09661763 0.30404475 0.27115834 0.42639083 -0.26643956
0.17683211 -0.17551814 -0.026764471 0.27920473 -0.059648313 0.270351 -0.47940996 0.21020229
-0.11938361 0.18967257 -0.36892873 0.071882665 -0.12497782 0.2851151 -0.40663332 0.06848808
0.118209235 0.017345164 0.0030479787 -0.31517035 -0.3234046 -0.20265006 -0.05986598 0.04597077
-0.45040697 -0.05478913 -0.07350077 0.09639663 0.13645615 0.16284272 -0.24582158 0.11690472
0.010682912 -0.047488496 0.047913406 0.16434799 -0.31041324 0.08437278 -0.22605255 0.27353358
-0.31021687 0.18584979 -0.35705712 -0.087184615 0.17411897 -0.03374162 -0.4809148 0.029325636
-0.18421938 -0.29788643 -0.0009393642 0.325209 0.032523114 0.19001374 -0.0040419484 0.14716685
0.13946332 0.23135506 -0.086873166 -0.04009526 -0.03347909 0.37426817 0.0016977453 0.04958005
0.29770464 -0.10159662 0.14958939 0.3061618 0.3094891 -0.14619826 -0.25532067 0.35679543
0.10584728 0.037422065 0.31395236 0.055877768 0.37800273 -0.552173 0.30704144 0.3248536
0.38413936 0.21133839 -0.15529323 0.40163198 -0.010107165 -0.24221224 -0.052977145 0.080930725
0.03319311 -0.0054693324 0.008961308 -0.032974623 -0.060542524 0.033954043 0.04449652 0.17803568
0.27282184 0.2668677 -0.005842783 -0.04890653 0.33335847 -0.07825364 0.131768 0.006119815
-0.15113686 -0.102232635 0.23868732 -0.37693432 0.27251288 -0.26913166 0.27834445 0.37628242

gnn_base.gnn.gnn1.lin_key.bias f4 [48]
00000000: 50aa 443e 2cb7 4a3e 4166 8dbd ade3 14be
00000010: 2940 e3bd 0fbd 2ebe 4a04 84bd 5c70 67be
00000020: 66b7 083e 0075 70be 825a 1fbe 7ddf 2b3e
00000030: 0177 3fbe 6e4d 753d 7de2 3f3e 2385 7c3e
00000040: df85 013e 1cf9 88bd cf2a 123e 7989 05bc
00000050: 80c1 9ebd a190 3e3a c50a 673d 3a9c 2b3e
00000060: fb92 d63d 5d41 f43d 9bf5 193d c5a8 4fbc
00000070: 913f d73d cd25 763d 3d3e 75be 64e9 253d
00000080: 9825 e3bd cad2 07be 44d6 c63d b0a5 503d
00000090: 5e25 2f3d fc8c f2bd 3b3a ec3d 0661 703e
000000a0: 131c fb3c 04bc d23d c8e4 60be d08c 183e
000000b0: f981 b13d 99a1 e63d bd08 d53d b10d 87bd
0.19205594 0.19796437 -0.06904269 -0.14539976 -0.11096222 -0.17064308 -0.064461306 -0.22601455
0.13351211 -0.23482132 -0.1556187 0.16784473 -0.1869774 0.059888296 0.18738742 0.24660163
0.12648724 -0.06688139 0.14274143 -0.008150452 -0.07751751 0.0007269476 0.056406755 0.16758814
0.10477253 0.119265296 0.037587743 -0.012674515 0.10510171 0.060094643 -0.23949523 0.04050578
-0.11091155 -0.13264003 0.09708837 0.050939262 0.042760246 -0.11843297 0.11534544 0.23474512
0.030653035 0.102897674 -0.21962273 0.14897466 0.086673684 0.11261291 0.10402057 -0.06594408

gnn_base.gnn.gnn1.lin_query.weight f4 [48, 16]
00000000: 4e91 8f3e ad6c 9f3e bf0d 25bd 043b b5be
00000010: 4238 e9bc 5724 f63e 75b4 0a3e 804c 133e
00000020: 8ec0 a83e 3614 c93d f3cb b33e f151 3b3d
00000030: af38 99be 947c a0bd c18d 05be ee86 be3e
00000040: 0480 34bd d0d0 0cbe 4f0a 8cbd 2809 02bd
00000050: 0664 813d bd9e 1d3d 15d4 8bbd 9968 cbbd
00000060: 60de 6a3e 04e5 31be e8a5 383e 5c45 05be
00000070: 0453 bc3e 97fa 63be d63b c43d ab69 9b3c
00000080: 8757 303e a7df d73d 0a10 583e 1c12 92be
00000090: f8de 153e 6d8c a63e ed9e 993e 2e33 5e3e
000000a0: c644 bd3e e540 7bbe 8e4b 203f b7e2 bf3d
000000b0: 3647 8ebe 2970 353b f360 bb3d d936 e43e
000000c0: 93f2 c33b 5dd1 3bbe 03c4 f43d ea80 01be
000000d0: f606 acbe 4fb6 683e 4b37 bc3d 7b05 9a3d
000000e0: 2dbb 4c3d a885 0d3d de4a 41bd 555c 293f
000000f0: 223e 24bd 38bb 2c3f bc8f 03bf 42da a03d
00000100: 8810 64bd c155 18be 3fbe 60be 8f5f 8ebe
00000110: 85a1 72bd d1fe 963e e06f aa3c 4446 75bd
00000120: 129e 5cbd 5273 82bd cb96 863e f4c5 aabe
00000130: ff78 52be 3b28 51be 857d 803d e43b a03e
00000140: c915 a0be 46c9 2a3d 5aab b2bd b8a0 03bd
00000150: 34e7 8b3e ed87 d8bd 702e 523e fa71 c8bc
00000160: abc1 4bbe ec9b 78be 5508 aa3d 9c73 01bf
00000170: dfbb 873d 21b1 0ebf 5d60 793e cee7 88be
00000180: d403 2c3e 0960 873e 28a1 3d3d 52fc 3ebe
00000190: ccba 1bbf 0bd7 8f3e 4c01 3a3e f776 8d3e
000001a0: 569e 803e 7670 b0bd cd63 ff3d f28e 6f3d
000001b0: 51c4 32be 7f8f 8bbd d6d0 02be e171 6d3e
000001c0: 5d67 5d3e f0c4 21be 2421 aa3e 0b42 c5be
000001d0: 0cf9 6a3e a248 503d a7b2 bcbe 04b6 1f3d
000001e0: db01 493d d36a 0abe e145 ae3d d912 653e
000001f0: e0f9 dcbe 20f7 5b3e 4813 3f3e 62ec 563e
00000200: 23a2 ebbd 1beb 793e 685d 49be ad37 763e
00000210: c401 d3be e48a 223e 7718 a6bd 5cb4 01be
00000220: 7a5f 843e 5f60 39be c5e1 6abe fb78 003e
00000230: 1a57 ad3e b31b 5fbd 8626 babe bb36 7c3e
00000240: 84e2 ba3d 6cda bd3c 5144 cb3e 051a 50bd
00000250: 52c3 013f 154e b0be f49b 1cbd 8891 94be
00000260: d08a a2be 9160 aebd 9afb 2e3e 0e97 e83d
00000270: 8d26 3d3e 2d70 c3bc 9448 85bd 7f6d d8ba
00000280: 515d 7bbe d80d babd cc60 183d e795 d03d
00000290: b199 12be 8967 053d 722d bf3e bade 62bd
000002a0: 50d6 c83d e51f c73d c289 59be 45ca d83c
000002b0: f74a b43e b7bc 11be 6bfd 37bd a12c 84be
000002c0: e3cd fbbc b9d6 a53d 8fdb 493e a328 0d3e
000002d0: 5e2a 543e be52 a4be d907 443d e55c 77be
000002e0: 5c72 d23d be2a 6c3e 1964 193e 85aa 75bd
000002f0: bbaa b43d 5a67 1dbf 2d2f 0b3e 7606 b6be
00000300: c597 efbd 6e59 89bd 0a42 3a3e 5ba1 28be
00000310: 4e09 763c 8b5e 683e 250e 80be 1d61 8fbe
00000320: 085b fbbd 32c8 96bd 8715 233e f890 b0bd
00000330: 124b 9cbd b0d2 f23d fd4a 7dbe 56f6 d5bc
00000340: 29a4 833e c2b5 6ebe 634d a8be 2439 a53e
00000350: 76c1 b33d 6c37 993d c442 53bd b30a a63d
00000360: 7f49 da3d 0472 9c3c aed0 973e b827 18bf
00000370: f055 3fbe fe3d a2be 492b 163e e7d7 df3e
00000380: 378d 1c3e 0115 133d 1697 c53d a645 ecbd
00000390: 5697 b7bd 5a9c 883d a648 24be 0ae3 2abe
000003a0: 67fc 973d 94fd 6ebe d513 a9bd 83ae cebd
000003b0: 060e cd3d 055e 84be 9ea2 bc3d 4ccf 133e
000003c0: 711f b93d ed70 833e a79f 8bbe 7484 92bd
000003d0: b3b0 7cbe 8c11 df3e c2cb 33bd ec44 3b3e
000003e0: 0ecb 9d3e 8374 fa3c c0fd b43e dd0d 3bbe
000003f0: 5f76 9dbe 73da 3dbe 3bde 5bbe 8572 3c3e
0.28040546 0.311376 -0.040296312 -0.35396588 -0.028469209 0.480746 0.13545401 0.14384651
0.32959408 0.09818308 0.35116538 0.045732442 -0.2992606 -0.078362614 -0.13042356 0.37212318
-0.044067398 -0.1375153 -0.06837904 -0.031747013 0.06317906 0.038481463 -0.06827561 -0.0993206
0.22936392 -0.17372519 0.18032038 -0.1301474 0.36782086 -0.22263561 0.09581725 0.018971285
0.17220889 0.10540705 0.21099868 -0.2852944 0.14635837 0.3252901 0.30004063 0.21699211
0.36966532 -0.24536474 0.6261529 0.09369414 -0.27788705 0.002768526 0.09149351 0.44573095
0.005979845 -0.18341585 0.11951449 -0.12646833 -0.3359906 0.22725795 0.09190234 0.075205766
0.049983192 0.034551293 -0.04719054 0.6615651 -0.040098317 0.67473173 -0.51391196 0.078541294
-0.055679828 -0.14876463 -0.21947573 -0.2780728 -0.05923607 0.29491284 0.0208053 -0.059881464
-0.053861685 -0.06369652 0.2628692 -0.3335415 -0.20553969 -0.20425503 0.06273941 0.31295693
-0.3126662 0.041695856 -0.08724089 -0.032135695 0.2732483 -0.10572801 0.20525527 -0.02446841
-0.19898097 -0.2427823 0.083023705 -0.5056703 0.066276304 -0.5573903 0.24353166 -0.26739353
0.16798335 0.26440457 0.04629627 -0.1865094 -0.60831904 0.28093752 0.18164557 0.27629825
0.251208 -0.086152 0.12470207 0.058485933 -0.17457701 -0.06814479 -0.12774977 0.23187973
0.21621461 -0.15797782 0.3322841 -0.3852695 0.22946566 0.050850518 -0.3685505 0.038991943
0.049074035 -0.13517313 0.08509422 0.22370471 -0.4315939 0.2148099 0.18659699 0.2098861
-0.115055345 0.24406092 -0.19664538 0.24044676 -0.41212285 0.15873295 -0.08110135 -0.12666458
0.25854093 -0.18103169 -0.22937687 0.1254615 0.33855516 -0.054469775 -0.36357516 0.24630253
0.09125236 0.02317544 0.3970056 -0.050806064 0.5068866 -0.34434572 -0.038234666 -0.29017282
-0.3174653 -0.08514512 0.17088166 0.113569364 0.18471737 -0.0238572 -0.06507984 -0.0016512125
-0.24547316 -0.09084672 0.037201688 0.101848416 -0.14316441 0.032569442 0.3733936 -0.05538819
0.09806502 0.0972288 -0.21243957 0.026463637 0.35213444 -0.14232145 -0.044919413 -0.258153
-0.030737823 0.08097596 0.19712661 0.13785033 0.20719287 -0.32094377 0.047859047 -0.2415653
0.102757186 0.2306318 0.1497959 -0.059977073 0.08821627 -0.61485827 0.13592215 -0.35551804
-0.116988696 -0.067065105 0.18189254 -0.16467802 0.015016867 0.22692315 -0.2501079 -0.2800378
-0.12273222 -0.07362403 0.15926181 -0.086214006 -0.07631506 0.11856592 -0.24735637 -0.026118439
0.25711182 -0.23311523 -0.3287154 0.32270157 0.08777134 0.07481274 -0.051577345 0.081075095
0.106585495 0.019097336 0.29651397 -0.59435606 -0.18685126 -0.3168792 0.1466495 0.43719408
0.15288244 0.035908703 0.09647958 -0.11536722 -0.08964412 0.06670447 -0.16043338 -0.16688171
0.07421189 -0.2333892 -0.08255736 -0.10091879 0.100124404 -0.2585298 0.09210704 0.14434546
0.090392 0.25672093 -0.27270243 -0.0715417 -0.2467678 0.43568075 -0.04389549 0.1828801
0.3081898 0.030573135 0.35349846 -0.18267007 -0.30754372 -0.18540363 -0.21471493 0.1840306

gnn_base.gnn.gnn1.lin_query.bias f4 [48]
00000000: 7085 32be a0f8 08be 301d b8be ce9d 253e
00000010: 8fee a0be 13b7 9d3e c063 35be c19d a9be
00000020: 702b 0c3d d2f1 23bd 170d 913e ecf5 7c3e
00000030: 55ce 233e 7c21 9cbe e06b 6ebe 1406 ccbe
00000040: f29f ecbe e346 3abe 0b18 c5bd dc91 dcbd
00000050: 7052 a2bd 1b6e b3bc 9c88 98bd dbd2 a8bd
00000060: 797c 033d a575 033e f591 b5be 5511 293e
00000070: e286 a03d 5360 22be 4cc4 c43e 040f 913e
00000080: abc8 ecbd 9f88 363c d680 013d 64d6 b43c
00000090: 42c3 55be 3787 003e 9837 983e 2a34 15bd
000000a0: d4ed 74be f21f 943e 063d fdbd 72f9 28be
000000b0: 82f6 473e fa43 f5bc c7f7 57bc 8252 20bc
-0.17433715 -0.13376093 -0.35959768 0.16173479 -0.31432006 0.30803737 -0.17713833 -0.3312817
0.034221113 -0.04002554 0.283303 0.24703187 0.15996678 -0.30494297 -0.23283339 -0.39848387
-0.4621578 -0.18191104 -0.096237265 -0.10770008 -0.0792588 -0.021903088 -0.07447931 -0.082433425
0.03210113 0.12837847 -0.3546292 0.16510518 0.07838227 -0.15857057 0.38431013 0.2833177
-0.11561712 0.011140971 0.03161701 0.022074886 -0.20875266 0.1255158 0.29729915 -0.0364267
-0.23918849 0.28930622 -0.12365155 -0.16501406 0.19527629 -0.02993964 -0.013181633 -0.009785296

gnn_base.gnn.gnn1.lin_value.weight f4 [48, 16]
00000000: 5285 1dbe 20b9 1c3e 9eb7 01bf 5ad9 1fbd
00000010: acc9 253e a10b bd3e 34fa 8c3e 9732 4bbe
00000020: c4cb a23d 0f89 adbe 6683 db3e 7c44 09bb
00000030: 9287 17bf f230 c73e 2f98 1f3f e293 6e3e
00000040: c5f6 9fbe 89b6 ffbe 9aff a9bd a36d 453d
00000050: de46 d4bd 7c28 113e 83d7 cd3e 9d6b 20be
00000060: 4173 f4bd ea82 393e 7d67 6b3e 86bb 1dbe
00000070: aceb 60be 86b6 cc3d 5c99 8a3e b073 84be
00000080: 1077 ccbe f1d7 fabb 7b73 6ebe 8f44 8d3c
00000090: 98ba bd3e df32 6c3e 7f00 8b3e 6602 543e
000000a0: f02a 8bbe d4a7 4ebd fc73 0d3f 3c6d e7bc
000000b0: 3228 a3bd 0153 0abe 63b2 273e 67e0 24bd
000000c0: a0b2 8a3d 9344 a4be e88a e2be 692c 3e3e
000000d0: 60d8 acbe 174d c6bd 2f0b 983e 31b0 89bd
000000e0: 03da 8d3e ba87 633e 9d75 703e 2426 15bd
000000f0: b9b2 f9be 6be6 b2bc 49e4 9f3e 727f 68bb
00000100: d9f7 613e b0c6 f93e 6d44 edbe 3b58 863e
00000110: 2cbc d5be cd0b 0c3c 5507 ccbd d685 d03e
00000120: 7952 8fbc e1b2 7f3e c3d0 5abe 999b 7bbe
00000130: 479b f0bd 132c 303d 170d a8be e926 8a3e
00000140: 3a28 cd3c 36b1 c7be a2d4 343e cdab 7f3e
00000150: 10df e93e 7e5d c03e 2ce0 393e 1248 cbbe
00000160: f665 7fbe f98c 1b3d cdd3 983e 8503 453e
00000170: f470 adbe 7053 1ebe 7cd2 18be eb93 3e3e
00000180: 2458 7d3e 9934 763d 0ae2 ebbd 7972 d2be
00000190: d500 44bc 5bd0 c73d a400 45bc 409e 6ebe
000001a0: 67b6 f63c 40e5 18bd 1596 763e 8232 353e
000001b0: e83f 0cbe f757 a33d ae18 3b3e c2fc a5bd
000001c0: fa27 bfbd a744 1f3e f892 e33d 2e6f 733e
000001d0: a81b 43be e8d9 583d 8072 8a3d 10bb dfbd
000001e0: dd29 2c3d 5609 05be 26e9 8abe f0ae 463e
000001f0: fc05 cfbe 02bd 883e 9580 96be d0b7 d8be
00000200: a7d5 113e 3bb3 903d 072e 643e dc2a 39be
00000210: 8564 1a3e 24fd edbd 4772 d43c 87f3 463e
00000220: 640b a6be 3b6f 07be 5eed 16be 481f 373e
00000230: 5d5a c13e 91f9 73be 2024 f33d 0090 253e
00000240: c1e8 c4be a5e5 c8be bf48 2f3e 2164 ac3d
00000250: 4ceb 2c3d 336f 15bd d8c8 eb3e 8afd edbe
00000260: b134 c73d cbb7 d1be a130 923e cda2 d53e
00000270: ab01 d9bb 8f5f 1b3e 67e8 68bb 838c b5be
00000280: 55cc 49bd 2aca 7dbe bdf1 693e bf82 d03d
00000290: 5641 afbc 098c 033e 6aff 033c 6505 313e
000002a0: fda7 3ebe 511e 27be bd57 d6b8 86be 7fbe
000002b0: a57b 95be be82 3f3e 3aaa c73e 7387 8e3c
000002c0: f807 b33c 83d2 d9be 7709 01bd 77be cd3e
000002d0: 752a b93e 9ca5 353d 1b4a 943e f3f0 edbc
000002e0: 3f23 0d3c 7e70 65be fbcd 3c3e 6924 c2bd
000002f0: 6e61 b5be 4afa 41be 16a3 0b3f aaa6 793d
00000300: fecd d7be 1eed f5bb 15a2 9f3e e8e5 12be
00000310: f3e2 0c3f 3c1d bb3d dec4 353d f124 cfbe
00000320: 2d5f a0be f4bc a6be ab5e eeba 0d73 13be
00000330: 8122 d4be 29ca e0bb 16b6 b93e c7cf 8d3d
00000340: 1706 6a3e 0259 b3bc d53d 95be 9fa6 53be
00000350: 004b 023e 9f1f 73be b04c fc3d 7a12 5d3d
00000360: 758f 963e 56e1 213e 025f 5a3e 0b28 023e
00000370: bde4 a6be e28f 8e3e 8ad6 473e 5cb0 32be
00000380: 838e 66bd 9f60 bbbd 7c99 0bbe 3e28 9c3e
00000390: f936 adbe c609 69be 9180 1cbc bb87 983e
000003a0: a3a4 a83d 6717 d8bc c6b2 043e 4954 22be
000003b0: 0225 75bb 3055 f23c 600d 1bbe bc3f 423d
000003c0: 133d 5bbd 7ff7 d43d 18ba b0be 8707 8cbd
000003d0: f150 d03e 990e d73c 9b47 cc3d 7045 94be
000003e0: 17a4 abbe d9ac ec3c d3a5 593e a061 e23e
000003f0: 7be2 12bf 9b62 e73e 054b cf3c 1c5f 0bbe
-0.15382889 0.15304995 -0.506708 -0.039025642 0.16190213 0.36922935 0.2753464 -0.19843517
0.079490215 -0.3389363 0.42873687 -0.002094536 -0.5919124 0.3890453 0.6234159 0.232986
-0.31242958 -0.4994395 -0.08300705 0.04820026 -0.10365079 0.141756 0.40203485 -0.15666051
-0.119360454 0.18116346 0.22988696 -0.15403566 -0.21964902 0.09995751 0.2707013 -0.25869513
-0.39934587 -0.0076551368 -0.2328624 0.017244605 0.37056422 0.23066281 0.27148816 0.2070404
-0.27181196 -0.050453022 0.55255103 -0.02825033 -0.07966651 -0.13508226 0.16376643 -0.04025307
0.06772351 -0.32083568 -0.44246602 0.18571629 -0.3375883 -0.096826725 0.29696032 -0.06723059
0.27705392 0.22219744 0.23482366 -0.036413327 -0.48769167 -0.021838387 0.31228855 -0.0035476354
0.22067203 0.487844 -0.46341267 0.2623919 -0.41745126 0.008547735 -0.09962336 0.4072711
-0.01749538 0.2497058 -0.21368699 -0.24571075 -0.11748367 0.043010782 -0.32822487 0.2698281
0.025043596 -0.3900239 0.17659238 0.2496788 0.45677996 0.3757133 0.18151921 -0.39703423
-0.24941239 0.03797624 0.2984909 0.19239624 -0.3387524 -0.15461516 -0.14924043 0.18611114
0.24740654 0.060108755 -0.11517723 -0.4110296 -0.011963089 0.097565375 -0.0120240785 -0.23302555
0.030116273 -0.037328005 0.24080689 0.17695048 -0.13696253 0.07975762 0.18271133 -0.0810485
-0.09333797 0.15553533 0.111120164 0.2377288 -0.19053519 0.052942187 0.067601204 -0.10924351
0.04203211 -0.12991843 -0.27131003 0.19402671 -0.40434253 0.26706702 -0.29394975 -0.42327738
0.14241658 0.070654355 0.22283183 -0.18082756 0.15077408 -0.11620548 0.025933398 0.19428836
-0.32430565 -0.13226025 -0.14738986 0.17883027 0.37764254 -0.23825671 0.11872125 0.16168213
-0.38458827 -0.39237705 0.17117594 0.084175356 0.042216584 -0.036483 0.4605167 -0.46482497
0.09726847 -0.40960535 0.28552726 0.4172577 -0.0066225133 0.15173171 -0.0035538913 -0.35458764
-0.04926713 -0.2478415 0.22846122 0.10181188 -0.02139346 0.12846388 0.008056501 0.17287214
-0.1861877 -0.16320159 -0.00010220658 -0.24975023 -0.29195896 0.18702218 0.3899706 0.017398572
0.021854386 -0.4254342 -0.031503167 0.40184376 0.36165205 0.04434739 0.28962788 -0.029045558
0.00861436 -0.22406194 0.1843795 -0.09479601 -0.35425895 -0.18943134 0.54545724 0.06094996
-0.42149347 -0.007505073 0.31178346 -0.14345515 0.550338 0.091364354 0.0443772 -0.40457872
-0.31322613 -0.32566035 -0.0018186172 -0.14399357 -0.41432574 -0.006860037 0.36271733 0.06924396
0.22853886 -0.021893028 -0.29148737 -0.2066903 0.12723923 -0.23742531 0.123193145 0.0539727
0.29406324 0.15808615 0.21325305 0.12710588 -0.32596388 0.2784415 0.19515434 -0.17450088
-0.056288254 -0.091492884 -0.13632768 0.30499452 -0.33831003 -0.22757635 -0.009552137 0.29791054
0.08234527 -0.026378347 0.12958822 -0.15852465 -0.0037406092 0.029581636 -0.15141821 0.047424063
-0.05352504 0.10398769 -0.34516978 -0.06837373 0.40686753 0.026252078 0.09974595 -0.28959227
-0.33523628 0.028891014 0.21254663 0.44215107 -0.5737683 0.45192418 0.025304327 -0.136105

gnn_base.gnn.gnn1.lin_value.bias f4 [48]
00000000: 162e 8a3e f10a c73d b416 26be d904 c2bd
00000010: 871a ed3d 0a8b 063e f914 683e 6fc7 abbb
00000020: 516e 35be c215 523e 65db 033d 7897 55bd
00000030: 3fd3 303d b9a8 8cbe db9d 12be d9b0 dc3d
00000040: 38c3 6b3e a8a5 3bbe 2565 c5bd f6fc dcbd
00000050: 8b9a 55be 198f 783e a85c 543e 0402 463e
00000060: 8415 d7bc 3f7b 3dbe b499 0fbe 6b5a 07be
00000070: e518 003e 64be b03c cc46 c1be 834b 683e
00000080: fc1a 873e e0b7 8b3e fed8 cf3d dbd6 89be
00000090: b4db 12be e5fb 3fbd 0562 f83d ff55 39bd
000000a0: b2b7 1e3d c58a ea3d f054 02be 164d 1fbe
000000b0: 21de 1d3e 4688 2bbd 0dc9 f3be e811 cc3c
0.26988286 0.09718884 -0.16219598 -0.09473581 0.11577325 0.13138977 0.2266425 -0.00524228
-0.17717864 0.20516112 0.032191653 -0.052146405 0.04317021 -0.27472475 -0.1431803 0.107759185
0.23023689 -0.18324912 -0.096384324 -0.10790436 -0.20859735 0.24273337 0.2073847 0.19336706
-0.026255377 -0.18504046 -0.14023477 -0.13218085 0.12509497 0.02157516 -0.37749326 0.22685055
0.26387775 0.27288723 0.1014881 -0.26921734 -0.14341623 -0.046871085 0.12128071 -0.045248028
0.038749404 0.114522494 -0.12727714 -0.1555675 0.15416767 -0.041878007 -0.47614327 0.024910882

gnn_base.gnn.gnn1.lin_edge.weight f4 [48, 1]
00000000: a0a7 113f 0a91 bf3e ff6b 8abf c7e6 693e
00000010: ec07 27bf d79f 6c3f 116d f6be 301b 7e3f
00000020: 496e d63e fa1f 06be 7467 033f a97b fb3e
00000030: 3d55 36bf e8d5 39be 7a4b e63e 8bdd afbe
00000040: 74fc 003f 33a1 133f 2eab 9abf ec78 0cbd
00000050: 634c 9bbf 9e3d 223f 5b41 5cbf 2327 77be
00000060: cf1e 953d b1e4 71bf 515a 7ebe cd67 32bf
00000070: 0ace cb3e 3af9 c1be 090e 9dbf 882a f7be
00000080: a47d 8c3c 206e b43e b2a3 80bf 1928 9abf
00000090: c7a8 f03d 1135 1dbf 47f4 2cbf 64f2 71bf
000000a0: 63f4 ccbe db4b 60bf dd87 d2bc a45f d03e
000000b0: b090 093f 2d15 91bf 2218 1d3f 84e1 91bf
0.568964 0.37415344 -1.0814208 0.22841941 -0.6524646 0.92431396 -0.48130086 0.99260235
0.41881016 -0.13098136 0.5132973 0.49117783 -0.71223813 -0.18148005 0.4497946 -0.3434871
0.5038521 0.57667845 -1.208349 -0.034295008 -1.2132686 0.6337527 -0.86037225 -0.24136023
0.07281267 -0.9448958 -0.2483914 -0.6968964 0.39805633 -0.37885457 -1.2269908 -0.48274636
0.017149754 0.3524027 -1.0049956 -1.2043487 0.11750942 -0.614091 -0.6756024 -0.94510484
-0.40030202 -0.87615746 -0.02569955 0.40697968 0.537364 -1.1334587 0.6136495 -1.1396947

gnn_base.gnn.gnn1.lin_skip.weight f4 [16, 16]
00000000: bb01 dabd 9b81 863e 2874 80bb 8f6d e13e
00000010: c280 27bd ecc6 02bd dc19 333d d92e ecbd
00000020: eca7 66be fa4d c2be 97f3 6c3e fef4 a3be
00000030: ba27 2dbe 2eaa 4cbb 69b5 7a3d 0609 553e
00000040: 2898 43be 4329 7dbe c978 98be 6679 903d
00000050: 2cf4 a03e 7154 8ebe e0a8 643e 469a 86be
00000060: 4da6 a9be 4891 06bf a1b5 a23e aa77 6d3c
00000070: 342e acbe 6a43 49be 83f4 d73e c575 d2be
00000080: e102 9cbd 911b 853d b22f 69be 2acb cb3d
00000090: b16e 8fbe 73d3 053f bee7 37bb becd e33c
000000a0: 05e8 0dbe a355 1fbe 7fbb 603e e346 a6be
000000b0: b36f 17bd 4345 96be 4385 693e 7db3 ecbd
000000c0: bf5f 8d3e 291b d03e b3d5 55be 3f96 083e
000000d0: 30ea fdbd 96a2 25bd a30a 1c3d 2e47 953e
000000e0: b1b0 7d3e 46f8 74be e1e4 06bd d296 84bd
000000f0: e422 c43c f2d1 3a3e db4b 143e 8a5f 0abd
00000100: 5416 283e 4ab6 a63e 90f8 8dbe 4b73 8d3e
00000110: c19d aabe 3ac6 22be 3687 c03d 1a67 6dbd
00000120: 6488 a6be 8d11 2c3d 1f7f 7cbe 2aea e53d
00000130: 73e3 9a3a 98a2 703e f903 cebd aa9c f33d
00000140: 1d8f 143e c74c 03bd 84a3 ddbe 0946 0abf
00000150: 66cf c93c 7e20 113e 9b9f fd3d 4aeb 58be
00000160: 625d 9cbe 5af9 903e 7ddb 3cbe 8be2 093e
00000170: 76f1 32bf c971 0b3f f6f3 86be a828 01bf
00000180: 76f4 0a3d b217 9cbe 2afd 793e d33c 7c3e
00000190: fefb da3e 28f1 c9bd 7853 79bd 22c4 a3bb
000001a0: 817a 54be be46 db3c c0d8 ca3d c25f 103e
000001b0: a6b1 8bbc 3a51 883e 043d 52be 6322 71be
000001c0: 4c9d d83d 4815 3dbe a3c1 0d3e d3d0 7d3e
000001d0: ee7f 3cbc 4892 48be e65b 15bd 756e 643e
000001e0: 34a7 023e cffb 5fbd 211a babd 76cc 823e
000001f0: d6e0 303e 9352 a8bc f27c d3be a2e3 583e
00000200: b0e1 243e 89fe ee3c 7392 a4be 12eb 0a3d
00000210: c795 06bf 6178 e33d 71a8 133f 6443 2a3e
00000220: 4801 08be b51f 453d 0a0f 2c3e c1d5 6cbe
00000230: 8578 bd3e c58b 96be 3e02 f63e 8ae1 35bd
00000240: 9fee c23d 8e9d ecbe cbb8 1abd d886 98be
00000250: 27f5 c73d 64c6 ae3e 1ea9 283e 5fdb 133d
00000260: 5d28 0dbd d036 edbe 4819 d73e c041 cc3e
00000270: 149d 63be be63 933e 1014 333e 3dd3 44bd
00000280: eed2 6dbe cc52 4abe 745e 80bd 7d2a 9f3d
00000290: 55a3 8fbd f59c fd3e 9d23 343d ba63 7dbd
000002a0: 5d23 fb3c 7436 b63d f307 583e f10f afbe
000002b0: 521f cfbe edd4 51bc 83ad a63d 4e1f 14be
000002c0: 5e1c 153e e787 333e 4737 193e c71f b4be
000002d0: aa24 85be d5d1 bc3e d900 af3e ac24 cd3d
000002e0: 41f7 003e c744 193d 410d 06be e967 febd
000002f0: 594c e03c 5694 ec3e c2ad 88bd 4c11 773e
00000300: ba88 05be 87ce 5bbe 6486 a53e 29cb bbbe
00000310: c917 e3be 37c3 b03e 9f50 393e b76c 1fbd
00000320: dbd0 043d bf55 b5bb fe59 8ebd 1ae1 abbe
00000330: 72fd 843e 70f6 0f3f 5895 6cbe a81e 413d
00000340: d49f 5ebb 22a1 87be ecc5 98bd 7c3d b1bd
00000350: acbd e33e 2088 9a3d 06b5 a23e 97f3 6abe
00000360: a69a 943e 6d85 1f3e 2769 793e de0c 9a3d
00000370: e846 44bf 00c8 d93c c0f7 fa3e 9a6f 003d
00000380: de21 953e 1a0d c33d df43 ffbd d784 7bbe
00000390: fed3 ae3c 3b79 23be 5d07 7e3e 28fd bb3e
000003a0: 40cc 7ebd 7f56 783e 5e6d 153d 5ef7 b93d
000003b0: ec20 11bf 62ec 523e 2e16 6c3e 9669 8e3e
000003c0: 0cfa d8bd bcf5 90bd 5632 c03d fc52 623e
000003d0: 4e22 92be 9644 0e3e 663e 863d 0905 b9bc
000003e0: 9722 1cbd 1135 913b 0e2f 7b3e 2403 e0be
000003f0: 5725 6c3e 743c 033d 4daa 61be 9338 453e
-0.10644861 0.26270756 -0.003920097 0.440289 -0.040894277 -0.031927988 0.043725833 -0.11532373
-0.22524995 -0.37950116 0.23139797 -0.32022852 -0.16909686 -0.0031229365 0.061208162 0.20804223
-0.19101012 -0.24722771 -0.29779652 0.07054405 0.31436288 -0.277988 0.22330046 -0.26289576
-0.3313469 -0.5256543 0.31779197 0.014493862 -0.33629 -0.19654623 0.42178735 -0.41105476
-0.076177366 0.064993985 -0.227721 0.0995086 -0.28014138 0.5227577 -0.0028061713 0.027808066
-0.1385804 -0.15560012 0.21946524 -0.32475957 -0.03697176 -0.29349717 0.22804742 -0.11557672
0.2761211 0.40645722 -0.20882301 0.13338564 -0.12398183 -0.040438257 0.03809608 0.29155868
0.24774434 -0.23922834 -0.03293312 -0.06474079 0.023942418 0.1824415 0.14482062 -0.03378252
0.16414768 0.3256095 -0.277287 0.27627024 -0.33323482 -0.1589593 0.094007894 -0.057959653
-0.32525933 0.042008925 -0.24657868 0.11226304 0.0011817053 0.23499525 -0.100593515 0.11895116
0.14507718 -0.032055642 -0.43288815 -0.54013115 0.024635028 0.14172551 0.12383958 -0.21183506
-0.30539995 0.2831524 -0.18443103 0.13465326 -0.6989969 0.544705 -0.26358002 -0.5045266
0.033924542 -0.30486828 0.2441298 0.24632578 0.4277038 -0.0986045 -0.060870618 -0.004997746
-0.20749857 0.026767131 0.09904623 0.14099029 -0.017052483 0.2662447 -0.20531088 -0.23548274
0.10576877 -0.1846515 0.13843398 0.24786691 -0.01150511 -0.19587052 -0.036464594 0.22307761
0.12759095 -0.054683503 -0.09087015 0.25546616 0.17273268 -0.020547187 -0.41306263 0.21180585
0.16101718 0.029174106 -0.32142982 0.033915587 -0.5257229 0.11106945 0.57678896 0.1662727
-0.13281739 0.04812594 0.16802612 -0.23128416 0.37006012 -0.2940351 0.48048586 -0.044404544
0.095181696 -0.46213955 -0.03777389 -0.29790378 0.09763556 0.34135735 0.16470763 0.03609788
-0.03446232 -0.4633088 0.42011476 0.39893913 -0.2222789 0.28787035 0.17488122 -0.048053015
-0.23224995 -0.19758147 -0.062680155 0.07771776 -0.07013575 0.4953381 0.043979276 -0.061862685
0.030656511 0.08897105 0.21096782 -0.3419185 -0.40453583 -0.012807113 0.081385635 -0.14465067
0.14561602 0.17532311 0.14962493 -0.35180494 -0.26004535 0.3687884 0.34180334 0.1001676
0.1259432 0.037419107 -0.13090993 -0.12422163 0.027380155 0.4620692 -0.06673767 0.24127692
-0.13040438 -0.21465503 0.32329094 -0.36678436 -0.44354084 0.34523937 0.18097161 -0.038922038
0.032425743 -0.0055339034 -0.069507584 -0.33570176 0.25974613 0.5623541 -0.23103845 0.047148377
-0.0033969777 -0.26490122 -0.074596256 -0.08654305 0.44480646 0.07545495 0.31778735 -0.22944485
0.29024237 0.15578242 0.24356519 0.075219855 -0.76670694 0.026584625 0.49017143 0.03135643
0.291274 0.09523983 -0.12464117 -0.24562393 0.02134132 -0.15964215 0.24807496 0.3671658
-0.062206507 0.24251746 0.036481254 0.09080385 -0.5669086 0.20597985 0.23055336 0.2781493
-0.10594568 -0.0707812 0.09384601 0.22101969 -0.28541797 0.13893351 0.0655487 -0.022585409
-0.038118925 0.004431375 0.24529669 -0.43752396 0.23061119 0.032040074 -0.22037621 0.19259863

gnn_base.gnn.gnn1.lin_skip.bias f4 [16]
00000000: 9dca 3cbc 9671 5fbd cfec a8bd eb03 6bbe
00000010: 18c9 d5bd 5c9e 9d3e dccc ed3d a20e afbc
00000020: 3864 3a3e b833 9bbd 91b9 0abe 332c c6be
00000030: 732b 383e 1eda 6ebd ec4b fabe 7e08 23be
-0.011522916 -0.054551683 -0.08248293 -0.22950713 -0.10438746 0.3078488 0.116113394 -0.021369282
0.18202293 -0.07578224 -0.1354735 -0.38705596 0.17985325 -0.05831348 -0.4888605 -0.15921208

gnn_base.gnn.gnn2.0.lin_key.weight f4 [48, 16]
00000000: d31e a6bd 2171 1fbe dfcb 50be 3b17 383e
00000010: 1c45 42be f3d0 36bd 03a8 8bbd 4728 6abe
00000020: 30c0 0abe eb8d b43c c90a 1a3e 01ae 90bd
00000030: 2c64 0f3e 714c a2be 6cda 883d e7f0 163e
00000040: 0a53 f8bd 3bd3 22bd 942e a9bc 32b2 a73c
00000050: 0d68 00be 3e14 5c3e 4e68 0fbe fdfb b4bd
00000060: 9307 3abe 9c15 3cbe a711 29be a324 e23d
00000070: d6ab de3c 073e 753e 622b e3bb 5cd1 063d
00000080: cb57 86bd 9ae9 0abe f337 cfbd 0c0c 5f3c
00000090: 002f 4a3e 3630 52be 6a84 d23d 04f3 f43e
000000a0: 00c7 d73d 8d35 60be d8ad 90be fcc3 99bd
000000b0: a821 31bd b8b9 883e ec2a 983e 27e6 b6bd
000000c0: 7fca 0bbe 59a1 04bf 74c7 373d f8b3 34bd
000000d0: ea72 ebbd 7204 dabd 3800 da3c 9341 bf3d
000000e0: 664a 7bbe 4931 033e 27d9 a6ba 3f67 983e
000000f0: d35c 033e f6be 8ebe cb1f 2e3d 9351 0d3e
00000100: f424 193e 0f14 63be 78c9 233e 7b9e 373e
00000110: bfc7 a7be ab43 79ba 31f6 e73e 843b c33e
00000120: 407b c4bd 3ef2 4ebd 910a 933c 8378 353e
00000130: 3efe 643e 5b97 2e3e da75 2e3e f45c a03e
00000140: 9c9c d5bd a338 6a3e e939 85bc 5c87 84bd
00000150: 138a e43d 4071 26be 6d6f 4e3e fc0d 8a3e
00000160: 6578 4d3e 1bc1 d03d f083 fabb 1baa 4dbe
00000170: d2a8 513e c19e 053e 6ff6 2d3e b3d9 903e
00000180: 2b95 bbbd c936 bcbd abcb 5d3e 8208 79bd
00000190: 2f4f cfbe b98c 063d 8839 923d d88d 403e
000001a0: 9b76 8f3e c883 f9bd 12cc 4fbe a0c0 423e
000001b0: 40eb 0d3e 888b 0cb9 cf58 fcbb 399b 8b3e
000001c0: acc4 dabc 44cf 9e3e e13c ca3d 1232 293e
000001d0: 50a5 ebbd bfde 863d 1eb7 9e3e ded7 813e
000001e0: 2a80 3d3e bbd9 1d3d 1049 f83d d514 69be
000001f0: 8dc9 10be e1c8 243e b5f6 023d 58db a13e
00000200: 08f8 dabc ee05 f63e d96c a4bd 563d f73d
00000210: c909 1f3d 215a b8be 9b7d b8be 793f 98be
00000220: 8fe9 c93d 2c20 c43e f614 56be 2150 32be
00000230: 44ee 48bd ee8e 11bc 9b90 c1be 3d2e 29be
00000240: ec4d 0d3d bb0b cbbe 70c5 afbd 41ee 463d
00000250: 5c83 ad3e c4b2 34bc 880a ec3e 915d ce3e
00000260: a38d 9e3e d7ac 74be bbcb 80be 2d5e a43e
00000270: 74b2 8abc c3f6 d83d 6377 a03d 1bb1 223e
00000280: caf0 003e a8c7 bebe dbbe b3bd 4929 25be
00000290: 8f8b a23e caeb 4bbe f4a7 d4be 1665 84be
000002a0: 5b18 ba3c f2eb b83e 9cf9 bfbc f221 493d
000002b0: 1051 593e c655 eabe 0f0e 373d 17be b53d
000002c0: d2fc 343c 2a3c 30be 928c 6b3e a042 853e
000002d0: ba0d 09be 676f 973d c830 a3bd 3fc3 01bf
000002e0: d7c3 c4be c7bc 933e 0722 1abd b242 743e
000002f0: f7a8 79bd a08d 8b3d 27cb 3dbe 9ee2 2bbe
00000300: 155f 0abe d53f dbbe 891f 8dbe 7793 12bd
00000310: 96a5 d6bc f4da d6bd 6629 de3d c5db 083e
00000320: 9f16 ce3d e472 d1bd 6c24 a8be 3a5a 113d
00000330: eebb 8b3d d83a 53bd 143b 973e b629 b539
00000340: 8c4d 47bc cbf8 603e 2105 043d 49bf 723c
00000350: a686 5ebd 916d f3bc 5b43 a03d 4ee4 cb3e
00000360: f24a 043e 12d2 603d e7d2 ca3d cd3b 363e
00000370: 214c fb3d 227b 233e f879 673d a5d4 993e
00000380: fe36 ed3d 6495 8c3e 53cb 76be c066 0c3d
00000390: 3225 d3be 8333 9cbd 2a1c f53c 7fd7 80be
000003a0: 9535 7f3e 1a44 8f3d fcbe 05be d88d 3f3e
000003b0: 35cc 6e3e ab3c 5c3e 8838 543e 88c6 543e
000003c0: cea0 33bd ca3a cd3d 718c c43d 991d a0bd
000003d0: 0bc9 78be 5275 673d a7c1 b13e 3f22 35bd
000003e0: f4ff 96bc 16b7 a83a 5275 b0bd af3b 523c
000003f0: 26bf b9bd 8960 03be 750e 753e 6477 c23d
-0.08111348 -0.15570499 -0.2039027 0.17977612 -0.18971676 -0.044632863 -0.06819155 -0.22866927
-0.13549876 0.022040328 0.15043177 -0.070644386 0.14003056 -0.31698945 0.06682286 0.14740334
-0.121252134 -0.039752226 -0.020652093 0.020470712 -0.12539692 0.21492097 -0.14004633 -0.088371255
-0.18166952 -0.18367618 -0.1651064 0.11042144 0.027181547 0.23949443 -0.006932662 0.032914504
-0.06559714 -0.13565674 -0.10118093 0.013613712 0.19744492 -0.20526204 0.10279162 0.47841656
0.10536003 -0.21895428 -0.28257632 -0.07508084 -0.043244988 0.26704192 0.29720247 -0.08930617
-0.13651465 -0.51808697 0.044867948 -0.044116944 -0.114965275 -0.10645379 0.026611432 0.09338679
-0.245401 0.1281177 -0.0012729511 0.2976627 0.12828378 -0.27880067 0.04251079 0.1380065
0.14955503 -0.2217562 0.15994823 0.17931549 -0.32769582 -0.00095086795 0.45305017 0.38131344
-0.095938206 -0.05052399 0.017949374 0.17721753 0.2236261 0.17049925 0.17037144 0.31320918
-0.104302615 0.22873168 -0.016262965 -0.0647113 0.11159148 -0.16254139 0.20159693 0.26963794
0.20065458 0.10193082 -0.0076451227 -0.20084421 0.20474556 0.13048841 0.16988538 0.2829109
-0.09159311 -0.09190137 0.21659724 -0.06079913 -0.404901 0.032849047 0.071398795 0.18804109
0.28020176 -0.121833384 -0.2029269 0.19018793 0.13859272 -0.0001340342 -0.0077010165 0.27266863
-0.026705109 0.31017506 0.09874893 0.16523007 -0.1150614 0.06585454 0.30999082 0.25360006
0.18505922 0.038537722 0.121233106 -0.22761853 -0.14139386 0.16092254 0.03197356 0.31612659
-0.026729599 0.480514 -0.080285735 0.12072246 0.03882769 -0.36006263 -0.3603333 -0.29735926
0.09859001 0.38305795 -0.20906433 -0.17413379 -0.049055353 -0.008884175 -0.37805638 -0.16521545
0.03449814 -0.39657387 -0.0858258 0.04856706 0.33889282 -0.011028949 0.46101785 0.4030576
0.30967435 -0.23894058 -0.25155434 0.321031 -0.016930796 0.10593941 0.07835271 0.15887873
0.12591854 -0.372617 -0.08776637 -0.1612903 0.317471 -0.19914165 -0.41534388 -0.25858372
0.022716692 0.36117512 -0.023434453 0.04910464 0.21222329 -0.45768565 0.04469114 0.088741474
0.011046605 -0.17210451 0.23002842 0.26027393 -0.13384143 0.07394295 -0.07968289 -0.50688547
-0.38430664 0.28854963 -0.037630107 0.23853567 -0.060952153 0.06814122 -0.18534528 -0.16785666
-0.13512833 -0.42822137 -0.27563122 -0.035785165 -0.026202004 -0.10490981 0.1084774 0.13365085
0.100629084 -0.10226992 -0.32840288 0.035486437 0.06822954 -0.05156979 0.2953726 0.00034554087
-0.012164485 0.21969907 0.032231454 0.014816114 -0.05432763 -0.029715331 0.07825347 0.3982262
0.12919214 0.05488784 0.09903508 0.1779625 0.1227038 0.1596494 0.056512803 0.30045047
0.115827546 0.27457726 -0.24101 0.034277678 -0.41239315 -0.076270126 0.029920656 -0.2516441
0.24922784 0.06995411 -0.13061136 0.18706453 0.23320086 0.21507518 0.2072469 0.20778859
-0.043854527 0.10020979 0.095970996 -0.07818145 -0.24295442 0.05650837 0.34718058 -0.044222113
-0.018432595 0.0012871947 -0.08616127 0.0128316125 -0.09069662 -0.12829794 0.23931296 0.09495428

gnn_base.gnn.gnn2.0.lin_key.bias f4 [48]
00000000: fb4e 65be e1b7 9e3d ed5a d7bd 3901 29be
00000010: d8a2 983d 0e41 ed3d de46 4f3e d631 7a3e
00000020: 6cd2 b03d 3741 94bd eb35 30bd d964 413e
00000030: 390d 47be 60e7 373e fc25 ec3d 76a7 c43d
00000040: 38ef 9e3d 9790 54be e415 cd3d 6533 76bc
00000050: d154 503b c076 eebd 4157 393e 5d24 2abd
00000060: c85b 013b 6099 5abe bcac 443e bf97 6cbe
00000070: 9e61 1e3e 16a6 e03d c852 1c3d 923a 78be
00000080: 20a0 ecbd b6bc 87bc 13bc 3dbe a80a a5bd
00000090: a282 68bd 3df8 9fbd 2416 323e 3829 6a3e
000000a0: 4b37 e5bd b03c 043e faaf 803c 8359 3b3e
000000b0: d128 5fbe 4dea fdbd 0944 4cbd a0bd 753e
-0.2239341 0.07749916 -0.105153896 -0.16504373 0.07452935 0.11584674 0.20241877 0.24433073
0.08633885 -0.07239001 -0.04302017 0.18886127 -0.19438638 0.17959356 0.115306824 0.09602253
0.07760471 -0.20758282 0.10013941 -0.015026902 0.0031788836 -0.116437435 0.18099691 -0.041538585
0.0019738544 -0.2134757 0.19206518 -0.23104762 0.15466926 0.109691784 0.038164884 -0.24241093
-0.11553979 -0.016569477 -0.18528776 -0.08058673 -0.056765206 -0.078110196 0.17391258 0.22867286
-0.11192187 0.12913775 0.015708912 0.18295865 -0.21792914 -0.12398205 -0.04986957 0.23998117
