model_weights/old_FA_FR/tube/feb17/seq_one_tube/critic.pt (torch, 191627 bytes, 57 tensors)

gnn_base.gnn.embed_layer.layer_norm.weight f4 [16]
00000000: 35fa 8f3f 2578 8c3f 5c55 9e3f 5aa3 9b3f
00000010: e00d 683f 4afc a03f 7335 643f 020d 5e3f
00000020: d907 5d3f a6f9 743f 007d 743f 0782 a13f
00000030: e80a 8a3f e70e 743f 460e 703f d801 4f3f
1.1248232 1.0974165 1.23698 1.2159226 0.9064617 1.2576993 0.8914406 0.867386
0.863401 0.95693433 0.95503235 1.2617806 1.0784578 0.9533524 0.9377178 0.8086219

gnn_base.gnn.embed_layer.layer_norm.bias f4 [16]
00000000: 38dd 37be c0da 12bd b069 043e fc5d e7bd
00000010: 7a2d 243e 92d7 b3bd dbb2 4fbd 804f 4bbd
00000020: 4d14 773d 9413 b33d c53c 333d d10d aebd
00000030: 2248 fc3d 675e 193e 2a4c 063d 496d 84be
-0.17955482 -0.035853148 0.12930942 -0.11297223 0.16032973 -0.08781351 -0.05070768 -0.049636364
0.060322095 0.087439686 0.043759126 -0.08498729 0.12318446 0.14977418 0.03278748 -0.25864628

gnn_base.gnn.embed_layer.entity_embed.weight f4 [4, 2]
00000000: 120f f6bf 13f0 92bf f9d5 f9be 31fc 8fbf
00000010: db2a 4c3f 7223 f2bf 2bf0 5dbe ef29 263f
-1.9223349 -1.1479515 -0.4879606 -1.1248838 0.7975289 -1.8917067 -0.21673648 0.64907736

gnn_base.gnn.embed_layer.lin1.weight f4 [16, 10]
00000000: 36f4 bb3d 5e99 bf3d d400 8b3f d939 d6bd
00000010: 11e6 803e 9aef a83d d494 413c 901e d5be
00000020: e8cf 22bf 3ca4 af3d 00e8 17bf 760d acbe
00000030: d840 15bf 846b 82bf df03 d73e 91f6 23bc
00000040: aa44 a23e 1244 bcbe 0c90 aebd b05a a03e
00000050: 269e 87be 9ab3 32bc 2496 193e fb73 4f3e
00000060: 7f92 61be cfe4 fa3e d259 943f a569 dcbe
00000070: 7a81 b8be ab3c 903e 97aa 543d 0f0a 52bf
00000080: 535c cc3e 9dae babf 7c2c 00bd 4e47 bebe
00000090: 3057 82bf bdfe 53be eb1c ed3c d40e bfbd
000000a0: d0c8 373a 7e71 f83e cb76 963d f4a2 4c3f
000000b0: d9ba d73e a3d1 a23f 6fd4 aa3e 105f 9d3e
000000c0: 83a0 07be 889a 55bd 8e82 393e f16b 0b3f
000000d0: 2571 163e 03c5 a33f 5c10 9cbd 1028 71be
000000e0: 5a42 2fbf a65d e7be 8461 983e 6ab4 403d
000000f0: 27ec 98bd 2f85 3d3f 3aed dbbe f6bf 393f
00000100: 6bb2 6c3e fe28 b63e 1294 ecbe 8d6c d1be
00000110: b430 213e dacf b93e e357 553f 6e04 0f3e
00000120: 7f9a 1f3d 8b05 80bd 1fcd 61bc 3a93 3c3e
00000130: a773 ebbd 1ae4 57be 2cb7 0dbf 9db4 423f
00000140: c1d4 a5bd 2d0f 6a3e a6c6 a33d 977b 1c3d
00000150: b8dc 703f 693c da3d e1e5 eb3e 1452 aebe
00000160: 3bb7 84be c542 c8be 999e 19bf 4bfb 0d3f
00000170: 8982 e0bd 4b64 313f 5d7d 16bf 76c8 52bd
00000180: 1e48 d8be dd28 203f a22f e63d a759 eebe
00000190: e1f9 acbe 8c47 f83e 87d4 143e 28b8 25be
000001a0: ff42 393e 8c34 453e df72 ee3e d6e8 663f
000001b0: 2ba4 d3be c5a7 cebc 8b0e 03bf f3ff 6dbd
000001c0: 7fc2 a7bf 4ea6 01be ecc0 10bd 640b 84bd
000001d0: 918e 54bf 9199 b3be dbde 30be a1d5 1bbd
000001e0: 71c4 d9bd dc29 293e 5652 fa3e 0103 b3bd
000001f0: a2ef 783f a7a0 dd3e d09c 21bd 3b79 54be
00000200: 472c 6b3e 149b e13e 2437 5fbd 49bc 7abd
00000210: 92b5 b5bd e796 00be f5c9 4f3e 9022 c23e
00000220: 61d8 adbe 8255 583f 1625 fa3d 10d0 083d
00000230: 6204 c7bd d70e 45be f685 d23e 100d a8bd
00000240: ebc4 103f 0118 c7be 0e0b b7ba 3c10 a43d
00000250: a556 633f 15fa a93e de0c 54bf e873 d7bb
00000260: 0e75 8cbe ec45 1b3f 022e 9e3e b396 3abf
00000270: 03bb 053e 46ae 853d eda6 ddbe 7f2e 5a3e
0.09177439 0.09355424 1.0859628 -0.10460252 0.25175527 0.08248825 0.011815269 -0.4162488
-0.6359849 0.08576247 -0.5933838 -0.3360402 -0.5830207 -1.0189061 0.4199514 -0.0100075165
0.31693012 -0.36770684 -0.085235685 0.3131919 -0.26487845 -0.010907078 0.1499868 0.20259087
-0.2202854 0.49002692 1.1589911 -0.4304935 -0.36036283 0.28171286 0.0519205 -0.820466
0.39914188 -1.4584538 -0.031292424 -0.37163776 -1.0182858 -0.20702644 0.028944453 -0.09329
0.00070108194 0.48524088 0.07346877 0.79936147 0.4213474 1.2720226 0.333652 0.3073659
-0.13244824 -0.052149326 0.18116209 0.5446158 0.14691599 1.2794498 -0.07620308 -0.23550439
-0.6846062 -0.45188636 0.297619 0.047047056 -0.074669175 0.7403135 -0.42954427 0.72558534
0.23114936 0.3557815 -0.4620672 -0.4090313 0.15741235 0.3629139 0.8333723 0.13966534
0.0389657 -0.06251057 -0.013781815 0.18415537 -0.11496668 -0.21083108 -0.55357623 0.76056844
-0.0809722 0.22857352 0.079968736 0.038203802 0.9408679 0.106560536 0.4607382 -0.34046996
-0.25921044 -0.3911344 -0.60007626 0.5546157 -0.109623976 0.6929366 -0.5878504 -0.051460706
-0.4224252 0.6256235 0.11239554 -0.46552774 -0.33784392 0.48492086 0.14534198 -0.16183531
0.18091963 0.19258326 0.46572015 0.9019903 -0.41336188 -0.025226483 -0.51194066 -0.05810542
-1.310623 -0.12661096 -0.035340235 -0.06447485 -0.8303004 -0.350781 -0.17272513 -0.03804553
-0.10633171 0.16519874 0.48890942 -0.08740807 0.9724065 0.4328663 -0.03945619 -0.20749371
0.22966109 0.44063628 -0.054495946 -0.06121472 -0.088725224 -0.12557565 0.20291884 0.37916994
-0.33954147 0.84505475 0.12214105 0.03340155 -0.09717633 -0.19243942 0.4111783 -0.082056165
0.5655047 -0.388855 -0.0013965087 0.08010909 0.88804084 0.3319861 -0.82832134 -0.0065750964
-0.27433056 0.6065357 0.30894476 -0.728862 0.1305962 0.06527381 -0.43291417 0.213068

gnn_base.gnn.embed_layer.lin1.bias f4 [16]
00000000: 87f7 0a3e 2e6b c23d 1946 173e 033e a13d
00000010: a22a 883e 20de 963d 79a0 353e 13c7 5c3e
00000020: af5e 0d3d 6422 99be f082 f93d ed45 243d
00000030: 9900 3a3e d477 24be 787a 86bd 6393 343e
0.13570987 0.09493099 0.14772834 0.07873156 0.26595026 0.07366586 0.17736997 0.21560316
0.034514125 -0.2990905 0.121831775 0.04010575 0.1816429 -0.16061336 -0.06566328 0.17634349

gnn_base.gnn.embed_layer.layers.0.weight f4 [16, 16]
00000000: fc9b 7b3e 1339 33bf e789 e0bd a5cc 25be
00000010: 2cc1 fd3e fe0a d53e 5c5b 24be bb33 213e
00000020: 456d de3e f544 11be 098c bbbe 0513 093f
00000030: 9c8a 5fbd f73f 9bbe 9ada 0c3f 84a6 5e3d
00000040: 3fe9 1dbe b634 48be 7d37 763f 690f f23e
00000050: 6525 6dbe a03f 6b3d 9937 ff3c 15e0 dbbe
00000060: e313 85bf 4a9c 273f bfc3 083e feaf ad3e
00000070: 4cc2 303c 7a06 433e 7c28 633e 8851 ef3e
00000080: 82b2 063f 882d ecbd 6b7c 813d 323c ddbe
00000090: a06c 15bf ff79 a43e e22d c6bd 0bf7 9b3e
000000a0: 6ac3 213e c7e6 a03e 1f3e 953d 281a b43d
000000b0: c3ec 2d3d 804c e23e ba9d 80be 20f8 1b3f
000000c0: 7098 a4bf e565 213f 0feb 4c3e 9d9d bbbe
000000d0: f245 d13d 0481 4e3e b232 e23e 7cc0 d13c
000000e0: 6dc0 863e 61e9 8ebe 67d8 95be 61f4 4a3f
000000f0: 148b 583d ec99 ae3e b833 543e a57d d53e
00000100: 7d1a 36bf 41b8 06bf 5eee 0e3f cd4c 0a3f
00000110: b4fb 803e 6cd1 81be 4f5e 8ebe b629 543c
00000120: 894a c83e 2453 18be 151b b4be 6a43 9ebe
00000130: e010 373d 5e2e 023f a9bc 8d3f 18c3 c9be
00000140: 0271 b1bc f434 67be 4640 9a3d 784d a9bf
00000150: 56a1 87bd 68a1 363f 75fd ae3e 8469 82be
00000160: f33e 163d 7f2b dc3d 2a95 9b3e 894a aa3e
00000170: d24b 85be 14b6 b03d 9a94 bc3d 5de2 343f
00000180: 08c0 ef3e 39a1 a8bd 111b 313e a0ee 793f
00000190: 0b10 adbe 9c47 09bf a098 c23e e0a2 b03e
000001a0: 7bd2 c53d f55b 933e d722 543e 1d92 8cbf
000001b0: e222 51be 6a35 83be 0db4 383d ec88 223d
000001c0: f482 0abf 4372 35bf d8a0 2f3e c81e 07be
000001d0: 5907 c4ba e2bb c2be c45f 023f 0527 f9bd
000001e0: 367b 51be 921a 493f 2329 0e3e 68b2 ac3d
000001f0: dbd4 213d 8ef8 3fbe 252d dfbe 2704 47bf
00000200: 6fd4 c33e eb3e debe 6351 e73e cef8 c6be
00000210: 4dfd bb3e ca7e 4e3e 43ac 183f b806 773f
00000220: 0c47 c93e d4ae 7f3e 05b4 16bf 7583 8cbd
00000230: 0edd 1e3e 239c 5f3e 2b43 083c 2027 ebbe
00000240: 7686 d93d 2f39 2fbe 0ac3 b3be 685d f63e
00000250: 2408 90be 8814 0dbf 0ef8 c4bd caff ff3c
00000260: 1116 27bf de0d f8be 0eba 483f a3aa 6b3f
00000270: 7b67 093f ce0f 213f 33fd 11be c901 95be
00000280: 361e afbe a2cb 583e a88c d6be 9b00 8c3e
00000290: b05b de3e 2ece 88bf c131 42bd 8b7a 1c3f
000002a0: c14c f9be 1468 f7bd 953b 4cbf 9e1d df3d
000002b0: 09de 06be 54b9 ea3e a473 ad3e 28f1 953e
000002c0: d5cb da3e 6c43 2bbf 24c8 953d 778d ebbe
000002d0: 7e0b 023e 05e3 593f e150 b1be 7ffc 83be
000002e0: 521a b8bd 1c80 243d 145b 21be af38 9cbf
000002f0: a4ab 403e d395 683e 0530 283e a3cb a03c
00000300: 78b2 7d3e 4b4b 1f3e 1161 da3e 8ba8 c5bb
00000310: 5eaa ce3e a681 adbd 16aa 363f 4d60 5b3e
00000320: 171c 2e3d 0aac 16bc 7ce0 933e 2032 843d
00000330: f37b 8bbf 0422 b13d 0ac2 14bf 07c7 223e
00000340: 027e 673e 5804 ea3d e4a7 c73e 1612 7e3d
00000350: 053c 03bf 777f 5fbd 9a31 633f f5e0 58bf
00000360: b7fa 7d3e 04dc 403e 3ce1 efbe c277 e33e
00000370: ec0e 32bf 961f 953e 2dba 323c ec85 68bf
00000380: e975 90be debc 0ebf 5bb3 d93e 70eb 9dbe
00000390: 05b3 10bf 6d08 313e cbe8 b73e 0324 7bbe
000003a0: 2178 a13d ceb9 40bf 3f65 e3be 578c 69be
000003b0: b28a 61bd 576e d5be 1339 87bd d4bf 693e
000003c0: 347c 51bf 6ae1 3d3f 2082 3c3f ae3b 6abb
000003d0: 9de2 2e3e c981 39be fa74 23bf 4ff9 aa3c
000003e0: 0346 9ebe d4ff 8bbe 19ae 9d3e fe42 353d
000003f0: 2bd5 f6be c5ae 533e b8a3 b63d 6cc4 f3bd
0.24571222 -0.70008963 -0.10963803 -0.16191347 0.4956144 0.4160995 -0.16050476 0.1574239
0.4344274 -0.14186461 -0.36630276 0.53544647 -0.054575548 -0.3032224 0.5502106 0.05435802
-0.15421008 -0.19551358 0.9617842 0.47277382 -0.23158796 0.057433724 0.03115444 -0.429444
-1.0396694 0.65472853 0.13355921 0.33923334 0.0107885115 0.1904544 0.22183412 0.4674189
0.5261613 -0.11532122 0.06322559 -0.43209988 -0.58368874 0.32124326 -0.0967672 0.30461916
0.15797201 0.3142607 0.07287239 0.087940514 0.04246212 0.4419899 -0.25120336 0.60925484
-1.285902 0.63046104 0.20011543 -0.36643687 0.10218419 0.20166403 0.44179302 0.025604479
0.26318684 -0.2791243 -0.29266664 0.7927914 0.05286701 0.34101808 0.20722854 0.41697422
-0.7113417 -0.526249 0.5583247 0.5402344 0.25192034 -0.2535509 -0.27806327 0.012949398
0.39119366 -0.14875466 -0.35176912 -0.30910808 0.044693828 0.50852 1.10732 -0.39406657
-0.021660332 -0.22578794 0.075317904 -1.3226767 -0.06622569 0.71340036 0.34177747 -0.25471127
0.036681127 0.10750484 0.3038724 0.3325999 -0.2603441 0.08628479 0.09208031 0.706579
0.46826196 -0.08233876 0.17295481 0.9762974 -0.33801302 -0.5362489 0.3800707 0.34499264
0.096592866 0.28781095 0.20716415 -1.098209 -0.20423463 -0.2562669 0.045093585 0.03968136
-0.5410607 -0.70877475 0.17151201 -0.13195336 -0.0014955803 -0.38033968 0.50927377 -0.121656455
-0.20457157 0.7855617 0.1388288 0.08432466 0.039509635 -0.1874716 -0.4358913 -0.7774071
0.3824801 -0.43407378 0.4517928 -0.38861698 0.3671669 0.20165554 0.5963785 0.96494627
0.39312017 0.24969035 -0.5886844 -0.06861011 0.15514013 0.21836905 0.008316795 -0.45928288
0.106213495 -0.17111658 -0.3510974 0.48118138 -0.2813121 -0.55109453 -0.09617625 0.0312499
-0.65268046 -0.4844808 0.78408897 0.92057246 0.53673524 0.6291474 -0.14256744 -0.29102924
-0.34202737 0.2117143 -0.41904187 0.27344212 0.43429327 -1.0687921 -0.04741073 0.61124486
-0.4869137 -0.12080398 -0.79778415 0.10894321 -0.13170637 0.4584452 0.3387729 0.2928555
0.42733636 -0.6689975 0.073135644 -0.46006367 0.12699696 0.8511203 -0.34632018 -0.25778577
-0.08989395 0.040161237 -0.157574 -1.2204798 0.18815476 0.22713403 0.16424568 0.019628352
0.24775112 0.15556066 0.4265218 -0.006032055 0.40364355 -0.08471994 0.7135328 0.21423455
0.042507257 -0.009196291 0.28882205 0.06454873 -1.0897201 0.08649066 -0.5810858 0.15896235
0.22606662 0.1142661 0.38995278 0.062028967 -0.5126346 -0.05456492 0.8874756 -0.8471826
0.24802671 0.1883393 -0.46851528 0.44427305 -0.6955402 0.2912566 0.010908646 -0.9082935
-0.28214958 -0.5575694 0.4251965 -0.30843687 -0.5652316 0.1728837 0.35919794 -0.24525456
0.07884241 -0.75283515 -0.44413182 -0.22807442 -0.05506391 -0.41685745 -0.06602683 0.22827083
-0.81830144 0.7417208 0.73636055 -0.0035741138 0.17078634 -0.18115915 -0.6385037 0.020870833
-0.3091279 -0.2734362 0.30796888 0.04425334 -0.4820951 0.20672138 0.089179456 -0.11902699

gnn_base.gnn.embed_layer.layers.0.bias f4 [16]
00000000: daa6 ef3d f556 39bd ff93 0b3c 50bc f93d
00000010: 2445 043e 7998 6b3c dd0a 67be 9b13 6f3d
00000020: 1031 903d a63d 8bbc 09df b6bd b805 9dbc
00000030: e4bc 00be ed8d 963e b6b6 c13d 90bc 01bc
0.11701746 -0.045248944 0.008519172 0.12194121 0.12917 0.014379614 -0.22562738 0.058368307
0.07040608 -0.01699717 -0.08929259 -0.019167766 -0.12572056 0.29405156 0.094586775 -0.007918492

gnn_base.gnn.embed_layer.layers.2.weight f4 [16]
00000000: 35fa 8f3f 2578 8c3f 5c55 9e3f 5aa3 9b3f
00000010: e00d 683f 4afc a03f 7335 643f 020d 5e3f
00000020: d907 5d3f a6f9 743f 007d 743f 0782 a13f
00000030: e80a 8a3f e70e 743f 460e 703f d801 4f3f
1.1248232 1.0974165 1.23698 1.2159226 0.9064617 1.2576993 0.8914406 0.867386
0.863401 0.95693433 0.95503235 1.2617806 1.0784578 0.9533524 0.9377178 0.8086219

gnn_base.gnn.embed_layer.layers.2.bias f4 [16]
00000000: 38dd 37be c0da 12bd b069 043e fc5d e7bd
00000010: 7a2d 243e 92d7 b3bd dbb2 4fbd 804f 4bbd
00000020: 4d14 773d 9413 b33d c53c 333d d10d aebd
00000030: 2248 fc3d 675e 193e 2a4c 063d 496d 84be
-0.17955482 -0.035853148 0.12930942 -0.11297223 0.16032973 -0.08781351 -0.05070768 -0.049636364
0.060322095 0.087439686 0.043759126 -0.08498729 0.12318446 0.14977418 0.03278748 -0.25864628

gnn_base.gnn.gnn1.lin_key.weight f4 [48, 16]
00000000: f9b9 6fbe 07d9 a5be e9e4 f63e 4b1d 843e
00000010: 6e09 91bd 6463 9f3e a107 79be a24d 623e
00000020: 631a 2ebe dfce dc3d 35f6 f63b c1a1 47bd
00000030: b9e4 7ebe d208 cdbe cbd5 b13d 6dac 8b3d
00000040: 7348 d33e 9e14 013e 4196 c0be 647d 8ebd
00000050: 6f0c 133e db34 b5bc 4f8d c13d 79f1 b43e
00000060: fd6d 363d d798 f93d 40c9 0c3e aab3 743e
00000070: ddfe 02bd 7b34 233d c7e2 c3bd 35ee 7abe
00000080: 0e2c 043e 192c 2cbe 82e6 953e 7e26 96be
00000090: 4ab0 81be 4a29 0c3e 985a 803c e663 97bd
000000a0: fffb 2ebe c43c 383e acb8 783e 7447 cdbe
000000b0: 282a 883e 72e3 153e f49c 3a3e 0584 cbbd
000000c0: 171a d8bc d3fd b83e a7bf 0c3c 903e 8c3d
000000d0: 185a 033e 6ba6 9e3d 6b00 393d 1cb7 2f3e
000000e0: dfaf a53e a94d 5bbe 9999 5abc 5bc9 b13e
000000f0: 63a5 52be cbe3 9c3c 6388 21be 8ff1 70bd
00000100: 201c dabd 36eb 24bd 1a8d f03d 20e7 1c3e
00000110: 1b9b d43d 4e46 1b3c ed00 32be ebd7 e23e
00000120: d3a5 c9bd aae5 4e3c 1d9a 1a3e c754 863e
00000130: 6f6a 8fbe 5ba4 8ebc 0830 ae3e 9f47 bcbd
00000140: 421d d0bd c822 2abe 414b 163d 60b7 3d3e
00000150: 8356 033d c56e 4c3d d68b 0abd 2088 96bd
00000160: 08cc a6be 6aba 0c3e 4e2d a5be b7be 933e
00000170: 0d83 57bb aceb a0be 8dfb 05be 7399 1a3e
00000180: 8d94 6cbd ba1e 753e ca40 03bd 0a95 853d
00000190: a4d4 b1ba eeb9 0e3c 814f 743c 6c45 a2be
000001a0: 2fc4 903d d51d 8c3d de97 6cbe 255f 373d
000001b0: bd37 653d 77de c93e 0f46 3ebd ab00 d53e
000001c0: 3efa 033e ba21 1d3e 7420 813d 818c 2c3e
000001d0: 92b5 51bd c77c 063e aff9 95be 9888 5d3e
000001e0: 584b cd3d 41c1 e63d e0d7 f5ba 2426 3a3d
000001f0: dc20 a73c 941c 69be 4da1 103f 6001 2abe
00000200: 2d07 643d 3ed4 ee3d a138 a0be 1799 1cbe
00000210: 1617 0fbe 4cb4 20bc 6295 13be 7007 a4be
00000220: 7519 7dbd de66 6b3e 6f8e 743e 025a 5abe
00000230: b9d2 8b3e c21f 4e3e adcb ea3d 2a4f dcbd
00000240: 02a6 403d 79fb 8ebe bfb5 bc3e 85b5 63be
00000250: 7de9 5c3e 901c e5be 978c 62be 6bf9 213d
00000260: 278b 213e 34e2 843e 4776 223d bf4a 3abe
00000270: a59b 813e a38a 67be 5f71 a73e f87f 95bd
00000280: 7631 4b3e 1944 b33e bc19 013f 87b1 8ebe
00000290: c2e1 21bc 4fd0 9cbd 51c6 acbe 5f08 9d3d
000002a0: c6fb 503e d42b 71be d6ac 90bd ac24 0ebf
000002b0: 6052 a93e e232 7f3e c914 773e 1acd 203d
000002c0: 1dea 7fbb 2bde 08be 367e cebd 2e9d 2c3e
000002d0: f8fd 5d3e 379b d2bd 9dba 283d fa19 fa3d
000002e0: 389f edbe 1389 9fbe cd89 c2be 1498 e7bd
000002f0: a80b cabe 1bd9 d23c 9f27 39bc ffc0 08be
00000300: 77cb 08be 8fe1 523e 5613 053f e233 2abd
00000310: aa29 53be 2455 38be 3844 8cbe 344f 403e
00000320: a500 253e 3561 34be a7e6 bd3c 911c 2ebe
00000330: cc58 913d ae2c afbe 0f85 63bc b4f0 4e3e
00000340: b515 ba3e 7fbc 25be 64fd 09bd 9ddf 8fbe
00000350: 37cf d13d f7d2 19be a9f6 373e b38e 75bb
00000360: c703 49be 3ca9 00be 3612 423d 7c60 983d
00000370: e3e7 54bd fc32 34be 138e 553e 3c0b 86bd
00000380: 4bff fbbb 3876 d03d 59fd 4cbe bdd6 04be
00000390: 7781 27be 2ec4 193e a393 f8bd 57c7 10bd
000003a0: 10b4 7a3e f44c 78bd e34d 8c3e 145c 253e
000003b0: 71be 29be 9fea 233e 28d9 c6bd e0fb 87be
000003c0: 0084 013d 723d 51bd ebab 823e e43e 58bd
000003d0: 4b44 f3bd 9028 eb3d 6413 f83d 5296 97be
000003e0: 7f31 55bd 4905 073e 89a7 86be fb79 95be
000003f0: 3d0b a9bd 7384 aebd b07c adbd 8a90 6e3d
-0.23410787 -0.3239214 0.4822152 0.258036 -0.07081877 0.31130517 -0.24319316 0.22099927
-0.17002253 0.10781645 0.0075366744 -0.048738245 -0.24891938 -0.40045792 0.08683356 0.06819997
0.41266212 0.12605521 -0.37614635 -0.0695751 0.14360212 -0.02211993 0.094507806 0.3534048
0.044538487 0.12187355 0.13748646 0.23896661 -0.031981338 0.03984497 -0.09564739 -0.24504931
0.1290743 -0.16813697 0.29277426 -0.29326242 -0.2532981 0.13687626 0.015668198 -0.07392101
-0.17088316 0.1799193 0.24289197 -0.40093577 0.26594663 0.14637545 0.18223935 -0.0993729
-0.026379628 0.36131153 0.008590615 0.0684787 0.12827337 0.077465855 0.045166414 0.17159694
0.32360741 -0.21416344 -0.013342285 0.34723935 -0.20570903 0.019151589 -0.15774684 -0.05882412
-0.10649896 -0.040263377 0.11745663 0.15322542 0.103811465 0.009477211 -0.17383166 0.44305357
-0.098460816 0.012627998 0.15097852 0.26236555 -0.2801089 -0.017412355 0.3402102 -0.09193348
-0.101618305 -0.1661483 0.03669286 0.18526983 0.032064926 0.049910326 -0.033824764 -0.073501825
-0.32577538 0.13742986 -0.32261127 0.2885644 -0.003288451 -0.31429803 -0.1308424 0.15097599
-0.057758857 0.23937503 -0.03204421 0.065225676 -0.00135674 0.008711321 0.014911533 -0.3169359
0.07068669 0.068416275 -0.23104808 0.04476847 0.05596136 0.3942754 -0.04645353 0.41602072
0.12888429 0.15344897 0.06305018 0.16850473 -0.05119855 0.13133536 -0.29292056 0.21634138
0.10024136 0.11267329 -0.0018756352 0.04544653 0.02040141 -0.22764808 0.56496125 -0.16602087
0.055670906 0.11661576 -0.31293204 -0.15292774 -0.1397365 -0.009808611 -0.14412454 -0.32036924
-0.061791856 0.2298846 0.23882459 -0.21323398 0.27309206 0.20129302 0.11464629 -0.10757287
0.047033317 -0.27926233 0.3685741 -0.22237213 0.21573444 -0.44748354 -0.22123943 0.039544504
0.15775739 0.2595383 0.03966358 -0.18192576 0.2531406 -0.2261148 0.32703683 -0.07299799
0.19843087 0.35012892 0.5042989 -0.27869818 -0.009880485 -0.07656919 -0.33745053 0.07667612
0.20408544 -0.23551875 -0.07064216 -0.55524707 0.3307066 0.24921754 0.24129023 0.0392581
-0.0039049454 -0.13366 -0.100826666 0.16856834 0.21678913 -0.10283511 0.041193593 0.12211986
-0.46410537 -0.31159267 -0.3799576 -0.113083035 -0.39462018 0.02573829 -0.01130095 -0.13354872
-0.13358866 0.20593856 0.5198263 -0.041553386 -0.20621362 -0.18001229 -0.27395797 0.18780214
0.16113527 -0.17615207 0.023181273 -0.17003085 0.07097015 -0.34213775 -0.013886704 0.20209008
0.36344686 -0.16185187 -0.033688918 -0.2810029 0.10244601 -0.15021883 0.17965187 -0.0037469089
-0.19630347 -0.12564558 0.04738065 0.07440278 -0.051978957 -0.17597574 0.20854978 -0.065451115
-0.0076903454 0.101787984 -0.2001852 -0.12972541 -0.1635798 0.15016243 -0.121375345 -0.035346355
0.24482751 -0.060620263 0.27403173 0.16148406 -0.16576554 0.1600747 -0.09709388 -0.26559353
0.031620026 -0.05108399 0.25521788 -0.052794352 -0.1187826 0.11482346 0.121130735 -0.29606873
-0.052049156 0.1318561 -0.26299694 -0.29194626 -0.08254097 -0.085213564 -0.08471048 0.058243312

gnn_base.gnn.gnn1.lin_key.bias f4 [48]
00000000: cfac a7bd 62c8 813d df1a efbc c806 7dbe
00000010: a39b 13be e733 23be b124 173e aecc ed3d
00000020: d1af 143e decf 1f3e 80cf ecbd 805e 303e
00000030: 5b17 703e ca1f 9a3d 5ccc 383e 3d95 6abc
00000040: efe5 0d3e 60ad 7d3e f634 f7bd 6614 5e3e
00000050: 8b6c 03be 6370 093e 2298 8bbd bc05 02be
00000060: 578e 583e 550e 683e 6f19 09bd 79ff 7cbe
00000070: b9b9 75be 2574 063e c0d1 6abe 195a c33b
00000080: 111c 42be 57d8 48bc 055f c33c 7959 b2bd
00000090: 7b98 9bbd c2b7 343e 3d56 34be bc75 0fbe
000000a0: 823a 2e3c ac90 b63d 142e 213e bd43 b53d
000000b0: 8231 92bd 235a 013e d1e7 fc3d 3a96 443e
-0.081872575 0.06337048 -0.029187618 -0.24709618 -0.1441484 -0.15937768 0.1476009 0.11611305
0.14520194 0.15606639 -0.11563015 0.17223549 0.2344641 0.075255945 0.18046707 -0.014317808
0.13857244 0.24773169 -0.12070648 0.21687469 -0.12834375 0.13421778 -0.068161264 -0.126975
0.21148048 0.22661717 -0.03347152 -0.2470683 -0.23996629 0.13130243 -0.22931576 0.005961668
-0.18956019 -0.012258611 0.02384902 -0.08708472 -0.07597443 0.17648223 -0.17611022 -0.14009756
0.010634067 0.08914313 0.15740234 0.08850811 -0.07138349 0.1263204 0.12348903 0.19197932

gnn_base.gnn.gnn1.lin_query.weight f4 [48, 16]
00000000: 6bc8 0c3e f6bd 873e b5b6 693e 15e3 1b3f
00000010: da7e c8bd e2a4 af3e 4b8e 533d 68a1 353e
00000020: ea5d 1abf b92a c9ba e06a 33bd bc0c 28be
00000030: 8ce9 b3be 255a a0be bfc4 153d d019 e0bd
00000040: 7b1d 0cbe c6fd 60bd 226f f23d f16f a83e
00000050: b783 44be cbee f7be 696a 5e3e 782b 3e3e
00000060: ca14 e03e 228a 423e 3c4f 283d 480c fd3c
00000070: ab31 0b3d 4515 52be c88d 14be ccbf 953e
00000080: 2c79 0b3e 57de 5b3d eba9 07be 7848 813d
00000090: 9e06 b83c b8c5 0c3f 8209 aabe d517 06bd
000000a0: cc81 48bd 9e57 dabd 7ebc dcbc 39de 83bc
000000b0: 84dd 453e a571 bcbd 7d8c 773e e1d2 f03e
000000c0: f78e 33be 418a 473e 0f99 793d d01e 77be
000000d0: 176e d13d 2152 b7be ff69 003f 9d44 d5bd
000000e0: 6bff 0e3d 05b3 1a3e 53ce 1a3e 35a9 d0bd
000000f0: 32ad 823c 0cea 283d 67d5 ca3c 0a0a 88bd
00000100: 7688 af3d 4d64 4b3e 6fcd 063d 678d ff3e
00000110: 7b9d 9abb 8610 07bd de53 073f 8a28 cdbd
00000120: 98b5 2cbd 59ca c53d 4b84 7fbd 75c3 643e
00000130: d088 e1bd fdaa 93be f2a1 17be 51a5 23be
00000140: 22b5 5a3d 3b81 4c3d 2127 cc3d 8fa1 b83d
00000150: 4fd3 b03e 2704 89bd 7c99 48bd e073 7f3e
00000160: a69a 8fbd 8e36 833d ce4a d93e 8eb8 febd
00000170: c208 acbe a211 99be 5588 97bd 878b dfbe
00000180: 0cbe ec3d 43c1 12bd be8d fcbc 682a d5be
00000190: dea4 ca3d 0454 acbd b78c 5ebe 4773 bfbd
000001a0: 3bfa 58bd 0bed bb3d 500b e63d 520a 6b3c
000001b0: 90ca fa3c 9f95 2c3d eca5 2cbe 3856 e83c
000001c0: 717b 8f3c 368a 4bbd d6fe 29be 706b 5b3e
000001d0: 22bc 1bbe 98af 453e a5ef 183f 40ba 60be
000001e0: 8b63 f1be b9c7 2b3e 3fe0 12be 4a28 74bd
000001f0: b959 85bc 447a ccbe 882b 02bb ff55 1bbe
00000200: d2ad 323e de86 6ebd da67 b9bd c4cd d73d
00000210: 3b0e 62bd 5a2a 3c3d 13dd 63be 8799 f5bc
00000220: 9b8c 9f3d 83e9 b33d 7ab0 75be b90d 883e
00000230: 8716 d63e 5e7e a93e 87a2 87bd 6ac3 983e
00000240: 57f7 cf3c 3bcb d9bd 3da1 9abe 6890 693d
00000250: 1acb 263d ba07 393f a30c cabe fe07 65bd
00000260: 3be5 6f3e e696 61be 667a 28be ed8a b33e
00000270: d17a f6bd 070e 143e 2066 03bd 548a d5ba
00000280: cc42 4cbe 75f2 bcbe cfd8 263c 4f0b 09bd
00000290: 6813 37be e861 443f 8e21 91be e0e5 25be
000002a0: bb93 1b3e 1141 1d3e 872a 033d be12 d13e
000002b0: 6057 273e b98d a7b9 b590 90be 3112 dc3e
000002c0: 3079 203e 1b83 ddbe 2346 a73b 6f32 933e
000002d0: 76bc b4bc c452 8abe a6b2 3e3e 7260 05be
000002e0: 9101 a3be 2da0 443d d56e 0abd 36cd 563d
000002f0: c627 b6bc 907c fcbc 2748 95be 821a a6be
00000300: a6a1 2dbd 9f73 3abe 0659 94be e5c2 edbd
00000310: 6e88 8f3d 411f 2a3f f14f a4be 799c 4c3e
00000320: 2da8 24be 6384 313e 6820 823e 2050 a83e
00000330: 7a7c 3abd ba5b 533e b72a b9be 6c63 56be
00000340: 33dd 37be 233b 92bd 7e7c 84bd ffbb 9ebc
00000350: 2dd1 df3d 7a8c 3b3e 5f4e 15be aa4a 183e
00000360: 6070 6c3e 330b c6bd c32d babd 29bf abbe
00000370: ce3d aabe 6551 7bbe ae3f 53be 4778 6e3d
00000380: 1bad e9bc 9188 e5bc 8341 d5bd 9875 febc
00000390: 78b4 5f3d b0d0 d5be 966b cd3e 6b29 8ebe
000003a0: 0210 6f3b e5a5 6fbe 3e93 7dbd f08c a2bd
000003b0: d7d8 fbbd fe85 12bd 5f8b d6bc 8eb5 973e
000003c0: 4c95 c33d 7db3 db3d 2d06 07bd e105 d5bc
000003d0: 6cc8 aa3d 7661 ac3e fc33 c5bd ae47 18bd
000003e0: f6ce cf3d 60d2 1a3e 11ba 2c3e f0d3 1bbe
000003f0: 69af 073e ee47 8fbe 7282 5a3e 71f5 d9bd
0.13748328 0.26512116 0.22823603 0.60893375 -0.0978982 0.34305483 0.051649373 0.17737353
-0.6029955 -0.0015347815 -0.043803096 -0.16411108 -0.3513912 -0.31318775 0.036564585 -0.10942423
-0.13683121 -0.054929517 0.11837603 0.32897905 -0.1919087 -0.48424372 0.2172028 0.1857127
0.4376586 0.18998006 0.04109119 0.030889645 0.033982914 -0.20515926 -0.1450721 0.29247892
0.13620442 0.053678837 -0.13248412 0.063126504 0.022464093 0.54989195 -0.3321038 -0.03273757
-0.04895191 -0.10661243 -0.026945349 -0.016097175 0.19322783 -0.092013635 0.24174686 0.47035888
-0.17535006 0.19486333 0.060936984 -0.24132848 0.10226076 -0.35804847 0.5016174 -0.104134776
0.034911554 0.15107353 0.15117769 -0.10188524 0.015951727 0.04123883 0.024759961 -0.0664254
0.0857095 0.1986248 0.03291076 0.4991257 -0.00471848 -0.032974742 0.52862346 -0.10017498
-0.04216537 0.096577354 -0.062382024 0.22340186 -0.11012423 -0.2884139 -0.14807871 -0.15981032
0.053395398 0.04992793 0.09968401 0.0901519 0.34536216 -0.06690245 -0.0489745 0.24946547
-0.07011919 0.0640689 0.42439884 -0.12437545 -0.33600432 -0.29896265 -0.0739905 -0.43661138
0.11559686 -0.03582884 -0.030829307 -0.41633916 0.09894727 -0.08414462 -0.21733366 -0.09348159
-0.052973013 0.09176072 0.112326264 0.014345722 0.030614167 0.042134877 -0.16860169 0.028361425
0.017514916 -0.049692355 -0.16601118 0.21427703 -0.15208486 0.19305265 0.5974067 -0.21946049
-0.47146258 0.16775407 -0.14343356 -0.059608735 -0.016278135 -0.3993703 -0.0019862372 -0.15169524
0.1744912 -0.058234088 -0.09053011 0.105372936 -0.055189352 0.045938827 -0.22252302 -0.029980434
0.0779049 0.08784773 -0.23993102 0.2657297 0.41814062 0.33104223 -0.066227965 0.2983659
0.025386496 -0.10634466 -0.3020114 0.057022482 0.040721036 0.72277415 -0.39462766 -0.055915825
0.23427288 -0.2203022 -0.16452941 0.3506693 -0.12035144 0.14458476 -0.032079816 -0.0016291835
-0.19947356 -0.3690373 0.010183527 -0.03345805 -0.17878497 0.76711893 -0.28345913 -0.16200972
0.15193073 0.15356852 0.03202298 0.40834612 0.16341925 -0.00031958314 -0.28235403 0.4298263
0.1567123 -0.43264088 0.0051047965 0.28749415 -0.022062521 -0.2701627 0.18622836 -0.13025072
-0.31837133 0.048004318 -0.033797104 0.0524418 -0.022235762 -0.030821115 -0.2915661 -0.324421
-0.042390488 -0.18208168 -0.2897417 -0.11609439 0.07008444 0.6645394 -0.3209224 0.19981565
-0.16079779 0.17335658 0.2541535 0.3287363 -0.045528866 0.2064046 -0.361654 -0.20936364
-0.17955475 -0.07140186 -0.064690575 -0.019376753 0.10928569 0.18315306 -0.14580677 0.14872232
0.23089743 -0.09670105 -0.090907596 -0.3354428 -0.33250278 -0.24542768 -0.2062976 0.058220174
-0.028524926 -0.028019221 -0.10412886 -0.031061932 0.054615468 -0.41760778 0.40121144 -0.27765974
0.0036478047 -0.23403127 -0.061908 -0.07937038 -0.12297218 -0.035772316 -0.026189504 0.29630703
0.095499605 0.10727594 -0.032964874 -0.02600378 0.08339009 0.33668107 -0.09629056 -0.037177734
0.101468965 0.15119314 0.16867854 -0.15217566 0.13250507 -0.27984565 0.21338823 -0.10642517

gnn_base.gnn.gnn1.lin_query.bias f4 [48]
00000000: 6598 893d 8f5e c83b 6223 90bd b297 383e
00000010: 0ea8 bebd 2ed2 973d 7992 4ebd af55 13be
00000020: e7d5 2e3c 9596 953d 38bf 83be 8f3b 7d3e
00000030: 1b78 e0bd 7f16 753e d964 963e 4862 9e3e
00000040: c8f2 08be e423 1dbe 43df 86bc edad 2fbe
00000050: e1eb 19bc d447 583c c888 2b3d 84a1 663e
00000060: 68e1 babe 826b 2f3e d5d7 cdbe 5fcb 64be
00000070: 9a85 6d3e a503 15be 1bec 0cbe 1e09 a5bd
00000080: 47d9 debe 149e 853e c455 bf3e e268 c9be
00000090: 046e 6cbd 99e4 97be b402 723e e917 2bbd
000000a0: bcb6 263e 14d1 1ebe 0cbc 853e 855d 193e
000000b0: 5187 c6bd d597 0e3e 7353 c13e 78c4 853d
0.0671852 0.006114788 -0.07037999 0.18026617 -0.09309398 0.074131355 -0.050432656 -0.14388154
0.0106711155 0.07304112 -0.25731826 0.24729751 -0.10960408 0.23934363 0.29373816 0.30934358
-0.13373864 -0.15345722 -0.016463881 -0.17156191 -0.009394617 0.013200719 0.04187849 0.22522551
-0.36500096 0.17130855 -0.4020373 -0.22343205 0.23195496 -0.14552172 -0.13761942 -0.080583796
-0.43525144 0.26097167 0.3737012 -0.39337832 -0.057722107 -0.29666594 0.23633844 -0.04177085
0.16280645 -0.15509444 0.2612003 0.14977081 -0.09693778 0.13925107 0.3775898 0.06531614

gnn_base.gnn.gnn1.lin_value.weight f4 [48, 16]
00000000: 6a80 5bbe 2d6d 8c3c 3ef3 63be 8b15 c63a
00000010: 0b0c 15be d45d 543e a271 933d 1899 893e
00000020: df19 6c3d ad90 8d3e 6742 a43e bd37 343e
00000030: 8a9e a13e 407c 57be c492 c2be f85f a13d
00000040: 947c 69be 192a 6dbe 5e71 ec3e c26d 143c
00000050: 5ae3 8a3e b9a6 6cbd 75e2 54be 294c 1e3f
00000060: 999f ddbe 1dea 61be 7ae2 3cbe aaa9 113e
00000070: a8b7 e03e 3ce8 363e 4c43 2e3d 8530 65be
00000080: 88bb dbbd 0001 1d3e e615 c4bd 8b5f e6bd
00000090: 7fbd 23be 969a dfbe 96a0 aabd 42a3 48be
000000a0: 77cf bb3d 5500 273e 0bc5 153e 0139 1e3d
000000b0: f769 603e 5b1a 02bd 159a 613e 1247 a43e
000000c0: cb27 893d 1205 1dbe 4d81 aabe 4225 aa3e
000000d0: 2d5d e73d a51e 7e3e e5a6 15be d75a a33e
000000e0: 5488 ce3e 3657 483e 1a81 87bd 52e7 34bd
000000f0: 3a2c 41be 8f01 543f 8f5a c9be 8b9f f8bd
00000100: b5fb 1abb c231 643c 565c 1d3e 13ab 303e
00000110: 5df8 db3d 62c4 8cbe 9743 d1be 378e 933d
00000120: 32e4 09be a0de eebc c6cd 9e3e 768f 983e
00000130: 5a41 e23d f120 33be c06a 4c3e 5abd 773e
00000140: 7559 bfbe 0689 d7be 2ec6 e6be f868 953e
00000150: 9f16 81be fc4c 213f c1df 1bbe eb22 683e
00000160: 4789 b53d 3c43 a13e aaad 7e3e d3a7 213e
00000170: 6a22 b1be 2f2f c8bd 1251 a3bd ea3b 973e
00000180: e46a dabe db14 d1be 7869 683e 4a9c 613e
00000190: 3458 8abd d3b4 02be 78ff 73be f996 a6be
000001a0: 6634 2c3e 065d 6fbe 3de9 b33c d4fa 883e
000001b0: f005 4abe c52d 3cbd 0c96 9f3e d188 f33e
000001c0: c661 133d a560 bfbe 920a 723e 0cd9 1fbe
000001d0: c143 58be 40a0 c1bb 4b22 983e 20f9 9b3d
000001e0: 2156 083e cae6 393e afe4 33be b190 663c
000001f0: 70f6 cc3d 3065 a4be 9d74 60be 85ed c73e
00000200: d6fd 13bd 0551 2d3e 3cdd 173e d5c6 15be
00000210: 7e1c 0c3e b14a abbe db5d 143e bc40 6f3e
00000220: f0cf c4be b9ce b6be 88ca d4bc eec3 35be
00000230: 30fb 37be 4966 0bbe 0133 ab3e ab63 033e
00000240: 2ab8 b7be 2486 30bf 7178 1ebe 4b5e b2be
00000250: 3c8d 1a3d e2ec e53e 13ed 7bbd bdc1 8e3d
00000260: ec08 a5be 09f0 e23e 55fc 46be e002 0d3d
00000270: ee32 8f3e e52e 7ebe 1630 63bd 37ad a73d
00000280: fb07 913e 97ab 8e3d aa0c 5cbe 3535 b0be
00000290: f14d b53e 997e 3a3e 82b0 9abd 5893 b83e
000002a0: 8812 a93e 8f80 d5bd c594 b3bd 1757 88be
000002b0: 53f2 c03e ae7b 31be 95c2 81be 0caa 853e
000002c0: 7d63 d2bd da23 dc3e 4d5e 47bf dd85 7dbd
000002d0: 9562 8c3b bee7 25be 8113 0a3e 209c f83e
000002e0: 1f3a 103f efa5 413e 4fc8 14be 7ae2 443e
000002f0: 95dc cf3c 883a 0c3f ac01 8c3d 28ba 953c
00000300: 102c 3a3e 2a7b f53e 294d 06bf 2b92 963d
00000310: a3a1 493f 65e0 b83e 42cf 14be 56fe d13e
00000320: 2a12 783e 2ce0 373e 3fb7 ef3b e2f3 973e
00000330: 6d12 513d 85c8 233b a1b1 e0be 6adf 8c3d
00000340: 41a6 443c ccd2 77be 3542 b33e c244 4f3e
00000350: d821 29bc a0b7 2c3f b5a7 80bd 2917 19be
00000360: af76 1ebe d329 afbe 1a9c 55be 4257 ccbd
00000370: 513f d8bd 04d3 2bbe cbc1 62be cb8a 883e
00000380: 6ba2 83be e97e febd 9dca 77be 4511 4f3e
00000390: 0844 5f3e fde8 de3e 6fa2 063f e322 a73b
000003a0: 7d22 17bc 3d06 8f3e 2a46 e6be 3b8d 963e
000003b0: 5664 4dbe a663 803e 4219 01bf 4705 3f3e
000003c0: 8563 1fbd 558a 893e fb00 6fbe 32b1 33be
000003d0: e757 713e 65cd bebd 56c1 1c3e 540e d5bd
000003e0: e55a 8b3e 7b70 03be 8c5b 8cbe f60e d3bd
000003f0: ec10 1cbe 8a9a 01be 2080 48be 5388 ea3c
-0.21435705 0.017141903 -0.22260758 0.0015112621 -0.14555375 0.20738918 0.07199408 0.26874614
0.05764186 0.2764944 0.3208191 0.17599387 0.31566268 -0.21043491 -0.38002598 0.07879633
-0.22801429 -0.2316059 0.46180242 0.009059371 0.2712658 -0.057776187 -0.20789512 0.6183496
-0.43285826 -0.22061963 -0.18445769 0.14224878 0.4389012 0.17862028 0.042544648 -0.2238179
-0.10729128 0.15332413 -0.09574489 -0.11248692 -0.15990256 -0.43672627 -0.083314106 -0.19593528
0.0917043 0.1630872 0.14625947 0.038628582 0.21915422 -0.031763416 0.22031434 0.32085472
0.06697043 -0.15333965 -0.33301774 0.3323155 0.11297069 0.24816377 -0.14614446 0.31905243
0.40338385 0.19564518 -0.06616421 -0.044165917 -0.18864527 0.8281488 -0.39326903 -0.121398054
-0.0023648564 0.013927879 0.15367255 0.1725276 0.10740731 -0.27493578 -0.4087188 0.0720486
-0.13465956 -0.02915889 0.31016368 0.29796952 0.11047621 -0.17493035 0.19962597 0.24193326
-0.37372938 -0.42096728 -0.45073074 0.29181647 -0.2521257 0.63008094 -0.15222074 0.2266957
0.08864074 0.31496608 0.24870935 0.15786676 -0.34596568 -0.097746246 -0.07974447 0.29537898
-0.42659676 -0.40836224 0.22696483 0.22032276 -0.06755105 -0.12764291 -0.23827922 -0.32537058
0.16816863 -0.2337533 0.021961803 0.26753867 -0.19728827 -0.045942087 0.31169164 0.4756532
0.035981916 -0.3737842 0.23636845 -0.1561014 -0.21119596 -0.005908996 0.29713663 0.07615876
0.13314106 0.18154445 -0.17567705 0.014072583 0.10007942 -0.3210845 -0.21919484 0.390484
-0.03613075 0.16925438 0.14830488 -0.1462663 0.13682744 -0.33455423 0.14488928 0.23364538
-0.38439894 -0.35704592 -0.02597548 -0.17750522 -0.17966914 -0.13613237 0.3343735 0.12830989
-0.35882694 -0.6895468 -0.15475632 -0.34837565 0.037732348 0.4490729 -0.06150539 0.069705464
-0.3223337 0.44323757 -0.19432195 0.03442657 0.27968544 -0.24822576 -0.05546578 0.08187335
0.283264 0.06966322 -0.21489206 -0.34415594 0.35411027 0.18212356 -0.075531974 0.36049914
0.3302195 -0.10424911 -0.0876861 -0.26628944 0.3768488 -0.17332336 -0.25343767 0.26106298
-0.10272882 0.42996103 -0.77878267 -0.06189524 0.004284213 -0.16201684 0.13484003 0.48556614
0.56338686 0.18910955 -0.14529537 0.19227019 0.025373736 0.5477681 0.068362564 0.018277243
0.18180871 0.4794553 -0.5246149 0.07352098 0.78762263 0.361087 -0.14532188 0.41014355
0.24225679 0.17956609 0.007315546 0.29678255 0.051042963 0.0024991345 -0.4388552 0.0687855
0.012002529 -0.24201506 0.3501145 0.20241073 -0.01032301 0.6746769 -0.062819876 -0.14950241
-0.15474962 -0.34211597 -0.2086033 -0.099775806 -0.10558952 -0.16779715 -0.22144239 0.2666839
-0.25709853 -0.1242655 -0.24198385 0.20221432 0.21803296 0.4353713 0.52591604 0.0051005944
-0.009224531 0.27934447 -0.44975406 0.29404625 -0.20057806 0.25076026 -0.50429165 0.18654357
-0.03891327 0.2686335 -0.23340218 -0.17548063 0.23568688 -0.0931652 0.15308127 -0.104031235
0.27217785 -0.12835877 -0.27413595 -0.10305588 -0.1524083 -0.12656608 -0.19580126 0.028629458

gnn_base.gnn.gnn1.lin_value.bias f4 [48]
00000000: 2388 213e 2997 473c 6e41 b5bd 2479 ae3e
00000010: 5d1d d93a c230 473e 2c51 44be bce0 07bd
00000020: 683f bcbe 040b a4be ca55 86be cfe9 8f3e
00000030: 95f8 01bd 2751 2b3e 928b 263e 760c 1ebe
00000040: 6b05 0ebd 9e0e 013e 89f2 e6bc 82ee 953e
00000050: 62ae 313e 2baa 6e3d 2c49 483d 6164 97bd
00000060: 3be9 56be 3491 c33d bff4 ecbe 115c 4ebd
00000070: fba5 d1bd b53e 0c3e cca0 193e 5a41 9fbe
00000080: ccb8 6cbe e090 ebbd 5689 44be 10ab b53c
00000090: ccea 2c3d 9729 773e 78ad 54be 7caf 52bd
000000a0: 1ae0 84be 4f5b 89be 08be a2be 9ffd 843e
000000b0: dcba 2cbe 7689 9d3e 1073 453d 6fe3 dabe
0.15774588 0.0121820355 -0.0885037 0.34076798 0.0016564537 0.19452193 -0.1917159 -0.033173308
-0.36767125 -0.32039654 -0.26237327 0.2810807 -0.031731207 0.16730176 0.1626418 -0.15434441
-0.034673136 0.12603232 -0.028191822 0.2928353 0.17351678 0.058267754 0.048897907 -0.07392193
-0.20987408 0.0954918 -0.46280476 -0.05038077 -0.102367364 0.13695796 0.15002745 -0.31104547
-0.2311737 -0.11502242 -0.19193015 0.022176296 0.042216107 0.24136959 -0.20769298 -0.051436886
-0.25952226 -0.26827475 -0.31785607 0.25974748 -0.16868156 0.30768937 0.048205435 -0.42751643

gnn_base.gnn.gnn1.lin_edge.weight f4 [48, 1]
00000000: 739e 1c3f 7d50 5bbe 8925 81bf 6262 9f3e
00000010: fee4 223f 6ba0 2c3f 5af8 fb3d b809 da3e
00000020: d109 ddbe 260b 89be 6cee 1cbe f876 443f
00000030: d366 623f 034c aa3d 42c9 b4be 2f67 80bf
00000040: 0e10 bcbd 5d0c 41bf 990a 34bf e0ca 3a3f
00000050: 6808 db3e eede 193f c84b 1fbf 483e a1be
00000060: 165d 7fbe 0f05 603e bd21 e53e 83ed 583e
00000070: 9d9d cebe 5e51 d63e ba41 8dbe 7791 bdbe
00000080: 595d 273f a4fa 91be 7419 c3bf a0a4 943f
00000090: e4b5 c43d 19ee 8e3e 4ce0 94bf 8385 21be
000000a0: 5632 8ebf 6174 023f bd73 a5bf 9e53 e2be
000000b0: 876b 2b3f d5cb 5d3f 015d 4abe 3a8f 20bf
0.61179274 -0.21417423 -1.008958 0.31129748 0.63630664 0.6743228 0.12303229 0.4258554
-0.43171552 -0.26766318 -0.15325326 0.7674403 0.8843815 0.08315279 -0.35309798 -1.0031489
-0.0918275 -0.7540949 -0.7032867 0.7296581 0.4277985 0.6010579 -0.6222501 -0.3149283
-0.24937853 0.2187693 0.44752303 0.21184354 -0.40354624 0.41858953 -0.27589208 -0.37025043
0.6537681 -0.28511536 -1.5242143 1.161274 0.096050054 0.2791603 -1.163095 -0.15773587
-1.1109111 0.5095883 -1.2925946 -0.4420442 0.6696095 0.8663915 -0.1976204 -0.62718546

gnn_base.gnn.gnn1.lin_skip.weight f4 [16, 16]
00000000: 2324 cdbc 708f d4be 9862 573e f7bd c73e
00000010: f384 dfbd 7be9 ec3c 1e28 bcbe b74b f83d
00000020: d6d7 603d 5a97 323e cd03 043d aa47 9e3e
00000030: 24d6 3abe 59b9 eabe e13f 2abf 1158 04be
00000040: b4f0 173f fbb5 4c3e 290a 7ebc 42b1 c1bd
00000050: 3614 553e c661 a83e 8150 17bd 24b9 f73e
00000060: 5e2e c7bd a377 573c 35ae 4c3e c13e aabe
00000070: a3d6 1abd c758 db3e f230 c1be f10b 4fbc
00000080: 43ac ab3d 025a 88bd 96a8 4d3e 7859 80be
00000090: cf97 f1bd f828 10be e78b f3bd 6020 86bd
000000a0: 26dc 043e b020 dfbd d755 323e 80e4 b9be
000000b0: 2ca5 a9bd df59 0c3e ad75 c23e 675e 64be
000000c0: b5f8 babe aff8 f0be c893 c43e 2251 d6bd
000000d0: 0b67 8a3d 3fcc de3d 4663 d5bc e8a3 4f3d
000000e0: 4543 17be a900 cd3e 672e 11bf 5806 e53d
000000f0: 663b 813e b812 f83d 89c6 3e3e 286a 953e
00000100: 7905 dabd 2d94 1dbd ff1a de3c 8f2a dfbe
00000110: e483 a6be e5ef 42be 3b22 0b3f 61b4 3b3e
00000120: f537 38be 0cad 93be b117 4fbe b763 7b3e
00000130: 7a21 dfbc e118 4c3d 9c13 85be 9e66 30bb
00000140: 91bc 883e 18c4 903d 696d a23e 825d ecbe
00000150: 8109 be3e 5aa9 80bc 9ffb 91be 8042 9a3e
00000160: 2d53 54be 9ec6 8ebd e4e4 3e3e acaf b7be
00000170: b225 f53d b22f 36be 49db 54be cffe aebe
00000180: 9cb3 093e 3eae e83d 2e1b 7cbe 11af 0fbd
00000190: 94fb 0c3f 55b7 c3be 4a9c 853d e95c 44bd
000001a0: 89b6 3d3e d945 7b3d dee9 703e 702b 733d
000001b0: e15a 5dbf ebcd 6b3d bcc9 123f 934f 80bd
000001c0: c232 71be 122b eabd 56f1 3d3e 839d e3bd
000001d0: 4f68 cbbe 8d1c 09bf 50fc b0bd 1809 ec3d
000001e0: 92d7 823e 871f cbbd 9ba8 a43e 2f4d b0be
000001f0: 56cb 0b3f b251 57bb b1c4 cbbb 4269 ed3c
00000200: 5147 993e c519 22be b8ca ed3e f95b 93bd
00000210: 0410 b5bc a3a2 78bd ad5e 0abe 7432 113d
00000220: f8cb f4be 40e8 df3d a125 9c3e 5b0a 823d
00000230: f3eb 763e 506f 3b3e bb4f 25bd 7ab4 97be
00000240: 8c1d 60bd e72c 343d 440d 9c3d d11d cbbd
00000250: 24fa 98be a041 333f 4c6a 3c3e cfee ca3e
00000260: 7f15 713e c208 9cbd 3a0c b23e 3483 5bbe
00000270: 7227 ab3e 0fe9 553e 296d 7cbd 697b 3e3e
00000280: 2b8e e13e 5a9e dbbc 0fb2 3abe 8ba6 4fbe
00000290: c6dd cf3e fa44 a0bc 0f63 debe 66b8 613e
000002a0: f1eb 8e3e 7f9e b2be e0ad 633e 90ba 55bd
000002b0: 203c 88be 8807 ce3d 98e7 3abe 6a10 003e
000002c0: 5b61 b6bd 75bf 933d 2683 bfbe cb1f cabd
000002d0: deb7 db3d 8960 353e 599d e53c d14e c53e
000002e0: 2102 e23e 1dcb 503e 8fcc 0d3d 302c 57be
000002f0: 1f40 a73e da07 143e 72f4 bebd df1c 003e
00000300: 2c97 603e d7f3 483e ba68 38be 6202 d83d
00000310: 7b5d 853e 7969 283e 3ed0 00be 04e5 943c
00000320: 83a5 5f3e eece 203e c618 123e f963 ec3c
00000330: f103 44bf 85a3 ad3e 10a0 27bd 02c7 36be
00000340: 3c6d 47bd 8aab 0abd 796c 84be 0413 903d
00000350: f55f f7be a9d5 05be ba09 a93e 0d72 dd3b
00000360: 39df 8cbd 8620 153e 1e60 82bb 7cc4 1d3e
00000370: 1abc 913e eb5a 1ebf 60ee 023d d171 ed3e
00000380: 6004 923e a704 ab3e cbfd c33e 3ee0 a2be
00000390: 7f42 c5bd e338 82be 37d6 48be 5c42 c5be
000003a0: 71a9 d2be 3e8c 113e d8f2 993e d268 a1be
000003b0: c1ff 3cbf 6bfe b23e ea03 443e ad3f 8e3e
000003c0: 7c43 053f 401d d93e 03d7 d4bb 1ffe 83bd
000003d0: 8e13 eabc 2d0e 7cbe ad1b 49be e2b6 293c
000003e0: 2824 0b3d 35be bfbe d8b0 5c3d a908 583e
000003f0: 3039 2c3e 103d 3d3d 114e 1a3d c0bd d6be
-0.025041645 -0.41515684 0.21033704 0.3901212 -0.1091403 0.028919926 -0.36749357 0.121238165
0.054893337 0.17440549 0.032230187 0.3091405 -0.1824575 -0.45844534 -0.6650372 -0.1292422
0.5935166 0.19991295 -0.015505352 -0.09457637 0.20808491 0.32887095 -0.03694201 0.4838344
-0.09725641 0.013151082 0.1998833 -0.33251002 -0.03780235 0.4284117 -0.37732655 -0.012637124
0.08382466 -0.06657793 0.20083842 -0.2506826 -0.11796533 -0.14078128 -0.11891919 -0.06549144
0.12974605 -0.108949065 0.17415558 -0.36307144 -0.08283457 0.13706158 0.37980404 -0.22301637
-0.36517873 -0.4706473 0.38393998 -0.104646936 0.06757935 0.108788006 -0.026048314 0.050693423
-0.14771755 0.40039566 -0.5671143 0.111828506 0.2524063 0.12112945 0.18630423 0.29182553
-0.10645575 -0.03847139 0.027112482 -0.43587157 -0.325225 -0.19036825 0.54349107 0.18330528
-0.17990096 -0.28842962 -0.20223881 0.24549757 -0.027237643 0.049828414 -0.25991523 -0.0026916633
0.26706365 0.07068652 0.31724098 -0.4616509 0.37116626 -0.015705753 -0.28512284 0.3012886
-0.20734854 -0.06971477 0.18642002 -0.35876215 0.119700804 -0.17791632 -0.20786776 -0.3417878
0.13447422 0.11361359 -0.24619743 -0.035079066 0.5507138 -0.3822581 0.065239504 -0.04794017
0.18526663 0.06134591 0.23526713 0.059367597 -0.86466795 0.057569426 0.5733907 -0.062651776
-0.23554519 -0.11433996 0.18549094 -0.11114027 -0.3972802 -0.5355919 -0.08641875 0.11525172
0.25555092 -0.09918123 0.32159886 -0.34433886 0.5460714 -0.003285509 -0.006218516 0.028980855
0.29937223 -0.15830143 0.46443725 -0.07195277 -0.022102363 -0.060701977 -0.13512678 0.035448506
-0.47811866 0.1093297 0.3049746 0.063496314 0.24113445 0.18304181 -0.04035924 -0.2962988
-0.054715678 0.043988135 0.07619718 -0.099177964 -0.29878342 0.7002201 0.18399924 0.39635321
0.23543356 -0.07618858 0.34774953 -0.21436769 0.33428532 0.20889686 -0.06162754 0.18601765
0.44053778 -0.026808906 -0.18231986 -0.20278375 0.40598887 -0.01956414 -0.4343495 0.22042999
0.27914384 -0.34886548 0.22234297 -0.052179873 -0.26608372 0.1006003 -0.18252409 0.12506261
-0.08905288 0.07214252 -0.37404746 -0.09869345 0.10728429 0.17712606 0.02802913 0.38536695
0.4414225 0.20389982 0.03461891 -0.2101295 0.32666108 0.1445612 -0.09323968 0.12511013
0.21932667 0.19624268 -0.180087 0.105473295 0.26047882 0.16446485 -0.12579438 0.01817561
0.21840481 0.15703937 0.14267263 0.028856264 -0.76568514 0.33913818 -0.040924132 -0.17849353
-0.04868816 -0.033855 -0.25864008 0.07034877 -0.48315397 -0.13069786 0.33015233 0.0067579807
-0.06878514 0.14563188 -0.003978743 0.15406984 0.28463823 -0.6185748 0.031965613 0.46375898
0.28518963 0.33401987 0.38279566 -0.31811708 -0.09631824 -0.25434026 -0.19612966 -0.3852719
-0.411449 0.14213654 0.30068088 -0.31525284 -0.7382775 0.3495973 0.19142118 0.27782956
0.520561 0.42405128 -0.006495358 -0.06444954 -0.028573778 -0.24614783 -0.19639464 0.010358544
0.03397003 -0.37449804 0.05387959 0.21097054 0.1681869 0.046200812 0.037672106 -0.41941643

gnn_base.gnn.gnn1.lin_skip.bias f4 [16]
00000000: 3812 1b3e 49d7 623e 4259 7ebe fc4d dd3d
00000010: cfcb 173e 36cb b23d f012 02be 7cd0 a4bd
00000020: 7f3d 94bb 054f a5bd fb8f 94bd 39e8 e53d
00000030: e340 923e c9a0 203e 1415 283d 07e4 1e3e
0.15143669 0.22152437 -0.24838737 0.1080589 0.1482384 0.08730166 -0.12702537 -0.08047578
-0.0045239325 -0.080717124 -0.072540246 0.112259336 0.2856513 0.15686335 0.041035727 0.15516673

gnn_base.gnn.gnn2.0.lin_key.weight f4 [48, 16]
00000000: f033 1e3e 835d 403e d570 933e 5e2d 91be
00000010: d104 c8be 020f 8b3c 620e e7bd c8f2 913e
00000020: 9c7f b93e 35d4 3d3e 9ca9 3a3e 79d5 26be
00000030: de73 87be 676f ffbe da24 18be 6ade 8e3e
00000040: 4e1b 93be b91e 5bbe 3766 7dbe e018 06be
00000050: afc3 b73b ea7a a73e 80ce f0bd e850 0cbe
00000060: 4fc8 2cbe 9dbc 45bd 1c9f 99be e545 133e
00000070: 4e3d 8f3e ec5e 013e 9bae 7c3e 912e fbbd
00000080: 02e3 0dbe 3e91 afbd 4420 703e 7aab 24be
00000090: e513 98bd e577 5d3e dfa0 5b3e 92b8 c13e
000000a0: d9f1 833e f27e 24be 5b93 a23d 59e2 c9bd
000000b0: 4047 8b3e dd53 993d 45fc 7a3e 11ba ba3e
000000c0: 1e79 ccbd 85f2 dcbd 69cd 923d bf69 d6bd
000000d0: 6c6c 7b3e 7646 5a3e 2738 343e fc49 ca3e
000000e0: 3c44 90bb 1afb c2bc 1696 3c3e f672 1dbe
000000f0: a9af 43be d241 1ebe 84d2 853e 250b 573e
00000100: a136 9d3e 3516 ed3d 32ac adbd 700d 8fbe
00000110: 9d80 f23d b065 1fbe df09 18bd 175d 2c3e
00000120: 7866 873d 723e d93d 1848 3e3e 6e22 c13d
00000130: dc45 0cbe ced8 3e3d 940d 4abd b4d1 1c3e
00000140: bce8 17be b6b0 9b3e 7d37 373e c570 23be
00000150: 8b11 93bd 6a16 c73d 8981 1b3e 3dbb c6bd
00000160: c478 6e3e 0ca4 1c3d 4a24 b93e 8ded bcbe
00000170: e7c8 d4be 0e12 36be aa3d 05bf 5b8e efbc
00000180: b714 06be e65a 8bbe a7b0 d3be 5508 a03e
00000190: bff0 413e 699d 6e3e d383 3abe a6a0 9ebe
000001a0: e2a2 0c3e b1f6 53bb 660f 2b3c b72d 7a3e
000001b0: 544c a7bd 26f7 633d 06a5 113f cdab 96be
000001c0: ea74 8f3e 96e1 88bd c5ec 07be 924e 2a3e
000001d0: 3d51 1cbe 8ec5 a7bd 6064 56be 0aac eabd
000001e0: ec62 3c3e 17f0 d8bd cea6 0b3d c137 17bd
000001f0: d90a a1be 7e39 97bd 6228 8fbe da32 3bbe
00000200: 7dd0 0f3d b914 49bd 939a 4a3e 2ce1 cabd
00000210: 94e5 bbbd a64e 20bd 5d42 923e 9581 2f3e
00000220: 8390 edbd d4e9 04be 9a72 8bbd 42a0 8a3e
00000230: 8f7c 7b3e 96a3 bcbd f988 d73e eea5 9f3e
00000240: e7cb 0d3e d9e2 6e3d df73 e03d fe51 54be
00000250: 3f1d 78be 6a90 9fbb 1d18 fc3d ab2f 93be
00000260: 12e3 f73d b795 6fbe b171 d23d b4e5 303e
00000270: 461d 5dbd adcf ffbe 50ee a43d 3d5b e7bd
00000280: e4d7 693e 7466 733e 7e59 c03e 68e8 bbbe
00000290: 833e 08be b1ef 84be b0e2 db3c 4df2 423f
000002a0: 1993 d5bd 760e 2a3e ac4a e6bb 529e 58be
000002b0: c20a 46be ca92 073e b06c 37be e6d7 2c3e
000002c0: 6344 183e 032c f33c 4183 2abe 2880 27bc
000002d0: 9441 453e 9c06 11be b38b 8ebd 6afb d93e
000002e0: 4088 203e 263a 6cbe 108c f83c 5d95 093e
000002f0: 3a4e 18be 9c84 17be 4b93 b93c ee53 45bc
00000300: f4fe ce3c ccff 833e 863e efbd 2872 52be
00000310: 74d2 1b3e 9093 cdbc 9c7a 2cbc 0d90 013e
00000320: a766 e0bc f77c 8c3d 3a44 a33e 4525 4abe
00000330: 0b1f 03be 7ab0 203d 1ad0 d6be cd78 f9bd
00000340: 4024 eebd 0ac7 393e b440 95bd 0453 74bd
00000350: c754 c5be 6e82 94be 3f97 66be 5cc8 fe3e
00000360: 268a cb3d f802 6a3e 9435 a03e e47c c0bd
00000370: 0fd7 103d 4264 6ebc 00af a2be 167f 20be
00000380: bf8c 093e 2ecf 673d c7a7 79be 86e2 15bc
00000390: bcf2 29be c2ef 1b3e 8c17 2dbd 3ff8 7c3e
000003a0: 9c92 eebd f3e4 e13a dc05 4abb bd5c 67be
000003b0: 3e01 433b 1d36 a03e cfdf 9d3e eb16 16be
000003c0: d3a4 483e c526 32bd a66f 873e e48e 8c3e
000003d0: 93d2 58bd 9b52 953e 2bf7 25bf fbf3 0a3f
000003e0: 1207 143e 093e 193e 2021 533e be36 333e
000003f0: 124a 02be 70f4 593b 3fd4 20be a0a6 3a3e
0.154495 0.18785672 0.28797022 -0.28354925 -0.39066175 0.01697493 -0.1128204 0.2850554
0.3623017 0.18537982 0.18228763 -0.16292371 -0.26455587 -0.4988968 -0.14857808 0.27904063
-0.2873177 -0.21398439 -0.24746023 -0.13095427 0.005608044 0.32710963 -0.11758137 -0.13702738
-0.16873287 -0.04827558 -0.30004203 0.14382131 0.2797646 0.12633866 0.24675982 -0.12264741
-0.13856128 -0.085726246 0.23449808 -0.16081038 -0.074256696 0.21627767 0.21448086 0.37836128
0.25770453 -0.16064051 0.07938262 -0.098576255 0.27202797 0.07486699 0.24510296 0.36470082
-0.09984039 -0.107884444 0.07168085 -0.10469388 0.24553078 0.21315941 0.17599545 0.3950957
-0.0044026654 -0.023801375 0.18416628 -0.15375885 -0.19109978 -0.15454796 0.26137173 0.21000345
0.3070574 0.11576501 -0.08480109 -0.2793994 0.11840937 -0.15566134 -0.03711879 0.16832386
0.06611341 0.106076136 0.18582189 0.09430395 -0.13698524 0.04659348 -0.049329355 0.1531437
-0.14834875 0.30408257 0.17892261 -0.15960987 -0.071810804 0.09721072 0.15186132 -0.097036816
0.23288256 0.038242385 0.361605 -0.36899987 -0.41559526 -0.17780325 -0.52047217 -0.029242685
-0.1309384 -0.27217788 -0.41345713 0.31256357 0.18939494 0.23302235 -0.1821435 -0.3098194
0.1373401 -0.0032343084 0.010440683 0.24431501 -0.08168855 0.05565562 0.5689243 -0.2942795
0.28018886 -0.06683652 -0.13273914 0.16631535 -0.15265365 -0.081919774 -0.20936728 -0.11458595
0.1839711 -0.105926685 0.034094624 -0.036918405 -0.3145359 -0.07384013 -0.27960497 -0.18281117
0.03511094 -0.04909203 0.19785528 -0.099062294 -0.09174648 -0.039137505 0.28566256 0.17139275
-0.11599829 -0.12979823 -0.06808968 0.27075392 0.24559234 -0.09210889 0.4209669 0.31181282
0.13847314 0.058321808 0.10959601 -0.20734403 -0.24229906 -0.0048695104 0.12309287 -0.28747305
0.12103857 -0.23396955 0.10275591 0.17275125 -0.053982995 -0.49963132 0.08053267 -0.11296699
0.22836262 0.23769552 0.37568277 -0.3670075 -0.13305096 -0.2596412 0.026841491 0.7615097
-0.10428447 0.16607079 -0.0070279445 -0.21154144 -0.19340041 0.1323959 -0.17912555 0.16879234
0.14869837 0.029684072 -0.16651632 -0.010223426 0.19263297 -0.14162678 -0.06960239 0.42574626
0.15676975 -0.23069057 0.030340225 0.13435884 -0.14873591 -0.1479668 0.022653243 -0.012043936
0.025268055 0.25781095 -0.11681847 -0.2055136 0.15217 -0.025094777 -0.010527279 0.12652607
-0.027392698 0.06859773 0.3188799 -0.1974078 -0.1280481 0.0392308 -0.41955644 -0.12181244
-0.11628008 0.18142334 -0.07287732 -0.059649482 -0.38541242 -0.2900576 -0.22518633 0.49762237
0.09938459 0.22852695 0.31290877 -0.09398821 0.035361346 -0.0145502705 -0.3177414 -0.1567348
0.13432597 0.056594066 -0.24380408 -0.009148246 -0.16596502 0.15228179 -0.042258784 0.24704073
-0.11649057 0.001723437 -0.0030826246 -0.2259397 0.002975538 0.31291285 0.30834815 -0.1465718
0.19594125 -0.043494005 0.26452368 0.27452767 -0.052935194 0.29164585 -0.64830273 0.54278535
0.14455822 0.14965071 0.20618105 0.17501351 -0.12723568 0.0033257268 -0.15705965 0.18227625

gnn_base.gnn.gnn2.0.lin_key.bias f4 [48]
00000000: d86e b23d 0b61 f1bb 3f00 943d f99e 2e3e
00000010: e3ab 40be 48d1 593e 2588 253e f717 f83d
00000020: 892f b13c 419a 7b3e b702 8e3d 4b22 f4bc
00000030: 863f 0cbd a20f 183e 5dd5 153d 8388 153e
00000040: 575a 0c3c 3e3f 08bd 7e83 d5bc 9ee9 edbd
00000050: 9e2a bdbd d97e 573e b7d4 a5bc afb5 6a3e
00000060: af8c c0bd 8285 85bd 592a 743c c2fa 413e
00000070: 549c f23d 7145 5d3c 969f 0ebe 27cc 603d
00000080: 2924 983c 2fe2 3c3c 5768 0c3d 0989 ab3d
00000090: 917c 103c 48fa b43c 52da 81bd 4fc3 e0bd
000000a0: 1503 cc3c 7a82 223d b65d 81bd 81f1 8abd
000000b0: 401d 973c f789 6ebd ef47 133e ccc6 503e
0.08712548 -0.0073663048 0.072266094 0.17052831 -0.1881557 0.2127124 0.16165216 0.12113946
0.021629112 0.24570562 0.069341116 -0.029801508 -0.03424027 0.14849713 0.036580432 0.14602856
0.008566461 -0.033263437 -0.026063677 -0.116168246 -0.09236644 0.21044482 -0.020243032 0.2292087
-0.09401833 -0.06519605 0.014902675 0.18943313 0.118462235 0.013505326 -0.13928065 0.054882195
0.01857193 0.011528536 0.034279194 0.08375747 0.008818761 0.022092 -0.063404694 -0.10974752
0.024903813 0.039675213 -0.06316702 -0.067843445 0.018446565 -0.058237042 0.14382909 0.20388335
