model_weights/tube/rot_inv/actor.pt (torch, 202776 bytes, 58 tensors)

gnn_base.gnn.embed_layer.layer_norm.weight f4 [16]
0	0x3f606d2e	0.87666595
1	0x3f5534f3	0.8328392
2	0x3f71fed8	0.94529486
3	0x3f86f140	1.0542374
4	0x3f706690	0.939065
5	0x3f8ac165	1.0840269
6	0x3f9ac522	1.209141
7	0x3f62010c	0.8828285
8	0x3f8c1032	1.0942442
9	0x3fafb2cd	1.3726441
10	0x3f8e43d0	1.1114445
11	0x3f746471	0.9546576
12	0x3f8aa403	1.0831302
13	0x3f9e1098	1.2348814
14	0x3fb05b4b	1.377786
15	0x3f85e492	1.0460379

gnn_base.gnn.embed_layer.layer_norm.bias f4 [16]
0	0x3e42e800	0.19033813
1	0xbd1efbbd	-0.038814295
2	0x3e1f8878	0.15579402
3	0xbd4d3fc1	-0.05010963
4	0x3e1c5ad5	0.15269025
5	0xbd80e09d	-0.062928416
6	0xbc5a108d	-0.01330961
7	0xbd4a6a25	-0.049417634
8	0x3d1fd93c	0.03902553
9	0x3d2804e3	0.041020285
10	0xbcdbadd2	-0.026816282
11	0xbcba2bb9	-0.022725927
12	0x3dc81e93	0.097714566
13	0x3d1542f5	0.03644081
14	0x3dec5feb	0.115417324
15	0x3c8075e5	0.015681216

gnn_base.gnn.embed_layer.entity_embed.weight f4 [4, 2]
0	0x3fac5c43	1.3465656
1	0xbb9fb908	-0.0048743524
2	0xbfea0956	-1.8284099
3	0x3e046c4f	0.12931941
4	0xbf8ad1a1	-1.0845224
5	0xbfb3052d	-1.3985955
6	0x3ece837a	0.40334684
7	0x3f5688e5	0.83802634

gnn_base.gnn.embed_layer.lin1.weight f4 [16, 10]
0	0xbce67ba2	-0.028135125
1	0xbec13cd7	-0.3774173
2	0xbf3d4417	-0.7393202
3	0xbe01ca1b	-0.12674753
4	0xbe4c16ce	-0.19930574
5	0x3d90337e	0.07041071
6	0x3e92dcc3	0.28684053
7	0xbe9cf9c6	-0.30659312
8	0xbf243bef	-0.6415395
9	0xbd56a180	-0.052400112
10	0xbf2518b8	-0.6449084
11	0xbde47cc7	-0.11156612
12	0x3e9837bf	0.2973003
13	0xbec3ff55	-0.3828074
14	0x3ee12343	0.43972215
15	0xbf2b65f1	-0.66952425
16	0xbe98af26	-0.29821128
17	0x3d53593a	0.051598765
18	0x3e3dd8a6	0.18539676
19	0xbf2ca21d	-0.67434865
20	0x3e7a8fd6	0.24468932
21	0x3ecab220	0.39589024
22	0x3f55372b	0.83287305
23	0xbf36e550	-0.71443653
24	0x3df17d42	0.11791469
25	0xbcbdc51e	-0.023165282
26	0x3e452694	0.19252998
27	0xbee197a4	-0.44061005
28	0xbece330e	-0.40273327
29	0x3e754fce	0.23956224
30	0xbf2dfb1f	-0.67961305
31	0x3e513fee	0.20434543
32	0x3d3dfa8c	0.04638152
33	0x3d3ef0e1	0.04661644
34	0xbed4df5c	-0.4157666
35	0xbef3535e	-0.47524542
36	0xbd3300d5	-0.043701965
37	0xbe121ac2	-0.1426802
38	0xbe4a82fc	-0.19776529
39	0x3c6090e4	0.01370642
40	0xbe2cdec6	-0.16881856
41	0x3e9e9399	0.30971983
42	0xbf51223d	-0.8169287
43	0xbedbbad6	-0.42915982
44	0xbe2a56f5	-0.16634734
45	0x3e2b5224	0.16730553
46	0x3d0c15ea	0.034200586
47	0xbed9fcde	-0.42575735
48	0x3e0d961a	0.1382679
49	0xbedce348	-0.43142152
50	0xbf14b206	-0.5808414
51	0x3ca42bce	0.020040419
52	0xbf3db150	-0.7409868
53	0xbee91054	-0.4552027
54	0x3e1e91df	0.15485333
55	0x3b7fb92f	0.003902029
56	0xbef71984	-0.48261654
57	0x3e28af68	0.16473162
58	0xbefcbf45	-0.49364677
59	0x3e0e62f0	0.13904929
60	0xbd0c3a5c	-0.034235343
61	0x3f30e23e	0.6909522
62	0x3f426ee7	0.75950474
63	0x3ca582da	0.020203996
64	0x3efd44cc	0.4946655
65	0xbcc77c98	-0.024351403
66	0xbf4e932b	-0.8069331
67	0xbf0eac7b	-0.55731934
68	0xbd95946b	-0.07303699
69	0xbee8c48a	-0.45462447
70	0xbe123d2a	-0.14281145
71	0xbea1c084	-0.3159219
72	0x3ebe281e	0.37139982
73	0x3d269e71	0.040678445
74	0x3f78d484	0.97199273
75	0xbea44dd5	-0.3209063
76	0x3e91885e	0.28424352
77	0xbe8626c1	-0.26201442
78	0x3e1323a1	0.1436906
79	0x3e45f43b	0.19331448
80	0x3f6db4b6	0.9285387
81	0x3e46daae	0.19419357
82	0x3e84c369	0.25930336
83	0xbf23ede6	-0.6403488
84	0x3e1894e9	0.14900555
85	0xbf6e3067	-0.93042606
86	0x3e1d303b	0.1535043
87	0xbe415075	-0.18878348
88	0xbe18e1d8	-0.14929903
89	0x3e241f31	0.16027524
90	0x3e0f2a02	0.13980868
91	0x3f0258e7	0.50916904
92	0x3ecc84b9	0.3994501
93	0x3fe06cba	1.7533181
94	0xbe406945	-0.18790157
95	0xbd204252	-0.039125748
96	0x3ebc2f1f	0.367547
97	0x3de903de	0.11377691
98	0x3e8cc298	0.27492213
99	0xb9b930f3	-0.0003532242
100	0xbe94379f	-0.28948686
101	0x3d7e32c7	0.062060144
102	0xbf22b289	-0.63553673
103	0x3d9105b4	0.07081166
104	0x3c0cfa56	0.008604607
105	0xbe1ef6cc	-0.15523833
106	0xbed9ee0f	-0.42564437
107	0xbe5fb372	-0.21845797
108	0x3eafe41b	0.34353718
109	0x3f802575	1.0011431
110	0x3edfc0b6	0.43701714
111	0xbe8d033b	-0.27541527
112	0xbf1e6099	-0.61866146
113	0x3da08c22	0.07839228
114	0xbeb49fae	-0.35278076
115	0xbf1bc97c	-0.60854316
116	0x3ed8a815	0.42315736
117	0x3d82b380	0.06381893
118	0x3b8178e9	0.003951181
119	0x3f023853	0.50867194
120	0x3e2aff00	0.16698837
121	0xbeb9f2c9	-0.36318043
122	0x3e63ccde	0.2224612
123	0xbf9d3cd7	-1.2284192
124	0xbde0040c	-0.10938272
125	0x3d391c07	0.045192745
126	0xbeefb7c6	-0.46819896
127	0x3e90dbc8	0.2829268
128	0x3e01fb4d	0.1269352
129	0x3dc1b67a	0.09458633
130	0x3f00c1c4	0.5029566
131	0x3f2315bc	0.6370504
132	0x3f1fbc31	0.6239653
133	0x3ec82a73	0.39094886
134	0x3da93724	0.0826247
135	0xbd26318f	-0.040574607
136	0x3e55bb67	0.2087227
137	0x3f4503dd	0.7695902
138	0x3d956bef	0.07295977
139	0xbe34e870	-0.17666793
140	0xbec39394	-0.3819853
141	0x3f934466	1.1505249
142	0xbf1c4a50	-0.6105089
143	0x3fc462d9	1.5342666
144	0x3e745160	0.23859167
145	0xbdce302b	-0.10067781
146	0x3e4f5445	0.2024699
147	0x3da84b41	0.082174785
148	0xbe65215c	-0.22376007
149	0xbc0c9091	-0.008579389
150	0xbf5216bc	-0.8206594
151	0x3f12fa7d	0.57413465
152	0xbeafcb39	-0.34334734
153	0xbe3ea941	-0.18619253
154	0xbe73a6d8	-0.23794115
155	0x3ea36f02	0.3192063
156	0x3f247285	0.6423724
157	0xbdf360c7	-0.11883693
158	0xbd803609	-0.062603064
159	0xbeb0994b	-0.34491953

gnn_base.gnn.embed_layer.lin1.bias f4 [16]
0	0x3d8084d3	0.06275334
1	0xbde39810	-0.11112988
2	0xbd85adf9	-0.06527323
3	0x3c864bb0	0.016393512
4	0xbdb7966f	-0.0896424
5	0xbe785f79	-0.2425517
6	0xbe19c005	-0.15014656
7	0xbdb6059c	-0.08887789
8	0xbdeffd51	-0.11718238
9	0xbd39c981	-0.045358185
10	0x3d20c66f	0.03925174
11	0x3caad69c	0.020854287
12	0xbd619f6e	-0.055083685
13	0x3bd55abf	0.006511062
14	0x3e0261d9	0.12732638
15	0xbdcc8caf	-0.09987771

gnn_base.gnn.embed_layer.layers.0.weight f4 [16, 16]
0	0xbeb7f399	-0.35928038
1	0x3e10157a	0.14070693
2	0xbeb8d735	-0.3610169
3	0xbed68e5b	-0.41905484
4	0x3e938fee	0.28820747
5	0x3ecbfa63	0.39839467
6	0x3f903989	1.1267558
7	0x3d51f240	0.05125642
8	0xbf0f25b2	-0.55916893
9	0x3d34f1d6	0.044175945
10	0xbee40a92	-0.44539315
11	0x3dec7c03	0.11547091
12	0xbeb51c13	-0.3537298
13	0xbf1101d4	-0.56643414
14	0xbdc8b98f	-0.098010175
15	0xbee8edee	-0.45494026
16	0x3d8e67b7	0.06953376
17	0xbebe4ce3	-0.37168035
18	0x3e64bd97	0.22337948
19	0xbee58d19	-0.4483421
20	0xbc2282c8	-0.009918876
21	0x3f0ba4a4	0.54548097
22	0x3f504c79	0.8136669
23	0x3e875d30	0.26438284
24	0xbea0caad	-0.3140463
25	0x3f21f6c0	0.63267136
26	0x3ee8f867	0.45502016
27	0xbd9aa103	-0.07550242
28	0x3e9e7263	0.30946645
29	0x3f0b5e9a	0.54441226
30	0x3ecfeb0b	0.4060901
31	0x3eda8bc2	0.42684752
32	0xbe55a732	-0.20864561
33	0x3f3c3000	0.7351074
34	0xbedadb75	-0.42745557
35	0x3e84e3bb	0.25954995
36	0x3d0dc0d6	0.03460773
37	0x3f132f75	0.5749429
38	0x3ebdb424	0.370515
39	0xbeb813aa	-0.35952502
40	0x3ee9a75d	0.456355
41	0xbe0a3534	-0.13496858
42	0x3f0f27bd	0.5592001
43	0xbc7e22f6	-0.015511265
44	0x3e7acd65	0.24492414
45	0xbef32fcc	-0.47497404
46	0xbeeefd31	-0.46677545
47	0x3e3e4dc8	0.18584359
48	0xbba29767	-0.004961896
49	0x3e44bbce	0.19212267
50	0xbf3e4d54	-0.74336743
51	0xbe815898	-0.25262904
52	0x3da28319	0.07935161
53	0x3e2e1948	0.17001832
54	0xbf531d63	-0.82466716
55	0x3d82acf8	0.063806474
56	0xbcda7a79	-0.026669728
57	0x3f82b7da	1.0212357
58	0xbdfa6e77	-0.12228101
59	0x3e4d52c3	0.20051102
60	0xbf1c1ff5	-0.6098626
61	0x3e425cc1	0.18980695
62	0x3f9ebcf9	1.240142
63	0x3d9ae5c3	0.07563355
64	0x3f19008d	0.59766465
65	0x3f02d8a7	0.51111835
66	0xbeba5a13	-0.36396846
67	0xbd6c3352	-0.05766613
68	0x3e0f5227	0.13996182
69	0xbe1f740b	-0.1557161
70	0x3c8be357	0.017076178
71	0xbef5db42	-0.48018843
72	0xbf4fc40a	-0.81158507
73	0x3f07043b	0.5274083
74	0xbedeecd0	-0.4354005
75	0xbe92a4ca	-0.2864135
76	0x3f686a1f	0.9078693
77	0x3e0d3f24	0.13793617
78	0xbe37c3d5	-0.17945798
79	0x3dea0661	0.11426998
80	0x3e80f208	0.25184655
81	0x3e52b573	0.2057703
82	0x3f27b85e	0.65515697
83	0xbf6d1862	-0.9261533
84	0xbed5f121	-0.4178553
85	0x3e556683	0.20839886
86	0x3de05ac0	0.10954809
87	0x3da75564	0.08170584
88	0x3dc37b6c	0.09545025
89	0xbd4c19cc	-0.04982929
90	0x3d91bf82	0.07116605
91	0x3ea1de75	0.31615034
92	0x3e4c6fa7	0.19964467
93	0xbe6d766f	-0.2318971
94	0xbf765d7e	-0.9623641
95	0x3e454918	0.19266164
96	0x3e76def0	0.24108481
97	0xbe04188f	-0.12899993
98	0xbdbd6d68	-0.09249383
99	0x3e5a8bdd	0.21342416
100	0xbe6637fb	-0.22482292
101	0xbe8c7e14	-0.2743994
102	0xbdde4826	-0.10853605
103	0x3f031c4a	0.5121504
104	0xbf38b0f6	-0.7214502
105	0x3e46ebe9	0.1942593
106	0x3f13ea1c	0.577791
107	0xbe8c0eae	-0.2735495
108	0xbee70983	-0.45124444
109	0x3d1e39e3	0.038629424
110	0xbecacb28	-0.3960812
111	0x3eaf193b	0.34198937
112	0x3c5a939e	0.013340859
113	0x3e717eb4	0.2358349
114	0x3eea8943	0.45807847
115	0xbe188921	-0.1489606
116	0xbedeb264	-0.43495476
117	0x3e4f91a1	0.20270397
118	0x3f1093ca	0.5647551
119	0xbee367cb	-0.44415125
120	0xbf605cf4	-0.87641835
121	0xbeae518e	-0.34046596
122	0xbe0dc93c	-0.13846296
123	0xbf0c2be7	-0.5475449
124	0xbf21a428	-0.6314111
125	0x3f04a049	0.51807076
126	0x3f0c9f09	0.5493017
127	0xbead5d63	-0.3386031
128	0xbf1045a3	-0.5635626
129	0x3ec91fa1	0.39281943
130	0x3e81b22d	0.2533125
131	0x3e07413a	0.13208476
132	0xbeda93d4	-0.4269091
133	0x3f1473ff	0.57989496
134	0xbcaab848	-0.020839825
135	0x3ef28e95	0.47374406
136	0xbec1e965	-0.37873378
137	0xbed592f2	-0.41713673
138	0xbeccdb11	-0.40010884
139	0xbe9d8b93	-0.3077055
140	0x3e803fbf	0.25048634
141	0xbead8cc2	-0.33896452
142	0x3ebc6856	0.36798352
143	0x3edf9f69	0.43676308
144	0x3ea2e6af	0.31816623
145	0x3e32884b	0.17434804
146	0x3ecd3750	0.40081263
147	0x3da63a0e	0.08116542
148	0x3f377707	0.71665996
149	0x3db651b0	0.089022994
150	0xbed4a9b8	-0.41535735
151	0xbf248ca2	-0.6427709
152	0xbeedeb03	-0.46468362
153	0x3ece1f30	0.4025817
154	0x3e4e9d56	0.20177206
155	0xbeef4903	-0.4673539
156	0xbd9f22ee	-0.07770334
157	0xbed1f40a	-0.410065
158	0x3ed3a4bf	0.4133663
159	0x3f0ee6e9	0.5582109
160	0x3e9b5162	0.30335528
161	0xbeb7f898	-0.3593185
162	0xbd199cb7	-0.03750297
163	0x3d50cadb	0.050974708
164	0x3ebfe7d6	0.37481564
165	0x3e6d1655	0.2315305
166	0xbe99edf6	-0.30064362
167	0xbefdb0fd	-0.49549094
168	0xbd7a4196	-0.061097704
169	0xbf40125f	-0.7502803
170	0x3e960301	0.29299167
171	0x3f27b847	0.6551556
172	0xbeed07b9	-0.46294954
173	0x3ea9ecc4	0.3318845
174	0x3ded66a1	0.115918405
175	0x3f5543a5	0.8330634
176	0xbebae149	-0.36500004
177	0xbe820b09	-0.25399044
178	0xbe71fe4b	-0.23632161
179	0xbe08e261	-0.13367607
180	0x3c3d084e	0.0115376245
181	0x3f1b4632	0.60653985
182	0xbef6c7f9	-0.48199442
183	0xbe55abd9	-0.20866336
184	0xbf45c590	-0.7725458
185	0xbea5205a	-0.32251245
186	0x3ef9a626	0.48759574
187	0xbe80e5ab	-0.25175223
188	0x3ef97b31	0.487268
189	0x3dfdb1f7	0.1238746
190	0xbe655cf4	-0.2239874
191	0xbed6bd53	-0.41941318
192	0xbd293090	-0.04130608
193	0xbf3c174b	-0.7347304
194	0xbe656ec1	-0.2240553
195	0xbd9d2b51	-0.076742776
196	0xbf2db88b	-0.67859715
197	0x3d4a9763	0.04946078
198	0x3e164b0f	0.1467707
199	0xbe209302	-0.15681079
200	0xbdaca814	-0.08430496
201	0x3eebb0a4	0.46033204
202	0xbe3c54b3	-0.18391685
203	0xbf031cdb	-0.51215905
204	0x3e9fbc69	0.31198433
205	0xbf32d44d	-0.69855195
206	0x3e5bf843	0.21481423
207	0x3f28461c	0.6573198
208	0xbea2274f	-0.31670615
209	0x3e5ea06a	0.2174088
210	0xbe8f00d1	-0.2793031
211	0xbe310a74	-0.17289144
212	0x3e91321c	0.28358543
213	0xbed96328	-0.42458463
214	0x3e0e05d9	0.13869418
215	0x3def07f2	0.11671437
216	0x3eb5b17c	0.35486972
217	0xbe63c2ae	-0.22242233
218	0xbf3411da	-0.7033974
219	0xbf3a6762	-0.72814
220	0xbe00ce26	-0.1257864
221	0x3f078d25	0.52949744
222	0xbf7ad04d	-0.9797409
223	0x3eef901d	0.46789637
224	0xbe64666a	-0.22304693
225	0xbeab8729	-0.33501557
226	0x3d380331	0.04492492
227	0x3eaeccb2	0.34140545
228	0x3e2def4e	0.16985819
229	0x3e82b04e	0.25525135
230	0xbe35ec22	-0.17765859
231	0xbe80d6dc	-0.25163925
232	0x3c9083c1	0.01764095
233	0x3f66f986	0.9022449
234	0xbf477da4	-0.7792609
235	0x3e395ef4	0.18102628
236	0xbe3eda06	-0.18637857
237	0x3d9d49a0	0.076800585
238	0xbeb7abb3	-0.35873184
239	0x3e14e2fb	0.14539711
240	0x3f42ede9	0.7614427
241	0xbd9ab400	-0.075538635
242	0xbf04dc75	-0.5189889
243	0x3f0ea7e5	0.55724937
244	0xbc17e4ad	-0.009270829
245	0x3f7df3d7	0.99200195
246	0x3de4d62f	0.11173665
247	0xbcd8fc3d	-0.026487464
248	0x3cbe1f0c	0.023208164
249	0xbe40ab65	-0.18815382
250	0xbe84cbea	-0.25936824
251	0xbf553add	-0.83292943
252	0x3d7b003a	0.061279513
253	0xbdda3eee	-0.10656534
254	0xbe5f658e	-0.21816084
255	0x3e0726e2	0.13198426

gnn_base.gnn.embed_layer.layers.0.bias f4 [16]
0	0xbe35a754	-0.17739612
1	0xbd5dd69f	-0.054159757
2	0xbde3b7bc	-0.11119029
3	0x3dffdc8b	0.12493237
4	0xbe31ff9d	-0.17382665
5	0xbccf01dc	-0.025269441
6	0xbdb11df4	-0.08648291
7	0xbd09ae05	-0.033613224
8	0xbd641893	-0.0556875
9	0xbd93bd55	-0.072138466
10	0x3cb3faac	0.021970116
11	0xbe261acc	-0.1622116
12	0xbe80164e	-0.25017017
13	0x3c0d044e	0.008606983
14	0xbe422572	-0.18959597
15	0xbe3da5e1	-0.18520309

gnn_base.gnn.embed_layer.layers.2.weight f4 [16]
0	0x3f606d2e	0.87666595
1	0x3f5534f3	0.8328392
2	0x3f71fed8	0.94529486
3	0x3f86f140	1.0542374
4	0x3f706690	0.939065
5	0x3f8ac165	1.0840269
6	0x3f9ac522	1.209141
7	0x3f62010c	0.8828285
8	0x3f8c1032	1.0942442
9	0x3fafb2cd	1.3726441
10	0x3f8e43d0	1.1114445
11	0x3f746471	0.9546576
12	0x3f8aa403	1.0831302
13	0x3f9e1098	1.2348814
14	0x3fb05b4b	1.377786
15	0x3f85e492	1.0460379

gnn_base.gnn.embed_layer.layers.2.bias f4 [16]
0	0x3e42e800	0.19033813
1	0xbd1efbbd	-0.038814295
2	0x3e1f8878	0.15579402
3	0xbd4d3fc1	-0.05010963
4	0x3e1c5ad5	0.15269025
5	0xbd80e09d	-0.062928416
6	0xbc5a108d	-0.01330961
7	0xbd4a6a25	-0.049417634
8	0x3d1fd93c	0.03902553
9	0x3d2804e3	0.041020285
10	0xbcdbadd2	-0.026816282
11	0xbcba2bb9	-0.022725927
12	0x3dc81e93	0.097714566
13	0x3d1542f5	0.03644081
14	0x3dec5feb	0.115417324
15	0x3c8075e5	0.015681216

gnn_base.gnn.gnn1.lin_key.weight f4 [48, 16]
0	0xbe327440	-0.17427158
1	0x3d32e050	0.043670952
2	0xbe53b6be	-0.2067518
3	0xbf2bbf53	-0.6708881
4	0x3e8851ce	0.26624912
5	0xbca88f55	-0.020576159
6	0x3d6262f7	0.05527016
7	0xbe2a0033	-0.16601638
8	0x3e80b77a	0.25139982
9	0x3e2f1720	0.17098665
10	0x3d8f3698	0.06992835
11	0x3daf0af5	0.08547012
12	0xbeaa57fa	-0.33270246
13	0x3ed1c9d4	0.40974295
14	0xbeabda62	-0.3356505
15	0x3e45d3ed	0.19319125
16	0xbd874ae2	-0.0660608
17	0x3e900bf7	0.28134128
18	0x3dfbf6da	0.123029426
19	0x3efcb04a	0.49353248
20	0xbf0317bb	-0.51208085
21	0x3dc1e415	0.09467331
22	0x3ea227a6	0.31670874
23	0xbe34d2e3	-0.17658572
24	0x3e2d39e2	0.16916612
25	0xbe0437c5	-0.129119
26	0xbef1df0a	-0.47240478
27	0xbb018d0d	-0.001976791
28	0x3ded04a0	0.11573148
29	0x3e0380cf	0.12842105
30	0x3e998f19	0.29991987
31	0xbe7e8f03	-0.24859242
32	0x3d51dcd0	0.051235974
33	0xbdc54544	-0.09632352
34	0x3e0c767a	0.1371707
35	0xbdd69913	-0.10478415
36	0x3e8e81e2	0.27833468
37	0x3c0ae1b7	0.008476666
38	0x3e9af57a	0.3026541
39	0xbae0e07a	-0.0017156743
40	0x3e3aa1fb	0.18225853
41	0x3e1974d7	0.14985977
42	0xbe0d882f	-0.13821481
43	0xbe3e1b07	-0.18564998
44	0x3e81b8dd	0.25336352
45	0x3c7cd4f1	0.015431629
46	0xbf2a8a83	-0.666176
47	0x3ebb3255	0.36561838
48	0xbea64f13	-0.32482204
49	0xbe89f1b4	-0.26942217
50	0xbf2217c2	-0.633175
51	0xbec87c91	-0.39157537
52	0xbe6e0c3c	-0.23246855
53	0x3d027499	0.031849477
54	0xbd07a48a	-0.0331159
55	0xbe9c0c95	-0.3047835
56	0x3eb19050	0.34680414
57	0xbe05f688	-0.13082325
58	0x3ebd7273	0.3700138
59	0x3e14a755	0.14516957
60	0xbf05d492	-0.5227748
61	0x3ef0908e	0.46985286
62	0xbce82833	-0.028339481
63	0xbdf0343d	-0.11728714
64	0x3dacd0f4	0.08438292
65	0xbdba9bf1	-0.09111775
66	0xbd3f759b	-0.046743017
67	0x3e8afee9	0.27147606
68	0xbd8df10e	-0.06930743
69	0x3e8cb7b1	0.27483895
70	0xbdd1523a	-0.102207616
71	0x3de4dfc9	0.11175496
72	0x3e40bce5	0.18822058
73	0x3e82a5be	0.25517076
74	0xbdb0a9cb	-0.086261354
75	0xbe4f70d5	-0.20257886
76	0xbe242bb8	-0.16032302
77	0xbeb5dfca	-0.355223
78	0xbd9e263d	-0.07722137
79	0xbd82f78a	-0.063948706
80	0x3e6f8c92	0.23393467
81	0x3c330a0c	0.010927688
82	0x3e582ef8	0.21111667
83	0x3db862db	0.0900323
84	0x3d7a50c9	0.0611122
85	0xbda67d8e	-0.081294164
86	0xbccbb68d	-0.02486732
87	0x3e308729	0.1723906
88	0xbc3fc96f	-0.01170574
89	0x3d9d3464	0.07676008
90	0x3f1df47e	0.6170119
91	0xbd9e01f5	-0.07715217
92	0x3e1b29aa	0.15152612
93	0xbe83986f	-0.25702235
94	0x3c9e2022	0.019302431
95	0x3e4d57ac	0.20052975
96	0x3d60b4e7	0.054860022
97	0xbdec4be6	-0.11537914
98	0x3eb120b4	0.34595263
99	0xbeadb4b3	-0.33926925
100	0x3e60fb55	0.21970876
101	0xbe90673f	-0.2820377
102	0xbd360a3c	-0.044443354
103	0xbe3bf41f	-0.18354844
104	0x3e347fdc	0.176269
105	0x3ebd3596	0.36954945
106	0xbc8a308b	-0.01686885
107	0x3e665ddd	0.22496744
108	0x3cc309b5	0.02380834
109	0x3ee6c89b	0.45074925
110	0xbee44cea	-0.4458993
111	0x3de85b9f	0.113456
112	0x3d4360d2	0.047699757
113	0x3e3b4c18	0.18290746
114	0x3ecb92eb	0.39760527
115	0x3d0329e6	0.03202238
116	0x3e3ae5c7	0.18251716
117	0xbe118319	-0.14210166
118	0xbc60b31c	-0.013714578
119	0x3dcba013	0.09942641
120	0x3e0c47e9	0.13699307
121	0xbde8fdfc	-0.11376569
122	0xbee63fcb	-0.44970545
123	0xbe21904a	-0.15777698
124	0x3c9f55c8	0.019450083
125	0xbe8efbe9	-0.27926567
126	0x3d27e1ad	0.040986706
127	0x3ea6ed81	0.32603076
128	0xbe6618e2	-0.2247043
129	0x3df0caea	0.11757453
130	0x3d85b704	0.06529048
131	0x3e46c033	0.19409256
132	0xbf148fd9	-0.58031994
133	0x3e729d8c	0.23692912
134	0x3d8a5ac5	0.06755594
135	0x3df2dc7e	0.11858462
136	0xbdf2df08	-0.11858946
137	0xbee2ca96	-0.44295186
138	0xbe8d470b	-0.27593264
139	0xbe0f6f73	-0.14007358
140	0x3e0e1eb6	0.13878903
141	0x3e2a25c3	0.16615967
142	0x3ee3600c	0.44409215
143	0xbee3eee2	-0.4451819
144	0x3e80414f	0.25049827
145	0x3e85273e	0.26006502
146	0x3d8bfbf0	0.06835163
147	0x3ef49d1c	0.47776115
148	0x3e10e3d6	0.14149413
149	0xbd3ef92f	-0.04662436
150	0xbe9da65f	-0.30790994
151	0x3e177c92	0.14793614
152	0xbdaef1fb	-0.08542248
153	0x3db9b861	0.090683706
154	0xbe5454fa	-0.20735541
155	0xbde5ce78	-0.112210214
156	0x3e1c59e1	0.15268661
157	0xbdc37306	-0.09543423
158	0x3cd21d01	0.025648596
159	0x3e8e5275	0.27797285
160	0xbdfae43a	-0.12250562
161	0x3df895fa	0.12137981
162	0xbe814bdd	-0.25253192
163	0x3e0a69fa	0.1351699
164	0xbeae8c34	-0.34091341
165	0x3cb16227	0.021653248
166	0x3de3f0d1	0.111299165
167	0xbe2f2c83	-0.17106824
168	0xbd96ca66	-0.07362823
169	0xbe95a7eb	-0.29229674
170	0x3e78d655	0.24300511
171	0xbe9c8461	-0.30569747
172	0xbe982ca5	-0.2972156
173	0x3de425d0	0.11140025
174	0x3dbb25ed	0.09138093
175	0xbeac5c61	-0.3366423
176	0xbca71a30	-0.02039823
177	0xbe2e6928	-0.17032301
178	0xbdeb3187	-0.11484056
179	0x3dbe7b8a	0.09300907
180	0xbd5e217c	-0.054231152
181	0xbe3b4400	-0.18287659
182	0x3db544ac	0.08850989
183	0x3d52727d	0.051378716
184	0xbea41c25	-0.32052723
185	0x3efd439c	0.49465644
186	0xbe5d0e40	-0.21587467
187	0xbe1a9be2	-0.15098527
188	0x3ecca028	0.3996594
189	0x3d0b4308	0.033999473
190	0xbec8ade1	-0.3919516
191	0x3e62ffe3	0.22167926
192	0xbebddb19	-0.3708122
193	0xbe0a9093	-0.13531713
194	0xbe4dfb0e	-0.20115301
195	0x3f1840fd	0.59474164
196	0x3e466a64	0.19376522
197	0x3e7f24bd	0.24916358
198	0x3db4f575	0.0883588
199	0x3e751da1	0.23937084
200	0xbe37363e	-0.17891786
201	0x3e8576d1	0.26067212
202	0xbe1f86d9	-0.15578784
203	0xbea3f79b	-0.32024845
204	0x3de8cac5	0.113668
205	0x3defcde9	0.11709196
206	0xbcc4ee90	-0.024039537
207	0xbe8599e5	-0.26093975
208	0x3e4b8e3c	0.19878477
209	0xbd071d0d	-0.03298669
210	0x3e895669	0.26823738
211	0x3e65700c	0.22406024
212	0x3e95b3d9	0.29238775
213	0x3db186cb	0.08668288
214	0xbf07d02b	-0.53052014
215	0xbdb190c7	-0.08670192
216	0x3e9610e3	0.2930976
217	0x3e36400a	0.17797866
218	0x3e62d640	0.22152042
219	0xbdf0fbbe	-0.11766766
220	0x3ddae0c4	0.10687402
221	0xbd990b72	-0.07472886
222	0x3e87a59b	0.26493534
223	0xbde0d439	-0.10977978
224	0x3ecb9eca	0.39769584
225	0x3e9a9097	0.30188438
226	0xbdf4a508	-0.1194554
227	0x3dbb1391	0.09134591
228	0x3e4a7edd	0.19774957
229	0xbeab534a	-0.33461982
230	0xbe432845	-0.1905833
231	0xbe604b4f	-0.21903728
232	0x3e024143	0.12720208
233	0x3ca11d67	0.01966734
234	0x3e87747f	0.26456067
235	0xbbbfdb27	-0.0058549824
236	0xbe648e40	-0.22319889
237	0x3e7cc38d	0.24683972
238	0x3e837b2c	0.2567991
239	0xbd96fbc1	-0.07372237
240	0x3dfc0a60	0.123066664
241	0x3e5fcadc	0.21854728
242	0xbd4cecb9	-0.050030444
243	0x3e1b8456	0.15187201
244	0xbdc62a25	-0.09676007
245	0x3e7dfa30	0.2480247
246	0x3dd39c2b	0.10332521
247	0xbd9860ad	-0.074403144
248	0xbdfba123	-0.12286594
249	0xbdf1123a	-0.117710546
250	0xbee96014	-0.45581114
251	0xbe397b35	-0.18113406
252	0x3e28738f	0.16450332
253	0xbda2811d	-0.07934783
254	0x3e11849c	0.14210743
255	0x3d651b90	0.05593449

gnn_base.gnn.gnn1.lin_key.bias f4 [48]
0	0x3e443270	0.19159865
1	0x3e4af61d	0.19820447
2	0xbd8cc400	-0.068733215
3	0xbe1455b6	-0.14485821
4	0xbde3401d	-0.11096213
5	0xbe2eb9d6	-0.17063078
6	0xbd861b69	-0.06548197
7	0xbe6730b9	-0.2257718
8	0x3e098704	0.1343041
9	0xbe707bd6	-0.2348474
10	0xbe1fafa2	-0.15594342
11	0x3e2bb3fb	0.16767876
12	0xbe3fa98c	-0.18717021
13	0x3d743393	0.059619498
14	0x3e404487	0.18776141
15	0x3e7c847d	0.24659915
16	0x3e01b480	0.12666512
17	0xbd887052	-0.066620484
18	0x3e129e2a	0.14318147
19	0xbc0d7956	-0.008634886
20	0xbd9d90ae	-0.07693611
21	0x3a8574b0	0.001018187
22	0x3d6514ff	0.055928227
23	0x3e2b7fd2	0.16747978
24	0x3dd6fee6	0.10497837
25	0x3df36c60	0.11885905
26	0x3d1696eb	0.03676502
27	0xbc52dcb1	-0.01287
28	0x3dd7e853	0.10542359
29	0x3d73a4c4	0.059483305
30	0xbe7543b6	-0.23951611
31	0x3d27c756	0.040961586
32	0xbde23a29	-0.110462494
33	0xbe063002	-0.13104251
34	0x3dc501a5	0.09619454
35	0x3d51d439	0.051227782
36	0x3d2fad4a	0.04288987
37	0xbdf365db	-0.11884662
38	0x3dec799e	0.11546634
39	0x3e7056fd	0.23470683
40	0x3cfc15c0	0.03077209
41	0x3dd262f1	0.10272778
42	0xbe605933	-0.21909027
43	0x3e17b61c	0.14815563
44	0x3db1e519	0.08686275
45	0x3de58d7e	0.11208628
46	0x3dd5bcc6	0.10436396
47	0xbd8714a6	-0.06595735

gnn_base.gnn.gnn1.lin_query.weight f4 [48, 16]
0	0xbd0a200e	-0.033721976
1	0x3e0e0c22	0.13871816
2	0x3f046ff2	0.51733315
3	0xbec81356	-0.39077252
4	0x3eccb23f	0.3997974
5	0x3e20d075	0.1570452
6	0x3ee6e12b	0.45093665
7	0xbf02e28e	-0.51126945
8	0xbe6be6f6	-0.23037323
9	0x3e812ca3	0.25229368
10	0x3e109f34	0.14123231
11	0xbe82a59b	-0.25516972
12	0x3e9b1e21	0.30296424
13	0xbefa1302	-0.48842627
14	0x3de4ede1	0.11178184
15	0x3e84777d	0.25872412
16	0x3d0d0984	0.034432903
17	0xbe4707c0	-0.1943655
18	0xbe3244e1	-0.17409088
19	0xbe4354f1	-0.19075371
20	0xbe1ba5b0	-0.15199924
21	0x3ec6e02b	0.38842902
22	0xbe78e8f8	-0.2430762
23	0xbd8518a8	-0.064988434
24	0x3eb6e61c	0.35722435
25	0xbf0bb39f	-0.54570955
26	0x3ce6d131	0.028175922
27	0x3e09d5f8	0.13460529
28	0x3d2fae12	0.042890616
29	0x3e8da86f	0.27667567
30	0xbe119eeb	-0.14220779
31	0x3dd5c83e	0.10438584
32	0xbebefbea	-0.3730157
33	0x3e16e3df	0.14735363
34	0x3e012787	0.12612735
35	0xbe810baa	-0.2520421
36	0x3dcc9c7e	0.09990786
37	0x3e17d8f9	0.14828862
38	0x3e1b49ca	0.15164867
39	0xbda8c326	-0.082403466
40	0x3e555df0	0.20836616
41	0xbe5d6a2d	-0.21622534
42	0x3f28df18	0.65965414
43	0xbd6647b0	-0.05622071
44	0xbd7cd7fa	-0.06172941
45	0xbd118d11	-0.035534922
46	0x3e6fa70a	0.23403564
47	0x3d153d48	0.036435395
48	0x3e8139ed	0.25239506
49	0xbe74d8c0	-0.23910809
50	0x3ecaf06e	0.39636558
51	0xbe0b40c3	-0.13598923
52	0x3dc81bd0	0.0977093
53	0x3d1bc525	0.03802981
54	0x3f4f4af0	0.8097372
55	0x3de95177	0.11392491
56	0x3cf66a1f	0.0300799
57	0x3e035fbb	0.12829487
58	0xbdf3b9a3	-0.11900642
59	0x3e3a7f50	0.18212628
60	0x3f0ef9f2	0.55850136
61	0xbe5bf782	-0.21481135
62	0xbe8c476c	-0.2739824
63	0x3ece457c	0.40287387
64	0xbeb3a51e	-0.35086912
65	0x3d815c57	0.063164406
66	0xbee70b07	-0.451256
67	0xbd76ed67	-0.060285
68	0xbece57dd	-0.4030141
69	0x3ed122a4	0.4084674
70	0xbe9fc93f	-0.31208226
71	0xbe39b2e4	-0.18134648
72	0x3e046a50	0.1293118
73	0xbdf7f6c7	-0.12107616
74	0xbcc3952a	-0.023874838
75	0xbe9216f0	-0.28533125
76	0xbe9037fd	-0.28167716
77	0xbd4b34fd	-0.04961108
78	0xbcbcd5a4	-0.02305109
79	0x3bd73dea	0.00656866
80	0xbe07f0f2	-0.13275507
81	0x3e6437d9	0.22286929
82	0xbe2480ea	-0.16064802
83	0x3eaea99d	0.3411378
84	0x3d8f2e65	0.06991271
85	0xbec184b4	-0.37796557
86	0x3e12a751	0.14321639
87	0x3e1474a9	0.14497627
88	0xbe3af279	-0.18256558
89	0xbd6decbc	-0.058087096
90	0x3d14cdbe	0.036329024
91	0xbdf29ea7	-0.11846667
92	0xbe54e270	-0.20789504
93	0xbe13d7b2	-0.1443775
94	0x3dc2ba21	0.095081575
95	0xbe5d8e07	-0.2163621
96	0xbe53a68a	-0.20668998
97	0xbbaaa3a0	-0.005207494
98	0x3f25a8d7	0.64710754
99	0xbe377eb1	-0.17919423
100	0xbebb1b31	-0.36544183
101	0xbebe794f	-0.37201926
102	0x3e881be4	0.2658378
103	0xbda22f7b	-0.079192124
104	0xbe617687	-0.22017871
105	0x3e170583	0.14748196
106	0x3ec92fd2	0.39294297
107	0xbe7516df	-0.23934506
108	0x3e859991	0.26093724
109	0xbf1408d9	-0.57826
110	0x3ebf9f03	0.37426004
111	0x3db7e12e	0.089784965
112	0xbd9c6279	-0.0763597
113	0xbdb0cfc3	-0.086333774
114	0x3e7c5b92	0.24644306
115	0x3d218213	0.03943069
116	0x3e791ec4	0.24328142
117	0xbe72fdf8	-0.23729694
118	0xbebe4577	-0.37162372
119	0xbdb76c8b	-0.0895625
120	0xbcdf8a9f	-0.02728778
121	0xbe779f32	-0.24181822
122	0xbd5110fa	-0.05104158
123	0x3e4e85e3	0.20168261
124	0xbe8e63bc	-0.27810466
125	0x3e900f07	0.28136465
126	0x3f08d0d4	0.53443646
127	0x3c5e6c39	0.013575607
128	0xbddc8fe2	-0.10769631
129	0xbdcfe068	-0.10150224
130	0x3c25a3e6	0.010109877
131	0xbd895a7a	-0.0670671
132	0xbb9081e6	-0.0044100164
133	0x3ebd8139	0.37012652
134	0xbe342c0d	-0.17594929
135	0xbe98e78d	-0.2986416
136	0x3dfe586c	0.12419209
137	0xbef71c4a	-0.4826377
138	0xbed14658	-0.4087398
139	0x3d2bc485	0.041935463
140	0x3e30a22b	0.17249362
141	0x3ead5c8c	0.3385967
142	0xbe5fd595	-0.21858819
143	0x3e8c5365	0.27407375
144	0x3e4643c9	0.19361795
145	0x3dac192c	0.08403239
146	0xbce52be2	-0.027975027
147	0x3e884c90	0.26620913
148	0xbd02d2fa	-0.031939484
149	0x3c193fc5	0.009353583
150	0xbf0f797c	-0.56044745
151	0xbdb73809	-0.08946235
152	0xbdd6204f	-0.10455381
153	0xbe578f1f	-0.2105069
154	0x3e9617af	0.29314944
155	0x3dfed374	0.12442675
156	0x3dcd8bec	0.100364536
157	0x3e92f872	0.28705174
158	0xbe0d0eb6	-0.13775143
159	0x3e41b392	0.18916157
160	0x3dce066d	0.10059819
161	0xbc493e22	-0.01228288
162	0x3dcd63d3	0.100288056
163	0x3e691ca8	0.22764838
164	0xbd3a83f0	-0.04553598
165	0x3e9bad7e	0.30405802
166	0x3e975b6c	0.29561937
167	0xbc1d262a	-0.009591619
168	0x3e9699e2	0.29414278
169	0xbae7d075	-0.0017686026
170	0xbe90d538	-0.28287673
171	0xbd048d19	-0.032361124
172	0x3dd0b143	0.1019006
173	0xbd1eea42	-0.038797624
174	0xbe8b047c	-0.2715186
175	0x3d8d4cd0	0.068994164
176	0x3dc9d49a	0.09855004
177	0x3daf4ef0	0.08559978
178	0x3e1f2a2b	0.1554343
179	0x3a9f7a79	0.0012167237
180	0xbe040f41	-0.12896444
181	0x3ce60984	0.02808071
182	0xbe870dda	-0.26377755
183	0xbe3fe106	-0.18738183
184	0x3e02df9c	0.12780613
185	0x3e0cee34	0.13762742
186	0x3ec912b5	0.39272085
187	0x3e7f9b79	0.24961652
188	0xbe997359	-0.29970816
189	0xbe978cfb	-0.29599747
190	0xbd9ff2da	-0.07809992
191	0xbeb54226	-0.3540203
192	0xbe373194	-0.17890006
193	0xbe394d26	-0.18095836
194	0xbea0d604	-0.3141328
195	0x3da769b3	0.081744574
196	0xbef5994e	-0.47968525
197	0x3f0fb860	0.5614071
198	0xbecaca06	-0.39607257
199	0xbe2ee502	-0.17079547
200	0x3dad887b	0.08473297
201	0x3d848cd5	0.06472174
202	0x3df454a0	0.119302034
203	0xbdeb02d7	-0.11475151
204	0xbce715a9	-0.02820857
205	0x3dcb9500	0.09940529
206	0xbedb6372	-0.42849308
207	0xbdbdf260	-0.09274745
208	0x3e36fa50	0.17868924
209	0xbebb785e	-0.3661527
210	0xbd80453e	-0.06263207
211	0x3eec8803	0.4619752
212	0xbcbc0627	-0.022952152
213	0xbe3da1f0	-0.18518806
214	0xbdebc14d	-0.115114786
215	0x3d9760e5	0.07391528
216	0xbd9825d8	-0.07429093
217	0xbc349d9d	-0.011023906
218	0xbd35748d	-0.044300605
219	0xbe92d1ef	-0.28675792
220	0xbe333ae4	-0.17502934
221	0xbbe0b08a	-0.0068569826
222	0x3df2c67c	0.11854264
223	0x3eb54391	0.35403112
224	0x3e9e5901	0.3092728
225	0x3d77e230	0.060518444
226	0x3d46f7b0	0.048576057
227	0x3f14ca42	0.5812112
228	0xbe8a7fd2	-0.27050644
229	0xbee47170	-0.44617796
230	0x3cbc7878	0.023006663
231	0x3d363b68	0.044490248
232	0x3d069b97	0.032863226
233	0xbe5177e6	-0.20455894
234	0xbdff0984	-0.12452987
235	0x3beec1cf	0.0072862874
236	0x3ee9ec80	0.45688248
237	0xbee82abf	-0.45345113
238	0x3d40d1da	0.04707513
239	0x3ea127e8	0.3147576
240	0xbe5f0957	-0.21780907
241	0x3db6c2a2	0.08923842
242	0xbdbfbc93	-0.093621396
243	0xbea336de	-0.31877798
244	0x3cdc7323	0.02691037
245	0x3eccbe2e	0.39988846
246	0xbefb74f3	-0.49112663
247	0xbe831b2d	-0.2560667
248	0x3de2f53a	0.110819295
249	0xbde2ea43	-0.11079838
250	0xbd9c2288	-0.07623774
251	0xbde29bd9	-0.11064882
252	0xbe4269c1	-0.18985654
253	0x3e93c0e2	0.28858095
254	0xbd9d787b	-0.076889955
255	0x3cba1322	0.022714201

gnn_base.gnn.gnn1.lin_query.bias f4 [48]
0	0xbc0ea4e0	-0.008706301
1	0xbdaae331	-0.083441146
2	0x3e617709	0.22018065
3	0xbe480ce5	-0.19536169
4	0x3c94f0b5	0.018181184
5	0x3e791fad	0.2432849
6	0x3dcb2ce5	0.09920672
7	0x3d0a33c6	0.03374078
8	0x3d0d773e	0.034537546
9	0xbdc010f9	-0.09378237
10	0xbd30e96c	-0.04319136
11	0x3ea9c1b4	0.33155596
12	0x3e670a36	0.22562489
13	0xbea01da7	-0.31272623
14	0xbe9c7233	-0.30555877
15	0xbde198bf	-0.11015462
16	0xbef9f75a	-0.48821527
17	0xbdea9ce1	-0.114557035
18	0xbee68422	-0.45022684
19	0xbeca3eb3	-0.3950096
20	0xbcab991f	-0.020947037
21	0xbdbbaf6b	-0.09164318
22	0x3a69227c	0.0008893383
23	0xbe42e7b7	-0.19033705
24	0xbe878217	-0.26466438
25	0x3dd6b7d2	0.1048428
26	0xbe880345	-0.26564994
27	0x3e09984f	0.13437007
28	0x3ea1be7a	0.31590635
29	0xbdb48de1	-0.08816124
30	0xbd7cd0a2	-0.061722405
31	0x3ecadc06	0.3962099
32	0xbe4b04bc	-0.19826025
33	0xbe24df8f	-0.16100906
34	0x3df19cb6	0.11797468
35	0x3e4f796b	0.20261161
36	0xbe325378	-0.17414653
37	0x3e9e52a0	0.30922413
38	0x3e65331f	0.22382782
39	0xbe843d86	-0.2582819
40	0xbe3fae0d	-0.18718739
41	0x3ec188cf	0.3779969
42	0xbdd2dc21	-0.102958925
43	0xbe69ce39	-0.22832574
44	0x3da314e6	0.079629704
45	0x3d53a633	0.05167217
46	0xbce446ea	-0.027865846
47	0x3eab8823	0.33502302

gnn_base.gnn.gnn1.lin_value.weight f4 [48, 16]
0	0xbe0807ae	-0.1328418
1	0x3e6be27d	0.23035617
2	0xbeeda77b	-0.4641684
3	0x3ea281f2	0.31739765
4	0x3c982078	0.01857017
5	0xbd9ab5a4	-0.075541764
6	0x3e80f6c9	0.25188282
7	0xbe00a9ea	-0.12564817
8	0xbd8d9239	-0.069126554
9	0x3b9675dd	0.004591687
10	0xbd5fdcf6	-0.054654084
11	0xbe454ab3	-0.19266777
12	0xbc8c7891	-0.017147334
13	0x3ebfbfee	0.37451118
14	0x3edb7777	0.42864582
15	0x3e85690a	0.260567
16	0xbde73fa9	-0.11291439
17	0xbe4bb5de	-0.19893596
18	0xbe04e11b	-0.12976496
19	0xbd2c27a0	-0.042029977
20	0x3e3bf31f	0.18354462
21	0x3dec9ad0	0.11552966
22	0xbd91c57d	-0.07117746
23	0x3bfbd1d2	0.0076849246
24	0xbcd5cf12	-0.026099715
25	0x3eb80d60	0.35947704
26	0xbd8030a4	-0.062592775
27	0x3cc068bc	0.023487441
28	0xbca5ceed	-0.020240271
29	0x3eb58bc1	0.35458186
30	0xbda10658	-0.07862538
31	0xbda1e58a	-0.07905109
32	0x3c823992	0.015896592
33	0x3df04b1f	0.11733078
34	0xbe282e64	-0.16423947
35	0xbd2604df	-0.04053199
36	0x3dd5a202	0.10431291
37	0x3d0f8eaf	0.035048183
38	0xbd67b6e6	-0.05657091
39	0x3ed2da4d	0.41182175
40	0xbeadf697	-0.33977196
41	0x3d7bf033	0.06150837
42	0x3ea263d7	0.31716797
43	0x3e5dd653	0.2166379
44	0x3dd051db	0.10171863
45	0xbee83fdc	-0.4536122
46	0x3e07794c	0.13229865
47	0x3d8ee659	0.06977529
48	0xbd182461	-0.03714407
49	0xbe44c789	-0.19216742
50	0x3d460d19	0.048352335
51	0x3ee4d1f7	0.4469144
52	0xbd4537c2	-0.048148878
53	0xbe86dec6	-0.26341838
54	0x3cd17b0d	0.02557137
55	0xbe4b8cba	-0.19877902
56	0xbc4390be	-0.011936365
57	0x3e4baa70	0.19889235
58	0x3e4cee74	0.20012838
59	0xbeab613a	-0.33472615
60	0xbe92e117	-0.28687355
61	0x3d83330a	0.06406219
62	0x3e90f0f4	0.28308833
63	0xbe15228f	-0.14563964
64	0x3d70768f	0.058706816
65	0xbdf68f8c	-0.12039098
66	0x3e69ea6b	0.2284333
67	0xbb2ced73	-0.0026386648
68	0x3c5532da	0.013012612
69	0xbef4d50f	-0.478188
70	0xbed96811	-0.4246221
71	0x3dc63edc	0.09679958
72	0xbdc986fe	-0.09840201
73	0x3db97e87	0.09057336
74	0x3df623b2	0.12018527
75	0xbec322b6	-0.3811242
76	0x3e5d04cb	0.2158386
77	0x3eb20081	0.3476601
78	0x3df57dbe	0.11986874
79	0x3e43a1b6	0.19104657
80	0x3dd66b51	0.10469688
81	0xbc222325	-0.009896074
82	0x3e97fb97	0.29684135
83	0xbe3d90ca	-0.18512264
84	0x3e89c61d	0.2690896
85	0xbe856801	-0.2605591
86	0x3a255c30	0.00063079875
87	0xbda6d883	-0.08146765
88	0xbcdd8e35	-0.027045349
89	0x3af873a8	0.0018955367
90	0x3e196e62	0.14983514
91	0x3eb02d73	0.34409675
92	0xbe3f3c64	-0.18675381
93	0x3c476c0b	0.012171756
94	0x3e6f2768	0.23354876
95	0x3ea27027	0.3172619
96	0x3f0a81fe	0.541046
97	0x3e66d0f1	0.22540642
98	0x3db4a419	0.08820362
99	0xbf3ef644	-0.7459452
100	0xbce2299b	-0.02760773
101	0x3d7ba7b3	0.061439227
102	0xbed6762b	-0.4188703
103	0x3e1f35e1	0.15547897
104	0x3e85e244	0.2614919
105	0x3d73e5f1	0.05954546
106	0xbd069fee	-0.032867365
107	0xbdfd85e2	-0.12379052
108	0x3d9ebeb4	0.077512175
109	0x3f014832	0.50500786
110	0x3d5da40d	0.05411153
111	0xbcdd5f13	-0.027022874
112	0x3c669bf8	0.014075272
113	0xbdd453eb	-0.103675686
114	0x3e41c16c	0.18921441
115	0xbdf13a11	-0.117786534
116	0x3e5ea672	0.21743181
117	0xbddf8e8d	-0.10915861
118	0xbe427888	-0.18991292
119	0xbe1dcdf0	-0.1541059
120	0x3de9ace2	0.11409928
121	0xbebd2994	-0.36945784
122	0xbd345598	-0.04402694
123	0x3e1f6625	0.15566309
124	0xbe865616	-0.26237553
125	0x3e126f54	0.14300281
126	0x3dbe5a7f	0.092946045
127	0xbe701398	-0.23444974
128	0x3e07eb2b	0.13273303
129	0x3dc23f8e	0.09484778
130	0x3eada8ef	0.3391795
131	0x3e107d64	0.14110333
132	0x3f0786ab	0.5293986
133	0xbe9d1cb1	-0.30685952
134	0xbe06b339	-0.13154306
135	0x3e6b164a	0.22957721
136	0xbe02c76d	-0.12771387
137	0xbedfdc87	-0.43722937
138	0xbe88dc2d	-0.2673048
139	0x3e8febcf	0.28109595
140	0x3e2cd408	0.16877759
141	0xbe056f78	-0.13030803
142	0xbcda1a5d	-0.0266239
143	0x3e9159b2	0.28388745
144	0xbe434271	-0.19068314
145	0xbf2769e1	-0.65395933
146	0xbdb4b36c	-0.088232845
147	0x3e400e91	0.18755557
148	0x3e6630ad	0.22479506
149	0x3ea59227	0.32338068
150	0x3cfd8b83	0.030950313
151	0xbf215653	-0.63022345
152	0xbe78fe4f	-0.24315761
153	0xbe98bdda	-0.29832345
154	0x3daf712f	0.0856651
155	0x3ea9f6aa	0.33196002
156	0x3cecb534	0.028894998
157	0x3e77ce31	0.2419975
158	0xbdadbed0	-0.0848366
159	0xbdb05c39	-0.0861134
160	0x3e194a37	0.14969717
161	0x3a15d6b7	0.0005715894
162	0x3e6124e7	0.21986733
163	0x3d24bbce	0.040218167
164	0x3eed4b63	0.46346578
165	0xbea2c6d2	-0.31792313
166	0xbdfafb1c	-0.122549266
167	0x3edd65b2	0.4324165
168	0xbde89191	-0.113558896
169	0xbe1bc562	-0.15212014
170	0xbe69e7bc	-0.22842306
171	0xbe07bbcc	-0.13255233
172	0xbde95628	-0.11393386
173	0x3d72f1d7	0.059312668
174	0x3e8313c6	0.25601023
175	0x3dc0ae44	0.094082385
176	0x3e1e7863	0.15475611
177	0xbbafa96d	-0.0053607733
178	0xbef9acd4	-0.4876467
179	0x3e94a616	0.29032964
180	0x3ead9a91	0.33906987
181	0xbe0f48f9	-0.1399268
182	0xbdec56b7	-0.11539977
183	0x3dfdca3a	0.12392087
184	0x3ea14b5f	0.31502816
185	0xbe901de0	-0.28147793
186	0xbe950c87	-0.2911112
187	0x3d149d59	0.03628287
188	0x3e00f3aa	0.1259295
189	0xbe1d3210	-0.15351129
190	0xbd9e1be8	-0.077201664
191	0x3e6d5149	0.23175539
192	0x3d1fe45b	0.039036136
193	0x3eff7055	0.4989039
194	0xbe4bb1a9	-0.1989199
195	0xbd34f7cc	-0.04418163
196	0x3e901d81	0.2814751
197	0x3de17f79	0.110106416
198	0x3eeb5893	0.45966014
199	0xbe47116b	-0.19440238
200	0x3d2b956a	0.04189054
201	0x3e2f313e	0.17108628
202	0xbd520ee4	-0.051283732
203	0x3dab36b4	0.08360043
204	0x3dfca120	0.1233542
205	0xbeb1088f	-0.34576842
206	0xbe889f85	-0.26684204
207	0x3edbbd1d	0.4291772
208	0x3e3e6afc	0.18595499
209	0x3d567dd5	0.052366097
210	0xbeb81653	-0.35954532
211	0xbe84a237	-0.2590501
212	0x3d4e4f42	0.050368555
213	0xbd52c410	-0.05145651
214	0x3e3e5695	0.18587716
215	0x3d0716cd	0.03298073
216	0xbdbfd624	-0.09367016
217	0x3d86976e	0.06571852
218	0x3ec8d575	0.39225355
219	0xbd4948b9	-0.04914162
220	0xbd74c418	-0.059757322
221	0x3ee98d42	0.45615584
222	0xbdbc3aac	-0.09190878
223	0xbe249d5f	-0.16075657
224	0xbe34592a	-0.17612138
225	0x3e0790c9	0.13238825
226	0xbe01fd9e	-0.12694404
227	0x3ea6d0ee	0.32581276
228	0xbe97f912	-0.29682213
229	0xbd89047a	-0.06690307
230	0x3e5430c2	0.20721725
231	0x3e236fa9	0.15960564
232	0xbe65b571	-0.22432496
233	0x3e215a13	0.15757017
234	0x3ddd2d7f	0.10799693
235	0xbe6d0655	-0.23146947
236	0xbe7067af	-0.23477052
237	0xbe3588de	-0.17727992
238	0xbd517e11	-0.051145617
239	0xbe0400cd	-0.1289093
240	0x3d910c40	0.070824146
241	0x3e9385f6	0.28813142
242	0xbf00331a	-0.50077975
243	0x3dd1db7e	0.10246943
244	0x3deb5882	0.11491491
245	0x3eda08cc	0.42584836
246	0x3e77c938	0.24197853
247	0x3cbfdfed	0.023422206
248	0xbcb00e8e	-0.021491315
249	0xbdf1ad9b	-0.11800691
250	0xbeb34302	-0.3501206
251	0x3e164653	0.14675264
252	0xbec43129	-0.38318756
253	0x3e59b61c	0.21260875
254	0xbdcaf8d0	-0.099107385
255	0xbe656c77	-0.22404657

gnn_base.gnn.gnn1.lin_value.bias f4 [48]
0	0x3ea035fd	0.3129119
1	0x3e048244	0.12940317
2	0xbe6b3b5a	-0.2297186
3	0x3d96de97	0.073666744
4	0x3e580d64	0.21098858
5	0xbd01f524	-0.031727925
6	0x3e823ffc	0.2543944
7	0x3bf07562	0.007338212
8	0xbdfc3dc9	-0.12316472
9	0x3e54d366	0.20783767
10	0x3d10aacf	0.035319146
11	0x3cefb443	0.02926076
12	0xbe72cd3e	-0.23711106
13	0xbecd32d5	-0.40077844
14	0x3e0fcaeb	0.14042251
15	0xbd0895d7	-0.033346023
16	0x3e8bdb1e	0.2731561
17	0xbe1ab03b	-0.15106289
18	0xbe27d847	-0.16391097
19	0x3d77e053	0.060516667
20	0xbde828d9	-0.11335916
21	0x3da2ee9c	0.079556674
22	0x3e70ca7c	0.23514742
23	0x3e52e108	0.20593655
24	0x3ce351fd	0.027749056
25	0xbe3ab612	-0.18233517
26	0xbe0c5745	-0.13705166
27	0xbd4fe61a	-0.05075655
28	0xbe1ef1d7	-0.15521942
29	0xbdd60733	-0.10450592
30	0xbdc03b64	-0.09386328
31	0x3dafaddb	0.08578082
32	0x3e9d13b4	0.30679095
33	0x3e9c37c8	0.30511308
34	0x3d0aecbf	0.033917185
35	0xbdce4071	-0.10070885
36	0xbd4588c0	-0.048226118
37	0xbe570ff2	-0.21002176
38	0x3e18aa67	0.14908753
39	0xbd05c64d	-0.032659817
40	0x3dbe0095	0.09277455
41	0x3df02f45	0.11727766
42	0xbdfe35b9	-0.124125905
43	0xbd97c2a5	-0.074101724
44	0xbe013626	-0.12618312
45	0xbe2c00c4	-0.16797167
46	0xbe4520ee	-0.19250843
47	0xbdeddf52	-0.116148606

gnn_base.gnn.gnn1.lin_edge.weight f4 [48, 1]
0	0x3f338dc2	0.7013818
1	0x3f323c72	0.6962348
2	0xbf3ec7f0	-0.7452383
3	0x3f42d3ab	0.7610423
4	0xbed33c49	-0.4125693
5	0x3f599089	0.8498617
6	0xbf235dd9	-0.63815075
7	0x3ee10a40	0.43953133
8	0x3e8055d4	0.25065482
9	0x3e5bb3aa	0.21455255
10	0x3f15a37f	0.584526
11	0x3f486bd8	0.78289557
12	0xbf894cd2	-1.0726569
13	0xbd920c1f	-0.07131218
14	0x3f573592	0.84066117
15	0xbf05c3f8	-0.5225215
16	0x3f45d0df	0.77271837
17	0x3f7eb490	0.99494267
18	0xbf751189	-0.9572988
19	0x3f00c360	0.5029812
20	0xbf7631e3	-0.9616987
21	0x3f23efa9	0.6403757
22	0xbf8f6d89	-1.1205302
23	0xbf69680c	-0.9117439
24	0xbdd35d57	-0.103205375
25	0xbf1b9ae5	-0.60783225
26	0xbd925166	-0.07144432
27	0xbedae866	-0.4275543
28	0x3e35970e	0.17733404
29	0xbeb897f0	-0.3605342
30	0xbf2dc6bc	-0.6788137
31	0xbf24a28f	-0.64310545
32	0x3e3eca8a	0.1863195
33	0x3f3040ff	0.68849176
34	0xbf2e958c	-0.6819694
35	0xbf26deea	-0.6518389
36	0x3ed92e49	0.42418125
37	0xbf1a3a9a	-0.6024567
38	0xbf77fd10	-0.9687052
39	0xbfd6aba9	-1.6771137
40	0xbf22595a	-0.6341759
41	0xbef7debc	-0.4841212
42	0x3d8b34bd	0.067971684
43	0x3f3f71e9	0.7478319
44	0x3e8fe28c	0.2810253
45	0xbf8dbc12	-1.107302
46	0x3f94335a	1.1578171
47	0xbfa0f2b6	-1.257407

gnn_base.gnn.gnn1.lin_skip.weight f4 [16, 16]
0	0xbd29ef28	-0.041487843
1	0x3ccff6ac	0.025386177
2	0x3e1ee33d	0.15516372
3	0x3c03fd89	0.008056053
4	0xbe656017	-0.22399937
5	0xbed0526b	-0.4068788
6	0xbe659289	-0.2241918
7	0xbd57e70e	-0.052710585
8	0x3d82c107	0.06384473
9	0xbb3dc0e1	-0.0028954076
10	0x3e8ff3d1	0.28115705
11	0x3d5b3632	0.05351848
12	0x3df511e3	0.11966302
13	0xbf347807	-0.7049565
14	0xbc2f3300	-0.010693312
15	0x3e8788b4	0.26471484
16	0x3e915863	0.28387746
17	0x3dcc4c11	0.09975446
18	0xbebc3eb4	-0.3676659
19	0xbe366a1d	-0.17813917
20	0x3e895947	0.26825926
21	0xbf02c914	-0.5108807
22	0x3e1418e2	0.14462617
23	0xbdcbc82d	-0.0995029
24	0x3d81c5dc	0.06336567
25	0xbee9d98e	-0.45673794
26	0xbe4fe68c	-0.2030279
27	0x3eb8e3f6	0.3611142
28	0xbd57b695	-0.05266436
29	0xbc0c5b59	-0.008566701
30	0xbe0278c1	-0.12741376
31	0x3db3c217	0.08777254
32	0xbd9e93b1	-0.07743014
33	0xbd4694e1	-0.048481826
34	0x3d3e954d	0.046529103
35	0xbc3fc515	-0.011704703
36	0xbd2eb9b8	-0.042657584
37	0x3ec322d9	0.38112524
38	0xbe2197bc	-0.15780538
39	0x3d72b7c7	0.059257295
40	0xbe18b870	-0.14914107
41	0xbe6002ee	-0.21876118
42	0xbc39dddd	-0.0113444
43	0xbdd1651c	-0.10224363
44	0xbd168d3b	-0.03675578
45	0xbe51e3e8	-0.20497096
46	0xbd2f0743	-0.042731535
47	0xbdded93b	-0.10881277
48	0x3e54ba81	0.2077427
49	0xbc6d3ca4	-0.01447979
50	0x3e1197a0	0.14217997
51	0x3e289803	0.16464238
52	0x3e3f5760	0.18685675
53	0x3d27d4e2	0.040974505
54	0xbb8c2401	-0.004276753
55	0xbe093404	-0.13398749
56	0x3ea495b6	0.3214547
57	0xbe02324b	-0.12714498
58	0xbe559871	-0.20858933
59	0x3de45c93	0.1115047
60	0x3d0bb06f	0.034103807
61	0x3e82ccce	0.2554688
62	0xbe0356f1	-0.12826134
63	0xbdd3956d	-0.10331235
64	0x3e1e4e6a	0.154596
65	0xbd4f168b	-0.050558608
66	0xbe591462	-0.21199182
67	0x3ed043af	0.40676638
68	0x3e399528	0.18123305
69	0xbde0ff53	-0.10986199
70	0xbe1e377b	-0.15450852
71	0xbf12e9ef	-0.57388204
72	0xbe4274db	-0.1898989
73	0xbdb8ca20	-0.09022927
74	0xbe9004ee	-0.2812876
75	0xbe07eb4d	-0.13273354
76	0x3eafa2ec	0.34303987
77	0x3e6b226f	0.22962354
78	0x3ef4866d	0.4775881
79	0x3e1720fd	0.14758678
80	0xbdd38df7	-0.10329812
81	0x3de4c267	0.11169892
82	0xbec4fb62	-0.3847304
83	0xbea41a9d	-0.32051554
84	0x3eb1baa8	0.3471272
85	0xbd62c2db	-0.05536161
86	0xbdae452b	-0.085092865
87	0x3e0c6c0d	0.13713093
88	0xbdc5b51c	-0.096536845
89	0x3d9698d2	0.07353367
90	0xbd172319	-0.036898706
91	0x3e060f9e	0.13091895
92	0xbe49b36c	-0.1969735
93	0x3e66cb55	0.22538503
94	0xbf04814e	-0.51759803
95	0xbe6be5d1	-0.23036887
96	0x3eb89dd6	0.3605792
97	0xbe7a861f	-0.24465226
98	0x3e9889c4	0.29792607
99	0x3e069ce2	0.13145784
100	0x3db65086	0.089020774
101	0xbe225edb	-0.15856497
102	0xbe5cba7a	-0.2155551
103	0x3e9caf3b	0.3060244
104	0x3dcb3f96	0.099242374
105	0x3b9f32cb	0.00485835
106	0xbca02b28	-0.019551829
107	0xbe423003	-0.18963628
108	0xbd975fcb	-0.07391318
109	0x3e273a74	0.16330892
110	0x3e2d53e5	0.16926534
111	0xbeb2a81f	-0.3489389
112	0xbe07e207	-0.13269816
113	0xbd618a3e	-0.05506348
114	0x3e03e003	0.12878422
115	0x3c54ae9b	0.012981082
116	0x3edaf747	0.42766783
117	0xbf288344	-0.65825295
118	0xbf0514fc	-0.51985145
119	0x3ed25c7c	0.41086185
120	0xbdd08e96	-0.10183446
121	0xbceaf3a3	-0.028680628
122	0x3ec2ef43	0.38073167
123	0x3e984535	0.297403
124	0x3b7fba32	0.0039020893
125	0xbe588a64	-0.21146542
126	0xbdcf9977	-0.10136693
127	0x3d49fdd7	0.049314346
128	0x3e4408c2	0.19143966
129	0xbec6d261	-0.3883238
130	0xbd30ebb3	-0.04319353
131	0x3db92a2e	0.09041248
132	0xbe2b8bc9	-0.16752543
133	0x3eaf4e61	0.34239486
134	0x3ea3192a	0.31855136
135	0x3e65b858	0.22433603
136	0x3dc08bbf	0.094016545
137	0xbdf698de	-0.12040876
138	0x3e8b3185	0.27186218
139	0x3a486110	0.0007643858
140	0xbe39af84	-0.1813336
141	0xbf318fff	-0.69360346
142	0x3deebdbd	0.116572835
143	0x3df93a0c	0.12169275
144	0x3e36bdbc	0.17845815
145	0xbeeb245f	-0.45926186
146	0x3d80b853	0.06285157
147	0xbe925428	-0.2857983
148	0x3e089d7c	0.13341326
149	0x3ebddb60	0.37081432
150	0xbe100815	-0.14065583
151	0x3d7f4de5	0.062330145
152	0xbd9cb640	-0.07651949
153	0xbeb63fd2	-0.35595566
154	0x3eb82624	0.359666
155	0x3eb555db	0.35417065
156	0x3ecd2126	0.40064353
157	0xbe977bbf	-0.29586598
158	0x3d82264a	0.06354959
159	0x3e607f06	0.21923456
160	0x3e24c98a	0.16092506
161	0x3da4e397	0.08051222
162	0xbdf63073	-0.1202096
163	0x3e39e66a	0.18154302
164	0x3d764641	0.060125593
165	0xbe3174f4	-0.1732977
166	0x3d60216d	0.054719377
167	0x3e13f934	0.14450532
168	0x3e451bd2	0.19248894
169	0x3edf6250	0.43629694
170	0xbe21ee2b	-0.1581351
171	0xbe0669cf	-0.131263
172	0xba9082fd	-0.0011025366
173	0xbf083cf5	-0.53218013
174	0xbed3ea7f	-0.41389844
175	0x3daae950	0.08345282
176	0x3e02a644	0.12758738
177	0x3f01270b	0.504502
178	0xbe7960e6	-0.2435337
179	0x3d788db5	0.060682017
180	0x3e265328	0.16242659
181	0x3d970b99	0.07375259
182	0x3ed0bbea	0.40768367
183	0x3e5042f9	0.20338048
184	0x3f2c764a	0.67367995
185	0xbe887ae1	-0.2665625
186	0xbf265d66	-0.64986265
187	0xbd279d93	-0.04092176
188	0x3ea9158e	0.33024257
189	0x3e1809c9	0.14847483
190	0xbd11ebfe	-0.03562545
191	0x3e584fa3	0.21124129
192	0xbc862da2	-0.016379181
193	0xbf0fb261	-0.5613156
194	0x3e2494a0	0.16072321
195	0xbe5e6f62	-0.21722177
196	0x3cbec269	0.023286061
197	0x3ea88e9c	0.32921302
198	0x3e5fab54	0.218427
199	0x3dcda00f	0.100402944
200	0x3ced4fa1	0.028968634
201	0xbe230913	-0.1592143
202	0x3cf6fcb7	0.0301498
203	0xbdf237ca	-0.11827047
204	0x3e93c7fc	0.28863513
205	0x3ed62723	0.41826734
206	0x3e275d15	0.16344102
207	0x3e9188ca	0.28424674
208	0xbe401b6f	-0.18760465
209	0x3daa2e82	0.08309652
210	0xbe9ec322	-0.3100825
211	0xbf0406a0	-0.5157261
212	0x3e46dc71	0.19420029
213	0x3e490570	0.1963098
214	0x3db595f0	0.08866489
215	0xbe673e32	-0.2258232
216	0x3e5ad50d	0.21370335
217	0x3e44b0b0	0.19208026
218	0x3e43cafb	0.191204
219	0x3dfee2e6	0.12445621
220	0x3e414abc	0.18876165
221	0xbce7c75f	-0.02829331
222	0xbcd4aac3	-0.025960332
223	0xbda0f054	-0.07858339
224	0x3d9f91f6	0.07791512
225	0xbe1f49f1	-0.1555555
226	0x3e372880	0.17886543
227	0xbe4eda5d	-0.20200486
228	0x3cd3644e	0.025804665
229	0xbe6399b5	-0.22226603
230	0x3e6bcc16	0.23027071
231	0x3e82f660	0.25578594
232	0xbe916b20	-0.28402042
233	0xbdb7a269	-0.08966524
234	0xbbf2eb12	-0.0074132765
235	0x3eb4bfea	0.3530267
236	0xbe29fef9	-0.1660117
237	0xbdb7fb36	-0.089834616
238	0x3e5b5d1b	0.21422236
239	0x3e7ff912	0.24997357
240	0xbe52ceb5	-0.20586665
241	0xbef95888	-0.48700356
242	0x3eb6f02d	0.35730115
243	0xbe5c096c	-0.21487969
244	0x3dbef96a	0.09324916
245	0x3ec4f84d	0.38470688
246	0xbe02f20e	-0.12787649
247	0xbf13b0b8	-0.57691526
248	0x3da73c3c	0.08165786
249	0x3c8ee938	0.017445192
250	0xbd8b1b6c	-0.0679234
251	0xbe833a20	-0.25630283
252	0x3e97e2e0	0.2966528
253	0x3e9135ca	0.2836135
254	0xbe58c067	-0.21167146
255	0x3e8ba410	0.27273607

gnn_base.gnn.gnn1.lin_skip.bias f4 [16]
0	0x3e0bf9aa	0.13669458
1	0xbd5a65da	-0.05331979
2	0xbd9a4e25	-0.07534436
3	0x3d957a92	0.07298769
4	0xbc69cf9f	-0.014270692
5	0x3d227dc2	0.039670713
6	0x3e256bf5	0.16154464
7	0xbdd0a7a8	-0.10188228
8	0x3e0ebcc9	0.13939203
9	0xbdd757d7	-0.10514801
10	0xbd80349a	-0.06260033
11	0xbe97f988	-0.29682565
12	0xbdaadd99	-0.08343048
13	0x3de740ba	0.112916425
14	0xbe287299	-0.16449966
15	0xbe964b5f	-0.2935438
