model_weights/FA_FR/tube/feb17/metered/actor.pt (torch, 202776 bytes, 58 tensors)

gnn_base.gnn.embed_layer.layer_norm.weight f4 [16]
0	0x3f51aa59	0.81900555
1	0x3f3a60fb	0.7280423
2	0x3f7658e2	0.96229374
3	0x3f750d8f	0.95723814
4	0x3f39312c	0.72340655
5	0x3f864046	1.0488365
6	0x3f8877fe	1.0661619
7	0x3f5710a9	0.84009796
8	0x3f81f4c1	1.0152818
9	0x3fa208f6	1.2658985
10	0x3fa090b1	1.2544156
11	0x3f800adf	1.0003318
12	0x3fa02976	1.2512653
13	0x3fab46b1	1.3380948
14	0x3fb0b360	1.3804741
15	0x3f8e602e	1.1123102

gnn_base.gnn.embed_layer.layer_norm.bias f4 [16]
0	0x3deb9718	0.11503428
1	0xbcbad4a5	-0.022806475
2	0x3e240bbf	0.16020106
3	0xbe13f925	-0.1445051
4	0x3e0dd7d3	0.13851862
5	0xbd286ead	-0.041121174
6	0x3cb563e1	0.022142353
7	0x3ddd9c17	0.108207874
8	0x3c96f449	0.018427031
9	0x3d1bfd5c	0.03808342
10	0xbd173c1b	-0.036922555
11	0x3c0cb51a	0.0085881
12	0x3d5fbdc4	0.054624334
13	0x3d84bf30	0.064817786
14	0xbbdc5b77	-0.0067247706
15	0x3d207cef	0.039181646

gnn_base.gnn.embed_layer.entity_embed.weight f4 [4, 2]
0	0x3fb640c2	1.4238513
1	0xbc648ccc	-0.013949584
2	0xbffd3322	-1.978123
3	0x3e24a99b	0.16080324
4	0xbf8ad1a1	-1.0845224
5	0xbfb3052d	-1.3985955
6	0x3ece837a	0.40334684
7	0x3f5688e5	0.83802634

gnn_base.gnn.embed_layer.lin1.weight f4 [16, 10]
0	0xbe8a7d8c	-0.2704891
1	0xbeadbdb8	-0.33933806
2	0xbf06bd03	-0.5263216
3	0x3dfd36b4	0.123639494
4	0xbd837d87	-0.06420427
5	0x3bafabb3	0.0053610443
6	0x3e98dce5	0.2985603
7	0xbee0dfc6	-0.43920726
8	0xbf1adbd7	-0.604917
9	0x3d187f8c	0.037231013
10	0xbf50d8e7	-0.81580967
11	0x3dcbe364	0.09955481
12	0x3f0ef9b5	0.5584977
13	0xbe4d9fcd	-0.2008049
14	0x3d13dd5e	0.036099784
15	0xbf18e056	-0.5971731
16	0xbef260d1	-0.4733949
17	0x3e034f4c	0.12823218
18	0x3d5e0c02	0.05421067
19	0xbeec55a3	-0.46159086
20	0x3ec50c76	0.3848607
21	0x3e637da2	0.22215894
22	0x3f436c4f	0.7633714
23	0xbee35693	-0.44401988
24	0x3dd8f755	0.1059405
25	0x3e16ef31	0.14739682
26	0x3e7d5b88	0.24741948
27	0xbf02ef15	-0.5114606
28	0xbebe6f47	-0.37194273
29	0x3e8855e1	0.2662802
30	0xbf1b9011	-0.607667
31	0x3e199034	0.14996415
32	0xbdcb7ce0	-0.099359274
33	0x3e43c421	0.19117786
34	0xbeafc7dd	-0.3433217
35	0xbecf4f13	-0.40490016
36	0x3b7a5168	0.0038195495
37	0xbd0f2599	-0.034947965
38	0xbe5814e8	-0.21101725
39	0x3e0e2202	0.1388016
40	0xbebcf284	-0.36903775
41	0x3e335304	0.17512137
42	0xbf43b67a	-0.7645031
43	0xbeb10e85	-0.3458139
44	0x3ddc3617	0.10752504
45	0x3ead80da	0.33887368
46	0x3cbfb0ce	0.023399737
47	0xbecc099e	-0.39851087
48	0x3de5a463	0.11212995
49	0xbe93b896	-0.28851765
50	0xbe40faa3	-0.1884561
51	0xbde2fc01	-0.11083222
52	0xbf0b0152	-0.5429889
53	0xbdd7942f	-0.10526311
54	0x3ecd6053	0.40112552
55	0x3d635fa4	0.055511132
56	0xbef71cac	-0.48264062
57	0x3e46b9cc	0.19406813
58	0xbf16d238	-0.5891452
59	0x3ed676a6	0.41887397
60	0x3de98ada	0.11403437
61	0x3ea95a10	0.33076525
62	0x3f414fa8	0.7551217
63	0x3e480597	0.19533382
64	0x3e9ca61f	0.3059549
65	0x3e0871b3	0.13324623
66	0xbf468b87	-0.7755665
67	0xbf1bd05c	-0.60864806
68	0xbd5734c6	-0.052540563
69	0xbf157103	-0.5837557
70	0xbea92b18	-0.3304069
71	0x3d67f929	0.056634102
72	0x3f1daf9c	0.61596084
73	0x3e3c51f3	0.18390636
74	0x3f6f15f4	0.9339287
75	0xbe1bb2d1	-0.15204932
76	0x3ea9deaa	0.33177692
77	0xbebd6050	-0.36987543
78	0x3e5f4bc3	0.21806245
79	0xbb6f6d7d	-0.0036533766
80	0x3f249f71	0.6430579
81	0x3e214de6	0.15752372
82	0x3eadbc18	0.33932567
83	0xbf10b83d	-0.56531125
84	0x3db43cde	0.08800672
85	0xbf50d7a8	-0.81579065
86	0x3deb5fc3	0.114928745
87	0xbdee0234	-0.11621514
88	0xbe5a30a6	-0.2130762
89	0x3d88066e	0.06641851
90	0x3e82803e	0.25488466
91	0x3ec23f94	0.3793913
92	0x3f0255c3	0.5091211
93	0x3fae0bb5	1.3597323
94	0xbe336b35	-0.17521365
95	0xbe62853c	-0.22121137
96	0x3e018b1d	0.12650724
97	0x3de80b3c	0.11330268
98	0x3e4d8b3b	0.20072643
99	0xbd8c5e82	-0.068539634
100	0xbe411d31	-0.18858792
101	0x3bd60a76	0.0065320088
102	0xbef697ee	-0.48162788
103	0xbdeee1dc	-0.11664173
104	0xbce746cf	-0.028232006
105	0xbdd4e42c	-0.10395083
106	0xbea2029a	-0.3164261
107	0xbe85339f	-0.26015946
108	0x3ee0f2a3	0.43935117
109	0x3f92c261	1.146557
110	0x3f00a2c6	0.5024837
111	0xbe158da6	-0.14604816
112	0xbf3bdb40	-0.73381424
113	0xbd364557	-0.04449972
114	0xbea72c2e	-0.32650894
115	0xbef222c8	-0.4729216
116	0x3ee7249f	0.45145127
117	0x3db70680	0.08936787
118	0x3b9e800a	0.004837041
119	0x3ed8663e	0.42265505
120	0x3e78aff7	0.24285875
121	0xbf09b24a	-0.5378767
122	0xbe258451	-0.16163756
123	0xbf85ad10	-1.044344
124	0xbda33e47	-0.07970863
125	0x3d866235	0.065617
126	0xbe86ae71	-0.26304963
127	0x3eb5a191	0.35474828
128	0x3dbefcaf	0.09325539
129	0x3e9c4c53	0.3052698
130	0x3e95e6e0	0.29277706
131	0x3f5ebfae	0.8701123
132	0x3db45de9	0.088069744
133	0x3eb02b0a	0.34407836
134	0x3dd4e026	0.103943154
135	0x3d0ec06a	0.03485147
136	0x3e271c57	0.16319405
137	0x3f4285dc	0.75985503
138	0x3e81107f	0.25207898
139	0xbe98c2d0	-0.2983613
140	0xbe8e69d4	-0.27815115
141	0x3f6a9c77	0.91644996
142	0xbeea5770	-0.45769835
143	0x3fc83f1e	1.5644262
144	0x3d9fd80d	0.0780488
145	0xbd80cb81	-0.06288815
146	0x3e908325	0.28225055
147	0x3d492465	0.049106974
148	0xbe45956c	-0.19295281
149	0x3c493f53	0.012283164
150	0xbf733eda	-0.9501778
151	0x3f403474	0.7508004
152	0xbe1f98d8	-0.15585649
153	0xbe84cbbf	-0.25936696
154	0xbe9d8186	-0.3076288
155	0x3e3abecc	0.18236846
156	0x3f3b2b44	0.73112893
157	0xbe1908a0	-0.14944696
158	0xbb952858	-0.0045519285
159	0xbe333a21	-0.17502643

gnn_base.gnn.embed_layer.lin1.bias f4 [16]
0	0xbd7c8377	-0.061648812
1	0xbdd448ef	-0.103654735
2	0xbc810b77	-0.015752537
3	0x3cf291eb	0.029610595
4	0xbd989fc7	-0.0745235
5	0xbe533402	-0.20625308
6	0xbe0038ae	-0.12521622
7	0xbd8c78a8	-0.06858951
8	0xbdf44b5f	-0.119284384
9	0xbdcc4f66	-0.099760816
10	0x3daa9c39	0.08330578
11	0x3d8db236	0.06918757
12	0x3d28a04b	0.041168492
13	0x3b63b918	0.0034747776
14	0x3e4678cb	0.19382016
15	0x3c75053e	0.014954863

gnn_base.gnn.embed_layer.layers.0.weight f4 [16, 16]
0	0xbe69891c	-0.2280621
1	0xbd26f590	-0.04076153
2	0xbed91fb9	-0.42407015
3	0xbea83359	-0.32851675
4	0x3ed50a9c	0.41609657
5	0x3ec4df4b	0.3845161
6	0x3f5b9af5	0.8578332
7	0xbe006d20	-0.12541628
8	0xbef2e7bf	-0.47442433
9	0x3d6fbcfa	0.05852983
10	0xbe86ddf0	-0.263412
11	0x3d4718d3	0.04860766
12	0xbd86c1d2	-0.06579937
13	0xbf0b0ce1	-0.54316527
14	0xbe46d3e1	-0.19416763
15	0xbcf746cd	-0.030185128
16	0x3e67899d	0.22611089
17	0xbeb7d004	-0.3590089
18	0x3e9d780f	0.3075566
19	0xbecafc8c	-0.39645803
20	0x3e295547	0.16536437
21	0x3f305c3a	0.68890727
22	0x3f4be8fd	0.79652387
23	0x3ebc8f74	0.36828196
24	0xbe49b9ba	-0.19699755
25	0x3ee1ea6d	0.44124165
26	0x3ea02d1e	0.31284422
27	0xbe837037	-0.2567155
28	0x3e6d0a79	0.23148526
29	0x3f2045a8	0.62606287
30	0x3e78e0ff	0.24304579
31	0x3ecddfc2	0.40209776
32	0xbe6256c6	-0.22103414
33	0x3ef14479	0.47122553
34	0xbea5497c	-0.32282627
35	0x3e3d6548	0.18495667
36	0x3c098027	0.00839237
37	0x3f096f61	0.53685576
38	0x3eb9bfa1	0.36279014
39	0xbea80e26	-0.32823294
40	0x3eeb1a3c	0.45918453
41	0xbe90cbd4	-0.2828051
42	0x3f8a4681	1.0802766
43	0xbdc44c00	-0.09584808
44	0x3ec8163e	0.3907947
45	0xbe856c0b	-0.26058993
46	0xbe8bfaa7	-0.2733967
47	0x3e1530f5	0.14569457
48	0x3d71d1dd	0.05903803
49	0x3ea054e4	0.31314766
50	0xbf04815c	-0.51759887
51	0xbe8d2e27	-0.27574274
52	0x3e6ff0c4	0.23431689
53	0x3e5d6b98	0.21623075
54	0xbf2ac69e	-0.66709316
55	0xbdfc04f1	-0.1230563
56	0xbe250382	-0.1611462
57	0x3f94e405	1.1632086
58	0xbe285eec	-0.1644246
59	0x3db441bf	0.088016026
60	0xbf422444	-0.75836587
61	0x3eb5f7aa	0.35540515
62	0x3fb3097a	1.3987267
63	0xbcfed849	-0.031108992
64	0x3ee4e318	0.4470451
65	0x3ebd842a	0.37014896
66	0xbe7cdc9b	-0.2469353
67	0x3e06c8eb	0.13162582
68	0x3d0c9efb	0.034331303
69	0xbce32790	-0.027728826
70	0x3db8ca57	0.09022968
71	0xbe6f9296	-0.23395762
72	0xbf622485	-0.88336974
73	0x3ee679a9	0.45014694
74	0xbf24d862	-0.64392674
75	0xbe99bf78	-0.30028892
76	0x3f5377d9	0.8260475
77	0x3d258734	0.040412143
78	0xbda06e36	-0.07833521
79	0x3ee373ed	0.44424382
80	0x3e20a394	0.156874
81	0x3ead08f2	0.33795887
82	0x3f16dcc4	0.5893061
83	0xbf515e0c	-0.8178413
84	0xbef7a991	-0.48371556
85	0x3d981431	0.07425726
86	0x3d4c5b82	0.049891956
87	0x3e5df2cf	0.21674655
88	0x3e3b24e3	0.1827579
89	0xbe049093	-0.12945776
90	0xbe296be8	-0.16545069
91	0x3e9820c4	0.29712498
92	0x3d9f23e1	0.07770515
93	0xbe87677e	-0.26446146
94	0xbf682fba	-0.90697825
95	0x3e6fbc07	0.2341157
96	0x3eba3087	0.36365148
97	0xbe58fad8	-0.2118944
98	0xbdb9f451	-0.09079803
99	0x3e9acf5c	0.30236328
100	0xbe89da1d	-0.2692422
101	0xbea21871	-0.31659272
102	0xbe69fc79	-0.22850217
103	0x3eafa040	0.3430195
104	0xbf58c5a7	-0.84676594
105	0x3e1f67d8	0.15566957
106	0x3f1b17c0	0.60583115
107	0xbd06f224	-0.032945767
108	0xbf01f885	-0.50769836
109	0x3ca720a1	0.0204013
110	0xbde16ada	-0.110067084
111	0x3f010a0f	0.50405973
112	0x3ddfa6b1	0.10920466
113	0xbbba46ef	-0.0056847255
114	0x3eea9463	0.45816335
115	0xbefb0f21	-0.4903498
116	0xbeccfe73	-0.4003788
117	0x3dd1b91f	0.10240387
118	0x3ef90245	0.48634544
119	0xbedd62b1	-0.43239358
120	0xbf0cc294	-0.549844
121	0xbd27db26	-0.04098048
122	0xbe22628d	-0.15857907
123	0xbee5fc10	-0.4491887
124	0xbecebe65	-0.40379634
125	0x3f092093	0.5356533
126	0x3f0c5d12	0.54829514
127	0xbed5a8cf	-0.41730353
128	0xbedc6b27	-0.430505
129	0x3e3214d5	0.1739076
130	0x3ec5b10b	0.38611636
131	0xbcf47fe9	-0.029846149
132	0xbd1bf88b	-0.038078826
133	0x3f0d43d5	0.5518163
134	0x3e8e0a11	0.27742055
135	0x3ef0a292	0.4699903
136	0xbedd33fd	-0.43203726
137	0xbee82360	-0.4533949
138	0xbf1466cd	-0.5796936
139	0xbedff055	-0.43738046
140	0x3d9a9b1a	0.075491145
141	0xbec9a063	-0.39380178
142	0x3ee2a537	0.44266674
143	0x3f027828	0.50964594
144	0x3eb24f80	0.3482628
145	0x3e2a515f	0.16632603
146	0x3f020578	0.50789595
147	0x3d68a9f3	0.0568027
148	0x3ef37d11	0.47556356
149	0xbc976945	-0.018482814
150	0xbe97242a	-0.29519778
151	0xbf0d6373	-0.5522987
152	0xbec705bd	-0.38871565
153	0x3ed3f3ab	0.4139684
154	0x3ea7ed2a	0.3279813
155	0xbef74437	-0.4829423
156	0xbdf23c07	-0.118278556
157	0xbf1472b3	-0.5798752
158	0x3e9bfdcd	0.30467072
159	0x3eee1d43	0.465067
160	0x3e228b1f	0.15873383
161	0xbdf6342a	-0.12021668
162	0xbd2562ae	-0.04037731
163	0x3e61859d	0.22023626
164	0x3e47985e	0.19491717
165	0x3de75446	0.11295371
166	0xbe691fb7	-0.22766005
167	0xbf1d5be0	-0.61468315
168	0xbda32b11	-0.07967199
169	0xbef8f236	-0.48622292
170	0xbd83ca97	-0.06435125
171	0x3f11090b	0.56654423
172	0xbed3ab1b	-0.4134148
173	0x3e902ca5	0.2815906
174	0x3e05f28c	0.13080806
175	0x3f5bf40d	0.85919267
176	0xbeb9d5d9	-0.36295965
177	0xbf1dfb91	-0.61711985
178	0xbe2a0bff	-0.16606139
179	0xbe1ae8b3	-0.1512783
180	0xbced8ba5	-0.028997252
181	0x3efbb106	0.49158496
182	0xbf0e2256	-0.5552114
183	0xbe06331e	-0.13105437
184	0xbf2b56d0	-0.6692934
185	0xbdbab764	-0.0911701
186	0x3f2a7d0a	0.66597044
187	0xbe4b4ad0	-0.19852757
188	0x3ef2eeb5	0.47447744
189	0x3dcebf0d	0.10095034
190	0xbe3bc051	-0.18335082
191	0xbecda9bd	-0.40168563
192	0xbd1aae5d	-0.037763942
193	0xbf3b0899	-0.73059994
194	0xbef187d7	-0.4717395
195	0xbeb418b6	-0.35175103
196	0xbf404a9f	-0.7511386
197	0x3e0a1698	0.13485181
198	0x3e04fc0a	0.1298677
199	0xbef63c02	-0.48092657
200	0x3ea08f46	0.3135931
201	0x3f3efb11	0.74601847
202	0xbedf436a	-0.4360612
203	0xbe4c7f23	-0.19970374
204	0xbb75d6d8	-0.003751209
205	0xbdeee367	-0.11664467
206	0x3e99afe7	0.30017015
207	0x3ed8b0f4	0.42322505
208	0xbe9ffa39	-0.31245592
209	0x3ea81366	0.328273
210	0xbe98a352	-0.29812104
211	0xbd92b4dc	-0.071634024
212	0x3e834033	0.25634918
213	0xbea44186	-0.3208124
214	0x3dafc738	0.0858292
215	0x3e03cf7d	0.12872119
216	0x3e400939	0.18753518
217	0xbe676bae	-0.2259967
218	0xbef58893	-0.4795576
219	0xbf56e544	-0.8394358
220	0xbed7e2e5	-0.42165294
221	0x3ee98b9b	0.45614323
222	0xbf4f06cb	-0.8086974
223	0x3ef2c850	0.4741845
224	0xbeb0053d	-0.34378996
225	0xbe484765	-0.19558485
226	0x3dc96397	0.098334484
227	0x3ea5c1c2	0.32374388
228	0x3d2ccdc1	0.04218841
229	0x3d0868ef	0.033303197
230	0xbe931870	-0.28729582
231	0x3b858004	0.0040740985
232	0x3da3badd	0.07994626
233	0x3f2ee1ac	0.683131
234	0xbf1b5d3e	-0.6068915
235	0x3e08e94f	0.1337025
236	0xbeaf5c04	-0.3424989
237	0x3e46ef37	0.1942719
238	0xbec8fa39	-0.39253405
239	0x3ca2bd14	0.01986555
240	0x3f641b4a	0.8910414
241	0xbe51b556	-0.2047933
242	0xbe23617f	-0.1595516
243	0x3edaa649	0.4270499
244	0x3c1aec53	0.009455758
245	0x3f628fbb	0.88500565
246	0x3e4ac23d	0.19800659
247	0xbdc65372	-0.09683885
248	0x3d1c97fb	0.038230877
249	0xbdd7df58	-0.10540646
250	0xbe3db182	-0.18524745
251	0xbf2346c3	-0.6377985
252	0xbdaf9750	-0.085737824
253	0x3d545fcd	0.051849175
254	0xbea7dcab	-0.32785544
255	0xbd656cd6	-0.056011997

gnn_base.gnn.embed_layer.layers.0.bias f4 [16]
0	0xbe3fba00	-0.18723297
1	0xbd697485	-0.056995887
2	0xbe108977	-0.14114939
3	0x3dab3d5b	0.08361312
4	0xbe12fdde	-0.14354655
5	0x3d15d50f	0.03658014
6	0x3a472589	0.0007596841
7	0xbda57d90	-0.0808059
8	0xbd9d0f64	-0.07668951
9	0xbd2d78a1	-0.04235137
10	0x3c892dc3	0.016745454
11	0xbda3eae2	-0.08003785
12	0xbe752c9e	-0.23942801
13	0xbc3ec026	-0.011642491
14	0xbcae990a	-0.02131321
15	0xbe56014d	-0.20898934

gnn_base.gnn.embed_layer.layers.2.weight f4 [16]
0	0x3f51aa59	0.81900555
1	0x3f3a60fb	0.7280423
2	0x3f7658e2	0.96229374
3	0x3f750d8f	0.95723814
4	0x3f39312c	0.72340655
5	0x3f864046	1.0488365
6	0x3f8877fe	1.0661619
7	0x3f5710a9	0.84009796
8	0x3f81f4c1	1.0152818
9	0x3fa208f6	1.2658985
10	0x3fa090b1	1.2544156
11	0x3f800adf	1.0003318
12	0x3fa02976	1.2512653
13	0x3fab46b1	1.3380948
14	0x3fb0b360	1.3804741
15	0x3f8e602e	1.1123102

gnn_base.gnn.embed_layer.layers.2.bias f4 [16]
0	0x3deb9718	0.11503428
1	0xbcbad4a5	-0.022806475
2	0x3e240bbf	0.16020106
3	0xbe13f925	-0.1445051
4	0x3e0dd7d3	0.13851862
5	0xbd286ead	-0.041121174
6	0x3cb563e1	0.022142353
7	0x3ddd9c17	0.108207874
8	0x3c96f449	0.018427031
9	0x3d1bfd5c	0.03808342
10	0xbd173c1b	-0.036922555
11	0x3c0cb51a	0.0085881
12	0x3d5fbdc4	0.054624334
13	0x3d84bf30	0.064817786
14	0xbbdc5b77	-0.0067247706
15	0x3d207cef	0.039181646

gnn_base.gnn.gnn1.lin_key.weight f4 [48, 16]
0	0xbe941a0b	-0.2892612
1	0xbd04c12a	-0.032410778
2	0x3cb44f7a	0.022010554
3	0xbeb998e8	-0.3624947
4	0x3dbbb188	0.09164721
5	0x3d0ecc61	0.03486288
6	0x3e98ab66	0.29818267
7	0xbe0dfead	-0.13866682
8	0xbd690179	-0.05688617
9	0x3e268a27	0.16263638
10	0x3e36ed60	0.17863989
11	0x3d487b26	0.04894557
12	0xbeba46e1	-0.363822
13	0x3e8d50ff	0.27600858
14	0xbe099123	-0.13434272
15	0xbdce448b	-0.10071667
16	0xbdacd358	-0.08438748
17	0x3e29e534	0.1659134
18	0xbd684592	-0.056706972
19	0x3ebc8a6f	0.36824366
20	0xbe4ef4b9	-0.20210542
21	0xbe29dcc6	-0.16588125
22	0x3e413daa	0.18871179
23	0xbe804bbb	-0.25057778
24	0xbde8943b	-0.11356398
25	0x3b8605b1	0.004090034
26	0xbef97606	-0.48722857
27	0x3dbc57ab	0.09196409
28	0x3e823d2c	0.25437295
29	0x3e66e80b	0.22549455
30	0x3e9431d3	0.28944263
31	0xbd882255	-0.06647173
32	0x3d8b2615	0.06794373
33	0xbe34d4f4	-0.1765936
34	0x3e9f27d3	0.3108507
35	0xbde15ff2	-0.11004628
36	0x3e455141	0.19269277
37	0x3bda06cd	0.0066536427
38	0x3eedcd50	0.46445704
39	0x3dbd8f08	0.09255797
40	0xbbd50ec0	-0.0065020025
41	0xba8490e7	-0.0010113985
42	0xbc095090	-0.008381024
43	0xbec8c6a3	-0.39214048
44	0x3d945e92	0.072446
45	0xbe032e68	-0.12810671
46	0xbe38a609	-0.18032087
47	0x3e3e24cd	0.18568726
48	0xbe706851	-0.23477294
49	0xbec30b19	-0.38094404
50	0xbed40fc9	-0.41418293
51	0xbe9338ac	-0.28754175
52	0xbe6f6fe2	-0.23382524
53	0x3d9498d4	0.07255712
54	0xbcf5e114	-0.030014552
55	0xbebf0de2	-0.3731528
56	0x3ee6f1c2	0.45106322
57	0xbdfe4c0f	-0.12416851
58	0x3eaaa6a3	0.3333026
59	0x3e4f7982	0.20261195
60	0xbee46ad5	-0.44612756
61	0x3e986281	0.29762653
62	0xbc5917d7	-0.013250313
63	0xbcea68ec	-0.028614484
64	0x3e222a6b	0.15836494
65	0xbe062741	-0.13100912
66	0xbe2be1f0	-0.16785407
67	0x3e5844a0	0.21119928
68	0x3dea4d88	0.11440569
69	0x3e80f8e7	0.25189897
70	0xbe6c544c	-0.23079032
71	0x3eb00d58	0.3438518
72	0x3ea35ea9	0.31908157
73	0x3e900ff8	0.28137183
74	0xbdfc94c6	-0.12333064
75	0xbe8a6a9d	-0.27034464
76	0xbe1ca139	-0.15295877
77	0xbee85313	-0.4537588
78	0x3ae726ec	0.0017635501
79	0x3e3ba643	0.18325143
80	0x3d3ce3dc	0.04611574
81	0xbdca0435	-0.09864084
82	0x3ef36caa	0.47543842
83	0x3d292e56	0.041303955
84	0xbde504c6	-0.11182551
85	0x3d98d2f3	0.0746211
86	0xbdaa44b0	-0.08313882
87	0x3d0ce9fb	0.03440283
88	0x3e09ccec	0.13457078
89	0x3cec72bc	0.028863303
90	0x3f0ca4dc	0.54939055
91	0xbe5a8277	-0.21338831
92	0x3d8f8e95	0.07009617
93	0x3c715718	0.014730237
94	0x3ca77238	0.020440206
95	0x3dbc53b8	0.091956556
96	0xbcb5155d	-0.022104913
97	0xbdcdb4a6	-0.100442216
98	0x3f074261	0.5283566
99	0xbe893283	-0.2679635
100	0xbce92807	-0.02846147
101	0xbea8b498	-0.32950282
102	0x3eb3c400	0.35110474
103	0xbe08cb04	-0.13358694
104	0xbe83508b	-0.25647387
105	0x3e21e704	0.15810782
106	0x3e12ea6e	0.1434724
107	0x3de45dfe	0.1115074
108	0x3dda7107	0.106660895
109	0x3e7c2b67	0.24625932
110	0xbc176635	-0.009240677
111	0x3b41787f	0.0029521284
112	0xbd456cf3	-0.048199605
113	0x3e4f7b5d	0.20261903
114	0x3ec1dc31	0.37863305
115	0xbcee91ba	-0.029122222
116	0x3e380109	0.17969145
117	0xbe5d586c	-0.21615762
118	0xbd7a4fe7	-0.061111357
119	0xbd9e81c4	-0.077395946
120	0xbd82a1a7	-0.06378489
121	0xbe0d12f2	-0.13776758
122	0xbe4954cb	-0.19661252
123	0xbe5cce64	-0.21563107
124	0xbe30ba3f	-0.17258547
125	0xbc6279bc	-0.013822969
126	0x3dfe2336	0.1240906
127	0x3cd6b9b2	0.026211593
128	0xbe6c6590	-0.23085618
129	0xbdd0e55b	-0.10199996
130	0xbd4c5ec8	-0.049895078
131	0xbd80da1c	-0.06291601
132	0xbeacab7d	-0.33724585
133	0x3c5bed9a	0.013423348
134	0xbda8b55d	-0.08237717
135	0x3b4a7deb	0.0030897807
136	0xbea5c2d1	-0.32375196
137	0xbe880e61	-0.2657347
138	0xbe8239a1	-0.25434592
139	0xbde5ad2f	-0.11214673
140	0x3e80dac4	0.25166905
141	0x3ef3d66d	0.4762453
142	0x3ecd7722	0.40129954
143	0xbe8a640c	-0.27029455
144	0x3ecc3fbc	0.39892375
145	0x3ed56f70	0.41686583
146	0xbe59b467	-0.21260224
147	0x3ef2e511	0.4744039
148	0x3e46580b	0.19369523
149	0xbe1f147f	-0.15535162
150	0xbefb1af3	-0.49043998
151	0x3e8a135e	0.269679
152	0x3c02e9f5	0.00799035
153	0xbd7f322c	-0.062303707
154	0xbeaa6f8c	-0.3328823
155	0x3c7398e8	0.014867999
156	0x3dfe36bd	0.12412784
157	0x3dd2132c	0.10257563
158	0xbd299be6	-0.041408442
159	0x3ed1550a	0.40885192
160	0xbe3422ca	-0.17591396
161	0xbe53eaee	-0.20695087
162	0x3d0e9e8d	0.034819175
163	0xbeca7fbc	-0.3955058
164	0xbebb32a4	-0.36562073
165	0x3e5eafd1	0.21746756
166	0x3dc8fef9	0.09814257
167	0xbe6d3232	-0.23163679
168	0xbca546b8	-0.020175323
169	0xbeabaa97	-0.33528587
170	0x3ec3958f	0.38200042
171	0xbed24fa5	-0.4107639
172	0xbe8d3fe1	-0.27587798
173	0x3e8a44bc	0.27005565
174	0xbd6cd030	-0.05781573
175	0xbe4d7ed6	-0.20067915
176	0x3d2127ff	0.039344784
177	0xbd1d7e14	-0.038450316
178	0x3c235cec	0.009970885
179	0x3d3882c8	0.045046598
180	0xbd8471ae	-0.06466995
181	0xbcfbd3a4	-0.030740567
182	0x3e19632d	0.14979239
183	0x3e133a6a	0.14377752
184	0xbeca7d45	-0.39548698
185	0x3e97f881	0.2968178
186	0xbdd0013f	-0.10156488
187	0xbd9d28b2	-0.07673778
188	0x3e80d2a9	0.2516072
189	0x3cb98c19	0.022649812
190	0xbe7beaf8	-0.24601352
191	0x3da0f6cc	0.07859573
192	0xbe67a637	-0.22622
193	0xbe236a62	-0.1595855
194	0xbe733ec9	-0.2375442
195	0x3e9c0a61	0.30476668
196	0x3e9925bb	0.299116
197	0x3e3e150e	0.18562719
198	0xbdd326b7	-0.10310119
199	0x3f0c745c	0.5486505
200	0xbddf2544	-0.1089578
201	0x3cd63411	0.026147874
202	0xbe5e5494	-0.21711951
203	0xbe7ffa23	-0.24997763
204	0x3e40edaf	0.18840669
205	0x3cdd32a5	0.027001688
206	0x3e6b461c	0.22975963
207	0x3d23ba0e	0.039972357
208	0x3e24c8b4	0.16092187
209	0xbd66ad01	-0.056317333
210	0x3d5b40e3	0.053528678
211	0x3e39c5e2	0.18141893
212	0x3e848215	0.25880495
213	0x3df9f4d7	0.122049026
214	0xbf17bed4	-0.59275556
215	0x3d0d96be	0.034567587
216	0x3eb3f313	0.35146388
217	0x3e194cdb	0.14970724
218	0x3deb7bed	0.11498246
219	0xbd19ed29	-0.03757969
220	0x3e6b7a9d	0.22995992
221	0xbe0e25b7	-0.13881575
222	0x3db16098	0.08661002
223	0x3e33fbc2	0.17576507
224	0x3e8f8463	0.2803069
225	0x3ea45b9c	0.32101142
226	0xbdb7d232	-0.089756384
227	0x3e2c92a4	0.16852814
228	0x3e16e6e7	0.1473652
229	0xbecaade4	-0.39585793
230	0xbe57c79f	-0.21072243
231	0xbe8a67ce	-0.27032322
232	0xbe146c9e	-0.14494559
233	0x3b7fc160	0.0039025173
234	0x3ebd4283	0.36964807
235	0x3e11ce24	0.14238793
236	0xbdc4b7d9	-0.09605379
237	0x3e8768a2	0.26447016
238	0x3d1698e8	0.036766917
239	0x3d88e1ce	0.06683694
240	0x3e60ce54	0.21953708
241	0x3e3949c9	0.18094553
242	0xbe9618a5	-0.29315677
243	0x3d897df3	0.06713476
244	0x3e32f1bd	0.17475028
245	0xbdf9d5cc	-0.12198982
246	0xbd5d99cf	-0.05410176
247	0xbc40a9c1	-0.0117592225
248	0xbe91f972	-0.28510624
249	0x3d817cd6	0.06322639
250	0xbeddbafc	-0.4330672
251	0xbe1aa3c9	-0.15101542
252	0x3e97c7aa	0.2964452
253	0x3d0cfac3	0.034418833
254	0x3ea89bea	0.32931453
255	0x3e66247f	0.2247486

gnn_base.gnn.gnn1.lin_key.bias f4 [48]
0	0x3e441296	0.19147715
1	0x3e4b271e	0.19839141
2	0xbd8ccdfd	-0.06875227
3	0xbe146945	-0.14493282
4	0xbde37aff	-0.11107444
5	0xbe2ee8ff	-0.17081068
6	0xbd84f4b4	-0.06491986
7	0xbe66f563	-0.22554545
8	0x3e09275b	0.13393919
9	0xbe7104b9	-0.23536958
10	0xbe1fec00	-0.1561737
11	0x3e2b646e	0.1673753
12	0xbe3f3e06	-0.18676004
13	0x3d73591b	0.05941115
14	0x3e3fa2e5	0.18714483
15	0x3e7c4cff	0.24638747
16	0x3e015384	0.12629515
17	0xbd895fb8	-0.0670771
18	0x3e123941	0.14279653
19	0xbc067bbd	-0.008208212
20	0xbd9d71ee	-0.07687746
21	0x3a4f7557	0.00079139083
22	0x3d658bd6	0.05604156
23	0x3e2bb116	0.16766772
24	0x3dd6bdab	0.10485395
25	0x3df44ca6	0.11928682
26	0x3d18f875	0.037346322
27	0xbc4a1d29	-0.012336054
28	0x3dd712b0	0.10501611
29	0x3d766a85	0.06016018
30	0xbe750e2d	-0.23931189
31	0x3d248f32	0.040175624
32	0xbde36e97	-0.11105078
33	0xbe07bc59	-0.13255443
34	0x3dc6533a	0.09683843
35	0x3d51c9de	0.051217906
36	0x3d2df720	0.042472005
37	0xbdf281e0	-0.11841178
38	0x3ded362f	0.115826
39	0x3e6fff23	0.2343717
40	0x3cf9c375	0.030488709
41	0x3dd2441a	0.102668956
42	0xbe607e29	-0.21923126
43	0x3e1830b2	0.14862326
44	0x3db215c5	0.086955585
45	0x3de6ea4a	0.11275156
46	0x3dd423b9	0.10358376
47	0xbd8711db	-0.065952025

gnn_base.gnn.gnn1.lin_query.weight f4 [48, 16]
0	0xbe0a0668	-0.13479006
1	0x3d520b89	0.051280532
2	0x3ed773bf	0.42080495
3	0x3d939838	0.07206768
4	0xbce67567	-0.028132154
5	0x3e9c5070	0.3053012
6	0x3e639b99	0.22227325
7	0xbece6c78	-0.4031713
8	0xbd709cb0	-0.05874318
9	0x3d985f52	0.07440056
10	0x3d9c9d55	0.07647196
11	0xbe28d037	-0.16485678
12	0xbe140c88	-0.14457905
13	0xbe9886d6	-0.29790372
14	0xbd97ca16	-0.07411592
15	0x3c287ccd	0.010283661
16	0x3d760c53	0.060070347
17	0xbd80bcce	-0.06286012
18	0xbe0d30bf	-0.13788126
19	0xbe9af035	-0.30261388
20	0x3e66f45f	0.22554158
21	0x3d9baa8c	0.076008886
22	0xbe8887d6	-0.26666135
23	0xbbc31399	-0.005953264
24	0x3e7989ee	0.24369022
25	0xbed3bb93	-0.41354045
26	0xbd36c95c	-0.044625625
27	0x3c50b03e	0.012737332
28	0x3e70d714	0.23519546
29	0x3ea0cc7c	0.3140601
30	0x3cbcf723	0.023067063
31	0x3e10c4f2	0.14137629
32	0xbea46529	-0.3210843
33	0x3d6a5585	0.057210464
34	0x3cd2683d	0.02568447
35	0xbdc63280	-0.09677601
36	0xbcfb6133	-0.030685997
37	0x3e906200	0.28199768
38	0x3ea27445	0.31729332
39	0xbd64aae5	-0.05582704
40	0x3e8d1087	0.27551672
41	0xbe1f3448	-0.15547287
42	0x3ed8f8cd	0.4237732
43	0x3d86b0ee	0.065767154
44	0xbe0d9f3d	-0.13830276
45	0x3dc8b934	0.0980095
46	0x3e25b52b	0.16182391
47	0x3cddecdb	0.02709048
48	0xbc855a25	-0.016278336
49	0xbe41010d	-0.18848057
50	0x3ed8ce69	0.42344978
51	0x3eb08796	0.34478444
52	0xbe6b9212	-0.2300494
53	0xbd4a31a2	-0.04936374
54	0x3ed47bf4	0.4150082
55	0x3e6b754c	0.22993964
56	0x3c857f0e	0.016295936
57	0xbe07b78b	-0.1325361
58	0x3bd13d7e	0.0063855043
59	0x3eb639f2	0.35591084
60	0x3e12a656	0.14321265
61	0xbe1afa0a	-0.15134445
62	0xbec35f92	-0.38158852
63	0x3d3b9e23	0.045805108
64	0xbed24589	-0.41068676
65	0x3e48710b	0.19574372
66	0xbf44fbbd	-0.7694662
67	0xbdfefa02	-0.12450029
68	0xbe2568c1	-0.16153242
69	0x3e2eb894	0.17062598
70	0xbdd0ec12	-0.10201277
71	0x3c77f16a	0.015133241
72	0x3daf30ee	0.085542545
73	0xbd080b66	-0.033213995
74	0x3d9dca17	0.07704561
75	0xbd7f831e	-0.062380902
76	0xbe7bf0cd	-0.24603577
77	0xbe0b223b	-0.13587277
78	0xbd3f2dc5	-0.04667451
79	0xbbe91f8a	-0.0071143555
80	0xbe404105	-0.18774803
81	0x3d022fa4	0.031783715
82	0x3dfd078d	0.12354956
83	0x3e05e35b	0.1307501
84	0xbd12f17e	-0.035874836
85	0xbdc9bb0f	-0.09850132
86	0x3def8a33	0.11696281
87	0xbdab256b	-0.08356746
88	0xbe81791e	-0.25287718
89	0xbe70291e	-0.23453185
90	0x3d70cd37	0.058789458
91	0xbe8f7ec3	-0.280264
92	0xbe57bfa2	-0.21069196
93	0xbe716e72	-0.23577288
94	0x3ec1c37b	0.37844452
95	0xbe22b371	-0.15888764
96	0xbe2f2152	-0.17102554
97	0x3bfebb2a	0.0077737765
98	0x3f48dc41	0.7846108
99	0xbe050d2a	-0.12993303
100	0xbeb4cb42	-0.35311323
101	0xbd4b66b8	-0.049658507
102	0x3e10a4cd	0.14125367
103	0xbd86602f	-0.06561314
104	0xbdab47b5	-0.083632864
105	0xbe52e820	-0.20596361
106	0xbe032812	-0.12808254
107	0xbe81be4c	-0.25340497
108	0xbc669855	-0.014074405
109	0xbe781cc1	-0.24229719
110	0x3eabfd87	0.33591864
111	0xbc4da52e	-0.012551589
112	0xbc9b04a9	-0.01892312
113	0xbe1a3c2b	-0.15062015
114	0x3eb1233f	0.34597203
115	0xbdeb8453	-0.11499848
116	0x3e9d5134	0.30726016
117	0xbe68e3e6	-0.22743186
118	0xbeaf5c56	-0.34250134
119	0xbe2220e7	-0.15832864
120	0xbe19545d	-0.14973588
121	0xbdefa733	-0.117018126
122	0xbcac05c6	-0.020998847
123	0x3dd6b32e	0.104833946
124	0xbe58044e	-0.21095392
125	0x3e248813	0.16067533
126	0x3ee6b3e2	0.45059115
127	0x3cfc7699	0.03081827
128	0xbe701a54	-0.23447543
129	0xbbee0c5b	-0.0072646565
130	0x3dffb064	0.12484816
131	0xbcc2b994	-0.023770131
132	0xbd775621	-0.060384873
133	0x3dfef88f	0.124497525
134	0xbeebd255	-0.46058908
135	0xbe7a78f2	-0.244602
136	0xbcf625d9	-0.030047344
137	0xbf01f102	-0.50758374
138	0xbe38c6b8	-0.18044555
139	0xbdbdcc15	-0.09267441
140	0x3e05e5cd	0.13075943
141	0x3eac1b5b	0.3361462
142	0xbe74d11a	-0.23907891
143	0x3dfa04f6	0.122079775
144	0x3ebeb8bb	0.37250313
145	0x3ede1b1b	0.43380055
146	0xbeab48fa	-0.33454114
147	0xbceff86e	-0.029293265
148	0x3ee552c2	0.44789702
149	0xbe83e8f8	-0.2576368
150	0xbef59d07	-0.47971365
151	0x3e36b394	0.17841941
152	0xbe03aee9	-0.12859692
153	0xbe06c46f	-0.13160871
154	0x3e11e9bd	0.1424932
155	0x3c02282e	0.00794415
156	0x3ee9b744	0.45647633
157	0x3e5e5e4d	0.2171566
158	0xbe2773cf	-0.16352771
159	0x3eb54914	0.35407317
160	0xbe22038e	-0.15821669
161	0xbdf4986e	-0.11943136
162	0x3eaafeda	0.3339756
163	0x3f042282	0.51615155
164	0xbef986a7	-0.48735544
165	0x3e9a4df6	0.30137604
166	0x3cf739f2	0.030178998
167	0xbda55e58	-0.08074635
168	0x3c668407	0.014069564
169	0xbe47d42c	-0.19514531
170	0xbc6da063	-0.014503571
171	0xbdfbecf3	-0.12301054
172	0xbe489740	-0.19588947
173	0x3be46913	0.0069705336
174	0x3d9fcbeb	0.07802566
175	0xbe62e142	-0.22156242
176	0x3e71040a	0.23536697
177	0x3cee42b0	0.029084533
178	0x3d9d22c4	0.07672647
179	0xbe469243	-0.19391732
180	0xbce240ab	-0.027618727
181	0x3de14ecd	0.11001358
182	0xbe033f5b	-0.12817137
183	0xbe610843	-0.21975808
184	0x3e91c8cd	0.2847351
185	0x3e8d805c	0.27636993
186	0x3e1d9862	0.1539016
187	0xbd88aee8	-0.06673986
188	0xbd05c49a	-0.032658197
189	0xbe70aafe	-0.23502728
190	0x3cde7885	0.027157078
191	0xbe06741f	-0.13130234
192	0xbe128fe7	-0.14312707
193	0x3dbec1eb	0.09314331
194	0xbee6ac57	-0.4505336
195	0xbd920177	-0.07129186
196	0x3bcc46ff	0.0062340493
197	0x3eb1a21b	0.3469399
198	0xbec20227	-0.37892267
199	0x3c6a28d3	0.01429196
200	0xbd3b5ad5	-0.04574092
201	0xbd087b3b	-0.033320647
202	0x3d077e4f	0.03307944
203	0xbd02c37b	-0.031924706
204	0x3df08682	0.11744405
205	0x3e5c39f3	0.21506481
206	0xbe8cd8d9	-0.27509192
207	0x3c934c93	0.01798085
208	0x3d40bd63	0.047055613
209	0xbdc73f45	-0.097288646
210	0xbe93b033	-0.28845367
211	0x3e8310d4	0.25598776
212	0x3e8435b1	0.25822213
213	0xbe88ae8d	-0.26695672
214	0xbe100594	-0.14064628
215	0x3e39c2a7	0.1814066
216	0xbda0f1b1	-0.07858599
217	0xbdfef46b	-0.12448963
218	0x3d62862d	0.05530374
219	0xbe8d635d	-0.2761487
220	0xbdfb2da5	-0.122645654
221	0x3b1ef2e7	0.0024253668
222	0x3dd5a54c	0.104319185
223	0x3e62dd3b	0.22154705
224	0x3eaef5d1	0.34171918
225	0x3dfb1b18	0.12261027
226	0x3e0fd9c8	0.1404792
227	0x3e45cc81	0.19316293
228	0x3e07e842	0.13272193
229	0xbe8f904b	-0.28039774
230	0xbe38b3e2	-0.1803737
231	0xbd6239ae	-0.05523079
232	0x3d54cedc	0.05195509
233	0xbee84f8f	-0.45373198
234	0xbed16999	-0.40900877
235	0xbe285801	-0.16439821
236	0x3efecd26	0.4976589
237	0xbeaf2575	-0.34208265
238	0x3e8fd27c	0.28090274
239	0x3edb55bf	0.42838857
240	0xbdd83576	-0.10557072
241	0x3eb94217	0.36183235
242	0xbe2b853b	-0.16750042
243	0xbee35861	-0.44403365
244	0x3e1d6374	0.1536997
245	0x3e0a2fb2	0.13494757
246	0xbee4cd77	-0.44688007
247	0xbd4fc7fb	-0.050727826
248	0x3e2b543e	0.16731355
249	0xbdacb2f0	-0.08432567
250	0xbe18ce2c	-0.14922398
251	0xbd1d143e	-0.038349383
252	0xbd8b3361	-0.06796909
253	0x3eb31848	0.34979463
254	0xbe4b45ce	-0.19850847
255	0x3dbdb7d5	0.09263579

gnn_base.gnn.gnn1.lin_query.bias f4 [48]
0	0x3e7c514e	0.2464039
1	0xbe8842b0	-0.2661338
2	0x3dfef1b1	0.12448443
3	0x3e735f4c	0.23766822
4	0xbd5905d8	-0.05298409
5	0x3e9e5841	0.30926707
6	0x3e5c7cd2	0.2153199
7	0xbd804242	-0.06262638
8	0x3e0b2f4f	0.13592266
9	0xbeb3fe11	-0.35154775
10	0x3e7a38b0	0.24435687
11	0x3ba5cebd	0.0050600455
12	0x3deebab9	0.11656708
13	0xbe1830d5	-0.14862378
14	0xbea85953	-0.3288065
15	0xbe82e636	-0.25566262
16	0xbedc2394	-0.42995894
17	0x3c4e2000	0.012580872
18	0xbe01e4d5	-0.12684949
19	0xbe263105	-0.16229637
20	0x3dffab10	0.124837995
21	0xbe104f83	-0.14092831
22	0x3daf2122	0.085512415
23	0xbe18e9ef	-0.14932989
24	0xbe3b082b	-0.18264835
25	0x3e5ee266	0.21766052
26	0xbe48212c	-0.19543904
27	0x3ec8597b	0.39130768
28	0x3db36f4a	0.08761461
29	0xbe9d6979	-0.30744532
30	0x3e939446	0.2882406
31	0x3e46b029	0.19403137
32	0xbe8654ce	-0.26236576
33	0xbe6f082d	-0.23342963
34	0x3e11fbd6	0.14256224
35	0x3d8366cb	0.064160906
36	0xbea4f234	-0.32216036
37	0x3eb0cf1c	0.34533012
38	0x3e46eab1	0.19425465
39	0xbd98a80d	-0.07453928
40	0xbdfdf0f0	-0.12399471
41	0x3efe9688	0.4972422
42	0x3bf18707	0.007370833
43	0xbc8854d8	-0.01664202
44	0xbc6e74a1	-0.014554174
45	0x3df9ed14	0.12203422
46	0x3e1d87bb	0.15383808
47	0x3e86234d	0.26198807

gnn_base.gnn.gnn1.lin_value.weight f4 [48, 16]
0	0x3bfd26e5	0.007725584
1	0x3e4ad1d1	0.19806601
2	0xbe58bdd9	-0.21166171
3	0xbd84736e	-0.06467329
4	0x3e2d9def	0.16954778
5	0xbdc48f55	-0.09597651
6	0x3e72ca3d	0.2370996
7	0xbc60038a	-0.013672719
8	0x3cd958ed	0.02653166
9	0xbcd2db7c	-0.025739424
10	0x3d298fb8	0.041396827
11	0xbc8872ef	-0.016656367
12	0xbd25a74d	-0.040442754
13	0x3ea50046	0.3222677
14	0x3e884323	0.2661372
15	0x3e800076	0.25000352
16	0xbe76f63a	-0.24117365
17	0xbe89c584	-0.26908505
18	0xbeab2ae0	-0.3343115
19	0x3e48d787	0.19613467
20	0x3d770476	0.06030699
21	0x3e0d9c6e	0.13829204
22	0x3d495841	0.04915643
23	0x3ca12968	0.019673064
24	0x3d88043a	0.06641431
25	0x3e9bfb9e	0.30465406
26	0x3bfa7033	0.0076427697
27	0xbdb15b18	-0.08659953
28	0xbd16ffcf	-0.03686505
29	0x3e7ce740	0.2469759
30	0x3d10390a	0.035210647
31	0xbe26fb04	-0.16306692
32	0xbdad2214	-0.084537655
33	0xbc67d98d	-0.014150989
34	0xbe89e0be	-0.26929277
35	0xbde77cc4	-0.11303094
36	0x3cae414d	0.021271372
37	0x3ee87ed7	0.4540927
38	0x3e5949dc	0.21219581
39	0x3e62f77e	0.22164723
40	0xbe20ddec	-0.15709656
41	0x3d4bdd2d	0.049771477
42	0x3e045dab	0.12926356
43	0x3e771811	0.24130274
44	0x3d957dd7	0.07299393
45	0xbd3bd11d	-0.045853723
46	0xbeb21cf3	-0.34787712
47	0x3dcb0252	0.09912552
48	0xbd904220	-0.07043862
49	0xbd23c88b	-0.039986175
50	0xbd842ff5	-0.064544596
51	0x3ea0a8e3	0.3137885
52	0xbe02ad5f	-0.12761448
53	0xbeea9bb8	-0.4582193
54	0x3e2a4a6c	0.16629952
55	0xbe617c4b	-0.2202007
56	0x3dc351f5	0.095371164
57	0x3e320ed1	0.17388465
58	0x3dc700f6	0.0971698
59	0xbd898b6a	-0.06716044
60	0xbe2eacb0	-0.17058063
61	0x3e7d4723	0.24734168
62	0x3c56cc01	0.013110162
63	0xbdef5a84	-0.11687186
64	0x3e125dea	0.14293638
65	0xbca0a801	-0.01961136
66	0xbe12969f	-0.1431527
67	0xbe16f1e1	-0.14740707
68	0xbe350fb9	-0.17681779
69	0xbe5398f0	-0.2066381
70	0xbdf0cc6f	-0.117577426
71	0x3e4f01f2	0.20215586
72	0xbe67a9d8	-0.22623384
73	0xbd9b08b2	-0.07570018
74	0x3e581f29	0.21105637
75	0xbd31f96a	-0.04345075
76	0x3e022115	0.12707932
77	0x3edd90fd	0.4327468
78	0x3e47b59e	0.19502875
79	0x3e9e5b1d	0.3092889
80	0x3e3dec36	0.18547139
81	0xbc958e50	-0.018256336
82	0x3e1cc4eb	0.15309493
83	0xbe4d9f50	-0.20080304
84	0x3e72dfb5	0.2371815
85	0xbd5f7c22	-0.05456174
86	0x3e136ecd	0.14397736
87	0xbd5d2782	-0.053992756
88	0xbe5b1876	-0.2139605
89	0x3dd0f3f4	0.1020278
90	0x3d326f58	0.043563217
91	0x3e35ed61	0.17766334
92	0xbcc9f01d	-0.024650628
93	0x3e806f51	0.25084928
94	0x3e8d7fd2	0.27636582
95	0x3eca9c10	0.3957219
96	0x3e2019c1	0.15634824
97	0x3e4adf29	0.19811691
98	0xbcea4d46	-0.0286013
99	0xbf456c7c	-0.7711866
100	0xbe5c492f	-0.21512292
101	0x3e619485	0.22029312
102	0xbe54430f	-0.20728706
103	0xbd709034	-0.058731273
104	0x3e3440e4	0.17602879
105	0x3d5702d1	0.05249292
106	0x3eb69dea	0.35667354
107	0x3da7baef	0.08189952
108	0xbd8d9fa5	-0.069152154
109	0x3f20a4f9	0.6275173
110	0xbdc08f13	-0.09402289
111	0xbe236d6d	-0.15959711
112	0xbd8a79a9	-0.06761486
113	0xbde78ec6	-0.11306529
114	0x3e81ee14	0.25376952
115	0xbe2e1ca6	-0.17003116
116	0x3d948abf	0.07253026
117	0xbe068d41	-0.13139822
118	0xbd8206ab	-0.06348928
119	0xbe227ed9	-0.15868701
120	0x3d89cba4	0.067282945
121	0xbe8bbfc8	-0.27294755
122	0xbcfc913a	-0.030830968
123	0x3e2c7e29	0.16845001
124	0xbeb1f1e2	-0.34754854
125	0x3eaff8ce	0.3436951
126	0x3dfecaa1	0.12440992
127	0xbe939804	-0.28826916
128	0x3e194677	0.14968286
129	0x3e3df432	0.18550184
130	0x3df2280f	0.11824047
131	0xbbbf4986	-0.005837622
132	0x3e8431fc	0.25819385
133	0xbe2de5a4	-0.16982132
134	0xbd142e29	-0.036176834
135	0x3e2fa9a1	0.17154552
136	0xbe2a7aa9	-0.16648354
137	0xbe3d8c9b	-0.18510668
138	0xbe3c8974	-0.18411809
139	0x3e8f827c	0.2802924
140	0x3e95a197	0.29224846
141	0xbe6b64b1	-0.2298763
142	0x3db7136b	0.089392506
143	0x3e2c20c2	0.16809371
144	0xbe86e07e	-0.2634315
145	0xbe86746b	-0.26260695
146	0xba35945b	-0.0006926709
147	0x3ea38d93	0.3194395
148	0x3d814163	0.063113
149	0x3ea4edea	0.32212764
150	0x3e554e5c	0.20830673
151	0xbe079150	-0.13239026
152	0xbddb4972	-0.10707368
153	0xbd0ea13d	-0.034821738
154	0x3c28fb98	0.010313891
155	0x3e951361	0.29116347
156	0xbbf4e444	-0.0074735004
157	0xbd27ffc6	-0.04101541
158	0xbf08627f	-0.53275293
159	0xbe1ee60d	-0.15517445
160	0x3d918c1e	0.07106803
161	0x3e5c8cf1	0.2153814
162	0x3e5e06b1	0.2168224
163	0xbe40fab1	-0.18845631
164	0x3e93646b	0.2878755
165	0xbe7476ca	-0.2387344
166	0x3e065807	0.13119517
167	0x3eb49947	0.3527319
168	0xbdb72fc8	-0.089446604
169	0xbe2f055c	-0.17091888
170	0xbea8d9d5	-0.32978693
171	0xbd9bf74c	-0.076155275
172	0xbb2314a6	-0.0024884134
173	0x3dcaab9f	0.098960154
174	0x3df64753	0.12025323
175	0x3d9efb24	0.07762745
176	0x3e11b1ff	0.14228056
177	0x3d88df1d	0.066831805
178	0xbf233290	-0.6374903
179	0x3dd14f15	0.10220162
180	0x3e6ec2dd	0.23316522
181	0x3c342a25	0.010996376
182	0x3d18ff2b	0.037352722
183	0x3e32888f	0.17434905
184	0x3ef33fa0	0.4750948
185	0xbe208958	-0.15677392
186	0xbe2b97c0	-0.16757107
187	0x3d70f27a	0.058824994
188	0x3c8cd8fb	0.017193308
189	0xbdb19218	-0.08670443
190	0xbe890813	-0.26763973
191	0x3e59678c	0.21230906
192	0xbd8c6086	-0.06854348
193	0x3e225107	0.15851222
194	0xbcae1abb	-0.02125298
195	0x3e867523	0.26261243
196	0x3dd56a1d	0.1042063
197	0x3ea84ea2	0.32872492
198	0x3efcee01	0.49400333
199	0xbe2132ce	-0.15742037
200	0x3dd7faab	0.10545858
201	0x3eb150bd	0.3463191
202	0xbde2be11	-0.110714085
203	0xbe5eb876	-0.21750054
204	0xbdee1587	-0.116252
205	0xbda135fb	-0.07871624
206	0xbed28f47	-0.41124937
207	0x3ebcff11	0.3691335
208	0x3e78e62f	0.24306558
209	0x3e73f6f2	0.23824671
210	0xbf1c1762	-0.6097318
211	0xbe35eaa3	-0.17765288
212	0x3e80fd4d	0.25193253
213	0xbe80e05a	-0.25171167
214	0x3e1934a6	0.1496149
215	0x3e9a177d	0.30096045
216	0xbde23b56	-0.11046474
217	0x3dcae5e9	0.09907133
218	0x3e7b543a	0.24543849
219	0x3dfdae89	0.123868056
220	0xbde0e4e9	-0.10981161
221	0x3e86812f	0.26270434
222	0xbe314f69	-0.17315449
223	0xbdabd02a	-0.083893135
224	0xbe4d07c6	-0.20022497
225	0xbba50070	-0.0050354525
226	0x3d1fbe9b	0.039000135
227	0x3e787f43	0.24267296
228	0xbd83aff9	-0.064300485
229	0x3d89089c	0.06691095
230	0x3e019a67	0.12656556
231	0x3dfa5ca0	0.12224698
232	0xbdfa93b2	-0.12235202
233	0x3e108c5f	0.14116047
234	0xbd787d4c	-0.060666367
235	0xbe9dac66	-0.30795592
236	0xbe3c802d	-0.1840827
237	0xbe4c5f86	-0.19958314
238	0xbeb2df23	-0.34935865
239	0xbe04f456	-0.12983832
240	0x3e18813f	0.14893053
241	0x3e8ffe1e	0.28123564
242	0xbece618a	-0.4030879
243	0x3da62914	0.08113304
244	0x3e108f4c	0.14117163
245	0x3e546cb0	0.20744586
246	0x3d712b8c	0.05887942
247	0x3cf39e89	0.029738681
248	0xbd811a19	-0.06303806
249	0x3db2c4f8	0.08728975
250	0xbe347c0f	-0.1762545
251	0x3ec7cfa8	0.39025617
252	0xbdcd26b9	-0.100171514
253	0x3d8ba0af	0.06817757
254	0xbdd44334	-0.103643805
255	0x3ce97c77	0.028501732

gnn_base.gnn.gnn1.lin_value.bias f4 [48]
0	0x3e8561e5	0.2605125
1	0x3df06895	0.117386974
2	0xbec5b2d1	-0.3861299
3	0xbd500f86	-0.050796054
4	0x3df7663e	0.12080048
5	0xbe249b03	-0.16074757
6	0x3e5dc110	0.21655679
7	0x3def7727	0.116926484
8	0xbe056b05	-0.13029106
9	0x3ea4142f	0.3204665
10	0x3be4ecc1	0.006986231
11	0xbcdeccec	-0.027197324
12	0xbe1ac3be	-0.15113732
13	0xbe92fa5c	-0.28706634
14	0x3e3117c7	0.17294227
15	0x3c9d6886	0.01921488
16	0x3e621965	0.2208
17	0xbe26ef83	-0.16302304
18	0xbea401cb	-0.32032618
19	0xbd82ef23	-0.06393268
20	0xbe50701f	-0.20355271
21	0xbd4aa859	-0.049476955
22	0x3e4a1051	0.19732787
23	0x3ea1894c	0.31550062
24	0x3ca8f396	0.020623963
25	0xbd8eafbd	-0.06967113
26	0xbe296166	-0.16541061
27	0xbddb90c0	-0.10720968
28	0xbd8de44d	-0.069283105
29	0x3c1825ed	0.009286386
30	0xbd7b3b9b	-0.06133614
31	0x3e0db047	0.13836776
32	0x3e82450c	0.25443304
33	0x3e961386	0.2931177
34	0xbdfac942	-0.12245418
35	0xbe66991a	-0.22519341
36	0xbe0dc0ca	-0.13843074
37	0xbead9a23	-0.3390666
38	0x3de3ba95	0.11119572
39	0x3d9d9455	0.07694308
40	0x3daf4910	0.085588574
41	0x3e6b7215	0.22992738
42	0xbe1c2099	-0.1524681
43	0xbe05ac2a	-0.13053957
44	0xbd24a9a7	-0.040200856
45	0xbd5e2731	-0.054236595
46	0xbe23de08	-0.16002667
47	0xbd823402	-0.06357576

gnn_base.gnn.gnn1.lin_edge.weight f4 [48, 1]
0	0x3f45caf4	0.77262807
1	0x3ef13f0d	0.47118416
2	0xbf506b88	-0.8141408
3	0x3f428bdb	0.7599465
4	0xbf144bbe	-0.57928073
5	0x3f2d8ce5	0.67793113
6	0xbf0e0bde	-0.5548686
7	0x3f3a46f3	0.7276451
8	0x3e9fe59c	0.31229866
9	0x3e2e97a8	0.1705004
10	0x3f22a995	0.6354001
11	0x3f324322	0.69633687
12	0xbf58a13d	-0.8462103
13	0x3e23f8eb	0.16012923
14	0x3f5e9bfc	0.86956763
15	0xbebafefc	-0.36522663
16	0x3f4c977e	0.7991866
17	0x3f50d45a	0.8157402
18	0xbf8a9159	-1.0825607
19	0x3f14475a	0.57921374
20	0xbf8bfec3	-1.0937122
21	0x3edf5731	0.4362121
22	0xbf83579f	-1.0261115
23	0xbf2269f0	-0.634429
24	0xbdc22080	-0.09478855
25	0xbf0b6029	-0.54443604
26	0xbd1d5fbd	-0.03842138
27	0xbf1a7b68	-0.60344553
28	0x3ef309db	0.47468457
29	0xbdb3b16b	-0.08774074
30	0xbf310592	-0.69149125
31	0xbedc83d4	-0.43069327
32	0x3eb7a14f	0.35865256
33	0x3f14af8b	0.5808036
34	0xbf519ea9	-0.8188272
35	0xbf1618bd	-0.586315
36	0x3e890f96	0.26769704
37	0xbf7500b9	-0.9570423
38	0xbf69a932	-0.91273797
39	0xbfb52021	-1.415043
40	0xbf1fcf60	-0.62425804
41	0xbf1bf76f	-0.6092443
42	0x3db02e66	0.086026
43	0x3f235f17	0.6381697
44	0x3f1b15d0	0.6058016
45	0xbf735640	-0.9505348
46	0x3f8e8aa5	1.1136061
47	0xbf913380	-1.1343842

gnn_base.gnn.gnn1.lin_skip.weight f4 [16, 16]
0	0xbd75822d	-0.0599386
1	0x3cf2f074	0.029655673
2	0x3e42418e	0.1897032
3	0xbd40dc28	-0.047084957
4	0xbdd5b091	-0.10434068
5	0xbe8dfc67	-0.2773163
6	0xbe314690	-0.17312074
7	0xbdc73ea6	-0.09728746
8	0xbe1933f3	-0.14961223
9	0xbcc7386c	-0.024318896
10	0x3ead4726	0.33843344
11	0x3d8573df	0.06516241
12	0x3ea6f0c4	0.32605565
13	0xbf2ceaaa	-0.6754557
14	0xbe0b40aa	-0.13598886
15	0x3e89a013	0.2687994
16	0x3dc8af29	0.09799034
17	0xbd8a8c39	-0.067650266
18	0xbde42548	-0.11139923
19	0xbdd92a55	-0.10603777
20	0x3e676b38	0.22599494
21	0xbf0fb7b1	-0.56139666
22	0x3d5ec5d6	0.05438789
23	0x3c5c31d4	0.013439614
24	0x3d894b9b	0.06703874
25	0xbe63515c	-0.22199005
26	0x3c9a0edf	0.01880592
27	0x3e8f4b89	0.27987316
28	0xbe108115	-0.14111741
29	0x3c9f502b	0.019447407
30	0xbe40bc6e	-0.1882188
31	0xbcf06801	-0.029346468
32	0x3d5daadf	0.054118033
33	0x3ddd6ba8	0.108115494
34	0xbe003060	-0.12518454
35	0xbd04191a	-0.0322505
36	0xbdd8ef21	-0.10592485
37	0x3eaa468b	0.33256945
38	0xbe93312c	-0.28748453
39	0x3ec6e6d0	0.3884797
40	0xbe423fa0	-0.18969584
41	0xbe6b004a	-0.22949329
42	0x3e4ebd6d	0.20189448
43	0x3d83fa64	0.064442426
44	0x3c4e12c1	0.0125777135
45	0xbe83074a	-0.255915
46	0xbe7ea655	-0.24868138
47	0xbd946ee7	-0.072477154
48	0x3eced336	0.40395516
49	0x3e3e0c70	0.18559432
50	0x3c6ec05f	0.014572232
51	0x3de8f988	0.11375719
52	0xbcf0a721	-0.029376568
53	0xbe679a23	-0.22617392
54	0x3e4a8f73	0.19781284
55	0xbde1ccbe	-0.110253796
56	0x3efa4a72	0.48884922
57	0x3bdc8686	0.0067299036
58	0xbe229db3	-0.1588047
59	0x3eaafa57	0.3339412
60	0x3db9cd37	0.09072345
61	0xbd534382	-0.051578052
62	0xbdf37f7d	-0.11889551
63	0x3cc6552e	0.024210539
64	0x3e7179bd	0.23581596
65	0x3dfe72ec	0.12424263
66	0xbeaf2771	-0.3420978
67	0x3efa3012	0.488648
68	0x3dd94050	0.1060797
69	0xbf0c5682	-0.548195
70	0xbcfe2353	-0.031022703
71	0xbe5991b1	-0.21246983
72	0x3c3a3f11	0.011367575
73	0xbdc9cc5f	-0.09853434
74	0xbec1c01c	-0.3784188
75	0x3e3613ee	0.1778104
76	0x3d9d90f6	0.07693665
77	0x3e6b3745	0.22970302
78	0x3e34e77f	0.17666434
79	0x3e5ee110	0.21765542
80	0x3dca1b92	0.0986854
81	0xbcff3922	-0.031155173
82	0xbeda3b1e	-0.42623228
83	0xbe4740bb	-0.19458286
84	0x3cd9dfab	0.026595911
85	0xbdf67cfc	-0.12035558
86	0xbda32799	-0.07966537
87	0xbd97a9ef	-0.07405459
88	0x3e0cfc94	0.13768226
89	0x3dda4556	0.10657756
90	0xbe777883	-0.24167065
91	0x3e1f3372	0.15546969
92	0x3d44553b	0.047932845
93	0x3efbaa97	0.49153587
94	0xbe7750ac	-0.24151868
95	0xbdc59c61	-0.096489675
96	0x3dbe6d33	0.09298172
97	0xbe774956	-0.24149069
98	0x3e6f879c	0.23391575
99	0x3e1bd686	0.15218553
100	0x3d1e1dfc	0.038602814
101	0x3cff90c9	0.031196969
102	0xbc17b58e	-0.009259595
103	0x3ddbed15	0.10738579
104	0xbe33fd8a	-0.17577186
105	0x3e057a93	0.1303504
106	0x3d15773b	0.03649066
107	0x3c37ff9c	0.011230376
108	0xbe14dec2	-0.145381
109	0x3e2edcfb	0.17076485
110	0x3b0c2d6b	0.0021389376
111	0xbe9e4f94	-0.30920088
112	0xbe433ede	-0.1906695
113	0xbe69caf0	-0.22831321
114	0x3d745931	0.059655372
115	0xbda9ee02	-0.082973495
116	0x3e8618eb	0.26190886
117	0xbea995b4	-0.33122027
118	0xbe769b13	-0.24082594
119	0x3e6c9e0d	0.23107167
120	0xbdce8c49	-0.10085351
121	0xbdabbd9d	-0.08385775
122	0x3ed4772e	0.41497177
123	0x3e8b8258	0.27247882
124	0xbc17191d	-0.009222296
125	0x3d1cb9db	0.038263183
126	0x3ca7f909	0.020504491
127	0xbd942c87	-0.072350554
128	0x3e141d17	0.14464222
129	0xbe3f1d0a	-0.18663421
130	0xbe8eaa38	-0.27864242
131	0xbd004ae8	-0.031321436
132	0xbe2e91c1	-0.17047788
133	0x3ea321f2	0.31861836
134	0x3da57512	0.0807897
135	0x3e3e2c9d	0.18571706
136	0xbb520ba7	-0.0032050402
137	0xbddd47d6	-0.10804717
138	0x3e6a281d	0.22866865
139	0x3e5f7847	0.21823226
140	0x3d3e2974	0.04642625
141	0xbf07dcd9	-0.5307136
142	0x3e91a54e	0.2844643
143	0x3dd02f77	0.10165303
144	0x3e005a16	0.12534365
145	0xbe8be2c6	-0.27321452
146	0x3d9ff68d	0.07810698
147	0xbd8166a9	-0.06318409
148	0x3db944c6	0.090463206
149	0xbe456c43	-0.1927958
150	0x3d88fecb	0.06689223
151	0x3e344ab1	0.17606618
152	0x3e32b6f7	0.17452608
153	0xbe6c3fa1	-0.23071148
154	0x3e7569b2	0.23966101
155	0x3ee5aeea	0.4486001
156	0x3ea5226f	0.32252833
157	0xbf15e9c9	-0.5855985
158	0x3e5081cd	0.20362015
159	0x3e4091dd	0.18805642
160	0xbda4134d	-0.08011494
161	0x3eb8dd68	0.3610642
162	0xbd8bc671	-0.06824959
163	0x3d6a9f6d	0.057280947
164	0x3d03454d	0.032048512
165	0x3d8d5939	0.069017835
166	0x3e5e96ac	0.21737164
167	0x3e459866	0.19296417
168	0x3d00ac00	0.031414032
169	0x3eae8aee	0.3409037
170	0xbeb39bed	-0.350799
171	0xbca5321a	-0.020165492
172	0xbc8d0364	-0.01721353
173	0xbeaa687b	-0.33282837
174	0xbef80554	-0.48441565
175	0xbda2edf0	-0.07955539
176	0x3e40f7be	0.18844506
177	0x3f2e19c0	0.6800804
178	0xbedc5aef	-0.43038127
179	0xbd72c35b	-0.059268337
180	0x3dd572cb	0.10422286
181	0x3e846399	0.25857237
182	0x3e1a914e	0.15094492
183	0x3eeb94d0	0.46011972
184	0x3f1d53b3	0.6145584
185	0xbed16951	-0.40900663
186	0xbea3cbd2	-0.3199144
187	0x3e6e65e7	0.2328106
188	0x3e53b140	0.20673084
189	0x3e51c730	0.2048614
190	0xbd86c947	-0.06581359
191	0x3e871e76	0.26390427
192	0xbe0a963e	-0.13533875
193	0xbe8c353f	-0.27384374
194	0x3eb25b4e	0.34835285
195	0x3e052c0b	0.13005082
196	0xbe0a8d11	-0.13530375
197	0x3ec365f0	0.3816371
198	0x3e543160	0.2072196
199	0x3dd2b3fe	0.10288237
200	0xbcbece22	-0.023291651
201	0xbdbae96a	-0.091265514
202	0x3d6a6098	0.057221025
203	0x3bfb80b1	0.0076752533
204	0x3e43567b	0.19075958
205	0x3e4e4285	0.20142563
206	0xbe462906	-0.19351587
207	0x3dbe87f6	0.09303276
208	0xbd9a7b81	-0.07543088
209	0xbe2ad77b	-0.16683762
210	0xbe84e6c7	-0.2595732
211	0xbe195277	-0.14972864
212	0x3d87b920	0.06627107
213	0x3e1211e5	0.14264639
214	0x3c89b896	0.01681165
215	0xbe949998	-0.29023433
216	0x3ee6751f	0.4501123
217	0x3e8529ec	0.26008546
218	0x3e4cf523	0.20015387
219	0x3e1ddea6	0.15416965
220	0xbd3c0293	-0.045900892
221	0xbeaef8af	-0.34174106
222	0x3d5e45e8	0.054265887
223	0xbd3de076	-0.04635664
224	0xbe1e62f4	-0.15467435
225	0xbeb5fe77	-0.35545704
226	0x3e75c67b	0.24001496
227	0xbe905bc5	-0.28195015
228	0xbda59c74	-0.08086482
229	0xbde938e4	-0.11387804
230	0x3eb75e00	0.35813904
231	0x3de8f1bb	0.113742314
232	0xbe782d97	-0.24236141
233	0x3d2f543b	0.042804938
234	0x3e899136	0.268686
235	0x3e161584	0.14656645
236	0xbe84c2d2	-0.25929886
237	0x3db2574d	0.087080576
238	0x3d293604	0.04131128
239	0xbc31ceb6	-0.010852506
240	0xbe4e3b2d	-0.20139761
241	0xbe97a6de	-0.29619497
242	0x3db49e8b	0.08819302
243	0xbe350e11	-0.17681147
244	0xbe0e6a54	-0.13907748
245	0x3ed39e29	0.41331604
246	0xbd1dad9b	-0.03849564
247	0xbeae0949	-0.3399146
248	0x3e0fd63e	0.1404657
249	0xbd3b9bce	-0.045802884
250	0xbdc19b15	-0.09453408
251	0xbe9550b5	-0.29163137
252	0x3e33d462	0.17561486
253	0x3ee04b2d	0.43807355
254	0xbe5b14cb	-0.2139465
255	0x3de71ef2	0.11285199

gnn_base.gnn.gnn1.lin_skip.bias f4 [16]
0	0x3dcc120b	0.09964379
1	0xbd940ee0	-0.072294
2	0xbe02d898	-0.12777936
3	0x3dadc46f	0.08484732
4	0xbd62c556	-0.055363975
5	0xbe1ba1e9	-0.15198483
6	0x3e5c1136	0.2149094
7	0x3d3e4425	0.046451706
8	0x3e122b57	0.14274345
9	0x3bb53715	0.005530248
10	0xbdba5557	-0.090983085
11	0xbeb62bc6	-0.3558027
12	0xbbd6e224	-0.00655772
13	0x3e10d557	0.14143883
14	0xbe06de97	-0.13170849
15	0xbe7624b9	-0.24037446
