model_weights/old_FA_FR/rota_tube/actor.pt (torch, 203096 bytes, 58 tensors)

gnn_base.gnn.embed_layer.layer_norm.weight f4 [16]
000000 0e 12 83 3f 2f 73 93 3f 52 93 88 3f f1 ac 85 3f
       1.0239885 1.1519526 1.0669959 1.0443403
000010 ae 29 57 3f 35 a3 81 3f 05 fa 7b 3f dd 66 8a 3f
       0.84047973 1.0127932 0.98428375 1.0812641
000020 b3 5f a4 3f 5f ee 86 3f 87 bc 85 3f a7 e4 9f 3f
       1.2841705 1.0541495 1.0448159 1.2491654
000030 c4 b9 7b 3f b8 aa 92 3f 28 2e 91 3f 26 9c 89 3f
       0.9833033 1.1458349 1.1342211 1.0750778

gnn_base.gnn.embed_layer.layer_norm.bias f4 [16]
000000 1d ba aa 3b 2c f8 ef 3d 5b a4 18 bd 4f 1c ca 3a
       0.0052101747 0.11717257 -0.037266117 0.0015419814
000010 fd 98 24 3e f4 b1 9a bd 48 85 3d bd 31 bd a2 3c
       0.16073985 -0.07553473 -0.046269685 0.019865604
000020 a4 5b 67 bd b2 9c 9d 3b cb 64 0d bd 2d fc 5f 3c
       -0.05648388 0.0048099393 -0.03451995 0.013670963
000030 40 f5 df 3c ee 50 6e bd 76 d2 4c 3c 42 05 10 bc
       0.027338624 -0.05818265 0.01250135 -0.008790316

gnn_base.gnn.embed_layer.entity_embed.weight f4 [4, 2]
000000 8a 0f c2 3f af 8a 96 be 8b 23 ec bf 35 ca 24 3f
       1.5160992 -0.29402682 -1.8448347 0.64371043
000010 fa 66 84 bf 96 37 b0 bf 7a 83 ce 3e e5 88 56 3f
       -1.0343926 -1.3766963 0.40334684 0.83802634

gnn_base.gnn.embed_layer.lin1.weight f4 [16, 15]
000000 8c 91 fc 3e b3 6b bd 3e 0a 72 3a 3f 0a 63 52 be
       0.49329793 0.3699623 0.7283026 -0.20545593
000010 0c e6 14 be d2 a5 20 bf f5 80 4f 3e db 3e 2e 3c
       -0.14540881 -0.6275302 0.20264037 0.010635103
000020 4b c2 12 3f 2d 6e d3 3e f3 c2 bb 3e 40 41 41 3f
       0.5732772 0.41294995 0.36672172 0.7549019
000030 06 90 1d 3e 69 78 39 3f c4 a9 22 be 84 d7 3c be
       0.15386972 0.72449356 -0.15885073 -0.18441588
000040 7c ce 50 bc 5d f6 23 bd 16 a1 ae 3e 44 a5 b2 3d
       -0.012744542 -0.040029872 0.34107274 0.08722928
000050 da 9a a1 3b db 81 9b 3e c1 f7 e0 be 4b 73 2a 3e
       0.00493179 0.3037251 -0.4393902 0.16645543
000060 b5 50 12 3e 49 fb f0 be 64 32 eb be 52 93 27 bf
       0.142886 -0.47066715 -0.45936882 -0.6545917
000070 6e be f0 3e e4 6d 3e 3f 1b 1b 76 be 44 bc 8d be
       0.47020286 0.7438643 -0.24033777 -0.27682698
000080 ad 66 3c bf ee 83 a9 be 1f 10 3d be a8 f5 d7 be
       -0.7359417 -0.33108467 -0.18463181 -0.42179608
000090 f8 19 a6 3d 6c e3 5d 3e c4 f4 8b be 8a 79 21 be
       0.08110422 0.21668786 -0.2733518 -0.1576902
0000a0 a3 03 2c be db 82 58 3c 80 3d 26 bf dd f2 5d bf
       -0.16798262 0.013214792 -0.6493759 -0.86698705
0000b0 e3 94 2b 3c 7e 69 a9 bc f4 52 9e 3d 98 44 99 3e
       0.010472509 -0.020680185 0.07730666 0.29935145
0000c0 46 f8 d0 3d 14 78 bd be c9 b5 83 3e 3b ed 2c 3f
       0.102036044 -0.37005675 0.2572463 0.67549485
0000d0 39 a6 97 3e bc 3e ba 3e 61 7a 07 3f 9e d6 d0 3d
       0.29619005 0.36375988 0.5292111 0.10197185
0000e0 3d c1 e7 3d 13 48 1a 3f aa 7f 8f be 17 ce 10 3f
       0.11316154 0.60266227 -0.28027087 0.5656447
0000f0 93 20 b4 3e 63 0e 42 3f 1b 2c d7 be ec b0 9f 3e
       0.35181102 0.758032 -0.42025837 0.31189668
000100 af 4b b5 3e 0b c6 27 3d 93 6d 8a 3e 49 2b 33 3f
       0.35409304 0.040960353 0.27036723 0.6998792
000110 ad 1f f2 3e e7 64 97 3d 6b ea f4 3e 88 61 e2 bd
       0.47289792 0.073922925 0.47835097 -0.11053759
000120 39 02 2a be 96 51 80 3e 47 91 79 be e3 81 92 3d
       -0.1660241 0.25062245 -0.24371825 0.0715368
000130 c4 db e8 3e 9d 71 12 3f c1 37 e9 be ca 75 8f 3d
       0.45480168 0.5720461 -0.4555035 0.07004888
000140 25 f5 21 3d 1e 33 16 3d df 17 d1 be 34 33 87 3e
       0.03954043 0.036669843 -0.40838525 0.26406252
000150 f0 82 aa bd 74 05 61 3f f3 2e e7 be 39 c8 fc bd
       -0.083257556 0.87898946 -0.45153007 -0.12342877
000160 4e e5 13 be 54 b7 89 bb 8b a8 cf be 68 8b 04 3f
       -0.14442942 -0.0042027626 -0.40558276 0.5177522
000170 20 10 e4 be 4b ac b4 3e e1 cd ae 3e 1a 1c ae be
       -0.44543552 0.352877 0.34141448 -0.34005815
000180 d4 d8 ef 3d 72 c0 ea be 1e e4 c5 be 72 60 0d 3f
       0.117112786 -0.4584995 -0.38650602 0.5522529
000190 28 d9 6e be d1 2d 12 3f 57 d2 91 3d 6c da 25 3d
       -0.23325026 0.5710116 0.07120197 0.040491506
0001a0 06 e0 d1 bc 80 4b 16 3f bd 34 ba be b1 19 1b 3f
       -0.025619518 0.58708954 -0.3636836 0.60586077
0001b0 ac e2 85 3d c5 99 24 3f b8 77 0a 3c 16 62 1f 3f
       0.06537375 0.64297134 0.008451395 0.6225904
0001c0 27 b2 87 be 4a 4f e0 3e ec 77 c4 bd 6b 0d 27 3f
       -0.26503107 0.43810493 -0.09593186 0.6525485
0001d0 2d 9f b5 3e b7 4c 86 bd 51 21 c7 bd 95 fa ff 3d
       0.35473004 -0.06557601 -0.097231515 0.124989666
0001e0 b4 27 e2 3d 74 eb 79 be fa d7 9f 3e 2b 20 0f bf
       0.11042729 -0.24406224 0.31219465 -0.5590846
0001f0 95 9d c7 3d 3a 2e ad be 28 7e e8 3d 7f 53 09 bd
       0.09746853 -0.3382433 0.113521874 -0.033526894
000200 e2 57 6a 3f d7 a2 c8 3d 6d 28 90 be ff 0c 57 bf
       0.9154035 0.09796684 -0.28155842 -0.84004205
000210 85 e3 dd 3d c4 1c b8 be ef fc 24 bf 61 f5 a3 3e
       0.108344115 -0.35959446 -0.64448446 0.32023147
000220 2c cf b4 3d 6e a3 21 3f 11 f7 32 3f b3 06 a8 3c
       0.088285774 0.6314 0.69908243 0.020511007
000230 f7 3a c0 be ae 4f 9e be 41 19 80 3e 7a 5c ae be
       -0.37544987 -0.30920166 0.25019267 -0.3405493
000240 56 41 85 3f 55 69 e0 3e a0 ff bb bd db 86 f1 3d
       1.0410564 0.43830362 -0.09179616 0.117933
000250 68 e8 b2 bc d3 6d 43 be a2 2d 2e 3d 57 c0 be be
       -0.021839336 -0.19084863 0.042523988 -0.3725612
000260 1f 60 32 bf 37 5c c4 bc 7e a0 44 bd cd c1 3b bc
       -0.6967792 -0.023969753 -0.04800462 -0.01145978
000270 aa c3 f6 3e 77 af da be ed c2 13 bf 1c 2d ee be
       0.48196155 -0.42711994 -0.5771931 -0.4651879
000280 fa f9 76 be 0c e7 41 bf 10 43 ff 3e 1a 2d 17 be
       -0.24118796 -0.75743175 0.49855852 -0.14763299
000290 28 97 4a bc d4 28 cd be 57 b3 85 3e a7 63 be 3c
       -0.01236514 -0.40070212 0.26113388 0.023240877
0002a0 ff 4c 1e 3e 90 77 36 bd 22 aa 90 be ab 13 19 3f
       0.15459059 -0.044547617 -0.282548 0.59795636
0002b0 23 1a 4b be 07 01 8e bf 45 d6 0e be 13 08 23 bf
       -0.19834189 -1.1094064 -0.13948925 -0.63684195
0002c0 cf ac 92 bc 03 30 fe bc 3a 41 a8 bd b8 51 1a bf
       -0.017904667 -0.031028753 -0.08215566 -0.6028094
0002d0 6b a3 93 bd ab eb 1e bf 4b 96 3f 3e d3 cd 8c bd
       -0.07208904 -0.6207835 0.18709676 -0.06875195
0002e0 5d 9b 0d bf f5 3e 41 3d 6d 3c a7 3e 64 13 aa 3a
       -0.5531519 0.04717918 0.3266329 0.001297575
0002f0 46 a1 b5 3e f2 68 40 bf 64 e3 1a 3e 04 73 04 bf
       0.35474604 -0.75160134 0.15125805 -0.51738
000300 9c 85 cc be 9e ca ce 3e 74 ce ec be e3 18 b4 be
       -0.39945686 0.4038896 -0.4625126 -0.35175237
000310 aa 2f 97 3e 7a ac 5b bf 42 57 59 3f 1a 61 86 be
       0.29528552 -0.85810053 0.8489877 -0.26245958
000320 fb 86 c2 be 61 fc 67 be e6 f0 b8 be 2b 6b 23 bf
       -0.37993607 -0.22654869 -0.3612129 -0.638354
000330 ba 4c ce 3e 96 d9 b5 be d6 56 9b 3e 7e ad 8e 3d
       0.40292913 -0.35517567 0.30339688 0.06966685
000340 16 bf 2a 3e a3 99 9a 3e 7d 4a 6d 3e b3 db 11 3f
       0.16674456 0.3019534 0.23172946 0.5697586
000350 9f b5 07 3e eb d0 c7 3e d2 ff 02 bf 76 43 84 3e
       0.13252877 0.3902658 -0.511716 0.2583272
000360 4a 58 d0 bd 7a fe 52 bf 12 fa 13 be 79 17 09 3f
       -0.1017309 -0.8241955 -0.14450863 0.5355144
000370 e1 18 15 bf 90 ed fc 3e 25 2d a3 be 8a 5a a4 be
       -0.5824109 0.49399996 -0.3187038 -0.32100326
000380 78 17 89 be dc ba bb 3e 40 10 8c 3e 51 1b 28 3f
       -0.26775718 0.36666 0.27356148 0.6566668
000390 a4 14 b0 3e e6 a5 ea 3c 1c cc c9 be 5e ed a6 bd
       0.34390748 0.02864356 -0.39413536 -0.08150743
0003a0 9f 6c a1 3e e7 71 f4 3e 72 9f 6a bf 59 fe cf bd
       0.31528184 0.4774315 -0.91649544 -0.10155935
0003b0 fb 69 07 be 5e 4f 4e 3e 96 49 d4 be 0e 84 a5 3e
       -0.13224022 0.20147464 -0.41462392 0.32327312

gnn_base.gnn.embed_layer.lin1.bias f4 [16]
000000 17 2a 5d bd 75 02 9c bd 76 aa f8 bd b7 92 82 3d
       -0.053995218 -0.07617656 -0.12141888 0.0637564
000010 d0 cd 15 3d 5e 07 52 bd 7a 6e 3f bd ab 5a 05 3d
       0.03657323 -0.051276557 -0.046736218 0.03255717
000020 48 83 cb 3c 70 c4 4e 3d c2 94 cb bd 8f 4e 23 3e
       0.024842873 0.050480306 -0.09940483 0.15947936
000030 fb bf 01 be fd d9 b5 bd b5 3c dc 3d b3 70 0d bb
       -0.12670891 -0.088794686 0.107537664 -0.0021582067

gnn_base.gnn.embed_layer.layers.0.weight f4 [16, 16]
000000 a3 36 e6 bb 16 a7 b0 bb c7 d6 87 3d b1 53 51 bc
       -0.007025556 -0.005391012 0.066327624 -0.012776301
000010 a8 03 a1 3e 3d c2 cf 3e a8 16 d6 be 2a 50 e2 be
       0.31448102 0.4057788 -0.4181416 -0.44201785
000020 88 e4 5e 3e fe 39 b2 be 6e d7 3a 3f fc d4 0c be
       0.21766865 -0.3480987 0.7298497 -0.13753122
000030 a4 14 37 3f 20 e3 7a be 39 7b 34 bf 02 a0 08 3f
       0.7151587 -0.24500704 -0.7050052 0.5336915
000040 59 8e d4 be 19 7b 01 bf e3 75 6f 3e ba 49 f0 bc
       -0.41514853 -0.5057846 0.23384814 -0.02933203
000050 68 69 31 be 90 4d 58 3f 11 f1 9b be 11 63 87 3d
       -0.17325366 0.8449335 -0.30457357 0.06610692
000060 f9 ea 2f be ed 95 b9 be 80 2a 03 3e de 60 aa 3d
       -0.17179479 -0.36247197 0.12809181 0.08319257
000070 61 45 8e be d7 5a 29 3f 73 91 18 3e a9 7d c6 be
       -0.27787307 0.66154236 0.14899234 -0.38767746
000080 4f 94 9e be 6f 89 2c bf 6c c0 4b bd 00 c0 85 3c
       -0.30972525 -0.6739721 -0.049744055 0.016326904
000090 b1 d9 1d bf a9 9e e9 be 9d e9 83 bb ad e6 64 be
       -0.61660296 -0.4562886 -0.0040256516 -0.22353621
0000a0 48 66 82 bf 08 f3 1e 3e 78 61 8d be 24 35 38 be
       -1.0187464 0.15522397 -0.27613425 -0.17989022
0000b0 ce 9f f2 3d 53 f6 85 bd 22 86 83 be c3 1a 56 be
       0.118468866 -0.06541123 -0.25688273 -0.20908646
0000c0 0a d5 90 be c6 b1 84 3e 80 7e 0a be 0e 17 5f be
       -0.28287536 0.2591688 -0.13524818 -0.21786138
0000d0 6b 1b f1 bd 5d 18 03 3e df dc f5 be 0d a8 fb 3e
       -0.11772808 0.12802263 -0.48020074 0.4915165
0000e0 ca 5b 05 3f 72 1f 9e be 16 1d 7f be 87 44 8b bf
       0.52093184 -0.30883366 -0.24913439 -1.0880288
0000f0 d6 06 a9 3e f0 52 67 3d a5 2d 9f bd 91 b1 18 3f
       0.33013028 0.05647558 -0.07772378 0.59645945
000100 c2 87 89 be 69 96 e8 bd fe 0d 52 3e d2 a3 2b 3f
       -0.26861387 -0.113568135 0.2051315 0.67046845
000110 b2 e9 c9 3e d4 76 5c 3e 7c 6a ef bd 09 49 d8 be
       0.39436108 0.21529704 -0.11690232 -0.4224322
000120 7b 2b 01 3f 01 e4 24 3f e0 9a 8d be b2 c9 e6 be
       0.5045697 0.64410406 -0.27657223 -0.45075756
000130 0f 2f d5 bd 95 4c 75 3e bb cd b6 be 5e 59 d1 3d
       -0.10409366 0.23954995 -0.35703835 0.102221236
000140 a2 3e 63 3f 87 50 e5 bd c7 22 1d bf 29 4c 5a 3e
       0.88767445 -0.11197 -0.6138119 0.21318115
000150 56 e5 d4 3d dd 95 0f 3f 8c 95 66 3e 25 b2 e0 3e
       0.10395305 0.5608805 0.22517985 0.43885913
000160 e9 6f d0 be 76 bf 62 3f b8 db 26 bf 71 d0 e6 be
       -0.4071038 0.88573396 -0.65179014 -0.45080903
000170 bf 01 9f 3e 94 47 07 3e 3c 2c ad 3c e1 74 b6 be
       0.3105602 0.13210899 0.021139257 -0.35636047
000180 59 89 c5 be b3 84 ff 3c 23 db 8a 3c 41 53 5d 3f
       -0.3858135 0.031191206 0.016950196 0.8645516
000190 92 ed 48 bc cc 98 84 3e 02 c9 bb 3e f2 ea 0a 3e
       -0.012263672 0.25897825 0.36676794 0.13566187
0001a0 74 0e 55 be b1 49 05 be 02 a4 7c 3e 4f d7 1f bf
       -0.20806295 -0.13016392 0.24671939 -0.6243791
0001b0 84 8c b3 3e 0c 96 1b bf b8 1f 00 3f 3c 86 cc be
       0.35068142 -0.6077583 0.500484 -0.39946163
0001c0 9b 98 84 3d 93 c5 a5 be 32 8f 03 3f 74 54 83 be
       0.0647442 -0.323773 0.51390374 -0.2565037
0001d0 7f 39 ee be 0e 66 54 3e 3c 49 98 3e c8 42 e0 3d
       -0.4652824 0.20742056 0.29743373 0.109502375
0001e0 2c 45 3e 3f e3 ff f8 bc 1a 89 ca bd 02 8e 0b 3f
       0.743243 -0.030395454 -0.09889431 0.5451356
0001f0 64 28 83 3e 14 23 65 be a9 5e 52 3e f5 44 b9 ba
       0.25616753 -0.22376662 0.20543922 -0.0014134931
000200 18 5f 4f bd 2b 9d 00 3f 9c fa 23 3f 50 1b 4a 3d
       -0.050627798 0.5023982 0.64054275 0.049342453
000210 a2 20 a0 bd bd 55 1b 3e ff 73 84 3e e2 20 da 3e
       -0.07818724 0.15169425 0.25869748 0.42603213
000220 e5 79 b7 be 00 d3 8d bd 3b d0 2a 3e 53 d7 02 be
       -0.35835186 -0.06925011 0.16680996 -0.12777452
000230 14 1a 90 bd 35 7e 9f 3d 31 6d 6c bf e2 ec 24 3e
       -0.07036224 0.07787744 -0.9235411 0.16105989
000240 ce 17 34 3e aa b8 e7 3e e3 79 b8 3e bd 18 8d 3d
       0.17587206 0.45258075 0.36030492 0.06889484
000250 10 dc a5 be 9b f5 3c 3e 0a c9 b6 3e 8b 77 3c bf
       -0.32394457 0.18453066 0.35700256 -0.7361991
000260 4c be 13 bf cb 40 1b 3e b1 7c db be 00 f9 d5 3d
       -0.57712245 0.15161435 -0.4286857 0.104478836
000270 a0 1d 62 3e 7c 3f 0a 3f 3d 2f 05 3f 34 cd be bd
       0.22081614 0.5400312 0.52025205 -0.09316483
000280 fc 3b 28 3e 86 b8 ad 3e 46 d3 82 be 47 cb c2 3d
       0.16429132 0.33929843 -0.25551814 0.09511428
000290 58 a4 22 bf e4 96 ec 3d 1c d2 f8 be a5 d5 02 be
       -0.6353202 0.115522176 -0.485978 -0.12776811
0002a0 66 df 28 3f ae ca c7 3d ce dc 30 3e 14 0f 4a be
       0.6596588 0.09755455 0.1727173 -0.19732314
0002b0 5b 39 c6 be 45 05 99 bd 03 e3 b3 be 4d 4f 85 be
       -0.38715634 -0.07471708 -0.35134134 -0.26037064
0002c0 2f 87 d0 bc f9 68 ac 3e dd 67 0c bf 0d d1 c4 bd
       -0.025455086 0.33673838 -0.5484598 -0.09610186
0002d0 88 9b 1d bd 42 ac 96 3e d3 bd b4 3e 01 bf cd be
       -0.038478404 0.29428297 0.35301074 -0.40184787
0002e0 45 cf c8 3d 98 fe e0 be 39 d5 d6 be 44 b8 84 bd
       0.098051585 -0.4394424 -0.4195955 -0.064804584
0002f0 7c 18 ac be c9 b8 13 bf c8 18 39 be c7 1e 17 bd
       -0.3361243 -0.57703835 -0.1807586 -0.036894586
000300 dd 18 0a bf be bf d7 3e bd 5f f5 bc 6b 18 0f bf
       -0.5394419 0.42138475 -0.029952878 -0.55896634
000310 1d 61 a7 be d0 2f f5 3e ac 1a 50 be 07 9d 21 3e
       -0.3269128 0.4788804 -0.20322675 0.15782557
000320 b0 2e 1d be 4e 73 26 3f 7e 19 1c bd c6 06 fe 3d
       -0.15349841 0.6501969 -0.03811025 0.12403636
000330 24 50 e1 3e 74 ed 17 bf 03 2e 32 3e f6 c9 44 be
       0.44006455 -0.593467 0.17400365 -0.19217667
000340 51 7b 6f be b9 90 82 3e 88 73 1e bf ce b4 c4 3e
       -0.23386885 0.2550104 -0.61895037 0.38419193
000350 fc 62 a8 be bc b8 6d 3d 92 97 7a 3e 8d d5 db 3d
       -0.3288802 0.058037505 0.24471882 0.10734091
000360 04 23 7e be 76 20 f7 3e 44 67 04 3e 89 54 41 3e
       -0.24818045 0.48266953 0.12930018 0.18879904
000370 f5 b3 1a 3e 49 ba 18 3f c3 4b f3 3d 63 9d eb 3e
       0.1510771 0.5965925 0.11879685 0.46018514
000380 fc 3b 53 3e 18 02 4f be 03 fd 60 3e 15 4c e8 3d
       0.20628351 -0.20215642 0.21971516 0.113426365
000390 06 48 be 3d 00 ad 90 3e 64 5b 93 3e bc 92 75 3e
       0.09291081 0.2825699 0.28780663 0.23981756
0003a0 2a 85 35 be db 0c 0b 3e 59 85 92 3e 31 b2 2f bf
       -0.1772658 0.13579123 0.2861736 -0.68631274
0003b0 c7 0b 10 bf 8f e2 79 be c4 60 96 3e 7c f7 23 3f
       -0.5626797 -0.24402831 0.293707 0.64049506
0003c0 5f 89 02 bf 57 00 d4 bc 16 c7 34 be 39 91 da be
       -0.5099086 -0.025879068 -0.1765407 -0.4268892
0003d0 c5 58 b4 3e 00 e6 8a be 7a 81 2a 3f b6 fb f8 be
       0.35223976 -0.271286 0.66603816 -0.4862954
0003e0 64 88 c3 bd ae 0e af bc fc 3a 02 3f b5 df ed bd
       -0.09547499 -0.021369305 0.50871253 -0.11614934
0003f0 3b ed cb 3d bc ed f6 3e 26 7b ef 3c 7e b4 18 bf
       0.099573575 0.48228252 0.029233526 -0.5965041

gnn_base.gnn.embed_layer.layers.0.bias f4 [16]
000000 5e da 95 bb c0 f8 3d bd 18 3c 04 bd 2f 6f 75 3d
       -0.0045731505 -0.046379805 -0.032283872 0.059920486
000010 94 44 72 bd fc 83 a0 bc 6e 27 8e bc 4a 45 f6 bd
       -0.059147432 -0.019594185 -0.017352786 -0.120249346
000020 0d 12 99 bc 78 59 80 bd eb 3b 14 be 6e f7 8e bd
       -0.018685365 -0.06267065 -0.14475982 -0.06980787
000030 c5 bb 63 3d 66 c5 86 bd c7 98 a0 bd a7 d3 85 bd
       0.055598993 -0.065806195 -0.0784164 -0.0653451

gnn_base.gnn.embed_layer.layers.2.weight f4 [16]
000000 0e 12 83 3f 2f 73 93 3f 52 93 88 3f f1 ac 85 3f
       1.0239885 1.1519526 1.0669959 1.0443403
000010 ae 29 57 3f 35 a3 81 3f 05 fa 7b 3f dd 66 8a 3f
       0.84047973 1.0127932 0.98428375 1.0812641
000020 b3 5f a4 3f 5f ee 86 3f 87 bc 85 3f a7 e4 9f 3f
       1.2841705 1.0541495 1.0448159 1.2491654
000030 c4 b9 7b 3f b8 aa 92 3f 28 2e 91 3f 26 9c 89 3f
       0.9833033 1.1458349 1.1342211 1.0750778

gnn_base.gnn.embed_layer.layers.2.bias f4 [16]
000000 1d ba aa 3b 2c f8 ef 3d 5b a4 18 bd 4f 1c ca 3a
       0.0052101747 0.11717257 -0.037266117 0.0015419814
000010 fd 98 24 3e f4 b1 9a bd 48 85 3d bd 31 bd a2 3c
       0.16073985 -0.07553473 -0.046269685 0.019865604
000020 a4 5b 67 bd b2 9c 9d 3b cb 64 0d bd 2d fc 5f 3c
       -0.05648388 0.0048099393 -0.03451995 0.013670963
000030 40 f5 df 3c ee 50 6e bd 76 d2 4c 3c 42 05 10 bc
       0.027338624 -0.05818265 0.01250135 -0.008790316

gnn_base.gnn.gnn1.lin_key.weight f4 [48, 16]
000000 eb 79 5d 3e 83 d0 4a 3e ce f2 00 bc eb d5 1c bd
       0.2162854 0.19806103 -0.007870389 -0.038289946
000010 3a 1f 47 bd 93 da a6 bd a7 b5 e7 3d 71 18 1b 3e
       -0.048613764 -0.081471585 0.11313944 0.15146042
000020 9f 02 8b be b6 a1 a7 be d5 24 8b 3d 2e 72 c5 be
       -0.27150437 -0.32740563 0.067941345 -0.38563675
000030 8f 1b 18 be e6 57 84 3e 28 54 84 be 93 c9 e4 3e
       -0.14854263 0.2584831 -0.25845456 0.4468504
000040 6c 30 d9 bd 5b 69 2f be 46 72 cd be 23 ad 97 3c
       -0.10604939 -0.17130034 -0.40126246 0.018515175
000050 cf 33 87 bd 12 9d 3a 3e 4b da b8 3d ef 3c 67 3e
       -0.066016786 0.1822398 0.09026011 0.22581838
000060 c2 f1 73 be 38 76 75 3e 60 eb c5 bd 54 4b ac be
       -0.23822692 0.23970878 -0.09664035 -0.3365122
000070 f1 1f 83 bb 3f 42 ca bd 0b 2b 70 bd 7c 93 42 be
       -0.0040016104 -0.09875917 -0.0586348 -0.19001573
000080 c1 af 9f be 0f b2 9c be 0b af 44 3d be 85 a8 3e
       -0.31188777 -0.30604598 0.048018496 0.32914537
000090 74 2a 8e 3c 02 70 9c 3c 9d 34 38 be 7b 51 08 3e
       0.017354228 0.019096378 -0.1798882 0.13312332
0000a0 06 8f 65 3e b5 25 a3 3d b1 5b 46 be b5 74 6a 3d
       0.2241784 0.079661764 -0.19370915 0.057240207
0000b0 2c da c0 3e 24 ea 1c 3e 38 38 0c 3e 8e 4f be bd
       0.37666452 0.15323693 0.13693321 -0.092925176
0000c0 46 39 04 3e 3f 57 2e 3d 1b d9 e9 3e fa 3f 03 bd
       0.12912473 0.042563673 0.4567345 -0.032043435
0000d0 b3 c2 58 3e ad 09 a4 bc 3e 81 c0 be 9b d0 bd 3d
       0.21168022 -0.020024145 -0.37598604 0.09268304
0000e0 fd 36 91 bd 60 ca 68 3e 3a 8f a7 3d c7 10 7e 3d
       -0.07090566 0.2273345 0.08181615 0.06202772
0000f0 a1 21 d2 3e e7 4a 8b 3c 09 68 b9 3c 54 a5 b8 3e
       0.41041282 0.01700349 0.022632616 0.36063635
000100 60 53 47 3e 44 b6 e0 bc ab 3c ca be 9f 02 17 3e
       0.19465399 -0.027430661 -0.3949941 0.14747094
000110 b9 27 6e 3e a3 9c a4 be 13 28 84 3d 90 c4 cc bd
       0.2325734 -0.32150754 0.06452956 -0.09998429
000120 13 10 8d 3d 13 b8 b5 3a 0a 40 a5 3e d3 9a 0f be
       0.068878315 0.0013864062 0.3227542 -0.14023905
000130 07 93 bd be bd bc 05 3e 7e 5c 5d 3c 1e 7b b0 3d
       -0.37026235 0.13060279 0.013510821 0.08617233
000140 dc b6 aa 3c bc 6d 97 3e 23 16 4d 3e 7e 7a a1 3d
       0.020839147 0.29575908 0.20027976 0.07884692
000150 d6 c3 7e bd 51 e7 b8 bd cc 7e 21 bd 59 d0 42 be
       -0.062198482 -0.09028495 -0.039427564 -0.19024791
000160 5d 88 d0 be ae d9 7d 3e df 4b 9a be 57 dd 24 3d
       -0.40729037 0.2479007 -0.3013601 0.04025015
000170 c4 7a 26 3e c9 bf cf 3c b5 8b a1 3e a6 aa 90 3e
       0.16257769 0.025360005 0.315519 0.28255194
000180 80 29 7b bd 10 5f 77 3e 05 1d cc 3e 54 8a 8c be
       -0.061318874 0.24157357 0.3986589 -0.27449286
000190 fd bd d2 bd a8 2d ab 3d 51 6a c8 bd ef cb 84 3e
       -0.10290144 0.083583176 -0.09785903 0.2593684
0001a0 21 84 04 be 6b 41 f6 bd 10 49 29 be 04 d6 3d 3e
       -0.12941028 -0.12024196 -0.16531777 0.18538672
0001b0 bd 06 a7 be 88 bd 6b bd cd 29 5c be 4d 61 b1 3e
       -0.32622328 -0.057553798 -0.2150032 0.34644547
0001c0 92 c6 85 be 21 1c 35 be f8 9a 1b 3d 16 f4 39 3d
       -0.2612806 -0.17686512 0.037989587 0.045398794
0001d0 4f 09 18 3e 56 d7 5b be 2c a2 11 3c 43 81 aa be
       0.14847301 -0.21468863 0.008888762 -0.33301744
0001e0 8a 0f 89 3c e5 a1 c8 3d d2 f4 a1 3e a2 24 83 bd
       0.016731042 0.09796504 0.31632096 -0.064034715
0001f0 62 e1 9d 3c be f9 11 3e 64 0a db 3e 8c 79 0c be
       0.01927251 0.14255425 0.42781365 -0.13718241
000200 9f 69 6b 3e c9 9b 42 3e c9 5a 7e bd 33 3b 42 be
       0.2298951 0.1900474 -0.0620983 -0.18967895
000210 79 2f 07 be 59 30 47 3e fb c5 af be de 05 94 bd
       -0.13201703 0.19452037 -0.34330735 -0.072276816
000220 67 97 8c 3d 43 13 80 be a2 eb b7 bd 4e 10 b6 3b
       0.06864815 -0.25014696 -0.0898049 0.005556143
000230 59 9c 2c bd 39 9f 24 3e 17 da 0b 3d 68 fc a3 3e
       -0.042141292 0.16076364 0.034143534 0.32028508
000240 d1 25 c6 be 68 5f ac 3e 7f b9 7d 3e d1 8f 9f bc
       -0.38700727 0.3366654 0.24777792 -0.019477757
000250 bf f5 60 bb a4 d8 e4 3d 7e 42 8c be 9a 7d c1 be
       -0.0034326164 0.111741334 -0.2739448 -0.3779114
000260 55 00 5e be 9e ca 0d 3e d9 89 3e be b7 2a 61 3e
       -0.21679814 0.13846824 -0.18607272 0.2198895
000270 64 f1 e6 3b fa f4 0b 3e 68 2d a0 3e 40 6e b2 be
       0.007047819 0.1366767 0.31284642 -0.3484974
000280 3c 84 83 3e 07 1e 49 3d c7 3e 36 bd 45 c3 c2 bd
       0.25686824 0.049100902 -0.044493463 -0.09509901
000290 8e dc 2c bd e1 10 8d bd 0f 37 5a 3d e4 92 25 3d
       -0.042202525 -0.06887985 0.053275164 0.04042329
0002a0 2a 1d b2 3e bb 7e eb be f1 0d e2 3d 22 24 79 be
       0.34787875 -0.45995125 0.11037815 -0.2433019
0002b0 81 11 23 3d 2c 77 a5 3e 0b bb c3 be 98 f7 16 3e
       0.039811615 0.32317483 -0.3822864 0.14742887
0002c0 08 8d 65 be 71 e2 e1 3c e5 ad 9d be 5c 62 a2 be
       -0.2241708 0.027573796 -0.30796733 -0.31715667
0002d0 7c 67 1b be 38 1c 46 be c2 cd b8 3d f2 f4 bc 3d
       -0.15176195 -0.19346702 0.0902362 0.09226407
0002e0 e2 57 a7 3d d3 f4 48 3e 8f b2 83 3e 53 5a 90 3d
       0.08171059 0.19624643 0.25722167 0.07048478
0002f0 a4 a9 f4 3c cc 3f 20 be d0 f6 af be 7a 87 b9 3e
       0.029866047 -0.15649337 -0.3436799 0.36236173
000300 04 c8 81 3d d1 45 bf 3d 48 e3 99 3e 6a 1e dd bd
       0.06336978 0.09339488 0.30056214 -0.10796817
000310 14 a2 7a 3e d4 ca 24 3e b8 f5 a0 be 2b ef 9f be
       0.2447589 0.16092998 -0.3143747 -0.31237158
000320 0b 55 52 3e f1 20 e4 3d 3b 95 55 be f6 1f b9 3c
       0.20540254 0.111390956 -0.20857708 0.022598248
000330 36 c9 31 3e 85 69 11 3e 41 30 53 3e 56 8f d0 3d
       0.17361912 0.14200409 0.20623876 0.10183589
000340 2f ca 9b 3e aa ed b8 bd f3 bf 1a 3d 7a 2f 0d be
       0.3042769 -0.09029706 0.037780713 -0.13787642
000350 1e 08 43 bd 5f 75 8b 3c d1 6d e2 3c 47 2e 1b be
       -0.047615163 0.01702374 0.027640255 -0.15154372
000360 a2 03 c5 3e 91 e8 c3 bd fd 69 7c bc b2 46 d0 3d
       0.38479334 -0.09565843 -0.015406129 0.10169734
000370 84 7e f9 3d 1b 01 c8 bd 01 3d 15 bd 6d 83 08 be
       0.12182334 -0.09765836 -0.03643513 -0.13331385
000380 fe d3 1c be 5b 52 22 be 96 07 f0 3e 3b b6 2b be
       -0.15315244 -0.15851729 0.46880788 -0.16768734
000390 2f ad bf bd 80 7e 70 3e 5c 15 b7 be df c8 d7 bd
       -0.09359204 0.23485756 -0.35758483 -0.1053636
0003a0 8e 3e 8b be cd 50 54 bd ff 3e 80 be 93 49 74 3c
       -0.27196163 -0.05183487 -0.25048062 0.01491012
0003b0 f2 14 b7 3e 12 62 f9 3d da 8d ab 3d c2 bd 32 3e
       0.35758168 0.121769086 0.083766654 0.174552
0003c0 c2 e7 8b be 76 b8 02 3d d8 d4 dd 3d 89 1b 46 3d
       -0.27325255 0.031914197 0.10831612 0.048366103
0003d0 ae 7b 5d 3b 57 87 c4 bd 09 32 d1 3d ec fb 2d be
       0.0033795643 -0.095961265 0.102146216 -0.16990632
0003e0 2f 86 78 be 15 24 d7 3d 21 e3 b3 be bf f2 dc 3d
       -0.24269937 0.10504929 -0.35134223 0.10788488
0003f0 82 bc cb bb 68 48 b3 bb 8d 9d b0 3e 2d d1 d5 3d
       -0.0062175402 -0.005471278 0.34495202 0.10440288

gnn_base.gnn.gnn1.lin_key.bias f4 [48]
000000 f8 90 2e bd a3 23 64 be 53 63 7c 3e cb d0 36 bd
       -0.04261872 -0.2227922 0.24647264 -0.044632714
000010 4f 66 21 3e bb db 03 be d8 1b 79 be 15 5a 4c be
       0.15761684 -0.1287679 -0.24327028 -0.19956239
000020 97 a8 02 be 11 4e a3 bd 94 07 11 bd 0e 73 55 3e
       -0.12759624 -0.07973874 -0.035407618 0.20844671
000030 bc 64 6c be 7a 0f 00 3e 42 ef 57 3e 8a 6c 0f 3b
       -0.23085302 0.12505904 0.21087363 0.0021884763
000040 55 ec 1f be bd 60 04 3c f1 d8 71 3d 42 72 e0 3d
       -0.15617497 0.008079705 0.059044782 0.10959293
000050 b2 29 9b bd 74 4d af bd 8a 23 f2 bd 47 21 77 be
       -0.07576312 -0.08559695 -0.11823185 -0.24133788
000060 02 df b2 3d aa 12 41 be bf 6b f6 bd 21 48 37 bb
       0.087339416 -0.18854776 -0.1203227 -0.0027966576
000070 2c 57 45 3e 32 70 63 3e b9 96 3a be b5 38 5d 3e
       0.19271535 0.22210768 -0.18221559 0.21603663
000080 ee 50 65 3e 71 b9 4e 3e de e4 b2 3c 86 d3 4d 3e
       0.22394153 0.20187928 0.021837648 0.20100221
000090 29 be f9 3d 59 c4 37 be 76 d0 06 be 9f 3f 9e 3b
       0.12194473 -0.17945994 -0.13165459 0.0048293616
0000a0 e8 50 35 be 84 f8 a8 bd 07 e5 4d 3e 39 f6 ed 3d
       -0.17706645 -0.082505256 0.20106898 0.11619229
0000b0 e2 bb 5e 3e d0 1b e1 3a 02 84 02 be c4 19 29 3e
       0.21751359 0.0017174426 -0.1274567 0.16513735

gnn_base.gnn.gnn1.lin_query.weight f4 [48, 16]
000000 14 34 ef 3d 4c 10 2e 3e 3f 8d bb be 36 37 a9 3e
       0.11679855 0.16998404 -0.366312 0.33049935
000010 2d 75 a1 be 76 a6 8a 3c bb 5f 09 3e ac e1 71 3e
       -0.3153471 0.016925078 0.13415425 0.23621243
000020 0d 91 9c 3e 93 ab ea 3d 65 04 05 be 40 6e d9 be
       0.30579415 0.114585064 -0.12989958 -0.42466927
000030 ee 7a 52 be 5a 7b aa 3d d2 74 ba 3d 3b 01 a4 3d
       -0.20554706 0.08324309 0.09104313 0.08008047
000040 87 a2 85 3e fe f7 86 3b 3a 6c da 3d 32 de f8 3d
       0.2610056 0.0041189184 0.10665174 0.121517554
000050 c9 ae bb 3d d3 92 dc 3d ef d6 3e be 28 b1 9c be
       0.09164197 0.10770192 -0.18636678 -0.3060391
000060 fe e0 a1 3e ca 0e 47 3e 94 cb aa 3b 94 e0 a1 bc
       0.31616968 0.19439235 0.0052122567 -0.019760408
000070 6e e3 41 3e a7 3c 55 be fe 59 d6 3c c0 61 5d be
       0.18934414 -0.20823918 0.026165958 -0.2161932
000080 88 ee 98 be 8e 26 4d be 2e 11 fc 3d 44 61 eb bd
       -0.29869485 -0.20034239 0.12307964 -0.11493161
000090 e5 55 1e be be 54 c3 3e b3 16 98 bd 36 44 d1 bd
       -0.15462454 0.3815059 -0.074262045 -0.10218088
0000a0 9b 17 80 be a0 96 f8 3d a7 5b 56 3d 9c e5 cc bd
       -0.2501801 0.121381044 0.0523335 -0.10004732
0000b0 b5 5f 6b 3e bc 89 f7 bd 27 83 12 be 9a a7 ef bd
       0.22985728 -0.120868176 -0.14307843 -0.11701889
0000c0 a2 27 b5 3d d5 8f cf be 1e 99 ea b9 47 f2 8d bd
       0.0884545 -0.40539423 -0.0004474604 -0.06930976
0000d0 d4 6b 76 3d 05 1f 68 bd fb 38 50 bd a5 c5 4e 3e
       0.060161427 -0.056670208 -0.05083559 0.20192583
0000e0 6b c0 2e bc 2e 9a a3 bd 3c 55 38 bd 6f 20 b6 be
       -0.010665993 -0.07988392 -0.04500316 -0.3557162
0000f0 17 b0 c8 be 50 37 01 3e 27 16 74 bd 36 ab fe 3e
       -0.39196846 0.12618756 -0.05959144 0.4974
000100 89 d3 f0 3d 3b 8b d4 3d ae 1a 37 bd 0a 57 84 3d
       0.11759097 0.103781186 -0.044703178 0.06461914
000110 b3 0c 91 be 0c e7 62 be a7 88 68 3e c4 dd c3 3c
       -0.2833 -0.2215845 0.22708379 0.023909457
000120 39 66 23 be ab 72 1c be 1e 95 8a be 2b 4d 5c 3d
       -0.15956964 -0.15278117 -0.27066892 0.05378453
000130 6a ba 71 3e 29 08 d3 be 35 45 d7 3d d4 b7 de 3d
       0.23606268 -0.41217163 0.10511247 0.10874906
000140 a9 fd 3b be c2 43 82 3e 96 ee d2 3c b6 b0 ad be
       -0.18358482 0.2544232 0.025748532 -0.33923882
000150 c5 d5 3c 3d fc 5b 2a be 10 68 3f be ba 9f 6b bc
       0.046102304 -0.16636652 -0.1869204 -0.0143813435
000160 94 90 01 3e c4 8c 87 3d 36 96 5d 3b 36 0a 70 be
       0.12652808 0.06618646 0.0033811457 -0.23441395
000170 b7 d5 03 be d9 7b cb 3e 8b ee 14 bf 2d 5a c3 3e
       -0.12874494 0.39742926 -0.5817649 0.38154736
000180 69 93 a1 3d 1b ab af 3d d3 a4 f5 bc e1 fc e2 bd
       0.078894444 0.08577558 -0.02998582 -0.11083389
000190 7f d8 ca 3d 17 67 ca bd 00 95 a2 be 80 ec f6 bd
       0.099045746 -0.09882944 -0.31754303 -0.120568275
0001a0 ef 45 96 3e 45 a8 ed 3d 8f 2c 02 be 50 55 8c be
       0.2935023 0.116043605 -0.1271231 -0.27408838
0001b0 dc 9f 0f bf 23 ef 09 be a9 3f 01 3e b6 fb 9b 3e
       -0.561033 -0.1347013 0.1262194 0.30465478
0001c0 72 fc 78 3d 0c 3b 28 3c ef fe 72 3c af 96 12 b9
       0.060787626 0.010267984 0.014831289 -0.00013979779
0001d0 ab a9 01 3e 5e 56 8b be 61 bc 9d 3e 1b cd 21 3d
       0.1266238 -0.2721433 0.30807784 0.039502244
0001e0 33 ef 9e be ab 5b 01 bd 30 f7 dc bc 31 ff ad bd
       -0.3104187 -0.031581562 -0.026973337 -0.084959395
0001f0 be 14 2d 3e 27 09 15 bd 61 68 b6 be 7d 6e 0f bd
       0.16902444 -0.03638568 -0.3562651 -0.03501748
000200 a8 7d eb 3d b4 9d 46 3d 3c 42 0d be e6 21 8a 3d
       0.114985764 0.04849024 -0.13794798 0.06744747
000210 12 72 de bd 02 a6 04 3d 9a 3d ec 3d 4f 66 57 3e
       -0.10861601 0.03238488 0.11535187 0.21035121
000220 a3 91 4e bb 9a a7 6c 3e af ad 78 3e 75 81 c9 be
       -0.0031519912 0.2311081 0.24285005 -0.3935658
000230 5a 58 d9 be 96 98 5a be 65 fd 95 3e 33 07 4b 3e
       -0.4245022 -0.2134727 0.29294887 0.19826965
000240 7c f3 0d be a9 d5 24 3d 60 16 aa 3e a5 77 eb be
       -0.13862413 0.040242825 0.33220196 -0.4598972
000250 43 61 4d 3e 2f ab b6 bd 13 64 25 3e 52 77 07 bd
       0.20056634 -0.089193694 0.16151457 -0.033072777
000260 b3 48 ed bc 4f 9c a9 3e 4f c9 ba 3e 8a 02 51 bd
       -0.02896533 0.33127066 0.3648171 -0.051027812
000270 af 41 a1 3b b8 e7 b5 3e 19 c4 79 be ac cc 4a 3e
       0.00492116 0.3552835 -0.24391212 0.19804639
000280 34 04 1a be 0f 29 c7 3d f5 24 c0 bd c7 e9 6b 3e
       -0.15040666 0.09724628 -0.09382049 0.23038398
000290 74 50 96 bd 35 d8 97 3d de 1f 13 3d 61 64 9c 3e
       -0.07339564 0.07414285 0.035919063 0.30545333
0002a0 33 fd 0c be a6 21 a9 bd bd 47 8b 3d 40 f1 30 be
       -0.13768463 -0.08258371 0.06800792 -0.1727953
0002b0 12 b2 dd be 9e cb 0a be 70 16 d0 3e 64 02 89 be
       -0.4329992 -0.13554236 0.40642118 -0.26759636
0002c0 b5 24 bf 3e 22 e5 c7 3d 77 36 40 3e 42 59 54 bc
       0.37332693 0.097605005 0.18770777 -0.012960734
0002d0 4e 0c cd bd c3 9b d1 bd 62 b8 2f be 10 fd 46 be
       -0.100121126 -0.10234787 -0.1716018 -0.19432473
0002e0 53 d4 70 3e 39 75 9e be 98 e5 48 be 8b 63 8b 3b
       0.23518495 -0.3094881 -0.19618833 0.00425381
0002f0 9d 3a 98 3e 85 d0 2f bd 60 67 72 3e 4d 6f 1f 3e
       0.29732218 -0.04292347 0.23672247 0.15569802
000300 e2 47 fc 3a 8b 70 a2 3a 83 e7 82 3e f0 6a 47 be
       0.0019247497 0.001239316 0.25567254 -0.19474387
000310 b6 e5 de 3c ab ea 30 3e 9d ff 52 3e b5 37 d1 bc
       0.027209144 0.17277019 0.20605321 -0.025539258
000320 b8 2b 20 be b9 21 c0 3d a3 f9 8e 3e 06 eb 79 be
       -0.15641677 0.09381432 0.27924833 -0.2440606
000330 6d 96 a2 be f6 c7 56 3d 56 fc cc bd 03 bc 1c 3e
       -0.3175539 0.05243679 -0.10009067 0.15306096
000340 3f 96 b3 bd 18 d4 94 be 27 76 57 3d e7 e5 24 3e
       -0.087688915 -0.29068065 0.052602913 0.16103326
000350 f1 fa de bd db ff 74 3d 2e 6e 2c 3e 60 a1 45 3e
       -0.10887707 0.059814315 0.16838905 0.19299841
000360 78 a2 96 be 16 4a 85 be 92 29 a4 bd f3 2e cf 3e
       -0.2942083 -0.26033086 -0.080157414 0.40465507
000370 a9 03 01 be f6 84 e9 bc c4 e5 78 3e 16 4c 62 be
       -0.12599052 -0.028505784 0.24306399 -0.22099337
000380 8a 27 c1 bd b1 08 34 be 7a da b5 3d bf 44 ae 3d
       -0.094313696 -0.1758144 0.08879562 0.08509206
000390 99 ef ca 3d cd 8c 69 bd 0c bf 6a bd 61 87 9d 3d
       0.09908981 -0.057019044 -0.057311103 0.07691837
0003a0 9a 69 95 bd 5d a7 85 3e 89 6e bc 3d 7a bf f7 be
       -0.072955325 0.2610425 0.092007704 -0.48388273
0003b0 1d d8 7f be cc 01 c5 3e dc ab c4 3d 93 03 4a 3e
       -0.24984784 0.38477933 0.09603092 0.19727926
0003c0 64 7f 85 be e3 80 74 bc 4b ca 6c 3c dc a3 72 bd
       -0.26073754 -0.014923307 0.014452527 -0.0592383
0003d0 9f 17 26 3e 71 e6 4c be 27 fd 0b 3e 6e 9a ac 3c
       0.16219948 -0.20009781 0.13670789 0.021069732
0003e0 3c 97 0f 3e e0 d6 83 3e 28 e4 4d 3e 54 ce a9 3d
       0.14022535 0.25749874 0.20106566 0.08291307
0003f0 5e f9 da 3d 1a e6 0f 3e 5e 40 c8 be 86 a3 bd 3e
       0.10692094 0.1405262 -0.39111608 0.3703882

gnn_base.gnn.gnn1.lin_query.bias f4 [48]
000000 52 85 c8 3d 1c 52 b8 bd 4e da fe 3d 10 7a 0e 3e
       0.09791054 -0.09000036 0.12443982 0.1391375
000010 bb 9c 68 bc ac 9c da 3d ac 06 8b 3e 5d 87 81 be
       -0.014197524 0.10674414 0.27153528 -0.25298586
000020 b6 1c 9d 3d 06 a4 5b be 1f 94 13 3c 33 85 8e 3e
       0.07671492 -0.21449289 0.009007483 0.27835998
000030 59 05 b7 bd 1c 1f d3 bd df 0b be 3d 51 c6 33 be
       -0.08936567 -0.10308668 0.09279608 -0.1755612
000040 af f9 71 3e e1 79 42 be 91 3c c6 3d e4 16 ba 3e
       0.23630403 -0.18991806 0.09679521 0.3634559
000050 3d 82 77 be 94 b2 9c bb af 7c a3 3e 80 b8 1e 3e
       -0.24170776 -0.0047820304 0.31931064 0.15500069
000060 e2 c9 21 be 9d 3d 55 be 17 fd a4 3e fd 2a 61 3d
       -0.15799668 -0.20824285 0.32224342 0.054972637
000070 2e 6f 06 3e 78 fa 56 be c6 f2 01 3d 1f 09 0d 3e
       0.13128349 -0.20993984 0.031725667 0.1377301
000080 6d 86 09 be cf 73 08 3e be 31 94 3d f2 a4 96 bc
       -0.13430186 0.13325427 0.0723605 -0.018389199
000090 9c a9 3a bd 92 6d 8b 3e 63 b5 9f 3c c2 de 99 be
       -0.04557191 0.27232033 0.019495672 -0.30052763
0000a0 ca d2 80 bd 00 b1 c0 3d 96 91 0c 3d 80 c1 76 3e
       -0.06290205 0.0940876 0.03431853 0.24097252
0000b0 ab 84 22 3e 18 33 5c bc f6 3f 1b be 46 84 4f be
       0.15870921 -0.013439916 -0.15161118 -0.20265302

gnn_base.gnn.gnn1.lin_value.weight f4 [48, 16]
000000 de 90 ab be f2 c9 00 be 86 c4 97 3e 33 e9 66 bd
       -0.33508962 -0.12577036 0.29642123 -0.05637474
000010 53 b3 3e bd 60 2e 4a be 5d 49 cf 3d 3c 2d 08 3e
       -0.046557736 -0.19744253 0.10121415 0.13298506
000020 cd 9e b5 be ee 9a 89 bd 3a 6c 48 3e 55 d0 9e be
       -0.35472718 -0.067190036 0.19572535 -0.3101832
000030 0a 92 6b be cb 21 5c 3e 40 1c c4 3e a5 1c a8 3d
       -0.23004928 0.21497266 0.38302803 0.082085885
000040 e0 f6 27 be d6 89 a7 be 63 d6 e0 bd 5d bc ee 3d
       -0.16402769 -0.32722348 -0.10978391 0.11657021
000050 a8 8f 3f 3e b4 ec ce bd 74 2e 05 3e a2 98 32 be
       0.18707144 -0.10103741 0.13006002 -0.17441037
000060 f4 89 9c 3a 02 35 67 be 19 c0 94 bd a5 66 9e bd
       0.0011942969 -0.22578815 -0.07263202 -0.07734422
000070 fd b6 01 be b4 34 11 3e 35 ed 72 3e 93 89 26 bd
       -0.1266746 0.14180261 0.237233 -0.040658545
000080 1a 38 c8 bd e8 8a c5 3c 96 66 e8 3c d7 52 d0 3d
       -0.097763255 0.024114087 0.02836923 0.101720504
000090 1f b6 12 3e c0 90 c4 3c ae 81 63 3e 73 6b a3 be
       0.14327286 0.023994803 0.22217438 -0.31917915
0000a0 b9 d8 39 bd 4a c5 81 be 6e 14 5c 3e 95 0e 50 be
       -0.0453727 -0.25345832 0.21492168 -0.20318063
0000b0 29 83 82 be bc 02 99 bd b6 d3 a9 3d 83 08 7a 3e
       -0.25490692 -0.07471225 0.08292334 0.2441731
0000c0 03 01 e2 3d a0 62 a2 3e 3e 58 bf bd 3e 9a 55 be
       0.11035349 0.3171587 -0.09343003 -0.2085962
0000d0 26 03 9c 3d 0c 69 7b be 91 68 31 3e bf 59 08 3e
       0.07617788 -0.24551791 0.17325045 0.13315485
0000e0 56 5a 5c 3e 19 41 2e bd 1f 62 18 3e 36 c6 17 3e
       0.21518835 -0.04254255 0.1488118 0.14821705
0000f0 16 2f 8d be 83 d6 53 3e 32 9b 50 3e c6 56 c9 be
       -0.27574986 0.20687298 0.20371702 -0.39324015
000100 ec 99 8b be ec c2 e5 3d 35 df eb bd 4f 26 38 3e
       -0.2726587 0.11218819 -0.11517183 0.17983364
000110 cf 25 1c be a7 11 be bd 65 bd 8e 3d 43 ee 9d 3d
       -0.15248798 -0.09280711 0.06969718 0.077114604
000120 cc d0 1a be dd a6 22 be e1 d9 80 3e 82 f7 93 be
       -0.15118712 -0.15883966 0.25166228 -0.2889977
000130 e9 2f 81 3d 0b 5a 1b be 82 ea 7d be 82 b0 eb 3d
       0.06307966 -0.15171067 -0.24796489 0.115082756
000140 e2 38 1d bd da cc 2a 3e 1d 51 8e be ff 94 cf 3c
       -0.038384326 0.16679707 -0.2779626 0.025339602
000150 2e 81 e1 3d 1d 72 52 bd c1 8c 96 3e b6 43 b6 be
       0.11010967 -0.05137836 0.29404262 -0.35598534
000160 f2 ed 98 bd ce 4d 45 3d 54 8b 98 be de 68 2a 3e
       -0.074672595 0.048169903 -0.297938 0.16641566
000170 72 b7 90 be a5 15 52 3e f6 dd 29 3e 91 69 d7 bd
       -0.28264958 0.20516069 0.16588578 -0.10518182
000180 28 ed e9 bb d5 6a 3c 3e d1 c0 9c 3d f8 40 c2 3d
       -0.007138867 0.18400128 0.07653964 0.09485048
000190 a9 ce 23 be 21 86 6c 3d 40 e2 b2 3e 3f 6a 16 3d
       -0.15996803 0.057745103 0.3493824 0.036722418
0001a0 76 7e 0c 3e 50 73 a2 be 23 ab d5 3e e7 7b 0c 3e
       0.13720116 -0.317286 0.4173213 0.1371914
0001b0 4b cc ae be f2 06 08 be b9 34 9f 3e 1d 57 81 bd
       -0.34140238 -0.132839 0.31094912 -0.06315444
0001c0 5b c3 a6 3c f7 92 98 be 2b 2f d7 bd 2a 4a 01 3d
       0.020356825 -0.29799625 -0.105070435 0.03156487
0001d0 3c a2 76 3e 12 7d 39 3e 34 87 2b 3d f9 0a 05 be
       0.24085325 0.18114117 0.041876987 -0.12992467
0001e0 01 30 81 be 5f e7 04 be c6 e4 01 3e 53 e0 f8 bd
       -0.25231937 -0.12978886 0.12684926 -0.121521614
0001f0 1d 30 b4 3d c7 d6 fd 3c 7f d7 8e bd d7 e9 14 3e
       0.087982394 0.030986203 -0.06974696 0.14542328
000200 ef 2f 88 3e 10 36 a2 3e 76 27 a4 3c eb aa 04 3e
       0.2659907 0.3168187 0.020038348 0.12955825
000210 92 12 de bc bc 57 b8 bd 66 03 88 be 73 85 8b 3e
       -0.027108464 -0.09001109 -0.26565093 0.2725025
000220 03 26 3d 3d a7 a7 ce bd c4 73 08 3e ec 49 f1 3e
       0.04617883 -0.10090571 0.13325411 0.4712671
000230 6b ca a6 3e 59 e9 a3 bc ff 95 61 bc 0b 49 67 3c
       0.32576308 -0.02000873 -0.013768672 0.014116536
000240 c0 96 aa 3e 09 d7 9e 3b 4b 54 78 3d 26 d3 2a be
       0.33318138 0.0048474115 0.060627263 -0.16682109
000250 15 24 ca bd 17 5a 7e 3b d4 4a d8 3c 23 b2 3b be
       -0.09870163 0.0038811022 0.026402868 -0.18329673
000260 bf 40 6b bd f8 79 b8 3e 19 be 77 3e ed 1e 5f bd
       -0.057434794 0.36030555 0.2419361 -0.054472852
000270 4b f5 d9 3d 8b f4 83 3d 1d 4b 6d be 08 3d 1f 3e
       0.10642489 0.06443127 -0.23173185 0.15550625
000280 19 cc 6e be 05 31 81 be 39 30 7b bd 88 c4 3b be
       -0.23320045 -0.2523271 -0.061325286 -0.1833669
000290 a1 0e 7c be 48 20 a2 3e 42 71 3d 3d 8c 7c 62 3d
       -0.24614955 0.31665254 0.04625059 0.05529456
0002a0 95 3b 47 3e 9c 43 0e be 24 c5 28 be 57 bb 4a be
       0.19456322 -0.13892978 -0.16481453 -0.19798027
0002b0 d0 1e c4 bd 64 f1 25 be e1 22 00 3d a9 10 e0 3c
       -0.095761895 -0.16205364 0.031283263 0.027351694
0002c0 29 56 cd bd 19 f8 2d 3e 14 42 9b be fc 52 c4 bd
       -0.10026199 0.16989173 -0.3032385 -0.095861405
0002d0 37 c9 1a bd 43 c0 88 bd b5 a8 18 3e 6e a0 bf bd
       -0.03778955 -0.06677296 0.14908107 -0.093567714
0002e0 7b 46 0e 3e a2 04 62 be c2 52 6d 3e c7 f3 5e 3e
       0.13894074 -0.2207208 0.23176101 0.21772681
0002f0 fb 93 8f be f7 ed 68 3e 4b 79 96 3e 9b 9f 02 3d
       -0.28042588 0.22747026 0.29389414 0.031890493
000300 b8 a6 5c 3e 1d 87 0d 3e 4c 79 01 bc e1 eb 48 bd
       0.21547973 0.13821073 -0.007902455 -0.049053077
000310 12 41 d0 bd 0d 13 98 bb 1c 79 cd 3d 8d 01 4f be
       -0.10168661 -0.004640943 0.100328654 -0.20215435
000320 52 f1 9c 3d 04 d5 74 be d7 35 e9 bd 9e 5c 87 3c
       0.07663216 -0.23909384 -0.11387222 0.016523656
000330 b3 b0 aa be b5 08 9d 3e d8 b7 3a 3e 43 c1 7f 3d
       -0.33337936 0.30670705 0.18234193 0.062440168
000340 b6 2a 20 be be 05 23 be 1c fa 23 3e bb f7 95 3d
       -0.15641293 -0.15920159 0.16013378 0.073226415
000350 f6 92 35 bd 9e 22 1d be 03 ad aa bd 69 92 13 bd
       -0.044329606 -0.15345237 -0.083337806 -0.0360283
000360 17 6a 13 3e 3f 8c 9b 3e eb d7 64 bd 69 b0 a1 be
       0.14395939 0.30380437 -0.055869978 -0.31579903
000370 3a b1 23 be fb 9f 43 3e 15 6f cf 3d e4 f7 8f 3e
       -0.15985575 0.19103996 0.10128609 0.28118813
000380 cd 29 56 bd a7 3a b5 be e4 e2 1a bd df 55 7a bd
       -0.052285958 -0.3539631 -0.037814036 -0.06111705
000390 6b a9 4e be e2 99 c9 3d 04 4d 02 bb f7 9a 55 3d
       -0.20181815 0.09843804 -0.001988233 0.05214974
0003a0 28 cb c5 3e 2c 69 13 3e d9 f9 4f be 0d c2 9f bd
       0.38631558 0.14395589 -0.20310153 -0.07800684
0003b0 a8 7a d9 bc 48 80 5f be 58 3b 19 be 75 bd 09 3e
       -0.026547745 -0.21826279 -0.14964044 0.13451178
0003c0 7a 52 c4 bd a8 f8 a9 3e b9 43 8b bd 2c 6f 37 3d
       -0.09586044 0.33197522 -0.068000264 0.044783756
0003d0 ab bb 93 bc b7 c1 f3 bb 07 94 c6 3d c3 c7 94 be
       -0.018033823 -0.007438864 0.09696203 -0.29058656
0003e0 9b 7d bd bc b6 02 68 3e 6a c0 73 3e c3 39 c3 bd
       -0.023131182 0.22657284 0.23803869 -0.095325015
0003f0 39 25 b0 be 93 97 d8 bc e5 0e 4a be 30 86 ef 3e
       -0.344034 -0.026439464 -0.19732244 0.46782064

gnn_base.gnn.gnn1.lin_value.bias f4 [48]
000000 7d bd c7 3d 63 01 8c bd c1 5b 2a be 46 63 d2 3d
       0.09752939 -0.06836202 -0.16636564 0.10272841
000010 83 93 76 be f3 8b 12 be 03 7e a9 bd 75 58 6d be
       -0.24079709 -0.14311199 -0.08275988 -0.23178275
000020 d3 41 73 be 66 a2 29 bb c7 bb 75 bc 03 44 3e 3e
       -0.23755579 -0.002588415 -0.014998383 0.18580632
000030 55 08 25 3e ba 61 48 3e 5b 2e 91 3d 68 4e 23 3e
       0.1611646 0.1956853 0.0708892 0.15947878
000040 cd cf fe bc 69 ae 32 be 69 2e 66 be c0 40 89 be
       -0.031104947 -0.17449345 -0.22478642 -0.26807213
000050 a6 23 cc 3d 85 b5 15 be b0 21 02 be 80 89 f4 3d
       0.09967737 -0.14620025 -0.12708163 0.119402885
000060 12 0f 2b be 4a ec 28 3e 18 ef 95 3c 4d 14 5d 3d
       -0.16704968 0.16496387 0.018302485 0.05397444
000070 71 09 8e bd 0a 06 15 3e 71 50 58 be 16 e0 db bd
       -0.069353946 0.14553085 -0.21124436 -0.107361004
000080 f7 2f 59 3e 6b 9b 73 be ee d9 74 3e b7 f6 91 3d
       0.21209703 -0.23789756 0.23911259 0.07127135
000090 89 d6 b7 3d 2b e3 9a bc 22 73 b8 3c aa 85 88 3d
       0.08976466 -0.01890715 0.022515837 0.066661194
0000a0 88 32 05 be f3 56 83 3e 4c 3c 3e 3e c3 0d 8c 3c
       -0.13007557 0.25652274 0.18577689 0.017096406
0000b0 b8 04 ee 3d 9e 7f 89 bd 30 c7 c6 bd 57 6e 88 bd
       0.11621994 -0.06713794 -0.09705961 -0.06661671

gnn_base.gnn.gnn1.lin_edge.weight f4 [48, 1]
000000 90 ba ae be 6c a1 72 bf a1 08 07 bf 7f b2 fe 3e
       -0.3412671 -0.9477756 -0.5274754 0.49745557
000010 c3 ff 84 3f 01 b2 61 bf 38 36 5b bf c6 54 1c 3f
       1.0390552 -0.8816224 -0.85629606 0.61066854
000020 99 db bb be 89 51 b9 3d 85 6d 35 3f be 7f 31 3f
       -0.36690977 0.09048755 0.7087024 0.69335544
000030 a6 be ca 3e d4 1c a1 3e 8b 8b b2 bd 3b e2 ed bc
       0.39598578 0.31467307 -0.08718022 -0.02903854
000040 19 d2 e0 3e 86 41 6b bf be d6 91 bf 42 a0 27 3f
       0.43910292 -0.91896856 -1.1393659 0.6547891
000050 57 ce 75 bf da 30 06 3f ee 3a 31 3f 9a ba f7 3e
       -0.96017975 0.5241829 0.69230545 0.48384553
000060 0f e4 9c 3e 12 f6 f8 3d 12 0a 0e 3f 15 01 d4 3e
       0.30642745 0.12156309 0.55484116 0.41407076
000070 25 02 3c 3d aa 77 2d bf 6e f7 07 3f 49 35 ce 3d
       0.045900483 -0.6776072 0.5311192 0.10068757
000080 5f 11 3c 3f 57 70 18 bf f6 0c 03 bf 8c 9d 46 bf
       0.73464006 -0.59546417 -0.5119165 -0.7758415
000090 93 cb 2a 3e c9 89 67 3f 69 74 71 3e 9e 58 1f 3f
       0.1667922 0.9044462 0.23579563 0.62244594
0000a0 cc 03 39 3f 9b 0e 38 bf 42 ec 8a 3f 38 32 7e be
       0.7227142 -0.71897286 1.085335 -0.24823844
0000b0 02 c6 57 3f 8d 14 e3 3d 52 86 ac be 87 87 64 3f
       0.8428651 0.11087904 -0.33696228 0.892693

gnn_base.gnn.gnn1.lin_skip.weight f4 [16, 16]
000000 34 15 68 be 4a 29 e5 bc 1b 11 a5 3d 33 51 7d bd
       -0.22664338 -0.02797379 0.08059903 -0.061845016
000010 0c ee 53 be 40 65 5c 3e 68 d0 37 bd 89 ea 71 3e
       -0.20696276 0.21522999 -0.044876486 0.23624624
000020 58 50 78 bd 34 6b bf 3e 7c 9c f5 3d 8f 7e 88 be
       -0.060623497 0.37386477 0.11992738 -0.26659057
000030 86 96 3c be a3 86 2f be f4 db b4 be d7 1a 1d be
       -0.18416795 -0.17141204 -0.3532406 -0.1534227
000040 aa c6 2e be b8 ef c4 3e 1a d6 7f be 40 f9 df 3d
       -0.17067972 0.3846414 -0.24984017 0.109362125
000050 24 fe cb 3c a4 74 78 3c 3f ef 29 3e ca b9 79 3d
       0.024901457 0.015164528 0.16595171 0.060968198
000060 de f3 d1 3e ad 07 3a be da 5d 9e be 7b 92 d5 bb
       0.41006368 -0.1816699 -0.30930978 -0.006517706
000070 67 51 13 3e e7 d7 ee 3d ad d5 4d 3e 3c fb d2 bc
       0.14386521 0.11662274 0.20101042 -0.025754564
000080 f3 5e ab bd 48 c4 ab be 49 53 0d 3e 05 e0 9f be
       -0.083677195 -0.33548188 0.13801302 -0.312256
000090 a3 82 64 be 7c 83 dc bd c0 62 22 3e b9 0b 98 3e
       -0.22315459 -0.10767266 0.15857983 0.29696444
0000a0 03 ab 5f 3e ce 5d cf bd 16 11 97 3e 68 ce 23 be
       0.2184258 -0.10125314 0.29505223 -0.15996706
0000b0 e8 f7 ac 3e 2e f6 98 3e 41 01 f8 3b 9f d8 27 3e
       0.33782887 0.2987532 0.007568509 0.16391228
0000c0 13 05 d7 3d 67 bc 05 be 71 3a 10 bd 8a e7 cb 3d
       0.10499015 -0.13060151 -0.035211984 0.09956272
0000d0 4f 6c 88 3e d7 33 5f be 92 fc 18 be 22 3c a0 be
       0.26645133 -0.21797119 -0.14940098 -0.31295878
0000e0 de 4f 0d 3e 49 cb 19 3e 81 fb a0 bc 8f c2 04 bd
       0.13799998 0.15018953 -0.019651176 -0.032412108
0000f0 8b 1f 1f be 62 68 22 3d 5e 25 9c 3e 33 8c 96 3d
       -0.15539376 0.03965033 0.3049726 0.0735096
000100 b0 fc 6e 3e 4e df c6 bd b4 bf c2 bd 72 ce bd 3c
       0.2333858 -0.09710561 -0.09509221 0.02316973
000110 3d c1 08 3e 16 82 7e bd 36 54 8f 3e 50 bc 8f bd
       0.13354965 -0.06213578 0.27993935 -0.0701834
000120 ee 42 c1 be 21 3a 1b 3c 38 61 41 bc 5b 20 0b 3f
       -0.37746376 0.009474308 -0.011802964 0.54346246
000130 48 32 b2 bd 3b 0b df 3c bb 7f 35 be 24 1f 9a 3e
       -0.08700997 0.027227035 -0.17724507 0.30101883
000140 fc 60 83 be 96 7a d3 be 3a 1f 65 3e f9 c5 5a bd
       -0.2565993 -0.41304463 0.22375193 -0.053411458
000150 61 21 e5 bd 99 c0 a1 3e 4c c4 aa bd db 72 38 be
       -0.11188007 0.31592253 -0.08338222 -0.18012564
000160 66 93 af 3d a6 bb 89 3d 1c 30 39 be 12 f5 c5 bd
       0.08573036 0.06725244 -0.18084759 -0.09665884
000170 44 ea 8e 3e 38 aa 2b 3e 51 84 be be ec 88 73 3e
       0.27913105 0.16764152 -0.37210324 0.237827
000180 c2 36 1a 3e 95 48 a7 be 7e 59 9d bd 1e 07 75 3d
       0.15059951 -0.32672563 -0.07683085 0.05982124
000190 37 ed b5 3d 4a fc 6a 3e 41 13 a8 3e 6d ea 23 be
       0.08883136 0.22947803 0.3282719 -0.16007395
0001a0 22 3c 0d 3e f4 ae 82 be f1 12 d9 3d 84 0c 5a bd
       0.1379247 -0.25524104 0.10599316 -0.053234592
0001b0 b2 83 8f 3d 9f e1 1e 3e c2 c3 02 bd 48 31 7e be
       0.07007541 0.15515755 -0.03192497 -0.24823487
0001c0 1b ba ce bd 0d 6e 02 3e 61 f8 2c be 2d d0 0b bf
       -0.100940906 0.12737294 -0.16891624 -0.54614526
0001d0 a3 b4 24 be 9b d8 68 3d 9c c0 aa bc 22 9e a5 3e
       -0.16084532 0.056847196 -0.020843796 0.32347208
0001e0 a4 bf a1 bd b6 94 57 bd 1a 5f 35 3e 84 31 86 3e
       -0.07897881 -0.052632056 0.1771206 0.26209652
0001f0 55 8c 44 3e e9 b9 2a 3e b7 fa 23 3e 54 db b0 bd
       0.19194157 0.16672482 0.16013609 -0.086355835
000200 60 c4 98 bd 9e ae 1d 3f 7c 6d c3 be 75 8c 1d 3e
       -0.074593306 0.6159457 -0.38169467 0.15385611
000210 58 d7 92 3c 03 c7 16 3e 64 a2 af be 0e 2f ba 3e
       0.01792495 0.14724354 -0.34303582 0.36364025
000220 ad c2 1f be 47 55 b0 bd b6 f4 e7 bd 3c 18 c6 3d
       -0.15601607 -0.08610015 -0.11325972 0.09672591
000230 c7 01 90 3e 9a a1 09 be 41 bf 8b be 70 3a d1 be
       0.28126356 -0.13440552 -0.27294353 -0.40864897
000240 d3 c2 04 be 56 8e 08 3d 6b e0 23 3e ef 81 2a be
       -0.12964945 0.033338867 0.16003577 -0.16651128
000250 10 4d 0c be 26 66 8c 3e 2a 8e 9b 3e e9 be 91 be
       -0.13701272 0.27421683 0.303819 -0.28465965
000260 5f ee 30 be c8 88 33 bd 7a 6a e7 3d 21 a1 40 3d
       -0.17278431 -0.043831617 0.11299606 0.047028664
000270 8d 94 36 3d 93 5c 80 3e 3c d3 1c 3e c6 a1 e5 3c
       0.044575263 0.2507063 0.15314955 0.028031241
000280 9b 4a 51 3e 0c c1 23 3e e7 d2 13 be 44 a2 48 be
       0.20438616 0.1599161 -0.14435922 -0.1959315
000290 7e 5f 8e be 9e 6c aa 3e c5 b4 5d be 45 24 90 3e
       -0.2780723 0.33285993 -0.2165099 0.2815267
0002a0 30 38 4b bd 84 84 b7 bd a4 18 01 3e c5 b9 96 3d
       -0.04961413 -0.08960822 0.12607056 0.073596515
0002b0 f3 15 d3 bc 2d c7 f7 bd 46 55 4e be 2f 1b 9b be
       -0.025767302 -0.12098537 -0.20149717 -0.30294177
0002c0 e5 41 84 be 0a e0 13 3e e5 40 c1 bd 28 59 90 be
       -0.25831524 0.14440933 -0.09436206 -0.2819302
0002d0 9b 96 a7 3d 13 d2 42 be fc a3 a0 be 19 09 b4 3e
       0.081830226 -0.1902545 -0.3137511 0.3516319
0002e0 8a 82 6c be d7 90 72 bc d5 f7 8b 3e 84 7a 76 3e
       -0.23096672 -0.01480504 0.27337518 0.24070174
0002f0 ac d6 27 be a7 c8 d1 3e 64 7b 61 3e ff 0c 04 be
       -0.16390485 0.40973398 0.22019726 -0.12895583
000300 76 c2 b6 be e9 84 85 be a4 26 ec bd 9f c9 b9 bd
       -0.35695237 -0.26077965 -0.115308076 -0.09071659
000310 95 8f fc 3d e0 1b 4c 3d 98 20 71 3e 7b 2e 1e be
       0.123320736 0.04983127 0.2354759 -0.15447418
000320 cc b0 a0 3e f4 ae 72 3e b7 49 f5 3d 96 7a b3 3d
       0.31384885 0.23699552 0.119769506 0.08763616
000330 c1 ff 1f be 92 8a b0 39 f9 f6 2b be 85 da 8d 3d
       -0.15624906 0.0003367258 -0.16793431 0.06926445
000340 ca 12 90 bd c1 26 ce 3d 7f c1 c1 3e e7 75 72 be
       -0.07034834 0.100659855 0.37842938 -0.23677789
000350 43 bd bd be 12 0c 65 3e 2a 54 85 be 96 c2 42 be
       -0.37058458 0.22367886 -0.26040775 -0.19019541
000360 6a fe df bd d5 2e 42 3e 7c 61 a2 bd e8 75 0e be
       -0.109371975 0.18963178 -0.0792875 -0.13912165
000370 e9 d8 ef 3c e9 3a 13 3e 63 59 b7 3d d1 99 77 3d
       0.029278236 0.14377941 0.08952596 0.060449425
000380 c4 84 2e be cb 69 94 be 4c b7 8a 3b 1a 94 24 3e
       -0.17042834 -0.28986964 0.0042332765 0.16072121
000390 8a 1c 81 3d ed c5 be be 60 fe 6d be c2 a1 b4 3e
       0.063042715 -0.3726038 -0.23241568 0.3527966
0003a0 42 2e 88 bc 1f 13 2f 3e 02 ad 2e bc 11 a4 93 3e
       -0.01662362 0.17097138 -0.010661365 0.2883611
0003b0 db 8c 3a 3e ba 2d e7 3d e5 56 55 be 23 d9 95 3e
       0.18217795 0.112880185 -0.20833929 0.29267225
0003c0 2a 03 60 3e f7 68 49 3c 89 c8 f6 3d 2f 8b 95 be
       0.21876207 0.012293092 0.12049968 -0.2920775
0003d0 1d 24 d0 3d 00 0b 9e 3e 96 39 fe bd d9 a9 2d be
       0.10163138 0.30867767 -0.124133274 -0.16959323
0003e0 aa 5b 98 be 41 a3 1c be a5 c1 9f 3e e0 4c 25 be
       -0.29757434 -0.15296651 0.31202427 -0.16142607
0003f0 09 77 47 be ca 5f 87 3e 7e 3e 29 3e 5c aa 48 be
       -0.19479002 0.2644027 0.16527745 -0.19596237

gnn_base.gnn.gnn1.lin_skip.bias f4 [16]
000000 b8 5a 73 3c 57 e6 4a 3d a8 b7 b5 bb 85 74 3c be
       0.014853172 0.049536075 -0.005545575 -0.18403824
000010 b0 6b 50 be 56 b3 2c be 3b 97 cc 3a 37 08 f2 bd
       -0.2035358 -0.16865286 0.0015609035 -0.11817973
000020 ac e7 75 be 0c 72 8e 3e 43 19 41 3e 48 4d 98 bd
       -0.24014157 0.27821386 0.18857293 -0.07436615
000030 b9 80 a0 3d db 68 fe bd e3 62 30 be d6 f6 bf bd
       0.07837052 -0.12422343 -0.17225222 -0.09373252
