model_weights/old_FA_FR/tube/feb17/split/critic.pt (torch, 191627 bytes, 57 tensors)

gnn_base.gnn.embed_layer.layer_norm.weight f4 [16]
00000000: 7110 8c3f 31b7 8e3f 759e 8b3f a587 993f
00000010: c255 6d3f 05f2 ae3f 5a6f 713f da71 5a3f
00000020: 8137 593f 498e 6f3f 580b 603f 61af b13f
00000030: d054 753f 6d3a 783f ad88 643f bcab 423f
1.0942518 1.1149656 1.0907732 1.199452 0.9270898 1.3667608 0.94310534 0.85329974
0.8485032 0.93576485 0.8751731 1.3881646 0.9583254 0.9696415 0.8927105 0.76043296

gnn_base.gnn.embed_layer.layer_norm.bias f4 [16]
00000000: c3e3 13be 7034 67bd 6e19 923d 1869 2abd
00000010: 4ce9 2b3e c7b3 aebd 4b4c efbc b052 303d
00000020: 5c9f b83d a5f9 833d fe86 8a3d e560 29be
00000030: 5da9 763e 0015 3b3e 6f2b bf3d 4511 83be
-0.14442353 -0.056446493 0.071337566 -0.04160413 0.16788214 -0.085303836 -0.029211184 0.043047607
0.090147704 0.064441 0.06764029 -0.16540869 0.24088044 0.1826973 0.09334456 -0.25599113

gnn_base.gnn.embed_layer.entity_embed.weight f4 [4, 2]
00000000: 5e04 f8bf f85b 8fbf 3149 a3be 8a65 93bf
00000010: db2a 4c3f 7223 f2bf 2bf0 5dbe ef29 263f
-1.9376333 -1.1199942 -0.31891778 -1.1515362 0.7975289 -1.8917067 -0.21673648 0.64907736

gnn_base.gnn.embed_layer.lin1.weight f4 [16, 10]
00000000: f160 863d 4ad2 8d3d 6eac 8f3f fea9 06be
00000010: aebf 833e dacf 8d3d 43d0 343d 93f4 c9be
00000020: c1ae 1abf d1fc 193d 3573 25bf a55f a1be
00000030: 3189 19bf 2be9 89bf 9c29 c33e a2fb 23bc
00000040: 2106 a73d a429 b6be d646 21bd a1a7 9c3e
00000050: 4dd2 07bf 07dc 113e 5d25 4c3e af10 9b3e
00000060: 0edb 26be 80e6 f13e d872 763f cbfb e8be
00000070: 6258 abbe b314 553e 1333 e23d 7d1e 42bf
00000080: 872c 1c3f 7f1f aabf f5e9 c1bd 06cf 95be
00000090: 6605 cfbf 3f3f 56be ff5a df3d f3c5 6dbd
000000a0: b6c5 b43d 9b0e 423f 85fd 39be f104 3f3f
000000b0: 3545 d03e 64f1 3d3f 473b d03e 5c04 c53e
000000c0: f2a9 0abe 0fec 68be 0384 d03d 831a 043f
000000d0: 04db 143e 512c a13f 4be9 6ebd 2d28 04be
000000e0: bdc0 40bf 01f8 f7be 5175 943e b8bb c2bd
000000f0: 38ff 113e 9ce7 383f 27ff 16be ec53 103f
00000100: 34cb 8f3e 3dcc ad3e 0a96 3cbf d3d9 cebe
00000110: 54b2 233e 4139 bd3e a7dd 703f 6e4f 303e
00000120: b598 ab3d 4853 b5bd cc80 2fbd c240 0a3e
00000130: 2d3c 763d b16c 80bd ee8e 03bf 4ef4 533f
00000140: 56f0 5e3d 6aa2 143e f382 4f3d 8237 403e
00000150: 695c 743f a3b5 9c3d cb68 433e 173e b8be
00000160: 54e3 51be af81 f2be 86ad c3be e1c5 3e3f
00000170: ea4e ccbe 89f8 043f 4b90 e3be 99bd 003f
00000180: 04ab 81be bb26 093f 353d 6b3d 8cb3 9ebe
00000190: 66d7 95be 4854 373f d8c6 843d f7ea 963d
000001a0: 835a 8a3e fbff 5d3e e26c ab3e 49ce 433f
000001b0: 5915 bbbe 8c14 38be d1f6 0abf ae9a 3cbe
000001c0: 3e14 9cbf c864 a4be 2624 22bd c985 90bc
000001d0: 74b9 90bf 56d3 c1be b735 3abe 47d3 f33c
000001e0: 46cc b0be 1133 17be fec6 7d3e c889 8f3c
000001f0: 7911 4d3f 28f8 6d3e 72b7 a83e 5544 fc3b
00000200: e704 7d3e f48c 903e e07f c1bd ce6e b9bd
00000210: 4bd0 d8bd 41c1 54be 6741 383e 216d 963e
00000220: e44c a4be c348 573f fb92 db3d 4fd2 613d
00000230: dc8c 29be ebd5 35be 2620 873e ce97 49be
00000240: 3fc5 d73e 39af d7be 1d35 0fbe 99e2 48bb
00000250: 1e99 5d3f c0df 613e dff1 15bf 57ff 773e
00000260: 7737 b4be d9c4 003f bc02 a93d 5824 48bf
00000270: 7c4d 663e 55d1 4a3e ee25 b3be 4856 2f3e
0.06561459 0.06924875 1.1224496 -0.13150784 0.25732177 0.0692441 0.044143926 -0.39444408
-0.60422903 0.03759462 -0.64628917 -0.31518283 -0.5997496 -1.0774282 0.38117683 -0.010008724
0.08155466 -0.35578644 -0.039374195 0.3059664 -0.5305527 0.1424409 0.19936128 0.30286166
-0.162945 0.4724617 0.9626899 -0.45504603 -0.33465868 0.20808677 0.11044898 -0.7582777
0.61005443 -1.3290862 -0.09468452 -0.2925951 -1.6173522 -0.20922564 0.10906028 -0.058050107
0.08826773 0.75803536 -0.18163116 0.74616915 0.406778 0.7419646 0.40670225 0.38479888
-0.13541391 -0.22746299 0.10181429 0.51602954 0.14536673 1.2591649 -0.058327954 -0.12905951
-0.75294095 -0.484314 0.28995755 -0.09508461 0.14257514 0.7222841 -0.1474577 0.56378055
0.2808472 0.33944884 -0.7366644 -0.40400562 0.15985996 0.36957744 0.94088215 0.172178
0.08378736 -0.08853775 -0.04284744 0.13501266 0.06011598 -0.06270731 -0.5138997 0.82794654
0.05442842 0.14515081 0.050661992 0.18771175 0.95453507 0.07651832 0.19082944 -0.3598487
-0.20496875 -0.47364566 -0.38218325 0.7452069 -0.39903957 0.51941735 -0.44446024 0.50289303
-0.25325787 0.53574723 0.05743142 -0.30996358 -0.29265898 0.7161298 0.06483239 0.07369035
0.2702218 0.2167968 0.33481508 0.7648664 -0.36539724 -0.17976588 -0.5428286 -0.1841838
-1.2193677 -0.3210814 -0.039585255 -0.017641919 -1.1306596 -0.3785655 -0.18184553 0.02976383
-0.34530848 -0.14765574 0.24782941 0.017521754 0.80104786 0.23239195 0.32952458 0.0076985755
0.24708901 0.2823254 -0.09448218 -0.090543374 -0.10586604 -0.20776846 0.17993699 0.29380134
-0.32089913 0.840954 0.10721394 0.055132207 -0.1655764 -0.17757384 0.26391715 -0.19686815
0.42142674 -0.42125872 -0.13985105 -0.003065264 0.86561763 0.2205801 -0.5857219 0.24218498
-0.35198566 0.50300366 0.08252475 -0.78180456 0.22490495 0.19806416 -0.34989876 0.17122757

gnn_base.gnn.embed_layer.lin1.bias f4 [16]
00000000: 3d44 c93d 8c1c 5c3d c688 ed3d 48ac 4ebc
00000010: e58b 8c3e 8ddd 9f3d 275f 313e f07b 353e
00000020: d380 b4bc c1e0 83be 4c2a 8c3d 12d5 453d
00000030: 540a 3b3e 2cb5 15be 9d3b 2fbd 7a48 ca3d
0.098274685 0.053738162 0.11598353 -0.012614317 0.2745048 0.07805929 0.17321454 0.1772306
-0.022034084 -0.2575741 0.06844005 0.048298903 0.18265659 -0.14619893 -0.04278146 0.09877105

gnn_base.gnn.embed_layer.layers.0.weight f4 [16, 16]
00000000: 0dce a93e 7822 3abf 837c b6bd 799e 91bd
00000010: 825b cc3e d4da d43e 1670 36bd d3c0 c43c
00000020: 8a1a d93e 3001 3cbe f681 abbe d4ef 0f3f
00000030: d5cf ddbd 9a0e 85be f451 173f 88bc c1bb
00000040: bb12 b7bd f044 92be d382 823f cead f43e
00000050: 4bd3 46bc 0f5a 543d 89c2 e23d 7be4 51be
00000060: 00a9 83bf e6d6 043f aa2c b63d 466e ac3e
00000070: a489 e33d 27c4 4a3e ca26 3e3e e550 b63e
00000080: 9e62 e73e 663e 72bd ad1b b23d 3e69 96be
00000090: 4d4b 1abf 43a7 b83e 1019 24be da6f cf3e
000000a0: 46ce 253d 130e d43e 7aaf da3c f16e 3a3d
000000b0: 8284 233c 4cbe 073f 52aa 31be e499 073f
000000c0: 1759 9abf 2075 313f ebb6 443e 4773 abbe
000000d0: 9149 a73d 0a6d 9ebc dee7 2b3e d8c2 c83d
000000e0: a547 563e c24f 46be 8325 40be 74a2 323f
000000f0: b344 143d 13cd d33e e86b 303e 20c2 e73e
00000100: 1832 3dbf 82f2 07bf e290 e73e e477 193f
00000110: 826d dc3e 0556 bcbe 7a2b b4be 82b3 753e
00000120: 974d ea3e 5a12 5fbe 372e b439 3e10 dbbe
00000130: 5eab 56bc accb da3e 07da 523f cad4 67be
00000140: f630 3abe f76b a0be cca7 c13d 71fd 9abf
00000150: 4fdf 363d e8d1 373f 8374 fe3e 8fe1 76be
00000160: 7b7b 05bd 4304 003e df85 9b3e 1262 753e
00000170: aa0f 08be 057c ab3d ff26 323e 4493 303f
00000180: a716 003f 7ec3 33be 0535 aa3e f465 843f
00000190: 0420 a9be a453 03bf 9ccf ce3e ef5e 873e
000001a0: c7d6 193e 3f43 3e3e 02c8 a23d 589d 80bf
000001b0: 36c6 0bbe d43a bbbe a93e 42bc 5b7f a83d
000001c0: 8b5e efbe 7c61 0bbf efe0 8c3d 72fe 903e
000001d0: 2464 9dbe 84bb d6be 96f1 b23e bb6e 393e
000001e0: ac2c d7be ed10 223f d0b7 423e 1853 ef3d
000001f0: f952 29be d18b 22be 03f2 e8be eb0d 6cbf
00000200: 143e 873e 9631 8bbe f234 c03e eb0a 84be
00000210: 6e20 cb3e 34c8 c33c c59c 293f 5475 623f
00000220: d1b0 bd3e 48fc 963e 59ed 15bf 9572 343e
00000230: 9ab6 163e a072 533e 5d91 36bd 37ef e7be
00000240: a145 32bc 451b ed3b fd01 febd c9f3 003f
00000250: 7af9 9fbe 5375 44bf 765b d4bd 2272 98bd
00000260: 616a 14bf df2e 11bf 75dc 103f 2184 5b3f
00000270: 329f 013f 733c 083f 1061 d53d ba81 5abe
00000280: d73b acbe 5a68 473e 5e55 01bf d1dc 1a3e
00000290: c45e cf3e d6f2 8ebf 4033 fc3c ab40 e63e
000002a0: 6cc0 86be d19e 77bd 12d6 47bf 5087 c93d
000002b0: 72ed dfbd c5be e63e 0a8f 7d3e 8e07 a63e
000002c0: 80e9 e93e c4f1 12bf dc9c 143d 71da 0ebf
000002d0: 5434 353d 7f87 593f 91f7 9bbe 1a35 20bb
000002e0: 0d4e 1ebe d716 363d 1111 483d 41bf 9dbf
000002f0: c898 14be 03a5 7d3e 1db7 7a3e 73b2 eb3c
00000300: 7026 c23e 3568 6a3e 66b6 843e 0e23 2e3d
00000310: 9eb4 ac3e 8b9e f1bd 3e28 1c3f 12e6 fd3d
00000320: 2832 eabd 30c2 053a 8159 dc3e 92d4 c13b
00000330: 38a6 67bf f90b 9a3d 8196 43bf a104 333e
00000340: fcc5 973d e73f 3a3e 7364 603e d2ed 593d
00000350: 1b42 14bf 9df2 0dbe 401b 333f 9c71 6abf
00000360: 9f66 9d3d 4cfc 363e 2343 fdbe cc93 023f
00000370: f086 08bf 4d0f 873e 59d2 403e 756c 54bf
00000380: 6cca 41be 5cfc e9be 4712 d03e faa9 afbe
00000390: 0d52 20bf 7330 323e e281 943e b402 79be
000003a0: e08a f83d 7e61 37bf 0ac0 eabe d7e4 91be
000003b0: d567 02be 4f4d cebe bea4 34be cac2 553e
000003c0: 8a48 25bf 6abf 283f 8d9a 233f f05e ecbd
000003d0: e5b7 9ebd b5ff 8dbe ad49 19bf 6674 cf3c
000003e0: a0b9 5ebe c8f0 14be 2c9c 873e 168e 4d3e
000003f0: 945a d9be 8cff ca3e f03a 5e3e 3e25 5cbe
0.33165017 -0.72708845 -0.089104675 -0.071103044 0.39913565 0.41573203 -0.044540487 0.024017727
0.4240306 -0.18359828 -0.3349759 0.56225324 -0.108306564 -0.25987703 0.59109426 -0.0059123673
-0.089391194 -0.2856822 1.0196174 0.47788852 -0.012135337 0.0518437 0.11072261 -0.20497315
-1.028595 0.5189041 0.08895238 0.33677882 0.11110237 0.19801389 0.18569484 0.35608593
0.45192426 -0.05914154 0.08696685 -0.29377168 -0.6027115 0.3606511 -0.16025186 0.40515023
0.04047992 0.41416988 0.026695002 0.04551596 0.009980323 0.53024745 -0.17350128 0.52969193
-1.2058438 0.69319344 0.19210403 -0.33486387 0.081683286 -0.019339103 0.16787669 0.098027885
0.20925768 -0.19366363 -0.1876431 0.69779134 0.03619833 0.41367397 0.17228663 0.45265293
-0.7390456 -0.5310441 0.45227724 0.59948564 0.43052298 -0.36784378 -0.3518942 0.23994258
0.4576232 -0.21784344 0.00034366708 -0.4278583 -0.013102381 0.42733514 0.82363933 -0.22639766
-0.1818274 -0.3133237 0.09455833 -1.2108594 0.044646557 0.71804667 0.49698266 -0.24109481
-0.032588463 0.12501626 0.30375573 0.23963192 -0.13287225 0.08373264 0.17397688 0.6897471
0.50034565 -0.17555043 0.33243576 1.0343614 -0.33032238 -0.512995 0.40392768 0.26439616
0.15023337 0.1858034 0.07948305 -1.0048018 -0.1364983 -0.3656832 -0.01185576 0.08227416
-0.46751818 -0.54445624 0.0687884 0.28319126 -0.30740464 -0.41939938 0.3494994 0.18108647
-0.4202627 0.63307077 0.19015431 0.11685771 -0.16535558 -0.15873648 -0.4549714 -0.9220874
0.2641455 -0.2718627 0.37540394 -0.2578958 0.3967318 0.023899175 0.66254836 0.8846028
0.37048963 0.2948935 -0.5856529 0.17621835 0.14718094 0.20649195 -0.044572223 -0.45299694
-0.010880859 0.007235917 -0.12402723 0.50371987 -0.31245023 -0.7674152 -0.10369007 -0.07443644
-0.5797482 -0.56712145 0.5658639 0.8574849 0.5063354 0.5321724 0.10418904 -0.2133855
-0.33639404 0.194734 -0.50520885 0.15123297 0.40501988 -1.1167858 0.030786157 0.44971213
-0.2631868 -0.060454194 -0.7806102 0.09840262 -0.10933961 0.4506742 0.24761596 0.3242764
0.4568596 -0.57400155 0.036282405 -0.55802065 0.044239357 0.84972376 -0.30462316 -0.0024445713
-0.15459462 0.044455376 0.0488444 -1.2323991 -0.14511406 0.24769978 0.24483915 0.028771615
0.3791995 0.22891314 0.2592041 0.0425139 0.3373155 -0.11797818 0.60998905 0.12397398
-0.11435348 0.00051024836 0.43037036 0.005915233 -0.90488005 0.07521815 -0.76401526 0.17482235
0.074108094 0.1818844 0.21913318 0.05320532 -0.5791337 -0.13862081 0.69963455 -0.91579604
0.07685589 0.17869681 -0.49465284 0.5100677 -0.533309 0.2637886 0.18830241 -0.8297799
-0.18924874 -0.45700347 0.40638945 -0.3430937 -0.626252 0.17401294 0.29005343 -0.24317437
0.12135863 -0.71633136 -0.4584964 -0.28494903 -0.12734921 -0.40293357 -0.17640969 0.20875087
-0.6456381 0.65917075 0.639077 -0.115415454 -0.07749919 -0.2773415 -0.59878045 0.025324058
-0.21750498 -0.14544976 0.26486337 0.20073733 -0.42451918 0.39648092 0.2170217 -0.21498582

gnn_base.gnn.embed_layer.layers.0.bias f4 [16]
00000000: 6672 903d 81eb fc3b b4e8 f2bb 5838 c43d
00000010: 95a2 563e 25e9 1c3d 1a53 08be 7a41 94bc
00000020: ebfd 963d 3f18 d13b b839 75bd f038 95bd
00000030: da0e 06be 2a9e 803e 6283 ac3d bcba 47be
0.0705307 0.007718504 -0.0074129943 0.09581059 0.20960458 0.03830828 -0.1331295 -0.018097628
0.0737265 0.006381064 -0.059869498 -0.072862506 -0.13091603 0.2512067 0.08423497 -0.19504827

gnn_base.gnn.embed_layer.layers.2.weight f4 [16]
00000000: 7110 8c3f 31b7 8e3f 759e 8b3f a587 993f
00000010: c255 6d3f 05f2 ae3f 5a6f 713f da71 5a3f
00000020: 8137 593f 498e 6f3f 580b 603f 61af b13f
00000030: d054 753f 6d3a 783f ad88 643f bcab 423f
1.0942518 1.1149656 1.0907732 1.199452 0.9270898 1.3667608 0.94310534 0.85329974
0.8485032 0.93576485 0.8751731 1.3881646 0.9583254 0.9696415 0.8927105 0.76043296

gnn_base.gnn.embed_layer.layers.2.bias f4 [16]
00000000: c3e3 13be 7034 67bd 6e19 923d 1869 2abd
00000010: 4ce9 2b3e c7b3 aebd 4b4c efbc b052 303d
00000020: 5c9f b83d a5f9 833d fe86 8a3d e560 29be
00000030: 5da9 763e 0015 3b3e 6f2b bf3d 4511 83be
-0.14442353 -0.056446493 0.071337566 -0.04160413 0.16788214 -0.085303836 -0.029211184 0.043047607
0.090147704 0.064441 0.06764029 -0.16540869 0.24088044 0.1826973 0.09334456 -0.25599113

gnn_base.gnn.gnn1.lin_key.weight f4 [48, 16]
00000000: 23cd dfbe dcd6 f3bd 435c 833e eda2 3a3e
00000010: 472d 43be 4562 923e e33d 38be 2a2d a33d
00000020: a8f8 1b3e d51e 4c3c 999e 953d 1d47 38be
00000030: b54c 2dbe fd38 86be a2d3 9c3d 65f7 8bbc
00000040: 343f bf3e e2f9 0c3e ae0e bdbe d257 b2bc
00000050: 188e 973d 1a33 eabc 06fd a4bd 67a8 993e
00000060: 804b 333e be49 a13e 355e 173e 7e0c 103e
00000070: 5248 cdbd b409 233d 8224 e93d 7e58 4dbe
00000080: 42ae 9f3e 5bcd 15be bb80 903e 836b 74be
00000090: 4021 a8bd d0d4 9a3e 21a0 763d 36e9 963d
000000a0: efb3 87be cb49 113e 9b0b e83d af17 6ebd
000000b0: c258 5cbd 2fed 663e b0f1 8f3c 254a 74be
000000c0: 96ff bfbd 2e28 4f3e b82d a8bd 060d a43d
000000d0: c42d 743e 8e5b 15be c925 9abb 71f4 3e3e
000000e0: bb2c 953e 965a 673c 3ea5 b43d b9a7 333e
000000f0: 4d48 183d 4570 f83c dafa e5be 7715 9c3d
00000100: 5079 5ebe 31d8 68bb 2df5 ff3d fc31 883d
00000110: 3a64 a33b 5599 ccbd 3e2a 09be 26b8 b33e
00000120: 8d9d 4b3e 9e0c e9bc 9740 453e ae97 273c
00000130: 02b7 54be d55c 203d 3b8f fe3e a1d2 ccbd
00000140: 2000 6dbe 3df8 a7bd 1c30 6fbd b37c c2bc
00000150: 1c9c 31be 67cc e83c 2b98 96bd 2d92 54be
00000160: d78b 13be 95a1 943d 8fb3 0dbe 0248 2c3e
00000170: 6f57 703e f58f 74be 331c 38bc 2112 fc3d
00000180: 217f 293e 2b3f 62bc 63a9 d8bc 04ff ce3d
00000190: 4dc3 7c3e 4aba 25be 38ae bc3d 6bc9 21be
000001a0: bd2a 8f3d 5ec3 8c3e 5c1d 9abd 80ed fa3d
000001b0: 7f6f 4ebd bd76 263e 0e47 49be 1aa0 b83e
000001c0: b89c 0f3e 6f2a 1d3d 3d75 a8bd 8347 093e
000001d0: d23c 85bd 9f18 32bc 3bbd 92be e4b3 2c3e
000001e0: c730 a73e 8364 553e 451a 43ba 14de 34be
000001f0: 3e40 a33d 3bfe bdbd c65d d03e 3a0b f5bd
00000200: ce15 713e d474 403d 2617 47be 9d42 fe3d
00000210: e401 0ebe eb72 9d3d d832 52be a365 8abe
00000220: f7f1 aabe 7708 4e3e cde9 053e 3269 a6bd
00000230: f871 e33d 6f4b b33d 8f57 7c3d 0379 33bd
00000240: 40d6 853c 67a6 55bd 026a d83e b41f 57be
00000250: e0ec 2d3e 327f aebe 5cca 18be 93d2 3d3d
00000260: 8c6e 5f3e bde3 393d 1a38 4dbe 3042 4ebd
00000270: 1fe3 b73c 34a5 8ebe c4f3 2a3f aa7d 39be
00000280: 02ed 993e ac63 933e f7cd be3e 05ae 25be
00000290: 0999 be3d 6e4e edbc b243 9abe d701 5a3e
000002a0: 9679 a73d fc6b 45be 320e 1fbe 485a b6be
000002b0: 2147 1abd c4ba 2d3e 8066 853e dc45 4b3d
000002c0: 3306 5dbe 7ee5 5dbe 08af 40be 7ea8 c9bc
000002d0: ce44 2a3d 0333 f5bd 1e34 9f3e da7b eebd
000002e0: d44a c6be aa11 d8be ff25 8ebe fa4b 37be
000002f0: abb9 8ebd abe3 1bbd e266 9bbd 9df4 893d
00000300: badb 21be 33da 503e 4644 003f 5fa7 10bd
00000310: de66 28be 39ba a1be 865e 26be 46b3 403e
00000320: 9872 b83e 9b00 6cbe f904 0e3d c984 98be
00000330: 378d 2c3d 8571 e3be 49ef 2a3e 9293 ec3d
00000340: 357f 433e 05c9 81bd 5df5 9abd 8a99 81be
00000350: 4950 253e c025 f7bd 0cf1 813e 857e 1ebb
00000360: af40 96bc ff32 26be a1ae 19bd c1c1 fb3d
00000370: 14ad 2fbe 10cc 453d 8f68 903e e859 a8be
00000380: a160 043d 3da6 03be 8e71 60be aba6 edbd
00000390: cf9b c6bc 0391 c4bc 792a 2abe 12b5 183d
000003a0: a5af 913e 839a 403e 4bd6 923e 724f 28bd
000003b0: df0d fcbd 082c 643e 43e4 85be 603a 8cbe
000003c0: 13dd b03d 5899 5a3d f58e 273e 4202 e6bd
000003d0: 65d4 2bbe a938 c43e 0de8 043d d1d5 9cbe
000003e0: e2d6 b5be ae9e 083e 801a 89be ebdd 113c
000003f0: 4a81 29be 1c1e 5dbb f479 7abe f280 233e
-0.43711194 -0.119062155 0.25656328 0.18226214 -0.1906024 0.285906 -0.17992358 0.07967599
0.15231574 0.012458523 0.07305641 -0.17995878 -0.16923793 -0.26215354 0.07657553 -0.01708574
0.37352908 0.13767198 -0.36925262 -0.021770392 0.07400149 -0.02858882 -0.08056073 0.30011293
0.1750927 0.31501573 0.14782031 0.14067265 -0.1002356 0.039804175 0.113839164 -0.20053288
0.31187636 -0.14629118 0.28223214 -0.23869137 -0.08209467 0.30240488 0.060211305 0.073687
-0.26504466 0.14188306 0.113303386 -0.058128055 -0.053795584 0.22551416 0.0175713 -0.23856409
-0.09374921 0.20230171 -0.08211845 0.080102965 0.23845583 -0.14585707 -0.0047042114 0.18647934
0.2913569 0.014120718 0.0882058 0.1754445 0.037178326 0.030326972 -0.44917947 0.076212816
-0.21725965 -0.003552925 0.124979354 0.06650159 0.004986313 -0.09990183 -0.1339502 0.35101432
0.1988432 -0.0284484 0.1926292 0.010229034 -0.20772937 0.03915103 0.4971865 -0.10001112
-0.23144579 -0.082016446 -0.05839549 -0.023741102 -0.17344707 0.02841778 -0.073532425 -0.20758887
-0.14408813 0.07257382 -0.13838027 0.16824344 0.23470853 -0.2388304 -0.011237192 0.12308145
0.16552402 -0.013809006 -0.026447957 0.10107234 0.24683876 -0.16184345 0.09212917 -0.15799491
0.069905736 0.27492803 -0.07525131 0.12252331 -0.0503993 0.16256233 -0.19656011 0.36059648
0.14024627 0.038370546 -0.082254864 0.13406186 -0.06505741 -0.010870128 -0.28659996 0.16865498
0.32654402 0.20839123 -0.0007442574 -0.17662841 0.079712376 -0.09277006 0.40696543 -0.11965032
0.23543474 0.046986416 -0.19442424 0.12415049 -0.13867909 0.076879345 -0.20527208 -0.27030668
-0.3338773 0.20120417 0.13077469 -0.08125533 0.11105722 0.08754622 0.06160694 -0.043816578
0.016337514 -0.052160647 0.42268378 -0.21008188 0.16984892 -0.34081417 -0.14920944 0.046343397
0.21819514 0.045383204 -0.20040932 -0.05035609 0.022447167 -0.27860415 0.66778207 -0.18114343
0.30063635 0.2878698 0.37266514 -0.16179664 0.09306533 -0.028968062 -0.30129772 0.21289764
0.081774876 -0.19279474 -0.15532759 -0.35615754 -0.03766549 0.16965777 0.26054764 0.04962717
-0.21584396 -0.21669576 -0.18816769 -0.024616476 0.041569524 -0.1197262 0.3109445 -0.116447166
-0.38728964 -0.42200977 -0.27763364 -0.17900077 -0.06969007 -0.038058918 -0.07587983 0.067361094
-0.15806475 0.20395736 0.50104177 -0.035315868 -0.1644549 -0.3158739 -0.16246995 0.18818387
0.36024928 -0.23047106 0.03467271 -0.29788807 0.04212686 -0.44422546 0.16692843 0.11551584
0.19091494 -0.063371696 -0.075663306 -0.25312454 0.16143908 -0.12067747 0.25379217 -0.0024184298
-0.01834139 -0.16230391 -0.037520055 0.12292815 -0.17155868 0.048290312 0.28204772 -0.32881093
0.032318715 -0.12856384 -0.21918318 -0.11604055 -0.024244217 -0.023994928 -0.16617765 0.037282057
0.2845432 0.18808942 0.28679118 -0.04109139 -0.12307333 0.22282422 -0.26150712 -0.27388287
0.086359166 0.053368896 0.16363128 -0.112308994 -0.16780241 0.38324478 0.032447863 -0.3063188
-0.35515505 0.13341781 -0.2677803 0.008903007 -0.16553226 -0.003373987 -0.24460584 0.15967157

gnn_base.gnn.gnn1.lin_key.bias f4 [48]
00000000: d7d9 a7bd afd5 813d 8f7e eebc cd19 7dbe
00000010: 80f7 13be df5a 23be 0841 173e d6a0 ed3d
00000020: 02b5 143e e2d3 1f3e ffc4 ecbd bf4e 303e
00000030: 5a32 703e 7b2b 9a3d eda5 383e 16c4 68bc
00000040: 5bde 0d3e abb0 7d3e 2c39 f7bd 1a02 5e3e
00000050: 2055 03be 0f78 093e 0990 8bbd e707 02be
00000060: ada2 583e edde 673e 6ee5 08bd c40b 7dbe
00000070: b9be 75be e956 063e abcc 6abe da3f c13b
00000080: aa24 42be 62c3 48bc 1805 c43c c06c b2bd
00000090: 7898 9bbd 8bbb 343e bd46 34be df7c 0fbe
000000a0: 6363 2e3c 186a b63d fd30 213e b265 b53d
000000b0: 9742 92bd 054f 013e add9 fc3d f392 443e
-0.081958465 0.06339585 -0.029113082 -0.24716873 -0.14449883 -0.15952633 0.14770901 0.11602943
0.14522174 0.1560817 -0.115610115 0.17217539 0.23456708 0.075278245 0.18032046 -0.014206907
0.13854353 0.24774425 -0.120714515 0.21680489 -0.12825441 0.13424705 -0.06814582 -0.12698327
0.21155806 0.22643633 -0.033421926 -0.2471152 -0.23998536 0.13119091 -0.22929637 0.0058975043
-0.18959299 -0.012253614 0.02392821 -0.08712149 -0.075974405 0.17649667 -0.1760511 -0.14012478
0.010643813 0.089069545 0.15741344 0.088572875 -0.07141607 0.126278 0.12346206 0.19196682

gnn_base.gnn.gnn1.lin_query.weight f4 [48, 16]
00000000: c6da a5bd e0e2 803e b6e1 5f3e d01c 1c3f
00000010: a949 4fbe 7ca9 b63e 8049 60be 0c9f 0f3e
00000020: f79b 3fbe e41a 24bc 3d94 1bbe 4b66 5abe
00000030: c68d 87be d3aa e83b c8be e33d 0855 af3c
00000040: 6c90 81bd 016a b4bd 2487 9a3d 0c5a 573e
00000050: a0f7 3abe d8a7 d3be 3eda 1c3e 5546 223e
00000060: 5dcc 8c3e 201c 823e c9e6 553e 4619 163e
00000070: de86 cf3d f685 d2be 9d23 22be e130 ad3e
00000080: 88c6 b23d 5a60 da3b a262 cfbd c783 2dbe
00000090: 2c11 173d 6136 973e 0c22 8f3d 7021 d9bd
000000a0: 476b 4dbd 69e1 47be a10c cbbb 3f69 8d3d
000000b0: 1345 1b3e 5631 bcbe b69c b13e 89bd c83e
000000c0: e3fc b9bd 91c0 bb3e 6955 56bd 2f5c a9bc
000000d0: 6a8c 0f3e 3ed2 a3be 84a3 963d 9fc6 ad3c
000000e0: c081 c0bb fa2a 803e 19ab 1a3e 1bfd abbe
000000f0: d69e 443c c7a1 753e 003c 7e3a d868 f23c
00000100: 032e 0a3e 9a7d 753e 02d6 15bd fbc4 1a3f
00000110: 90a4 333d 421d 2c3d d4ad 443e 5260 83bc
00000120: 7d0c 503d ea78 c73d 44fd 23bc c47b 9b3e
00000130: 07ae 11be 443e 69be 23bd 48be 7f74 b2bc
00000140: cccc 19be 9e09 4abd e8ba fa3d 8bb5 043d
00000150: e8f9 4f3e 697b cf3d 0e3a 8cbe bc86 053e
00000160: e862 663e d3e3 cabd 5ac1 0c3e 60fd 31be
00000170: 36fd 24bd bb0a 683d be95 173d 0432 b9be
00000180: 8c4f 5cbd 436c b83d eed4 98bd 2bb8 a9be
00000190: 0051 983c 7288 55be 7f0a b03d d9e6 27be
000001a0: fe27 fcbd 68be 2c3e f8c9 b43d 84ce 3bbe
000001b0: de19 9abc 7b93 433d 15d3 2dbe de74 ca3d
000001c0: c289 74bd 5210 1c3c f785 a0be 9866 c53e
000001d0: 62b6 09be 7505 943d 1827 ba3e 7aa6 25be
000001e0: a862 76be e8c0 a03e 3f2e b8bd c4fb d1bd
000001f0: 5d06 0dbe ca00 88be d0d4 7c3c ea60 5abd
00000200: 0683 1e3d 6f20 9dbd 6453 1dbd 6b3f 913c
00000210: 196a 55be cba0 05bd ec13 243e b673 63be
00000220: 44fd 053e 90a6 2c3e 6fd8 85bd 5c58 8c3e
00000230: 6c0f 8f3e d011 173e 3a45 91bc 0eee 233e
00000240: 6545 133e 0783 57be bbeb c5be 6639 a23d
00000250: 7f4a a23e c3e1 f53e 91d0 75be 0e81 143e
00000260: ab2b 52bd a7ec 14be 33e9 ecbb d845 0e3f
00000270: c508 96be 8d16 d03c f19f 85be 961c b4bc
00000280: d9cb 76be 5277 8cbe dc4d 9bbd c1d3 a93d
00000290: 72c4 ffbd 0b9b fe3e c739 ab3d d317 13be
000002a0: ee24 0a3e d68f 293e 7767 e43c 43b0 c03e
000002b0: af09 12be f398 33be dc06 85be 6eaa c43e
000002c0: 3b81 683e a95d 9bbe e212 213c fcc8 0e3e
000002d0: e478 1f3d 153d d13d 9d70 6fbe c097 7dbd
000002e0: dfd9 2cbe 0016 1bbe b25b 7bbe b017 68be
000002f0: a7b7 3d3e c7f4 703e bdc2 8cbe 0f2b 22be
00000300: e650 bb3c 9641 02be c2ac 9abe 326c 333e
00000310: 7caf 283e 10f5 e43e 6432 72be 2db4 c23e
00000320: 873e 44be 5ef9 803e 06b6 ab3e e6a6 9f3e
00000330: df8a b1be b2a5 653e f1d3 f6be ffd0 82be
00000340: d818 2ebd f7fa 31be f7c6 a93c f897 12be
00000350: 3161 9c3e 3b44 d7ba 0a75 15be b794 8b3e
00000360: 3152 683d 3be0 66be 9028 79bd aed3 15be
00000370: 5043 43be 842e ecbe 77a9 91be 9652 343e
00000380: da20 6c3d a7dd 5e3c fbc0 20be 7286 873d
00000390: c662 6c3d 8c0e cebe b96d 9e3e 2a30 87be
000003a0: a05f 1dbe 1673 b6bd a4a8 273e dffd bebd
000003b0: 294c 5ebe 7462 14be 2580 b5bc d49a aa3e
000003c0: 5916 eebc 72bc 38bd eca6 093c 908b a7be
000003d0: d5ba 1dbc b2be c33e ec32 ef3d 0f03 58be
000003e0: b064 863e 775c 2d3d e78c 52bd 3921 b3bb
000003f0: 4d12 aa3e d5e3 88be d425 ba3e 956a 8bbe
-0.08098368 0.25173092 0.21863446 0.60981464 -0.20242943 0.3567618 -0.21903038 0.14025515
-0.1871184 -0.010016177 -0.15193267 -0.21328084 -0.26475352 0.007100442 0.11120373 0.02140285
-0.063263744 -0.08809281 0.07545307 0.21030444 -0.18258524 -0.41338992 0.15317628 0.15847142
0.27499667 0.25412083 0.20888819 0.14658079 0.10133146 -0.4111783 -0.15833898 0.33826354
0.08729273 0.006664318 -0.101262346 -0.169448 0.03688161 0.29533675 0.06988916 -0.10602081
-0.050151136 -0.19519581 -0.006196574 0.0690484 0.15163068 -0.3675639 0.34689873 0.39207104
-0.090814374 0.36670354 -0.052327547 -0.02067384 0.14018407 -0.3199634 0.07355407 0.021212874
-0.0058748424 0.2503279 0.15104331 -0.33591542 0.01200076 0.23987494 0.0009698272 0.029591009
0.13494115 0.23973694 -0.036581047 0.6045682 0.04385811 0.04202009 0.19206935 -0.01603714
0.05079316 0.097398594 -0.010009114 0.30367863 -0.14226542 -0.22777659 -0.196034 -0.021784065
-0.1501953 -0.049325578 0.12242681 0.032399695 0.20310175 0.101309605 -0.27388042 0.13039678
0.22498667 -0.09906735 0.13745633 -0.17381811 -0.040280543 0.05665086 0.03700804 -0.3617097
-0.0537868 0.09005024 -0.07462488 -0.33148322 0.018593311 -0.20852831 0.08595752 -0.16396655
-0.123123154 0.16869509 0.08827585 -0.18340498 -0.018811163 0.04774807 -0.16975053 0.09885572
-0.05970169 0.009525375 -0.31352207 0.38554835 -0.1344848 0.07227603 0.3635795 -0.16176787
-0.24061072 0.31397176 -0.08993196 -0.102530986 -0.13771959 -0.26563102 0.015431598 -0.05331508
0.038699172 -0.07672202 -0.038409606 0.017730435 -0.20841254 -0.032624047 0.16023225 -0.22212109
0.13084894 0.16860414 -0.06535422 0.27411163 0.27941453 0.14752889 -0.017733205 0.1600878
0.1438194 -0.21046077 -0.3865641 0.07921104 0.3169746 0.48023805 -0.24005343 0.14502355
-0.051311176 -0.145434 -0.007229948 0.55575323 -0.29303566 0.025401378 -0.26098588 -0.021986287
-0.24101199 -0.27434784 -0.0758321 0.08292342 -0.12488641 0.49727663 0.083606295 -0.14364557
0.1349065 0.16558775 0.027881367 0.37634477 -0.14261506 -0.17538814 -0.25981796 0.38411278
0.22705548 -0.30344895 0.009831162 0.13943857 0.03893365 0.102167286 -0.23382802 -0.0619123
-0.16879986 -0.15145111 -0.24546698 -0.22665286 0.18527089 0.23530875 -0.27492324 -0.15836738
0.022865724 -0.12720332 -0.3020993 0.17521742 0.16473192 0.44718218 -0.23652035 0.38028088
-0.19164477 0.25190252 0.3353731 0.3118202 -0.34676263 0.22426489 -0.48208573 -0.25550076
-0.04250416 -0.17380892 0.020724757 -0.14315784 0.305429 -0.0016423533 -0.14595428 0.27261898
0.05671901 -0.22546475 -0.0608297 -0.1463153 -0.19068646 -0.4612924 -0.28449604 0.17609629
0.057648517 0.013602651 -0.15698616 0.0661744 0.057711385 -0.40245473 0.30943087 -0.26403934
-0.1536851 -0.0890867 0.16372925 -0.09325766 -0.2170874 -0.14490682 -0.02215583 0.3332125
-0.02906339 -0.04510159 0.008401614 -0.32723665 -0.009627064 0.38231426 0.116796345 -0.21094917
0.26248693 0.04232451 -0.051403906 -0.005466607 0.33217087 -0.26736322 0.36356986 -0.27229753

gnn_base.gnn.gnn1.lin_query.bias f4 [48]
00000000: f59e 8b3d 6fb3 5f3d 2d5b a4bb 0724 013e
00000010: 42d9 20be 8488 163e 094c f03c 20d7 30be
00000020: fefe 283e 0b8d a1bd f00c 6cbe 273d ad3d
00000030: fada 73be 6607 0e3e 8f12 a13e f971 e43e
00000040: 992c b9be d28d c1bd af2e 50be 42bc bfbc
00000050: 58d0 cdbd 8ace 303e cf3f 013e f0c4 143d
00000060: 28b8 cfbe caf4 d53d 902f 22be d574 65be
00000070: cd05 843e 1d08 4c3d 08e6 5bbc 9c9c 32be
00000080: 94db e7be 65d4 953e f469 d33e 1eee e7be
00000090: 7394 a4bd 78d3 aebe b5ec 943e 5ff6 7dbd
000000a0: 8c44 e83d 2565 23be a879 913e 5e7e 5a3e
000000b0: fbbb 60bd 41c8 323e 70ff f03e af30 2a3d
0.06817428 0.05461448 -0.005015752 0.126114 -0.15707877 0.14700514 0.029333131 -0.17269564
0.16503522 -0.0788823 -0.2305181 0.084589295 -0.23814002 0.1387001 0.31459472 0.44618204
-0.36166838 -0.09450878 -0.20330308 -0.023405198 -0.10049504 0.17266288 0.12621997 0.036320627
-0.40570188 0.104470804 -0.15838456 -0.22407849 0.25785676 0.049812425 -0.013421543 -0.17442554
-0.45284712 0.29263607 0.41291773 -0.45298856 -0.08036127 -0.34145713 0.29086843 -0.062002536
0.11341199 -0.15956552 0.2841313 0.21337268 -0.054866772 0.17459203 0.47069883 0.041550335

gnn_base.gnn.gnn1.lin_value.weight f4 [48, 16]
00000000: 58c8 57be 4e55 643c e17b c5bd f379 abbd
00000010: f214 633c 1926 0b3d c338 a53e 3f7a 7a3e
00000020: 87b1 35be b116 3b3e 0417 8c3e 3c12 493d
00000030: 4876 653e bfd4 66bd 7099 b5be ef5b 233c
00000040: a9b1 98bd dc5f c5be 9306 8a3e b86e 7bbe
00000050: 50fe 073c 8ff7 8d3e 1f9f a1be c209 a13e
00000060: b751 e9be 938e 3ebe 8894 ffbd 3245 3ebe
00000070: 7ed9 153f ed40 88bd 66bd 733e e46e 433e
00000080: ef43 d4bd b67d d43d b64e 52bc 5716 01be
00000090: 84cb 8abd 3564 ecbe 5baf 15be d833 56be
000000a0: a957 8d3d 0cb8 c03d d430 a13d a8fe b5bd
000000b0: cd83 6e3e 49bf b6bd 1154 8c3e dbc0 9b3e
000000c0: 6a6a a93d 4d61 cfbe ce38 2cbe 21e6 843e
000000d0: 6809 603e cdcd 313e e359 ecbd b080 903e
000000e0: 8e7a 243e 7c2e 873e 4ec7 12be 335d e63b
000000f0: 8f7e 20be 4df8 023f 9e30 22be 6e71 2abc
00000100: 7ed0 f43d fb59 d53d a16e 1f3e 5981 a63d
00000110: 810e ef3d 767f aabe a359 0abf 40c1 1a3e
00000120: 31a0 6abe 25d1 053e 7682 173e dae0 a73e
00000130: b362 a5bc dba7 c63d a2a4 3d3e 0269 c23e
00000140: 46b0 c2be 73a9 b2be 7318 e8be a197 023e
00000150: be97 abbe 83ef 173f 2eb7 dfbd a055 873e
00000160: c671 af3c 11d3 843e afc5 8a3e e7da 873e
00000170: d979 9abe b202 f4bd da72 97bd 63c7 b63e
00000180: 8237 2bbe 974c b2bd dcdc 993e 34de a6bc
00000190: ccec 90be 5f79 a9bd b33b 69be 1eb7 b1be
000001a0: e875 b33e 7ca7 2dbe 75e9 813d a23a fb3d
000001b0: 6987 1ebe ff6e abbd 447c 103e 742e 833e
000001c0: 2c51 1ebe 1b12 d9be 2644 9a3e 48c0 9cbd
000001d0: 2ddf f4bb a1a9 15be ce65 ca3e bd12 20bc
000001e0: 7832 0f3e 9602 6d3e 606b 49be 0d5d 6c3d
000001f0: 3f67 443e 5a18 4cbe 9915 51be b8bd 113e
00000200: 3bc1 63be 4b1d 7c3e 3fa9 5c3d c8bb e3bd
00000210: 6b1e 333e 7d32 adbe 02ca 413e 0e0c 0f3e
00000220: 0d29 eebd 86a1 b0be f198 7cbd 2647 c3bd
00000230: ab7b 46be 5fa8 02be 48d6 d03e 8407 82bc
00000240: f402 dabe 3897 44be f8a8 d2be bc1a 80be
00000250: d822 12be e95f c23e 553b bd3c 6b6b e43d
00000260: 703d 82be 8f7c 8f3e 8ddc b6be a87a 89be
00000270: cd2c 623d 9297 d43d 0b3b df3d d37b b73e
00000280: 30b8 86bd d25a 2cba 2ec4 4bbd 28a5 cbbd
00000290: 74c8 9b3e 3f24 5f3e d8a9 7e3c 5db2 ed3d
000002a0: fb8d 8a3d 357c 0dbe 6277 c7bc 6820 32be
000002b0: c61a cd3e 81a2 78bd 2b0e 19be 1aa3 bc3e
000002c0: 6068 3fbe 4693 433e ef6d 40bf 3425 8a3b
000002d0: d00e 873d a9f7 993d cc7b be3d fb8f 9d3e
000002e0: 70e0 f73e 699d 523e 6fea 05be 9c00 5e3e
000002f0: da32 90be 46c7 193f 190e 5f3e 459f 333d
00000300: afc9 be3c 1782 943e ba76 0ebf c3a2 4c3c
00000310: 7f43 6a3f 3577 dc3e c187 c6bd 6c95 523e
00000320: 28a5 803e 316e 933e b3a9 2c3c f2a4 d03e
00000330: ed98 463e be31 99bd 3534 b6be 2572 fbbc
00000340: a7ec 96bc 0c64 8abe 10c4 9f3e 1f74 a43d
00000350: cbf5 56be 6e69 143f de45 32bd 47c1 18be
00000360: df1c dabd 9eec 45be 3545 82be e367 863c
00000370: 22ac 54be 1c31 d43d 574f ecbd 3626 443d
00000380: d832 7abe e145 94be 6bcc 3bbe b6d1 8d3e
00000390: 6a06 8b3e 41cb db3e 90ac 1b3f dc8f 4fbd
000003a0: 64f1 113e 4c03 583e 9a60 b5be d473 7e3e
000003b0: 4b7f dfbe 693a ad3d 236d cebe 95b8 983d
000003c0: cba9 bebc df53 c33e a6c0 8cbe 35cb 58be
000003d0: 666c b23e 82c6 0cbd bd92 7f3d 711e 37be
000003e0: c682 953e 9d9d 35be c05d 82bc 8a4d 2cbe
000003f0: ced4 f2be de9d bbbe a70a 2bbe f223 fd3d
-0.21072519 0.013936354 -0.09642769 -0.08372869 0.013859974 0.03397188 0.32269868 0.24460696
-0.17743503 0.18270375 0.2736131 0.049089655 0.22408402 -0.056355234 -0.35468626 0.009970649
-0.07455761 -0.38549697 0.2695814 -0.24553955 0.008300379 0.27727935 -0.31566712 0.31452757
-0.45570156 -0.18609075 -0.12479502 -0.18581083 0.5853499 -0.066530086 0.23802719 0.1908527
-0.1036452 0.1037554 -0.012836149 -0.12606178 -0.06777099 -0.46170202 -0.14617674 -0.20918214
0.069014855 0.09410104 0.07870641 -0.088864625 0.23292466 -0.089232035 0.27407888 0.30420575
0.0827225 -0.40503922 -0.16818544 0.25956824 0.21878588 0.17363663 -0.11540582 0.2822318
0.16062376 0.26402652 -0.14333841 0.007030153 -0.15673278 0.51160127 -0.15838858 -0.01040302
0.11953829 0.10417553 0.15569545 0.0813014 0.11672688 -0.3330037 -0.54043025 0.15112782
-0.2291267 0.13068064 0.1479586 0.32788736 -0.020188665 0.09699985 0.18519834 0.3797074
-0.3802511 -0.34894904 -0.45331153 0.12753154 -0.33514208 0.5934984 -0.10923611 0.26432514
0.021416556 0.2594228 0.27103946 0.26534197 -0.30171087 -0.119145766 -0.07394953 0.35698995
-0.16720393 -0.087060146 0.30051315 -0.020369627 -0.28305662 -0.08275103 -0.2277668 -0.3471002
0.35050893 -0.16958421 0.063433565 0.12267043 -0.15481342 -0.0837078 0.14109904 0.25621378
-0.15460652 -0.42396626 0.30130118 -0.07653862 -0.0074728937 -0.1461549 0.39530796 -0.009770093
0.13984096 0.23145518 -0.19669867 0.057705928 0.1918001 -0.19931164 -0.20418395 0.14232528
-0.2224168 0.2462055 0.053872343 -0.11119801 0.17492072 -0.33827582 0.18924716 0.13969442
-0.116289236 -0.34498233 -0.061669294 -0.09535055 -0.19383113 -0.12759541 0.40788484 -0.015872724
-0.42580378 -0.1919831 -0.41144538 -0.25020397 -0.14271104 0.379638 0.02309958 0.11153301
-0.25437498 0.28024718 -0.35715142 -0.26851392 0.055218507 0.10380472 0.108999334 0.35836658
-0.065781 -0.00065748126 -0.04974764 -0.099436104 0.3042637 0.2179117 0.015543424 0.11606286
0.06765362 -0.13816912 -0.024348918 -0.17395175 0.4005949 -0.06070185 -0.14946811 0.36843187
-0.1869216 0.19099149 -0.75167745 0.0042158607 0.06594622 0.075179406 0.09300956 0.3077391
0.4841342 0.2056786 -0.1307771 0.2167992 -0.28163797 0.6006969 0.21782722 0.043853063
0.02328953 0.290055 -0.5564991 0.012489977 0.9150924 0.43059698 -0.09693862 0.20564812
0.25126004 0.28795007 0.010538506 0.40750843 0.19394274 -0.07480191 -0.35586706 -0.030694077
-0.018423392 -0.27029455 0.3120427 0.08029961 -0.209922 0.5797337 -0.04352366 -0.1491748
-0.10650038 -0.19328544 -0.25443426 0.016406959 -0.20768788 0.10360929 -0.115385704 0.047888003
-0.24433458 -0.28959563 -0.18339698 0.2769906 0.2715333 0.42928508 0.60810184 -0.050674304
0.1425224 0.21095008 -0.35425264 0.24848872 -0.43651804 0.084584065 -0.4031764 0.07457081
-0.023274323 0.38149926 -0.2749073 -0.21171267 0.34848326 -0.034369 0.0623958 -0.17882706
0.29201335 -0.17735906 -0.015913844 -0.16826454 -0.47427982 -0.3664388 -0.16703282 0.12360372

gnn_base.gnn.gnn1.lin_value.bias f4 [48]
00000000: 8e9f 903e 6e5b 0ebc 23e0 37bd 4a37 b93e
00000010: 9ef2 8bbc fb21 423e a1a3 07be 14bc c3bd
00000020: cf81 b3be 16bf 4dbe d20c 65be ca29 943e
00000030: 68c7 cabc cd33 3f3e 4ff5 2a3e 4992 4fbe
00000040: 7d63 b83d 985b d73d a2d9 7c3c b2a8 a03e
00000050: 0a81 1e3e 906b 5a3d 1e80 dd3d 429a 0bbe
00000060: 6367 45be 4b22 5c3e 9c28 d9be 3d54 2cbd
00000070: 065a c3bd 341c 203e 9605 1e3e 9005 b8be
00000080: f207 dabd f526 0bbe 7ce4 17be a6ba 303d
00000090: fc53 c03c 1e1e 723e 37fe 17be 852c e9bd
000000a0: 3343 78be bb64 18be eef1 8ebe 8440 893e
000000b0: 5395 25be 237b a73e d114 573d 5da7 f3be
0.2824673 -0.008688791 -0.044891488 0.36174995 -0.017083462 0.18958275 -0.13246013 -0.095573574
-0.35059974 -0.20092425 -0.22368172 0.28938133 -0.024753287 0.18672104 0.1669514 -0.20270647
0.09003351 0.10515517 0.015432747 0.31378704 0.15478912 0.053325236 0.10815452 -0.13633063
-0.1927772 0.21497457 -0.42413795 -0.042072523 -0.09538655 0.15635759 0.15431818 -0.35941744
-0.10646047 -0.1358908 -0.14833254 0.04314675 0.023477547 0.23644301 -0.14843069 -0.113854446
-0.24244384 -0.14882176 -0.27918953 0.26807034 -0.16170244 0.32711133 0.052510086 -0.47588626

gnn_base.gnn.gnn1.lin_edge.weight f4 [48, 1]
00000000: 2e32 333f f012 8cbe c002 60bf 5384 af3e
00000010: 000d 0a3f 5869 293f a2d0 133d d8bf da3e
00000020: c2db ecbe 5922 4ebe 7a05 17be 13af 523f
00000030: 5653 433f cf50 a23d d01d a8be fddd 7fbf
00000040: e53f 0fbd 2c6e 59bf 9b98 16bf 40c2 483f
00000050: ec03 a93e 87a4 183f 4b77 34bf 0c77 9ebe
00000060: 34c9 a7be 9636 9f3e 47d2 e83e b558 8d3e
00000070: f7a3 00bf 9364 d93e 8b11 7abe b12b c3be
00000080: a622 373f cc1c bbbe a1e1 a7bf 9336 8e3f
00000090: e608 b8bc 1547 833e 6645 9bbf 09e1 05be
000000a0: 6433 8dbf 6e13 0b3f a4f4 96bf 111e c6be
000000b0: 694b 103f 79fe 583f 93c0 2abe 981a 19bf
0.69998443 -0.27358198 -0.87504196 0.34280643 0.53926086 0.66176367 0.03608764 0.4272449
-0.46261412 -0.2013029 -0.14748183 0.8229839 0.76299036 0.07925569 -0.32835245 -0.999481
-0.034973044 -0.84933734 -0.5882661 0.784214 0.33010805 0.5962605 -0.70494527 -0.309502
-0.32770693 0.31096333 0.4547293 0.2760674 -0.5025019 0.42459545 -0.24420755 -0.3811927
0.71537244 -0.36545408 -1.3115731 1.1110405 -0.02246518 0.2564017 -1.2130554 -0.13074125
-1.1031308 0.5432652 -1.1793408 -0.38694814 0.56365067 0.84763294 -0.16675024 -0.59806204

gnn_base.gnn.gnn1.lin_skip.weight f4 [16, 16]
00000000: 236a 483d 1534 e3be af6f 673e 2d25 8b3e
00000010: f78c c9bd 5d6f 95bd dceb 86be de59 01bc
00000020: 31fe 123d 6c69 23bb 3b09 ec3d 218f 2a3e
00000030: 7f68 52be 95d7 fdbe 268d 97be 1ec2 28bd
00000040: 8189 103f 8275 3abe a7f4 663d 2357 adbd
00000050: 8328 543e 89ee dbbd ff65 923d 5eb3 803e
00000060: 1262 1b3e 6918 893e 1d9c d9bd e5f1 2dbe
00000070: 71e6 89bc 6ba3 1f3f 7f49 3bbe 42a6 89bd
00000080: cea2 473e 353d 89bd 7db8 453e 8237 90be
00000090: aaa1 0fbe 8002 56bd 703d 3bbe 2f45 0bbe
000000a0: 323b 943d 9121 64bd 51c5 0d3e fa78 83be
000000b0: f5ce 9abd a2f3 ff3d 88fd bf3e 1e38 65be
000000c0: ba70 b4be 954b ecbe 03f8 ac3e dd67 d0bd
000000d0: 5483 4c3e 372d b93d 5442 633d 41de 3d3d
000000e0: cf23 84be 2e8d c73e 7de6 b5be a05e 2b3e
000000f0: 63b4 593e dcb3 afbd 9419 de3c 1545 0a3f
00000100: 49c4 b93c 137f d2bd 695e 453c cf29 ffbe
00000110: 46ec 86be 2bd0 74be 361d 093f 909d 563e
00000120: db06 96be 1480 66be f76c 17be c5d7 7d3e
00000130: de20 14bd 2d18 13bd e0db f4bd 5d51 f9bd
00000140: e1f1 653e affd 43be dcdc 643e c74a d6be
00000150: 3978 243e 2923 983c 40fc 31be 38de 953e
00000160: 0efc e5bd 41d3 b7bc 3754 7e3d 73e5 9ebe
00000170: 891e 843e 3a82 25bd a00b 08be 7f9b 3abe
00000180: 29f5 f5bb 1182 223e 011b 13be f3c3 043d
00000190: 17fb f13d 1f00 cabe 5c5b eb3d c788 60be
000001a0: 22a3 6e3e 3ce6 87bd bd33 d63e 1862 89bc
000001b0: 5e68 0cbf f529 4ebe 061d df3e 86a3 783d
000001c0: 22a8 d8bd 412b b3be d484 1e3e 94db 50be
000001d0: 9102 99be 8f5a d0be 403c 9fbd 0d2a c63d
000001e0: 6620 7d3e 5fb1 91bb 1fe9 263e 6a6a 89be
000001f0: bb38 1d3f d197 393e ca2a 4ebc c626 98bc
00000200: 175a 5b3e d4d5 fdbd 71d0 e33e 5595 1cbd
00000210: bc27 1cbe 9c15 ffbc d8f7 96bd d343 abbd
00000220: 9182 bcbe c13d 94bc 87e9 8c3e a13b 923c
00000230: dd77 1b3e 96e6 853e 642d c23d fc7c 41be
00000240: 57a6 1cbc 919f 55bd fffe 89bb 3f01 a53b
00000250: f23c 3abe 819d 213f 4b86 043e 9e37 833e
00000260: 09bb 863e 11b0 47be 29bf 373e d04e 9fbd
00000270: 1abb 6d3e ef88 ba3e 5b4c 293e e3e0 d83c
00000280: 8f4b 993e 559a 4d3e 88d8 bf3d db19 1dbe
00000290: b59e d13e feb6 e0bd 23c3 c3be d16c 3e3d
000002a0: 3a82 8b3e 09f8 1cbf 493b b1bb 3db8 a4be
000002b0: e829 adbd a197 1d3e 1bde 97bd 1858 383e
000002c0: 1f17 18be 0e3e 21bd f67c 12be 5a91 babd
000002d0: a380 213e 787b 2f3e be18 da3c e1d8 843e
000002e0: 8659 a13e 78de 413e d7c6 df3b cd3d 863d
000002f0: 9c8f 493e 005a a43d adb7 14bd 094e 063e
00000300: ea63 023e 0bb7 253e cd54 78be 75d5 6b3e
00000310: b89e 973e 90f2 dc3d c239 42bd eb0b f0bd
00000320: 6880 433e 43bc 4f3d 055f 193e 7827 ad3d
00000330: f442 03bf 8375 703e cbb8 b1bd 903a 0b3d
00000340: eaef 65be d9b2 ef3b 1201 d8be c84e 623e
00000350: c6a3 11bf 5e3d 9cbe 1283 9c3e 324c 403d
00000360: 8e72 073e fc91 2a3e cd6c d93c 830d a53c
00000370: 6080 ab3e bb87 01bf 6db6 3a3d e77a fc3e
00000380: d024 ae3e 3dc6 f33d 7aaf a23e 508c 8dbe
00000390: 2811 963d 9905 62be 465a 6dbe 7252 9bbe
000003a0: 5e0e cebd abc4 5d3e 2597 7b3e f7f7 89be
000003b0: 2c85 3fbf 7ccc f13d ddff 663e f697 d63d
000003c0: 2b74 983e 1854 be3d cf6c 083e bcbd 623e
000003d0: 184b 65bd 6f0e 16be c193 5bbb 0473 3dbe
000003e0: 049a 31bd 524b bdbd 4d0d e93c aa3a b93e
000003f0: 8918 b43d 4c5b 9bbe 9edd 883d b5c4 e9be
0.048929345 -0.44375673 0.22601198 0.271768 -0.0984134 -0.072966315 -0.2635182 -0.007894961
0.035886947 -0.0024934663 0.11525198 0.16656162 -0.20547675 -0.4957854 -0.29599875 -0.04120075
0.56459814 -0.18208888 0.056385662 -0.08463886 0.20718579 -0.10738856 0.071483605 0.25136846
0.1517413 0.26776436 -0.10625479 -0.16986807 -0.016833516 0.6235873 -0.18289755 -0.06721164
0.19495699 -0.067011274 0.19308658 -0.2816735 -0.14026514 -0.052248478 -0.18285155 -0.1360061
0.07237853 -0.055696074 0.13844801 -0.25678235 -0.07559005 0.12497641 0.37498116 -0.22384688
-0.35242254 -0.46151415 0.33782968 -0.1017606 0.19971973 0.09041827 0.055483177 0.046354536
-0.2580857 0.389749 -0.3552741 0.16735315 0.21260218 -0.08579227 0.027111806 0.5401166
0.022676604 -0.10278144 0.012046435 -0.49836585 -0.26352137 -0.23907535 0.535602 0.20958543
-0.29302105 -0.22509795 -0.1478766 0.24789341 -0.036164157 -0.035911728 -0.11956 -0.12173722
0.2245555 -0.19139741 0.22349876 -0.41853926 0.16061486 0.018571453 -0.17381382 0.29271102
-0.11229716 -0.0224396 0.062092032 -0.3103443 0.25804546 -0.040407397 -0.13285685 -0.1822338
-0.007506032 0.15869929 -0.1436577 0.032413434 0.1181547 -0.39453217 0.11492035 -0.21927176
0.23304418 -0.066357106 0.41836348 -0.016770408 -0.5484675 -0.20133193 0.4357683 0.060702823
-0.10578944 -0.34993938 0.15480357 -0.20396262 -0.2988477 -0.4069409 -0.07775164 0.09675989
0.2471939 -0.004446193 0.16299866 -0.26839 0.6141469 0.1812432 -0.012583444 -0.018573176
0.21421085 -0.123943 0.44494966 -0.03822835 -0.15249532 -0.031138234 -0.07371491 -0.08362546
-0.36818364 -0.018095853 0.27521917 0.017850699 0.15182443 0.26152486 0.09481314 -0.18895334
-0.009561143 -0.052154128 -0.004211306 0.005035549 -0.18187311 0.63130957 0.12941854 0.2562837
0.26314571 -0.19500758 0.17944016 -0.07778704 0.23215905 0.36432597 0.16533034 0.026474422
0.2994046 0.20078404 0.09367472 -0.15341894 0.40941396 -0.10972403 -0.38234815 0.046490494
0.27247792 -0.6131597 -0.0054086787 -0.32171813 -0.084552586 0.15389873 -0.0741541 0.18002355
-0.1485257 -0.03936582 -0.14305481 -0.09109755 0.15771727 0.17136943 0.026623126 0.25946715
0.31513613 0.18932521 0.0068291235 0.06554756 0.19683689 0.08024979 -0.03630798 0.13115706
0.12733427 0.16183107 -0.24251099 0.23030646 0.2961328 0.107884526 -0.047418363 -0.11721023
0.19091952 0.05071665 0.14977653 0.08454794 -0.5127404 0.23482327 -0.086778246 0.033991396
-0.22454801 0.0073150215 -0.42188317 0.22100365 -0.56890523 -0.3051557 0.3056875 0.046947666
0.13227293 0.16657251 0.026541138 0.020148044 0.3349638 -0.50597733 0.04558413 0.49312517
0.3401246 0.11903045 0.31774503 -0.27646112 0.07327491 -0.22072448 -0.23178968 -0.30336338
-0.10061334 0.21657054 0.24569376 -0.26946995 -0.7481258 0.118065804 0.22558542 0.10478203
0.2977613 0.09293383 0.13322757 0.2214269 -0.055979818 -0.14653943 -0.0033504816 -0.18500906
-0.04335977 -0.09242882 0.028448725 0.3617757 0.08793742 -0.3034309 0.06682895 -0.45657888

gnn_base.gnn.gnn1.lin_skip.bias f4 [16]
00000000: b9fb 8f3e 1746 2a3e 1967 51be 99e8 8f3d
00000010: adcc 0f3e d157 073e 724d 89bd 0f39 13be
00000020: df15 48bc 1ce2 4f3c ac6d 03bd 8e43 ce3d
00000030: 4de9 933e 5034 153e 0325 203d f472 f83d
0.28121737 0.166283 -0.20449485 0.07026786 0.14042921 0.13217093 -0.06704225 -0.14377235
-0.012212246 0.012688186 -0.032087013 0.10071479 0.28888932 0.14570737 0.039097797 0.121313006

gnn_base.gnn.gnn2.0.lin_key.weight f4 [48, 16]
00000000: 0b25 4a3e a60a a43e be23 a93e 1419 70be
00000010: e9c5 0ebf dfbc fa3c d7d5 eebd ba6f 97bd
00000020: 3c65 b03e 4af1 813d 3b37 ac3d fed1 683e
00000030: 6a7f 43be d4e9 0abf ec8a 8f3e 88bf be3e
00000040: 02c7 89be 6e32 8fbe f027 71be 7628 3abe
00000050: 559a 013e 090f a23e 9221 acbd eeaa 4f3e
00000060: 93b4 02be 02e4 ff3c ecbf 7cbe 11c7 f1bd
00000070: 177a 643e 5df5 3a3e ecb1 fb3c 56d2 32be
00000080: 8aae 01be 0280 dfbd ecba 143e fa99 2cbe
00000090: 9193 aabd 9b14 603e 4209 1f3e ef65 2fbd
000000a0: 11ea 3b3e 86de ecbd 324a f33d 7a45 15be
000000b0: d47f 3b3e a60d 543d e00c a43e 807e 8a3e
000000c0: 971c abbd b0c5 4fbe 6312 4abd 339f 3cbe
000000d0: bd54 7b3e 9e29 933d a9a2 093e d0df b3bd
000000e0: 909c 47be 7192 8e3d 03d0 ae3d e055 81be
000000f0: 1fc6 5ebe aad0 0dbe 1144 97bd 25a4 913e
00000100: bee5 993e 31c5 473e 3b33 21be 067d cbbd
00000110: 3895 d83c d8f4 02be d331 48be f4c7 663d
00000120: f27d 033d 1953 983c e5e8 623e 0f29 833e
00000130: 3130 dbbd 0b5e a33d db55 793e 3afe dc3d
00000140: 80f3 02be c5b3 bd3e b782 e33d 3289 16bd
00000150: 9080 71be a4bd 8d3c 31b2 3f3d d6c4 e0be
00000160: d397 1f3e 0db4 49be 8832 5d3e 849d 2cba
00000170: 4c34 b6be 4e1b d2bd 3056 b4be 36c6 b93d
00000180: 9808 04be 79c3 c3be b2af c6be ae52 3c3e
00000190: fe01 b23e 6d8c 583e 28a8 68be 6504 fcbc
000001a0: e1c1 233e f6b9 313e fbbb 203d 6838 87bc
000001b0: 932f 0bbe 22ee f33d a131 523e 4c06 bfbe
000001c0: e16d 7b3e 8999 803d 4912 1fbe 2eb7 953e
000001d0: 8883 92be f05a 1cbd fc62 3cbe 8f60 7bbe
000001e0: f99d 5d3e 80ab a5be 7421 49bd 35e9 863e
000001f0: b8d5 76be b101 1abe ed40 bc3d fcc1 e5bc
00000200: 089e fd3c 4678 0abe 6151 2e3e 99b0 61bc
00000210: 526d d13c 3dd2 90bb 39c1 563e d10a a13e
00000220: e70a f9bd 587b 95bc 033a 933d 8325 f53c
00000230: fe0f 493e e10f 10bc 6bc3 3f3e 25e0 183e
00000240: a477 c53d 5826 203e de0e 813d 8580 01bd
00000250: 30ac e6be 5f69 35bc b91a 18be b2a0 76be
00000260: dbba 613d 8a38 9fbe efff 5f3d f3bc c53e
00000270: 95fa bbbc 6345 8ebe 3a08 863e 0694 8ebd
00000280: a601 953e fc85 823e 71ab a13e e95d a8be
00000290: 9e85 2dbe 0ee7 5dbe 83e1 d6bb 9c65 ca3e
000002a0: a325 ebbd 4ff6 fb3d 8b7b 43bd 4ad0 d4bd
000002b0: 292b 80be d993 233e 9b1a 103e 74d0 073e
000002c0: 946f 5f3e cbaf 103e a510 45bd 4040 c6bc
000002d0: 54f7 c93c ca2c 26be 4188 fdbd 842b 243e
000002e0: a2c7 033e 4cc1 81be 2b38 e8bc bcce c93e
000002f0: 4af5 d4bd c059 86be 1a0f bb3e daa9 cc3c
00000300: fc31 af3c 75f7 d33e 4399 cebd 48f1 9bbd
00000310: 3f7d f6bc 4d92 503c 1234 0d3d 7695 69bd
00000320: a77c 30bd 9c5a 433c e509 903e fc31 893d
00000330: 70c3 dabc 6478 eebd 1194 02bc 4dea 4d3d
00000340: 4f04 d5bd be17 913e d55f 8cbd 9f1e f73c
00000350: 7a71 e6be 9174 6bbe 4cf9 41be fd7c 883e
00000360: 91a0 043e 7b09 8b3d 9afe b93e 76b1 1f3e
00000370: e3c9 4f3d 3ec2 93bd 6e17 ac3d a116 59be
00000380: b025 203e a12e c93d c551 03be a730 fbbd
00000390: d088 5f3c 959e 313e 4c18 123d 7716 c63e
000003a0: 337f 94bd 3ce1 09bc 891d 3c3d 214b b5be
000003b0: 6a1a 363c 76a6 623e e35d 8b3e d411 2ebe
000003c0: b799 5d3e c5a8 b5bd b081 b63e 2b75 0e3d
000003d0: e7ef d43c bd00 623e 7925 a4be 750a e53d
000003e0: 4d01 c73d 9a5e 433e a751 223e 4801 f23d
000003f0: 7bb2 34be e6a9 d2bd bc7f 74be 16e6 123e
0.19740693 0.32039374 0.33035082 -0.23447067 -0.55770737 0.030607639 -0.116618805 -0.07394357
0.34452236 0.0634485 0.08408972 0.22736356 -0.19091573 -0.54263043 0.28035676 0.37255502
-0.26909643 -0.27968162 -0.23550391 -0.18179497 0.12656529 0.31652096 -0.084048405 0.20280048
-0.12764196 0.031236652 -0.24682587 -0.11805547 0.22312199 0.18257661 0.030724488 -0.1746305
-0.12664238 -0.109130874 0.1452443 -0.16855612 -0.08328927 0.2188286 0.15530875 -0.04282182
0.18351008 -0.115658805 0.11879386 -0.14577284 0.18310481 0.05177083 0.32041073 0.27049637
-0.083550625 -0.20290256 -0.04933394 -0.18420105 0.24544044 0.07185672 0.13440956 -0.08782923
-0.19493318 0.06961525 0.08535769 -0.2526083 -0.21755265 -0.1384913 -0.073860295 0.28445545
0.30058092 0.19508816 -0.15742199 -0.09935956 0.02643834 -0.12788713 -0.19550256 0.056343034
0.032102533 0.018594312 0.22159155 0.25617263 -0.10702551 0.07976922 0.24349158 0.10790677
-0.127882 0.37051216 0.11108916 -0.036751933 -0.23584199 0.017302342 0.046800796 -0.43900174
0.1558526 -0.1969759 0.21601307 -0.0006584751 -0.35586774 -0.10259114 -0.35222006 0.09071009
-0.12893903 -0.3823507 -0.3880592 0.18390915 0.34767145 0.21147318 -0.22720397 -0.030763814
0.15991928 0.17356095 0.039241772 -0.016506389 -0.13592367 0.119106546 0.20526744 -0.37309492
0.24553634 0.062792845 -0.15534319 0.29241318 -0.28615975 -0.038172662 -0.18397135 -0.24548553
0.21642293 -0.32357407 -0.04910417 0.26349798 -0.24104965 -0.15039708 0.09192071 -0.0280466
0.030959144 -0.13522443 0.17023231 -0.013775014 0.025564823 -0.0044195936 0.20972146 0.31453565
-0.121602826 -0.018247291 0.07188799 0.029925114 0.19635007 -0.008792848 0.1872689 0.14929254
0.0964196 0.15639627 0.06301664 -0.031616706 -0.45053244 -0.011072486 -0.14853944 -0.24084738
0.05510984 -0.31097823 0.054687437 0.3862072 -0.022946635 -0.27787313 0.2617815 -0.06961827
0.2910282 0.25492847 0.31576112 -0.32884148 -0.16945502 -0.21670172 -0.006557645 0.39530647
-0.11481788 0.12302839 -0.04772524 -0.103912905 -0.2503293 0.15974368 0.14072649 0.13263112
0.21819907 0.1412956 -0.048111577 -0.024200559 0.024654068 -0.16228023 -0.12379504 0.16032225
0.12869123 -0.25342786 -0.028347095 0.39415538 -0.10398348 -0.2624035 0.3653496 0.024983335
0.02138614 0.41399732 -0.10087826 -0.0761438 -0.030089019 0.012730193 0.034473486 -0.057027303
-0.043087628 0.011923458 0.2813255 0.06698987 -0.02670452 -0.116440564 -0.007969872 0.050272275
-0.104012124 0.28338426 -0.06854216 0.030165968 -0.4500845 -0.22993685 -0.18942755 0.26657858
0.12951876 0.06788918 0.36327058 0.1559504 0.050729644 -0.07214783 0.08402906 -0.21200038
0.15639377 0.09823347 -0.12824161 -0.12265139 0.0136434585 0.1734565 0.035667703 0.38689014
-0.07250824 -0.0084155165 0.045926604 -0.3540888 0.011114696 0.22133812 0.27220067 -0.16998988
0.21640669 -0.08870081 0.3564582 0.03477971 0.0259933 0.22070594 -0.3205984 0.11183635
0.09717045 0.19079056 0.1585146 0.11816651 -0.1764621 -0.10286312 -0.23876852 0.14345583

gnn_base.gnn.gnn2.0.lin_key.bias f4 [48]
00000000: c073 b23d 0011 f1bb 73f7 933d d999 2e3e
00000010: 43a8 40be a7c7 593e cc91 253e 9842 f83d
00000020: 151e b13c 5899 7b3e 8f01 8e3d 34d7 f3bc
00000030: 5665 0cbd e802 183e 83c2 153d 7f8c 153e
00000040: 3482 0c3c 3a5e 08bd cd4d d5bc 8002 eebd
00000050: 0561 bdbd de70 573e 8677 a5bc 2eaf 6a3e
00000060: 0b93 c0bd 2989 85bd 5dde 733c eb08 423e
00000070: 4fb4 f23d d7c3 5d3c 9ba0 0ebe 8839 613d
00000080: 0963 983c 0b32 3c3c cf6b 0c3d 6143 ab3d
00000090: b0b5 103c 431d b53c 2a12 82bd 0331 e1bd
000000a0: 56fa cb3c eb25 223d 0d66 81bd 36e5 8abd
000000b0: 11f5 953c 5692 6dbd d944 133e 08bd 503e
0.08713484 -0.007356763 0.072249316 0.17050876 -0.18814187 0.21267568 0.16168898 0.12122077
0.02162079 0.24570215 0.06933891 -0.029765703 -0.03427633 0.14844859 0.036562454 0.14604376
0.008575965 -0.033292986 -0.026038075 -0.116215706 -0.09247021 0.21039149 -0.020198595 0.22918388
-0.09403046 -0.06520302 0.0148845585 0.18948714 0.118507974 0.013535461 -0.13928454 0.054986507
0.018601911 0.011486541 0.0342825 0.08362461 0.00883238 0.02210868 -0.06351121 -0.10995676
0.024899643 0.039586943 -0.06318293 -0.06782 0.018305333 -0.058000885 0.14381732 0.2038461
