model_weights/FA_FR/tube/feb17/no_transfer_basic/actor.pt (torch, 202776 bytes, 58 tensors)

gnn_base.gnn.embed_layer.layer_norm.weight f4 [16]
00000000: b159 6e3f 3521 663f c46d 863f 5ac6 9a3f
00000010: 1443 883f 3e5d 6f3f bc92 583f 2f65 873f
00000020: 1321 6d3f 391a 983f 0eeb 833f b546 813f
00000030: 93be 9e3f e5f0 a13f e953 8f3f e7bd 8b3f
0.9310561 0.8989442 1.0502248 1.2091782 1.0645471 0.9350165 0.845989 1.0577754
0.9262859 1.1883003 1.0306108 1.0099703 1.2401909 1.265164 1.1197482 1.0917329

gnn_base.gnn.embed_layer.layer_norm.bias f4 [16]
00000000: 67dc 733d d0c0 c1bc 8b8f a2bd 42b0 10be
00000010: 0ef1 813d 50dc 653d 1b83 3d3e 4037 fc3d
00000020: 9b02 42bd 358c 783c 0763 ec3c 7788 00bd
00000030: df17 9b3d 023a bf3d e3eb 323e 8b15 893d
0.059536364 -0.02365151 -0.07937535 -0.14129737 0.06344806 0.05611831 0.18507044 0.123152256
-0.047365766 0.015170147 0.028855814 -0.031380143 0.075729124 0.09337236 0.17472796 0.06693562

gnn_base.gnn.embed_layer.entity_embed.weight f4 [4, 2]
00000000: bbbb bc3f d5c4 b5bd c2d1 0dc0 552d 4f3f
00000010: a1d1 8abf 2d05 b3bf 7a83 ce3e e588 563f
1.4744791 -0.08875433 -2.2159276 0.80928546 -1.0845224 -1.3985955 0.40334684 0.83802634

gnn_base.gnn.embed_layer.lin1.weight f4 [16, 10]
00000000: 9ff6 0c3f 7efe 3dbf cb85 9bbe e1d8 0e3f
00000010: 2d43 683e 7d62 e8bd 2e30 9f3b 87ca 19be
00000020: 92b7 51bf 13ae d0bd 1ccd 3dbf 9ed2 b0be
00000030: 5dee 5cbe 588a 5ebe 1198 b0bd 8c7c 14bf
00000040: c90a 00bf 0ae6 a23a 87f3 583e d146 44bf
00000050: 2a3c 333e 82af 4fbe 1b4a 063d dc57 81bf
00000060: c046 15bf 7956 eebc 3ef6 b93e 890b e7be
00000070: 5e35 b3be 51d8 f03e b614 6fbf 3d65 0e3e
00000080: 5b4c 44be cd6d 0cbe dab7 4bbf 3b9c bebe
00000090: 7150 30be 7ad7 dbbd 7896 89be 8c28 88bd
000000a0: 3f24 85be d641 0c3f b286 4cbf 5366 82bf
000000b0: c584 a73e 15e0 c2be fdcf 843d 9d1e bdbe
000000c0: 1fcf 4c3d acb5 53bd ada5 d7be f8fe c73c
000000d0: 7912 003e 5ae8 cdbd f813 db3e 7918 dc3d
000000e0: a70a 3dbf 1d14 af3e 2bf5 2abf d586 ba3e
000000f0: 722e b23e 9efd edbe f019 0ebf 220a 4fbb
00000100: 74df 11bf 16ea 8ebe f135 29bf 2c91 59bf
00000110: fc7a 453e 1bb8 e4bd d138 e33e 2b62 7fbc
00000120: fee8 9b3e 2981 3c3f 2b6e 903f 6548 8cbe
00000130: d762 aa3e 218f d6be 4118 a53e 5be5 7f3e
00000140: 54b8 9c3f 7752 17bd 0dbe c13e 49af 443d
00000150: 70c2 d43e 5095 39bf 7612 383c 2cc8 2bbe
00000160: 873f 18be a058 ffbd 95b1 613e eb1a 9c3e
00000170: 394b ea3e a806 863f 0249 92bc 5802 54be
00000180: da07 773e a956 833c e9db d03e 6d12 37be
00000190: a086 0e3e 74e6 743e b2cf 4ebf 9f45 193e
000001a0: 6862 e9be f5ad a4bd 312d 1bbf 94ce 3dbe
000001b0: 8411 913e ff2a 7e3f d35f 95be 0ce9 073f
000001c0: 2eb0 15bf 94f3 07be dc20 d2be fe92 d9be
000001d0: 34db 623e bf74 2d3e 329e 1bbe e6c5 f93e
000001e0: 50fb 88be e222 c83d f1d7 afbe 4299 b9bf
000001f0: 1d8c 3abe 564d 573d 7a92 a53c 32b7 ab3e
00000200: c28b 373e 93ef c03e dbcd 413f 817a 163f
00000210: 7b01 393f 155b bcbd 55e0 bd3e 782e 6fbd
00000220: 1ecd 8c3d 91c1 483f 695b 403e d844 a6be
00000230: 6581 393f 4913 623f 203b a1be 7773 823f
00000240: 3fcf 0b3f 9666 9dbd c629 683e 5efb 3c3e
00000250: 900c 92be a79e dbbd 4743 7bbf 1e36 423f
00000260: 6681 bb3b 0f7c cbbe 7ce5 b5be eb45 6b3d
00000270: 81ae 2b3f 6050 003e 48cc 8cbe 1240 65be
0.55063814 -0.7421645 -0.30375513 0.5579968 0.22681876 -0.1134691 0.0048580384 -0.15018664
-0.8192073 -0.10189452 -0.741411 -0.34535688 -0.21575303 -0.21732461 -0.08622754 -0.58002543
-0.50016457 0.0012428176 0.21186648 -0.7667056 0.1750342 -0.20281795 0.032785516 -1.0104938
-0.5831108 -0.029093968 0.3632068 -0.45125988 -0.35001653 0.47040036 -0.9339098 0.13905807
-0.19169752 -0.1371376 -0.7957741 -0.3722857 -0.17218186 -0.10734458 -0.2687261 -0.06648359
-0.26004216 0.5478796 -0.7989303 -1.0187477 0.32718483 -0.38061586 0.06484983 -0.3693742
0.050002214 -0.051686928 -0.42118588 0.02441357 0.12507047 -0.10054083 0.42788672 0.10746855
-0.7384438 0.34195033 -0.66780347 0.36430994 0.3480106 -0.46482557 -0.5550833 -0.0031591733
-0.5698159 -0.27912968 -0.66097933 -0.8498714 0.19285196 -0.11167928 0.44379285 -0.01558737
0.30451196 0.7363458 1.128362 -0.27398983 0.33278534 -0.41906074 0.32245067 0.24989836
1.2243752 -0.03694388 0.3784031 0.048018727 0.41554594 -0.7249346 0.01123487 -0.16775578
-0.14867984 -0.12468076 0.22040398 0.30489287 0.45760515 1.0470781 -0.017857078 -0.20704019
0.24124089 0.016032534 0.40792778 -0.17878123 0.13918543 0.23916036 -0.8078567 0.14967965
-0.4558289 -0.08040992 -0.6061583 -0.18535835 0.28333676 0.99284357 -0.2917467 0.53089976
-0.58471954 -0.13276511 -0.41040695 -0.4249496 0.22153932 0.16939066 -0.15197065 0.48783797
-0.26754236 0.09772278 -0.34344438 -1.4499896 -0.18217511 0.052563988 0.020211447 0.33538204
0.17924407 0.3768278 0.75704736 0.58780676 0.72267884 -0.0919706 0.37085214 -0.058393925
0.068750605 0.7842036 0.1878487 -0.324744 0.72463065 0.88310677 -0.3149042 1.0191487
0.5461311 -0.07685582 0.22672185 0.18455264 -0.2852521 -0.1072362 -0.9814953 0.75863826
0.0057222126 -0.39743087 -0.35526645 0.057439726 0.67063147 0.1253066 -0.27499604 -0.22387722

gnn_base.gnn.embed_layer.lin1.bias f4 [16]
00000000: cc16 503b eefe 2bbe 99fe ed3d 97fb debd
00000010: f502 1e3e d9d8 97bd d82c 873e 64c5 b33d
00000020: ec47 2ebe 5974 75bc ee02 c8bd 3fd8 cbbd
00000030: 4ed8 4b3e e8fb 053d f957 f73d 14f3 c93d
0.003175187 -0.16796467 0.11620826 -0.10887831 0.15430816 -0.07414407 0.264014 0.08777884
-0.17019624 -0.014981353 -0.09766184 -0.09953355 0.19906732 0.03271094 0.12077326 0.098608166

gnn_base.gnn.embed_layer.layers.0.weight f4 [16, 16]
00000000: 8c45 cebe 423a 77be 2edc 25bf b57a 8abd
00000010: 67e3 a03e e2f2 7cbd dfd6 df3e e992 d6bd
00000020: 66cc a1be 3ff4 b8bd 28ad b9be 11ea 2f3f
00000030: 953d 68be 63e6 0bbf fedb 89be d657 c83d
00000040: 2f67 c4bd 964d 02bf ad4c ea3d 75d3 04be
00000050: 4e80 a936 6fe9 9c3e ce03 9f3e 77e8 cb3e
00000060: 4bb1 913e d749 5f3f 99cf 833d 392c e839
00000070: 5aa6 23bd 83e5 6a3f 5018 413e edd8 1f3f
00000080: 5f8d acbe da6c 313f f878 edbe e3cc 043f
00000090: b759 64bd fcb0 da3e 873f 7e3e dcf0 11bf
000000a0: 5b9e a13e 8efc 873e 9642 df3e eeb2 8bbc
000000b0: 7399 3c3d 2e08 47be 34ff 4cbe 5970 963e
000000c0: cbf9 933e f1e4 8a3e 17c9 1dbf fa43 13bf
000000d0: ee5a d53d 2914 813e 76d3 04bf 3c15 aa3e
000000e0: 851d 623c 2f11 183f c106 86be 8046 e93d
000000f0: 1021 63bf f6f1 ab3e 2064 243f e7ca 09be
00000100: 2ac8 113e d8e1 b43e aae9 c0be b9c6 9e3d
00000110: 7e10 5abd 009a c1be 83d1 78be 9ef3 e1be
00000120: a8c1 c3be a2b1 933e 70df 14bf e9e0 eb3b
00000130: 4106 783f fbbe 5d3e 1831 cebd 729e a43e
00000140: 9c25 e93e 2acb ff3e 11e4 eb3e 118d 26bf
00000150: 35d5 3cbf 09f1 8e3e 6bdc c6bd bb72 5bbe
00000160: 74d1 1b3c 4c66 433e 24d9 e0bd b3ce 903e
00000170: a192 d93d 600e 6ebe 5d16 19bf 38ed 5f3e
00000180: 5616 bc3e b365 853e 7907 04bf aabf 333f
00000190: 75d5 2fbf 4d22 a8be 7be6 6abe 7bdc 933e
000001a0: 4627 11bf fb49 e33e 1603 043f d409 7b3d
000001b0: 7555 1dbf dd98 803c 8825 23be bdc0 c13d
000001c0: 9a8a 44be 1cea 19be d668 383f 59a7 afbe
000001d0: 8724 aebd 24c6 80be 7d8d 473f 6f43 3dbe
000001e0: 7faf 08bf e67e 03bf 500e e5bc 0cb1 2abf
000001f0: 4195 5fbf 33a8 893e bfb0 28be 3990 45bf
00000200: 535d 26bf c740 8ebd e542 273f 23e9 793e
00000210: b107 d73e b889 bb3e 716d 1fbd deb6 f73e
00000220: 6219 27bf 784d 5ebf b802 53be ac5a 08be
00000230: 2483 f73e 3819 3ebf 53e4 49bd ee47 183f
00000240: 95f9 c7bd 128a 8e3d d41a 193f c83e 1d3e
00000250: 6c6b e63e e9f1 55be 27d3 a7bb f21a 46bf
00000260: 7433 87be f610 c33d 05a6 b33e fa84 69be
00000270: 8b19 c03d 8b16 44bf 438b ddbd fd07 123f
00000280: 4315 c03d 3c12 66bd 7fb4 19be ba6a 8d3e
00000290: 4e23 cf3e 980f 013e 719e 98be 3fd5 45bf
000002a0: b70a c0bc 0e67 02bf 9e0f c7bd c499 273f
000002b0: 6374 d1bd 870c b03e 9905 40be 4487 403f
000002c0: 8b05 f9be 1353 a2be d8a0 a7be 8f06 c9be
000002d0: 607d 533e 30cd ba3e c974 52bf 6f4c f9bd
000002e0: f0a6 1abe 863d 93be 4430 8a3e 5cba 093e
000002f0: c7ae 2e3f 8161 dc3e 3e61 fcbe 2f41 88be
00000300: 87db 74bc 068b 2fbf f29d 06bf 9340 fcbe
00000310: e3bf 6ebf d3ef 123d 1ed5 37bc 5830 b53d
00000320: af0b be3e d3a2 9d3e 9071 1bbe 565b 90be
00000330: 778b b8be ae04 a0bc 390a 083f 66d3 543e
00000340: aa1f 87bd 030a 3b3e a2a2 b0be 2f02 0dbf
00000350: 5026 363e dd19 9ebe 8a05 76bb e298 693e
00000360: abbb 973e 8e2f b6bc c324 86be b4c5 5bbf
00000370: 9e6f a3be 6978 ea3e 51cc e1be 49fa ea3e
00000380: 1e3e 42be 0eba a8bd 0d4b 6a3e bf9d 063f
00000390: 97c1 f13d 6292 683e 0963 c0be bd10 b7bd
000003a0: 04da d8bd 949d 343f 8ebd 1cbf dd8a 1c3b
000003b0: 8bfb 37be 02f2 803d 258c 03bf 88b9 0d3e
000003c0: d6f9 5f3f e11c fb3d e486 61be 3226 0c3f
000003d0: 2adf a9be bf73 243f 46fd 903d b994 07be
000003e0: b2ec 803e 478b 83be 387b 36be f342 cfbe
000003f0: 6a0b 7ebe f785 e8be 3bbf 09bf 1be2 e8be
-0.40287435 -0.24143317 -0.6478909 -0.06761686 0.31423494 -0.06175507 0.4371862 -0.1047724
-0.31601256 -0.09030961 -0.3626492 0.6871653 -0.22679742 -0.5464842 -0.26925653 0.097823784
-0.09589993 -0.50899637 0.11440406 -0.1297129 5.051529e-06 0.30646846 0.3105759 0.39825794
0.28455576 0.87222046 0.064360805 0.00044283437 -0.039953567 0.9175646 0.1885693 0.6244038
-0.33701608 0.6930672 -0.46381354 0.5187513 -0.05574962 0.42713153 0.24828921 -0.5700815
0.31566128 0.2655987 0.4360549 -0.017053094 0.046044778 -0.19436714 -0.20019227 0.2938259
0.28901514 0.27127793 -0.61634964 -0.575256 0.10417734 0.25210693 -0.51885164 0.33219326
0.013800983 0.5940122 -0.26177028 0.113904 -0.88722324 0.3358304 0.6421528 -0.13456307
0.14236513 0.35328555 -0.37678272 0.07752747 -0.053238384 -0.37812805 -0.24298672 -0.44131178
-0.38233685 0.2884646 -0.5815344 0.0071984422 0.9688454 0.21654885 -0.10067958 0.32152134
0.45536506 0.4995969 0.46072438 -0.65059 -0.7376283 0.2791827 -0.0971001 -0.21430485
0.009510387 0.19081992 -0.10978916 0.282827 0.1062367 -0.23247671 -0.5979975 0.21867836
0.3673579 0.26054153 -0.515739 0.7021433 -0.68685085 -0.3283867 -0.22939484 0.2887915
-0.5670055 0.4439238 0.5156721 0.06128867 -0.6145852 0.01569789 -0.15932286 0.0946059
-0.19193497 -0.15030712 0.72034967 -0.34307364 -0.08503061 -0.2515117 0.7795027 -0.18482755
-0.53392786 -0.51365507 -0.027960926 -0.666764 -0.8733712 0.26886138 -0.16473673 -0.7717319
-0.6498615 -0.06945949 0.6533645 0.24405341 0.41998056 0.3662851 -0.03892273 0.48381704
-0.65273106 -0.8683696 -0.20606506 -0.13315839 0.4834224 -0.7425723 -0.049290013 0.59484756
-0.09764401 0.069599286 0.5980656 0.1535598 0.4500383 -0.20893063 -0.005121607 -0.77384865
-0.26406443 0.095247194 0.350876 -0.22804633 0.09379872 -0.765969 -0.10817578 0.5704344
0.09379055 -0.056169733 -0.1501026 0.27620488 0.40456623 0.12603605 -0.2980838 -0.7727851
-0.02344261 -0.509385 -0.097197756 0.65469 -0.10227277 0.34384558 -0.18752135 0.752064
-0.4863704 -0.31704006 -0.32739902 -0.39262816 0.20653296 0.3648467 -0.8220945 -0.12172782
-0.15102744 -0.28757876 0.2698995 0.13449997 0.6823544 0.4304314 -0.4929294 -0.2661223
-0.0149449175 -0.6857151 -0.52584755 -0.49268016 -0.93261546 0.035873245 -0.011220245 0.088471115
0.3711829 0.30788288 -0.1518004 -0.28194684 -0.36043903 -0.019533481 0.531406 0.20783767
-0.06597836 0.18265538 -0.3449908 -0.55081457 0.17788053 -0.30879107 -0.0037539923 0.22812226
0.29635367 -0.022239473 -0.26199922 -0.85848546 -0.31921095 0.4579499 -0.44101194 0.45894077
-0.18969008 -0.08238612 0.22880192 0.5258445 0.118045025 0.2271209 -0.37575558 -0.089387394
-0.10588458 0.70552945 -0.6122674 0.002388648 -0.1796705 0.06296159 -0.5138572 0.13840306
0.87490594 0.122613676 -0.22024113 0.5474578 -0.33178073 0.64239115 0.07079558 -0.13240327
0.25180584 -0.25692198 -0.17820442 -0.40480766 -0.24809042 -0.45414707 -0.5380742 -0.45485005

gnn_base.gnn.embed_layer.layers.0.bias f4 [16]
00000000: b1eb 623e a782 893e 6968 30bd 49ad dd3d
00000010: cf62 ea3b 916e 77bd eccb 9ebc 41d9 bb3e
00000020: f6ab 073e 95a6 133e 1328 45bd 615d 8c3d
00000030: 7029 503d 6800 0dbc fe51 20be 4baa ab3d
0.22160222 0.26857492 -0.043068323 0.10824067 0.007152892 -0.06040818 -0.019384347 0.3668919
0.13249192 0.14419015 -0.04813392 0.06853748 0.050820768 -0.008606054 -0.15656278 0.0838209

gnn_base.gnn.embed_layer.layers.2.weight f4 [16]
00000000: b159 6e3f 3521 663f c46d 863f 5ac6 9a3f
00000010: 1443 883f 3e5d 6f3f bc92 583f 2f65 873f
00000020: 1321 6d3f 391a 983f 0eeb 833f b546 813f
00000030: 93be 9e3f e5f0 a13f e953 8f3f e7bd 8b3f
0.9310561 0.8989442 1.0502248 1.2091782 1.0645471 0.9350165 0.845989 1.0577754
0.9262859 1.1883003 1.0306108 1.0099703 1.2401909 1.265164 1.1197482 1.0917329

gnn_base.gnn.embed_layer.layers.2.bias f4 [16]
00000000: 67dc 733d d0c0 c1bc 8b8f a2bd 42b0 10be
00000010: 0ef1 813d 50dc 653d 1b83 3d3e 4037 fc3d
00000020: 9b02 42bd 358c 783c 0763 ec3c 7788 00bd
00000030: df17 9b3d 023a bf3d e3eb 323e 8b15 893d
0.059536364 -0.02365151 -0.07937535 -0.14129737 0.06344806 0.05611831 0.18507044 0.123152256
-0.047365766 0.015170147 0.028855814 -0.031380143 0.075729124 0.09337236 0.17472796 0.06693562

gnn_base.gnn.gnn1.lin_key.weight f4 [48, 16]
00000000: 9941 823d 64b8 533e f0bc 803d 7cb1 debe
00000010: 8177 9d3e e838 30bc 3180 f2bd 840a 1bbe
00000020: ff01 a03e c03c 8d3d ef28 933e a38e 353e
00000030: bb68 76be 9786 98bc 6546 81be 0f0f 623e
00000040: ae77 17be 3fca 3d3e be50 563d 4904 833d
00000050: 68a2 12be e04a 6b3a 1bba 2d3e 5f25 53bd
00000060: e1a3 863d cf88 e83d 9743 17be 84cd cebd
00000070: 9bf3 c13d ad49 0a3e 4a8a 5d3e 61ee 963a
00000080: d391 943c 72b9 5ebd dc13 0b3c 2b76 4abe
00000090: 49c9 7f3e b4b5 83bc c1a7 343e ef65 bd3c
000000a0: 94a8 123d 88fb 98bc b03a 933d 4366 72be
000000b0: 58f8 f13b f094 15bd e4ec 81be a0dd 963e
000000c0: 0d0c abbd 7a78 12be cebd 8cbe 06ab 17be
000000d0: 2a0b 9c3d 2c10 aabd 17e6 0abe 24ab a3bd
000000e0: e359 763e be84 803b 5ea5 b33d 6f99 4d3e
000000f0: 2ec6 70be 4ab4 893e 1e9f 23be 4141 8f3e
00000100: 5f24 f63d 3802 43be d858 903d b7ea b93b
00000110: 83f1 a3bd c01c 513e 88b0 16be ecb0 2ebe
00000120: dc95 3c3e 8e0d 5d3e 6af5 513e c4a8 1abe
00000130: 6658 30be 9965 9fbe 5f00 babd bade 483e
00000140: 54c4 1c3e 247f 1abd 9da1 663e 8ef8 c33d
00000150: 43e5 69bd 18a3 dbbd 3b22 7abd 151a 5e3d
00000160: f818 ec3c 95df a03d 0a30 9b3e 5d5e a4bb
00000170: 5383 2c3d 2e76 80bc 2ed2 803d 9bd9 d13d
00000180: 4d3d 5fbd 49ee 62bd 8bb4 1b3e 7267 25be
00000190: 251f 043e 21d1 68be 7970 693e 9f3c b43c
000001a0: 15f8 36be fe02 7e3d 885f 79bc 113c 003d
000001b0: b67f f83d a4b7 b53d c4b1 4a3d 04be 23bc
000001c0: 034d afbd 03b3 b93d 52a3 403c 1157 2b3e
000001d0: ba73 0c3e 057f a5bd 25c4 69be 4ba8 903d
000001e0: 1dfe 593e ed42 05be fb61 4dbe 5fd7 8d3d
000001f0: 01d4 7cbe ffa9 20be 17b1 283d 59c6 3cbc
00000200: 5f6f 75be c2d1 93bd 1ad5 77bd 7f2e a73b
00000210: 463d 63be c690 063e 6903 543c 32d3 7e3e
00000220: f6a8 46be edda 29be bbec c3bd 3fb6 8dbe
00000230: ba14 4b3e cf80 b73e 09fe 8d3e 908b d1bd
00000240: 7fcb 333e d790 333e de33 acbc 6fbf b83d
00000250: f2f9 073e 4b42 2d3e bd2f cebd 58cb 803e
00000260: b7d9 febd 021d ff3d 6a25 8ebe c4bd 8bbe
00000270: 3f7e 42be 609e 363e d79c cabd 5db1 113e
00000280: e6bb b73d 5938 e13d 2d88 c6bd ac57 38bc
00000290: 7ee9 1abe 82c8 31be 2ea9 623e a5a7 7cbc
000002a0: 5af8 f4bd 8ac4 8bbe c951 833c 15d2 96be
000002b0: 6469 193d e094 823e 5848 d5bd eac9 023e
000002c0: 382c 283b 5bb9 4dbe 64d1 8ebe 590a 273e
000002d0: 961f 27be 18e8 0a3e 7fd8 7fbd e852 0f3e
000002e0: 262e 51be 0857 723e f3f2 1cbe 74b5 e9bd
000002f0: 0783 4e3e 5807 e8bd f61d 60be 4b28 3abe
00000300: 14d1 7dbe 562f 5ebe 325c c4bd 5514 793e
00000310: 4604 c23d 972e 2f3d aa66 b63c 933d 3a3e
00000320: da24 f0bc e8a2 783d 7cc2 53bc 1af2 0fbd
00000330: 7152 323e c2de 393e cca0 3e3e fbf2 0b3d
00000340: c947 103e 99f1 d4bd 9a23 e43d c5d2 b03d
00000350: fcbc 113e 3d36 03bc 9381 83be e0b3 d83d
00000360: 8382 b43d 652c 6b3e 8e4a b23d 6905 e53d
00000370: af19 283e bf38 cdbd f225 533e 8c59 273e
00000380: cdc6 973e 8f0a 033e e064 0cbe b923 d73d
00000390: dace 4b3e 8ad1 60be e252 9abc dda0 9cbd
000003a0: cb6e 05be f6e2 aa3d 115d dd3d 6a55 ecbd
000003b0: cc9a 90be 75d8 023e 265b 1d3e 7b25 1ebd
000003c0: c7a6 113e 64b3 703e 5a36 f2bd c027 ccbd
000003d0: f108 c93d 6911 debc 18e0 40bd fdfa 5cbe
000003e0: 99e0 f3bc b510 c93d b5b8 993b d3c0 bdbd
000003f0: 923f 503e 63af af3d a8fb 403e 4841 733e
0.06360168 0.20675808 0.06286037 -0.43494785 0.30755237 -0.010755755 -0.11840857 -0.1514073
0.31251523 0.06896353 0.28742167 0.17730193 -0.24063389 -0.018618865 -0.2524902 0.22076057
-0.14791748 0.18534182 0.052323096 0.06397302 -0.14319766 0.0008975696 0.16965525 -0.05154931
0.06574226 0.11354219 -0.14771877 -0.10097793 0.09470292 0.13504668 0.21634784 0.0011515134
0.01813594 -0.054376073 0.008488622 -0.1977164 0.24979128 -0.016077854 0.17642118 0.023119895
0.0358053 -0.018674627 0.07188928 -0.23671822 0.007384341 -0.03651899 -0.25376046 0.2946596
-0.08351908 -0.1430377 -0.2748856 -0.14811334 0.07619317 -0.08303866 -0.13564335 -0.07991627
0.24057727 0.003922074 0.08771776 0.20078062 -0.235131 0.26895362 -0.15978667 0.27979472
0.12018656 -0.19043815 0.070481956 0.005673732 -0.08005049 0.20421124 -0.14715779 -0.17059678
0.18416542 0.21587202 0.20503774 -0.15103441 -0.17221221 -0.311322 -0.09082102 0.19616213
0.15309268 -0.037718907 0.22522588 0.095688924 -0.057103407 -0.10724467 -0.0610678 0.054224093
0.0288205 0.07855145 0.30310088 -0.005016132 0.042117428 -0.015681352 0.062900886 0.10246583
-0.05450182 -0.055403028 0.1520559 -0.16152743 0.12902506 -0.22736026 0.22796811 0.022001563
-0.17868073 0.062014572 -0.01522053 0.031307284 0.12133734 0.08872917 0.049485937 -0.009994034
-0.08559611 0.09067347 0.011757689 0.16732432 0.13716021 -0.08080868 -0.2282873 0.07063349
0.21288343 -0.13013811 -0.20056908 0.069258444 -0.24690248 -0.15689848 0.04118451 -0.011521899
-0.23968266 -0.072177425 -0.060505964 0.0051019783 -0.22191343 0.13141164 0.012940266 0.24885252
-0.19400391 -0.1658742 -0.09566637 -0.27678105 0.19832125 0.3584046 0.27732876 -0.102316976
0.17558096 0.17535721 -0.021020826 0.09020888 0.1327894 0.1691982 -0.10067699 0.2515514
-0.124438696 0.12456705 -0.2776292 -0.27293217 -0.18993472 0.17833853 -0.09893196 0.14227815
0.08971386 0.109970756 -0.09693942 -0.011251371 -0.15128133 -0.17361644 0.2213485 -0.015420829
-0.11961432 -0.27298385 0.01603021 -0.29457155 0.037454024 0.25504208 -0.10414189 0.12772337
0.0025661122 -0.20090239 -0.27894127 0.16312541 -0.16320643 0.13565099 -0.062462326 0.1399647
-0.2042776 0.23666012 -0.15327053 -0.114115626 0.2016717 -0.11329526 -0.21886429 -0.18179433
-0.24786788 -0.21697745 -0.09587897 0.24324162 0.09473471 0.04276904 0.02226575 0.18187551
-0.029314447 0.060702235 -0.012924787 -0.035142995 0.17414261 0.18151382 0.18616027 0.03416727
0.14089884 -0.103976436 0.11139603 0.08633951 0.14232248 -0.008008537 -0.25684795 0.105811834
0.08813956 0.22966154 0.087056264 0.111826725 0.16416048 -0.10020589 0.20619944 0.16342753
0.2964386 0.12796997 -0.13710356 0.105048604 0.19903126 -0.21954933 -0.01883835 -0.0764787
-0.13030545 0.083440706 0.10808767 -0.11539729 -0.282431 0.12777884 0.15366802 -0.038609963
0.14223777 0.23505932 -0.11826773 -0.09968519 0.098161586 -0.027107911 -0.047088712 -0.2158012
-0.029770182 0.0981764 0.0046912082 -0.09265294 0.2033675 0.08578374 0.18845999 0.23755372

gnn_base.gnn.gnn1.lin_key.bias f4 [48]
00000000: 2f35 443e 7cd3 4a3e fffa 8cbd c1bc 14be
00000010: d337 e3bd 57dc 2ebe d90b 84bd 5646 67be
00000020: 26d1 083e c3f7 70be 6c46 1fbe 5cd4 2b3e
00000030: 407d 3fbe f0b1 743d aec4 3f3e 8a59 7c3e
00000040: 9a8c 013e 1b67 89bd 5440 123e f759 07bc
00000050: ece2 9dbd 143d 553a 5dc5 653d 51ac 2b3e
00000060: 5cda d63d ab72 f43d 5049 193d c7eb 4dbc
00000070: 9df6 d63d 0d2d 763d 24fa 74be 3b84 253d
00000080: e460 e3bd 16c6 07be 9506 c63d 9e67 513d
00000090: e030 2d3d 91ec f2bd 9a8f ec3d d238 703e
000000a0: cba3 fa3c 3177 d23d dd99 60be 132b 183e
000000b0: 25d6 b13d c7ad e63d 5883 d53d 7daa 86bd
0.19160913 0.19807237 -0.06883811 -0.14525129 -0.11094632 -0.1707624 -0.06447572 -0.22585425
0.13361034 -0.23532014 -0.15554208 0.16780227 -0.18700123 0.059740007 0.18727371 0.24643531
0.12651291 -0.06709119 0.14282352 -0.008261195 -0.077092975 0.00081344065 0.056096423 0.16764952
0.104908675 0.11935934 0.037423432 -0.012568421 0.104962565 0.060101558 -0.23923546 0.040409308
-0.11102465 -0.13259158 0.09669224 0.051124208 0.04228294 -0.11861528 0.11550827 0.23459175
0.03059568 0.1027664 -0.21933694 0.14860182 0.08683423 0.11263614 0.104254425 -0.06575487

gnn_base.gnn.gnn1.lin_query.weight f4 [48, 16]
00000000: bbc5 a6bd aef5 833e b3b4 473e 025c bdbe
00000010: c701 df3e a427 993e 9387 d13d ad32 74be
00000020: 356c 333d 2d3b dfbd 4d54 5a3e 86d7 b7be
00000030: 8e37 ccba 7aea b4bd 64de 543e 3f0f 6c3e
00000040: ba4c 0e3d 9bb8 17be 4452 36be fa1a 60bb
00000050: 7c8d 09be 6cbb 5e3d 477f 01be ae64 10bc
00000060: c228 4f3e a6dd 42be 4965 143e 58ce 453c
00000070: 1b23 4b3e 3efa 793e 1c21 18be bc60 1a3d
00000080: 72df 57be b2b4 3a3e a56e 833d b4e6 43be
00000090: 9d81 2a3e ee66 063d 9c57 1a3e 330e 213e
000000a0: d401 2f3e d7c8 27be 2654 823e b4e7 fc3c
000000b0: dff9 6e3e 6d6e 8f3c eafc 6b3e 67a3 8a3e
000000c0: 3c1f 95bd f9b2 3bbe 1056 7f3e b451 36be
000000d0: e547 2d3d ec02 303e 5170 233e d28e 0cbd
000000e0: f68f 4dba d2c6 02be db7a 883e f75f 7f3d
000000f0: 8b24 903d e79a 343e dccd 17bd c93e e83d
00000100: 631a 27be 8cb6 803d d990 5cbe 7c6d b0be
00000110: d55a 1dbe 8d08 133e b1b3 7d3d b927 d4bc
00000120: 8382 c2bc 67c7 f5bd 0b95 0dbd c417 34be
00000130: a571 d2bd c671 5dbe 6ba0 993d 603f 813e
00000140: 51a8 42be 00dd d63d 897c f8bd a0cb 5bbd
00000150: 23f2 3f3d bddc 353d a4f8 8c3e 9ce9 22bd
00000160: 51a3 7fbd 6fe1 cebd 7307 0bbd ed6d 84be
00000170: 87a6 83be b62e 3ebe 3a82 9d3d 0fe0 cbbd
00000180: 2bfc 2dbe 411c 5b3e 14c5 1a3e a64c 06be
00000190: 3fbd 29be 702c 7abd 7b51 5e3d bca6 063e
000001a0: 4402 fabd 0502 39be 05b7 05be de36 a9bd
000001b0: 051c 993e 9fa3 15be a210 3b3e 9dde 77bb
000001c0: 67ae d5bc 5dff 1ebe 5677 413e 319a 033d
000001d0: e5f8 2d3e f83f 3dbe c133 44be c065 8fbe
000001e0: 33e8 a5bd 9d8a 17be f187 3e3d e187 6e3e
000001f0: ec66 80be 2d7f 063e 98bb 213e 0e92 25bd
00000200: 0d7a 0ebe 85e0 6a3d df3c 5c3b 4b2c 583e
00000210: dc48 63be 21df d9bd a529 10be f333 56be
00000220: 92f4 363e e0d6 e0bd 699a 39be dfa2 cd3c
00000230: 9c36 543e f9fa 963e 9663 9bbe 74e6 3a3e
00000240: a217 2b3e b764 073e e615 2f3c f5cb 923e
00000250: 5197 053e 3e50 10be 5cfd 14be e632 01bd
00000260: eb31 6ebe e75e f6bd 509d 233e 9fb6 543e
00000270: 560b 6d3e 859b 86bc fa93 e0bd a8a2 753e
00000280: 1c54 d13c 5997 9e3d 065c f9bd 7b09 523e
00000290: 5873 91be c738 0f3e f727 633e db62 b43d
000002a0: 9c8e 563e 541f 0e3e c3da 0abd bc44 84be
000002b0: 346b e13d 8dad 3a3e 1420 d2bd b9f8 2b3d
000002c0: a7b6 4d3e f141 52bb 9f89 7f3e 06be 4c3e
000002d0: d4de f5bd eefb b2bc 7d70 d7bc 8e86 3dbe
000002e0: 9962 173e bf40 613e 20f6 293d e9c3 153e
000002f0: 2fad 24be 6eaa 83be 29e9 05be 5820 bcbd
00000300: dae3 4bbe 1972 bdbd 3719 77bc eb9a f83d
00000310: 848b a3be 4737 463e cf70 8abe c057 71bd
00000320: 428e c0bd e6bf 913d 253d a63c d66f 7a3d
00000330: bf75 7c3c 2bfa 213d 7b31 82be 2263 49bd
00000340: bbe9 803d 73b6 6abe 5ef4 30be 625f 2d3e
00000350: 7b34 203e d595 d5bb da5c 413d c05b f2ba
00000360: 7787 a43d c1ce 23be d9cf b3bd 8e9d 60be
00000370: f113 75be 16f2 86bd fe8c e6ba 3773 243e
00000380: e2cc 11bc 9fb3 d53c 4ac2 25bd f32d 023e
00000390: aa73 da3b f520 95bc 8384 92bb e99b 88be
000003a0: d6de 543c 50b0 8bbe bc8e 16be 544f 8abe
000003b0: cfed 0c3e ee60 41be 9790 9b3e 3145 9e3d
000003c0: ff09 1ebe 0288 373e 4349 c1bc c2d2 4fbe
000003d0: 916f 20be c959 cd3d 32ee 75be 035d 843d
000003e0: 706d 003e 0d8e 00bd c33b d13b ccfb 06be
000003f0: 030f 13be 1322 3e3e bbfd 85be b627 bf3c
-0.08143183 0.25773376 0.19502525 -0.3698426 0.43556044 0.29913056 0.10230937 -0.23847456
0.043804366 -0.10899959 0.2132122 -0.3590662 -0.0015580521 -0.08833785 0.2078796 0.23052691
0.03474114 -0.14816515 -0.1780482 -0.0034195767 -0.13432878 0.05437796 -0.12646209 -0.008813066
0.20230392 -0.19029865 0.14491762 0.012073122 0.1983761 0.24411866 -0.1485638 0.03768991
-0.21081331 0.18232992 0.06417588 -0.19130975 0.16651006 0.032813005 0.15072483 0.15728073
0.17090541 -0.16385208 0.25454825 0.030872203 0.23337506 0.01750871 0.23045698 0.2707779
-0.07281348 -0.18329991 0.24935174 -0.17804605 0.042304892 0.17188615 0.15960814 -0.03431589
-0.0007841581 -0.12771156 0.2665623 0.06234738 0.0703822 0.17637216 -0.037061557 0.113401
-0.1631866 0.06284818 -0.2153963 -0.3445853 -0.15366681 0.1435873 0.061938945 -0.025897847
-0.023743873 -0.120009236 -0.034565967 -0.17587191 -0.10275582 -0.21625432 0.075013004 0.25243664
-0.1900952 0.10491371 -0.12133128 -0.05366099 0.04686178 0.044399966 0.27533448 -0.03977357
-0.06241161 -0.10101592 -0.03394265 -0.25865117 -0.25712988 -0.18572506 0.07690854 -0.09954845
-0.16990726 0.21397497 0.15114242 -0.13115177 -0.16576098 -0.061077535 0.054276925 0.13149542
-0.122074634 -0.18067177 -0.13058098 -0.08262418 0.2990419 -0.14613198 0.18268064 -0.0037821897
-0.026084138 -0.15527101 0.1889318 0.03212947 0.16989477 -0.18481433 -0.19160368 -0.28007317
-0.08100929 -0.1479897 0.046516363 0.23294021 -0.25078523 0.13134451 0.15794218 -0.04042249
-0.13913746 0.057343025 0.0033605618 0.21110646 -0.22195762 -0.106382616 -0.14078386 -0.20918255
0.17866734 -0.10978484 -0.18125309 0.025102077 0.20723957 0.29488352 -0.30349416 0.18251973
0.16708234 0.13222013 0.010686373 0.28671232 0.13046004 -0.1409311 -0.14549774 -0.03154268
-0.2326123 -0.1202982 0.15977979 0.2077279 0.23148856 -0.01643158 -0.10965724 0.2398783
0.025552802 0.07743711 -0.12175755 0.20511429 -0.28408313 0.13986503 0.22183214 0.08807918
0.20952839 0.13879138 -0.033900034 -0.2583369 0.110067755 0.18230267 -0.10260025 0.041985247
0.20089208 -0.0032082761 0.24954842 0.19994363 -0.12005392 -0.021848645 -0.026298756 -0.1850836
0.14783706 0.21997355 0.04149449 0.14625515 -0.1608169 -0.25715965 -0.13077225 -0.091858566
-0.19911137 -0.09250278 -0.015081695 0.12138923 -0.3194238 0.19357024 -0.2703919 -0.058921576
-0.094021335 0.0711668 0.020292828 0.06114181 0.015408932 0.03954522 -0.25428376 -0.049166806
0.062945805 -0.22921161 -0.17280719 0.16930917 0.1564502 -0.0065181055 0.04720769 -0.0018490478
0.0803365 -0.15996839 -0.08779878 -0.21935102 -0.23933388 -0.06589143 -0.0017589626 0.16059576
-0.0088989455 0.026086627 -0.04046849 0.1271284 0.0066666203 -0.018204192 -0.004471363 -0.2668145
0.012992581 -0.27282953 -0.14702886 -0.27013648 0.13762592 -0.18884632 0.3038375 0.07728041
-0.154335 0.17922977 -0.023594504 -0.20295241 -0.15667559 0.10026891 -0.24016646 0.06463053
0.12541747 -0.03138547 0.006385298 -0.1318199 -0.14361195 0.18567686 -0.26170143 0.023334365

gnn_base.gnn.gnn1.lin_query.bias f4 [48]
00000000: 9757 813d a1cd 26be 9f10 6fbd 41e0 563e
00000010: 6fe5 1cbe 5e90 4f3e a9d0 c83d e83c 44bd
00000020: 45ac c73d 8239 5dbe 3321 8f3d c588 823d
00000030: d48d 4f3e d38c 11be 633b 0bbe c42b 00be
00000040: 3f48 80be 8171 da3d 634e a2be e47a 43bd
00000050: 559d 35be 4476 c63c 9c58 32bb 9088 85be
00000060: 5a39 afbd ae27 c7bd b850 47be 57f9 da3d
00000070: 1a13 203e 6bd6 6abe bc58 523e ff6a 293e
00000080: 7b7f 0dbe def0 09bb 69cb 9d3c c6f2 7fbd
00000090: d53a 97bd 8673 5a3e af62 153e 9687 67be
000000a0: 71c5 8abe 1d99 593e b009 f8bc 7e2c c3bd
000000b0: f6ef c03d aecd fa3d 4e39 dd3d 1b4a f23d
0.063155346 -0.16289379 -0.05836546 0.20983984 -0.15321897 0.20269915 0.09805424 -0.047909647
0.09749655 -0.21603969 0.06988754 0.06373743 0.20268947 -0.14213876 -0.13596873 -0.12516695
-0.2505512 0.106661804 -0.3170043 -0.04772462 -0.17735799 0.024226315 -0.002721346 -0.2608075
-0.08555861 -0.09724365 -0.19464386 0.10692089 0.15632287 -0.22933356 0.20541662 0.16544722
-0.13818161 -0.002104811 0.019262033 -0.062487386 -0.07384268 0.21333131 0.14588426 -0.22610316
-0.2710376 0.21249814 -0.030278057 -0.095299706 0.09420769 0.122462615 0.108019456 0.11830541

gnn_base.gnn.gnn1.lin_value.weight f4 [48, 16]
00000000: a6b2 87be 80be 9d3e d8b8 b7bd 638b 6bbe
00000010: af61 413e 9f3e dfbd f439 003c 74b4 7fbe
00000020: 9789 22bc 6cf6 2bbe f328 803e b5c6 96bd
00000030: dd76 a7bd abac df3e 2994 8f3e aa31 903e
00000040: ac70 a6be 99e3 75be 5c19 bcbd 9469 cd3c
00000050: ccc3 cc3d d338 2e3e 6bd6 3ebe f297 063d
00000060: 0ad4 4f3d 48ad 7e3e 75ab 1d3e 0d83 6dbd
00000070: 6bba aebd 3366 a73d 799c 8dbc a163 75be
00000080: 1d4d c6be 2489 323e 231a 013d eee5 bcbe
00000090: c8a2 b93e d30d 0d3f 86b4 2d3e 8e98 7b3e
000000a0: fb59 29bd 6c21 963e 2d3f 2c3e 6d6f 303d
000000b0: 6123 4abe 62ea 00be 5f31 003d d670 2fbe
000000c0: 3375 b9bd 63ef 34bd adb5 3bbe fa6c 893d
000000d0: 1175 85be 3b82 ffbc 64c2 253e 551c afbe
000000e0: 28d5 5e3e c6aa 923e abaa c8be 22a9 b93b
000000f0: 723e 84be fc5f 703e f0a9 823d 9265 113e
00000100: 5967 1c3d 18c7 cbbd cafd a6be cca5 863d
00000110: 9694 e0bd d6ca 41be 7e04 c8bc 9c38 a93e
00000120: b724 943d 9734 a03e cd37 003e 91f4 b13c
00000130: 9a2c 803c 117a d83d a48c e4bd eb92 b93d
00000140: 19f5 b3bd 4c64 d0bd c52c 323e ae28 5cbd
00000150: ae7e 073e 56b7 233e f82c 92bd 164f 6ebe
00000160: 3f1a bdbe 7ba9 f43c 082d 3f3e d3d6 d13d
00000170: 0de8 29be 0507 1fbd ad99 853e d6f3 c3bd
00000180: 7225 793e ffe3 933d 510c 5cbe 6a4f f1bd
00000190: 2390 40be 6fb9 ad3d 7bf4 8bbe fc3f 613d
000001a0: c635 0a3e a2a8 493e afd9 4f3e b60e 943e
000001b0: a13f 12be a35d bd3e 1992 3cbb 7028 20be
000001c0: 494d 12be 0daf d2be 82bd a83e dea1 843c
000001d0: a559 e13d b8a7 d93d 7ba3 29be 8f51 c239
000001e0: d37b 6d3d a8ab bfbd f134 20be 7689 683e
000001f0: 8fbb d7be ce4b cc3d 1678 3c3e 9d40 6cbe
00000200: b8fe d03d abd5 dabd f76a 863e 917e aa3c
00000210: a1f6 7c3e e790 24bd f474 063e 8467 c23d
00000220: 3bcf 40bd 412d 34bc 8d0e f4bd adbc 2e3e
00000230: 7b33 3b3e aa1b a5be c119 38be 670f e63d
00000240: e470 0bbf 86a2 09bc fedc 5d3d b005 bb3d
00000250: a84b ae3d 2d23 183e ceec 193d e463 32be
00000260: d173 e83d 5db9 54be 5c61 d23d f07f 963e
00000270: a71e 5d3e 9c2f cabc 0c66 99be d114 11be
00000280: 1009 8cbd c3e6 b7be 2ed0 bf3e 4f50 97be
00000290: 2d63 aa3e 2831 e3bb cb28 4fbb 2018 833e
000002a0: 82ac 1cbe 7337 2339 0f61 4a3d 18cf bbbe
000002b0: f55c a8be ca3c 4abe db52 0f3f feee acbc
000002c0: 99aa 98bd b0f9 8cbe d8ec 4ebd 3a40 713d
000002d0: ce71 683e 99ee 423e 959b 35bd 064e f03a
000002e0: 0cf3 b23d 7978 74be 4765 dbbe dec6 3abe
000002f0: d9ae 82bd 03b5 f8bd 2d21 813e d53d ed3e
00000300: cfe1 6dbe 3f4e 303e 8142 623e fa69 2c3d
00000310: 5782 923e 9101 c93d 1955 903d dad5 b1be
00000320: 4cf3 95be 84be 34be aa08 9b3d 0527 49be
00000330: 7e92 94be 6c8c 91bd daad 893e 3665 91bc
00000340: 96d2 843e 64cd 003e 7500 c1bd 461d 46bf
00000350: f576 e73d 48e6 54be b797 75bc 4cfa 843d
00000360: 625e 2d3d 1cc7 9cbb 4197 c83e 5559 293d
00000370: 8527 a4be 0640 d33e 5af1 dd3e 3d01 84be
00000380: b623 07be 2140 33bc ba66 0abe feef 853e
00000390: cfe6 14be e984 083c 33a2 e9be f8d1 603e
000003a0: 381d 30be c833 cabd 80b4 123e 8cd2 28be
000003b0: 56ea 233d bc9e b0be af7a 313c 13c0 81bd
000003c0: cfea 7abe 4151 a13e b9b4 88be 9655 0cbd
000003d0: 0131 b43d 6b88 823d 4f40 773c 7d89 92be
000003e0: 2fd3 f7bd 5e2b 4f3c 18f6 87be 6319 803e
000003f0: 7d48 63be cb4a ad3e afa0 26bd a336 e6bc
-0.26503485 0.30809402 -0.08970803 -0.2300239 0.1888492 -0.10900616 0.007826317 -0.24971181
-0.009920499 -0.16793221 0.25031242 -0.07362119 -0.08176968 0.43686423 0.28042725 0.2816289
-0.32507837 -0.24012603 -0.091845244 0.025074758 0.09998283 0.17013864 -0.18636481 0.03285975
0.050739326 0.24870789 0.15397437 -0.057986308 -0.0853165 0.0817379 -0.017286526 -0.23963787
-0.38730708 0.17435127 0.031519067 -0.36894172 0.36257005 0.5509922 0.16963395 0.24569914
-0.041345578 0.29322374 0.16820975 0.043075014 -0.19740058 -0.1258941 0.031297084 -0.17132887
-0.09055557 -0.04417361 -0.18331023 0.06710239 -0.26065877 -0.031190028 0.16187435 -0.34201303
0.21761 0.28645915 -0.3919271 0.005665914 -0.25828892 0.23474115 0.06380069 0.14198902
0.038184498 -0.099500835 -0.326155 0.06574592 -0.109658405 -0.18925032 -0.024416205 0.33051002
0.07233565 0.31290123 0.12521286 0.021723064 0.015646268 0.10570157 -0.111596376 0.090612255
-0.08786983 -0.1017538 0.1739989 -0.053749733 0.13231918 0.15987906 -0.07137483 -0.23272356
-0.36934087 0.02986597 0.18669522 0.102460526 -0.16592427 -0.038825054 0.26093808 -0.095679924
0.2433069 0.07221221 -0.21489073 -0.11782725 -0.18804984 0.08482634 -0.2733496 0.05499266
0.13497075 0.19693235 0.20297883 0.28917474 -0.14282085 0.36985502 -0.0028773604 -0.15640426
-0.14287294 -0.41149178 0.32957083 0.016190466 0.110034265 0.10627693 -0.16566269 0.0003706333
0.057979416 -0.09358913 -0.15645196 0.22708687 -0.42135283 0.09975396 0.18405184 -0.23071523
0.10204834 -0.10685285 0.26253483 0.020812305 0.24703456 -0.040177252 0.13130552 0.094924
-0.04707263 -0.0109971175 -0.11916838 0.17064162 0.18281357 -0.32247669 -0.17978574 0.112334065
-0.5446913 -0.008400565 0.054165833 0.09131944 0.08510524 0.14857168 0.03757935 -0.17420918
0.11350215 -0.20773835 0.10272476 0.29394484 0.21593724 -0.024680905 -0.29960668 -0.14168097
-0.06837666 -0.35918245 0.37463516 -0.29553458 0.3327879 -0.00693335 -0.0031610008 0.25604343
-0.15300182 0.00015565548 0.04940897 -0.36681437 -0.3288342 -0.19749752 0.559858 -0.021110054
-0.07454414 -0.27534246 -0.05051884 0.05889914 0.22699663 0.1903633 -0.044337828 0.00183338
0.08737764 -0.23874082 -0.42850706 -0.18239924 -0.06381006 -0.121439 0.25220624 0.46336237
-0.2323067 0.17217349 0.22095682 0.042093255 0.28615066 0.09814752 0.07047481 -0.34733468
-0.29287183 -0.17650801 0.07570012 -0.19643791 -0.29018015 -0.071068615 0.2689045 -0.017748456
0.25941914 0.1257835 -0.09423915 -0.7738842 0.11301986 -0.2079097 -0.014989785 0.06493053
0.04232634 -0.004784478 0.39177898 0.04134496 -0.320614 0.41259784 0.433482 -0.25782195
-0.13197216 -0.0109405825 -0.1351575 0.26159662 -0.14541171 0.0083324695 -0.4563156 0.21955097
-0.17198646 -0.09873158 0.14326668 -0.16486567 0.040018402 -0.34496105 0.010832473 -0.063354634
-0.24503635 0.31507304 -0.2670038 -0.03426131 0.08798409 0.06373676 0.015091016 -0.2862052
-0.12100827 0.012644617 -0.26554942 0.2501937 -0.22195621 0.33846125 -0.040680584 -0.028102225

gnn_base.gnn.gnn1.lin_value.bias f4 [48]
00000000: cbf8 9b3e 4c68 7eba 58e3 9abe 6f8a f1bc
00000010: ae2d 363e e778 843d 4b74 1d3e 32e5 f0bd
00000020: 0bcb 93be c302 c73d 7517 00bd c5ad f63d
00000030: b4be e1bd 22a0 91be a550 3e3e 4bb9 e93d
00000040: 55a6 873e d412 90be 1060 72be 9d9a 2ebd
00000050: b8f4 15be 3a2d 343e d1bf 093e c7d6 a53d
00000060: bc13 0dbe 1a01 96be f58e 50be cb80 253d
00000070: b7f9 e7bc a607 433c 002a 46bd 16de 6e3e
00000080: 7de1 983e 92ef 323e f622 1fbd 3ed4 50be
00000090: 2f7e a6bd 00c7 e8bd 7963 463d da6a 21be
000000a0: 1410 95bd fd77 d93b 6b50 43be a2ae 8b3c
000000b0: bbf4 453a 0247 53bd 859d 16be 0835 003d
0.3046325 -0.00097048725 -0.30251575 -0.029484956 0.17790863 0.06468373 0.15376393 -0.117624655
-0.28865847 0.09717324 -0.03127237 0.12044863 -0.11022702 -0.28442484 0.18585451 0.11412295
0.2649409 -0.28139365 -0.23669457 -0.04262792 -0.14644134 0.17595378 0.13452078 0.08097606
-0.1377706 -0.29297715 -0.20367034 0.04040603 -0.028317316 0.011903679 -0.048379898 0.23326907
0.29859534 0.17474201 -0.0388517 -0.20393464 -0.08129536 -0.11366081 0.04843471 -0.15763417
-0.07278457 0.006636618 -0.19073646 0.017051045 0.00075514213 -0.05158139 -0.14708526 0.031300575

gnn_base.gnn.gnn1.lin_edge.weight f4 [48, 1]
00000000: 2a8d c33e 8b89 af3e a851 39bf a8b6 413f
00000010: e608 1ebf e4b5 7e3f c89b c9be 572c 553f
00000020: 2cbf 043f 4823 e9bd 65ff 043f 3d05 543f
00000030: 0c7f 5fbf 202e ff3d 9b4d 2d3f 0b5c 15bf
00000040: 8a7b 7c3e dde2 1f3f 65cb 5ebf 3165 f53e
00000050: 5a81 92bf 4c0a 393f d230 3cbf e193 e8be
00000060: 6d57 2d3e 1b20 67bf 230f 39be 89c9 bcbe
00000070: 9a8d 723e 6fcb e2bd ac9c 6cbf 9599 37bf
00000080: 78ee 5dbe b7dc c83e 3261 34bf c95d 2dbf
00000090: 8be6 5a3e c96d ffbe 41da 1abf e852 91bf
000000a0: 0492 a0be 1e8d 59bf 8497 a0ba f516 4b3f
000000b0: 2f30 b73e 0275 61bf ad92 633f 4ef9 adbf
0.38193637 0.34284624 -0.7239022 0.75669336 -0.6173233 0.99496293 -0.39376664 0.8327078
0.51854205 -0.113836825 0.519522 0.82820493 -0.87303233 0.124599695 0.6769654 -0.5834357
0.24656501 0.6245554 -0.87029105 0.47928765 -1.1445725 0.72281337 -0.73511994 -0.45425323
0.16927882 -0.90283364 -0.1807218 -0.3687251 0.23686829 -0.11073958 -0.9242656 -0.7171872
-0.21673 0.39230892 -0.7046081 -0.6772123 0.21377008 -0.49888447 -0.6048928 -1.1353426
-0.313614 -0.8498095 -0.0012252186 0.79331905 0.3577895 -0.88069165 0.88895684 -1.3591707

gnn_base.gnn.gnn1.lin_skip.weight f4 [16, 16]
00000000: 4553 c7be 5aa1 123e 7d65 353e 6b3c 393e
00000010: 6b2e 46be f4f9 22be 6113 d7be 8f1a 0a3c
00000020: 5315 95be 8a16 92be 61f3 883d bae0 4bbe
00000030: 99a6 e33d 5335 1f3d 26c1 9b3d 2812 c93e
00000040: c6cb 703d 930b 8dbd cc47 e7bb ce56 0dbf
00000050: de88 df3e 29f9 b1be 03c0 52be 26d2 87be
00000060: f864 63be d4a6 9bbe 903d 363e 6e10 6a3e
00000070: 4b4f 98be 9c5e 3f3d 0b1d 7f3d e7ae 9cbe
00000080: 8155 aebd 944e 1c3e ebd6 aebd 5f53 39bd
00000090: 5713 c53d 83e7 093f 40ca 2dbe 055d 763d
000000a0: 7439 b2bd a165 10bd c08a 00bd 4b64 55be
000000b0: f295 a1bb a2e4 ecbe 8782 a23d b8dc 90be
000000c0: a49c 193e 5177 193e 2183 3cbe 3a9f 563e
000000d0: e700 62be 9542 5bbd d65b f13d edeb 28be
000000e0: 4dd0 553e 2c46 6d3c 3081 21bf 538e a93e
000000f0: 6337 25bc f250 db3e 64fb 10be fbb3 61bc
00000100: 74ce 09bd 3af5 8bbc 564b a1be 8a4c 8b3e
00000110: cedc aabe 3c79 70bd bd0d 9f3d 42a1 8cbe
00000120: 8928 64be 5618 ccbd b334 3c3b c20e 083e
00000130: ea3d 853e ae57 793e 41b3 5ebd a6c6 96bb
00000140: 7f0e c23d 03e8 e6bd 2424 38be 340c 5bbf
00000150: c50d 703e d585 9ebe 1d5f c2bd db0a b73d
00000160: 7f14 8abe 67bc 583d 08c7 623e 606d f53d
00000170: ca54 a1be c492 773e c0b8 ac3c 4af5 07bf
00000180: 1046 4a3e a23e 76be 0183 bc3e 3702 82bb
00000190: c779 283e 3c54 9cbe 4e5f 663e 3bec a1bd
000001a0: 5e91 d0be 3452 7cbd 7fb1 d23e 1442 d03d
000001b0: ff5c ca3b a25f f83c f659 893d d77b 83be
000001c0: eb3a 08be 1bd2 13bf 1d4e 133e f95b 633d
000001d0: 15ee eb3e 4ec1 80be b842 25be 0a1f 933e
000001e0: 0de7 0fbd 4094 ba3d e87a 863e fbca 703c
000001f0: cd40 59bd e302 e3bc 7042 c93e d98b 2ebe
00000200: ffad 173e e139 25bf 26ca 0bbb aa6f 4c3c
00000210: e647 94be a70f e93d eca1 fa3e f767 8a3e
00000220: 294b 4f3d c423 1bbd ca9a 0e3e a8f7 f63d
00000230: 4106 b3be 4249 bdbe 99f8 f33e b994 093d
00000240: b288 353e c460 1dbf 6ef7 a9bd c47e cbbe
00000250: 3ba7 e03d 7c5a 963e 8fc7 d33d 3752 103f
00000260: 6474 a83e 921b 063e ffa3 a7bc 1f3e 6c3e
00000270: 46f6 bebd 6e0c 173d 6e40 5bbe b8eb 823e
00000280: 016f 62be 98a2 30be 6b28 9b3d 54eb 3dbe
00000290: ec9c 483e 2a44 c93e c6e9 d5bc 9d21 843d
000002a0: a9e5 9e3d 629a 8a3e 6e85 e23d 753b aabe
000002b0: 0889 f6be 8079 f6be 16a4 d63d 7acd 22be
000002c0: 6527 e5bb d051 e73d 1eed d53d 1933 13be
000002d0: 9358 3fbd fd6b ee3e 35bf 973e 7e65 e33d
000002e0: 066f 043e f46e 12be 589d c6be f24d 2dbe
000002f0: 9b29 49be 53af ca3d 17ba 3c3e dbbe ee3e
00000300: f675 c2bc 29f2 42be 758a 873e 1933 99be
00000310: ca9e 79bd 3f37 1bbd 691b 7b3d 5b57 94bd
00000320: 87ac 11be e924 0cbe 698a 623e bdc3 6abe
00000330: 0e23 493e db9a eb3e 7a2d 333e acf7 36be
00000340: a637 a33d bfbe 39be 6cfa 97bd 82b1 bfbc
00000350: 3f65 d13c 61b0 1fbb bc12 9cbd 5e82 74bd
00000360: eae1 b53d 8f97 843e 96af ce3c 4645 25bb
00000370: 0082 ffbd ecd6 663e 2c62 7b3e 5c6b a0bd
00000380: ab34 df3d f70e dbbe e94e 823e 176c bdbe
00000390: b259 aabc 326b cfbd 1257 3a3e 6bc1 b23d
000003a0: d645 cdbe 86ef 46be 0106 893e 9ad5 293d
000003b0: 9135 31be 97df 30be 9112 033f 823c 4cbd
000003c0: 076b 43be cadd 84bd a095 513d e022 ba3c
000003d0: 70af a2be 28d3 573d 1759 933c da04 35be
000003e0: 1290 42bc 69fa 16be c902 41be 91b3 58be
000003f0: 5665 803e 50a9 d63e da22 8abe 42c8 1e3e
-0.38930717 0.14319363 0.17714496 0.18089454 -0.19353645 -0.15915662 -0.42006972 0.008429184
-0.29117832 -0.2853282 0.06687046 -0.19909945 0.1111576 0.038869213 0.076051995 0.39271665
0.058788083 -0.06886973 -0.0070581194 -0.5521058 0.4365911 -0.34760407 -0.20581059 -0.26527518
-0.22206485 -0.30400717 0.17796922 0.2285783 -0.29747996 0.046721086 0.062283557 -0.3060219
-0.08512402 0.1526435 -0.08537086 -0.045245524 0.096228294 0.53868884 -0.16971684 0.060147304
-0.087023646 -0.03525317 -0.031382322 -0.2083904 -0.004931205 -0.46268183 0.07935052 -0.28293395
0.1500116 0.14986922 -0.18409397 0.20959178 -0.22070657 -0.053530294 0.117850944 -0.16496249
0.20880242 0.014482062 -0.6308775 0.33116397 -0.010084006 0.42835194 -0.14158398 -0.013775821
-0.033644155 -0.017084707 -0.3150279 0.27206832 -0.33371586 -0.058709368 0.07766292 -0.2746678
-0.22281088 -0.09965579 0.0028717935 0.1328688 0.260238 0.24349853 -0.05437017 -0.0046013175
0.09475421 -0.112747215 -0.17982537 -0.85565495 0.23442753 -0.3096148 -0.09490798 0.089376174
-0.26968762 0.05291405 0.22146237 0.11983752 -0.3151 0.2417708 0.02108419 -0.53108656
0.19753289 -0.2404733 0.36818698 -0.003967549 0.16452704 -0.30533016 0.22497293 -0.079063855
-0.40735906 -0.061601833 0.41151044 0.101688534 0.006175637 0.030319039 0.06706612 -0.2568042
-0.13303725 -0.5774247 0.14385267 0.055507634 0.4608008 -0.2514748 -0.16138732 0.28734618
-0.035132457 0.09110308 0.26265645 0.014696832 -0.053040314 -0.027711337 0.393085 -0.17045535
0.14812468 -0.6454144 -0.0021330207 0.012477795 -0.28961104 0.113799386 0.48951662 0.27032444
0.050608788 -0.037875906 0.13926235 0.120589554 -0.3496571 -0.36969954 0.47650602 0.0335891
0.17727926 -0.6147578 -0.082991466 -0.39745152 0.10969397 0.2936591 0.10340797 0.5637545
0.329013 0.13096455 -0.020463942 0.23070572 -0.09324317 0.03687709 -0.21411297 0.25570464
-0.22112657 -0.17249525 0.075760685 -0.18546802 0.19591111 0.39309818 -0.026112448 0.06451724
0.07758648 0.2707091 0.11060606 -0.33248487 -0.48151422 -0.48139572 0.10480516 -0.15898696
-0.0069932216 0.11294901 0.10445617 -0.14374961 -0.04671533 0.46566764 0.29638067 0.111033425
0.12932977 -0.14300138 -0.3879192 -0.16924265 -0.19644777 0.09896722 0.18430363 0.46629986
-0.023737889 -0.1903769 0.26472822 -0.29921797 -0.06094245 -0.037894484 0.061305437 -0.07243224
-0.1422597 -0.13685955 0.22123112 -0.2292623 0.19642279 0.46016583 0.17497817 -0.17867917
0.079695985 -0.1813917 -0.07420811 -0.023400072 0.025560973 -0.0024366605 -0.07620761 -0.05969464
0.0888098 0.2589688 0.02523021 -0.0025218292 -0.124759674 0.22542924 0.24549168 -0.07832977
0.108987175 -0.42784855 0.2545083 -0.36996529 -0.020794723 -0.10127868 0.18197277 0.08728298
-0.40092343 -0.19427308 0.26762393 0.041463472 -0.1730559 -0.17272793 0.51200205 -0.049862392
-0.19083796 -0.064876154 0.051168084 0.022721708 -0.31774473 0.05269161 0.017986817 -0.17677632
-0.011875169 -0.14743961 -0.18848719 -0.21162249 0.25077313 0.4192605 -0.26979715 0.1550608

gnn_base.gnn.gnn1.lin_skip.bias f4 [16]
00000000: b37d 213e 0ab9 28be 1500 4bbe 01ae 62bd
00000010: 03d1 ac3d 6913 503e ae74 2d3e abe2 4ebe
00000020: 2378 8f3d 8697 78be 3553 1dbe 2464 57be
00000030: a31a c23d 4cdf 9cbd 4434 07be 6e49 27be
0.15770607 -0.16476837 -0.1982425 -0.055341724 0.08438303 0.20319904 0.16939041 -0.20203654
0.07005336 -0.24276552 -0.15363772 -0.21034294 0.09477737 -0.07659778 -0.13203532 -0.16336605

gnn_base.gnn.gnn2.0.lin_key.weight f4 [48, 16]
00000000: 0e88 9fbd 7211 0d3c f814 61be 9b31 373e
00000010: 146a 00be 7aab 18be 76d3 1e3d cba1 d9bd
00000020: a30b 303d 83f4 25be fe30 733e 5772 0ebe
00000030: 0156 7b3b 524c 61be 689f 563d a9b6 733e
00000040: 13c9 3cbe c339 d037 b180 e1bc 195d 2e3c
00000050: ecf1 14bd 0c55 943e 34ba 4ebd d3cd d53d
00000060: 4f6c 57be 6802 25be d5d1 2fbe d8f9 553d
00000070: 3142 913d 0c97 733e e947 993d 3fbe afbd
00000080: 380d b7bc 6a66 b6bd aee0 c2bd 3bcf 8b3c
00000090: e9d4 953c addf bdbe d5b4 0abd 0576 553d
000000a0: fdae 15bd fbac 82bc 386f 8fbe 7088 8dbd
000000b0: 8a80 56be 4e13 833e e1c9 3b3e 7126 66be
000000c0: 6aaf 27be 80f7 8dbe 30e3 113e da7a 253d
000000d0: 2823 94be da5d 00be a4e5 173e 3421 a1bc
000000e0: 9210 8dbe 6886 0a3e 099d 603e cacb 613e
000000f0: 63f9 303c 7f7d 85bd 67b0 22bb 22e6 c33d
00000100: 00d1 f13d e923 9bbe 8c88 043e 736b 603e
00000110: f5da 83be baea 12be a7f9 4e3d c3f6 823d
00000120: aa36 9ebe 191d f13d 373e 1b3e 88c9 5a3d
00000130: 37fb ca3d 50ff ad3d 0c5e 9abc 70b8 2d3e
00000140: c8c3 cbbc 89b9 d6bd 9187 ebbc fb02 ef3a
00000150: 0062 063e 346b 80be ca45 01be 3ab1 133e
00000160: d362 973c 8f1d 453e 1ed5 9abc b7f1 bcbd
00000170: f3a2 633e c19d 56be 87f0 883c 03da 6d3e
00000180: 615a c2bd 1449 2cbe 7e65 623e a8c4 873c
00000190: 773b 82be a080 53be 1544 9dbe 746d edbd
000001a0: abd8 543d 9367 343d 20a5 61bd ff13 493c
000001b0: 27e5 e13b afba 14bd e6dd 1fbe fe5e c23b
000001c0: eefa 3ebc b4e2 1dbd 2eaa 94bd a417 033e
000001d0: 6cb2 91bd f109 98bd 2a9d b2bd ee3c 233e
000001e0: f8f9 2b3d f43b 923d b055 a73c 0817 35be
000001f0: 40de 103d c37b 62be ca19 a2bd fd0f 833e
00000200: 9dba 91bc ad52 5f3e a69d 1fbe 2bae 8e3e
00000210: 9fc5 e43c 73eb 04be e35d 9bbe 26a2 2cbe
00000220: c854 e23b 6867 ab3e 6245 5ebe 4a8e 15be
00000230: 2530 973d 29e7 aabd 4361 87be 5065 1dbe
00000240: 0b64 0a3e 2eb1 98be aa69 83bd 9827 b43d
00000250: 9048 563e b3c8 12be 6124 503e 6658 e43c
00000260: d661 103e 087b a4bd 7b7f a8bd 73c0 653e
00000270: 7756 6dbe 9af9 893d 4714 f8bd f9af 0c3d
00000280: b104 043e fc7b 47be 708c 22bd cc6e f4bd
00000290: e442 3d3e 4be5 a5bd cad8 86bc 8d2c 8dbd
000002a0: 165e 803e ae8c 7e3e 70b7 ec3c 0b23 f33d
000002b0: 4f71 803e bcc5 29be 0653 1f3d 85b9 863e
000002c0: 4bd2 fabd 66a9 28be a906 5c3e 3689 513e
000002d0: 7d0b 97bc 4ddf 883e eeaf d9bb 8a51 28be
000002e0: e078 74be aec9 4c3e 023d b0bd 38b4 703e
000002f0: 7a27 023b 3169 313e f11c 5f3d 4006 2abe
00000300: 78eb 80bd 3278 4abe 0377 7dbe ee3e e9bd
00000310: 403a 3ebe eecc 7dbe 7d04 3f3e 1eff aebd
00000320: 6332 fa3c 4d42 e5bc 953c 46be c759 82bd
00000330: 1f24 edbd 760e bc3d 6bf1 893e 95fb 98bd
00000340: d759 d83d 91de 2b3d 3fd6 0c3e 8400 023d
00000350: eab9 b93d cf5b 8ebe 8433 a0bd 8b8e 493e
00000360: ea40 b23d bafc 833d 9dc8 0e3e b2a3 603e
00000370: bdc6 9c3d 0fef 1dbc af3e e4bd abcf 873e
00000380: ada0 833e 2605 453d 7d7a 68be 59ad 243d
00000390: ae6f 1bbe 599a 7bbe 2e54 a7be a90a 1fbe
000003a0: a156 263e c83c 733e 9837 3fbe c92f 26bd
000003b0: 0094 ba3d 4812 2e3e 3a0f ac3d 9b3f b0bd
000003c0: 9b2b 8dbd 6dff e63d 45ec 453d f938 19be
000003d0: cbe9 a9bd 7404 dcbd fd75 833e 58c1 9fbd
000003e0: 42be 1b3d 8642 613b 58e7 4dbe 6682 98bd
000003f0: ce06 923d e7c9 c0bd 4dc9 503e 1ecd 423d
-0.07789622 0.008610116 -0.21980655 0.17890017 -0.12540466 -0.14909163 0.038775884 -0.10626563
0.042979848 -0.16206555 0.23749158 -0.13910805 0.0038350823 -0.2200177 0.052398115 0.23800148
-0.18436079 2.482243e-05 -0.027527185 0.010642313 -0.036363527 0.28971136 -0.050470546 0.104396485
-0.2103741 -0.16114199 -0.17169888 0.052240223 0.07092703 0.23788089 0.07484419 -0.085812084
-0.02234517 -0.08906253 -0.095155105 0.017066589 0.01829 -0.37084714 -0.03386386 0.052114505
-0.036543835 -0.015951624 -0.2801454 -0.06910789 -0.20947471 0.25600666 0.1833873 -0.22475602
-0.16375509 -0.2772789 0.14246821 0.040400364 -0.28933072 -0.12535802 0.14833695 -0.019669153
-0.27551705 0.13527834 0.21934904 0.22050396 0.010801646 -0.06518077 -0.0024824382 0.09565379
0.11807442 -0.30300835 0.12942713 0.21915989 -0.25752988 -0.14347354 0.050531056 0.06394722
-0.3090108 0.11773128 0.15160452 0.05341485 0.09911197 0.084959626 -0.018843673 0.16964889
-0.02487363 -0.10484607 -0.028751167 0.0018235141 0.13123322 -0.2508179 -0.12624279 0.14423075
0.01847974 0.19249557 -0.01890045 -0.09225791 0.22230129 -0.20958616 0.016716255 0.23227696
-0.09489895 -0.16824752 0.22109029 0.016573265 -0.25435993 -0.20654535 -0.30716005 -0.11593142
0.051964443 0.04404409 -0.055089116 0.012272834 0.006893772 -0.036310848 -0.15611991 0.005931734
-0.011656506 -0.03854628 -0.07259022 0.12801987 -0.071141094 -0.07423771 -0.08721383 0.15941212
0.041986436 0.071403414 0.020426601 -0.17684567 0.035368204 -0.22117524 -0.07915075 0.25598136
-0.01778918 0.21808882 -0.15587482 0.27867255 0.027926264 -0.12980442 -0.30345067 -0.1685873
0.0069070794 0.3347733 -0.21706155 -0.1460506 0.0738223 -0.083448716 -0.26441392 -0.15370679
0.13514726 -0.29822677 -0.06416638 0.087966144 0.20926118 -0.14334373 0.20326377 0.027874183
0.14099821 -0.08031279 -0.0822744 0.22436695 -0.23177515 0.06737061 -0.121132426 0.034347508
0.12892415 -0.1948089 -0.039684713 -0.11935195 0.18482548 -0.08100375 -0.016460795 -0.06893263
0.25071782 0.24858353 0.028896064 0.11871918 0.25086448 -0.16579336 0.038897537 0.26313415
-0.122471415 -0.1647087 0.21486916 0.20462498 -0.018438095 0.26732865 -0.006643287 -0.16437355
-0.23874235 0.1999881 -0.08605386 0.23506248 0.0019859956 0.17325284 0.05447096 -0.16603947
-0.06294912 -0.19772413 -0.2475243 -0.11388956 -0.18576908 -0.24785206 0.18654056 -0.085447535
0.030541604 -0.027985716 -0.19359048 -0.0636478 -0.11579155 0.09182446 0.26942 -0.074698605
0.105640106 0.041960303 0.13753603 0.031738773 0.090686634 -0.2780442 -0.07822326 0.19683282
0.087037876 0.06444688 0.13943715 0.21937445 0.07655094 -0.009639516 -0.111447684 0.26525626
0.25708523 0.048100613 -0.22702976 0.04020438 -0.15179321 -0.24570598 -0.32681412 -0.1553141
0.16243984 0.23753655 -0.18673551 -0.040572915 0.0911026 0.16999161 0.08401342 -0.08605882
-0.06893083 0.11279187 0.048321027 -0.1496314 -0.082965456 -0.10743037 0.25675955 -0.07800549
0.03802324 0.0034371926 -0.20107782 -0.074467465 0.07130204 -0.0941351 0.2038929 0.047558896

gnn_base.gnn.gnn2.0.lin_key.bias f4 [48]
00000000: bf66 65be dbde 9e3d e514 d7bd d3f5 28be
00000010: 515f 983d 66c2 ec3d b5e9 4e3e 3052 7a3e
00000020: 5b2c b13d d7ef 93bd 26a5 2fbd 393f 413e
00000030: 6004 47be 42ed 373e d33d ec3d cba8 c43d
00000040: f85d 9e3d ba8d 54be 27bc cc3d 67da 77bc
00000050: 8cda 553b 17cf edbd c605 393e 850c 2bbd
00000060: b337 043b dba5 5abe 238e 443e dd4d 6cbe
00000070: da77 1e3e 097c e03d a1fa 1b3d bbd9 77be
00000080: e616 ecbd 5c02 88bc cc9e 3dbe 33af a5bd
00000090: 66a3 67bd 99f3 9fbd d41d 323e f614 6a3e
000000a0: 3d47 e5bd ac29 043e 9b97 803c cd64 3b3e
000000b0: 3b3f 5fbe ccae fdbd fb26 4dbd 8ddf 753e
-0.22402476 0.0775735 -0.10502032 -0.16500024 0.07440055 0.11560516 0.2020634 0.24445415
0.08651038 -0.0722348 -0.042882107 0.18871774 -0.19435263 0.179616 0.115352295 0.09602507
0.07732767 -0.2075719 0.09996825 -0.015127755 0.0032631485 -0.11611765 0.18068609 -0.041759986
0.00201748 -0.21352331 0.19194846 -0.23076577 0.15475407 0.10961158 0.038080815 -0.24204151
-0.11527805 -0.016602688 -0.18517607 -0.08090057 -0.056552313 -0.078101344 0.17394191 0.22859558
-0.11195228 0.12906522 0.015697291 0.18300171 -0.21801464 -0.123868555 -0.050086003 0.24011059
